capsule-6073072/code/work_dir/recognition/kinetics_skeleton/FAI_GCN/epoch200_model.pt (torch, 74070 bytes, 22 tensors)

A f4 [3, 18, 18]
0	0x3e800000	0.25
1	0x00000000	0.0
2	0x00000000	0.0
3	0x00000000	0.0
4	0x00000000	0.0
5	0x00000000	0.0
6	0x00000000	0.0
7	0x00000000	0.0
8	0x00000000	0.0
9	0x00000000	0.0
10	0x00000000	0.0
11	0x00000000	0.0
12	0x00000000	0.0
13	0x00000000	0.0
14	0x00000000	0.0
15	0x00000000	0.0
16	0x00000000	0.0
17	0x00000000	0.0
18	0x00000000	0.0
19	0x3e800000	0.25
20	0x00000000	0.0
21	0x00000000	0.0
22	0x00000000	0.0
23	0x00000000	0.0
24	0x00000000	0.0
25	0x00000000	0.0
26	0x00000000	0.0
27	0x00000000	0.0
28	0x00000000	0.0
29	0x00000000	0.0
30	0x00000000	0.0
31	0x00000000	0.0
32	0x00000000	0.0
33	0x00000000	0.0
34	0x00000000	0.0
35	0x00000000	0.0
36	0x00000000	0.0
37	0x00000000	0.0
38	0x3e800000	0.25
39	0x00000000	0.0
40	0x00000000	0.0
41	0x00000000	0.0
42	0x00000000	0.0
43	0x00000000	0.0
44	0x00000000	0.0
45	0x00000000	0.0
46	0x00000000	0.0
47	0x00000000	0.0
48	0x00000000	0.0
49	0x00000000	0.0
50	0x00000000	0.0
51	0x00000000	0.0
52	0x00000000	0.0
53	0x00000000	0.0
54	0x00000000	0.0
55	0x00000000	0.0
56	0x00000000	0.0
57	0x3eaaaaab	0.33333334
58	0x00000000	0.0
59	0x00000000	0.0
60	0x00000000	0.0
61	0x00000000	0.0
62	0x00000000	0.0
63	0x00000000	0.0
64	0x00000000	0.0
65	0x00000000	0.0
66	0x00000000	0.0
67	0x00000000	0.0
68	0x00000000	0.0
69	0x00000000	0.0
70	0x00000000	0.0
71	0x00000000	0.0
72	0x00000000	0.0
73	0x00000000	0.0
74	0x00000000	0.0
75	0x00000000	0.0
76	0x3f000000	0.5
77	0x00000000	0.0
78	0x00000000	0.0
79	0x00000000	0.0
80	0x00000000	0.0
81	0x00000000	0.0
82	0x00000000	0.0
83	0x00000000	0.0
84	0x00000000	0.0
85	0x00000000	0.0
86	0x00000000	0.0
87	0x00000000	0.0
88	0x00000000	0.0
89	0x00000000	0.0
90	0x00000000	0.0
91	0x00000000	0.0
92	0x00000000	0.0
93	0x00000000	0.0
94	0x00000000	0.0
95	0x3e800000	0.25
96	0x00000000	0.0
97	0x00000000	0.0
98	0x00000000	0.0
99	0x00000000	0.0
100	0x00000000	0.0
101	0x00000000	0.0
102	0x00000000	0.0
103	0x00000000	0.0
104	0x00000000	0.0
105	0x00000000	0.0
106	0x00000000	0.0
107	0x00000000	0.0
108	0x00000000	0.0
109	0x00000000	0.0
110	0x00000000	0.0
111	0x00000000	0.0
112	0x00000000	0.0
113	0x00000000	0.0
114	0x3eaaaaab	0.33333334
115	0x00000000	0.0
116	0x00000000	0.0
117	0x00000000	0.0
118	0x00000000	0.0
119	0x00000000	0.0
120	0x00000000	0.0
121	0x00000000	0.0
122	0x00000000	0.0
123	0x00000000	0.0
124	0x00000000	0.0
125	0x00000000	0.0
126	0x00000000	0.0
127	0x00000000	0.0
128	0x00000000	0.0
129	0x00000000	0.0
130	0x00000000	0.0
131	0x00000000	0.0
132	0x00000000	0.0
133	0x3f000000	0.5
134	0x00000000	0.0
135	0x00000000	0.0
136	0x00000000	0.0
137	0x00000000	0.0
138	0x00000000	0.0
139	0x00000000	0.0
140	0x00000000	0.0
141	0x00000000	0.0
142	0x00000000	0.0
143	0x00000000	0.0
144	0x00000000	0.0
145	0x00000000	0.0
146	0x00000000	0.0
147	0x00000000	0.0
148	0x00000000	0.0
149	0x00000000	0.0
150	0x00000000	0.0
151	0x00000000	0.0
152	0x3eaaaaab	0.33333334
153	0x00000000	0.0
154	0x00000000	0.0
155	0x00000000	0.0
156	0x00000000	0.0
157	0x00000000	0.0
158	0x00000000	0.0
159	0x00000000	0.0
160	0x00000000	0.0
161	0x00000000	0.0
162	0x00000000	0.0
163	0x00000000	0.0
164	0x00000000	0.0
165	0x00000000	0.0
166	0x00000000	0.0
167	0x00000000	0.0
168	0x00000000	0.0
169	0x00000000	0.0
170	0x00000000	0.0
171	0x3eaaaaab	0.33333334
172	0x00000000	0.0
173	0x00000000	0.0
174	0x00000000	0.0
175	0x00000000	0.0
176	0x00000000	0.0
177	0x00000000	0.0
178	0x00000000	0.0
179	0x00000000	0.0
180	0x00000000	0.0
181	0x00000000	0.0
182	0x00000000	0.0
183	0x00000000	0.0
184	0x00000000	0.0
185	0x00000000	0.0
186	0x00000000	0.0
187	0x00000000	0.0
188	0x00000000	0.0
189	0x00000000	0.0
190	0x3f000000	0.5
191	0x00000000	0.0
192	0x00000000	0.0
193	0x00000000	0.0
194	0x00000000	0.0
195	0x00000000	0.0
196	0x00000000	0.0
197	0x00000000	0.0
198	0x00000000	0.0
199	0x00000000	0.0
200	0x00000000	0.0
201	0x00000000	0.0
202	0x00000000	0.0
203	0x00000000	0.0
204	0x00000000	0.0
205	0x00000000	0.0
206	0x00000000	0.0
207	0x00000000	0.0
208	0x00000000	0.0
209	0x3eaaaaab	0.33333334
210	0x00000000	0.0
211	0x00000000	0.0
212	0x00000000	0.0
213	0x00000000	0.0
214	0x00000000	0.0
215	0x00000000	0.0
216	0x00000000	0.0
217	0x00000000	0.0
218	0x00000000	0.0
219	0x00000000	0.0
220	0x00000000	0.0
221	0x00000000	0.0
222	0x00000000	0.0
223	0x00000000	0.0
224	0x00000000	0.0
225	0x00000000	0.0
226	0x00000000	0.0
227	0x00000000	0.0
228	0x3eaaaaab	0.33333334
229	0x00000000	0.0
230	0x00000000	0.0
231	0x00000000	0.0
232	0x00000000	0.0
233	0x00000000	0.0
234	0x00000000	0.0
235	0x00000000	0.0
236	0x00000000	0.0
237	0x00000000	0.0
238	0x00000000	0.0
239	0x00000000	0.0
240	0x00000000	0.0
241	0x00000000	0.0
242	0x00000000	0.0
243	0x00000000	0.0
244	0x00000000	0.0
245	0x00000000	0.0
246	0x00000000	0.0
247	0x3f000000	0.5
248	0x00000000	0.0
249	0x00000000	0.0
250	0x00000000	0.0
251	0x00000000	0.0
252	0x00000000	0.0
253	0x00000000	0.0
254	0x00000000	0.0
255	0x00000000	0.0

data_bn.weight f4 [54]
0	0x3f4b9f84	0.79540277
1	0x3f4a1304	0.78935266
2	0x3f4d9fb1	0.80321795
3	0x3f4b08b4	0.79310155
4	0x3f4e8b97	0.8068175
5	0x3f3db5bc	0.7410543
6	0x3f4ecc49	0.80780464
7	0x3f43b8c9	0.76453835
8	0x3f51e479	0.81989247
9	0x3f40ebdb	0.75359887
10	0x3f493ec2	0.78611386
11	0x3f46f2d6	0.7771429
12	0x3f4a1c9a	0.7894989
13	0x3f4fc403	0.81158465
14	0x3f499b52	0.78752625
15	0x3f441cdf	0.76606554
16	0x3f43bd07	0.7646031
17	0x3f40e50e	0.7534951
18	0x3f4dc1d7	0.803739
19	0x3f4fba3d	0.8114355
20	0x3f4ae67b	0.79257935
21	0x3f4e0485	0.80475646
22	0x3f49b651	0.7879382
23	0x3f4bc27e	0.79593647
24	0x3f4d5dee	0.8022145
25	0x3f507c05	0.8143924
26	0x3f495a96	0.7865385
27	0x3f4aa8ce	0.79163826
28	0x3f49a7ca	0.7877165
29	0x3f4bc0ce	0.7959107
30	0x3f42d788	0.76110125
31	0x3f4b4f3c	0.7941778
32	0x3f484158	0.78224707
33	0x3f4a3c78	0.7899852
34	0x3f4d5018	0.8020034
35	0x3f45ebd4	0.7731297
36	0x3f470ecb	0.7775695
37	0x3f48ec83	0.7848589
38	0x3f4bafa7	0.795649
39	0x3f475774	0.7786782
40	0x3f4a40a2	0.7900487
41	0x3f489d3f	0.7836494
42	0x3f360680	0.7110367
43	0x3f42a049	0.76025826
44	0x3f45bedd	0.7724436
45	0x3f472e5f	0.7780513
46	0x3f49776a	0.78697836
47	0x3f4e8f2c	0.8068721
48	0x3f4b3ccc	0.79389644
49	0x3f50da12	0.8158275
50	0x3f4a3252	0.7898303
51	0x3f4f2538	0.80916166
52	0x3f3c6154	0.7358601
53	0x3f3e1280	0.7424698

data_bn.bias f4 [54]
0	0xa80ec0eb	-7.924416e-15
1	0x2b9655c5	1.0681947e-12
2	0x278c5d58	3.895901e-15
3	0x26a5535e	1.1471772e-15
4	0xa8aa4b7d	-1.890653e-14
5	0xa658a79d	-7.516721e-16
6	0x28b28880	1.9821167e-14
7	0xab8c5c11	-9.973152e-13
8	0x274c8136	2.8380733e-15
9	0xa7a6e912	-4.632695e-15
10	0xa85b93a7	-1.2188959e-14
11	0x29178665	3.3645304e-14
12	0xb7787589	-1.4809318e-05
13	0x2942b7ef	4.323619e-14
14	0xa8347db0	-1.0019261e-14
15	0x27cd8d76	5.7052302e-15
16	0xab950469	-1.0588311e-12
17	0x2776fe22	3.4277124e-15
18	0x29563627	4.7564515e-14
19	0x29e64555	1.0226079e-13
20	0xa98901ee	-6.084357e-14
21	0xb00fa75d	-5.2260934e-10
22	0xab17d5bd	-5.39426e-13
23	0xa745c153	-2.7444043e-15
24	0xaf193661	-1.3934588e-10
25	0xb4737aa5	-2.2675756e-07
26	0xa937c4ef	-4.0804975e-14
27	0x28065c62	7.458527e-15
28	0xa7e8d1fd	-6.4620605e-15
29	0xa8de1844	-2.4657475e-14
30	0x36951361	4.442802e-06
31	0xa9a64ee6	-7.3855676e-14
32	0xa8639476	-1.2633224e-14
33	0xb77a15ac	-1.4906207e-05
34	0x2b224f7a	5.766426e-13
35	0xa88a76d2	-1.5372608e-14
36	0xa93cbf84	-4.19105e-14
37	0xaa22aa5a	-1.4447593e-13
38	0x29497f79	4.474153e-14
39	0x368bfa77	4.1716808e-06
40	0xa9d91d22	-9.6417896e-14
41	0xa7805816	-3.562264e-15
42	0xa952e4d3	-4.682784e-14
43	0x24559c37	4.6319332e-17
44	0x290994ed	3.0549283e-14
45	0x295e1e9d	4.9320455e-14
46	0x283fe5aa	1.065243e-14
47	0xa84e29ca	-1.1444359e-14
48	0xb034ffbf	-6.5847056e-10
49	0x298a36ac	6.137915e-14
50	0xa804f549	-7.38066e-15
51	0xb10e2259	-2.0683244e-09
52	0xaa5fe489	-1.9885668e-13
53	0x272079b7	2.2270442e-15

data_bn.running_mean f4 [54]
0	0x3ced52c4	0.02897013
1	0xbd4dedca	-0.0502756
2	0x3e2612c7	0.162181
3	0x3cf86346	0.030320775
4	0xbd00e877	-0.031471696
5	0x3e23742d	0.15962286
6	0x3c9a03f5	0.018800715
7	0xbd0254f7	-0.03181931
8	0x3e14fe1d	0.14550062
9	0x3c05ab83	0.008158567
10	0xbca1ff6e	-0.019775119
11	0x3e1bfb9a	0.15232697
12	0x3ba52511	0.005039819
13	0xbce996c5	-0.028514275
14	0x3e0e836a	0.13917318
15	0x3d29f258	0.041490883
16	0xbd00c6d6	-0.031439625
17	0x3e1579af	0.145972
18	0x3d54ca75	0.05195089
19	0xbcac255e	-0.021013912
20	0x3e14c94b	0.14529912
21	0x3d60240c	0.054721877
22	0xbd00b93e	-0.03142666
23	0x3e1031ce	0.14081499
24	0x3cc473b1	0.023980947
25	0x3c4b64d8	0.01241418
26	0x3df84264	0.12122038
27	0x3c7f6863	0.015588853
28	0x3cddffb4	0.027099468
29	0x3e076492	0.13221958
30	0x3cdcd796	0.026958268
31	0x3d572418	0.052524656
32	0x3dfecaa8	0.12440997
33	0x3d1dbb4f	0.03850871
34	0x3c4e1ef1	0.012580619
35	0x3df91f9a	0.12164231
36	0x3d465933	0.04842491
37	0x3cca85eb	0.02472206
38	0x3e065b74	0.13120824
39	0x3d268e71	0.040663186
40	0x3d4793f2	0.048725076
41	0x3ddd9632	0.10819663
42	0x3cd3f544	0.025873788
43	0xbd5a0b53	-0.053233456
44	0x3e2320d8	0.15930498
45	0x3d05710a	0.032578506
46	0xbd5fb8a4	-0.054619446
47	0x3e2c56eb	0.16830032
48	0x3cba2819	0.022724198
49	0xbd097d9b	-0.033567052
50	0x3dc0e724	0.094190866
51	0x3d19d6be	0.03755831
52	0xbd3c5966	-0.045983694
53	0x3df719fd	0.12065504

data_bn.running_var f4 [54]
0	0x3b4f12b0	0.0031596832
1	0x3c759119	0.014988207
2	0x3d41b0a9	0.047287617
3	0x3b540c55	0.0032355983
4	0x3c2e9acc	0.010657024
5	0x3d36a29c	0.04458867
6	0x3b773681	0.0037721696
7	0x3c31dd2d	0.010855955
8	0x3d19ea89	0.037577186
9	0x3b9b958d	0.0047480525
10	0x3c16f858	0.009214483
11	0x3d242246	0.04007175
12	0x3baedbdc	0.005336268
13	0x3c36a1d3	0.01114698
14	0x3d171559	0.036885593
15	0x3b4e71fb	0.0031501043
16	0x3c2d757a	0.010587091
17	0x3d1924eb	0.037388723
18	0x3b67bf21	0.0035361724
19	0x3c1111fe	0.008854387
20	0x3d18b8d8	0.037285656
21	0x3b640131	0.003479075
22	0x3c3979d3	0.011320549
23	0x3d16c2f8	0.03680703
24	0x3b84322f	0.0040343027
25	0x3babd4b1	0.0052438607
26	0x3cdcdc16	0.026960414
27	0x3b992856	0.004673998
28	0x3bb4f3c7	0.0055222246
29	0x3d029297	0.03187808
30	0x3ba47a85	0.0050194883
31	0x3be1eef6	0.0068949414
32	0x3d0286df	0.031866904
33	0x3b6adcfc	0.0035837283
34	0x3badb480	0.0053010583
35	0x3cd8d74c	0.026469849
36	0x3b8cf061	0.0043011163
37	0x3bb53750	0.0055302754
38	0x3d03522d	0.03206079
39	0x3b89761c	0.004194988
40	0x3bd4edff	0.006498098
41	0x3cd36ff3	0.025810217
42	0x3b4ae71c	0.0030960506
43	0x3c805d14	0.015669383
44	0x3d387713	0.045035433
45	0x3b44ad69	0.0030010587
46	0x3c83f6a9	0.016108828
47	0x3d4e91cd	0.050432015
48	0x3b4979de	0.0030742805
49	0x3c489bf8	0.012244217
50	0x3d18280f	0.037147578
51	0x3b42967d	0.0029691749
52	0x3c7cb6ee	0.015424473
53	0x3d354f6e	0.044265203

fai_gcn_networks.0.gcn.conv.weight f4 [96, 3, 1, 1]
0	0xa74486af	-2.7273476e-15
1	0x27ed9380	6.5940634e-15
2	0xa962b20f	-5.0336522e-14
3	0x2eae9f14	7.940862e-11
4	0x310985d5	2.0012199e-09
5	0xaff5e0c1	-4.4724938e-10
6	0xa6ff08a4	-1.7696522e-15
7	0x25f70cf7	4.2856455e-16
8	0xa514170e	-1.2844765e-16
9	0xb0dd5a3c	-1.6105512e-09
10	0x307f0aa3	9.2783575e-10
11	0xb2e6d400	-2.687193e-08
12	0xa4913af2	-6.298358e-17
13	0x23b5199c	1.9634905e-17
14	0xa315c05f	-8.118042e-18
15	0xae5a79c8	-4.9675625e-11
16	0xaebe88d5	-8.664506e-11
17	0xaee14408	-1.02439e-10
18	0x27172653	2.0976235e-15
19	0x29515e48	4.64891e-14
20	0xabdfd215	-1.5903412e-12
21	0x30d55c06	1.5523944e-09
22	0x30c1febd	1.4114999e-09
23	0x302139cc	5.8653593e-10
24	0xa991dd3d	-6.477672e-14
25	0x26d0a16e	1.4476655e-15
26	0xa6a3aca5	-1.1357192e-15
27	0x3220311a	9.32439e-09
28	0xb0952c1a	-1.0853711e-09
29	0x30543f3d	7.721502e-10
30	0x2d18e05f	8.69002e-12
31	0xab19f978	-5.4702727e-13
32	0x2b9dc515	1.1210222e-12
33	0x30a90243	1.2297011e-09
34	0x30e3eaa1	1.6583109e-09
35	0x31427d7e	2.830205e-09
36	0xaf6f51ff	-2.1766054e-10
37	0x31c4d6ab	5.7287557e-09
38	0xb1324883	-2.5943627e-09
39	0xac9e791b	-4.5040755e-12
40	0xad2a9505	-9.69647e-12
41	0xad1ec461	-9.024865e-12
42	0xb26190c4	-1.312964e-08
43	0xb2f0e748	-2.8044852e-08
44	0x3334b6f5	4.2075914e-08
45	0x25ea6a25	4.0664456e-16
46	0x264618ed	6.872883e-16
47	0xa65689fd	-7.4433174e-16
48	0xab326e5a	-6.3391447e-13
49	0x2bbae359	1.3279197e-12
50	0xac6be578	-3.352289e-12
51	0x2dc093ff	2.1893596e-11
52	0x2d93a57e	1.6785458e-11
53	0x2eca0cc7	9.188166e-11
54	0x28e26c0c	2.5137898e-14
55	0xace0bc14	-6.3873438e-12
56	0xabab032e	-1.2151163e-12
57	0x2e6a04bd	5.320965e-11
58	0x2ede1b71	1.0100266e-10
59	0xaadf41dc	-3.9658457e-13
60	0x2f0bf53b	1.27291e-10
61	0x2d9cdac5	1.78323e-11
62	0xae590f96	-4.935393e-11
63	0x25c17413	3.3558818e-16
64	0xa5d2e5b9	-3.658486e-16
65	0x23838cca	1.4262675e-17
66	0x2d015bdb	7.353197e-12
67	0x2c04eb20	1.8888849e-12
68	0xb2251591	-9.609168e-09
69	0xaf465e06	-1.8041399e-10
70	0x2fbb0cf2	3.40243e-10
71	0xaf05c31f	-1.21656e-10
72	0xb080bf32	-9.367567e-10
73	0x2ceba37e	6.697253e-12
74	0xab9d35ef	-1.117049e-12
75	0xb081ca92	-9.443559e-10
76	0x2f5cf220	2.0094904e-10
77	0x2f978ab0	2.7565283e-10
78	0xa3a77467	-1.8155475e-17
79	0x23bd9b26	2.0557129e-17
80	0xa1de8582	-1.5078644e-18
81	0xa447aa92	-4.3295725e-17
82	0x2611bb37	5.0560704e-16
83	0x253c7065	1.6344481e-16
84	0xa893da84	-1.6415045e-14
85	0x280a8306	7.68895e-15
86	0xa5c7e52e	-3.4676295e-16
87	0x28e8749e	2.5807749e-14
88	0x28462525	1.0999262e-14
89	0xa6d5f46f	-1.4846098e-15
90	0xae488cf0	-4.5599913e-11
91	0x2d9be272	1.7722022e-11
92	0x2cb89351	5.24595e-12
93	0x2d638908	1.2933883e-11
94	0xad90420f	-1.640024e-11
95	0x2d5ebb7a	1.2660867e-11
96	0xa8a8ff0d	-1.8762357e-14
97	0x280d6b4e	7.85034e-15
98	0xa5d65afb	-3.7184733e-16
99	0xaf74ae10	-2.225351e-10
100	0x31bb71a5	5.455336e-09
101	0xaf7bbd6d	-2.2895615e-10
102	0xa7023bf8	-1.8073633e-15
103	0x2657f1be	7.492073e-16
104	0xa5c3b625	-3.3950534e-16
105	0xb27fde74	-1.48935335e-08
106	0xb095f709	-1.0911388e-09
107	0x331357ce	3.4305963e-08
108	0xa57c2c51	-2.1872531e-16
109	0x259b7c79	2.697256e-16
110	0x23e54e85	2.4861484e-17
111	0xae5ed1fd	-5.0663463e-11
112	0xb00e08b4	-5.1671667e-10
113	0x2efe7247	1.15708824e-10
114	0x25db1e57	3.8011003e-16
115	0xabd731df	-1.5290511e-12
116	0xaace42a7	-3.66392e-13
117	0xb00e25b3	-5.1712873e-10
118	0x36154265	2.2241377e-06
119	0xb0819081	-9.427056e-10
120	0x275aef52	3.0383313e-15
121	0x28b85750	2.046597e-14
122	0xa57bdcce	-2.1845591e-16
123	0xb2875c81	-1.5758134e-08
124	0xb3617bb7	-5.2499413e-08
125	0x30b5ccd5	1.32277e-09
126	0xabca49bc	-1.4373429e-12
127	0x2c41e4f1	2.7554038e-12
128	0x296cef01	5.260983e-14
129	0xb206ff37	-7.857856e-09
130	0xb0ccc3d3	-1.489861e-09
131	0x2f84f923	2.4187682e-10
132	0x311531b6	2.171061e-09
133	0x312ec004	2.542948e-09
134	0xb13f7b0d	-2.7864104e-09
135	0xae9f5cb0	-7.2469475e-11
136	0x2c5b241b	3.1141814e-12
137	0x2d7a67db	1.4233915e-11
138	0x320a852c	8.062937e-09
139	0xb2b08fea	-2.0554541e-08
140	0x31bf9dc0	5.5767657e-09
141	0x26117ded	5.047764e-16
142	0xa61e2842	-5.487182e-16
143	0xa625914b	-5.7442783e-16
144	0xac0827a8	-1.9348776e-12
145	0x2bd714dc	1.5282458e-12
146	0x2810e550	8.04333e-15
147	0x2e6230a6	5.142966e-11
148	0x2d931005	1.671908e-11
149	0xae019a45	-2.9468223e-11
150	0x2880c52c	1.4296364e-14
151	0xac10c60b	-2.0573567e-12
152	0x2c0641fe	1.9079178e-12
153	0xade05b13	-2.5506297e-11
154	0xaed27368	-9.5701946e-11
155	0x2dbc41e1	2.1402382e-11
156	0xae8d0893	-6.413461e-11
157	0x2d38c348	1.050255e-11
158	0xae7dd7a5	-5.771707e-11
159	0x2557f052	1.8729701e-16
160	0xa467e5c4	-5.028476e-17
161	0x23c3191a	2.1152573e-17
162	0x29c2517e	8.629467e-14
163	0x2d472abb	1.1321328e-11
164	0xad8af8bc	-1.5799244e-11
165	0x2f11e67f	1.3269562e-10
166	0xb163bb3c	-3.3139278e-09
167	0xb007ba0a	-4.937709e-10
168	0x2cb9371c	5.2641346e-12
169	0xac11f734	-2.0742965e-12
170	0x2a8a405b	2.455838e-13
171	0xb047819f	-7.257998e-10
172	0xb0a07800	-1.1675638e-09
173	0x30980c16	1.1062891e-09
174	0xa5a964a9	-2.9385037e-16
175	0x24aed736	7.582505e-17
176	0xa31d2c18	-8.520324e-18
177	0x27653c93	3.1812971e-15
178	0xa723053d	-2.2623634e-15
179	0x2566dfe6	2.002518e-16
180	0xa85cea58	-1.22632685e-14
181	0x28de667c	2.4691397e-14
182	0xa72ff5d7	-2.4419399e-15
183	0xa7f8a173	-6.900887e-15
184	0x2798bc4e	4.2392635e-15
185	0x2685b17f	9.276839e-16
186	0xb27ec853	-1.4830294e-08
187	0x2dda8600	2.4843239e-11
188	0x2da8f68d	1.920888e-11
189	0x2da3ad02	1.8607785e-11
190	0x2cb2c471	5.0808737e-12
191	0xac9fe52d	-4.5444954e-12
192	0x2df1d355	2.7492378e-11
193	0xa66d71f1	-8.238031e-16
194	0xa5ab77d6	-2.9744975e-16
195	0x2e28d8ed	3.8391446e-11
196	0x3015d46e	5.4507765e-10
197	0x2f2fac06	1.5977272e-10
198	0xa46803c2	-5.0310164e-17
199	0xa4fc218a	-1.09344396e-16
200	0x23f2650c	2.6280488e-17
201	0xaff50872	-4.457124e-10
202	0xb0e21055	-1.6448306e-09
203	0x31d9b8d4	6.3365437e-09
204	0xa4684a1e	-5.036976e-17
205	0xa40f169e	-3.102734e-17
206	0xa0a2b13d	-2.7561154e-19
207	0xae2b9929	-3.9016932e-11
208	0x2d7daa1d	1.4419158e-11
209	0x2e13eb90	3.3633152e-11
210	0x2b3fbad3	6.81161e-13
211	0x2a0d3caa	1.2544363e-13
212	0xaab605ee	-3.233381e-13
213	0x2ffcf994	4.601587e-10
214	0x30d9a430	1.5835493e-09
215	0xb03450fa	-6.5598693e-10
216	0xa794175c	-4.110358e-15
217	0xa691b5df	-1.0110692e-15
218	0xa5aab8d1	-2.9615536e-16
219	0x3205f35a	7.796951e-09
220	0xb0f3fe48	-1.7752848e-09
221	0x328626f8	1.5617374e-08
222	0x2de06267	2.5509551e-11
223	0xa7ba4d50	-5.1709193e-15
224	0xa95054aa	-4.6258712e-14
225	0xb1359d34	-2.6428326e-09
226	0x31a5cb3a	4.825236e-09
227	0x3043d115	7.123771e-10
228	0x3084e6c9	9.669857e-10
229	0xb35144ab	-4.8724058e-08
230	0xb150b3eb	-3.0370255e-09
231	0xadef83c2	-2.7229666e-11
232	0x2ce601c6	6.53719e-12
233	0xb08ff92f	-1.0475442e-09
234	0x320d8548	8.237585e-09
235	0x33d6fbe0	1.0010967e-07
236	0xb180cb6a	-3.748416e-09
237	0xa6262a61	-5.7650254e-16
238	0xa73bb1a3	-2.604776e-15
239	0xa7524939	-2.9183048e-15
240	0xab3184d1	-6.306735e-13
241	0xacf14f53	-6.8584387e-12
242	0xae281635	-3.82185e-11
243	0x2df6af21	2.8044735e-11
244	0x2c8ac6eb	3.9442802e-12
245	0xad06f590	-7.671544e-12
246	0x2bc092b3	1.3683138e-12
247	0xac12d2bc	-2.086483e-12
248	0xab885853	-9.687896e-13
249	0x2d286eaf	9.574271e-12
250	0x2cd6876d	6.097281e-12
251	0xaabe1ca4	-3.3770653e-13
252	0xb0db5dce	-1.5961008e-09
253	0x2dcbb120	2.3157087e-11
254	0xae37ea54	-4.1817508e-11
255	0xa2c3a36a	-5.3027877e-18

fai_gcn_networks.0.gcn.conv.bias f4 [96]
0	0x324f87db	1.2079876e-08
1	0xb1c12996	-5.621767e-09
2	0xb138ee84	-2.6911104e-09
3	0xb2aaf81c	-1.9903432e-08
4	0xaf5ca569	-2.0067649e-10
5	0xb1444330	-2.8559946e-09
6	0xab43c198	-6.954658e-13
7	0x33138280	3.4344794e-08
8	0xb3ee4253	-1.1094803e-07
9	0xb377788a	-5.76188e-08
10	0xb0f9e6ab	-1.8182694e-09
11	0xb15f7746	-3.251857e-09
12	0xb26d1454	-1.3799838e-08
13	0xb2afd5a2	-2.046983e-08
14	0xb4530e17	-1.9656032e-07
15	0xb2914b0d	-1.691435e-08
16	0xae1c840f	-3.5587585e-11
17	0xb07f48dc	-9.2872e-10
18	0x2ca74c92	4.7549265e-12
19	0xb178d644	-3.6210546e-09
20	0xae2a5202	-3.8726362e-11
21	0xae44cce8	-4.4747234e-11
22	0xad2db7b7	-9.874704e-12
23	0xb14c63b3	-2.974258e-09
24	0xb47e7cce	-2.3700997e-07
25	0xb10cada3	-2.0471382e-09
26	0x2ee18a58	1.025639e-10
27	0xb3305f05	-4.1064613e-08
28	0xb390aff7	-6.7375304e-08
29	0xb311c1d1	-3.393672e-08
30	0x2f343d2c	1.6392637e-10
31	0xae19afd3	-3.4944336e-11
32	0x328295bd	1.5202085e-08
33	0xb1c55848	-5.743491e-09
34	0xb273e3e2	-1.4196276e-08
35	0xb2d0b247	-2.4295458e-08
36	0xb07ca8b0	-9.1916785e-10
37	0xb16ae591	-3.4181975e-09
38	0xac239536	-2.3246522e-12
39	0x32ee2021	2.7721457e-08
40	0xb411e713	-1.3588242e-07
41	0xb3847062	-6.167171e-08
42	0xb10abb79	-2.0188209e-09
43	0xb1efd998	-6.980553e-09
44	0xb286d299	-1.5695422e-08
45	0xb3092513	-3.1931517e-08
46	0xb4744e7e	-2.2752826e-07
47	0xb35f5e58	-5.200704e-08
48	0xaf1079a9	-1.3139946e-10
49	0xb00abea1	-5.047501e-10
50	0xad21232c	-9.1596e-12
51	0xb1b3b163	-5.229752e-09
52	0xb12fa9d6	-2.5562392e-09
53	0xaf65ae34	-2.0889318e-10
54	0x2d5bce9a	1.24945835e-11
55	0xb176234b	-3.5817773e-09
56	0xb4bea51c	-3.551039e-07
57	0xb13034fe	-2.5641493e-09
58	0x2f2cf72c	1.5731122e-10
59	0xb37d3902	-5.8958e-08
60	0xb3d466db	-9.8907286e-08
61	0xb2fafbcf	-2.921834e-08
62	0x2f248f5f	1.4966649e-10
63	0xae0fe5ba	-3.2718474e-11
64	0x319b2be2	4.5160826e-09
65	0xb1423e03	-2.8265965e-09
66	0x3217a803	8.827558e-09
67	0xb1840f45	-3.8434416e-09
68	0x2f80e0db	2.3442834e-10
69	0xb0c698ce	-1.4449826e-09
70	0xac63da6d	-3.237989e-12
71	0x31f5e717	7.1567103e-09
72	0x32b29f69	2.0794419e-08
73	0xb3647430	-5.319106e-08
74	0x2f1e66cd	1.4406538e-10
75	0x322736e9	9.7331645e-09
76	0xb246a2db	-1.1562146e-08
77	0xb1c83615	-5.8269145e-09
78	0x3543922d	7.2855875e-07
79	0x3163ff6e	3.3178043e-09
80	0xac81aa08	-3.6852778e-12
81	0x2e68ec89	5.2960778e-11
82	0x2d2f3fb1	9.961741e-12
83	0x2d1b9ef5	8.8460255e-12
84	0x2f1651bc	1.3671458e-10
85	0xaf6b75bd	-2.1414955e-10
86	0x2e28af20	3.835432e-11
87	0xb11a264e	-2.2431723e-09
88	0xb17efd23	-3.7105756e-09
89	0x311779b3	2.204257e-09
90	0x2e584683	4.917534e-11
91	0xb341283c	-4.4972907e-08
92	0x3199aaee	4.4723185e-09
93	0x326a33a7	1.3632337e-08
94	0x2f6f8e95	2.1787579e-10
95	0xae576638	-4.897613e-11

fai_gcn_networks.1.gcn.conv.weight f4 [192, 32, 1, 1]
0	0x2fd3aa8d	3.850186e-10
1	0x2ea05313	7.2907146e-11
2	0x2f32c27d	1.6258102e-10
3	0x2e04e210	3.021411e-11
4	0xac2d8052	-2.465601e-12
5	0x2ed1e433	9.544756e-11
6	0x28d7ed71	2.3972769e-14
7	0x32221409	9.4341965e-09
8	0x30b58007	1.3205871e-09
9	0x2f96c595	2.7425232e-10
10	0x2e3e5a71	4.3281326e-11
11	0xaf1e64ef	-1.4405875e-10
12	0x2e4bb2ad	4.6315552e-11
13	0xb11b57e2	-2.2605424e-09
14	0x31e0f824	6.5474683e-09
15	0x301e5b53	5.7609845e-10
16	0xabad1274	-1.2297511e-12
17	0x2c781365	3.5253686e-12
18	0x2a3defdc	1.686979e-13
19	0x2ea4a9dc	7.4880296e-11
20	0x2dfca1a6	2.872087e-11
21	0x2cb4b885	5.1363935e-12
22	0x2e3b0a0d	4.2527804e-11
23	0x2c5950a0	3.088231e-12
24	0x328c560d	1.6337276e-08
25	0x2cb29619	5.0757285e-12
26	0x2c66027f	3.2686351e-12
27	0x2fb61ba1	3.312524e-10
28	0x30924166	1.0641485e-09
29	0x2ffaba7d	4.5607243e-10
30	0x2e932f68	6.693207e-11
31	0x2ee56cc6	1.04330364e-10
32	0x300600e1	4.8750165e-10
33	0x2e2611f0	3.7759962e-11
34	0xaf7fe4e8	-2.3273439e-10
35	0x2f0280fa	1.1869253e-10
36	0xac247680	-2.3371582e-12
37	0xace36351	-6.4627544e-12
38	0xa9ac6caa	-7.6571846e-14
39	0x3224a3d5	9.5833075e-09
40	0x2f81aebe	2.3589125e-10
41	0x2f135702	1.3400484e-10
42	0x2e0c6ec5	3.1930698e-11
43	0x2dfb4013	2.8563851e-11
44	0x2eefc70d	1.090382e-10
45	0xb099911a	-1.1173455e-09
46	0x32100590	8.383168e-09
47	0x2fe71238	4.20316e-10
48	0xab782810	-8.8162897e-13
49	0x2b99f148	1.0938273e-12
50	0x2ad725b0	3.8217823e-13
51	0x2ee8298b	1.0557518e-10
52	0x2df28e06	2.7575286e-11
53	0xabce1868	-1.4643954e-12
54	0x2e8a2ca1	6.283441e-11
55	0x2c8aa214	3.94019e-12
56	0x318eb646	4.153466e-09
57	0x2cb4c6d0	5.1379803e-12
58	0x2b7d95e1	9.0091655e-13
59	0x30182030	5.534302e-10
60	0x2f99eb60	2.7997782e-10
61	0x3029d326	6.17819e-10
62	0x2e5230d7	4.779185e-11
63	0x2debd9cb	2.6813126e-11
64	0x249322de	6.3810155e-17
65	0x232bce4c	9.313614e-18
66	0xa40f6c4e	-3.109992e-17
67	0x23037d51	7.128061e-18
68	0x221d1b86	2.1292038e-18
69	0x22badce4	5.064928e-18
70	0x9ea5fcad	-1.7574559e-20
71	0x270624ac	1.8616116e-15
72	0x261bedcb	5.4098697e-16
73	0x2369c7ab	1.2673237e-17
74	0x239db7cc	1.7099815e-17
75	0xa49400c8	-6.418609e-17
76	0xa3aa4b9b	-1.8463457e-17
77	0x24a368f2	7.0867766e-17
78	0xa547ced5	-1.7330576e-16
79	0xa56cc995	-2.0538036e-16
80	0x257d9838	2.1995826e-16
81	0x209d9941	2.669825e-19
82	0x1f273b4d	3.5412678e-20
83	0x23c194f8	2.0988193e-17
84	0x2302bd2c	7.087373e-18
85	0x2288dd8b	3.709744e-18
86	0x236a3de1	1.2698269e-17
87	0x22062d77	1.8184455e-18
88	0x270f2027	1.9862666e-15
89	0xa0cdab4b	-3.4841703e-19
90	0x2165d15a	7.786529e-19
91	0x24d76a33	9.3421295e-17
92	0x255f85d1	1.9387506e-16
93	0xa511a4a9	-1.2632534e-16
94	0x2338f70a	1.00269725e-17
95	0xa406da01	-2.9241275e-17
96	0x2f15dc7f	1.3629807e-10
97	0xaf66f614	-2.1005803e-10
98	0xae0bf2f3	-3.1820723e-11
99	0x2d348692	1.0261696e-11
100	0xacfc6a8f	-7.174101e-12
101	0x2e0ebc7e	3.2454477e-11
102	0x29ae983d	7.7535614e-14
103	0x32667473	1.34142395e-08
104	0xb0138ce9	-5.3678534e-10
105	0x2f21295d	1.465756e-10
106	0xae55ca8f	-4.86105e-11
107	0xaea5e959	-7.544782e-11
108	0x2e3964a3	4.2153513e-11
109	0xb0986104	-1.1087029e-09
110	0x303617e5	6.624517e-10
111	0xaf207f19	-1.459707e-10
112	0xab88247a	-9.673505e-13
113	0xa96b9c69	-5.2316146e-14
114	0x2aaf0b2f	3.1094005e-13
115	0xaf262451	-1.5110514e-10
116	0x2e1f7bde	3.626243e-11
117	0x2c23752b	2.3228734e-12
118	0x2e8303e3	5.957881e-11
119	0x2d4b709a	1.1564217e-11
120	0xb1dd2d04	-6.437064e-09
121	0xab5d3305	-7.8585776e-13
122	0x2b827bfd	9.271469e-13
123	0x2f8d8b71	2.574683e-10
124	0xae028318	-2.9675012e-11
125	0x2ff926b3	4.5320334e-10
126	0x2f24802c	1.4961249e-10
127	0x2f0c316e	1.2750487e-10
128	0x2f701a3d	2.1837195e-10
129	0xae9caa3a	-7.124297e-11
130	0xade0694b	-2.5512611e-11
131	0x2f128124	1.3324503e-10
132	0x2cf58f10	6.979202e-12
133	0x2c745a2a	3.4724537e-12
134	0x29a77c27	7.437827e-14
135	0x3257ecd8	1.2568499e-08
136	0x3027fdbb	6.111482e-10
137	0x2eb7ee82	8.364244e-11
138	0x2e5d5847	5.032799e-11
139	0x2f7a8b39	2.278683e-10
140	0x2e8e600c	6.474474e-11
141	0xaea50c6c	-7.505538e-11
142	0x31db9dff	6.391701e-09
143	0x30171ae1	5.4971677e-10
144	0xab6913e0	-8.280581e-13
145	0x2b9f8e3b	1.1337106e-12
146	0x2a8cc404	2.500501e-13
147	0x2eaab2af	7.7624455e-11
148	0x2e1b51b5	3.531549e-11
149	0xa9bf4bde	-8.495265e-14
150	0x2e897516	6.2508373e-11
151	0x2c914b81	4.1295305e-12
152	0x31991a37	4.4558663e-09
153	0x2c662ee7	3.2711002e-12
154	0x2c60d7c6	3.1952093e-12
155	0x2fecd400	4.3078785e-10
156	0x2f9cd190	2.8525138e-10
157	0xaf20e3d7	-1.463286e-10
158	0x2e9c56e3	7.109493e-11
159	0x3086d258	9.809566e-10
160	0x2fe6dfad	4.1995687e-10
161	0x2ec7bb9d	9.082799e-11
162	0xaef55a06	-1.11573015e-10
163	0x2d9f81b2	1.8133803e-11
164	0x2b9f900d	1.1337612e-12
165	0x2e39590e	4.2143226e-11
166	0xa9da5b57	-9.69699e-14
167	0x32562c4a	1.246651e-08
168	0x309caa3b	1.1398876e-09
169	0x3001d68a	4.7234805e-10
170	0x2e34e4dc	4.113053e-11
171	0x2e66945d	5.242772e-11
172	0x2e580597	4.911768e-11
173	0x2dd61b72	2.4341171e-11
174	0x3048b0c6	7.3010786e-10
175	0x3020ed69	5.854504e-10
176	0xab99c201	-1.0925151e-12
177	0xac43a129	-2.7800629e-12
178	0x2a37b56a	1.6316606e-13
179	0x2e9a29cb	7.010533e-11
180	0x2e2d418b	3.939386e-11
181	0x2d7f8326	1.4524193e-11
182	0xadfb0ae1	-2.8540227e-11
183	0x2d48bc43	1.1410486e-11
184	0xb20c089e	-8.151032e-09
185	0x2ca74d8e	4.7550358e-12
186	0x2b6b42a1	8.358124e-13
187	0x3056d137	7.815006e-10
188	0x303d0f46	6.8779504e-10
189	0x30305cbc	6.416021e-10
190	0x2e6f3286	5.4387182e-11
191	0x2f616523	2.0499562e-10
192	0x2f72ee0d	2.2094344e-10
193	0x2b16da8b	5.3593994e-13
194	0xae75b2a3	-5.5865212e-11
195	0x2e5c9042	5.0150335e-11
196	0x2c1ae64d	2.2012559e-12
197	0x2d282269	9.557335e-12
198	0x2a1a96cf	1.373027e-13
199	0x31b893f2	5.3719242e-09
200	0x2fac21d7	3.1310662e-10
201	0x2e9953fd	6.972554e-11
202	0x2d390344	1.0516758e-11
203	0xaefbab20	-1.14445564e-10
204	0x2da93cd5	1.924009e-11
205	0x2da26ebf	1.8466449e-11
206	0xafc5178f	-3.585083e-10
207	0x2f0fdffe	1.3085352e-10
208	0xaabc31d1	-3.3430076e-13
209	0x298b604e	6.189546e-14
210	0x29876e34	6.0143215e-14
211	0x2de5f694	2.6143789e-11
212	0x2d74e31b	1.3920222e-11
213	0x2becb7bb	1.6819804e-12
214	0x2da5ca39	1.8848133e-11
215	0x2c7b22f6	3.5688653e-12
216	0x31289721	2.4533124e-09
217	0x2b96f25b	1.0725408e-12
218	0xabc6cb55	-1.4125182e-12
219	0x2f31a13a	1.6155335e-10
220	0x2f688b27	2.1149714e-10
221	0x2f47c4a2	1.8168803e-10
222	0xafae16e4	-3.166668e-10
223	0x2f2a2a51	1.5476444e-10
224	0xa1fd4fb4	-1.7165044e-18
225	0x21ce6a4b	1.3987238e-18
226	0x222d1bb7	2.3460544e-18
227	0xa16c6867	-8.0098086e-19
228	0x1ee47f20	2.4193017e-20
229	0x20b6c464	3.096196e-19
230	0xb41bc6d2	-1.450783e-07
231	0xa67c8dd8	-8.7622297e-16
232	0x228015f1	3.47177e-18
233	0xa0b25d25	-3.021601e-19
234	0x1c552b77	7.0531965e-22
235	0xa9888759	-6.063092e-14
236	0x21a772f8	1.1346792e-18
237	0x2294d0f1	4.0336706e-18
238	0xa44d621f	-4.45354e-17
239	0x226a01c9	3.1713859e-18
240	0x1ec4958b	2.0814157e-20
241	0x9ddb70c3	-5.808541e-21
242	0x219f46fa	1.0793046e-18
243	0x21be29db	1.288598e-18
244	0x9f849fc3	-5.616848e-20
245	0x9d8a8d8b	-3.6674648e-21
246	0xb529d921	-6.327337e-07
247	0x1f8b3bc8	5.896769e-20
248	0x23534c3b	1.1454475e-17
249	0xb3aadaac	-7.956018e-08
250	0x9ec1f1e8	-2.053472e-20
251	0xa201a850	-1.7571864e-18
252	0x34ef12ad	4.4530807e-07
253	0xa205ae3b	-1.8117098e-18
254	0x1f9001df	6.098947e-20
255	0x220eb4d8	1.9340326e-18

fai_gcn_networks.1.gcn.conv.bias f4 [192]
0	0x3d20ea77	0.039286103
1	0x3d1ed8a9	0.038780842
2	0x3189a889	4.006385e-09
3	0x3d1e139b	0.038592916
4	0x3d1d7b72	0.038447805
5	0x3d2008c5	0.039070863
6	0x3c6baae2	0.014384003
7	0xaeded344	-1.01329195e-10
8	0x3d1efd9d	0.038816083
9	0x3d1eb1c9	0.038743768
10	0x32b05224	2.052645e-08
11	0x3c8a90d1	0.016914757
12	0x3d216ba3	0.03940929
13	0x3d223bbf	0.03960776
14	0x3d216021	0.039398316
15	0x3d21453a	0.03937266
16	0x3d203fcb	0.039123338
17	0x3d21e1d9	0.039522026
18	0x3d1df2c2	0.03856159
19	0x3ce68384	0.028138883
20	0x3ca3dbfb	0.020002356
21	0x3c93a0b5	0.018020967
22	0x3443d402	1.8237918e-07
23	0x31053fd4	1.939033e-09
24	0x3d1ffb4d	0.03905802
25	0x3622f99e	2.4285177e-06
26	0x3d218e98	0.03944263
27	0x34b82b06	3.4303974e-07
28	0xb12d6901	-2.5234501e-09
29	0x2f7a4228	2.2760871e-10
30	0x3d207d94	0.03918226
31	0x3d215a66	0.03939285
32	0x32ccf2b7	2.38591e-08
33	0x307be33c	9.163619e-10
34	0x3d226e33	0.039655875
35	0xaf7fd1c9	-2.3266646e-10
36	0x3d14ff32	0.036376186
37	0x318f020c	4.1620805e-09
38	0x37213696	9.609057e-06
39	0x3cabc6cc	0.020968817
40	0x3d233e8f	0.039854582
41	0x3d1feecf	0.039046105
42	0x3d1b517f	0.037919518
43	0x3d221ad8	0.03957638
44	0x32a34028	1.9004872e-08
45	0x3d21e114	0.03952129
46	0x3242aa58	1.1331018e-08
47	0x3d21d300	0.039507866
48	0x343c9056	1.7561374e-07
49	0x3262656d	1.3177993e-08
50	0x3d20fba9	0.0393025
51	0x3d23a371	0.03995079
52	0xaf9a851b	-2.8107014e-10
53	0x306ca353	8.60884e-10
54	0x3d2262ce	0.03964501
55	0x3d1e5688	0.03865674
56	0xb13e3eac	-2.7684264e-09
57	0x3d1f63af	0.038913425
58	0x31188fca	2.2200646e-09
59	0x397d46ce	0.00024154337
60	0xb314fa48	-3.4686565e-08
61	0x3d21544b	0.03938703
62	0x3d21f1dc	0.039537296
63	0x35c40113	1.4603451e-06
64	0x3d41e71f	0.047339555
65	0x3d3fb807	0.04680636
66	0x3213490e	8.573137e-09
67	0x3d3c0f67	0.045913126
68	0x3d3ea361	0.04654253
69	0x3d40cb4a	0.04706887
70	0x3c929777	0.01789449
71	0xaf412c27	-1.7568934e-10
72	0x3d3f6a77	0.046732392
73	0x3d3c94d1	0.04604036
74	0x32ff73f8	2.9738644e-08
75	0x3cabd825	0.02097709
76	0x3d418840	0.04724908
77	0x3d429052	0.047500916
78	0x3d431a92	0.04763276
79	0x3d426783	0.047461998
80	0x3d3ebb5c	0.0465654
81	0x3d41c0e9	0.047303114
82	0x3d3dcaa2	0.046335824
83	0x3d0d246e	0.03445857
84	0x3cca7522	0.024714056
85	0x3cb6c28a	0.02230956
86	0x348a2d50	2.5737472e-07
87	0x315bbb3b	3.1975123e-09
88	0x3d416316	0.047213636
89	0x36564b2e	3.1932245e-06
90	0x3d41a7f7	0.047279324
91	0x34f4f7a3	4.562872e-07
92	0xb2d43ee8	-2.4708655e-08
93	0xb0e4429b	-1.6608114e-09
94	0x3d3fca49	0.046823774
95	0x3d42d6c9	0.047568116
96	0x32ae3256	2.0279156e-08
97	0xafc82776	-3.6407827e-10
98	0x3d42fc9c	0.04760419
99	0xaf7342b2	-2.2124416e-10
100	0x3d34fc7d	0.044186104
101	0xb128be68	-2.455545e-09
102	0x3762d6ab	1.3520631e-05
103	0x3cd404c1	0.025881173
104	0x3d436b84	0.047709957
105	0x3d3ff359	0.046862934
106	0x3d3c0898	0.045906633
107	0x3d43d6e6	0.047812365
108	0x3247e5e2	1.1635594e-08
109	0x3d43a9c9	0.04776934
110	0x325c7c98	1.2834015e-08
111	0x3d436fd7	0.04771408
112	0x3467c8e1	2.1586631e-07
113	0x31866353	3.911205e-09
114	0x3d421386	0.0473819
115	0x3d43d2da	0.047808506
116	0xafa6eb36	-3.0362352e-10
117	0xae4b3816	-4.620667e-11
118	0x3d44272e	0.047888927
119	0x3d3fb2eb	0.04680149
120	0xb18055cf	-3.7350456e-09
121	0x3d3f1ed3	0.046660256
122	0xae9c1d0e	-7.09922e-11
123	0x39b3ab62	0.0003426923
124	0xb319ab24	-3.577874e-08
125	0x3d42fccf	0.04760438
126	0x3d43c2dd	0.047793258
127	0x3609c25e	2.0527727e-06
128	0x3c9151c4	0.017739184
129	0x3c8f2b13	0.017476594
130	0xb1aa5f83	-4.9585096e-09
131	0x3c9086aa	0.017642338
132	0x3c8dc42b	0.017305454
133	0x3c907d73	0.017637944
134	0x3bcc2b9c	0.0062307846
135	0x30fb2473	1.8273013e-09
136	0x3c8fa64c	0.017535351
137	0x3c9151f5	0.017739275
138	0xb0719866	-8.789186e-10
139	0x3bf16bc3	0.0073675825
140	0x3c926346	0.017869603
141	0x3c931cb3	0.01795802
142	0x3c917c4a	0.017759461
143	0x3c919b2c	0.017774187
144	0x3c927327	0.017877175
145	0x3c930690	0.017947465
146	0x3c8ee765	0.017444322
147	0x3c4c78cd	0.012479973
148	0x3c0f8fe5	0.0087623345
149	0x3c00ed7f	0.0078691235
150	0x333bf236	4.375962e-08
151	0xb076dc3d	-8.9807256e-10
152	0x3c902808	0.017597213
153	0x35621283	8.42185e-07
154	0x3c928853	0.01788727
155	0x33ccef46	9.543014e-08
156	0xb213ac0b	-8.595644e-09
157	0xb102dc02	-1.904255e-09
158	0x3c92005a	0.017822433
159	0x3c918746	0.017764699
160	0x32e309e8	2.6430783e-08
161	0x32310dd5	1.0305901e-08
162	0x3c931eb5	0.017958978
163	0xafa0dd40	-2.9261038e-10
164	0x3c857e43	0.016295558
165	0x33263b7b	3.8703984e-08
166	0x36515c49	3.1197144e-06
167	0x3c16bdb5	0.009200503
168	0x3c943e8f	0.018096237
169	0x3c90e410	0.017686874
170	0x3c8ba809	0.017047899
171	0x3c92368d	0.017848277
172	0x3404164f	1.2301574e-07
173	0x3c91f694	0.017817773
174	0x330ee839	3.3273157e-08
175	0x3c91f696	0.017817777
176	0x33faf465	1.1685987e-07
177	0x335076c6	4.8536798e-08
178	0x3c91553f	0.017740844
179	0x3c94aeda	0.018149782
180	0xaf94457f	-2.6970423e-10
181	0x322840cf	9.793623e-09
182	0x3c927a80	0.017880678
183	0x3c8e87bd	0.01739871
184	0xb14caab6	-2.9782945e-09
185	0x3c9063a4	0.017625637
186	0x328d9409	1.6481879e-08
187	0x389340d5	7.021582e-05
188	0xb221c131	-9.41536e-09
189	0x3c916ac3	0.017751103
190	0x3c920813	0.017826116
191	0x349a14cc	2.8699867e-07

fai_gcn_networks.1.residual.0.weight f4 [64, 32, 1, 1]
0	0x3c9b261e	0.018939074
1	0xbbc95b30	-0.0061449036
2	0xbd06ccc9	-0.032910142
3	0xbc736ec7	-0.014857954
4	0xba84d876	-0.0010135311
5	0x3a818aea	0.0009883319
6	0x3cc6740e	0.024225261
7	0xbc795600	-0.015218258
8	0x3bcd86e0	0.006272182
9	0xbc8dc792	-0.017307077
10	0xbc4bbe7e	-0.012435554
11	0x3c21940f	0.00986196
12	0x3c89a6e2	0.016803209
13	0xbcb4abb7	-0.022054536
14	0xbc6e0626	-0.014527833
15	0x3c1de0c7	0.009636111
16	0xbc8bba0d	-0.01705649
17	0xbd41a799	-0.047278974
18	0xbc58500c	-0.013202678
19	0x3a1ef9fb	0.00060644717
20	0x38fc0ac3	0.00012018301
21	0xbc2ffb3e	-0.010741053
22	0x3c96137b	0.018319836
23	0x3b53b867	0.0032305957
24	0x3b09b01f	0.0021009517
25	0xbc9f229e	-0.019425686
26	0xbc1b9c4d	-0.009497714
27	0x3c4fa126	0.012672698
28	0x3a535da2	0.00080629636
29	0xbc296709	-0.010339507
30	0xbc7d7ad2	-0.015471177
31	0x3c481bd4	0.012213666
32	0xbd2baa81	-0.041910652
33	0xbc681ef2	-0.014167534
34	0x3cb85d4e	0.022505429
35	0x3d17432b	0.03692929
36	0xbc00d86d	-0.0078641
37	0xbc88a917	-0.01668219
38	0x3c0da7f6	0.008646002
39	0x3c80cd50	0.0157229
40	0x3c5dec20	0.013545066
41	0x3c0be49b	0.0085383905
42	0x3c17cdb7	0.009265355
43	0x3c994a80	0.018712282
44	0x3cea5230	0.028603643
45	0xbb95ece8	-0.0045753606
46	0x3b90db84	0.0044206996
47	0x3cbcd0ae	0.023048725
48	0x3cfcb6b5	0.03084884
49	0x3d401909	0.046898875
50	0xbb5af0e0	-0.0033407733
51	0xbcb238be	-0.021755572
52	0xbcd38485	-0.025820026
53	0xbb2f3941	-0.0026737007
54	0xbd31e8d9	-0.04343495
55	0xbc8593a4	-0.016305752
56	0xbd29304b	-0.04130582
57	0xbd32ab2a	-0.043620266
58	0xbc185bd9	-0.009299242
59	0x3cd41254	0.025887646
60	0xbc5291d2	-0.012852149
61	0xbd013aa0	-0.03155005
62	0x3d1aa138	0.037751406
63	0xbc4f0015	-0.012634297
64	0xbb481935	-0.0030532603
65	0xbbe74444	-0.0070576984
66	0x3c8f758b	0.017512104
67	0xbc102082	-0.008796813
68	0xbc9c19f4	-0.019055344
69	0xbce529e6	-0.02797408
70	0x3b5cf4c6	0.0033715232
71	0x3c5d6cf5	0.013514747
72	0xba1a4ef0	-0.00058863964
73	0xba21aa54	-0.00061670435
74	0x3c812172	0.015763018
75	0xbbabb6e2	-0.005240307
76	0x3b43706a	0.0029821643
77	0xbc89178a	-0.016734857
78	0xbc905d6f	-0.017622678
79	0xbd103f77	-0.035216775
80	0x3ccff669	0.025386052
81	0x3caa367c	0.020777933
82	0x3d14ba9a	0.03631077
83	0x3c8e3c87	0.017362846
84	0xbd31550b	-0.043293994
85	0xbb7ce849	-0.0038590601
86	0x3ca003f9	0.019533144
87	0x3b89644b	0.004192864
88	0x3b8c2ea4	0.004278021
89	0xbd2d5686	-0.042318843
90	0x3c3c0dbe	0.011477886
91	0xbcd38b77	-0.025823338
92	0xbc92dd4a	-0.017927784
93	0xbc224864	-0.009904955
94	0xbc186130	-0.009300515
95	0x3a7d90d3	0.00096727646
96	0x3ccfa0ca	0.025345225
97	0xbbd71ea1	-0.0065649305
98	0xbc6f79f9	-0.014616483
99	0x3bf67319	0.007521045
100	0xbcc52b1c	-0.024068408
101	0xbc90f81b	-0.01769643
102	0x3b839347	0.0040153596
103	0xbc693838	-0.014234595
104	0x3bc00c42	0.0058608362
105	0x3ccb3bc2	0.024808768
106	0xbc1051a2	-0.008808525
107	0x3c149cd2	0.009070592
108	0x3be5d3dd	0.0070137815
109	0x3cce3dab	0.02517589
110	0xba99330a	-0.0011688184
111	0xbcac71be	-0.02105033
112	0xba2a8ff4	-0.0006506436
113	0x3c141c88	0.0090400055
114	0xbba000ba	-0.004882899
115	0x3c6e75fc	0.014554497
116	0xbc4ddbd8	-0.012564622
117	0xbc94307d	-0.018089527
118	0xbb8f5b36	-0.004374887
119	0x3d081220	0.03322041
120	0xbaace404	-0.0013190513
121	0xb98a61d8	-0.0002639431
122	0xbc49ff1d	-0.01232889
123	0xbcdafadc	-0.026730947
124	0x3c79a878	0.01523792
125	0xbd43e3c9	-0.047824655
126	0xbce282fe	-0.027650353
127	0xbca011f2	-0.019539807
128	0xbc9a5c7a	-0.018842924
129	0x3be64469	0.007027198
130	0xbcaf5105	-0.021400938
131	0xbd63a7a2	-0.05557979
132	0x3c53f682	0.01293719
133	0xbc9da1ff	-0.019242285
134	0xbc84238a	-0.016130228
135	0xbc9d519c	-0.019203953
136	0x3b2fb637	0.002681149
137	0x3ba8feaf	0.005157314
138	0x3bd5fec4	0.0065306146
139	0x3c88f652	0.016719017
140	0xbc5c68e0	-0.0134527385
141	0x3c571c62	0.013129326
142	0x3b39e250	0.0028363653
143	0x3c8a5c63	0.016889757
144	0xbcd31a8f	-0.0257695
145	0xbd0b4b42	-0.03400732
146	0xbc38cb09	-0.011278876
147	0xbc4ac9cf	-0.0123772165
148	0xbb16e516	-0.002302473
149	0xbc8b4459	-0.017000364
150	0x3b717042	0.0036840593
151	0x3d11fa04	0.035638824
152	0x3c212842	0.009836258
153	0xbcb93a14	-0.022610702
154	0x3ba2e3d4	0.004971007
155	0x3bf48cdb	0.0074630803
156	0x3a4b0f2a	0.0007746095
157	0x3c9107fd	0.017704004
158	0x3c8c3bc4	0.017118342
159	0xbc899295	-0.016793529
160	0x3d184369	0.037173662
161	0xbbf9c867	-0.007622767
162	0xbaea248a	-0.0017863673
163	0xbc116def	-0.008876308
164	0xbc86a7d0	-0.016437441
165	0xbc32596b	-0.010885577
166	0xbc68d70b	-0.0142114265
167	0xbc2d3873	-0.010572541
168	0xba0a86a7	-0.0005284347
169	0x3ca010c8	0.019539252
170	0xbd0095cc	-0.031392857
171	0x3ac68bbe	0.0015147848
172	0x3d04f6b0	0.032461822
173	0xbcd40c0c	-0.02588465
174	0x3cb9eb97	0.022695346
175	0xbc0c955c	-0.008580532
176	0x3a1a7649	0.00058922597
177	0xbc3072f6	-0.010769596
178	0xbc89f037	-0.016838176
179	0xbc21b4d0	-0.009869769
180	0x3bb487f2	0.00550937
181	0xba1bb9b8	-0.0005940455
182	0xbcae557d	-0.021280998
183	0xbb8290c1	-0.003984541
184	0x3c6777f7	0.014127723
185	0xbd672018	-0.05642709
186	0xbbdcf620	-0.0067432076
187	0xbd0f5064	-0.034988776
188	0xbc5e5972	-0.01357113
189	0xbc3977bd	-0.011320052
190	0xbbcbb75e	-0.0062169274
191	0xbb00e043	-0.001966492
192	0x3c5dd6a7	0.013539947
193	0x3c499774	0.012304176
194	0x3c11872f	0.008882328
195	0x3b24607c	0.0025081923
196	0x3ce6b358	0.02816169
197	0x3c0930cc	0.0083734505
198	0xbc9a5340	-0.018838525
199	0xbc527c55	-0.012847026
200	0x3cd2f69b	0.025752356
201	0xbc9458e1	-0.018108787
202	0xbb0d49eb	-0.002155895
203	0xbc3e9167	-0.011631346
204	0x3996013e	0.00028611155
205	0xbce9eecb	-0.028556248
206	0x3bd9a754	0.0066422615
207	0x3d465198	0.048417658
208	0x3c165ac4	0.009176914
209	0x3cab3be0	0.020902574
210	0xbc905c7d	-0.017622227
211	0xbcf347c9	-0.029697316
212	0xbb569461	-0.003274225
213	0xbc0daa3e	-0.008646546
214	0x3caec46b	0.021333894
215	0xbc9fb6c5	-0.019496331
216	0x3a2fd224	0.00067070336
217	0xbc088c62	-0.008334251
218	0xbbf33e45	-0.0074231946
219	0xbb932943	-0.0044910028
220	0x3cdd8449	0.027040618
221	0x3b89ed6e	0.004209212
222	0xbc0f1e30	-0.008735225
223	0x39d5f56e	0.00040809385
224	0x3aadf4b8	0.0013271784
225	0xbcdb4f01	-0.02677107
226	0x3bd75f7e	0.006572663
227	0xbd184925	-0.03717913
228	0x3d28f70a	0.04125122
229	0x3c50cdf2	0.012744414
230	0xbbfd60a9	-0.00773247
231	0xbbddee09	-0.006772761
232	0x3c924e0d	0.017859483
233	0xbc9161c6	-0.017746817
234	0x3d09a236	0.033601962
235	0x3d3e3587	0.046437766
236	0x3bc90b32	0.006135368
237	0x3ce12c77	0.027487023
238	0xbd3675a7	-0.044545796
239	0x3cba81a9	0.022766905
240	0xbc1b5bb0	-0.009482309
241	0xbb820d31	-0.0039688577
242	0x3cebd954	0.028790154
243	0x3b516ae7	0.0031954588
244	0xbd21e818	-0.039527982
245	0x3cafa0d7	0.021439
246	0xbcdadd89	-0.026716964
247	0xbb7961a9	-0.0038052595
248	0xbc6d29af	-0.01447527
249	0x3bb69dc1	0.005573005
250	0x3b38bc49	0.0028188399
251	0xb96232e2	-0.00021571995
252	0xbad7ebc4	-0.0016473462
253	0xbd04be57	-0.032408085
254	0xbc4ff8bd	-0.012693581
255	0xbbacbb94	-0.0052713845

fai_gcn_networks.1.residual.0.bias f4 [64]
0	0x00000000	0.0
1	0x00000000	0.0
2	0x00000000	0.0
3	0x00000000	0.0
4	0x00000000	0.0
5	0x00000000	0.0
6	0x00000000	0.0
7	0x00000000	0.0
8	0x00000000	0.0
9	0x00000000	0.0
10	0x00000000	0.0
11	0x00000000	0.0
12	0x00000000	0.0
13	0x00000000	0.0
14	0x00000000	0.0
15	0x00000000	0.0
16	0x00000000	0.0
17	0x00000000	0.0
18	0x00000000	0.0
19	0x00000000	0.0
20	0x00000000	0.0
21	0x00000000	0.0
22	0x00000000	0.0
23	0x00000000	0.0
24	0x00000000	0.0
25	0x00000000	0.0
26	0x00000000	0.0
27	0x00000000	0.0
28	0x00000000	0.0
29	0x00000000	0.0
30	0x00000000	0.0
31	0x00000000	0.0
32	0x00000000	0.0
33	0x00000000	0.0
34	0x00000000	0.0
35	0x00000000	0.0
36	0x00000000	0.0
37	0x00000000	0.0
38	0x00000000	0.0
39	0x00000000	0.0
40	0x00000000	0.0
41	0x00000000	0.0
42	0x00000000	0.0
43	0x00000000	0.0
44	0x00000000	0.0
45	0x00000000	0.0
46	0x00000000	0.0
47	0x00000000	0.0
48	0x00000000	0.0
49	0x00000000	0.0
50	0x00000000	0.0
51	0x00000000	0.0
52	0x00000000	0.0
53	0x00000000	0.0
54	0x00000000	0.0
55	0x00000000	0.0
56	0x00000000	0.0
57	0x00000000	0.0
58	0x00000000	0.0
59	0x00000000	0.0
60	0x00000000	0.0
61	0x00000000	0.0
62	0x00000000	0.0
63	0x00000000	0.0

fai_gcn_networks.1.residual.1.weight f4 [64]
0	0x3f7e3e34	0.99313664
1	0x3f813022	1.0092814
2	0x3f7c34c7	0.9851803
3	0x3f8287d4	1.0197701
4	0x3f8148c5	1.0100332
5	0x3f7fb06e	0.99878585
6	0x3f8324da	1.0245621
7	0x3f7a63a7	0.9780831
8	0x3f75bbda	0.95989764
9	0x3f84c9c1	1.037407
10	0x3f791572	0.9729835
11	0x3f7e940e	0.99444664
12	0x3f800b0d	1.0003372
13	0x3f80b10b	1.0054029
14	0x3f7c60c0	0.9858513
15	0x3f829ad9	1.0203506
16	0x3f7ab660	0.9793453
17	0x3f7c9c98	0.98676443
18	0x3f80b608	1.0055552
19	0x3f7cf5a0	0.98812294
20	0x3f83c586	1.0294654
21	0x3f831be8	1.0242891
22	0x3f7c1093	0.9846279
23	0x3f80a9c8	1.0051813
24	0x3f859efd	1.0439144
25	0x3f83c4e1	1.0294458
26	0x3f7b8130	0.98244
27	0x3f78651c	0.9702928
28	0x3f804ec5	1.0024039
29	0x3f8414f6	1.0318897
30	0x3f7d8b46	0.9904064
31	0x3f80fd96	1.0077388
32	0x3f7e183d	0.99255735
33	0x3f793747	0.9734997
34	0x3f7fa2f4	0.9985802
35	0x3f7ddc7c	0.9916456
36	0x3f80e28e	1.0069139
37	0x3f84ec44	1.0384603
38	0x3f7d591d	0.989641
39	0x3f7e2c37	0.99286216
40	0x3f7f29b5	0.99673015
41	0x3f84a9c3	1.0364307
42	0x3f82c570	1.0216503
43	0x3f78de0f	0.97213835
44	0x3f768234	0.96292424
45	0x3f803ef0	1.0019207
46	0x3f802f07	1.0014352
47	0x3f78fdaf	0.9726209
48	0x3f7f127e	0.9963759
49	0x3f81f8cc	1.0154052
50	0x3f7f8b66	0.9982208
51	0x3f826971	1.0188428
52	0x3f829c58	1.0203962
53	0x3f818bc4	1.0120778
54	0x3f7eeebe	0.9958304
55	0x3f7718ed	0.9652241
56	0x3f777380	0.96660614
57	0x3f7e7fba	0.99413645
58	0x3f806cbd	1.0033184
59	0x3f7bdeb9	0.9838672
60	0x3f7fcb86	0.9991993
61	0x3f801150	1.0005283
62	0x3f84d47f	1.0377349
63	0x3f7a13f3	0.9768669

fai_gcn_networks.1.residual.1.bias f4 [64]
0	0x00000000	0.0
1	0x00000000	0.0
2	0x00000000	0.0
3	0x00000000	0.0
4	0x00000000	0.0
5	0x00000000	0.0
6	0x00000000	0.0
7	0x00000000	0.0
8	0x00000000	0.0
9	0x00000000	0.0
10	0x00000000	0.0
11	0x00000000	0.0
12	0x00000000	0.0
13	0x00000000	0.0
14	0x00000000	0.0
15	0x00000000	0.0
16	0x00000000	0.0
17	0x00000000	0.0
18	0x00000000	0.0
19	0x00000000	0.0
20	0x00000000	0.0
21	0x00000000	0.0
22	0x00000000	0.0
23	0x00000000	0.0
24	0x00000000	0.0
25	0x00000000	0.0
26	0x00000000	0.0
27	0x00000000	0.0
28	0x00000000	0.0
29	0x00000000	0.0
30	0x00000000	0.0
31	0x00000000	0.0
32	0x00000000	0.0
33	0x00000000	0.0
34	0x00000000	0.0
35	0x00000000	0.0
36	0x00000000	0.0
37	0x00000000	0.0
38	0x00000000	0.0
39	0x00000000	0.0
40	0x00000000	0.0
41	0x00000000	0.0
42	0x00000000	0.0
43	0x00000000	0.0
44	0x00000000	0.0
45	0x00000000	0.0
46	0x00000000	0.0
47	0x00000000	0.0
48	0x00000000	0.0
49	0x00000000	0.0
50	0x00000000	0.0
51	0x00000000	0.0
52	0x00000000	0.0
53	0x00000000	0.0
54	0x00000000	0.0
55	0x00000000	0.0
56	0x00000000	0.0
57	0x00000000	0.0
58	0x00000000	0.0
59	0x00000000	0.0
60	0x00000000	0.0
61	0x00000000	0.0
62	0x00000000	0.0
63	0x00000000	0.0

fai_gcn_networks.1.residual.1.running_mean f4 [64]
0	0xb174f6dc	-3.5646996e-09
1	0x3121502c	2.3474156e-09
2	0x31381c79	2.6791709e-09
3	0xb164ea58	-3.3311576e-09
4	0xb193e070	-4.3037787e-09
5	0xb102b7ce	-1.902197e-09
6	0xb12526cf	-2.403272e-09
7	0xb1238753	-2.3796545e-09
8	0x31e8a5fa	6.770958e-09
9	0xb2259d08	-9.639969e-09
10	0xb1436b08	-2.8437075e-09
11	0x2f97d941	2.7621108e-10
12	0xb0c528d4	-1.434524e-09
13	0xb241d740	-1.1283021e-08
14	0x31889b49	3.975775e-09
15	0xb1f88588	-7.2329307e-09
16	0xb191f73f	-4.248164e-09
17	0x31eeb66d	6.947451e-09
18	0xafd04fe3	-3.7891743e-10
19	0xb0107a92	-5.256108e-10
20	0x309c22b2	1.1360355e-09
21	0xb1930b98	-4.279581e-09
22	0xb0af8e50	-1.2773373e-09
23	0xad605ce6	-1.2753553e-11
24	0xaf884113	-2.4784494e-10
25	0x31804f59	3.734311e-09
26	0x30a01066	1.1646193e-09
27	0xb15226f2	-3.058116e-09
28	0xb19cce21	-4.5636317e-09
29	0x3119bf10	2.2373037e-09
30	0xb254141a	-1.2344595e-08
31	0xb12db811	-2.5279443e-09
32	0x318ced0f	4.1014867e-09
33	0xb1d395b2	-6.1579266e-09
34	0x320c6f70	8.1744105e-09
35	0x3167a8da	3.3710905e-09
36	0xb134bb4c	-2.6299913e-09
37	0x31db986e	6.391068e-09
38	0x31b4fcfa	5.2674496e-09
39	0xaee785d6	-1.0528438e-10
40	0x313e6e67	2.7711395e-09
41	0xb0c41a88	-1.4268418e-09
42	0x3196c920	4.38844e-09
43	0xb0f17005	-1.7566896e-09
44	0xb219bc3b	-8.948571e-09
45	0xb1a3f679	-4.771945e-09
46	0xb178f8ea	-3.623024e-09
47	0xb1b7490a	-5.3343046e-09
48	0xb1a95809	-4.928556e-09
49	0xb0c85e04	-1.4578636e-09
50	0x3115b907	2.178753e-09
51	0x3033293b	6.517841e-10
52	0x32515203	1.2184048e-08
53	0x31546f59	3.0913354e-09
54	0x2ff78414	4.5022885e-10
55	0xaf3ce42b	-1.7179562e-10
56	0x31bca093	5.4897753e-09
57	0x31e53721	6.6710446e-09
58	0x30be7132	1.3856492e-09
59	0xb1487e9e	-2.9175804e-09
60	0xb065eec9	-8.364905e-10
61	0xb19805e5	-4.4244524e-09
62	0x323671ac	1.061964e-08
63	0xb25204e3	-1.222472e-08

fai_gcn_networks.1.residual.1.running_var f4 [64]
0	0x2413ab1c	3.202048e-17
1	0x241ac1c1	3.3557543e-17
2	0x23e8bc10	2.5233138e-17
3	0x23fa81cd	2.7160027e-17
4	0x24663c8e	4.9924592e-17
5	0x23918b1d	1.5779848e-17
6	0x23ced7d1	2.2425967e-17
7	0x2326fee0	9.05285e-18
8	0x24f7a902	1.07405485e-16
9	0x255bb43b	1.9056287e-16
10	0x233d3d6c	1.0258717e-17
11	0x20c14771	3.2742748e-19
12	0x227f0aed	3.4564728e-18
13	0x25a454ee	2.8507016e-16
14	0x240c6145	3.044005e-17
15	0x25136d72	1.2787299e-16
16	0x24842951	5.731587e-17
17	0x24f22057	1.05005556e-16
18	0x20be1c0b	3.220581e-19
19	0x2204b8a3	1.7987082e-18
20	0x21dba264	1.4883002e-18
21	0x2481a10f	5.6217676e-17
22	0x21b8ea63	1.2530367e-18
23	0x228df12c	3.8473477e-18
24	0x2297ac88	4.1111307e-18
25	0x23d590a1	2.3154759e-17
26	0x23287d9f	9.1338996e-18
27	0x2300e1f2	6.98674e-18
28	0x246ba7c8	5.109962e-17
29	0x23fa947f	2.7167945e-17
30	0x25cfd289	3.605144e-16
31	0x22d55aab	5.7829764e-18
32	0x24be5e5b	8.255921e-17
33	0x24c34472	8.468372e-17
34	0x252f7181	1.5217287e-16
35	0x244a9567	4.3928316e-17
36	0x23f357c9	2.6383291e-17
37	0x25025b2c	1.1306593e-16
38	0x24140d37	3.2103578e-17
39	0x2078d9dc	2.1078501e-19
40	0x22f0c2e6	6.5258487e-18
41	0x2102fef6	4.438315e-19
42	0x249b9bc1	6.748439e-17
43	0x236ae051	1.2732666e-17
44	0x252cad19	1.497727e-16
45	0x244805ae	4.3372898e-17
46	0x24201eba	3.4720496e-17
47	0x2485d870	5.8046215e-17
48	0x24a47850	7.132748e-17
49	0x23098960	7.455875e-18
50	0x2256f72b	2.9133258e-18
51	0x223d1d97	2.5629941e-18
52	0x25d10ab9	3.6262987e-16
53	0x2392a68d	1.5899889e-17
54	0x225777b2	2.92013e-18
55	0x21f67c4a	1.6702507e-18
56	0x24c2b823	8.444603e-17
57	0x24de97fd	9.653463e-17
58	0x233d04ca	1.0246725e-17
59	0x23097460	7.451428e-18
60	0x22d78833	5.8420073e-18
61	0x24250c1a	3.5788922e-17
62	0x258f45a5	2.485374e-16
63	0x25cdf7e2	3.5729803e-16
