capsule-6073072/code/work_dir/recognition/kinetics_skeleton/FAI_GCN/epoch130_model.pt (torch, 74070 bytes, 22 tensors)

A f4 [3, 18, 18]
0	0x3e800000	0.25
1	0x00000000	0.0
2	0x00000000	0.0
3	0x00000000	0.0
4	0x00000000	0.0
5	0x00000000	0.0
6	0x00000000	0.0
7	0x00000000	0.0
8	0x00000000	0.0
9	0x00000000	0.0
10	0x00000000	0.0
11	0x00000000	0.0
12	0x00000000	0.0
13	0x00000000	0.0
14	0x00000000	0.0
15	0x00000000	0.0
16	0x00000000	0.0
17	0x00000000	0.0
18	0x00000000	0.0
19	0x3e800000	0.25
20	0x00000000	0.0
21	0x00000000	0.0
22	0x00000000	0.0
23	0x00000000	0.0
24	0x00000000	0.0
25	0x00000000	0.0
26	0x00000000	0.0
27	0x00000000	0.0
28	0x00000000	0.0
29	0x00000000	0.0
30	0x00000000	0.0
31	0x00000000	0.0
32	0x00000000	0.0
33	0x00000000	0.0
34	0x00000000	0.0
35	0x00000000	0.0
36	0x00000000	0.0
37	0x00000000	0.0
38	0x3e800000	0.25
39	0x00000000	0.0
40	0x00000000	0.0
41	0x00000000	0.0
42	0x00000000	0.0
43	0x00000000	0.0
44	0x00000000	0.0
45	0x00000000	0.0
46	0x00000000	0.0
47	0x00000000	0.0
48	0x00000000	0.0
49	0x00000000	0.0
50	0x00000000	0.0
51	0x00000000	0.0
52	0x00000000	0.0
53	0x00000000	0.0
54	0x00000000	0.0
55	0x00000000	0.0
56	0x00000000	0.0
57	0x3eaaaaab	0.33333334
58	0x00000000	0.0
59	0x00000000	0.0
60	0x00000000	0.0
61	0x00000000	0.0
62	0x00000000	0.0
63	0x00000000	0.0
64	0x00000000	0.0
65	0x00000000	0.0
66	0x00000000	0.0
67	0x00000000	0.0
68	0x00000000	0.0
69	0x00000000	0.0
70	0x00000000	0.0
71	0x00000000	0.0
72	0x00000000	0.0
73	0x00000000	0.0
74	0x00000000	0.0
75	0x00000000	0.0
76	0x3f000000	0.5
77	0x00000000	0.0
78	0x00000000	0.0
79	0x00000000	0.0
80	0x00000000	0.0
81	0x00000000	0.0
82	0x00000000	0.0
83	0x00000000	0.0
84	0x00000000	0.0
85	0x00000000	0.0
86	0x00000000	0.0
87	0x00000000	0.0
88	0x00000000	0.0
89	0x00000000	0.0
90	0x00000000	0.0
91	0x00000000	0.0
92	0x00000000	0.0
93	0x00000000	0.0
94	0x00000000	0.0
95	0x3e800000	0.25
96	0x00000000	0.0
97	0x00000000	0.0
98	0x00000000	0.0
99	0x00000000	0.0
100	0x00000000	0.0
101	0x00000000	0.0
102	0x00000000	0.0
103	0x00000000	0.0
104	0x00000000	0.0
105	0x00000000	0.0
106	0x00000000	0.0
107	0x00000000	0.0
108	0x00000000	0.0
109	0x00000000	0.0
110	0x00000000	0.0
111	0x00000000	0.0
112	0x00000000	0.0
113	0x00000000	0.0
114	0x3eaaaaab	0.33333334
115	0x00000000	0.0
116	0x00000000	0.0
117	0x00000000	0.0
118	0x00000000	0.0
119	0x00000000	0.0
120	0x00000000	0.0
121	0x00000000	0.0
122	0x00000000	0.0
123	0x00000000	0.0
124	0x00000000	0.0
125	0x00000000	0.0
126	0x00000000	0.0
127	0x00000000	0.0
128	0x00000000	0.0
129	0x00000000	0.0
130	0x00000000	0.0
131	0x00000000	0.0
132	0x00000000	0.0
133	0x3f000000	0.5
134	0x00000000	0.0
135	0x00000000	0.0
136	0x00000000	0.0
137	0x00000000	0.0
138	0x00000000	0.0
139	0x00000000	0.0
140	0x00000000	0.0
141	0x00000000	0.0
142	0x00000000	0.0
143	0x00000000	0.0
144	0x00000000	0.0
145	0x00000000	0.0
146	0x00000000	0.0
147	0x00000000	0.0
148	0x00000000	0.0
149	0x00000000	0.0
150	0x00000000	0.0
151	0x00000000	0.0
152	0x3eaaaaab	0.33333334
153	0x00000000	0.0
154	0x00000000	0.0
155	0x00000000	0.0
156	0x00000000	0.0
157	0x00000000	0.0
158	0x00000000	0.0
159	0x00000000	0.0
160	0x00000000	0.0
161	0x00000000	0.0
162	0x00000000	0.0
163	0x00000000	0.0
164	0x00000000	0.0
165	0x00000000	0.0
166	0x00000000	0.0
167	0x00000000	0.0
168	0x00000000	0.0
169	0x00000000	0.0
170	0x00000000	0.0
171	0x3eaaaaab	0.33333334
172	0x00000000	0.0
173	0x00000000	0.0
174	0x00000000	0.0
175	0x00000000	0.0
176	0x00000000	0.0
177	0x00000000	0.0
178	0x00000000	0.0
179	0x00000000	0.0
180	0x00000000	0.0
181	0x00000000	0.0
182	0x00000000	0.0
183	0x00000000	0.0
184	0x00000000	0.0
185	0x00000000	0.0
186	0x00000000	0.0
187	0x00000000	0.0
188	0x00000000	0.0
189	0x00000000	0.0
190	0x3f000000	0.5
191	0x00000000	0.0
192	0x00000000	0.0
193	0x00000000	0.0
194	0x00000000	0.0
195	0x00000000	0.0
196	0x00000000	0.0
197	0x00000000	0.0
198	0x00000000	0.0
199	0x00000000	0.0
200	0x00000000	0.0
201	0x00000000	0.0
202	0x00000000	0.0
203	0x00000000	0.0
204	0x00000000	0.0
205	0x00000000	0.0
206	0x00000000	0.0
207	0x00000000	0.0
208	0x00000000	0.0
209	0x3eaaaaab	0.33333334
210	0x00000000	0.0
211	0x00000000	0.0
212	0x00000000	0.0
213	0x00000000	0.0
214	0x00000000	0.0
215	0x00000000	0.0
216	0x00000000	0.0
217	0x00000000	0.0
218	0x00000000	0.0
219	0x00000000	0.0
220	0x00000000	0.0
221	0x00000000	0.0
222	0x00000000	0.0
223	0x00000000	0.0
224	0x00000000	0.0
225	0x00000000	0.0
226	0x00000000	0.0
227	0x00000000	0.0
228	0x3eaaaaab	0.33333334
229	0x00000000	0.0
230	0x00000000	0.0
231	0x00000000	0.0
232	0x00000000	0.0
233	0x00000000	0.0
234	0x00000000	0.0
235	0x00000000	0.0
236	0x00000000	0.0
237	0x00000000	0.0
238	0x00000000	0.0
239	0x00000000	0.0
240	0x00000000	0.0
241	0x00000000	0.0
242	0x00000000	0.0
243	0x00000000	0.0
244	0x00000000	0.0
245	0x00000000	0.0
246	0x00000000	0.0
247	0x3f000000	0.5
248	0x00000000	0.0
249	0x00000000	0.0
250	0x00000000	0.0
251	0x00000000	0.0
252	0x00000000	0.0
253	0x00000000	0.0
254	0x00000000	0.0
255	0x00000000	0.0

data_bn.weight f4 [54]
0	0x3f5bf7bf	0.85924906
1	0x3f6690cb	0.90064687
2	0x3f54f8c8	0.8319211
3	0x3f5b12f5	0.855758
4	0x3f5f64ee	0.8726338
5	0x3f6694db	0.90070885
6	0x3f623612	0.88363755
7	0x3f58def0	0.84715176
8	0x3f58947a	0.8460156
9	0x3f61d188	0.88210344
10	0x3f5e2d10	0.8678751
11	0x3f5e4e73	0.86838454
12	0x3f5e6bbd	0.86883146
13	0x3f57019e	0.8398684
14	0x3f5db0a1	0.8659764
15	0x3f4f3168	0.8093476
16	0x3f654e5b	0.89572686
17	0x3f51a9a1	0.8189946
18	0x3f58fb2c	0.8475826
19	0x3f5f42d3	0.8721134
20	0x3f61c2d0	0.88187885
21	0x3f5df85d	0.867071
22	0x3f6493c4	0.8928797
23	0x3f5c9661	0.8616696
24	0x3f57fa02	0.84365857
25	0x3f5ecc23	0.8703024
26	0x3f5efc8f	0.87104124
27	0x3f5cd69d	0.86264974
28	0x3f594252	0.8486682
29	0x3f597a47	0.84952205
30	0x3f5cd886	0.8626789
31	0x3f56dd24	0.83931184
32	0x3f595a6c	0.849036
33	0x3f65d99e	0.8978518
34	0x3f5e3eda	0.86814654
35	0x3f619af4	0.88127065
36	0x3f591e27	0.84811634
37	0x3f595385	0.84893066
38	0x3f5df276	0.8669809
39	0x3f586b87	0.84539074
40	0x3f5654b4	0.83722997
41	0x3f522093	0.82080954
42	0x3f4b9bd8	0.79534674
43	0x3f63e486	0.89020574
44	0x3f62b113	0.88551444
45	0x3f616f6d	0.8806065
46	0x3f5bb3ec	0.85821414
47	0x3f6323a9	0.8872629
48	0x3f66ca0a	0.9015204
49	0x3f58e565	0.8472503
50	0x3f60d898	0.87830496
51	0x3f5b9917	0.8578047
52	0x3f62cd69	0.8859468
53	0x3f5e1bc8	0.8676114

data_bn.bias f4 [54]
0	0x2ca19e89	4.593496e-12
1	0xb140ae9b	-2.803893e-09
2	0xac5a574d	-3.1028125e-12
3	0x2f14e286	1.3540999e-10
4	0xb0f854a9	-1.8068437e-09
5	0x2db0e35e	2.0109855e-11
6	0x2fe7cc19	4.2163675e-10
7	0xb1c25d96	-5.6567826e-09
8	0xaf0aa34d	-1.2609043e-10
9	0xb0276a1d	-6.090504e-10
10	0xb0c0fc6c	-1.4041581e-09
11	0xafa94ee0	-3.0796965e-10
12	0x309a1794	1.1211676e-09
13	0xb148d6fa	-2.922603e-09
14	0xaf03ae64	-1.1976337e-10
15	0x2f8ddcff	2.5804778e-10
16	0xb057dad8	-7.852754e-10
17	0xaf0d9d8f	-1.2879851e-10
18	0xb0ab0097	-1.2442055e-09
19	0xb06a93cb	-8.533873e-10
20	0xae5829ed	-4.914995e-11
21	0xb0240efa	-5.9684135e-10
22	0xb1367626	-2.6551645e-09
23	0xaef27158	-1.102502e-10
24	0xb108329c	-1.9819373e-09
25	0xb0375387	-6.669371e-10
26	0xafe5a632	-4.1772946e-10
27	0x31052760	1.937643e-09
28	0xb136a6f1	-2.657938e-09
29	0xaf157d23	-1.3595929e-10
30	0xafdd09c5	-4.0206607e-10
31	0xb1261b28	-2.4171616e-09
32	0x2f2c0f15	1.5648667e-10
33	0xb0e1b7d8	-1.6423156e-09
34	0xb0f8fd7c	-1.811642e-09
35	0xaf9ee4a9	-2.8902505e-10
36	0xb0f01f21	-1.7471146e-09
37	0xb14047df	-2.7980531e-09
38	0xaf902f3f	-2.6227018e-10
39	0xb0803051	-9.326958e-10
40	0xb124c4d2	-2.397702e-09
41	0xadf07d40	-2.7340463e-11
42	0xaf843d94	-2.4054414e-10
43	0xb0f6c8b9	-1.7955905e-09
44	0xaf68400b	-2.112303e-10
45	0xaec5eccf	-9.0005885e-11
46	0xb113aebf	-2.1490647e-09
47	0xaf2d766e	-1.5776333e-10
48	0xb08d89dc	-1.0298282e-09
49	0xb11bf7d9	-2.2696354e-09
50	0xaea8d425	-7.67744e-11
51	0x2e1200d6	3.31973e-11
52	0xb150bea8	-3.037636e-09
53	0xaecb466d	-9.2438814e-11

data_bn.running_mean f4 [54]
0	0xbcd7073b	-0.026248565
1	0xbd6c001f	-0.057617303
2	0x3e8c5ae1	0.27413085
3	0xbcc737aa	-0.024318535
4	0xbd077aae	-0.03307598
5	0x3e848b90	0.25887728
6	0xbd2250f5	-0.039627988
7	0xbd19738a	-0.037463702
8	0x3e76a854	0.2408765
9	0xbd64cdea	-0.055860437
10	0xbcbcc136	-0.023041349
11	0x3e78a716	0.24282488
12	0xbd7b830b	-0.06140427
13	0xbcde47b5	-0.027133802
14	0x3e733f0f	0.23754524
15	0xbc0e89f2	-0.008699881
16	0xbce8dbc8	-0.028425112
17	0x3e71a17d	0.23596759
18	0x3af9704b	0.0019030658
19	0xbc17c0f2	-0.00926231
20	0x3e688b88	0.22709477
21	0x3c16251c	0.009164121
22	0xbc0e50e5	-0.008686279
23	0x3e5260c4	0.20544726
24	0xbd4187c0	-0.047248602
25	0x3cd3a5ef	0.02583596
26	0x3e546cd1	0.20744635
27	0xbd858940	-0.06520319
28	0x3d4c7f3c	0.049926028
29	0x3e5688b2	0.20950583
30	0xbd7acc0a	-0.061229743
31	0x3d97bfed	0.07409654
32	0x3e490e44	0.19634348
33	0xbce04f03	-0.027381426
34	0x3d07fdbf	0.033200976
35	0x3e544a22	0.20731404
36	0xbcc983c8	-0.024598971
37	0x3d874d2a	0.06606515
38	0x3e5535c6	0.20821294
39	0xbd1fd0ff	-0.039017674
40	0x3dad5109	0.08462722
41	0x3e3979b3	0.18112831
42	0xbcf10529	-0.029421406
43	0xbd8499d6	-0.064746544
44	0x3e8647ae	0.26226562
45	0xbc9dbad1	-0.01925412
46	0xbd816f60	-0.06320071
47	0x3e8df6fb	0.27727494
48	0xbcc65e84	-0.02421499
49	0xbd2f98c3	-0.042870294
50	0x3dad2945	0.08455137
51	0xbc046717	-0.008081219
52	0xbd6d6b74	-0.057963803
53	0x3e615a63	0.22007136

data_bn.running_var f4 [54]
0	0x3bb614db	0.0055566854
1	0x3b8e3685	0.0043399953
2	0x3d5d5e55	0.05404504
3	0x3ba41794	0.0050076935
4	0x3b11b186	0.0022231056
5	0x3d42da6e	0.047571592
6	0x3bbdd72d	0.005793473
7	0x3b206338	0.0024473201
8	0x3d2858bc	0.04110025
9	0x3be582d0	0.0070041195
10	0x3aef304c	0.0018248647
11	0x3d315a11	0.043298785
12	0x3bdb060f	0.006684072
13	0x3b123a20	0.0022312477
14	0x3d1d8245	0.038454313
15	0x3b9c00ab	0.004760822
16	0x3b06961a	0.0020536245
17	0x3d258023	0.040405404
18	0x3bb1fc0f	0.005431659
19	0x3ad2e603	0.0016090277
20	0x3d163a2d	0.036676574
21	0x3be19064	0.006883668
22	0x3b0db011	0.0021619836
23	0x3d0fd37d	0.0351138
24	0x3bc0dd78	0.005885776
25	0x3b0e900b	0.0021753337
26	0x3cecd0d6	0.028908174
27	0x3be73f03	0.007057072
28	0x3b9f4ec1	0.004861683
29	0x3d0e7e8e	0.03478866
30	0x3bcf3c03	0.0063242926
31	0x3c103240	0.008801043
32	0x3d1eb4d6	0.038746677
33	0x3ba12c6c	0.0049186256
34	0x3b197c30	0.0023419969
35	0x3ce5e13b	0.0280615
36	0x3ba8dd8b	0.005153363
37	0x3baa3866	0.0051947115
38	0x3cf908ba	0.030399669
39	0x3ba6756c	0.0050799157
40	0x3c0cea12	0.008600729
41	0x3ccf4344	0.02530063
42	0x3bb8053c	0.0056158584
43	0x3ba14faf	0.004922829
44	0x3d4cd7b2	0.05001039
45	0x3baf23de	0.005344852
46	0x3b9a3ba7	0.004706818
47	0x3d637d43	0.05553938
48	0x3bd17e93	0.0063932627
49	0x3b796024	0.003805169
50	0x3d1e1da2	0.03860248
51	0x3b9e08fe	0.0048228493
52	0x3b820e5d	0.0039689974
53	0x3d4e51b4	0.050370887

fai_gcn_networks.0.gcn.conv.weight f4 [96, 3, 1, 1]
0	0x34ed2fe9	4.417955e-07
1	0x3606ca4b	2.0085306e-06
2	0x3478fb44	2.318821e-07
3	0xad613111	-1.2800664e-11
4	0xae067619	-3.0572964e-11
5	0xadd32417	-2.400395e-11
6	0xaacda72e	-3.653132e-13
7	0xaa792796	-2.2129377e-13
8	0xaab0c638	-3.1401422e-13
9	0xb092be55	-1.0676994e-09
10	0x33a70564	7.777524e-08
11	0xb4ab8813	-3.195024e-07
12	0xaaf86694	-4.4124827e-13
13	0xb41cb6be	-1.4595113e-07
14	0x33ac4a34	8.0228716e-08
15	0x349e4e6d	2.9486856e-07
16	0xb39eaecc	-7.389244e-08
17	0xb2e29843	-2.6379103e-08
18	0xb65aa8df	-3.2582827e-06
19	0xb2d3f898	-2.467668e-08
20	0x32028bd8	7.598793e-09
21	0xb1457b00	-2.873719e-09
22	0x33452d05	4.5908582e-08
23	0xb39cc890	-7.300798e-08
24	0x33935f96	6.862608e-08
25	0xb7f06473	-2.8657005e-05
26	0x32b7d690	2.1401576e-08
27	0xb809d644	-3.2862896e-05
28	0x32e49f75	2.6615206e-08
29	0xb4cb0339	-3.781404e-07
30	0x3a035138	0.0005009356
31	0x3468393b	2.1627504e-07
32	0x3383f977	6.14554e-08
33	0xafa97c9b	-3.0829458e-10
34	0x30a8e287	1.2287992e-09
35	0xaf1a9c43	-1.4061734e-10
36	0xb47f3a64	-2.3769968e-07
37	0x3370b0c9	5.604014e-08
38	0x33af9ce1	8.1776086e-08
39	0xb71d21a5	-9.365763e-06
40	0xb3e1c098	-1.05124116e-07
41	0x3616dc0f	2.2479833e-06
42	0xaad0f9d9	-3.712159e-13
43	0xac3a2da2	-2.645752e-12
44	0xab50359c	-7.397084e-13
45	0xb3ae90b9	-8.128831e-08
46	0x3606a224	2.0061934e-06
47	0xb49a58af	-2.874926e-07
48	0xb51e23b2	-5.891153e-07
49	0xb464ac77	-2.1296897e-07
50	0x345a7aa8	2.0347454e-07
51	0xb3fd936e	-1.1808048e-07
52	0xb3eb1955	-1.0947648e-07
53	0x33ae9e2d	8.1312784e-08
54	0x36adfde2	5.1853576e-06
55	0xb2d66c79	-2.4962207e-08
56	0xb1874026	-3.93631e-09
57	0xb3be866a	-8.872014e-08
58	0x350e23e0	5.295133e-07
59	0x3338d9b1	4.3038828e-08
60	0x319e9145	4.6149204e-09
61	0x32359ab8	1.0570766e-08
62	0xb367e195	-5.3989044e-08
63	0xb371eea9	-5.6329245e-08
64	0x3336eca2	4.2590393e-08
65	0xb377b163	-5.76705e-08
66	0x34dc78ae	4.1066e-07
67	0xb41cdab7	-1.46082e-07
68	0xb1b05868	-5.132325e-09
69	0x34a67c23	3.101023e-07
70	0xb3148f11	-3.4589053e-08
71	0xb191db1a	-4.2449644e-09
72	0x34aff850	3.277696e-07
73	0xb58b731d	-1.0389809e-06
74	0x350c0abc	5.2169685e-07
75	0x3589b4ca	1.0259912e-06
76	0xb6612236	-3.3547526e-06
77	0xb63e15eb	-2.8324964e-06
78	0xb58f1ba7	-1.0662378e-06
79	0x36cd39cc	6.1162045e-06
80	0xb5223054	-6.042003e-07
81	0x35fbfc7a	1.8774438e-06
82	0xb90005a6	-0.00012209135
83	0xb2710a9b	-1.4030458e-08
84	0xaa5d7b05	-1.9671424e-13
85	0xa8ee0a62	-2.642781e-14
86	0x29a0250f	7.111856e-14
87	0x362dd2d9	2.5901738e-06
88	0x34a7037f	3.1108718e-07
89	0xb4d10522	-3.8933018e-07
90	0xb3e18aec	-1.0502649e-07
91	0xb3eed18c	-1.1120855e-07
92	0xb7acab38	-2.0583728e-05
93	0xb83d3253	-4.510798e-05
94	0xb34659c4	-4.618211e-08
95	0xb39ae53c	-7.212881e-08
96	0x34a17ed4	3.0080867e-07
97	0x35606993	8.3600133e-07
98	0x341aba53	1.4410152e-07
99	0xae88192a	-6.189034e-11
100	0x2e55d30f	4.861805e-11
101	0x2d5cc0ca	1.254836e-11
102	0xab109e3a	-5.137866e-13
103	0xaa881c58	-2.417812e-13
104	0xa9619968	-5.0093095e-14
105	0x3032f44c	6.510319e-10
106	0xb0db7e3b	-1.5970224e-09
107	0xb27bdad1	-1.4659876e-08
108	0xb40d3872	-1.3152183e-07
109	0xac88ec58	-3.891592e-12
110	0x301700ec	5.493479e-10
111	0x365dccab	3.3050699e-06
112	0x332ba1e8	3.9961293e-08
113	0xb333c9b0	-4.186012e-08
114	0xb511d360	-5.43243e-07
115	0x332ba622	3.9965137e-08
116	0xb3b2a79e	-8.31926e-08
117	0x343c7fa3	1.7555298e-07
118	0x33918ceb	6.7777215e-08
119	0xb33d6767	-4.4099036e-08
120	0x35bbda37	1.3996095e-06
121	0xb66acec2	-3.4989066e-06
122	0xb469d221	-2.177626e-07
123	0x354c5a58	7.612739e-07
124	0xb4482943	-1.8641462e-07
125	0xb477238d	-2.3016601e-07
126	0x35b9d6e6	1.3846118e-06
127	0xb588b0b3	-1.0184216e-06
128	0xb5a96f0b	-1.2623799e-06
129	0xae868741	-6.1176404e-11
130	0x2e4bc361	4.6330387e-11
131	0xaef80652	-1.1278857e-10
132	0xb3d9ed26	-1.0147987e-07
133	0x3411b6cf	1.3570683e-07
134	0x3373c804	5.675976e-08
135	0xba30d0f1	-0.0006745002
136	0x34df01c2	4.1538266e-07
137	0xb8336ee5	-4.2780204e-05
138	0xae41c30c	-4.4056356e-11
139	0xac587b79	-3.0763987e-12
140	0xabb52a70	-1.2872602e-12
141	0x34bd92ef	3.5310902e-07
142	0xb61f6b14	-2.3755174e-06
143	0xb461549b	-2.0985537e-07
144	0xb692be7c	-4.3733144e-06
145	0xb6152941	-2.2226743e-06
146	0xb7dd0aee	-2.6350343e-05
147	0x3659dee9	3.246527e-06
148	0xb487443a	-2.519535e-07
149	0x33d68a64	9.990325e-08
150	0xb53a4eeb	-6.940524e-07
151	0x35145a9e	5.526616e-07
152	0x34c74971	3.7120074e-07
153	0x31675a32	3.3666194e-09
154	0x375431ed	1.2647809e-05
155	0x32c17cec	2.2524965e-08
156	0x3213e056	8.607534e-09
157	0xb23daf34	-1.10410845e-08
158	0xb38115db	-6.011006e-08
159	0xb3a91b8d	-7.874687e-08
160	0xb37e39ed	-5.9191667e-08
161	0xb5031503	-4.883188e-07
162	0xb8fecd52	-0.00012149908
163	0xb4302c5e	-1.6407418e-07
164	0xb3c7e89f	-9.308973e-08
165	0xb41367c5	-1.3728193e-07
166	0x32d1f068	2.4440126e-08
167	0x3246c481	1.1569797e-08
168	0x335938dd	5.0575967e-08
169	0xb58e7bab	-1.0615817e-06
170	0x343c4afc	1.7536144e-07
171	0x34d9f6b2	4.0598894e-07
172	0xb9e98953	-0.00044543538
173	0xb0612642	-8.190889e-10
174	0xb6d6866c	-6.3933458e-06
175	0x38d0013c	9.918443e-05
176	0xb54f8e1c	-7.7320306e-07
177	0x35e40178	1.6987751e-06
178	0xb63c9f2b	-2.810683e-06
179	0xb36029d4	-5.2192107e-08
180	0xaabb9299	-3.3319595e-13
181	0x2950aecd	4.6336893e-14
182	0xa84c0638	-1.1325623e-14
183	0x33b274ce	8.3100176e-08
184	0x357aa2f7	9.33694e-07
185	0xb4904276	-2.6870447e-07
186	0xb4b16e4e	-3.3049076e-07
187	0x33915a8b	6.768558e-08
188	0x349dde8a	2.9405447e-07
189	0xb48ecc74	-2.659832e-07
190	0xb3edc5d8	-1.107216e-07
191	0xb2c3ca21	-2.2792905e-08
192	0xb58a8433	-1.0320276e-06
193	0x34ae498b	3.2463535e-07
194	0xb45a630c	-2.0338865e-07
195	0x344027d9	1.789589e-07
196	0xad95dffc	-1.7038808e-11
197	0xad3fc739	-1.0901329e-11
198	0xa9f84706	-1.1025733e-13
199	0xa8f74ce8	-2.7455861e-14
200	0xa9c133be	-8.5798976e-14
201	0xb0cb6854	-1.4799846e-09
202	0x3280eb58	1.5008183e-08
203	0xb2987224	-1.7747034e-08
204	0xab2203ec	-5.7559404e-13
205	0xaa47ab87	-1.7734261e-13
206	0x2ab352f3	3.1854345e-13
207	0x33fae40e	1.1683015e-07
208	0x334130a8	4.4980567e-08
209	0xb310b370	-3.369081e-08
210	0xb38f5415	-6.674251e-08
211	0x3232a0f9	1.0397565e-08
212	0xb21e6fc8	-9.2222265e-09
213	0x3311b077	3.3920937e-08
214	0xb18851dd	-3.9674277e-09
215	0x33862dff	6.248228e-08
216	0xb3d3c820	-9.861856e-08
217	0xb598e873	-1.1392534e-06
218	0xb52093fc	-5.981999e-07
219	0x3466fa47	2.151147e-07
220	0xb42f391e	-1.6318924e-07
221	0xb41636d4	-1.3989785e-07
222	0x3500ca31	4.7977943e-07
223	0xb30837d8	-3.1715757e-08
224	0xb74c47ea	-1.2176091e-05
225	0x2ddc04d1	2.5013243e-11
226	0x30d1a886	1.5254649e-09
227	0xb640c06a	-2.872223e-06
228	0x357e26d9	9.4678904e-07
229	0x32a72fc5	1.9463082e-08
230	0x33f9fcc2	1.16409424e-07
231	0xb587a651	-1.0106688e-06
232	0x337d93c7	5.9040556e-08
233	0x351127cb	5.4074616e-07
234	0xaa730c35	-2.1586971e-13
235	0xaae6564d	-4.091609e-13
236	0xab0c7269	-4.989677e-13
237	0x359e9fc0	1.1818411e-06
238	0x34bb1d7a	3.485291e-07
239	0x3200a266	7.487506e-09
240	0xb5f64603	-1.8348804e-06
241	0xb38db664	-6.599001e-08
242	0x3425c657	1.5438978e-07
243	0x34015fd2	1.204892e-07
244	0x339f7679	7.4255645e-08
245	0x330ffb9c	3.352362e-08
246	0xb4159fd5	-1.3934853e-07
247	0x32f97a50	2.9043036e-08
248	0x33557ab4	4.9704525e-08
249	0xb4980fe0	-2.8323757e-07
250	0x33c19687	9.0146436e-08
251	0xb11e396f	-2.3024673e-09
252	0x32c04766	2.238421e-08
253	0x32758e31	1.42932075e-08
254	0xb2704307	-1.3985079e-08
255	0xb16f9dc4	-3.4868757e-09

fai_gcn_networks.0.gcn.conv.bias f4 [96]
0	0xb5e015e2	-1.6695669e-06
1	0x35f76fb0	1.8435439e-06
2	0x368e3aec	4.238789e-06
3	0x36fe7d49	7.584375e-06
4	0x36e5cba1	6.8484374e-06
5	0x3685506d	3.9730717e-06
6	0x36718ac5	3.5992573e-06
7	0xb47181bc	-2.2492071e-07
8	0x35e5e966	1.7129757e-06
9	0x3492fffb	2.738087e-07
10	0x36c01014	5.7239176e-06
11	0x370c5dca	8.366487e-06
12	0xb3c51422	-9.1771895e-08
13	0x360024e7	1.9094966e-06
14	0x37aa61ff	2.0311212e-05
15	0xb66f2d4f	-3.5640148e-06
16	0xb59b1991	-1.1555841e-06
17	0x3688e778	4.0800624e-06
18	0xb527c8e2	-6.250467e-07
19	0x348c1b07	2.6096697e-07
20	0xb4384d0d	-1.7164366e-07
21	0x34de64e0	4.1424119e-07
22	0xb4ea15d1	-4.360177e-07
23	0xb482afc4	-2.4342273e-07
24	0x36418303	2.88355e-06
25	0xb6a9e40c	-5.0631406e-06
26	0x36f716d0	7.3638294e-06
27	0x35d7575e	1.6044175e-06
28	0x36103cce	2.1493065e-06
29	0xb60573f8	-1.9886047e-06
30	0xb5090539	-5.1044077e-07
31	0xb458c3a1	-2.0187737e-07
32	0xb6077457	-2.0184286e-06
33	0x36a2d06d	4.85224e-06
34	0x36affc64	5.2447886e-06
35	0x373c61d2	1.1228449e-05
36	0x3711db3c	8.693718e-06
37	0x36a37415	4.8712923e-06
38	0x3653377d	3.1473749e-06
39	0xb486c655	-2.510375e-07
40	0x367c89d4	3.7631153e-06
41	0x342b44f7	1.5950705e-07
42	0x36e31682	6.7677474e-06
43	0x372d2c71	1.0321951e-05
44	0xb53de4e0	-7.0741044e-07
45	0x35ffe498	1.906551e-06
46	0x37ffc9a9	3.0492274e-05
47	0xb67e2660	-3.7871287e-06
48	0xb686c435	-4.0163527e-06
49	0x37e2659d	2.6988617e-05
50	0xb539c6e8	-6.920732e-07
51	0xb3ddf688	-1.0335958e-07
52	0xb4e01056	-4.1735137e-07
53	0x35667355	8.5849507e-07
54	0xb517ca10	-5.6545923e-07
55	0xb51fa71e	-5.9475303e-07
56	0x3680345e	3.8207936e-06
57	0xb5a6b75a	-1.2421326e-06
58	0x373905d2	1.1028214e-05
59	0x361dd023	2.3515975e-06
60	0x363fde86	2.8590744e-06
61	0xb624e929	-2.4573621e-06
62	0xb57a5b14	-9.3264794e-07
63	0xb4bf337a	-3.5613976e-07
64	0xb50228c5	-4.84881e-07
65	0xb565ed55	-8.565451e-07
66	0xb3c625a5	-9.226941e-08
67	0xb5a49690	-1.2262772e-06
68	0x3625832a	2.4663264e-06
69	0xb585574c	-9.934679e-07
70	0x349e0f97	2.9441136e-07
71	0xb486dd7d	-2.51206e-07
72	0xb53abbdd	-6.9563777e-07
73	0x33622f70	5.266287e-08
74	0xb56cc6b8	-8.8206025e-07
75	0x368e6ba6	4.2444617e-06
76	0xb4279c98	-1.5610055e-07
77	0xb5e5b554	-1.7114603e-06
78	0xb6b2190a	-5.3077283e-06
79	0xb6f142d9	-7.190142e-06
80	0x3481947d	2.4136162e-07
81	0xb6eede4d	-7.118832e-06
82	0x33b19c28	8.2706094e-08
83	0xb483733f	-2.4484504e-07
84	0x35024676	4.853131e-07
85	0xb522e1d2	-6.0678315e-07
86	0x339360fe	6.862864e-08
87	0xb455913f	-1.9890011e-07
88	0xb56772bb	-8.622116e-07
89	0xb6a2519d	-4.8374773e-06
90	0xb660dc8c	-3.3506976e-06
91	0x3516ca25	5.6173513e-07
92	0x3561e21d	8.414807e-07
93	0xb62f967a	-2.616462e-06
94	0xb4dcf2cb	-4.1154848e-07
95	0x32fd1238	2.9461361e-08

fai_gcn_networks.1.gcn.conv.weight f4 [192, 32, 1, 1]
0	0xb41e753a	-1.4757543e-07
1	0x33ceb4a2	9.6254794e-08
2	0xb39a9d8e	-7.199843e-08
3	0x3493d0be	2.7532764e-07
4	0x34833959	2.4442377e-07
5	0x3406b5d9	1.2545878e-07
6	0x3389b4c8	6.4124436e-08
7	0x2fcb77e2	3.7010667e-10
8	0x349102d8	2.7010424e-07
9	0x342a1b40	1.5842397e-07
10	0x3668e14c	3.4701834e-06
11	0x34993be0	2.8542036e-07
12	0xb0ad18f5	-1.25945e-09
13	0x36c01e44	5.7255693e-06
14	0xb5c040f5	-1.432402e-06
15	0x320dca59	8.253289e-09
16	0x32c83022	2.3304953e-08
17	0x3532edf4	6.6656435e-07
18	0x32382c98	1.0720349e-08
19	0x33f70f25	1.15045886e-07
20	0x329ef685	1.8505725e-08
21	0x32e0e069	2.6179082e-08
22	0xb4c0c5a7	-3.5906598e-07
23	0x31381587	2.678776e-09
24	0x36235346	2.4337364e-06
25	0x366ec147	3.5577266e-06
26	0x35bfa992	1.427996e-06
27	0x34dd540c	4.122561e-07
28	0x34db2294	4.0817088e-07
29	0x322cc535	1.0056557e-08
30	0xb09f29ae	-1.1580619e-09
31	0x342d94cc	1.6166013e-07
32	0x31161392	2.1838997e-09
33	0x33c8cff8	9.351055e-08
34	0x340b652f	1.2982194e-07
35	0x3488cb6c	2.5479983e-07
36	0x34854322	2.4822026e-07
37	0xb7c4fdb4	-2.348316e-05
38	0xb55a26d5	-8.1267837e-07
39	0xb0989c27	-1.1103837e-09
40	0x35d5b829	1.5923334e-06
41	0x34a4aa62	3.067135e-07
42	0x3619f8d0	2.2943605e-06
43	0x349a0bd4	2.869334e-07
44	0x309626d0	1.0924968e-09
45	0x3672eaef	3.619756e-06
46	0x352fda06	6.5509846e-07
47	0x3282742a	1.5186817e-08
48	0x314150be	2.8131093e-09
49	0x3adb56a6	0.0016734197
50	0x32ad89ec	2.020257e-08
51	0x33f8afa3	1.1580348e-07
52	0xb7fe0f44	-3.0286268e-05
53	0x32e81955	2.7019874e-08
54	0xb82a2e78	-4.0574436e-05
55	0x319bd4e1	4.5352953e-09
56	0x362ac41f	2.5446132e-06
57	0x3629e6fb	2.531741e-06
58	0x371e2902	9.427082e-06
59	0x3555a255	7.958491e-07
60	0x3398973a	7.1055595e-08
61	0x310c8795	2.044975e-09
62	0x333aa82a	4.3459444e-08
63	0x34dc75f5	4.1064018e-07
64	0x30679b54	8.4258045e-10
65	0xb3a94c15	-7.883515e-08
66	0x342e30d5	1.6222778e-07
67	0x34915184	2.7067665e-07
68	0x346ccc39	2.2053509e-07
69	0x3404c995	1.2366793e-07
70	0x33a2aac3	7.574774e-08
71	0x3093b6d6	1.0747623e-09
72	0x34a29de0	3.028972e-07
73	0x348add7e	2.586566e-07
74	0x361c865a	2.3324014e-06
75	0x34b238f4	3.3196523e-07
76	0xb12401db	-2.3866196e-09
77	0x36860d1e	3.9950382e-06
78	0x352df1dd	6.479948e-07
79	0x320fb63c	8.365131e-09
80	0x3284c09d	1.5454413e-08
81	0x3527604c	6.235248e-07
82	0xafc0a5b4	-3.5042336e-10
83	0x3400a087	1.1979328e-07
84	0x30d773fb	1.5676273e-09
85	0x3312b370	3.415647e-08
86	0x34d30779	3.930725e-07
87	0x309faa42	1.1617163e-09
88	0x3611242b	2.1627736e-06
89	0x367dd9d9	3.7826742e-06
90	0x35814429	9.631086e-07
91	0x35995e69	1.1426865e-06
92	0x33a4f5b8	7.681541e-08
93	0x31974661	4.4026796e-09
94	0x32fa83b2	2.9163719e-08
95	0x34950fa0	2.776478e-07
96	0x30fb01c1	1.8263152e-09
97	0x3400db63	1.2000741e-07
98	0x344b2859	1.8920527e-07
99	0x34834c97	2.4456378e-07
100	0x3476b021	2.297461e-07
101	0xb278d804	-1.4484616e-08
102	0x33c646f8	9.2330026e-08
103	0x3112ced7	2.136337e-09
104	0x3497f03e	2.830074e-07
105	0x33c8e94e	9.3556636e-08
106	0x3601cb30	1.9340769e-06
107	0x34ac8261	3.213236e-07
108	0x3097a691	1.1034037e-09
109	0x363f4218	2.849969e-06
110	0x3537161c	6.8204986e-07
111	0x332bb3e6	3.9977657e-08
112	0x33370e66	4.2621103e-08
113	0x353f1fcb	7.119931e-07
114	0x32612c37	1.3106777e-08
115	0x340a1e66	1.286331e-07
116	0xb1baf614	-5.4412883e-09
117	0x32f255a7	2.8211458e-08
118	0x35554332	7.9446465e-07
119	0xb3e7ddf3	-1.0797148e-07
120	0x3703ebca	7.863107e-06
121	0x3683efa2	3.932001e-06
122	0x359208fd	1.0880464e-06
123	0x357ccef6	9.4178483e-07
124	0x33b9e91d	8.657137e-08
125	0x31aabaa4	4.9688698e-09
126	0x3336298c	4.2412964e-08
127	0x34558bb9	1.9888002e-07
128	0x2fafe487	3.1994693e-10
129	0x332fc31d	4.0922817e-08
130	0x3389330d	6.388846e-08
131	0x33ffeadf	1.19170856e-07
132	0xb3ead4de	-1.09351944e-07
133	0x335cdf1f	5.142567e-08
134	0x34c4de47	3.6669573e-07
135	0x2f48ad31	1.8251424e-10
136	0x33fd7f70	1.1804411e-07
137	0x337c91ad	5.8805814e-08
138	0x35511746	7.7892435e-07
139	0x342f80ad	1.6344957e-07
140	0x301cd6d9	5.7057786e-10
141	0x360564c8	1.9877207e-06
142	0x348f7b44	2.6725513e-07
143	0x328e33e3	1.6554571e-08
144	0x32abb664	1.9989962e-08
145	0x349931c5	2.8534683e-07
146	0x319d6307	4.5805595e-09
147	0x335fc121	5.2096883e-08
148	0xb3568127	-4.994322e-08
149	0x32414732	1.12502665e-08
150	0x3470b0ca	2.2416057e-07
151	0x320646ea	7.8159506e-09
152	0x3574045b	9.090342e-07
153	0x35ca418c	1.506925e-06
154	0x34e4cca8	4.2617216e-07
155	0xb4131b08	-1.3700276e-07
156	0x331c93e9	3.6456104e-08
157	0xb63a20bd	-2.7735216e-06
158	0x320dff8c	8.265385e-09
159	0x338e5e80	6.62958e-08
160	0x39d28c8e	0.00040159043
161	0x33cbd5c2	9.4918065e-08
162	0x340ad5e8	1.293007e-07
163	0x34437cb9	1.8206164e-07
164	0x347cc42c	2.3540696e-07
165	0x3408c825	1.2738799e-07
166	0x341de994	1.470674e-07
167	0x302878f4	6.128993e-10
168	0x3336b787	4.2542094e-08
169	0x3406f258	1.2567887e-07
170	0x367beef5	3.7541006e-06
171	0x349d01f6	2.9244956e-07
172	0x308095c5	9.355793e-10
173	0x36b7fcbe	5.483248e-06
174	0xb9a2a991	-0.00031025385
175	0x358670eb	1.0016641e-06
176	0xb8a09673	-7.657418e-05
177	0x35308f4a	6.577362e-07
178	0x3225c84f	9.649809e-09
179	0x34136a2d	1.3729068e-07
180	0x30bc9ad2	1.3722803e-09
181	0x331107e4	3.376762e-08
182	0x34f416e2	4.546519e-07
183	0x309a8145	1.1241715e-09
184	0x36145115	2.2100915e-06
185	0x3672d306	3.6183642e-06
186	0x3a562cdc	0.0008170137
187	0x356e9819	8.888324e-07
188	0x339748d4	7.044733e-08
189	0x321d0ed7	9.141977e-09
190	0xb0b454b0	-1.3120793e-09
191	0x34611c56	2.0965066e-07
192	0x30b0ea81	1.2872335e-09
193	0xb40068b8	-1.1959025e-07
194	0x33821375	6.057136e-08
195	0x34a2f9bb	3.0356554e-07
196	0x3444f5b6	1.8343312e-07
197	0x3617096d	2.250624e-06
198	0x31e35e28	6.617274e-09
199	0x3630a153	2.6319947e-06
200	0x348e560b	2.6512166e-07
201	0x3411230d	1.3516929e-07
202	0x36328f8e	2.6607627e-06
203	0x349c0caa	2.906648e-07
204	0x3081271f	9.397104e-10
205	0x36eca73f	7.052818e-06
206	0x352d8d6c	6.465332e-07
207	0x3278b1c1	1.44759165e-08
208	0xb16da8e7	-3.458405e-09
209	0x3525c11d	6.1748307e-07
210	0x3297da90	1.7678104e-08
211	0x338441b7	6.1586825e-08
212	0x30fb1cae	1.8270805e-09
213	0x331b9964	3.6228258e-08
214	0x34f9fddd	4.6564574e-07
215	0x3133cc9d	2.6164237e-09
216	0x360dc0cf	2.1122867e-06
217	0x366ff930	3.5758821e-06
218	0x3522e1b5	6.067815e-07
219	0x35a0f6ae	1.1992722e-06
220	0x3384f9e6	6.192185e-08
221	0x310ac123	2.0191429e-09
222	0x3341f7c0	4.516164e-08
223	0x34750476	2.2819026e-07
224	0xb0a6691c	-1.2107964e-09
225	0x33fb621e	1.1705946e-07
226	0x340dcf76	1.3207122e-07
227	0x348fe789	2.680429e-07
228	0xb4e0e021	-4.1886327e-07
229	0x3417a451	1.4122749e-07
230	0xb5822aff	-9.698268e-07
231	0x302d3627	6.301399e-10
232	0x34af5bf0	3.2663183e-07
233	0x333bb112	4.3700375e-08
234	0x3613c8f8	2.2021686e-06
235	0x34aa1b1c	3.1684692e-07
236	0x307c7543	9.1843705e-10
237	0x36a2ffd8	4.8577604e-06
238	0xb5a56dfd	-1.2325469e-06
239	0x385a53c5	5.2053267e-05
240	0x36bacb59	5.5669047e-06
241	0x3532fc2c	6.6677126e-07
242	0xb2bde549	-2.2106763e-08
243	0x33f68863	1.1480076e-07
244	0x3101e406	1.8901587e-09
245	0xb2cbdacf	-2.3731813e-08
246	0x353516f1	6.746114e-07
247	0x33aa59f1	7.932602e-08
248	0x361cf303	2.3387263e-06
249	0xb47301ba	-2.2631767e-07
250	0xb95d95f7	-0.00021132069
251	0x357102cc	8.9783566e-07
252	0x33d5d455	9.9572084e-08
253	0x31661e4f	3.3486633e-09
254	0x3222eee3	9.483958e-09
255	0xb9203a9f	-0.00015280627

fai_gcn_networks.1.gcn.conv.bias f4 [192]
0	0x3d06ae4e	0.032881074
1	0x3d09eece	0.033675008
2	0x3d0940f1	0.0335092
3	0x3d0cbf20	0.03436196
4	0x3c6b0957	0.0143454885
5	0x3d0a2561	0.033727054
6	0x3d090fe2	0.033462413
7	0x3d086fd2	0.033309765
8	0x3d0a8546	0.033818506
9	0x3d0a7b11	0.03380877
10	0x3425e250	1.5449154e-07
11	0x338f0e73	6.661585e-08
12	0x3d0a5422	0.03377164
13	0xb08d715a	-1.0291317e-09
14	0xb60666dd	-2.002743e-06
15	0x3d073bb0	0.033015907
16	0x3c265040	0.010150969
17	0x3d030659	0.031988475
18	0x3ce74a7a	0.028233755
19	0xb2ce6682	-2.4028171e-08
20	0x3cd44c6f	0.025915353
21	0x3d084480	0.03326845
22	0x3c89849b	0.016786864
23	0x3bc38684	0.0059669632
24	0x3d0a990c	0.033837363
25	0x3d095cde	0.03353583
26	0x3d0cd483	0.034382354
27	0x33917f01	6.7751905e-08
28	0x3455a930	1.9898721e-07
29	0x3d0857a1	0.033286694
30	0x3d08b301	0.033373836
31	0x3d098fad	0.033584286
32	0x3d05d8f1	0.032677595
33	0x3d074aa5	0.03303017
34	0x3d0a2438	0.033725947
35	0x3ce60884	0.028080232
36	0x3ca2acc2	0.019857768
37	0x3d050c90	0.032482684
38	0x3d064e1a	0.032789327
39	0x3d0abe27	0.03387275
40	0x37ad358c	2.0648142e-05
41	0x33ab73ad	7.983849e-08
42	0xb774ebc2	-1.4598425e-05
43	0x2659d8d7	7.558087e-16
44	0x2f54d467	1.9356748e-10
45	0xb44b39b4	-1.892684e-07
46	0x3d087b6a	0.03332082
47	0x3c9fe482	0.01951814
48	0x3d0a24fc	0.033726677
49	0x3d07ae68	0.03312531
50	0x3c25f82e	0.010129971
51	0x3d07d7f9	0.033164952
52	0xb2f03c06	-2.7966973e-08
53	0xb3df7d38	-1.0407024e-07
54	0x3d09b068	0.0336155
55	0x3d092b08	0.033488303
56	0x3d0a68d7	0.03379139
57	0x3d0890cd	0.033341218
58	0x3d089022	0.03334058
59	0x3d0b3ea4	0.033995286
60	0x3be5bddb	0.007011158
61	0x3d033b94	0.03203924
62	0x3360a43f	5.2303445e-08
63	0x3d0a2aaf	0.033732112
64	0x3d1c4eda	0.038161136
65	0x3d225a19	0.039636705
66	0x3d213ddf	0.039365645
67	0x3d202318	0.039095968
68	0x3c8d17a8	0.017223194
69	0x3d22a9bd	0.039712656
70	0x3d21184d	0.039329816
71	0x3d1f34be	0.03886866
72	0x3d2276a7	0.039663937
73	0x3d233f71	0.039855424
74	0xb34e64a4	-4.8054645e-08
75	0x32b6b0ec	2.1268043e-08
76	0x3d22b535	0.039723594
77	0xb0828e5d	-9.499207e-10
78	0xb6309b71	-2.6316523e-06
79	0x3d1f85e7	0.03894606
80	0x3c48cf34	0.012256432
81	0x3d1823dc	0.037143573
82	0x3d09386e	0.03350108
83	0xb3065072	-3.127247e-08
84	0x3cfc53cf	0.030801682
85	0x3d20a12f	0.039216217
86	0x3ca4f33d	0.020135516
87	0x3bed1867	0.007235575
88	0x3d233deb	0.03985397
89	0x3d215df4	0.03939624
90	0x3d23cddd	0.03999125
91	0xb2db8d70	-2.5559274e-08
92	0xb50dc367	-5.281094e-07
93	0x3d201fcc	0.039092824
94	0x3d1f2535	0.038853843
95	0x3d215f5b	0.03939758
96	0x3d1bfaf9	0.038081143
97	0x3d1fc15d	0.039002765
98	0x3d22bde0	0.03973186
99	0x3d0885f6	0.03333088
100	0x3cc25052	0.02371994
101	0x3d1afd90	0.037839472
102	0x3d1cc4ea	0.03827373
103	0x3d238d9c	0.03992997
104	0x381198cc	3.4712997e-05
105	0xb287c7e0	-1.5806961e-08
106	0xb7a27eac	-1.9370891e-05
107	0xa65ede83	-7.732328e-16
108	0xb0bf0813	-1.3899374e-09
109	0xb4510b6d	-1.9468798e-07
110	0x3d1f83a7	0.038943913
111	0x3cbf2d08	0.023336902
112	0x3d22e49f	0.03976881
113	0x3d1db832	0.03850574
114	0x3c4842fa	0.012223
115	0x3d1f61bf	0.038911577
116	0xb303100a	-3.05154e-08
117	0xb435733c	-1.689886e-07
118	0x3d217feb	0.039428633
119	0x3d2056dd	0.03914534
120	0x3d231d9c	0.03982316
121	0x3d207714	0.03917606
122	0x3d1fc771	0.03900856
123	0x3d1f1741	0.038840536
124	0x3c0b13d3	0.008488613
125	0x3d19d930	0.03756064
126	0xb2cdc992	-2.3956805e-08
127	0x3d21738e	0.039416842
128	0x3c867145	0.016411433
129	0x3c874c17	0.016515775
130	0x3c86ec1c	0.016470008
131	0x3c9249f5	0.017857531
132	0x3be130ab	0.0068722568
133	0x3c878b2c	0.016545855
134	0x3c86b2c6	0.016442668
135	0x3c8725af	0.016497461
136	0x3c886aac	0.016652428
137	0x3c87cddc	0.016577654
138	0x35e821e2	1.7295208e-06
139	0x3515c77a	5.57971e-07
140	0x3c87ddc3	0.016585236
141	0xacd0c42c	-5.933495e-12
142	0xb4e245a9	-4.2146465e-07
143	0x3c84770a	0.016170043
144	0x3b9e9425	0.0048394375
145	0x3c82c601	0.015963556
146	0x3c60dd6a	0.013724664
147	0xb27743ed	-1.4392737e-08
148	0x3c4dd9cf	0.012564137
149	0x3c858506	0.016298782
150	0x3c03cb45	0.008044069
151	0x3b3a40ea	0.002842004
152	0x3c87f646	0.016596925
153	0x3c8701d1	0.016480358
154	0x3c8bfd6d	0.017088616
155	0x350ecb58	5.3195026e-07
156	0x35dc4370	1.6410904e-06
157	0x3c85fa0a	0.01635458
158	0x3c879bc1	0.016553761
159	0x3c876602	0.016528133
160	0x3c84fafe	0.016232964
161	0x3c8472c8	0.016168013
162	0x3c878387	0.01654221
163	0x3c5f9b42	0.013647856
164	0x3c1c97e4	0.009557698
165	0x3c841d7b	0.016127339
166	0x3c850664	0.016238399
167	0x3c881344	0.016610749
168	0xb6916f77	-4.334313e-06
169	0x35219c36	6.020449e-07
170	0xb613ace4	-2.2005343e-06
171	0x268115f7	8.957127e-16
172	0x268405fa	9.16096e-16
173	0x3089fc2f	1.0039737e-09
174	0x3c86e971	0.016468735
175	0x3c19f364	0.009396408
176	0x3c8779b4	0.016537525
177	0x3c871949	0.01649155
178	0x3b9e97b0	0.00483986
179	0x3c85840d	0.016298318
180	0xb28eec37	-1.6638394e-08
181	0x353c0c1e	7.005309e-07
182	0x3c878dc7	0.016547097
183	0x3c878c06	0.01654626
184	0x3c87c4e2	0.016573373
185	0x3c864574	0.01639054
186	0x3c86d4c8	0.016458884
187	0x3c8f51d1	0.017495068
188	0x3b5b31c3	0.0033446408
189	0x3c80aab0	0.01570639
190	0x350a715a	5.1573954e-07
191	0x3c88831d	0.016664082

fai_gcn_networks.1.residual.0.weight f4 [64, 32, 1, 1]
0	0x3cc486c5	0.023990044
1	0x3c8673cf	0.016412644
2	0xbd1617b8	-0.036643714
3	0xbc7a1f4a	-0.015266249
4	0xbc30f8cf	-0.010801508
5	0xbb2b753c	-0.0026162406
6	0x3c3f08c6	0.011659807
7	0xbd1bd9b0	-0.0380494
8	0x3cfbae60	0.030722797
9	0x3c8d52c1	0.017251374
10	0x3c17d166	0.009266233
11	0xbd439ee9	-0.04775897
12	0x3cda3f35	0.026641468
13	0x3ba25b05	0.004954698
14	0x3af3e5d7	0.0018607926
15	0xbb6377c5	-0.003470884
16	0xbc0931f9	-0.008373731
17	0xbc7aa542	-0.01529819
18	0xbbb96741	-0.005658061
19	0x3cddec9c	0.027090363
20	0x398ab0c4	0.00026453112
21	0xbcea5ad7	-0.028607769
22	0xbc1c4f90	-0.009540454
23	0x3d16cc43	0.036815893
24	0x3d034187	0.032044914
25	0xbd3e4f15	-0.046462137
26	0x3bb9338e	0.0056518978
27	0xbb133cd2	-0.0022466672
28	0x3c30ca86	0.010790473
29	0xbc488133	-0.012237835
30	0x3be3c7f8	0.0069513284
31	0x3bd0e206	0.0063746003
32	0x39e3ceaa	0.0004345079
33	0x3ccab5b2	0.024744842
34	0x3cf96c39	0.030447112
35	0xbbbf1737	-0.005831625
36	0x3d34ac02	0.044109352
37	0x3c66a626	0.014077699
38	0x3cf83c3d	0.030302161
39	0x3c912bc2	0.01772106
40	0xbb3a5ad9	-0.0028435497
41	0x3c8ce244	0.017197736
42	0x3c7a39c2	0.01527256
43	0xbd1050a6	-0.035233162
44	0x3c8dba41	0.017300727
45	0x3c644739	0.013932996
46	0x3c228749	0.00991995
47	0x3c9aec56	0.018911522
48	0xbd00f4b2	-0.03148336
49	0x3cc7f427	0.024408413
50	0x3c13db36	0.009024432
51	0xbd03f414	-0.032215193
52	0x3c448c9b	0.011996414
53	0xbc4c51a0	-0.012470633
54	0xbca628eb	-0.020283183
55	0x3c3f0313	0.011658448
56	0x3b69463d	0.0035594844
57	0x3b8bef5e	0.004270478
58	0xbc834e4a	-0.016028542
59	0xb98a1641	-0.00026337992
60	0x3c389227	0.011265314
61	0x3bf9bdf3	0.0076215207
62	0xbcc1a7f5	-0.023639658
63	0x3c439057	0.011936269
64	0xbbc7bbea	-0.006095399
65	0x3c84412a	0.016144354
66	0x3d021c5c	0.031765327
67	0xbc6a43b7	-0.014298371
68	0xbbd27ab8	-0.0064233206
69	0x3c0c3f72	0.008560048
70	0x3b889819	0.004168522
71	0x3b7d6dd4	0.00386702
72	0xbc643115	-0.013927718
73	0xba917ec3	-0.00111004
74	0x3cf8fe65	0.030394742
75	0x3cb567f2	0.022144292
76	0x3b558f74	0.0032586725
77	0xbae564be	-0.0017501337
78	0xbc8b597d	-0.017010445
79	0xbcc87c6e	-0.024473395
80	0x3bc3b74e	0.0059727794
81	0xbc3f40d7	-0.011673174
82	0xbc16dc55	-0.009207805
83	0xbc4ed1a2	-0.012623223
84	0xbb91e7ed	-0.0044526965
85	0xbc798525	-0.015229498
86	0xba6c34d3	-0.0009010557
87	0xbbece039	-0.007228878
88	0xbd398569	-0.045293245
89	0x3c93706a	0.01799794
90	0x3ca0ba49	0.019620078
91	0xbd2245af	-0.039617237
92	0xbc78e621	-0.015191586
93	0x3b6e0f30	0.003632497
94	0x3c812b16	0.015767615
95	0x3d00476f	0.031318124
96	0xbb439e67	-0.0029849054
97	0xbc901408	-0.017587677
98	0xbbe9ef4c	-0.007139122
99	0x3c91556c	0.017740928
100	0xbb2a9347	-0.0026027726
101	0x3d06485b	0.032783847
102	0x3a9153fd	0.0011087653
103	0x3cfdd64a	0.03098597
104	0xbcf44bfb	-0.029821387
105	0x3caca8f3	0.021076655
106	0xb9da1cf3	-0.0004160177
107	0x3b04b499	0.0020249246
108	0x3d2ef026	0.042709492
109	0xbc1a6ead	-0.009425801
110	0x3cd84454	0.026399769
111	0xbc1f2d34	-0.009715367
112	0x3d1096c2	0.035300024
113	0x3d0bdcb9	0.034146044
114	0x3bc6c7d4	0.006066302
115	0xbc07ae6f	-0.008281334
116	0xbbef4f05	-0.007303121
117	0x3bea4f69	0.0071505797
118	0x3c4fd839	0.012685829
119	0xbc4faed0	-0.012675956
120	0x3d4f4718	0.05060491
121	0x3d6c768a	0.057730235
122	0xbbb2eb00	-0.005460143
123	0xbc048be6	-0.008089995
124	0x3c08ded0	0.008353904
125	0x398cc269	0.00026847728
126	0x3ba5d10b	0.0050603203
127	0x3bfbcc03	0.007684232
128	0x3d1582cf	0.036501702
129	0x3c5e508f	0.013569011
130	0x3cb0789b	0.021541884
131	0xbbfc1b14	-0.0076936577
132	0xbcedec83	-0.029043442
133	0x3cdef15e	0.027214702
134	0xbd05db90	-0.032680094
135	0xbbae7f1d	-0.0053252117
136	0x3bfe9b5d	0.0077699856
137	0x3c0880a2	0.00833145
138	0x3d074713	0.033026766
139	0xbd0d7cc6	-0.03454282
140	0xbc73c217	-0.014877818
141	0xbce37365	-0.027764985
142	0x3b6ee3e3	0.003645175
143	0x3c37b8eb	0.0112135215
144	0xbc356674	-0.01107179
145	0xbbd24ed3	-0.006418088
146	0xbd1b54bb	-0.037922602
147	0x3c0dc1c5	0.008652155
148	0x3c3dc679	0.011582964
149	0xbc25555b	-0.010091151
150	0xbc8d8f6a	-0.0172803
151	0xbd1416fc	-0.036154732
152	0x3c1e94cc	0.009679031
153	0xbb46c34e	-0.0030328813
154	0xbcd7d4ec	-0.026346646
155	0xbcce36d5	-0.02517263
156	0xbc9c4bc9	-0.019079106
157	0x3d171a7c	0.03689049
158	0xb854c77d	-5.0730527e-05
159	0xbc5811b8	-0.013187818
160	0x3b229475	0.0024807726
161	0xbcbfe9e4	-0.023426957
162	0xbbb28300	-0.0054477453
163	0xbc136ec5	-0.0089985775
164	0xbce63358	-0.028100654
165	0xbb42f090	-0.0029745437
166	0x3c7e9ed5	0.015540798
167	0x3c313065	0.010814761
168	0x3c398490	0.011323109
169	0x3c818d19	0.01581435
170	0xbb33c884	-0.002743275
171	0x3d1a6fc3	0.03770424
172	0x3d0a18ce	0.03371506
173	0xbb643630	-0.0034822337
174	0x3c87c68c	0.016574167
175	0xbcdbe757	-0.02684371
176	0x3ba34fdd	0.0049838857
177	0xbcd119ee	-0.02552506
178	0x3caefabd	0.021359796
179	0xbcaa0c8b	-0.020757934
180	0xbc9802df	-0.018556057
181	0x3ca4e01c	0.020126395
182	0xbc296fee	-0.0103416275
183	0xbc118fb0	-0.008884355
184	0x3bb47fc4	0.005508395
185	0xbd2f7c5c	-0.042843208
186	0x3c49ad6f	0.012309416
187	0x3c004462	0.007828804
188	0xbcd0b9e9	-0.025479274
189	0x3be19b41	0.006884963
190	0x3d270bcd	0.04078274
191	0x3d07b840	0.0331347
192	0xbd1982c5	-0.037478227
193	0xbc8a3667	-0.016871644
194	0xbcb8418a	-0.022492189
195	0xbc353230	-0.011059329
196	0xbc13d46d	-0.009022814
197	0xbc54486b	-0.012956719
198	0xba7d2b49	-0.0009657634
199	0xbb6196e2	-0.0034422209
200	0xbbb33f97	-0.005470227
201	0xbcce3f8a	-0.025176782
202	0x3c83e05f	0.0160982
203	0x3b2acb32	0.0026061055
204	0x3d19cd4b	0.0375493
205	0x3cac7f82	0.021056894
206	0xbc9baa56	-0.019002121
207	0x3c9ae86f	0.018909661
208	0x3c51b881	0.012800337
209	0x3c2266eb	0.009912233
210	0x3c94cd24	0.018164225
211	0x3cb89f34	0.022536851
212	0x3bf8c733	0.007592106
213	0x3afbd650	0.001921365
214	0xba72695e	-0.00092472683
215	0xbbf72c05	-0.0075430893
216	0x3cd7ff47	0.026366843
217	0xbc6fcb2f	-0.014635845
218	0xbd0199ad	-0.031640697
219	0x3c80cd4b	0.015722891
220	0xbd12bc5b	-0.03582416
221	0xbbfb8d29	-0.0076767397
222	0xbc1bb6d9	-0.0095040435
223	0xbc89874d	-0.01678815
224	0x3d022cb6	0.03178092
225	0x3c437954	0.011930782
226	0x3cb163b6	0.021653991
227	0xbcbee6fc	-0.023303501
228	0xbcd1f510	-0.02562955
229	0x3cbdcea0	0.023169816
230	0xbd1ea4f2	-0.038731523
231	0xbc8596a1	-0.016307177
232	0xbc2e71a2	-0.010647209
233	0x3cc8dd1e	0.0245195
234	0x3c862146	0.016373288
235	0x38b5de66	8.6721775e-05
236	0xbc2f4101	-0.0106966505
237	0x3cf01cdb	0.029310634
238	0xbca46480	-0.020067453
239	0xbc6e3c60	-0.014540762
240	0x3c3cc5ea	0.011521796
241	0x3c8b0499	0.016969966
242	0x3d076631	0.03305644
243	0x3c254622	0.010087522
244	0x3c6b9ba0	0.014380366
245	0x3cab1bed	0.02088734
246	0xbad747b3	-0.0016424566
247	0xbcc4b10a	-0.0240102
248	0x3c6e4e3d	0.014545021
249	0xbb98ec09	-0.0046668095
250	0xba4f9ec9	-0.0007920084
251	0xbc953fd6	-0.018218916
252	0xbc9654e3	-0.018351024
253	0xbc51bbf7	-0.012801162
254	0x3c13fed5	0.009032925
255	0xbc6a8570	-0.014314041

fai_gcn_networks.1.residual.0.bias f4 [64]
0	0x00000000	0.0
1	0x00000000	0.0
2	0x00000000	0.0
3	0x00000000	0.0
4	0x00000000	0.0
5	0x00000000	0.0
6	0x00000000	0.0
7	0x00000000	0.0
8	0x00000000	0.0
9	0x00000000	0.0
10	0x00000000	0.0
11	0x00000000	0.0
12	0x00000000	0.0
13	0x00000000	0.0
14	0x00000000	0.0
15	0x00000000	0.0
16	0x00000000	0.0
17	0x00000000	0.0
18	0x00000000	0.0
19	0x00000000	0.0
20	0x00000000	0.0
21	0x00000000	0.0
22	0x00000000	0.0
23	0x00000000	0.0
24	0x00000000	0.0
25	0x00000000	0.0
26	0x00000000	0.0
27	0x00000000	0.0
28	0x00000000	0.0
29	0x00000000	0.0
30	0x00000000	0.0
31	0x00000000	0.0
32	0x00000000	0.0
33	0x00000000	0.0
34	0x00000000	0.0
35	0x00000000	0.0
36	0x00000000	0.0
37	0x00000000	0.0
38	0x00000000	0.0
39	0x00000000	0.0
40	0x00000000	0.0
41	0x00000000	0.0
42	0x00000000	0.0
43	0x00000000	0.0
44	0x00000000	0.0
45	0x00000000	0.0
46	0x00000000	0.0
47	0x00000000	0.0
48	0x00000000	0.0
49	0x00000000	0.0
50	0x00000000	0.0
51	0x00000000	0.0
52	0x00000000	0.0
53	0x00000000	0.0
54	0x00000000	0.0
55	0x00000000	0.0
56	0x00000000	0.0
57	0x00000000	0.0
58	0x00000000	0.0
59	0x00000000	0.0
60	0x00000000	0.0
61	0x00000000	0.0
62	0x00000000	0.0
63	0x00000000	0.0

fai_gcn_networks.1.residual.1.weight f4 [64]
0	0x3f7a9608	0.9788518
1	0x3f827fda	1.0195267
2	0x3f7c1b7a	0.98479426
3	0x3f7bb1b8	0.9831805
4	0x3f831c44	1.0243001
5	0x3f7f9717	0.9983992
6	0x3f80b4a3	1.0055126
7	0x3f81795f	1.0115165
8	0x3f7e7bed	0.99407846
9	0x3f7c1957	0.98476166
10	0x3f865a4e	1.0496309
11	0x3f826488	1.018693
12	0x3f7936cc	0.9734924
13	0x3f8492fb	1.0357355
14	0x3f7dd691	0.9915553
15	0x3f7fcc64	0.9992125
16	0x3f7f571e	0.99742305
17	0x3f837990	1.0271473
18	0x3f7d21d6	0.98879755
19	0x3f7a8201	0.9785462
20	0x3f851f0d	1.0400101
21	0x3f805f06	1.0028999
22	0x3f7b5b43	0.9818613
23	0x3f821867	1.0163697
24	0x3f7ef136	0.9958681
25	0x3f82f531	1.0231076
26	0x3f7cdbef	0.9877309
27	0x3f828fe3	1.0200161
28	0x3f7fd351	0.9993182
29	0x3f8052b1	1.0025235
30	0x3f792540	0.97322464
31	0x3f804525	1.0021101
32	0x3f802c6a	1.0013554
33	0x3f7db2f0	0.9910116
34	0x3f814d3f	1.0101699
35	0x3f82a62e	1.0206964
36	0x3f79b075	0.9753488
37	0x3f7531c3	0.95779055
38	0x3f7ce7c1	0.9879113
39	0x3f80e73c	1.0070567
40	0x3f7f3293	0.99686545
41	0x3f82ab36	1.02085
42	0x3f81c5bf	1.0138472
43	0x3f76d8fc	0.9642484
44	0x3f8230a7	1.0171098
45	0x3f81b5ac	1.0133567
46	0x3f806ade	1.0032613
47	0x3f7db2a4	0.9910071
48	0x3f7dac2c	0.9909084
49	0x3f81664a	1.0109341
50	0x3f70d9c6	0.94082296
51	0x3f84ecb0	1.0384731
52	0x3f7cddba	0.9877583
53	0x3f806272	1.0030043
54	0x3f7eebd2	0.99578583
55	0x3f7c87a0	0.9864445
56	0x3f7fdaae	0.99943054
57	0x3f802f53	1.0014442
58	0x3f7ef0d8	0.9958625
59	0x3f7f23f6	0.9966425
60	0x3f764f89	0.9621511
61	0x3f7e37f8	0.9930415
62	0x3f800dc3	1.00042
63	0x3f80e87d	1.007095

fai_gcn_networks.1.residual.1.bias f4 [64]
0	0x00000000	0.0
1	0x00000000	0.0
2	0x00000000	0.0
3	0x00000000	0.0
4	0x00000000	0.0
5	0x00000000	0.0
6	0x00000000	0.0
7	0x00000000	0.0
8	0x00000000	0.0
9	0x00000000	0.0
10	0x00000000	0.0
11	0x00000000	0.0
12	0x00000000	0.0
13	0x00000000	0.0
14	0x00000000	0.0
15	0x00000000	0.0
16	0x00000000	0.0
17	0x00000000	0.0
18	0x00000000	0.0
19	0x00000000	0.0
20	0x00000000	0.0
21	0x00000000	0.0
22	0x00000000	0.0
23	0x00000000	0.0
24	0x00000000	0.0
25	0x00000000	0.0
26	0x00000000	0.0
27	0x00000000	0.0
28	0x00000000	0.0
29	0x00000000	0.0
30	0x00000000	0.0
31	0x00000000	0.0
32	0x00000000	0.0
33	0x00000000	0.0
34	0x00000000	0.0
35	0x00000000	0.0
36	0x00000000	0.0
37	0x00000000	0.0
38	0x00000000	0.0
39	0x00000000	0.0
40	0x00000000	0.0
41	0x00000000	0.0
42	0x00000000	0.0
43	0x00000000	0.0
44	0x00000000	0.0
45	0x00000000	0.0
46	0x00000000	0.0
47	0x00000000	0.0
48	0x00000000	0.0
49	0x00000000	0.0
50	0x00000000	0.0
51	0x00000000	0.0
52	0x00000000	0.0
53	0x00000000	0.0
54	0x00000000	0.0
55	0x00000000	0.0
56	0x00000000	0.0
57	0x00000000	0.0
58	0x00000000	0.0
59	0x00000000	0.0
60	0x00000000	0.0
61	0x00000000	0.0
62	0x00000000	0.0
63	0x00000000	0.0

fai_gcn_networks.1.residual.1.running_mean f4 [64]
0	0xb599f48f	-1.1470564e-06
1	0x3655ca64	3.185728e-06
2	0xb306ec27	-3.1414086e-08
3	0x36dfc8b7	6.669284e-06
4	0xb612abc4	-2.1855676e-06
5	0xb63bb9f9	-2.7973422e-06
6	0x36135c86	2.1958563e-06
7	0x366f5fab	3.5669461e-06
8	0x352a4248	6.3426387e-07
9	0xb525280f	-6.1525583e-07
10	0x361fd3d2	2.3816142e-06
11	0x360fbea4	2.1419628e-06
12	0xb699afa5	-4.580203e-06
13	0x349087f7	2.6921018e-07
14	0x358c4d2a	1.045327e-06
15	0x34baca1a	3.4792248e-07
16	0xb64ead22	-3.0797169e-06
17	0xb6319b1a	-2.6465336e-06
18	0x35b879e4	1.3744543e-06
19	0x353069cf	6.571908e-07
20	0x3721319f	9.607901e-06
21	0x3544605e	7.315592e-07
22	0x331ef9af	3.7014328e-08
23	0xb6caa387	-6.039106e-06
24	0x36c9bce0	6.0122547e-06
25	0x36901f08	4.295147e-06
26	0x35c94da7	1.4998267e-06
27	0x35f8c7f8	1.8535638e-06
28	0xb438275d	-1.7150656e-07
29	0x360a1997	2.0578498e-06
30	0xb5ab144f	-1.2746403e-06
31	0xb5440d34	-7.3034903e-07
32	0xb67554b8	-3.6557158e-06
33	0x36023790	1.9403851e-06
34	0xb5ade8fe	-1.2957314e-06
35	0x36400d20	2.861787e-06
36	0xb6a20d41	-4.829519e-06
37	0xb6cf5eae	-6.180103e-06
38	0x35dddee1	1.6530649e-06
39	0xb6488378	-2.9878847e-06
40	0xb5cd81ff	-1.5311524e-06
41	0x354b59f1	7.5754275e-07
42	0xb48f504a	-2.6694244e-07
43	0x363a22c2	2.7736392e-06
44	0xb67cf609	-3.7694138e-06
45	0xb5a4bc8c	-1.2273827e-06
46	0x36c6d923	5.926138e-06
47	0xb31d1d07	-3.658081e-08
48	0xb415bd32	-1.3945535e-07
49	0xb612cb3c	-2.1873993e-06
50	0xb6d20ff6	-6.260346e-06
51	0x34848e6c	2.4690542e-07
52	0xb6a16953	-4.8104353e-06
53	0x360cb406	2.0966413e-06
54	0x35190149	5.699881e-07
55	0xb609e17b	-2.0545838e-06
56	0xb640cd0c	-2.8729582e-06
57	0xb60c2f1e	-2.0889051e-06
58	0xb695531e	-4.450222e-06
59	0xb6a09798	-4.7860194e-06
60	0xb64b9a03	-3.0339004e-06
61	0xb4445793	-1.8285782e-07
62	0x357ddadf	9.4568344e-07
63	0x35bb5df1	1.3959926e-06

fai_gcn_networks.1.residual.1.running_var f4 [64]
0	0x2db9cb07	2.1122227e-11
1	0x2c503bb3	2.9591718e-12
2	0x2df80833	2.8197977e-11
3	0x2e92403f	6.650724e-11
4	0x2e38bbc4	4.2003526e-11
5	0x2d8ec5c8	1.6231363e-11
6	0x2d468e46	1.1286588e-11
7	0x2d6c52be	1.3433419e-11
8	0x2c8092e5	3.6542874e-12
9	0x2dfe5e1f	2.8918255e-11
10	0x2ddab4af	2.486397e-11
11	0x2e2f8c64	3.9915085e-11
12	0x2e137eef	3.353667e-11
13	0x2c9cafda	4.45331e-12
14	0x2d670e98	1.313407e-11
15	0x2d9dfff9	1.7962508e-11
16	0x2d8b6bcb	1.585034e-11
17	0x2d98e46b	1.7381837e-11
18	0x2d3540cc	1.0303047e-11
19	0x2d75d4ee	1.39739175e-11
20	0x2eb453b8	8.200324e-11
21	0x2da47e54	1.8700742e-11
22	0x2d97ac5d	1.7243257e-11
23	0x2e847728	6.0238314e-11
24	0x2e80c943	5.8565174e-11
25	0x2dee1a51	2.7069154e-11
26	0x2c55c4ea	3.037843e-12
27	0x2da01797	1.820037e-11
28	0x2d002a03	7.285286e-12
29	0x2dba5940	2.1185387e-11
30	0x2cc7bd2e	5.6769233e-12
31	0x2d813ea8	1.4693427e-11
32	0x2d18658c	8.662748e-12
33	0x2e13ab29	3.357595e-11
34	0x2d3eb131	1.0839594e-11
35	0x2d98bbe0	1.7363833e-11
36	0x2d799949	1.41880474e-11
37	0x2e0a275b	3.1412522e-11
38	0x2e079d05	3.0834908e-11
39	0x2d25641e	9.401395e-12
40	0x2cbb4701	5.3227427e-12
41	0x2cba1815	5.2891116e-12
42	0x2be176bd	1.6020168e-12
43	0x2d1834c7	8.651919e-12
44	0x2d20be94	9.137264e-12
45	0x2d24fec6	9.378892e-12
46	0x2d808594	1.4611236e-11
47	0x2c667a87	3.2752982e-12
48	0x2e075516	3.0771018e-11
49	0x2d94aa59	1.6901302e-11
50	0x2e49bea0	4.5871418e-11
51	0x2e00734c	2.9206235e-11
52	0x2d8e481a	1.617555e-11
53	0x2d59d400	1.2382095e-11
54	0x2d1b80d3	8.839335e-12
55	0x2df1619e	2.7441879e-11
56	0x2cee7282	6.7770798e-12
57	0x2db779eb	2.0858834e-11
58	0x2daec20b	1.9867682e-11
59	0x2d2d627f	9.855782e-12
60	0x2ce37283	6.4644414e-12
61	0x2cf04f22	6.8299958e-12
62	0x2d75ec21	1.3979069e-11
63	0x2d0e4383	8.086756e-12
