capsule-6073072/code/work_dir/recognition/kinetics_skeleton/FAI_GCN/epoch300_model.pt (torch, 74070 bytes, 22 tensors)

A f4 [3, 18, 18]
0	0x3e800000	0.25
1	0x00000000	0.0
2	0x00000000	0.0
3	0x00000000	0.0
4	0x00000000	0.0
5	0x00000000	0.0
6	0x00000000	0.0
7	0x00000000	0.0
8	0x00000000	0.0
9	0x00000000	0.0
10	0x00000000	0.0
11	0x00000000	0.0
12	0x00000000	0.0
13	0x00000000	0.0
14	0x00000000	0.0
15	0x00000000	0.0
16	0x00000000	0.0
17	0x00000000	0.0
18	0x00000000	0.0
19	0x3e800000	0.25
20	0x00000000	0.0
21	0x00000000	0.0
22	0x00000000	0.0
23	0x00000000	0.0
24	0x00000000	0.0
25	0x00000000	0.0
26	0x00000000	0.0
27	0x00000000	0.0
28	0x00000000	0.0
29	0x00000000	0.0
30	0x00000000	0.0
31	0x00000000	0.0
32	0x00000000	0.0
33	0x00000000	0.0
34	0x00000000	0.0
35	0x00000000	0.0
36	0x00000000	0.0
37	0x00000000	0.0
38	0x3e800000	0.25
39	0x00000000	0.0
40	0x00000000	0.0
41	0x00000000	0.0
42	0x00000000	0.0
43	0x00000000	0.0
44	0x00000000	0.0
45	0x00000000	0.0
46	0x00000000	0.0
47	0x00000000	0.0
48	0x00000000	0.0
49	0x00000000	0.0
50	0x00000000	0.0
51	0x00000000	0.0
52	0x00000000	0.0
53	0x00000000	0.0
54	0x00000000	0.0
55	0x00000000	0.0
56	0x00000000	0.0
57	0x3eaaaaab	0.33333334
58	0x00000000	0.0
59	0x00000000	0.0
60	0x00000000	0.0
61	0x00000000	0.0
62	0x00000000	0.0
63	0x00000000	0.0
64	0x00000000	0.0
65	0x00000000	0.0
66	0x00000000	0.0
67	0x00000000	0.0
68	0x00000000	0.0
69	0x00000000	0.0
70	0x00000000	0.0
71	0x00000000	0.0
72	0x00000000	0.0
73	0x00000000	0.0
74	0x00000000	0.0
75	0x00000000	0.0
76	0x3f000000	0.5
77	0x00000000	0.0
78	0x00000000	0.0
79	0x00000000	0.0
80	0x00000000	0.0
81	0x00000000	0.0
82	0x00000000	0.0
83	0x00000000	0.0
84	0x00000000	0.0
85	0x00000000	0.0
86	0x00000000	0.0
87	0x00000000	0.0
88	0x00000000	0.0
89	0x00000000	0.0
90	0x00000000	0.0
91	0x00000000	0.0
92	0x00000000	0.0
93	0x00000000	0.0
94	0x00000000	0.0
95	0x3e800000	0.25
96	0x00000000	0.0
97	0x00000000	0.0
98	0x00000000	0.0
99	0x00000000	0.0
100	0x00000000	0.0
101	0x00000000	0.0
102	0x00000000	0.0
103	0x00000000	0.0
104	0x00000000	0.0
105	0x00000000	0.0
106	0x00000000	0.0
107	0x00000000	0.0
108	0x00000000	0.0
109	0x00000000	0.0
110	0x00000000	0.0
111	0x00000000	0.0
112	0x00000000	0.0
113	0x00000000	0.0
114	0x3eaaaaab	0.33333334
115	0x00000000	0.0
116	0x00000000	0.0
117	0x00000000	0.0
118	0x00000000	0.0
119	0x00000000	0.0
120	0x00000000	0.0
121	0x00000000	0.0
122	0x00000000	0.0
123	0x00000000	0.0
124	0x00000000	0.0
125	0x00000000	0.0
126	0x00000000	0.0
127	0x00000000	0.0
128	0x00000000	0.0
129	0x00000000	0.0
130	0x00000000	0.0
131	0x00000000	0.0
132	0x00000000	0.0
133	0x3f000000	0.5
134	0x00000000	0.0
135	0x00000000	0.0
136	0x00000000	0.0
137	0x00000000	0.0
138	0x00000000	0.0
139	0x00000000	0.0
140	0x00000000	0.0
141	0x00000000	0.0
142	0x00000000	0.0
143	0x00000000	0.0
144	0x00000000	0.0
145	0x00000000	0.0
146	0x00000000	0.0
147	0x00000000	0.0
148	0x00000000	0.0
149	0x00000000	0.0
150	0x00000000	0.0
151	0x00000000	0.0
152	0x3eaaaaab	0.33333334
153	0x00000000	0.0
154	0x00000000	0.0
155	0x00000000	0.0
156	0x00000000	0.0
157	0x00000000	0.0
158	0x00000000	0.0
159	0x00000000	0.0
160	0x00000000	0.0
161	0x00000000	0.0
162	0x00000000	0.0
163	0x00000000	0.0
164	0x00000000	0.0
165	0x00000000	0.0
166	0x00000000	0.0
167	0x00000000	0.0
168	0x00000000	0.0
169	0x00000000	0.0
170	0x00000000	0.0
171	0x3eaaaaab	0.33333334
172	0x00000000	0.0
173	0x00000000	0.0
174	0x00000000	0.0
175	0x00000000	0.0
176	0x00000000	0.0
177	0x00000000	0.0
178	0x00000000	0.0
179	0x00000000	0.0
180	0x00000000	0.0
181	0x00000000	0.0
182	0x00000000	0.0
183	0x00000000	0.0
184	0x00000000	0.0
185	0x00000000	0.0
186	0x00000000	0.0
187	0x00000000	0.0
188	0x00000000	0.0
189	0x00000000	0.0
190	0x3f000000	0.5
191	0x00000000	0.0
192	0x00000000	0.0
193	0x00000000	0.0
194	0x00000000	0.0
195	0x00000000	0.0
196	0x00000000	0.0
197	0x00000000	0.0
198	0x00000000	0.0
199	0x00000000	0.0
200	0x00000000	0.0
201	0x00000000	0.0
202	0x00000000	0.0
203	0x00000000	0.0
204	0x00000000	0.0
205	0x00000000	0.0
206	0x00000000	0.0
207	0x00000000	0.0
208	0x00000000	0.0
209	0x3eaaaaab	0.33333334
210	0x00000000	0.0
211	0x00000000	0.0
212	0x00000000	0.0
213	0x00000000	0.0
214	0x00000000	0.0
215	0x00000000	0.0
216	0x00000000	0.0
217	0x00000000	0.0
218	0x00000000	0.0
219	0x00000000	0.0
220	0x00000000	0.0
221	0x00000000	0.0
222	0x00000000	0.0
223	0x00000000	0.0
224	0x00000000	0.0
225	0x00000000	0.0
226	0x00000000	0.0
227	0x00000000	0.0
228	0x3eaaaaab	0.33333334
229	0x00000000	0.0
230	0x00000000	0.0
231	0x00000000	0.0
232	0x00000000	0.0
233	0x00000000	0.0
234	0x00000000	0.0
235	0x00000000	0.0
236	0x00000000	0.0
237	0x00000000	0.0
238	0x00000000	0.0
239	0x00000000	0.0
240	0x00000000	0.0
241	0x00000000	0.0
242	0x00000000	0.0
243	0x00000000	0.0
244	0x00000000	0.0
245	0x00000000	0.0
246	0x00000000	0.0
247	0x3f000000	0.5
248	0x00000000	0.0
249	0x00000000	0.0
250	0x00000000	0.0
251	0x00000000	0.0
252	0x00000000	0.0
253	0x00000000	0.0
254	0x00000000	0.0
255	0x00000000	0.0

data_bn.weight f4 [54]
0	0x3f3214bc	0.6956289
1	0x3f308cfb	0.6896512
2	0x3f340ede	0.70335186
3	0x3f317fb5	0.6933549
4	0x3f34f803	0.70690936
5	0x3f245833	0.6419708
6	0x3f3537f3	0.70788497
7	0x3f2a46f8	0.6651454
8	0x3f38471d	0.7198351
9	0x3f278353	0.6543476
10	0x3f2fbb4d	0.68645173
11	0x3f2d769b	0.677591
12	0x3f309675	0.6897958
13	0x3f362cd8	0.71162176
14	0x3f3016bc	0.6878469
15	0x3f2aa9c7	0.6666531
16	0x3f2a4b29	0.66520935
17	0x3f277ca1	0.65424544
18	0x3f34309d	0.7038668
19	0x3f36232c	0.7114742
20	0x3f315de8	0.69283915
21	0x3f34728a	0.7048727
22	0x3f303165	0.6882537
23	0x3f32374c	0.69615626
24	0x3f33cddc	0.7023599
25	0x3f36e2be	0.7143973
26	0x3f2fd6c7	0.686871
27	0x3f3120f7	0.69190925
28	0x3f30230d	0.68803483
29	0x3f32359f	0.6961307
30	0x3f29689a	0.66175234
31	0x3f31c563	0.69441813
32	0x3f2ec0fb	0.68263215
33	0x3f30b5f0	0.69027615
34	0x3f33c032	0.7021514
35	0x3f2c72e1	0.6736279
36	0x3f2d9239	0.67801243
37	0x3f2f6a10	0.68521214
38	0x3f3224ad	0.6958721
39	0x3f2dd9fd	0.6791075
40	0x3f30ba0e	0.69033897
41	0x3f2f1bc0	0.6840172
42	0x3f1cc4ac	0.612376
43	0x3f293213	0.6609203
44	0x3f2c4676	0.67295015
45	0x3f2db166	0.67848814
46	0x3f2ff343	0.6873056
47	0x3f34fb8e	0.7069634
48	0x3f31b32d	0.69414026
49	0x3f373fba	0.71581614
50	0x3f30abe7	0.690123
51	0x3f358fde	0.7092265
52	0x3f230870	0.6368475
53	0x3f24b3b2	0.64336693

data_bn.bias f4 [54]
0	0x1c07b00d	4.4895293e-22
1	0x33d2fa0d	9.824371e-08
2	0x1c8fc26e	9.513205e-22
3	0xb7beb50d	-2.2734073e-05
4	0x1a812417	5.3411456e-23
5	0x32414083	1.1248747e-08
6	0x1b140cd3	1.2246417e-22
7	0x318f684b	4.1737045e-09
8	0x1c8ef550	9.460184e-22
9	0xb541a49f	-7.213766e-07
10	0xac0f5448	-2.0368308e-12
11	0x35bd0e89	1.4085828e-06
12	0xadb6ed6e	-2.0796444e-11
13	0x2afb3961	4.462637e-13
14	0xa951c802	-4.65808e-14
15	0x1b9520f9	2.467129e-22
16	0xb2005b41	-7.471329e-09
17	0x1c8fc722	9.514421e-22
18	0x27fdd1ac	7.0448933e-15
19	0x2e183cad	3.461469e-11
20	0x282cdf0c	9.596284e-15
21	0xb2e227a3	-2.6327887e-08
22	0x33cde9c5	9.588579e-08
23	0x2780a99b	3.5711023e-15
24	0x301153d2	5.286981e-10
25	0x2cc4caab	5.5931557e-12
26	0xad6e1cfe	-1.3535171e-11
27	0xb5363df4	-6.7890437e-07
28	0xb54b52d4	-7.5743924e-07
29	0x3197f16d	4.4221253e-09
30	0xb026ae49	-6.063812e-10
31	0xb037e265	-6.689674e-10
32	0xb21fe919	-9.308018e-09
33	0xb13a5d69	-2.711966e-09
34	0x3645a89c	2.945343e-06
35	0xaa83ef7b	-2.3436448e-13
36	0x3667d706	3.4546842e-06
37	0x352ee8d7	6.515888e-07
38	0x2df4f0d5	2.784654e-11
39	0xad1d0a4e	-8.926705e-12
40	0xae9fa1dd	-7.2592356e-11
41	0xad92c24f	-1.6684569e-11
42	0xa6ee2b61	-1.6526325e-15
43	0x2bc3f5e4	1.3923832e-12
44	0xb7aca7cf	-2.058214e-05
45	0xb1ddb651	-6.4526735e-09
46	0x2d84fc7a	1.5118785e-11
47	0x34d99c18	4.0532973e-07
48	0xb414ee83	-1.3870344e-07
49	0xaa00bb12	-1.1433587e-13
50	0x2650122b	7.218912e-16
51	0x2f979179	2.7570105e-10
52	0xb4da1d29	-4.062688e-07
53	0xa8d6c2f8	-2.3843327e-14

data_bn.running_mean f4 [54]
0	0x3c91479c	0.017734341
1	0xbd9d53ea	-0.07682021
2	0x3e4897a2	0.19589093
3	0x3c9743ae	0.01846489
4	0xbd5276fa	-0.051382996
5	0x3e3ac63e	0.18239686
6	0x3c06a27b	0.008217449
7	0xbd5e236b	-0.054232996
8	0x3e2301ca	0.15918651
9	0xbb062a62	-0.002047204
10	0xbd2dd41e	-0.04243862
11	0x3e244163	0.16040568
12	0xbb859057	-0.0040760445
13	0xbd36290a	-0.04447273
14	0x3e2370d4	0.1596101
15	0x3cece5bc	0.02891814
16	0xbd450e59	-0.048109386
17	0x3e281584	0.16414458
18	0x3d001f46	0.031279825
19	0xbd0cc66b	-0.034368914
20	0x3e1ba05d	0.15197892
21	0x3ce9ff80	0.028564215
22	0xbd1429db	-0.03617273
23	0x3e19fb3d	0.15037246
24	0x3b628da9	0.00345693
25	0xbb641806	-0.0034804358
26	0x3e07c97b	0.13260452
27	0xbbf2fd38	-0.00741544
28	0x3c07d625	0.008290802
29	0x3e196240	0.14978886
30	0xb9ab492f	-0.00032670188
31	0x3d1d435e	0.038394324
32	0x3e1a05c1	0.15041257
33	0x3c8aaf47	0.016929282
34	0xba045e64	-0.00050494657
35	0x3e04b490	0.12959504
36	0x3caf3972	0.021389697
37	0x3c3c58b6	0.01149576
38	0x3e1b1d29	0.15147842
39	0x3c45a4eb	0.012063245
40	0x3d25cf8f	0.040481146
41	0x3e158ca5	0.14604433
42	0x3c9709ae	0.018437233
43	0xbda10959	-0.07863111
44	0x3e14ec0d	0.14543171
45	0x3cbeee1b	0.023306897
46	0xbda0b12b	-0.07846292
47	0x3e4b755c	0.19868988
48	0x3cbc65b0	0.022997707
49	0xbd23facd	-0.040034104
50	0x3d6228d7	0.05521473
51	0x3cf85201	0.03031254
52	0xbd84778c	-0.06468114
53	0x3e25d5c6	0.1619483

data_bn.running_var f4 [54]
0	0x3b9ae87b	0.004727421
1	0x3c8d6392	0.017259393
2	0x3dad2003	0.084533714
3	0x3b94fbf4	0.0045466367
4	0x3c24157a	0.010014886
5	0x3d940526	0.072275445
6	0x3bafc3c8	0.005363915
7	0x3c2c68ec	0.010523062
8	0x3d690b1c	0.05689536
9	0x3bec89d1	0.0072185774
10	0x3c0a5f1e	0.008445529
11	0x3d76606e	0.060150556
12	0x3c0fb2ee	0.0087706875
13	0x3c2a15db	0.010381187
14	0x3d7a4ed8	0.061110348
15	0x3b945e3b	0.0045278347
16	0x3c1cf2e0	0.00957939
17	0x3d6d69e8	0.05796233
18	0x3bb11f0e	0.0054053133
19	0x3c02cc6d	0.007983309
20	0x3d6acd70	0.057324827
21	0x3bc853ba	0.0061134966
22	0x3c3490ad	0.0110208215
23	0x3d6cd5d0	0.057821095
24	0x3be47b16	0.006972681
25	0x3b820147	0.0039674374
26	0x3d1fb207	0.03898814
27	0x3c11b8e9	0.008894184
28	0x3b8cf9e6	0.004302251
29	0x3d5170c4	0.051132932
30	0x3c10fe11	0.008849637
31	0x3bfe58fb	0.007762072
32	0x3d650fdf	0.05592334
33	0x3bbc39bb	0.0057441867
34	0x3b858762	0.004074977
35	0x3d15fb6e	0.036616735
36	0x3be13e6b	0.006873896
37	0x3ba30fe9	0.004976262
38	0x3d58b6a7	0.052908566
39	0x3bdb3c93	0.0066905706
40	0x3c08cbb3	0.008349347
41	0x3d57f4e1	0.05272377
42	0x3b8d7433	0.0043168305
43	0x3c952197	0.018204493
44	0x3d6a1072	0.05714459
45	0x3b8d236f	0.0043072025
46	0x3c9126d5	0.017718712
47	0x3db29937	0.0872063
48	0x3b6ff234	0.003661287
49	0x3c1e92f9	0.009678596
50	0x3cc3595d	0.023846323
51	0x3b7c1d88	0.003846975
52	0x3c5c1cad	0.013434571
53	0x3d811997	0.06303709

fai_gcn_networks.0.gcn.conv.weight f4 [96, 3, 1, 1]
0	0x1a90b8d4	5.985561e-23
1	0x9c384dc7	-6.098102e-22
2	0x1b00b605	1.0646726e-22
3	0x9e891364	-1.4513459e-20
4	0x9d03c18c	-1.7437767e-21
5	0x1ab24229	7.372596e-23
6	0x1992e46b	1.5188303e-23
7	0x1706c608	4.3547686e-25
8	0x9805c50d	-1.7289332e-24
9	0xa68c9254	-9.754114e-16
10	0xa64c3aef	-7.085659e-16
11	0xa84d50c1	-1.1397297e-14
12	0x148d4315	1.4263821e-26
13	0x9728fe84	-5.460497e-25
14	0x95b432c2	-7.27815e-26
15	0x29c1b6e0	8.6026455e-14
16	0x24697ce5	5.062961e-17
17	0x26bcec6c	1.3109203e-15
18	0x175b3c75	7.0839024e-25
19	0x1a16127b	3.10342e-23
20	0x1a5c98cd	4.5618365e-23
21	0x2686a9d2	9.344148e-16
22	0xa5da04e0	-3.7820275e-16
23	0xa6ad7a7e	-1.2037488e-15
24	0x9e0afa68	-7.357442e-21
25	0x1eb919e2	1.9598342e-20
26	0x9e780e1e	-1.313193e-20
27	0x28d24fcf	2.3349295e-14
28	0xa935e6e3	-4.0390336e-14
29	0x285c707d	1.2236845e-14
30	0x161f8457	1.2885677e-25
31	0x976345fe	-7.3436e-25
32	0x979c01f6	-1.0081759e-24
33	0x9ec55e1e	-2.0897112e-20
34	0x1e583b5e	1.1447222e-20
35	0x20079e96	1.1487416e-19
36	0x1da7723c	4.4322648e-21
37	0x1e46d455	1.0525942e-20
38	0x1db8c989	4.8912777e-21
39	0x1c0b5739	4.6103975e-22
40	0x9b844b46	-2.1886212e-22
41	0x9ce0ec85	-1.4884215e-21
42	0xa43acdc0	-4.0506598e-17
43	0xa1007364	-4.3520805e-19
44	0xa41641f2	-3.2581923e-17
45	0x9f784521	-5.2573225e-20
46	0x1b8fdf62	2.3801723e-22
47	0x9c0a342d	-4.5727805e-22
48	0x90f08801	-9.4872856e-29
49	0x1183f679	2.0820056e-28
50	0x92bff036	-1.2113011e-27
51	0x98f14ad6	-6.2372605e-24
52	0x1aa5cff9	6.85784e-23
53	0x996607c6	-1.1892291e-23
54	0x15a5b02d	6.6920926e-26
55	0x14e6a01a	2.3287214e-26
56	0x9487065f	-1.363403e-26
57	0x9b646e88	-1.8895433e-22
58	0x9a8837df	-5.6338546e-23
59	0x1afd3c76	1.0473603e-22
60	0x18ed3b44	6.1322907e-24
61	0x184286fd	2.5142064e-24
62	0x1690e6a1	2.3410002e-25
63	0x96d552d0	-3.4464268e-25
64	0x982c5842	-2.2275038e-24
65	0x18b03ae7	4.555441e-24
66	0x9b6b7d88	-1.9479306e-22
67	0x9a487df9	-4.146079e-23
68	0xa14cee66	-6.9433406e-19
69	0x9d3869b9	-2.4406855e-21
70	0x9ce55719	-1.5176463e-21
71	0x1e5b4f11	1.1610114e-20
72	0x9fb3de69	-7.6177396e-20
73	0xa1eec725	-1.618022e-18
74	0xa29dceb6	-4.27738e-18
75	0x248ded74	6.1551264e-17
76	0x242f4a14	3.8009823e-17
77	0x239badc3	1.6878725e-17
78	0x18d74d93	5.5654527e-24
79	0x96b3824b	-2.9001236e-25
80	0x1530778a	3.5637217e-26
81	0x1bb9ce38	3.0738948e-22
82	0x1baad83c	2.826388e-22
83	0x9ba79c43	-2.7728814e-22
84	0x9dcff05e	-5.5040978e-21
85	0x9e043066	-6.99803e-21
86	0x9ec1d91e	-2.0524467e-20
87	0x9ff8ad7b	-1.05319085e-19
88	0x2023649e	1.3839928e-19
89	0x9f9e0dbc	-6.6938324e-20
90	0x9de93d9a	-6.173828e-21
91	0x9c603784	-7.4187135e-22
92	0x9b8a56e0	-2.2886327e-22
93	0x2930cf38	3.9259584e-14
94	0xa6515ddb	-7.263864e-16
95	0x26cf3831	1.4378741e-15
96	0x9bcc6239	-3.3812444e-22
97	0x9c563b10	-7.0882997e-22
98	0x9cc09015	-1.2742739e-21
99	0x1e95e25b	1.5869607e-20
100	0x9f06c61c	-2.8539476e-20
101	0x97cc82af	-1.321618e-24
102	0x9b205cdb	-1.3264893e-22
103	0x18d21cf9	5.4312983e-24
104	0x986a78dd	-3.0304812e-24
105	0x25092b6a	1.1897565e-16
106	0x257d23b8	2.1956354e-16
107	0xa6a0a207	-1.1146148e-15
108	0x17aeba91	1.1291582e-24
109	0x1705dbf8	4.3252257e-25
110	0x16f75a5b	3.9962025e-25
111	0xa79a6e09	-4.2862887e-15
112	0xa7cb99a5	-5.65104e-15
113	0xa7c44309	-5.4473608e-15
114	0x19ef5bab	2.4749045e-23
115	0x9adfddc7	-9.258894e-23
116	0x1986636d	1.3895433e-23
117	0x272fc91a	2.4395146e-15
118	0x2bbf11ce	1.3576308e-12
119	0x265129bc	7.2568e-16
120	0x1eb49f35	1.9124088e-20
121	0x9f87d56b	-5.7527794e-20
122	0x9f95c498	-6.342919e-20
123	0x28ac4e53	1.9129804e-14
124	0xa853219b	-1.172014e-14
125	0x28f60011	2.7311515e-14
126	0x972ae92e	-5.5224277e-25
127	0x1759d566	7.038583e-25
128	0x993b910b	-9.6969646e-24
129	0x1f4b34e1	4.3030662e-20
130	0x1eefbc95	2.5383105e-20
131	0x9deb5997	-6.2296616e-21
132	0x1eac67f7	1.8254207e-20
133	0x9e83000c	-1.3870184e-20
134	0x1d7deca5	3.3606614e-21
135	0x9e81ce48	-1.3743722e-20
136	0x1f200870	3.3888297e-20
137	0x9f08fd40	-2.9008604e-20
138	0xa4735ba3	-5.2769845e-17
139	0x2303aadc	7.137705e-18
140	0x23041780	7.160711e-18
141	0x9ec99066	-2.1341425e-20
142	0x9e92485a	-1.5488275e-20
143	0x9e843d09	-1.4001287e-20
144	0x115c536e	1.7380649e-28
145	0x1222633d	5.1240507e-28
146	0x11dfe62d	3.5325053e-28
147	0x9b0d84d2	-1.1706163e-22
148	0x99a39e26	-1.691768e-23
149	0x9a4609ba	-4.0953297e-23
150	0x165e1673	1.7940101e-25
151	0x95e02a63	-9.0539754e-26
152	0x959b778f	-6.279263e-26
153	0x1bea6c87	3.8782187e-22
154	0x19a0f7ee	1.664375e-23
155	0x9b91d3da	-2.4125144e-22
156	0x98c8f514	-5.1946254e-24
157	0x99d1941b	-2.1669913e-23
158	0x18f93b49	6.4424854e-24
159	0x1837ce8d	2.3756477e-24
160	0x99be5310	-1.9679088e-23
161	0x199358e8	1.5235353e-23
162	0x199344ea	1.5227278e-23
163	0x9c496d50	-6.6646604e-22
164	0x1bdc9aaa	3.6495896e-22
165	0x9cb2c0a9	-1.1828853e-21
166	0x1e8d1957	1.4939436e-20
167	0x1ce78848	1.5321526e-21
168	0xa222e516	-2.2076371e-18
169	0x22b79596	4.976063e-18
170	0xa20c6c06	-1.9030725e-18
171	0xa4500551	-4.5107314e-17
172	0xa58bf954	-2.4281608e-16
173	0xa28b5d68	-3.7774923e-18
174	0x19512691	1.0812835e-23
175	0x1a3e2125	3.9317853e-23
176	0x98295f15	-2.1890742e-24
177	0x1e988bd3	1.6151456e-20
178	0x9c9cd8af	-1.0379225e-21
179	0x1ea84013	1.7814192e-20
180	0x1da175f2	4.2738298e-21
181	0x9d5de47a	-2.9367226e-21
182	0x9e34272f	-9.537224e-21
183	0x9d617862	-2.9840739e-21
184	0x1f35399e	3.83759e-20
185	0x1ef3903f	2.5788285e-20
186	0xa229e4d8	-2.302492e-18
187	0x9ccd6ad3	-1.3593375e-21
188	0x9cc5247a	-1.3045795e-21
189	0x2695612d	1.0365291e-15
190	0x29bb2e2b	8.312477e-14
191	0xa878ccbb	-1.3811159e-14
192	0x19d7734b	2.2277045e-23
193	0x99eeee49	-2.4704866e-23
194	0x99071186	-6.982875e-24
195	0x1ec6c959	2.1047341e-20
196	0x9ef1ce17	-2.5602104e-20
197	0x1a3188d2	3.6713265e-23
198	0x1b7165fd	1.9968007e-22
199	0x9a35b1b7	-3.757348e-23
200	0x99cae9b7	-2.0980707e-23
201	0xa49fb577	-6.926267e-17
202	0x25596d12	1.8858704e-16
203	0x236062c9	1.2163983e-17
204	0x95e6098c	-9.291132e-26
205	0x14b88f0f	1.8635679e-26
206	0x178c2a62	9.057987e-25
207	0x2a977aaa	2.6908104e-13
208	0xa628ea7d	-5.86045e-16
209	0xa419b660	-3.3331064e-17
210	0x1938a680	9.5462015e-24
211	0x9824544a	-2.1239058e-24
212	0x1756870d	6.9317587e-25
213	0x25bee1a6	3.3112651e-16
214	0x25b2b849	3.1002954e-16
215	0x25e574d1	3.9804325e-16
216	0x9c574fba	-7.1240577e-22
217	0x1d2e29b6	2.3050272e-21
218	0x1c61ec17	7.4751394e-22
219	0x2876ac7b	1.3693144e-14
220	0x291f5eea	3.5387417e-14
221	0xa8f7b898	-2.7502563e-14
222	0x964debba	-1.663415e-25
223	0x9799cf05	-9.939652e-25
224	0x170e7e97	4.6042453e-25
225	0x1ed4ddf3	2.2538169e-20
226	0x9df73e55	-6.5444805e-21
227	0x1cbc0e1a	1.2444442e-21
228	0x1ce53797	1.5168318e-21
229	0xa438588c	-3.9973642e-17
230	0x1abc6ab0	7.792734e-23
231	0x9c5acb4b	-7.23929e-22
232	0x1c008362	4.2521456e-22
233	0x9d3080bd	-2.3359962e-21
234	0xa2476a52	-2.7025815e-18
235	0x2358bf41	1.1749883e-17
236	0x220e29bb	1.926668e-18
237	0x1d3211cd	2.3567307e-21
238	0x1e8ae2c3	1.4705105e-20
239	0x9b805c5c	-2.123551e-22
240	0x10ad56b5	6.837006e-29
241	0x113a8687	1.4714267e-28
242	0x12c1e2c0	1.2235911e-27
243	0x9aca8e81	-8.377547e-23
244	0x97fd6835	-1.6376047e-24
245	0x1a518550	4.3327876e-23
246	0x953c5baa	-3.8038608e-26
247	0x151db45f	3.1848185e-26
248	0x15210a2b	3.2521712e-26
249	0x19d03bcc	2.1530848e-23
250	0x98d8c304	-5.6031607e-24
251	0x19823c8a	1.3466136e-23
252	0x9d815d3e	-3.4242426e-21
253	0x9672be30	-1.9608617e-25
254	0x17cca1f5	1.3224075e-24
255	0x98053f25	-1.7221727e-24

fai_gcn_networks.0.gcn.conv.bias f4 [96]
0	0x250c3638	1.2161434e-16
1	0x2486862c	5.834053e-17
2	0x235dc1ad	1.20214464e-17
3	0xaacaecd9	-3.6046754e-13
4	0xa0d00c53	-3.5244726e-19
5	0xb261f24f	-1.3151818e-08
6	0x9b84bca7	-2.1959482e-22
7	0xa629a1d1	-5.8852956e-16
8	0x29b63c1a	8.0928496e-14
9	0xac55f9c9	-3.040778e-12
10	0x2333ab0c	9.73983e-18
11	0xa86a31d6	-1.3000416e-14
12	0x294cab17	4.5445496e-14
13	0x28f7fef7	2.7533082e-14
14	0xae59808d	-4.9454264e-11
15	0x295c3230	4.8893344e-14
16	0x1d26a646	2.2055878e-21
17	0xa4f3179c	-1.0542445e-16
18	0x2136d8b1	6.1950787e-19
19	0x26b1d66a	1.2339959e-15
20	0x24841a18	5.729008e-17
21	0xa3f8b4dd	-2.6964812e-17
22	0x1dc8575e	5.3029895e-21
23	0x288d92f3	1.5717874e-14
24	0x2d7b816f	1.4296438e-11
25	0xa6e84e19	-1.6119402e-15
26	0xa2ada089	-4.7061717e-18
27	0x291a5a0b	3.427297e-14
28	0x29ec1eb5	1.0485832e-13
29	0xa9408559	-4.2748225e-14
30	0x1f06c63d	2.8539583e-20
31	0xb2e4565c	-2.6581965e-08
32	0x249f789e	6.915959e-17
33	0x2587a135	2.3528005e-16
34	0xa5fad244	-4.3510568e-16
35	0xaac66c13	-3.5246857e-13
36	0x20fe5fa4	4.3092563e-19
37	0xb2627468	-1.3181399e-08
38	0x9b900df5	-2.383182e-22
39	0x28b35c7b	1.9913099e-14
40	0x2997cd20	6.7413306e-14
41	0xac3e097c	-2.7005889e-12
42	0x2387ea83	1.4736049e-17
43	0xa8993397	-1.7008786e-14
44	0x2988066f	6.040729e-14
45	0xa83a46f5	-1.03404605e-14
46	0xae4b4783	-4.622037e-11
47	0x29350b8e	4.0200096e-14
48	0x1dbe8579	5.043059e-21
49	0xa588b327	-2.3713638e-16
50	0x215bbf2f	7.4453116e-19
51	0x264f1b3b	7.1854456e-16
52	0x242c08f9	3.7304155e-17
53	0x23294e6e	9.1781165e-18
54	0x1d8c00c1	3.705847e-21
55	0x27b96d28	5.1466162e-15
56	0x2b8c6687	9.976055e-13
57	0xa6417374	-6.7116794e-16
58	0xa2d457e4	-5.7555773e-18
59	0x29ac2fcb	7.646625e-14
60	0x297274ab	5.3835988e-14
61	0xa95c2dda	-4.8889583e-14
62	0x9f66ee0a	-4.8901296e-20
63	0xb311f4d3	-3.398311e-08
64	0xa5cdf225	-3.5725915e-16
65	0x245db44c	4.8074453e-17
66	0x26692434	8.088718e-16
67	0x2b55ae7b	7.591494e-13
68	0x9f77a1d5	-5.243815e-20
69	0xb04b4956	-7.3955186e-10
70	0x1c0accdd	4.592515e-22
71	0xa6aeea2e	-1.213715e-15
72	0x29282b5d	3.7341105e-14
73	0xac9b38a9	-4.4116555e-12
74	0xa23fb1d2	-2.5979464e-18
75	0x28bcbbdc	2.0953664e-14
76	0xa93e520b	-4.2259636e-14
77	0xa94e4806	-4.580366e-14
78	0x2e14cbf8	3.3832465e-11
79	0x288f4f64	1.591062e-14
80	0x1c83f926	8.733256e-22
81	0x2584ca74	2.3035537e-16
82	0x203d93ec	1.6057866e-19
83	0x25faab2d	4.348408e-16
84	0x23cfd0a3	2.2531346e-17
85	0xa3e57fa0	-2.4882281e-17
86	0x1c9af912	1.0255248e-21
87	0x280a3c13	7.673565e-15
88	0xad63b740	-1.2944146e-11
89	0xa72acb73	-2.370253e-15
90	0xa33bbe51	-1.0177591e-17
91	0xa915ea20	-3.3287717e-14
92	0xa88b8cf2	-1.5493225e-14
93	0xaa886259	-2.4226695e-13
94	0x9f0e957c	-3.019332e-20
95	0xb292d4fd	-1.7093493e-08

fai_gcn_networks.1.gcn.conv.weight f4 [192, 32, 1, 1]
0	0x241ea85e	3.44034e-17
1	0x21e0d0b2	1.5234072e-18
2	0xa2f4452b	-6.6209567e-18
3	0x268f1bf5	9.930196e-16
4	0x9dff874d	-6.7637836e-21
5	0x2e495282	4.577539e-11
6	0x177c015f	8.142732e-25
7	0x282411c3	9.10768e-15
8	0x271d7763	2.1852847e-15
9	0x2a0e990e	1.2665235e-13
10	0x204a2e3d	1.7125364e-19
11	0xa52afec4	-1.4831467e-16
12	0x267b196d	8.7117577e-16
13	0xa733dde0	-2.4961519e-15
14	0xa9d9bfc6	-9.670003e-14
15	0xa6a031a3	-1.1115684e-15
16	0x9a0827ec	-2.815639e-23
17	0x228240d2	3.53052e-18
18	0x9ef49ac3	-2.5898513e-20
19	0xa2256d00	-2.2419374e-18
20	0x1f808c5c	5.4442314e-20
21	0x216a2854	7.933566e-19
22	0x9b2b1165	-1.4150409e-22
23	0x242a6e21	3.6956157e-17
24	0xa89c9173	-1.7382558e-14
25	0x24ee5fc6	1.03378293e-16
26	0x1e8b446d	1.4745498e-20
27	0x2590d6c6	2.5125554e-16
28	0xa6eb33bb	-1.6320422e-15
29	0xa62f530b	-6.0827866e-16
30	0x1e186606	8.067911e-21
31	0x2fd1f3e4	3.8190173e-10
32	0x24495708	4.3658646e-17
33	0x21a70786	1.1318352e-18
34	0xa2e6957c	-6.2499898e-18
35	0x25c23d70	3.3695267e-16
36	0x9ddf4a04	-5.910414e-21
37	0x2f433e62	1.775731e-10
38	0x98cd9d9c	-5.3150403e-24
39	0x267775e8	8.585513e-16
40	0xa63d6493	-6.570885e-16
41	0x29185fb8	3.3833803e-14
42	0xa182f20f	-8.873215e-19
43	0x2338cb30	1.0017687e-17
44	0x27960d37	4.164769e-15
45	0x26f24c9d	1.6812889e-15
46	0xa8fb2793	-2.788376e-14
47	0xa48b6835	-6.0458174e-17
48	0x1901086e	6.670846e-24
49	0x228763b2	3.669738e-18
50	0x1e00e974	6.8245406e-21
51	0x23d6ec96	2.3302125e-17
52	0x1f1e7621	3.3555515e-20
53	0x9fc57928	-8.363318e-20
54	0x9c666076	-7.622529e-22
55	0x250ae6a8	1.2047741e-16
56	0x2938634c	4.0942334e-14
57	0x24e9362f	1.0113943e-16
58	0x1eb82985	1.949893e-20
59	0x25e6a6ea	4.0011745e-16
60	0xa6f774fa	-1.7170775e-15
61	0x2775dd02	3.4120389e-15
62	0x1de0eea7	5.9539067e-21
63	0x30347a7f	6.5657696e-10
64	0x9385624c	-3.367085e-27
65	0x9013981c	-2.910782e-29
66	0x910f2f47	-1.129528e-28
67	0x95f7226e	-9.9816826e-26
68	0x0ce4cfa5	3.5253934e-31
69	0x9e073fa6	-7.160003e-21
70	0x069e82c4	5.962514e-35
71	0x95de6921	-8.983095e-26
72	0x943fe3d2	-9.687965e-27
73	0x17299f71	5.480809e-25
74	0x0e025776	1.6065848e-30
75	0x926b2b89	-7.4206586e-28
76	0x953329a9	-3.6181626e-26
77	0x942008fb	-8.079707e-27
78	0x98853f3e	-3.4443552e-24
79	0x9539f683	-3.7554916e-26
80	0x88023933	-3.918769e-34
81	0x913b10b9	-1.4756852e-28
82	0x0e1b811a	1.9167385e-30
83	0x9244aecc	-6.206215e-28
84	0x0d8d37ff	8.7032765e-31
85	0x0f51cd7e	1.0344072e-29
86	0x8b5ed8b7	-4.2918683e-32
87	0x119c37a3	2.464675e-28
88	0x17a64d10	1.0746952e-24
89	0x13a94a6e	4.273499e-27
90	0x8d914e0b	-8.955103e-31
91	0x123bba49	5.923641e-28
92	0x9554664d	-4.289376e-26
93	0x158bd053	5.647033e-26
94	0x8c8c19ee	-2.1586021e-31
95	0x9f0d4c93	-2.9921252e-20
96	0xa43ac1f1	-4.0496596e-17
97	0x225b3bab	2.9711622e-18
98	0xa2918086	-3.943841e-18
99	0x26ea5aef	1.6261659e-15
100	0x9edc9553	-2.3355165e-20
101	0x2ef24499	1.1017071e-10
102	0x17e2f508	1.4666762e-24
103	0x27b9b02b	5.1538817e-15
104	0x27c32459	5.416278e-15
105	0x29260737	3.6865662e-14
106	0x9ff7c39e	-1.0493219e-19
107	0x226731a8	3.1332626e-18
108	0x260d3156	4.8986065e-16
109	0x26db0202	1.5196722e-15
110	0xa9e308e5	-1.0082368e-13
111	0x262896de	5.849117e-16
112	0x99c78fbc	-2.0634172e-23
113	0x21eafc0a	1.5923171e-18
114	0x9fa0e658	-6.814371e-20
115	0x247cf360	5.4849936e-17
116	0x200546c7	1.1288956e-19
117	0xa01311a5	-1.2457222e-19
118	0x1dc8f2be	5.319055e-21
119	0x24e062d7	9.7311956e-17
120	0x2b7a7c28	8.8990143e-13
121	0x2623efba	5.6876875e-16
122	0x1eb68b0e	1.9327511e-20
123	0x25dc1229	3.8176222e-16
124	0xa7749c0f	-3.3946402e-15
125	0xa6164664	-5.21371e-16
126	0x1ebc49d9	1.9935817e-20
127	0x2f97a45b	2.7583522e-10
128	0x239ac5fa	1.678056e-17
129	0x22da5f10	5.918967e-18
130	0xa278087d	-3.361476e-18
131	0xa7b7c9fc	-5.1011695e-15
132	0x1ea27da4	1.7204381e-20
133	0x3000b920	4.6829207e-10
134	0x17ab31a8	1.1063151e-24
135	0x27a426cc	4.5561208e-15
136	0xa772669b	-3.363987e-15
137	0x284397fc	1.0857631e-14
138	0x2096f495	2.557284e-19
139	0x234aacbf	1.0987022e-17
140	0x26a0d419	1.1159719e-15
141	0xa604b3ee	-4.604055e-16
142	0xa9c1dd86	-8.60935e-14
143	0x25bb1de0	3.2459573e-16
144	0x9907484a	-6.993935e-24
145	0xa20d0478	-1.911143e-18
146	0x1e86524e	1.4221842e-20
147	0xa4497862	-4.3686896e-17
148	0x1f15cb09	3.1719924e-20
149	0x9e4726d4	-1.0543002e-20
150	0x9c91fa80	-9.660048e-22
151	0x251975d0	1.3310551e-16
152	0xaaa0e7bc	-2.8582507e-13
153	0x24ac1547	7.4629155e-17
154	0x1ed74015	2.2790514e-20
155	0x260b9404	4.842591e-16
156	0xa691fd4d	-1.0130053e-15
157	0x264aa6c7	7.0308854e-16
158	0x1e2cb8c7	9.143815e-21
159	0xb17d4dcd	-3.686057e-09
160	0x242e4f24	3.779727e-17
161	0x21e8e10d	1.5780502e-18
162	0xa2dc2742	-5.9672685e-18
163	0x26bc0ee7	1.304916e-15
164	0x1e20809e	8.496927e-21
165	0x2ed6529a	9.746266e-11
166	0x185e7866	2.8753613e-24
167	0x279b7841	4.315152e-15
168	0x26521233	7.288305e-16
169	0x2a0443f4	1.1747531e-13
170	0xa18138c5	-8.756407e-19
171	0x2311cfe9	7.9044924e-18
172	0x267cfbb5	8.777119e-16
173	0xa60f6190	-4.9745313e-16
174	0xa9cff74d	-9.2355465e-14
175	0xa6673d4c	-8.0227297e-16
176	0x99eec974	-2.468999e-23
177	0x23d03f13	2.2578118e-17
178	0x9e8c4841	-1.485296e-20
179	0xa4513321	-4.536296e-17
180	0x21df97fc	1.5151298e-18
181	0x21d8763a	1.4668024e-18
182	0x1dc9cc18	5.3415285e-21
183	0x24e29793	9.826865e-17
184	0x2b30b856	6.278358e-13
185	0x252847fa	1.4596064e-16
186	0x1e9d7e89	1.6675355e-20
187	0x2622abb4	5.643774e-16
188	0x265fad1e	7.7603285e-16
189	0x2679894e	8.657531e-16
190	0x1ce46081	1.511272e-21
191	0x2f036f95	1.1954022e-10
192	0x23b19d1a	1.9256914e-17
193	0xa15295fe	-7.134928e-19
194	0xa085008a	-2.2531433e-19
195	0xa71b0d9e	-2.1517953e-15
196	0x1dadbf4d	4.599052e-21
197	0x2e4c4264	4.6443197e-11
198	0x171fc676	5.1626164e-25
199	0x27202658	2.2225247e-15
200	0x25548218	1.8432146e-16
201	0x28cd1418	2.2768286e-14
202	0xa01d7645	-1.333755e-19
203	0xa5e95c12	-4.0481446e-16
204	0x25aac349	2.962263e-16
205	0x24e808f2	1.00629116e-16
206	0xa9ed3d35	-1.0535532e-13
207	0xa568dd36	-2.0197742e-16
208	0x98b6bcee	-4.7236668e-24
209	0xa241c6cc	-2.626162e-18
210	0x1de029b7	5.933544e-21
211	0xa39feead	-1.7339898e-17
212	0x1f6826a9	4.915989e-20
213	0x20a70b41	2.8298348e-19
214	0x9c2e4371	-5.7658937e-22
215	0x242a91d1	3.6986385e-17
216	0x28d7e25c	2.3967963e-14
217	0x23e9edcb	2.536262e-17
218	0x9be34aeb	-3.7602414e-22
219	0x255b70a3	1.9033385e-16
220	0x258540a9	2.3115638e-16
221	0x258dd272	2.4602204e-16
222	0x1ea4112d	1.7371279e-20
223	0xb02e39b8	-6.3382855e-10
224	0x8ed3d7b0	-5.2223215e-30
225	0x0d1e65b2	4.880992e-31
226	0x8d94033e	-9.121985e-31
227	0x133d6736	2.390604e-27
228	0x09a7ea6b	4.0424233e-33
229	0x9ada208e	-9.021528e-23
230	0xa6ad856c	-1.204045e-15
231	0x944ef64d	-1.04489164e-26
232	0x9171a5f2	-1.9062684e-28
233	0x130c753d	1.7728287e-27
234	0x8b395d03	-3.5699678e-32
235	0x0ffc11fa	2.4856043e-29
236	0x91164bb9	-1.1856247e-28
237	0x9212b1aa	-4.6288465e-28
238	0x16932d2b	2.3777636e-25
239	0x0fba6e49	1.8383496e-29
240	0x851e4e0a	-7.443458e-36
241	0x8d1d8815	-4.8543163e-31
242	0x0b08e68a	2.6366086e-32
243	0x0e1d4a83	1.938762e-30
244	0x899c6d58	-3.765846e-33
245	0x0cf155a5	3.7183475e-31
246	0xa97e5242	-5.6470677e-14
247	0x8f4aa6e0	-9.991508e-30
248	0x150dd4ed	2.8642692e-26
249	0xa58b2980	-2.4140778e-16
250	0x8996ccf1	-3.6303912e-33
251	0x9123ad3b	-1.2911814e-28
252	0x28cd688a	2.2804909e-14
253	0x118bfd17	2.2086312e-28
254	0x88bd0be9	-1.1377824e-33
255	0x9b1e6247	-1.3101209e-22

fai_gcn_networks.1.gcn.conv.bias f4 [192]
0	0x3d1e60d6	0.03866657
1	0x3d1c4dbf	0.038160082
2	0xaa0f6a9a	-1.2737936e-13
3	0x3d1bd2b2	0.03804273
4	0x3d1b0fc2	0.037856825
5	0x3d1d7dfd	0.03845023
6	0x3c6d1ed8	0.014472686
7	0x28aa0e13	1.8879895e-14
8	0x3d1c82f0	0.03821081
9	0x3d1c77a4	0.038200036
10	0x2ce52c6d	6.5135037e-12
11	0x3c8a8f9f	0.016914187
12	0x3d1eebef	0.038799223
13	0x3d1fb621	0.03899205
14	0x3d1ed9c0	0.03878188
15	0x3d1eb89e	0.038750283
16	0x3d1def45	0.038558263
17	0x3d1f61b4	0.038911536
18	0x3d1b8216	0.037965856
19	0x3ce3d02a	0.027809221
20	0x3ca309cc	0.019902132
21	0x3c934d04	0.01798106
22	0x2d5b59fe	1.2468691e-11
23	0x2ac3aca8	3.4758763e-13
24	0x3d1d736c	0.038440153
25	0x318b6536	4.056939e-09
26	0x3d1f0dd8	0.03883156
27	0x2dbde165	2.1586908e-11
28	0xab5fbbce	-7.9486146e-13
29	0x2d4f239d	1.17744954e-11
30	0x3d1e11c5	0.038591165
31	0x3d1eccec	0.038769647
32	0x2c87c7ef	3.859128e-12
33	0xa88cedce	-1.5646254e-14
34	0x3d1fe095	0.039032537
35	0xa92c772f	-3.8295047e-14
36	0x3d12a250	0.035799325
37	0xabc6bf3f	-1.4121828e-12
38	0xabf2b8d0	-1.724643e-12
39	0x3caab982	0.02084041
40	0x3d20b501	0.03923512
41	0x3d1d7548	0.038441926
42	0x3d18dbc6	0.037318967
43	0x3d1f8b7f	0.038951393
44	0xac63f97e	-3.2397136e-12
45	0x3d1f557f	0.038899895
46	0x2c6cdd67	3.366052e-12
47	0x3d1f43e5	0.03888311
48	0xaddea1a7	-2.5310266e-11
49	0xb1b16db5	-5.1638502e-09
50	0x3d1e7172	0.03868241
51	0x3d211af1	0.039332334
52	0x2b1938bc	5.4435254e-13
53	0x2a7c7f18	2.2426191e-13
54	0x3d1fd115	0.039017756
55	0x3d1bdbee	0.03805154
56	0xab3f957e	-6.8064293e-13
57	0x3d1cddf9	0.038297627
58	0x2af4dec1	4.3497673e-13
59	0x2e1e9ce7	3.6064398e-11
60	0xa8142bd4	-8.225154e-15
61	0x3d1ec664	0.03876342
62	0x3d1f66bb	0.03891633
63	0xac08f054	-1.9460171e-12
64	0x3d46cac6	0.048533224
65	0x3d446949	0.04795197
66	0x2b2a68cc	6.054157e-13
67	0x3d426e4d	0.047468472
68	0x3d432868	0.047645956
69	0x3d45b037	0.048263755
70	0x3c99a019	0.018753098
71	0x282aefb7	9.488876e-15
72	0x3d446dc8	0.047956258
73	0x3d4317b0	0.047630012
74	0x2d38011e	1.0459437e-11
75	0x3cb2fb51	0.021848353
76	0x3d46f716	0.048575483
77	0x3d47f41d	0.04881679
78	0x3d47ae1c	0.048750028
79	0x3d473f39	0.04864428
80	0x3d450852	0.048103638
81	0x3d475ba2	0.048671372
82	0x3d430588	0.047612697
83	0x3d1124e4	0.035435572
84	0x3cd1cc16	0.025610011
85	0x3cbdfeb1	0.023192735
86	0x2dc47ca8	2.2337979e-11
87	0x2b7153c2	8.5736637e-13
88	0x3d45f3e5	0.0483283
89	0x31baab11	5.4327605e-09
90	0x3d471b6c	0.048610136
91	0x2e19a1fe	3.493205e-11
92	0xab59095c	-7.7106876e-13
93	0x2d0f9d75	8.163571e-12
94	0x3d459b29	0.048243675
95	0x3d47815c	0.04870735
96	0x2c6a462f	3.329236e-12
97	0xa9efde15	-1.0652257e-13
98	0x3d484177	0.048890557
99	0xaa138b42	-1.3104538e-13
100	0x3d391a1d	0.04519092
101	0xabecc205	-1.682266e-12
102	0xabb802ea	-1.3074795e-12
103	0x3cdb6e6d	0.026786054
104	0x3d48fcc5	0.049069185
105	0x3d454932	0.048165508
106	0x3d4076c2	0.046988256
107	0x3d48756e	0.048940115
108	0xabe2e96b	-1.6123052e-12
109	0x3d483f93	0.048888754
110	0x2c8dad64	4.0267113e-12
111	0x3d48163c	0.04884933
112	0xadf61635	-2.7976824e-11
113	0xb18edc8d	-4.1578176e-09
114	0x3d46ea92	0.048563547
115	0x3d496f25	0.04917826
116	0x2a4dcef2	1.8279456e-13
117	0x26bb51dc	1.299792e-15
118	0x3d48c76d	0.049018312
119	0x3d4424a1	0.047886495
120	0xaca81db4	-4.778145e-12
121	0x3d447bbc	0.047969565
122	0xaa45c669	-1.7565952e-13
123	0x2e82693c	5.930409e-11
124	0xaa48f049	-1.7846934e-13
125	0x3d478fc8	0.048721105
126	0x3d4856ab	0.048910778
127	0xac27615b	-2.378617e-12
128	0x3c800227	0.015626026
129	0x3c7c7a75	0.015410055
130	0xaa8a3fcf	-2.4558e-13
131	0x3c7c3e88	0.015395768
132	0x3c7a6914	0.015283842
133	0x3c7e8535	0.015534689
134	0x3bbc4d8d	0.0057465495
135	0x292fcf26	3.903748e-14
136	0x3c7cebea	0.015437106
137	0x3c7d672c	0.015466493
138	0x2bd3b77d	1.504338e-12
139	0x3bdc371a	0.006720436
140	0x3c8089aa	0.015690643
141	0x3c81325e	0.015771087
142	0x3c80625c	0.015671901
143	0x3c804a78	0.01566051
144	0x3c7fc3ee	0.015610678
145	0x3c80f2cf	0.01574078
146	0x3c7b4b2b	0.015337746
147	0x3c3648b5	0.011125733
148	0x3c01bd80	0.0079187155
149	0x3bea34a3	0.007147388
150	0x2a913622	2.5794736e-13
151	0xaaa6f25b	-2.9655691e-13
152	0x3c7e67bd	0.015527663
153	0x30887b36	9.930321e-10
154	0x3c80a684	0.0157044
155	0x2d06cd0b	7.662547e-12
156	0xabb5c9f7	-1.291688e-12
157	0x2acccc59	3.6379474e-13
158	0x3c7fc7c1	0.01561159
159	0x3c8057ae	0.015666809
160	0x2cf37f18	6.9205856e-12
161	0xaa83f846	-2.344255e-13
162	0x3c814ef7	0.015784724
163	0xaa21ad00	-1.4359694e-13
164	0x3c6c40c7	0.014419741
165	0xac11ae8e	-2.0702637e-12
166	0xab95e3e1	-1.0650336e-12
167	0x3c07ee26	0.008296525
168	0x3c820dbf	0.015875695
169	0x3c7e9806	0.015539175
170	0x3c76af70	0.015056476
171	0x3c80f7cc	0.015743159
172	0x2c596f58	3.0899363e-12
173	0x3c80c9ce	0.015721228
174	0x2c9b06b4	4.406109e-12
175	0x3c80bba7	0.01571448
176	0x2ea60821	7.55025e-11
177	0xb1388571	-2.6851377e-09
178	0x3c800eb8	0.015632018
179	0x3c826671	0.015917988
180	0x2ad1bc0f	3.725635e-13
181	0x2b174ecb	5.3755324e-13
182	0x3c8131f6	0.015770894
183	0x3c7bbb96	0.015364548
184	0xab65a46d	-8.158533e-13
185	0x3c7d93ee	0.015477164
186	0x2bc07c3c	1.3676902e-12
187	0x2c6fbcc9	3.406874e-12
188	0xa8abd630	-1.9077703e-14
189	0x3c804fc3	0.015663033
190	0x3c80d8df	0.015728412
191	0x2aba279f	3.306773e-13

fai_gcn_networks.1.residual.0.weight f4 [64, 32, 1, 1]
0	0x3c9b261e	0.018939074
1	0xbbc95b30	-0.0061449036
2	0xbd06ccc9	-0.032910142
3	0xbc736ec7	-0.014857954
4	0xba84d876	-0.0010135311
5	0x3a818aea	0.0009883319
6	0x3cc6740e	0.024225261
7	0xbc795600	-0.015218258
8	0x3bcd86e0	0.006272182
9	0xbc8dc792	-0.017307077
10	0xbc4bbe7e	-0.012435554
11	0x3c21940f	0.00986196
12	0x3c89a6e2	0.016803209
13	0xbcb4abb7	-0.022054536
14	0xbc6e0626	-0.014527833
15	0x3c1de0c7	0.009636111
16	0xbc8bba0d	-0.01705649
17	0xbd41a799	-0.047278974
18	0xbc58500c	-0.013202678
19	0x3a1ef9fb	0.00060644717
20	0x38fc0ac3	0.00012018301
21	0xbc2ffb3e	-0.010741053
22	0x3c96137b	0.018319836
23	0x3b53b867	0.0032305957
24	0x3b09b01f	0.0021009517
25	0xbc9f229e	-0.019425686
26	0xbc1b9c4d	-0.009497714
27	0x3c4fa126	0.012672698
28	0x3a535da2	0.00080629636
29	0xbc296709	-0.010339507
30	0xbc7d7ad2	-0.015471177
31	0x3c481bd4	0.012213666
32	0xbd2baa81	-0.041910652
33	0xbc681ef2	-0.014167534
34	0x3cb85d4e	0.022505429
35	0x3d17432b	0.03692929
36	0xbc00d86d	-0.0078641
37	0xbc88a917	-0.01668219
38	0x3c0da7f6	0.008646002
39	0x3c80cd50	0.0157229
40	0x3c5dec20	0.013545066
41	0x3c0be49b	0.0085383905
42	0x3c17cdb7	0.009265355
43	0x3c994a80	0.018712282
44	0x3cea5230	0.028603643
45	0xbb95ece8	-0.0045753606
46	0x3b90db84	0.0044206996
47	0x3cbcd0ae	0.023048725
48	0x3cfcb6b5	0.03084884
49	0x3d401909	0.046898875
50	0xbb5af0e0	-0.0033407733
51	0xbcb238be	-0.021755572
52	0xbcd38485	-0.025820026
53	0xbb2f3941	-0.0026737007
54	0xbd31e8d9	-0.04343495
55	0xbc8593a4	-0.016305752
56	0xbd29304b	-0.04130582
57	0xbd32ab2a	-0.043620266
58	0xbc185bd9	-0.009299242
59	0x3cd41254	0.025887646
60	0xbc5291d2	-0.012852149
61	0xbd013aa0	-0.03155005
62	0x3d1aa138	0.037751406
63	0xbc4f0015	-0.012634297
64	0xbb481935	-0.0030532603
65	0xbbe74444	-0.0070576984
66	0x3c8f758b	0.017512104
67	0xbc102082	-0.008796813
68	0xbc9c19f4	-0.019055344
69	0xbce529e6	-0.02797408
70	0x3b5cf4c6	0.0033715232
71	0x3c5d6cf5	0.013514747
72	0xba1a4ef0	-0.00058863964
73	0xba21aa54	-0.00061670435
74	0x3c812172	0.015763018
75	0xbbabb6e2	-0.005240307
76	0x3b43706a	0.0029821643
77	0xbc89178a	-0.016734857
78	0xbc905d6f	-0.017622678
79	0xbd103f77	-0.035216775
80	0x3ccff669	0.025386052
81	0x3caa367c	0.020777933
82	0x3d14ba9a	0.03631077
83	0x3c8e3c87	0.017362846
84	0xbd31550b	-0.043293994
85	0xbb7ce849	-0.0038590601
86	0x3ca003f9	0.019533144
87	0x3b89644b	0.004192864
88	0x3b8c2ea4	0.004278021
89	0xbd2d5686	-0.042318843
90	0x3c3c0dbe	0.011477886
91	0xbcd38b77	-0.025823338
92	0xbc92dd4a	-0.017927784
93	0xbc224864	-0.009904955
94	0xbc186130	-0.009300515
95	0x3a7d90d3	0.00096727646
96	0x3ccfa0ca	0.025345225
97	0xbbd71ea1	-0.0065649305
98	0xbc6f79f9	-0.014616483
99	0x3bf67319	0.007521045
100	0xbcc52b1c	-0.024068408
101	0xbc90f81b	-0.01769643
102	0x3b839347	0.0040153596
103	0xbc693838	-0.014234595
104	0x3bc00c42	0.0058608362
105	0x3ccb3bc2	0.024808768
106	0xbc1051a2	-0.008808525
107	0x3c149cd2	0.009070592
108	0x3be5d3dd	0.0070137815
109	0x3cce3dab	0.02517589
110	0xba99330a	-0.0011688184
111	0xbcac71be	-0.02105033
112	0xba2a8ff4	-0.0006506436
113	0x3c141c88	0.0090400055
114	0xbba000ba	-0.004882899
115	0x3c6e75fc	0.014554497
116	0xbc4ddbd8	-0.012564622
117	0xbc94307d	-0.018089527
118	0xbb8f5b36	-0.004374887
119	0x3d081220	0.03322041
120	0xbaace404	-0.0013190513
121	0xb98a61d8	-0.0002639431
122	0xbc49ff1d	-0.01232889
123	0xbcdafadc	-0.026730947
124	0x3c79a878	0.01523792
125	0xbd43e3c9	-0.047824655
126	0xbce282fe	-0.027650353
127	0xbca011f2	-0.019539807
128	0xbc9a5c7a	-0.018842924
129	0x3be64469	0.007027198
130	0xbcaf5105	-0.021400938
131	0xbd63a7a2	-0.05557979
132	0x3c53f682	0.01293719
133	0xbc9da1ff	-0.019242285
134	0xbc84238a	-0.016130228
135	0xbc9d519c	-0.019203953
136	0x3b2fb637	0.002681149
137	0x3ba8feaf	0.005157314
138	0x3bd5fec4	0.0065306146
139	0x3c88f652	0.016719017
140	0xbc5c68e0	-0.0134527385
141	0x3c571c62	0.013129326
142	0x3b39e250	0.0028363653
143	0x3c8a5c63	0.016889757
144	0xbcd31a8f	-0.0257695
145	0xbd0b4b42	-0.03400732
146	0xbc38cb09	-0.011278876
147	0xbc4ac9cf	-0.0123772165
148	0xbb16e516	-0.002302473
149	0xbc8b4459	-0.017000364
150	0x3b717042	0.0036840593
151	0x3d11fa04	0.035638824
152	0x3c212842	0.009836258
153	0xbcb93a14	-0.022610702
154	0x3ba2e3d4	0.004971007
155	0x3bf48cdb	0.0074630803
156	0x3a4b0f2a	0.0007746095
157	0x3c9107fd	0.017704004
158	0x3c8c3bc4	0.017118342
159	0xbc899295	-0.016793529
160	0x3d184369	0.037173662
161	0xbbf9c867	-0.007622767
162	0xbaea248a	-0.0017863673
163	0xbc116def	-0.008876308
164	0xbc86a7d0	-0.016437441
165	0xbc32596b	-0.010885577
166	0xbc68d70b	-0.0142114265
167	0xbc2d3873	-0.010572541
168	0xba0a86a7	-0.0005284347
169	0x3ca010c8	0.019539252
170	0xbd0095cc	-0.031392857
171	0x3ac68bbe	0.0015147848
172	0x3d04f6b0	0.032461822
173	0xbcd40c0c	-0.02588465
174	0x3cb9eb97	0.022695346
175	0xbc0c955c	-0.008580532
176	0x3a1a7649	0.00058922597
177	0xbc3072f6	-0.010769596
178	0xbc89f037	-0.016838176
179	0xbc21b4d0	-0.009869769
180	0x3bb487f2	0.00550937
181	0xba1bb9b8	-0.0005940455
182	0xbcae557d	-0.021280998
183	0xbb8290c1	-0.003984541
184	0x3c6777f7	0.014127723
185	0xbd672018	-0.05642709
186	0xbbdcf620	-0.0067432076
187	0xbd0f5064	-0.034988776
188	0xbc5e5972	-0.01357113
189	0xbc3977bd	-0.011320052
190	0xbbcbb75e	-0.0062169274
191	0xbb00e043	-0.001966492
192	0x3c5dd6a7	0.013539947
193	0x3c499774	0.012304176
194	0x3c11872f	0.008882328
195	0x3b24607c	0.0025081923
196	0x3ce6b358	0.02816169
197	0x3c0930cc	0.0083734505
198	0xbc9a5340	-0.018838525
199	0xbc527c55	-0.012847026
200	0x3cd2f69b	0.025752356
201	0xbc9458e1	-0.018108787
202	0xbb0d49eb	-0.002155895
203	0xbc3e9167	-0.011631346
204	0x3996013e	0.00028611155
205	0xbce9eecb	-0.028556248
206	0x3bd9a754	0.0066422615
207	0x3d465198	0.048417658
208	0x3c165ac4	0.009176914
209	0x3cab3be0	0.020902574
210	0xbc905c7d	-0.017622227
211	0xbcf347c9	-0.029697316
212	0xbb569461	-0.003274225
213	0xbc0daa3e	-0.008646546
214	0x3caec46b	0.021333894
215	0xbc9fb6c5	-0.019496331
216	0x3a2fd224	0.00067070336
217	0xbc088c62	-0.008334251
218	0xbbf33e45	-0.0074231946
219	0xbb932943	-0.0044910028
220	0x3cdd8449	0.027040618
221	0x3b89ed6e	0.004209212
222	0xbc0f1e30	-0.008735225
223	0x39d5f56e	0.00040809385
224	0x3aadf4b8	0.0013271784
225	0xbcdb4f01	-0.02677107
226	0x3bd75f7e	0.006572663
227	0xbd184925	-0.03717913
228	0x3d28f70a	0.04125122
229	0x3c50cdf2	0.012744414
230	0xbbfd60a9	-0.00773247
231	0xbbddee09	-0.006772761
232	0x3c924e0d	0.017859483
233	0xbc9161c6	-0.017746817
234	0x3d09a236	0.033601962
235	0x3d3e3587	0.046437766
236	0x3bc90b32	0.006135368
237	0x3ce12c77	0.027487023
238	0xbd3675a7	-0.044545796
239	0x3cba81a9	0.022766905
240	0xbc1b5bb0	-0.009482309
241	0xbb820d31	-0.0039688577
242	0x3cebd954	0.028790154
243	0x3b516ae7	0.0031954588
244	0xbd21e818	-0.039527982
245	0x3cafa0d7	0.021439
246	0xbcdadd89	-0.026716964
247	0xbb7961a9	-0.0038052595
248	0xbc6d29af	-0.01447527
249	0x3bb69dc1	0.005573005
250	0x3b38bc49	0.0028188399
251	0xb96232e2	-0.00021571995
252	0xbad7ebc4	-0.0016473462
253	0xbd04be57	-0.032408085
254	0xbc4ff8bd	-0.012693581
255	0xbbacbb94	-0.0052713845

fai_gcn_networks.1.residual.0.bias f4 [64]
0	0x00000000	0.0
1	0x00000000	0.0
2	0x00000000	0.0
3	0x00000000	0.0
4	0x00000000	0.0
5	0x00000000	0.0
6	0x00000000	0.0
7	0x00000000	0.0
8	0x00000000	0.0
9	0x00000000	0.0
10	0x00000000	0.0
11	0x00000000	0.0
12	0x00000000	0.0
13	0x00000000	0.0
14	0x00000000	0.0
15	0x00000000	0.0
16	0x00000000	0.0
17	0x00000000	0.0
18	0x00000000	0.0
19	0x00000000	0.0
20	0x00000000	0.0
21	0x00000000	0.0
22	0x00000000	0.0
23	0x00000000	0.0
24	0x00000000	0.0
25	0x00000000	0.0
26	0x00000000	0.0
27	0x00000000	0.0
28	0x00000000	0.0
29	0x00000000	0.0
30	0x00000000	0.0
31	0x00000000	0.0
32	0x00000000	0.0
33	0x00000000	0.0
34	0x00000000	0.0
35	0x00000000	0.0
36	0x00000000	0.0
37	0x00000000	0.0
38	0x00000000	0.0
39	0x00000000	0.0
40	0x00000000	0.0
41	0x00000000	0.0
42	0x00000000	0.0
43	0x00000000	0.0
44	0x00000000	0.0
45	0x00000000	0.0
46	0x00000000	0.0
47	0x00000000	0.0
48	0x00000000	0.0
49	0x00000000	0.0
50	0x00000000	0.0
51	0x00000000	0.0
52	0x00000000	0.0
53	0x00000000	0.0
54	0x00000000	0.0
55	0x00000000	0.0
56	0x00000000	0.0
57	0x00000000	0.0
58	0x00000000	0.0
59	0x00000000	0.0
60	0x00000000	0.0
61	0x00000000	0.0
62	0x00000000	0.0
63	0x00000000	0.0

fai_gcn_networks.1.residual.1.weight f4 [64]
0	0x3f7e3e34	0.99313664
1	0x3f813022	1.0092814
2	0x3f7c34c7	0.9851803
3	0x3f8287d4	1.0197701
4	0x3f8148c5	1.0100332
5	0x3f7fb06e	0.99878585
6	0x3f8324da	1.0245621
7	0x3f7a63a7	0.9780831
8	0x3f75bbda	0.95989764
9	0x3f84c9c1	1.037407
10	0x3f791572	0.9729835
11	0x3f7e940e	0.99444664
12	0x3f800b0d	1.0003372
13	0x3f80b10b	1.0054029
14	0x3f7c60c0	0.9858513
15	0x3f829ad9	1.0203506
16	0x3f7ab660	0.9793453
17	0x3f7c9c98	0.98676443
18	0x3f80b608	1.0055552
19	0x3f7cf5a0	0.98812294
20	0x3f83c586	1.0294654
21	0x3f831be8	1.0242891
22	0x3f7c1093	0.9846279
23	0x3f80a9c8	1.0051813
24	0x3f859efd	1.0439144
25	0x3f83c4e1	1.0294458
26	0x3f7b8130	0.98244
27	0x3f78651c	0.9702928
28	0x3f804ec5	1.0024039
29	0x3f8414f6	1.0318897
30	0x3f7d8b46	0.9904064
31	0x3f80fd96	1.0077388
32	0x3f7e183d	0.99255735
33	0x3f793747	0.9734997
34	0x3f7fa2f4	0.9985802
35	0x3f7ddc7c	0.9916456
36	0x3f80e28e	1.0069139
37	0x3f84ec44	1.0384603
38	0x3f7d591d	0.989641
39	0x3f7e2c37	0.99286216
40	0x3f7f29b5	0.99673015
41	0x3f84a9c3	1.0364307
42	0x3f82c570	1.0216503
43	0x3f78de0f	0.97213835
44	0x3f768234	0.96292424
45	0x3f803ef0	1.0019207
46	0x3f802f07	1.0014352
47	0x3f78fdaf	0.9726209
48	0x3f7f127e	0.9963759
49	0x3f81f8cc	1.0154052
50	0x3f7f8b66	0.9982208
51	0x3f826971	1.0188428
52	0x3f829c58	1.0203962
53	0x3f818bc4	1.0120778
54	0x3f7eeebe	0.9958304
55	0x3f7718ed	0.9652241
56	0x3f777380	0.96660614
57	0x3f7e7fba	0.99413645
58	0x3f806cbd	1.0033184
59	0x3f7bdeb9	0.9838672
60	0x3f7fcb86	0.9991993
61	0x3f801150	1.0005283
62	0x3f84d47f	1.0377349
63	0x3f7a13f3	0.9768669

fai_gcn_networks.1.residual.1.bias f4 [64]
0	0x00000000	0.0
1	0x00000000	0.0
2	0x00000000	0.0
3	0x00000000	0.0
4	0x00000000	0.0
5	0x00000000	0.0
6	0x00000000	0.0
7	0x00000000	0.0
8	0x00000000	0.0
9	0x00000000	0.0
10	0x00000000	0.0
11	0x00000000	0.0
12	0x00000000	0.0
13	0x00000000	0.0
14	0x00000000	0.0
15	0x00000000	0.0
16	0x00000000	0.0
17	0x00000000	0.0
18	0x00000000	0.0
19	0x00000000	0.0
20	0x00000000	0.0
21	0x00000000	0.0
22	0x00000000	0.0
23	0x00000000	0.0
24	0x00000000	0.0
25	0x00000000	0.0
26	0x00000000	0.0
27	0x00000000	0.0
28	0x00000000	0.0
29	0x00000000	0.0
30	0x00000000	0.0
31	0x00000000	0.0
32	0x00000000	0.0
33	0x00000000	0.0
34	0x00000000	0.0
35	0x00000000	0.0
36	0x00000000	0.0
37	0x00000000	0.0
38	0x00000000	0.0
39	0x00000000	0.0
40	0x00000000	0.0
41	0x00000000	0.0
42	0x00000000	0.0
43	0x00000000	0.0
44	0x00000000	0.0
45	0x00000000	0.0
46	0x00000000	0.0
47	0x00000000	0.0
48	0x00000000	0.0
49	0x00000000	0.0
50	0x00000000	0.0
51	0x00000000	0.0
52	0x00000000	0.0
53	0x00000000	0.0
54	0x00000000	0.0
55	0x00000000	0.0
56	0x00000000	0.0
57	0x00000000	0.0
58	0x00000000	0.0
59	0x00000000	0.0
60	0x00000000	0.0
61	0x00000000	0.0
62	0x00000000	0.0
63	0x00000000	0.0

fai_gcn_networks.1.residual.1.running_mean f4 [64]
0	0x2f34b63c	1.6435647e-10
1	0xaf9cbc3c	-2.8509983e-10
2	0xaf54396a	-1.9301685e-10
3	0xafd1a0db	-3.8131173e-10
4	0xafc471c0	-3.5733017e-10
5	0xaee75e72	-1.0521441e-10
6	0x2e92c65c	6.674547e-11
7	0x2de29654	2.5759984e-11
8	0xafd97cf1	-3.9560846e-10
9	0xafe60b32	-4.184471e-10
10	0xb00556ae	-4.85083e-10
11	0xada076b9	-1.8242617e-11
12	0x2ffd7421	4.6102946e-10
13	0xb01c59ed	-5.688026e-10
14	0xae89ee07	-6.272321e-11
15	0xaf9c8130	-2.8468028e-10
16	0xaf618043	-2.0509199e-10
17	0x2f9e0603	2.8744304e-10
18	0x2f4b641e	1.8498311e-10
19	0x2ef11e79	1.0964824e-10
20	0xafed91a5	-4.3213536e-10
21	0xafcb4ea7	-3.698137e-10
22	0x2deb3893	2.674153e-11
23	0xaf6a1b62	-2.1291904e-10
24	0xafe2f19c	-4.1280834e-10
25	0x2d8f38b0	1.6282392e-11
26	0xae320764	-4.047908e-11
27	0x2f564b08	1.9489843e-10
28	0xae0b5968	-3.168435e-11
29	0x302d45ae	6.3036054e-10
30	0xaf68e4d6	-2.1181576e-10
31	0x2f680704	2.110277e-10
32	0xaf211bd1	-1.4652747e-10
33	0xae123d8a	-3.3251214e-11
34	0xae63bbcc	-5.178062e-11
35	0xaeb9f475	-8.45625e-11
36	0x2f15657d	1.3587527e-10
37	0xae891148	-6.2331085e-11
38	0xaf172c3f	-1.374909e-10
39	0xaf1f5c6c	-1.44938e-10
40	0xaeeacd5f	-1.0677569e-10
41	0x2f239410	1.4877366e-10
42	0x2f38e111	1.6814662e-10
43	0x2ffca64d	4.5956697e-10
44	0xaf4e3433	-1.8754136e-10
45	0xaffaae2b	-4.559849e-10
46	0x2f455e78	1.7950608e-10
47	0x2ffe33d5	4.623916e-10
48	0x2f8629df	2.440421e-10
49	0x3009b7a8	5.01013e-10
50	0xaf779f43	-2.25211e-10
51	0xafc114cc	-3.5121273e-10
52	0x2eab722f	7.796463e-11
53	0xadb20c66	-2.0241763e-11
54	0xadeb9dd4	-2.6786497e-11
55	0xaea32fa1	-7.4208424e-11
56	0x2f9ef303	2.8912703e-10
57	0xaf533e40	-1.9212454e-10
58	0xafea65d8	-4.2636716e-10
59	0xb002722c	-4.745597e-10
60	0xaffce41d	-4.6000617e-10
61	0x2fa781e3	3.0469413e-10
62	0x303dfcf4	6.911727e-10
63	0xae615f94	-5.1243967e-11

fai_gcn_networks.1.residual.1.running_var f4 [64]
0	0x1d85acde	3.5383547e-21
1	0x1e301b4c	9.323007e-21
2	0x1d8f01ca	3.7853635e-21
3	0x1ea1f78e	1.7148924e-20
4	0x1e8bd444	1.4804988e-20
5	0x1cb11df2	1.1720618e-21
6	0x1c0ad6ef	4.5938165e-22
7	0x1b311183	1.4646755e-22
8	0x1ead7caa	1.8368647e-20
9	0x1ebd1522	2.0019894e-20
10	0x1efb4741	2.6605129e-20
11	0x1bd642a9	3.5446408e-22
12	0x1ee601ab	2.4352887e-20
13	0x1f363d70	3.859082e-20
14	0x1d1e1d37	2.092623e-21
15	0x1e278a1a	8.869465e-21
16	0x1db6ac59	4.8353202e-21
17	0x1e31364c	9.38153e-21
18	0x1dda4837	5.7778788e-21
19	0x1cb77556	1.2140255e-21
20	0x1ee56d15	2.4291433e-20
21	0x1e9f5671	1.6870531e-20
22	0x1bbdd571	3.140536e-22
23	0x1dc4e7e1	5.2120525e-21
24	0x1ecf424c	2.1944397e-20
25	0x1a8c4502	5.801413e-23
26	0x1b5d4dfa	1.8305887e-22
27	0x1dc5ab6f	5.2322724e-21
28	0x1afcfe3b	1.0463549e-22
29	0x1f6b8b04	4.9878177e-20
30	0x1df62377	6.5152328e-21
31	0x1daae3ff	4.5234368e-21
32	0x1d27aefb	2.2192729e-21
33	0x1b2a768e	1.4100377e-22
34	0x1ba42102	2.7152855e-22
35	0x1c851beb	8.808418e-22
36	0x1d1e3972	2.0940824e-21
37	0x1c30189a	5.826531e-22
38	0x1d3f13ce	2.5288878e-21
39	0x1d2cc5d4	2.2866285e-21
40	0x1d8e67f2	3.7694564e-21
41	0x1d98a28e	4.0402143e-21
42	0x1d629256	2.9986505e-21
43	0x1ed3b745	2.2416292e-20
44	0x1e17be86	8.033273e-21
45	0x1efcac08	2.6752688e-20
46	0x1d7670d8	3.2616168e-21
47	0x1ee211dc	2.3936067e-20
48	0x1e0c43dd	7.425572e-21
49	0x1f0c2eb5	2.9684788e-20
50	0x1dc3c4e6	5.181966e-21
51	0x1e9083b8	1.530107e-20
52	0x1c63b78d	7.5345233e-22
53	0x1c1d62de	5.2074725e-22
54	0x1c2ee076	5.786188e-22
55	0x1cbd0c19	1.2510098e-21
56	0x1e1fce04	8.459993e-21
57	0x1d98bc27	4.042861e-21
58	0x1ec73007	2.1089808e-20
59	0x1efe7036	2.6939705e-20
60	0x1ee0501b	2.3750053e-20
61	0x1e436daf	1.0345896e-20
62	0x1f84400a	5.601012e-20
63	0x1c273ea3	5.533662e-22
