capsule-6073072/code/work_dir/recognition/kinetics_skeleton/FAI_GCN/epoch460_model.pt (torch, 74070 bytes, 22 tensors)

A f4 [3, 18, 18]
000000 00 00 80 3e 00 00 00 00 00 00 00 00 00 00 00 00
       0.25 0.0 0.0 0.0
000010 00 00 00 00 00 00 00 00 00 00 00 00 00 00 00 00
       0.0 0.0 0.0 0.0
000020 00 00 00 00 00 00 00 00 00 00 00 00 00 00 00 00
       0.0 0.0 0.0 0.0
000030 00 00 00 00 00 00 00 00 00 00 00 00 00 00 00 00
       0.0 0.0 0.0 0.0
000040 00 00 00 00 00 00 00 00 00 00 00 00 00 00 80 3e
       0.0 0.0 0.0 0.25
000050 00 00 00 00 00 00 00 00 00 00 00 00 00 00 00 00
       0.0 0.0 0.0 0.0
000060 00 00 00 00 00 00 00 00 00 00 00 00 00 00 00 00
       0.0 0.0 0.0 0.0
000070 00 00 00 00 00 00 00 00 00 00 00 00 00 00 00 00
       0.0 0.0 0.0 0.0
000080 00 00 00 00 00 00 00 00 00 00 00 00 00 00 00 00
       0.0 0.0 0.0 0.0
000090 00 00 00 00 00 00 00 00 00 00 80 3e 00 00 00 00
       0.0 0.0 0.25 0.0
0000a0 00 00 00 00 00 00 00 00 00 00 00 00 00 00 00 00
       0.0 0.0 0.0 0.0
0000b0 00 00 00 00 00 00 00 00 00 00 00 00 00 00 00 00
       0.0 0.0 0.0 0.0
0000c0 00 00 00 00 00 00 00 00 00 00 00 00 00 00 00 00
       0.0 0.0 0.0 0.0
0000d0 00 00 00 00 00 00 00 00 00 00 00 00 00 00 00 00
       0.0 0.0 0.0 0.0
0000e0 00 00 00 00 ab aa aa 3e 00 00 00 00 00 00 00 00
       0.0 0.33333334 0.0 0.0
0000f0 00 00 00 00 00 00 00 00 00 00 00 00 00 00 00 00
       0.0 0.0 0.0 0.0
000100 00 00 00 00 00 00 00 00 00 00 00 00 00 00 00 00
       0.0 0.0 0.0 0.0
000110 00 00 00 00 00 00 00 00 00 00 00 00 00 00 00 00
       0.0 0.0 0.0 0.0
000120 00 00 00 00 00 00 00 00 00 00 00 00 00 00 00 00
       0.0 0.0 0.0 0.0
000130 00 00 00 3f 00 00 00 00 00 00 00 00 00 00 00 00
       0.5 0.0 0.0 0.0
000140 00 00 00 00 00 00 00 00 00 00 00 00 00 00 00 00
       0.0 0.0 0.0 0.0
000150 00 00 00 00 00 00 00 00 00 00 00 00 00 00 00 00
       0.0 0.0 0.0 0.0
000160 00 00 00 00 00 00 00 00 00 00 00 00 00 00 00 00
       0.0 0.0 0.0 0.0
000170 00 00 00 00 00 00 00 00 00 00 00 00 00 00 80 3e
       0.0 0.0 0.0 0.25
000180 00 00 00 00 00 00 00 00 00 00 00 00 00 00 00 00
       0.0 0.0 0.0 0.0
000190 00 00 00 00 00 00 00 00 00 00 00 00 00 00 00 00
       0.0 0.0 0.0 0.0
0001a0 00 00 00 00 00 00 00 00 00 00 00 00 00 00 00 00
       0.0 0.0 0.0 0.0
0001b0 00 00 00 00 00 00 00 00 00 00 00 00 00 00 00 00
       0.0 0.0 0.0 0.0
0001c0 00 00 00 00 00 00 00 00 ab aa aa 3e 00 00 00 00
       0.0 0.0 0.33333334 0.0
0001d0 00 00 00 00 00 00 00 00 00 00 00 00 00 00 00 00
       0.0 0.0 0.0 0.0
0001e0 00 00 00 00 00 00 00 00 00 00 00 00 00 00 00 00
       0.0 0.0 0.0 0.0
0001f0 00 00 00 00 00 00 00 00 00 00 00 00 00 00 00 00
       0.0 0.0 0.0 0.0
000200 00 00 00 00 00 00 00 00 00 00 00 00 00 00 00 00
       0.0 0.0 0.0 0.0
000210 00 00 00 00 00 00 00 3f 00 00 00 00 00 00 00 00
       0.0 0.5 0.0 0.0
000220 00 00 00 00 00 00 00 00 00 00 00 00 00 00 00 00
       0.0 0.0 0.0 0.0
000230 00 00 00 00 00 00 00 00 00 00 00 00 00 00 00 00
       0.0 0.0 0.0 0.0
000240 00 00 00 00 00 00 00 00 00 00 00 00 00 00 00 00
       0.0 0.0 0.0 0.0
000250 00 00 00 00 00 00 00 00 00 00 00 00 00 00 00 00
       0.0 0.0 0.0 0.0
000260 ab aa aa 3e 00 00 00 00 00 00 00 00 00 00 00 00
       0.33333334 0.0 0.0 0.0
000270 00 00 00 00 00 00 00 00 00 00 00 00 00 00 00 00
       0.0 0.0 0.0 0.0
000280 00 00 00 00 00 00 00 00 00 00 00 00 00 00 00 00
       0.0 0.0 0.0 0.0
000290 00 00 00 00 00 00 00 00 00 00 00 00 00 00 00 00
       0.0 0.0 0.0 0.0
0002a0 00 00 00 00 00 00 00 00 00 00 00 00 ab aa aa 3e
       0.0 0.0 0.0 0.33333334
0002b0 00 00 00 00 00 00 00 00 00 00 00 00 00 00 00 00
       0.0 0.0 0.0 0.0
0002c0 00 00 00 00 00 00 00 00 00 00 00 00 00 00 00 00
       0.0 0.0 0.0 0.0
0002d0 00 00 00 00 00 00 00 00 00 00 00 00 00 00 00 00
       0.0 0.0 0.0 0.0
0002e0 00 00 00 00 00 00 00 00 00 00 00 00 00 00 00 00
       0.0 0.0 0.0 0.0
0002f0 00 00 00 00 00 00 00 00 00 00 00 3f 00 00 00 00
       0.0 0.0 0.5 0.0
000300 00 00 00 00 00 00 00 00 00 00 00 00 00 00 00 00
       0.0 0.0 0.0 0.0
000310 00 00 00 00 00 00 00 00 00 00 00 00 00 00 00 00
       0.0 0.0 0.0 0.0
000320 00 00 00 00 00 00 00 00 00 00 00 00 00 00 00 00
       0.0 0.0 0.0 0.0
000330 00 00 00 00 00 00 00 00 00 00 00 00 00 00 00 00
       0.0 0.0 0.0 0.0
000340 00 00 00 00 ab aa aa 3e 00 00 00 00 00 00 00 00
       0.0 0.33333334 0.0 0.0
000350 00 00 00 00 00 00 00 00 00 00 00 00 00 00 00 00
       0.0 0.0 0.0 0.0
000360 00 00 00 00 00 00 00 00 00 00 00 00 00 00 00 00
       0.0 0.0 0.0 0.0
000370 00 00 00 00 00 00 00 00 00 00 00 00 00 00 00 00
       0.0 0.0 0.0 0.0
000380 00 00 00 00 00 00 00 00 00 00 00 00 00 00 00 00
       0.0 0.0 0.0 0.0
000390 ab aa aa 3e 00 00 00 00 00 00 00 00 00 00 00 00
       0.33333334 0.0 0.0 0.0
0003a0 00 00 00 00 00 00 00 00 00 00 00 00 00 00 00 00
       0.0 0.0 0.0 0.0
0003b0 00 00 00 00 00 00 00 00 00 00 00 00 00 00 00 00
       0.0 0.0 0.0 0.0
0003c0 00 00 00 00 00 00 00 00 00 00 00 00 00 00 00 00
       0.0 0.0 0.0 0.0
0003d0 00 00 00 00 00 00 00 00 00 00 00 00 00 00 00 3f
       0.0 0.0 0.0 0.5
0003e0 00 00 00 00 00 00 00 00 00 00 00 00 00 00 00 00
       0.0 0.0 0.0 0.0
0003f0 00 00 00 00 00 00 00 00 00 00 00 00 00 00 00 00
       0.0 0.0 0.0 0.0

data_bn.weight f4 [54]
000000 3d 6e 06 3f 2c 1b 05 3f 69 f9 0a 3f 44 e7 0a 3f
       0.5251196 0.51994586 0.5428682 0.54259133
000010 b9 a0 0d 3f e9 7d 0e 3f ad 1d 0e 3f d7 12 0d 3f
       0.5532337 0.55660874 0.5551403 0.5510687
000020 ae 3b 0d 3f 42 37 02 3f cd b1 04 3f 81 f4 0d 3f
       0.5516919 0.50865567 0.518338 0.5545121
000030 a8 b7 0a 3f e9 3b 04 3f d8 d5 09 3f f1 c6 01 3f
       0.5418649 0.51653916 0.53841925 0.50694185
000040 a9 fd 07 3f 62 d8 0c 3f 22 b4 0a 3f 82 7c 0d 3f
       0.5312143 0.55017674 0.5418111 0.5526811
000050 6e d9 11 3f cc 3c 09 3f 3a ef 08 3f 25 f2 05 3f
       0.56972396 0.53608394 0.5349003 0.5232261
000060 e9 a5 0d 3f 99 10 04 3f ee 1b 0c 3f cc 32 11 3f
       0.55331284 0.51587826 0.5473012 0.56718135
000070 a4 5a 0a 3f 09 24 0c 3f bc 99 11 3f d4 92 07 3f
       0.54044557 0.54742485 0.56875205 0.52958417
000080 a4 ee 05 3f 03 6e 03 3f c8 c1 08 3f 89 5c 0c 3f
       0.5231726 0.5133974 0.53420687 0.548287
000090 d0 36 07 3f 63 86 0d 3f cc 98 0b 3f 4e 64 03 3f
       0.5281801 0.5528318 0.54530025 0.5132493
0000a0 cb b5 0a 3f 34 ff 08 3f 9e b6 11 3f 7f 67 0a 3f
       0.54183644 0.5351441 0.56919277 0.5406417
0000b0 92 71 03 3f 87 83 0e 3f aa 70 06 3f e2 29 08 3f
       0.5134517 0.55669445 0.5251566 0.5318891
0000c0 7e 0f 09 3f 90 7e 0d 3f b1 01 10 3f c9 ec 0a 3f
       0.53539264 0.55271244 0.5625258 0.54267555
0000d0 8b e5 0f 3f 96 65 0a 3f
       0.5620963 0.5406126

data_bn.bias f4 [54]
000000 67 04 78 24 37 03 d1 2c 62 66 bd ae 83 86 64 b2
       5.3780157e-17 5.940494e-12 -8.612912e-11 -1.3301931e-08
000010 8e ea 7a 34 71 ee 50 35 12 b4 f3 21 95 87 3e a9
       2.3368395e-07 7.7833016e-07 1.6513985e-18 -4.2306074e-14
000020 bc c3 c8 a5 5b a4 d4 31 8b 9f a8 2b 37 25 08 28
       -3.4827104e-16 6.188697e-09 1.19814e-12 7.557586e-15
000030 e7 bc db 31 1a 26 c4 a7 87 a3 4e 2c 5e 1a 3f 21
       6.3952146e-09 -5.444224e-15 2.9365137e-12 6.4748214e-19
000040 fe 0c 0a b0 66 d6 37 28 73 6a bd 30 32 0e 8b 2d
       -5.022257e-10 1.0205031e-14 1.3781815e-09 1.5808774e-11
000050 50 41 17 b5 d0 07 a6 34 25 1e 6c 27 fa ec 3b aa
       -5.6346926e-07 3.0925594e-07 3.276792e-15 -1.6691154e-13
000060 b1 e0 fd a5 c3 4a 1b aa cc 5e 95 2e 74 8e 92 2b
       -4.404076e-16 -1.3792704e-13 6.792575e-11 1.0413463e-12
000070 6d f9 e9 b4 3a c9 9e b6 76 56 28 34 32 a1 78 36
       -4.3581113e-07 -4.732193e-06 1.5677674e-07 3.7048708e-06
000080 6f ec 33 a8 59 e1 29 33 82 d5 3f b6 51 e3 cf ac
       -9.9877644e-15 3.955333e-08 -2.8585496e-06 -5.908531e-12
000090 3b 8f 34 36 31 ef 6f 2c f9 1b 3a aa 60 14 4c 35
       2.6905461e-06 3.409672e-12 -1.6529824e-13 7.602557e-07
0000a0 a3 fc 69 2b 73 ee ca 28 10 8a 60 33 f4 d6 38 31
       8.312883e-13 2.2529916e-14 5.227963e-08 2.689771e-09
0000b0 ea 42 96 a7 5b 60 81 33 65 f9 32 ac e2 47 d7 aa
       -4.170591e-15 6.0245576e-08 -2.5433763e-12 -3.824155e-13
0000c0 30 95 a5 2f 00 93 c5 ab 74 6a b0 27 6a e4 05 b5
       3.011933e-10 -1.4038493e-12 4.896523e-15 -4.987875e-07
0000d0 82 9b 9c a8 9a 02 38 2c
       -1.738692e-14 2.6149417e-12

data_bn.running_mean f4 [54]
000000 5d 68 c9 3b 07 2f 3e bd 93 ef 6a 3e 55 a6 cb 3b
       0.0061464743 -0.046431568 0.22942953 0.0062148967
000010 b7 68 9e bc 66 5a 5c 3e 25 03 bc bb 60 dc c1 bc
       -0.019337041 0.2151886 -0.0057376795 -0.023664653
000020 44 c5 46 3e 94 74 9b bc 0a d9 ee bb 9c 15 46 3e
       0.19411188 -0.018976487 -0.0072890567 0.19344181
000030 3d e2 b2 bc 30 4b 8a bb 01 32 43 3e ae c5 95 3c
       -0.021836394 -0.004220389 0.19062044 0.018282738
000040 72 71 6a bc 17 e1 47 3e d0 35 ba 3c 52 10 af 3b
       -0.014309274 0.19519459 0.022730738 0.0053425217
000050 30 77 3a 3e e1 bd b9 3c a5 d8 21 3c de fe 35 3e
       0.18209529 0.02267355 0.009878312 0.17773005
000060 64 e8 62 bc 5b 81 0c 3d 61 64 1d 3e 22 e9 ed bc
       -0.013849352 0.03430305 0.15370323 -0.02904183
000070 f5 1d 52 3d 09 b3 33 3e 25 b7 97 bc f3 f2 a4 3d
       0.0512981 0.17548765 -0.018519947 0.080541514
000080 8d d6 2b 3e 60 d2 d2 3a 7a 73 22 3d c0 16 1e 3e
       0.16781063 0.0016084425 0.03966091 0.15438366
000090 8b b1 f7 3b 34 81 77 3d 5e 2e 32 3e 99 cb cc bb
       0.0075590066 0.060425952 0.174005 -0.0062498567
0000a0 2d 5d ad 3d 5d 61 21 3e 08 77 b3 3b 66 fd 57 bd
       0.084650375 0.15759797 0.005476836 -0.052731894
0000b0 ca b5 45 3e 62 cd 54 3c 1c 7c 46 bd dc fc 69 3e
       0.19307628 0.01298842 -0.048458204 0.22850364
0000c0 03 51 25 3c 4a 83 8a bc 75 04 77 3d 42 2f a5 3c
       0.0100901155 -0.016908307 0.060306985 0.020164136
0000d0 81 59 0f bd 01 8e 47 3e
       -0.034997467 0.19487764

data_bn.running_var f4 [54]
000000 7c 07 aa 3b 67 82 4b 3c 93 0c 5a 3d 3a db 98 3b
       0.0051888805 0.012421227 0.053234648 0.0046648057
000010 cc 34 02 3c 9d ec 3c 3d fd 31 98 3b 0f 11 0f 3c
       0.007947158 0.04612409 0.004644631 0.008732094
000020 c9 b3 1c 3d 8f 77 ad 3b cc 90 ea 3b 2f 17 29 3d
       0.038257394 0.0052937935 0.0071583744 0.041281875
000030 07 4f ac 3b 4c c1 03 3c b2 22 22 3d 76 41 bc 3b
       0.005258444 0.008041691 0.03958387 0.0057451082
000040 bb bc f0 3b 2d df 1e 3d 74 01 02 3c 20 09 ba 3b
       0.007346717 0.038787056 0.007934917 0.0056773573
000050 26 4b 16 3d ab 24 32 3c a3 0e b0 3b 83 0f 12 3d
       0.03669276 0.010873 0.0053728386 0.035659324
000060 6f 6d 8d 3b 20 4c 60 3b 12 6d cf 3c 28 25 a8 3b
       0.004316024 0.0034225062 0.025320563 0.0051313825
000070 00 d0 83 3b 1b 9c 1c 3d e6 11 93 3b 0e 85 a8 3b
       0.0040225983 0.03823481 0.0044882176 0.0051428145
000080 32 db 10 3d c7 35 95 3b d8 7e 54 3b b2 0a cb 3c
       0.03536529 0.00455353 0.0032424238 0.024785373
000090 f8 b5 d5 3b 14 0c 6f 3b 40 6c 03 3d d7 5b 9b 3b
       0.0065219365 0.0036475705 0.032085657 0.004741173
0000a0 dc ef a4 3b fb 66 ea 3c 52 f6 a6 3b 39 23 5f 3c
       0.0050334763 0.028613558 0.0050952816 0.013619238
0000b0 dc 8a 5e 3d a1 10 b1 3b 7e 8d 53 3c ef b3 56 3d
       0.054331645 0.0054035936 0.012912152 0.05241769
0000c0 94 cd 9d 3b 27 0c 42 3c 9c ea 96 3c 29 97 b8 3b
       0.0048157666 0.011843718 0.018422417 0.005633254
0000d0 65 8d 37 3c 65 ee 46 3d
       0.011203145 0.048567194

fai_gcn_networks.0.gcn.conv.weight f4 [96, 3, 1, 1]
000000 19 00 00 00 24 00 00 00 24 00 00 80 24 00 00 00
       3.5e-44 5e-44 -5e-44 5e-44
000010 27 00 00 80 23 00 00 00 2c 00 00 80 31 00 00 80
       -5.5e-44 4.9e-44 -6.2e-44 -6.9e-44
000020 2e 00 00 80 27 00 00 80 24 00 00 00 26 00 00 00
       -6.4e-44 -5.5e-44 5e-44 5.3e-44
000030 23 00 00 00 23 00 00 80 23 00 00 80 25 00 00 00
       4.9e-44 -4.9e-44 -4.9e-44 5.2e-44
000040 23 00 00 00 25 00 00 80 26 00 00 00 28 00 00 80
       4.9e-44 -5.2e-44 5.3e-44 -5.6e-44
000050 27 00 00 80 23 00 00 00 2c 00 00 00 01 01 00 80
       -5.5e-44 4.9e-44 6.2e-44 -3.6e-43
000060 23 00 00 00 29 00 00 80 23 00 00 00 23 00 00 80
       4.9e-44 -5.7e-44 4.9e-44 -4.9e-44
000070 23 00 00 80 24 00 00 00 10 00 00 80 45 00 00 80
       -4.9e-44 5e-44 -2.2e-44 -9.7e-44
000080 2c 00 00 80 43 20 72 83 ce 09 8a 84 29 92 3e 05
       -6.2e-44 -7.1154443e-37 -3.245265e-36 8.9606024e-36
000090 29 00 00 00 23 00 00 80 2c 00 00 80 63 6c 28 0b
       5.7e-44 -4.9e-44 -6.2e-44 3.2437164e-32
0000a0 a6 a3 8f 0f 2d a7 5a 8e 26 00 00 80 59 00 00 00
       1.4163924e-29 -2.6951067e-30 -5.3e-44 1.25e-43
0000b0 24 00 00 00 24 00 00 00 19 00 00 80 23 00 00 80
       5e-44 5e-44 -3.5e-44 -4.9e-44
0000c0 29 00 00 00 23 00 00 00 23 00 00 00 18 12 1a 89
       5.7e-44 4.9e-44 4.9e-44 -1.8545583e-33
0000d0 79 0f 28 09 8a 5e 13 08 06 ca 52 8d 36 55 2a 0d
       2.022954e-33 4.4347334e-34 -6.4954423e-31 5.2487863e-31
0000e0 a9 9a a0 0b 27 00 00 80 24 00 00 00 23 00 00 00
       6.1862465e-32 -5.5e-44 5e-44 4.9e-44
0000f0 d7 f2 f5 1a 89 be 57 1d e9 f9 cd 9d 13 00 00 80
       1.01721954e-22 2.8553517e-21 -5.452145e-21 -2.7e-44
000100 d0 00 00 80 b2 01 00 00 26 00 00 00 23 00 00 00
       -2.91e-43 6.08e-43 5.3e-44 4.9e-44
000110 23 00 00 80 f5 ba 52 1a f0 35 42 1b 54 21 83 1a
       -4.9e-44 4.3578005e-23 1.6064732e-22 5.4234175e-23
000120 57 4f 86 82 4a 74 77 82 57 ae cf 83 26 00 00 80
       -1.973507e-37 -1.8180067e-37 -1.2206393e-36 -5.3e-44
000130 23 00 00 80 2b 00 00 00 dc f5 2a 23 4a 48 cf a1
       -4.9e-44 6e-44 9.267781e-18 -1.4046e-18
000140 de df a5 21 23 00 00 00 23 00 00 00 25 00 00 80
       1.1240092e-18 4.9e-44 4.9e-44 -5.2e-44
000150 23 00 00 00 24 00 00 00 23 00 00 00 23 00 00 00
       4.9e-44 5e-44 4.9e-44 4.9e-44
000160 23 00 00 80 69 00 00 00 e4 96 00 17 41 03 d8 16
       -4.9e-44 1.47e-43 4.154948e-25 3.4898736e-25
000170 f0 0e 23 96 8b 05 01 00 5f 09 01 80 53 61 00 00
       -1.3171749e-25 9.3824e-41 -9.5197e-41 3.4913e-41
000180 24 00 00 00 23 00 00 80 24 00 00 80 27 00 00 80
       5e-44 -4.9e-44 -5e-44 -5.5e-44
000190 2a 00 00 80 24 00 00 00 21 00 00 00 23 00 00 80
       -5.9e-44 5e-44 4.6e-44 -4.9e-44
0001a0 7c 00 00 80 24 00 00 80 24 00 00 00 23 00 00 80
       -1.74e-43 -5e-44 5e-44 -4.9e-44
0001b0 24 00 00 00 2b 00 00 00 27 00 00 80 23 00 00 00
       5e-44 6e-44 -5.5e-44 4.9e-44
0001c0 25 00 00 80 29 00 00 80 23 00 00 00 23 00 00 80
       -5.2e-44 -5.7e-44 4.9e-44 -4.9e-44
0001d0 23 00 00 00 21 00 00 80 07 00 00 00 c6 00 00 80
       4.9e-44 -4.6e-44 1e-44 -2.77e-43
0001e0 23 00 00 00 23 00 00 80 29 00 00 80 23 00 00 00
       4.9e-44 -4.9e-44 -5.7e-44 4.9e-44
0001f0 25 00 00 00 27 00 00 00 24 00 00 00 23 00 00 00
       5.2e-44 5.5e-44 5e-44 4.9e-44
000200 23 00 00 80 7e 8b 7b 82 80 2a 0a 82 b9 7b f4 81
       -4.9e-44 -1.84806e-37 -1.0150836e-37 -8.980898e-38
000210 24 00 00 00 23 00 00 80 28 00 00 80 34 eb 78 8e
       5e-44 -4.9e-44 -5.6e-44 -3.0681606e-30
000220 1d b6 96 8e 55 af d2 8c 24 00 00 80 23 00 00 00
       -3.7153224e-30 -3.2461147e-31 -5e-44 4.9e-44
000230 27 00 00 80 27 00 00 80 24 00 00 80 2a 00 00 00
       -5.5e-44 -5.5e-44 -5e-44 5.9e-44
000240 26 00 00 00 26 00 00 00 23 00 00 00 67 0c 6b 89
       5.3e-44 5.3e-44 4.9e-44 -2.8292928e-33
000250 3d 03 05 0a 86 6e 95 08 24 51 da 0d 12 01 43 0d
       6.404326e-33 8.993595e-34 1.3454821e-30 6.0090303e-31
000260 9a 4e 3a 0d 23 00 00 00 24 00 00 80 23 00 00 80
       5.741029e-31 4.9e-44 -5e-44 -4.9e-44
000270 47 9c 32 9e 99 6d 06 9f 45 46 a7 1c 7e 00 00 00
       -9.455559e-21 -2.846626e-20 1.1069297e-21 1.77e-43
000280 df 01 00 00 39 01 00 80 23 00 00 80 23 00 00 80
       6.71e-43 -4.39e-43 -4.9e-44 -4.9e-44
000290 24 00 00 00 fc 38 86 1b 60 ea f1 9a f8 c2 62 1a
       5e-44 2.2205266e-22 -1.0005392e-22 4.68932e-23
0002a0 70 3d 47 00 db cf 7e 03 de bb a7 85 23 00 00 80
       6.54236e-39 7.4882498e-37 -1.5773616e-35 -4.9e-44
0002b0 23 00 00 00 23 00 00 00 b3 fb 12 23 45 10 ab a1
       4.9e-44 4.9e-44 7.967975e-18 -1.1591717e-18
0002c0 7a 11 b7 20 23 00 00 00 24 00 00 80 25 00 00 80
       3.101297e-19 4.9e-44 -5e-44 -5.2e-44
0002d0 29 00 00 80 2b 00 00 80 23 00 00 80 26 00 00 80
       -5.7e-44 -6e-44 -4.9e-44 -5.3e-44
0002e0 23 00 00 00 1f 00 00 80 7f 32 f8 16 23 9e e8 95
       4.9e-44 -4.3e-44 4.0098428e-25 -9.395355e-26
0002f0 d7 37 e8 97 f7 95 01 00 fb 47 00 00 73 18 00 00
       -1.5006745e-24 1.45633e-40 2.5822e-41 8.771e-42
000300 23 00 00 00 28 00 00 00 28 00 00 00 23 00 00 00
       4.9e-44 5.6e-44 5.6e-44 4.9e-44
000310 24 00 00 00 28 00 00 80 04 00 00 80 0e 00 00 80
       5e-44 -5.6e-44 -6e-45 -2e-44
000320 0a 00 00 00 23 00 00 00 24 00 00 80 23 00 00 80
       1.4e-44 4.9e-44 -5e-44 -4.9e-44
000330 23 00 00 00 23 00 00 00 23 00 00 80 27 00 00 00
       4.9e-44 4.9e-44 -4.9e-44 5.5e-44
000340 23 00 00 00 23 00 00 80 23 00 00 80 23 00 00 00
       4.9e-44 -4.9e-44 -4.9e-44 4.9e-44
000350 25 00 00 00 2c 00 00 00 29 00 00 80 26 00 00 80
       5.2e-44 6.2e-44 -5.7e-44 -5.3e-44
000360 24 00 00 00 23 00 00 00 27 00 00 80 23 00 00 00
       5e-44 4.9e-44 -5.5e-44 4.9e-44
000370 23 00 00 80 2c 00 00 00 2b 00 00 00 1e 00 00 80
       -4.9e-44 6.2e-44 6e-44 -4.2e-44
000380 26 00 00 80 07 b4 1c 82 f8 be e3 83 7c 52 72 03
       -5.3e-44 -1.1512735e-37 -1.3385705e-36 7.1212096e-37
000390 23 00 00 80 23 00 00 80 29 00 00 80 b0 d8 bf 8b
       -4.9e-44 -4.9e-44 -5.7e-44 -7.389656e-32
0003a0 db 71 06 10 ed 40 b6 0e 27 00 00 80 25 00 00 80
       2.651455e-29 4.4928985e-30 -5.5e-44 -5.2e-44
0003b0 4c 00 00 80 2c 00 00 80 24 00 00 00 23 00 00 00
       -1.06e-43 -6.2e-44 5e-44 4.9e-44
0003c0 2b 00 00 80 23 00 00 80 23 00 00 80 8d 18 0f 88
       -6e-44 -4.9e-44 -4.9e-44 -4.3061356e-34
0003d0 3f 9d b3 09 e9 d5 2a 06 2f 0d 09 8b 6d 5a 8f 0c
       4.3240556e-33 3.2130603e-35 -2.6395158e-32 2.2087062e-31
0003e0 f5 c9 9f 8c 23 00 00 80 25 00 00 80 23 00 00 80
       -2.4619377e-31 -4.9e-44 -5.2e-44 -4.9e-44
0003f0 47 48 b1 9c 2e 4c 15 9c 0e 4b 44 1d 24 00 00 80
       -1.1731561e-21 -4.9398424e-22 2.5979186e-21 -5e-44

fai_gcn_networks.0.gcn.conv.bias f4 [96]
000000 26 00 00 80 04 00 00 00 fd 0a a8 00 25 00 00 80
       -5.3e-44 6e-45 1.5432305e-38 -5.2e-44
000010 25 00 00 00 90 01 00 00 56 00 00 00 89 06 04 80
       5.2e-44 5.6e-43 1.2e-43 -3.69686e-40
000020 b1 f5 01 00 24 00 00 80 b0 02 00 00 ea 2a 70 90
       1.79973e-40 -5e-44 9.64e-43 -4.7364714e-29
000030 18 00 00 80 c5 f3 7c 19 42 15 00 80 23 00 00 80
       -3.4e-44 1.30773235e-23 -7.626e-42 -4.9e-44
000040 38 00 00 00 52 b8 c0 14 02 e4 8c 15 27 00 00 80
       7.8e-44 1.9459747e-26 5.690528e-26 -5.5e-44
000050 98 f0 4d 29 d4 44 11 80 2a 00 00 80 67 88 76 26
       4.5727826e-14 -1.585894e-39 -5.9e-44 8.5533255e-16
000060 59 e2 c0 0d 27 00 00 00 de 00 88 2e 28 00 00 80
       1.1887405e-30 5.5e-44 6.184718e-11 -5.6e-44
000070 25 00 00 80 23 00 00 80 03 35 81 a1 8f 67 2e 08
       -5.2e-44 -4.9e-44 -8.755412e-19 5.2482953e-34
000080 27 00 00 80 2a 00 00 00 d3 e8 30 81 29 00 00 80
       -5.5e-44 5.9e-44 -3.2493138e-38 -5.7e-44
000090 24 00 00 80 3c 03 00 00 83 00 00 00 96 ae 05 00
       -5e-44 1.16e-42 1.84e-43 5.21807e-40
0000a0 c7 6b 00 80 26 00 00 00 33 05 00 00 b3 fc f7 90
       -3.8663e-41 5.3e-44 1.865e-42 -9.7813667e-29
0000b0 24 00 00 80 a2 50 65 19 4e 16 00 80 29 00 00 00
       -5e-44 1.1855306e-23 -8.001e-42 5.7e-44
0000c0 27 00 00 80 d5 d9 b3 93 78 77 92 97 24 00 00 00
       -5.5e-44 -4.540075e-27 -9.465187e-25 5e-44
0000d0 41 53 08 29 57 1f 10 80 3d 00 00 80 92 ec a0 26
       3.0270278e-14 -1.48061e-39 -8.5e-44 1.1166353e-15
0000e0 dc 3d 09 0f 25 00 00 80 c1 f0 86 2e 43 00 00 80
       6.766535e-30 -5.2e-44 6.136381e-11 -9.4e-44
0000f0 23 00 00 00 2c 00 00 80 2e 3a 21 21 42 9c 15 87
       4.9e-44 -6.2e-44 5.462592e-19 -1.1255434e-34
000100 29 00 00 00 23 00 00 00 36 5e 6c 00 24 00 00 00
       5.7e-44 4.9e-44 9.95203e-39 5e-44
000110 26 00 00 00 dd 05 00 00 2b 00 00 00 87 e5 01 00
       5.3e-44 2.103e-42 6e-44 1.74174e-40
000120 47 22 02 80 57 00 00 80 7a 00 00 80 57 3c c7 90
       -1.95967e-40 -1.22e-43 -1.71e-43 -7.858463e-29
000130 4a 00 00 00 f7 cb d9 97 d6 58 00 00 29 00 00 00
       1.04e-43 -1.4074784e-24 3.1868e-41 5.7e-44
000140 45 00 00 00 0a f1 98 93 3a 27 e8 17 00 00 00 80
       9.7e-44 -3.8607877e-27 1.5002551e-24 -0.0
000150 15 db 77 28 b3 b8 09 80 92 00 00 80 aa fc 95 26
       1.375876e-14 -8.92777e-40 -2.05e-43 1.0407437e-15
000160 5c 5f 19 0f 2b 00 00 80 b7 ef 74 2e 78 00 00 00
       7.561848e-30 -6e-44 5.5692086e-11 1.68e-43
000170 74 00 00 00 63 00 00 80 12 44 db 21 23 5e 2c 09
       1.63e-43 -1.39e-43 1.4858035e-18 2.074801e-33

fai_gcn_networks.1.gcn.conv.weight f4 [192, 32, 1, 1]
000000 59 00 00 80 29 00 00 80 23 00 00 80 61 00 00 80
       -1.25e-43 -5.7e-44 -4.9e-44 -1.36e-43
000010 23 00 00 00 23 00 00 00 23 00 00 00 24 00 00 00
       4.9e-44 4.9e-44 4.9e-44 5e-44
000020 24 00 00 00 24 00 00 80 23 00 00 80 a0 33 63 00
       5e-44 -5e-44 -4.9e-44 9.110234e-39
000030 33 00 00 80 ec 1a 56 8c 27 00 00 80 35 00 00 00
       -7.1e-44 -1.6494062e-31 -5.5e-44 7.4e-44
000040 23 00 00 80 b8 ba 11 87 7b 9e 11 89 23 00 00 80
       -4.9e-44 -1.0963459e-34 -1.7528257e-33 -4.9e-44
000050 29 86 68 1c 23 00 00 80 24 00 00 00 75 fd 11 97
       7.693576e-22 -4.9e-44 5e-44 -4.7171935e-25
000060 39 8a 18 83 24 00 00 80 d3 85 16 9e 24 00 00 00
       -4.4827457e-37 -5e-44 -7.968608e-21 5e-44
000070 27 00 00 00 23 00 00 00 f4 d7 09 92 0e 19 00 00
       5.5e-44 4.9e-44 -4.349576e-28 8.988e-42
000080 25 00 00 00 23 00 00 00 23 00 00 80 24 00 00 00
       5.2e-44 4.9e-44 -4.9e-44 5e-44
000090 2c 00 00 00 2b 00 00 80 29 00 00 00 23 00 00 00
       6.2e-44 -6e-44 5.7e-44 4.9e-44
0000a0 2a 00 00 00 28 00 00 80 25 00 00 00 26 00 00 80
       5.9e-44 -5.6e-44 5.2e-44 -5.3e-44
0000b0 25 00 00 00 27 fa 00 00 23 00 00 00 25 00 00 00
       5.2e-44 8.9738e-41 4.9e-44 5.2e-44
0000c0 77 00 00 00 68 00 00 80 24 00 00 80 27 00 00 00
       1.67e-43 -1.46e-43 -5e-44 5.5e-44
0000d0 7d e7 83 07 23 00 00 00 23 00 00 80 21 d5 98 84
       1.9846746e-34 4.9e-44 -4.9e-44 -3.5930756e-36
0000e0 23 00 00 00 23 00 00 00 f5 db 8d 8c 26 00 00 80
       4.9e-44 4.9e-44 -2.1856872e-31 -5.3e-44
0000f0 24 00 00 80 25 00 00 80 07 e2 56 82 26 00 00 80
       -5e-44 -5.2e-44 -1.5787104e-37 -5.3e-44
000100 23 00 00 80 26 00 00 00 29 00 00 80 23 00 00 00
       -4.9e-44 5.3e-44 -5.7e-44 4.9e-44
000110 2c 00 00 80 2c 00 00 00 23 00 00 80 23 00 00 00
       -6.2e-44 6.2e-44 -4.9e-44 4.9e-44
000120 23 00 00 80 25 00 00 00 23 00 00 00 ac 31 04 80
       -4.9e-44 5.2e-44 4.9e-44 -3.85161e-40
000130 23 00 00 00 f2 66 a3 88 24 00 00 80 22 00 00 80
       4.9e-44 -9.834408e-34 -5e-44 -4.8e-44
000140 23 00 00 00 0e af 5a 82 75 46 7e 85 23 00 00 00
       4.9e-44 -1.6066349e-37 -1.19559635e-35 4.9e-44
000150 b8 7b 19 18 2c 00 00 80 2a 00 00 80 0a f3 95 93
       1.9837249e-24 -6.2e-44 -5.9e-44 -3.7852543e-27
000160 19 64 3a 00 23 00 00 80 c4 21 5e 9d 23 00 00 80
       5.362367e-39 -4.9e-44 -2.9398912e-21 -4.9e-44
000170 23 00 00 00 23 00 00 80 12 00 93 0f 59 01 00 00
       4.9e-44 -4.9e-44 1.4495346e-29 4.83e-43
000180 23 00 00 80 23 00 00 80 25 00 00 80 2b 00 00 80
       -4.9e-44 -4.9e-44 -5.2e-44 -6e-44
000190 23 00 00 00 2c 00 00 00 24 00 00 00 23 00 00 80
       4.9e-44 6.2e-44 5e-44 -4.9e-44
0001a0 23 00 00 80 24 00 00 00 23 00 00 00 23 00 00 80
       -4.9e-44 5e-44 4.9e-44 -4.9e-44
0001b0 25 00 00 80 23 00 00 80 23 00 00 80 23 00 00 80
       -5.2e-44 -4.9e-44 -4.9e-44 -4.9e-44
0001c0 23 00 00 00 25 00 00 00 53 00 00 80 24 00 00 00
       4.9e-44 5.2e-44 -1.16e-43 5e-44
0001d0 75 ec b1 34 24 00 00 80 2b 00 00 00 68 eb 47 00
       3.3140864e-07 -5e-44 6e-44 6.604768e-39
0001e0 25 00 00 80 d8 00 00 00 ea 14 00 80 2b 00 00 00
       -5.2e-44 3.03e-43 -7.503e-42 6e-44
0001f0 23 00 00 80 23 00 00 80 ce 0d 01 80 23 00 00 00
       -4.9e-44 -4.9e-44 -9.6788e-41 4.9e-44
000200 23 00 00 80 28 00 00 00 4f 00 00 00 23 00 00 00
       -4.9e-44 5.6e-44 1.11e-43 4.9e-44
000210 26 00 00 00 49 00 00 80 23 00 00 80 27 00 00 00
       5.3e-44 -1.02e-43 -4.9e-44 5.5e-44
000220 24 00 00 00 24 00 00 80 24 00 00 00 40 21 00 80
       5e-44 -5e-44 5e-44 -1.1928e-41
000230 19 00 00 80 91 8b 41 07 23 00 00 00 23 00 00 80
       -3.5e-44 1.4560721e-34 4.9e-44 -4.9e-44
000240 23 00 00 80 25 09 82 82 1e 5b d1 03 24 00 00 80
       -4.9e-44 -1.9107032e-37 1.2304835e-36 -5e-44
000250 32 e8 c2 94 2c 00 00 80 23 00 00 80 67 28 cf 90
       -1.9680579e-26 -6.2e-44 -4.9e-44 -8.1709353e-29
000260 c9 c7 0d 80 24 00 00 80 b1 cd 04 99 23 00 00 00
       -1.265531e-39 -5e-44 -6.865779e-24 4.9e-44
000270 2a 00 00 00 25 00 00 80 7d e6 99 0e 24 00 00 80
       5.9e-44 -5.2e-44 3.7939364e-30 -5e-44
000280 23 00 00 80 29 00 00 80 23 00 00 00 23 00 00 00
       -4.9e-44 -5.7e-44 4.9e-44 4.9e-44
000290 23 00 00 80 23 00 00 80 24 00 00 00 23 00 00 00
       -4.9e-44 -4.9e-44 5e-44 4.9e-44
0002a0 23 00 00 00 23 00 00 80 25 00 00 80 23 00 00 00
       4.9e-44 -4.9e-44 -5.2e-44 4.9e-44
0002b0 5c 00 00 00 25 00 00 00 19 00 00 00 23 00 00 00
       1.29e-43 5.2e-44 3.5e-44 4.9e-44
0002c0 23 00 00 00 19 00 00 00 23 00 00 00 23 00 00 00
       4.9e-44 3.5e-44 4.9e-44 4.9e-44
0002d0 11 00 00 00 63 00 00 00 23 00 00 00 23 00 00 80
       2.4e-44 1.39e-43 4.9e-44 -4.9e-44
0002e0 24 00 00 80 23 00 00 80 ee 67 df a5 24 00 00 00
       -5e-44 -4.9e-44 -3.875476e-16 5e-44
0002f0 23 00 00 00 23 00 00 00 2b 00 00 80 23 00 00 80
       4.9e-44 4.9e-44 -6e-44 -4.9e-44
000300 23 00 00 80 23 00 00 00 24 00 00 80 23 00 00 00
       -4.9e-44 4.9e-44 -5e-44 4.9e-44
000310 e6 00 00 00 24 00 00 00 25 00 00 80 19 00 00 00
       3.22e-43 5e-44 -5.2e-44 3.5e-44
000320 24 00 00 80 4d 00 00 80 23 00 00 00 cc 26 00 80
       -5e-44 -1.08e-43 4.9e-44 -1.3918e-41
000330 24 00 00 00 76 0f 76 07 24 00 00 80 24 00 00 00
       5e-44 1.8511527e-34 -5e-44 5e-44
000340 24 00 00 80 ff 29 8b 01 80 74 1c 83 25 00 00 00
       -5e-44 5.11208e-38 -4.5978015e-37 5.2e-44
000350 04 38 a5 13 23 00 00 80 23 00 00 00 21 92 09 90
       4.170709e-27 -4.9e-44 4.9e-44 -2.713106e-29
000360 7a 68 02 80 23 00 00 00 a0 fa 3c 9a 25 00 00 80
       -2.2115e-40 4.9e-44 -3.9079942e-23 -5.2e-44
000370 25 00 00 80 23 00 00 00 0a a9 10 0e 23 00 00 80
       -5.2e-44 4.9e-44 1.783076e-30 -4.9e-44
000380 26 00 00 80 23 00 00 00 e9 00 00 80 23 00 00 00
       -5.3e-44 4.9e-44 -3.27e-43 4.9e-44
000390 25 00 00 80 23 00 00 80 23 00 00 80 23 00 00 00
       -5.2e-44 -4.9e-44 -4.9e-44 4.9e-44
0003a0 25 00 00 80 23 00 00 00 23 00 00 00 13 5c fa 85
       -5.2e-44 4.9e-44 4.9e-44 -2.354371e-35
0003b0 29 00 00 00 5c 6d 93 90 24 00 00 00 64 00 00 80
       5.7e-44 -5.814977e-29 5e-44 -1.4e-43
0003c0 25 00 00 00 39 93 1e 0b 06 80 d0 0c 23 00 00 00
       5.2e-44 3.054045e-32 3.2124526e-31 4.9e-44
0003d0 b8 e9 92 1e 0d 00 00 00 24 00 00 80 52 5a 50 9c
       1.5555015e-20 1.8e-44 -5e-44 -6.8938163e-22
0003e0 e2 d4 a0 84 27 00 00 80 68 a7 43 a2 c5 00 00 00
       -3.781132e-36 -5.5e-44 -2.6516052e-18 2.76e-43
0003f0 25 00 00 00 23 00 00 00 ab 1d ce 97 fb 48 08 80
       5.2e-44 4.9e-44 -1.3319927e-24 -7.60864e-40

fai_gcn_networks.1.gcn.conv.bias f4 [192]
000000 cb 71 3a 32 7c ec 1f 20 7a 04 0d 2e 89 db a7 9b
       1.08524985e-08 1.354607e-19 3.2063664e-11 -2.7769704e-22
000010 5e 48 e1 2b 11 9a 4f 8f 1d 77 c7 2b 53 15 04 b6
       1.6007297e-12 -1.023556e-29 1.4172861e-12 -1.9681945e-06
000020 77 5c e6 b7 a4 1d 3e 18 76 30 bb 83 e9 b8 8d 08
       -2.7461194e-05 2.457189e-24 -1.1001998e-36 8.529601e-34
000030 89 a8 97 08 ff cc 80 2a b1 1b 01 2b 8d c0 70 30
       9.127604e-34 2.2879612e-13 4.5868436e-13 8.758512e-10
000040 37 45 9d 30 0c 48 31 30 dc 89 a2 8a 26 37 b5 07
       1.1442925e-09 6.449461e-10 -1.565189e-32 2.7266266e-34
000050 e2 48 c5 0c e9 52 0f 24 65 22 86 87 db 1c 72 aa
       3.039652e-31 3.107841e-17 -2.0182294e-34 -2.1503929e-13
000060 b1 bb eb 86 77 d6 b6 33 d2 f6 b0 88 28 33 0d 89
       -8.8672963e-35 8.5140464e-08 -1.0650642e-33 -1.6996311e-33
000070 3c e8 de 25 3d 3d 87 20 83 fa e4 33 4b 01 25 36
       3.866823e-16 2.2910414e-19 1.0662645e-07 2.4587669e-06
000080 5c a5 16 89 2c 84 25 27 89 7c b1 06 ea 1c b3 09
       -1.8133345e-33 2.297e-15 6.676299e-35 4.3119873e-33
000090 e5 69 e3 87 18 6b d9 06 93 f2 73 08 08 9a 40 07
       -3.4217403e-34 8.178369e-35 7.3410297e-34 1.448974e-34
0000a0 54 c9 f9 23 99 a8 3f 87 39 cd 5a 01 6f 27 8c 0c
       2.70819e-17 -1.4418789e-34 4.0187516e-38 2.1594149e-31
0000b0 92 ec 5f 02 0c 14 98 01 fa c9 4f 1d 3c 38 cd 26
       1.6451345e-37 5.586475e-38 2.7500641e-21 1.4239975e-15
0000c0 3d 7f 89 2f 22 8d 9b 87 ff ce a3 07 43 3c 8d 87
       2.5010563e-10 -2.3404758e-34 2.4647176e-34 -2.125074e-34
0000d0 9a e1 22 87 d0 ea 60 24 44 54 aa 2d 47 f9 f2 20
       -1.2253824e-34 4.877115e-17 1.9364184e-11 4.1161353e-19
0000e0 85 7c 2c 32 00 42 cb 33 9a c0 94 05 19 70 82 0b
       1.004003e-08 9.4649295e-08 1.3988604e-35 5.0242844e-32
0000f0 57 b5 2a 8b c2 25 49 25 d3 cb 86 2b b8 5b 67 0d
       -3.2877234e-32 1.7446764e-16 9.577845e-13 7.1292773e-31
000100 52 ff aa 32 94 5b 86 20 36 6f 7a 2e fc 06 b7 9b
       1.9906711e-08 2.2761084e-19 5.6942194e-11 -3.0279324e-22
000110 f4 c7 4c 2c 14 46 4b 8f 9a 20 30 2c 62 20 77 b1
       2.910114e-12 -1.0022169e-29 2.5029202e-12 -3.5961638e-09
000120 1c 64 6a b8 cc 3b 03 18 1f 75 f9 83 03 22 b2 08
       -5.588318e-05 1.6961543e-24 -1.4661794e-36 1.0720981e-33
000130 40 5b 06 09 dc 83 d9 29 95 bd 63 2b 82 29 de 30
       1.6172569e-33 9.65961e-14 8.09097e-13 1.6164423e-09
000140 af ac 10 31 75 0f 9f 30 d1 7a 10 89 68 98 df 88
       2.1052917e-09 1.1573166e-09 -1.7391117e-33 -1.3457155e-33
000150 48 fa 10 0d aa c7 75 24 17 86 2e 06 1d ac f0 a9
       4.467469e-31 5.329503e-17 3.2824276e-35 -1.0687998e-13
000160 2f ae 16 89 a2 8b 2c 34 f0 e3 14 89 7b 5a 4d 89
       -1.8137494e-33 1.6069546e-07 -1.7922028e-33 -2.4718521e-33
000170 3a 6e 43 26 5b 61 e3 20 c1 fd 4e 34 e5 37 9d 36
       6.78036e-16 3.851972e-19 1.927756e-07 4.6854716e-06
000180 9b 1d d6 87 a5 7f 9b 27 16 7e 0c 07 8a a8 0b 8a
       -3.2216542e-34 4.3159535e-15 1.0569483e-34 -6.724305e-33
000190 32 e4 86 87 2e 51 cb 06 4a f3 ab 08 92 ef 4c 08
       -2.02962e-34 7.6479396e-35 1.0348885e-33 6.167063e-34
0001a0 63 eb 8f a3 ec 5d 4f 87 d2 98 1c 02 8b a2 c8 0b
       -1.5603781e-17 -1.560055e-34 1.1504927e-37 7.7281765e-32
0001b0 18 22 bd 02 54 8c d1 02 dd 90 a9 1d 90 dc 32 27
       2.7790623e-37 3.0790334e-37 4.4883713e-21 2.482203e-15
0001c0 b1 10 f8 2f c1 7f 27 88 e8 a4 87 88 54 7d 59 88
       4.5122797e-10 -5.040491e-34 -8.163786e-34 -6.5448385e-34
0001d0 36 05 d7 86 57 b5 c1 24 1c 91 19 2e f0 34 4b 21
       -8.088167e-35 8.400761e-17 3.4917055e-11 6.884914e-19
0001e0 40 1d 9f 32 73 0c 3b 34 b1 87 11 05 65 f6 2c 0c
       1.8523338e-08 1.7420261e-07 6.84279e-36 1.3324545e-31
0001f0 ae 69 c5 8a bb fb ac 25 a3 2f f2 2b 65 2b 0a 0e
       -1.9010162e-32 3.0007823e-16 1.7208356e-12 1.7030707e-30
000200 6c 22 4d 31 f5 4f 13 1f fc 9c 18 2d 94 fa ea 9a
       2.9850993e-09 3.11946e-20 8.675057e-12 -9.718496e-23
000210 10 c2 eb 2a 8c 6e 18 8f 0d f1 d1 2a 1c c9 7a b7
       4.1879044e-13 -7.515469e-30 3.729312e-13 -1.4947986e-05
000220 f3 f1 a6 36 43 29 c5 17 d9 f1 0a 03 cd 5e 21 08
       4.975352e-06 1.2741243e-24 4.0832183e-37 4.8560613e-34
000230 a7 14 e2 07 49 90 90 a8 8d 4c 06 2a 3e 87 83 2f
       3.401684e-34 -1.6049785e-14 1.192815e-13 2.3924857e-10
000240 5b 55 ab 2f 41 88 43 2f f1 a4 5a 89 e6 2f 9e 87
       3.1165368e-10 1.7783554e-10 -2.631835e-33 -2.380135e-34
000250 cc 3c b5 0b 4e c0 07 23 7f 35 8c 08 ec 97 fc a9
       6.981014e-32 7.359087e-18 8.43852e-34 -1.1217402e-13
000260 4c 1d 1e 07 3d 00 c4 32 5b 99 23 09 21 e7 65 87
       1.1895208e-34 2.2817511e-08 1.9692519e-33 -1.7295968e-34
000270 64 52 d8 24 d1 bf 79 1f 43 c4 fe 32 54 b4 2a 35
       9.381464e-17 5.2886468e-20 2.9658741e-08 6.3592347e-07
000280 e4 6f 37 89 36 49 df 26 fd c9 96 86 ea b9 aa 0a
       -2.2080434e-33 1.5493577e-15 -5.6720524e-35 1.6440338e-32
000290 72 5c dc 88 c8 04 1b 07 b4 e8 97 09 ec 9a d2 88
       -1.3262502e-33 1.1662309e-34 3.657076e-33 -1.2675337e-33
0002a0 4e 9c bc 22 13 bd a8 87 f9 a3 3a 01 1f 6a 4b 8c
       5.1122996e-18 -2.5388958e-34 3.428045e-38 -1.5670486e-31
0002b0 3c 30 22 83 61 a2 48 02 c8 13 46 1c 42 66 c9 25
       -4.766289e-37 1.474028e-37 6.553827e-22 3.4937234e-16
0002c0 4a 4b 96 2e 95 2b 08 09 87 c9 e0 88 2d f0 16 06
       6.834584e-11 1.6390897e-33 -1.35288885e-33 2.8388318e-35
0002d0 c9 df a0 05 cc 0e 56 23 73 9b b6 2c f8 28 e2 1f
       1.5128533e-35 1.1604097e-17 5.1900094e-12 9.57825e-20
0002e0 e7 ce 3c 31 17 be de 32 67 10 59 06 8b 96 6a 8c
       2.747521e-09 2.5930644e-08 4.0825214e-35 -1.8072007e-31
0002f0 ed fa a7 0a 86 f2 41 24 17 20 8d 2a 7d bd fe 8b
       1.6175903e-32 4.205563e-17 2.5068898e-13 -9.812235e-32

fai_gcn_networks.1.residual.0.weight f4 [64, 32, 1, 1]
000000 3e 00 c6 bb da 18 89 3c 5b ea 2e 3b 6f cc 1b 3d
       -0.0060425093 0.016735483 0.002668998 0.03803676
000010 70 3c d6 3b d3 8f 4a 3c 10 a0 23 bc 2d e5 ab bc
       0.0065379664 0.012363392 -0.009986892 -0.020983303
000020 6d e5 9d bb 00 82 bf bc 33 e5 ec 3c 2d 82 b6 bb
       -0.0048186095 -0.023377419 0.028917884 -0.0055697174
000030 b3 8c 78 bc 84 11 01 3d 23 c1 f1 bc cd d5 a3 ba
       -0.015170264 0.031510845 -0.02951104 -0.0012499631
000040 c4 52 ac bc 0b dd d5 3c 37 fb c1 bb e1 f0 52 bc
       -0.02103556 0.026106378 -0.0059198397 -0.012874813
000050 e1 be 43 bc b5 cd 3f 3c 3b 12 1b bc 01 c6 3d bb
       -0.011947365 0.011706759 -0.009464796 -0.002895713
000060 f2 19 01 bb e7 3a 0e 3c b2 87 ac 3a 84 e1 8b 3b
       -0.0019699303 0.008681036 0.0013162999 0.004268827
000070 9a 68 8d bc be 82 68 bc 47 09 d6 3c 76 83 88 3c
       -0.017261792 -0.014191328 0.02612747 0.016664248
000080 70 59 23 3c 89 cf bc b8 b3 7a d5 bc 9d 62 2f bc
       0.009970054 -9.003195e-05 -0.026059484 -0.010704664
000090 cb 98 26 bc 2f 94 08 3d 7c 56 8e 3c a5 78 7a 3b
       -0.010168265 0.033344444 0.017375223 0.0038218882
0000a0 3e ef 0c bb a7 a7 20 3d b0 8d 10 3c 1c 1f 33 3c
       -0.0021504904 0.039222386 0.008822843 0.01093271
0000b0 4d c3 3f 3c 22 98 1d bd e2 a9 a9 bb 24 25 02 bd
       0.011704278 -0.038475163 -0.0051777223 -0.0317737
0000c0 83 7e 14 bc 04 e2 ca bc 6e 6c 38 3c c1 6a ad 3c
       -0.009063366 -0.024765976 0.01125632 0.021169068
0000d0 5d eb 2d 3c ce ea a7 bc 5c bb 5b 3b e0 1e 23 3c
       0.010615197 -0.020497706 0.0033528423 0.009956092
0000e0 f5 ef ec 3a 0e 8b 4c bc 6e 72 93 3b 33 29 69 3c
       0.0018076884 -0.012484325 0.004499725 0.014231014
0000f0 ac 3b 0b bc a9 92 03 bd 0d 13 9d bb 99 3b 90 3c
       -0.008498114 -0.032122288 -0.004793531 0.017606543
000100 62 36 80 3d c1 1f 0d bd b0 d2 c2 3c d7 07 2f 3c
       0.06260373 -0.03445411 0.023782104 0.0106830215
000110 37 08 9a ba 86 78 2b bc 74 3c 1c bc e7 05 b6 bc
       -0.0011751716 -0.010465747 -0.0095358975 -0.022219611
000120 0e 4d c3 39 7b cc 42 bb e6 6b 19 3d f0 4f 65 ba
       0.0003725071 -0.002972393 0.037456416 -0.00087475684
000130 82 96 0a 3c 0b 14 36 bc d4 99 e6 bb bd 06 ca 3b
       0.008458735 -0.011113177 -0.0070373807 0.006165354
000140 6e af cb 3c 12 6e 1d bc 34 9e 1e 3d ce f3 bd 3c
       0.024863925 -0.009608762 0.038725093 0.023187544
000150 f8 07 b2 bb 4b f4 49 bc d6 27 0e 3c e7 89 dd ba
       -0.005433079 -0.01232631 0.00867649 -0.001690206
000160 08 e6 8c 3c 9e ea c3 3c 61 d2 e1 bc 65 ac 75 bb
       0.017199531 0.023915585 -0.027566137 -0.0037486788
000170 20 2a 01 bc aa 4f d1 3c 9e 3f 45 bc 60 f8 d8 3c
       -0.007883579 0.025550682 -0.012039093 0.026485622
000180 b7 53 63 3c fc 2e 48 3c 87 b2 f8 3b a6 a5 c8 3c
       0.01387494 0.012218233 0.0075896415 0.02449305
000190 55 26 34 3c 60 b0 bd bc c7 88 8b bc db 4b 6e 3c
       0.010995467 -0.023155391 -0.017032994 0.014544453
0001a0 c6 0e c6 3c e6 48 c6 bc be ad 3d 3c 98 bf 2f bc
       0.024176966 -0.024204683 0.011577068 -0.010726832
0001b0 22 b6 8c 3c 8b 76 74 3c 2e c1 8d bc b0 68 bc bc
       0.017176691 0.014920841 -0.01730403 -0.022999138
0001c0 ac 2d d1 3c 4a 05 db bc 4c 50 6a bc 02 10 08 bc
       0.025534473 -0.02673592 -0.014301371 -0.008304598
0001d0 cf b9 af 3b 62 61 fb 3b ab 9c 21 3d af 95 61 3b
       0.0053627263 0.007671521 0.03945605 0.0034421494
0001e0 cf f5 9b 3c 34 5b f6 3c 6d 9e 19 bd 46 7b 0c bb
       0.01903811 0.030072786 -0.037504602 -0.0021435781
0001f0 0a 67 c7 3c 0c 41 e1 3c 33 dc 17 3c 68 63 12 3d
       0.024341125 0.027496837 0.009268808 0.035739332
000200 b0 0f c5 3c d4 c2 b3 3c b7 91 28 3c f8 6e 63 3c
       0.024055332 0.021943487 0.010288647 0.0138814375
000210 d0 74 51 3c 7e 98 74 bb 87 b0 1b 3c e4 f5 87 bc
       0.012784198 -0.0037322338 0.009502537 -0.016596742
000220 86 5c bd 3c 81 05 b4 3c 42 d3 83 3c 12 a1 fd bc
       0.023115408 0.02197528 0.016091947 -0.030960593
000230 d9 8f 45 3b e0 a9 0f 3c 9a 53 8b 3a 95 e5 f2 bc
       0.0030145554 0.008768529 0.0010629774 -0.029650489
000240 5d fc 35 3c 37 58 6f 3b 90 eb 4f bc 2b 62 9c bc
       0.011107531 0.0036521086 -0.01269044 -0.019089779
000250 39 ad 3c bb 78 2f 40 bc 50 70 0d bb c4 6c 89 3c
       -0.0028789772 -0.011730067 -0.0021581836 0.016775496
000260 c9 96 f5 bc f9 a3 11 bb 9d fe 9c 3c 69 97 d9 bb
       -0.029979127 -0.002222298 0.019164378 -0.006640364
000270 28 80 0d bb dd a9 1b 3d d5 65 0d 3c 6e c9 41 3c
       -0.002159128 0.03800379 0.008630236 0.01182781
000280 e4 61 aa 3c d7 24 40 bc 85 44 8e 3c 24 c6 39 bb
       0.020798631 -0.011727533 0.017366657 -0.002834686
000290 cb 44 32 3c 44 0d 93 3c 54 b0 5b 3c 1e 2c d3 3c
       0.010880659 0.017950661 0.013408739 0.025777873
0002a0 af 98 1b 3c 86 12 e2 bb 42 fb 64 3c d3 f4 ae bc
       0.009496852 -0.006899181 0.01397592 -0.021356976
0002b0 6a ec e8 bc 05 b5 ac 3b 99 35 8f bc 9c 5b 5e 3c
       -0.028433044 0.0052706026 -0.017481612 0.013571646
0002c0 78 71 10 3c f3 ca d3 3c 58 cc 5e bd 99 9c 2c ba
       0.008816116 0.02585361 -0.054394096 -0.0006584614
0002d0 6b c6 f1 3c e4 8b 37 3b 8e e5 89 3b a5 de df 3c
       0.029513558 0.0028006965 0.0042082733 0.027327845
0002e0 25 a5 55 bb 63 b0 68 3c ae ad e9 3a f0 6c 1c 3d
       -0.0032599655 0.01420221 0.001782825 0.03818983
0002f0 46 86 27 3b 1d 72 6e 3b b4 5d 14 bc 84 2f 89 3b
       0.002556221 0.0036383935 -0.009055544 0.0041865725
000300 1a c2 86 3c 4e 43 ff 3b c4 72 a6 3b 01 15 e0 3b
       0.016449977 0.0077900058 0.005079599 0.0068384414
000310 17 87 87 39 fb 7b 4e bc fe a5 45 3c b9 ee b0 bc
       0.00025849856 -0.012602801 0.012063501 -0.021598207
000320 b4 8a 00 bd 86 51 30 bc 02 63 2f 3c b2 4d 43 ba
       -0.031382278 -0.010761624 0.010704758 -0.0007450237
000330 d8 82 48 bd f5 66 14 3c 30 f4 f7 bc 66 23 15 bc
       -0.048952907 0.00905775 -0.030267805 -0.009102678
000340 a2 5f 97 bc dc 5a f2 3a d2 00 31 3d 52 28 c9 bb
       -0.018478218 0.0018490213 0.043213673 -0.0061388398
000350 d0 b0 bd ba fd b7 1a 3d a6 61 18 bc 0b b5 b8 3c
       -0.001447225 0.03777312 -0.009300625 0.022547266
000360 15 ea 49 bc a1 29 08 bd 79 9a 00 3c 56 14 8f 3c
       -0.012323876 -0.033242825 0.007849329 0.017465752
000370 81 d2 42 bc 73 d3 2e bb 86 a8 08 bc b5 c0 ca 3c
       -0.011891008 -0.0026676327 -0.00834096 0.024750093
000380 f4 30 e8 3c b9 22 df ba fb fc 3e 3c c1 87 da 3c
       0.028343655 -0.0017023898 0.011656995 0.02667606
000390 6b b7 88 bc 29 ca 51 b9 00 cd 0b 3c ac a2 9e bc
       -0.016689023 -0.00020007104 0.0085327625 -0.019364677
0003a0 57 ae 4c ba e9 5c b7 bb 5b 25 34 3d fe 68 12 bc
       -0.0007807961 -0.0055957926 0.043980937 -0.008936165
0003b0 0c 1e 02 3d 79 ee 6a 3c 4e d9 97 bb 70 a2 bc 3b
       0.031766936 0.014339083 -0.004634059 0.0057566687
0003c0 e2 d9 03 3d cb 06 5b bc 73 3c 30 bc 92 e4 e0 bc
       0.03219021 -0.013368319 -0.0107566 -0.02745274
0003d0 89 a5 24 3b a1 8f ac 3c bb 5a b0 bc 9e 10 76 39
       0.002512308 0.021064581 -0.021527639 0.00023466579
0003e0 19 22 d1 bb 4f 6e 1d 3c 45 94 fa bb dd d2 4f 3c
       -0.0063822386 0.009608819 -0.0076470696 0.012684551
0003f0 bc 2a ea bb bc e3 c3 3b e4 9e 97 bc 85 58 26 bc
       -0.0071462076 0.005978076 -0.018508382 -0.010152941

fai_gcn_networks.1.residual.0.bias f4 [64]
000000 00 00 00 00 00 00 00 00 00 00 00 00 00 00 00 00
       0.0 0.0 0.0 0.0
000010 00 00 00 00 00 00 00 00 00 00 00 00 00 00 00 00
       0.0 0.0 0.0 0.0
000020 00 00 00 00 00 00 00 00 00 00 00 00 00 00 00 00
       0.0 0.0 0.0 0.0
000030 00 00 00 00 00 00 00 00 00 00 00 00 00 00 00 00
       0.0 0.0 0.0 0.0
000040 00 00 00 00 00 00 00 00 00 00 00 00 00 00 00 00
       0.0 0.0 0.0 0.0
000050 00 00 00 00 00 00 00 00 00 00 00 00 00 00 00 00
       0.0 0.0 0.0 0.0
000060 00 00 00 00 00 00 00 00 00 00 00 00 00 00 00 00
       0.0 0.0 0.0 0.0
000070 00 00 00 00 00 00 00 00 00 00 00 00 00 00 00 00
       0.0 0.0 0.0 0.0
000080 00 00 00 00 00 00 00 00 00 00 00 00 00 00 00 00
       0.0 0.0 0.0 0.0
000090 00 00 00 00 00 00 00 00 00 00 00 00 00 00 00 00
       0.0 0.0 0.0 0.0
0000a0 00 00 00 00 00 00 00 00 00 00 00 00 00 00 00 00
       0.0 0.0 0.0 0.0
0000b0 00 00 00 00 00 00 00 00 00 00 00 00 00 00 00 00
       0.0 0.0 0.0 0.0
0000c0 00 00 00 00 00 00 00 00 00 00 00 00 00 00 00 00
       0.0 0.0 0.0 0.0
0000d0 00 00 00 00 00 00 00 00 00 00 00 00 00 00 00 00
       0.0 0.0 0.0 0.0
0000e0 00 00 00 00 00 00 00 00 00 00 00 00 00 00 00 00
       0.0 0.0 0.0 0.0
0000f0 00 00 00 00 00 00 00 00 00 00 00 00 00 00 00 00
       0.0 0.0 0.0 0.0

fai_gcn_networks.1.residual.1.weight f4 [64]
000000 8e cc 7d 3f 85 8d 7c 3f 46 e9 7f 3f cb 72 79 3f
       0.9914025 0.9865344 0.9996532 0.97440785
000010 c3 9e 82 3f ef 62 7c 3f ee 84 80 3f 31 a4 7d 3f
       1.02047 0.9858846 1.0040567 0.9907866
000020 97 3c 7f 3f b3 12 7e 3f 1e e1 7e 3f 17 fc 7c 3f
       0.9970183 0.9924728 0.9956225 0.9882216
000030 d8 38 7c 3f 96 d8 7c 3f 1f bf 81 3f 49 07 80 3f
       0.98524237 0.98767984 1.013645 1.0002223
000040 7c 60 81 3f 43 20 82 3f 73 68 83 3f 29 2a 82 3f
       1.010757 1.0166095 1.026625 1.0169116
000050 01 27 81 3f ec c3 7f 3f 15 3e 7c 3f fc 74 80 3f
       1.0090028 0.9990833 0.9853223 1.0035701
000060 92 0e 84 3f ea bd 80 3f b8 89 7d 3f 0b 39 80 3f
       1.0316947 1.0057957 0.9903827 1.0017408
000070 ec 6f 80 3f 7c 34 7d 3f 6e a8 80 3f e8 2b 7f 3f
       1.0034156 0.9890821 1.0051401 0.9967637
000080 60 ab 80 3f 01 28 7e 3f 96 2f 79 3f f3 c4 81 3f
       1.00523 0.9927979 0.97338235 1.0138229
000090 5c 38 7a 3f f3 0a 84 3f 7c 63 7e 3f ad a0 7a 3f
       0.9774225 1.0315841 0.9937055 0.9790142
0000a0 76 4e 7a 3f 67 d2 7f 3f 69 e2 80 3f f3 f2 7f 3f
       0.9777597 0.99930423 1.0069095 0.99980086
0000b0 ed 32 7f 3f 35 29 82 3f 63 27 7a 3f 0d 20 80 3f
       0.9968708 1.0168825 0.9771635 1.0009781
0000c0 8d a9 7a 3f 24 ca 86 3f ef 0a 81 3f 9f 5a 81 3f
       0.97914964 1.0530438 1.0081462 1.010578
0000d0 a9 6f 7f 3f 09 48 83 3f 45 70 7d 3f dc 95 83 3f
       0.99779755 1.0256358 0.98999435 1.0280108
0000e0 a3 7c 81 3f 0c e7 83 3f 99 d8 74 3f ef 39 7a 3f
       1.0116161 1.0304885 0.95643 0.9774465
0000f0 96 98 7d 3f d4 92 7f 3f cf cb 7c 3f c3 e1 81 3f
       0.9906095 0.99833417 0.9874849 1.0147022

fai_gcn_networks.1.residual.1.bias f4 [64]
000000 00 00 00 00 00 00 00 00 00 00 00 00 00 00 00 00
       0.0 0.0 0.0 0.0
000010 00 00 00 00 00 00 00 00 00 00 00 00 00 00 00 00
       0.0 0.0 0.0 0.0
000020 00 00 00 00 00 00 00 00 00 00 00 00 00 00 00 00
       0.0 0.0 0.0 0.0
000030 00 00 00 00 00 00 00 00 00 00 00 00 00 00 00 00
       0.0 0.0 0.0 0.0
000040 00 00 00 00 00 00 00 00 00 00 00 00 00 00 00 00
       0.0 0.0 0.0 0.0
000050 00 00 00 00 00 00 00 00 00 00 00 00 00 00 00 00
       0.0 0.0 0.0 0.0
000060 00 00 00 00 00 00 00 00 00 00 00 00 00 00 00 00
       0.0 0.0 0.0 0.0
000070 00 00 00 00 00 00 00 00 00 00 00 00 00 00 00 00
       0.0 0.0 0.0 0.0
000080 00 00 00 00 00 00 00 00 00 00 00 00 00 00 00 00
       0.0 0.0 0.0 0.0
000090 00 00 00 00 00 00 00 00 00 00 00 00 00 00 00 00
       0.0 0.0 0.0 0.0
0000a0 00 00 00 00 00 00 00 00 00 00 00 00 00 00 00 00
       0.0 0.0 0.0 0.0
0000b0 00 00 00 00 00 00 00 00 00 00 00 00 00 00 00 00
       0.0 0.0 0.0 0.0
0000c0 00 00 00 00 00 00 00 00 00 00 00 00 00 00 00 00
       0.0 0.0 0.0 0.0
0000d0 00 00 00 00 00 00 00 00 00 00 00 00 00 00 00 00
       0.0 0.0 0.0 0.0
0000e0 00 00 00 00 00 00 00 00 00 00 00 00 00 00 00 00
       0.0 0.0 0.0 0.0
0000f0 00 00 00 00 00 00 00 00 00 00 00 00 00 00 00 00
       0.0 0.0 0.0 0.0

fai_gcn_networks.1.residual.1.running_mean f4 [64]
000000 8a 2f 3d 28 b6 73 23 29 40 d0 79 aa 77 e2 a9 aa
       1.0501916e-14 3.6293634e-14 -2.2187894e-13 -3.0177572e-13
000010 e4 9e 2d 2a 9c 49 83 28 9f 39 8e 29 23 88 8a a9
       1.5420613e-13 1.4575845e-14 6.3160624e-14 -6.152047e-14
000020 b5 70 29 a9 85 32 bd a9 d2 20 30 2a f8 04 b6 aa
       -3.7623296e-14 -8.40205e-14 1.5643327e-13 -3.2333142e-13
000030 2c 0d d3 29 8b 6e 2d 29 ec ed 88 aa 12 59 08 29
       9.372567e-14 3.8509597e-14 -2.4323544e-13 3.0275322e-14
000040 57 7b b4 a9 b2 cb b5 a9 96 51 51 a9 c7 9f 3e aa
       -8.015002e-14 -8.07335e-14 -4.6478087e-14 -1.6930824e-13
000050 d3 4d cd a9 9a d7 0f aa 55 9b ef 29 3a 8b be 27
       -9.117329e-14 -1.2775753e-13 1.0640678e-13 5.2886543e-15
000060 68 8a 6c 29 b5 03 1b a9 07 f3 aa 29 ce 7a 91 2a
       5.2522575e-14 -3.442013e-14 7.591675e-14 2.5842387e-13
000070 58 90 1f 29 3a d1 2a 2a 8a e0 3e a9 28 d8 50 aa
       3.543029e-14 1.5171623e-13 -4.238323e-14 -1.8549105e-13
000080 7c 4c 6f a8 c3 c3 98 29 09 bc 10 29 ec 30 74 a9
       -1.328375e-14 6.784115e-14 3.2137518e-14 -5.4221317e-14
000090 69 99 5a 2a 6f 08 92 27 00 b7 9b 29 d9 4a d4 29
       1.9415514e-13 4.0532284e-15 6.915128e-14 9.427675e-14
0000a0 45 88 93 28 76 e5 6e 2a cd 5a ef 29 f9 44 c8 29
       1.6379376e-14 2.1218257e-13 1.06294835e-13 8.893749e-14
0000b0 c3 b1 4f a9 76 98 16 2a 77 91 b5 a8 8a 04 9c a9
       -4.6117417e-14 1.3375572e-13 -2.0158122e-14 -6.928579e-14
0000c0 2d 21 3d 29 51 ae 59 2a b4 b9 ba a8 72 4a d8 29
       4.1995206e-14 1.933395e-13 -2.0730684e-14 9.605241e-14
0000d0 24 b2 94 29 44 af 8e 29 b8 07 18 2a 6b a5 83 2a
       6.603423e-14 6.3364705e-14 1.350299e-13 2.3385056e-13
0000e0 3a 32 04 2a 54 dd 2c 29 28 d1 33 aa 6a 05 58 29
       1.1741381e-13 3.8383644e-14 -1.597096e-13 4.796633e-14
0000f0 9b 4b c9 29 ce 26 93 2a 39 0e 92 2a 22 e9 8c aa
       8.9393086e-14 2.6139372e-13 2.594468e-13 -2.5030764e-13

fai_gcn_networks.1.residual.1.running_var f4 [64]
000000 3b ea 5c 0d 67 e6 21 0f 34 ad bd 11 de 85 2f 12
       6.807468e-31 7.982287e-30 2.9925687e-28 5.5385267e-28
000010 b9 50 37 11 c6 d9 cd 0d 19 ff f5 0f 4d 7d e9 0f
       1.4461029e-28 1.26865275e-30 2.4257125e-29 2.3023838e-29
000020 5e cb 2e 0f 3c 22 5a 10 ae e0 3c 11 de 72 49 12
       8.6180294e-30 4.3019293e-29 1.489982e-28 6.3566e-28
000030 76 6c 87 10 b1 b9 36 0f 0f 0f e4 11 7e a0 e3 0e
       5.341522e-29 9.009056e-30 3.5981338e-28 5.611437e-30
000040 cc 2d 47 10 ba db 48 10 1f 52 85 0f d1 0a 5d 11
       3.928111e-29 3.9612316e-29 1.3146444e-29 1.7437159e-28
000050 e5 b8 7e 10 31 45 fb 10 75 e1 ae 10 78 1b 6e 0c
       5.0235105e-29 9.910865e-29 6.897827e-29 1.8343119e-31
000060 d9 2a aa 0f fc 17 14 0f 9d a4 31 10 6e 97 00 12
       1.6779799e-29 7.3015826e-30 3.503391e-29 4.057633e-28
000070 ea 39 1a 0f 72 4c 31 11 e1 2f 5d 0f 73 ba 84 11
       7.60394e-30 1.3986395e-28 1.09053624e-29 2.0940836e-28
000080 dd 9c ad 0d 99 c6 0d 10 89 a4 fe 0e 73 e3 b4 0f
       1.0699712e-30 2.796034e-29 6.2774276e-30 1.783698e-29
000090 8a 5d 91 11 05 f6 fc 0b 4b ba 13 10 fd 87 88 10
       2.2934614e-28 9.743704e-32 2.9134153e-29 5.3852065e-29
0000a0 da fd 02 0e 6e 7d ad 11 66 58 ae 10 e6 34 74 10
       1.6145962e-30 2.737189e-28 6.87671e-29 4.8161267e-29
0000b0 76 f1 83 0f 07 e0 09 11 40 46 4d 0e b6 c2 14 10
       1.3010605e-29 1.0876428e-28 2.5302025e-30 2.9337853e-29
0000c0 1f 7a 5a 0f 95 f3 8f 11 db ec 4f 0e ca 03 8e 10
       1.07717495e-29 2.271154e-28 2.5628762e-30 5.601496e-29
0000d0 fe 22 06 10 d5 3b f8 0f fd 69 0c 11 e8 60 d2 11
       2.6453797e-29 2.4477735e-29 1.1076713e-28 3.319188e-28
0000e0 96 f4 d4 10 ff 71 39 0f 5b 17 45 11 65 14 8e 0f
       8.39961e-29 9.143159e-30 1.5547757e-28 1.4010137e-29
0000f0 43 30 76 10 48 ff 03 12 18 98 01 12 c3 48 f1 11
       4.8552125e-29 4.165097e-28 4.0892693e-28 3.8067939e-28
