capsule-6073072/code/work_dir/recognition/kinetics_skeleton/FAI_GCN/epoch150_model.pt (torch, 74070 bytes, 22 tensors)

A f4 [3, 18, 18]
0	0x3e800000	0.25
1	0x00000000	0.0
2	0x00000000	0.0
3	0x00000000	0.0
4	0x00000000	0.0
5	0x00000000	0.0
6	0x00000000	0.0
7	0x00000000	0.0
8	0x00000000	0.0
9	0x00000000	0.0
10	0x00000000	0.0
11	0x00000000	0.0
12	0x00000000	0.0
13	0x00000000	0.0
14	0x00000000	0.0
15	0x00000000	0.0
16	0x00000000	0.0
17	0x00000000	0.0
18	0x00000000	0.0
19	0x3e800000	0.25
20	0x00000000	0.0
21	0x00000000	0.0
22	0x00000000	0.0
23	0x00000000	0.0
24	0x00000000	0.0
25	0x00000000	0.0
26	0x00000000	0.0
27	0x00000000	0.0
28	0x00000000	0.0
29	0x00000000	0.0
30	0x00000000	0.0
31	0x00000000	0.0
32	0x00000000	0.0
33	0x00000000	0.0
34	0x00000000	0.0
35	0x00000000	0.0
36	0x00000000	0.0
37	0x00000000	0.0
38	0x3e800000	0.25
39	0x00000000	0.0
40	0x00000000	0.0
41	0x00000000	0.0
42	0x00000000	0.0
43	0x00000000	0.0
44	0x00000000	0.0
45	0x00000000	0.0
46	0x00000000	0.0
47	0x00000000	0.0
48	0x00000000	0.0
49	0x00000000	0.0
50	0x00000000	0.0
51	0x00000000	0.0
52	0x00000000	0.0
53	0x00000000	0.0
54	0x00000000	0.0
55	0x00000000	0.0
56	0x00000000	0.0
57	0x3eaaaaab	0.33333334
58	0x00000000	0.0
59	0x00000000	0.0
60	0x00000000	0.0
61	0x00000000	0.0
62	0x00000000	0.0
63	0x00000000	0.0
64	0x00000000	0.0
65	0x00000000	0.0
66	0x00000000	0.0
67	0x00000000	0.0
68	0x00000000	0.0
69	0x00000000	0.0
70	0x00000000	0.0
71	0x00000000	0.0
72	0x00000000	0.0
73	0x00000000	0.0
74	0x00000000	0.0
75	0x00000000	0.0
76	0x3f000000	0.5
77	0x00000000	0.0
78	0x00000000	0.0
79	0x00000000	0.0
80	0x00000000	0.0
81	0x00000000	0.0
82	0x00000000	0.0
83	0x00000000	0.0
84	0x00000000	0.0
85	0x00000000	0.0
86	0x00000000	0.0
87	0x00000000	0.0
88	0x00000000	0.0
89	0x00000000	0.0
90	0x00000000	0.0
91	0x00000000	0.0
92	0x00000000	0.0
93	0x00000000	0.0
94	0x00000000	0.0
95	0x3e800000	0.25
96	0x00000000	0.0
97	0x00000000	0.0
98	0x00000000	0.0
99	0x00000000	0.0
100	0x00000000	0.0
101	0x00000000	0.0
102	0x00000000	0.0
103	0x00000000	0.0
104	0x00000000	0.0
105	0x00000000	0.0
106	0x00000000	0.0
107	0x00000000	0.0
108	0x00000000	0.0
109	0x00000000	0.0
110	0x00000000	0.0
111	0x00000000	0.0
112	0x00000000	0.0
113	0x00000000	0.0
114	0x3eaaaaab	0.33333334
115	0x00000000	0.0
116	0x00000000	0.0
117	0x00000000	0.0
118	0x00000000	0.0
119	0x00000000	0.0
120	0x00000000	0.0
121	0x00000000	0.0
122	0x00000000	0.0
123	0x00000000	0.0
124	0x00000000	0.0
125	0x00000000	0.0
126	0x00000000	0.0
127	0x00000000	0.0
128	0x00000000	0.0
129	0x00000000	0.0
130	0x00000000	0.0
131	0x00000000	0.0
132	0x00000000	0.0
133	0x3f000000	0.5
134	0x00000000	0.0
135	0x00000000	0.0
136	0x00000000	0.0
137	0x00000000	0.0
138	0x00000000	0.0
139	0x00000000	0.0
140	0x00000000	0.0
141	0x00000000	0.0
142	0x00000000	0.0
143	0x00000000	0.0
144	0x00000000	0.0
145	0x00000000	0.0
146	0x00000000	0.0
147	0x00000000	0.0
148	0x00000000	0.0
149	0x00000000	0.0
150	0x00000000	0.0
151	0x00000000	0.0
152	0x3eaaaaab	0.33333334
153	0x00000000	0.0
154	0x00000000	0.0
155	0x00000000	0.0
156	0x00000000	0.0
157	0x00000000	0.0
158	0x00000000	0.0
159	0x00000000	0.0
160	0x00000000	0.0
161	0x00000000	0.0
162	0x00000000	0.0
163	0x00000000	0.0
164	0x00000000	0.0
165	0x00000000	0.0
166	0x00000000	0.0
167	0x00000000	0.0
168	0x00000000	0.0
169	0x00000000	0.0
170	0x00000000	0.0
171	0x3eaaaaab	0.33333334
172	0x00000000	0.0
173	0x00000000	0.0
174	0x00000000	0.0
175	0x00000000	0.0
176	0x00000000	0.0
177	0x00000000	0.0
178	0x00000000	0.0
179	0x00000000	0.0
180	0x00000000	0.0
181	0x00000000	0.0
182	0x00000000	0.0
183	0x00000000	0.0
184	0x00000000	0.0
185	0x00000000	0.0
186	0x00000000	0.0
187	0x00000000	0.0
188	0x00000000	0.0
189	0x00000000	0.0
190	0x3f000000	0.5
191	0x00000000	0.0
192	0x00000000	0.0
193	0x00000000	0.0
194	0x00000000	0.0
195	0x00000000	0.0
196	0x00000000	0.0
197	0x00000000	0.0
198	0x00000000	0.0
199	0x00000000	0.0
200	0x00000000	0.0
201	0x00000000	0.0
202	0x00000000	0.0
203	0x00000000	0.0
204	0x00000000	0.0
205	0x00000000	0.0
206	0x00000000	0.0
207	0x00000000	0.0
208	0x00000000	0.0
209	0x3eaaaaab	0.33333334
210	0x00000000	0.0
211	0x00000000	0.0
212	0x00000000	0.0
213	0x00000000	0.0
214	0x00000000	0.0
215	0x00000000	0.0
216	0x00000000	0.0
217	0x00000000	0.0
218	0x00000000	0.0
219	0x00000000	0.0
220	0x00000000	0.0
221	0x00000000	0.0
222	0x00000000	0.0
223	0x00000000	0.0
224	0x00000000	0.0
225	0x00000000	0.0
226	0x00000000	0.0
227	0x00000000	0.0
228	0x3eaaaaab	0.33333334
229	0x00000000	0.0
230	0x00000000	0.0
231	0x00000000	0.0
232	0x00000000	0.0
233	0x00000000	0.0
234	0x00000000	0.0
235	0x00000000	0.0
236	0x00000000	0.0
237	0x00000000	0.0
238	0x00000000	0.0
239	0x00000000	0.0
240	0x00000000	0.0
241	0x00000000	0.0
242	0x00000000	0.0
243	0x00000000	0.0
244	0x00000000	0.0
245	0x00000000	0.0
246	0x00000000	0.0
247	0x3f000000	0.5
248	0x00000000	0.0
249	0x00000000	0.0
250	0x00000000	0.0
251	0x00000000	0.0
252	0x00000000	0.0
253	0x00000000	0.0
254	0x00000000	0.0
255	0x00000000	0.0

data_bn.weight f4 [54]
0	0x3f56ae1b	0.83859414
1	0x3f614368	0.8799348
2	0x3f4fb1d0	0.81130695
3	0x3f55c9a6	0.83510816
4	0x3f5a1a0d	0.85196
5	0x3f614776	0.87999666
6	0x3f5cea32	0.86294854
7	0x3f539674	0.8265145
8	0x3f534c1d	0.82538015
9	0x3f5c85ca	0.86141646
10	0x3f58e29b	0.8472077
11	0x3f5903f2	0.84771645
12	0x3f592131	0.8481627
13	0x3f51b9dc	0.81924224
14	0x3f58665a	0.84531176
15	0x3f49ecc3	0.78876895
16	0x3f600163	0.87502116
17	0x3f4c63f8	0.7984004
18	0x3f53b2a7	0.82694477
19	0x3f59f7fd	0.85144025
20	0x3f5c7714	0.861192
21	0x3f58adfd	0.84640485
22	0x3f5f470f	0.872178
23	0x3f574c81	0.8410111
24	0x3f52b1dd	0.8230265
25	0x3f598174	0.84963155
26	0x3f59b1d2	0.8503696
27	0x3f578ca7	0.84198993
28	0x3f53f9b2	0.8280288
29	0x3f543192	0.8288814
30	0x3f578e90	0.8420191
31	0x3f51956f	0.8186864
32	0x3f5411c3	0.828396
33	0x3f608c78	0.8771434
34	0x3f58f460	0.84747887
35	0x3f5c4f49	0.8605848
36	0x3f53d596	0.8274778
37	0x3f540add	0.82829076
38	0x3f58a817	0.84631485
39	0x3f532339	0.8247562
40	0x3f510d33	0.81660765
41	0x3f4cdab8	0.8002124
42	0x3f4658b4	0.774791
43	0x3f5e980c	0.86950755
44	0x3f5d6502	0.8648225
45	0x3f5c23d0	0.85992146
46	0x3f566a61	0.8375607
47	0x3f5dd771	0.8665686
48	0x3f617c94	0.88080716
49	0x3f539ce7	0.8266129
50	0x3f5b8d2c	0.85762286
51	0x3f564f97	0.83715194
52	0x3f5d814e	0.8652543
53	0x3f58d15c	0.8469446

data_bn.bias f4 [54]
0	0xad06e7fc	-7.668529e-12
1	0x2fe56804	4.1728765e-10
2	0xab3627c0	-6.4714553e-13
3	0xadc462d6	-2.2326512e-11
4	0x2ec75ba9	9.0657544e-11
5	0x2bc5cdc2	1.4054801e-12
6	0x2d89c724	1.5663533e-11
7	0x3070dc8e	8.762492e-10
8	0x2ca42e24	4.666283e-12
9	0x2d833c15	1.4919658e-11
10	0xae77eea3	-5.637325e-11
11	0x2cf5bc49	6.9842227e-12
12	0xae7daedf	-5.7680857e-11
13	0x2f2d4783	1.5759664e-10
14	0x2d1669ba	8.549989e-12
15	0xac804dd9	-3.6466216e-12
16	0x2f94f918	2.7098035e-10
17	0x2cfa1cb6	7.108615e-12
18	0x2efcf4f4	1.1503146e-10
19	0xae9929ab	-6.965036e-11
20	0x2c1df5b6	2.2447439e-12
21	0x2e14a24f	3.3795463e-11
22	0x2f178c4c	1.3783213e-10
23	0x2d2ad4e2	9.710651e-12
24	0x2e6c94a2	5.37922e-11
25	0x2e81dbb3	5.905267e-11
26	0x2d115121	8.26031e-12
27	0x2fa2e4ec	2.9630287e-10
28	0x2f7a175e	2.2745669e-10
29	0x2d2ff720	1.0002471e-11
30	0x2f1cf694	1.427572e-10
31	0x2f5127da	1.9022597e-10
32	0xac68e6f6	-3.3097392e-12
33	0x2f368af4	1.660217e-10
34	0x2eca552e	9.2010274e-11
35	0x2cee2ad5	6.769122e-12
36	0x2fe1f08f	4.109819e-10
37	0x2f720d2e	2.2014454e-10
38	0x2d4c2b6f	1.1605702e-11
39	0x2f2602fc	1.5098672e-10
40	0x2f13a6f4	1.3428886e-10
41	0xacc27958	-5.5272835e-12
42	0x2ec770d7	9.069517e-11
43	0xaef5bcd9	-1.1174856e-10
44	0x2b926110	1.0400864e-12
45	0x2f351cd4	1.6472096e-10
46	0xaea16a31	-7.340296e-11
47	0x2c3be702	2.6702533e-12
48	0x2e82f26a	5.954777e-11
49	0x2eb88536	8.391014e-11
50	0x2ce6697f	6.5487056e-12
51	0x2c5217e4	2.9856057e-12
52	0x2f40821f	1.7508527e-10
53	0x2d17d32f	8.630248e-12

data_bn.running_mean f4 [54]
0	0x3c463b4a	0.012099097
1	0xbcc31ae7	-0.023816539
2	0x3e1b8dfd	0.15190883
3	0x3c56f2e1	0.01311943
4	0xbc0031ce	-0.007824374
5	0x3e19cd1a	0.15019646
6	0x3b734d84	0.003712506
7	0xbc20db74	-0.009817947
8	0x3e090d69	0.13384022
9	0xbba243c2	-0.004951925
10	0xbae022ba	-0.0017100193
11	0x3e03537a	0.12824813
12	0xbc22d677	-0.009938828
13	0x3a9c6c3e	0.0011934114
14	0x3e0d5803	0.13803105
15	0x3cb7c94c	0.022434853
16	0xbbb5a6aa	-0.0055435495
17	0x3e099170	0.13434386
18	0x3cd8ed95	0.026480475
19	0x3be21230	0.006899141
20	0x3e02ae3e	0.1276178
21	0x3ce096a5	0.027415583
22	0x3c876e67	0.016532136
23	0x3e0881d2	0.13330773
24	0x3b6d2755	0.0036186774
25	0x3cd6ace9	0.026205497
26	0x3deebc78	0.11657041
27	0xbbadd224	-0.0053045917
28	0x3d11b5a5	0.03557362
29	0x3e070fd2	0.13189629
30	0xbab76f1b	-0.0013994904
31	0x3d651589	0.05592874
32	0x3e019c0d	0.12657185
33	0x3c73fd18	0.014891885
34	0x3ce28607	0.0276518
35	0x3dea7cee	0.1144961
36	0x3ca64ffe	0.020301815
37	0x3d165a83	0.036707412
38	0x3e0419b2	0.12900427
39	0x3c399651	0.011327342
40	0x3d5c6233	0.053804588
41	0x3deac298	0.11462897
42	0x3c2f0c41	0.010684074
43	0xbce5ef4d	-0.028068209
44	0x3e1a9bcb	0.15098493
45	0x3c862b70	0.016378134
46	0xbcd4f7e2	-0.025997106
47	0x3e1e05c6	0.1543189
48	0x3c3a06d1	0.011354164
49	0xbc3f3f07	-0.011672742
50	0x3d2d546f	0.04231685
51	0x3cb8b4b4	0.022547103
52	0xbca28ecc	-0.019843481
53	0x3e0ed770	0.1394937

data_bn.running_var f4 [54]
0	0x3b85c288	0.004082028
1	0x3bb1d4b5	0.005426968
2	0x3d41e9df	0.047342177
3	0x3b8186fc	0.003952859
4	0x3b5da990	0.003382299
5	0x3d418f4c	0.0472558
6	0x3b7cc324	0.0038568461
7	0x3b63545f	0.003468774
8	0x3d185a75	0.03719564
9	0x3b87f20a	0.0041487264
10	0x3b285fc0	0.0025691837
11	0x3d1636e5	0.036673445
12	0x3b930217	0.004486333
13	0x3b2318f8	0.0024886709
14	0x3d29a66f	0.04141849
15	0x3b91d9ef	0.0044510285
16	0x3b584f94	0.0033006417
17	0x3d181ff5	0.03713985
18	0x3ba217c5	0.004946681
19	0x3b2a771c	0.0026010936
20	0x3d1e7b33	0.03869171
21	0x3bb15c63	0.0054126247
22	0x3b2adb5b	0.0026070687
23	0x3d2fe7ed	0.04294579
24	0x3b7d29aa	0.003862957
25	0x3b1d1c8c	0.0023973314
26	0x3cf03195	0.029320518
27	0x3b8b75d1	0.004255988
28	0x3b5463b0	0.0032408051
29	0x3d1fddc9	0.03902987
30	0x3b84b08b	0.004049366
31	0x3bc580e8	0.0060273297
32	0x3d1ba930	0.038003147
33	0x3b846718	0.00404061
34	0x3b2474e2	0.0025094082
35	0x3cecefad	0.02892288
36	0x3b90c428	0.004417915
37	0x3b51df1b	0.003202385
38	0x3d1b2e15	0.037885744
39	0x3b868441	0.0041051214
40	0x3bb7ca5a	0.005608839
41	0x3d0048fd	0.031319607
42	0x3b8510d1	0.0040608426
43	0x3bcae31e	0.0061916253
44	0x3d465392	0.048419543
45	0x3b8aad70	0.004232101
46	0x3bbf45db	0.005837185
47	0x3d46daa3	0.048548352
48	0x3b87d908	0.004145745
49	0x3bb8ed4d	0.005643523
50	0x3c171bbc	0.009222921
51	0x3b93cb86	0.004510346
52	0x3bad75e0	0.005293593
53	0x3d3b339d	0.04570352

fai_gcn_networks.0.gcn.conv.weight f4 [96, 3, 1, 1]
0	0xb358d35c	-5.048365e-08
1	0xb4575286	-2.0053457e-07
2	0xb52de29f	-6.47773e-07
3	0x31187673	2.2186242e-09
4	0xb0f5d169	-1.7885614e-09
5	0xb2170fdc	-8.792963e-09
6	0xa9099d95	-3.055679e-14
7	0x2935791f	4.029513e-14
8	0xa8935faf	-1.6361775e-14
9	0x2f382812	1.6748938e-10
10	0xaf1ccc62	-1.4260729e-10
11	0xb1e7dc38	-6.748021e-09
12	0x32e3b596	2.6508854e-08
13	0x31b55b55	5.2781766e-09
14	0x32883ab0	1.5859172e-08
15	0xb43b72a7	-1.7457442e-07
16	0xb3d287f9	-9.80362e-08
17	0x3201d33b	7.5568165e-09
18	0xb4758159	-2.286446e-07
19	0x2ea9cfac	7.72212e-11
20	0x2f2ff74b	1.6004013e-10
21	0xb0015921	-4.7056586e-10
22	0xb2a3d566	-1.907274e-08
23	0xb29ab0c3	-1.8008341e-08
24	0x32d11ead	2.4344752e-08
25	0xb67a94eb	-3.7339585e-06
26	0x33abd1d7	8.000978e-08
27	0xb6811341	-3.846741e-06
28	0x31d90bb4	6.3168617e-09
29	0x341e1b1b	1.4724758e-07
30	0x390afae1	0.00013254165
31	0xb28ece8b	-1.66249e-08
32	0x3106ad86	1.9598203e-09
33	0xaa7ae1b0	-2.2282762e-13
34	0x2bb51887	1.2867631e-12
35	0xa8cb7b4a	-2.2590996e-14
36	0x30816159	9.413653e-10
37	0xb1b21415	-5.182765e-09
38	0x32269b69	9.697808e-09
39	0xb5cb76e4	-1.515928e-06
40	0xb3249928	-3.832352e-08
41	0x335130c7	4.8705967e-08
42	0xa9718996	-5.3632087e-14
43	0x29a9b3dd	7.536309e-14
44	0xa90b9b00	-3.099864e-14
45	0xb28ab5c5	-1.6147974e-08
46	0x33dab7ff	1.0184885e-07
47	0x32c25111	2.2621437e-08
48	0xb3df1ac0	-1.03891125e-07
49	0xb4138eac	-1.3742346e-07
50	0x337eb635	5.93047e-08
51	0x32d6423a	2.4942995e-08
52	0xb3434e47	-4.547317e-08
53	0xb3132a25	-3.4264435e-08
54	0x34a06aa5	2.9879916e-07
55	0x30d32f20	1.5365664e-09
56	0x314f91d5	3.020536e-09
57	0x31e76e02	6.7354913e-09
58	0x334fb0fb	4.8356906e-08
59	0x32a2ffcc	1.8975605e-08
60	0x30b8d6cd	1.3448812e-09
61	0xaf967b0e	-2.7372277e-10
62	0xb135423b	-2.6376614e-09
63	0xafa2abb4	-2.958963e-10
64	0xad5392a4	-1.2026522e-11
65	0xaf99666b	-2.790331e-10
66	0x337716ac	5.752979e-08
67	0x33186718	3.548402e-08
68	0xb220bbc8	-9.355922e-09
69	0x31a93236	4.9242557e-09
70	0x328d9248	1.6481081e-08
71	0x2ed358e8	9.610962e-11
72	0xb32c1c43	-4.0072575e-08
73	0xb3c6af52	-9.251984e-08
74	0x3362abba	5.277591e-08
75	0xb47b60a4	-2.3411354e-07
76	0xb4ffe1e6	-4.7661814e-07
77	0x350ee5a5	5.32333e-07
78	0x34c80f40	3.7264e-07
79	0x35b9bdf0	1.3838853e-06
80	0xb40b3590	-1.296487e-07
81	0xb1cf5457	-6.0340812e-09
82	0xb7b828b4	-2.1953463e-05
83	0x31ec87d0	6.883944e-09
84	0xa8a649ac	-1.8461652e-14
85	0x274885cf	2.7828113e-15
86	0x27654d44	3.182202e-15
87	0x341b703f	1.4476335e-07
88	0x3338ad29	4.2998327e-08
89	0x32d5c5a5	2.4886342e-08
90	0xb2c92fb4	-2.3421173e-08
91	0x32b9cb93	2.162941e-08
92	0xb609fd55	-2.056205e-06
93	0xb6c8b949	-5.9820345e-06
94	0x32719e15	1.406399e-08
95	0xb16556f3	-3.337331e-09
96	0xb35d322a	-5.1501196e-08
97	0x3338e3af	4.3047915e-08
98	0xb3988d98	-7.103807e-08
99	0x3209ea5e	8.0277385e-09
100	0xb1cd4fef	-5.9753726e-09
101	0xb1e1fbd6	-6.5769923e-09
102	0xa942923a	-4.3203485e-14
103	0x295b014d	4.8628897e-14
104	0xa92a7e3c	-3.7857074e-14
105	0xaff65aa6	-4.481155e-10
106	0x2fb441c7	3.2788547e-10
107	0x30563ba5	7.7937506e-10
108	0x32f6c85d	2.8729284e-08
109	0x32cf57d3	2.413791e-08
110	0x326b5c1a	1.3699742e-08
111	0x34b862c1	3.4344524e-07
112	0x32be6de3	2.2168882e-08
113	0x323a923f	1.0859877e-08
114	0x2deecd7a	2.7148717e-11
115	0xaed9f261	-9.911073e-11
116	0x2e952981	6.783108e-11
117	0xb234433d	-1.0492667e-08
118	0xb2d00efe	-2.4221205e-08
119	0xb21a1003	-8.96762e-09
120	0xb4bcb57e	-3.5149782e-07
121	0xb502a43e	-4.866778e-07
122	0xb1ae095b	-5.06513e-09
123	0x34b2e974	3.3324943e-07
124	0x33f1890b	1.1247365e-07
125	0xb24c744f	-1.1900808e-08
126	0x35734fc0	9.0640606e-07
127	0x3514b295	5.539417e-07
128	0x32f7920d	2.8821e-08
129	0xa9662605	-5.1103236e-14
130	0xa9e13caf	-1.0002534e-13
131	0xa763cd33	-3.1613817e-15
132	0x31e8c35b	6.774298e-09
133	0x32a634b4	1.934891e-08
134	0x31dc61f9	6.413981e-09
135	0xb94a1431	-0.00019271743
136	0xb4755797	-2.2849268e-07
137	0xb6bba35f	-5.592053e-06
138	0xaa6ec9ef	-2.1208706e-13
139	0xa9eed93f	-1.06070094e-13
140	0xaa24faf9	-1.46532e-13
141	0x33f29b47	1.1297248e-07
142	0xb388936f	-6.3598115e-08
143	0xb21c5c7c	-9.101424e-09
144	0xb448151b	-1.863413e-07
145	0xb4276104	-1.5588381e-07
146	0xb62778a1	-2.4955154e-06
147	0x34a139f6	3.003076e-07
148	0x33e01935	1.0435398e-07
149	0x3361929f	5.2520246e-08
150	0xb3e06368	-1.0448895e-07
151	0x319b3376	4.516944e-09
152	0x3073aa80	8.864518e-10
153	0xb1a14ede	-4.694683e-09
154	0x3599f708	1.1471284e-06
155	0x32be1530	2.2128546e-08
156	0xae6ede2e	-5.431227e-11
157	0x30633e6e	8.2670837e-10
158	0xb124ba5d	-2.3971076e-09
159	0xaf196e65	-1.3954489e-10
160	0xaebc5950	-8.565115e-11
161	0xb27f8bb2	-1.4874717e-08
162	0xb7b71d87	-2.182905e-05
163	0x326ebaca	1.3895894e-08
164	0xb1cc5904	-5.9473013e-09
165	0xb2449d90	-1.1444527e-08
166	0x327f7af1	1.4870907e-08
167	0x2fa11911	2.930354e-10
168	0x3387772a	6.308103e-08
169	0xb45b1e8e	-2.040708e-07
170	0xb0fd596e	-1.843359e-09
171	0xb428f2de	-1.5734574e-07
172	0xb8ef2909	-0.000114040515
173	0xb19b39d0	-4.5176662e-09
174	0x34b6141f	3.3914782e-07
175	0x379cc5a3	1.8688681e-05
176	0xb500f0d2	-4.8034155e-07
177	0xb41d0f23	-1.4627271e-07
178	0xb4eedf6a	-4.449351e-07
179	0xb2462563	-1.1533618e-08
180	0xa8d56fdf	-2.3696267e-14
181	0xa804c023	-7.369135e-15
182	0x285dbf9c	1.2309513e-14
183	0x32dbd43f	2.5591474e-08
184	0xb400bce5	-1.1989648e-07
185	0x3310a6ea	3.367942e-08
186	0xb271fba5	-1.4085264e-08
187	0x3252c46f	1.2268273e-08
188	0x32b1f827	2.0718359e-08
189	0x34262553	1.5473533e-07
190	0x33a75d09	7.7934665e-08
191	0xb0e19338	-1.6412747e-09
192	0xb0a60d34	-1.2081842e-09
193	0xb38506b7	-6.1945165e-08
194	0xb3836d39	-6.12003e-08
195	0x31f14d03	7.0227784e-09
196	0xaf9d2534	-2.8584568e-10
197	0xb0736d61	-8.855832e-10
198	0xa99ddea3	-7.010822e-14
199	0x29a2fd1b	7.238152e-14
200	0x28af86a8	1.94873e-14
201	0x2e3a6cc4	4.2388107e-11
202	0x2fbae1e9	3.3993722e-10
203	0x2eeac884	1.0676707e-10
204	0xb3555bf6	-4.9676565e-08
205	0x3298faa8	1.7809114e-08
206	0xb3291e1e	-3.937577e-08
207	0x334f4c67	4.826543e-08
208	0x3209574b	7.994298e-09
209	0x2e85feb8	6.093387e-11
210	0x2e672cdc	5.2563162e-11
211	0x2e442543	4.4598335e-11
212	0xaea9fb2e	-7.729849e-11
213	0x30b82c2b	1.3400315e-09
214	0x313a300c	2.7093874e-09
215	0xb0167928	-5.4741855e-10
216	0x32aeb6ed	2.0339451e-08
217	0xb4251f1c	-1.537814e-07
218	0xb41f3a4a	-1.4829234e-07
219	0x33f1857f	1.124672e-07
220	0xb0dffff4	-1.6298132e-09
221	0xb11665ad	-2.1885669e-09
222	0x348e5127	2.6508607e-07
223	0x32a13895	1.8768597e-08
224	0xb59713a0	-1.1256088e-06
225	0xa8c59367	-2.193532e-14
226	0x2da3c212	1.8617139e-11
227	0xb43046e3	-1.6417066e-07
228	0x33253c96	3.847216e-08
229	0xb22fa2f0	-1.0223388e-08
230	0x33234f00	3.8023245e-08
231	0xb4aa9a0e	-3.1777057e-07
232	0xb321fd44	-3.7716077e-08
233	0xb1fc61bd	-7.345277e-09
234	0x2962ff0b	5.0403295e-14
235	0x27d410b6	5.885994e-15
236	0x27d1bc89	5.8213563e-15
237	0xb3c45931	-9.143185e-08
238	0x33aee8c3	8.1448455e-08
239	0x321470b8	8.640363e-09
240	0xb40bc3c3	-1.3016601e-07
241	0xb3bd4452	-8.813426e-08
242	0x330a3385	3.2177486e-08
243	0x329c01a5	1.8161538e-08
244	0xb1cac61c	-5.901496e-09
245	0x31e8b5ef	6.772772e-09
246	0xb29b8e0c	-1.810897e-08
247	0xb21c8e89	-9.112804e-09
248	0xb1b87b0d	-5.369094e-09
249	0xb2562234	-1.2464216e-08
250	0x33080525	3.1669646e-08
251	0x33113615	3.380963e-08
252	0xad137d15	-8.383756e-12
253	0x308b8cfe	1.0153653e-09
254	0xb12421f4	-2.388444e-09
255	0x2fdf35f5	4.0601802e-10

fai_gcn_networks.0.gcn.conv.bias f4 [96]
0	0xb4a195f3	-3.009769e-07
1	0x352c8e86	6.428239e-07
2	0x353a9a2c	6.951475e-07
3	0x3613a917	2.200313e-06
4	0x35935dfb	1.0979705e-06
5	0x3586f175	1.0054051e-06
6	0x35cb1b22	1.5132575e-06
7	0xb329b64d	-3.951418e-08
8	0x3506e312	5.024932e-07
9	0x3291b4e8	1.6962488e-08
10	0x3512a9fa	5.4636587e-07
11	0x35b40a7a	1.3414094e-06
12	0xb4a214f7	-3.0190105e-07
13	0x353bcfd8	6.996538e-07
14	0xb457b75e	-2.0090144e-07
15	0xb550d403	-7.7794556e-07
16	0xb5407429	-7.169461e-07
17	0x376d2b84	1.4136433e-05
18	0xb387bfa1	-6.3212845e-08
19	0x339ccc0e	7.3014334e-08
20	0xb3036ef4	-3.0601726e-08
21	0xb3d42bb8	-9.879972e-08
22	0xb3a87cde	-7.845823e-08
23	0x33895ec4	6.3967974e-08
24	0x353d9cfd	7.0636435e-07
25	0x35b4692b	1.3441653e-06
26	0x362ce36e	2.5762379e-06
27	0x34f7fffa	4.6193583e-07
28	0x349e760d	2.9515687e-07
29	0xb39396bb	-6.8726386e-08
30	0xb59c0ae2	-1.1626073e-06
31	0xb4361bc7	-1.6960176e-07
32	0xb4a2bc95	-3.0312063e-07
33	0x35ec2b92	1.7596051e-06
34	0x35620986	8.420542e-07
35	0x36501cc9	3.101117e-06
36	0x35d56984	1.5900446e-06
37	0x35a99c2b	1.2636932e-06
38	0x35e93537	1.737534e-06
39	0xb35cafa0	-5.138247e-08
40	0x359a4b5d	1.1495828e-06
41	0xb4fc0f85	-4.694995e-07
42	0x34d3e627	3.946927e-07
43	0x35eb50bf	1.7532365e-06
44	0xb4e9eee8	-4.357346e-07
45	0x358a16ee	1.0288475e-06
46	0x32cce9cd	2.3855046e-08
47	0xb58a07f2	-1.0284114e-06
48	0xb5a62076	-1.2377411e-06
49	0x3702700e	7.774694e-06
50	0xb360df22	-5.2357002e-08
51	0xb3d08162	-9.7092894e-08
52	0xb3200abf	-3.7262676e-08
53	0xb448cfed	-1.8702094e-07
54	0xb3ae1602	-8.1065096e-08
55	0xb37ef10c	-5.9358214e-08
56	0x3576f9be	9.2005564e-07
57	0x3636ddb8	2.724917e-06
58	0x368d65f8	4.213998e-06
59	0x3544069f	7.3025325e-07
60	0x34e21226	4.2108985e-07
61	0xb3fc418e	-1.1746589e-07
62	0xb5805158	-9.560417e-07
63	0xb4054d0c	-1.241462e-07
64	0x34631c56	2.1151331e-07
65	0x34a0c8a6	2.9948313e-07
66	0x354fdca6	7.7434595e-07
67	0x35ba46c0	1.3878671e-06
68	0x351c2692	5.8170656e-07
69	0x34d0bfee	3.8882666e-07
70	0x356da6d5	8.853215e-07
71	0x32b9c77e	2.1627553e-08
72	0x35462761	7.381805e-07
73	0xb438e7ff	-1.7220735e-07
74	0x346bebde	2.1971888e-07
75	0x3518a21d	5.686032e-07
76	0xb414df99	-1.3864918e-07
77	0x35b89e51	1.3755144e-06
78	0xb584ea26	-9.902913e-07
79	0xb6119438	-2.1692958e-06
80	0x35802abc	9.54918e-07
81	0x36e13a8f	6.7123397e-06
82	0xb278d52e	-1.4483971e-08
83	0x33673d46	5.3839607e-08
84	0xb283aadd	-1.5328107e-08
85	0xb30c99a7	-3.2736036e-08
86	0xb31ad87e	-3.6052818e-08
87	0x318eaa85	4.1521298e-09
88	0x34a137a3	3.0029068e-07
89	0x3553d4df	7.8913394e-07
90	0x3588280e	1.0144447e-06
91	0x34a79b74	3.121928e-07
92	0x347a8b93	2.3333841e-07
93	0x32657477	1.3356035e-08
94	0xb4ef1827	-4.4534792e-07
95	0xb250da0c	-1.2156772e-08

fai_gcn_networks.1.gcn.conv.weight f4 [192, 32, 1, 1]
0	0x30c8a309	1.4598253e-09
1	0x32353913	1.0548564e-08
2	0x32bf201a	2.2249925e-08
3	0x32954504	1.7377268e-08
4	0x326427b2	1.3280372e-08
5	0x32796f66	1.4519037e-08
6	0x33703301	5.5925742e-08
7	0x2e6f4a43	5.4408266e-11
8	0x333550f7	4.2215984e-08
9	0x32a7d496	1.9538032e-08
10	0x3583f993	9.832896e-07
11	0x33492dac	4.6840498e-08
12	0x3096378e	1.0929726e-09
13	0x35e65677	1.71615e-06
14	0xb170fb12	-3.5067313e-09
15	0x3059e967	7.9275825e-10
16	0xb351039e	-4.8664894e-08
17	0x341c48fc	1.4555184e-07
18	0x3013289a	5.3535987e-10
19	0x320b0e8d	8.094173e-09
20	0x2fa2e499	2.9630057e-10
21	0x317fbd08	3.7214836e-09
22	0x3486a6f0	2.5080908e-07
23	0x3078d3a7	9.052265e-10
24	0x35339ec4	6.691373e-07
25	0x3536bf47	6.807863e-07
26	0x348cb9f2	2.6212325e-07
27	0x349dc69b	2.9388033e-07
28	0x3306452a	3.126221e-08
29	0x2f28d41a	1.5354865e-10
30	0xb05c9bf1	-8.025714e-10
31	0x331ab17b	3.6017337e-08
32	0x3071c78a	8.795885e-10
33	0x3260ca29	1.3084482e-08
34	0x32e26e5c	2.6360048e-08
35	0x32619d26	1.3132455e-08
36	0x32620f08	1.3158349e-08
37	0xb62d6fe9	-2.584415e-06
38	0x32de0700	2.5847385e-08
39	0x2f841858	2.4027957e-10
40	0x34142a7c	1.379903e-07
41	0x33083aa0	3.1718287e-08
42	0x3564ff24	8.53079e-07
43	0x3346aec6	4.6259423e-08
44	0x2fe3e99d	4.1457052e-10
45	0x35c351e3	1.4552464e-06
46	0xb2a80efd	-1.956459e-08
47	0x300fecdb	5.235969e-10
48	0x327387c5	1.4175332e-08
49	0x3a1f2b4d	0.0006071821
50	0x305cd450	8.033725e-10
51	0x320b73a9	8.117163e-09
52	0xb67273c3	-3.6128192e-06
53	0x317fb55c	3.7210475e-09
54	0xb6ac645c	-5.137683e-06
55	0x3052d257	7.6696466e-10
56	0x351eecef	5.920437e-07
57	0x35a33b05	1.2161623e-06
58	0x358735a1	1.0073892e-06
59	0x3486b465	2.50907e-07
60	0x3212d5d3	8.5469365e-09
61	0x2f6ae770	2.1364399e-10
62	0x31eab43c	6.8307866e-09
63	0x336cffb4	5.5180593e-08
64	0x306b35cb	8.5568946e-10
65	0x3415a3f3	1.3936351e-07
66	0x32c4a517	2.2892477e-08
67	0x327fb3db	1.4883848e-08
68	0x331839ac	3.544271e-08
69	0x3277c465	1.4421947e-08
70	0x32342f0f	1.0488079e-08
71	0x2dee08a0	2.7061298e-11
72	0x334cf813	4.7723073e-08
73	0x32ee36b5	2.7731724e-08
74	0x3563e382	8.489516e-07
75	0x337b1ce4	5.8466767e-08
76	0xaf31932e	-1.6150345e-10
77	0x35c29d2a	1.4499867e-06
78	0xb2e20307	-2.631124e-08
79	0x3056e1a9	7.817343e-10
80	0x326031a9	1.30498075e-08
81	0x340e6fac	1.3265407e-07
82	0x30ae8248	1.2697194e-09
83	0x321520c4	8.6803915e-09
84	0x2c81a8a5	3.685124e-12
85	0x315bbae4	3.197493e-09
86	0x34174a7d	1.409007e-07
87	0x3057f054	7.855807e-10
88	0x35166a5a	5.6034116e-07
89	0x3520eba5	5.994755e-07
90	0x344652d5	1.8470321e-07
91	0x3447e069	1.8614959e-07
92	0x3260c663	1.3083624e-08
93	0x2f48537d	1.8219555e-10
94	0x31a61a85	4.8342508e-09
95	0x3331ee0c	4.1427526e-08
96	0x31676d7e	3.3677163e-09
97	0x32781ef4	1.4442538e-08
98	0x32db6a27	2.5543228e-08
99	0x338def80	6.609389e-08
100	0x32fae87c	2.9209552e-08
101	0x334b739e	4.7369774e-08
102	0x3382b6af	6.086827e-08
103	0xaf3f3ca7	-1.7392897e-10
104	0x333ebcd4	4.440956e-08
105	0x328afc70	1.618011e-08
106	0x356f17a6	8.906885e-07
107	0x33738ec6	5.6707698e-08
108	0x3009b651	5.0099397e-10
109	0x3588965b	1.0176549e-06
110	0xb1dffe78	-6.519084e-09
111	0x2ffd97a0	4.6128168e-10
112	0x32535e16	1.2303209e-08
113	0x3424c0b8	1.5343801e-07
114	0x307bed1d	9.1650226e-10
115	0x314b7bba	2.9610718e-09
116	0xaa6f7c3e	-2.127057e-13
117	0x31890c99	3.988657e-09
118	0x3441d2b5	1.805118e-07
119	0xb0d5e5b5	-1.5563076e-09
120	0x35af74d8	1.3072522e-06
121	0x35348056	6.724198e-07
122	0x345884a8	2.0164828e-07
123	0x340d763b	1.317466e-07
124	0x3269c0e2	1.36062415e-08
125	0x2f51ccf2	1.908125e-10
126	0x31e46396	6.646995e-09
127	0x332e6a33	4.060912e-08
128	0x2ea98753	7.7092686e-11
129	0x3217049b	8.790404e-09
130	0x323f1f41	1.11247696e-08
131	0x3231ca4d	1.0348754e-08
132	0x331e3682	3.6836816e-08
133	0x31ffba49	7.442655e-09
134	0x33cc906d	9.525761e-08
135	0x2cbf4d2c	5.4371143e-12
136	0x32d1e5dc	2.443533e-08
137	0x32217f1f	9.400337e-09
138	0x3502035f	4.843368e-07
139	0x33156815	3.4786428e-08
140	0x2f555779	1.9403314e-10
141	0x354da988	7.661515e-07
142	0xb300d5b7	-2.9996695e-08
143	0x2f92bd4f	2.6691757e-10
144	0x31c66a35	5.7746328e-09
145	0x33ac7f69	8.03255e-08
146	0x2f91aedf	2.64996e-10
147	0x319b10c4	4.5129998e-09
148	0xb04bbd5a	-7.4120055e-10
149	0x30fad770	1.8251125e-09
150	0x33684bb7	5.408557e-08
151	0x30ce5eda	1.5015431e-09
152	0x34992320	2.8524028e-07
153	0x34bb2d16	3.486427e-07
154	0x33c1f38c	9.031564e-08
155	0x340dc1da	1.3202171e-07
156	0x31ead12d	6.834077e-09
157	0xb42cbfa3	-1.6088465e-07
158	0x30d23ae0	1.5296244e-09
159	0x329896a5	1.7763634e-08
160	0x38d0cf0a	9.956777e-05
161	0x3241d6df	1.1282935e-08
162	0x32db99e1	2.5564932e-08
163	0x338b9b62	6.500956e-08
164	0x3295aba8	1.7423943e-08
165	0x329a5dc1	1.7970594e-08
166	0x34bd97b2	3.5314366e-07
167	0x2e68ceba	5.2934303e-11
168	0x3387775a	6.308137e-08
169	0x3256c874	1.2502017e-08
170	0x358d74dc	1.0539329e-06
171	0x33651054	5.3333068e-08
172	0x2f896dd8	2.4998204e-10
173	0x35e0b88b	1.674301e-06
174	0xb8961d91	-7.1580645e-05
175	0x33407b09	4.4815383e-08
176	0xb748b7a8	-1.196369e-05
177	0x341a36ac	1.4362257e-07
178	0x2fdf59cc	4.0627268e-10
179	0x32318990	1.0334034e-08
180	0x2d6cdf81	1.3464675e-11
181	0x315e22f0	3.2325111e-09
182	0x3458c703	2.0188968e-07
183	0xb08f5510	-1.0428796e-09
184	0x35002468	4.7736694e-07
185	0x35353607	6.7506375e-07
186	0x39808d0e	0.00024519156
187	0x340811f5	1.267252e-07
188	0x320b17c1	8.096266e-09
189	0x2f2fb6e9	1.598114e-10
190	0x329c9190	1.8226984e-08
191	0x33218fe2	3.7616594e-08
192	0x30f25e80	1.7634676e-09
193	0x342e15e7	1.6212981e-07
194	0x32e9afa3	2.720464e-08
195	0x32f4e60d	2.8509954e-08
196	0x335049f0	4.849602e-08
197	0x341b2dfa	1.4452226e-07
198	0x3371c2e8	5.628945e-08
199	0x3421893c	1.5044219e-07
200	0x33392737	4.3109335e-08
201	0x3253e8e4	1.233477e-08
202	0x35675eaf	8.619199e-07
203	0x3368578d	5.4096336e-08
204	0x2f9ab0d4	2.813808e-10
205	0x36020135	1.9372212e-06
206	0xb358dbfe	-5.04915e-08
207	0x300bc3f4	5.084637e-10
208	0x3279d3fe	1.4541909e-08
209	0x340ef199	1.3312673e-07
210	0x304928d1	7.318138e-10
211	0x32828ba7	1.5197498e-08
212	0x2bf0bf9e	1.710621e-12
213	0x31af91ac	5.1097313e-09
214	0x33f26691	1.128766e-07
215	0x3082e4c2	9.523762e-10
216	0x351078d1	5.381999e-07
217	0x35382ee9	6.8613605e-07
218	0x34a1ab30	3.0113142e-07
219	0x345341cb	1.9674842e-07
220	0x32497366	1.1725978e-08
221	0x2fa77f03	3.046737e-10
222	0x31f26eb3	7.055712e-09
223	0x33234b3b	3.8019817e-08
224	0x319c1cbc	4.5434643e-09
225	0x32a3ef75	1.908459e-08
226	0x32a1d778	1.884085e-08
227	0x33e8a62e	1.083357e-07
228	0x33fe110f	1.18308996e-07
229	0x32c676ed	2.3104315e-08
230	0x3291b333	1.6961712e-08
231	0x2e20e7df	3.658573e-11
232	0x335e3d3e	5.1744102e-08
233	0x32b69027	2.1253141e-08
234	0x354dfb58	7.6734204e-07
235	0x33703345	5.5925984e-08
236	0x2f0a1a4b	1.2560368e-10
237	0x35d08bd5	1.5537904e-06
238	0xb3eeddf9	-1.1123115e-07
239	0x36f2c90d	7.2355674e-06
240	0x34db49e2	4.0845686e-07
241	0x341c2811	1.4543208e-07
242	0xb03decf8	-6.909455e-10
243	0x32084f92	7.934334e-09
244	0x2d17b17a	8.622764e-12
245	0xb189d093	-4.010937e-09
246	0x34350174	1.6857467e-07
247	0x3111aec2	2.1199615e-09
248	0x34d97172	4.0501942e-07
249	0x36065ed3	2.002275e-06
250	0xb8382000	-4.389882e-05
251	0x33f275de	1.1290443e-07
252	0x3289c1fb	1.6037111e-08
253	0x2f433059	1.7752323e-10
254	0x306187a8	8.20473e-10
255	0xb7f3f082	-2.9079853e-05

fai_gcn_networks.1.gcn.conv.bias f4 [192]
0	0x3d0f75de	0.035024516
1	0x3d1290fd	0.035782803
2	0x3d11eeeb	0.03562824
3	0x3d159af0	0.036524713
4	0x3c8fcb08	0.017552868
5	0x3d12ca87	0.035837676
6	0x3d11be84	0.03558208
7	0x3d111f65	0.03543033
8	0x3d132a33	0.035928916
9	0x3d132497	0.035923567
10	0x33fb0f08	1.16908325e-07
11	0x32b578c5	2.1126093e-08
12	0x3d12f837	0.035881247
13	0xb3043598	-3.0782388e-08
14	0xb3d652e5	-9.98023e-08
15	0x3d100974	0.035165265
16	0x3c6275b4	0.013822008
17	0x3d0be352	0.034152336
18	0x3cfa6d07	0.030569566
19	0xb141f48b	-2.8224203e-09
20	0x3ce84627	0.028353764
21	0x3d10f16a	0.03538648
22	0x3ca20906	0.019779693
23	0x3c2711e9	0.010197141
24	0x3d133bf9	0.035945866
25	0x3d120596	0.03564986
26	0x3d156fed	0.036483694
27	0x329f84db	1.8570452e-08
28	0xb52c35e1	-6.41534e-07
29	0x3d10fcb1	0.035397235
30	0x3d115435	0.035480697
31	0x3d1238c0	0.035698652
32	0x3d0ea4c7	0.034825113
33	0x3d10162d	0.0351774
34	0x3d12cccf	0.035839852
35	0x3cf93a4e	0.03042331
36	0x3cb95119	0.022621678
37	0x3d0dda88	0.034632236
38	0x3d0f1468	0.03493157
39	0x3d1365c5	0.035985727
40	0x34672330	2.1526353e-07
41	0x329acee3	1.802204e-08
42	0xb5dcc26d	-1.6447863e-06
43	0x9dcafeaa	-5.373227e-21
44	0xb21f21f0	-9.262735e-09
45	0xb176d4c4	-3.5918655e-09
46	0x3d112b16	0.03544148
47	0x3cb6bfa2	0.022308175
48	0x3d12d126	0.03584399
49	0x3d106e43	0.035261404
50	0x3c641aad	0.013922376
51	0x3d10785a	0.035271026
52	0xb24f0ad3	-1.2051447e-08
53	0x33b6cf67	8.512762e-08
54	0x3d125a19	0.035730455
55	0x3d11db07	0.03560927
56	0x3d131067	0.035904314
57	0x3d114454	0.035465553
58	0x3d1141c0	0.035463095
59	0x3d14137f	0.036151405
60	0x3c371f48	0.011176892
61	0x3d0bca23	0.03412832
62	0x32d25fe8	2.449083e-08
63	0x3d12cb6c	0.03583853
64	0x3d283c39	0.041073058
65	0x3d2ddc42	0.042446382
66	0x3d2cd80d	0.04219823
67	0x3d2c5f5e	0.042083137
68	0x3cadf4b2	0.021234844
69	0x3d2e2d62	0.04252375
70	0x3d2cb0e6	0.04216089
71	0x3d2af158	0.04173407
72	0x3d2e0ecc	0.04249458
73	0x3d2ec0bc	0.042664275
74	0x3274d838	1.4251832e-08
75	0xb2b1f2ab	-2.0715865e-08
76	0x3d2e3c9c	0.04253827
77	0xb2faa3a2	-2.9178242e-08
78	0xb4163aac	-1.3991183e-07
79	0x3d2b2fcf	0.04179364
80	0x3c8996e4	0.016795583
81	0x3d242548	0.040074617
82	0x3d15a92b	0.036538284
83	0xb16d668e	-3.4546335e-09
84	0x3d0b114f	0.033952054
85	0x3d2c27ae	0.04203003
86	0x3cc3c1d8	0.023896143
87	0x3c4bc1b4	0.012436319
88	0x3d2ebcee	0.042660646
89	0x3d2cf292	0.04222352
90	0x3d2f83a4	0.04285015
91	0xb1b84d24	-5.3638747e-09
92	0xb52db4c7	-6.471059e-07
93	0x3d2bb18a	0.04191736
94	0x3d2add7b	0.041715126
95	0x3d2cfb9d	0.042232145
96	0x3d27daaf	0.040980037
97	0x3d2b621c	0.04184161
98	0x3d2e4215	0.04254349
99	0x3d14fdb4	0.036374763
100	0x3cdf141d	0.02723127
101	0x3d26e332	0.040744014
102	0x3d2898e6	0.04116144
103	0x3d2f0d27	0.042737152
104	0xb38e4e26	-6.6266054e-08
105	0xb2166493	-8.754017e-09
106	0xb5fcc2c7	-1.8832151e-06
107	0x9ca1b91f	-1.0701939e-21
108	0xb216c39a	-8.775624e-09
109	0xb1dbf347	-6.4013963e-09
110	0x3d2b392a	0.041802563
111	0x3cdc22b8	0.026872024
112	0x3d2e6794	0.04257925
113	0x3d29972e	0.04140394
114	0x3c8a8961	0.01691121
115	0x3d2af4a6	0.04173722
116	0xb277c7a4	-1.4422685e-08
117	0x3380a1bd	5.9898845e-08
118	0x3d2d1d99	0.042264555
119	0x3d2c0cb3	0.0420043
120	0x3d2e9e58	0.042631477
121	0x3d2c1666	0.04201355
122	0x3d2b7a65	0.04186477
123	0x3d2b41c3	0.041810762
124	0x3c5f0e8a	0.013614306
125	0x3d255ef9	0.040373776
126	0xb234fd5e	-1.0534988e-08
127	0x3d2d1a3b	0.042261343
128	0x3c8ae11f	0.01695305
129	0x3c8c28f6	0.017109375
130	0x3c8bc1da	0.017060209
131	0x3c95581a	0.018230487
132	0x3c0657b8	0.008199625
133	0x3c8c6690	0.01713875
134	0x3c8b8b7a	0.017034281
135	0x3c8bb920	0.017056048
136	0x3c8d2298	0.01722841
137	0x3c8cb266	0.01717491
138	0x35503bbe	7.7572975e-07
139	0x3459ee96	2.0296497e-07
140	0x3c8cae9a	0.0171731
141	0x2fabf133	3.12761e-10
142	0x31df5e3a	6.5008665e-09
143	0x3c89923b	0.016793361
144	0x3bd26105	0.006420257
145	0x3c875ac5	0.016522774
146	0x3c6d8bd5	0.014498671
147	0xb1754b90	-3.5695145e-09
148	0x3c5bbf49	0.013412305
149	0x3c8a79e4	0.016903825
150	0x3c17a48b	0.009255539
151	0x3b9a8e09	0.004716639
152	0x3c8cd0a4	0.017189331
153	0x3c8bd304	0.017068394
154	0x3c904e52	0.017615471
155	0x34526dec	1.9597763e-07
156	0xb516c862	-5.617095e-07
157	0x3c8acc99	0.016943263
158	0x3c8c103a	0.017097581
159	0x3c8c29cf	0.01710978
160	0x3c899be8	0.016797975
161	0x3c8990cd	0.01679268
162	0x3c8c64cf	0.017137913
163	0x3c6c5e43	0.014426771
164	0x3c2e1957	0.010626159
165	0x3c88c6c1	0.016696336
166	0x3c89baf4	0.016812779
167	0x3c8cf324	0.017205782
168	0x36198b90	2.2880013e-06
169	0x344a4f27	1.8841511e-07
170	0xb4e7f171	-4.3202775e-07
171	0x9dabef23	-4.5510585e-21
172	0xb271264a	-1.4036752e-08
173	0xb2028b25	-7.598634e-09
174	0x3c8b904c	0.01703658
175	0x3c2bae9e	0.010478644
176	0x3c8c60f2	0.01713607
177	0x3c8b9399	0.017038153
178	0x3bd40e2c	0.006471416
179	0x3c8a4f37	0.016883476
180	0x326b1130	1.3682708e-08
181	0x34cb38bc	3.7852976e-07
182	0x3c8c4fd7	0.017127914
183	0x3c8c3392	0.017114434
184	0x3c8ca4e8	0.017168477
185	0x3c8b20b0	0.01698336
186	0x3c8b87cc	0.017032526
187	0x3c92b559	0.017908739
188	0x3ba9a201	0.005176783
189	0x3c8581ba	0.01629721
190	0x347eab36	2.371788e-07
191	0x3c8d18de	0.017223772

fai_gcn_networks.1.residual.0.weight f4 [64, 32, 1, 1]
0	0x3cc486c5	0.023990044
1	0x3c8673cf	0.016412644
2	0xbd1617b8	-0.036643714
3	0xbc7a1f4a	-0.015266249
4	0xbc30f8cf	-0.010801508
5	0xbb2b753c	-0.0026162406
6	0x3c3f08c6	0.011659807
7	0xbd1bd9b0	-0.0380494
8	0x3cfbae60	0.030722797
9	0x3c8d52c1	0.017251374
10	0x3c17d166	0.009266233
11	0xbd439ee9	-0.04775897
12	0x3cda3f35	0.026641468
13	0x3ba25b05	0.004954698
14	0x3af3e5d7	0.0018607926
15	0xbb6377c5	-0.003470884
16	0xbc0931f9	-0.008373731
17	0xbc7aa542	-0.01529819
18	0xbbb96741	-0.005658061
19	0x3cddec9c	0.027090363
20	0x398ab0c4	0.00026453112
21	0xbcea5ad7	-0.028607769
22	0xbc1c4f90	-0.009540454
23	0x3d16cc43	0.036815893
24	0x3d034187	0.032044914
25	0xbd3e4f15	-0.046462137
26	0x3bb9338e	0.0056518978
27	0xbb133cd2	-0.0022466672
28	0x3c30ca86	0.010790473
29	0xbc488133	-0.012237835
30	0x3be3c7f8	0.0069513284
31	0x3bd0e206	0.0063746003
32	0x39e3ceaa	0.0004345079
33	0x3ccab5b2	0.024744842
34	0x3cf96c39	0.030447112
35	0xbbbf1737	-0.005831625
36	0x3d34ac02	0.044109352
37	0x3c66a626	0.014077699
38	0x3cf83c3d	0.030302161
39	0x3c912bc2	0.01772106
40	0xbb3a5ad9	-0.0028435497
41	0x3c8ce244	0.017197736
42	0x3c7a39c2	0.01527256
43	0xbd1050a6	-0.035233162
44	0x3c8dba41	0.017300727
45	0x3c644739	0.013932996
46	0x3c228749	0.00991995
47	0x3c9aec56	0.018911522
48	0xbd00f4b2	-0.03148336
49	0x3cc7f427	0.024408413
50	0x3c13db36	0.009024432
51	0xbd03f414	-0.032215193
52	0x3c448c9b	0.011996414
53	0xbc4c51a0	-0.012470633
54	0xbca628eb	-0.020283183
55	0x3c3f0313	0.011658448
56	0x3b69463d	0.0035594844
57	0x3b8bef5e	0.004270478
58	0xbc834e4a	-0.016028542
59	0xb98a1641	-0.00026337992
60	0x3c389227	0.011265314
61	0x3bf9bdf3	0.0076215207
62	0xbcc1a7f5	-0.023639658
63	0x3c439057	0.011936269
64	0xbbc7bbea	-0.006095399
65	0x3c84412a	0.016144354
66	0x3d021c5c	0.031765327
67	0xbc6a43b7	-0.014298371
68	0xbbd27ab8	-0.0064233206
69	0x3c0c3f72	0.008560048
70	0x3b889819	0.004168522
71	0x3b7d6dd4	0.00386702
72	0xbc643115	-0.013927718
73	0xba917ec3	-0.00111004
74	0x3cf8fe65	0.030394742
75	0x3cb567f2	0.022144292
76	0x3b558f74	0.0032586725
77	0xbae564be	-0.0017501337
78	0xbc8b597d	-0.017010445
79	0xbcc87c6e	-0.024473395
80	0x3bc3b74e	0.0059727794
81	0xbc3f40d7	-0.011673174
82	0xbc16dc55	-0.009207805
83	0xbc4ed1a2	-0.012623223
84	0xbb91e7ed	-0.0044526965
85	0xbc798525	-0.015229498
86	0xba6c34d3	-0.0009010557
87	0xbbece039	-0.007228878
88	0xbd398569	-0.045293245
89	0x3c93706a	0.01799794
90	0x3ca0ba49	0.019620078
91	0xbd2245af	-0.039617237
92	0xbc78e621	-0.015191586
93	0x3b6e0f30	0.003632497
94	0x3c812b16	0.015767615
95	0x3d00476f	0.031318124
96	0xbb439e67	-0.0029849054
97	0xbc901408	-0.017587677
98	0xbbe9ef4c	-0.007139122
99	0x3c91556c	0.017740928
100	0xbb2a9347	-0.0026027726
101	0x3d06485b	0.032783847
102	0x3a9153fd	0.0011087653
103	0x3cfdd64a	0.03098597
104	0xbcf44bfb	-0.029821387
105	0x3caca8f3	0.021076655
106	0xb9da1cf3	-0.0004160177
107	0x3b04b499	0.0020249246
108	0x3d2ef026	0.042709492
109	0xbc1a6ead	-0.009425801
110	0x3cd84454	0.026399769
111	0xbc1f2d34	-0.009715367
112	0x3d1096c2	0.035300024
113	0x3d0bdcb9	0.034146044
114	0x3bc6c7d4	0.006066302
115	0xbc07ae6f	-0.008281334
116	0xbbef4f05	-0.007303121
117	0x3bea4f69	0.0071505797
118	0x3c4fd839	0.012685829
119	0xbc4faed0	-0.012675956
120	0x3d4f4718	0.05060491
121	0x3d6c768a	0.057730235
122	0xbbb2eb00	-0.005460143
123	0xbc048be6	-0.008089995
124	0x3c08ded0	0.008353904
125	0x398cc269	0.00026847728
126	0x3ba5d10b	0.0050603203
127	0x3bfbcc03	0.007684232
128	0x3d1582cf	0.036501702
129	0x3c5e508f	0.013569011
130	0x3cb0789b	0.021541884
131	0xbbfc1b14	-0.0076936577
132	0xbcedec83	-0.029043442
133	0x3cdef15e	0.027214702
134	0xbd05db90	-0.032680094
135	0xbbae7f1d	-0.0053252117
136	0x3bfe9b5d	0.0077699856
137	0x3c0880a2	0.00833145
138	0x3d074713	0.033026766
139	0xbd0d7cc6	-0.03454282
140	0xbc73c217	-0.014877818
141	0xbce37365	-0.027764985
142	0x3b6ee3e3	0.003645175
143	0x3c37b8eb	0.0112135215
144	0xbc356674	-0.01107179
145	0xbbd24ed3	-0.006418088
146	0xbd1b54bb	-0.037922602
147	0x3c0dc1c5	0.008652155
148	0x3c3dc679	0.011582964
149	0xbc25555b	-0.010091151
150	0xbc8d8f6a	-0.0172803
151	0xbd1416fc	-0.036154732
152	0x3c1e94cc	0.009679031
153	0xbb46c34e	-0.0030328813
154	0xbcd7d4ec	-0.026346646
155	0xbcce36d5	-0.02517263
156	0xbc9c4bc9	-0.019079106
157	0x3d171a7c	0.03689049
158	0xb854c77d	-5.0730527e-05
159	0xbc5811b8	-0.013187818
160	0x3b229475	0.0024807726
161	0xbcbfe9e4	-0.023426957
162	0xbbb28300	-0.0054477453
163	0xbc136ec5	-0.0089985775
164	0xbce63358	-0.028100654
165	0xbb42f090	-0.0029745437
166	0x3c7e9ed5	0.015540798
167	0x3c313065	0.010814761
168	0x3c398490	0.011323109
169	0x3c818d19	0.01581435
170	0xbb33c884	-0.002743275
171	0x3d1a6fc3	0.03770424
172	0x3d0a18ce	0.03371506
173	0xbb643630	-0.0034822337
174	0x3c87c68c	0.016574167
175	0xbcdbe757	-0.02684371
176	0x3ba34fdd	0.0049838857
177	0xbcd119ee	-0.02552506
178	0x3caefabd	0.021359796
179	0xbcaa0c8b	-0.020757934
180	0xbc9802df	-0.018556057
181	0x3ca4e01c	0.020126395
182	0xbc296fee	-0.0103416275
183	0xbc118fb0	-0.008884355
184	0x3bb47fc4	0.005508395
185	0xbd2f7c5c	-0.042843208
186	0x3c49ad6f	0.012309416
187	0x3c004462	0.007828804
188	0xbcd0b9e9	-0.025479274
189	0x3be19b41	0.006884963
190	0x3d270bcd	0.04078274
191	0x3d07b840	0.0331347
192	0xbd1982c5	-0.037478227
193	0xbc8a3667	-0.016871644
194	0xbcb8418a	-0.022492189
195	0xbc353230	-0.011059329
196	0xbc13d46d	-0.009022814
197	0xbc54486b	-0.012956719
198	0xba7d2b49	-0.0009657634
199	0xbb6196e2	-0.0034422209
200	0xbbb33f97	-0.005470227
201	0xbcce3f8a	-0.025176782
202	0x3c83e05f	0.0160982
203	0x3b2acb32	0.0026061055
204	0x3d19cd4b	0.0375493
205	0x3cac7f82	0.021056894
206	0xbc9baa56	-0.019002121
207	0x3c9ae86f	0.018909661
208	0x3c51b881	0.012800337
209	0x3c2266eb	0.009912233
210	0x3c94cd24	0.018164225
211	0x3cb89f34	0.022536851
212	0x3bf8c733	0.007592106
213	0x3afbd650	0.001921365
214	0xba72695e	-0.00092472683
215	0xbbf72c05	-0.0075430893
216	0x3cd7ff47	0.026366843
217	0xbc6fcb2f	-0.014635845
218	0xbd0199ad	-0.031640697
219	0x3c80cd4b	0.015722891
220	0xbd12bc5b	-0.03582416
221	0xbbfb8d29	-0.0076767397
222	0xbc1bb6d9	-0.0095040435
223	0xbc89874d	-0.01678815
224	0x3d022cb6	0.03178092
225	0x3c437954	0.011930782
226	0x3cb163b6	0.021653991
227	0xbcbee6fc	-0.023303501
228	0xbcd1f510	-0.02562955
229	0x3cbdcea0	0.023169816
230	0xbd1ea4f2	-0.038731523
231	0xbc8596a1	-0.016307177
232	0xbc2e71a2	-0.010647209
233	0x3cc8dd1e	0.0245195
234	0x3c862146	0.016373288
235	0x38b5de66	8.6721775e-05
236	0xbc2f4101	-0.0106966505
237	0x3cf01cdb	0.029310634
238	0xbca46480	-0.020067453
239	0xbc6e3c60	-0.014540762
240	0x3c3cc5ea	0.011521796
241	0x3c8b0499	0.016969966
242	0x3d076631	0.03305644
243	0x3c254622	0.010087522
244	0x3c6b9ba0	0.014380366
245	0x3cab1bed	0.02088734
246	0xbad747b3	-0.0016424566
247	0xbcc4b10a	-0.0240102
248	0x3c6e4e3d	0.014545021
249	0xbb98ec09	-0.0046668095
250	0xba4f9ec9	-0.0007920084
251	0xbc953fd6	-0.018218916
252	0xbc9654e3	-0.018351024
253	0xbc51bbf7	-0.012801162
254	0x3c13fed5	0.009032925
255	0xbc6a8570	-0.014314041

fai_gcn_networks.1.residual.0.bias f4 [64]
0	0x00000000	0.0
1	0x00000000	0.0
2	0x00000000	0.0
3	0x00000000	0.0
4	0x00000000	0.0
5	0x00000000	0.0
6	0x00000000	0.0
7	0x00000000	0.0
8	0x00000000	0.0
9	0x00000000	0.0
10	0x00000000	0.0
11	0x00000000	0.0
12	0x00000000	0.0
13	0x00000000	0.0
14	0x00000000	0.0
15	0x00000000	0.0
16	0x00000000	0.0
17	0x00000000	0.0
18	0x00000000	0.0
19	0x00000000	0.0
20	0x00000000	0.0
21	0x00000000	0.0
22	0x00000000	0.0
23	0x00000000	0.0
24	0x00000000	0.0
25	0x00000000	0.0
26	0x00000000	0.0
27	0x00000000	0.0
28	0x00000000	0.0
29	0x00000000	0.0
30	0x00000000	0.0
31	0x00000000	0.0
32	0x00000000	0.0
33	0x00000000	0.0
34	0x00000000	0.0
35	0x00000000	0.0
36	0x00000000	0.0
37	0x00000000	0.0
38	0x00000000	0.0
39	0x00000000	0.0
40	0x00000000	0.0
41	0x00000000	0.0
42	0x00000000	0.0
43	0x00000000	0.0
44	0x00000000	0.0
45	0x00000000	0.0
46	0x00000000	0.0
47	0x00000000	0.0
48	0x00000000	0.0
49	0x00000000	0.0
50	0x00000000	0.0
51	0x00000000	0.0
52	0x00000000	0.0
53	0x00000000	0.0
54	0x00000000	0.0
55	0x00000000	0.0
56	0x00000000	0.0
57	0x00000000	0.0
58	0x00000000	0.0
59	0x00000000	0.0
60	0x00000000	0.0
61	0x00000000	0.0
62	0x00000000	0.0
63	0x00000000	0.0

fai_gcn_networks.1.residual.1.weight f4 [64]
0	0x3f7a9608	0.9788518
1	0x3f827fda	1.0195267
2	0x3f7c1b7a	0.98479426
3	0x3f7bb1b8	0.9831805
4	0x3f831c44	1.0243001
5	0x3f7f9717	0.9983992
6	0x3f80b4a3	1.0055126
7	0x3f81795f	1.0115165
8	0x3f7e7bed	0.99407846
9	0x3f7c1957	0.98476166
10	0x3f865a4e	1.0496309
11	0x3f826488	1.018693
12	0x3f7936cc	0.9734924
13	0x3f8492fb	1.0357355
14	0x3f7dd691	0.9915553
15	0x3f7fcc64	0.9992125
16	0x3f7f571e	0.99742305
17	0x3f837990	1.0271473
18	0x3f7d21d6	0.98879755
19	0x3f7a8201	0.9785462
20	0x3f851f0d	1.0400101
21	0x3f805f06	1.0028999
22	0x3f7b5b43	0.9818613
23	0x3f821867	1.0163697
24	0x3f7ef136	0.9958681
25	0x3f82f531	1.0231076
26	0x3f7cdbef	0.9877309
27	0x3f828fe3	1.0200161
28	0x3f7fd351	0.9993182
29	0x3f8052b1	1.0025235
30	0x3f792540	0.97322464
31	0x3f804525	1.0021101
32	0x3f802c6a	1.0013554
33	0x3f7db2f0	0.9910116
34	0x3f814d3f	1.0101699
35	0x3f82a62e	1.0206964
36	0x3f79b075	0.9753488
37	0x3f7531c3	0.95779055
38	0x3f7ce7c1	0.9879113
39	0x3f80e73c	1.0070567
40	0x3f7f3293	0.99686545
41	0x3f82ab36	1.02085
42	0x3f81c5bf	1.0138472
43	0x3f76d8fc	0.9642484
44	0x3f8230a7	1.0171098
45	0x3f81b5ac	1.0133567
46	0x3f806ade	1.0032613
47	0x3f7db2a4	0.9910071
48	0x3f7dac2c	0.9909084
49	0x3f81664a	1.0109341
50	0x3f70d9c6	0.94082296
51	0x3f84ecb0	1.0384731
52	0x3f7cddba	0.9877583
53	0x3f806272	1.0030043
54	0x3f7eebd2	0.99578583
55	0x3f7c87a0	0.9864445
56	0x3f7fdaae	0.99943054
57	0x3f802f53	1.0014442
58	0x3f7ef0d8	0.9958625
59	0x3f7f23f6	0.9966425
60	0x3f764f89	0.9621511
61	0x3f7e37f8	0.9930415
62	0x3f800dc3	1.00042
63	0x3f80e87d	1.007095

fai_gcn_networks.1.residual.1.bias f4 [64]
0	0x00000000	0.0
1	0x00000000	0.0
2	0x00000000	0.0
3	0x00000000	0.0
4	0x00000000	0.0
5	0x00000000	0.0
6	0x00000000	0.0
7	0x00000000	0.0
8	0x00000000	0.0
9	0x00000000	0.0
10	0x00000000	0.0
11	0x00000000	0.0
12	0x00000000	0.0
13	0x00000000	0.0
14	0x00000000	0.0
15	0x00000000	0.0
16	0x00000000	0.0
17	0x00000000	0.0
18	0x00000000	0.0
19	0x00000000	0.0
20	0x00000000	0.0
21	0x00000000	0.0
22	0x00000000	0.0
23	0x00000000	0.0
24	0x00000000	0.0
25	0x00000000	0.0
26	0x00000000	0.0
27	0x00000000	0.0
28	0x00000000	0.0
29	0x00000000	0.0
30	0x00000000	0.0
31	0x00000000	0.0
32	0x00000000	0.0
33	0x00000000	0.0
34	0x00000000	0.0
35	0x00000000	0.0
36	0x00000000	0.0
37	0x00000000	0.0
38	0x00000000	0.0
39	0x00000000	0.0
40	0x00000000	0.0
41	0x00000000	0.0
42	0x00000000	0.0
43	0x00000000	0.0
44	0x00000000	0.0
45	0x00000000	0.0
46	0x00000000	0.0
47	0x00000000	0.0
48	0x00000000	0.0
49	0x00000000	0.0
50	0x00000000	0.0
51	0x00000000	0.0
52	0x00000000	0.0
53	0x00000000	0.0
54	0x00000000	0.0
55	0x00000000	0.0
56	0x00000000	0.0
57	0x00000000	0.0
58	0x00000000	0.0
59	0x00000000	0.0
60	0x00000000	0.0
61	0x00000000	0.0
62	0x00000000	0.0
63	0x00000000	0.0

fai_gcn_networks.1.residual.1.running_mean f4 [64]
0	0xb45147f9	-1.9490825e-07
1	0x3552a3f0	7.8469657e-07
2	0xb3862567	-6.246665e-08
3	0x35e66a34	1.7167245e-06
4	0xb5098a5b	-5.123781e-07
5	0xb565f7c5	-8.56697e-07
6	0x3552309d	7.830184e-07
7	0x358fc1bc	1.0710714e-06
8	0x34101a75	1.342067e-07
9	0xb3c46c5f	-9.146674e-08
10	0x35157914	5.568302e-07
11	0x352c5e18	6.421192e-07
12	0xb5cbca99	-1.5183642e-06
13	0xb4631a11	-2.1150505e-07
14	0x349b2947	2.8901033e-07
15	0x34833db1	2.4445538e-07
16	0xb5712142	-8.982789e-07
17	0xb56b4ed6	-8.7659043e-07
18	0x34990dc2	2.850848e-07
19	0x3456012d	1.9930731e-07
20	0x3629eb23	2.531983e-06
21	0x34b1131f	3.2982732e-07
22	0xb481dac0	-2.4187284e-07
23	0xb5df620b	-1.6643329e-06
24	0x35d54dd0	1.5892383e-06
25	0x358b7046	1.0388983e-06
26	0x3507db08	5.061015e-07
27	0x35100edb	5.36658e-07
28	0xb43ed625	-1.7773034e-07
29	0x3557d06f	8.039705e-07
30	0xb4775327	-2.3033918e-07
31	0xb47f1eff	-2.3760002e-07
32	0xb57c20d1	-9.392507e-07
33	0x350cb1be	5.2412713e-07
34	0xb48ac017	-2.5844267e-07
35	0x355eea67	8.3042545e-07
36	0xb57de105	-9.457729e-07
37	0xb5c38313	-1.456678e-06
38	0x35182576	5.6678925e-07
39	0xb5378b55	-6.837557e-07
40	0xb4c78eaf	-3.7170454e-07
41	0x3475edb8	2.2903885e-07
42	0x3313101f	3.4240767e-08
43	0x354067a8	7.1676413e-07
44	0xb5864271	-1.0003115e-06
45	0xb4661dd8	-2.1431276e-07
46	0x35b9f3bb	1.3854509e-06
47	0xb43726e1	-1.7057347e-07
48	0x321d7b29	9.166606e-09
49	0xb5512602	-7.7913876e-07
50	0xb5d83c14	-1.6110739e-06
51	0x33cb823a	9.476612e-08
52	0xb59f075f	-1.1848568e-06
53	0x34f500e9	4.5635468e-07
54	0x34c80b70	3.7261225e-07
55	0xb4c61c44	-3.690094e-07
56	0xb54079a5	-7.170259e-07
57	0xb5153295	-5.558043e-07
58	0xb5a73adb	-1.2459599e-06
59	0xb57363d8	-9.0669846e-07
60	0xb544691d	-7.316865e-07
61	0x331b1897	3.6111114e-08
62	0x34ab05b0	3.185537e-07
63	0x34f6e1db	4.5985402e-07

fai_gcn_networks.1.residual.1.running_var f4 [64]
0	0x2bc55afe	1.4022947e-12
1	0x2a613462	2.0002188e-13
2	0x2c1d84c8	2.238475e-12
3	0x2cbd9adc	5.388896e-12
4	0x2c3607c4	2.5868066e-12
5	0x2b8829d4	9.674991e-13
6	0x2b81dfa5	9.228075e-13
7	0x2b8637e5	9.536787e-13
8	0x2ab3aa30	3.191488e-13
9	0x2c0c0cd3	1.9902315e-12
10	0x2bcd9388	1.4607074e-12
11	0x2c443003	2.7879927e-12
12	0x2c3e0199	2.700151e-12
13	0x2aae618c	3.0976296e-13
14	0x2b771c92	8.7791677e-13
15	0x2b91fe0e	1.0373384e-12
16	0x2bd4e0ea	1.5125932e-12
17	0x2be24028	1.6076073e-12
18	0x2b39e330	6.604049e-13
19	0x2b91d975	1.0363226e-12
20	0x2cb7ad85	5.2204374e-12
21	0x2bc19bbd	1.3756701e-12
22	0x2bc46f1b	1.3957476e-12
23	0x2c866f71	3.8208815e-12
24	0x2c88590e	3.8752395e-12
25	0x2bfd893b	1.801482e-12
26	0x2a4ca770	1.8176931e-13
27	0x2ba191a9	1.1480167e-12
28	0x2b235cad	5.8037846e-13
29	0x2bac18e7	1.2228247e-12
30	0x2a99e74a	2.733875e-13
31	0x2bb257c1	1.2672017e-12
32	0x2b381411	6.539778e-13
33	0x2c1a2d72	2.1909943e-12
34	0x2b45acc3	7.0228215e-13
35	0x2bbbd5a2	1.3346444e-12
36	0x2b8b3ca1	9.893372e-13
37	0x2c08067a	1.9330358e-12
38	0x2c0ed666	2.0298429e-12
39	0x2b0d00b4	5.009424e-13
40	0x2ac9d8b3	3.5855138e-13
41	0x2af76d52	4.395187e-13
42	0x29bf9a40	8.508862e-14
43	0x2b49c400	7.168155e-13
44	0x2b414860	6.8667814e-13
45	0x2b39cacb	6.6006635e-13
46	0x2b71008f	8.5621175e-13
47	0x2aae3476	3.094501e-13
48	0x2c099d57	1.9556212e-12
49	0x2bae962a	1.2405123e-12
50	0x2c57bdea	3.0658761e-12
51	0x2c015f22	1.8384812e-12
52	0x2b89d2c1	9.792931e-13
53	0x2b85c54c	9.504979e-13
54	0x2b3792b1	6.5218236e-13
55	0x2bda505e	1.5512138e-12
56	0x2aec7337	4.2001968e-13
57	0x2bd3dcab	1.5053699e-12
58	0x2babf1f4	1.2217436e-12
59	0x2b5997d8	7.730461e-13
60	0x2b308b68	6.2721226e-13
61	0x2b196c29	5.450662e-13
62	0x2b8961cb	9.761578e-13
63	0x2b261dc8	5.9016377e-13
