capsule-6073072/code/work_dir/recognition/kinetics_skeleton/FAI_GCN/epoch190_model.pt (torch, 74070 bytes, 22 tensors)

A f4 [3, 18, 18]
0	0x3e800000	0.25
1	0x00000000	0.0
2	0x00000000	0.0
3	0x00000000	0.0
4	0x00000000	0.0
5	0x00000000	0.0
6	0x00000000	0.0
7	0x00000000	0.0
8	0x00000000	0.0
9	0x00000000	0.0
10	0x00000000	0.0
11	0x00000000	0.0
12	0x00000000	0.0
13	0x00000000	0.0
14	0x00000000	0.0
15	0x00000000	0.0
16	0x00000000	0.0
17	0x00000000	0.0
18	0x00000000	0.0
19	0x3e800000	0.25
20	0x00000000	0.0
21	0x00000000	0.0
22	0x00000000	0.0
23	0x00000000	0.0
24	0x00000000	0.0
25	0x00000000	0.0
26	0x00000000	0.0
27	0x00000000	0.0
28	0x00000000	0.0
29	0x00000000	0.0
30	0x00000000	0.0
31	0x00000000	0.0
32	0x00000000	0.0
33	0x00000000	0.0
34	0x00000000	0.0
35	0x00000000	0.0
36	0x00000000	0.0
37	0x00000000	0.0
38	0x3e800000	0.25
39	0x00000000	0.0
40	0x00000000	0.0
41	0x00000000	0.0
42	0x00000000	0.0
43	0x00000000	0.0
44	0x00000000	0.0
45	0x00000000	0.0
46	0x00000000	0.0
47	0x00000000	0.0
48	0x00000000	0.0
49	0x00000000	0.0
50	0x00000000	0.0
51	0x00000000	0.0
52	0x00000000	0.0
53	0x00000000	0.0
54	0x00000000	0.0
55	0x00000000	0.0
56	0x00000000	0.0
57	0x3eaaaaab	0.33333334
58	0x00000000	0.0
59	0x00000000	0.0
60	0x00000000	0.0
61	0x00000000	0.0
62	0x00000000	0.0
63	0x00000000	0.0
64	0x00000000	0.0
65	0x00000000	0.0
66	0x00000000	0.0
67	0x00000000	0.0
68	0x00000000	0.0
69	0x00000000	0.0
70	0x00000000	0.0
71	0x00000000	0.0
72	0x00000000	0.0
73	0x00000000	0.0
74	0x00000000	0.0
75	0x00000000	0.0
76	0x3f000000	0.5
77	0x00000000	0.0
78	0x00000000	0.0
79	0x00000000	0.0
80	0x00000000	0.0
81	0x00000000	0.0
82	0x00000000	0.0
83	0x00000000	0.0
84	0x00000000	0.0
85	0x00000000	0.0
86	0x00000000	0.0
87	0x00000000	0.0
88	0x00000000	0.0
89	0x00000000	0.0
90	0x00000000	0.0
91	0x00000000	0.0
92	0x00000000	0.0
93	0x00000000	0.0
94	0x00000000	0.0
95	0x3e800000	0.25
96	0x00000000	0.0
97	0x00000000	0.0
98	0x00000000	0.0
99	0x00000000	0.0
100	0x00000000	0.0
101	0x00000000	0.0
102	0x00000000	0.0
103	0x00000000	0.0
104	0x00000000	0.0
105	0x00000000	0.0
106	0x00000000	0.0
107	0x00000000	0.0
108	0x00000000	0.0
109	0x00000000	0.0
110	0x00000000	0.0
111	0x00000000	0.0
112	0x00000000	0.0
113	0x00000000	0.0
114	0x3eaaaaab	0.33333334
115	0x00000000	0.0
116	0x00000000	0.0
117	0x00000000	0.0
118	0x00000000	0.0
119	0x00000000	0.0
120	0x00000000	0.0
121	0x00000000	0.0
122	0x00000000	0.0
123	0x00000000	0.0
124	0x00000000	0.0
125	0x00000000	0.0
126	0x00000000	0.0
127	0x00000000	0.0
128	0x00000000	0.0
129	0x00000000	0.0
130	0x00000000	0.0
131	0x00000000	0.0
132	0x00000000	0.0
133	0x3f000000	0.5
134	0x00000000	0.0
135	0x00000000	0.0
136	0x00000000	0.0
137	0x00000000	0.0
138	0x00000000	0.0
139	0x00000000	0.0
140	0x00000000	0.0
141	0x00000000	0.0
142	0x00000000	0.0
143	0x00000000	0.0
144	0x00000000	0.0
145	0x00000000	0.0
146	0x00000000	0.0
147	0x00000000	0.0
148	0x00000000	0.0
149	0x00000000	0.0
150	0x00000000	0.0
151	0x00000000	0.0
152	0x3eaaaaab	0.33333334
153	0x00000000	0.0
154	0x00000000	0.0
155	0x00000000	0.0
156	0x00000000	0.0
157	0x00000000	0.0
158	0x00000000	0.0
159	0x00000000	0.0
160	0x00000000	0.0
161	0x00000000	0.0
162	0x00000000	0.0
163	0x00000000	0.0
164	0x00000000	0.0
165	0x00000000	0.0
166	0x00000000	0.0
167	0x00000000	0.0
168	0x00000000	0.0
169	0x00000000	0.0
170	0x00000000	0.0
171	0x3eaaaaab	0.33333334
172	0x00000000	0.0
173	0x00000000	0.0
174	0x00000000	0.0
175	0x00000000	0.0
176	0x00000000	0.0
177	0x00000000	0.0
178	0x00000000	0.0
179	0x00000000	0.0
180	0x00000000	0.0
181	0x00000000	0.0
182	0x00000000	0.0
183	0x00000000	0.0
184	0x00000000	0.0
185	0x00000000	0.0
186	0x00000000	0.0
187	0x00000000	0.0
188	0x00000000	0.0
189	0x00000000	0.0
190	0x3f000000	0.5
191	0x00000000	0.0
192	0x00000000	0.0
193	0x00000000	0.0
194	0x00000000	0.0
195	0x00000000	0.0
196	0x00000000	0.0
197	0x00000000	0.0
198	0x00000000	0.0
199	0x00000000	0.0
200	0x00000000	0.0
201	0x00000000	0.0
202	0x00000000	0.0
203	0x00000000	0.0
204	0x00000000	0.0
205	0x00000000	0.0
206	0x00000000	0.0
207	0x00000000	0.0
208	0x00000000	0.0
209	0x3eaaaaab	0.33333334
210	0x00000000	0.0
211	0x00000000	0.0
212	0x00000000	0.0
213	0x00000000	0.0
214	0x00000000	0.0
215	0x00000000	0.0
216	0x00000000	0.0
217	0x00000000	0.0
218	0x00000000	0.0
219	0x00000000	0.0
220	0x00000000	0.0
221	0x00000000	0.0
222	0x00000000	0.0
223	0x00000000	0.0
224	0x00000000	0.0
225	0x00000000	0.0
226	0x00000000	0.0
227	0x00000000	0.0
228	0x3eaaaaab	0.33333334
229	0x00000000	0.0
230	0x00000000	0.0
231	0x00000000	0.0
232	0x00000000	0.0
233	0x00000000	0.0
234	0x00000000	0.0
235	0x00000000	0.0
236	0x00000000	0.0
237	0x00000000	0.0
238	0x00000000	0.0
239	0x00000000	0.0
240	0x00000000	0.0
241	0x00000000	0.0
242	0x00000000	0.0
243	0x00000000	0.0
244	0x00000000	0.0
245	0x00000000	0.0
246	0x00000000	0.0
247	0x3f000000	0.5
248	0x00000000	0.0
249	0x00000000	0.0
250	0x00000000	0.0
251	0x00000000	0.0
252	0x00000000	0.0
253	0x00000000	0.0
254	0x00000000	0.0
255	0x00000000	0.0

data_bn.weight f4 [54]
0	0x3f57ed1b	0.8434617
1	0x3f4d22ba	0.80131114
2	0x3f577076	0.84155977
3	0x3f474e4b	0.7785384
4	0x3f49fd76	0.78902376
5	0x3f58208b	0.84424657
6	0x3f4ab24e	0.7917832
7	0x3f4d42c7	0.8018002
8	0x3f3e7950	0.7440386
9	0x3f50882d	0.8145779
10	0x3f49df65	0.788565
11	0x3f4ad0f6	0.792251
12	0x3f4a5a21	0.79043776
13	0x3f4251b3	0.75905913
14	0x3f4db5e3	0.8035566
15	0x3f547046	0.82983816
16	0x3f509a3b	0.81485337
17	0x3f4d32e1	0.8015576
18	0x3f497816	0.7869886
19	0x3f4682fb	0.7754361
20	0x3f5109f4	0.8165581
21	0x3f4ca2a6	0.7993568
22	0x3f48418a	0.78225005
23	0x3f4f1da1	0.80904585
24	0x3f4d3bad	0.80169183
25	0x3f4e494a	0.8058058
26	0x3f509db5	0.8149064
27	0x3f50ff35	0.81639415
28	0x3f4e0a07	0.8048405
29	0x3f5167be	0.81798923
30	0x3f453f64	0.7704985
31	0x3f4c356b	0.7976901
32	0x3f4ff1aa	0.81228125
33	0x3f535644	0.82553506
34	0x3f52dbc6	0.823666
35	0x3f5607e4	0.8360579
36	0x3f4cc845	0.7999309
37	0x3f52c4ea	0.82331717
38	0x3f4f67bb	0.81017655
39	0x3f4c1988	0.7972646
40	0x3f4c3663	0.7977049
41	0x3f5129fe	0.817047
42	0x3f5110c0	0.81666183
43	0x3f565501	0.83723456
44	0x3f4ae07a	0.79248774
45	0x3f4837b8	0.7821002
46	0x3f57c6f1	0.84287935
47	0x3f4da689	0.8033224
48	0x3f50de19	0.81588894
49	0x3f54f927	0.83192676
50	0x3f4fe813	0.8121349
51	0x3f557592	0.83382523
52	0x3f3e5577	0.7434916
53	0x3f4c16da	0.7972237

data_bn.bias f4 [54]
0	0x26e52e02	1.5902537e-15
1	0xa209022b	-1.856811e-18
2	0x24766b20	5.3433485e-17
3	0x268d6dd3	9.813608e-16
4	0xa1b7014e	-1.2400908e-18
5	0x2460610d	4.8654463e-17
6	0x26d451b9	1.4732606e-15
7	0xa232c5a0	-2.422812e-18
8	0x2422a4da	3.5267785e-17
9	0x27131729	2.0412903e-15
10	0x22fa8a32	6.7908956e-18
11	0x259740d9	2.6238267e-16
12	0x28abdbb6	1.9080098e-14
13	0x247a570f	5.428385e-17
14	0xa5974c83	-2.624617e-16
15	0x26b79173	1.27376e-15
16	0xa29ece1c	-4.3044213e-18
17	0x2476b03c	5.3492023e-17
18	0x270c7b14	1.9495624e-15
19	0x2311d90b	7.906426e-18
20	0x23e86a4a	2.5198506e-17
21	0xa780038b	-3.553098e-15
22	0x2342043e	1.0517659e-17
23	0xa59d1845	-2.7251604e-16
24	0xa62860f8	-5.8418126e-16
25	0xa2a7ff24	-4.553558e-18
26	0xa4d469d5	-9.211963e-17
27	0x2730c61e	2.4532306e-15
28	0x22835123	3.559353e-18
29	0xa45a956e	-4.7397787e-17
30	0xaaa7e295	-2.9822382e-13
31	0xa32b6e95	-9.293345e-18
32	0xa49d21c1	-6.814508e-17
33	0xa612858b	-5.083491e-16
34	0xa3149f14	-8.056782e-18
35	0xa5de468e	-3.855867e-16
36	0x271d9ae9	2.1872104e-15
37	0xa334b322	-9.795752e-18
38	0xa4e63900	-9.984316e-17
39	0x335cc216	5.139926e-08
40	0x22beef83	5.1753196e-18
41	0xa57498c6	-2.1215388e-16
42	0x270c1eac	1.944553e-15
43	0x2280d8ea	3.4924136e-18
44	0x2558bfe7	1.8800033e-16
45	0x2708a425	1.8962774e-15
46	0x23167c6c	8.157864e-18
47	0x22bf1fec	5.1804452e-18
48	0x2722e888	2.2608072e-15
49	0x22ea9f3a	6.3594415e-18
50	0xa5a4737e	-2.8527726e-16
51	0xa782615e	-3.6187814e-15
52	0x248115aa	5.598153e-17
53	0xa5ba207a	-3.2287864e-16

data_bn.running_mean f4 [54]
0	0x39c5dc52	0.0003773892
1	0xbd3ea7af	-0.046546634
2	0x3d031649	0.032003675
3	0x3a7e51a7	0.0009701498
4	0xbd337f47	-0.043822553
5	0x3d007ffe	0.031372063
6	0xba859fef	-0.0010194759
7	0xbd33c7e4	-0.043891802
8	0x3cea8729	0.028628903
9	0xbb3814c6	-0.0028088554
10	0xbd2bf6ba	-0.041983344
11	0x3cea32d9	0.0285887
12	0xbb89dc6b	-0.004207184
13	0xbd28d1f3	-0.04121585
14	0x3cf985df	0.030459343
15	0x3b411692	0.0029462916
16	0xbd32f3b5	-0.04368945
17	0x3ce88d33	0.028387642
18	0x3b960243	0.0045779063
19	0xbd2a7cc8	-0.041622907
20	0x3ce49808	0.027904525
21	0x3bb9f07a	0.005674419
22	0xbd2619c8	-0.04055193
23	0x3ce5049d	0.027956301
24	0xb9bef1b7	-0.00036419716
25	0xbd1545e9	-0.036443625
26	0x3cd38281	0.025819065
27	0xbb1a37c4	-0.0023531774
28	0xbd0a7f11	-0.033812586
29	0x3ce5da74	0.028058268
30	0xbaa7cc62	-0.0012802
31	0xbcf88dfc	-0.03034114
32	0x3cdfde24	0.027327605
33	0x3b09c7de	0.002102367
34	0xbd14bb84	-0.03631164
35	0x3cd487af	0.025943605
36	0x3b61055e	0.0034335474
37	0xbd097cc0	-0.033566236
38	0x3ce08b23	0.027410096
39	0x3b0dc62c	0.0021633012
40	0xbcfa25f1	-0.03053567
41	0x3cca36e9	0.024684386
42	0xb91a23a1	-0.00014699857
43	0xbd427922	-0.047478803
44	0x3d067fe7	0.03283682
45	0x3a9a0d03	0.0011753145
46	0xbd41cda3	-0.04731525
47	0x3d05a053	0.0326236
48	0x3a2ded13	0.0006634753
49	0xbd37f887	-0.04491475
50	0x3c42c3de	0.011887519
51	0x3b290a92	0.0025793654
52	0xbd3fefa0	-0.046859384
53	0x3cd801b6	0.026368003

data_bn.running_var f4 [54]
0	0x3b155ee7	0.0022792162
1	0x3b1b1695	0.0023664583
2	0x3c5d1a73	0.0134950755
3	0x3b105f56	0.002202948
4	0x3b040666	0.0020145415
5	0x3c5426c0	0.012948692
6	0x3b2b02d8	0.0026094224
7	0x3b04996b	0.0020233046
8	0x3c2f09bd	0.010683474
9	0x3b486f41	0.003058389
10	0x3afd5915	0.0019328917
11	0x3c2e0755	0.010621865
12	0x3b638b26	0.003472039
13	0x3b010f7c	0.0019693067
14	0x3c45d30d	0.012074244
15	0x3af95dab	0.0019025108
16	0x3b0361de	0.0020047347
17	0x3c2e7b8c	0.010649573
18	0x3ae3f653	0.0017392136
19	0x3af8e315	0.0018988574
20	0x3c2b8778	0.01046931
21	0x3ae6d524	0.0017611128
22	0x3b06ca43	0.0020567335
23	0x3c30cc1d	0.010790852
24	0x3b1f181a	0.002427584
25	0x3b0a48d4	0.0021100538
26	0x3c0ed9da	0.008718932
27	0x3b40a9f9	0.0029398187
28	0x3b2869b9	0.0025697781
29	0x3c2f71f3	0.01070832
30	0x3b2c41d6	0.0026284358
31	0x3b5eeb79	0.0034014864
32	0x3c289cb0	0.010291263
33	0x3b02f90e	0.0019984874
34	0x3b0956fb	0.0020956385
35	0x3c0f3392	0.008740323
36	0x3afbe84e	0.0019219012
37	0x3b234088	0.002491029
38	0x3c2641e3	0.010147545
39	0x3b0237c7	0.0019869672
40	0x3b531817	0.0032210404
41	0x3c0aa01c	0.008461025
42	0x3b1cd0e9	0.002392823
43	0x3b25e052	0.0025310707
44	0x3c68677f	0.014184832
45	0x3b0c5fb4	0.0021419348
46	0x3b23a542	0.0024970328
47	0x3c66d603	0.01408911
48	0x3b1f1bc5	0.0024278027
49	0x3b20d920	0.002454348
50	0x3bce94d9	0.006304365
51	0x3aff823f	0.0019493772
52	0x3b1ff25a	0.0024405927
53	0x3c2c87b4	0.010530401

fai_gcn_networks.0.gcn.conv.weight f4 [96, 3, 1, 1]
0	0xa13873e5	-6.249501e-19
1	0x1f1dbc76	3.3401934e-20
2	0x21176bef	5.130364e-19
3	0xa9e6089f	-1.02155473e-13
4	0x2c150e30	2.118205e-12
5	0xab2c8c30	-6.1301225e-13
6	0xad1651ad	-8.5446485e-12
7	0xac6fd906	-3.4084415e-12
8	0x2bcf0461	1.470945e-12
9	0x2f98075a	2.7653863e-10
10	0xb1123939	-2.1278324e-09
11	0x2e3a5e8d	4.237548e-11
12	0xa134a873	-6.1209313e-19
13	0xa196e1f4	-1.0224205e-18
14	0xa117354b	-5.1231323e-19
15	0x2c6bef2c	3.3528276e-12
16	0x2ec05850	8.7468366e-11
17	0x2d50b9fa	1.1864726e-11
18	0x2ee15c67	1.02482293e-10
19	0x30d3309c	1.5366086e-09
20	0xad246019	-9.343659e-12
21	0xa8ad94aa	-1.9271331e-14
22	0xa7561e62	-2.9714936e-15
23	0xa70a94af	-1.9231949e-15
24	0x2255e2c3	2.898693e-18
25	0xa1b32407	-1.2139048e-18
26	0x235320fd	1.14453185e-17
27	0xad784803	-1.4113158e-11
28	0xaec22f6a	-8.830521e-11
29	0x34a22bd6	3.0206746e-07
30	0xa6182b13	-5.279397e-16
31	0xa64ef246	-7.179895e-16
32	0x25044981	1.1474079e-16
33	0xaa8ee3c5	-2.5382314e-13
34	0xab695c25	-8.2906105e-13
35	0xab799b54	-8.867813e-13
36	0xad6b660c	-1.3380862e-11
37	0xad94ecd5	-1.6930827e-11
38	0xada9a015	-1.9284166e-11
39	0xadc5e572	-2.2498201e-11
40	0x2d815711	1.4704267e-11
41	0xac83b35c	-3.743157e-12
42	0x37241be0	9.781652e-06
43	0x2f2e2825	1.583947e-10
44	0xad34df23	-1.0281362e-11
45	0x2e0c919c	3.196164e-11
46	0x2ff4da29	4.4538354e-10
47	0x2ae6d6dd	4.10053e-13
48	0x2cd7bcba	6.1316204e-12
49	0xac99b76d	-4.368886e-12
50	0xac8a7470	-3.935123e-12
51	0x2cce1583	5.8572604e-12
52	0x2d621476	1.2851156e-11
53	0x2e2bc1a4	3.9052886e-11
54	0xac8db20b	-4.0272278e-12
55	0xaaedc942	-4.2239308e-13
56	0x2cf1377d	6.8557924e-12
57	0xa7c7c34b	-5.5445333e-15
58	0xa4f9f62d	-1.08403574e-16
59	0x23ff3b35	2.767223e-17
60	0xace58ab3	-6.52397e-12
61	0x2de6ce71	2.6239651e-11
62	0xadbb83f3	-2.1318036e-11
63	0xaff03be7	-4.369831e-10
64	0xa8b43b26	-2.0009666e-14
65	0xa9a26fdf	-7.213652e-14
66	0x2cdc3f66	6.2598147e-12
67	0xacb232df	-5.064712e-12
68	0xac3567d1	-2.5779277e-12
69	0xaccf1580	-5.885681e-12
70	0xac9dafcc	-4.4817258e-12
71	0x2c1da0d1	2.2400313e-12
72	0xab9e3acc	-1.1242895e-12
73	0x2b9e4877	1.1246688e-12
74	0x2b3dd176	6.7436974e-13
75	0xb4d81cc8	-4.0254076e-07
76	0x2e2766fb	3.806287e-11
77	0xabd233bd	-1.4935758e-12
78	0xac65065f	-3.2546394e-12
79	0x2be719cd	1.6420698e-12
80	0xaa83aaa7	-2.3388688e-13
81	0x21e444eb	1.5468123e-18
82	0xa1378403	-6.217753e-19
83	0x22cc1286	5.5313923e-18
84	0xad97db85	-1.7264199e-11
85	0xad9922ec	-1.7409595e-11
86	0x2c91076a	4.121971e-12
87	0x2d03d20d	7.4931285e-12
88	0x2d815abc	1.4705896e-11
89	0x3486c328	2.510144e-07
90	0xadb3d5e4	-2.044493e-11
91	0xaef2902a	-1.10304946e-10
92	0xad1dda77	-8.972926e-12
93	0x2420ab3e	3.4839517e-17
94	0x276137d2	3.1255283e-15
95	0xa57ba122	-2.1825374e-16
96	0xa12d7635	-5.8771126e-19
97	0x20328498	1.5121058e-19
98	0x2001fdbc	1.1010679e-19
99	0xaaca0708	-3.5887287e-13
100	0xac899b16	-3.910992e-12
101	0x2c7c8452	3.5884806e-12
102	0xacbe80e1	-5.4144332e-12
103	0x312c0a4c	2.5035147e-09
104	0x2c451e2d	2.8012135e-12
105	0x2e604282	5.0990774e-11
106	0xaf996d2e	-2.7908115e-10
107	0xb05c880f	-8.0228885e-10
108	0xa146271e	-6.713678e-19
109	0xa0e68278	-3.9049853e-19
110	0xa00cdc15	-1.193128e-19
111	0x2d078b17	7.704746e-12
112	0xae6acb55	-5.3386035e-11
113	0x2d50c506	1.1867179e-11
114	0x2f061ae9	1.219679e-10
115	0x30b5f112	1.3238e-09
116	0xad538574	-1.2023594e-11
117	0xa912e701	-3.2618876e-14
118	0x27667f2d	3.1987854e-15
119	0x277118fb	3.345901e-15
120	0xa1110592	-4.9135283e-19
121	0xa222e54b	-2.207648e-18
122	0x25c28e72	3.375016e-16
123	0xad86d2a1	-1.5327574e-11
124	0x2efefdc0	1.1595658e-10
125	0xaef3f9be	-1.1094724e-10
126	0xa64b6a06	-7.057346e-16
127	0x25334aa0	1.5551059e-16
128	0x2581f1a4	2.2541675e-16
129	0x2c7df80d	3.6091158e-12
130	0xab0dbbd5	-5.035393e-13
131	0x2d12a5fd	8.335996e-12
132	0xada774c5	-1.9037558e-11
133	0xad2ce2f8	-9.827465e-12
134	0x2d9905ca	1.7396657e-11
135	0xaddf12d3	-2.5360524e-11
136	0x2de3cb05	2.5897071e-11
137	0xad091a05	-7.793326e-12
138	0x2ef275b5	1.1025795e-10
139	0x2f2c6822	1.5680304e-10
140	0x2a5873a7	1.9224779e-13
141	0x2e980237	6.912553e-11
142	0x2f042e9c	1.2021889e-10
143	0xacf106d1	-6.8503887e-12
144	0x2b8c745a	9.979892e-13
145	0xac9df62f	-4.4895402e-12
146	0x2d6ec390	1.3572157e-11
147	0xac93a391	-4.196151e-12
148	0x2db2d0fe	2.0329068e-11
149	0xadf44b58	-2.7773048e-11
150	0x2cd2973e	5.9853502e-12
151	0x2b1900f3	5.4357837e-13
152	0x2c95dfe3	4.259691e-12
153	0x2388a148	1.4813455e-17
154	0x24536891	4.5841903e-17
155	0x231b9464	8.43399e-18
156	0xac004290	-1.8226844e-12
157	0xae4c9c0b	-4.6522824e-11
158	0xada06862	-1.823625e-11
159	0xaa2c8f4e	-1.5326388e-13
160	0xaabd5736	-3.363366e-13
161	0xb20fbe88	-8.367017e-09
162	0xb115e7d0	-2.1814124e-09
163	0xacd76f0f	-6.1229975e-12
164	0xadbc29ee	-2.1391746e-11
165	0xac29928d	-2.4097696e-12
166	0x2d642012	1.29674205e-11
167	0x2c9001c6	4.092923e-12
168	0x2b03651e	4.668088e-13
169	0xab3661c2	-6.4795055e-13
170	0xae221152	-3.684992e-11
171	0x2e200cfc	3.639132e-11
172	0x2e45e70b	4.499782e-11
173	0xacd30e45	-5.998565e-12
174	0xac8c4909	-3.987148e-12
175	0x2b78748b	8.8269035e-13
176	0xaa69c979	-2.0764457e-13
177	0xa1aa5502	-1.1542149e-18
178	0x21e9f959	1.5854696e-18
179	0x9feb592a	-9.967388e-20
180	0xadb27b6d	-2.029107e-11
181	0xae390e37	-4.2076755e-11
182	0xac948454	-4.2211044e-12
183	0xb11a20f6	-2.2428686e-09
184	0x2e587ec4	4.9225304e-11
185	0xae1daee5	-3.5853005e-11
186	0xae669ae5	-5.243352e-11
187	0xae066125	-3.0554354e-11
188	0x2d9cb537	1.7815622e-11
189	0xa62f2a07	-6.077228e-16
190	0x25874713	2.346693e-16
191	0xa5840e55	-2.2908062e-16
192	0x1e73cb15	1.2906309e-20
193	0x1f37c6c7	3.8916182e-20
194	0x9e96fd1c	-1.5986551e-20
195	0xaa763da9	-2.1870582e-13
196	0x2a5e8838	1.9764821e-13
197	0x2b4a2d4c	7.182768e-13
198	0xac1e28f1	-2.2475877e-12
199	0xab53066d	-7.4971176e-13
200	0x2b104fb7	5.1269704e-13
201	0xad9c8dd6	-1.7798134e-11
202	0xb056ac3e	-7.809752e-10
203	0xafd42c32	-3.8593978e-10
204	0xa14d13a9	-6.948272e-19
205	0xa140ffd7	-6.539073e-19
206	0xa09a22fc	-2.6111765e-19
207	0x2e5b8e12	4.992102e-11
208	0x2e0cf65c	3.2051126e-11
209	0xabf48a09	-1.7375555e-12
210	0x2e6de246	5.4088532e-11
211	0x2e094db3	3.1219204e-11
212	0xada644e7	-1.8902614e-11
213	0x28545684	1.1787124e-14
214	0xa7658c29	-3.1856115e-15
215	0x2648c9b9	6.9662324e-16
216	0xa11f19b7	-5.390533e-19
217	0x20adc187	2.9435406e-19
218	0x9f148720	-3.1451992e-20
219	0xad14da4c	-8.461298e-12
220	0x2e81a1c7	5.894978e-11
221	0xae69120c	-5.2994095e-11
222	0xa53c7df9	-1.6349082e-16
223	0xa5ca65c4	-3.5110373e-16
224	0x24ec35d6	1.0243989e-16
225	0xaa9c69cb	-2.7784575e-13
226	0xab4141bb	-6.8658593e-13
227	0x2ec5a73d	8.98823e-11
228	0xab9ac3b9	-1.0996682e-12
229	0xaf24f5be	-1.5003018e-10
230	0x2db90c89	2.1037632e-11
231	0x28fd3362	2.8110926e-14
232	0xab5c00e6	-7.816095e-13
233	0xadf1272d	-2.7415925e-11
234	0x2e2dcd5e	3.951805e-11
235	0x2eb87f0c	8.389919e-11
236	0x2d1c063c	8.868958e-12
237	0x2d4ffe8c	1.18231085e-11
238	0xacbaa3d2	-5.3046257e-12
239	0xac7af0ed	-3.5660877e-12
240	0x2c670d23	3.2834367e-12
241	0xaf4f03a6	-1.8827837e-10
242	0xadb07d7a	-2.0064606e-11
243	0x2ac56103	3.5061545e-13
244	0x2e0cbe58	3.2001374e-11
245	0xadaa03c7	-1.932844e-11
246	0x2d8d1292	1.6038091e-11
247	0xacf0fb91	-6.8491397e-12
248	0xada1170d	-1.8313817e-11
249	0x22300008	2.3852464e-18
250	0xa398d62a	-1.6570575e-17
251	0x2294b066	4.030225e-18
252	0xae004238	-2.9162645e-11
253	0xacffd73d	-7.271432e-12
254	0x2b6a5b00	8.325979e-13
255	0x2a36e6f3	1.6244974e-13

fai_gcn_networks.0.gcn.conv.bias f4 [96]
0	0x2bfb3195	1.7848384e-12
1	0xabdaa7f0	-1.5536444e-12
2	0xad5e4cba	-1.2636276e-11
3	0xb17f62c0	-3.7163517e-09
4	0x2ca25f1b	4.6148758e-12
5	0xafee2fd2	-4.3325926e-10
6	0x304079ac	7.00221e-10
7	0x29bf1680	8.486007e-14
8	0x2dd891d4	2.4621118e-11
9	0xaf07029f	-1.227911e-10
10	0x3109a0b3	2.002747e-09
11	0xad0ebe23	-8.113984e-12
12	0x30bfa133	1.3942895e-09
13	0xaef38a79	-1.1074958e-10
14	0xaf9e9663	-2.884689e-10
15	0xad0bc3d5	-7.944719e-12
16	0xaf3f4351	-1.7395264e-10
17	0x2e11ded4	3.3167094e-11
18	0x2f1d0113	1.4279448e-10
19	0x2fd9d157	3.9620815e-10
20	0xb0bc4dcf	-1.3700915e-09
21	0xab2efef1	-6.217102e-13
22	0x2d626f02	1.2871261e-11
23	0xaeb5e6e2	-8.27194e-11
24	0xb1e0c842	-6.5420247e-09
25	0x2de8a7c2	2.6449846e-11
26	0xac435d90	-2.7763104e-12
27	0x2f072c57	1.2293931e-10
28	0xaf214397	-1.4666877e-10
29	0x2e10ad87	3.2895933e-11
30	0xaf7bcd45	-2.2901243e-10
31	0xb22b6b8c	-9.977963e-09
32	0xaaa7c931	-2.9804764e-13
33	0x2bdfe0fc	1.5907549e-12
34	0xad838125	-1.4950327e-11
35	0xb14e8e24	-3.0057743e-09
36	0x2c330edd	2.544568e-12
37	0xb0709d7e	-8.75353e-10
38	0x30984bba	1.1080978e-09
39	0x29f80db7	1.10157916e-13
40	0x2e08c67f	3.109912e-11
41	0xafb03f2a	-3.2059094e-10
42	0x3191d14a	4.243849e-09
43	0xac4a7a35	-2.8773765e-12
44	0xb01cb7a7	-5.7013455e-10
45	0xaf13ec5c	-1.3453544e-10
46	0xaf9c0a8d	-2.8383731e-10
47	0xad96cba7	-1.7143465e-11
48	0xaf48184e	-1.8198529e-10
49	0xae447269	-4.4666857e-11
50	0x2f90dbc0	2.634959e-10
51	0x30abe254	1.2506214e-09
52	0xb1653ae1	-3.3357355e-09
53	0xab86137c	-9.526681e-13
54	0x2d73eb67	1.3865221e-11
55	0xaeaa31a0	-7.73952e-11
56	0xb1f8cfa1	-7.2413546e-09
57	0x2d489e5d	1.14038475e-11
58	0xacc0aafd	-5.4759517e-12
59	0xae932f4f	-6.69319e-11
60	0xaf5d3fba	-2.0122473e-10
61	0x2eb0659f	8.021605e-11
62	0xaf94cc8e	-2.7066388e-10
63	0x31c694bf	5.779469e-09
64	0xac48b6b0	-2.8523121e-12
65	0xae093e9d	-3.1205805e-11
66	0xad4fb1f0	-1.1806098e-11
67	0xb0ea533b	-1.7049396e-09
68	0xacd87058	-6.151562e-12
69	0x302a2eb2	6.1912e-10
70	0xafbdd496	-3.452995e-10
71	0x2941bedc	4.3020153e-14
72	0x2ddba257	2.496951e-11
73	0x2e0a73a2	3.148027e-11
74	0x3173a81c	3.5456713e-09
75	0x2cbc6c20	5.3552857e-12
76	0xaff372fe	-4.428315e-10
77	0x2e37ac4e	4.176242e-11
78	0x2f64e852	2.0819016e-10
79	0xae2fdd76	-3.998709e-11
80	0x2f207cf0	1.4596302e-10
81	0x2cc92548	5.7169026e-12
82	0x2ea18fff	7.347011e-11
83	0xaf38a53f	-1.679341e-10
84	0xb167e1f3	-3.3743361e-09
85	0xab155a41	-5.3060686e-13
86	0x2c7e3e56	3.6130174e-12
87	0x2e09ec2f	3.1359967e-11
88	0x300fd6b7	5.2328225e-10
89	0xadc0ecb6	-2.1932994e-11
90	0xad01d3db	-7.379842e-12
91	0xaf0c1ae0	-1.2742474e-10
92	0x2e8135de	5.8758096e-11
93	0xabe3e3b5	-1.6192521e-12
94	0xafadfc13	-3.1647626e-10
95	0xb2818f60	-1.5082776e-08

fai_gcn_networks.1.gcn.conv.weight f4 [192, 32, 1, 1]
0	0x9b1069fe	-1.1945649e-22
1	0x9820606a	-2.0728192e-24
2	0x1b4cb7c2	1.693386e-22
3	0x9f9217c1	-6.18727e-20
4	0x999b7513	-1.607391e-23
5	0xaf5fc4c3	-2.0351636e-10
6	0x1ddeb5a7	5.8950735e-21
7	0x98ce5992	-5.3340195e-24
8	0x1ae88c13	9.6179253e-23
9	0x1e2e3f24	9.2245405e-21
10	0xa11f8e2a	-5.405945e-19
11	0x9aed0f30	-9.804544e-23
12	0x9da70d51	-4.42183e-21
13	0x97d1dc8b	-1.3561981e-24
14	0xa531cc15	-1.5421448e-16
15	0x1d28ed08	2.2357157e-21
16	0x1d2f1e30	2.3176664e-21
17	0x1bccd7dd	3.3888467e-22
18	0x9e8ba2c4	-1.4784516e-20
19	0x9e639207	-1.2047478e-20
20	0x9ce96f50	-1.544742e-21
21	0x1f320619	3.769801e-20
22	0x9e9370b7	-1.5610848e-20
23	0x992f5c10	-9.06588e-24
24	0xa0c4a939	-3.3315674e-19
25	0xa20ed59e	-1.9357677e-18
26	0x97117283	-4.699656e-25
27	0x9c04c376	-4.3927764e-22
28	0x1bc225e2	3.211909e-22
29	0xa26bc8c8	-3.1954732e-18
30	0x20780467	2.1007874e-19
31	0x20659283	1.9445531e-19
32	0x1cf12809	1.5958391e-21
33	0x9db3cf80	-4.7595455e-21
34	0x9fd4ca16	-9.0119816e-20
35	0xa103ea0c	-4.4694285e-19
36	0xa6457280	-6.850328e-16
37	0x1c0c7fd6	4.648734e-22
38	0xa01f955b	-1.3517241e-19
39	0xb4a0e167	-2.9966324e-07
40	0x1c182415	5.0339216e-22
41	0x22a2787e	4.4037764e-18
42	0x9fc8973f	-8.495351e-20
43	0x1b859c18	2.2103878e-22
44	0x1f549f74	4.5024643e-20
45	0xb251815d	-1.2194815e-08
46	0x243ec18f	4.1363633e-17
47	0xa50f4aac	-1.2428573e-16
48	0x34fbca4d	4.6899586e-07
49	0x1d9d6c70	4.1669676e-21
50	0x1f5dde06	4.6982224e-20
51	0xa102f3c2	-4.4368324e-19
52	0xa0782101	-2.1017337e-19
53	0x207033e4	2.034596e-19
54	0x1f63132c	4.8084978e-20
55	0x1f812928	5.470171e-20
56	0x212a281a	5.7651314e-19
57	0x2231a083	2.4072947e-18
58	0xb1c48e40	-5.7205227e-09
59	0x9e87f8e5	-1.4396621e-20
60	0x1c506031	6.894575e-22
61	0x228b1337	3.769637e-18
62	0x1d55e706	2.8309752e-21
63	0x25b264b1	3.094631e-16
64	0x9b59b3b9	-1.8007891e-22
65	0x9c62acd0	-7.500048e-22
66	0xa007d24a	-1.1504524e-19
67	0x20b68313	3.0918737e-19
68	0xb5921e24	-1.088662e-06
69	0x19e6f5d0	2.3880725e-23
70	0x1f8c05e2	5.930204e-20
71	0x19497752	1.0415553e-23
72	0x9b0dce0c	-1.1729824e-22
73	0xa32db5ec	-9.416872e-18
74	0x1d48eec8	2.6593227e-21
75	0x3138cde0	2.689255e-09
76	0x1e86be5f	1.4266538e-20
77	0x9a82387c	-5.3857995e-23
78	0xa6adc48d	-1.2057562e-15
79	0x9f436386	-4.137518e-20
80	0x1dbe5720	5.0382666e-21
81	0x1cbbddd3	1.2431962e-21
82	0x2f5b64e8	1.9953783e-10
83	0x1ea7e91d	1.7778226e-20
84	0xa6937156	-1.0230894e-15
85	0x25f78a2a	4.2941293e-16
86	0x9fe052ef	-9.500489e-20
87	0x2ea6bf13	7.5827476e-11
88	0x20efa2b2	4.0595838e-19
89	0xa354c1e8	-1.1533604e-17
90	0x1af02647	9.9323514e-23
91	0x1c8ed409	9.451582e-22
92	0x9d938944	-3.9052505e-21
93	0xa11b2dac	-5.257649e-19
94	0x1f6abaff	4.9706107e-20
95	0x2097dcd5	2.572653e-19
96	0xa6fc2501	-1.7496043e-15
97	0x27c2708c	5.396784e-15
98	0x2aff33eb	4.5333125e-13
99	0x2b4c3e27	7.2561613e-13
100	0xa6126b99	-5.079975e-16
101	0x2b2fdb55	6.2476874e-13
102	0x2a210593	1.4301607e-13
103	0x2424c803	3.5731248e-17
104	0xa7c51d0a	-5.470997e-15
105	0x2dd5c79b	2.4303939e-11
106	0xaa8039d1	-2.2777486e-13
107	0x2746744a	2.754106e-15
108	0xaa3a8a3a	-1.6568076e-13
109	0x27f77d90	6.8692407e-15
110	0x305fa3de	8.1359797e-10
111	0x26c2bec6	1.3513163e-15
112	0xa94bf8ba	-4.529079e-14
113	0xa7c71c82	-5.5264504e-15
114	0x295e3153	4.9336684e-14
115	0x2b664a55	8.181557e-13
116	0xab9b9d5d	-1.105709e-12
117	0x2b7cbf21	8.979363e-13
118	0xab0019ff	-4.551081e-13
119	0x27ba6a2a	5.1740474e-15
120	0xad878729	-1.5407746e-11
121	0x2dff6375	2.9034311e-11
122	0x2604c95f	4.606961e-16
123	0xa9924a15	-6.4965536e-14
124	0x283ad3d1	1.03710045e-14
125	0x2e4e76b9	4.6944424e-11
126	0x2a314533	1.5744766e-13
127	0xabad6290	-1.2319746e-12
128	0x99f58240	-2.5385014e-23
129	0x1bd221f4	3.4763527e-22
130	0x1e0f36c7	7.581685e-21
131	0x9f8afdab	-5.886493e-20
132	0x9d188be7	-2.018936e-21
133	0x9b7cc809	-2.0909586e-22
134	0x9e9d4632	-1.6652054e-20
135	0x191ac7e2	8.0019794e-24
136	0x9a3ce390	-3.9061312e-23
137	0xa19d2adb	-1.0650078e-18
138	0x2070a7c0	2.0384295e-19
139	0x9f062440	-2.840559e-20
140	0x1f708fe5	5.0941004e-20
141	0x9a144b26	-3.0666387e-23
142	0x2f56c0e9	1.9531722e-10
143	0xab502c34	-7.395779e-13
144	0x1ce76819	1.5313206e-21
145	0x9d353dfe	-2.39872e-21
146	0x1ca80bc7	1.1120352e-21
147	0x1e376787	9.709348e-21
148	0x9fa21478	-6.864353e-20
149	0x9e0da9ed	-7.499618e-21
150	0x1ec30b85	2.0651192e-20
151	0x1ba084bb	2.6555555e-22
152	0x20e5c013	3.8921213e-19
153	0x229809ca	4.1210047e-18
154	0x9a8bf420	-5.788346e-23
155	0x9d907d09	-3.8245766e-21
156	0xa16605f2	-7.79349e-19
157	0x20a4de64	2.7929846e-19
158	0x9e467f2d	-1.0508332e-20
159	0xb6903796	-4.2980055e-06
160	0x29146867	3.2953156e-14
161	0x2907c825	3.014962e-14
162	0x2c3cb81e	2.6818612e-12
163	0x2cb27435	5.071966e-12
164	0xa6fa8385	-1.7382883e-15
165	0xad3683ea	-1.0374793e-11
166	0x2b3a1149	6.610446e-13
167	0xa5acf7a6	-3.0005057e-16
168	0xa6313ab2	-6.148876e-16
169	0x2f06a426	1.2245546e-10
170	0x2d553573	1.2119516e-11
171	0x289796dd	1.6829794e-14
172	0xac145e5e	-2.108445e-12
173	0xb166556f	-3.3517968e-09
174	0x332b6320	3.9904194e-08
175	0x298632c2	5.9596005e-14
176	0x2aefed51	4.26196e-13
177	0x2a013bb8	1.1478221e-13
178	0xa82c4d87	-9.564729e-15
179	0x2c8b3f98	3.957678e-12
180	0x2ddbb9bb	2.4979898e-11
181	0x2caadc94	4.8561797e-12
182	0x2bcd1c6c	1.4574015e-12
183	0xb444bf76	-1.8323576e-07
184	0x2dc462c9	2.232649e-11
185	0xafc3976c	-3.5577885e-10
186	0x2764f6e8	3.1775204e-15
187	0xa989d1f5	-6.120444e-14
188	0x29a8d1c7	7.497089e-14
189	0x2eeba7fe	1.0716404e-10
190	0x2a5b7605	1.9492054e-13
191	0x2e4b3a3f	4.620859e-11
192	0xa85b9145	-1.21884424e-14
193	0xb12104bf	-2.3431281e-09
194	0x2aa18071	2.868847e-13
195	0x2c083511	1.935622e-12
196	0x270f040c	1.984743e-15
197	0x2ac40680	3.4821104e-13
198	0xac465885	-2.818663e-12
199	0x2570ef8e	2.0897846e-16
200	0xa78b4099	-3.8650287e-15
201	0x2dcab0b0	2.3043206e-11
202	0x2bcab879	1.4404165e-12
203	0x27730cd3	3.3729976e-15
204	0xaa877995	-2.4065182e-13
205	0x281fbdde	8.867444e-15
206	0xb1915d1a	-4.23064e-09
207	0x2b08330b	4.838774e-13
208	0xaa70f593	-2.1401483e-13
209	0x28ee7e9a	2.6478213e-14
210	0x2b63c6d4	8.092253e-13
211	0x2ae3c5c2	4.0460522e-13
212	0x2b4ff85a	7.388583e-13
213	0x2b25c874	5.889796e-13
214	0x2a74147b	2.1678659e-13
215	0x27b4204a	4.9995044e-15
216	0x2c98f986	4.3478025e-12
217	0x2e726716	5.5115988e-11
218	0x261d5f0a	5.459912e-16
219	0x2d47cba7	1.135706e-11
220	0x285d25c7	1.2276156e-14
221	0x2dbc73cf	2.1424555e-11
222	0xaa5cf50c	-1.9624943e-13
223	0x2d459667	1.12315495e-11
224	0x27cbb942	5.6544675e-15
225	0x28d82a37	2.3999125e-14
226	0xab5650f8	-7.614044e-13
227	0xad1e4d26	-8.998391e-12
228	0xa81b373b	-8.616205e-15
229	0xac16830d	-2.138903e-12
230	0x2b833c62	9.324869e-13
231	0xa74a7327	-2.8095556e-15
232	0xa87bc660	-1.3976315e-14
233	0x2ef9c68d	1.1358479e-10
234	0x2c6fd9c6	3.4084831e-12
235	0x2890de04	1.6083495e-14
236	0xab960d82	-1.066189e-12
237	0x290b44da	3.092392e-14
238	0x32056ec2	7.766802e-09
239	0x2b78f209	8.844319e-13
240	0x2aa74f2c	2.9720096e-13
241	0x28cca370	2.271943e-14
242	0xa94187dc	-4.2972448e-14
243	0x2c1ab41d	2.19847e-12
244	0x2cf838df	7.054898e-12
245	0x2c9b6715	4.4168094e-12
246	0x2c736a31	3.4591325e-12
247	0xb084441a	-9.62362e-10
248	0x2d0aedae	7.897167e-12
249	0xafb75341	-3.3346662e-10
250	0x279de850	4.3828127e-15
251	0x29d32481	9.376615e-14
252	0x29c2e80d	8.655585e-14
253	0x3016d164	5.4867244e-10
254	0x2a886726	2.4230027e-13
255	0x2c4616c7	2.8150136e-12

fai_gcn_networks.1.gcn.conv.bias f4 [192]
0	0xae30867c	-4.0137213e-11
1	0x2f0afe6b	1.2641414e-10
2	0x2f7f4073	2.3215012e-10
3	0x3ab903c2	0.00141155
4	0x2f17f2b0	1.381959e-10
5	0x3bf8bab0	0.0075906143
6	0x3aa22371	0.0012370182
7	0x3bc52756	0.006016652
8	0x2e551c79	4.845588e-11
9	0x2e8fa0b1	6.5314316e-11
10	0x2f39a0b1	1.6882741e-10
11	0x3bb55655	0.005533973
12	0x2e9ba02f	7.077038e-11
13	0x39fa9270	0.0004779282
14	0x3b900f1e	0.0043963334
15	0xae715abb	-5.487764e-11
16	0x2f4e589f	1.8767075e-10
17	0x37293e8e	1.008775e-05
18	0x3c003fd5	0.007827719
19	0x3050e3f8	7.599392e-10
20	0x390cf6a4	0.00013443321
21	0x3bdfbeb1	0.006828152
22	0x3b4ce238	0.0031262767
23	0x3771b60d	1.4407106e-05
24	0x3b83b663	0.004019545
25	0xb09ca674	-1.1397803e-09
26	0xaea8949c	-7.666154e-11
27	0x38c087e1	9.180583e-05
28	0x2ad0b23a	3.7071892e-13
29	0x2c12a39d	2.0838672e-12
30	0xacca9881	-5.7581166e-12
31	0xae1a1843	-3.5037095e-11
32	0x2f2986b2	1.5418314e-10
33	0x3989a836	0.00026256003
34	0x3b53337c	0.0032226732
35	0xaf2063ab	-1.4587324e-10
36	0xaf9350e7	-2.679663e-10
37	0x3a9a61cc	0.0011778413
38	0x2f66e5aa	2.0999971e-10
39	0x391f59db	0.00015196895
40	0x3ab4d133	0.0013795256
41	0xacb2bbc9	-5.0799126e-12
42	0xaef56996	-1.1160066e-10
43	0xae3a5b8b	-4.237281e-11
44	0x3ba5e39c	0.0050625335
45	0x308eb6cf	1.0383817e-09
46	0x3b2aedb5	0.0026081626
47	0x32aed9e9	2.035536e-08
48	0x3b3bfe2c	0.0028685434
49	0x3a391564	0.00070603774
50	0x2ea5ab13	7.53372e-11
51	0x3ab91c35	0.0014122786
52	0xaa1623a2	-1.3335039e-13
53	0x9d7a7b92	-3.3151109e-21
54	0x2f8003b1	2.3285687e-10
55	0xb1a06e2a	-4.669137e-09
56	0xaf70de01	-2.1906744e-10
57	0x3aadb24c	0.0013251989
58	0x3afc28dc	0.0019238251
59	0xad4204c5	-1.1028682e-11
60	0x3b51d60e	0.0032018456
61	0x2ea778ae	7.615718e-11
62	0x2f35c042	1.6530158e-10
63	0xaf2fdc3c	-1.59944e-10
64	0xae11eb4e	-3.3178175e-11
65	0xac44fc7d	-2.7993434e-12
66	0x2f1bf8af	1.4185518e-10
67	0x3afcd32f	0.0019289012
68	0x2f2c71ee	1.5683785e-10
69	0x3c24364a	0.010022709
70	0x3add82fd	0.00169
71	0x3c035423	0.008015665
72	0xae010f25	-2.9344655e-11
73	0x2e27c0d1	3.814266e-11
74	0x2fd2b3ba	3.832648e-10
75	0x3bf23024	0.0073909927
76	0xad3c9eb0	-1.07217984e-11
77	0x3a2bdc1d	0.0006555932
78	0x3bc24491	0.005928584
79	0xae5ebb2d	-5.06432e-11
80	0x2f923a5d	2.6598715e-10
81	0x3769bcd4	1.3931847e-05
82	0x3c27288e	0.01020254
83	0x30b037f0	1.2821584e-09
84	0x3941bee0	0.00018477021
85	0x3c13cccd	0.009020996
86	0x3b8b3a6e	0.0042489087
87	0x37a6f99b	1.9904974e-05
88	0x3bb24e37	0.005441453
89	0xb0acd991	-1.2576483e-09
90	0xae856288	-6.0656424e-11
91	0x39047e66	0.00012635588
92	0x2a7e48e0	2.2585015e-13
93	0xac0904ab	-1.9471462e-12
94	0xace8634b	-6.6048603e-12
95	0xae8a3b05	-6.2859974e-11
96	0x2fc7382c	3.6237802e-10
97	0x39bcc14b	0.0003600217
98	0x3b8f83e7	0.0043797377
99	0xaf60daa6	-2.0450361e-10
100	0xafac6c71	-3.136367e-10
101	0x3ad2d89d	0.0016086284
102	0x3004c5d9	4.830248e-10
103	0x395b4d6d	0.00020914311
104	0x3af716e2	0.0018851424
105	0xacf676bb	-7.0049222e-12
106	0x2f2eb5cd	1.5889796e-10
107	0xae7ef066	-5.796643e-11
108	0x3bdf2a57	0.006810467
109	0x30432b66	7.100226e-10
110	0x3b68a4a9	0.0035498536
111	0x32e0241f	2.6093458e-08
112	0x3b7fbe22	0.003902324
113	0x3a7cd4d3	0.00096447504
114	0x2f15f4a4	1.3638385e-10
115	0x3afd05d2	0.0019304103
116	0xaa5c99ac	-1.9593241e-13
117	0xa6a09488	-1.114249e-15
118	0x2f0396d8	1.1967971e-10
119	0xb1bec1ee	-5.551775e-09
120	0xaf64c2ef	-2.0805734e-10
121	0x3aed4308	0.0018101642
122	0x3b2beb7d	0.0026232891
123	0xac9f979c	-4.535884e-12
124	0x3b8e7d01	0.0043483977
125	0x2f5db373	2.0163586e-10
126	0x2faa77d5	3.1007966e-10
127	0xaf4f21b1	-1.883851e-10
128	0xac60844b	-3.1905752e-12
129	0xaf4420ac	-1.7837704e-10
130	0x301111e9	5.2776145e-10
131	0x3a08d0a9	0.0005219081
132	0xae7b429a	-5.7129947e-11
133	0x3b34e0d7	0.0027599835
134	0x39f07786	0.0004586542
135	0x3b0ede34	0.0021799924
136	0x2fb86d36	3.3547004e-10
137	0x2e30eed8	4.0229903e-11
138	0xafb52c7c	-3.2955316e-10
139	0x3b0307c9	0.0019993654
140	0x2fc3c58e	3.5610664e-10
141	0x3939e294	0.00017727382
142	0x3ad0f9eb	0.0015943622
143	0xaeb8704b	-8.3872985e-11
144	0xadaf4871	-1.9927367e-11
145	0x368064b1	3.8264193e-06
146	0x3b394886	0.0028271987
147	0xb0031fd2	-4.770274e-10
148	0x3850ce84	4.9783397e-05
149	0x3b21b7b9	0.0024676158
150	0x3a961679	0.0011450789
151	0x36b5bdcd	5.416316e-06
152	0x3ac0e697	0.0014717159
153	0xb09852f7	-1.1083036e-09
154	0xaeb0494e	-8.016575e-11
155	0x380e7d5e	3.3972196e-05
156	0x2cb25b5c	5.069207e-12
157	0x2dce1132	2.3427125e-11
158	0x2dba4642	2.1176953e-11
159	0x2feea706	4.3410625e-10
160	0xaf99cdf4	-2.7976876e-10
161	0x38cc6e96	9.748076e-05
162	0x3a9a2467	0.0011760116
163	0x2fcf85f5	3.7748263e-10
164	0x30674aba	8.4143503e-10
165	0x39e54c2b	0.00043735033
166	0xaffd76f2	-4.6104948e-10
167	0x386b7023	5.61328e-05
168	0x3a05cba0	0.000510389
169	0x2c32b02b	2.5393114e-12
170	0xb01f5c37	-5.797491e-10
171	0x2abb100b	3.3229005e-13
172	0x3af1f43a	0.0018459626
173	0xad74e19f	-1.3919892e-11
174	0x3a7bcc29	0.00096053124
175	0x320ab1c5	8.073077e-09
176	0x3a8a0551	0.0010530149
177	0x3989fb7a	0.0002631804
178	0xaec31577	-8.871386e-11
179	0x3a08d4ed	0.00052197167
180	0x2a001f9c	1.137965e-13
181	0x0000001d	4e-44
182	0x300caf2c	5.118064e-10
183	0xb0ad365d	-1.2602858e-09
184	0x301d01a3	5.7118593e-10
185	0x3a00b6e8	0.00049100677
186	0x3a3a6565	0.0007110446
187	0xae544a61	-4.826928e-11
188	0x3a9a3f8a	0.0011768204
189	0xaebce636	-8.590144e-11
190	0xaf0bfa7a	-1.2730964e-10
191	0xaed50167	-9.686368e-11

fai_gcn_networks.1.residual.0.weight f4 [64, 32, 1, 1]
0	0xbc7f773d	-0.015592393
1	0xbc4e3058	-0.012584768
2	0xbb3f9820	-0.002923496
3	0x3d165aa1	0.036707524
4	0x3d1eda92	0.038782664
5	0xbc36b8d2	-0.011152463
6	0x3cd6cc26	0.026220392
7	0x3d04c5bc	0.032415137
8	0xbca29a4e	-0.019848969
9	0xbc859c96	-0.016310018
10	0x3c1670c4	0.009182159
11	0x3d095dad	0.0335366
12	0x3b309054	0.0026941495
13	0xbc251450	-0.010075644
14	0x3cf462fc	0.029832356
15	0x3c86844e	0.01642051
16	0x3d17101d	0.0368806
17	0x3c6fca2f	0.014635607
18	0xbc6b31f0	-0.014355168
19	0x3cb4e6e2	0.02208275
20	0xbc5615a4	-0.013066683
21	0x3c14a1e2	0.009071799
22	0x3cc450d5	0.023964325
23	0xbc040d69	-0.008059838
24	0xbcb0dcaf	-0.021589605
25	0x3c9bd227	0.019021107
26	0xbc856f61	-0.016288461
27	0x3c940c0c	0.01807215
28	0x3b144b99	0.0022628068
29	0x3aa18621	0.0012323299
30	0xbbc05849	-0.0058698994
31	0x3c98c657	0.018649263
32	0x3cc6d901	0.024273397
33	0x3cbc88d2	0.02301446
34	0xbd306eb2	-0.043074317
35	0xbc8b64ae	-0.017015781
36	0x3b6eb50a	0.0036423826
37	0x3c47d9e4	0.012197945
38	0x3d010cfc	0.031506523
39	0x3cdd2749	0.026996272
40	0xbc4425c2	-0.011971893
41	0x3b74178a	0.0037245476
42	0xba5f7d2c	-0.0008525427
43	0xbc9fe60e	-0.019518878
44	0xbd2d836a	-0.042361654
45	0x3c8f5147	0.01749481
46	0xbcedb838	-0.029018506
47	0x3bbfac72	0.0058494145
48	0x3b39befc	0.0028342595
49	0xbb96c4c2	-0.004601092
50	0xbc33c2b5	-0.010971715
51	0xbce4bef0	-0.027923077
52	0x3cee65fb	0.029101362
53	0x3b90ad63	0.0044152006
54	0x3c6da85b	0.014505471
55	0xbd1937fd	-0.03740691
56	0xbc1debe8	-0.009638764
57	0x3c986dc6	0.018607032
58	0xbc2da25b	-0.010597791
59	0x3cdb844f	0.026796488
60	0xbccfc825	-0.025363991
61	0xbd25b23c	-0.04045318
62	0x3c36b418	0.011151336
63	0x3c130c53	0.008975106
64	0xba9538d2	-0.0011384732
65	0xbbb0324d	-0.00537709
66	0x3bb227ad	0.0054368586
67	0x3c8c179b	0.0171011
68	0x3c43c5fc	0.011949059
69	0xbc07f1ff	-0.008297442
70	0x3c675a0a	0.014120588
71	0xbbf424f4	-0.007450694
72	0xbc7dc68c	-0.015489232
73	0x3c7f64e1	0.015588016
74	0xbc16110c	-0.009159338
75	0xbca9f707	-0.020747675
76	0xbc2bcbaf	-0.010485574
77	0x3b5ea58a	0.003397318
78	0xbba81756	-0.005129735
79	0xbc9379c0	-0.01800239
80	0xbc98f82d	-0.018673027
81	0xbd264a8b	-0.040598433
82	0xbb9e9ab5	-0.00484022
83	0xbc9da1ba	-0.019242156
84	0xbcfa7630	-0.030573934
85	0xbce25f3b	-0.0276333
86	0x3c57c85c	0.013170328
87	0xbc9dd27d	-0.019265408
88	0xbc8b2d30	-0.01698932
89	0xbbe07a5b	-0.0068505234
90	0xbbb57789	-0.0055379313
91	0x3c3915eb	0.01129673
92	0x3ce61bf7	0.028089507
93	0x3cda68ca	0.026661295
94	0xbbbfca9c	-0.0058530103
95	0xbca0a131	-0.019608112
96	0xbc948ff9	-0.018135058
97	0xbb4d0001	-0.003128052
98	0xbbd7c279	-0.0065844622
99	0x3cd88237	0.026429279
100	0xbc86bf4c	-0.01644864
101	0xbc0463f6	-0.008080473
102	0xbd31c12a	-0.043397106
103	0xbce7ab98	-0.028280064
104	0x3c297b80	0.010344386
105	0x3d06ea14	0.032938078
106	0xbc492735	-0.012277414
107	0xbc7bf28a	-0.01537765
108	0xba9e0436	-0.0012055698
109	0xbc5b8d90	-0.01340045
110	0x3cb56260	0.022141635
111	0xbccaeaea	-0.024770219
112	0xbaef43f9	-0.001825451
113	0xbca59cf8	-0.02021645
114	0x3d042f77	0.03227183
115	0x3cd57a92	0.026059423
116	0xbb05d6ed	-0.0020422295
117	0xbbd331dc	-0.0064451527
118	0x3c4e0f52	0.012576895
119	0x3c51a0dc	0.0127946995
120	0xbcba18f3	-0.022716975
121	0x3ccd411d	0.025055462
122	0x3c949a76	0.018140059
123	0x3b0fd340	0.0021945983
124	0x3cb5e2c1	0.022202851
125	0x3cdcdb64	0.026960082
126	0x3ca0d4e7	0.01963277
127	0xbb57dcb9	-0.0032937957
128	0x3c6613bc	0.014042791
129	0x3befae54	0.0073144827
130	0xbca17eb0	-0.01971373
131	0x3c957ffe	0.018249508
132	0x3c34c267	0.011032677
133	0x3ca06167	0.019577695
134	0xbbb4ac47	-0.005513701
135	0x3c63cc5d	0.0139037045
136	0xbba1b909	-0.004935388
137	0x3a24e66d	0.00062904396
138	0x3d36d855	0.044639904
139	0xbc069007	-0.00821305
140	0xbb1fea20	-0.0024401024
141	0x3c548dd3	0.012973267
142	0xbae81b6e	-0.001770837
143	0xbc07098d	-0.008242023
144	0xbb35ceca	-0.0027741664
145	0xbca5a3d2	-0.020219717
146	0xbc7d075e	-0.015443651
147	0xbbd5e499	-0.006527495
148	0xbae59dcf	-0.0017518344
149	0x3cb44ea0	0.022010148
150	0xbc81d772	-0.015849803
151	0x3a3f3add	0.0007294843
152	0xbc6bf645	-0.014401977
153	0x3cc38a54	0.02386967
154	0x3ca5fbb9	0.020261632
155	0x3ad16df4	0.0015978203
156	0xbc6548d5	-0.013994415
157	0x3c173ac6	0.009230321
158	0xbc44ebf3	-0.012019145
159	0xbd3bf8fc	-0.045891747
160	0xbc782b13	-0.015146988
161	0x3c13df9b	0.00902548
162	0x3cc93a60	0.024563968
163	0xbc75fc03	-0.015013698
164	0x3ca6ec30	0.020376295
165	0x3c3840b0	0.011245891
166	0xbb59c525	-0.003322908
167	0xbcd1a18a	-0.025589723
168	0xbce09e10	-0.02741912
169	0xbc967d3e	-0.018370267
170	0x3c8c6247	0.017136706
171	0xbc2a7449	-0.010403701
172	0xbc92afb4	-0.017906047
173	0xbaf04659	-0.0018331512
174	0x3cb036bd	0.021510476
175	0x3bce2b85	0.006291809
176	0xbc84ccf9	-0.01621102
177	0x3d79c800	0.06098175
178	0x3cd2b942	0.025723103
179	0x3c329c0b	0.010901461
180	0x3b3d61a7	0.0028897317
181	0x3cb3222a	0.021866877
182	0xbbcb6c37	-0.0062079686
183	0x3b9b6e58	0.0047433786
184	0x3c91de02	0.017806057
185	0x3bc68e29	0.0060594273
186	0xbcc96e79	-0.02458881
187	0xbca25377	-0.01981519
188	0xbc81e29b	-0.015855124
189	0xba6a6947	-0.0008942079
190	0x3c4a707b	0.012355919
191	0x3c38e1cb	0.011284302
192	0xbc80e4e8	-0.015734151
193	0xbae19e75	-0.0017213362
194	0xbd79e923	-0.061013352
195	0x3c79967b	0.015233631
196	0xbd1d2a29	-0.038370285
197	0x3ab1cc3c	0.0013564895
198	0xbc39a23d	-0.0113301845
199	0xbd1bc2f6	-0.038027726
200	0xbb7552ee	-0.0037433463
201	0xbc63f733	-0.013913917
202	0xbb8ea3b6	-0.004353012
203	0x3b1e2ebd	0.0024136745
204	0xbbacab09	-0.0052694124
205	0x3c48f70f	0.012265935
206	0x3c75afd4	0.014995534
207	0xbc65c132	-0.014023112
208	0x3d12201d	0.035675157
209	0x3c4fc7fc	0.012681957
210	0xbc5df258	-0.013546549
211	0xbb8ad981	-0.0042373543
212	0x3d874f12	0.06606878
213	0x3c3ee48b	0.011651169
214	0x3cc36e18	0.023856208
215	0x3bb9c815	0.0056696036
216	0xbc7a8e0b	-0.015292655
217	0x3a4542db	0.0007524916
218	0x3b96fb9c	0.004607631
219	0xbd01fef0	-0.031737268
220	0xbb339d7d	-0.0027407103
221	0x3b0bf88e	0.0021357867
222	0xbc541fe5	-0.012947057
223	0xbc8cec17	-0.01720242
224	0x3a9f8f3e	0.0012173427
225	0x3af97aa0	0.0019033737
226	0x3c558032	0.013031052
227	0xbce8fd2e	-0.028441038
228	0xbc308e73	-0.01077615
229	0xbc4fc8e1	-0.012682171
230	0xbb8f90a1	-0.004381255
231	0xbc170ce3	-0.009219381
232	0x3b71eb67	0.0036913992
233	0xbd0be14b	-0.034150403
234	0x3c4ddd3d	0.012564954
235	0x3cf02463	0.029314226
236	0x3c82d231	0.015969368
237	0x3a47f589	0.0007627835
238	0xbcb754f0	-0.022379369
239	0xbb958a04	-0.004563572
240	0x3bccff18	0.0062559955
241	0x3ca58521	0.020205082
242	0x3d1636bb	0.03667329
243	0xbc6b6170	-0.014366493
244	0x3c429269	0.011875727
245	0x3ba917ee	0.0051603233
246	0x3c297014	0.010341663
247	0xbbb4210d	-0.005497104
248	0x3c60f36e	0.013729913
249	0xbd3f2c4a	-0.046673097
250	0xbcb7afd0	-0.022422701
251	0x3bbe1ce6	0.005801785
252	0x3b7dd060	0.0038728938
253	0xbb4cc587	-0.0031245665
254	0x3c4004a0	0.011719853
255	0x3c9d1f9c	0.019180112

fai_gcn_networks.1.residual.0.bias f4 [64]
0	0x00000000	0.0
1	0x00000000	0.0
2	0x00000000	0.0
3	0x00000000	0.0
4	0x00000000	0.0
5	0x00000000	0.0
6	0x00000000	0.0
7	0x00000000	0.0
8	0x00000000	0.0
9	0x00000000	0.0
10	0x00000000	0.0
11	0x00000000	0.0
12	0x00000000	0.0
13	0x00000000	0.0
14	0x00000000	0.0
15	0x00000000	0.0
16	0x00000000	0.0
17	0x00000000	0.0
18	0x00000000	0.0
19	0x00000000	0.0
20	0x00000000	0.0
21	0x00000000	0.0
22	0x00000000	0.0
23	0x00000000	0.0
24	0x00000000	0.0
25	0x00000000	0.0
26	0x00000000	0.0
27	0x00000000	0.0
28	0x00000000	0.0
29	0x00000000	0.0
30	0x00000000	0.0
31	0x00000000	0.0
32	0x00000000	0.0
33	0x00000000	0.0
34	0x00000000	0.0
35	0x00000000	0.0
36	0x00000000	0.0
37	0x00000000	0.0
38	0x00000000	0.0
39	0x00000000	0.0
40	0x00000000	0.0
41	0x00000000	0.0
42	0x00000000	0.0
43	0x00000000	0.0
44	0x00000000	0.0
45	0x00000000	0.0
46	0x00000000	0.0
47	0x00000000	0.0
48	0x00000000	0.0
49	0x00000000	0.0
50	0x00000000	0.0
51	0x00000000	0.0
52	0x00000000	0.0
53	0x00000000	0.0
54	0x00000000	0.0
55	0x00000000	0.0
56	0x00000000	0.0
57	0x00000000	0.0
58	0x00000000	0.0
59	0x00000000	0.0
60	0x00000000	0.0
61	0x00000000	0.0
62	0x00000000	0.0
63	0x00000000	0.0

fai_gcn_networks.1.residual.1.weight f4 [64]
0	0x3f81e8b2	1.0149138
1	0x3f7d6802	0.9898683
2	0x3f8006bd	1.0002056
3	0x3f7d51e4	0.9895308
4	0x3f7c44e4	0.9854262
5	0x3f80556e	1.0026071
6	0x3f78f662	0.9725095
7	0x3f811737	1.008521
8	0x3f7a6986	0.97817266
9	0x3f7f44ee	0.99714553
10	0x3f836795	1.0265986
11	0x3f7c1973	0.9847633
12	0x3f81ec4b	1.0150236
13	0x3f7b87fc	0.9825437
14	0x3f83b423	1.0289348
15	0x3f805cc4	1.002831
16	0x3f810e1a	1.0082428
17	0x3f81c2c9	1.0137569
18	0x3f81c834	1.0139222
19	0x3f778f81	0.96703345
20	0x3f77b613	0.967622
21	0x3f815f62	1.0107234
22	0x3f800913	1.0002769
23	0x3f885d21	1.0653421
24	0x3f7cd7c4	0.9876673
25	0x3f77b847	0.9676556
26	0x3f7df9ba	0.9920918
27	0x3f83da9c	1.0301089
28	0x3f805b86	1.0027931
29	0x3f81fcde	1.0155294
30	0x3f7c2d85	0.9850696
31	0x3f82dab6	1.0222995
32	0x3f7e4875	0.9932931
33	0x3f82d447	1.0221032
34	0x3f83f827	1.0310105
35	0x3f802fbe	1.001457
36	0x3f7dcdf7	0.991424
37	0x3f83d8d8	1.030055
38	0x3f78d404	0.9719851
39	0x3f7e9032	0.99438775
40	0x3f7f52c9	0.99735695
41	0x3f8070d8	1.0034437
42	0x3f7cc6f8	0.987411
43	0x3f7c169b	0.98471993
44	0x3f8135ad	1.0094506
45	0x3f80a89d	1.0051457
46	0x3f76a3fe	0.9634398
47	0x3f81c7ad	1.0139061
48	0x3f83755c	1.027019
49	0x3f7d22e8	0.9888139
50	0x3f7f2852	0.996709
51	0x3f7cc0e0	0.98731804
52	0x3f78b7ce	0.97155464
53	0x3f7ea544	0.99470925
54	0x3f82c803	1.0217289
55	0x3f82a32d	1.0206047
56	0x3f811003	1.0083011
57	0x3f7bf90d	0.98426896
58	0x3f8218bf	1.0163802
59	0x3f803a42	1.0017779
60	0x3f7dfe21	0.99215895
61	0x3f81ab3e	1.0130384
62	0x3f7896ca	0.97105086
63	0x3f80974c	1.0046172

fai_gcn_networks.1.residual.1.bias f4 [64]
0	0x00000000	0.0
1	0x00000000	0.0
2	0x00000000	0.0
3	0x00000000	0.0
4	0x00000000	0.0
5	0x00000000	0.0
6	0x00000000	0.0
7	0x00000000	0.0
8	0x00000000	0.0
9	0x00000000	0.0
10	0x00000000	0.0
11	0x00000000	0.0
12	0x00000000	0.0
13	0x00000000	0.0
14	0x00000000	0.0
15	0x00000000	0.0
16	0x00000000	0.0
17	0x00000000	0.0
18	0x00000000	0.0
19	0x00000000	0.0
20	0x00000000	0.0
21	0x00000000	0.0
22	0x00000000	0.0
23	0x00000000	0.0
24	0x00000000	0.0
25	0x00000000	0.0
26	0x00000000	0.0
27	0x00000000	0.0
28	0x00000000	0.0
29	0x00000000	0.0
30	0x00000000	0.0
31	0x00000000	0.0
32	0x00000000	0.0
33	0x00000000	0.0
34	0x00000000	0.0
35	0x00000000	0.0
36	0x00000000	0.0
37	0x00000000	0.0
38	0x00000000	0.0
39	0x00000000	0.0
40	0x00000000	0.0
41	0x00000000	0.0
42	0x00000000	0.0
43	0x00000000	0.0
44	0x00000000	0.0
45	0x00000000	0.0
46	0x00000000	0.0
47	0x00000000	0.0
48	0x00000000	0.0
49	0x00000000	0.0
50	0x00000000	0.0
51	0x00000000	0.0
52	0x00000000	0.0
53	0x00000000	0.0
54	0x00000000	0.0
55	0x00000000	0.0
56	0x00000000	0.0
57	0x00000000	0.0
58	0x00000000	0.0
59	0x00000000	0.0
60	0x00000000	0.0
61	0x00000000	0.0
62	0x00000000	0.0
63	0x00000000	0.0

fai_gcn_networks.1.residual.1.running_mean f4 [64]
0	0x329255a9	1.703559e-08
1	0xb287e9a5	-1.5822318e-08
2	0xb14d72f7	-2.9896776e-09
3	0x325f5e4c	1.3001749e-08
4	0xaf881c3c	-2.4758318e-10
5	0x32513126	1.2176576e-08
6	0x320edd98	8.315872e-09
7	0xb2693c8a	-1.357615e-08
8	0xb19e8983	-4.6140385e-09
9	0x31aa2a7a	4.95248e-09
10	0x325a22fd	1.26972255e-08
11	0xb2c67f5f	-2.3108155e-08
12	0xb1046b4b	-1.9269517e-09
13	0x30f64691	1.7918912e-09
14	0xb1f57e54	-7.1448003e-09
15	0x31bcbc90	5.492957e-09
16	0x31ef8a23	6.97152e-09
17	0x32aacd63	1.9884004e-08
18	0x31651f36	3.3341627e-09
19	0xb1d4871e	-6.185373e-09
20	0x3186804e	3.9145e-09
21	0x3186b3f9	3.920374e-09
22	0x31e60ae7	6.6951205e-09
23	0x314c0f87	2.9694733e-09
24	0x32089335	7.949713e-09
25	0x3198adf1	4.443557e-09
26	0xb21dd7e5	-9.1876915e-09
27	0xb28a9249	-1.6131837e-08
28	0xb29b8427	-1.810447e-08
29	0xb1de47e2	-6.4692225e-09
30	0x326127c9	1.310577e-08
31	0xb1d4b8f4	-6.191039e-09
32	0xb1770ca9	-3.5950427e-09
33	0xb24502e0	-1.1467563e-08
34	0x31604fd9	3.2641678e-09
35	0x2f38f5d3	1.6822037e-10
36	0x32a2e420	1.8963021e-08
37	0xb06b3c27	-8.5577984e-10
38	0xb07c8ee1	-9.188011e-10
39	0x3142da31	2.8354743e-09
40	0x31a5173e	4.8047744e-09
41	0xb242ec25	-1.1345979e-08
42	0xb2846c52	-1.541608e-08
43	0xb23f0d8b	-1.11207425e-08
44	0xb20aa525	-8.070207e-09
45	0xb25a6d43	-1.2714113e-08
46	0x326d1395	1.3799668e-08
47	0x305a0596	7.9315876e-10
48	0x321d42de	9.153807e-09
49	0xb1cf2a75	-6.0293197e-09
50	0x300542bb	4.847995e-10
51	0x310cdb8f	2.0497486e-09
52	0x31d11b4c	6.085804e-09
53	0x320ce1c2	8.200404e-09
54	0x312a2b8e	2.4763014e-09
55	0x324784e0	1.1613537e-08
56	0xb1dfe96a	-6.5166903e-09
57	0x3251a894	1.2203731e-08
58	0xb14d6210	-2.9887168e-09
59	0xb02f0818	-6.367613e-10
60	0xb2cbac8a	-2.3710772e-08
61	0xb260947e	-1.3072279e-08
62	0x32171fdb	8.7966e-09
63	0xb1ea73ce	-6.823462e-09

fai_gcn_networks.1.residual.1.running_var f4 [64]
0	0x2685e215	9.290009e-16
1	0x26857c8a	9.262485e-16
2	0x24006ccd	2.7847733e-17
3	0x260e608a	4.939698e-16
4	0x22f911b9	6.751035e-18
5	0x260dd7cf	4.9211677e-16
6	0x258b139b	2.4125941e-16
7	0x260c1e06	4.8612947e-16
8	0x248dcdc8	6.149761e-17
9	0x24ba8a4f	8.0898946e-17
10	0x2606d814	4.678343e-16
11	0x270a32a5	1.9178802e-15
12	0x22530661	2.859921e-18
13	0x23420b57	1.0519162e-17
14	0x255ade82	1.8983874e-16
15	0x2518034f	1.318502e-16
16	0x25131a28	1.275908e-16
17	0x26ca13db	1.4021948e-15
18	0x241de496	3.4237568e-17
19	0x2532904c	1.5487929e-16
20	0x2418defe	3.3148628e-17
21	0x242a8275	3.6973375e-17
22	0x253865ba	1.5993922e-16
23	0x248008b1	5.5525875e-17
24	0x259dd40d	2.737885e-16
25	0x23e54ec3	2.4861587e-17
26	0x258609cb	2.325193e-16
27	0x2685f85e	9.296049e-16
28	0x269ab5af	1.0735142e-15
29	0x252a426b	1.4767653e-16
30	0x2600a2a6	4.462935e-16
31	0x2516f7a1	1.3094326e-16
32	0x24528923	4.565265e-17
33	0x25f25f71	4.2044982e-16
34	0x23ac86f4	1.8705432e-17
35	0x20ad64b4	2.937398e-19
36	0x26b3b9f2	1.2471021e-15
37	0x21d3471c	1.4316739e-18
38	0x2362ade5	1.2288308e-17
39	0x23d848ff	2.3449682e-17
40	0x24ba571b	8.0812204e-17
41	0x25e7adfa	4.0190003e-16
42	0x266ed073	8.285534e-16
43	0x260f6c25	4.9759655e-16
44	0x25a36c19	2.8349242e-16
45	0x261b387a	5.385297e-16
46	0x267b88cc	8.7268513e-16
47	0x21c2cfbb	1.3200937e-18
48	0x259cc945	2.7198072e-16
49	0x25008139	1.1146013e-16
50	0x21a67ea6	1.1282121e-18
51	0x22d2c6f0	5.7131247e-18
52	0x252720df	1.4496078e-16
53	0x2590bed0	2.5109318e-16
54	0x23c9537b	2.1827819e-17
55	0x25f58f41	4.2597798e-16
56	0x24edcae6	1.0312609e-16
57	0x26287f1c	5.8458974e-16
58	0x2314e144	8.070798e-18
59	0x20b40e76	3.0502756e-19
60	0x270c494a	1.9468633e-15
61	0x260c967f	4.877622e-16
62	0x25affad9	3.0527642e-16
63	0x253d2d0d	1.64084e-16
