capsule-6073072/code/work_dir/recognition/kinetics_skeleton/FAI_GCN/epoch440_model.pt (torch, 74070 bytes, 22 tensors)

A f4 [3, 18, 18]
0	0x3e800000	0.25
1	0x00000000	0.0
2	0x00000000	0.0
3	0x00000000	0.0
4	0x00000000	0.0
5	0x00000000	0.0
6	0x00000000	0.0
7	0x00000000	0.0
8	0x00000000	0.0
9	0x00000000	0.0
10	0x00000000	0.0
11	0x00000000	0.0
12	0x00000000	0.0
13	0x00000000	0.0
14	0x00000000	0.0
15	0x00000000	0.0
16	0x00000000	0.0
17	0x00000000	0.0
18	0x00000000	0.0
19	0x3e800000	0.25
20	0x00000000	0.0
21	0x00000000	0.0
22	0x00000000	0.0
23	0x00000000	0.0
24	0x00000000	0.0
25	0x00000000	0.0
26	0x00000000	0.0
27	0x00000000	0.0
28	0x00000000	0.0
29	0x00000000	0.0
30	0x00000000	0.0
31	0x00000000	0.0
32	0x00000000	0.0
33	0x00000000	0.0
34	0x00000000	0.0
35	0x00000000	0.0
36	0x00000000	0.0
37	0x00000000	0.0
38	0x3e800000	0.25
39	0x00000000	0.0
40	0x00000000	0.0
41	0x00000000	0.0
42	0x00000000	0.0
43	0x00000000	0.0
44	0x00000000	0.0
45	0x00000000	0.0
46	0x00000000	0.0
47	0x00000000	0.0
48	0x00000000	0.0
49	0x00000000	0.0
50	0x00000000	0.0
51	0x00000000	0.0
52	0x00000000	0.0
53	0x00000000	0.0
54	0x00000000	0.0
55	0x00000000	0.0
56	0x00000000	0.0
57	0x3eaaaaab	0.33333334
58	0x00000000	0.0
59	0x00000000	0.0
60	0x00000000	0.0
61	0x00000000	0.0
62	0x00000000	0.0
63	0x00000000	0.0
64	0x00000000	0.0
65	0x00000000	0.0
66	0x00000000	0.0
67	0x00000000	0.0
68	0x00000000	0.0
69	0x00000000	0.0
70	0x00000000	0.0
71	0x00000000	0.0
72	0x00000000	0.0
73	0x00000000	0.0
74	0x00000000	0.0
75	0x00000000	0.0
76	0x3f000000	0.5
77	0x00000000	0.0
78	0x00000000	0.0
79	0x00000000	0.0
80	0x00000000	0.0
81	0x00000000	0.0
82	0x00000000	0.0
83	0x00000000	0.0
84	0x00000000	0.0
85	0x00000000	0.0
86	0x00000000	0.0
87	0x00000000	0.0
88	0x00000000	0.0
89	0x00000000	0.0
90	0x00000000	0.0
91	0x00000000	0.0
92	0x00000000	0.0
93	0x00000000	0.0
94	0x00000000	0.0
95	0x3e800000	0.25
96	0x00000000	0.0
97	0x00000000	0.0
98	0x00000000	0.0
99	0x00000000	0.0
100	0x00000000	0.0
101	0x00000000	0.0
102	0x00000000	0.0
103	0x00000000	0.0
104	0x00000000	0.0
105	0x00000000	0.0
106	0x00000000	0.0
107	0x00000000	0.0
108	0x00000000	0.0
109	0x00000000	0.0
110	0x00000000	0.0
111	0x00000000	0.0
112	0x00000000	0.0
113	0x00000000	0.0
114	0x3eaaaaab	0.33333334
115	0x00000000	0.0
116	0x00000000	0.0
117	0x00000000	0.0
118	0x00000000	0.0
119	0x00000000	0.0
120	0x00000000	0.0
121	0x00000000	0.0
122	0x00000000	0.0
123	0x00000000	0.0
124	0x00000000	0.0
125	0x00000000	0.0
126	0x00000000	0.0
127	0x00000000	0.0
128	0x00000000	0.0
129	0x00000000	0.0
130	0x00000000	0.0
131	0x00000000	0.0
132	0x00000000	0.0
133	0x3f000000	0.5
134	0x00000000	0.0
135	0x00000000	0.0
136	0x00000000	0.0
137	0x00000000	0.0
138	0x00000000	0.0
139	0x00000000	0.0
140	0x00000000	0.0
141	0x00000000	0.0
142	0x00000000	0.0
143	0x00000000	0.0
144	0x00000000	0.0
145	0x00000000	0.0
146	0x00000000	0.0
147	0x00000000	0.0
148	0x00000000	0.0
149	0x00000000	0.0
150	0x00000000	0.0
151	0x00000000	0.0
152	0x3eaaaaab	0.33333334
153	0x00000000	0.0
154	0x00000000	0.0
155	0x00000000	0.0
156	0x00000000	0.0
157	0x00000000	0.0
158	0x00000000	0.0
159	0x00000000	0.0
160	0x00000000	0.0
161	0x00000000	0.0
162	0x00000000	0.0
163	0x00000000	0.0
164	0x00000000	0.0
165	0x00000000	0.0
166	0x00000000	0.0
167	0x00000000	0.0
168	0x00000000	0.0
169	0x00000000	0.0
170	0x00000000	0.0
171	0x3eaaaaab	0.33333334
172	0x00000000	0.0
173	0x00000000	0.0
174	0x00000000	0.0
175	0x00000000	0.0
176	0x00000000	0.0
177	0x00000000	0.0
178	0x00000000	0.0
179	0x00000000	0.0
180	0x00000000	0.0
181	0x00000000	0.0
182	0x00000000	0.0
183	0x00000000	0.0
184	0x00000000	0.0
185	0x00000000	0.0
186	0x00000000	0.0
187	0x00000000	0.0
188	0x00000000	0.0
189	0x00000000	0.0
190	0x3f000000	0.5
191	0x00000000	0.0
192	0x00000000	0.0
193	0x00000000	0.0
194	0x00000000	0.0
195	0x00000000	0.0
196	0x00000000	0.0
197	0x00000000	0.0
198	0x00000000	0.0
199	0x00000000	0.0
200	0x00000000	0.0
201	0x00000000	0.0
202	0x00000000	0.0
203	0x00000000	0.0
204	0x00000000	0.0
205	0x00000000	0.0
206	0x00000000	0.0
207	0x00000000	0.0
208	0x00000000	0.0
209	0x3eaaaaab	0.33333334
210	0x00000000	0.0
211	0x00000000	0.0
212	0x00000000	0.0
213	0x00000000	0.0
214	0x00000000	0.0
215	0x00000000	0.0
216	0x00000000	0.0
217	0x00000000	0.0
218	0x00000000	0.0
219	0x00000000	0.0
220	0x00000000	0.0
221	0x00000000	0.0
222	0x00000000	0.0
223	0x00000000	0.0
224	0x00000000	0.0
225	0x00000000	0.0
226	0x00000000	0.0
227	0x00000000	0.0
228	0x3eaaaaab	0.33333334
229	0x00000000	0.0
230	0x00000000	0.0
231	0x00000000	0.0
232	0x00000000	0.0
233	0x00000000	0.0
234	0x00000000	0.0
235	0x00000000	0.0
236	0x00000000	0.0
237	0x00000000	0.0
238	0x00000000	0.0
239	0x00000000	0.0
240	0x00000000	0.0
241	0x00000000	0.0
242	0x00000000	0.0
243	0x00000000	0.0
244	0x00000000	0.0
245	0x00000000	0.0
246	0x00000000	0.0
247	0x3f000000	0.5
248	0x00000000	0.0
249	0x00000000	0.0
250	0x00000000	0.0
251	0x00000000	0.0
252	0x00000000	0.0
253	0x00000000	0.0
254	0x00000000	0.0
255	0x00000000	0.0

data_bn.weight f4 [54]
0	0x3f0f6f6b	0.56029385
1	0x3f0df169	0.5544649
2	0x3f115d2c	0.56782794
3	0x3f0ede13	0.5580761
4	0x3f1240bc	0.57130027
5	0x3f021039	0.50806004
6	0x3f127f22	0.5722524
7	0x3f07d4fc	0.53059363
8	0x3f157bdc	0.5839212
9	0x3f052492	0.52008927
10	0x3f0d2502	0.55134594
11	0x3f0aef2a	0.54271185
12	0x3f0dfaa6	0.55460584
13	0x3f136e39	0.5759006
14	0x3f0d7e1d	0.5527056
15	0x3f083527	0.53206104
16	0x3f07d90a	0.5306555
17	0x3f051e08	0.5199895
18	0x3f117e1c	0.5683305
19	0x3f1364c7	0.5757565
20	0x3f0ebd1d	0.55757314
21	0x3f11be7b	0.56931275
22	0x3f0d981b	0.5531022
23	0x3f0f9120	0.5608082
24	0x3f111dc2	0.5668603
25	0x3f141fd3	0.5786106
26	0x3f0d3fc2	0.5517541
27	0x3f0e81ad	0.5566662
28	0x3f0d8a1c	0.55288863
29	0x3f0f8f7c	0.56078315
30	0x3f06fc99	0.52729183
31	0x3f0f220a	0.55911314
32	0x3f0c3108	0.54762316
33	0x3f0e1952	0.55507386
34	0x3f11106c	0.5666568
35	0x3f09f22a	0.5388514
36	0x3f0b0a0d	0.5431221
37	0x3f0cd5cf	0.55013746
38	0x3f0f7ef9	0.5605312
39	0x3f0b4ff4	0.54418874
40	0x3f0e1d59	0.5551353
41	0x3f0c897d	0.5489729
42	0x3ef56cf7	0.47934696
43	0x3f06c787	0.52648205
44	0x3f09c6e5	0.53819114
45	0x3f0b2870	0.5435858
46	0x3f0d5b8c	0.55217814
47	0x3f124430	0.57135296
48	0x3f0f1043	0.5588419
49	0x3f147a9e	0.579996
50	0x3f0e0f8d	0.5549248
51	0x3f12d4f8	0.57356215
52	0x3f00ca18	0.5030837
53	0x3f026914	0.50941586

data_bn.bias f4 [54]
0	0x2674b65f	8.4901665e-16
1	0x3144d6be	2.864382e-09
2	0xaf515eb9	-1.9042092e-10
3	0x33b96c78	8.634464e-08
4	0xb432c21c	-1.6648158e-07
5	0xac1c553a	-2.2216244e-12
6	0x22c74aee	5.4018393e-18
7	0xabef0c67	-1.6985414e-12
8	0xaf11c6bc	-1.3258278e-10
9	0x2f0596d4	1.2149864e-10
10	0xab133bed	-5.2308055e-13
11	0x3426931d	1.5513474e-07
12	0x365c4691	3.282363e-06
13	0xad88d08e	-1.5554027e-11
14	0x32402f06	1.1186563e-08
15	0xa4df00ea	-9.671238e-17
16	0x2ef643d3	1.1198833e-10
17	0x2e7b1204	5.7086794e-11
18	0xae366f62	-4.1480937e-11
19	0xad5693e3	-1.2197329e-11
20	0x2c70ba81	3.4209582e-12
21	0x2fc9c30d	3.670028e-10
22	0xac60c00d	-3.1938924e-12
23	0x2ec722f4	9.055681e-11
24	0x33cec900	9.629184e-08
25	0xb400e7d8	-1.2005273e-07
26	0xa7daab51	-6.0692896e-15
27	0x2ebb7507	8.524564e-11
28	0x2e6e8402	5.423218e-11
29	0xad903b0b	-1.6397125e-11
30	0x2b3517ae	6.433698e-13
31	0xb01c4b84	-5.6859784e-10
32	0x2aad23fd	3.0755945e-13
33	0xb04364ce	-7.108384e-10
34	0xb0dddd3a	-1.6142743e-09
35	0x31dd86e1	6.4472805e-09
36	0x2abcccc9	3.3537607e-13
37	0xb1aa5b1d	-4.9580096e-09
38	0xb68067c5	-3.8267776e-06
39	0x2f05fafb	1.2185446e-10
40	0xad6f72de	-1.3611083e-11
41	0xa623e4e5	-5.6862195e-16
42	0x28ad2e2b	1.922688e-14
43	0xaa047059	-1.1762934e-13
44	0x33376d57	4.2707452e-08
45	0x3118ab5c	2.2216318e-09
46	0xab02ce03	-4.6471177e-13
47	0x2ea5025d	7.503751e-11
48	0xab710192	-8.562258e-13
49	0xae9c3778	-7.103912e-11
50	0xad6fce1d	-1.36313434e-11
51	0x2fde7203	4.0462575e-10
52	0x370e78fe	8.49203e-06
53	0xb2914655	-1.6912205e-08

data_bn.running_mean f4 [54]
0	0xbd610848	-0.05493954
1	0xbda53e67	-0.08068543
2	0x3e7350ed	0.2376134
3	0xbd60117b	-0.05470417
4	0xbd503c84	-0.050838962
5	0x3e6ce5cb	0.23134534
6	0xbd8f2365	-0.06989173
7	0xbd66e032	-0.056366153
8	0x3e527f04	0.20556265
9	0xbdae8f83	-0.085234664
10	0xbd3c32cd	-0.045946885
11	0x3e5a28db	0.21304648
12	0xbdb6cbbb	-0.08925577
13	0xbd52a204	-0.05142404
14	0x3e62d539	0.2215165
15	0xbd226085	-0.03964283
16	0xbd38e572	-0.04514069
17	0x3e59b489	0.21260275
18	0xbd07e108	-0.03317359
19	0xbcbf4734	-0.023349382
20	0x3e50ad73	0.20378666
21	0xbd0b730a	-0.034045257
22	0xbc8f4b00	-0.017491817
23	0x3e461659	0.19344462
24	0xbd97aa57	-0.074055366
25	0x3b55aff8	0.0032606106
26	0x3e2fb712	0.1715968
27	0xbdb72573	-0.0894269
28	0x3c01989a	0.007909918
29	0x3e4cc345	0.19996364
30	0xbda561d5	-0.080753006
31	0x3d1c9f3a	0.038237788
32	0x3e38ddb6	0.18053326
33	0xbd632c4f	-0.055462178
34	0x3bffd218	0.0078070275
35	0x3e27fb2a	0.16404405
36	0xbd454a0d	-0.048166323
37	0x3c834d09	0.016027944
38	0x3e3f12d3	0.18659525
39	0xbd7e6de4	-0.06211652
40	0x3d3843fb	0.044986706
41	0x3e305621	0.17220356
42	0xbd656d14	-0.056012228
43	0xbdb0b961	-0.08629108
44	0x3e500b01	0.20316698
45	0xbd4633d2	-0.048389263
46	0xbdaa2ba2	-0.083091035
47	0x3e720426	0.23634395
48	0xbd66575e	-0.056235664
49	0xbd318f85	-0.04334976
50	0x3d69e384	0.05710174
51	0xbd2325a5	-0.039830822
52	0xbd8aae0d	-0.06771479
53	0x3e581331	0.21101071

data_bn.running_var f4 [54]
0	0x3b264b42	0.0025374447
1	0x3c90e866	0.017688941
2	0x3d9553df	0.07291388
3	0x3b3027e5	0.0026879248
4	0x3c3803cb	0.011231373
5	0x3d8a9223	0.067661546
6	0x3b1c2537	0.0023825893
7	0x3c43d4cd	0.011952591
8	0x3d54102b	0.05177323
9	0x3b35cb0f	0.002773944
10	0x3c22c83c	0.009935435
11	0x3d805adf	0.06267332
12	0x3b68a8c3	0.003550098
13	0x3c41f376	0.011837831
14	0x3d81770d	0.06321535
15	0x3b69b555	0.003566106
16	0x3c2dc50b	0.010606061
17	0x3d6cb82c	0.057792827
18	0x3b8919a4	0.004183965
19	0x3c05156e	0.008122785
20	0x3d63b3a3	0.055591237
21	0x3b89aa9d	0.004201247
22	0x3c1088df	0.008821695
23	0x3d4bfc60	0.04980123
24	0x3b1f3c78	0.0024297517
25	0x3bbde3e4	0.005794989
26	0x3d14595b	0.03621803
27	0x3b510f11	0.003189985
28	0x3bdfccf4	0.0068298522
29	0x3d5b32c6	0.05351522
30	0x3b56b754	0.003276308
31	0x3bf07652	0.0073383236
32	0x3d2c9d54	0.042142227
33	0x3b340986	0.0027471497
34	0x3bc2cc7d	0.005944787
35	0x3d12992a	0.0357906
36	0x3b7f1c82	0.0038926904
37	0x3be99a50	0.007128991
38	0x3d4aad3e	0.049481623
39	0x3b537692	0.0032266718
40	0x3c12ce57	0.008960328
41	0x3d3342f1	0.043765012
42	0x3b25318c	0.0025206534
43	0x3c9b314f	0.01894441
44	0x3d6cf0f5	0.057846982
45	0x3b3494b7	0.0027554461
46	0x3c968b24	0.018376894
47	0x3d948375	0.07251636
48	0x3b25ac6d	0.0025279776
49	0x3c36b92e	0.011152549
50	0x3ccbb82b	0.024868092
51	0x3b5ed0ce	0.003399897
52	0x3c7bc480	0.0153666735
53	0x3d86c019	0.065796085

fai_gcn_networks.0.gcn.conv.weight f4 [96, 3, 1, 1]
0	0x1f777850	5.2403805e-20
1	0x1f526d6f	4.455975e-20
2	0x1ea726d7	1.7697877e-20
3	0x80000023	-4.9e-44
4	0x00000023	4.9e-44
5	0x80000028	-5.6e-44
6	0x00000023	4.9e-44
7	0x80000014	-2.8e-44
8	0x00000023	4.9e-44
9	0x84e7bae8	-5.4479485e-36
10	0x05ce3992	1.9393295e-35
11	0x8505fcc8	-6.3000585e-36
12	0x050cce8f	6.620707e-36
13	0x84e33bdd	-5.342242e-36
14	0x05e056d5	2.1096756e-35
15	0x1fd21722	8.897673e-20
16	0x9d85f4f0	-3.5458066e-21
17	0x9eb2b11b	-1.8919732e-20
18	0x8b1a3176	-2.969653e-32
19	0x890e8163	-1.7153466e-33
20	0x0bc940f8	7.752014e-32
21	0x11d0e020	3.2954741e-28
22	0x91067d8c	-1.0609423e-28
23	0x10f99644	9.8444704e-29
24	0x23a40b49	1.7785695e-17
25	0x2798c4ed	4.2401982e-15
26	0xa380a12f	-1.3946052e-17
27	0x9c2779f8	-5.5413306e-22
28	0x9c30b617	-5.846886e-22
29	0x1d482aaf	2.6491847e-21
30	0x82076746	-9.947872e-38
31	0x038cc657	8.273997e-37
32	0x8287b689	-1.9941237e-37
33	0x1628a04b	1.3621511e-25
34	0x95de18fe	-8.9704517e-26
35	0x95a09449	-6.485744e-26
36	0x80e8e9b2	-2.1389669e-38
37	0x81c3cd4b	-7.192627e-38
38	0x829e2436	-2.3236797e-37
39	0x9b26b72d	-1.3790385e-22
40	0x1a840770	5.4605936e-23
41	0x9a25d1cf	-3.4290682e-23
42	0x2036a701	1.5471257e-19
43	0x2199cea6	1.0422383e-18
44	0xa2443d71	-2.659548e-18
45	0xa086a38b	-2.2808707e-19
46	0x2064cc94	1.938004e-19
47	0x200eeb9e	1.2105827e-19
48	0x8b10ab89	-2.786244e-32
49	0x8bb52180	-6.976907e-32
50	0x111eb1aa	1.2518749e-28
51	0x00000007	1e-44
52	0x8000001c	-3.9e-44
53	0x8000002a	-5.9e-44
54	0x85caa1b4	-1.9055389e-35
55	0x85c158ee	-1.81823e-35
56	0x850a2b7f	-6.496718e-36
57	0x8000004b	-1.05e-43
58	0x80000023	-4.9e-44
59	0x80000077	-1.67e-43
60	0x1a4fd003	4.2974627e-23
61	0x1ac97daf	8.3334704e-23
62	0x99e572fe	-2.372449e-23
63	0xa3e8864a	-2.5210364e-17
64	0xa568a7fd	-2.0179709e-16
65	0xa28db8fe	-3.8413995e-18
66	0x230a8e96	7.511189e-18
67	0x2439883c	4.0230875e-17
68	0x23d92d2f	2.3546323e-17
69	0x1a8fe799	5.951758e-23
70	0x9978ea9e	-1.286868e-23
71	0x9c9dbcd8	-1.0438203e-21
72	0x8a09f242	-6.641874e-33
73	0x89ff5156	-6.1465505e-33
74	0x0980e594	3.1030773e-33
75	0x158afc2c	5.6135613e-26
76	0x959cf353	-6.3391796e-26
77	0x944ef8f7	-1.0449442e-26
78	0x80335a67	-4.71604e-39
79	0x01878bac	4.979159e-38
80	0x022278cc	1.1936547e-37
81	0x00000319	1.111e-42
82	0x00001518	7.567e-42
83	0x8000029b	-9.35e-43
84	0x80000206	-7.26e-43
85	0x00000c80	4.484e-42
86	0x8000057d	-1.969e-42
87	0x09ad5189	4.172491e-33
88	0x0c8327a9	2.0207615e-31
89	0x0a05d6ce	6.444117e-33
90	0x00000023	4.9e-44
91	0x00000023	4.9e-44
92	0x80000023	-4.9e-44
93	0x2191b649	9.873833e-19
94	0x9ef29933	-2.5686108e-20
95	0xa315a7d7	-8.112848e-18
96	0x1f4f7a3e	4.393507e-20
97	0x9f15e93e	-3.174491e-20
98	0x1f7627b2	5.212536e-20
99	0x00000028	5.6e-44
100	0x80000023	-4.9e-44
101	0x00000023	4.9e-44
102	0x80000023	-4.9e-44
103	0x00000023	4.9e-44
104	0x00000028	5.6e-44
105	0x85bad0ab	-1.7568008e-35
106	0x84d576d8	-5.01852e-36
107	0x06acb7cb	6.496927e-35
108	0x05edc843	2.2360937e-35
109	0x859805a5	-1.4296085e-35
110	0x861e0a4c	-2.9724062e-35
111	0x1d8d963b	3.7477724e-21
112	0x1e38b413	9.778117e-21
113	0x1e82f6f8	1.386643e-20
114	0x8bfed4bf	-9.8157346e-32
115	0x8959b0a3	-2.6203479e-33
116	0x09e27d55	5.4525383e-33
117	0x11b71565	2.8885495e-28
118	0x901ce409	-3.0941247e-29
119	0x12023bfa	4.1094694e-28
120	0xa441e650	-4.2045286e-17
121	0x25b2fe45	3.1050378e-16
122	0x26d211b5	1.4576477e-15
123	0x9d449b02	-2.6020521e-21
124	0x9c0d2314	-4.6698324e-22
125	0x1d12826a	1.9390362e-21
126	0x84908410	-3.3975518e-36
127	0x8499b7e7	-3.6139015e-36
128	0x0438e06e	2.173215e-36
129	0x1727be26	5.420061e-25
130	0x963b2fe1	-1.5120848e-25
131	0x1673875d	1.9672097e-25
132	0x01f45762	8.975683e-38
133	0x007d1b3d	1.1489208e-38
134	0x032fa500	5.161729e-37
135	0x9a90bcd5	-5.986208e-23
136	0x1afa4541	1.0350946e-22
137	0x9a8b6838	-5.765743e-23
138	0x21904baf	9.777853e-19
139	0x21c762bf	1.3510902e-18
140	0xa0b09580	-2.991449e-19
141	0xa0c49b21	-3.3306347e-19
142	0x20b8d705	3.13131e-19
143	0x21cc749b	1.3854443e-18
144	0x0f9c27dd	1.5398142e-29
145	0x8cdde8e4	-3.4190607e-31
146	0x8f341ad7	-8.879854e-30
147	0x00000033	7.1e-44
148	0x00000015	3e-44
149	0x00000004	6e-45
150	0x036089e1	6.598596e-37
151	0x04c70912	4.6793005e-36
152	0x8687a7db	-5.1028e-35
153	0x00000013	2.7e-44
154	0x80000004	-6e-45
155	0x8000002f	-6.6e-44
156	0x99f4587d	-2.5264749e-23
157	0x1a23ab7d	3.3846137e-23
158	0x191a882b	7.989112e-24
159	0xa287deb8	-3.6827636e-18
160	0xa4023c23	-2.8240194e-17
161	0x242b0e20	3.709168e-17
162	0x20a95077	2.868296e-19
163	0x258f69eb	2.4878319e-16
164	0xa5061c73	-1.1632286e-16
165	0x9bb5a09c	-3.004773e-22
166	0x1be490d7	3.7813036e-22
167	0x9ba25b56	-2.6859676e-22
168	0x07a1795a	2.4295912e-34
169	0x0a1eb9c1	7.64236e-33
170	0x09cc0626	4.9116996e-33
171	0x1651b134	1.6938801e-25
172	0x168849b3	2.2018496e-25
173	0x1555e45d	4.3195154e-26
174	0x82c2a865	-2.8602392e-37
175	0x8283a736	-1.9344694e-37
176	0x81749e81	-4.4929443e-38
177	0x8000389d	-2.0309e-41
178	0x000028d8	1.4652e-41
179	0x00000e46	5.12e-42
180	0x80000d1d	-4.704e-42
181	0x00000f37	5.458e-42
182	0x00000a02	3.59e-42
183	0x0a88b02b	1.316259e-32
184	0x8b0e5d61	-2.7418456e-32
185	0x0d181b2a	4.6871314e-31
186	0x00000019	3.5e-44
187	0x80000026	-5.3e-44
188	0x80000024	-5e-44
189	0x21afcd6d	1.1912837e-18
190	0x2175f9e5	8.333996e-19
191	0xa2ee11c9	-6.452886e-18
192	0x9f31704d	-3.75741e-20
193	0xa0465d64	-1.6802153e-19
194	0x9d7fced2	-3.3855893e-21
195	0x80000023	-4.9e-44
196	0x80000025	-5.2e-44
197	0x80000027	-5.5e-44
198	0x8000001d	-4e-44
199	0x80000041	-9.1e-44
200	0x80000026	-5.3e-44
201	0x04840bfd	3.104406e-36
202	0x0525adc3	7.790178e-36
203	0x84321b8f	-2.0936454e-36
204	0x86d00bd5	-7.825829e-35
205	0x8806f861	-4.0616126e-34
206	0x83eac0e3	-1.37975685e-36
207	0x1ff047cc	1.0176273e-19
208	0x205c9074	1.868252e-19
209	0x1e7ab2b3	1.3271844e-20
210	0x09c1a2b2	4.6616058e-33
211	0x097efe79	3.069379e-33
212	0x085e4ede	6.6898403e-34
213	0x0e8e46b3	3.5073784e-30
214	0x91e08977	-3.5425688e-28
215	0x0f226f8d	8.0087006e-30
216	0xa6c18d7a	-1.3430413e-15
217	0x2707082e	1.8739448e-15
218	0xa20f9830	-1.9460681e-18
219	0x9b46925a	-1.6425465e-22
220	0x1cfef2ce	1.6871074e-21
221	0x9c4f9b87	-6.869157e-22
222	0x8108c8bc	-2.5123275e-38
223	0x0356e030	6.3146302e-37
224	0x0164160f	4.1892813e-38
225	0x1534be8c	3.6501025e-26
226	0x9524a1d9	-3.324721e-26
227	0x1368ca9f	2.9382417e-27
228	0x00db31b5	2.0129805e-38
229	0x8230664f	-1.2959799e-37
230	0x8022cc73	-3.19575e-39
231	0x17529343	6.804053e-25
232	0x17f0c1fe	1.5558607e-24
233	0x96805a06	-2.0736328e-25
234	0x1ff11637	1.0210422e-19
235	0x1dc5303d	5.2195343e-21
236	0x99863c9c	-1.3879755e-23
237	0x2023ed21	1.3885096e-19
238	0xa293b116	-4.0031927e-18
239	0x1c3ccc66	6.246816e-22
240	0x8ccda35f	-3.1683576e-31
241	0x8d0c5eb4	-4.3254825e-31
242	0x0cae565e	2.6860925e-31
243	0x8000002c	-6.2e-44
244	0x00000023	4.9e-44
245	0x00000008	1.1e-44
246	0x8456530d	-2.5193714e-36
247	0x061f5f24	2.9974475e-35
248	0x0476f2fc	2.9028734e-36
249	0x00000023	4.9e-44
250	0x8000002b	-6e-44
251	0x80000027	-5.5e-44
252	0x1a8819a1	5.628969e-23
253	0x9b6f8a78	-1.9814358e-22
254	0x18964471	3.88432e-24
255	0x24526c11	4.5628027e-17

fai_gcn_networks.0.gcn.conv.bias f4 [96]
0	0xa88b99f2	-1.5498863e-14
1	0x8000004a	-1.04e-43
2	0x80000315	-1.106e-42
3	0x1053469c	4.1666808e-29
4	0x90e63dd1	-9.081425e-29
5	0x284d815b	1.14078355e-14
6	0x95d53cb2	-8.6125775e-26
7	0x1caa01e2	1.1250143e-21
8	0xb0b4b75b	-1.3148836e-09
9	0xa7812331	-3.5842847e-15
10	0x8fcec6e9	-2.0389786e-29
11	0xa231336a	-2.4015191e-18
12	0x0b8d2acd	5.4375624e-32
13	0xa6509c3b	-7.237623e-16
14	0x2dc5b7db	2.2477955e-11
15	0xab85fb64	-9.519993e-13
16	0x9b03fde2	-1.09181e-22
17	0x00001e6f	1.0918e-41
18	0x10d7257f	8.486032e-29
19	0x0000bf80	6.8697e-41
20	0xa4d650cf	-9.29446e-17
21	0xaf4bba62	-1.8528959e-10
22	0xb000dd1b	-4.688034e-10
23	0xa5c72d1f	-3.4551572e-16
24	0x151a54a3	3.116682e-26
25	0x20410c07	1.6351715e-19
26	0x0af9bb3d	2.4048259e-32
27	0x8564fe83	-1.0767255e-35
28	0x04b73a65	4.307672e-36
29	0x960e33a5	-1.1486965e-25
30	0x80000049	-1.02e-43
31	0x2e96fd10	6.866163e-11
32	0x2a467757	1.7627337e-13
33	0x00000029	5.7e-44
34	0x80000a59	-3.712e-42
35	0x900e8ac8	-2.8111475e-29
36	0x0f69dd29	1.1530381e-29
37	0xa9d6d48e	-9.5403815e-14
38	0x1632ad37	1.4433382e-25
39	0x9ec2bac5	-2.0617795e-20
40	0x31bd3b8b	5.507393e-09
41	0xa734468d	-2.5018264e-15
42	0x90098ed2	-2.712851e-29
43	0xa24546e7	-2.6736014e-18
44	0x0d7f57dd	7.8683703e-31
45	0xa62436a8	-5.6973003e-16
46	0x2dca30a1	2.2986337e-11
47	0x2be3dd1b	1.6190689e-12
48	0x9b38a735	-1.5274151e-22
49	0x80002a4b	-1.5172e-41
50	0x9157016f	-1.6960951e-28
51	0x8000223c	-1.2281e-41
52	0x274e1365	2.8598757e-15
53	0xae868746	-6.117644e-11
54	0x3095d35f	1.0901252e-09
55	0x25141b35	1.2846172e-16
56	0x9351655e	-2.6429487e-27
57	0xa04a48af	-1.7134115e-19
58	0x8c4e8c6d	-1.5911921e-31
59	0x85c0e8da	-1.814113e-35
60	0x06159d6f	2.813945e-35
61	0x15be0523	7.6748493e-26
62	0x00000023	4.9e-44
63	0x2ef1b144	1.09909e-10
64	0xa802e1fc	-7.265452e-15
65	0x00000046	9.8e-44
66	0x00001549	7.636e-42
67	0x9104e504	-1.0483535e-28
68	0x9029b916	-3.3471958e-29
69	0xa957b410	-4.789577e-14
70	0x15672e6c	4.66867e-26
71	0x1d5cf07b	2.9241083e-21
72	0x31c5ab9b	5.752964e-09
73	0x26ebaa73	1.6352601e-15
74	0x0f8b01e3	1.3707185e-29
75	0xa19d889d	-1.0674895e-18
76	0x8b1fd064	-3.0779062e-32
77	0xa340d699	-1.0453784e-17
78	0x2d97e677	1.726906e-11
79	0xab541c6d	-7.535698e-13
80	0x99c0de8a	-1.9942218e-23
81	0x0000280e	1.4369e-41
82	0x9007b0e3	-2.6760324e-29
83	0x00002d34	1.6216e-41
84	0xa684fffc	-9.228725e-16
85	0x2fd86edc	3.9368941e-10
86	0x2decf4ed	2.6938863e-11
87	0xa61cad75	-5.435845e-16
88	0x9508b707	-2.7609364e-26
89	0x9f2a0aa4	-3.6007702e-20
90	0x0ce40fd4	3.5138488e-31
91	0x853c3dcc	-8.851068e-36
92	0x04275329	1.9668941e-36
93	0x15b6b350	7.379212e-26
94	0x00000040	9e-44
95	0x2f369484	1.6605567e-10

fai_gcn_networks.1.gcn.conv.weight f4 [192, 32, 1, 1]
0	0x24ba9b25	8.092747e-17
1	0x80000024	-5e-44
2	0x00000099	2.14e-43
3	0x8d24be8e	-5.0765774e-31
4	0x0c31cd59	1.3697379e-31
5	0x268dfa1b	9.851632e-16
6	0x1353a1a0	2.6711631e-27
7	0x1bd05326	3.4464447e-22
8	0xaf78ca40	-2.2627322e-10
9	0xa5b13041	-3.0737304e-16
10	0x0d475844	6.1427855e-31
11	0x9d52dc86	-2.7907277e-21
12	0x0b11162c	2.7942664e-32
13	0xa30a5d19	-7.500709e-18
14	0x28235577	9.06685e-15
15	0x28dd1730	2.4545985e-14
16	0x18418f6d	2.5017077e-24
17	0x80000079	-1.7e-43
18	0x0e03031c	1.6148494e-30
19	0x8000002d	-6.3e-44
20	0xa1b7fbd9	-1.2467226e-18
21	0x2d50caa7	1.1868429e-11
22	0xac5ef60f	-3.1684687e-12
23	0x230e0318	7.6984906e-18
24	0x8f96246f	-1.4805176e-29
25	0x1dbb1a61	4.9525763e-21
26	0x09e47161	5.4995624e-33
27	0x82a26c04	-2.3865759e-37
28	0x84054bae	-1.5668825e-36
29	0x12d727b2	1.3578193e-27
30	0x8000002a	-5.9e-44
31	0x26767df1	8.551908e-16
32	0x250041af	1.1124485e-16
33	0x00000023	4.9e-44
34	0x800002e0	-1.031e-42
35	0x0e2640ce	2.0492282e-30
36	0x0c727c41	1.8680393e-31
37	0xa612f779	-5.0989313e-16
38	0x14caad0b	2.0465041e-26
39	0x1b63e216	1.8850052e-22
40	0x2d02599c	7.409542e-12
41	0x2414cb7e	3.226475e-17
42	0x0d729301	7.4748957e-31
43	0x1db1b1c6	4.7035323e-21
44	0x8c135a58	-1.1351655e-31
45	0xa2a71a9c	-4.5293614e-18
46	0x2a0bb74b	1.2409273e-13
47	0x279b449c	4.309553e-15
48	0x178ef9ea	9.239622e-25
49	0x000000fa	3.5e-43
50	0x0b315a6e	3.4156992e-32
51	0x8000051b	-1.831e-42
52	0xa1c0671b	-1.3037718e-18
53	0x2b8503a5	9.45123e-13
54	0x2d913625	1.6508636e-11
55	0xa39142d9	-1.5749243e-17
56	0x11040d34	1.0417032e-28
57	0x9da221d5	-4.2916024e-21
58	0x08116266	4.3750017e-34
59	0x03d986c2	1.2785053e-36
60	0x81ba384c	-6.840639e-38
61	0x92381500	-5.8086047e-28
62	0x00000023	4.9e-44
63	0x271d24d6	2.1808096e-15
64	0x8dc0adcf	-1.18747565e-30
65	0x80000024	-5e-44
66	0x00000023	4.9e-44
67	0x00000023	4.9e-44
68	0x80000027	-5.5e-44
69	0x0d7dfc3b	7.8265256e-31
70	0x80000024	-5e-44
71	0x015be328	4.0386924e-38
72	0x1503e576	2.6636252e-26
73	0x0ad10554	2.0127972e-32
74	0x00000023	4.9e-44
75	0x028e72e3	2.0930966e-37
76	0x80000025	-5.2e-44
77	0x073764ce	1.3797014e-34
78	0x0e6b7036	2.9020014e-30
79	0x0f07d84a	6.69767e-30
80	0x00030a91	2.79297e-40
81	0x00000026	5.3e-44
82	0x00000027	5.5e-44
83	0x00000025	5.2e-44
84	0x072649b9	1.2510117e-34
85	0x131c734c	1.9746814e-27
86	0x12cf884a	1.3097134e-27
87	0x08e9673a	1.4047446e-33
88	0x80000023	-4.9e-44
89	0x0485bbe1	3.144069e-36
90	0x80000024	-5e-44
91	0x80000023	-4.9e-44
92	0x00000025	5.2e-44
93	0x00000220	7.62e-43
94	0x0000002c	6.2e-44
95	0x0af5c24e	2.3665731e-32
96	0xa6f669df	-1.7098375e-15
97	0x00000014	2.8e-44
98	0x80000023	-4.9e-44
99	0x8d146e98	-4.5739143e-31
100	0x0ecadb54	5.000805e-30
101	0x25c3d7fa	3.397346e-16
102	0x123ec8ff	6.0201176e-28
103	0x1b6db19f	1.9661573e-22
104	0x2f555640	1.9402879e-10
105	0x2422305f	3.5169122e-17
106	0x0ddb9963	1.3533844e-30
107	0x1d4ad04e	2.6842168e-21
108	0x09de35e2	5.3495227e-33
109	0xa1b0438f	-1.1944107e-18
110	0x2907e06e	3.0170683e-14
111	0x2776b741	3.42387e-15
112	0x1646ddba	1.6064277e-25
113	0x00000066	1.43e-43
114	0x0e021ea2	1.6038486e-30
115	0x80000141	-4.5e-43
116	0x2306bf62	7.3046814e-18
117	0xac2dfa4c	-2.4723721e-12
118	0x2b8a7de1	9.840428e-13
119	0x2211ebf9	1.9776087e-18
120	0x12cc7689	1.2903431e-27
121	0x1ed0df16	2.2115123e-20
122	0x0754f18f	1.6020095e-34
123	0x032bb8d8	5.0464574e-37
124	0x83cc3aeb	-1.2003569e-36
125	0x92a0100e	-1.0101377e-27
126	0x80000023	-4.9e-44
127	0x26413f80	6.7046385e-16
128	0xa4da3891	-9.4638257e-17
129	0x80000029	-5.7e-44
130	0x000000a5	2.31e-43
131	0x8f495f05	-9.928365e-30
132	0x8e99356d	-3.776886e-30
133	0xa2e4d657	-6.2026465e-18
134	0x126d27b9	7.4832976e-28
135	0x1b7d1c53	2.0936822e-22
136	0xae610b9f	-5.11694e-11
137	0x24bb0981	8.111442e-17
138	0x8cc88917	-3.0897387e-31
139	0x1c03f463	4.3660127e-22
140	0x0ae540f4	2.207633e-32
141	0x231d08ae	8.512825e-18
142	0x2819e2f1	8.542416e-15
143	0xa7cba7c9	-5.652573e-15
144	0x17f89102	1.6063229e-24
145	0x80000043	-9.4e-44
146	0x0ea58c8e	4.081099e-30
147	0x000000b7	2.56e-43
148	0x22b8f8d3	5.0136753e-18
149	0xad33b63f	-1.0215439e-11
150	0x2dcc1f09	2.3205897e-11
151	0xa2e17ef4	-6.112079e-18
152	0x1082e9a7	5.163596e-29
153	0x1d8a1f37	3.656057e-21
154	0x0b062aa9	2.5839555e-32
155	0x8329e90a	-4.993215e-37
156	0x834d4275	-6.0320374e-37
157	0x91017d73	-1.0214963e-28
158	0x00000023	4.9e-44
159	0x29503a89	4.623605e-14
160	0x25901a93	2.4998025e-16
161	0x80000023	-4.9e-44
162	0x8000001f	-4.3e-44
163	0x8d9206dd	-8.999597e-31
164	0x0b8c3933	5.40121e-32
165	0x2556876e	1.8607427e-16
166	0x91db02e7	-3.4553896e-28
167	0x1b8449b5	2.18852e-22
168	0x2f00ed80	1.1725909e-10
169	0xa694934b	-1.0309487e-15
170	0x0da36b4f	1.0071484e-30
171	0x1cf69466	1.6317275e-21
172	0x8a86e4f2	-1.298985e-32
173	0x234e2044	1.1174115e-17
174	0x29090de2	3.0432152e-14
175	0x29457da2	4.3851756e-14
176	0x177f15e5	8.242258e-25
177	0x00000dbf	4.931e-42
178	0x0ddb6b9f	1.3522826e-30
179	0x000002b4	9.7e-43
180	0x24a20248	7.0260165e-17
181	0xaad49b9e	-3.7766746e-13
182	0x2e53e859	4.818221e-11
183	0x2202411e	1.7652758e-18
184	0x123a619f	5.881158e-28
185	0x9de3b8a1	-6.02773e-21
186	0x8b11c44d	-2.8073664e-32
187	0x83be67ab	-1.1190997e-36
188	0x033425b6	5.2940536e-37
189	0x111e1662	1.24709e-28
190	0x80000026	-5.3e-44
191	0x26014770	4.485268e-16
192	0xa4639587	-4.9349433e-17
193	0x00000024	5e-44
194	0x8000002a	-5.9e-44
195	0x8e3e5fe4	-2.3465478e-30
196	0x0d47187d	6.1351086e-31
197	0xa370cac7	-1.3053366e-17
198	0x90be2791	-7.500275e-29
199	0x1a43b058	4.0467504e-23
200	0x2da3a621	1.860473e-11
201	0xa3a73c6d	-1.8131768e-17
202	0x8b98c33d	-5.884203e-32
203	0xa81e7f6a	-8.79839e-15
204	0x88b50f9f	-1.0897214e-33
205	0x21a16baf	1.0938288e-18
206	0x28189f11	8.472187e-15
207	0xa7d2a1b0	-5.846201e-15
208	0x165ee4e0	1.8005237e-25
209	0x80000074	-1.63e-43
210	0x0c6687e0	1.7759444e-31
211	0x000000a8	2.35e-43
212	0x21f2fd12	1.6465545e-18
213	0x2c43d011	2.7826667e-12
214	0x2c01ab56	1.8427113e-12
215	0xa0a0dd94	-2.7251682e-19
216	0x9010bdd2	-2.8545225e-29
217	0x1cd51ba3	1.4102302e-21
218	0x89251add	-1.9873784e-33
219	0x8243205d	-1.4335625e-37
220	0x81ac03ce	-6.318828e-38
221	0x90df5f66	-8.8104975e-29
222	0x00000023	4.9e-44
223	0x270a51f6	1.9195778e-15
224	0x03f2e9da	1.4277171e-36
225	0x80000025	-5.2e-44
226	0x00000023	4.9e-44
227	0x00000069	1.47e-43
228	0x00000023	4.9e-44
229	0x0606fb0a	2.5387033e-35
230	0x00000019	3.5e-44
231	0x00000023	4.9e-44
232	0x0c944013	2.2841574e-31
233	0x0581eb9e	1.2217654e-35
234	0x80000023	-4.9e-44
235	0x0001b720	1.57528e-40
236	0x00000023	4.9e-44
237	0x828d0b74	-2.0724662e-37
238	0x871762d7	-1.1389024e-34
239	0x07b79446	2.7621927e-34
240	0x00000026	5.3e-44
241	0x80000023	-4.9e-44
242	0x00000023	4.9e-44
243	0x80000027	-5.5e-44
244	0x0030af34	4.470955e-39
245	0x0a938851	1.4206862e-32
246	0x8b1b4db7	-2.991038e-32
247	0x80089398	-7.8763e-40
248	0x00000023	4.9e-44
249	0x0020cce6	3.01224e-39
250	0x80000025	-5.2e-44
251	0x80000023	-4.9e-44
252	0x800024b5	-1.3168e-41
253	0x80000024	-5e-44
254	0x00000027	5.5e-44
255	0x0394ece8	8.753049e-37

fai_gcn_networks.1.gcn.conv.bias f4 [192]
0	0x3ce28161	0.027649583
1	0x3cdea02e	0.027175989
2	0x22633f2a	3.0797675e-18
3	0x3cdd7ad1	0.027036102
4	0x3cdc511f	0.02689415
5	0x3ce0d3d9	0.027444767
6	0x3bbf73f8	0.005842682
7	0x1a810abd	5.33705e-23
8	0x3cdef505	0.027216444
9	0x3cdeb08b	0.027183792
10	0x1636b901	1.476022e-25
11	0x3c006d16	0.007838508
12	0x3ce36e04	0.02776242
13	0x3ce4ef29	0.027946072
14	0x3ce379fd	0.02776813
15	0x3ce32a0e	0.027730014
16	0x3ce177a6	0.027522873
17	0x3ce44431	0.027864547
18	0x3cdd05d1	0.026980313
19	0x3c8f7951	0.017513903
20	0x3c2a5d68	0.010398246
21	0x3c0f3ac7	0.008742041
22	0x175430b6	6.8562376e-25
23	0x16e263e4	3.657531e-25
24	0x3ce0d577	0.027445538
25	0x92fd1286	-1.5971111e-27
26	0x3ce3acdc	0.027792387
27	0x9480a707	-1.2990578e-26
28	0x19b8a910	1.9093438e-23
29	0xb77c20df	-1.5028024e-05
30	0x3ce1c453	0.027559435
31	0x3ce35be4	0.027753778
32	0x1adaae25	9.044403e-23
33	0x9578ea9f	-5.0268285e-26
34	0x3ce540e8	0.027985051
35	0x150234a8	2.629483e-26
36	0x3ccc8c44	0.024969228
37	0x966f5ad5	-1.9334928e-25
38	0x19f55f39	2.5370866e-23
39	0x3c37d6a2	0.011220606
40	0x3ce6c60a	0.028170604
41	0x3ce0af99	0.027427481
42	0x3cd8316f	0.02639076
43	0x3ce4c88c	0.02792766
44	0x1c3a7b65	6.170172e-22
45	0x3ce46399	0.027879523
46	0x1aedab74	9.82979e-23
47	0x3ce43e9b	0.027861884
48	0x9ba7f344	-2.778504e-22
49	0x336b4831	5.478086e-08
50	0x3ce2a360	0.027665794
51	0x3ce7864c	0.02826228
52	0xa51e24ba	-1.3716759e-16
53	0x1d2f7d38	2.3225794e-21
54	0x3ce54b80	0.027990103
55	0x3cdddce5	0.02708287
56	0x9ae7935f	-9.577745e-23
57	0x3cdf8e67	0.027289582
58	0x184f5b62	2.680026e-24
59	0x1b6075cc	1.8566908e-22
60	0x16ed0778	3.8294129e-25
61	0x3ce35406	0.027750026
62	0x3ce4859d	0.027895743
63	0x95db2297	-8.850797e-26
64	0x3d184f2a	0.03718487
65	0x3d15d93f	0.036584135
66	0x2302de48	7.094384e-18
67	0x3d14ba4b	0.036310475
68	0x3d146e35	0.036237914
69	0x3d1738ba	0.036919333
70	0x3c06d5d3	0.008229691
71	0x1a82ee71	5.415196e-23
72	0x3d15ffbc	0.03662084
73	0x3d157869	0.036491785
74	0x1685fd04	2.1646984e-25
75	0x3c33dfed	0.010978681
76	0x3d18c4cf	0.037297066
77	0x3d19be38	0.037534922
78	0x3d19056e	0.037358694
79	0x3d18be65	0.03729095
80	0x3d174cb1	0.036938373
81	0x3d194275	0.037416894
82	0x3d14b3be	0.036304228
83	0x3cc4a454	0.024004139
84	0x3c6d1522	0.0144703705
85	0x3c482284	0.01221526
86	0x186aba05	3.0337707e-24
87	0x17543276	6.8564585e-25
88	0x3d174f9c	0.036941156
89	0x9309e3e0	-1.7404182e-27
90	0x3d18ebc1	0.037334207
91	0x1894e8b7	3.8492085e-24
92	0x1a0ebfb1	2.951976e-23
93	0xb6fb5281	-7.4899876e-06
94	0x3d179bc5	0.037013788
95	0x3d18e9d4	0.03733237
96	0x99c0f37c	-1.9950677e-23
97	0x9478c414	-1.255947e-26
98	0x3d19fa54	0.037592247
99	0x95c9cfae	-8.1510914e-26
100	0x3d0a478a	0.03375963
101	0x9723c33d	-5.2914566e-25
102	0x9965caa8	-1.1879949e-23
103	0x3c7f5730	0.015584752
104	0x3d1ae02b	0.03781144
105	0x3d1707ff	0.03687286
106	0x3d11c314	0.03558643
107	0x3d19d7ef	0.037559446
108	0x1b2a89bf	1.4106579e-22
109	0x3d199a68	0.03750077
110	0x1a5551b3	4.4113364e-23
111	0x3d197cfc	0.03747271
112	0x9a80d6a6	-5.328634e-23
113	0x33cb184e	9.457345e-08
114	0x3d186851	0.03720886
115	0x3d1b58c1	0.03792644
116	0xa60ecac8	-4.9540967e-16
117	0x1d97b09b	4.0151973e-21
118	0x3d1a2b8d	0.03763919
119	0x3d156de4	0.036481753
120	0x9aab3f54	-7.0826254e-23
121	0x3d1647d2	0.036689587
122	0x97ae0845	-1.1246574e-24
123	0x1bd2c05b	3.4865893e-22
124	0x972a8b2e	-5.510563e-25
125	0x3d18eb0d	0.037333537
126	0x3d19b0d5	0.037522156
127	0x18349963	2.3341895e-24
128	0x3c1b08f4	0.009462584
129	0x3c1851c9	0.009296843
130	0x22f5e5bb	6.665062e-18
131	0x3c175228	0.009235896
132	0x3c16b908	0.009199388
133	0x3c19d946	0.009390181
134	0x3afec25a	0.0019436583
135	0x999dba46	-1.6308655e-23
136	0x3c1884f5	0.009309043
137	0x3c1828a8	0.009287037
138	0x9664fc0b	-1.8497224e-25
139	0x3b2b9f85	0.002618761
140	0x3c1b9f3c	0.009498414
141	0x3c1cb043	0.009563508
142	0x3c1bc2e8	0.0095069185
143	0x3c1b814f	0.009491279
144	0x3c1a23da	0.009407962
145	0x3c1c30f4	0.009533156
146	0x3c172184	0.009224299
147	0x3bc253ca	0.0059303986
148	0x3b64a5c4	0.0034888843
149	0x3b3fb66d	0.0029253021
150	0x1797c4ca	9.807823e-25
151	0x96b686cd	-2.9488757e-25
152	0x3c19e523	0.009393009
153	0x1354e322	2.6870147e-27
154	0x3c1bcaed	0.0095088305
155	0x980478e5	-1.7121636e-24
156	0x9a2a97d4	-3.5277822e-23
157	0x3792891c	1.7468403e-05
158	0x3c1a67c6	0.009424156
159	0x3c1baa01	0.009500981
160	0x9ab7feb5	-7.609853e-23
161	0x1657944f	1.741436e-25
162	0x3c1ced6a	0.009578088
163	0x96a3105d	-2.6344397e-25
164	0x3c0bacce	0.008525087
165	0x17a02f6d	1.035173e-24
166	0x1b126f5b	1.2112818e-22
167	0x3b7707ad	0.0037693784
168	0x3c1df6da	0.0096413735
169	0x3c19b304	0.00938106
170	0x3c13d2ab	0.009022395
171	0x3c1cad2b	0.009562771
172	0x9af6b7bc	-1.02040054e-22
173	0x3c1c673d	0.009546098
174	0x9a0e2b6f	-2.9399997e-23
175	0x3c1c4a99	0.00953927
176	0x9d0ad4d8	-1.8374186e-21
177	0xb40533d0	-1.240544e-07
178	0x3c1b226a	0.009468654
179	0x3c1e7d81	0.009673477
180	0x26a5a6ee	1.1494421e-15
181	0x1d457f14	2.613843e-21
182	0x3c1d0945	0.00958473
183	0x3c17d129	0.009266176
184	0x1a920ad1	6.040166e-23
185	0x3c18e48a	0.009331832
186	0x1995887f	1.546137e-23
187	0x1a36e13d	3.7818664e-23
188	0x17d04cfd	1.346112e-24
189	0x3c1ba77b	0.00950038
190	0x3c1c7fb2	0.009551929
191	0x97b5d7b6	-1.1751304e-24

fai_gcn_networks.1.residual.0.weight f4 [64, 32, 1, 1]
0	0x3c9b261e	0.018939074
1	0xbbc95b30	-0.0061449036
2	0xbd06ccc9	-0.032910142
3	0xbc736ec7	-0.014857954
4	0xba84d876	-0.0010135311
5	0x3a818aea	0.0009883319
6	0x3cc6740e	0.024225261
7	0xbc795600	-0.015218258
8	0x3bcd86e0	0.006272182
9	0xbc8dc792	-0.017307077
10	0xbc4bbe7e	-0.012435554
11	0x3c21940f	0.00986196
12	0x3c89a6e2	0.016803209
13	0xbcb4abb7	-0.022054536
14	0xbc6e0626	-0.014527833
15	0x3c1de0c7	0.009636111
16	0xbc8bba0d	-0.01705649
17	0xbd41a799	-0.047278974
18	0xbc58500c	-0.013202678
19	0x3a1ef9fb	0.00060644717
20	0x38fc0ac3	0.00012018301
21	0xbc2ffb3e	-0.010741053
22	0x3c96137b	0.018319836
23	0x3b53b867	0.0032305957
24	0x3b09b01f	0.0021009517
25	0xbc9f229e	-0.019425686
26	0xbc1b9c4d	-0.009497714
27	0x3c4fa126	0.012672698
28	0x3a535da2	0.00080629636
29	0xbc296709	-0.010339507
30	0xbc7d7ad2	-0.015471177
31	0x3c481bd4	0.012213666
32	0xbd2baa81	-0.041910652
33	0xbc681ef2	-0.014167534
34	0x3cb85d4e	0.022505429
35	0x3d17432b	0.03692929
36	0xbc00d86d	-0.0078641
37	0xbc88a917	-0.01668219
38	0x3c0da7f6	0.008646002
39	0x3c80cd50	0.0157229
40	0x3c5dec20	0.013545066
41	0x3c0be49b	0.0085383905
42	0x3c17cdb7	0.009265355
43	0x3c994a80	0.018712282
44	0x3cea5230	0.028603643
45	0xbb95ece8	-0.0045753606
46	0x3b90db84	0.0044206996
47	0x3cbcd0ae	0.023048725
48	0x3cfcb6b5	0.03084884
49	0x3d401909	0.046898875
50	0xbb5af0e0	-0.0033407733
51	0xbcb238be	-0.021755572
52	0xbcd38485	-0.025820026
53	0xbb2f3941	-0.0026737007
54	0xbd31e8d9	-0.04343495
55	0xbc8593a4	-0.016305752
56	0xbd29304b	-0.04130582
57	0xbd32ab2a	-0.043620266
58	0xbc185bd9	-0.009299242
59	0x3cd41254	0.025887646
60	0xbc5291d2	-0.012852149
61	0xbd013aa0	-0.03155005
62	0x3d1aa138	0.037751406
63	0xbc4f0015	-0.012634297
64	0xbb481935	-0.0030532603
65	0xbbe74444	-0.0070576984
66	0x3c8f758b	0.017512104
67	0xbc102082	-0.008796813
68	0xbc9c19f4	-0.019055344
69	0xbce529e6	-0.02797408
70	0x3b5cf4c6	0.0033715232
71	0x3c5d6cf5	0.013514747
72	0xba1a4ef0	-0.00058863964
73	0xba21aa54	-0.00061670435
74	0x3c812172	0.015763018
75	0xbbabb6e2	-0.005240307
76	0x3b43706a	0.0029821643
77	0xbc89178a	-0.016734857
78	0xbc905d6f	-0.017622678
79	0xbd103f77	-0.035216775
80	0x3ccff669	0.025386052
81	0x3caa367c	0.020777933
82	0x3d14ba9a	0.03631077
83	0x3c8e3c87	0.017362846
84	0xbd31550b	-0.043293994
85	0xbb7ce849	-0.0038590601
86	0x3ca003f9	0.019533144
87	0x3b89644b	0.004192864
88	0x3b8c2ea4	0.004278021
89	0xbd2d5686	-0.042318843
90	0x3c3c0dbe	0.011477886
91	0xbcd38b77	-0.025823338
92	0xbc92dd4a	-0.017927784
93	0xbc224864	-0.009904955
94	0xbc186130	-0.009300515
95	0x3a7d90d3	0.00096727646
96	0x3ccfa0ca	0.025345225
97	0xbbd71ea1	-0.0065649305
98	0xbc6f79f9	-0.014616483
99	0x3bf67319	0.007521045
100	0xbcc52b1c	-0.024068408
101	0xbc90f81b	-0.01769643
102	0x3b839347	0.0040153596
103	0xbc693838	-0.014234595
104	0x3bc00c42	0.0058608362
105	0x3ccb3bc2	0.024808768
106	0xbc1051a2	-0.008808525
107	0x3c149cd2	0.009070592
108	0x3be5d3dd	0.0070137815
109	0x3cce3dab	0.02517589
110	0xba99330a	-0.0011688184
111	0xbcac71be	-0.02105033
112	0xba2a8ff4	-0.0006506436
113	0x3c141c88	0.0090400055
114	0xbba000ba	-0.004882899
115	0x3c6e75fc	0.014554497
116	0xbc4ddbd8	-0.012564622
117	0xbc94307d	-0.018089527
118	0xbb8f5b36	-0.004374887
119	0x3d081220	0.03322041
120	0xbaace404	-0.0013190513
121	0xb98a61d8	-0.0002639431
122	0xbc49ff1d	-0.01232889
123	0xbcdafadc	-0.026730947
124	0x3c79a878	0.01523792
125	0xbd43e3c9	-0.047824655
126	0xbce282fe	-0.027650353
127	0xbca011f2	-0.019539807
128	0xbc9a5c7a	-0.018842924
129	0x3be64469	0.007027198
130	0xbcaf5105	-0.021400938
131	0xbd63a7a2	-0.05557979
132	0x3c53f682	0.01293719
133	0xbc9da1ff	-0.019242285
134	0xbc84238a	-0.016130228
135	0xbc9d519c	-0.019203953
136	0x3b2fb637	0.002681149
137	0x3ba8feaf	0.005157314
138	0x3bd5fec4	0.0065306146
139	0x3c88f652	0.016719017
140	0xbc5c68e0	-0.0134527385
141	0x3c571c62	0.013129326
142	0x3b39e250	0.0028363653
143	0x3c8a5c63	0.016889757
144	0xbcd31a8f	-0.0257695
145	0xbd0b4b42	-0.03400732
146	0xbc38cb09	-0.011278876
147	0xbc4ac9cf	-0.0123772165
148	0xbb16e516	-0.002302473
149	0xbc8b4459	-0.017000364
150	0x3b717042	0.0036840593
151	0x3d11fa04	0.035638824
152	0x3c212842	0.009836258
153	0xbcb93a14	-0.022610702
154	0x3ba2e3d4	0.004971007
155	0x3bf48cdb	0.0074630803
156	0x3a4b0f2a	0.0007746095
157	0x3c9107fd	0.017704004
158	0x3c8c3bc4	0.017118342
159	0xbc899295	-0.016793529
160	0x3d184369	0.037173662
161	0xbbf9c867	-0.007622767
162	0xbaea248a	-0.0017863673
163	0xbc116def	-0.008876308
164	0xbc86a7d0	-0.016437441
165	0xbc32596b	-0.010885577
166	0xbc68d70b	-0.0142114265
167	0xbc2d3873	-0.010572541
168	0xba0a86a7	-0.0005284347
169	0x3ca010c8	0.019539252
170	0xbd0095cc	-0.031392857
171	0x3ac68bbe	0.0015147848
172	0x3d04f6b0	0.032461822
173	0xbcd40c0c	-0.02588465
174	0x3cb9eb97	0.022695346
175	0xbc0c955c	-0.008580532
176	0x3a1a7649	0.00058922597
177	0xbc3072f6	-0.010769596
178	0xbc89f037	-0.016838176
179	0xbc21b4d0	-0.009869769
180	0x3bb487f2	0.00550937
181	0xba1bb9b8	-0.0005940455
182	0xbcae557d	-0.021280998
183	0xbb8290c1	-0.003984541
184	0x3c6777f7	0.014127723
185	0xbd672018	-0.05642709
186	0xbbdcf620	-0.0067432076
187	0xbd0f5064	-0.034988776
188	0xbc5e5972	-0.01357113
189	0xbc3977bd	-0.011320052
190	0xbbcbb75e	-0.0062169274
191	0xbb00e043	-0.001966492
192	0x3c5dd6a7	0.013539947
193	0x3c499774	0.012304176
194	0x3c11872f	0.008882328
195	0x3b24607c	0.0025081923
196	0x3ce6b358	0.02816169
197	0x3c0930cc	0.0083734505
198	0xbc9a5340	-0.018838525
199	0xbc527c55	-0.012847026
200	0x3cd2f69b	0.025752356
201	0xbc9458e1	-0.018108787
202	0xbb0d49eb	-0.002155895
203	0xbc3e9167	-0.011631346
204	0x3996013e	0.00028611155
205	0xbce9eecb	-0.028556248
206	0x3bd9a754	0.0066422615
207	0x3d465198	0.048417658
208	0x3c165ac4	0.009176914
209	0x3cab3be0	0.020902574
210	0xbc905c7d	-0.017622227
211	0xbcf347c9	-0.029697316
212	0xbb569461	-0.003274225
213	0xbc0daa3e	-0.008646546
214	0x3caec46b	0.021333894
215	0xbc9fb6c5	-0.019496331
216	0x3a2fd224	0.00067070336
217	0xbc088c62	-0.008334251
218	0xbbf33e45	-0.0074231946
219	0xbb932943	-0.0044910028
220	0x3cdd8449	0.027040618
221	0x3b89ed6e	0.004209212
222	0xbc0f1e30	-0.008735225
223	0x39d5f56e	0.00040809385
224	0x3aadf4b8	0.0013271784
225	0xbcdb4f01	-0.02677107
226	0x3bd75f7e	0.006572663
227	0xbd184925	-0.03717913
228	0x3d28f70a	0.04125122
229	0x3c50cdf2	0.012744414
230	0xbbfd60a9	-0.00773247
231	0xbbddee09	-0.006772761
232	0x3c924e0d	0.017859483
233	0xbc9161c6	-0.017746817
234	0x3d09a236	0.033601962
235	0x3d3e3587	0.046437766
236	0x3bc90b32	0.006135368
237	0x3ce12c77	0.027487023
238	0xbd3675a7	-0.044545796
239	0x3cba81a9	0.022766905
240	0xbc1b5bb0	-0.009482309
241	0xbb820d31	-0.0039688577
242	0x3cebd954	0.028790154
243	0x3b516ae7	0.0031954588
244	0xbd21e818	-0.039527982
245	0x3cafa0d7	0.021439
246	0xbcdadd89	-0.026716964
247	0xbb7961a9	-0.0038052595
248	0xbc6d29af	-0.01447527
249	0x3bb69dc1	0.005573005
250	0x3b38bc49	0.0028188399
251	0xb96232e2	-0.00021571995
252	0xbad7ebc4	-0.0016473462
253	0xbd04be57	-0.032408085
254	0xbc4ff8bd	-0.012693581
255	0xbbacbb94	-0.0052713845

fai_gcn_networks.1.residual.0.bias f4 [64]
0	0x00000000	0.0
1	0x00000000	0.0
2	0x00000000	0.0
3	0x00000000	0.0
4	0x00000000	0.0
5	0x00000000	0.0
6	0x00000000	0.0
7	0x00000000	0.0
8	0x00000000	0.0
9	0x00000000	0.0
10	0x00000000	0.0
11	0x00000000	0.0
12	0x00000000	0.0
13	0x00000000	0.0
14	0x00000000	0.0
15	0x00000000	0.0
16	0x00000000	0.0
17	0x00000000	0.0
18	0x00000000	0.0
19	0x00000000	0.0
20	0x00000000	0.0
21	0x00000000	0.0
22	0x00000000	0.0
23	0x00000000	0.0
24	0x00000000	0.0
25	0x00000000	0.0
26	0x00000000	0.0
27	0x00000000	0.0
28	0x00000000	0.0
29	0x00000000	0.0
30	0x00000000	0.0
31	0x00000000	0.0
32	0x00000000	0.0
33	0x00000000	0.0
34	0x00000000	0.0
35	0x00000000	0.0
36	0x00000000	0.0
37	0x00000000	0.0
38	0x00000000	0.0
39	0x00000000	0.0
40	0x00000000	0.0
41	0x00000000	0.0
42	0x00000000	0.0
43	0x00000000	0.0
44	0x00000000	0.0
45	0x00000000	0.0
46	0x00000000	0.0
47	0x00000000	0.0
48	0x00000000	0.0
49	0x00000000	0.0
50	0x00000000	0.0
51	0x00000000	0.0
52	0x00000000	0.0
53	0x00000000	0.0
54	0x00000000	0.0
55	0x00000000	0.0
56	0x00000000	0.0
57	0x00000000	0.0
58	0x00000000	0.0
59	0x00000000	0.0
60	0x00000000	0.0
61	0x00000000	0.0
62	0x00000000	0.0
63	0x00000000	0.0

fai_gcn_networks.1.residual.1.weight f4 [64]
0	0x3f7e3e34	0.99313664
1	0x3f813022	1.0092814
2	0x3f7c34c7	0.9851803
3	0x3f8287d4	1.0197701
4	0x3f8148c5	1.0100332
5	0x3f7fb06e	0.99878585
6	0x3f8324da	1.0245621
7	0x3f7a63a7	0.9780831
8	0x3f75bbda	0.95989764
9	0x3f84c9c1	1.037407
10	0x3f791572	0.9729835
11	0x3f7e940e	0.99444664
12	0x3f800b0d	1.0003372
13	0x3f80b10b	1.0054029
14	0x3f7c60c0	0.9858513
15	0x3f829ad9	1.0203506
16	0x3f7ab660	0.9793453
17	0x3f7c9c98	0.98676443
18	0x3f80b608	1.0055552
19	0x3f7cf5a0	0.98812294
20	0x3f83c586	1.0294654
21	0x3f831be8	1.0242891
22	0x3f7c1093	0.9846279
23	0x3f80a9c8	1.0051813
24	0x3f859efd	1.0439144
25	0x3f83c4e1	1.0294458
26	0x3f7b8130	0.98244
27	0x3f78651c	0.9702928
28	0x3f804ec5	1.0024039
29	0x3f8414f6	1.0318897
30	0x3f7d8b46	0.9904064
31	0x3f80fd96	1.0077388
32	0x3f7e183d	0.99255735
33	0x3f793747	0.9734997
34	0x3f7fa2f4	0.9985802
35	0x3f7ddc7c	0.9916456
36	0x3f80e28e	1.0069139
37	0x3f84ec44	1.0384603
38	0x3f7d591d	0.989641
39	0x3f7e2c37	0.99286216
40	0x3f7f29b5	0.99673015
41	0x3f84a9c3	1.0364307
42	0x3f82c570	1.0216503
43	0x3f78de0f	0.97213835
44	0x3f768234	0.96292424
45	0x3f803ef0	1.0019207
46	0x3f802f07	1.0014352
47	0x3f78fdaf	0.9726209
48	0x3f7f127e	0.9963759
49	0x3f81f8cc	1.0154052
50	0x3f7f8b66	0.9982208
51	0x3f826971	1.0188428
52	0x3f829c58	1.0203962
53	0x3f818bc4	1.0120778
54	0x3f7eeebe	0.9958304
55	0x3f7718ed	0.9652241
56	0x3f777380	0.96660614
57	0x3f7e7fba	0.99413645
58	0x3f806cbd	1.0033184
59	0x3f7bdeb9	0.9838672
60	0x3f7fcb86	0.9991993
61	0x3f801150	1.0005283
62	0x3f84d47f	1.0377349
63	0x3f7a13f3	0.9768669

fai_gcn_networks.1.residual.1.bias f4 [64]
0	0x00000000	0.0
1	0x00000000	0.0
2	0x00000000	0.0
3	0x00000000	0.0
4	0x00000000	0.0
5	0x00000000	0.0
6	0x00000000	0.0
7	0x00000000	0.0
8	0x00000000	0.0
9	0x00000000	0.0
10	0x00000000	0.0
11	0x00000000	0.0
12	0x00000000	0.0
13	0x00000000	0.0
14	0x00000000	0.0
15	0x00000000	0.0
16	0x00000000	0.0
17	0x00000000	0.0
18	0x00000000	0.0
19	0x00000000	0.0
20	0x00000000	0.0
21	0x00000000	0.0
22	0x00000000	0.0
23	0x00000000	0.0
24	0x00000000	0.0
25	0x00000000	0.0
26	0x00000000	0.0
27	0x00000000	0.0
28	0x00000000	0.0
29	0x00000000	0.0
30	0x00000000	0.0
31	0x00000000	0.0
32	0x00000000	0.0
33	0x00000000	0.0
34	0x00000000	0.0
35	0x00000000	0.0
36	0x00000000	0.0
37	0x00000000	0.0
38	0x00000000	0.0
39	0x00000000	0.0
40	0x00000000	0.0
41	0x00000000	0.0
42	0x00000000	0.0
43	0x00000000	0.0
44	0x00000000	0.0
45	0x00000000	0.0
46	0x00000000	0.0
47	0x00000000	0.0
48	0x00000000	0.0
49	0x00000000	0.0
50	0x00000000	0.0
51	0x00000000	0.0
52	0x00000000	0.0
53	0x00000000	0.0
54	0x00000000	0.0
55	0x00000000	0.0
56	0x00000000	0.0
57	0x00000000	0.0
58	0x00000000	0.0
59	0x00000000	0.0
60	0x00000000	0.0
61	0x00000000	0.0
62	0x00000000	0.0
63	0x00000000	0.0

fai_gcn_networks.1.residual.1.running_mean f4 [64]
0	0x2d1a0dc7	8.756946e-12
1	0x2d50f4e5	1.1877809e-11
2	0x2b8141f6	9.184309e-13
3	0x2cc71fe6	5.6594616e-12
4	0x2c3e75a1	2.7065921e-12
5	0xac375e0f	-2.6058077e-12
6	0x2e0e33c4	3.233304e-11
7	0x2dac0a1e	1.9558629e-11
8	0x2d9a1ff8	1.752197e-11
9	0x2d53c621	1.2037955e-11
10	0x2d76a0c9	1.40191825e-11
11	0xac9702c4	-4.291985e-12
12	0x2b63cff9	8.093522e-13
13	0xadc4c097	-2.2368147e-11
14	0xaaa322fd	-2.8978894e-13
15	0x2d7883af	1.41264075e-11
16	0x2d92b0d8	1.6676813e-11
17	0x2d81e206	1.4765977e-11
18	0x2de3cbc7	2.5897407e-11
19	0xaba60cee	-1.1798598e-12
20	0x2c87bcf3	3.8579084e-12
21	0xad042b35	-7.512925e-12
22	0xacc09532	-5.4735322e-12
23	0xac26417e	-2.3626374e-12
24	0x2e18304a	3.4603688e-11
25	0xadccdd9b	-2.3290527e-11
26	0xad7b8392	-1.4296913e-11
27	0x2c050b03	1.890655e-12
28	0xade615f6	-2.6157725e-11
29	0xae09abad	-3.1302672e-11
30	0xad36d127	-1.0391943e-11
31	0xae12e7db	-3.3402486e-11
32	0xad57bd94	-1.226343e-11
33	0xacbf7ace	-5.4421806e-12
34	0xade62415	-2.6163996e-11
35	0xade84657	-2.6406584e-11
36	0x2c1892fb	2.168209e-12
37	0x2e4c52a7	4.645764e-11
38	0x2d82e0aa	1.487906e-11
39	0xad20514d	-9.112999e-12
40	0x2d7aa3d7	1.42472345e-11
41	0xae150135	-3.387975e-11
42	0xacb06649	-5.013577e-12
43	0x2e1b6d22	3.533985e-11
44	0xae91b60e	-6.626176e-11
45	0x2db5e869	2.0680528e-11
46	0xad6ae07c	-1.33512056e-11
47	0x2d9bc546	1.7709067e-11
48	0x2e5513c0	4.8448134e-11
49	0x2e13786e	3.3530893e-11
50	0x2c8289cb	3.7101203e-12
51	0x2cedd1c2	6.759233e-12
52	0x2df0f7d3	2.7394897e-11
53	0xad3b6e44	-1.0654203e-11
54	0xad225efd	-9.2297255e-12
55	0xad29bcea	-9.648485e-12
56	0xae36639b	-4.1470476e-11
57	0xae0a35eb	-3.1425456e-11
58	0x2d31406a	1.0075588e-11
59	0x2d0d58bf	8.034628e-12
60	0xad17bde7	-8.625523e-12
61	0xad28fe9a	-9.606227e-12
62	0xad0d7061	-8.039875e-12
63	0xae3d387f	-4.3023803e-11

fai_gcn_networks.1.residual.1.running_var f4 [64]
0	0x199424b4	1.5317666e-23
1	0x1a93e7d6	6.1172326e-23
2	0x17fd4522	1.6367193e-24
3	0x194e7567	1.06736596e-23
4	0x18436380	2.5253394e-24
5	0x18233b1f	2.1097105e-24
6	0x1b86f72b	2.232817e-22
7	0x1afd0026	1.0463859e-22
8	0x1aae866d	7.218189e-23
9	0x1a35f03f	3.7623992e-23
10	0x1a6b41c8	4.865e-23
11	0x18bb0f45	4.8353785e-24
12	0x16bfd551	3.0992336e-25
13	0x1b1da786	1.3040865e-22
14	0x172d8a05	5.607352e-25
15	0x1a6d4723	4.9067915e-23
16	0x1abad2c3	7.72683e-23
17	0x1a30a12d	3.6526144e-23
18	0x1b223756	1.3418206e-22
19	0x190d9207	7.319019e-24
20	0x192015f7	8.276242e-24
21	0x19aed637	1.8077699e-23
22	0x18ddbde2	5.7318894e-24
23	0x178cf13c	9.108184e-25
24	0x1b9dd606	2.611178e-22
25	0x1b077a45	1.1206446e-22
26	0x1a812439	5.341167e-23
27	0x17b60919	1.1763771e-24
28	0x1b5774dc	1.7822142e-22
29	0x1b8359cf	2.173017e-22
30	0x19e109b7	2.3268379e-23
31	0x1b96bb1e	2.493634e-22
32	0x1a503313	4.305465e-23
33	0x19498b82	1.041963e-23
34	0x1b575cc3	1.7814356e-22
35	0x1b578071	1.7825885e-22
36	0x18257870	2.1386556e-24
37	0x1c1ec369	5.2530376e-22
38	0x1a7f14ba	5.2749507e-23
39	0x199e957a	1.639719e-23
40	0x1a3ae58d	3.8649328e-23
41	0x1b9e4969	2.6186348e-22
42	0x18eab2de	6.0668192e-24
43	0x1b9a77b3	2.5554517e-22
44	0x1c93e02d	9.785592e-22
45	0x1ad7d61f	8.926785e-23
46	0x1a40f043	3.989875e-23
47	0x1acf08e2	8.5627544e-23
48	0x1c2bb428	5.6812e-22
49	0x1bb684e9	3.0195265e-22
50	0x1909fbeb	7.1336084e-24
51	0x19589df9	1.11988406e-23
52	0x1b4be00e	1.6864162e-22
53	0x19f5002d	2.5332477e-23
54	0x199a7955	1.5972232e-23
55	0x19c12324	1.9969925e-23
56	0x1c06b8e2	4.4575836e-22
57	0x1b881f36	2.2519482e-22
58	0x19e45e06	2.3612623e-23
59	0x19d1122e	2.1617436e-23
60	0x19c1f2eb	2.0053846e-23
61	0x19d53999	2.2046947e-23
62	0x1976504d	1.27341185e-23
63	0x1c04bc89	4.391881e-22
