capsule-6073072/code/work_dir/recognition/kinetics_skeleton/FAI_GCN/epoch120_model.pt (torch, 74070 bytes, 22 tensors)

A f4 [3, 18, 18]
000000 00 00 80 3e 00 00 00 00 00 00 00 00 00 00 00 00
       0.25 0.0 0.0 0.0
000010 00 00 00 00 00 00 00 00 00 00 00 00 00 00 00 00
       0.0 0.0 0.0 0.0
000020 00 00 00 00 00 00 00 00 00 00 00 00 00 00 00 00
       0.0 0.0 0.0 0.0
000030 00 00 00 00 00 00 00 00 00 00 00 00 00 00 00 00
       0.0 0.0 0.0 0.0
000040 00 00 00 00 00 00 00 00 00 00 00 00 00 00 80 3e
       0.0 0.0 0.0 0.25
000050 00 00 00 00 00 00 00 00 00 00 00 00 00 00 00 00
       0.0 0.0 0.0 0.0
000060 00 00 00 00 00 00 00 00 00 00 00 00 00 00 00 00
       0.0 0.0 0.0 0.0
000070 00 00 00 00 00 00 00 00 00 00 00 00 00 00 00 00
       0.0 0.0 0.0 0.0
000080 00 00 00 00 00 00 00 00 00 00 00 00 00 00 00 00
       0.0 0.0 0.0 0.0
000090 00 00 00 00 00 00 00 00 00 00 80 3e 00 00 00 00
       0.0 0.0 0.25 0.0
0000a0 00 00 00 00 00 00 00 00 00 00 00 00 00 00 00 00
       0.0 0.0 0.0 0.0
0000b0 00 00 00 00 00 00 00 00 00 00 00 00 00 00 00 00
       0.0 0.0 0.0 0.0
0000c0 00 00 00 00 00 00 00 00 00 00 00 00 00 00 00 00
       0.0 0.0 0.0 0.0
0000d0 00 00 00 00 00 00 00 00 00 00 00 00 00 00 00 00
       0.0 0.0 0.0 0.0
0000e0 00 00 00 00 ab aa aa 3e 00 00 00 00 00 00 00 00
       0.0 0.33333334 0.0 0.0
0000f0 00 00 00 00 00 00 00 00 00 00 00 00 00 00 00 00
       0.0 0.0 0.0 0.0
000100 00 00 00 00 00 00 00 00 00 00 00 00 00 00 00 00
       0.0 0.0 0.0 0.0
000110 00 00 00 00 00 00 00 00 00 00 00 00 00 00 00 00
       0.0 0.0 0.0 0.0
000120 00 00 00 00 00 00 00 00 00 00 00 00 00 00 00 00
       0.0 0.0 0.0 0.0
000130 00 00 00 3f 00 00 00 00 00 00 00 00 00 00 00 00
       0.5 0.0 0.0 0.0
000140 00 00 00 00 00 00 00 00 00 00 00 00 00 00 00 00
       0.0 0.0 0.0 0.0
000150 00 00 00 00 00 00 00 00 00 00 00 00 00 00 00 00
       0.0 0.0 0.0 0.0
000160 00 00 00 00 00 00 00 00 00 00 00 00 00 00 00 00
       0.0 0.0 0.0 0.0
000170 00 00 00 00 00 00 00 00 00 00 00 00 00 00 80 3e
       0.0 0.0 0.0 0.25
000180 00 00 00 00 00 00 00 00 00 00 00 00 00 00 00 00
       0.0 0.0 0.0 0.0
000190 00 00 00 00 00 00 00 00 00 00 00 00 00 00 00 00
       0.0 0.0 0.0 0.0
0001a0 00 00 00 00 00 00 00 00 00 00 00 00 00 00 00 00
       0.0 0.0 0.0 0.0
0001b0 00 00 00 00 00 00 00 00 00 00 00 00 00 00 00 00
       0.0 0.0 0.0 0.0
0001c0 00 00 00 00 00 00 00 00 ab aa aa 3e 00 00 00 00
       0.0 0.0 0.33333334 0.0
0001d0 00 00 00 00 00 00 00 00 00 00 00 00 00 00 00 00
       0.0 0.0 0.0 0.0
0001e0 00 00 00 00 00 00 00 00 00 00 00 00 00 00 00 00
       0.0 0.0 0.0 0.0
0001f0 00 00 00 00 00 00 00 00 00 00 00 00 00 00 00 00
       0.0 0.0 0.0 0.0
000200 00 00 00 00 00 00 00 00 00 00 00 00 00 00 00 00
       0.0 0.0 0.0 0.0
000210 00 00 00 00 00 00 00 3f 00 00 00 00 00 00 00 00
       0.0 0.5 0.0 0.0
000220 00 00 00 00 00 00 00 00 00 00 00 00 00 00 00 00
       0.0 0.0 0.0 0.0
000230 00 00 00 00 00 00 00 00 00 00 00 00 00 00 00 00
       0.0 0.0 0.0 0.0
000240 00 00 00 00 00 00 00 00 00 00 00 00 00 00 00 00
       0.0 0.0 0.0 0.0
000250 00 00 00 00 00 00 00 00 00 00 00 00 00 00 00 00
       0.0 0.0 0.0 0.0
000260 ab aa aa 3e 00 00 00 00 00 00 00 00 00 00 00 00
       0.33333334 0.0 0.0 0.0
000270 00 00 00 00 00 00 00 00 00 00 00 00 00 00 00 00
       0.0 0.0 0.0 0.0
000280 00 00 00 00 00 00 00 00 00 00 00 00 00 00 00 00
       0.0 0.0 0.0 0.0
000290 00 00 00 00 00 00 00 00 00 00 00 00 00 00 00 00
       0.0 0.0 0.0 0.0
0002a0 00 00 00 00 00 00 00 00 00 00 00 00 ab aa aa 3e
       0.0 0.0 0.0 0.33333334
0002b0 00 00 00 00 00 00 00 00 00 00 00 00 00 00 00 00
       0.0 0.0 0.0 0.0
0002c0 00 00 00 00 00 00 00 00 00 00 00 00 00 00 00 00
       0.0 0.0 0.0 0.0
0002d0 00 00 00 00 00 00 00 00 00 00 00 00 00 00 00 00
       0.0 0.0 0.0 0.0
0002e0 00 00 00 00 00 00 00 00 00 00 00 00 00 00 00 00
       0.0 0.0 0.0 0.0
0002f0 00 00 00 00 00 00 00 00 00 00 00 3f 00 00 00 00
       0.0 0.0 0.5 0.0
000300 00 00 00 00 00 00 00 00 00 00 00 00 00 00 00 00
       0.0 0.0 0.0 0.0
000310 00 00 00 00 00 00 00 00 00 00 00 00 00 00 00 00
       0.0 0.0 0.0 0.0
000320 00 00 00 00 00 00 00 00 00 00 00 00 00 00 00 00
       0.0 0.0 0.0 0.0
000330 00 00 00 00 00 00 00 00 00 00 00 00 00 00 00 00
       0.0 0.0 0.0 0.0
000340 00 00 00 00 ab aa aa 3e 00 00 00 00 00 00 00 00
       0.0 0.33333334 0.0 0.0
000350 00 00 00 00 00 00 00 00 00 00 00 00 00 00 00 00
       0.0 0.0 0.0 0.0
000360 00 00 00 00 00 00 00 00 00 00 00 00 00 00 00 00
       0.0 0.0 0.0 0.0
000370 00 00 00 00 00 00 00 00 00 00 00 00 00 00 00 00
       0.0 0.0 0.0 0.0
000380 00 00 00 00 00 00 00 00 00 00 00 00 00 00 00 00
       0.0 0.0 0.0 0.0
000390 ab aa aa 3e 00 00 00 00 00 00 00 00 00 00 00 00
       0.33333334 0.0 0.0 0.0
0003a0 00 00 00 00 00 00 00 00 00 00 00 00 00 00 00 00
       0.0 0.0 0.0 0.0
0003b0 00 00 00 00 00 00 00 00 00 00 00 00 00 00 00 00
       0.0 0.0 0.0 0.0
0003c0 00 00 00 00 00 00 00 00 00 00 00 00 00 00 00 00
       0.0 0.0 0.0 0.0
0003d0 00 00 00 00 00 00 00 00 00 00 00 00 00 00 00 3f
       0.0 0.0 0.0 0.5
0003e0 00 00 00 00 00 00 00 00 00 00 00 00 00 00 00 00
       0.0 0.0 0.0 0.0
0003f0 00 00 00 00 00 00 00 00 00 00 00 00 00 00 00 00
       0.0 0.0 0.0 0.0

data_bn.weight f4 [54]
000000 87 6a 61 3f 21 31 5a 3f ff 78 65 3f d6 d8 5c 3f
       0.8805317 0.85231215 0.8963775 0.86268365
000010 99 ad 59 3f c4 1c 68 3f 6d c4 5c 3f 08 1d 5e 3f
       0.85030514 0.9066889 0.8623722 0.8676305
000020 48 39 5b 3f ca f4 63 3f 79 cb 5f 3f fb cb 64 3f
       0.8563428 0.89045393 0.8741985 0.8937375
000030 69 1d 61 3f ea ae 66 3f 73 39 59 3f e3 3d 62 3f
       0.879355 0.9011065 0.84853286 0.8837568
000040 a5 45 5d 3f 8f 4a 65 3f 99 b2 5e 3f ca ac 61 3f
       0.86434394 0.8956689 0.8699127 0.8815428
000050 4d b5 60 3f ef e6 56 3f bd 66 62 3f 19 6d 5b 3f
       0.87776643 0.83946127 0.88438016 0.85713345
000060 7b d2 63 3f f4 78 63 3f 1c d7 5f 3f f1 4a 54 3f
       0.8899304 0.88856435 0.87437606 0.8292685
000070 ff 01 65 3f ae ff 5e 3f ec 8e 5c 3f aa 21 64 3f
       0.8945617 0.87108886 0.8615558 0.8911387
000080 bb 8b 62 3f 63 c8 62 3f 30 62 60 3f 7d 06 66 3f
       0.8849446 0.88587016 0.8764982 0.8985365
000090 66 27 62 3f 44 c7 5c 3f 9c 26 5d 3f 4b 25 66 3f
       0.8834137 0.86241555 0.8638704 0.89900655
0000a0 5b 93 4e 3f e2 02 5d 3f ac b9 60 3f 37 7a 4f 3f
       0.80693597 0.86332524 0.8778331 0.8104586
0000b0 5b 18 61 3f f2 0c 5b 3f 48 46 5d 3f 5f 61 63 3f
       0.8792779 0.8556663 0.86435366 0.8882045
0000c0 5b 8f 5b 3f 28 77 63 3f c1 86 69 3f 91 f5 5e 3f
       0.8576562 0.88853693 0.91221243 0.87093455
0000d0 f7 c7 60 3f 76 9a 65 3f
       0.8780512 0.89688814

data_bn.bias f4 [54]
000000 29 ce 42 ae f6 cd 9b ae 11 1a 0a b0 2c fc 07 2d
       -4.42936e-11 -7.08517e-11 -5.024115e-10 7.729855e-12
000010 a3 a6 d4 2f 80 0b 18 31 c8 39 0a ae 8d 70 11 ae
       3.8680978e-10 2.2125448e-09 -3.1428887e-11 -3.3069148e-11
000020 52 9d de af 8f 8e 97 ad cb 6c 24 2e f1 39 32 2d
       -4.0493348e-10 -1.7230021e-11 3.738591e-11 1.0130994e-11
000030 71 59 66 ae d3 c2 72 2f bb ac 97 ad c8 17 30 ae
       -5.2375385e-11 2.2078987e-10 -1.724342e-11 -4.003889e-11
000040 48 05 12 ae 5c 88 e0 af 44 be 54 2d d1 ab 1f 2f
       -3.3201247e-11 -4.0842252e-10 1.2093052e-11 1.4522007e-10
000050 f4 c4 a7 2d 16 7c 9d ae 8a a5 10 2f 33 25 c1 ad
       1.9073167e-11 -7.1615755e-11 1.3155535e-10 -2.195808e-11
000060 12 2b ca 2d 61 5b ac 2e e7 ba 62 af 4a 98 7c ae
       2.2983868e-11 7.8378866e-11 -2.0620981e-10 -5.7433426e-11
000070 b2 22 98 2e cc dd d2 ae 9c 3a b8 ad ad af 39 2f
       6.918323e-11 -9.5890934e-11 -2.0944406e-11 1.6888065e-10
000080 00 65 bf ae dc d3 9e 2d 9a c1 05 2f 76 cc 65 af
       -8.7036156e-11 1.8056605e-11 1.216506e-10 -2.0900068e-10
000090 78 8d 7a ae 42 63 b6 2f c5 00 1c af a8 0b e5 ac
       -5.696907e-11 3.3176134e-10 -1.4188391e-10 -6.5098656e-12
0000a0 5c 06 7e 2f 70 af ed ae 6e 44 76 2d 7b dd 67 2f
       2.3103425e-10 -1.0808676e-10 1.39986755e-11 2.1088013e-10
0000b0 e8 6c 2d 2e 1d fb 3b 2d a2 5c 4b 2f b9 4f 5c 2d
       3.9432374e-11 1.0685478e-11 1.8495652e-10 1.2523254e-11
0000c0 45 42 9b ae b3 97 e8 2e cf 8b 6f ad 95 9a 5c ae
       -7.060356e-11 1.0577086e-10 -1.3616621e-11 -5.0159505e-11
0000d0 7f ef 8f 2f 67 93 04 ae
       2.618172e-10 -3.0144245e-11

data_bn.running_mean f4 [54]
000000 d9 ec 3e 3c 87 61 2d bd 8a 02 33 3e 71 f0 dd 3b
       0.011653149 -0.042329337 0.17481437 0.0067730476
000010 6f 59 d6 bc c1 4e 2d 3e a8 61 c1 bb 3a e7 f2 bc
       -0.026165692 0.16924573 -0.005901534 -0.029651273
000020 d5 ec 1c 3e 1d 87 81 bc e7 5a 8d bc d9 84 11 3e
       0.15324719 -0.015811497 -0.01725526 0.14210834
000030 43 41 9e bc 95 09 09 bc 80 8e 15 3e b5 73 9e 3c
       -0.019318229 -0.008364101 0.1460514 0.019342283
000040 3d 10 b7 bc 4a 60 1e 3e 5e dd c4 3c 3d 17 d9 bb
       -0.02234661 0.15466419 0.024031337 -0.0066250847
000050 f9 f1 07 3e 6c ea c9 3c a3 bd 28 3b 47 b8 0b 3e
       0.13275899 0.024647914 0.0025747798 0.13644515
000060 01 2f dd bb 8c 5a 6a 3c a3 20 f9 3d 32 b4 84 bc
       -0.006749988 0.014303815 0.12164428 -0.016199205
000070 11 c4 93 3c 7a 99 06 3e 0e 0b 3d bc 5e 98 24 3d
       0.018037828 0.13144484 -0.01153828 0.04018437
000080 fe 76 f6 3d 90 c2 fb 3b 31 93 94 3c 8f 0f fd 3d
       0.12034415 0.0076831058 0.018136593 0.12356483
000090 28 22 6b 3c 32 ad bb 3c 6a 7f 06 3e 63 c9 21 3a
       0.014351405 0.022909734 0.13134542 0.00061716716
0000a0 e0 12 20 3d 5c 77 e9 3d 30 40 0b 3c a4 75 43 bd
       0.0390805 0.11399719 0.00849919 -0.047719613
0000b0 da 59 37 3e 74 c7 7b 3c 08 8e 3c bd ba 45 27 3e
       0.1790537 0.015367378 -0.04603389 0.16335192
0000c0 57 66 4d 3b 1b 65 33 bd 8b bd 04 3e 86 aa 66 3c
       0.0031341517 -0.043797594 0.1296293 0.014078742
0000d0 1a ca d1 bc 03 83 d3 3d
       -0.025609065 0.10327723

data_bn.running_var f4 [54]
000000 a6 4f 71 3b de 39 36 3b e2 dc 16 3d 55 ed 5f 3b
       0.0036821156 0.0027805488 0.036831744 0.003416856
000010 bc cc 05 3b 63 4b 0c 3d 3f 35 7b 3b e0 44 0c 3b
       0.002041622 0.034251582 0.0038331298 0.0021403357
000020 2a d8 e6 3c f4 ff 90 3b f6 b6 15 3b e3 2c d5 3c
       0.028179247 0.0044250432 0.002284465 0.02602238
000030 c9 f4 a3 3b 80 53 4a 3b c6 36 ea 3c b7 35 5e 3b
       0.005003546 0.0030872524 0.028590571 0.0033906528
000040 74 3b 02 3b 9a bb eb 3c e0 1a 68 3b b6 08 19 3b
       0.0019871863 0.028775979 0.003541641 0.002335114
000050 1a 8d c3 3c 97 02 79 3b ed 73 61 3b 97 4d ee 3c
       0.023870993 0.0037995928 0.0034401373 0.029089732
000060 dc ff 77 3b 7b b8 2b 3b c2 c8 97 3c a8 85 96 3b
       0.0037841713 0.0026202488 0.018528346 0.00459357
000070 b2 15 53 3b bc be f4 3c 78 cd 8d 3b 44 c8 c9 3b
       0.0032208976 0.029876105 0.0043274723 0.0061579067
000080 0d b5 ce 3c ec 11 59 3b a4 5c 3e 3b 82 bc 9b 3c
       0.025232816 0.0033122255 0.0029046917 0.019010786
000090 a1 34 63 3b 1e 7e 73 3b 41 2f e4 3c af 2b 75 3b
       0.003466882 0.003715403 0.027854564 0.003741007
0000a0 8c 24 c8 3b 18 65 bc 3c 1a 89 72 3b 8d 5b 4f 3b
       0.0061078724 0.022997424 0.0037007988 0.0031640262
0000b0 6e bf 1d 3d 55 1e 6c 3b 0c d0 45 3b 35 94 19 3d
       0.03851264 0.0036028821 0.003018382 0.037494857
0000c0 b5 88 70 3b 21 a0 75 3b 20 66 0b 3d 68 b4 57 3b
       0.0036702577 0.0037479477 0.03403294 0.0032913927
0000d0 9e 1b 1f 3b 4e 9f f0 3c
       0.0024277936 0.029372837

fai_gcn_networks.0.gcn.conv.weight f4 [96, 3, 1, 1]
000000 90 5b eb b4 13 ea 5e 34 3f 7e 4f b3 5a 2b a5 32
       -4.3838781e-07 2.0760517e-07 -4.8310763e-08 1.9228242e-08
000010 d6 8a c3 b3 29 cd ae 33 7f 15 a1 2f 3d 7b 60 b0
       -9.105649e-08 8.139825e-08 2.9301003e-10 -8.166586e-10
000020 aa 29 93 b2 d2 72 2b b3 69 92 1b 39 5b 0f 13 31
       -1.7131999e-08 -3.991847e-08 0.00014836494 2.1400044e-09
000030 c0 7b f4 33 c1 a0 51 32 01 60 10 b2 7a 34 fd ac
       1.13846454e-07 1.2201952e-08 -8.403732e-09 -7.1965186e-12
000040 c4 82 54 32 3b f8 ff ad 04 09 e0 2f 6a c2 3c af
       1.2369757e-08 -2.910038e-11 4.075177e-10 -1.716757e-10
000050 59 16 6c 30 59 6e 5a b4 36 d6 60 34 16 a1 79 33
       8.588806e-10 -2.0342976e-07 2.0939555e-07 5.8121337e-08
000060 30 cc cc b1 ea 7b e8 32 67 0b 75 39 b7 02 3e 37
       -5.960395e-09 2.7064704e-08 0.00023369268 1.1325515e-05
000070 24 47 b9 b4 d1 04 e8 32 75 90 0e 2b 55 33 30 29
       -3.4510697e-07 2.7010545e-08 5.064901e-13 3.9124374e-14
000080 8d 8c 52 aa d6 56 9b 35 04 7d f9 32 a4 06 87 34
       -1.870051e-13 1.1573673e-06 2.9044266e-08 2.515054e-07
000090 ca 35 21 b2 98 ff dc b1 a2 c0 01 b1 84 85 07 b2
       -9.383664e-09 -6.4319003e-09 -1.888147e-09 -7.888392e-09
0000a0 89 6a b3 32 bd 65 59 b2 d0 f4 93 32 e2 22 3d b6
       2.088679e-08 -1.2654195e-08 1.722438e-08 -2.81835e-06
0000b0 cd e7 37 33 bc ec 87 b2 9f d9 74 b5 f3 3c d3 b8
       4.281883e-08 -1.5823723e-08 -9.1213764e-07 -0.00010072617
0000c0 81 44 f4 32 52 19 40 b1 0a 52 aa b2 8d 4a d8 32
       2.843649e-08 -2.795407e-09 -1.9827912e-08 2.5179611e-08
0000d0 aa 43 bf b2 3a 9f ea 35 31 27 ee 31 ec ff ab 31
       -2.2266097e-08 1.74807e-06 6.931167e-09 5.00585e-09
0000e0 c3 5c 0c b3 b3 32 de 35 ca 8e 04 b3 01 13 65 32
       -3.2680656e-08 1.6555044e-06 -3.086351e-08 1.3333875e-08
0000f0 0e 40 55 32 8a b0 72 33 e0 09 53 b9 79 9b 53 b2
       1.2412796e-08 5.6505577e-08 -0.00020126207 -1.2317167e-08
000100 d6 2d 01 33 15 0a 0e b4 48 13 11 b9 45 86 09 b2
       3.007684e-08 -1.3228448e-07 -0.0001383546 -8.004979e-09
000110 e9 db b8 32 2c 48 27 33 07 32 8d 35 60 8a a5 32
       2.1520423e-08 3.8948357e-08 1.0519879e-06 1.9271454e-08
000120 42 6f 8b b4 f0 66 83 34 38 a0 a0 b5 24 fb e1 b3
       -2.5971718e-07 2.4475548e-07 -1.1967559e-06 -1.0523061e-07
000130 fa f4 91 32 08 5e 7d 39 a7 d1 40 b2 71 e7 27 32
       1.6991624e-08 0.0002416299 -1.122354e-08 9.773303e-09
000140 e1 46 22 b1 d7 b1 96 b4 f8 51 d9 34 2b 3a a8 b3
       -2.3614393e-09 -2.8069073e-07 4.047904e-07 -7.83369e-08
000150 b8 38 73 31 10 fc a5 31 7f 2b 8e 2f fa ef 85 b2
       3.5393395e-09 4.830788e-09 2.5860555e-10 -1.5592367e-08
000160 a3 7b 72 b8 00 ad 91 b1 e5 fc 0a 37 a3 51 36 35
       -5.781244e-05 -4.2397232e-09 8.284323e-06 6.791908e-07
000170 06 da 29 34 11 52 27 aa e3 8a cf 29 1c bc 89 2a
       1.5818668e-07 -1.4861052e-13 9.2167396e-14 2.4466616e-13
000180 60 43 18 b5 31 24 cb 34 fd c9 50 b2 b5 de ca b5
       -5.6722456e-07 3.783803e-07 -1.215312e-08 -1.5114989e-06
000190 f9 da 90 b3 7b fc cb b7 b6 42 ae b1 88 c7 e6 31
       -6.7453534e-08 -2.4317056e-05 -5.0716507e-09 6.716565e-09
0001a0 e4 eb 1e 31 6a ab 2c 31 95 eb 1c 33 43 2e 70 b2
       2.3126114e-09 2.5126732e-09 3.653584e-08 -1.3980357e-08
0001b0 50 2a 0e 34 06 84 32 b3 c2 77 fe b2 51 d9 8b 32
       1.3240174e-07 -4.156393e-08 -2.9623951e-08 1.6280554e-08
0001c0 84 91 d0 b2 5b 86 06 30 70 7f 8c 30 92 42 30 af
       -2.428056e-08 4.8939847e-10 1.0222561e-09 -1.6030757e-10
0001d0 5c 83 75 b0 d8 b4 81 b7 7c 0f 89 34 e1 b5 83 33
       -8.9317154e-10 -1.546221e-05 2.5529505e-07 6.1332464e-08
0001e0 cf d8 46 31 9b 9a 10 33 dd 4b f9 30 b2 4c e4 b2
       2.8936034e-09 3.3668226e-08 1.8138696e-09 -2.657757e-08
0001f0 66 29 9d b7 97 95 0f 33 95 dd 36 2b 7f 0b 01 2a
       -1.8735136e-05 3.3430833e-08 6.4966896e-13 1.146149e-13
000200 4b e7 3b 2b 08 cc 4a b5 01 0e 9c 34 71 18 d1 b4
       6.675673e-13 -7.554777e-07 2.9067454e-07 -3.8947067e-07
000210 b9 11 66 b1 fc f6 b0 b1 f8 1a cd b1 00 17 1b 32
       -3.347948e-09 -5.150353e-09 -5.9693512e-09 9.027417e-09
000220 95 0a bf b3 4a 9d ec 31 b2 29 d6 33 bd 8f 8f b4
       -8.8960554e-08 6.8863857e-09 9.972736e-08 -2.674041e-07
000230 96 fc 9c 33 02 e6 fe 32 7f 6b 4c 33 ac f3 3a 32
       7.310261e-08 2.9674087e-08 4.759522e-08 1.08820295e-08
000240 7a 85 ac 32 ea bc 3a 32 e0 a3 7f 32 39 94 f8 b1
       2.0084133e-08 1.0869579e-08 1.4880214e-08 -7.234601e-09
000250 5a 71 fb 32 43 2b 0f 34 42 b8 d8 32 61 5f be 31
       2.9271792e-08 1.3333651e-07 2.52295e-08 5.540571e-09
000260 39 03 0d b3 5d 5d 7e 33 18 45 ea b1 fd 30 83 b3
       -3.283205e-08 5.9223897e-08 -6.8181514e-09 -6.109074e-08
000270 18 89 39 32 9c 9e 82 33 26 15 c8 b3 26 9e c3 32
       1.0799589e-08 6.0824476e-08 -9.3170726e-08 2.2772905e-08
000280 f2 71 68 33 ab 22 05 35 e4 e4 86 b7 23 7b 2a 33
       5.4120342e-08 4.959681e-07 -1.608063e-05 3.96932e-08
000290 d8 75 c1 32 e0 ea 46 36 a3 e3 f1 31 5e 47 9b 33
       2.2521746e-08 2.9641014e-06 7.0399024e-09 7.2307316e-08
0002a0 eb 7c 0a b4 0e 8f 07 33 c5 12 85 38 ad f6 b2 32
       -1.2897696e-07 3.1562244e-08 6.34543e-05 2.0834102e-08
0002b0 41 5e 0f b4 b5 45 cf b3 0d 31 98 39 ad 92 39 32
       -1.3352202e-07 -9.651868e-08 0.00029028245 1.08017675e-08
0002c0 a3 84 dd b8 fe fa ba b5 a5 5e 27 b9 e8 51 a6 b3
       -0.00010562807 -1.3931128e-06 -0.00015961619 -7.744876e-08
0002d0 14 a8 2c b1 9c 11 83 31 94 25 3e 31 47 31 fc b2
       -2.5124836e-09 3.8146037e-09 2.767e-09 -2.935907e-08
0002e0 a7 d5 86 33 86 5e 49 b2 d0 3e 41 b5 68 5a 70 35
       6.2787244e-08 -1.1721232e-08 -7.1989507e-07 8.9538526e-07
0002f0 42 66 59 34 61 f0 19 aa 32 1d a4 29 26 32 86 a9
       2.0246901e-07 -1.3672528e-13 7.2881276e-14 -5.959495e-14
000300 c1 70 b9 b6 63 c8 ae 34 d6 c6 c3 32 b8 9a e4 32
       -5.526556e-06 3.2555826e-07 2.2791408e-08 2.6613051e-08
000310 04 33 aa b3 20 c1 08 33 4b 75 a4 b0 d9 0f ba 2f
       -7.9255216e-08 3.1840614e-08 -1.1965907e-09 3.3844463e-10
000320 e3 d9 1d b1 06 12 10 b2 eb 9a 20 32 68 bf 0f 31
       -2.2970361e-09 -8.386001e-09 9.34845e-09 2.091804e-09
000330 25 5b 66 32 9b 93 08 b3 ab 90 0b b2 16 5e bb b1
       1.3408486e-08 -3.1799214e-08 -8.1237586e-09 -5.4531126e-09
000340 1a c1 63 b1 52 c8 30 b1 2c ba bd 32 4c 8b ae 2e
       -3.3142613e-09 -2.572524e-09 2.2087157e-08 7.937348e-11
000350 33 82 05 30 31 b1 cb b3 65 d2 a0 33 91 de 1f 32
       4.857014e-10 -9.485155e-08 7.488851e-08 9.305624e-09
000360 76 d4 1d 37 05 35 25 b1 04 04 b0 b1 c0 12 fa 33
       9.407397e-06 -2.4040798e-09 -5.1227307e-09 1.1644943e-07
000370 16 25 91 b3 c4 f5 be 32 f9 22 9f 29 96 26 94 aa
       -6.7588346e-08 2.2230672e-08 7.067085e-14 -2.6316856e-13
000380 98 6a 1d aa 94 b9 ed 35 38 2e 15 37 73 27 a0 37
       -1.3981383e-13 1.7711886e-06 8.891853e-06 1.9091856e-05
000390 86 c5 95 b2 f2 12 34 b0 63 1b b1 b1 1c 60 0f b2
       -1.7435706e-08 -6.551054e-10 -5.1544915e-09 -8.345548e-09
0003a0 f1 c8 1b 34 5b ce c1 b0 98 05 76 33 b1 36 87 b3
       1.4508602e-07 -1.4101248e-09 5.7281426e-08 -6.296376e-08
0003b0 ad 81 07 33 74 86 42 b1 61 a3 70 30 2b 6c 37 30
       3.1550076e-08 -2.8307143e-09 8.7543667e-10 6.672873e-10
0003c0 59 09 39 32 0d 98 d4 31 ac c9 96 33 4b 34 be b2
       1.0770543e-08 6.1872982e-09 7.021603e-08 -2.2142691e-08
0003d0 3c 4a 25 b3 bb be 7e 33 df 95 e1 b1 40 07 80 b2
       -3.8484572e-08 5.9312452e-08 -6.5654002e-09 -1.4904458e-08
0003e0 85 8d 1b b0 fb 3f c3 32 52 17 8d b6 ea 65 7e 32
       -5.6589783e-10 2.2730083e-08 -4.2048423e-06 1.48079184e-08
0003f0 c4 58 13 b4 2e a7 ee 32 f9 e4 2e b3 f1 f0 3b 34
       -1.3722735e-07 2.7782871e-08 -4.072078e-08 1.7503386e-07

fai_gcn_networks.0.gcn.conv.bias f4 [96]
000000 24 a8 01 36 80 54 7a 33 cd 81 00 33 d2 2b 0d 33
       1.9320369e-06 5.8284513e-08 2.9920376e-08 3.2868975e-08
000010 de b7 00 b4 7e 77 74 33 5b 72 bd 34 42 0a b4 b4
       -1.198782e-07 5.6919355e-08 3.5287198e-07 -3.3535076e-07
000020 3d 6f f6 31 1f d2 82 34 29 88 66 36 b7 04 1b 36
       7.1721886e-09 2.436727e-07 3.4351926e-06 2.3099544e-06
000030 b7 3c 54 35 a5 46 7f b5 e3 f0 0d b5 d5 8e 51 32
       7.9064506e-07 -9.5097704e-07 -5.287713e-07 1.2197877e-08
000040 17 4d a5 35 4c 85 75 32 c3 68 fd 35 fd 8f 75 33
       1.2315894e-06 1.4291185e-08 1.8880459e-06 5.7174464e-08
000050 32 74 ba b4 05 a9 03 b6 9e 24 9c b3 61 7a 21 30
       -3.4729743e-07 -1.9618903e-06 -7.270977e-08 5.874537e-10
000060 35 7c b2 35 8b 3a c5 b3 11 72 4c b2 5b 3c c2 b4
       1.3298182e-06 -9.184176e-08 -1.19002985e-08 -3.617923e-07
000070 87 7f 33 b1 46 af 4b b2 d2 40 81 b5 1e 95 19 b4
       -2.612042e-09 -1.1856008e-08 -9.630114e-07 -1.4303484e-07
000080 e6 3e 2a 36 7e 85 87 33 97 20 24 32 0e f3 29 33
       2.5368586e-06 6.3107095e-08 9.5534665e-09 3.9569436e-08
000090 42 e6 4e b4 70 17 81 b3 d5 2b 7b 35 c3 75 dc b3
       -1.9269012e-07 -6.011294e-08 9.356857e-07 -1.0265969e-07
0000a0 fe d3 10 b4 66 60 fe 34 70 b4 98 36 02 4c 73 36
       -1.3488167e-07 4.7381326e-07 4.5509587e-06 3.6254064e-06
0000b0 df 34 c4 34 57 b2 be b5 b4 02 87 b5 e7 e5 85 b2
       3.6546314e-07 -1.4208007e-06 -1.005907e-06 -1.5587785e-08
0000c0 c4 da 78 35 21 e7 58 b4 12 bc 0b 36 4e 2c f0 33
       9.2705545e-07 -2.0200652e-07 2.0822085e-06 1.118393e-07
0000d0 26 01 90 b5 7b b7 0c b5 aa f0 08 b3 11 8b 80 30
       -1.072917e-06 -5.2421063e-07 -3.188385e-08 9.352751e-10
0000e0 27 fc ce b4 34 6c e7 b3 54 21 00 b3 a2 e8 58 b5
       -3.8553955e-07 -1.0776458e-07 -2.9832634e-08 -8.0804796e-07
0000f0 f3 c7 1b b3 30 cf 23 b3 0d 21 d5 b5 6b db 6d b4
       -3.6270603e-08 -3.813983e-08 -1.5879356e-06 -2.2152169e-07
000100 fd ca cb 35 7b 28 a0 32 86 ff 50 b3 00 da fe 30
       1.5183756e-06 1.864486e-08 -4.866117e-08 1.8542892e-09
000110 42 94 10 b4 ab 1f c9 b3 20 26 ee b4 69 79 b3 b4
       -1.3464981e-07 -9.365552e-08 -4.4358694e-07 -3.3429686e-07
000120 d3 0e 35 b3 b6 01 12 b4 a9 cc 02 36 2f f1 a8 b5
       -4.215583e-08 -1.3597932e-07 1.9490637e-06 -1.2587169e-06
000130 f6 79 4a b5 12 1a e6 35 8a c8 b5 b4 19 0b 0d b2
       -7.542834e-07 1.7143923e-06 -3.3859789e-07 -8.2098035e-09
000140 ca 1f cf 34 96 11 80 b4 c0 ab b8 b5 6b 4b 6b 33
       3.8579884e-07 -2.3854653e-07 -1.3759054e-06 5.4783794e-08
000150 a9 01 1f b5 6a 0d 91 35 d7 cf 19 b3 04 a2 2f b3
       -5.923453e-07 1.0807246e-06 -3.5812118e-08 -4.0892715e-08
000160 bf a7 69 35 41 6a 5c 33 a6 27 b5 b2 c9 64 08 34
       8.7043367e-07 5.131938e-08 -2.1089203e-08 1.2702652e-07
000170 74 2b ba b3 54 bd 94 33 0a d7 1e b4 77 ef d1 33
       -8.669204e-08 6.9262256e-08 -1.4793127e-07 9.775879e-08

fai_gcn_networks.1.gcn.conv.weight f4 [192, 32, 1, 1]
000000 a2 b5 c0 2b 34 bb 7b 32 76 b4 c2 1f ea 07 54 28
       1.3692834e-12 1.4652688e-08 8.2460743e-20 1.177008e-14
000010 15 42 0b a3 de 2f f2 23 fc 1b a7 b1 af cd 27 a6
       -7.5491985e-18 2.6257965e-17 -4.863521e-09 -5.8218517e-16
000020 d5 9b 9d 22 8e f4 98 27 ba 50 38 24 66 34 7c 1c
       4.271993e-18 4.245362e-15 3.9967018e-17 8.344753e-22
000030 aa b6 1b a3 10 a5 41 a4 de 2a 8f a5 13 d4 80 a8
       -8.4412475e-18 -4.1990017e-17 -2.4835594e-16 -1.4302827e-14
000040 10 d5 f4 23 bf 59 b2 9c 3e b5 8a 38 18 e2 e3 a2
       2.6544768e-17 -1.1802251e-21 6.614112e-05 -6.176786e-18
000050 e0 bd 8c a8 4c a7 44 a1 e7 ab ea a6 eb 1c e7 1e
       -1.5625467e-14 -6.66288e-19 -1.6283606e-15 2.4470037e-20
000060 54 45 b3 21 d5 5b a3 1e 5a 1b 7c 2f 56 01 8f 29
       1.2147863e-18 1.7296277e-20 2.2928984e-10 6.3507074e-14
000070 92 cb 44 30 99 07 81 34 d2 8f 64 b9 7e 9e 27 ab
       7.1593675e-10 2.403365e-07 -0.00021797352 -5.955027e-13
000080 2f f9 61 31 0e f8 78 32 bf a8 19 2e 75 61 d9 33
       3.2883454e-09 1.4491901e-08 3.493805e-11 1.0122577e-07
000090 ab 80 49 2f 2a 11 35 31 cb 5b 1a 31 e0 a3 65 32
       1.8326556e-10 2.6348723e-09 2.2462128e-09 1.3366815e-08
0000a0 9f a3 d5 33 83 5f be 32 34 6f b7 30 4e 8b d7 30
       9.948348e-08 2.2162345e-08 1.3346608e-09 1.5682902e-09
0000b0 82 9e 0f b7 5d 6f 03 37 df d7 d0 30 a2 d6 fe b3
       -8.56037e-06 7.834137e-06 1.5195346e-09 -1.1866838e-07
0000c0 39 6f 0f 30 ff 08 8e 2f 38 08 20 b0 80 56 1d 31
       5.2181154e-10 2.5836042e-10 -5.821934e-10 2.2895676e-09
0000d0 f5 da ae 33 04 af ad af fd 6d 07 34 51 f2 78 33
       8.1423345e-08 -3.1592873e-10 1.2612868e-07 5.7962385e-08
0000e0 fd fe 01 33 02 3b 0c b2 f7 0c 9f 34 48 9d b6 33
       3.0267064e-08 -8.162489e-09 2.962549e-07 8.503645e-08
0000f0 65 95 0d 2e 3a 50 37 33 8d 7d e4 31 1f ca 74 ae
       3.2192377e-11 4.2680973e-08 6.649947e-09 -5.5658696e-11
000100 b3 64 92 a9 c8 73 32 aa 07 b0 18 a6 fe b1 8c ab
       -6.501171e-14 -1.5849746e-13 -5.2974155e-16 -9.997001e-13
000110 fd 90 19 a6 34 cd 02 24 06 7d 3d aa 34 d0 17 2a
       -5.3279034e-16 2.836307e-17 -1.6829948e-13 1.3483729e-13
000120 e9 fa b2 a9 ed e9 87 29 b9 6d 29 b8 5f 6e 1a a9
       -7.948314e-14 6.035784e-14 -4.0394927e-05 -3.42906e-14
000130 d0 99 57 b7 e3 63 06 27 45 61 a8 a8 4e 85 c0 2a
       -1.2850811e-05 1.8650384e-15 -1.869393e-14 3.419855e-13
000140 cb c1 1e a7 7f 09 1f 2a 1c 52 42 38 bb de c7 a8
       -2.203196e-15 1.4125331e-13 4.6329675e-05 -2.2190032e-14
000150 97 aa bb ab 1e 5a 2d 2f d8 99 36 b9 30 01 91 b2
       -1.3334497e-12 1.5766274e-10 -0.00017414184 -1.6880762e-08
000160 b2 59 41 2c 60 7f 77 2d 9f ff 55 ac 0d e8 3c ab
       2.747674e-12 1.4068607e-11 -3.0411019e-12 -6.711305e-13
000170 b3 cc a0 a6 e0 ee 87 aa cf 64 a7 a9 98 d2 84 27
       -1.1157714e-15 -2.414657e-13 -7.433777e-14 3.6865686e-15
000180 3c 9c 1a b9 77 e8 ff 31 f4 ea 19 2e 11 61 cc 33
       -0.00014744786 7.447905e-09 3.4996853e-11 9.5171465e-08
000190 4d ce 1f 2e 1c c6 c3 2e ba f4 b5 31 d9 bc ee 31
       3.6335646e-11 8.9027646e-11 5.2956155e-09 6.948181e-09
0001a0 26 4b 4e 33 37 13 aa 31 56 44 06 38 a6 3a e0 30
       4.803146e-08 4.9498357e-09 3.2011732e-05 1.6314814e-09
0001b0 b9 64 3e 37 55 cf e0 30 3e f5 a0 30 7d 88 c7 32
       1.1348334e-05 1.6357072e-09 1.1711234e-09 2.3228717e-08
0001c0 92 f1 5e b0 ff 52 3d 2f b7 a1 50 b7 a0 1a 32 30
       -8.110642e-10 1.7218936e-10 -1.2435418e-05 6.479386e-10
0001d0 10 03 42 33 63 32 9e b0 5a 78 68 33 a6 ef dd 32
       4.517193e-08 -1.1510334e-09 5.412617e-08 2.5836766e-08
0001e0 46 b0 37 32 ca e7 fe 32 f0 88 2a 34 49 d6 31 35
       1.0692082e-08 2.9674897e-08 1.5882301e-07 6.6249464e-07
0001f0 1e 13 80 2d e6 a2 d4 32 e1 74 64 31 2e 49 6e ac
       1.4560405e-11 2.4754126e-08 3.3244805e-09 -3.3862457e-12
000200 52 8f 21 b6 63 b3 db aa d8 d2 08 26 0e 54 8e 34
       -2.4074293e-06 -3.902669e-13 4.7470225e-16 2.651072e-07
000210 41 4f a9 26 72 53 5b aa 1f 24 6f 35 be 75 fb a9
       1.1748213e-15 -1.9480058e-13 8.9087e-07 -1.1167064e-13
000220 8e 05 cd aa 79 fe 75 aa ff bc cc b8 16 94 a0 35
       -3.641917e-13 -2.1848659e-13 -9.762681e-05 1.1964028e-06
000230 dd 9a 84 aa 6c c7 62 29 24 2d 8d a9 6b f3 69 aa
       -2.3555368e-13 5.035505e-14 -6.2694885e-14 -2.077901e-13
000240 be de ef a9 0a f5 19 a7 8e e0 a9 28 d0 69 ff 28
       -1.0652372e-13 -2.1365851e-15 1.8860154e-14 2.8356576e-14
000250 20 8e b1 aa f4 b0 4b 29 12 7a 93 aa d2 ae a3 ad
       -3.1540135e-13 4.5228537e-14 -2.619715e-13 -1.860859e-11
000260 5a 42 d5 a9 28 81 02 ab 8d ec cf ab fa fb 82 a8
       -9.47061e-14 -4.636452e-13 -1.4773891e-12 -1.4542177e-14
000270 7e 8d de 26 eb 1d af 2a db 19 f9 35 be d3 89 27
       1.5442696e-15 3.1107004e-13 1.8559471e-06 3.825471e-15
000280 20 fd 78 29 59 67 0d a9 c4 ea 29 25 2f 85 99 a9
       5.5286613e-14 -3.139793e-14 1.4737955e-16 -6.8176686e-14
000290 bc fe 88 26 95 53 d1 b3 fd 16 4b 2a 22 97 c2 a7
       9.505942e-16 -9.7475244e-08 1.8037998e-13 -5.4009675e-15
0002a0 c0 06 88 a9 7d 8a 76 a9 d6 4a 8b a7 65 28 27 a8
       -6.040784e-14 -5.4743092e-14 -3.8661387e-15 -9.279121e-15
0002b0 bd c9 1d 36 4f 51 d7 a7 6f dd e5 a7 27 78 c5 af
       2.351225e-06 -5.9762643e-15 -6.3800347e-15 -3.5919465e-10
0002c0 d1 d9 9e a7 40 45 fe a9 f3 22 10 a9 88 ac 97 a7
       -4.4089966e-15 -1.1291879e-13 -3.2004737e-14 -4.209798e-15
0002d0 ec 40 a3 a9 d0 67 0e b9 82 63 17 aa 9b cf 94 2a
       -7.249916e-14 -0.00013580848 -1.3446018e-13 2.6434136e-13
0002e0 c2 c0 bb b4 91 12 6b aa eb 3f ab 30 0e 51 13 b6
       -3.4971714e-07 -2.0878634e-13 1.2460054e-09 -2.1951887e-06
0002f0 7e 01 d3 24 9d f0 c8 a9 58 b3 4f 34 f6 93 c1 25
       9.150919e-17 -8.923524e-14 1.9343622e-07 3.3580425e-16
000300 0d 11 87 31 a2 f4 bd 31 05 21 86 36 c9 cc 2e 33
       3.9309556e-09 5.5284355e-09 3.997355e-06 4.0698783e-08
000310 28 97 5e 2e 8a e2 24 af 16 1b b8 30 2c 29 40 32
       5.061121e-11 -1.4996196e-10 1.339546e-09 1.1185232e-08
000320 bc 0f 1c 33 ae fc 93 32 dc d7 81 31 8d 64 00 b2
       3.633589e-08 1.7227958e-08 3.7789345e-09 -7.473443e-09
000330 03 a9 69 b1 e5 9f de b0 3c 03 15 39 25 96 26 33
       -3.4002035e-09 -1.6198071e-09 0.00014210952 3.8786443e-08
000340 6f 91 01 3a b7 ed 4d 30 2c 6b c3 af f3 e5 b2 37
       0.0004942631 7.491638e-10 -3.5546444e-10 2.1326332e-05
000350 c0 d6 7f 33 8b 2d cf af 01 2b c1 33 0d 78 d5 32
       5.9567128e-08 -3.768544e-10 8.995085e-08 2.4851056e-08
000360 dc 4e 95 b2 d9 36 95 33 d2 7c 66 34 f7 b8 1e 32
       -1.7381744e-08 6.94833e-08 2.1465829e-07 9.238867e-09
000370 6f f0 02 2e 60 7f 19 33 e7 5f 9f 31 6b 8b e7 2e
       2.9772126e-11 3.5738935e-08 4.638412e-09 1.05294294e-10
000380 23 9e d4 31 21 3d d6 31 4e b0 a9 2e 95 f1 dd 33
       6.18799e-09 6.2351693e-09 7.716548e-11 1.0335058e-07
000390 fa db 78 2e 14 8d 84 2e fb 01 28 31 c5 35 88 32
       5.658405e-11 6.0277255e-11 2.4448343e-09 1.5856935e-08
0003a0 6e 7b e0 33 ab ae 40 b3 dc 1b a2 31 5c 2f 94 31
       1.04532646e-07 -4.4862343e-08 4.717988e-09 4.312751e-09
0003b0 4b ec 90 b1 60 4e 2e 31 aa c4 b7 34 09 15 84 b4
       -4.217815e-09 2.5364884e-09 3.4229498e-07 -2.460222e-07
0003c0 fa 40 b9 b0 1f d0 b8 30 30 03 6a b0 48 71 3e 38
       -1.3478989e-09 1.3446914e-09 -8.5133234e-10 4.540503e-05
0003d0 3d bb c3 33 30 62 fb af 2e 39 ff 33 6a 0e f9 b3
       9.1144535e-08 -4.57264e-10 1.1884764e-07 -1.1597588e-07
0003e0 db 88 36 33 50 38 95 33 d3 6d 17 b5 ff 78 0d 34
       4.2499646e-08 6.9485964e-08 -5.64117e-07 1.3175666e-07
0003f0 34 4a 06 2e 10 62 93 33 fc 2f 00 32 74 47 1c af
       3.0533978e-11 6.8630584e-08 7.461491e-09 -1.4213503e-10

fai_gcn_networks.1.gcn.conv.bias f4 [192]
000000 a2 33 d4 ae 6c b2 aa 3b 5b 08 a2 33 98 95 32 3b
       -9.649816e-11 0.005209258 7.545233e-08 0.002724981
000010 01 c7 d8 31 7a 6a 9c b2 04 c4 6e 3b 05 6e bb 3b
       6.3090515e-09 -1.820921e-08 0.0036432752 0.0057199025
000020 85 72 18 3b 31 17 c4 3b e3 17 a6 32 4d 9b 26 35
       0.0023261618 0.00598421 1.9335806e-08 6.206581e-07
000030 93 e8 43 3b 12 2f b3 3b 9c bb a9 30 b0 6d 01 b5
       0.0029893264 0.0054682577 1.234969e-09 -4.821586e-07
000040 0e 73 88 3b a4 77 24 3b bf e7 2f 32 27 f5 38 b0
       0.004164106 0.0025095725 1.0239034e-08 -6.728719e-10
000050 9e 81 94 b1 8e d1 6b 3b 3f e0 e4 30 dd 62 40 b2
       -4.3221027e-09 0.0035983059 1.6652918e-09 -1.119835e-08
000060 4d ce 35 3b 95 f0 3d 3b c2 46 a3 3b a7 92 4f b2
       0.0027741373 0.002898251 0.0049828 -1.2082331e-08
000070 39 ea 0a 31 7a b1 31 b1 41 f8 46 32 d0 9c 1b 30
       2.0214783e-09 -2.5857774e-09 1.1581563e-08 5.6611515e-10
000080 67 7c 95 3b 38 e9 b4 3b 48 a5 3e b0 08 94 bd b0
       0.004561949 0.005520966 -6.9356476e-10 -1.3793633e-09
000090 35 06 07 32 c0 3b 1e 3c aa f2 60 3b 1f 11 d8 2f
       7.8594455e-09 0.0096578 0.0034324327 3.9302336e-10
0000a0 4f bd 08 3b e0 42 28 3b 8e 0a 70 3b 78 d2 8c 3b
       0.002086479 0.0025674626 0.0036627385 0.004297551
0000b0 7a fb ac 3b d1 fe 25 b5 26 71 6e 3b d9 61 03 b0
       0.005279002 -6.1838097e-07 0.003638336 -4.779657e-10
0000c0 b9 d0 19 3b 84 a3 0e 31 9c 66 a9 31 a6 9e 86 3b
       0.0023470356 2.0756667e-09 4.9302127e-09 0.004108268
0000d0 24 ac c9 32 e4 6e 5c ae 3d 16 01 3b 11 33 d1 3b
       2.347776e-08 -5.01207e-11 0.0019697093 0.0063842614
0000e0 51 87 0b 3c 59 28 46 3b 31 4b b2 30 9d 25 c4 b0
       0.008516149 0.0030236451 1.2972575e-09 -1.4271567e-09
0000f0 d1 6b eb 32 6a 1b 16 32 75 49 dd 3b 57 0b 92 3b
       2.740663e-08 8.737382e-09 0.0067531415 0.004456918
000100 98 18 38 af 29 d8 db 3b a7 5c 77 33 63 c8 6a 3b
       -1.674344e-10 0.006709118 5.7593436e-08 0.0035825006
000110 68 99 d1 b1 83 3d b6 b2 9c 34 9c 3b 17 32 f2 3b
       -6.100141e-09 -2.121556e-08 0.0047670137 0.007391225
000120 b8 c4 48 3b 68 a5 f9 3b d3 36 a2 32 2c 4c 5f 35
       0.0030634832 0.007618595 1.8884213e-08 8.318482e-07
000130 98 88 80 3b 0c 7e e6 3b 30 36 a6 30 70 8c 34 b5
       0.0039225332 0.007034069 1.2093491e-09 -6.725959e-07
000140 c0 e5 b1 3b 42 68 58 3b b6 1a 15 33 bf 6c 44 b0
       0.0054289997 0.0033021127 3.471606e-08 -7.145892e-10
000150 2b ab af b1 29 74 9a 3b 9b 2d eb 31 f8 2b 7f b2
       -5.11263e-09 0.0047135544 6.844585e-09 -1.4852951e-08
000160 b0 eb 6e 3b 27 81 79 3b d4 6f d4 3b 3a 25 7c b2
       0.0036456399 0.0038071366 0.0064830575 -1.4676795e-08
000170 c6 8f 5f 32 34 05 10 b1 8a 43 0d 33 0c 00 3d 30
       1.3012999e-08 -2.0957716e-09 3.2890547e-08 6.8757866e-10
000180 03 cb c1 3b 11 5e ea 3b 82 2f 2b b1 d3 c6 3a b1
       0.0059140935 0.007152327 -2.491078e-09 -2.717958e-09
000190 a2 6c 59 32 8f 27 42 3c f6 57 93 3b 0f d4 a3 32
       1.2655763e-08 0.011850252 0.0044965697 1.907213e-08
0001a0 f9 46 34 3b 1a 57 5d 3b 0d 38 9d 3b 26 ff b7 3b
       0.0027508123 0.003377384 0.0047979415 0.005615133
0001b0 15 de df 3b 6c 58 6c b5 59 20 9c 3b 3d 7c 98 b0
       0.006831894 -8.804552e-07 0.0047645983 -1.1094766e-09
0001c0 38 8b 4a 3b 9e 08 2f 32 d5 6a 1c 32 1b b2 af 3b
       0.0030905735 1.01883e-08 9.104686e-09 0.005361808
0001d0 d3 a9 2b 33 68 6a 9b ae 8f 51 2a 3b 94 fa 04 3c
       3.9968494e-08 -7.0674855e-11 0.0025988554 0.008116383
0001e0 07 49 2e 3c dc 0f 82 3b ca 99 96 b1 f1 95 a8 b1
       0.010637528 0.0039691757 -4.3830584e-09 -4.90649e-09
0001f0 0d 95 4d 33 bf 48 92 32 66 d8 0a 3c b2 fa bd 3b
       4.7865843e-08 1.7029718e-08 0.008474445 0.0057977075
000200 e0 c8 0d af 6f 44 05 3b c8 b8 e7 b2 ed d7 89 3a
       -1.289524e-10 0.002033498 -2.6975968e-08 0.0010516621
000210 c9 e0 7a 33 55 63 aa 32 46 c3 b9 3a 8d cf 12 3b
       5.8412102e-08 1.9835776e-08 0.0014172576 0.0022401542
000220 42 03 6a 3a 3c 6b 19 3b 21 6c b3 32 a2 0a 57 34
       0.0008926877 0.0023409864 2.0887514e-08 2.0027304e-07
000230 9d f6 97 3a 22 08 0c 3b f9 e2 05 b0 8e cd c9 34
       0.0011593882 0.0021367152 -4.8707666e-10 3.7588728e-07
000240 95 c0 d4 3a 6e 3a 7d 3a d3 f9 24 b3 ab af 30 31
       0.001623171 0.0009659891 -3.841144e-08 2.5711226e-09
000250 bc 69 16 b2 29 6d b7 3a 0c 6e 03 b2 ab 1c 50 b2
       -8.75519e-09 0.0013994324 -7.650225e-09 -1.2113712e-08
000260 ea 89 8c 3a 6f e9 92 3a df 8a ff 3a 85 10 5d b2
       0.0010722254 0.0011208485 0.0019496343 -1.2867649e-08
000270 94 09 c6 31 1e 92 73 b1 14 9f 2b b2 71 33 8e b0
       5.7636473e-09 -3.5444212e-09 -9.98968e-09 -1.034648e-09
000280 3a 2c e9 3a 08 aa 0d 3b 34 96 ee 30 c6 57 f8 2f
       0.001778967 0.002161624 1.7359469e-09 4.5173304e-10
000290 cb 6c ef 32 be 46 80 3b 1e b1 ae 3a 7e de 85 31
       2.7872735e-08 0.003914683 0.0013327932 3.896104e-09
0002a0 01 06 51 3a 92 a0 81 3a 34 dd ba 3a ac f3 db 3a
       0.0007973612 0.0009889773 0.0014256597 0.0016780994
0002b0 db 4c 07 3b a8 37 22 b5 0b 9e b9 3a 83 ce 46 af
       0.0020645175 -6.0430693e-07 0.001416148 -1.8081363e-10
0002c0 e2 39 6c 3a 98 ca ab 32 56 00 e0 b1 42 ed d1 3a
       0.0009011311 1.9999149e-08 -6.519296e-09 0.0016016143
0002d0 43 14 98 b2 ed f9 75 2f bf de 44 3a d9 ec 23 3b
       -1.7704343e-08 2.2371412e-10 0.00075099984 0.0025012998
0002e0 b4 ca 5d 3b f4 63 99 3a 2c 2f 2a b2 52 42 20 31
       0.0033842744 0.0011702762 -9.906028e-09 2.3320763e-09
0002f0 5b 62 1f b3 ad 88 a2 b2 34 26 2e 3b 7b c6 e3 3a
       -3.7109526e-08 -1.8921435e-08 0.0026573064 0.0017377877

fai_gcn_networks.1.residual.0.weight f4 [64, 32, 1, 1]
000000 5d 41 92 bc 34 1c ff bc f3 65 22 3b 4a 70 b2 bc
       -0.017853433 -0.031141378 0.0024780005 -0.02178206
000010 4d 84 a2 3c 2b 4c e5 bc 1d 0a 00 bc 2b bd 85 3c
       0.019838477 -0.027990421 -0.007814911 0.016325554
000020 10 ce be bc 0b a2 97 3c b9 a1 27 3b cb 9b ba 3c
       -0.023291618 0.018509885 0.0025578572 0.022779366
000030 47 4f b0 bc 9d e9 c0 3b 7c b1 e1 3b 34 d7 58 3c
       -0.021522177 0.005887224 0.006887613 0.013234902
000040 98 d1 28 3a fa 97 9b bc 75 c5 15 bb 0e 93 dc 3c
       0.00064399233 -0.018993367 -0.002285329 0.02692559
000050 9d fe 45 bc 0f 33 06 3b 98 6d 12 3d 77 fa b0 bc
       -0.01208463 0.002047721 0.035749048 -0.021603806
000060 35 f7 47 3d 1c 92 5c bc 7c dc b9 3c 9c 9b da ba
       0.04881974 -0.01346257 0.022688143 -0.0016678455
000070 f9 30 56 bb 54 c2 34 3c 24 35 22 3d 06 18 8f ba
       -0.0032682999 0.01103266 0.03960146 -0.0010917194
000080 62 ec 95 39 94 d6 c3 3b d2 d5 b3 3a d9 58 93 bb
       0.00028595614 0.0059765074 0.001372034 -0.0044966755
000090 7b ad b5 bb af bf aa bc a2 9c 3d bc 01 3a 0e bd
       -0.005544362 -0.020843355 -0.011572989 -0.034723286
0000a0 16 c5 28 3c 67 fd 60 bc e9 d4 09 bc ef 89 d5 3b
       0.010300895 -0.013732291 -0.008412578 0.006516687
0000b0 a4 c1 02 3c bd 69 7f 3c f0 c0 d6 3c f9 21 e3 bb
       0.007980738 0.015589175 0.026215047 -0.00693154
0000c0 67 3e 41 bc 94 92 3b bc 0b e2 e7 3b eb 0c c6 3c
       -0.011794663 -0.011448521 0.007076507 0.024176082
0000d0 d3 55 1d bd fd 4c 8a bc 86 d4 a4 ba aa ff 2b 3c
       -0.038411926 -0.016882414 -0.0012575544 0.010497967
0000e0 26 55 5f bc 24 33 4b 3c 35 85 54 bc c9 7c 68 3c
       -0.013631141 0.01240233 -0.012971212 0.014189907
0000f0 ae d1 94 3c 19 ec 2b bd b2 ad fc 3b 18 39 bf 3b
       0.01816639 -0.041973207 0.007711136 0.0058356635
000100 64 33 0c 3d 55 13 cc 3b cd f3 80 3c 57 66 6f 3c
       0.034228697 0.0062278905 0.015741253 0.014611802
000110 87 d8 c8 3c 93 ed 63 bc 77 f9 e8 bc 33 98 c9 3c
       0.02451731 -0.013911623 -0.028439267 0.024608707
000120 3d df 8f bc f3 8b 63 3c ff a5 9e 3c 8b 71 3d 3c
       -0.017562503 0.013888347 0.019366262 0.011562715
000130 61 e5 08 bc f0 78 63 3c a6 11 4a 3b ce 6f 3c 3c
       -0.008355469 0.013883814 0.0030833273 0.011501266
000140 64 4e 1e bc 66 ec 94 bb 8f de b8 3c 52 fa 6c 3c
       -0.0096622445 -0.0045447825 0.022567062 0.014463978
000150 5c 7c 16 3a 9b 93 1e bd 4a a3 e3 3c c1 ff 80 3c
       0.0005740577 -0.038714986 0.027787823 0.015746953
000160 ae 34 fd 3b 30 e7 c3 ba 74 f4 d8 bc a9 65 16 bd
       0.007727227 -0.0014946219 -0.026483752 -0.036718044
000170 a0 6e b3 bc 2f 01 75 b9 8b c0 c0 3c 85 53 83 bc
       -0.021903336 -0.00023365462 0.023529312 -0.016031036
000180 9f 71 80 3c 73 bd 78 bc 3d ca c4 ba 04 16 3f 3c
       0.015679179 -0.015181887 -0.0015013885 0.011662964
000190 d2 d4 01 3c 37 f4 09 bd 5b 25 21 3c 6f 2d 84 3c
       0.0079242755 -0.033680167 0.009835566 0.016134946
0001a0 21 bf f5 bc bd 88 01 3d a2 4a cc 3c 52 b5 50 bc
       -0.029998364 0.031624544 0.024937931 -0.012738543
0001b0 ed 0f be bc 6d 1e 30 bc 14 49 3e 3d 78 60 bb bb
       -0.023200953 -0.010749442 0.04645641 -0.005718287
0001c0 34 7d 02 bc 2c fe 62 bc b6 22 17 3b 9b a8 98 bc
       -0.007964421 -0.013854545 0.002306146 -0.018635085
0001d0 fc ef aa 3c 99 6a e1 bc 0d ca ab 3b 7c 54 69 bc
       0.020866387 -0.02751665 0.005242592 -0.014241334
0001e0 a5 58 a8 3a 7a 3e 1f bb 3f fe 91 bc 77 8c 5c 3c
       0.0012843801 -0.0024298714 -0.01782143 0.013461224
0001f0 78 4a f4 3c 8a 7b fd 3c a5 85 51 3c 5c 99 08 bd
       0.029820666 0.030942697 0.012788211 -0.03334938
000200 ed 4e 3f bd eb 3c 09 3d 1d dc a1 bb 1d 33 0c 3c
       -0.04670613 0.03350536 -0.0049395696 0.008557108
000210 87 d3 d4 3c e6 b9 bd ba 39 92 8b bc 53 00 ba 3b
       0.02597977 -0.0014474958 -0.017037498 0.005676308
000220 09 93 86 bc 6c f9 80 bc 15 70 37 bc dc 17 8c bc
       -0.016427534 -0.015743934 -0.011196156 -0.01710122
000230 a2 ae 0f 3c 24 bd 37 3d e8 41 80 bc 33 14 e4 bc
       0.008769663 0.044858113 -0.015656427 -0.027841663
000240 98 03 05 bd 36 bc 0f bc b2 bd 94 3a 9b 71 09 3d
       -0.03247413 -0.0087729 0.0011348038 0.03355561
000250 f8 d1 21 38 2e 3a be bc cf 9c 04 bd 1b 50 54 bc
       3.858094e-05 -0.023221102 -0.032376107 -0.012958552
000260 3e f8 aa 3c 97 be 3e bc 04 35 29 3c 30 c5 4f 3c
       0.020870324 -0.01164212 0.010327581 0.0126812905
000270 56 4b 03 3d a7 67 51 bc 2a a5 0e 3d 38 a4 c3 3a
       0.032054268 -0.01278106 0.03482548 0.001492626
000280 39 e9 6c bb 38 4a d7 bb 7e 16 25 b9 c1 21 8d 3b
       -0.0036149754 -0.006570127 -0.00015744005 0.0043070023
000290 6e b8 0c 3c 7b 50 b2 3c 58 7f c8 3b 81 7e 4f b9
       0.008588893 0.021766892 0.006118696 -0.00019788185
0002a0 40 c6 9d bb c1 4b 85 3b 3e 30 42 3d 76 fd 96 3c
       -0.004814893 0.0040678685 0.04740929 0.018431406
0002b0 09 9b 7d 3c 51 aa 15 bc 6a 25 2f 3c 27 21 12 bd
       0.015478858 -0.009134845 0.010690073 -0.035676148
0002c0 02 64 d1 bb 89 55 c9 3c ed cc 95 3c 01 23 a8 bc
       -0.0063900957 0.02457692 0.018286193 -0.020524504
0002d0 d7 a3 e8 bb 9a 31 05 3d 78 6e a7 bc c5 32 22 3c
       -0.0070996094 0.032518007 -0.020438418 0.0098998
0002e0 7b 03 03 bc 44 28 e3 3b 23 1d fa ba b8 35 1a 3d
       -0.007996435 0.0069322903 -0.001908217 0.037648886
0002f0 01 d5 5e bc f1 79 95 3c c0 97 a8 3c 93 06 b9 bc
       -0.013600589 0.018246623 0.020580173 -0.022586143
000300 ea 1f 7d 3c 9d d0 e1 3c 8e db eb bb 32 d3 85 ba
       0.015449503 0.027565295 -0.007197804 -0.0010210036
000310 d4 ce 2b bc 15 61 c1 3c 8b 93 d7 ba dd b2 d3 3c
       -0.010486323 0.023605863 -0.001644717 0.025842125
000320 7f a2 8d b9 50 27 10 bd 34 94 e6 3c 39 c5 92 3c
       -0.00027014685 -0.03519374 0.02814684 0.017916309
000330 93 c6 a0 bc 80 d0 1c bd 5b f3 67 bc 22 fe 42 ba
       -0.019625938 -0.03828478 -0.014157142 -0.00074383814
000340 5d ca 2e 3c 14 4f 60 3c 38 15 98 bc b4 e6 95 3b
       0.010668364 0.013690729 -0.018564805 0.004574621
000350 0a 8b fa bc d3 42 a1 3c 04 f3 94 3c f9 f3 ef bb
       -0.030583877 0.019685185 0.018182285 -0.007322785
000360 e9 a2 58 3d cd 8a 2c 3c 10 34 30 bd e2 e0 f5 bc
       0.05288974 0.01053114 -0.0430184 -0.030014459
000370 62 41 f6 ba 15 45 42 bb 50 48 9b 3c 14 7c 49 b8
       -0.0018787796 -0.0029643227 0.01895538 -4.803769e-05
000380 ee f9 d1 bc 18 79 08 3c a2 12 58 3c a4 4c b3 bc
       -0.025631871 0.008329652 0.013188036 -0.021887131
000390 20 bb a1 3b 85 01 a9 bc d2 dd 09 bd be eb b4 bc
       0.004935637 -0.020630607 -0.03365881 -0.022085067
0003a0 80 cd a2 bc 66 66 0d ba f0 a9 06 bb 60 e9 88 ba
       -0.01987338 -0.00053939817 -0.0020548068 -0.0010445528
0003b0 06 ee e9 3c 9b a1 df b8 e1 17 70 3d aa e2 c3 bc
       0.028555881 -0.0001066357 0.058616523 -0.023911793
0003c0 78 12 f9 3b 04 fd 0c 3c 17 79 8e 3c fe d5 1e bb
       0.0076010786 0.0086052455 0.017391725 -0.0024236436
0003d0 3b 9a b5 ba 06 6f 29 bb f7 e9 8c 3c e7 4b 8b bb
       -0.0013855168 -0.0025853529 0.017201407 -0.0042509916
0003e0 73 ff b4 ba 53 3f 1f 3b c8 a4 1c bc 09 11 a1 bc
       -0.001380904 0.0024299219 -0.009560771 -0.019661443
0003f0 bc 31 4a bc 82 32 58 3c 24 be 1a 3b b4 62 ec b9
       -0.012340959 0.013195636 0.0023611868 -0.00045086967

fai_gcn_networks.1.residual.0.bias f4 [64]
000000 00 00 00 00 00 00 00 00 00 00 00 00 00 00 00 00
       0.0 0.0 0.0 0.0
000010 00 00 00 00 00 00 00 00 00 00 00 00 00 00 00 00
       0.0 0.0 0.0 0.0
000020 00 00 00 00 00 00 00 00 00 00 00 00 00 00 00 00
       0.0 0.0 0.0 0.0
000030 00 00 00 00 00 00 00 00 00 00 00 00 00 00 00 00
       0.0 0.0 0.0 0.0
000040 00 00 00 00 00 00 00 00 00 00 00 00 00 00 00 00
       0.0 0.0 0.0 0.0
000050 00 00 00 00 00 00 00 00 00 00 00 00 00 00 00 00
       0.0 0.0 0.0 0.0
000060 00 00 00 00 00 00 00 00 00 00 00 00 00 00 00 00
       0.0 0.0 0.0 0.0
000070 00 00 00 00 00 00 00 00 00 00 00 00 00 00 00 00
       0.0 0.0 0.0 0.0
000080 00 00 00 00 00 00 00 00 00 00 00 00 00 00 00 00
       0.0 0.0 0.0 0.0
000090 00 00 00 00 00 00 00 00 00 00 00 00 00 00 00 00
       0.0 0.0 0.0 0.0
0000a0 00 00 00 00 00 00 00 00 00 00 00 00 00 00 00 00
       0.0 0.0 0.0 0.0
0000b0 00 00 00 00 00 00 00 00 00 00 00 00 00 00 00 00
       0.0 0.0 0.0 0.0
0000c0 00 00 00 00 00 00 00 00 00 00 00 00 00 00 00 00
       0.0 0.0 0.0 0.0
0000d0 00 00 00 00 00 00 00 00 00 00 00 00 00 00 00 00
       0.0 0.0 0.0 0.0
0000e0 00 00 00 00 00 00 00 00 00 00 00 00 00 00 00 00
       0.0 0.0 0.0 0.0
0000f0 00 00 00 00 00 00 00 00 00 00 00 00 00 00 00 00
       0.0 0.0 0.0 0.0

fai_gcn_networks.1.residual.1.weight f4 [64]
000000 3d d7 7b 3f bd a2 80 3f 92 a9 82 3f eb 78 83 3f
       0.983753 1.0049664 1.0207999 1.0271276
000010 f3 c4 80 3f 29 1f 7a 3f 80 1a 81 3f c4 03 81 3f
       1.0060104 0.97703797 1.0086212 1.0079274
000020 bb 11 82 3f e3 62 83 3f 8b 42 72 3f 1b 92 7a 3f
       1.0161661 1.0264553 0.94632787 0.9787919
000030 93 e0 82 3f bd 88 7b 3f b3 e9 7f 3f 89 72 84 3f
       1.0224785 0.9825552 0.9996597 1.0347453
000040 8d 6e 7f 3f 3d 7e 80 3f 6c 99 85 3f 91 a6 86 3f
       0.9977806 1.0038525 1.0437446 1.0519582
000050 6d 02 84 3f df 90 7d 3f 52 55 7e 3f 93 8b 82 3f
       1.031324 0.9904918 0.9934894 1.0198845
000060 c1 ed 7f 3f 62 23 7b 3f ea 4c 7e 3f 22 cc 7b 3f
       0.9997216 0.98100865 0.9933611 0.98358357
000070 ab 62 7c 3f 66 d7 81 3f 99 d8 7e 3f c6 f0 80 3f
       0.98588055 1.0143859 0.9954925 1.0073478
000080 88 32 78 3f 26 72 7b 3f c7 29 80 3f 19 05 7e 3f
       0.96952105 0.9822105 1.001275 0.9922653
000090 d7 54 85 3f 0d 78 75 3f bf 60 81 3f 1f c8 7c 3f
       1.0416516 0.9588631 1.010765 0.9874286
0000a0 db a1 74 3f 1f f1 7c 3f 58 d2 80 3f 8a 3d 80 3f
       0.9555947 0.9880542 1.0064192 1.001878
0000b0 f2 40 7b 3f 8a f8 82 3f 72 3b 7f 3f 53 ec 7b 3f
       0.98145974 1.0232098 0.9970008 0.9840748
0000c0 f1 0a 81 3f c7 6e 80 3f be 01 83 3f fe ee 7f 3f
       1.0081464 1.0033807 1.0234907 0.9997405
0000d0 38 7c 82 3f 4f 90 7d 3f 5d dd 7c 3f 02 34 82 3f
       1.0194159 0.9904832 0.98775274 1.0172122
0000e0 99 f2 83 3f 59 cb 7f 3f 77 d9 77 3f 73 3a 77 3f
       1.030841 0.9991966 0.968162 0.9657356
0000f0 4f d1 83 3f 5c 0c 82 3f 5b fa 83 3f 9f d1 7e 3f
       1.0298251 1.0160022 1.0310777 0.99538606

fai_gcn_networks.1.residual.1.bias f4 [64]
000000 00 00 00 00 00 00 00 00 00 00 00 00 00 00 00 00
       0.0 0.0 0.0 0.0
000010 00 00 00 00 00 00 00 00 00 00 00 00 00 00 00 00
       0.0 0.0 0.0 0.0
000020 00 00 00 00 00 00 00 00 00 00 00 00 00 00 00 00
       0.0 0.0 0.0 0.0
000030 00 00 00 00 00 00 00 00 00 00 00 00 00 00 00 00
       0.0 0.0 0.0 0.0
000040 00 00 00 00 00 00 00 00 00 00 00 00 00 00 00 00
       0.0 0.0 0.0 0.0
000050 00 00 00 00 00 00 00 00 00 00 00 00 00 00 00 00
       0.0 0.0 0.0 0.0
000060 00 00 00 00 00 00 00 00 00 00 00 00 00 00 00 00
       0.0 0.0 0.0 0.0
000070 00 00 00 00 00 00 00 00 00 00 00 00 00 00 00 00
       0.0 0.0 0.0 0.0
000080 00 00 00 00 00 00 00 00 00 00 00 00 00 00 00 00
       0.0 0.0 0.0 0.0
000090 00 00 00 00 00 00 00 00 00 00 00 00 00 00 00 00
       0.0 0.0 0.0 0.0
0000a0 00 00 00 00 00 00 00 00 00 00 00 00 00 00 00 00
       0.0 0.0 0.0 0.0
0000b0 00 00 00 00 00 00 00 00 00 00 00 00 00 00 00 00
       0.0 0.0 0.0 0.0
0000c0 00 00 00 00 00 00 00 00 00 00 00 00 00 00 00 00
       0.0 0.0 0.0 0.0
0000d0 00 00 00 00 00 00 00 00 00 00 00 00 00 00 00 00
       0.0 0.0 0.0 0.0
0000e0 00 00 00 00 00 00 00 00 00 00 00 00 00 00 00 00
       0.0 0.0 0.0 0.0
0000f0 00 00 00 00 00 00 00 00 00 00 00 00 00 00 00 00
       0.0 0.0 0.0 0.0

fai_gcn_networks.1.residual.1.running_mean f4 [64]
000000 db cb 96 35 66 90 68 b5 cf 91 5e b5 5b 60 36 b4
       1.1235201e-06 -8.663686e-07 -8.2913624e-07 -1.6985125e-07
000010 f6 06 d3 b4 0a 28 17 35 89 d6 0e b6 d6 3d 87 b5
       -3.9306877e-07 5.631015e-07 -2.1284525e-06 -1.007628e-06
000020 0f 06 05 33 b0 a1 e9 b3 a8 cd 42 35 79 7f e0 b5
       3.0971986e-08 -1.0879319e-07 7.25699e-07 -1.67264e-06
000030 61 f5 d9 34 0f b9 5d 36 9e b6 6b 33 5f 25 84 35
       4.0597936e-07 3.3039285e-06 5.488129e-08 9.845643e-07
000040 c4 23 c4 b5 90 1e c5 35 72 f3 72 b5 29 ec 3c 35
       -1.4613547e-06 1.4686539e-06 -9.0506285e-07 7.0379116e-07
000050 34 99 9d 35 be 79 c9 35 08 31 9b b4 28 cb d2 35
       1.1742e-06 1.5011099e-06 -2.8906675e-07 1.5705346e-06
000060 13 54 04 34 8c 59 1d 34 b9 66 10 b5 41 58 54 b5
       1.2324044e-07 1.4654341e-07 -5.379366e-07 -7.910458e-07
000070 8d 7d e4 35 64 a4 3b b5 c2 58 8f b5 9b 50 0e b5
       1.7023864e-06 -6.990215e-07 -1.0680162e-06 -5.301642e-07
000080 6d 9c 38 34 49 35 c9 b5 20 c9 1d b5 a0 f4 cf b3
       1.7193243e-07 -1.4991175e-06 -5.8779733e-07 -9.683686e-08
000090 a1 7f 97 b5 f5 ec 7c 34 2e dc da b5 95 d4 97 35
       -1.1287522e-06 2.3555533e-07 -1.6306346e-06 1.1312246e-06
0000a0 8e b6 77 b5 77 6c 50 33 21 fe 88 35 a0 36 b9 b3
       -9.228032e-07 4.8527422e-08 1.0206751e-06 -8.62467e-08
0000b0 5a 9d de b4 1f d2 ef 34 82 e1 d7 b5 a2 5c 96 35
       -4.146521e-07 4.4670102e-07 -1.608438e-06 1.1202831e-06
0000c0 ef 41 06 b6 a3 b5 40 35 5a ee e7 b2 c1 59 40 b2
       -2.0005934e-06 7.178989e-07 -2.7000329e-08 -1.1196279e-08
0000d0 94 25 99 35 61 44 18 35 e8 1b 77 33 be a6 bd 35
       1.1410325e-06 5.6723917e-07 5.753455e-08 1.4130126e-06
0000e0 f8 50 18 b5 3c 38 9d 34 ee 39 2c b5 f7 8b 33 35
       -5.674224e-07 2.9284445e-07 -6.415929e-07 6.688637e-07
0000f0 3c 31 1f b5 50 30 fc b5 eb d0 3b 36 22 9a cd b4
       -5.930376e-07 -1.8789524e-06 2.7986778e-06 -3.8296372e-07

fai_gcn_networks.1.residual.1.running_var f4 [64]
000000 09 93 4f 2c 23 ac 6c 2c 52 84 f5 2c c0 6c 12 2c
       2.949809e-12 3.3633172e-12 6.9780093e-12 2.0808216e-12
000010 20 9f 16 2c 16 46 02 2c 13 f1 96 2d 71 58 ac 2b
       2.1404614e-12 1.8513017e-12 1.7160084e-11 1.2245882e-12
000020 af 83 6b 2c 7c 83 06 2b 7a c0 ed 2b 27 6c 3d 2c
       3.3468608e-12 4.7788835e-13 1.6893286e-12 2.6918552e-12
000030 1b d2 30 2c 11 0e 8c 2d 4a b8 b8 2b 9c 45 06 2b
       2.5127736e-12 1.5922404e-11 1.3125137e-12 4.7702966e-13
000040 bd ae b4 2d e2 f6 62 2c 2a 83 9b 2c 6c 14 8e 2c
       2.054123e-11 3.225358e-12 4.419927e-12 4.03815e-12
000050 be 1c 74 2b 79 80 95 2c 29 44 47 2b b8 95 b3 2c
       8.67261e-13 4.249098e-12 7.0793593e-13 5.104108e-12
000060 0d 5e 84 2c 55 80 af 2a 52 42 34 2c e2 87 f0 2c
       3.7621074e-12 3.1175293e-13 2.5616354e-12 6.8362963e-12
000070 e2 c3 09 2c ed fd e8 2a cf 7c 4e 2c 71 08 01 2c
       1.9577608e-12 4.1387675e-13 2.9343643e-12 1.8336689e-12
000080 f9 4c 0b 2b e7 e3 7c 2c 75 51 85 2b 4c 1c d1 2b
       4.948954e-13 3.5937865e-12 9.472827e-13 1.4858197e-12
000090 ec a4 78 2c e1 9f 81 2b c9 70 b7 2b f5 c9 d2 2c
       3.533447e-12 9.210377e-13 1.3034236e-12 5.9909807e-12
0000a0 8a 54 fe 2c 70 fa da 2b 80 7c e6 2b 99 04 0e 2b
       7.2285e-12 1.5559342e-12 1.6377039e-12 5.0454915e-13
0000b0 c3 2f 08 2b b7 19 54 2b 3f 87 8f 2b 5b 30 a6 2b
       4.838319e-13 7.5353217e-13 1.0198299e-12 1.1808431e-12
0000c0 42 0b 19 2d 45 26 5c 2c 03 20 f7 2b 5c a5 57 2b
       8.699543e-12 3.1285124e-12 1.7559291e-12 7.6612826e-13
0000d0 24 28 10 2c d8 f2 17 2c d0 c7 c3 2b 00 fa 9a 2c
       2.0485913e-12 2.1593196e-12 1.3911042e-12 4.404699e-12
0000e0 bd 1f af 2c 08 ca 24 2c 91 d1 9e 2c ae b0 a8 2c
       4.977323e-12 2.3417952e-12 4.5138966e-12 4.7944626e-12
0000f0 08 ff 07 2d a5 ce c6 2c f1 9d ea 2c 1f f0 6d 2c
       7.73049e-12 5.6504406e-12 6.668215e-12 3.381302e-12
