capsule-6073072/code/work_dir/recognition/kinetics_skeleton/FAI_GCN/epoch190_model.pt (torch, 74070 bytes, 22 tensors)

A f4 [3, 18, 18]
0	0x3e800000	0.25
1	0x00000000	0.0
2	0x00000000	0.0
3	0x00000000	0.0
4	0x00000000	0.0
5	0x00000000	0.0
6	0x00000000	0.0
7	0x00000000	0.0
8	0x00000000	0.0
9	0x00000000	0.0
10	0x00000000	0.0
11	0x00000000	0.0
12	0x00000000	0.0
13	0x00000000	0.0
14	0x00000000	0.0
15	0x00000000	0.0
16	0x00000000	0.0
17	0x00000000	0.0
18	0x00000000	0.0
19	0x3e800000	0.25
20	0x00000000	0.0
21	0x00000000	0.0
22	0x00000000	0.0
23	0x00000000	0.0
24	0x00000000	0.0
25	0x00000000	0.0
26	0x00000000	0.0
27	0x00000000	0.0
28	0x00000000	0.0
29	0x00000000	0.0
30	0x00000000	0.0
31	0x00000000	0.0
32	0x00000000	0.0
33	0x00000000	0.0
34	0x00000000	0.0
35	0x00000000	0.0
36	0x00000000	0.0
37	0x00000000	0.0
38	0x3e800000	0.25
39	0x00000000	0.0
40	0x00000000	0.0
41	0x00000000	0.0
42	0x00000000	0.0
43	0x00000000	0.0
44	0x00000000	0.0
45	0x00000000	0.0
46	0x00000000	0.0
47	0x00000000	0.0
48	0x00000000	0.0
49	0x00000000	0.0
50	0x00000000	0.0
51	0x00000000	0.0
52	0x00000000	0.0
53	0x00000000	0.0
54	0x00000000	0.0
55	0x00000000	0.0
56	0x00000000	0.0
57	0x3eaaaaab	0.33333334
58	0x00000000	0.0
59	0x00000000	0.0
60	0x00000000	0.0
61	0x00000000	0.0
62	0x00000000	0.0
63	0x00000000	0.0
64	0x00000000	0.0
65	0x00000000	0.0
66	0x00000000	0.0
67	0x00000000	0.0
68	0x00000000	0.0
69	0x00000000	0.0
70	0x00000000	0.0
71	0x00000000	0.0
72	0x00000000	0.0
73	0x00000000	0.0
74	0x00000000	0.0
75	0x00000000	0.0
76	0x3f000000	0.5
77	0x00000000	0.0
78	0x00000000	0.0
79	0x00000000	0.0
80	0x00000000	0.0
81	0x00000000	0.0
82	0x00000000	0.0
83	0x00000000	0.0
84	0x00000000	0.0
85	0x00000000	0.0
86	0x00000000	0.0
87	0x00000000	0.0
88	0x00000000	0.0
89	0x00000000	0.0
90	0x00000000	0.0
91	0x00000000	0.0
92	0x00000000	0.0
93	0x00000000	0.0
94	0x00000000	0.0
95	0x3e800000	0.25
96	0x00000000	0.0
97	0x00000000	0.0
98	0x00000000	0.0
99	0x00000000	0.0
100	0x00000000	0.0
101	0x00000000	0.0
102	0x00000000	0.0
103	0x00000000	0.0
104	0x00000000	0.0
105	0x00000000	0.0
106	0x00000000	0.0
107	0x00000000	0.0
108	0x00000000	0.0
109	0x00000000	0.0
110	0x00000000	0.0
111	0x00000000	0.0
112	0x00000000	0.0
113	0x00000000	0.0
114	0x3eaaaaab	0.33333334
115	0x00000000	0.0
116	0x00000000	0.0
117	0x00000000	0.0
118	0x00000000	0.0
119	0x00000000	0.0
120	0x00000000	0.0
121	0x00000000	0.0
122	0x00000000	0.0
123	0x00000000	0.0
124	0x00000000	0.0
125	0x00000000	0.0
126	0x00000000	0.0
127	0x00000000	0.0
128	0x00000000	0.0
129	0x00000000	0.0
130	0x00000000	0.0
131	0x00000000	0.0
132	0x00000000	0.0
133	0x3f000000	0.5
134	0x00000000	0.0
135	0x00000000	0.0
136	0x00000000	0.0
137	0x00000000	0.0
138	0x00000000	0.0
139	0x00000000	0.0
140	0x00000000	0.0
141	0x00000000	0.0
142	0x00000000	0.0
143	0x00000000	0.0
144	0x00000000	0.0
145	0x00000000	0.0
146	0x00000000	0.0
147	0x00000000	0.0
148	0x00000000	0.0
149	0x00000000	0.0
150	0x00000000	0.0
151	0x00000000	0.0
152	0x3eaaaaab	0.33333334
153	0x00000000	0.0
154	0x00000000	0.0
155	0x00000000	0.0
156	0x00000000	0.0
157	0x00000000	0.0
158	0x00000000	0.0
159	0x00000000	0.0
160	0x00000000	0.0
161	0x00000000	0.0
162	0x00000000	0.0
163	0x00000000	0.0
164	0x00000000	0.0
165	0x00000000	0.0
166	0x00000000	0.0
167	0x00000000	0.0
168	0x00000000	0.0
169	0x00000000	0.0
170	0x00000000	0.0
171	0x3eaaaaab	0.33333334
172	0x00000000	0.0
173	0x00000000	0.0
174	0x00000000	0.0
175	0x00000000	0.0
176	0x00000000	0.0
177	0x00000000	0.0
178	0x00000000	0.0
179	0x00000000	0.0
180	0x00000000	0.0
181	0x00000000	0.0
182	0x00000000	0.0
183	0x00000000	0.0
184	0x00000000	0.0
185	0x00000000	0.0
186	0x00000000	0.0
187	0x00000000	0.0
188	0x00000000	0.0
189	0x00000000	0.0
190	0x3f000000	0.5
191	0x00000000	0.0
192	0x00000000	0.0
193	0x00000000	0.0
194	0x00000000	0.0
195	0x00000000	0.0
196	0x00000000	0.0
197	0x00000000	0.0
198	0x00000000	0.0
199	0x00000000	0.0
200	0x00000000	0.0
201	0x00000000	0.0
202	0x00000000	0.0
203	0x00000000	0.0
204	0x00000000	0.0
205	0x00000000	0.0
206	0x00000000	0.0
207	0x00000000	0.0
208	0x00000000	0.0
209	0x3eaaaaab	0.33333334
210	0x00000000	0.0
211	0x00000000	0.0
212	0x00000000	0.0
213	0x00000000	0.0
214	0x00000000	0.0
215	0x00000000	0.0
216	0x00000000	0.0
217	0x00000000	0.0
218	0x00000000	0.0
219	0x00000000	0.0
220	0x00000000	0.0
221	0x00000000	0.0
222	0x00000000	0.0
223	0x00000000	0.0
224	0x00000000	0.0
225	0x00000000	0.0
226	0x00000000	0.0
227	0x00000000	0.0
228	0x3eaaaaab	0.33333334
229	0x00000000	0.0
230	0x00000000	0.0
231	0x00000000	0.0
232	0x00000000	0.0
233	0x00000000	0.0
234	0x00000000	0.0
235	0x00000000	0.0
236	0x00000000	0.0
237	0x00000000	0.0
238	0x00000000	0.0
239	0x00000000	0.0
240	0x00000000	0.0
241	0x00000000	0.0
242	0x00000000	0.0
243	0x00000000	0.0
244	0x00000000	0.0
245	0x00000000	0.0
246	0x00000000	0.0
247	0x3f000000	0.5
248	0x00000000	0.0
249	0x00000000	0.0
250	0x00000000	0.0
251	0x00000000	0.0
252	0x00000000	0.0
253	0x00000000	0.0
254	0x00000000	0.0
255	0x00000000	0.0

data_bn.weight f4 [54]
0	0x3f4e3810	0.80554295
1	0x3f4cab2e	0.799487
2	0x3f5038ba	0.8133656
3	0x3f4da11b	0.8032395
4	0x3f5124d7	0.8169684
5	0x3f404aaa	0.7511393
6	0x3f516599	0.8179565
7	0x3f464f52	0.77464783
8	0x3f547e83	0.8300554
9	0x3f4381a8	0.76369715
10	0x3f4bd6b9	0.79624516
11	0x3f498a37	0.78726524
12	0x3f4cb4c6	0.7996334
13	0x3f525d8f	0.8217401
14	0x3f4c335e	0.7976588
15	0x3f46b386	0.7761768
16	0x3f465392	0.7747127
17	0x3f437ada	0.7635933
18	0x3f505ae8	0.8138871
19	0x3f5253c6	0.8215908
20	0x3f4d7ed8	0.80271673
21	0x3f509da7	0.8149056
22	0x3f4c4e64	0.79807115
23	0x3f4e5b12	0.8060771
24	0x3f4ff6e7	0.8123612
25	0x3f5315ba	0.8245503
26	0x3f4bf292	0.7966701
27	0x3f4d411c	0.80177474
28	0x3f4c3fda	0.7978493
29	0x3f4e5962	0.8060514
30	0x3f456dd8	0.77120733
31	0x3f4de7b4	0.80431676
32	0x3f4ad90e	0.7923745
33	0x3f4cd4ad	0.8001202
34	0x3f4fe90d	0.8121498
35	0x3f4882f1	0.783248
36	0x3f49a632	0.7876922
37	0x3f4b8463	0.7949888
38	0x3f4e4836	0.80578935
39	0x3f49eeef	0.7888021
40	0x3f4cd8d7	0.8001837
41	0x3f4b350c	0.7937782
42	0x3f389937	0.7210879
43	0x3f45368b	0.7703635
44	0x3f4855f0	0.7825613
45	0x3f49c5d0	0.7881746
46	0x3f4c0f6d	0.7971104
47	0x3f51286d	0.8170231
48	0x3f4dd540	0.8040352
49	0x3f5373df	0.8259868
50	0x3f4cca85	0.7999652
51	0x3f51be9d	0.8193148
52	0x3f3ef5e3	0.74593943
53	0x3f40a786	0.7525562

data_bn.bias f4 [54]
0	0x27094319	1.9048943e-15
1	0x2b2ab42a	6.064616e-13
2	0xaa2055ac	-1.4240578e-13
3	0x281045ef	8.00877e-15
4	0xa82af240	-9.489425e-15
5	0xa89e87e3	-1.7600455e-14
6	0x28f1a716	2.6828837e-14
7	0x2b58271b	7.6792885e-13
8	0xaa11d1cb	-1.2951374e-13
9	0xa9fa7b5d	-1.11236304e-13
10	0xaab9ae22	-3.298343e-13
11	0x2aa67da0	2.9574693e-13
12	0xa8612957	-1.2498973e-14
13	0xa8a237f7	-1.8009884e-14
14	0xaa5fab78	-1.9865869e-13
15	0x288c8dbd	1.5604592e-14
16	0x2b137184	5.2382426e-13
17	0xaa133a50	-1.3076454e-13
18	0x29b519c4	8.042484e-14
19	0x2af1414d	4.285551e-13
20	0xaa9f9067	-2.8344273e-13
21	0x2959e7a3	4.8384592e-14
22	0xaa96c609	-2.6782767e-13
23	0xa9e10675	-9.993127e-14
24	0xa9024a60	-2.893031e-14
25	0x29051412	2.954934e-14
26	0xaa27a0ee	-1.4888413e-13
27	0xa9cad0a1	-9.0067934e-14
28	0x2a7808de	2.2029901e-13
29	0x2a4d993d	1.8260823e-13
30	0xa8543b53	-1.1781228e-14
31	0x29a5b9bf	7.359694e-14
32	0xa9410c93	-4.2865515e-14
33	0xa99e4448	-7.0284544e-14
34	0x29c6d832	8.83047e-14
35	0xaa90f1f0	-2.5747416e-13
36	0xa9f9cc8c	-1.10933046e-13
37	0x2a9aa40a	2.746972e-13
38	0xaa988114	-2.709019e-13
39	0x2a85566d	2.3685516e-13
40	0x2a4165f0	1.717721e-13
41	0xa9e5187d	-1.0173891e-13
42	0xa9000dbe	-2.843363e-14
43	0xaa8e6d8d	-2.5300283e-13
44	0x2a90f144	2.574695e-13
45	0xa9d427e7	-9.421613e-14
46	0x2963ad23	5.0554297e-14
47	0x2a8f7afa	2.5487235e-13
48	0x3424c1d0	1.5344199e-07
49	0xa93505e7	-4.0195193e-14
50	0xa87a301a	-1.3888218e-14
51	0x29cece42	9.184018e-14
52	0xaa483a16	-1.7783721e-13
53	0xaa53ef74	-1.8823642e-13

data_bn.running_mean f4 [54]
0	0x3aa6944f	0.0012708994
1	0x3b5414c9	0.0032361022
2	0x3cf80212	0.030274425
3	0x3ad67198	0.0016360758
4	0x3bd76063	0.0065727695
5	0x3ce663fe	0.028123852
6	0x39f399a0	0.0004646303
7	0x3bd26c57	0.0064216065
8	0x3cd2db18	0.025739238
9	0xb9d48a1c	-0.0004053869
10	0x3c11fd2f	0.008910461
11	0x3cc9b230	0.0246211
12	0xb8090331	-3.2666318e-05
13	0x3c205457	0.009785733
14	0x3cc82e3b	0.024436107
15	0x3b3be306	0.0028669252
16	0x3bdf5cf2	0.0068165
17	0x3cd0cf59	0.025489496
18	0x3b5ac6d8	0.003338268
19	0x3c13b51b	0.009015347
20	0x3cba5ef0	0.022750348
21	0x3b41ddec	0.0029581739
22	0x3c17e7e2	0.009271594
23	0x3cbb3891	0.022854121
24	0x399f608d	0.0003039878
25	0x3c61efb6	0.013790062
26	0x3ca32deb	0.019919356
27	0xba853ebe	-0.0010165793
28	0x3c88c3b1	0.016694875
29	0x3cb1fc81	0.021726849
30	0x39804cf2	0.0002447139
31	0x3ca3bb01	0.019986631
32	0x3cb441e3	0.022004073
33	0x3afbd760	0.0019213967
34	0x3c675e0f	0.014121546
35	0x3ca3eabd	0.020009393
36	0x3b202f14	0.0024442123
37	0x3c8cde98	0.017195985
38	0x3cbbadda	0.022910047
39	0x3acde8c3	0.0015709627
40	0x3ca69509	0.020334737
41	0x3cab3a28	0.020901754
42	0x3a9221c8	0.0011148984
43	0x3b2f63f1	0.002676245
44	0x3cb9698d	0.022633338
45	0x3b024bc9	0.0019881597
46	0x3b3715dc	0.0027936613
47	0x3cf11baa	0.029432137
48	0x3b1e9956	0.0024200282
49	0x3be3ec51	0.0069556613
50	0x3c2e184a	0.010625908
51	0x3b4328c5	0.002977894
52	0x3ba39153	0.004991689
53	0x3cbac70e	0.022799995

data_bn.running_var f4 [54]
0	0x3b0e8b43	0.0021750487
1	0x3baffdcf	0.0053708325
2	0x3c7c46ee	0.01539777
3	0x3b0f1759	0.0021833985
4	0x3b8b1d76	0.0042454554
5	0x3c56fabd	0.013121304
6	0x3b1d4a96	0.0024000756
7	0x3b8bd6c2	0.0042675445
8	0x3c37543e	0.0111895185
9	0x3b303233	0.002688539
10	0x3b725558	0.0036977138
11	0x3c2a9f30	0.01041393
12	0x3b37c8ad	0.0028043196
13	0x3b682155	0.0035420258
14	0x3c3019d5	0.010748346
15	0x3b0db910	0.0021625198
16	0x3b8984cb	0.0041967384
17	0x3c316fad	0.010829848
18	0x3b13e7f4	0.0022568675
19	0x3b72c318	0.0037042554
20	0x3c149c57	0.009070477
21	0x3b191fbf	0.002336487
22	0x3b6fca8a	0.0036589229
23	0x3c1d472b	0.009599487
24	0x3b1b9e4d	0.0023745478
25	0x3b55cac4	0.0032622078
26	0x3bdfa222	0.0068247477
27	0x3b2ffe68	0.0026854519
28	0x3b5d37e5	0.003375524
29	0x3c1af6d0	0.009458259
30	0x3b210d99	0.0024574755
31	0x3b85f710	0.00408829
32	0x3c211ecc	0.009834003
33	0x3b0f400a	0.0021858239
34	0x3b569768	0.0032744054
35	0x3bde1dc8	0.0067784525
36	0x3b179bb6	0.0023133582
37	0x3b6157e2	0.0034384658
38	0x3c1bac7c	0.009501573
39	0x3b110a5b	0.0022131416
40	0x3b82ccee	0.0039917147
41	0x3c0caef0	0.00858663
42	0x3b0ea368	0.0021764878
43	0x3bb770ab	0.005598148
44	0x3c3ad666	0.011403656
45	0x3b0c2c20	0.0021388605
46	0x3bb44e0c	0.005502468
47	0x3c773ca5	0.015090142
48	0x3b1803e6	0.0023195683
49	0x3b865254	0.0040991697
50	0x3ba07ae3	0.0048974617
51	0x3b0c066f	0.002136614
52	0x3ba2c629	0.00496747
53	0x3c2fc1ef	0.01072739

fai_gcn_networks.0.gcn.conv.weight f4 [96, 3, 1, 1]
0	0x272b3777	2.3761085e-15
1	0xa78afb35	-3.8575054e-15
2	0xab7c7a24	-8.969789e-13
3	0xb06a5c9f	-8.5260327e-10
4	0x32006392	7.47322e-09
5	0x30ee6a64	1.7347017e-09
6	0xa63adeb5	-6.483354e-16
7	0xa6dd269f	-1.5345424e-15
8	0xa580d4d3	-2.2348676e-16
9	0xb17b892c	-3.660328e-09
10	0x3186e41e	3.925847e-09
11	0xb41ecf95	-1.4790415e-07
12	0xa401e6ae	-2.816781e-17
13	0xa2c1f759	-5.2574644e-18
14	0xa488dd26	-5.935524e-17
15	0xae93ea2f	-6.7263854e-11
16	0xaf486d9c	-1.8228835e-10
17	0xaf4b21bc	-1.8474727e-10
18	0xac8fe901	-4.090173e-12
19	0xad02e65e	-7.440796e-12
20	0xacb727ec	-5.205605e-12
21	0xb28b8bba	-1.624527e-08
22	0x31550647	3.0999148e-09
23	0x31dd62db	6.443185e-09
24	0x28bb8849	2.0820275e-14
25	0xa7f57a32	-6.8133645e-15
26	0x28187af3	8.464355e-15
27	0xb2482c6c	-1.16516325e-08
28	0x3104aef8	1.9307986e-09
29	0x327e8aeb	1.4816332e-08
30	0x2dac8080	1.9611202e-11
31	0x2a259ca2	1.4709287e-13
32	0xac9fe8dd	-4.544905e-12
33	0x30e14094	1.6389259e-09
34	0xb0e47d7d	-1.6624849e-09
35	0xb389fc6b	-6.425474e-08
36	0xb1d4b398	-6.1904295e-09
37	0x329798cd	1.76482e-08
38	0xb19bbd78	-4.532634e-09
39	0x3022c230	5.9211214e-10
40	0x2f1d1b1b	1.4288697e-10
41	0xaf8ce08d	-2.5625405e-10
42	0x32ef35aa	2.7847666e-08
43	0x336e7c62	5.552682e-08
44	0x330e4e88	3.3133375e-08
45	0xa770283a	-3.3328498e-15
46	0x28c4d370	2.1852068e-14
47	0xa68565c2	-9.25631e-16
48	0x2c5edcb4	3.1670612e-12
49	0xac69ef96	-3.3244288e-12
50	0xae9474c5	-6.751003e-11
51	0xaefd5fe9	-1.1522145e-10
52	0xaeebf0e5	-1.0729354e-10
53	0x30b8a3bc	1.3434298e-09
54	0x2cdaf6c4	6.223329e-12
55	0x2e0f5309	3.2588186e-11
56	0x297c3150	5.5998012e-14
57	0xaeb56a3d	-8.249799e-11
58	0xaf8eccdc	-2.597521e-10
59	0xaf8ba934	-2.540418e-10
60	0x2f9aa314	2.812831e-10
61	0xaf75183b	-2.2291229e-10
62	0x2cbf5e5c	5.4390225e-12
63	0x24a18fd0	7.006625e-17
64	0xa48a0187	-5.985055e-17
65	0x2454fc5f	4.618394e-17
66	0x2bb55b17	1.2886106e-12
67	0x2ca021a3	4.551208e-12
68	0xb3390124	-4.3074706e-08
69	0x2ffa09fb	4.5481827e-10
70	0x2efacc54	1.140498e-10
71	0xb19b747e	-4.5243373e-09
72	0xb1e10b43	-6.549642e-09
73	0x311591ca	2.1765225e-09
74	0xafdaa04d	-3.976787e-10
75	0x319b35cb	4.5172093e-09
76	0x3087465f	9.842543e-10
77	0x300ce826	5.1261606e-10
78	0x2340d1b9	1.0452751e-17
79	0xa424dac2	-3.5747126e-17
80	0xa2efd00c	-6.500136e-18
81	0x271bc35b	2.1616474e-15
82	0x258e5e4a	2.4696966e-16
83	0x24b34c6c	7.775834e-17
84	0x27a9ab37	4.7092554e-15
85	0xa798928e	-4.234737e-15
86	0xa67eaf62	-8.836164e-16
87	0xa7a587f3	-4.5944096e-15
88	0xa8050128	-7.383234e-15
89	0xa63d3965	-6.565033e-16
90	0xaf1db691	-1.4343927e-10
91	0x2f029447	1.187611e-10
92	0xad706abf	-1.3666123e-11
93	0x2e25b242	3.767498e-11
94	0xaf75cfb3	-2.235641e-10
95	0x2e762576	5.5967196e-11
96	0x2815cebc	8.31599e-15
97	0xa7a50c7b	-4.581023e-15
98	0xa6755360	-8.5114445e-16
99	0xb036a839	-6.6450273e-10
100	0x32bc0c1b	2.1891585e-08
101	0x2f4d4c11	1.8671666e-10
102	0x253f84ba	1.6611579e-16
103	0xa65450f3	-7.366198e-16
104	0xa46859ac	-5.0382936e-17
105	0xb3cd6068	-9.5635926e-08
106	0xadd71db5	-2.4455863e-11
107	0xb3e76fe2	-1.0777127e-07
108	0xa624f9eb	-5.723763e-16
109	0xa5320d96	-1.5443642e-16
110	0xa529c983	-1.4726688e-16
111	0x2e0513ad	3.0258174e-11
112	0xb16afbee	-3.4194687e-09
113	0xaf1f7f0e	-1.4506105e-10
114	0xac303b66	-2.5044077e-12
115	0x2b21348f	5.727163e-13
116	0x2c66dca3	3.2807444e-12
117	0xb2aa37af	-1.9815927e-08
118	0x36c3ab4f	5.831396e-06
119	0x3114a95d	2.1633106e-09
120	0x297630e4	5.466538e-14
121	0xa8945772	-1.6469224e-14
122	0x28a3a0cd	1.8166372e-14
123	0x31e1b6c8	6.5691417e-09
124	0xb1bea222	-5.54816e-09
125	0x3332a7d7	4.1596504e-08
126	0x2d94c3d3	1.6912615e-11
127	0x2cd32a92	6.001707e-12
128	0x2ce26293	6.4342503e-12
129	0x326478d3	1.3298819e-08
130	0x312d4143	2.521191e-09
131	0x332769ce	3.8978946e-08
132	0xb2aa97cf	-1.985964e-08
133	0x323a5744	1.0846467e-08
134	0x3111ab68	2.119771e-09
135	0x30883500	9.910366e-10
136	0x309c2ef1	1.1363835e-09
137	0x3009928d	5.004857e-10
138	0x33908527	6.729743e-08
139	0x3342d880	4.536605e-08
140	0xb36031e6	-5.2199447e-08
141	0x278290d4	3.623927e-15
142	0xa607945b	-4.7038593e-16
143	0x22668aa4	3.1244208e-18
144	0xac259449	-2.3530225e-12
145	0xac418732	-2.7501998e-12
146	0x2e00cc7a	2.9285442e-11
147	0x2f192dcd	1.393154e-10
148	0xae32e40b	-4.0675057e-11
149	0x2ffb06ec	4.5661552e-10
150	0x2d1df2bf	8.978317e-12
151	0xab495b75	-7.1536467e-13
152	0x2d5f7d53	1.270391e-11
153	0xaf836157	-2.3897925e-10
154	0xae97aff5	-6.897941e-11
155	0x2f1d0155	1.427954e-10
156	0xaff985ed	-4.5387996e-10
157	0xafd881a0	-3.9382275e-10
158	0x2f86369a	2.4413255e-10
159	0xa3a64609	-1.8027417e-17
160	0x21258b07	5.6088176e-19
161	0xa4163ee3	-3.2579332e-17
162	0xacdf275b	-6.3424105e-12
163	0x2d34e421	1.028247e-11
164	0x2dfeac7c	2.8953055e-11
165	0x30afd112	1.2792347e-09
166	0x309a65ee	1.1233945e-09
167	0xb0fe89c2	-1.8520085e-09
168	0xb09ae5d4	-1.1270296e-09
169	0x2fe54171	4.1701356e-10
170	0xadffdd95	-2.9088546e-11
171	0x317ffcc1	3.7251058e-09
172	0x31e13dbc	6.5553802e-09
173	0x3080b9f0	9.366072e-10
174	0x24eee1ec	1.03598773e-16
175	0xa4debaf4	-9.6593864e-17
176	0xa4301399	-3.8180516e-17
177	0x27ba0a91	5.1636827e-15
178	0x26a55c14	1.1474133e-15
179	0xa5528317	-1.8259011e-16
180	0xa631c0ab	-6.1670325e-16
181	0xa7b5d578	-5.0469035e-15
182	0x277f8635	3.5461113e-15
183	0xa81191df	-8.080748e-15
184	0xa59886cf	-2.6459147e-16
185	0x25a180df	2.8016374e-16
186	0xb388c0e4	-6.36808e-08
187	0x2f30eb99	1.6090808e-10
188	0x2da5a069	1.8829565e-11
189	0x2e999c61	6.985413e-11
190	0x2c40a1db	2.7374689e-12
191	0xad476215	-1.1333619e-11
192	0x2f80726d	2.336437e-10
193	0xa785c130	-3.712437e-15
194	0xa5e31b8b	-3.9396887e-16
195	0xb08b7cc9	-1.0149047e-09
196	0x3124340b	2.3894724e-09
197	0x303e1f5c	6.916616e-10
198	0xa69910c3	-1.0621051e-15
199	0x26c4c3b4	1.3653277e-15
200	0xa170138b	-8.134103e-19
201	0xb2c2886e	-2.2646613e-08
202	0xb21cbd9b	-9.123506e-09
203	0x32bfa8b9	2.2312053e-08
204	0x256b098a	2.0386233e-16
205	0x23aaa10d	1.8499645e-17
206	0x23c7f1a7	2.1677967e-17
207	0xaed2b747	-9.582251e-11
208	0x2f70faee	2.1917021e-10
209	0xad86f8dd	-1.5344554e-11
210	0xad160c7f	-8.5292875e-12
211	0xabb2f14f	-1.2714637e-12
212	0x2c2a3de7	2.4192816e-12
213	0xb1b2d3e0	-5.204569e-09
214	0x31adc77e	5.0576423e-09
215	0x3006e29a	4.9070936e-10
216	0xa97e952d	-5.652872e-14
217	0xa782de4a	-3.6323255e-15
218	0xa6ff9755	-1.7735198e-15
219	0xb1ca8f26	-5.895248e-09
220	0xb277147c	-1.438195e-08
221	0xb345fc16	-4.6096908e-08
222	0x2f48efc0	1.827507e-10
223	0xac11a40b	-2.0696801e-12
224	0x2d6157be	1.2809252e-11
225	0x31c47f60	5.7188316e-09
226	0x33115d78	3.3845453e-08
227	0x31b90841	5.385147e-09
228	0xb25ba6af	-1.2785377e-08
229	0xb4543298	-1.9762444e-07
230	0xb1ab449e	-4.984556e-09
231	0xaecbff37	-9.2767065e-11
232	0x2ec1810f	8.799549e-11
233	0xb1c1879d	-5.6324567e-09
234	0x31e36ce8	6.6189507e-09
235	0xb3d3dbe6	-9.8654525e-08
236	0xb336d0fe	-4.2565254e-08
237	0xa78bb4ef	-3.877642e-15
238	0x266a5510	8.130034e-16
239	0xa98bf6c2	-6.215646e-14
240	0x2c0c36ce	1.992562e-12
241	0xad05d670	-7.607789e-12
242	0xafa74757	-3.0427813e-10
243	0x2f097401	1.250129e-10
244	0xad89a834	-1.5649794e-11
245	0x2e9eea7d	7.2266616e-11
246	0x2c9611b1	4.2652206e-12
247	0xae1539df	-3.3930077e-11
248	0xabc3e357	-1.3918683e-12
249	0x2c7d012c	3.5954113e-12
250	0x2e823131	5.920454e-11
251	0xae888245	-6.2077045e-11
252	0xb211bc98	-8.482992e-09
253	0x2dc59b84	2.246537e-11
254	0x2e905f62	6.565305e-11
255	0x25303420	1.5283227e-16

fai_gcn_networks.0.gcn.conv.bias f4 [96]
0	0x3317bef2	3.533109e-08
1	0xb0b0045b	-1.2806923e-09
2	0x3115c20e	2.179266e-09
3	0xb3cf8395	-9.663123e-08
4	0x316142b9	3.2779737e-09
5	0xb22f0b39	-1.0188892e-08
6	0xadc828b2	-2.275544e-11
7	0x336f5715	5.5725724e-08
8	0xb46e2c48	-2.2181587e-07
9	0xb3157b23	-3.4803758e-08
10	0xb1b1e59f	-5.177483e-09
11	0xb396c7ae	-7.021241e-08
12	0xb2abca77	-1.999909e-08
13	0xb38301c1	-6.100482e-08
14	0xb51e203f	-5.890651e-07
15	0xb39555cf	-6.953962e-08
16	0x2fc62c33	3.6047396e-10
17	0xb1943c0e	-4.3141943e-09
18	0xaf606673	-2.0409079e-10
19	0x307d791c	9.221297e-10
20	0xb0d7c7e4	-1.5700121e-09
21	0xafc68a63	-3.611432e-10
22	0x2d94be54	1.6910175e-11
23	0xb2268814	-9.693412e-09
24	0xb546207a	-7.380801e-07
25	0xb2383e16	-1.0724326e-08
26	0x3014fbd9	5.4199983e-10
27	0xb38f0654	-6.6601075e-08
28	0xb42bcebd	-1.6000827e-07
29	0xb2bee928	-2.2224938e-08
30	0x302b11a8	6.223453e-10
31	0xaf7d386c	-2.3030261e-10
32	0x3353d303	4.931918e-08
33	0x316807c3	3.3764855e-09
34	0x31e48bb2	6.651555e-09
35	0xb3e63a71	-1.072084e-07
36	0x3143cd58	2.849296e-09
37	0xb265b46b	-1.3370577e-08
38	0xadcf3335	-2.3555916e-11
39	0x3303c0b1	3.0676066e-08
40	0xb4620c7e	-2.1052435e-07
41	0xb33c509a	-4.3845468e-08
42	0xb1be10be	-5.531631e-09
43	0xb39f993c	-7.4318876e-08
44	0xb2404d24	-1.1193411e-08
45	0xb3bff179	-8.938054e-08
46	0xb578abcd	-9.26372e-07
47	0xb42cca7d	-1.6092413e-07
48	0xaeacd480	-7.859402e-11
49	0xb0734e4b	-8.8514146e-10
50	0x2e88b641	6.216939e-11
51	0xaf84bcbb	-2.414476e-10
52	0xb1f80c3e	-7.2191417e-09
53	0xb0432df8	-7.100591e-10
54	0x2edaab12	9.9438804e-11
55	0xb201a7cb	-7.54694e-09
56	0xb51955f6	-5.712203e-07
57	0xb27070a5	-1.3995451e-08
58	0x303874e2	6.710491e-10
59	0xb3ea4602	-1.09092085e-07
60	0xb47dae6b	-2.3625914e-07
61	0xb334bfad	-4.2083844e-08
62	0x305c78d8	8.0207263e-10
63	0xaf89d38e	-2.5070473e-10
64	0x32443ba2	1.14222605e-08
65	0xb1a20eb2	-4.716491e-09
66	0xb138e3fe	-2.6905123e-09
67	0xb360c402	-5.2332332e-08
68	0x30872eb7	9.83582e-10
69	0xb20cd324	-8.19708e-09
70	0xae4243b8	-4.417064e-11
71	0x33095511	3.1975166e-08
72	0x33a3bb73	7.624376e-08
73	0xb2d2deb3	-2.454849e-08
74	0x31118b9f	2.1179642e-09
75	0xb393418e	-6.857145e-08
76	0xb376238e	-5.7308675e-08
77	0x32e59bda	2.6729982e-08
78	0x350679ad	5.009595e-07
79	0x320ee126	8.316681e-09
80	0x2fba53a5	3.3892636e-10
81	0x2e945261	6.744894e-11
82	0xaef0cc45	-1.0950222e-10
83	0xb01ec326	-5.775739e-10
84	0x30bf01cf	1.3897593e-09
85	0xb130d375	-2.573157e-09
86	0xaf39258a	-1.6838989e-10
87	0x31ac6acc	5.0180002e-09
88	0x3444560f	1.828523e-07
89	0x3221f13c	9.426284e-09
90	0xad9a0f13	-1.7514467e-11
91	0xb36c536c	-5.5023904e-08
92	0x333e1102	4.425329e-08
93	0x3358f3a3	5.0513005e-08
94	0xaed92b20	-9.875678e-11
95	0xafec5d43	-4.2994416e-10

fai_gcn_networks.1.gcn.conv.weight f4 [192, 32, 1, 1]
0	0x30cc430b	1.4862008e-09
1	0x2f5ed4e9	2.0266423e-10
2	0xb031dbe2	-6.4704697e-10
3	0x3049182c	7.3157724e-10
4	0x2edc3c69	1.0015173e-10
5	0x2f94dfa0	2.7079938e-10
6	0xa791a078	-4.0419565e-15
7	0xb1b38f80	-5.2258997e-09
8	0x301dc31f	5.739355e-10
9	0xaeeff031	-1.0911128e-10
10	0x2f2ea63c	1.5884266e-10
11	0x3053492c	7.6865336e-10
12	0x302667ca	6.053794e-10
13	0x3291565a	1.691949e-08
14	0x30f6bb2d	1.7952054e-09
15	0x3100a62d	1.8720911e-09
16	0x2d29ec51	9.659011e-12
17	0x2d3df274	1.0797242e-11
18	0x2c0abe57	1.971664e-12
19	0x2ea6b4c8	7.580919e-11
20	0x2ead851a	7.890773e-11
21	0x2d93a396	1.6784612e-11
22	0x2ec1ad34	8.807391e-11
23	0x2e10e870	3.2948255e-11
24	0x31b76803	5.3378257e-09
25	0x2da3cab7	1.8620978e-11
26	0x2db040b2	2.0037614e-11
27	0x2f7888ee	2.2604116e-10
28	0xb2139ee5	-8.592655e-09
29	0x2f1085dc	1.314428e-10
30	0x2f4e2b69	1.8751013e-10
31	0x2f788e46	2.2606014e-10
32	0x30e196d9	1.6413778e-09
33	0x2f4e70d8	1.8775681e-10
34	0xb016bc92	-5.4837657e-10
35	0x30bda8d1	1.379954e-09
36	0x2ed85b41	9.838753e-11
37	0x2f53c05b	1.9258677e-10
38	0xaa499999	-1.7905676e-13
39	0x32aca445	2.0098136e-08
40	0x30bb8412	1.3643577e-09
41	0x2e355269	4.122783e-11
42	0x2f947d53	2.701009e-10
43	0x2ee71100	1.05076836e-10
44	0xb0c5561b	-1.4358109e-09
45	0xb161cf6d	-3.2859717e-09
46	0xb05995e2	-7.9157136e-10
47	0x30c0d5e1	1.4030627e-09
48	0x2c930928	4.179008e-12
49	0x2d1b5c46	8.831219e-12
50	0x2c96b859	4.283723e-12
51	0x2f83df7c	2.3987556e-10
52	0x2eb1faad	8.093557e-11
53	0x2d20316f	9.1059235e-12
54	0xaf40f3fa	-1.7548976e-10
55	0x2e6e8be1	5.4239172e-11
56	0x319be059	4.536599e-09
57	0x2e2dc768	3.9512754e-11
58	0x2da9a5ff	1.9286793e-11
59	0x3070a293	8.7542523e-10
60	0xb09964c7	-1.1160858e-09
61	0xaf7e119c	-2.3107422e-10
62	0xab396696	-6.586757e-13
63	0xafa12940	-2.931504e-10
64	0x270f2ffa	1.9871245e-15
65	0x265057a8	7.2283293e-16
66	0x24017fa0	2.808052e-17
67	0x26334106	6.2191224e-16
68	0xa4156eab	-3.2402964e-17
69	0xa5d27ad8	-3.6512435e-16
70	0x9fe71727	-9.787061e-20
71	0x29631b9a	5.0428066e-14
72	0x28613184	1.2500746e-14
73	0xa4f56e62	-1.0643881e-16
74	0x2617b885	5.263872e-16
75	0x24c955c8	8.7315174e-17
76	0xa4c1bbd7	-8.401862e-17
77	0xa6025aeb	-4.5226027e-16
78	0xa6d6a904	-1.4895045e-15
79	0x2759bef2	3.0218311e-15
80	0x280d5a73	7.846685e-15
81	0x24c1cb61	8.4044945e-17
82	0x219b2dc9	1.0515328e-18
83	0xa5a1b40c	-2.8051052e-16
84	0x24fcf3e3	1.0970074e-16
85	0x246389b0	4.9339404e-17
86	0xa49b31f8	-6.7305185e-17
87	0xa5cac19f	-3.5172617e-16
88	0xa77188e5	-3.351968e-15
89	0x245cf5d1	4.791311e-17
90	0xa3e07df4	-2.4339472e-17
91	0x25bbf993	3.2608447e-16
92	0xa7c751b2	-5.532217e-15
93	0x25a73046	2.9002593e-16
94	0x25d02dcc	3.6113281e-16
95	0x26585f0f	7.506888e-16
96	0x30d2b1ac	1.5330008e-09
97	0xaf8183de	-2.355866e-10
98	0xaf179c01	-1.3788794e-10
99	0x2f4f462f	1.8851475e-10
100	0xaf9d13f9	-2.8572325e-10
101	0x2f439b94	1.7790419e-10
102	0x28531a06	1.1718496e-14
103	0x331bde28	3.62908e-08
104	0x30e35646	1.6540944e-09
105	0x2e2b8c3a	3.9005445e-11
106	0xb0044378	-4.81172e-10
107	0xae7552f4	-5.5780228e-11
108	0x301bf90b	5.6742583e-10
109	0xb17bc019	-3.6634502e-09
110	0x3180df20	3.7506567e-09
111	0x3000917b	4.677287e-10
112	0x2d122c40	8.308965e-12
113	0x2d41a7bb	1.10080235e-11
114	0x2b2bd6b4	6.1049364e-13
115	0x2f50b143	1.8980466e-10
116	0x2ec6c62e	9.039201e-11
117	0xac885028	-3.8742516e-12
118	0x2ef330b9	1.10590155e-10
119	0x2f2190d4	1.4694318e-10
120	0xb2a6501a	-1.936137e-08
121	0x2d0473a9	7.529013e-12
122	0x2da9e051	1.9312692e-11
123	0x2ff9e35a	4.545438e-10
124	0x30c842e5	1.4570928e-09
125	0x2f32f9d6	1.6277765e-10
126	0x3022d2f2	5.923503e-10
127	0x2f9c47c2	2.8427222e-10
128	0x30bb23ce	1.3616217e-09
129	0xae17c452	-3.4507792e-11
130	0xaf128f94	-1.3329632e-10
131	0x31228f80	2.3655673e-09
132	0x2f593897	1.975614e-10
133	0x2e1a5e88	3.5099507e-11
134	0x286682b7	1.2795909e-14
135	0x33120e47	3.400626e-08
136	0x30229e8f	5.916058e-10
137	0x2ee25ed8	1.0294138e-10
138	0x2f446318	1.7861301e-10
139	0x2f628b1b	2.0604e-10
140	0xb1201e6f	-2.3300364e-09
141	0x30bdfc17	1.3823208e-09
142	0x30ecc014	1.7225852e-09
143	0x30a489df	1.1971756e-09
144	0x2d038344	7.475635e-12
145	0x2e3fb693	4.359053e-11
146	0xaa695e2f	-2.0727234e-13
147	0xaf124988	-1.3304746e-10
148	0x2e7ee74d	5.795835e-11
149	0x2ccea86e	5.8735716e-12
150	0xaf4cb17f	-1.8616751e-10
151	0x2def9b38	2.7240085e-11
152	0xb0c8c1ad	-1.4606961e-09
153	0x2df45429	2.7776963e-11
154	0x2ce83eda	6.6008145e-12
155	0x30389a50	6.71581e-10
156	0xb093c2c2	-1.0751011e-09
157	0xac1c2e4f	-2.219464e-12
158	0x2f56e2a2	1.9543703e-10
159	0x311193e7	2.118435e-09
160	0x30d20896	1.5281951e-09
161	0x2f82a5e7	2.3764743e-10
162	0xaef0116e	-1.09170326e-10
163	0x2fdaee5b	3.982333e-10
164	0x2ecb1b91	9.236268e-11
165	0x2f52f215	1.9185394e-10
166	0xa823fc65	-9.103047e-15
167	0x33113e4a	3.3817095e-08
168	0x30e9e676	1.7018482e-09
169	0xaef424b6	-1.11023565e-10
170	0x2f895c79	2.498586e-10
171	0xadfdccbe	-2.8853694e-11
172	0x302a20e5	6.1892386e-10
173	0x3084d975	9.666069e-10
174	0x3180be9f	3.7469614e-09
175	0x30d55e71	1.5524632e-09
176	0x2d1ed27d	9.027998e-12
177	0x2f37e829	1.6726233e-10
178	0x2bf9b9f8	1.7744131e-12
179	0xaeef9b1a	-1.0896013e-10
180	0xafd7ca43	-3.9251988e-10
181	0x2e15c835	3.4056497e-11
182	0xafa2a884	-2.9587366e-10
183	0x2f22284b	1.4748129e-10
184	0xb2636bfd	-1.3237693e-08
185	0x2e68d6db	5.2941523e-11
186	0xaba0dbcc	-1.142969e-12
187	0x30949300	1.0810197e-09
188	0x3138a8d6	2.6871496e-09
189	0x2fa780d8	3.0468672e-10
190	0x2ec9257d	9.147081e-11
191	0x3039d186	6.760036e-10
192	0x303ac679	6.794845e-10
193	0x2ee6da4d	1.0497967e-10
194	0xae9048ca	-6.561292e-11
195	0x30715486	8.7795404e-10
196	0x2e133c57	3.3477523e-11
197	0x2e891d9b	6.235298e-11
198	0x2bd8a0c6	1.5392347e-12
199	0x326e9719	1.3887779e-08
200	0x301cfb13	5.710927e-10
201	0xac4e2b09	-2.929825e-12
202	0x2e996286	6.975136e-11
203	0xafe76db6	-4.209661e-10
204	0x2f363623	1.6572037e-10
205	0x2fcfc60c	3.7793801e-10
206	0x30d71de9	1.565181e-09
207	0x3035e4f2	6.617277e-10
208	0x2c4537e8	2.8026418e-12
209	0x2d1d4015	8.938646e-12
210	0x2b1a46eb	5.481021e-13
211	0xae2a8bfa	-3.877785e-11
212	0x2e10cb8e	3.2922602e-11
213	0x2ccd9c54	5.8438063e-12
214	0xaec40299	-8.9135095e-11
215	0x2e663b14	5.2348417e-11
216	0x312a6fcf	2.4801812e-09
217	0x2d686268	1.3209524e-11
218	0x2ba05879	1.139324e-12
219	0x2f861da8	2.439553e-10
220	0x306798c0	8.425438e-10
221	0x2e730678	5.525755e-11
222	0xb1199f4f	-2.2354987e-09
223	0xacb7b7b5	-5.2215684e-12
224	0xa390b068	-1.5687222e-17
225	0x22e6a7c9	6.2519274e-18
226	0xa1b6424f	-1.2350351e-18
227	0x2479a755	5.4135004e-17
228	0xa03ab93c	-1.5816102e-19
229	0xa258e35b	-2.939382e-18
230	0xb50516e4	-4.957967e-07
231	0xa7558bf8	-2.9635565e-15
232	0xa622b1fd	-5.644626e-16
233	0xa204b064	-1.7982716e-18
234	0x9f364036	-3.8593113e-20
235	0xab90b53b	-1.0282117e-12
236	0x23d44385	2.3013682e-17
237	0x248351ba	5.6950644e-17
238	0xa506f5e9	-1.1705965e-16
239	0x2413dd4b	3.2062986e-17
240	0x9f315cb7	-3.75579e-20
241	0xa07d0e08	-2.1434576e-19
242	0x24cdfb32	8.933012e-17
243	0xa17da00b	-8.593155e-19
244	0xa3ab99fd	-1.8605074e-17
245	0x20743ce3	2.068775e-19
246	0xb5fb4803	-1.8721915e-06
247	0x2219dab7	2.0851153e-18
248	0xa4ba414d	-8.0775265e-17
249	0xb49aeb7d	-2.8856076e-07
250	0x1f83b2b1	5.577628e-20
251	0xa2b39137	-4.86718e-18
252	0x35b6fcb6	1.3633605e-06
253	0x22e1a809	6.1164286e-18
254	0x238a12ad	1.49699e-17
255	0x230fd8b4	7.797934e-18

fai_gcn_networks.1.gcn.conv.bias f4 [192]
0	0x3d1f53ef	0.038898405
1	0x3d1d43c5	0.03839471
2	0x334dee67	4.7947108e-08
3	0x3d1c6b5e	0.03818833
4	0x3d1bde84	0.038054004
5	0x3d1e72e5	0.03868379
6	0x3c619992	0.013769524
7	0xaf0b1a9e	-1.2651433e-10
8	0x3d1d6388	0.038425
9	0x3d1d0821	0.03833783
10	0x32444ab4	1.1425687e-08
11	0x3c85ddee	0.016341176
12	0x3d1fd192	0.03901822
13	0x3d20a320	0.039218068
14	0x3d1fc982	0.039010532
15	0x3d1faf7e	0.03898572
16	0x3d1e9ab5	0.03872176
17	0x3d20477f	0.039130684
18	0x3d1c561d	0.03816806
19	0x3ce2bf11	0.027678998
20	0x3c9f7c88	0.01946856
21	0x3c8f121f	0.017464695
22	0x34493d67	1.8741922e-07
23	0x30c36eba	1.4219588e-09
24	0x3d1e65d3	0.038671326
25	0x35ff34da	1.9014362e-06
26	0x3d1ff4a3	0.039051663
27	0x34a5c104	3.0874082e-07
28	0xb4140da1	-1.3788532e-07
29	0x33d20185	9.7791634e-08
30	0x3d1ede98	0.0387865
31	0x3d1fc584	0.039006725
32	0xb35b40eb	-5.1048954e-08
33	0x3166a0d6	3.356083e-09
34	0x3d20d743	0.03926779
35	0xafce512c	-3.7528858e-10
36	0x3d136408	0.03598407
37	0x31ddbdd8	6.4535293e-09
38	0x3765c755	1.3695874e-05
39	0x3ca77c41	0.020444991
40	0x3d21a620	0.03946507
41	0x3d1e53bf	0.038654085
42	0x3d19b947	0.03753021
43	0x3d208684	0.039190784
44	0x329d345d	1.8301018e-08
45	0x3d204bb7	0.039134707
46	0xb1fd2022	-7.366922e-09
47	0x3d203e8a	0.039122142
48	0x348c32ad	2.6113904e-07
49	0xb2dc150a	-2.5620938e-08
50	0x3d1f655c	0.038915023
51	0x3d220ab2	0.03956098
52	0xb0007374	-4.67302e-10
53	0xb222512e	-9.448099e-09
54	0x3d20cefb	0.039259892
55	0x3d1cbea2	0.03826774
56	0xb39ccc6b	-7.3014995e-08
57	0x3d1dcc0e	0.03852468
58	0x318de982	4.130187e-09
59	0x398f3a98	0.0002731874
60	0xb41ccbcc	-1.4602773e-07
61	0x3d1fbfa5	0.039001126
62	0x3d205c81	0.03915072
63	0x3661282c	3.3550996e-06
64	0x3d3f315c	0.046677932
65	0x3d3d0958	0.04615149
66	0x32b4ec81	2.1062307e-08
67	0x3d39201a	0.04519663
68	0x3d3bf5df	0.045888778
69	0x3d3e1552	0.04640705
70	0x3c8bc350	0.017060906
71	0x2fec3c23	4.297088e-10
72	0x3d3cadb7	0.046064105
73	0x3d39a146	0.045319818
74	0x32bfad0a	2.2314016e-08
75	0x3ca55755	0.020183245
76	0x3d3ebe35	0.046568114
77	0x3d3fc90d	0.046822596
78	0x3d407090	0.046982348
79	0x3d3fb406	0.046802543
80	0x3d3bd092	0.045853205
81	0x3d3ef12d	0.046616722
82	0x3d3b049a	0.045658685
83	0x3d0a49b8	0.03376171
84	0x3cc44065	0.023956487
85	0x3cb0616d	0.021530831
86	0x34886db8	2.5411805e-07
87	0x31087977	1.985965e-09
88	0x3d3eb99f	0.04656374
89	0x3624616d	2.4494614e-06
90	0x3d3edd70	0.046597898
91	0x34e75ecf	4.3096085e-07
92	0xb41ff088	-1.4895534e-07
93	0x32fa9488	2.9171375e-08
94	0x3d3cf10f	0.04612833
95	0x3d402a60	0.046915412
96	0xb366c6c9	-5.3731842e-08
97	0xb0e8f69f	-1.6950316e-09
98	0x3d4039c8	0.046930104
99	0xafee8cb1	-4.3391915e-10
100	0x3d325c7d	0.043545235
101	0xb0a8faa0	-1.2294841e-09
102	0x379dbe2a	1.880441e-05
103	0x3ccde276	0.025132399
104	0x3d409e7a	0.047026135
105	0x3d3d2b88	0.046184093
106	0x3d3960ac	0.04525821
107	0x3d412d06	0.04716208
108	0x321a3835	8.97676e-09
109	0x3d41005f	0.047119495
110	0xb21e47d1	-9.21314e-09
111	0x3d40c492	0.047062464
112	0x345591d6	1.9890226e-07
113	0xb2d71406	-2.50384e-08
114	0x3d3f5fa9	0.046722088
115	0x3d41048d	0.04712348
116	0xb00e18a9	-5.1694343e-10
117	0xb2242e7c	-9.556626e-09
118	0x3d417d6f	0.047238763
119	0x3d3d0c43	0.04615427
120	0xb3bcc3c9	-8.790045e-08
121	0x3d3c5796	0.045981966
122	0xb100928e	-1.8709758e-09
123	0x39bbb74b	0.00035803983
124	0xb460397c	-2.0882538e-07
125	0x3d4053b9	0.046954844
126	0x3d4119db	0.0471438
127	0x36988baa	4.546212e-06
128	0x3c91bee2	0.017791215
129	0x3c8f8c0e	0.017522838
130	0xb2639d05	-1.3248841e-08
131	0x3c912b28	0.017720774
132	0x3c8e1372	0.017343257
133	0x3c90e971	0.017689439
134	0x3bc5be13	0.0060346215
135	0x311f2e12	2.3163733e-09
136	0x3c901177	0.017586453
137	0x3c91fe47	0.017821444
138	0xb271cf8c	-1.4075237e-08
139	0x3bec01ab	0.0072023473
140	0x3c92e7f7	0.017932875
141	0x3c93a2e4	0.018022008
142	0x3c91de20	0.017806113
143	0x3c9207d0	0.01782599
144	0x3c9319f4	0.017956711
145	0x3c93954a	0.018015523
146	0x3c8f57d6	0.017497938
147	0x3c4b9d01	0.012427569
148	0x3c0d6bcd	0.008631659
149	0x3bfceb62	0.0077184895
150	0x33141375	3.447663e-08
151	0xafd8ecd3	-3.9458445e-10
152	0x3c908700	0.017642498
153	0x354e65a4	7.6888887e-07
154	0x3c930e3e	0.017951127
155	0x33981406	7.081694e-08
156	0xb3074313	-3.149314e-08
157	0xb2b6d7c3	-2.1285706e-08
158	0x3c9292d9	0.017892288
159	0x3c91edd7	0.017813606
160	0xb4068f84	-1.2531933e-07
161	0x32bb9afd	2.1840146e-08
162	0x3c939fb7	0.018020494
163	0x2de67207	2.6198611e-11
164	0x3c85ab5c	0.016317062
165	0x33416622	4.5029203e-08
166	0x36a34471	4.865746e-06
167	0x3c14c29c	0.009079602
168	0x3c94cf68	0.018165305
169	0x3c91603b	0.017746082
170	0x3c8bf36b	0.017083844
171	0x3c929e72	0.017897818
172	0x34616312	2.09908e-07
173	0x3c925b21	0.01786572
174	0xb15646fa	-3.1181444e-09
175	0x3c925e40	0.017867208
176	0x346ed588	2.224316e-07
177	0x33022181	3.0298455e-08
178	0x3c91c080	0.017791986
179	0x3c954306	0.018220436
180	0xb04fee69	-7.564496e-10
181	0xb2997c97	-1.7868201e-08
182	0x3c92e39e	0.017930802
183	0x3c8edc24	0.017438956
184	0xb2549932	-1.2374857e-08
185	0x3c90e362	0.01768655
186	0x331c5c41	3.6405485e-08
187	0x38a480cf	7.844122e-05
188	0xb28709a1	-1.5720447e-08
189	0x3c91cda6	0.017798256
190	0x3c926d14	0.017874278
191	0x3506e399	5.025009e-07

fai_gcn_networks.1.residual.0.weight f4 [64, 32, 1, 1]
0	0x3c9b261e	0.018939074
1	0xbbc95b30	-0.0061449036
2	0xbd06ccc9	-0.032910142
3	0xbc736ec7	-0.014857954
4	0xba84d876	-0.0010135311
5	0x3a818aea	0.0009883319
6	0x3cc6740e	0.024225261
7	0xbc795600	-0.015218258
8	0x3bcd86e0	0.006272182
9	0xbc8dc792	-0.017307077
10	0xbc4bbe7e	-0.012435554
11	0x3c21940f	0.00986196
12	0x3c89a6e2	0.016803209
13	0xbcb4abb7	-0.022054536
14	0xbc6e0626	-0.014527833
15	0x3c1de0c7	0.009636111
16	0xbc8bba0d	-0.01705649
17	0xbd41a799	-0.047278974
18	0xbc58500c	-0.013202678
19	0x3a1ef9fb	0.00060644717
20	0x38fc0ac3	0.00012018301
21	0xbc2ffb3e	-0.010741053
22	0x3c96137b	0.018319836
23	0x3b53b867	0.0032305957
24	0x3b09b01f	0.0021009517
25	0xbc9f229e	-0.019425686
26	0xbc1b9c4d	-0.009497714
27	0x3c4fa126	0.012672698
28	0x3a535da2	0.00080629636
29	0xbc296709	-0.010339507
30	0xbc7d7ad2	-0.015471177
31	0x3c481bd4	0.012213666
32	0xbd2baa81	-0.041910652
33	0xbc681ef2	-0.014167534
34	0x3cb85d4e	0.022505429
35	0x3d17432b	0.03692929
36	0xbc00d86d	-0.0078641
37	0xbc88a917	-0.01668219
38	0x3c0da7f6	0.008646002
39	0x3c80cd50	0.0157229
40	0x3c5dec20	0.013545066
41	0x3c0be49b	0.0085383905
42	0x3c17cdb7	0.009265355
43	0x3c994a80	0.018712282
44	0x3cea5230	0.028603643
45	0xbb95ece8	-0.0045753606
46	0x3b90db84	0.0044206996
47	0x3cbcd0ae	0.023048725
48	0x3cfcb6b5	0.03084884
49	0x3d401909	0.046898875
50	0xbb5af0e0	-0.0033407733
51	0xbcb238be	-0.021755572
52	0xbcd38485	-0.025820026
53	0xbb2f3941	-0.0026737007
54	0xbd31e8d9	-0.04343495
55	0xbc8593a4	-0.016305752
56	0xbd29304b	-0.04130582
57	0xbd32ab2a	-0.043620266
58	0xbc185bd9	-0.009299242
59	0x3cd41254	0.025887646
60	0xbc5291d2	-0.012852149
61	0xbd013aa0	-0.03155005
62	0x3d1aa138	0.037751406
63	0xbc4f0015	-0.012634297
64	0xbb481935	-0.0030532603
65	0xbbe74444	-0.0070576984
66	0x3c8f758b	0.017512104
67	0xbc102082	-0.008796813
68	0xbc9c19f4	-0.019055344
69	0xbce529e6	-0.02797408
70	0x3b5cf4c6	0.0033715232
71	0x3c5d6cf5	0.013514747
72	0xba1a4ef0	-0.00058863964
73	0xba21aa54	-0.00061670435
74	0x3c812172	0.015763018
75	0xbbabb6e2	-0.005240307
76	0x3b43706a	0.0029821643
77	0xbc89178a	-0.016734857
78	0xbc905d6f	-0.017622678
79	0xbd103f77	-0.035216775
80	0x3ccff669	0.025386052
81	0x3caa367c	0.020777933
82	0x3d14ba9a	0.03631077
83	0x3c8e3c87	0.017362846
84	0xbd31550b	-0.043293994
85	0xbb7ce849	-0.0038590601
86	0x3ca003f9	0.019533144
87	0x3b89644b	0.004192864
88	0x3b8c2ea4	0.004278021
89	0xbd2d5686	-0.042318843
90	0x3c3c0dbe	0.011477886
91	0xbcd38b77	-0.025823338
92	0xbc92dd4a	-0.017927784
93	0xbc224864	-0.009904955
94	0xbc186130	-0.009300515
95	0x3a7d90d3	0.00096727646
96	0x3ccfa0ca	0.025345225
97	0xbbd71ea1	-0.0065649305
98	0xbc6f79f9	-0.014616483
99	0x3bf67319	0.007521045
100	0xbcc52b1c	-0.024068408
101	0xbc90f81b	-0.01769643
102	0x3b839347	0.0040153596
103	0xbc693838	-0.014234595
104	0x3bc00c42	0.0058608362
105	0x3ccb3bc2	0.024808768
106	0xbc1051a2	-0.008808525
107	0x3c149cd2	0.009070592
108	0x3be5d3dd	0.0070137815
109	0x3cce3dab	0.02517589
110	0xba99330a	-0.0011688184
111	0xbcac71be	-0.02105033
112	0xba2a8ff4	-0.0006506436
113	0x3c141c88	0.0090400055
114	0xbba000ba	-0.004882899
115	0x3c6e75fc	0.014554497
116	0xbc4ddbd8	-0.012564622
117	0xbc94307d	-0.018089527
118	0xbb8f5b36	-0.004374887
119	0x3d081220	0.03322041
120	0xbaace404	-0.0013190513
121	0xb98a61d8	-0.0002639431
122	0xbc49ff1d	-0.01232889
123	0xbcdafadc	-0.026730947
124	0x3c79a878	0.01523792
125	0xbd43e3c9	-0.047824655
126	0xbce282fe	-0.027650353
127	0xbca011f2	-0.019539807
128	0xbc9a5c7a	-0.018842924
129	0x3be64469	0.007027198
130	0xbcaf5105	-0.021400938
131	0xbd63a7a2	-0.05557979
132	0x3c53f682	0.01293719
133	0xbc9da1ff	-0.019242285
134	0xbc84238a	-0.016130228
135	0xbc9d519c	-0.019203953
136	0x3b2fb637	0.002681149
137	0x3ba8feaf	0.005157314
138	0x3bd5fec4	0.0065306146
139	0x3c88f652	0.016719017
140	0xbc5c68e0	-0.0134527385
141	0x3c571c62	0.013129326
142	0x3b39e250	0.0028363653
143	0x3c8a5c63	0.016889757
144	0xbcd31a8f	-0.0257695
145	0xbd0b4b42	-0.03400732
146	0xbc38cb09	-0.011278876
147	0xbc4ac9cf	-0.0123772165
148	0xbb16e516	-0.002302473
149	0xbc8b4459	-0.017000364
150	0x3b717042	0.0036840593
151	0x3d11fa04	0.035638824
152	0x3c212842	0.009836258
153	0xbcb93a14	-0.022610702
154	0x3ba2e3d4	0.004971007
155	0x3bf48cdb	0.0074630803
156	0x3a4b0f2a	0.0007746095
157	0x3c9107fd	0.017704004
158	0x3c8c3bc4	0.017118342
159	0xbc899295	-0.016793529
160	0x3d184369	0.037173662
161	0xbbf9c867	-0.007622767
162	0xbaea248a	-0.0017863673
163	0xbc116def	-0.008876308
164	0xbc86a7d0	-0.016437441
165	0xbc32596b	-0.010885577
166	0xbc68d70b	-0.0142114265
167	0xbc2d3873	-0.010572541
168	0xba0a86a7	-0.0005284347
169	0x3ca010c8	0.019539252
170	0xbd0095cc	-0.031392857
171	0x3ac68bbe	0.0015147848
172	0x3d04f6b0	0.032461822
173	0xbcd40c0c	-0.02588465
174	0x3cb9eb97	0.022695346
175	0xbc0c955c	-0.008580532
176	0x3a1a7649	0.00058922597
177	0xbc3072f6	-0.010769596
178	0xbc89f037	-0.016838176
179	0xbc21b4d0	-0.009869769
180	0x3bb487f2	0.00550937
181	0xba1bb9b8	-0.0005940455
182	0xbcae557d	-0.021280998
183	0xbb8290c1	-0.003984541
184	0x3c6777f7	0.014127723
185	0xbd672018	-0.05642709
186	0xbbdcf620	-0.0067432076
187	0xbd0f5064	-0.034988776
188	0xbc5e5972	-0.01357113
189	0xbc3977bd	-0.011320052
190	0xbbcbb75e	-0.0062169274
191	0xbb00e043	-0.001966492
192	0x3c5dd6a7	0.013539947
193	0x3c499774	0.012304176
194	0x3c11872f	0.008882328
195	0x3b24607c	0.0025081923
196	0x3ce6b358	0.02816169
197	0x3c0930cc	0.0083734505
198	0xbc9a5340	-0.018838525
199	0xbc527c55	-0.012847026
200	0x3cd2f69b	0.025752356
201	0xbc9458e1	-0.018108787
202	0xbb0d49eb	-0.002155895
203	0xbc3e9167	-0.011631346
204	0x3996013e	0.00028611155
205	0xbce9eecb	-0.028556248
206	0x3bd9a754	0.0066422615
207	0x3d465198	0.048417658
208	0x3c165ac4	0.009176914
209	0x3cab3be0	0.020902574
210	0xbc905c7d	-0.017622227
211	0xbcf347c9	-0.029697316
212	0xbb569461	-0.003274225
213	0xbc0daa3e	-0.008646546
214	0x3caec46b	0.021333894
215	0xbc9fb6c5	-0.019496331
216	0x3a2fd224	0.00067070336
217	0xbc088c62	-0.008334251
218	0xbbf33e45	-0.0074231946
219	0xbb932943	-0.0044910028
220	0x3cdd8449	0.027040618
221	0x3b89ed6e	0.004209212
222	0xbc0f1e30	-0.008735225
223	0x39d5f56e	0.00040809385
224	0x3aadf4b8	0.0013271784
225	0xbcdb4f01	-0.02677107
226	0x3bd75f7e	0.006572663
227	0xbd184925	-0.03717913
228	0x3d28f70a	0.04125122
229	0x3c50cdf2	0.012744414
230	0xbbfd60a9	-0.00773247
231	0xbbddee09	-0.006772761
232	0x3c924e0d	0.017859483
233	0xbc9161c6	-0.017746817
234	0x3d09a236	0.033601962
235	0x3d3e3587	0.046437766
236	0x3bc90b32	0.006135368
237	0x3ce12c77	0.027487023
238	0xbd3675a7	-0.044545796
239	0x3cba81a9	0.022766905
240	0xbc1b5bb0	-0.009482309
241	0xbb820d31	-0.0039688577
242	0x3cebd954	0.028790154
243	0x3b516ae7	0.0031954588
244	0xbd21e818	-0.039527982
245	0x3cafa0d7	0.021439
246	0xbcdadd89	-0.026716964
247	0xbb7961a9	-0.0038052595
248	0xbc6d29af	-0.01447527
249	0x3bb69dc1	0.005573005
250	0x3b38bc49	0.0028188399
251	0xb96232e2	-0.00021571995
252	0xbad7ebc4	-0.0016473462
253	0xbd04be57	-0.032408085
254	0xbc4ff8bd	-0.012693581
255	0xbbacbb94	-0.0052713845

fai_gcn_networks.1.residual.0.bias f4 [64]
0	0x00000000	0.0
1	0x00000000	0.0
2	0x00000000	0.0
3	0x00000000	0.0
4	0x00000000	0.0
5	0x00000000	0.0
6	0x00000000	0.0
7	0x00000000	0.0
8	0x00000000	0.0
9	0x00000000	0.0
10	0x00000000	0.0
11	0x00000000	0.0
12	0x00000000	0.0
13	0x00000000	0.0
14	0x00000000	0.0
15	0x00000000	0.0
16	0x00000000	0.0
17	0x00000000	0.0
18	0x00000000	0.0
19	0x00000000	0.0
20	0x00000000	0.0
21	0x00000000	0.0
22	0x00000000	0.0
23	0x00000000	0.0
24	0x00000000	0.0
25	0x00000000	0.0
26	0x00000000	0.0
27	0x00000000	0.0
28	0x00000000	0.0
29	0x00000000	0.0
30	0x00000000	0.0
31	0x00000000	0.0
32	0x00000000	0.0
33	0x00000000	0.0
34	0x00000000	0.0
35	0x00000000	0.0
36	0x00000000	0.0
37	0x00000000	0.0
38	0x00000000	0.0
39	0x00000000	0.0
40	0x00000000	0.0
41	0x00000000	0.0
42	0x00000000	0.0
43	0x00000000	0.0
44	0x00000000	0.0
45	0x00000000	0.0
46	0x00000000	0.0
47	0x00000000	0.0
48	0x00000000	0.0
49	0x00000000	0.0
50	0x00000000	0.0
51	0x00000000	0.0
52	0x00000000	0.0
53	0x00000000	0.0
54	0x00000000	0.0
55	0x00000000	0.0
56	0x00000000	0.0
57	0x00000000	0.0
58	0x00000000	0.0
59	0x00000000	0.0
60	0x00000000	0.0
61	0x00000000	0.0
62	0x00000000	0.0
63	0x00000000	0.0

fai_gcn_networks.1.residual.1.weight f4 [64]
0	0x3f7e3e34	0.99313664
1	0x3f813022	1.0092814
2	0x3f7c34c7	0.9851803
3	0x3f8287d4	1.0197701
4	0x3f8148c5	1.0100332
5	0x3f7fb06e	0.99878585
6	0x3f8324da	1.0245621
7	0x3f7a63a7	0.9780831
8	0x3f75bbda	0.95989764
9	0x3f84c9c1	1.037407
10	0x3f791572	0.9729835
11	0x3f7e940e	0.99444664
12	0x3f800b0d	1.0003372
13	0x3f80b10b	1.0054029
14	0x3f7c60c0	0.9858513
15	0x3f829ad9	1.0203506
16	0x3f7ab660	0.9793453
17	0x3f7c9c98	0.98676443
18	0x3f80b608	1.0055552
19	0x3f7cf5a0	0.98812294
20	0x3f83c586	1.0294654
21	0x3f831be8	1.0242891
22	0x3f7c1093	0.9846279
23	0x3f80a9c8	1.0051813
24	0x3f859efd	1.0439144
25	0x3f83c4e1	1.0294458
26	0x3f7b8130	0.98244
27	0x3f78651c	0.9702928
28	0x3f804ec5	1.0024039
29	0x3f8414f6	1.0318897
30	0x3f7d8b46	0.9904064
31	0x3f80fd96	1.0077388
32	0x3f7e183d	0.99255735
33	0x3f793747	0.9734997
34	0x3f7fa2f4	0.9985802
35	0x3f7ddc7c	0.9916456
36	0x3f80e28e	1.0069139
37	0x3f84ec44	1.0384603
38	0x3f7d591d	0.989641
39	0x3f7e2c37	0.99286216
40	0x3f7f29b5	0.99673015
41	0x3f84a9c3	1.0364307
42	0x3f82c570	1.0216503
43	0x3f78de0f	0.97213835
44	0x3f768234	0.96292424
45	0x3f803ef0	1.0019207
46	0x3f802f07	1.0014352
47	0x3f78fdaf	0.9726209
48	0x3f7f127e	0.9963759
49	0x3f81f8cc	1.0154052
50	0x3f7f8b66	0.9982208
51	0x3f826971	1.0188428
52	0x3f829c58	1.0203962
53	0x3f818bc4	1.0120778
54	0x3f7eeebe	0.9958304
55	0x3f7718ed	0.9652241
56	0x3f777380	0.96660614
57	0x3f7e7fba	0.99413645
58	0x3f806cbd	1.0033184
59	0x3f7bdeb9	0.9838672
60	0x3f7fcb86	0.9991993
61	0x3f801150	1.0005283
62	0x3f84d47f	1.0377349
63	0x3f7a13f3	0.9768669

fai_gcn_networks.1.residual.1.bias f4 [64]
0	0x00000000	0.0
1	0x00000000	0.0
2	0x00000000	0.0
3	0x00000000	0.0
4	0x00000000	0.0
5	0x00000000	0.0
6	0x00000000	0.0
7	0x00000000	0.0
8	0x00000000	0.0
9	0x00000000	0.0
10	0x00000000	0.0
11	0x00000000	0.0
12	0x00000000	0.0
13	0x00000000	0.0
14	0x00000000	0.0
15	0x00000000	0.0
16	0x00000000	0.0
17	0x00000000	0.0
18	0x00000000	0.0
19	0x00000000	0.0
20	0x00000000	0.0
21	0x00000000	0.0
22	0x00000000	0.0
23	0x00000000	0.0
24	0x00000000	0.0
25	0x00000000	0.0
26	0x00000000	0.0
27	0x00000000	0.0
28	0x00000000	0.0
29	0x00000000	0.0
30	0x00000000	0.0
31	0x00000000	0.0
32	0x00000000	0.0
33	0x00000000	0.0
34	0x00000000	0.0
35	0x00000000	0.0
36	0x00000000	0.0
37	0x00000000	0.0
38	0x00000000	0.0
39	0x00000000	0.0
40	0x00000000	0.0
41	0x00000000	0.0
42	0x00000000	0.0
43	0x00000000	0.0
44	0x00000000	0.0
45	0x00000000	0.0
46	0x00000000	0.0
47	0x00000000	0.0
48	0x00000000	0.0
49	0x00000000	0.0
50	0x00000000	0.0
51	0x00000000	0.0
52	0x00000000	0.0
53	0x00000000	0.0
54	0x00000000	0.0
55	0x00000000	0.0
56	0x00000000	0.0
57	0x00000000	0.0
58	0x00000000	0.0
59	0x00000000	0.0
60	0x00000000	0.0
61	0x00000000	0.0
62	0x00000000	0.0
63	0x00000000	0.0

fai_gcn_networks.1.residual.1.running_mean f4 [64]
0	0xb20ad6b6	-8.081477e-09
1	0x319723f8	4.3987676e-09
2	0x31e1ed05	6.575308e-09
3	0xb2034015	-7.639774e-09
4	0xb23787c3	-1.0682871e-08
5	0xb1996108	-4.4639172e-09
6	0xb1a8e713	-4.9157136e-09
7	0xb1a7919c	-4.8768936e-09
8	0x3298ed25	1.780297e-08
9	0xb2cc4d20	-2.3783798e-08
10	0xb201824d	-7.538415e-09
11	0x2f2bb229	1.5615655e-10
12	0xb196f0dd	-4.3929576e-09
13	0xb2ee76d7	-2.7760889e-08
14	0x321cd4c9	9.128777e-09
15	0xb2952dd2	-1.736672e-08
16	0xb2211192	-9.375428e-09
17	0x32954a71	1.7379735e-08
18	0xaf6b55cf	-2.1403611e-10
19	0xaf165458	-1.3672385e-10
20	0x3188eb9b	3.984906e-09
21	0xb22d7c56	-1.0098196e-08
22	0xb14cdb3a	-2.9810523e-09
23	0xb028d23b	-6.14168e-10
24	0x2fa7499c	3.0429426e-10
25	0x32276061	9.742593e-09
26	0x311d26d6	2.2868583e-09
27	0xb20c5fcf	-8.170857e-09
28	0xb2485785	-1.1661432e-08
29	0x31bb20a6	5.446128e-09
30	0xb3038c43	-3.062838e-08
31	0xb1e59274	-6.681427e-09
32	0x3217c123	8.833271e-09
33	0xb282dc53	-1.5234184e-08
34	0x32a8dbf0	1.965779e-08
35	0x31f29484	7.0600112e-09
36	0xb1dc0cad	-6.4042838e-09
37	0x326a279e	1.3629601e-08
38	0x3263ac0f	1.3252261e-08
39	0xaf35070d	-1.6464359e-10
40	0x31e3cab8	6.629616e-09
41	0xb19d0dfe	-4.570892e-09
42	0x321f2e45	9.265539e-09
43	0xb1a05669	-4.6664366e-09
44	0xb2c74665	-2.319866e-08
45	0xb24efec6	-1.2048707e-08
46	0xb21db888	-9.18056e-09
47	0xb25d6e69	-1.2888997e-08
48	0xb2336bf5	-1.0443718e-08
49	0xb14c1bb6	-2.970166e-09
50	0x31c0ba05	5.6090834e-09
51	0x30b11b9b	1.2886291e-09
52	0x32fcd180	2.943193e-08
53	0x3207085c	7.859935e-09
54	0x31080b9c	1.9797204e-09
55	0xb0277325	-6.0917876e-10
56	0x326ca25c	1.3773924e-08
57	0x32827135	1.5185472e-08
58	0x311f470e	2.3177935e-09
59	0xb2139d18	-8.592245e-09
60	0xb0b24707	-1.2971392e-09
61	0xb22e6e58	-1.0153222e-08
62	0x32f20777	2.8175903e-08
63	0xb2fc0cec	-2.9342537e-08

fai_gcn_networks.1.residual.1.running_var f4 [64]
0	0x256eb016	2.070287e-16
1	0x258056df	2.2263327e-16
2	0x253441bf	1.5634787e-16
3	0x25525f51	1.8246891e-16
4	0x25bfbdda	3.3261867e-16
5	0x24e6eb02	1.0014472e-16
6	0x2523db50	1.4212302e-16
7	0x245b2591	4.7519875e-17
8	0x263ff048	6.659208e-16
9	0x26b2fbf9	1.2419528e-15
10	0x24a0dd7f	6.976417e-17
11	0x20b4c24f	3.062177e-19
12	0x23a8d29c	1.8303793e-17
13	0x2705f7f0	1.8591865e-15
14	0x2565ac41	1.9920946e-16
15	0x267019b2	8.330155e-16
16	0x25d47fa3	3.6862628e-16
17	0x26434870	6.7752387e-16
18	0x21b996c3	1.2575994e-18
19	0x2294ee32	4.036768e-18
20	0x23895510	1.4889595e-17
21	0x25d3b3cb	3.6724498e-16
22	0x22c5f98c	5.3661175e-18
23	0x23df6eb4	2.4224593e-17
24	0x23f53c53	2.6588502e-17
25	0x25286bf5	1.4608254e-16
26	0x247c9ac6	5.4774888e-17
27	0x2455b68c	4.6341636e-17
28	0x25b547cc	3.1447146e-16
29	0x254ebe93	1.7932221e-16
30	0x272888e3	2.338889e-15
31	0x24301e01	3.818933e-17
32	0x26196377	5.321734e-16
33	0x261c8000	5.4296845e-16
34	0x268afd0e	9.644264e-16
35	0x259e6a30	2.7480586e-16
36	0x2541082f	1.6742854e-16
37	0x264f6143	7.1949366e-16
38	0x256d3f5f	2.0577944e-16
39	0x21ec583a	1.6015335e-18
40	0x23d9a849	2.3598459e-17
41	0x22b3308d	4.8569452e-18
42	0x25f86487	4.3089262e-16
43	0x24a8bd66	7.317924e-17
44	0x26910764	1.0063399e-15
45	0x25a0b61d	2.787898e-16
46	0x258170d4	2.2454388e-16
47	0x25d550e7	3.7004432e-16
48	0x25fbcb3a	4.367927e-16
49	0x245264c2	4.5621836e-17
50	0x23c0bede	2.0897517e-17
51	0x239aded2	1.6791082e-17
52	0x2727f3ae	2.3308005e-15
53	0x24e85727	1.00761603e-16
54	0x2346a0f1	1.0767682e-17
55	0x230b1cf6	7.541338e-18
56	0x2619b3c1	5.332615e-16
57	0x263352be	6.2215237e-16
58	0x248b6e94	6.046897e-17
59	0x246d52d7	5.146135e-17
60	0x24273cdd	3.6263906e-17
61	0x25825f41	2.2615952e-16
62	0x26e8a9f0	1.6144296e-15
63	0x27269186	2.3116016e-15
