capsule-6073072/code/work_dir/recognition/kinetics_skeleton/FAI_GCN/epoch120_model.pt (torch, 74070 bytes, 22 tensors)

A f4 [3, 18, 18]
0.25 0.0 0.0 0.0 0.0 0.0 0.0 0.0
0.0 0.0 0.0 0.0 0.0 0.0 0.0 0.0
0.0 0.0 0.0 0.25 0.0 0.0 0.0 0.0
0.0 0.0 0.0 0.0 0.0 0.0 0.0 0.0
0.0 0.0 0.0 0.0 0.0 0.0 0.25 0.0
0.0 0.0 0.0 0.0 0.0 0.0 0.0 0.0
0.0 0.0 0.0 0.0 0.0 0.0 0.0 0.0
0.0 0.33333334 0.0 0.0 0.0 0.0 0.0 0.0
0.0 0.0 0.0 0.0 0.0 0.0 0.0 0.0
0.0 0.0 0.0 0.0 0.5 0.0 0.0 0.0
0.0 0.0 0.0 0.0 0.0 0.0 0.0 0.0
0.0 0.0 0.0 0.0 0.0 0.0 0.0 0.25
0.0 0.0 0.0 0.0 0.0 0.0 0.0 0.0
0.0 0.0 0.0 0.0 0.0 0.0 0.0 0.0
0.0 0.0 0.33333334 0.0 0.0 0.0 0.0 0.0
0.0 0.0 0.0 0.0 0.0 0.0 0.0 0.0
0.0 0.0 0.0 0.0 0.0 0.5 0.0 0.0
0.0 0.0 0.0 0.0 0.0 0.0 0.0 0.0
0.0 0.0 0.0 0.0 0.0 0.0 0.0 0.0
0.33333334 0.0 0.0 0.0 0.0 0.0 0.0 0.0
0.0 0.0 0.0 0.0 0.0 0.0 0.0 0.0
0.0 0.0 0.0 0.33333334 0.0 0.0 0.0 0.0
0.0 0.0 0.0 0.0 0.0 0.0 0.0 0.0
0.0 0.0 0.0 0.0 0.0 0.0 0.5 0.0
0.0 0.0 0.0 0.0 0.0 0.0 0.0 0.0
0.0 0.0 0.0 0.0 0.0 0.0 0.0 0.0
0.0 0.33333334 0.0 0.0 0.0 0.0 0.0 0.0
0.0 0.0 0.0 0.0 0.0 0.0 0.0 0.0
0.0 0.0 0.0 0.0 0.33333334 0.0 0.0 0.0
0.0 0.0 0.0 0.0 0.0 0.0 0.0 0.0
0.0 0.0 0.0 0.0 0.0 0.0 0.0 0.5
0.0 0.0 0.0 0.0 0.0 0.0 0.0 0.0
00000000: 0000 803e 0000 0000 0000 0000 0000 0000
00000010: 0000 0000 0000 0000 0000 0000 0000 0000
00000020: 0000 0000 0000 0000 0000 0000 0000 0000
00000030: 0000 0000 0000 0000 0000 0000 0000 0000
00000040: 0000 0000 0000 0000 0000 0000 0000 803e
00000050: 0000 0000 0000 0000 0000 0000 0000 0000
00000060: 0000 0000 0000 0000 0000 0000 0000 0000
00000070: 0000 0000 0000 0000 0000 0000 0000 0000
00000080: 0000 0000 0000 0000 0000 0000 0000 0000
00000090: 0000 0000 0000 0000 0000 803e 0000 0000
000000a0: 0000 0000 0000 0000 0000 0000 0000 0000
000000b0: 0000 0000 0000 0000 0000 0000 0000 0000
000000c0: 0000 0000 0000 0000 0000 0000 0000 0000
000000d0: 0000 0000 0000 0000 0000 0000 0000 0000
000000e0: 0000 0000 abaa aa3e 0000 0000 0000 0000
000000f0: 0000 0000 0000 0000 0000 0000 0000 0000
00000100: 0000 0000 0000 0000 0000 0000 0000 0000
00000110: 0000 0000 0000 0000 0000 0000 0000 0000
00000120: 0000 0000 0000 0000 0000 0000 0000 0000
00000130: 0000 003f 0000 0000 0000 0000 0000 0000
00000140: 0000 0000 0000 0000 0000 0000 0000 0000
00000150: 0000 0000 0000 0000 0000 0000 0000 0000
00000160: 0000 0000 0000 0000 0000 0000 0000 0000
00000170: 0000 0000 0000 0000 0000 0000 0000 803e
00000180: 0000 0000 0000 0000 0000 0000 0000 0000
00000190: 0000 0000 0000 0000 0000 0000 0000 0000
000001a0: 0000 0000 0000 0000 0000 0000 0000 0000
000001b0: 0000 0000 0000 0000 0000 0000 0000 0000
000001c0: 0000 0000 0000 0000 abaa aa3e 0000 0000
000001d0: 0000 0000 0000 0000 0000 0000 0000 0000
000001e0: 0000 0000 0000 0000 0000 0000 0000 0000
000001f0: 0000 0000 0000 0000 0000 0000 0000 0000
00000200: 0000 0000 0000 0000 0000 0000 0000 0000
00000210: 0000 0000 0000 003f 0000 0000 0000 0000
00000220: 0000 0000 0000 0000 0000 0000 0000 0000
00000230: 0000 0000 0000 0000 0000 0000 0000 0000
00000240: 0000 0000 0000 0000 0000 0000 0000 0000
00000250: 0000 0000 0000 0000 0000 0000 0000 0000
00000260: abaa aa3e 0000 0000 0000 0000 0000 0000
00000270: 0000 0000 0000 0000 0000 0000 0000 0000
00000280: 0000 0000 0000 0000 0000 0000 0000 0000
00000290: 0000 0000 0000 0000 0000 0000 0000 0000
000002a0: 0000 0000 0000 0000 0000 0000 abaa aa3e
000002b0: 0000 0000 0000 0000 0000 0000 0000 0000
000002c0: 0000 0000 0000 0000 0000 0000 0000 0000
000002d0: 0000 0000 0000 0000 0000 0000 0000 0000
000002e0: 0000 0000 0000 0000 0000 0000 0000 0000
000002f0: 0000 0000 0000 0000 0000 003f 0000 0000
00000300: 0000 0000 0000 0000 0000 0000 0000 0000
00000310: 0000 0000 0000 0000 0000 0000 0000 0000
00000320: 0000 0000 0000 0000 0000 0000 0000 0000
00000330: 0000 0000 0000 0000 0000 0000 0000 0000
00000340: 0000 0000 abaa aa3e 0000 0000 0000 0000
00000350: 0000 0000 0000 0000 0000 0000 0000 0000
00000360: 0000 0000 0000 0000 0000 0000 0000 0000
00000370: 0000 0000 0000 0000 0000 0000 0000 0000
00000380: 0000 0000 0000 0000 0000 0000 0000 0000
00000390: abaa aa3e 0000 0000 0000 0000 0000 0000
000003a0: 0000 0000 0000 0000 0000 0000 0000 0000
000003b0: 0000 0000 0000 0000 0000 0000 0000 0000
000003c0: 0000 0000 0000 0000 0000 0000 0000 0000
000003d0: 0000 0000 0000 0000 0000 0000 0000 003f
000003e0: 0000 0000 0000 0000 0000 0000 0000 0000
000003f0: 0000 0000 0000 0000 0000 0000 0000 0000

data_bn.weight f4 [54]
0.87749827 0.8714092 0.8853635 0.87518233 0.8889855 0.82277894 0.8899789 0.8464292
0.90214145 0.8354136 0.8681493 0.85911906 0.8715566 0.8937824 0.8695708 0.8479668
0.8464942 0.835309 0.8858878 0.8936323 0.8746566 0.8869117 0.86998546 0.8780354
0.88435346 0.8966074 0.8685766 0.8737098 0.86976254 0.8780097 0.84296817 0.87626547
0.864257 0.872046 0.8841412 0.8550789 0.85954833 0.8668861 0.8777463 0.8606646
0.87210983 0.8656688 0.7925359 0.8421192 0.8543885 0.8600336 0.8690194 0.88904035
0.8759824 0.8980514 0.87189 0.89134437 0.8175469 0.824205
00000000: baa3 603f ac14 5f3f 2fa7 623f f30b 603f
00000010: 8e94 633f a4a1 523f a8d5 633f 96af 583f
00000020: bef2 663f aadd 553f 083f 5e3f 3aef 5b3f
00000030: 551e 5f3f ecce 643f 319c 5e3f 5a14 593f
00000040: d8b3 583f d0d6 553f 8bc9 623f 16c5 643f
00000050: 7fe9 5f3f a50c 633f 5eb7 5e3f eec6 603f
00000060: fd64 623f 1088 653f 095b 5e3f 72ab 5f3f
00000070: c2a8 5e3f 3ec5 603f c3cc 573f ef52 603f
00000080: f23f 5d3f 683e 5f3f 1457 623f 73e6 5a3f
00000090: 5c0b 5c3f 3fec 5d3f fbb3 603f 8454 5c3f
000000a0: 9742 5f3f 789c 5d3f a2e3 4a3f 2095 573f
000000b0: 34b9 5a3f 292b 5c3f 0e78 5e3f 2698 633f
000000c0: 6240 603f b2e6 653f 2f34 5f3f 252f 643f
000000d0: c14a 513f 19ff 523f

data_bn.bias f4 [54]
-3.1461697e-10 -8.872662e-10 -1.0351627e-09 -3.3529385e-10 -1.3827535e-09 -5.2115523e-10 -3.2777198e-10 5.418738e-10
-1.0292428e-09 -3.4764125e-10 9.606622e-09 -3.167995e-10 5.146818e-10 1.9746162e-09 2.232405e-09 -2.9936814e-10
1.6043294e-09 -1.0801317e-09 -1.0692798e-10 1.0416888e-08 -3.294833e-10 5.262494e-10 9.616783e-10 1.4392589e-09
3.4573036e-10 -2.195363e-09 -7.002297e-11 -2.4010605e-10 3.2066543e-09 -2.7180907e-11 5.920606e-10 2.3303028e-09
-3.0412872e-10 2.8833497e-10 2.7374214e-09 9.952418e-10 -3.590734e-10 3.7263077e-09 1.3951153e-10 4.4951173e-10
2.4876465e-09 7.043352e-10 2.7569575e-11 1.119162e-08 2.4135038e-10 -4.91221e-10 1.220703e-08 -9.1157626e-10
5.5020787e-11 2.5045033e-09 4.823401e-10 8.2236573e-10 1.7011453e-09 1.8465326e-09
00000000: 67f6 acaf cfe3 73b0 8d45 8eb0 6a54 b8af
00000010: 500b beb0 0a41 0fb0 ce31 b4af fbf2 1430
00000020: 4375 8db0 281e bfaf 5f0a 2532 9129 aeaf
00000030: 8379 0d30 d1b1 0731 e268 1931 5294 a4af
00000040: 537f dc30 c173 94b0 1a23 ebae f5f5 3232
00000050: a722 b5af 82a7 1030 0c2c 8430 6ccf c530
00000060: 3911 be2f 3cdd 16b1 6dfb 99ae ecff 83af
00000070: 0f5c 5c31 f615 efad 90be 2230 1f23 2031
00000080: 5032 a7af 8a83 9e2f 3a1d 3c31 f5c8 8830
00000090: 1767 c5af f308 8031 0165 192f 271f f72f
000000a0: 24f3 2a31 2f9b 4130 2a81 f22d 4445 4032
000000b0: 0caf 842f 9b06 07b0 16b7 5132 7a92 7ab0
000000c0: e6fb 712e b01b 2c31 ab95 0430 d80c 6230
000000d0: bbcd e930 17c9 fd30

data_bn.running_mean f4 [54]
-0.056294322 -0.12058505 0.28167433 -0.05922729 -0.09060971 0.2699949 -0.076230854 -0.0938725
0.23549049 -0.091902696 -0.0721007 0.23434106 -0.100655586 -0.0604455 0.23196468 -0.042175103
-0.087037295 0.23836303 -0.0350737 -0.06918512 0.22771415 -0.03523141 -0.06331189 0.22020876
-0.07754659 -0.017750055 0.19376208 -0.091255315 0.0072599365 0.20011652 -0.085369185 0.049675774
0.22379227 -0.055279646 -0.014577301 0.19532077 -0.045821134 0.011530616 0.21868898 -0.05503173
0.049892303 0.21984272 -0.057651624 -0.12586536 0.24582496 -0.050451733 -0.124974236 0.25608042
-0.04943415 -0.08505011 0.13070345 -0.047479056 -0.08496632 0.16147527
00000000: e094 66bd 4bf5 f6bd 9e37 903e 5198 72bd
00000010: 9591 b9bd c63c 8a3e ec1e 9cbd 3a40 c0bd
00000020: 6b24 713e 7b37 bcbd 88a9 93bd 1af7 6f3e
00000030: 8424 cebd b395 77bd 2688 6d3e cdbf 2cbd
00000040: 9c40 b2bd 7015 743e 71a9 0fbd eeb0 8dbd
00000050: e62d 693e d04e 10bd aaa9 81bd 687e 613e
00000060: bfd0 9ebd 9068 91bc 9169 463e 11e4 babd
00000070: c3e4 ed3b 58eb 4c3e 0ad6 aebd d378 4b3d
00000080: cd29 653e e96c 62bd a2d5 6ebc 2b02 483e
00000090: f1ae 3bbd e9ea 3c3c 01f0 5f3e f468 61bd
000000a0: df5b 4c3d 731e 613e 1c24 6cbd d9e2 00be
000000b0: 8ab9 7b3e 7aa6 4ebd 7ef2 ffbd f91c 833e
000000c0: 777b 4abd c12e aebd 20d7 053e 6679 42bd
000000d0: d202 aebd c659 253e

data_bn.running_var f4 [54]
0.0017974285 0.008666712 0.07428159 0.001276831 0.0051006954 0.067806944 0.001894352 0.0051161535
0.052922957 0.0030548754 0.003708041 0.056630578 0.0043823905 0.0040944815 0.06391663 0.0015057942
0.0051501445 0.053088333 0.0023644133 0.005054268 0.05516512 0.0034824153 0.0065278504 0.060816042
0.0017966529 0.004013663 0.03759644 0.003221505 0.006285161 0.051712576 0.0028406582 0.012736656
0.056423362 0.0013079279 0.004336409 0.037906826 0.0019639086 0.0067397486 0.05162784 0.0020207067
0.012736839 0.050847266 0.0017610347 0.009826801 0.07081562 0.0016564508 0.009363804 0.075762734
0.0019248573 0.007538982 0.02721385 0.0012416546 0.007600342 0.048303973
00000000: b197 eb3a d3fe 0d3c f220 983d 575b a73a
00000010: bc23 a73b 5ede 8a3d e84b f83a 68a5 a73b
00000020: bec5 583d 4e34 483b 9b02 733b 77f5 673d
00000030: 289a 8f3b 002b 863b b9e6 823d 125e c53a
00000040: 8bc2 a83b 2773 593d 46f4 1a3b 469e a53b
00000050: d2f4 613d 3c39 643b 94e7 d53b 3e1a 793d
00000060: ab7d eb3a 0c85 833b bafe 193d e31f 533b
00000070: c0f3 cd3b 91d0 533d 562a 3a3b 68ad 503c
00000080: 2f1c 673d c76e ab3a 6f18 8e3b 3044 1b3d
00000090: ebb4 003b 1cd9 dc3b b777 533d d56d 043b
000000a0: 2dae 503c 3945 503d 85d2 e63a 9700 213c
000000b0: c807 913d 441d d93a a46a 193c 7e29 9b3d
000000c0: 7e4b fc3a 9109 f73b 94ef de3c 04bf a23a
000000d0: 4a0c f93b 63da 453d

fai_gcn_networks.0.gcn.conv.weight f4 [96, 3, 1, 1]
2.3621169e-08 -1.2716429e-08 -1.6482766e-06 3.056918e-06 3.8246135e-06 7.248636e-07 2.4564573e-09 3.193596e-09
2.7125951e-08 3.0722833e-05 -2.9674386e-06 -0.00024197978 -6.0749944e-10 -2.3280781e-10 2.4342398e-08 -4.8286194e-07
-2.1611431e-06 2.178564e-06 -7.337776e-09 2.9099517e-10 7.8707965e-09 3.9221501e-07 2.5188363e-06 1.396197e-06
1.863046e-07 -3.9985136e-07 -5.587619e-09 -1.0649037e-06 -2.6489877e-07 -2.6927282e-08 9.566879e-07 6.220046e-07
-1.386761e-06 3.6882724e-07 -7.620008e-07 4.525219e-06 -2.4419492e-06 2.0023717e-05 -4.000119e-07 -1.8203218e-07
2.2572893e-07 8.7373724e-07 6.788547e-06 -8.1379346e-07 3.5010595e-07 2.0047958e-08 3.9087365e-07 -2.132873e-09
-7.075433e-08 4.6910234e-08 -5.9332115e-07 -1.4340488e-07 1.9408562e-06 -4.717638e-07 6.013607e-09 1.0315723e-07
-1.8568565e-08 4.474852e-07 -4.8991546e-07 -1.5767758e-07 -3.2554175e-07 -8.6105745e-09 -1.6376282e-07 -1.1883414e-09
1.6853561e-09 -4.381702e-09 3.828459e-08 -7.271493e-09 -0.00011536155 9.678701e-08 1.5832889e-07 2.5629881e-06
-2.9970046e-05 -1.3024422e-06 2.6796051e-06 -4.571608e-07 6.5707263e-06 3.3600998e-07 -1.9130927e-12 -5.273114e-12
-7.0189197e-12 -8.431936e-08 1.3950248e-08 -6.653874e-09 5.9575264e-08 5.1569458e-08 2.5800337e-10 1.8085198e-09
2.020618e-09 7.4864576e-10 -5.475685e-07 -2.0269485e-07 -2.6612177e-08 2.416826e-07 -1.385345e-05 3.420502e-08
-1.3460141e-09 9.814339e-09 -2.641458e-08 3.08183e-06 5.8036243e-05 -6.107019e-08 2.6727174e-09 -3.1846884e-07
2.9089566e-09 2.7322167e-06 -4.184136e-06 -3.8592866e-06 -2.2434139e-10 2.0699416e-09 -2.622485e-09 -2.4615283e-06
-2.0047535e-05 3.2398017e-07 9.402434e-09 5.4378417e-09 -1.445738e-08 2.444715e-06 0.0009919225 2.6083063e-07
6.4538614e-07 -4.1352897e-07 -3.7015266e-08 -1.5029291e-06 -2.9667085e-06 -4.6262662e-07 5.192625e-07 -2.2030142e-07
-6.041807e-08 1.3546538e-07 -5.450471e-07 -1.8069677e-06 7.8171944e-08 1.4430657e-06 -7.0678504e-07 -6.5326833e-07
-1.0076475e-06 -4.900149e-07 -3.944909e-06 -4.103513e-07 9.198349e-07 6.327951e-09 8.074599e-09 -5.550285e-09
-8.078608e-08 3.9700495e-08 2.1238957e-08 8.0509395e-08 -6.2846095e-07 -4.6929117e-07 -1.8572217e-07 1.3997696e-07
2.4052187e-07 5.2744275e-07 -3.7485552e-07 -1.0199961e-06 -1.2112932e-06 2.6465557e-07 -2.3858368e-07 1.2658257e-08
-1.3365199e-09 -1.1938106e-09 5.0665083e-08 -2.3153567e-07 -1.1874219e-07 1.2090561e-07 -2.4126628e-06 -6.487882e-07
-2.4261296e-06 -2.0281436e-06 -4.2805874e-07 -1.0315982e-06 -2.6499802e-06 3.901374e-09 3.2401862e-11 -5.0087565e-13
8.242197e-10 -2.323539e-07 5.577343e-08 1.2690611e-08 1.6803631e-07 9.494491e-08 -3.1831016e-09 1.6436983e-09
1.9836992e-08 1.0097635e-09 -0.00013597026 -1.9773098e-07 -1.5790458e-07 3.8201125e-07 1.8606792e-07 3.559085e-08
1.4444682e-05 -8.64203e-09 -5.3477432e-08 1.1706956e-06 2.1942465e-06 1.4354811e-06 6.089089e-09 1.3593172e-09
2.1993163e-10 3.056198e-07 -1.3354933e-06 2.299045e-06 2.5503639e-11 -4.338804e-11 -2.5415857e-11 -7.42149e-07
-1.2338849e-06 1.5110163e-07 -5.3156755e-09 -1.2438548e-08 -7.748073e-09 4.2113902e-07 7.4872844e-07 8.53628e-08
-5.11699e-07 3.5264836e-11 1.1025886e-11 -3.2844017e-07 -1.0491343e-06 1.6012658e-07 9.9244e-06 1.2052695e-07
1.6259657e-08 -4.876883e-07 -2.4576373e-06 1.3578991e-06 1.3597709e-06 -0.00023865144 -1.8872424e-06 -2.9523042e-07
2.0685673e-07 -4.4149652e-05 -1.9582299e-06 -3.1107325e-06 -5.896522e-06 3.8066744e-08 3.5651687e-10 -5.316541e-07
-7.253818e-08 -1.6760858e-07 -1.35946e-05 -2.5086345e-07 1.7316829e-07 2.10407e-08 9.592698e-08 -6.4535875e-06
-7.64911e-08 7.08508e-08 -7.1293094e-08 1.0533175e-07 -5.3206113e-05 -1.5469722e-07 -1.1335053e-07 -3.4246048e-09
00000000: 80e7 ca32 7277 5ab2 5a3a ddb5 7425 4d36
00000010: 2e55 8036 3f94 4235 74ce 2831 5676 5b31
00000020: 9902 e932 64dc 0038 3524 47b6 f4bb 7db9
00000030: f9fc 26b0 93f9 7faf 8019 d132 059e 01b5
00000040: 2808 11b6 7233 1236 c31f fcb1 eef9 9f2f
00000050: 2138 0732 9f91 d234 4709 2936 f764 bb35
00000060: 050b 4834 27ab d6b4 37fd bfb1 d0ed 8eb5
00000070: 6937 8eb4 b84d e7b2 8c67 8035 d5f7 2635
00000080: bf20 bab5 3b03 c634 4c8c 4cb5 56d7 9736
00000090: 5ee0 23b6 9bf8 a737 38c1 d6b4 a074 43b4
000000a0: e55f 7234 c48a 6a35 2dc9 e336 7673 5ab5
000000b0: 32f6 bb34 ed35 ac32 44d9 d134 e691 12b1
000000c0: 9bf1 97b3 597a 4933 b844 1fb5 d5fa 19b4
000000d0: a83f 0236 b946 fdb4 3fa0 ce31 4987 dd33
000000e0: b580 9fb2 e63d f034 bc82 03b5 154e 29b4
000000f0: 1ec6 aeb4 b5ed 13b2 c8d6 2fb4 0c53 a3b0
00000100: 32a2 e730 dc8d 96b1 5a6e 2433 bbd8 f9b1
00000110: 43ee f1b8 39d9 cf33 1d01 2a34 cdff 2b36
00000120: 2f68 fbb7 93cf aeb5 44d3 3336 b46f f5b4
00000130: 1c7a dc36 dc64 b434 379f 06ac fd87 b9ac
00000140: cff4 f6ac 0f13 b5b3 d7a9 6f32 18a0 e4b1
00000150: b2df 7f33 387d 5d33 bfd6 8d2f a28f f830
00000160: 16db 0a31 43c9 4d30 9ffc 12b5 56a4 59b4
00000170: cc98 e4b2 9bc0 8134 1d6c 68b7 d1e8 1233
00000180: a9fe b8b0 eb9b 2832 47e6 e2b2 70d1 4e36
00000190: f16b 7338 b125 83b3 f1aa 3731 06fa aab4
000001a0: e8e6 4731 205b 3736 7465 8cb6 057f 81b6
000001b0: 7daa 76af cc3e 0e31 3e37 34b1 bc30 25b6
000001c0: c12b a8b7 7fef ad34 5888 2132 c3d7 ba31
000001d0: 3b60 78b2 e20f 2436 6503 823a 4a08 8c34
000001e0: 993e 2d35 fd02 deb4 b7fa 1eb3 40b8 c9b5
000001f0: aa17 47b6 eb5e f8b4 7363 0b35 fe8b 6cb4
00000200: 2fbf 81b3 7174 1134 5a4f 12b5 f086 f2b5
00000210: 7bdf a733 5caf c135 e6b9 3db5 425c 2fb5
00000220: 813e 87b5 9189 03b5 835e 84b6 414e dcb4
00000230: 93ea 7635 3f6d d931 76b8 0a32 d3b4 beb1
00000240: 9e7c adb3 2883 2a33 f670 b632 82e4 ac33
00000250: 82b3 28b5 e3f2 fbb4 ec6a 47b4 934c 1634
00000260: 1321 8134 9795 0d35 c03f c9b4 cde6 88b5
00000270: b893 a2b5 fc15 8e34 b116 80b4 9a77 5932
00000280: 9db0 b7b0 7a13 a4b0 d99a 5933 0a9c 78b4
00000290: 36ff feb3 48d2 0134 3be9 21b6 6328 2eb5
000002a0: 97d0 22b6 3e1b 08b6 f2cf e5b4 7275 8ab5
000002b0: 50d6 31b6 d90c 8631 4181 0e2e e5fb 0cab
000002c0: 4e8f 6230 f47c 79b4 898b 6f33 e605 5a32
000002d0: 786d 3434 84e4 cb33 b7bd 5ab1 7ee8 e130
000002e0: 0266 aa32 e5c7 8a30 3d93 0eb9 e14f 54b4
000002f0: 7b8c 29b4 3a17 cd34 f6c9 4734 8edc 1833
00000300: 7057 7237 0d78 14b2 0faf 65b3 cb20 9d35
00000310: de40 1336 c1aa c035 3138 d131 b9d2 ba30
00000320: 40d1 712f 1114 a434 333f b3b5 4b49 1a36
00000330: 1755 e02d 97d2 3eae 6c8f dfad 1738 47b5
00000340: f69b a5b5 803e 2234 2da5 b6b1 50b1 55b2
00000350: 631c 05b2 e818 e234 3afc 4835 b250 b733
00000360: b05b 09b5 ad18 1b2e 2df8 412d 7954 b0b4
00000370: fbcf 8cb5 42ef 2b34 f980 2637 326a 0134
00000380: 5dab 8b32 afe9 02b5 e3ed 24b6 0f41 b635
00000390: 5f81 b635 823e 7ab9 284d fdb5 2980 9eb4
000003a0: 581c 5e34 542d 39b8 226a 03b6 fac1 50b6
000003b0: bdda c5b6 d47e 2333 4aff c32f feb6 0eb5
000003c0: 49c6 9bb3 e5f7 33b4 5d14 64b7 69ae 86b4
000003d0: 23f0 3934 fdbc b432 6a00 ce33 e58b d8b6
000003e0: 6d43 a4b3 a426 9833 cb19 99b3 be32 e233
000003f0: a129 5fb8 d91a 26b4 1d6b f3b3 4956 6bb1

fai_gcn_networks.0.gcn.conv.bias f4 [96]
1.9734236e-05 1.3454865e-06 -8.336352e-06 -2.4340839e-06 -2.4011815e-06 -4.4181718e-07 -2.6070518e-08 5.7006046e-06
-1.7229413e-05 -1.810643e-06 -3.4645136e-06 -2.8182592e-06 -1.2543416e-05 9.2068416e-07 -5.9129216e-06 -3.98704e-06
-1.1251639e-06 -3.2552573e-06 -5.9032755e-07 -2.122103e-06 2.4911483e-07 -1.0378363e-06 -1.0841491e-06 -4.9885903e-06
-1.2838763e-06 -3.1258292e-06 1.1724443e-06 -6.9093758e-06 -1.7429968e-05 -9.585283e-06 2.4597286e-06 -2.4244733e-07
2.5524041e-05 4.1309936e-06 -1.733915e-05 -3.4888717e-06 -5.8661453e-06 1.8900116e-06 -3.740747e-08 -2.304502e-06
-1.41932105e-05 -2.558066e-06 -3.851014e-06 -2.9737957e-06 -2.1322143e-05 4.972473e-06 -6.490995e-06 -2.7703888e-06
-2.3098733e-06 -2.6755467e-06 -5.4037764e-07 -1.7267341e-06 1.2051257e-06 -1.1409212e-06 -1.400865e-06 -3.9992924e-06
9.722628e-07 -3.1340996e-06 1.7199151e-06 -9.287343e-06 -1.6392316e-05 -1.06105435e-05 5.5780833e-07 -2.941486e-07
4.8752627e-06 -8.0321735e-07 1.2507822e-05 -1.18667995e-05 4.056524e-06 -7.676678e-07 -1.4534327e-08 6.361453e-06
-1.0481535e-06 -3.966497e-06 4.8314456e-07 -1.6309143e-06 -1.1093426e-05 7.1214195e-06 -8.562054e-07 5.677372e-07
9.0919133e-07 -2.6632497e-06 -8.183796e-07 -3.9281563e-06 5.989894e-07 1.1549334e-07 -2.499551e-07 -1.0879827e-06
6.4387673e-06 -1.2243247e-06 5.6861417e-08 -1.6917754e-06 4.8810684e-06 -4.495528e-06 -6.339539e-07 -2.3236525e-07
00000000: f38a a537 9096 b435 5cdc 0bb7 3e59 23b6
00000010: fc23 21b6 e432 edb4 adf1 dfb2 d247 bf36
00000020: e287 90b7 3805 f3b5 e47f 68b6 5321 3db6
00000030: 9071 52b7 ef24 7735 9c67 c6b6 6ac8 85b6
00000040: 5604 97b5 e574 5ab6 0077 1eb5 7469 0eb6
00000050: 15be 8534 c94b 8bb5 1483 91b5 aa63 a7b6
00000060: a751 acb5 56c5 51b6 e15c 9d35 16d7 e7b6
00000070: 9236 92b7 7ad0 20b7 d111 2536 b529 82b4
00000080: 761c d637 f79c 8a36 8b73 91b7 5c22 6ab6
00000090: ced5 c4b6 4eac fd35 f3a9 20b3 0ba7 1ab6
000000a0: 601f 6eb7 3dab 2bb6 f537 81b6 6c91 47b6
000000b0: f4dc b2b7 38d9 a636 39cd d9b6 ebea 39b6
000000c0: 5203 1bb6 8b8d 33b6 780e 11b5 22c2 e7b5
000000d0: cebf a135 c121 99b5 5b05 bcb5 a931 86b6
000000e0: b27e 8235 6c53 52b6 d5d7 e635 d6d0 1bb7
000000f0: 3b82 89b7 f003 32b7 4cbc 1535 7aeb 9db4
00000100: 3096 a336 ad9c 57b5 b0d8 5137 8417 47b7
00000110: 471d 8836 bb11 4eb5 a5b2 79b2 7774 d536
00000120: 48ae 8cb5 f317 85b6 71b1 0135 cae5 dab5
00000130: e71d 3ab7 87f4 ee36 fdd5 65b5 9a66 1835
00000140: 270f 7435 48ba 32b6 9eae 5bb5 9bce 83b6
00000150: 3dca 2035 2305 f833 9131 86b4 cd06 92b5
00000160: 970c d836 7a53 a4b5 ca37 7433 f610 e3b5
00000170: 0fc8 a336 4bd8 96b6 fb2c 2ab5 1380 79b4

fai_gcn_networks.1.gcn.conv.weight f4 [192, 32, 1, 1]
9.221534e-07 6.298531e-07 2.1879953e-06 4.4783465e-07 7.435588e-08 -1.2387081e-05 3.2784987e-11 9.139051e-07
-8.247774e-07 3.4837966e-09 1.3081664e-07 -1.26898945e-08 4.1167647e-07 -7.7526755e-07 5.444048e-09 1.395203e-07
2.3409072e-08 -4.8368804e-07 1.320997e-08 7.244996e-09 1.5209658e-07 5.3403895e-09 1.6065597e-07 2.069537e-08
2.2008727e-07 7.143204e-09 6.547802e-08 2.5750543e-08 3.2451933e-06 1.23789565e-08 9.881276e-07 5.815066e-07
9.734699e-07 5.7411927e-07 -9.138682e-07 1.4433886e-06 7.3048085e-08 2.6455217e-07 -2.3440824e-10 6.2339627e-06
5.9360065e-07 3.7182346e-09 7.4927804e-08 1.0320544e-08 2.0612106e-06 -1.8974004e-07 6.8225376e-09 2.134363e-07
1.8076521e-09 5.799919e-09 -9.385738e-08 -2.4201242e-06 1.4712562e-07 3.8913854e-09 -1.7345626e-07 1.9144194e-08
2.89871e-07 5.7236185e-09 5.7403877e-08 6.577115e-08 1.662676e-07 -2.3064638e-05 7.4774675e-07 1.6662658e-07
-1.6027119e-10 1.873096e-11 1.8638726e-11 -2.6293695e-11 -9.302744e-12 -2.6446742e-11 5.385999e-15 5.3919935e-10
9.5582855e-08 9.250589e-13 1.0848527e-08 9.541726e-13 -1.9466562e-11 8.019578e-12 -1.2191763e-13 -6.851449e-11
2.4490905e-07 -2.099093e-12 2.2844194e-13 -1.7591437e-12 3.0962873e-12 -4.62858e-09 -2.3788487e-11 -8.715608e-09
-5.1721787e-09 2.7839552e-13 4.5496094e-12 1.21723595e-11 -6.4007764e-11 -1.4799782e-12 -2.3369304e-10 7.78827e-12
7.6503665e-07 -2.6944802e-08 3.0711686e-07 -3.4757764e-07 -2.1317265e-07 3.2047177e-07 6.9828886e-11 7.1116087e-06
3.2396918e-06 3.5628427e-09 -2.1789609e-07 8.205914e-09 4.4752616e-07 -1.9955273e-07 2.9714555e-09 1.343485e-08
2.7525205e-08 6.602781e-09 5.438637e-09 2.7046175e-08 9.4213266e-07 3.7232881e-09 -1.162831e-05 1.6268565e-08
-2.6844273e-07 4.4328683e-09 5.9140564e-08 5.466294e-08 -4.3863736e-07 1.0151027e-08 1.338551e-06 6.31947e-07
8.206386e-07 2.769576e-07 2.9966367e-07 3.8120972e-06 -1.9940006e-07 1.596026e-07 6.464736e-11 6.4716846e-06
4.2356632e-07 7.8751725e-09 7.326998e-08 -3.1126e-07 1.7982309e-06 1.133051e-07 5.4694334e-09 2.3766496e-07
3.0446987e-08 1.878915e-08 1.1110315e-08 1.3690617e-08 1.9250409e-07 4.258421e-09 -1.9286038e-07 8.922685e-09
1.282092e-07 1.0885651e-08 4.8167454e-08 6.364753e-08 1.3119471e-07 1.4805657e-08 9.749812e-07 -8.395341e-07
9.37412e-07 6.644551e-07 1.965011e-07 3.6039376e-07 8.3581355e-08 3.375024e-07 -2.1888389e-11 6.5717763e-06
7.4962855e-07 1.4013548e-08 6.250763e-08 9.937251e-09 4.2410684e-07 8.316204e-08 2.947723e-09 1.2174128e-07
2.5021995e-08 1.614141e-08 1.2721866e-08 1.2411269e-08 1.9247732e-07 2.4271483e-06 -5.483879e-07 1.4704809e-08
-2.548577e-07 4.0389097e-09 4.2757744e-08 6.181872e-08 5.4611957e-07 5.0835887e-08 8.803082e-07 1.1561652e-07
2.372805e-08 1.2298067e-08 -3.87898e-10 1.2251539e-07 -1.785175e-07 5.292292e-09 1.731119e-06 1.15899994e-07
1.09010445e-08 9.8419384e-11 1.6761783e-09 -3.1755705e-09 9.065218e-09 2.5127176e-09 8.792972e-11 3.4499241e-09
3.873421e-10 3.6833211e-10 2.6711813e-10 3.8988998e-10 -3.1637057e-06 6.9393175e-10 -1.4209345e-08 2.3720188e-09
1.5407985e-06 1.0832543e-09 6.6395245e-10 1.9323345e-09 8.751105e-09 3.844657e-10 -3.5862726e-05 3.271127e-08
7.451279e-12 2.314631e-12 -2.6449175e-12 -1.1335719e-11 2.582143e-13 2.5333986e-12 -0.00033290184 4.2229847e-10
-1.035495e-07 7.946121e-14 6.903619e-13 -1.5261812e-06 2.5799043e-09 -3.760288e-12 1.6158777e-13 -8.063944e-09
-9.029387e-13 5.251815e-14 5.2819544e-08 1.38893e-13 -3.3347277e-08 5.5500926e-14 -0.0005983383 -4.6153942e-10
3.570701e-10 -0.00026276932 2.676502e-13 5.08501e-13 0.0005197853 1.8930441e-13 -2.60904e-08 5.8601816e-13
00000000: e689 7735 2d13 2935 79d5 1236 ed6d f034
00000010: 94ad 9f33 1cd2 4fb7 9d30 102e 1553 7535
00000020: 4566 5db5 9967 6f31 9b76 0c34 bf02 5ab2
00000030: 6204 dd34 fb1b 50b5 5a0e bb31 0ccf 1534
00000040: 1815 c932 cad6 01b5 10f2 6232 a9ef f831
00000050: fd4f 2334 907e b731 c780 2c34 9ac5 b132
00000060: 2151 6c34 4970 f531 ec9c 8c33 0b32 dd32
00000070: ffc7 5936 3aab 5432 ce9f 8435 d418 1c35
00000080: 2ca8 8235 2d1d 1a35 8b50 75b5 74ba c135
00000090: 9cde 9c33 c607 8e34 07de 80af 552d d136
000000a0: ed57 1f35 e083 7f31 ffe7 a033 3c4e 3132
000000b0: 5453 0a36 58bb 4bb4 ad6b ea31 ec2c 6534
000000c0: 1b71 f830 a148 c731 a48e c9b3 6b69 22b6
000000d0: 95f9 1d34 fdb4 8531 4b3f 3ab4 8772 a432
000000e0: 919f 9b34 7ba9 c431 3b8c 7633 123e 8d33
000000f0: 4a87 3234 ef7a c1b7 c4b8 4835 f7e9 3234
00000100: 5438 30af 5fc2 a42d aef2 a32d 2348 e7ad
00000110: d6a7 23ad c5a0 e8ad 130d c227 c836 1430
00000120: 3b43 cd33 c230 822b 5460 3a32 b149 862b
00000130: cd3a abad f814 0d2d 5d44 09aa 3baa 96ae
00000140: 0b7c 8334 e6b5 13ac f499 802a d593 f7ab
00000150: c1e1 592c 6c09 9fb1 e93e d1ad a6bb 15b2
00000160: f7b6 b1b1 06b9 9c2a 3d13 a02c 6f23 562d
00000170: 2bc1 8cae d649 d0ab 5f79 80af 4003 092d
00000180: eb5c 4d35 3f74 e7b2 d2e1 a434 b59a bab4
00000190: 74e4 64b4 4e0d ac34 2b8e 992e 41a0 ee36
000001a0: 7b69 5936 31d6 7431 d2f6 69b4 fef9 0c32
000001b0: 8743 f034 a344 56b4 6632 4c31 18cf 6632
000001c0: 9170 ec32 adde e231 c2de ba31 2b53 e832
000001d0: dde6 7c35 c7dc 7f31 3617 43b7 f4be 8b32
000001e0: 7d1e 90b4 ec4f 9831 bd01 7e33 8ac6 6a33
000001f0: dc7d ebb4 b064 2e32 43a8 b335 11a3 2935
00000200: db49 5c35 c3b0 9434 76e1 a034 55d3 7f36
00000210: ac1a 56b4 3b5f 2b34 3a29 8e2e 5927 d936
00000220: 8366 e334 604b 0732 9958 9d33 401b a7b4
00000230: be5a f135 2352 f333 a5ed bb31 d930 7f34
00000240: d1c4 0233 c765 a132 afdf 3e32 f833 6b32
00000250: 1fb3 4e34 7851 9231 0f15 4fb4 624a 1932
00000260: e0a9 0934 9903 3b32 ade0 4e33 9aae 8833
00000270: 87de 0c34 f85b 7e32 19dc 8235 585c 61b5
00000280: 76a2 7b35 025d 3235 d0fd 5234 247c c134
00000290: 567d b333 fa31 b534 4588 c0ad 2183 dc36
000002a0: 153a 4935 3cc0 7032 ef3b 8633 7eb8 2a32
000002b0: cdb0 e334 d196 b233 e490 4a31 fdb7 0234
000002c0: f3ef d632 56a7 8a32 5c8f 5a32 5739 5532
000002d0: c3ab 4e34 17e2 2236 ee34 13b5 6fa0 7c32
000002e0: 60d3 88b4 a0c6 8a31 a3a4 3733 33c1 8433
000002f0: 0d99 1235 a656 5a33 524e 6c35 db48 f833
00000300: 89d2 cb32 7847 5332 ca3f d5af c68c 0334
00000310: 84ae 3fb4 7ed7 b531 cc58 e835 b2e4 f833
00000320: 4d47 3b32 306d d82e 485f e630 3a39 5ab1
00000330: 40bd 1b32 32ac 2c31 085c c12e b513 6d31
00000340: 8ef1 d42f 237e ca2f 89d9 922f 2358 d62f
00000350: 0d50 54b6 1bbf 3e30 5c1d 74b2 ff00 2331
00000360: 6fcd ce35 9fe1 9430 8081 3630 fdc9 0431
00000370: c457 1632 bd5c d32f 4f6b 16b8 6c7e 0c33
00000380: 9415 032d afe0 222c 991e 3aac 8a6b 47ad
00000390: 9a5c 912a a745 322c 5489 aeb9 3a29 e82f
000003a0: f15e deb3 45ee b229 d151 422b 30d7 ccb5
000003b0: 284a 3131 aa4d 84ac 81ee 352a 9a89 0ab2
000003c0: 9727 7eab 4e85 6c29 b4db 6233 2e61 1c2a
000003d0: b839 0fb3 36f4 7929 ced9 1cba e6bb fdaf
000003e0: 264d c42f 4dc4 89b9 75ac 962a 5c21 0f2b
000003f0: 3342 083a 4823 552a 651d e0b2 0ff3 242b

fai_gcn_networks.1.gcn.conv.bias f4 [192]
0.0325356 0.032065224 2.5851848e-06 0.031680282 0.0315447 0.032341305 0.0011189275 -6.889133e-07
0.032014307 0.03182352 -2.6314456e-08 0.004488622 0.0326328 0.032855257 0.03262495 0.032634743
0.032247677 0.0327527 0.031732943 0.019666282 0.009139347 0.0064349747 -7.9235446e-07 -2.2656639e-07
0.03232 2.9710796e-09 0.032668613 -6.21202e-08 -6.3528483e-07 2.284573e-06 0.03235631 0.032663975
-4.1922598e-07 1.367217e-07 0.03291598 -3.075412e-08 0.02956349 2.0311997e-07 1.1948018e-07 0.010451428
0.03311091 0.03224953 0.031142911 0.032855086 -3.263281e-07 0.03277354 4.3149626e-08 0.032785516
1.3839541e-06 5.983952e-07 0.03255318 0.033205666 -2.0526656e-08 2.2437546e-07 0.03293259 0.031872608
-3.3247412e-07 0.032192767 -5.9648766e-09 1.9432157e-06 5.914952e-07 0.032654494 0.032790843 -2.0785781e-07
0.03790174 0.03744701 4.5119427e-06 0.03600012 0.037068088 0.037642285 0.0014614476 -5.258612e-07
0.037205912 0.036105484 -2.5139874e-08 0.005456406 0.03764391 0.03793474 0.03828408 0.03805196
0.036701586 0.037661523 0.036721177 0.02336964 0.010976703 0.0077309185 -8.885751e-07 -2.2105256e-07
0.037892688 2.3933056e-09 0.03767106 -8.18515e-08 -5.40713e-07 7.5539215e-06 0.03708665 0.038227197
-8.449905e-07 2.9738112e-08 0.03806958 -3.647912e-08 0.034898542 -8.337428e-08 2.0471293e-07 0.012538804
0.038103413 0.037259568 0.036570605 0.038501818 -3.0057367e-07 0.038443096 -8.655922e-08 0.038388934
-2.7804003e-08 2.9643967e-08 0.037960608 0.03819587 -1.618893e-08 2.7469625e-07 0.03858444 0.037479512
-3.0795567e-07 0.037108712 -1.040662e-08 2.5629988e-06 9.981542e-07 0.03828673 0.03847387 -2.042631e-07
0.016361365 0.01604729 -1.9671959e-06 0.016646799 0.01572731 0.016268281 0.0003184958 -2.5011212e-07
0.016156763 0.016783377 2.960694e-10 0.002093877 0.016645476 0.016739903 0.01629502 0.016391728
0.016874418 0.016791357 0.016109264 0.009650119 0.004437738 0.0031342302 -9.464622e-07 -4.6114894e-09
0.016135912 -4.7899675e-09 0.016670095 -4.9079585e-09 -9.097197e-07 -1.1633467e-06 0.016695121 0.016341658
-7.047876e-07 8.366075e-07 0.01670309 -2.954449e-08 0.014599771 1.5868061e-06 -1.3112094e-07 0.005080473
0.016941933 0.016418302 0.015496533 0.01642899 -2.6222901e-06 0.016372012 9.373496e-09 0.016398175
2.6519208e-06 -7.319234e-07 0.016349528 0.017013358 1.3339061e-08 -4.888471e-07 0.016468687 0.01587404
-3.8875893e-07 0.016408874 -2.3669824e-09 2.6977776e-07 -3.324799e-08 0.016302444 0.01638469 -2.6692396e-07
00000000: 0d44 053d d356 033d 237d 2d36 2fc3 013d
00000010: 0435 013d 5178 043d faa8 923a c3ed 38b5
00000020: 6f21 033d 6159 023d 1a0a e2b2 4a15 933b
00000030: f9a9 053d 3c93 063d bda1 053d 02ac 053d
00000040: 2416 043d b227 063d 67fa 013d 2f1b a13c
00000050: 33bd 153c 7bdc d23b 2fb2 54b5 1846 73b4
00000060: fa61 043d c92b 4c31 86cf 053d f166 85b3
00000070: 7188 2ab5 aa50 1936 0d88 043d a9ca 053d
00000080: fb11 e1b4 c6cd 1234 e8d2 063d 8316 04b3
00000090: 222f f23c 3119 5a34 764a 0034 773c 2b3c
000000a0: 4e9f 073d 1518 043d 6b1f ff3c 0e93 063d
000000b0: 3132 afb4 8c3d 063d 8453 3933 1b4a 063d
000000c0: 4dc0 b935 68a1 2035 7c56 053d aa02 083d
000000d0: 9852 b0b2 dbeb 7034 53e4 063d da8c 023d
000000e0: e57e b2b4 90dc 033d 9cf3 ccb1 3168 0236
000000f0: 3ec7 1e35 b8c0 053d b14f 063d 852f 5fb4
00000100: db3e 1b3d 0962 193d 4b65 9736 dd74 133d
00000110: b5d4 173d cc2e 1a3d 0b8e bf3a e828 0db5
00000120: 3a65 183d 58e3 133d 2bf3 d7b2 a7cb b23b
00000130: 8030 1a3d 7561 1b3d c4cf 1c3d 5fdc 1b3d
00000140: 6754 163d f842 1a3d f268 163d b071 bf3c
00000150: a1d7 333c a553 fd3b 6a86 6eb5 775a 6db4
00000160: 5d35 1b3d 7a77 2431 f84c 1a3d 57c6 afb3
00000170: 8425 11b5 b177 fd36 2ce8 173d 1f94 1c3d
00000180: 4ed3 62b5 cd72 ff32 d9ee 1b3d 37ad 1cb3
00000190: c6f1 0e3d 7f0b b3b3 10cf 5b34 8e6f 4d3c
000001a0: 5312 1c3d 7d9d 183d 0fcb 153d 15b4 1d3d
000001b0: 885e a1b4 8276 1d3d 6fe2 b9b3 b73d 1d3d
000001c0: a6d5 eeb2 c6a3 fe32 957c 1b3d 4673 1c3d
000001d0: d50f 8bb2 f779 9334 b80a 1e3d 1e84 193d
000001e0: 1b55 a5b4 4eff 173d ccc8 32b2 fcff 2b36
000001f0: 51f8 8535 8cd2 1c3d c796 1d3d 6a53 5bb4
00000200: 4508 863c 9b75 833c 2b04 04b6 de5e 883c
00000210: 8fd6 803c 0f45 853c c8fb a639 2647 86b4
00000220: 305b 843c 4b7d 893c 10c4 a22f 6d39 093b
00000230: 185c 883c 1f22 893c 227d 853c f247 863c
00000240: 383c 8a3c 078e 893c 93f7 833c 881b 1e3c
00000250: 726a 913b a867 4d3b 6310 7eb5 1773 9eb1
00000260: 762f 843c 0095 a4b1 b98f 883c dca2 a8b1
00000270: 7633 74b5 4a24 9cb5 35c4 883c f1de 853c
00000280: a330 3db5 3b93 6035 ebd4 883c 05c9 fdb2
00000290: e133 6f3c 3efa d435 40ca 0cb4 197a a63b
000002a0: cfc9 8a3c ad7f 863c 2ce5 7d3c 1796 863c
000002b0: 9afa 2fb6 991e 863c 1209 2132 7755 863c
000002c0: a7f7 3136 6579 44b5 72ef 853c 995f 8b3c
000002d0: d029 6532 5139 03b5 57e9 863c 460a 823c
000002e0: 9fb6 d0b4 e76b 863c 65a8 22b1 f9d5 9034
000002f0: 8dcc 0eb3 b48c 853c 2f39 863c c04d 8fb4

fai_gcn_networks.1.residual.0.weight f4 [64, 32, 1, 1]
0.018939074 -0.0061449036 -0.032910142 -0.014857954 -0.0010135311 0.0009883319 0.024225261 -0.015218258
0.006272182 -0.017307077 -0.012435554 0.00986196 0.016803209 -0.022054536 -0.014527833 0.009636111
-0.01705649 -0.047278974 -0.013202678 0.00060644717 0.00012018301 -0.010741053 0.018319836 0.0032305957
0.0021009517 -0.019425686 -0.009497714 0.012672698 0.00080629636 -0.010339507 -0.015471177 0.012213666
-0.041910652 -0.014167534 0.022505429 0.03692929 -0.0078641 -0.01668219 0.008646002 0.0157229
0.013545066 0.0085383905 0.009265355 0.018712282 0.028603643 -0.0045753606 0.0044206996 0.023048725
0.03084884 0.046898875 -0.0033407733 -0.021755572 -0.025820026 -0.0026737007 -0.04343495 -0.016305752
-0.04130582 -0.043620266 -0.009299242 0.025887646 -0.012852149 -0.03155005 0.037751406 -0.012634297
-0.0030532603 -0.0070576984 0.017512104 -0.008796813 -0.019055344 -0.02797408 0.0033715232 0.013514747
-0.00058863964 -0.00061670435 0.015763018 -0.005240307 0.0029821643 -0.016734857 -0.017622678 -0.035216775
0.025386052 0.020777933 0.03631077 0.017362846 -0.043293994 -0.0038590601 0.019533144 0.004192864
0.004278021 -0.042318843 0.011477886 -0.025823338 -0.017927784 -0.009904955 -0.009300515 0.00096727646
0.025345225 -0.0065649305 -0.014616483 0.007521045 -0.024068408 -0.01769643 0.0040153596 -0.014234595
0.0058608362 0.024808768 -0.008808525 0.009070592 0.0070137815 0.02517589 -0.0011688184 -0.02105033
-0.0006506436 0.0090400055 -0.004882899 0.014554497 -0.012564622 -0.018089527 -0.004374887 0.03322041
-0.0013190513 -0.0002639431 -0.01232889 -0.026730947 0.01523792 -0.047824655 -0.027650353 -0.019539807
-0.018842924 0.007027198 -0.021400938 -0.05557979 0.01293719 -0.019242285 -0.016130228 -0.019203953
0.002681149 0.005157314 0.0065306146 0.016719017 -0.0134527385 0.013129326 0.0028363653 0.016889757
-0.0257695 -0.03400732 -0.011278876 -0.0123772165 -0.002302473 -0.017000364 0.0036840593 0.035638824
0.009836258 -0.022610702 0.004971007 0.0074630803 0.0007746095 0.017704004 0.017118342 -0.016793529
0.037173662 -0.007622767 -0.0017863673 -0.008876308 -0.016437441 -0.010885577 -0.0142114265 -0.010572541
-0.0005284347 0.019539252 -0.031392857 0.0015147848 0.032461822 -0.02588465 0.022695346 -0.008580532
0.00058922597 -0.010769596 -0.016838176 -0.009869769 0.00550937 -0.0005940455 -0.021280998 -0.003984541
0.014127723 -0.05642709 -0.0067432076 -0.034988776 -0.01357113 -0.011320052 -0.0062169274 -0.001966492
0.013539947 0.012304176 0.008882328 0.0025081923 0.02816169 0.0083734505 -0.018838525 -0.012847026
0.025752356 -0.018108787 -0.002155895 -0.011631346 0.00028611155 -0.028556248 0.0066422615 0.048417658
0.009176914 0.020902574 -0.017622227 -0.029697316 -0.003274225 -0.008646546 0.021333894 -0.019496331
0.00067070336 -0.008334251 -0.0074231946 -0.0044910028 0.027040618 0.004209212 -0.008735225 0.00040809385
0.0013271784 -0.02677107 0.006572663 -0.03717913 0.04125122 0.012744414 -0.00773247 -0.006772761
0.017859483 -0.017746817 0.033601962 0.046437766 0.006135368 0.027487023 -0.044545796 0.022766905
-0.009482309 -0.0039688577 0.028790154 0.0031954588 -0.039527982 0.021439 -0.026716964 -0.0038052595
-0.01447527 0.005573005 0.0028188399 -0.00021571995 -0.0016473462 -0.032408085 -0.012693581 -0.0052713845
00000000: 1e26 9b3c 305b c9bb c9cc 06bd c76e 73bc
00000010: 76d8 84ba ea8a 813a 0e74 c63c 0056 79bc
00000020: e086 cd3b 92c7 8dbc 7ebe 4bbc 0f94 213c
00000030: e2a6 893c b7ab b4bc 2606 6ebc c7e0 1d3c
00000040: 0dba 8bbc 99a7 41bd 0c50 58bc fbf9 1e3a
00000050: c30a fc38 3efb 2fbc 7b13 963c 67b8 533b
00000060: 1fb0 093b 9e22 9fbc 4d9c 1bbc 26a1 4f3c
00000070: a25d 533a 0967 29bc d27a 7dbc d41b 483c
00000080: 81aa 2bbd f21e 68bc 4e5d b83c 2b43 173d
00000090: 6dd8 00bc 17a9 88bc f6a7 0d3c 50cd 803c
000000a0: 20ec 5d3c 9be4 0b3c b7cd 173c 804a 993c
000000b0: 3052 ea3c e8ec 95bb 84db 903b aed0 bc3c
000000c0: b5b6 fc3c 0919 403d e0f0 5abb be38 b2bc
000000d0: 8584 d3bc 4139 2fbb d9e8 31bd a493 85bc
000000e0: 4b30 29bd 2aab 32bd d95b 18bc 5412 d43c
000000f0: d291 52bc a03a 01bd 38a1 1a3d 1500 4fbc
00000100: 3519 48bb 4444 e7bb 8b75 8f3c 8220 10bc
00000110: f419 9cbc e629 e5bc c6f4 5c3b f56c 5d3c
00000120: f04e 1aba 54aa 21ba 7221 813c e2b6 abbb
00000130: 6a70 433b 8a17 89bc 6f5d 90bc 773f 10bd
00000140: 69f6 cf3c 7c36 aa3c 9aba 143d 873c 8e3c
00000150: 0b55 31bd 49e8 7cbb f903 a03c 4b64 893b
00000160: a42e 8c3b 8656 2dbd be0d 3c3c 778b d3bc
00000170: 4add 92bc 6448 22bc 3061 18bc d390 7d3a
00000180: caa0 cf3c a11e d7bb f979 6fbc 1973 f63b
00000190: 1c2b c5bc 1bf8 90bc 4793 833b 3838 69bc
000001a0: 420c c03b c23b cb3c a251 10bc d29c 143c
000001b0: ddd3 e53b ab3d ce3c 0a33 99ba be71 acbc
000001c0: f48f 2aba 881c 143c ba00 a0bb fc75 6e3c
000001d0: d8db 4dbc 7d30 94bc 365b 8fbb 2012 083d
000001e0: 04e4 acba d861 8ab9 1dff 49bc dcfa dabc
000001f0: 78a8 793c c9e3 43bd fe82 e2bc f211 a0bc
00000200: 7a5c 9abc 6944 e63b 0551 afbc a2a7 63bd
00000210: 82f6 533c ffa1 9dbc 8a23 84bc 9c51 9dbc
00000220: 37b6 2f3b affe a83b c4fe d53b 52f6 883c
00000230: e068 5cbc 621c 573c 50e2 393b 635c 8a3c
00000240: 8f1a d3bc 424b 0bbd 09cb 38bc cfc9 4abc
00000250: 16e5 16bb 5944 8bbc 4270 713b 04fa 113d
00000260: 4228 213c 143a b9bc d4e3 a23b db8c f43b
00000270: 2a0f 4b3a fd07 913c c43b 8c3c 9592 89bc
00000280: 6943 183d 67c8 f9bb 8a24 eaba ef6d 11bc
00000290: d0a7 86bc 6b59 32bc 0bd7 68bc 7338 2dbc
000002a0: a786 0aba c810 a03c cc95 00bd be8b c63a
000002b0: b0f6 043d 0c0c d4bc 97eb b93c 5c95 0cbc
000002c0: 4976 1a3a f672 30bc 37f0 89bc d0b4 21bc
000002d0: f287 b43b b8b9 1bba 7d55 aebc c190 82bb
000002e0: f777 673c 1820 67bd 20f6 dcbb 6450 0fbd
000002f0: 7259 5ebc bd77 39bc 5eb7 cbbb 43e0 00bb
00000300: a7d6 5d3c 7497 493c 2f87 113c 7c60 243b
00000310: 58b3 e63c cc30 093c 4053 9abc 557c 52bc
00000320: 9bf6 d23c e158 94bc eb49 0dbb 6791 3ebc
00000330: 3e01 9639 cbee e9bc 54a7 d93b 9851 463d
00000340: c45a 163c e03b ab3c 7d5c 90bc c947 f3bc
00000350: 6194 56bb 3eaa 0dbc 6bc4 ae3c c5b6 9fbc
00000360: 24d2 2f3a 628c 08bc 453e f3bb 4329 93bb
00000370: 4984 dd3c 6eed 893b 301e 0fbc 6ef5 d539
00000380: b8f4 ad3a 014f dbbc 7e5f d73b 2549 18bd
00000390: 0af7 283d f2cd 503c a960 fdbb 09ee ddbb
000003a0: 0d4e 923c c661 91bc 36a2 093d 8735 3e3d
000003b0: 320b c93b 772c e13c a775 36bd a981 ba3c
000003c0: b05b 1bbc 310d 82bb 54d9 eb3c e76a 513b
000003d0: 18e8 21bd d7a0 af3c 89dd dabc a961 79bb
000003e0: af29 6dbc c19d b63b 49bc 383b e232 62b9
000003f0: c4eb d7ba 57be 04bd bdf8 4fbc 94bb acbb

fai_gcn_networks.1.residual.0.bias f4 [64]
0.0 0.0 0.0 0.0 0.0 0.0 0.0 0.0
0.0 0.0 0.0 0.0 0.0 0.0 0.0 0.0
0.0 0.0 0.0 0.0 0.0 0.0 0.0 0.0
0.0 0.0 0.0 0.0 0.0 0.0 0.0 0.0
0.0 0.0 0.0 0.0 0.0 0.0 0.0 0.0
0.0 0.0 0.0 0.0 0.0 0.0 0.0 0.0
0.0 0.0 0.0 0.0 0.0 0.0 0.0 0.0
0.0 0.0 0.0 0.0 0.0 0.0 0.0 0.0
00000000: 0000 0000 0000 0000 0000 0000 0000 0000
00000010: 0000 0000 0000 0000 0000 0000 0000 0000
00000020: 0000 0000 0000 0000 0000 0000 0000 0000
00000030: 0000 0000 0000 0000 0000 0000 0000 0000
00000040: 0000 0000 0000 0000 0000 0000 0000 0000
00000050: 0000 0000 0000 0000 0000 0000 0000 0000
00000060: 0000 0000 0000 0000 0000 0000 0000 0000
00000070: 0000 0000 0000 0000 0000 0000 0000 0000
00000080: 0000 0000 0000 0000 0000 0000 0000 0000
00000090: 0000 0000 0000 0000 0000 0000 0000 0000
000000a0: 0000 0000 0000 0000 0000 0000 0000 0000
000000b0: 0000 0000 0000 0000 0000 0000 0000 0000
000000c0: 0000 0000 0000 0000 0000 0000 0000 0000
000000d0: 0000 0000 0000 0000 0000 0000 0000 0000
000000e0: 0000 0000 0000 0000 0000 0000 0000 0000
000000f0: 0000 0000 0000 0000 0000 0000 0000 0000

fai_gcn_networks.1.residual.1.weight f4 [64]
0.99313664 1.0092814 0.9851803 1.0197701 1.0100332 0.99878585 1.0245621 0.9780831
0.95989764 1.037407 0.9729835 0.99444664 1.0003372 1.0054029 0.9858513 1.0203506
0.9793453 0.98676443 1.0055552 0.98812294 1.0294654 1.0242891 0.9846279 1.0051813
1.0439144 1.0294458 0.98244 0.9702928 1.0024039 1.0318897 0.9904064 1.0077388
0.99255735 0.9734997 0.9985802 0.9916456 1.0069139 1.0384603 0.989641 0.99286216
0.99673015 1.0364307 1.0216503 0.97213835 0.96292424 1.0019207 1.0014352 0.9726209
0.9963759 1.0154052 0.9982208 1.0188428 1.0203962 1.0120778 0.9958304 0.9652241
0.96660614 0.99413645 1.0033184 0.9838672 0.9991993 1.0005283 1.0377349 0.9768669
00000000: 343e 7e3f 2230 813f c734 7c3f d487 823f
00000010: c548 813f 6eb0 7f3f da24 833f a763 7a3f
00000020: dabb 753f c1c9 843f 7215 793f 0e94 7e3f
00000030: 0d0b 803f 0bb1 803f c060 7c3f d99a 823f
00000040: 60b6 7a3f 989c 7c3f 08b6 803f a0f5 7c3f
00000050: 86c5 833f e81b 833f 9310 7c3f c8a9 803f
00000060: fd9e 853f e1c4 833f 3081 7b3f 1c65 783f
00000070: c54e 803f f614 843f 468b 7d3f 96fd 803f
00000080: 3d18 7e3f 4737 793f f4a2 7f3f 7cdc 7d3f
00000090: 8ee2 803f 44ec 843f 1d59 7d3f 372c 7e3f
000000a0: b529 7f3f c3a9 843f 70c5 823f 0fde 783f
000000b0: 3482 763f f03e 803f 072f 803f affd 783f
000000c0: 7e12 7f3f ccf8 813f 668b 7f3f 7169 823f
000000d0: 589c 823f c48b 813f beee 7e3f ed18 773f
000000e0: 8073 773f ba7f 7e3f bd6c 803f b9de 7b3f
000000f0: 86cb 7f3f 5011 803f 7fd4 843f f313 7a3f

fai_gcn_networks.1.residual.1.bias f4 [64]
0.0 0.0 0.0 0.0 0.0 0.0 0.0 0.0
0.0 0.0 0.0 0.0 0.0 0.0 0.0 0.0
0.0 0.0 0.0 0.0 0.0 0.0 0.0 0.0
0.0 0.0 0.0 0.0 0.0 0.0 0.0 0.0
0.0 0.0 0.0 0.0 0.0 0.0 0.0 0.0
0.0 0.0 0.0 0.0 0.0 0.0 0.0 0.0
0.0 0.0 0.0 0.0 0.0 0.0 0.0 0.0
0.0 0.0 0.0 0.0 0.0 0.0 0.0 0.0
00000000: 0000 0000 0000 0000 0000 0000 0000 0000
00000010: 0000 0000 0000 0000 0000 0000 0000 0000
00000020: 0000 0000 0000 0000 0000 0000 0000 0000
00000030: 0000 0000 0000 0000 0000 0000 0000 0000
00000040: 0000 0000 0000 0000 0000 0000 0000 0000
00000050: 0000 0000 0000 0000 0000 0000 0000 0000
00000060: 0000 0000 0000 0000 0000 0000 0000 0000
00000070: 0000 0000 0000 0000 0000 0000 0000 0000
00000080: 0000 0000 0000 0000 0000 0000 0000 0000
00000090: 0000 0000 0000 0000 0000 0000 0000 0000
000000a0: 0000 0000 0000 0000 0000 0000 0000 0000
000000b0: 0000 0000 0000 0000 0000 0000 0000 0000
000000c0: 0000 0000 0000 0000 0000 0000 0000 0000
000000d0: 0000 0000 0000 0000 0000 0000 0000 0000
000000e0: 0000 0000 0000 0000 0000 0000 0000 0000
000000f0: 0000 0000 0000 0000 0000 0000 0000 0000

fai_gcn_networks.1.residual.1.running_mean f4 [64]
-2.0814107e-06 2.2000308e-06 1.2581189e-06 -2.157126e-06 -4.094718e-06 -1.2162947e-06 -1.0503529e-06 -2.155851e-06
3.329218e-06 -5.982642e-06 -1.8338235e-06 -6.986346e-07 -1.0175377e-06 -6.580517e-06 1.586158e-06 -5.997899e-06
-2.68836e-06 4.4256894e-06 1.0430077e-07 -2.82147e-07 -4.4513467e-07 -2.9525224e-06 -5.320701e-07 -3.794922e-07
2.553339e-07 9.1374676e-07 3.2351087e-07 -5.023669e-07 -2.2733325e-06 2.4868637e-06 -7.807574e-06 -2.3837956e-06
2.511456e-06 -2.9265345e-06 3.5633373e-06 2.6800276e-06 -1.7054748e-06 4.529461e-06 2.1466706e-06 5.888315e-07
9.807159e-07 -7.6517676e-07 2.824797e-06 -1.4341641e-07 -6.3456187e-06 -1.8635782e-06 -2.625698e-06 -3.1216834e-06
-1.8179347e-07 -1.4806791e-06 2.0901607e-06 1.7243217e-06 6.82711e-06 1.0239985e-06 -4.8449044e-07 -9.976092e-07
3.0801139e-06 3.2049038e-06 -2.6695494e-07 -3.0879291e-06 -2.0541836e-06 -2.039846e-06 8.075817e-06 -6.9440043e-06
00000000: 5dae 0bb6 3ea4 1336 a3dc a835 24c3 10b6
00000010: 5c65 89b6 913f a3b5 daf9 8cb5 3dad 10b6
00000020: 886b 5f36 81be c8b6 b221 f6b5 ce89 3bb5
00000030: 5492 88b5 36ce dcb6 f9e3 d435 8f41 c9b6
00000040: ac69 34b6 6280 9436 f4fb df33 fd79 97b4
00000050: d8fa eeb4 f323 46b6 94d3 0eb5 03bd cbb4
00000060: d314 8934 3348 7535 ffae ad34 64da 06b5
00000070: 8e8f 18b6 fee3 2636 46fd 02b7 4cf9 1fb6
00000080: 7c8a 2836 7b65 44b6 ab21 6f36 86da 3336
00000090: abe7 e4b5 c6fb 9736 850f 1036 3110 1e35
000000a0: 24a1 8335 8c66 4db5 a591 3d36 01fe 19b4
000000b0: 73ec d4b6 0f20 fab5 2635 30b6 1d7e 51b6
000000c0: 0233 43b4 bfbb c6b5 b044 0c36 3e6f e735
000000d0: 6e14 e536 5270 8935 ee0d 02b5 97e5 85b5
000000e0: f4b3 4e36 d413 5736 0252 8fb4 383a 4fb6
000000f0: 9bda 09b6 4ae4 08b6 5f7d 0737 8b00 e9b6

fai_gcn_networks.1.residual.1.running_var f4 [64]
1.0610947e-11 9.039293e-12 7.386098e-12 8.364837e-12 1.7204004e-11 6.2583584e-12 5.5719825e-12 5.6332287e-12
4.1790595e-11 5.5613996e-11 3.2518417e-12 8.2033837e-13 1.2091952e-12 8.2710915e-11 8.47013e-12 2.8427186e-11
1.6253082e-11 3.2448547e-11 1.2491382e-12 6.8206665e-13 2.8055284e-12 1.9778786e-11 1.7904334e-12 1.3864907e-12
2.1356792e-12 5.9252455e-12 2.4685447e-12 3.714389e-12 1.2034756e-11 1.1380628e-11 1.0166563e-10 2.4056336e-12
2.8161529e-11 2.7071366e-11 4.7054256e-11 1.3003035e-11 1.1484766e-11 3.4796117e-11 9.421256e-12 8.7862546e-13
9.918638e-13 6.292166e-13 2.1464575e-11 3.1765749e-12 4.9895844e-11 1.5246557e-11 9.858837e-12 1.611141e-11
2.1182438e-11 3.9012613e-12 2.3696798e-12 1.3749458e-12 1.00912396e-10 4.5750127e-12 6.0140895e-13 6.0582713e-13
2.5946223e-11 2.924911e-11 2.854839e-12 4.2323363e-12 3.1757654e-12 1.0125234e-11 6.918953e-11 1.1866809e-10
00000000: 75ab 3a2d 5b05 1f2d 07f0 012d e027 132d
00000010: f953 972d 4832 dc2c f50b c42c 9d33 c62c
00000020: 07cc 372e cb97 742e f9d3 642c 9ce7 662b
00000030: d92d aa2b 1be2 b52e 1302 152d 550c fa2d
00000040: b0f6 8e2d d1b5 0e2e f2cc af2b 15fc 3f2b
00000050: e86b 452c def9 ad2d 29fb fb2b 9821 c32b
00000060: fa48 162c de79 d02c 59b5 2d2c 3eb0 822c
00000070: b9b7 532d cb35 482d a990 df2e 0b48 292c
00000080: 20b6 f72d 4c1f ee2d 62f2 4e2e 77c0 642d
00000090: ca0a 4a2d f208 192e 91bd 252d a34f 772b
000000a0: a997 8b2b d61b 312b edcd bc2d 1688 5f2c
000000b0: ba71 5b2e 321c 862d 4170 2d2d acb7 8d2d
000000c0: 9c52 ba2d 7043 892c 5bc0 262c a581 c12b
000000d0: a1e8 dd2e 0df8 a02c 1548 292b 7286 2a2b
000000e0: b339 e42d 92a3 002e 35e4 482c 7fe9 942c
000000f0: 8179 5f2c 0020 322d 3e26 982e 197a 022f

edge_importance.0 f4 [3, 18, 18]
0.8717281 0.8717281 0.8717281 0.8717281 0.8717281 0.8717281 0.8717281 0.8717281
0.8717281 0.8717281 0.8717281 0.8717281 0.8717281 0.8717281 0.8717281 0.8717281
0.8717281 0.8717281 0.8717281 0.871728 0.8717281 0.8717281 0.8717281 0.8717281
0.8717281 0.8717281 0.8717281 0.8717281 0.8717281 0.8717281 0.8717281 0.8717281
0.8717281 0.8717281 0.8717281 0.8717281 0.8717281 0.8717281 0.8717281 0.8717281
0.8717281 0.8717281 0.8717281 0.8717281 0.8717281 0.8717281 0.8717281 0.8717281
0.8717281 0.8717281 0.8717281 0.8717281 0.8717281 0.8717281 0.8717281 0.8717281
0.8717281 0.8717281 0.8717281 0.8717281 0.8717281 0.8717281 0.8717281 0.8717281
0.8717281 0.8717281 0.8717281 0.8717281 0.8717281 0.8717281 0.8717281 0.8717281
0.8717281 0.8717281 0.8717281 0.8717281 0.87172836 0.8717281 0.8717281 0.8717281
0.8717281 0.8717281 0.8717281 0.8717281 0.8717281 0.8717281 0.8717281 0.8717281
0.8717281 0.8717281 0.8717281 0.8717281 0.8717281 0.8717281 0.8717281 0.8717281
0.8717281 0.8717281 0.8717281 0.8717281 0.8717281 0.8717281 0.8717281 0.8717281
0.8717281 0.8717281 0.8717281 0.8717281 0.8717281 0.8717281 0.8717281 0.8717281
0.8717281 0.8717281 0.8717282 0.8717281 0.8717281 0.8717281 0.8717281 0.8717281
0.8717281 0.8717281 0.8717281 0.8717281 0.8717281 0.8717281 0.8717281 0.8717281
0.8717281 0.8717281 0.8717281 0.8717281 0.8717281 0.87172836 0.8717281 0.8717281
0.8717281 0.8717281 0.8717281 0.8717281 0.8717281 0.8717281 0.8717281 0.8717281
0.8717281 0.8717281 0.8717281 0.8717281 0.8717281 0.8717281 0.8717281 0.8717281
0.8717282 0.8717281 0.8717281 0.8717281 0.8717281 0.8717281 0.8717281 0.8717281
0.8717281 0.8717281 0.8717281 0.8717281 0.8717281 0.8717281 0.8717281 0.8717281
0.8717281 0.8717281 0.8717281 0.8717282 0.8717281 0.8717281 0.8717281 0.8717281
0.8717281 0.8717281 0.8717281 0.8717281 0.8717281 0.8717281 0.8717281 0.8717281
0.8717281 0.8717281 0.8717281 0.8717281 0.8717281 0.8717281 0.87172836 0.8717281
0.8717281 0.8717281 0.8717281 0.8717281 0.8717281 0.8717281 0.8717281 0.8717281
0.8717281 0.8717281 0.8717281 0.8717281 0.8717281 0.8717281 0.8717281 0.8717281
0.8717281 0.8717282 0.8717281 0.8717281 0.8717281 0.8717281 0.8717281 0.8717281
0.8717281 0.8717281 0.8717281 0.8717281 0.8717281 0.8717281 0.8717281 0.8717281
0.8717281 0.8717281 0.8717281 0.8717281 0.8717282 0.8717281 0.8717281 0.8717281
0.8717281 0.8717281 0.8717281 0.8717281 0.8717281 0.8717281 0.8717281 0.8717281
0.8717281 0.8717281 0.8717281 0.8717281 0.8717281 0.8717281 0.8717281 0.87172836
0.8717281 0.8717281 0.8717281 0.8717281 0.8717281 0.8717281 0.8717281 0.8717281
00000000: 9329 5f3f 9329 5f3f 9329 5f3f 9329 5f3f
00000010: 9329 5f3f 9329 5f3f 9329 5f3f 9329 5f3f
00000020: 9329 5f3f 9329 5f3f 9329 5f3f 9329 5f3f
00000030: 9329 5f3f 9329 5f3f 9329 5f3f 9329 5f3f
00000040: 9329 5f3f 9329 5f3f 9329 5f3f 9129 5f3f
00000050: 9329 5f3f 9329 5f3f 9329 5f3f 9329 5f3f
00000060: 9329 5f3f 9329 5f3f 9329 5f3f 9329 5f3f
00000070: 9329 5f3f 9329 5f3f 9329 5f3f 9329 5f3f
00000080: 9329 5f3f 9329 5f3f 9329 5f3f 9329 5f3f
00000090: 9329 5f3f 9329 5f3f 9329 5f3f 9329 5f3f
000000a0: 9329 5f3f 9329 5f3f 9329 5f3f 9329 5f3f
000000b0: 9329 5f3f 9329 5f3f 9329 5f3f 9329 5f3f
000000c0: 9329 5f3f 9329 5f3f 9329 5f3f 9329 5f3f
000000d0: 9329 5f3f 9329 5f3f 9329 5f3f 9329 5f3f
000000e0: 9329 5f3f 9329 5f3f 9329 5f3f 9329 5f3f
000000f0: 9329 5f3f 9329 5f3f 9329 5f3f 9329 5f3f
00000100: 9329 5f3f 9329 5f3f 9329 5f3f 9329 5f3f
00000110: 9329 5f3f 9329 5f3f 9329 5f3f 9329 5f3f
00000120: 9329 5f3f 9329 5f3f 9329 5f3f 9329 5f3f
00000130: 9729 5f3f 9329 5f3f 9329 5f3f 9329 5f3f
00000140: 9329 5f3f 9329 5f3f 9329 5f3f 9329 5f3f
00000150: 9329 5f3f 9329 5f3f 9329 5f3f 9329 5f3f
00000160: 9329 5f3f 9329 5f3f 9329 5f3f 9329 5f3f
00000170: 9329 5f3f 9329 5f3f 9329 5f3f 9329 5f3f
00000180: 9329 5f3f 9329 5f3f 9329 5f3f 9329 5f3f
00000190: 9329 5f3f 9329 5f3f 9329 5f3f 9329 5f3f
000001a0: 9329 5f3f 9329 5f3f 9329 5f3f 9329 5f3f
000001b0: 9329 5f3f 9329 5f3f 9329 5f3f 9329 5f3f
000001c0: 9329 5f3f 9329 5f3f 9429 5f3f 9329 5f3f
000001d0: 9329 5f3f 9329 5f3f 9329 5f3f 9329 5f3f
000001e0: 9329 5f3f 9329 5f3f 9329 5f3f 9329 5f3f
000001f0: 9329 5f3f 9329 5f3f 9329 5f3f 9329 5f3f
00000200: 9329 5f3f 9329 5f3f 9329 5f3f 9329 5f3f
00000210: 9329 5f3f 9729 5f3f 9329 5f3f 9329 5f3f
00000220: 9329 5f3f 9329 5f3f 9329 5f3f 9329 5f3f
00000230: 9329 5f3f 9329 5f3f 9329 5f3f 9329 5f3f
00000240: 9329 5f3f 9329 5f3f 9329 5f3f 9329 5f3f
00000250: 9329 5f3f 9329 5f3f 9329 5f3f 9329 5f3f
00000260: 9429 5f3f 9329 5f3f 9329 5f3f 9329 5f3f
00000270: 9329 5f3f 9329 5f3f 9329 5f3f 9329 5f3f
00000280: 9329 5f3f 9329 5f3f 9329 5f3f 9329 5f3f
00000290: 9329 5f3f 9329 5f3f 9329 5f3f 9329 5f3f
000002a0: 9329 5f3f 9329 5f3f 9329 5f3f 9429 5f3f
000002b0: 9329 5f3f 9329 5f3f 9329 5f3f 9329 5f3f
000002c0: 9329 5f3f 9329 5f3f 9329 5f3f 9329 5f3f
000002d0: 9329 5f3f 9329 5f3f 9329 5f3f 9329 5f3f
000002e0: 9329 5f3f 9329 5f3f 9329 5f3f 9329 5f3f
000002f0: 9329 5f3f 9329 5f3f 9729 5f3f 9329 5f3f
00000300: 9329 5f3f 9329 5f3f 9329 5f3f 9329 5f3f
00000310: 9329 5f3f 9329 5f3f 9329 5f3f 9329 5f3f
00000320: 9329 5f3f 9329 5f3f 9329 5f3f 9329 5f3f
00000330: 9329 5f3f 9329 5f3f 9329 5f3f 9329 5f3f
00000340: 9329 5f3f 9429 5f3f 9329 5f3f 9329 5f3f
00000350: 9329 5f3f 9329 5f3f 9329 5f3f 9329 5f3f
00000360: 9329 5f3f 9329 5f3f 9329 5f3f 9329 5f3f
00000370: 9329 5f3f 9329 5f3f 9329 5f3f 9329 5f3f
00000380: 9329 5f3f 9329 5f3f 9329 5f3f 9329 5f3f
00000390: 9429 5f3f 9329 5f3f 9329 5f3f 9329 5f3f
000003a0: 9329 5f3f 9329 5f3f 9329 5f3f 9329 5f3f
000003b0: 9329 5f3f 9329 5f3f 9329 5f3f 9329 5f3f
000003c0: 9329 5f3f 9329 5f3f 9329 5f3f 9329 5f3f
000003d0: 9329 5f3f 9329 5f3f 9329 5f3f 9729 5f3f
000003e0: 9329 5f3f 9329 5f3f 9329 5f3f 9329 5f3f
000003f0: 9329 5f3f 9329 5f3f 9329 5f3f 9329 5f3f
