capsule-6073072/code/work_dir/recognition/kinetics_skeleton/FAI_GCN/epoch140_model.pt (torch, 74070 bytes, 22 tensors)

A f4 [3, 18, 18]
0.25 0.0 0.0 0.0 0.0 0.0 0.0 0.0
0.0 0.0 0.0 0.0 0.0 0.0 0.0 0.0
0.0 0.0 0.0 0.25 0.0 0.0 0.0 0.0
0.0 0.0 0.0 0.0 0.0 0.0 0.0 0.0
0.0 0.0 0.0 0.0 0.0 0.0 0.25 0.0
0.0 0.0 0.0 0.0 0.0 0.0 0.0 0.0
0.0 0.0 0.0 0.0 0.0 0.0 0.0 0.0
0.0 0.33333334 0.0 0.0 0.0 0.0 0.0 0.0
0.0 0.0 0.0 0.0 0.0 0.0 0.0 0.0
0.0 0.0 0.0 0.0 0.5 0.0 0.0 0.0
0.0 0.0 0.0 0.0 0.0 0.0 0.0 0.0
0.0 0.0 0.0 0.0 0.0 0.0 0.0 0.25
0.0 0.0 0.0 0.0 0.0 0.0 0.0 0.0
0.0 0.0 0.0 0.0 0.0 0.0 0.0 0.0
0.0 0.0 0.33333334 0.0 0.0 0.0 0.0 0.0
0.0 0.0 0.0 0.0 0.0 0.0 0.0 0.0
0.0 0.0 0.0 0.0 0.0 0.5 0.0 0.0
0.0 0.0 0.0 0.0 0.0 0.0 0.0 0.0
0.0 0.0 0.0 0.0 0.0 0.0 0.0 0.0
0.33333334 0.0 0.0 0.0 0.0 0.0 0.0 0.0
0.0 0.0 0.0 0.0 0.0 0.0 0.0 0.0
0.0 0.0 0.0 0.33333334 0.0 0.0 0.0 0.0
0.0 0.0 0.0 0.0 0.0 0.0 0.0 0.0
0.0 0.0 0.0 0.0 0.0 0.0 0.5 0.0
0.0 0.0 0.0 0.0 0.0 0.0 0.0 0.0
0.0 0.0 0.0 0.0 0.0 0.0 0.0 0.0
0.0 0.33333334 0.0 0.0 0.0 0.0 0.0 0.0
0.0 0.0 0.0 0.0 0.0 0.0 0.0 0.0
0.0 0.0 0.0 0.0 0.33333334 0.0 0.0 0.0
0.0 0.0 0.0 0.0 0.0 0.0 0.0 0.0
0.0 0.0 0.0 0.0 0.0 0.0 0.0 0.5
0.0 0.0 0.0 0.0 0.0 0.0 0.0 0.0
00000000: 0000 803e 0000 0000 0000 0000 0000 0000
00000010: 0000 0000 0000 0000 0000 0000 0000 0000
00000020: 0000 0000 0000 0000 0000 0000 0000 0000
00000030: 0000 0000 0000 0000 0000 0000 0000 0000
00000040: 0000 0000 0000 0000 0000 0000 0000 803e
00000050: 0000 0000 0000 0000 0000 0000 0000 0000
00000060: 0000 0000 0000 0000 0000 0000 0000 0000
00000070: 0000 0000 0000 0000 0000 0000 0000 0000
00000080: 0000 0000 0000 0000 0000 0000 0000 0000
00000090: 0000 0000 0000 0000 0000 803e 0000 0000
000000a0: 0000 0000 0000 0000 0000 0000 0000 0000
000000b0: 0000 0000 0000 0000 0000 0000 0000 0000
000000c0: 0000 0000 0000 0000 0000 0000 0000 0000
000000d0: 0000 0000 0000 0000 0000 0000 0000 0000
000000e0: 0000 0000 abaa aa3e 0000 0000 0000 0000
000000f0: 0000 0000 0000 0000 0000 0000 0000 0000
00000100: 0000 0000 0000 0000 0000 0000 0000 0000
00000110: 0000 0000 0000 0000 0000 0000 0000 0000
00000120: 0000 0000 0000 0000 0000 0000 0000 0000
00000130: 0000 003f 0000 0000 0000 0000 0000 0000
00000140: 0000 0000 0000 0000 0000 0000 0000 0000
00000150: 0000 0000 0000 0000 0000 0000 0000 0000
00000160: 0000 0000 0000 0000 0000 0000 0000 0000
00000170: 0000 0000 0000 0000 0000 0000 0000 803e
00000180: 0000 0000 0000 0000 0000 0000 0000 0000
00000190: 0000 0000 0000 0000 0000 0000 0000 0000
000001a0: 0000 0000 0000 0000 0000 0000 0000 0000
000001b0: 0000 0000 0000 0000 0000 0000 0000 0000
000001c0: 0000 0000 0000 0000 abaa aa3e 0000 0000
000001d0: 0000 0000 0000 0000 0000 0000 0000 0000
000001e0: 0000 0000 0000 0000 0000 0000 0000 0000
000001f0: 0000 0000 0000 0000 0000 0000 0000 0000
00000200: 0000 0000 0000 0000 0000 0000 0000 0000
00000210: 0000 0000 0000 003f 0000 0000 0000 0000
00000220: 0000 0000 0000 0000 0000 0000 0000 0000
00000230: 0000 0000 0000 0000 0000 0000 0000 0000
00000240: 0000 0000 0000 0000 0000 0000 0000 0000
00000250: 0000 0000 0000 0000 0000 0000 0000 0000
00000260: abaa aa3e 0000 0000 0000 0000 0000 0000
00000270: 0000 0000 0000 0000 0000 0000 0000 0000
00000280: 0000 0000 0000 0000 0000 0000 0000 0000
00000290: 0000 0000 0000 0000 0000 0000 0000 0000
000002a0: 0000 0000 0000 0000 0000 0000 abaa aa3e
000002b0: 0000 0000 0000 0000 0000 0000 0000 0000
000002c0: 0000 0000 0000 0000 0000 0000 0000 0000
000002d0: 0000 0000 0000 0000 0000 0000 0000 0000
000002e0: 0000 0000 0000 0000 0000 0000 0000 0000
000002f0: 0000 0000 0000 0000 0000 003f 0000 0000
00000300: 0000 0000 0000 0000 0000 0000 0000 0000
00000310: 0000 0000 0000 0000 0000 0000 0000 0000
00000320: 0000 0000 0000 0000 0000 0000 0000 0000
00000330: 0000 0000 0000 0000 0000 0000 0000 0000
00000340: 0000 0000 abaa aa3e 0000 0000 0000 0000
00000350: 0000 0000 0000 0000 0000 0000 0000 0000
00000360: 0000 0000 0000 0000 0000 0000 0000 0000
00000370: 0000 0000 0000 0000 0000 0000 0000 0000
00000380: 0000 0000 0000 0000 0000 0000 0000 0000
00000390: abaa aa3e 0000 0000 0000 0000 0000 0000
000003a0: 0000 0000 0000 0000 0000 0000 0000 0000
000003b0: 0000 0000 0000 0000 0000 0000 0000 0000
000003c0: 0000 0000 0000 0000 0000 0000 0000 0000
000003d0: 0000 0000 0000 0000 0000 0000 0000 003f
000003e0: 0000 0000 0000 0000 0000 0000 0000 0000
000003f0: 0000 0000 0000 0000 0000 0000 0000 0000

data_bn.weight f4 [54]
0.8567547 0.8506737 0.86460954 0.8544418 0.8682268 0.80211264 0.8692188 0.825728
0.88136584 0.8147284 0.8474181 0.8384003 0.8508209 0.87301755 0.84883785 0.8272636
0.82579297 0.81462413 0.8651331 0.8728677 0.8539168 0.86615574 0.849252 0.85729116
0.86360085 0.875839 0.84784496 0.8529711 0.8490293 0.8572654 0.8222721 0.8555235
0.84353113 0.8513096 0.8633888 0.83436567 0.83882904 0.8461567 0.85700226 0.8399437
0.85137343 0.844941 0.77191633 0.82142454 0.8336762 0.8393137 0.84828717 0.8682816
0.85524076 0.877281 0.85115397 0.87058246 0.7968884 0.8035364
00000000: 4754 5b3f c0c5 593f 0d57 5d3f b3bc 5a3f
00000010: 1d44 5e3f 4157 4d3f 2085 5e3f e962 533f
00000020: 31a1 613f 0a92 503f 65f0 583f 67a1 563f
00000030: 66cf 593f 147e 5f3f 704d 593f 8cc7 533f
00000040: 2b67 533f 358b 503f 5d79 5d3f 4274 5f3f
00000050: 4b9a 5a3f 62bc 5d3f 9468 593f 6f77 5b3f
00000060: f214 5d3f fc36 603f 5e0c 593f 505c 5a3f
00000070: fc59 593f bf75 5b3f 6d80 523f 9703 5b3f
00000080: a8f1 573f 6def 593f 0c07 5d3f fd98 553f
00000090: 80bd 563f ba9d 583f 8064 5b3f 8d06 573f
000000a0: 9cf3 593f 0e4e 583f 4f9c 453f e148 523f
000000b0: ce6b 553f 43dd 563f 5929 593f b447 5e3f
000000c0: 0ff1 5a3f 7d95 603f 3ae5 593f 7ede 5e3f
000000d0: e100 4c3f 90b4 4d3f

data_bn.bias f4 [54]
6.7439535e-12 -5.47956e-10 8.55194e-11 -3.516236e-11 1.6659253e-10 -4.662539e-11 6.4129474e-12 -2.9607936e-10
8.335125e-11 6.160457e-11 -9.712166e-10 -7.1128364e-12 -6.6079586e-11 -3.3730568e-10 -3.9465456e-10 5.534141e-12
-3.8807194e-10 7.8127456e-11 9.794895e-11 -3.6931894e-10 -5.277952e-11 -5.4894426e-11 2.3800479e-11 -2.665782e-10
-2.3579005e-11 4.3519877e-10 -8.3355475e-11 -5.0452064e-12 -5.828363e-10 -4.6066224e-12 -6.618241e-11 -3.5340061e-10
-1.2584403e-12 -2.2339793e-11 -2.380953e-10 -1.7399077e-10 -1.5195413e-11 -6.8245254e-10 -6.545795e-11 -4.6103114e-11
-3.8908182e-10 -2.3172196e-10 6.066739e-11 -9.491441e-10 -2.9039047e-11 2.5954267e-11 -7.3317286e-10 6.889964e-12
5.889726e-11 -3.676208e-10 -2.746589e-10 -4.6027803e-11 -1.04814456e-10 -4.1346312e-10
00000000: 2248 ed2c fa9e 16b0 240f bc2e 4ca5 1aae
00000010: a12b 372f 860f 4dae b2a2 e12c 77c5 a2af
00000020: 954a b72e 4a78 872e a57b 85b0 bc42 faac
00000030: 804f 91ae 8e6f b9af b1f6 d8af 1cb7 c22c
00000040: 4558 d5af d9cd ab2e 5b64 d72e 0509 cbaf
00000050: 7520 68ae a16d 71ae ea59 d12d 8c8d 92af
00000060: 3367 cfad c840 ef2f f64c b7ae 2e83 b1ac
00000070: 7535 20b0 c414 a2ac 6289 91ae b748 c2af
00000080: 171c b1ab be80 c4ad efe4 82af 0c4e 3faf
00000090: 07a9 85ad 5497 3bb0 8df1 8fae 7ec3 4aae
000000a0: 66e6 d5af efc7 7eaf b468 852e 0a73 82b0
000000b0: 1f6e ffad d04b e42d 7488 49b0 476b f22c
000000c0: 3684 812e 071a caaf cefe 96af b36e 4aae
000000d0: 4b7d e6ae c34d e3af

data_bn.running_mean f4 [54]
0.013904859 -0.05795621 0.2968286 0.014306595 -0.027671393 0.2883596 -0.003715761 -0.032953408
0.26263863 -0.022192081 -0.020357914 0.26193455 -0.034357585 -0.021668592 0.27593055 0.032509204
-0.02214117 0.26184618 0.042570345 0.0010718796 0.25512072 0.050571796 0.011403047 0.2484543
-0.007816833 0.03986693 0.2282273 -0.027458891 0.05918821 0.24562822 -0.02348089 0.09400461
0.24422419 0.01461629 0.045624424 0.22307822 0.019972973 0.06864122 0.24202819 0.004245458
0.10030993 0.22854131 0.011392759 -0.06527692 0.28631154 0.021504404 -0.0625198 0.29459494
0.016728563 -0.031958107 0.07883245 0.031300556 -0.045455284 0.24153829
00000000: 35d1 633c 7e63 6dbd ebf9 973e 3566 6a3c
00000010: 1eaf e2bc dfa3 933e 2084 73bb 27fa 06bd
00000020: 9278 863e 2bcc b5bc a4c5 a6bc 491c 863e
00000030: 8aba 0cbd 5582 b1bc c546 8d3e 5f28 053d
00000040: 6661 b5bc b410 863e 3e5e 2e3d 507e 8c3a
00000050: 2f9f 823e 5f24 4f3d d8d3 3a3c ce6a 7e3e
00000060: 2d12 00bc 824b 233d 6bb4 693e 78f1 e0bc
00000070: 566f 723d f785 7b3e ff5a c0bc 7d85 c03d
00000080: e815 7a3e 2a79 6f3c ade0 3a3d 9e6e 643e
00000090: 5c9e a33c c593 8c3d 3dd6 773e 7c1d 8b3b
000000a0: 4b6f cd3d bc06 6a3e b2a8 3a3c e8af 85bd
000000b0: 6d97 923e 012a b03c 620a 80bd 26d5 963e
000000c0: 570a 893c 81e6 02bd e872 a13d 0335 003d
000000d0: 522f 3abd d055 773e

data_bn.running_var f4 [54]
0.003676498 0.007659015 0.07288097 0.0033805019 0.0042872378 0.068234846 0.004553868 0.0046631764
0.05618594 0.006302696 0.003810586 0.058410954 0.008083025 0.0047460017 0.06543706 0.0027768838
0.004005224 0.056437526 0.0027807648 0.0031851698 0.05609186 0.0031913496 0.0036311408 0.05549071
0.0046806736 0.0026306736 0.04292147 0.006791706 0.0040120916 0.053884298 0.006938513 0.0073755966
0.055249125 0.0031859917 0.002954345 0.04184851 0.003344317 0.004830829 0.0518219 0.0041208398
0.008533703 0.048749894 0.0037371342 0.008749771 0.07124869 0.003247011 0.008210663 0.07405775
0.0039081946 0.007125592 0.028714791 0.0026405468 0.0067454088 0.062025815
00000000: 67f1 703b 79f8 fa3b 9e42 953d 698b 5d3b
00000010: f57b 8c3b b6be 8b3d 9d38 953b 8fcd 983b
00000020: 3a23 663d d986 ce3b 06bb 793b 5340 6f3d
00000030: aa6e 043c 5984 9b3b de03 863d 61fc 353b
00000040: 413e 833b 092b 673d 7e3d 363b 48be 503b
00000050: 94c0 653d f625 513b 6ff8 6d3b 3a4a 633d
00000060: 5660 993b 6167 2c3b 6cce 2f3d f68c de3b
00000070: dd77 833b c8b5 5c3d 775c e33b fdae f13b
00000080: e84c 623d 12cc 503b af9d 413b 5869 2b3d
00000090: 542c 5b3b ee4b 9e3b 3343 543d 1c08 873b
000000a0: f2d0 0b3c f8ad 473d b5ea 743b 335b 0f3c
000000b0: d5ea 913d cecb 543b 0486 063c 97ab 973d
000000c0: 5010 803b cc7d e93b 483b eb3c 060d 2d3b
000000d0: 9708 dd3b c80e 7e3d

fai_gcn_networks.0.gcn.conv.weight f4 [96, 3, 1, 1]
7.07856e-10 -3.0646377e-10 -6.296178e-08 -1.2488847e-07 1.3715854e-06 1.663048e-07 1.5723237e-12 2.9103752e-11
1.7874244e-11 2.7767385e-06 -2.2000316e-07 -4.6152338e-05 -9.3855994e-14 -2.0608993e-15 1.4084336e-10 1.143978e-07
-3.336491e-07 1.2654732e-07 1.7682796e-09 -9.741687e-09 1.8531578e-08 -4.987326e-08 1.3268855e-06 -1.04505084e-07
-1.2557991e-12 -6.23587e-12 5.8703536e-13 1.7410986e-07 -1.2300744e-07 2.0861935e-07 1.038778e-07 -4.4931795e-08
-6.1334326e-08 -1.1617868e-07 -1.5937778e-07 -1.5026545e-06 -1.7926183e-07 2.307539e-06 -3.1440973e-07 6.133198e-08
4.5696023e-08 4.586678e-09 2.4041208e-07 2.7480532e-08 5.78105e-08 -4.3752683e-13 1.3923201e-08 1.9010418e-11
-3.5943155e-09 2.4781333e-09 -4.0039858e-08 4.3564947e-09 2.8794082e-08 7.8217425e-08 2.4262614e-10 1.473043e-08
-2.9514393e-09 -8.213501e-09 5.1176734e-08 -1.239781e-07 -1.8159916e-07 -2.0363386e-08 5.0413103e-08 -7.385348e-14
-2.7603374e-15 -1.5720949e-11 -4.8642423e-09 2.8932406e-10 -1.8233863e-05 4.757095e-08 6.8657138e-09 -2.2498988e-08
-3.7316534e-06 1.4968118e-06 -7.5992676e-07 -1.3701165e-07 2.0071e-07 4.1443666e-09 -1.7148389e-14 9.09081e-15
-1.5571022e-14 -2.1384969e-10 -2.222899e-13 1.415476e-11 -6.1013243e-12 -1.2388729e-12 3.0822407e-13 -8.289911e-15
-1.8004983e-14 3.1498296e-14 -1.0769928e-07 6.180131e-09 -8.180962e-09 4.1324135e-08 -1.1290521e-06 5.456227e-10
-1.9069532e-10 -8.1317814e-13 -3.6390072e-10 -1.7132432e-07 8.374006e-06 1.2015309e-07 2.4818023e-12 -3.7070023e-09
8.994525e-13 -5.7259734e-07 6.008577e-08 5.8791356e-06 -6.553096e-14 -2.2486607e-14 -3.722384e-14 4.8188156e-08
-2.349059e-06 6.454169e-08 5.3675304e-09 -1.1302169e-09 -3.669939e-10 -1.0872383e-07 0.0002956477 -1.0543783e-07
2.0043874e-08 -1.972702e-11 -5.142364e-12 9.112006e-08 -2.6146904e-07 4.6293056e-07 7.44715e-08 -1.05485345e-08
-1.887427e-08 -7.149014e-07 -3.564218e-07 2.231487e-07 6.68853e-08 6.489296e-07 -1.836153e-07 1.0377161e-07
-1.445519e-07 -1.1192759e-07 2.3401661e-07 3.0793268e-07 -7.0191186e-07 1.3078169e-10 2.9544096e-11 1.2688217e-11
-3.0201102e-09 1.3530926e-10 -1.0320092e-08 1.0566373e-08 -2.1592832e-08 3.944146e-08 -8.449853e-09 1.1078043e-08
1.3417943e-09 -2.8250186e-10 3.3140516e-08 -6.1815285e-08 -3.1449827e-07 1.7231177e-07 9.2985516e-08 7.3210514e-11
-4.0723718e-15 -6.288167e-15 -3.004712e-10 -7.437512e-09 1.0813646e-08 5.9987e-08 -1.767155e-07 3.764237e-08
-2.1120833e-08 -6.1308396e-07 6.016673e-08 -4.031225e-08 1.4274502e-07 6.644227e-08 5.803141e-14 1.25230755e-14
1.6452113e-12 -1.0289705e-12 8.8872226e-13 -1.1671299e-12 3.071777e-09 -3.180965e-12 -1.479077e-10 -5.0022913e-14
1.447965e-10 3.512731e-14 -2.2644728e-05 4.2168957e-09 4.8328728e-09 5.6669375e-08 1.2836545e-08 -4.4468456e-09
1.1304897e-06 7.344675e-10 -1.5398992e-09 3.862434e-09 4.3437845e-07 2.51723e-08 6.598038e-11 4.1616064e-12
5.8698933e-13 -4.896982e-07 -3.1860338e-07 8.46108e-07 2.3690019e-14 4.711953e-14 -8.895842e-16 -8.490268e-09
-2.6699732e-07 -2.5548317e-09 5.80044e-09 -6.520421e-10 -6.2232886e-11 -1.025801e-08 2.3440847e-07 2.4209415e-08
-1.33059785e-08 1.6621384e-12 -1.6722943e-13 2.6281134e-08 -2.667703e-07 -4.5794675e-07 7.7520923e-07 1.960085e-08
-2.4208024e-08 -5.907463e-07 -3.3619864e-07 1.727201e-08 -3.2687183e-08 -4.6297722e-05 -3.6268364e-07 3.9873214e-08
2.4109147e-08 -5.347634e-06 4.2380924e-07 -2.622487e-06 -5.162384e-07 2.2693203e-10 1.8742643e-11 -1.7111972e-08
9.745698e-09 2.817582e-08 -1.1214396e-06 4.0799055e-08 -2.0850521e-08 4.781541e-09 -7.176488e-10 -3.86845e-07
-9.083079e-09 1.26387e-08 -1.1202663e-08 1.6050995e-08 -6.767889e-06 -2.4978857e-09 2.7676483e-08 -3.3839227e-14
00000000: f092 4230 f17a a8af 9b35 87b3 1519 06b4
00000010: 5117 b835 8491 3234 ee48 dd2b d3ff ff2d
00000020: 3839 9d2d 0158 3a36 023a 6cb4 b293 41b8
00000030: 4c58 d3a9 e280 14a7 e2db 1a2f dbaa f533
00000040: 6220 b3b4 10e1 0734 cf07 f330 645c 27b2
00000050: 5f2f 9f32 3b34 56b3 7017 b235 476c e0b3
00000060: eebc b0ab b967 dbac 5b3c 252b f4f2 3a34
00000070: 0714 04b4 da00 6034 6d13 df33 08fb 40b3
00000080: e7b6 83b3 e87d f9b3 6e21 2bb4 d1ae c9b5
00000090: 1e7b 40b4 38db 1a36 25cc a8b4 9db5 8333
000000a0: 4f43 4433 d998 9d31 fc11 8134 540e ec32
000000b0: 514b 7833 434e f6aa e332 6f32 a837 a72d
000000c0: deff 76b1 c84b 2a31 4af8 2bb3 22b0 9531
000000d0: db56 f732 7cf8 a733 9862 852f 1e11 7d32
000000e0: 45d2 4ab1 5c1b 0db2 6acd 5b33 d71e 05b4
000000f0: 99fd 42b4 8feb aeb2 cb85 5833 a24d a6a9
00000100: 3de7 46a7 6e48 8aad 5422 a7b1 be0e 9f2f
00000110: ecf4 98b7 d050 4c33 75e7 eb31 cc43 c1b2
00000120: 516d 7ab6 10e6 c835 c5fd 4bb5 7a1d 13b4
00000130: bf82 5734 3c66 8e31 7e75 9aa8 f6c3 2328
00000140: 5540 8ca8 5621 6baf b446 7aaa 5f03 792d
00000150: d8ab d6ac 1a5b aeab c583 ad2a 7756 15a8
00000160: aa2c a2a8 10db 0d29 4e48 e7b3 0259 d431
00000170: 408c 0cb2 5e7c 3133 ef89 97b5 c9fa 1530
00000180: f6ab 51af a9e3 64ab 790e c8af 45f5 37b4
00000190: 157e 0c37 6e03 0134 2da4 2e2c 46be 7eb1
000001a0: 622c 7d2b 97b4 19b5 8008 8133 6445 c536
000001b0: 0790 93a9 968a caa8 2aa4 27a9 70f7 4e33
000001c0: 87a4 1db6 2b9a 8a33 4c6d b831 f955 9bb0
000001d0: cdc1 c9af 8f7b e9b3 2a01 9b39 0f6d e2b3
000001e0: f22c ac32 4d85 adad 4cee b4ac c8ad c333
000001f0: 0860 8cb4 b188 f834 24ed 9f33 f238 35b2
00000200: f520 a2b2 a6e7 3fb5 3d5a bfb4 a69a 6f34
00000210: 95a2 8f33 1a32 2e35 ca27 45b4 0cd9 de33
00000220: 2036 1bb4 d85c f0b3 ff45 7b34 f251 a534
00000230: 046b 3cb5 c6cb 0f2f b2ef 012e a636 5f2d
00000240: 578a 4fb1 2cc6 142f 3f4c 31b2 6687 3532
00000250: 247b b9b2 5866 2933 d92a 11b2 c051 3e32
00000260: 316a b830 9a4e 9baf 6256 0e33 50bf 84b3
00000270: 50d8 a8b4 b304 3934 54af c733 dbfd a02e
00000280: 00b9 92a7 1b8e e2a7 902f a5af 0c8d ffb1
00000290: ebc6 3932 34d2 8033 30bf 3db4 39ac 2133
000002a0: 346d b5b2 cf92 24b5 0235 8133 ca23 2db3
000002b0: 7445 1934 06af 8e33 d5ac 8229 7e98 6128
000002c0: fc8a e72b 92d0 90ab 3027 7a2b 4942 a4ab
000002d0: 4617 5331 2cd7 5fac 51a0 22af 7e48 61a9
000002e0: 9734 1f2f 0833 1e29 2ff5 bdb7 35e4 9031
000002f0: 660e a631 a364 7333 b987 5c32 deca 98b1
00000300: 55bb 9735 8ee3 4930 63a4 d3b0 54b6 8431
00000310: 8534 e934 793a d832 a717 912e 6b6c 922c
00000320: 0a39 252b ce73 03b5 840c abb4 1920 6335
00000330: 7761 d528 1f35 5429 dd33 80a6 98dc 11b2
00000340: d557 8fb4 1391 2fb1 364d c731 623b 33b0
00000350: 00da 88ae 353b 30b2 b6b1 7b34 11f5 cf32
00000360: 5098 64b2 d9ec e92b 9a48 3caa d3c0 e132
00000370: a138 8fb4 b9db f5b4 f917 5035 ba5e a832
00000380: 02f2 cfb2 c793 1eb5 ca7e b4b4 8d5d 9432
00000390: f063 0cb3 cd2f 42b8 dcb6 c2b4 1041 2b33
000003a0: 9318 cf32 d46f b3b6 e687 e334 fcfd 2fb6
000003b0: a293 0ab5 b083 792f aedc a42d a0fd 92b2
000003c0: 086e 2732 4907 f232 5f84 96b5 093b 2f33
000003d0: c81a b3b2 e14a a431 0b44 45b0 92af cfb4
000003e0: ce0b 1cb2 9721 5932 d575 40b2 83e0 8932
000003f0: b917 e3b6 45a7 2bb1 3bbd ed32 f965 18a9

fai_gcn_networks.0.gcn.conv.bias f4 [96]
5.468976e-06 2.040153e-06 6.595042e-08 -2.2068166e-06 4.4726605e-07 1.2395949e-06 -2.4749849e-09 -2.222821e-06
9.628103e-06 -5.4998515e-07 1.2527897e-06 -8.2370906e-07 -9.463227e-07 1.3722234e-06 -6.5725167e-06 2.045139e-06
1.0521084e-07 -2.989272e-08 -2.7750247e-08 -1.247071e-07 2.2777995e-07 7.516687e-08 -2.9767668e-09 -4.3833566e-07
9.755253e-06 -4.4685765e-07 3.4236527e-07 -2.3748005e-07 4.347725e-06 -1.157165e-06 -1.2517742e-07 -5.8120754e-08
6.724315e-06 2.1552733e-06 3.8068897e-06 -2.8302043e-06 7.3489576e-07 1.72666e-06 -1.3486528e-08 3.3398578e-08
1.2311664e-05 -1.3582837e-06 1.334713e-06 -1.0703484e-06 -1.2213624e-06 4.291452e-06 -6.21577e-06 5.356155e-06
2.1476082e-07 -3.47613e-08 -2.7376911e-08 -9.588467e-08 8.4447714e-07 5.6901836e-08 -6.7566446e-09 -3.870296e-07
1.2153513e-05 -5.402716e-07 3.8219775e-07 -6.589488e-07 7.922092e-06 -1.1461666e-06 -1.9263777e-07 -6.631607e-08
3.2948687e-06 9.1191146e-07 -1.1629182e-06 -9.595772e-07 1.3860351e-07 6.426065e-07 -6.7766295e-09 -1.3810536e-06
-4.118929e-06 1.4816615e-06 -7.58644e-08 6.733618e-07 -2.497562e-06 -1.3572655e-06 -2.045739e-06 -1.2758974e-06
-8.308879e-08 -4.2303146e-08 -1.02988045e-08 1.8823299e-07 -1.1720109e-07 -2.4380373e-07 2.2750571e-08 -3.095979e-07
-2.5415072e-06 7.66739e-08 1.1568052e-07 -1.9041192e-07 -3.336744e-06 6.856262e-07 6.1093594e-08 -4.8402413e-08
00000000: 2582 b736 90e9 0836 a0a0 8d33 d218 14b6
00000010: c71f f034 2860 a635 6514 2ab1 c62b 15b6
00000020: 6388 2137 b1a2 13b5 8725 a835 db1c 5db5
00000030: cd06 7eb5 3d2d b835 7d89 dcb6 383f 0936
00000040: 45f0 e133 6563 00b3 705f eeb2 3ae7 05b4
00000050: ad93 7434 6c6b a133 d68f 4cb1 6554 ebb4
00000060: 7eaa 2337 a6e7 efb4 53ce b734 05fe 7eb4
00000070: ace2 9136 e34f 9bb5 8268 06b4 72a0 79b3
00000080: 6da1 e136 50a3 1036 de79 7f36 8aee 3db6
00000090: a745 4535 96bf e735 61b2 67b2 2072 0f33
000000a0: 328e 4e37 464e b6b5 6424 b335 e4a8 8fb5
000000b0: b1ed a3b5 4bff 8f36 0f91 d0b6 05b9 b336
000000c0: 0199 6634 744c 15b3 772a ebb2 28e9 cdb3
000000d0: 07b0 6235 3b64 7433 1328 e8b1 f1c8 cfb4
000000e0: f1e6 4b37 2f07 11b5 dc30 cd34 9ee2 30b5
000000f0: 20e9 0437 fcd5 99b5 ded7 4eb4 a569 8eb3
00000100: 6a1d 5d36 14ca 7435 9115 9cb5 d2ca 80b5
00000110: 0bd3 1434 957f 2c35 ddd7 e8b1 a45c b9b5
00000120: 5535 8ab6 80dd c635 e5ea a2b3 12c1 3435
00000130: ca9b 27b6 4a2b b6b5 8749 09b6 803f abb5
00000140: 8c6e b2b3 cdb0 35b3 9fee 30b2 171d 4a34
00000150: fbaf fbb3 21e4 82b4 096d c332 d036 a6b4
00000160: c38e 2ab6 eca7 a433 0a6c f833 0874 4cb4
00000170: d3ec 5fb6 e00b 3835 8f32 8333 04e3 4fb3

fai_gcn_networks.1.gcn.conv.weight f4 [192, 32, 1, 1]
2.2585063e-07 1.12486326e-07 -1.9230863e-07 1.3556283e-07 8.446465e-09 -9.248458e-07 1.8798064e-11 3.0725619e-06
2.4329697e-07 4.5547374e-10 2.9714085e-08 -7.170589e-09 9.7015125e-08 2.1912902e-08 6.5365744e-09 7.552659e-08
2.522264e-09 -1.28367725e-08 7.6549533e-10 3.026862e-09 2.5643615e-08 1.716498e-09 5.4480644e-08 5.895832e-10
1.7274365e-07 3.7219952e-10 1.1603624e-08 1.977113e-09 -4.245414e-07 4.9949733e-10 2.071953e-07 1.3389725e-07
2.3701354e-07 1.0421017e-07 1.6910593e-07 1.9806473e-07 8.4448155e-09 4.5521134e-08 2.7751265e-10 2.6489122e-06
2.3550929e-07 9.502106e-10 2.301664e-08 1.397537e-09 -3.1928543e-08 1.08218906e-07 2.4382725e-08 8.2113786e-08
-6.86333e-10 1.5419775e-10 -2.5602162e-10 -1.0939822e-07 2.4982702e-08 1.5472849e-09 8.1368626e-08 6.030726e-10
1.979123e-07 -4.2783076e-11 1.0675614e-08 4.3275267e-10 1.536202e-07 -2.2084187e-06 1.9904441e-07 1.305014e-07
9.386617e-11 3.6260446e-11 2.9317517e-11 5.0774142e-11 -3.1691143e-12 1.1560882e-11 5.798254e-15 1.1397843e-09
1.5000794e-09 1.0899136e-12 7.995714e-11 7.0672336e-13 4.5113132e-11 2.2901812e-11 5.1135295e-13 5.039329e-11
5.1073523e-09 3.7127412e-14 2.8408732e-13 9.687254e-13 9.376109e-12 -2.0962695e-11 2.5335052e-11 -5.1747127e-11
3.9399654e-11 1.955601e-13 3.6858134e-12 4.3665318e-13 8.8392745e-11 3.689142e-13 9.084495e-11 5.152276e-11
2.0448584e-07 1.0749507e-07 7.15806e-08 1.6609076e-07 4.1443343e-10 5.2812297e-08 2.0909037e-11 2.2878246e-06
-2.6277277e-07 7.8283136e-10 5.336681e-08 3.2272485e-09 9.037423e-08 1.1499264e-07 4.431222e-09 7.955919e-08
2.9537044e-09 8.72152e-11 6.736428e-10 3.6596142e-09 6.674837e-08 2.5256524e-09 -8.240079e-07 1.6257012e-09
3.728364e-07 9.225442e-10 1.0866603e-08 5.530409e-10 1.0084005e-07 4.4466383e-10 3.0441092e-07 1.3734328e-07
2.104683e-07 7.7806256e-08 6.984491e-08 1.9472203e-07 2.7076172e-09 2.7147673e-08 2.0144806e-11 2.2001575e-06
2.2048624e-07 4.290141e-09 3.3299095e-08 -2.3239277e-09 2.8368067e-08 6.2761025e-08 6.26412e-09 8.419269e-08
3.3478762e-09 1.0853324e-10 6.320668e-10 3.5907288e-09 3.1196617e-08 3.213637e-09 8.176066e-08 5.105444e-10
1.4637254e-07 9.552442e-10 8.473172e-09 5.335268e-10 1.4924929e-07 3.3596273e-10 2.0226554e-07 2.0375975e-07
2.2860333e-07 1.17807055e-07 8.0922476e-08 1.2690992e-07 1.2368203e-08 5.5694287e-08 1.639987e-11 2.2610277e-06
2.573292e-07 -1.0529213e-08 2.1646994e-08 3.341346e-09 9.29027e-08 5.8520722e-08 4.473434e-09 7.355917e-08
2.7083653e-09 1.2677358e-11 7.376114e-10 3.4848102e-09 -6.0219594e-09 1.1354507e-07 8.880672e-08 1.5888637e-09
3.6258527e-07 5.1291776e-11 8.375538e-09 6.6202577e-10 1.6325467e-07 2.301688e-09 2.0256631e-07 1.6989691e-07
3.644369e-08 1.653756e-08 1.4793973e-08 3.7420996e-08 -1.6158163e-09 8.030985e-09 7.105821e-08 3.4399682e-07
3.961587e-08 2.9525143e-10 4.2713513e-09 -2.0182793e-09 1.9819485e-08 1.1037038e-08 5.262406e-10 1.4095332e-08
5.2292015e-10 1.0332524e-11 1.1958441e-10 6.12797e-10 -1.5424474e-07 2.4691282e-10 1.6137863e-08 1.9694037e-10
9.0505324e-08 1.642683e-10 1.7524263e-09 9.9913126e-11 2.259242e-08 9.802051e-11 -3.918043e-06 -4.3509063e-09
4.3245377e-12 1.8271385e-12 1.3184996e-12 6.5864033e-12 8.9902844e-14 9.258762e-13 -7.2228264e-05 -1.228232e-11
-1.5787224e-09 6.7110095e-14 4.966246e-13 -6.0026274e-08 1.14032854e-11 9.50978e-13 6.382665e-13 -4.515544e-11
-3.1916872e-14 1.6725467e-15 6.305636e-10 9.3428595e-14 -3.3447156e-10 2.7519363e-13 -0.00015405743 -7.7922353e-13
4.6202126e-12 -5.3158044e-05 2.0619425e-13 1.4882892e-14 0.00012848664 1.4066948e-14 -2.3405616e-10 2.8762602e-12
00000000: 5981 7234 0390 f133 657d 4eb4 3a8f 1134
00000010: f21b 1132 eb42 78b5 7a59 a52d 3632 4e36
00000020: 7b9e 8234 3b66 fa2f f73d ff32 2b61 f6b1
00000030: a156 d033 fb3a bc32 5198 e031 2f31 a233
00000040: 2354 2d31 b988 5cb2 f26a 5230 1f01 5031
00000050: e846 dc32 e8e9 eb30 1afe 6933 3b10 2230
00000060: 6a7b 3934 6d9e cc2f 4759 4732 bddd 0731
00000070: 87ec e3b4 004d 0930 6979 5e34 65c5 0f34
00000080: c97d 7e34 26ca df33 7c93 3534 9eab 5434
00000090: b114 1132 0483 4333 6f90 982f f7c3 3136
000000a0: 4de0 7c34 9098 8230 20b6 c532 7613 c030
000000b0: ce21 09b3 f965 e833 2e72 d132 8856 b033
000000c0: 64a8 3cb0 cf8a 292f d7bf 8caf 4fee eab3
000000d0: 8b99 d632 3fa8 d430 e0bc ae33 76c5 2530
000000e0: b881 5434 7629 3cae d967 3732 86e8 ed2f
000000f0: cdf2 2434 5834 14b6 e9b8 5534 f41f 0c34
00000100: f569 ce2e a279 1f2e 97f0 002e 9a4e 5f2e
00000110: b001 5fac 9561 4b2d 74e7 d027 98a6 9c30
00000120: 5a2b ce30 4764 992b ded3 af2e c9ec 462b
00000130: df68 462e 4c72 c92d ddee 0f2b cda1 5d2e
00000140: bf7c af31 fe34 2729 4ced 9f2a 0356 882b
00000150: 3ef2 242d cb63 b8ad 77d9 de2d 1696 63ae
00000160: 1148 2d2e 5c2e 5c2a dbae 812c 5bd0 f52a
00000170: b160 c22e 24ae cf2a 29c5 c72e 7899 622e
00000180: a490 5b34 0ad8 e633 dab7 9933 ae56 3234
00000190: 52d6 e32f bcd3 6233 f7ea b72d 8788 1936
000001a0: 3713 8db4 dc2e 5730 6e35 6533 5bc6 5d31
000001b0: c213 c233 dff1 f633 7141 9831 21da aa33
000001c0: 1efa 4a31 cbc9 bf2e 662b 3930 9d7c 7b31
000001d0: 4e57 8f33 bf8f 2d31 6431 5db5 476f df30
000001e0: 3f2a c834 4796 7d30 d3af 3a32 cb04 1830
000001f0: 678d d833 df74 f42f eb6d a334 a278 1334
00000200: 16fd 6134 7116 a733 a5fd 9533 c914 5134
00000210: e810 3a31 5d32 e932 1232 b12d 6ba6 1336
00000220: ccbe 6c34 7b68 9331 be04 0f33 f8b2 1fb1
00000230: 0aae f332 3dc7 8633 c83b d731 6ccd b433
00000240: 7610 6631 c8aa ee2e bfbd 2d30 c5c0 7631
00000250: 0bfd 0533 e6d6 5c31 6694 af33 5e56 0c30
00000260: 942a 1d34 ab49 8330 6891 1132 9ca7 1230
00000270: 5541 2034 8db2 b82f 542e 5934 0ec9 5a34
00000280: 0176 7534 1dfd fc33 9ac7 ad33 bc44 0834
00000290: ef7b 5432 8434 6f33 3941 902d 29bc 1736
000002a0: 0e27 8a34 f8e3 34b2 3ef2 b932 959d 6531
000002b0: cd81 c733 3758 7b33 beb4 9931 95f7 9d33
000002c0: 111e 3a31 bf05 5f2d cac0 4a30 6e79 6f31
000002d0: b7e9 ceb1 10d6 f333 03b6 be33 2c5f da30
000002e0: 57a9 c234 6895 612e 01e4 0f32 ecf9 3530
000002f0: 1a4b 2f34 b92b 1e31 0181 5934 e86c 3634
00000300: 4386 1c33 7b0e 8e32 9528 7e32 d2b8 2033
00000310: 7b13 deb0 a5f8 0932 aa98 9833 90ae b834
00000320: 1c26 2a33 f250 a22f 34c3 9231 f2b1 0ab1
00000330: 823f aa32 689d 3d32 e4a6 1030 ed27 7232
00000340: 3cbd 0f30 8dc5 352d 057c 032f c171 2830
00000350: 799e 25b4 e4bd 872f 899f 8a32 c989 582f
00000360: d45b c233 6a9d 342f 05da f030 17b6 db2e
00000370: 4211 c232 a48c d72e bc77 83b6 fa7e 95b1
00000380: f927 982c cd92 002c f48f b92b 0cbd e72c
00000390: 7671 ca29 354e 822b 4179 97b8 a712 58ad
000003a0: 5bfa d8b0 561e 9729 93c9 0b2b cbe7 80b3
000003b0: d59b 482d 98d6 852b f3a7 332b 8198 46ae
000003c0: a6bd 0fa9 150a f126 f853 2d30 eb61 d229
000003d0: b0e0 b7af 95eb 9a2a 7a8a 21b9 f954 5bab
000003e0: 2d8f a22c 04f6 5eb8 7227 682a 9d0d 8628
000003f0: 5fba 0639 5968 7d28 7aac 80af 1966 4a2c

fai_gcn_networks.1.gcn.conv.bias f4 [192]
0.03509324 0.03460699 1.7873634e-05 0.03427552 0.03417598 0.03488805 0.006586512 1.0275728e-06
0.03459114 0.034418806 -3.261124e-08 0.009965108 0.03519359 0.035406437 0.035197705 0.03518763
0.034831192 0.03530787 0.034316905 0.023038147 0.013779151 0.0114274 2.0336817e-09 2.4452047e-09
0.03487426 1.086689e-07 0.03522823 -3.5212743e-08 -6.2685544e-06 -1.953037e-06 0.034930293 0.03521465
3.998335e-07 3.866056e-08 0.035465103 -5.653223e-08 0.03214331 8.88986e-08 1.8752175e-06 0.014907195
0.03565708 0.0348193 0.033711113 0.035403267 7.263374e-08 0.035334703 -1.1874637e-07 0.03533369
-4.2515032e-07 -1.9825285e-07 0.035111155 0.035751708 -1.7552487e-08 7.819358e-07 0.035476997 0.034447387
2.3449513e-06 0.034727063 -5.3436944e-10 3.2239772e-05 9.582231e-06 0.03520845 0.035351194 2.4413423e-06
0.041237663 0.040755674 2.1477483e-05 0.03944751 0.04044896 0.040970244 0.0080137495 1.2852688e-06
0.040572673 0.039554033 -3.0515782e-08 0.012076089 0.041019972 0.041296314 0.041602284 0.041378368
0.040134612 0.041042797 0.040112097 0.02757067 0.016627798 0.013799693 -4.126688e-08 -7.1308284e-09
0.04119477 1.4994671e-07 0.041047562 -6.260813e-08 -6.107014e-06 -2.59061e-06 0.04049586 0.041533515
1.841011e-07 -1.7570596e-08 0.04142559 -7.759703e-08 0.03820079 2.1216625e-08 2.322051e-06 0.017974619
0.041472808 0.040639967 0.039882995 0.04179796 -7.818458e-08 0.041749965 -1.9087393e-07 0.041689422
-8.39306e-08 -1.9528629e-07 0.041292474 0.041565537 -2.111524e-08 9.636738e-07 0.041877493 0.04078956
3.2882424e-06 0.040459692 -7.499312e-10 3.9310577e-05 1.2279712e-05 0.04158901 0.04177793 3.2300245e-06
0.017164486 0.016863957 9.506145e-06 0.017303428 0.016608357 0.017065113 0.00316239 1.4799632e-07
0.016958157 0.01742754 -5.3071403e-08 0.0047275405 0.017390724 0.017483465 0.017133381 0.017196756
0.017537927 0.017510602 0.016892621 0.011034733 0.0065429383 0.0054335627 1.4599967e-08 3.5401378e-08
0.016968621 -1.6706865e-08 0.017412974 6.179727e-08 3.969514e-08 -9.704564e-07 0.017403148 0.01716199
1.6568571e-06 4.6462375e-07 0.01746175 -7.508475e-12 0.015503422 9.77968e-07 7.290513e-07 0.007085122
0.01766254 0.017178373 0.016356058 0.0172489 3.890154e-07 0.017202929 3.290934e-07 0.017217873
-9.0694937e-07 -2.08709e-06 0.017157936 0.017728107 3.7099827e-08 3.7869887e-07 0.017285869 0.01672987
-9.679833e-08 0.01714298 -7.966976e-12 1.6173264e-05 3.281225e-06 0.017132927 0.017213767 1.6995219e-07
00000000: eebd 0f3d 0fc0 0d3d 56ef 9537 7d64 0c3d
00000010: 1dfc 0b3d c6e6 0e3d abd3 d73b 22eb 8935
00000020: 70af 0d3d bcfa 0c3d 7010 0cb3 b144 233c
00000030: 2727 103d 5706 113d 782b 103d e820 103d
00000040: 27ab 0e3d fc9e 103d e28f 0c3d 7fba bc3c
00000050: f3c1 613c fd39 3b3c e8c0 0b31 7f08 2831
00000060: 50d8 0e3d 5c5d e933 7a4b 103d d23c 17b3
00000070: 7956 d2b6 ec10 03b6 1113 0f3d 3d3d 103d
00000080: b3a8 d634 bc0b 2633 db43 113d d8cd 72b3
00000090: b4a8 033d 86e8 be33 fcaf fb35 4f3d 743c
000000a0: 290d 123d af9e 0e3d aa14 0a3d 0403 113d
000000b0: d2fa 9b33 1fbb 103d 8201 ffb3 0fba 103d
000000c0: 3740 e4b4 54df 54b4 b7d0 0f3d 6270 123d
000000d0: 54c6 96b2 38e6 5135 5450 113d b418 0d3d
000000e0: f55d 1d36 f73d 0e3d e8e2 12b0 3139 0738
000000f0: 5ec3 2037 bc36 103d 6acc 103d f1d5 2336
00000100: d3e8 283d 6cef 263d 8b2a b437 b693 213d
00000110: cfad 253d 6ad0 273d 1a4c 033c 8081 ac35
00000120: 882f 263d 6903 223d 7510 03b3 cada 453c
00000130: 8f04 283d 5326 293d 2867 2a3d 5d7c 293d
00000140: 3164 243d 7e1c 283d 954c 243d e3db e13c
00000150: 0537 883c 1c18 623c 6a3d 31b3 6e03 f5b1
00000160: d9bb 283d 0a01 2134 7d21 283d 2f73 86b3
00000170: daea ccb6 57da 2db6 fdde 253d 0c1f 2a3d
00000180: 53ad 4534 26ee 96b2 e1ad 293d 6ba3 a6b3
00000190: 6e78 1c3d da3f b632 88d4 1b36 823f 933c
000001a0: 64df 293d 1876 263d 5a5c 233d 5634 2b3d
000001b0: 6de6 a7b3 0302 2b3d 07f3 4cb4 87c2 2a3d
000001c0: 563d b4b3 e3af 51b4 4c22 293d a040 2a3d
000001d0: e760 b5b2 9457 8135 bc87 2b3d f412 273d
000001e0: 93ab 5c36 10b9 253d b723 4eb0 69e1 2438
000001f0: f604 4e37 3d59 2a3d 561f 2b3d 66c3 5836
00000200: 899c 8c3c 4826 8a3c 957c 1f37 ebbf 8d3c
00000210: 400e 883c 23cc 8b3c 1a40 4f3b ebe8 1e34
00000220: d5eb 8a3c 33c4 8e3c a0f0 63b3 7ce9 9a3b
00000230: fe76 8e3c 7c39 8f3c 4e5b 8c3c 36e0 8c3c
00000240: b3ab 8f3c 6572 8f3c 6562 8a3c 06cb 343c
00000250: 2566 d63b 070c b23b 55d3 7a32 3a0c 1833
00000260: c701 8b3c c982 8fb2 a7a5 8e3c 69b5 8433
00000270: 457d 2a33 a140 82b5 0c91 8e3c 4d97 8c3c
00000280: 2d61 de35 6771 f934 f20b 8f3c 2a17 04ad
00000290: 1102 7e3c ba42 8335 06b4 4335 502a e83b
000002a0: 08b1 903c a9b9 8c3c 24fd 853c 914d 8d3c
000002b0: dfd9 d034 28ed 8c3c 41ae b034 7f0c 8d3c
000002c0: 1675 73b5 ef0f 0cb6 cd8e 8c3c 893a 913c
000002d0: b157 1f33 fa4f cb34 189b 8d3c 150d 893c
000002e0: 72df cfb3 6f6f 8c3c 1228 0cad d2ab 8737
000002f0: 0433 5c36 5a5a 8c3c e303 8d3c 1a7c 3634

fai_gcn_networks.1.residual.0.weight f4 [64, 32, 1, 1]
0.018939074 -0.0061449036 -0.032910142 -0.014857954 -0.0010135311 0.0009883319 0.024225261 -0.015218258
0.006272182 -0.017307077 -0.012435554 0.00986196 0.016803209 -0.022054536 -0.014527833 0.009636111
-0.01705649 -0.047278974 -0.013202678 0.00060644717 0.00012018301 -0.010741053 0.018319836 0.0032305957
0.0021009517 -0.019425686 -0.009497714 0.012672698 0.00080629636 -0.010339507 -0.015471177 0.012213666
-0.041910652 -0.014167534 0.022505429 0.03692929 -0.0078641 -0.01668219 0.008646002 0.0157229
0.013545066 0.0085383905 0.009265355 0.018712282 0.028603643 -0.0045753606 0.0044206996 0.023048725
0.03084884 0.046898875 -0.0033407733 -0.021755572 -0.025820026 -0.0026737007 -0.04343495 -0.016305752
-0.04130582 -0.043620266 -0.009299242 0.025887646 -0.012852149 -0.03155005 0.037751406 -0.012634297
-0.0030532603 -0.0070576984 0.017512104 -0.008796813 -0.019055344 -0.02797408 0.0033715232 0.013514747
-0.00058863964 -0.00061670435 0.015763018 -0.005240307 0.0029821643 -0.016734857 -0.017622678 -0.035216775
0.025386052 0.020777933 0.03631077 0.017362846 -0.043293994 -0.0038590601 0.019533144 0.004192864
0.004278021 -0.042318843 0.011477886 -0.025823338 -0.017927784 -0.009904955 -0.009300515 0.00096727646
0.025345225 -0.0065649305 -0.014616483 0.007521045 -0.024068408 -0.01769643 0.0040153596 -0.014234595
0.0058608362 0.024808768 -0.008808525 0.009070592 0.0070137815 0.02517589 -0.0011688184 -0.02105033
-0.0006506436 0.0090400055 -0.004882899 0.014554497 -0.012564622 -0.018089527 -0.004374887 0.03322041
-0.0013190513 -0.0002639431 -0.01232889 -0.026730947 0.01523792 -0.047824655 -0.027650353 -0.019539807
-0.018842924 0.007027198 -0.021400938 -0.05557979 0.01293719 -0.019242285 -0.016130228 -0.019203953
0.002681149 0.005157314 0.0065306146 0.016719017 -0.0134527385 0.013129326 0.0028363653 0.016889757
-0.0257695 -0.03400732 -0.011278876 -0.0123772165 -0.002302473 -0.017000364 0.0036840593 0.035638824
0.009836258 -0.022610702 0.004971007 0.0074630803 0.0007746095 0.017704004 0.017118342 -0.016793529
0.037173662 -0.007622767 -0.0017863673 -0.008876308 -0.016437441 -0.010885577 -0.0142114265 -0.010572541
-0.0005284347 0.019539252 -0.031392857 0.0015147848 0.032461822 -0.02588465 0.022695346 -0.008580532
0.00058922597 -0.010769596 -0.016838176 -0.009869769 0.00550937 -0.0005940455 -0.021280998 -0.003984541
0.014127723 -0.05642709 -0.0067432076 -0.034988776 -0.01357113 -0.011320052 -0.0062169274 -0.001966492
0.013539947 0.012304176 0.008882328 0.0025081923 0.02816169 0.0083734505 -0.018838525 -0.012847026
0.025752356 -0.018108787 -0.002155895 -0.011631346 0.00028611155 -0.028556248 0.0066422615 0.048417658
0.009176914 0.020902574 -0.017622227 -0.029697316 -0.003274225 -0.008646546 0.021333894 -0.019496331
0.00067070336 -0.008334251 -0.0074231946 -0.0044910028 0.027040618 0.004209212 -0.008735225 0.00040809385
0.0013271784 -0.02677107 0.006572663 -0.03717913 0.04125122 0.012744414 -0.00773247 -0.006772761
0.017859483 -0.017746817 0.033601962 0.046437766 0.006135368 0.027487023 -0.044545796 0.022766905
-0.009482309 -0.0039688577 0.028790154 0.0031954588 -0.039527982 0.021439 -0.026716964 -0.0038052595
-0.01447527 0.005573005 0.0028188399 -0.00021571995 -0.0016473462 -0.032408085 -0.012693581 -0.0052713845
00000000: 1e26 9b3c 305b c9bb c9cc 06bd c76e 73bc
00000010: 76d8 84ba ea8a 813a 0e74 c63c 0056 79bc
00000020: e086 cd3b 92c7 8dbc 7ebe 4bbc 0f94 213c
00000030: e2a6 893c b7ab b4bc 2606 6ebc c7e0 1d3c
00000040: 0dba 8bbc 99a7 41bd 0c50 58bc fbf9 1e3a
00000050: c30a fc38 3efb 2fbc 7b13 963c 67b8 533b
00000060: 1fb0 093b 9e22 9fbc 4d9c 1bbc 26a1 4f3c
00000070: a25d 533a 0967 29bc d27a 7dbc d41b 483c
00000080: 81aa 2bbd f21e 68bc 4e5d b83c 2b43 173d
00000090: 6dd8 00bc 17a9 88bc f6a7 0d3c 50cd 803c
000000a0: 20ec 5d3c 9be4 0b3c b7cd 173c 804a 993c
000000b0: 3052 ea3c e8ec 95bb 84db 903b aed0 bc3c
000000c0: b5b6 fc3c 0919 403d e0f0 5abb be38 b2bc
000000d0: 8584 d3bc 4139 2fbb d9e8 31bd a493 85bc
000000e0: 4b30 29bd 2aab 32bd d95b 18bc 5412 d43c
000000f0: d291 52bc a03a 01bd 38a1 1a3d 1500 4fbc
00000100: 3519 48bb 4444 e7bb 8b75 8f3c 8220 10bc
00000110: f419 9cbc e629 e5bc c6f4 5c3b f56c 5d3c
00000120: f04e 1aba 54aa 21ba 7221 813c e2b6 abbb
00000130: 6a70 433b 8a17 89bc 6f5d 90bc 773f 10bd
00000140: 69f6 cf3c 7c36 aa3c 9aba 143d 873c 8e3c
00000150: 0b55 31bd 49e8 7cbb f903 a03c 4b64 893b
00000160: a42e 8c3b 8656 2dbd be0d 3c3c 778b d3bc
00000170: 4add 92bc 6448 22bc 3061 18bc d390 7d3a
00000180: caa0 cf3c a11e d7bb f979 6fbc 1973 f63b
00000190: 1c2b c5bc 1bf8 90bc 4793 833b 3838 69bc
000001a0: 420c c03b c23b cb3c a251 10bc d29c 143c
000001b0: ddd3 e53b ab3d ce3c 0a33 99ba be71 acbc
000001c0: f48f 2aba 881c 143c ba00 a0bb fc75 6e3c
000001d0: d8db 4dbc 7d30 94bc 365b 8fbb 2012 083d
000001e0: 04e4 acba d861 8ab9 1dff 49bc dcfa dabc
000001f0: 78a8 793c c9e3 43bd fe82 e2bc f211 a0bc
00000200: 7a5c 9abc 6944 e63b 0551 afbc a2a7 63bd
00000210: 82f6 533c ffa1 9dbc 8a23 84bc 9c51 9dbc
00000220: 37b6 2f3b affe a83b c4fe d53b 52f6 883c
00000230: e068 5cbc 621c 573c 50e2 393b 635c 8a3c
00000240: 8f1a d3bc 424b 0bbd 09cb 38bc cfc9 4abc
00000250: 16e5 16bb 5944 8bbc 4270 713b 04fa 113d
00000260: 4228 213c 143a b9bc d4e3 a23b db8c f43b
00000270: 2a0f 4b3a fd07 913c c43b 8c3c 9592 89bc
00000280: 6943 183d 67c8 f9bb 8a24 eaba ef6d 11bc
00000290: d0a7 86bc 6b59 32bc 0bd7 68bc 7338 2dbc
000002a0: a786 0aba c810 a03c cc95 00bd be8b c63a
000002b0: b0f6 043d 0c0c d4bc 97eb b93c 5c95 0cbc
000002c0: 4976 1a3a f672 30bc 37f0 89bc d0b4 21bc
000002d0: f287 b43b b8b9 1bba 7d55 aebc c190 82bb
000002e0: f777 673c 1820 67bd 20f6 dcbb 6450 0fbd
000002f0: 7259 5ebc bd77 39bc 5eb7 cbbb 43e0 00bb
00000300: a7d6 5d3c 7497 493c 2f87 113c 7c60 243b
00000310: 58b3 e63c cc30 093c 4053 9abc 557c 52bc
00000320: 9bf6 d23c e158 94bc eb49 0dbb 6791 3ebc
00000330: 3e01 9639 cbee e9bc 54a7 d93b 9851 463d
00000340: c45a 163c e03b ab3c 7d5c 90bc c947 f3bc
00000350: 6194 56bb 3eaa 0dbc 6bc4 ae3c c5b6 9fbc
00000360: 24d2 2f3a 628c 08bc 453e f3bb 4329 93bb
00000370: 4984 dd3c 6eed 893b 301e 0fbc 6ef5 d539
00000380: b8f4 ad3a 014f dbbc 7e5f d73b 2549 18bd
00000390: 0af7 283d f2cd 503c a960 fdbb 09ee ddbb
000003a0: 0d4e 923c c661 91bc 36a2 093d 8735 3e3d
000003b0: 320b c93b 772c e13c a775 36bd a981 ba3c
000003c0: b05b 1bbc 310d 82bb 54d9 eb3c e76a 513b
000003d0: 18e8 21bd d7a0 af3c 89dd dabc a961 79bb
000003e0: af29 6dbc c19d b63b 49bc 383b e232 62b9
000003f0: c4eb d7ba 57be 04bd bdf8 4fbc 94bb acbb

fai_gcn_networks.1.residual.0.bias f4 [64]
0.0 0.0 0.0 0.0 0.0 0.0 0.0 0.0
0.0 0.0 0.0 0.0 0.0 0.0 0.0 0.0
0.0 0.0 0.0 0.0 0.0 0.0 0.0 0.0
0.0 0.0 0.0 0.0 0.0 0.0 0.0 0.0
0.0 0.0 0.0 0.0 0.0 0.0 0.0 0.0
0.0 0.0 0.0 0.0 0.0 0.0 0.0 0.0
0.0 0.0 0.0 0.0 0.0 0.0 0.0 0.0
0.0 0.0 0.0 0.0 0.0 0.0 0.0 0.0
00000000: 0000 0000 0000 0000 0000 0000 0000 0000
00000010: 0000 0000 0000 0000 0000 0000 0000 0000
00000020: 0000 0000 0000 0000 0000 0000 0000 0000
00000030: 0000 0000 0000 0000 0000 0000 0000 0000
00000040: 0000 0000 0000 0000 0000 0000 0000 0000
00000050: 0000 0000 0000 0000 0000 0000 0000 0000
00000060: 0000 0000 0000 0000 0000 0000 0000 0000
00000070: 0000 0000 0000 0000 0000 0000 0000 0000
00000080: 0000 0000 0000 0000 0000 0000 0000 0000
00000090: 0000 0000 0000 0000 0000 0000 0000 0000
000000a0: 0000 0000 0000 0000 0000 0000 0000 0000
000000b0: 0000 0000 0000 0000 0000 0000 0000 0000
000000c0: 0000 0000 0000 0000 0000 0000 0000 0000
000000d0: 0000 0000 0000 0000 0000 0000 0000 0000
000000e0: 0000 0000 0000 0000 0000 0000 0000 0000
000000f0: 0000 0000 0000 0000 0000 0000 0000 0000

fai_gcn_networks.1.residual.1.weight f4 [64]
0.99313664 1.0092814 0.9851803 1.0197701 1.0100332 0.99878585 1.0245621 0.9780831
0.95989764 1.037407 0.9729835 0.99444664 1.0003372 1.0054029 0.9858513 1.0203506
0.9793453 0.98676443 1.0055552 0.98812294 1.0294654 1.0242891 0.9846279 1.0051813
1.0439144 1.0294458 0.98244 0.9702928 1.0024039 1.0318897 0.9904064 1.0077388
0.99255735 0.9734997 0.9985802 0.9916456 1.0069139 1.0384603 0.989641 0.99286216
0.99673015 1.0364307 1.0216503 0.97213835 0.96292424 1.0019207 1.0014352 0.9726209
0.9963759 1.0154052 0.9982208 1.0188428 1.0203962 1.0120778 0.9958304 0.9652241
0.96660614 0.99413645 1.0033184 0.9838672 0.9991993 1.0005283 1.0377349 0.9768669
00000000: 343e 7e3f 2230 813f c734 7c3f d487 823f
00000010: c548 813f 6eb0 7f3f da24 833f a763 7a3f
00000020: dabb 753f c1c9 843f 7215 793f 0e94 7e3f
00000030: 0d0b 803f 0bb1 803f c060 7c3f d99a 823f
00000040: 60b6 7a3f 989c 7c3f 08b6 803f a0f5 7c3f
00000050: 86c5 833f e81b 833f 9310 7c3f c8a9 803f
00000060: fd9e 853f e1c4 833f 3081 7b3f 1c65 783f
00000070: c54e 803f f614 843f 468b 7d3f 96fd 803f
00000080: 3d18 7e3f 4737 793f f4a2 7f3f 7cdc 7d3f
00000090: 8ee2 803f 44ec 843f 1d59 7d3f 372c 7e3f
000000a0: b529 7f3f c3a9 843f 70c5 823f 0fde 783f
000000b0: 3482 763f f03e 803f 072f 803f affd 783f
000000c0: 7e12 7f3f ccf8 813f 668b 7f3f 7169 823f
000000d0: 589c 823f c48b 813f beee 7e3f ed18 773f
000000e0: 8073 773f ba7f 7e3f bd6c 803f b9de 7b3f
000000f0: 86cb 7f3f 5011 803f 7fd4 843f f313 7a3f

fai_gcn_networks.1.residual.1.bias f4 [64]
0.0 0.0 0.0 0.0 0.0 0.0 0.0 0.0
0.0 0.0 0.0 0.0 0.0 0.0 0.0 0.0
0.0 0.0 0.0 0.0 0.0 0.0 0.0 0.0
0.0 0.0 0.0 0.0 0.0 0.0 0.0 0.0
0.0 0.0 0.0 0.0 0.0 0.0 0.0 0.0
0.0 0.0 0.0 0.0 0.0 0.0 0.0 0.0
0.0 0.0 0.0 0.0 0.0 0.0 0.0 0.0
0.0 0.0 0.0 0.0 0.0 0.0 0.0 0.0
00000000: 0000 0000 0000 0000 0000 0000 0000 0000
00000010: 0000 0000 0000 0000 0000 0000 0000 0000
00000020: 0000 0000 0000 0000 0000 0000 0000 0000
00000030: 0000 0000 0000 0000 0000 0000 0000 0000
00000040: 0000 0000 0000 0000 0000 0000 0000 0000
00000050: 0000 0000 0000 0000 0000 0000 0000 0000
00000060: 0000 0000 0000 0000 0000 0000 0000 0000
00000070: 0000 0000 0000 0000 0000 0000 0000 0000
00000080: 0000 0000 0000 0000 0000 0000 0000 0000
00000090: 0000 0000 0000 0000 0000 0000 0000 0000
000000a0: 0000 0000 0000 0000 0000 0000 0000 0000
000000b0: 0000 0000 0000 0000 0000 0000 0000 0000
000000c0: 0000 0000 0000 0000 0000 0000 0000 0000
000000d0: 0000 0000 0000 0000 0000 0000 0000 0000
000000e0: 0000 0000 0000 0000 0000 0000 0000 0000
000000f0: 0000 0000 0000 0000 0000 0000 0000 0000

fai_gcn_networks.1.residual.1.running_mean f4 [64]
-6.1219066e-07 3.8415888e-07 2.5965198e-07 -5.620173e-07 -8.6731177e-07 -3.992475e-07 1.337949e-07 -2.5693507e-07
1.3395353e-06 -1.6631628e-06 -7.5265024e-07 -3.322796e-07 -3.7967993e-07 -2.1268484e-06 5.032121e-07 -1.2845694e-06
-5.08069e-07 1.4637965e-06 2.1031622e-07 8.2303785e-08 2.5993046e-07 -7.949322e-07 -2.6551842e-07 -3.7347834e-07
2.7115394e-07 2.8712319e-07 2.6805745e-08 -4.8449726e-07 -1.009526e-06 3.6176178e-07 -2.372973e-06 -9.200752e-07
3.1861404e-07 -9.021767e-07 1.2191826e-06 5.263962e-07 -3.974267e-07 9.1102174e-07 1.2208928e-06 1.02469535e-08
7.504747e-07 -5.8268216e-07 5.0039296e-07 -5.2182763e-08 -2.1087108e-06 -7.451999e-07 -9.445511e-07 -5.988544e-07
2.3395152e-07 -1.7944423e-07 6.6047284e-07 3.0612145e-07 2.1310013e-06 5.9897377e-07 5.314442e-08 -1.14368206e-07
6.9410436e-07 8.0410337e-07 -2.0682589e-07 -1.1490306e-06 -2.0247197e-07 -6.9755384e-07 2.4925992e-06 -2.3376285e-06
00000000: 6c55 24b5 653e ce34 4c66 8b34 89dd 16b5
00000010: 36d1 68b5 2958 d6b4 43a9 0f34 e3f0 89b4
00000020: 15ca b335 d739 dfb5 bb09 4ab5 2964 b2b4
00000030: d0d6 cbb4 faba 0eb6 7914 0735 7869 acb5
00000040: 3c62 08b5 aa77 c435 48d3 6134 fcbe b033
00000050: 928c 8b34 5363 55b5 938c 8eb4 7982 c8b4
00000060: 1d93 9134 e925 9a34 7542 e632 660e 02b5
00000070: 0d7f 87b5 2938 c234 5e3f 1fb6 16fb 76b5
00000080: fb0d ab34 1c2d 72b5 cca2 a335 ac4d 0d35
00000090: e95d d5b4 f08c 7435 8fdd a335 940a 3032
000000a0: 3b74 4935 9d69 1cb5 be52 0635 8e1f 60b3
000000b0: 6083 0db6 bf09 48b5 0f8d 7db5 f6c0 20b5
000000c0: 1b34 7b34 41ad 40b4 594b 3135 0359 a434
000000d0: 5302 0f36 2ac9 2035 e840 6433 969a f5b3
000000e0: 7d52 3a35 90d9 5735 de13 5eb4 6438 9ab5
000000f0: 1267 59b4 893f 3bb5 8746 2736 27e0 1cb6

fai_gcn_networks.1.residual.1.running_var f4 [64]
9.392126e-13 9.19814e-13 6.0850495e-13 8.5645136e-13 1.3430277e-12 5.1561744e-13 5.5141e-13 3.502754e-13
2.9326283e-12 4.9616084e-12 3.3664876e-13 2.291618e-14 9.468366e-14 7.636254e-12 8.3714085e-13 3.083354e-12
1.4672471e-12 2.8274646e-12 2.6814224e-14 2.963871e-14 1.2168146e-13 1.6729822e-12 4.558182e-14 8.8900946e-14
9.1010776e-14 4.0951194e-13 1.7265444e-13 2.3151232e-13 1.0877121e-12 8.3040156e-13 9.944895e-12 2.2045351e-13
2.3465665e-12 2.0633968e-12 3.895244e-12 1.1225068e-12 7.6104937e-13 3.0783444e-12 8.0710655e-13 2.99555e-14
6.8754254e-14 3.3136085e-14 1.718741e-12 3.1306227e-13 4.7736533e-12 1.1041807e-12 9.945538e-13 1.4551294e-12
1.6615848e-12 3.010758e-13 1.5391714e-13 9.188622e-14 9.2866635e-12 3.748729e-13 3.6864087e-14 3.7121548e-14
2.2072648e-12 2.6933356e-12 2.1684914e-13 3.2517551e-13 2.0102016e-13 9.678946e-13 6.8354745e-12 9.844281e-12
00000000: b32e 842b cb73 812b 6747 2b2b d311 712b
00000010: ac03 bd2b 2722 112b 4735 1b2b 0130 c52a
00000020: 895d 4e2c 3292 ae2c 3384 bd2a 1d69 ce28
00000030: 6a35 d529 a156 062d 5ba2 6b2b c5f8 582c
00000040: 267f ce2b 13f7 462c 6485 f128 1b7b 0529
00000050: 4b00 092a 8973 eb2b 4348 4d29 e82f c829
00000060: 24f0 cc29 e488 e62a 4164 422a 7154 822a
00000070: f514 992b bdbc 692b d3f3 2e2d 6635 782a
00000080: fc1f 252c da32 112c 3d0d 892c 92fa 9d2b
00000090: 6337 562b 869e 582c 282e 632b 57e8 0629
000000a0: 21d2 9a29 4e3b 1529 2ce4 f12b 073d b02a
000000b0: 3ff5 a72c 4d66 9b2b 94f8 8b2b 90ca cc2b
000000c0: e7d8 e92b 987d a92a 984b 2d2a cde8 ce29
000000d0: 6a5f 232d e108 d32a 6605 2629 3b2e 2729
000000e0: 8c52 1b2c d286 3d2c 8226 742a bb0e b72a
000000f0: 1e54 622a 1438 882b 7b80 f02c b32e 2d2d

edge_importance.0 f4 [3, 18, 18]
0.8509923 0.8509923 0.8509923 0.8509923 0.8509923 0.8509923 0.8509923 0.8509923
0.8509923 0.8509923 0.8509923 0.8509923 0.8509923 0.8509923 0.8509923 0.8509923
0.8509923 0.8509923 0.8509923 0.8509922 0.8509923 0.8509923 0.8509923 0.8509923
0.8509923 0.8509923 0.8509923 0.8509923 0.8509923 0.8509923 0.8509923 0.8509923
0.8509923 0.8509923 0.8509923 0.8509923 0.8509923 0.8509923 0.8509923 0.8509923
0.8509923 0.8509923 0.8509923 0.8509923 0.8509923 0.8509923 0.8509923 0.8509923
0.8509923 0.8509923 0.8509923 0.8509923 0.8509923 0.8509923 0.8509923 0.8509923
0.8509923 0.8509923 0.8509923 0.8509923 0.8509923 0.8509923 0.8509923 0.8509923
0.8509923 0.8509923 0.8509923 0.8509923 0.8509923 0.8509923 0.8509923 0.8509923
0.8509923 0.8509923 0.8509923 0.8509923 0.85099256 0.8509923 0.8509923 0.8509923
0.8509923 0.8509923 0.8509923 0.8509923 0.8509923 0.8509923 0.8509923 0.8509923
0.8509923 0.8509923 0.8509923 0.8509923 0.8509923 0.8509923 0.8509923 0.8509923
0.8509923 0.8509923 0.8509923 0.8509923 0.8509923 0.8509923 0.8509923 0.8509923
0.8509923 0.8509923 0.8509923 0.8509923 0.8509923 0.8509923 0.8509923 0.8509923
0.8509923 0.8509923 0.8509924 0.8509923 0.8509923 0.8509923 0.8509923 0.8509923
0.8509923 0.8509923 0.8509923 0.8509923 0.8509923 0.8509923 0.8509923 0.8509923
0.8509923 0.8509923 0.8509923 0.8509923 0.8509923 0.85099256 0.8509923 0.8509923
0.8509923 0.8509923 0.8509923 0.8509923 0.8509923 0.8509923 0.8509923 0.8509923
0.8509923 0.8509923 0.8509923 0.8509923 0.8509923 0.8509923 0.8509923 0.8509923
0.8509924 0.8509923 0.8509923 0.8509923 0.8509923 0.8509923 0.8509923 0.8509923
0.8509923 0.8509923 0.8509923 0.8509923 0.8509923 0.8509923 0.8509923 0.8509923
0.8509923 0.8509923 0.8509923 0.8509924 0.8509923 0.8509923 0.8509923 0.8509923
0.8509923 0.8509923 0.8509923 0.8509923 0.8509923 0.8509923 0.8509923 0.8509923
0.8509923 0.8509923 0.8509923 0.8509923 0.8509923 0.8509923 0.85099256 0.8509923
0.8509923 0.8509923 0.8509923 0.8509923 0.8509923 0.8509923 0.8509923 0.8509923
0.8509923 0.8509923 0.8509923 0.8509923 0.8509923 0.8509923 0.8509923 0.8509923
0.8509923 0.8509924 0.8509923 0.8509923 0.8509923 0.8509923 0.8509923 0.8509923
0.8509923 0.8509923 0.8509923 0.8509923 0.8509923 0.8509923 0.8509923 0.8509923
0.8509923 0.8509923 0.8509923 0.8509923 0.8509924 0.8509923 0.8509923 0.8509923
0.8509923 0.8509923 0.8509923 0.8509923 0.8509923 0.8509923 0.8509923 0.8509923
0.8509923 0.8509923 0.8509923 0.8509923 0.8509923 0.8509923 0.8509923 0.85099256
0.8509923 0.8509923 0.8509923 0.8509923 0.8509923 0.8509923 0.8509923 0.8509923
00000000: a2da 593f a2da 593f a2da 593f a2da 593f
00000010: a2da 593f a2da 593f a2da 593f a2da 593f
00000020: a2da 593f a2da 593f a2da 593f a2da 593f
00000030: a2da 593f a2da 593f a2da 593f a2da 593f
00000040: a2da 593f a2da 593f a2da 593f a0da 593f
00000050: a2da 593f a2da 593f a2da 593f a2da 593f
00000060: a2da 593f a2da 593f a2da 593f a2da 593f
00000070: a2da 593f a2da 593f a2da 593f a2da 593f
00000080: a2da 593f a2da 593f a2da 593f a2da 593f
00000090: a2da 593f a2da 593f a2da 593f a2da 593f
000000a0: a2da 593f a2da 593f a2da 593f a2da 593f
000000b0: a2da 593f a2da 593f a2da 593f a2da 593f
000000c0: a2da 593f a2da 593f a2da 593f a2da 593f
000000d0: a2da 593f a2da 593f a2da 593f a2da 593f
000000e0: a2da 593f a2da 593f a2da 593f a2da 593f
000000f0: a2da 593f a2da 593f a2da 593f a2da 593f
00000100: a2da 593f a2da 593f a2da 593f a2da 593f
00000110: a2da 593f a2da 593f a2da 593f a2da 593f
00000120: a2da 593f a2da 593f a2da 593f a2da 593f
00000130: a6da 593f a2da 593f a2da 593f a2da 593f
00000140: a2da 593f a2da 593f a2da 593f a2da 593f
00000150: a2da 593f a2da 593f a2da 593f a2da 593f
00000160: a2da 593f a2da 593f a2da 593f a2da 593f
00000170: a2da 593f a2da 593f a2da 593f a2da 593f
00000180: a2da 593f a2da 593f a2da 593f a2da 593f
00000190: a2da 593f a2da 593f a2da 593f a2da 593f
000001a0: a2da 593f a2da 593f a2da 593f a2da 593f
000001b0: a2da 593f a2da 593f a2da 593f a2da 593f
000001c0: a2da 593f a2da 593f a3da 593f a2da 593f
000001d0: a2da 593f a2da 593f a2da 593f a2da 593f
000001e0: a2da 593f a2da 593f a2da 593f a2da 593f
000001f0: a2da 593f a2da 593f a2da 593f a2da 593f
00000200: a2da 593f a2da 593f a2da 593f a2da 593f
00000210: a2da 593f a6da 593f a2da 593f a2da 593f
00000220: a2da 593f a2da 593f a2da 593f a2da 593f
00000230: a2da 593f a2da 593f a2da 593f a2da 593f
00000240: a2da 593f a2da 593f a2da 593f a2da 593f
00000250: a2da 593f a2da 593f a2da 593f a2da 593f
00000260: a3da 593f a2da 593f a2da 593f a2da 593f
00000270: a2da 593f a2da 593f a2da 593f a2da 593f
00000280: a2da 593f a2da 593f a2da 593f a2da 593f
00000290: a2da 593f a2da 593f a2da 593f a2da 593f
000002a0: a2da 593f a2da 593f a2da 593f a3da 593f
000002b0: a2da 593f a2da 593f a2da 593f a2da 593f
000002c0: a2da 593f a2da 593f a2da 593f a2da 593f
000002d0: a2da 593f a2da 593f a2da 593f a2da 593f
000002e0: a2da 593f a2da 593f a2da 593f a2da 593f
000002f0: a2da 593f a2da 593f a6da 593f a2da 593f
00000300: a2da 593f a2da 593f a2da 593f a2da 593f
00000310: a2da 593f a2da 593f a2da 593f a2da 593f
00000320: a2da 593f a2da 593f a2da 593f a2da 593f
00000330: a2da 593f a2da 593f a2da 593f a2da 593f
00000340: a2da 593f a3da 593f a2da 593f a2da 593f
00000350: a2da 593f a2da 593f a2da 593f a2da 593f
00000360: a2da 593f a2da 593f a2da 593f a2da 593f
00000370: a2da 593f a2da 593f a2da 593f a2da 593f
00000380: a2da 593f a2da 593f a2da 593f a2da 593f
00000390: a3da 593f a2da 593f a2da 593f a2da 593f
000003a0: a2da 593f a2da 593f a2da 593f a2da 593f
000003b0: a2da 593f a2da 593f a2da 593f a2da 593f
000003c0: a2da 593f a2da 593f a2da 593f a2da 593f
000003d0: a2da 593f a2da 593f a2da 593f a6da 593f
000003e0: a2da 593f a2da 593f a2da 593f a2da 593f
000003f0: a2da 593f a2da 593f a2da 593f a2da 593f
