capsule-6073072/code/work_dir/recognition/kinetics_skeleton/FAI_GCN/epoch50_model.pt (torch, 74041 bytes, 22 tensors)

A f4 [3, 18, 18]
00000000: 0000 803e 0000 0000 0000 0000 0000 0000
00000010: 0000 0000 0000 0000 0000 0000 0000 0000
00000020: 0000 0000 0000 0000 0000 0000 0000 0000
00000030: 0000 0000 0000 0000 0000 0000 0000 0000
00000040: 0000 0000 0000 0000 0000 0000 0000 803e
00000050: 0000 0000 0000 0000 0000 0000 0000 0000
00000060: 0000 0000 0000 0000 0000 0000 0000 0000
00000070: 0000 0000 0000 0000 0000 0000 0000 0000
00000080: 0000 0000 0000 0000 0000 0000 0000 0000
00000090: 0000 0000 0000 0000 0000 803e 0000 0000
000000a0: 0000 0000 0000 0000 0000 0000 0000 0000
000000b0: 0000 0000 0000 0000 0000 0000 0000 0000
000000c0: 0000 0000 0000 0000 0000 0000 0000 0000
000000d0: 0000 0000 0000 0000 0000 0000 0000 0000
000000e0: 0000 0000 abaa aa3e 0000 0000 0000 0000
000000f0: 0000 0000 0000 0000 0000 0000 0000 0000
00000100: 0000 0000 0000 0000 0000 0000 0000 0000
00000110: 0000 0000 0000 0000 0000 0000 0000 0000
00000120: 0000 0000 0000 0000 0000 0000 0000 0000
00000130: 0000 003f 0000 0000 0000 0000 0000 0000
00000140: 0000 0000 0000 0000 0000 0000 0000 0000
00000150: 0000 0000 0000 0000 0000 0000 0000 0000
00000160: 0000 0000 0000 0000 0000 0000 0000 0000
00000170: 0000 0000 0000 0000 0000 0000 0000 803e
00000180: 0000 0000 0000 0000 0000 0000 0000 0000
00000190: 0000 0000 0000 0000 0000 0000 0000 0000
000001a0: 0000 0000 0000 0000 0000 0000 0000 0000
000001b0: 0000 0000 0000 0000 0000 0000 0000 0000
000001c0: 0000 0000 0000 0000 abaa aa3e 0000 0000
000001d0: 0000 0000 0000 0000 0000 0000 0000 0000
000001e0: 0000 0000 0000 0000 0000 0000 0000 0000
000001f0: 0000 0000 0000 0000 0000 0000 0000 0000
00000200: 0000 0000 0000 0000 0000 0000 0000 0000
00000210: 0000 0000 0000 003f 0000 0000 0000 0000
00000220: 0000 0000 0000 0000 0000 0000 0000 0000
00000230: 0000 0000 0000 0000 0000 0000 0000 0000
00000240: 0000 0000 0000 0000 0000 0000 0000 0000
00000250: 0000 0000 0000 0000 0000 0000 0000 0000
00000260: abaa aa3e 0000 0000 0000 0000 0000 0000
00000270: 0000 0000 0000 0000 0000 0000 0000 0000
00000280: 0000 0000 0000 0000 0000 0000 0000 0000
00000290: 0000 0000 0000 0000 0000 0000 0000 0000
000002a0: 0000 0000 0000 0000 0000 0000 abaa aa3e
000002b0: 0000 0000 0000 0000 0000 0000 0000 0000
000002c0: 0000 0000 0000 0000 0000 0000 0000 0000
000002d0: 0000 0000 0000 0000 0000 0000 0000 0000
000002e0: 0000 0000 0000 0000 0000 0000 0000 0000
000002f0: 0000 0000 0000 0000 0000 003f 0000 0000
00000300: 0000 0000 0000 0000 0000 0000 0000 0000
00000310: 0000 0000 0000 0000 0000 0000 0000 0000
00000320: 0000 0000 0000 0000 0000 0000 0000 0000
00000330: 0000 0000 0000 0000 0000 0000 0000 0000
00000340: 0000 0000 abaa aa3e 0000 0000 0000 0000
00000350: 0000 0000 0000 0000 0000 0000 0000 0000
00000360: 0000 0000 0000 0000 0000 0000 0000 0000
00000370: 0000 0000 0000 0000 0000 0000 0000 0000
00000380: 0000 0000 0000 0000 0000 0000 0000 0000
00000390: abaa aa3e 0000 0000 0000 0000 0000 0000
000003a0: 0000 0000 0000 0000 0000 0000 0000 0000
000003b0: 0000 0000 0000 0000 0000 0000 0000 0000
000003c0: 0000 0000 0000 0000 0000 0000 0000 0000
000003d0: 0000 0000 0000 0000 0000 0000 0000 003f
000003e0: 0000 0000 0000 0000 0000 0000 0000 0000
000003f0: 0000 0000 0000 0000 0000 0000 0000 0000
0.25 0.0 0.0 0.0 0.0 0.0 0.0 0.0
0.0 0.0 0.0 0.0 0.0 0.0 0.0 0.0
0.0 0.0 0.0 0.25 0.0 0.0 0.0 0.0
0.0 0.0 0.0 0.0 0.0 0.0 0.0 0.0
0.0 0.0 0.0 0.0 0.0 0.0 0.25 0.0
0.0 0.0 0.0 0.0 0.0 0.0 0.0 0.0
0.0 0.0 0.0 0.0 0.0 0.0 0.0 0.0
0.0 0.33333334 0.0 0.0 0.0 0.0 0.0 0.0
0.0 0.0 0.0 0.0 0.0 0.0 0.0 0.0
0.0 0.0 0.0 0.0 0.5 0.0 0.0 0.0
0.0 0.0 0.0 0.0 0.0 0.0 0.0 0.0
0.0 0.0 0.0 0.0 0.0 0.0 0.0 0.25
0.0 0.0 0.0 0.0 0.0 0.0 0.0 0.0
0.0 0.0 0.0 0.0 0.0 0.0 0.0 0.0
0.0 0.0 0.33333334 0.0 0.0 0.0 0.0 0.0
0.0 0.0 0.0 0.0 0.0 0.0 0.0 0.0
0.0 0.0 0.0 0.0 0.0 0.5 0.0 0.0
0.0 0.0 0.0 0.0 0.0 0.0 0.0 0.0
0.0 0.0 0.0 0.0 0.0 0.0 0.0 0.0
0.33333334 0.0 0.0 0.0 0.0 0.0 0.0 0.0
0.0 0.0 0.0 0.0 0.0 0.0 0.0 0.0
0.0 0.0 0.0 0.33333334 0.0 0.0 0.0 0.0
0.0 0.0 0.0 0.0 0.0 0.0 0.0 0.0
0.0 0.0 0.0 0.0 0.0 0.0 0.5 0.0
0.0 0.0 0.0 0.0 0.0 0.0 0.0 0.0
0.0 0.0 0.0 0.0 0.0 0.0 0.0 0.0
0.0 0.33333334 0.0 0.0 0.0 0.0 0.0 0.0
0.0 0.0 0.0 0.0 0.0 0.0 0.0 0.0
0.0 0.0 0.0 0.0 0.33333334 0.0 0.0 0.0
0.0 0.0 0.0 0.0 0.0 0.0 0.0 0.0
0.0 0.0 0.0 0.0 0.0 0.0 0.0 0.5
0.0 0.0 0.0 0.0 0.0 0.0 0.0 0.0

data_bn.weight f4 [54]
00000000: be8d 713f d830 7c3f b387 6a3f 16a8 703f
00000010: 4bfe 743f ec34 7c3f 13d2 773f de71 6e3f
00000020: 2027 6e3f 2c6d 773f 40c5 733f c2e6 733f
00000030: 2a04 743f a692 6c3f 5548 733f 21ba 643f
00000040: 3fed 7a3f 0b35 673f 348e 6e3f 0ddc 743f
00000050: 6b5e 773f 5890 733f fc31 7a3f 012d 723f
00000060: 048c 6d3f ee64 743f 8495 743f 7c6d 723f
00000070: a2d5 6e3f d10d 6f3f 666f 723f 026e 6c3f
00000080: d9ed 6e3f 0179 7b3f 1bd7 733f 6a36 773f
00000090: 55b1 6e3f eee6 6e3f 6a8a 733f fdfd 6d3f
000000a0: 0be5 6b3f 7aac 673f 8d20 613f 2082 793f
000000b0: 8e4d 783f b40a 773f a949 713f 8dc0 783f
000000c0: 476a 7c3f 5678 6e3f 5373 763f be2e 713f
000000d0: f969 783f e6b3 733f
0.94356906 0.9851203 0.9161331 0.9400648 0.9570052 0.9851825 0.9680492 0.931425
0.9302845 0.9665096 0.95222855 0.95273983 0.95318854 0.9241127 0.95032245 0.8934651
0.9801826 0.9031531 0.93185735 0.9564827 0.96628445 0.95142126 0.9773252 0.9459992
0.9279177 0.95466506 0.9554064 0.9469831 0.9329473 0.9338046 0.9470123 0.9235536
0.93331677 0.9823151 0.952501 0.96567404 0.9323934 0.9332112 0.9513308 0.9296568
0.92146367 0.90497553 0.87940294 0.9746418 0.9699334 0.96500707 0.9425302 0.9716881
0.98599666 0.9315237 0.9626972 0.9421195 0.970367 0.9519638

data_bn.bias f4 [54]
00000000: 8a06 5736 1c4d c134 b80f 8434 8a44 93b5
00000010: 6eb1 e934 7c8b a434 f177 6836 dd17 9534
00000020: e856 92b4 533e 39b5 ea6e 83b4 c95b 7db5
00000030: 6b19 0935 1386 f0b3 b2f0 8430 3757 8436
00000040: 6828 8c34 d459 e5b4 4deb eab3 d635 ae33
00000050: 6067 91b5 1837 9534 5c1a a434 1f10 9433
00000060: 2337 8c34 20cc 2a35 4e41 1ab3 cd11 25b6
00000070: 3eb2 fbb4 69ae ec32 04b6 ed33 0b1e b834
00000080: cded 70b4 625f 0f35 0d5c 3735 40da 76b5
00000090: c933 1db5 6c98 1db4 2946 f133 5336 1935
000000a0: d0e2 5b34 f5a5 ef33 add8 6ab5 63ef 88b4
000000b0: b16f 98b5 97e8 84b5 229a fbb4 150a a9b5
000000c0: d13a 0b35 4584 e434 f0b7 9933 f204 2b35
000000d0: e36d 6333 3037 91b2
3.2041303e-06 3.6005156e-07 2.4598353e-07 -1.0972301e-06 4.352873e-07 3.064887e-07 3.464051e-06 2.7770776e-07
-2.7257852e-07 -6.9008564e-07 -2.4481352e-07 -9.438341e-07 5.1073465e-07 -1.1200259e-07 9.672674e-10 3.9440597e-06
2.6106432e-07 -4.2719932e-07 -1.0939275e-07 8.112299e-08 -1.0833428e-06 2.77935e-07 3.056656e-07 6.8947195e-08
2.611715e-07 6.3626976e-07 -3.5915313e-08 -2.4597277e-06 -4.6882082e-07 2.7553329e-08 1.1069281e-07 3.429453e-07
-2.2438253e-07 5.341045e-07 6.8306764e-07 -9.1959737e-07 -5.8562415e-07 -1.4677215e-07 1.1235199e-07 5.7075994e-07
2.0478478e-07 1.1159492e-07 -8.74871e-07 -2.550615e-07 -1.1357389e-06 -9.902459e-07 -4.686454e-07 -1.2594415e-06
5.1867124e-07 4.2564548e-07 7.158076e-08 6.370966e-07 5.2952497e-08 -1.6905318e-08

data_bn.running_mean f4 [54]
00000000: 1763 9abc 3575 f6bd 90e7 9e3e ad2f 97bc
00000010: a121 b5bd de10 983e 4752 1bbd 6b45 bbbd
00000020: f7c0 8b3e 1c98 66bd 1522 98bd 9442 8b3e
00000030: c0ae 7ebd bac0 95bd 12f9 883e 74bf 823a
00000040: c883 aebd 33e6 8c3e 36a5 743c 6329 88bd
00000050: d0fd 7e3e 8a91 923c 0d56 79bd e37d 743e
00000060: a6bb 0bbd 24bf 86bc 9610 6c3e 46ea 47bd
00000070: 6912 a93a 7e45 763e 849e 04bd a048 1b3d
00000080: b494 6b3e 1482 1fbc 5d65 61bc 6058 6c3e
00000090: 3165 1e3b 4d1b c73b f4bd 733e 9596 3ebc
000000a0: b76a 243d 73a5 563e 8281 bebc 051f 03be
000000b0: bf96 993e 9fea 38bc a0d7 00be 8923 a03e
000000c0: ba94 b9bc e331 cabd eef4 243e c0e6 a4ba
000000d0: b2cd e8bd 9390 793e
-0.018846078 -0.12034074 0.31036043 -0.01845535 -0.08844305 0.2970037 -0.037920263 -0.091441
0.27295658 -0.056297407 -0.07428376 0.27199233 -0.062178373 -0.0731215 0.26752526 0.000997527
-0.08521229 0.27519378 0.0149319675 -0.06648519 0.2490151 0.017891664 -0.06087308 0.23876147
-0.034114502 -0.016448565 0.23053202 -0.048807405 0.0012899163 0.24049947 -0.032377735 0.037911057
0.23005944 -0.009735603 -0.013757077 0.23080587 0.0024169201 0.0060762526 0.2380293 -0.011632581
0.040140834 0.20961551 -0.023255114 -0.12804802 0.29997823 -0.011286407 -0.12582254 0.3127711
-0.022653926 -0.098727964 0.16109058 -0.0012580976 -0.11367358 0.24371557

data_bn.running_var f4 [54]
00000000: 1b8a c63b 8aee 7d3c a243 eb3d 8925 c03b
00000010: 8c0d 213c 4f65 d63d 52ca 033c fb30 283c
00000020: d403 ba3d 01b3 313c eb45 0c3c 528f b53d
00000030: 8f5a 493c 072d 043c 439d b43d e0d2 993b
00000040: ecdb 1a3c cb0b b73d 0926 9b3b d8bc fd3b
00000050: e023 a13d 8181 ae3b 0545 fc3b 39c6 a03d
00000060: 025e ff3b 7e9d e13b 0baf 873d 8f51 283c
00000070: bd2b 1f3c c0b6 9c3d b889 053c c631 773c
00000080: 0827 993d dadc b23b 7452 ee3b a97b 853d
00000090: ac22 a23b 1a92 2a3c 9ada 963d c857 d23b
000000a0: 6649 813c 467e 743d 86bb d23b 8297 8c3c
000000b0: 7096 f13d 13e4 b13b 01ac 873c c4ce f23d
000000c0: 54aa dd3b fa59 663c f4b4 863d c3ee 993b
000000d0: b58d 6d3c 2624 b63d
0.006058944 0.015498767 0.11487509 0.0058638495 0.00982989 0.10468542 0.008043842 0.010265584
0.090827614 0.0108459005 0.008561592 0.08865227 0.012289657 0.008067376 0.08819058 0.0046943277
0.0094518475 0.08937796 0.0047347588 0.007743459 0.07868171 0.0053254967 0.0076986575 0.07850308
0.007793189 0.0068852296 0.06625184 0.010273351 0.009715018 0.07652044 0.0081505105 0.0150875505
0.07478148 0.0054584565 0.007273013 0.06517727 0.004947981 0.01041081 0.07365914 0.0064191557
0.01578207 0.059690736 0.006431046 0.017162088 0.11796272 0.0054288 0.01656151 0.11855844
0.0067646895 0.014059538 0.06577483 0.004697652 0.014499118 0.088936135

fai_gcn_networks.0.gcn.conv.weight f4 [96, 3, 1, 1]
00000000: 0d77 f337 65ab cdb6 a56c f7b5 92fd 8137
00000010: 717d 37b6 02a3 0e36 e0c5 6eb6 0302 4235
00000020: 7ab1 e1b3 d662 d2b7 b55b d33a 0da3 2dbb
00000030: 9d14 edb8 4cf3 15bb 3ace 043b aa40 ee37
00000040: 8f0a 9db7 7a24 57b8 c166 9dbb 2507 1b36
00000050: 8a7a 8437 85da 16bb 95c9 85b6 59eb e536
00000060: f90d 97b8 b018 04bc 3dbc 2438 691a 0ebc
00000070: e966 31ba 61ba 1a37 2d3c 953c 5df5 ecba
00000080: 1720 423a 8b7f 033a 32af 19ba f530 6eb8
00000090: 4953 e23a e8de 8ab8 5dfb 9f39 4114 b7bb
000000a0: eb3e 3c3a f0ab 0bb7 6f99 5f38 0837 41b8
000000b0: d072 ed34 f7c5 4139 b3d2 edba 90bf 3636
000000c0: d09d 75bb f516 30b9 6af7 2238 7e28 70b7
000000d0: bef7 9cb6 1359 11b6 060c ba3b d218 a2ba
000000e0: 6213 70b9 91a5 0c37 d0f6 ac39 a241 3f3a
000000f0: f412 6dba 0553 133a 0902 c336 fb02 f337
00000100: 3c87 e536 4cd8 1ab7 d086 c838 1e5a bdb6
00000110: 94cc cb3a a385 793b e906 83b6 6534 e7b5
00000120: 828f e9b6 7db1 c536 c805 8bb6 a694 8336
00000130: 08c9 eab7 e155 e3b7 1048 6537 cedd dc38
00000140: 1757 5737 15be 2538 aede 48bc db64 a636
00000150: b1e0 8eb8 0b4c 9536 e937 89b7 f65a fc36
00000160: bd19 d236 af1f beb7 e7d3 8c37 98c6 c0b6
00000170: d693 00bc 5468 1abc fc48 0838 dc1a 6636
00000180: 4c23 b537 dc2f 3137 d649 5bb8 c37f e037
00000190: 7b47 a236 a6fc 3836 e78a a435 61ce 2c35
000001a0: d5c6 adb7 3d67 1eb7 e141 a038 c96f fcb8
000001b0: bf96 16bb 957d 8ab5 c2f0 e1b9 b8cb 873b
000001c0: 23a7 9736 945f ef38 2442 4f39 bb5c c9b8
000001d0: 624c 7536 5b73 0d38 930f 25b7 11eb 1a36
000001e0: 3df0 f1b6 2b56 4f39 dcfd 6f37 a0d5 7438
000001f0: a72a 9836 8373 d4b4 c568 34b8 1430 0f38
00000200: 5e33 14b6 3237 2639 88bc cab8 dff1 8fb8
00000210: 5c57 633a d0d9 b237 c461 49ba 8a70 a4bc
00000220: bda5 3b37 3b4e 18bc d125 c4b9 0424 2239
00000230: 773b ffb4 2773 d137 6ccf c3bb b509 d2ba
00000240: 2329 6938 103a 80b8 c693 0bbc 7a0d 843b
00000250: 5b0a 7b37 00f5 19b5 eff8 1e3b c182 3538
00000260: e3b0 14b7 b952 9b39 7ed5 d93b db2e 5137
00000270: 853e 843a c350 60b7 2377 0138 b480 04b7
00000280: 14ac 4cb7 58df 40bb 8535 48bc d217 2338
00000290: 4e5a 47b7 85ae 98b7 29d3 f735 27cf ce37
000002a0: 3aaf 2138 7f0b e336 86fb 21b6 afbf a9b7
000002b0: 3019 90bc 3de5 0bbb b4a8 88b8 5439 373c
000002c0: cd12 2d3b 9c75 8f38 52a8 4eb9 1a9d 3a38
000002d0: 9d13 dfb6 6e9c 49b8 82e3 fab7 ef9a 3fb9
000002e0: 653d ffb7 bfc7 e5b7 b565 67bb ccb1 3b37
000002f0: a542 c837 85b7 80bb 6cf6 14b8 5d81 9638
00000300: 30eb 9abb 41e1 86b6 e068 23b7 ef28 233b
00000310: a605 83b6 6e2b e0b4 9ed3 dd35 5588 2bb6
00000320: 2870 95b4 b384 1537 5bb3 07b3 23bb 4439
00000330: 0ac2 20b8 773e 5fb8 9cc1 cb38 a694 3937
00000340: 487d 1eb7 9343 ac36 22ba 8138 f38c 2438
00000350: a93c e234 1db1 0c37 be5d 25ba 5546 af34
00000360: 9ca1 81ba f33d 8836 7850 7036 faf4 8db7
00000370: 9944 29bb db66 1135 66ba c0b7 beb9 90b9
00000380: d2d9 ddbb 0991 4c35 9902 dfba 1ba5 9abb
00000390: e2ba 8e3b 9d50 3639 1904 4eb6 022e 16ba
000003a0: 7edd 5339 d2b6 9bb5 340a 2a37 1ec8 d6b6
000003b0: 1c16 d834 585c 8bb6 ecc2 46b9 080d 18b8
000003c0: def6 92bb da2f 40b7 1bba ad37 8233 dab7
000003d0: 3939 0337 684d 2bb6 4318 11b9 1797 9737
000003e0: 10d8 3f37 d332 4fb6 0668 e735 18e6 9534
000003f0: f912 153b d7b5 aab7 fb76 2ab7 6063 a33a
2.9023295e-05 -6.129429e-06 -1.8434554e-06 1.5496076e-05 -2.7342141e-06 2.1254532e-06 -3.5579942e-06 7.227356e-07
-1.0509662e-07 -2.5079975e-05 0.0016125353 -0.002649489 -0.0001130488 -0.0022880612 0.0020264522 2.8401922e-05
-1.8720775e-05 -5.1293966e-05 -0.004803509 2.3100959e-06 1.5792688e-05 -0.0023018431 -3.987176e-06 6.85213e-06
-7.202844e-05 -0.008062527 3.9275958e-05 -0.008673289 -0.0006767349 9.22251e-06 0.01821717 -0.0018078495
0.00074052945 0.0005016259 -0.0005862593 -5.6789217e-05 0.0017267253 -6.621872e-05 0.00030514124 -0.0055871313
0.00071810064 -8.325078e-06 5.331024e-05 -4.6066038e-05 4.4228227e-07 0.00018479662 -0.0018144458 2.7231617e-06
-0.0037478097 -0.0001679322 3.8854232e-05 -1.4314543e-05 -4.6780033e-06 -2.1658532e-06 0.005677703 -0.0012367016
-0.00022895404 8.383199e-06 0.00032990286 0.0007295852 -0.0009043657 0.0005619976 5.81169e-06 2.8969245e-05
6.840475e-06 -9.229476e-06 9.561854e-05 -5.64313e-06 0.001554864 0.0038074038 -3.9049087e-06 -1.722609e-06
-6.9606476e-06 5.89172e-06 -4.143196e-06 3.921409e-06 -2.7988586e-05 -2.71005e-05 1.3666242e-05 0.00010531732
1.2835276e-05 3.9516093e-05 -0.012260122 4.9589266e-06 -6.81294e-05 4.4493986e-06 -1.6357708e-05 7.5207745e-06
6.261484e-06 -2.2664519e-05 1.6787975e-05 -5.7451653e-06 -0.007847747 -0.009424288 3.24929e-05 3.4288305e-06
2.1593318e-05 1.0561165e-05 -5.2282434e-05 2.6762375e-05 4.8362976e-06 2.7565197e-06 1.2259378e-06 6.4375314e-07
-2.0715795e-05 -9.441571e-06 7.6416654e-05 -0.00012037118 -0.0022978035 -1.031835e-06 -0.00043094723 0.004144158
4.519608e-06 0.00011414211 0.00019765698 -9.601699e-05 3.6552306e-06 3.3724453e-05 -9.8383925e-06 2.3084615e-06
-7.210327e-06 0.00019773158 1.4304616e-05 5.8373087e-05 4.5349184e-06 -3.9572123e-07 -4.301292e-05 3.4138633e-05
-2.2083618e-06 0.00015851556 -9.667227e-05 -6.8638234e-05 0.00086723804 2.132068e-05 -0.000768211 -0.020073194
1.11846575e-05 -0.009295995 -0.0003741221 0.00015462941 -4.7540718e-07 2.4968364e-05 -0.0059756543 -0.0016024621
5.558984e-05 -6.1143306e-05 -0.008519119 0.004029927 1.4963177e-05 -5.7353463e-07 0.0024257263 4.3275537e-05
-8.862672e-06 0.00029625537 0.0066477647 1.246828e-05 0.0010089433 -1.3370244e-05 3.086695e-05 -7.897779e-06
-1.2199413e-05 -0.0029429998 -0.012219791 3.8884413e-05 -1.188235e-05 -1.8201079e-05 1.846439e-06 2.4653576e-05
3.8548584e-05 6.7664655e-06 -2.4137275e-06 -2.023563e-05 -0.017590135 -0.0021346353 -6.516409e-05 0.011183102
0.0026408911 6.840678e-05 -0.00019708395 4.4492168e-05 -6.648201e-06 -4.806782e-05 -2.9908264e-05 -0.00018272897
-3.0426958e-05 -2.7391941e-05 -0.0035308425 1.1187465e-05 2.3872892e-05 -0.0039281272 -3.5515448e-05 7.176653e-05
-0.0047277436 -4.019734e-06 -9.739975e-06 0.0024896224 -3.904762e-06 -4.175485e-07 1.6527372e-06 -2.5560341e-06
-2.7835017e-07 8.9119885e-06 -3.159526e-08 0.0001876173 -3.8327686e-05 -5.3225518e-05 9.715857e-05 1.1061469e-05
-9.446703e-06 5.133866e-06 6.185869e-05 3.9231916e-05 4.2139916e-07 8.385888e-06 -0.0006308219 3.2647463e-07
-0.0009890082 4.0603277e-06 3.5809626e-06 -1.6922586e-05 -0.002582824 5.4166384e-07 -2.2974982e-05 -0.0002760421
-0.006770351 7.6206976e-07 -0.0017014324 -0.004719389 0.0043557743 0.00017386903 -3.0698777e-06 -0.00057289016
0.0002020504 -1.1601608e-06 1.0135165e-05 -6.4009937e-06 4.0249222e-07 -4.153273e-06 -0.00018955366 -3.625176e-05
-0.0044849953 -1.1455233e-05 2.070987e-05 -2.601161e-05 7.821532e-06 -2.5526042e-06 -0.00013837316 1.807096e-05
1.1434793e-05 -3.0874987e-06 1.7241116e-06 2.7920828e-07 0.0022746904 -2.0350255e-05 -1.0160492e-05 0.0012465529

fai_gcn_networks.0.gcn.conv.bias f4 [96]
00000000: eb9b 6cb8 411f d437 6285 1b38 4f7b 9438
00000010: 9f08 7139 f882 9d38 319d ffb8 75c9 25b8
00000020: df27 15b8 e629 0a37 d985 36b8 675e 063a
00000030: 2cf5 77b8 886c 3638 2e5b 6bb8 0fe4 7437
00000040: ccff f3b8 574a 68b7 8f6c 83b8 2b69 2237
00000050: e103 08b9 0a5d 4038 98f1 ebb8 1435 97b7
00000060: fa51 40b7 7c64 4438 13d5 4239 27d6 2c39
00000070: 7c4e 9439 48b0 30b8 98f6 acb8 6fb9 92b8
00000080: c306 7cb8 96e7 dd38 9833 4738 8971 5439
00000090: 5f47 b839 a507 ba38 75fc 22b9 620c 3fb8
000000a0: ca3e c3b7 6434 9b37 77cc 97b8 3fd8 2e3a
000000b0: d5e5 b5b8 ac8c b637 e381 53b8 22a3 2c38
000000c0: 6ea9 3eb9 3d9f 67b8 6a28 a2b8 ba4b 22b7
000000d0: 1d8b 25b9 41dd c238 571e 2eb9 90bb 22b7
000000e0: df20 47b7 de27 ea37 2218 8339 e46e 7b39
000000f0: 6101 b039 9ad9 8db8 71ee 81b8 dbed c4b8
00000100: 9b31 2bb8 713c 0d37 4ac5 1437 b35b f836
00000110: af93 8d38 1154 8736 7446 5cb8 961d f2b6
00000120: fe3b b8b6 f24b 9837 f44b 1bb7 df76 8239
00000130: 5d83 d1b7 349a 4a36 4e13 c1b6 dc65 f335
00000140: caec 38b8 f4a3 0bb8 bb78 99b7 30fb 3b36
00000150: ada3 79b8 f24c 7f35 cab5 21b8 16b0 edb6
00000160: 3839 eab6 9b79 9f38 7ed3 bf36 7cc5 b338
00000170: b126 8e38 dd65 6db8 a3a6 16b8 8f6a 79b7
-5.6411995e-05 2.5286923e-05 3.7079102e-05 7.080158e-05 0.00022986763 7.510738e-05 -0.00012188627 -3.9526687e-05
-3.55615e-05 8.235196e-06 -4.3516837e-05 0.00051257614 -5.9117723e-05 4.349326e-05 -5.6113284e-05 1.4596632e-05
-0.00011634789 -1.3845586e-05 -6.2667874e-05 9.680439e-06 -0.00012971416 4.5863017e-05 -0.000112506736 -1.802532e-05
-1.1463178e-05 4.6823625e-05 0.00018580658 0.00016482976 0.00028287235 -4.2125845e-05 -8.247531e-05 -6.996362e-05
-6.008778e-05 0.000105812374 4.7493348e-05 0.0002026019 0.0003514839 8.870595e-05 -0.00015543571 -4.554948e-05
-2.327505e-05 1.8501836e-05 -7.2383256e-05 0.00066697964 -8.673562e-05 2.1761596e-05 -5.0427287e-05 4.1159925e-05
-0.0001818293 -5.5222994e-05 -7.73229e-05 -9.673584e-06 -0.0001578745 9.2918526e-05 -0.00016605236 -9.699623e-06
-1.1868978e-05 2.7913538e-05 0.00025004247 0.00023978535 0.00033570363 -6.7639354e-05 -6.1956125e-05 -9.390312e-05
-4.0815776e-05 8.4183275e-06 8.867422e-06 7.401651e-06 6.750912e-05 4.0331e-06 -5.2517702e-05 -7.2156063e-06
-5.4906113e-06 1.8155177e-05 -9.256404e-06 0.00024884098 -2.4975912e-05 3.0190104e-06 -5.7540956e-06 1.8134556e-06
-4.4089546e-05 -3.3292876e-05 -1.829524e-05 2.8011382e-06 -5.951866e-05 9.510687e-07 -3.8554695e-05 -7.0836495e-06
-6.9804046e-06 7.6043616e-05 5.7168645e-06 8.5721695e-05 6.7782945e-05 -5.660007e-05 -3.591798e-05 -1.4866367e-05

fai_gcn_networks.1.gcn.conv.weight f4 [192, 32, 1, 1]
00000000: 08ea 20bb 8108 bd36 3a9e 2335 eb0e 4137
00000010: 2fbf 0838 cb21 9538 2638 be39 ddd9 d736
00000020: 756f 0438 af8c 6638 4ee2 9aba 305b 8b37
00000030: 6834 8eba 82f6 caba b499 df35 f03d 2438
00000040: e551 bf37 2f90 9c37 d96a ed37 0504 1c38
00000050: a1c3 cd3a 1a70 8db7 e41b b937 c2c1 2637
00000060: 3e14 b03a 2690 b038 529c 003b 3cab ff37
00000070: ed0e 373b 2887 ee35 9a7e a537 12a9 4e38
00000080: 9527 8036 bc0f 9336 9d87 0035 34e1 4f37
00000090: ae8b 0638 7ddd 02bc 5564 6ebb da6e 8cba
000000a0: 18e8 773b 0b85 af3a efb3 9138 fe07 8137
000000b0: dc3a 1c37 c7f4 f038 5459 ca35 c400 0138
000000c0: b54b e837 0d32 db3c fd93 7638 5d23 0938
000000d0: 9a5c 0bbc eab3 f436 3f22 18bc df28 893a
000000e0: 5079 5937 8c2d 9ebb 8e61 c53b 22a4 65bb
000000f0: d12d e836 4cd8 d3b7 7f0b 6239 cd56 b1ba
00000100: 5ecf ae36 15c3 0437 5931 83b9 7638 5737
00000110: 7386 7337 4e15 f837 0aed 3637 898b b636
00000120: 1390 c138 6992 45ba 7ce8 9838 857a c237
00000130: 93e7 7d36 6ccf ac38 430d c135 fd70 1338
00000140: cac0 0138 8f29 4db8 6d69 b537 7bc6 dc37
00000150: 7dd3 f935 fb28 2f37 5b2b 1338 6020 7539
00000160: 572c 1339 7495 8438 7cd5 f437 5b18 6aba
00000170: 9bd7 0237 2149 0136 8995 2238 8df8 8939
00000180: 8989 1839 e3c8 83b9 5b84 3dba 3950 6d37
00000190: e4be d337 9ef1 4a37 bebd 7037 f3a7 f736
000001a0: 3bca 1f38 9249 0138 40fd a938 fd7f c037
000001b0: f87c 8839 bb73 e438 7eae d135 79d6 e037
000001c0: c700 27b6 9f8f db37 c6a7 0738 35c0 ce37
000001d0: c60c 0036 79c8 19b8 5962 3b38 a38a 15bb
000001e0: 9ac2 af3b e3da c938 0ac1 4e38 fae6 9938
000001f0: 0505 4937 a576 2f36 c24a 84b8 f55b 4f38
00000200: 027f 4eaf 182e b0ba 8b8b d838 3370 b4b7
00000210: e55b 8530 ed24 2d34 9809 1c31 5f55 2e37
00000220: e9eb 172f 1ee6 a034 6277 01ae bbef 243a
00000230: f25b 9fae 7c4a 443a 1fac 282e b22f de2f
00000240: 8bfb 4d39 00bd ecaf d550 42b0 1f7c 3e38
00000250: 9969 feba 5fab f636 029f 7b2f 40e1 9c30
00000260: db81 a739 6179 8537 57b6 9c2f b222 a730
00000270: cc28 dab7 2e73 9bbb 41cf cdb3 6358 0fb1
00000280: 870a 8d3c 9e79 9e36 bdae 0635 db57 2b37
00000290: ec01 b437 5eef 8a37 28c2 1438 a270 ae36
000002a0: 9716 6737 1452 aa37 8f46 efba b46a 8337
000002b0: 17d3 44b8 4566 94ba 6de7 82bc 6baa 723b
000002c0: e39e 31bc 605f b137 1748 c437 914a 18b9
000002d0: b8fc e4b8 1317 3037 70dd 1438 9e9f 2737
000002e0: 8080 af37 f62d 9938 7e73 ae3c d1cb 5538
000002f0: 3b36 fe36 56bf ca35 c675 3c38 b311 6138
00000300: f29d 4237 a0c6 be36 0bdf 21bb 9bcb 3bb9
00000310: 7b8d 4537 5646 913b 628a 0037 9ed1 993b
00000320: 289a cd37 e3b7 aa37 2043 4139 49dd 8037
00000330: 2699 eb38 d065 543b 3b41 6d35 37fc 0138
00000340: edcb d937 ed6d 86b9 78cb 1f38 d5cb 7a37
00000350: facd 9336 b5f5 8e3a 604a 0738 23f7 1a37
00000360: a39a d136 0872 9a38 b16c df37 43a8 ac3a
00000370: 0f7e d536 1c7f 113a dca2 8a39 2e90 2a38
00000380: 8ee4 98ba 5152 bdba fbb0 3235 3e7a 3537
00000390: 4cf4 ac37 ed59 bfba cd18 77bb 7636 b836
000003a0: 68f1 9939 3035 ca37 12ce 5d38 2dd7 9337
000003b0: 21e5 1438 f5d6 383a 86d6 d135 c10f 213c
000003c0: f3ad b63b dfab a337 dc1f 2d37 e1e2 1038
000003d0: 7435 8036 8a54 1437 fecf 8838 c239 0b3b
000003e0: 4b85 9a37 f148 0038 e6ec 6abc 9121 3938
000003f0: 40b3 b9b9 becd 2136 4d45 bb37 93e1 55bc
-0.0024553556 5.633629e-06 6.095248e-07 1.150717e-05 3.260298e-05 7.111168e-05 0.00036281458 6.432862e-06
3.1575055e-05 5.4967295e-05 -0.0011816712 1.6612554e-05 -0.0010849359 -0.0015484842 1.6659528e-06 3.915833e-05
2.280711e-05 1.866379e-05 2.8302356e-05 3.7197042e-05 0.0015698561 -1.6860711e-05 2.2066706e-05 9.939484e-06
0.0013433767 8.419184e-05 0.0019624424 3.0478106e-05 0.002793248 1.7771717e-06 1.9728486e-05 4.9271686e-05
3.819305e-06 4.382773e-06 4.788106e-07 1.2390596e-05 3.2078176e-05 -0.007987377 -0.003637572 -0.0010714189
0.0037827548 0.001339109 6.947654e-05 1.538172e-05 9.312029e-06 0.00011489685 1.5076171e-06 3.075671e-05
2.7691809e-05 0.026757265 5.8788795e-05 3.269628e-05 -0.008505965 7.2927114e-06 -0.009285509 0.0010464451
1.2962453e-05 -0.004827207 0.0060235923 -0.0035040458 6.9194725e-06 -2.5253881e-05 0.00021557322 -0.0013529897
5.209745e-06 7.913234e-06 -0.00025023034 1.28281445e-05 1.4515233e-05 2.9573825e-05 1.0903235e-05 5.4402667e-06
9.229793e-05 -0.00075367704 7.2912284e-05 2.3183655e-05 3.7834732e-06 8.2402345e-05 1.438348e-06 3.515276e-05
3.0935546e-05 -4.8914513e-05 2.1625974e-05 2.6318468e-05 1.8613497e-06 1.0440354e-05 3.508791e-05 0.00023377081
0.0001403553 6.322088e-05 2.9186478e-05 -0.0008930021 7.798803e-06 1.9265065e-06 3.8763075e-05 0.0002631586
0.00014547085 -0.0002513594 -0.00072295003 1.4144979e-05 2.524205e-05 1.2096394e-05 1.43492925e-05 7.3807255e-06
3.8096896e-05 3.0824514e-05 8.1057195e-05 2.2947783e-05 0.0002603305 0.00010893444 1.5622497e-06 2.6802752e-05
-2.4885392e-06 2.6173713e-05 3.234276e-05 2.4646617e-05 1.9080921e-06 -3.6664747e-05 4.4675868e-05 -0.002281823
0.0053637745 9.625198e-05 4.929401e-05 7.338631e-05 1.1981702e-05 2.6146092e-06 -6.308175e-05 4.9438288e-05
-1.8780713e-10 -0.0013441471 0.000103256745 -2.1509919e-05 9.703142e-10 1.6125314e-07 2.2706441e-09 1.0391085e-05
1.3817182e-10 2.9969755e-07 -2.9437237e-11 0.0006291826 -7.2468156e-11 0.00074879057 3.835165e-11 4.0415454e-10
0.0001964403 -4.3062443e-10 -7.069166e-10 4.5415127e-05 -0.0019410133 7.3513215e-06 2.2884808e-10 1.1414514e-09
0.00031949472 1.5911357e-05 2.8505795e-10 1.216071e-09 -2.6006623e-05 -0.004743955 -9.583756e-08 -2.085948e-09
0.017216934 4.722925e-06 5.017317e-07 1.021285e-05 2.1458567e-05 1.6562346e-05 3.546677e-05 5.1987163e-06
1.3773933e-05 2.03038e-05 -0.0018255281 1.5666104e-05 -4.6926634e-05 -0.0011321983 -0.015979493 0.0037027847
-0.010841104 2.1144457e-05 2.339859e-05 -0.00014523628 -0.0001091896 1.049579e-05 3.549218e-05 9.991139e-06
2.0921463e-05 7.3041694e-05 0.021295305 5.0972976e-05 7.576103e-06 1.5105859e-06 4.4932378e-05 5.3660664e-05
1.1600076e-05 5.6855642e-06 -0.0024699594 -0.00017909559 1.1775056e-05 0.0044334335 7.661614e-06 0.004694178
2.4509689e-05 2.0351208e-05 0.0001843092 1.5361833e-05 0.00011234199 0.0032409318 8.8384303e-07 3.099089e-05
2.5963376e-05 -0.00025640373 3.809805e-05 1.49486195e-05 4.40492e-06 0.0010906967 3.2255775e-05 9.236656e-06
6.2466875e-06 7.364532e-05 2.6634285e-05 0.0013172704 6.36257e-06 0.0005550252 0.0002644275 4.0665436e-05
-0.0011664794 -0.0014444088 6.656771e-07 1.0816902e-05 2.0617757e-05 -0.0014598944 -0.0037703991 5.4899674e-06
0.00029362296 2.4105044e-05 5.2882424e-05 1.7623965e-05 3.5499343e-05 0.0007051074 1.5634148e-06 0.009830416
0.0055749356 1.9511148e-05 1.0319021e-05 3.4543573e-05 3.82092e-06 8.841171e-06 6.523727e-05 0.0021244143
1.84203e-05 3.058551e-05 -0.014338708 4.41387e-05 -0.000354195 2.4110627e-06 2.2324408e-05 -0.013054269

fai_gcn_networks.1.gcn.conv.bias f4 [192]
00000000: e041 893c b535 8e3c 2c8d 8b3c 0dda 973c
00000010: 96a9 c8b5 758e 8d3c 2ae9 8a3c 9bf3 8c3c
00000020: 2b9b 8f3c d000 8d3c 9dbf c3b7 20f0 0cb8
00000030: 54ad 8e3c 5d70 f4b7 b3da 90b8 d02a 803c
00000040: 5c7b adb7 e731 813c 21eb c93b cd08 6bb8
00000050: 7542 dc3a 2585 893c b258 e434 9d68 91b7
00000060: f292 8e3c 3c97 8c3c 0619 973c f0db eab7
00000070: 43bb c4b9 6a30 8c3c 98c8 8f3c fa67 8d3c
00000080: f4fb 853c 4cbb 803c eee8 8c3c 0d4c bb3b
00000090: 5e53 0a38 8832 843c f165 863c 068b 8d3c
000000a0: a6ab 2eb6 1a0e eab7 83a4 40b8 7203 45b7
000000b0: 5ff6 d8b7 c36a 1cb8 2c44 8c3c 401d 1438
000000c0: 3af9 8b3c 57f3 8a3c e800 9635 6356 8c3c
000000d0: b5de c8b7 f2da beb7 cc70 8d3c 7fdd 8c3c
000000e0: 416b 8d3c 8aaa 893c ce87 8b3c 5908 953c
000000f0: 1ad1 72b6 bf1b 883c 082f 30b7 96d9 903c
00000100: 3818 963c eb1e a23c 94fc 9d3c 5c5f a13c
00000110: 32a4 7cb6 00a9 a13c 7278 9d3c 1848 9c3c
00000120: 8adb a13c b4f0 a13c 5723 19b8 87b1 31b8
00000130: 796d a23c f043 43b8 8ec4 e4b8 5903 933c
00000140: 7f28 06b8 dd2f 8d3c 9c1d ec3b 46b9 aeb8
00000150: a46e 003b 7f7b 9d3c aba3 9bb5 816e bab7
00000160: fe19 a33c cd17 9f3c 6e8a a63c a480 71b8
00000170: f025 fdb9 2557 9e3c 6945 9e3c af4e 9f3c
00000180: 3f15 943c 1575 943c 6a52 a13c 7b15 dc3b
00000190: 3afe 0b38 e4a1 913c 1408 953c 7f81 a23c
000001a0: 8de4 24b6 eff9 87b8 5075 b1b8 42e5 8eb7
000001b0: 8197 02b8 32d2 2fb8 d732 9c3c 5709 2738
000001c0: 85e2 a03c 448f 983c bcaf b535 83b2 9d3c
000001d0: 8328 75b8 4f39 d2b7 514b 9f3c 4def 9c3c
000001e0: 8b32 a23c ffeb 9b3c c6d3 9b3c 003e 9f3c
000001f0: 80b9 c6b6 d577 973c 98e6 1db8 f53f a13c
00000200: 0239 253c 92b4 193c 464a 193c ee1d 503c
00000210: a97b 89b4 ad29 193c a95f 183c c50c 233c
00000220: d13a 1f3c 0fe5 173c 088f dbb5 9da0 62b7
00000230: f060 1b3c b39f 07b5 54e3 a8b7 77de 093c
00000240: c2e2 02b6 95c3 1c3c 9993 513b c7d6 2ab8
00000250: 7814 5f3a 6b05 143c c3ed bc35 4821 19b6
00000260: 0a14 1a3c a245 1a3c 126f 303c a243 a2b6
00000270: e048 01b9 004f 1a3c 90bb 283c 1f8a 1c3c
00000280: a6c8 1d3c 88cc 093c d52f 183c ddb5 403b
00000290: f5ee b037 627c 1b3c ca46 1b3c bd8f 183c
000002a0: b410 bcb3 da90 13b6 c379 2737 4644 82b6
000002b0: 1f99 d6b5 68bf 07b6 650c 203c 3e4b bf37
000002c0: 3abd 163c bb0d 253c 9a11 2235 9181 1b3c
000002d0: 47a3 dc36 1f2d 67b7 50af 1c3c 951e 203c
000002e0: 0a90 183c 3d76 173c 18f2 1d3c b3b7 463c
000002f0: eb20 b3b5 5959 193c 8902 c231 5f84 243c
0.016755044 0.017359594 0.01703509 0.018536592 -1.4950517e-06 0.017279843 0.016956884 0.017206004
0.017530045 0.017212301 -2.3335038e-05 -3.3602235e-05 0.017416634 -2.913939e-05 -6.907191e-05 0.015645415
-2.068065e-05 0.015770866 0.0061620628 -5.6036562e-05 0.0016804474 0.016787121 4.2532844e-07 -1.7334061e-05
0.017404053 0.017161958 0.01844455 -2.799739e-05 -0.00037523554 0.01711293 0.017551705 0.017261494
0.016355492 0.01571431 0.017200913 0.005715853 3.2979406e-05 0.016137376 0.016406031 0.017278206
-2.6027933e-06 -2.790154e-05 -4.592958e-05 -1.1742917e-05 -2.5863932e-05 -3.7292728e-05 0.01712235 3.531319e-05
0.017086614 0.016961737 1.1176135e-06 0.017131036 -2.3945564e-05 -2.275172e-05 0.0172657 0.017195461
0.017263057 0.016804952 0.01703253 0.018192457 -3.6182523e-06 0.016614793 -1.0501368e-05 0.017681878
0.018322095 0.019790133 0.019285478 0.019698791 -3.76465e-06 0.019733906 0.019222472 0.019077346
0.019758005 0.019768097 -3.6510955e-05 -4.2365424e-05 0.019827591 -4.6554895e-05 -0.000109084984 0.017945932
-3.1985805e-05 0.017234737 0.007205678 -8.3314764e-05 0.0019597197 0.019223927 -1.1596034e-06 -2.2224385e-05
0.019909855 0.019420529 0.02032968 -5.7578683e-05 -0.00048284186 0.019328663 0.019320207 0.019446699
0.018076537 0.018122235 0.019692618 0.006716428 3.337695e-05 0.01777739 0.018192329 0.01983714
-2.4570938e-06 -6.4838554e-05 -8.461869e-05 -1.7034476e-05 -3.1135514e-05 -4.191901e-05 0.019067211 3.98246e-05
0.019639263 0.018623002 1.3536696e-06 0.01925016 -5.845028e-05 -2.5060637e-05 0.019445093 0.019157076
0.019799491 0.01903343 0.01902188 0.019438744 -5.922455e-06 0.018489758 -3.7646474e-05 0.019683817
0.0100843925 0.00938143 0.009356087 0.012702448 -2.5608213e-07 0.009348315 0.009300151 0.009951775
0.009718613 0.00927092 -1.6358399e-06 -1.3508045e-05 0.009483561 -5.052381e-07 -2.0133019e-05 0.008414856
-1.95035e-06 0.009568115 0.0031978844 -4.0731185e-05 0.0008509825 0.009034495 1.4076289e-06 -2.281815e-06
0.009404192 0.009416016 0.010768669 -4.8358497e-06 -0.00012329547 0.009418249 0.010298625 0.009554415
0.009630358 0.00841058 0.009288748 0.0029405274 2.1092108e-05 0.009490104 0.009477327 0.009311614
-8.7574705e-08 -2.1989022e-06 9.9823255e-06 -3.88225e-06 -1.5988807e-06 -2.022798e-06 0.00976858 2.2804012e-05
0.009200389 0.010074074 6.0375316e-07 0.00949134 6.575519e-06 -1.37791785e-05 0.009563282 0.009772916
0.009311685 0.009244499 0.009640239 0.012128758 -1.334612e-06 0.009359681 5.6464313e-09 0.010041325

fai_gcn_networks.1.residual.0.weight f4 [64, 32, 1, 1]
00000000: c586 c43c cf73 863c b817 16bd 4a1f 7abc
00000010: cff8 30bc 3c75 2bbb c608 3f3c b0d9 1bbd
00000020: 60ae fb3c c152 8d3c 66d1 173c e99e 43bd
00000030: 353f da3c 055b a23b d7e5 f33a c577 63bb
00000040: f931 09bc 42a5 7abc 4167 b9bb 9cec dd3c
00000050: c4b0 8a39 d75a eabc 904f 1cbc 43cc 163d
00000060: 8741 033d 154f 3ebd 8e33 b93b d23c 13bb
00000070: 86ca 303c 3381 48bc f8c7 e33b 06e2 d03b
00000080: aace e339 b2b5 ca3c 396c f93c 3717 bfbb
00000090: 02ac 343d 26a6 663c 3d3c f83c c22b 913c
000000a0: d95a 3abb 44e2 8c3c c239 7a3c a650 10bd
000000b0: 41ba 8d3c 3947 643c 4987 223c 56ec 9a3c
000000c0: b2f4 00bd 27f4 c73c 36db 133c 14f4 03bd
000000d0: 9b8c 443c a051 4cbc eb28 a6bc 1303 3f3c
000000e0: 3d46 693b 5eef 8b3b 4a4e 83bc 4116 8ab9
000000f0: 2792 383c f3bd f93b f5a7 c1bc 5790 433c
00000100: eabb c7bb 2a41 843c 5c1c 023d b743 6abc
00000110: b87a d2bb 723f 0c3c 1998 883b d46d 7d3b
00000120: 1531 64bc c37e 91ba 65fe f83c f267 b53c
00000130: 748f 553b be64 e5ba 7d59 8bbc 6e7c c8bc
00000140: 4eb7 c33b d740 3fbc 55dc 16bc a2d1 4ebc
00000150: ede7 91bb 2585 79bc d334 6cba 39e0 ecbb
00000160: 6985 39bd 6a70 933c 49ba a03c af45 22bd
00000170: 21e6 78bc 300f 6e3b 162b 813c 6f47 003d
00000180: 679e 43bb 0814 90bc 4cef e9bb 6c55 913c
00000190: 4793 2abb 5b48 063d fd53 913a 4ad6 fd3c
000001a0: fb4b f4bc f3a8 ac3c f31c dab9 99b4 043b
000001b0: 26f0 2e3d ad6e 1abc 5444 d83c 342d 1fbc
000001c0: c296 103d b9dc 0b3d d4c7 c63b 6fae 07bc
000001d0: 054f efbb 694f ea3b 39d8 4f3c d0ae 4fbc
000001e0: 1847 4f3d 8a76 6c3d 00eb b2bb e68b 04bc
000001f0: d0de 083c 69c2 8c39 0bd1 a53b 03cc fb3b
00000200: cf82 153d 8f50 5e3c 9b78 b03c 141b fcbb
00000210: 83ec edbc 5ef1 de3c 90db 05bd 1d7f aebb
00000220: 5d9b fe3b a280 083c 1347 073d c67c 0dbd
00000230: 17c2 73bc 6573 e3bc e3e3 6e3b ebb8 373c
00000240: 7466 35bc d34e d2bb bb54 1bbd c5c1 0d3c
00000250: 79c6 3d3c 5b55 25bc 6a8f 8dbc fc16 14bd
00000260: cc94 1e3c 4ec3 46bb ecd4 d7bc d536 cebc
00000270: c94b 9cbc 7c1a 173d 7dc7 54b8 b811 58bc
00000280: 7594 223b e4e9 bfbc 0083 b2bb c56e 13bc
00000290: 5833 e6bc 90f0 42bb d59e 7e3c 6530 313c
000002a0: 9084 393c 198d 813c 84c8 33bb c36f 1a3d
000002b0: ce18 0a3d 3036 64bb 8cc6 873c 57e7 dbbc
000002c0: dd4f a33b ee19 d1bc bdfa ae3c 8b0c aabc
000002d0: df02 98bc 1ce0 a43c ee6f 29bc b08f 11bc
000002e0: c47f b43b 5c7c 2fbd 6fad 493c 6244 003c
000002f0: e9b9 d0bc 419b e13b cd0b 273d 40b8 073d
00000300: c582 19bd 6736 8abc 8a41 b8bc 3032 35bc
00000310: 6dd4 13bc 6b48 54bc 492b 7dba e296 61bb
00000320: 973f b3bb 8a3f cebc 5fe0 833c 32cb 2a3b
00000330: 4bcd 193d 827f ac3c 56aa 9bbc 6fe8 9a3c
00000340: 81b8 513c eb66 223c 24cd 943c 349f b83c
00000350: 33c7 f83b 50d6 fb3a 5e69 72ba 052c f7bb
00000360: 47ff d73c 2fcb 6fbc ad99 01bd 4bcd 803c
00000370: 5bbc 12bd 298d fbbb d9b6 1bbc 4d87 89bc
00000380: b62c 023d 5479 433c b663 b13c fce6 bebc
00000390: 10f5 d1bc a0ce bd3c f2a4 1ebd a196 85bc
000003a0: a271 2ebc 1edd c83c 4621 863c 66de b538
000003b0: 0141 2fbc db1c f03c 8064 a4bc 603c 6ebc
000003c0: eac5 3c3c 9904 8b3c 3166 073d 2246 253c
000003d0: a09b 6b3c ed1b ab3c b347 d7ba 0ab1 c4bc
000003e0: 3d4e 6e3c 09ec 98bb c99e 4fba d63f 95bc
000003f0: e354 96bc f7bb 51bc d5fe 133c 7085 6abc
0.023990044 0.016412644 -0.036643714 -0.015266249 -0.010801508 -0.0026162406 0.011659807 -0.0380494
0.030722797 0.017251374 0.009266233 -0.04775897 0.026641468 0.004954698 0.0018607926 -0.003470884
-0.008373731 -0.01529819 -0.005658061 0.027090363 0.00026453112 -0.028607769 -0.009540454 0.036815893
0.032044914 -0.046462137 0.0056518978 -0.0022466672 0.010790473 -0.012237835 0.0069513284 0.0063746003
0.0004345079 0.024744842 0.030447112 -0.005831625 0.044109352 0.014077699 0.030302161 0.01772106
-0.0028435497 0.017197736 0.01527256 -0.035233162 0.017300727 0.013932996 0.00991995 0.018911522
-0.03148336 0.024408413 0.009024432 -0.032215193 0.011996414 -0.012470633 -0.020283183 0.011658448
0.0035594844 0.004270478 -0.016028542 -0.00026337992 0.011265314 0.0076215207 -0.023639658 0.011936269
-0.006095399 0.016144354 0.031765327 -0.014298371 -0.0064233206 0.008560048 0.004168522 0.00386702
-0.013927718 -0.00111004 0.030394742 0.022144292 0.0032586725 -0.0017501337 -0.017010445 -0.024473395
0.0059727794 -0.011673174 -0.009207805 -0.012623223 -0.0044526965 -0.015229498 -0.0009010557 -0.007228878
-0.045293245 0.01799794 0.019620078 -0.039617237 -0.015191586 0.003632497 0.015767615 0.031318124
-0.0029849054 -0.017587677 -0.007139122 0.017740928 -0.0026027726 0.032783847 0.0011087653 0.03098597
-0.029821387 0.021076655 -0.0004160177 0.0020249246 0.042709492 -0.009425801 0.026399769 -0.009715367
0.035300024 0.034146044 0.006066302 -0.008281334 -0.007303121 0.0071505797 0.012685829 -0.012675956
0.05060491 0.057730235 -0.005460143 -0.008089995 0.008353904 0.00026847728 0.0050603203 0.007684232
0.036501702 0.013569011 0.021541884 -0.0076936577 -0.029043442 0.027214702 -0.032680094 -0.0053252117
0.0077699856 0.00833145 0.033026766 -0.03454282 -0.014877818 -0.027764985 0.003645175 0.0112135215
-0.01107179 -0.006418088 -0.037922602 0.008652155 0.011582964 -0.010091151 -0.0172803 -0.036154732
0.009679031 -0.0030328813 -0.026346646 -0.02517263 -0.019079106 0.03689049 -5.0730527e-05 -0.013187818
0.0024807726 -0.023426957 -0.0054477453 -0.0089985775 -0.028100654 -0.0029745437 0.015540798 0.010814761
0.011323109 0.01581435 -0.002743275 0.03770424 0.03371506 -0.0034822337 0.016574167 -0.02684371
0.0049838857 -0.02552506 0.021359796 -0.020757934 -0.018556057 0.020126395 -0.0103416275 -0.008884355
0.005508395 -0.042843208 0.012309416 0.007828804 -0.025479274 0.006884963 0.04078274 0.0331347
-0.037478227 -0.016871644 -0.022492189 -0.011059329 -0.009022814 -0.012956719 -0.0009657634 -0.0034422209
-0.005470227 -0.025176782 0.0160982 0.0026061055 0.0375493 0.021056894 -0.019002121 0.018909661
0.012800337 0.009912233 0.018164225 0.022536851 0.007592106 0.001921365 -0.00092472683 -0.0075430893
0.026366843 -0.014635845 -0.031640697 0.015722891 -0.03582416 -0.0076767397 -0.0095040435 -0.01678815
0.03178092 0.011930782 0.021653991 -0.023303501 -0.02562955 0.023169816 -0.038731523 -0.016307177
-0.010647209 0.0245195 0.016373288 8.6721775e-05 -0.0106966505 0.029310634 -0.020067453 -0.014540762
0.011521796 0.016969966 0.03305644 0.010087522 0.014380366 0.02088734 -0.0016424566 -0.0240102
0.014545021 -0.0046668095 -0.0007920084 -0.018218916 -0.018351024 -0.012801162 0.009032925 -0.014314041

fai_gcn_networks.1.residual.0.bias f4 [64]
00000000: 0000 0000 0000 0000 0000 0000 0000 0000
00000010: 0000 0000 0000 0000 0000 0000 0000 0000
00000020: 0000 0000 0000 0000 0000 0000 0000 0000
00000030: 0000 0000 0000 0000 0000 0000 0000 0000
00000040: 0000 0000 0000 0000 0000 0000 0000 0000
00000050: 0000 0000 0000 0000 0000 0000 0000 0000
00000060: 0000 0000 0000 0000 0000 0000 0000 0000
00000070: 0000 0000 0000 0000 0000 0000 0000 0000
00000080: 0000 0000 0000 0000 0000 0000 0000 0000
00000090: 0000 0000 0000 0000 0000 0000 0000 0000
000000a0: 0000 0000 0000 0000 0000 0000 0000 0000
000000b0: 0000 0000 0000 0000 0000 0000 0000 0000
000000c0: 0000 0000 0000 0000 0000 0000 0000 0000
000000d0: 0000 0000 0000 0000 0000 0000 0000 0000
000000e0: 0000 0000 0000 0000 0000 0000 0000 0000
000000f0: 0000 0000 0000 0000 0000 0000 0000 0000
0.0 0.0 0.0 0.0 0.0 0.0 0.0 0.0
0.0 0.0 0.0 0.0 0.0 0.0 0.0 0.0
0.0 0.0 0.0 0.0 0.0 0.0 0.0 0.0
0.0 0.0 0.0 0.0 0.0 0.0 0.0 0.0
0.0 0.0 0.0 0.0 0.0 0.0 0.0 0.0
0.0 0.0 0.0 0.0 0.0 0.0 0.0 0.0
0.0 0.0 0.0 0.0 0.0 0.0 0.0 0.0
0.0 0.0 0.0 0.0 0.0 0.0 0.0 0.0

fai_gcn_networks.1.residual.1.weight f4 [64]
00000000: 0896 7a3f da7f 823f 7a1b 7c3f b8b1 7b3f
00000010: 441c 833f 1797 7f3f a3b4 803f 5f79 813f
00000020: ed7b 7e3f 5719 7c3f 4e5a 863f 8864 823f
00000030: cc36 793f fb92 843f 91d6 7d3f 64cc 7f3f
00000040: 1e57 7f3f 9079 833f d621 7d3f 0182 7a3f
00000050: 0d1f 853f 065f 803f 435b 7b3f 6718 823f
00000060: 36f1 7e3f 31f5 823f efdb 7c3f e38f 823f
00000070: 51d3 7f3f b152 803f 4025 793f 2545 803f
00000080: 6a2c 803f f0b2 7d3f 3f4d 813f 2ea6 823f
00000090: 75b0 793f c331 753f c1e7 7c3f 3ce7 803f
000000a0: 9332 7f3f 36ab 823f bfc5 813f fcd8 763f
000000b0: a730 823f acb5 813f de6a 803f a4b2 7d3f
000000c0: 2cac 7d3f 4a66 813f c6d9 703f b0ec 843f
000000d0: badd 7c3f 7262 803f d2eb 7e3f a087 7c3f
000000e0: aeda 7f3f 532f 803f d8f0 7e3f f623 7f3f
000000f0: 894f 763f f837 7e3f c30d 803f 7de8 803f
0.9788518 1.0195267 0.98479426 0.9831805 1.0243001 0.9983992 1.0055126 1.0115165
0.99407846 0.98476166 1.0496309 1.018693 0.9734924 1.0357355 0.9915553 0.9992125
0.99742305 1.0271473 0.98879755 0.9785462 1.0400101 1.0028999 0.9818613 1.0163697
0.9958681 1.0231076 0.9877309 1.0200161 0.9993182 1.0025235 0.97322464 1.0021101
1.0013554 0.9910116 1.0101699 1.0206964 0.9753488 0.95779055 0.9879113 1.0070567
0.99686545 1.02085 1.0138472 0.9642484 1.0171098 1.0133567 1.0032613 0.9910071
0.9909084 1.0109341 0.94082296 1.0384731 0.9877583 1.0030043 0.99578583 0.9864445
0.99943054 1.0014442 0.9958625 0.9966425 0.9621511 0.9930415 1.00042 1.007095

fai_gcn_networks.1.residual.1.bias f4 [64]
00000000: 0000 0000 0000 0000 0000 0000 0000 0000
00000010: 0000 0000 0000 0000 0000 0000 0000 0000
00000020: 0000 0000 0000 0000 0000 0000 0000 0000
00000030: 0000 0000 0000 0000 0000 0000 0000 0000
00000040: 0000 0000 0000 0000 0000 0000 0000 0000
00000050: 0000 0000 0000 0000 0000 0000 0000 0000
00000060: 0000 0000 0000 0000 0000 0000 0000 0000
00000070: 0000 0000 0000 0000 0000 0000 0000 0000
00000080: 0000 0000 0000 0000 0000 0000 0000 0000
00000090: 0000 0000 0000 0000 0000 0000 0000 0000
000000a0: 0000 0000 0000 0000 0000 0000 0000 0000
000000b0: 0000 0000 0000 0000 0000 0000 0000 0000
000000c0: 0000 0000 0000 0000 0000 0000 0000 0000
000000d0: 0000 0000 0000 0000 0000 0000 0000 0000
000000e0: 0000 0000 0000 0000 0000 0000 0000 0000
000000f0: 0000 0000 0000 0000 0000 0000 0000 0000
0.0 0.0 0.0 0.0 0.0 0.0 0.0 0.0
0.0 0.0 0.0 0.0 0.0 0.0 0.0 0.0
0.0 0.0 0.0 0.0 0.0 0.0 0.0 0.0
0.0 0.0 0.0 0.0 0.0 0.0 0.0 0.0
0.0 0.0 0.0 0.0 0.0 0.0 0.0 0.0
0.0 0.0 0.0 0.0 0.0 0.0 0.0 0.0
0.0 0.0 0.0 0.0 0.0 0.0 0.0 0.0
0.0 0.0 0.0 0.0 0.0 0.0 0.0 0.0

fai_gcn_networks.1.residual.1.running_mean f4 [64]
00000000: 02e4 63b7 b8bf de38 c9dd ca37 12c3 ae39
00000010: bff0 90b9 b41e 9db7 7dc7 8138 fc41 0539
00000020: 02a2 4639 f0df 84b8 4503 de38 d835 df38
00000030: 5c57 c2b9 a3d0 7e38 fead 4ab8 46e4 afb8
00000040: cd6f 07b9 36c5 8fb8 3ede ddb8 6146 ccb7
00000050: b874 ac39 9950 4e37 8eb0 48b8 efa3 d2b9
00000060: 4634 8739 25b5 8039 983f beb7 d6f1 7238
00000070: 2d9b f337 b419 da38 486d 15b9 2ec3 b0b8
00000080: 64fd 9338 baa9 de38 0bab 40b9 94ab 21b8
00000090: 4dba 5fb9 2f90 e6b9 921e 4137 f2fc 32b9
000000a0: ee75 85b8 a31b 87b8 7675 adb8 5d0e 2339
000000b0: 82df 86b8 3179 02b8 c31d d639 28f5 6f38
000000c0: 4a78 18b9 7cf1 1ab9 bce7 c0b9 65c9 8938
000000d0: c5f4 88b9 c4f7 5438 fc17 a938 2523 92b9
000000e0: 33de 86b8 0efb 2e37 49f6 69b9 94bb bfb9
000000f0: 22da 08b9 4788 45b8 a6ef f9b7 597b a338
-1.3583342e-05 0.00010621495 2.4183553e-05 0.00033333205 -0.0002764519 -1.8730156e-05 6.188357e-05 0.0001270845
0.00018943104 -6.335962e-05 0.00010586394 0.00010643498 -0.0003706765 6.0752627e-05 -4.8322596e-05 -8.3871695e-05
-0.00012916252 -6.855505e-05 -0.00010579497 -2.4351468e-05 0.0003289336 1.2297322e-05 -4.7848145e-05 -0.0004017646
0.00025788153 0.00024549026 -2.2679378e-05 5.7922523e-05 2.9040117e-05 0.000103998376 -0.00014250458 -8.428689e-05
7.056704e-05 0.00010617399 -0.00018374265 -3.8545186e-05 -0.0002133634 -0.00043976444 1.1510814e-05 -0.00017069632
-6.3639e-05 -6.4424494e-05 -8.271162e-05 0.00015550242 -6.4312495e-05 -3.1107284e-05 0.00040839435 5.721036e-05
-0.00014540661 -0.00014776544 -0.0003679375 6.570182e-05 -0.0002612231 5.077549e-05 8.0630154e-05 -0.00027873475
-6.431006e-05 1.0429661e-05 -0.0002231236 -0.00036570115 -0.00013051232 -4.709538e-05 -2.9794708e-05 7.795421e-05

fai_gcn_networks.1.residual.1.running_var f4 [64]
00000000: 6df6 4a33 f565 1633 88ed 4b33 a18b a733
00000010: 487c b433 7dae 0f33 7407 9c32 f5ae df32
00000020: 5276 ba32 010d 8d33 fb6d 5033 d8ba 7533
00000030: 8b5f 8333 ba5e a132 95b7 fc32 1a6d a033
00000040: f26b db32 c758 e632 3ef9 7232 3b1a 8d33
00000050: 1318 3534 484e fb32 3d61 9d32 70f0 4634
00000060: 4ff4 0934 892e 5233 969c 1432 31c9 2933
00000070: 040c b732 35b7 0433 c374 6a33 d135 b832
00000080: 0c0a 0233 4d70 c132 d3f1 4633 28bb 3333
00000090: cfdd 5833 25c9 0134 3980 a733 d9d5 9932
000000a0: bb24 8032 21dc e332 8b46 7132 e6fc 5432
000000b0: 7804 8f32 43f6 f332 cc80 9933 da96 b831
000000c0: 1a35 8232 04bb 1f33 24b8 8f33 163d 2934
000000d0: 464a 4733 2c72 d732 8af3 7833 089e b833
000000e0: ff5c b832 1018 3933 0d22 8c33 42b4 a733
000000f0: 0902 a432 6353 7032 2a3b c133 fbe0 b532
4.7255913e-08 3.5017326e-08 4.7480654e-08 7.801942e-08 8.40451e-08 3.3453478e-08 1.816418e-08 2.6040178e-08
2.1707056e-08 6.5681895e-08 4.85288e-08 5.721344e-08 6.117542e-08 1.8785943e-08 2.9420145e-08 7.470426e-08
2.5544043e-08 2.6815895e-08 1.4142925e-08 6.5705954e-08 1.6865697e-07 2.9255844e-08 1.8321424e-08 1.8527658e-07
1.2847998e-07 4.893676e-08 8.650337e-09 3.953136e-08 2.1309468e-08 3.090027e-08 5.4588565e-08 2.1444892e-08
3.027712e-08 2.2519226e-08 4.6320405e-08 4.1846903e-08 5.0493153e-08 1.2087237e-07 7.799867e-08 1.7908791e-08
1.4917864e-08 2.6526381e-08 1.4044086e-08 1.2397527e-08 1.6649423e-08 2.840091e-08 7.148046e-08 5.3722546e-09
1.515814e-08 3.7190162e-08 6.6924514e-08 1.5761574e-07 4.640085e-08 2.5081214e-08 5.7963497e-08 8.5969134e-08
2.1462709e-08 4.3095554e-08 6.525452e-08 7.809332e-08 1.9093038e-08 1.3988799e-08 8.998025e-08 2.1173483e-08

edge_importance.0 f4 [3, 18, 18]
00000000: 5b17 723f 5917 723f 5917 723f 5917 723f
00000010: 5917 723f 5917 723f 5917 723f 5917 723f
00000020: 5917 723f 5917 723f 5917 723f 5917 723f
00000030: 5917 723f 5917 723f 5917 723f 5917 723f
00000040: 5917 723f 5917 723f 5917 723f 5a17 723f
00000050: 5917 723f 5917 723f 5917 723f 5917 723f
00000060: 5917 723f 5917 723f 5917 723f 5917 723f
00000070: 5917 723f 5917 723f 5917 723f 5917 723f
00000080: 5917 723f 5917 723f 5917 723f 5917 723f
00000090: 5917 723f 5917 723f 5b17 723f 5917 723f
000000a0: 5917 723f 5917 723f 5917 723f 5917 723f
000000b0: 5917 723f 5917 723f 5917 723f 5917 723f
000000c0: 5917 723f 5917 723f 5917 723f 5917 723f
000000d0: 5917 723f 5917 723f 5917 723f 5917 723f
000000e0: 5917 723f 5b17 723f 5917 723f 5917 723f
000000f0: 5917 723f 5917 723f 5917 723f 5917 723f
00000100: 5917 723f 5917 723f 5917 723f 5917 723f
00000110: 5917 723f 5917 723f 5917 723f 5917 723f
00000120: 5917 723f 5917 723f 5917 723f 5917 723f
00000130: 5e17 723f 5917 723f 5917 723f 5917 723f
00000140: 5917 723f 5917 723f 5917 723f 5917 723f
00000150: 5917 723f 5917 723f 5917 723f 5917 723f
00000160: 5917 723f 5917 723f 5917 723f 5917 723f
00000170: 5917 723f 5917 723f 5917 723f 5b17 723f
00000180: 5917 723f 5917 723f 5917 723f 5917 723f
00000190: 5917 723f 5917 723f 5917 723f 5917 723f
000001a0: 5917 723f 5917 723f 5917 723f 5917 723f
000001b0: 5917 723f 5917 723f 5917 723f 5917 723f
000001c0: 5917 723f 5917 723f 5b17 723f 5917 723f
000001d0: 5917 723f 5917 723f 5917 723f 5917 723f
000001e0: 5917 723f 5917 723f 5917 723f 5917 723f
000001f0: 5917 723f 5917 723f 5917 723f 5917 723f
00000200: 5917 723f 5917 723f 5917 723f 5917 723f
00000210: 5917 723f 5e17 723f 5917 723f 5917 723f
00000220: 5917 723f 5917 723f 5917 723f 5917 723f
00000230: 5917 723f 5917 723f 5917 723f 5917 723f
00000240: 5917 723f 5917 723f 5917 723f 5917 723f
00000250: 5917 723f 5917 723f 5917 723f 5917 723f
00000260: 5c17 723f 5917 723f 5917 723f 5917 723f
00000270: 5917 723f 5917 723f 5917 723f 5917 723f
00000280: 5917 723f 5917 723f 5917 723f 5917 723f
00000290: 5917 723f 5917 723f 5917 723f 5917 723f
000002a0: 5917 723f 5917 723f 5917 723f 5c17 723f
000002b0: 5917 723f 5917 723f 5917 723f 5917 723f
000002c0: 5917 723f 5917 723f 5917 723f 5917 723f
000002d0: 5917 723f 5917 723f 5917 723f 5917 723f
000002e0: 5917 723f 5917 723f 5917 723f 5917 723f
000002f0: 5917 723f 5917 723f 5e17 723f 5917 723f
00000300: 5917 723f 5917 723f 5917 723f 5917 723f
00000310: 5917 723f 5917 723f 5917 723f 5917 723f
00000320: 5917 723f 5917 723f 5917 723f 5917 723f
00000330: 5917 723f 5917 723f 5917 723f 5917 723f
00000340: 5917 723f 5c17 723f 5917 723f 5917 723f
00000350: 5917 723f 5917 723f 5917 723f 5917 723f
00000360: 5917 723f 5917 723f 5917 723f 5917 723f
00000370: 5917 723f 5917 723f 5917 723f 5917 723f
00000380: 5917 723f 5917 723f 5917 723f 5917 723f
00000390: 5c17 723f 5917 723f 5917 723f 5917 723f
000003a0: 5917 723f 5917 723f 5917 723f 5917 723f
000003b0: 5917 723f 5917 723f 5917 723f 5917 723f
000003c0: 5917 723f 5917 723f 5917 723f 5917 723f
000003d0: 5917 723f 5917 723f 5917 723f 5e17 723f
000003e0: 5917 723f 5917 723f 5917 723f 5917 723f
000003f0: 5917 723f 5917 723f 5917 723f 5917 723f
0.9456689 0.94566876 0.94566876 0.94566876 0.94566876 0.94566876 0.94566876 0.94566876
0.94566876 0.94566876 0.94566876 0.94566876 0.94566876 0.94566876 0.94566876 0.94566876
0.94566876 0.94566876 0.94566876 0.9456688 0.94566876 0.94566876 0.94566876 0.94566876
0.94566876 0.94566876 0.94566876 0.94566876 0.94566876 0.94566876 0.94566876 0.94566876
0.94566876 0.94566876 0.94566876 0.94566876 0.94566876 0.94566876 0.9456689 0.94566876
0.94566876 0.94566876 0.94566876 0.94566876 0.94566876 0.94566876 0.94566876 0.94566876
0.94566876 0.94566876 0.94566876 0.94566876 0.94566876 0.94566876 0.94566876 0.94566876
0.94566876 0.9456689 0.94566876 0.94566876 0.94566876 0.94566876 0.94566876 0.94566876
0.94566876 0.94566876 0.94566876 0.94566876 0.94566876 0.94566876 0.94566876 0.94566876
0.94566876 0.94566876 0.94566876 0.94566876 0.94566905 0.94566876 0.94566876 0.94566876
0.94566876 0.94566876 0.94566876 0.94566876 0.94566876 0.94566876 0.94566876 0.94566876
0.94566876 0.94566876 0.94566876 0.94566876 0.94566876 0.94566876 0.94566876 0.9456689
0.94566876 0.94566876 0.94566876 0.94566876 0.94566876 0.94566876 0.94566876 0.94566876
0.94566876 0.94566876 0.94566876 0.94566876 0.94566876 0.94566876 0.94566876 0.94566876
0.94566876 0.94566876 0.9456689 0.94566876 0.94566876 0.94566876 0.94566876 0.94566876
0.94566876 0.94566876 0.94566876 0.94566876 0.94566876 0.94566876 0.94566876 0.94566876
0.94566876 0.94566876 0.94566876 0.94566876 0.94566876 0.94566905 0.94566876 0.94566876
0.94566876 0.94566876 0.94566876 0.94566876 0.94566876 0.94566876 0.94566876 0.94566876
0.94566876 0.94566876 0.94566876 0.94566876 0.94566876 0.94566876 0.94566876 0.94566876
0.94566894 0.94566876 0.94566876 0.94566876 0.94566876 0.94566876 0.94566876 0.94566876
0.94566876 0.94566876 0.94566876 0.94566876 0.94566876 0.94566876 0.94566876 0.94566876
0.94566876 0.94566876 0.94566876 0.94566894 0.94566876 0.94566876 0.94566876 0.94566876
0.94566876 0.94566876 0.94566876 0.94566876 0.94566876 0.94566876 0.94566876 0.94566876
0.94566876 0.94566876 0.94566876 0.94566876 0.94566876 0.94566876 0.94566905 0.94566876
0.94566876 0.94566876 0.94566876 0.94566876 0.94566876 0.94566876 0.94566876 0.94566876
0.94566876 0.94566876 0.94566876 0.94566876 0.94566876 0.94566876 0.94566876 0.94566876
0.94566876 0.94566894 0.94566876 0.94566876 0.94566876 0.94566876 0.94566876 0.94566876
0.94566876 0.94566876 0.94566876 0.94566876 0.94566876 0.94566876 0.94566876 0.94566876
0.94566876 0.94566876 0.94566876 0.94566876 0.94566894 0.94566876 0.94566876 0.94566876
0.94566876 0.94566876 0.94566876 0.94566876 0.94566876 0.94566876 0.94566876 0.94566876
0.94566876 0.94566876 0.94566876 0.94566876 0.94566876 0.94566876 0.94566876 0.94566905
0.94566876 0.94566876 0.94566876 0.94566876 0.94566876 0.94566876 0.94566876 0.94566876
