capsule-6073072/code/work_dir/recognition/kinetics_skeleton/FAI_GCN/epoch390_model.pt (torch, 74070 bytes, 22 tensors)

A f4 [3, 18, 18]
0	0x3e800000	0.25
1	0x00000000	0.0
2	0x00000000	0.0
3	0x00000000	0.0
4	0x00000000	0.0
5	0x00000000	0.0
6	0x00000000	0.0
7	0x00000000	0.0
8	0x00000000	0.0
9	0x00000000	0.0
10	0x00000000	0.0
11	0x00000000	0.0
12	0x00000000	0.0
13	0x00000000	0.0
14	0x00000000	0.0
15	0x00000000	0.0
16	0x00000000	0.0
17	0x00000000	0.0
18	0x00000000	0.0
19	0x3e800000	0.25
20	0x00000000	0.0
21	0x00000000	0.0
22	0x00000000	0.0
23	0x00000000	0.0
24	0x00000000	0.0
25	0x00000000	0.0
26	0x00000000	0.0
27	0x00000000	0.0
28	0x00000000	0.0
29	0x00000000	0.0
30	0x00000000	0.0
31	0x00000000	0.0
32	0x00000000	0.0
33	0x00000000	0.0
34	0x00000000	0.0
35	0x00000000	0.0
36	0x00000000	0.0
37	0x00000000	0.0
38	0x3e800000	0.25
39	0x00000000	0.0
40	0x00000000	0.0
41	0x00000000	0.0
42	0x00000000	0.0
43	0x00000000	0.0
44	0x00000000	0.0
45	0x00000000	0.0
46	0x00000000	0.0
47	0x00000000	0.0
48	0x00000000	0.0
49	0x00000000	0.0
50	0x00000000	0.0
51	0x00000000	0.0
52	0x00000000	0.0
53	0x00000000	0.0
54	0x00000000	0.0
55	0x00000000	0.0
56	0x00000000	0.0
57	0x3eaaaaab	0.33333334
58	0x00000000	0.0
59	0x00000000	0.0
60	0x00000000	0.0
61	0x00000000	0.0
62	0x00000000	0.0
63	0x00000000	0.0
64	0x00000000	0.0
65	0x00000000	0.0
66	0x00000000	0.0
67	0x00000000	0.0
68	0x00000000	0.0
69	0x00000000	0.0
70	0x00000000	0.0
71	0x00000000	0.0
72	0x00000000	0.0
73	0x00000000	0.0
74	0x00000000	0.0
75	0x00000000	0.0
76	0x3f000000	0.5
77	0x00000000	0.0
78	0x00000000	0.0
79	0x00000000	0.0
80	0x00000000	0.0
81	0x00000000	0.0
82	0x00000000	0.0
83	0x00000000	0.0
84	0x00000000	0.0
85	0x00000000	0.0
86	0x00000000	0.0
87	0x00000000	0.0
88	0x00000000	0.0
89	0x00000000	0.0
90	0x00000000	0.0
91	0x00000000	0.0
92	0x00000000	0.0
93	0x00000000	0.0
94	0x00000000	0.0
95	0x3e800000	0.25
96	0x00000000	0.0
97	0x00000000	0.0
98	0x00000000	0.0
99	0x00000000	0.0
100	0x00000000	0.0
101	0x00000000	0.0
102	0x00000000	0.0
103	0x00000000	0.0
104	0x00000000	0.0
105	0x00000000	0.0
106	0x00000000	0.0
107	0x00000000	0.0
108	0x00000000	0.0
109	0x00000000	0.0
110	0x00000000	0.0
111	0x00000000	0.0
112	0x00000000	0.0
113	0x00000000	0.0
114	0x3eaaaaab	0.33333334
115	0x00000000	0.0
116	0x00000000	0.0
117	0x00000000	0.0
118	0x00000000	0.0
119	0x00000000	0.0
120	0x00000000	0.0
121	0x00000000	0.0
122	0x00000000	0.0
123	0x00000000	0.0
124	0x00000000	0.0
125	0x00000000	0.0
126	0x00000000	0.0
127	0x00000000	0.0
128	0x00000000	0.0
129	0x00000000	0.0
130	0x00000000	0.0
131	0x00000000	0.0
132	0x00000000	0.0
133	0x3f000000	0.5
134	0x00000000	0.0
135	0x00000000	0.0
136	0x00000000	0.0
137	0x00000000	0.0
138	0x00000000	0.0
139	0x00000000	0.0
140	0x00000000	0.0
141	0x00000000	0.0
142	0x00000000	0.0
143	0x00000000	0.0
144	0x00000000	0.0
145	0x00000000	0.0
146	0x00000000	0.0
147	0x00000000	0.0
148	0x00000000	0.0
149	0x00000000	0.0
150	0x00000000	0.0
151	0x00000000	0.0
152	0x3eaaaaab	0.33333334
153	0x00000000	0.0
154	0x00000000	0.0
155	0x00000000	0.0
156	0x00000000	0.0
157	0x00000000	0.0
158	0x00000000	0.0
159	0x00000000	0.0
160	0x00000000	0.0
161	0x00000000	0.0
162	0x00000000	0.0
163	0x00000000	0.0
164	0x00000000	0.0
165	0x00000000	0.0
166	0x00000000	0.0
167	0x00000000	0.0
168	0x00000000	0.0
169	0x00000000	0.0
170	0x00000000	0.0
171	0x3eaaaaab	0.33333334
172	0x00000000	0.0
173	0x00000000	0.0
174	0x00000000	0.0
175	0x00000000	0.0
176	0x00000000	0.0
177	0x00000000	0.0
178	0x00000000	0.0
179	0x00000000	0.0
180	0x00000000	0.0
181	0x00000000	0.0
182	0x00000000	0.0
183	0x00000000	0.0
184	0x00000000	0.0
185	0x00000000	0.0
186	0x00000000	0.0
187	0x00000000	0.0
188	0x00000000	0.0
189	0x00000000	0.0
190	0x3f000000	0.5
191	0x00000000	0.0
192	0x00000000	0.0
193	0x00000000	0.0
194	0x00000000	0.0
195	0x00000000	0.0
196	0x00000000	0.0
197	0x00000000	0.0
198	0x00000000	0.0
199	0x00000000	0.0
200	0x00000000	0.0
201	0x00000000	0.0
202	0x00000000	0.0
203	0x00000000	0.0
204	0x00000000	0.0
205	0x00000000	0.0
206	0x00000000	0.0
207	0x00000000	0.0
208	0x00000000	0.0
209	0x3eaaaaab	0.33333334
210	0x00000000	0.0
211	0x00000000	0.0
212	0x00000000	0.0
213	0x00000000	0.0
214	0x00000000	0.0
215	0x00000000	0.0
216	0x00000000	0.0
217	0x00000000	0.0
218	0x00000000	0.0
219	0x00000000	0.0
220	0x00000000	0.0
221	0x00000000	0.0
222	0x00000000	0.0
223	0x00000000	0.0
224	0x00000000	0.0
225	0x00000000	0.0
226	0x00000000	0.0
227	0x00000000	0.0
228	0x3eaaaaab	0.33333334
229	0x00000000	0.0
230	0x00000000	0.0
231	0x00000000	0.0
232	0x00000000	0.0
233	0x00000000	0.0
234	0x00000000	0.0
235	0x00000000	0.0
236	0x00000000	0.0
237	0x00000000	0.0
238	0x00000000	0.0
239	0x00000000	0.0
240	0x00000000	0.0
241	0x00000000	0.0
242	0x00000000	0.0
243	0x00000000	0.0
244	0x00000000	0.0
245	0x00000000	0.0
246	0x00000000	0.0
247	0x3f000000	0.5
248	0x00000000	0.0
249	0x00000000	0.0
250	0x00000000	0.0
251	0x00000000	0.0
252	0x00000000	0.0
253	0x00000000	0.0
254	0x00000000	0.0
255	0x00000000	0.0

data_bn.weight f4 [54]
0	0x3f251ece	0.6450013
1	0x3f1a9d0f	0.603959
2	0x3f24a545	0.6431468
3	0x3f14f308	0.58183336
4	0x3f178e63	0.5920164
5	0x3f2550f6	0.6457666
6	0x3f183e16	0.59469736
7	0x3f1abc38	0.6044345
8	0x3f0c631a	0.54838717
9	0x3f1dead8	0.6168647
10	0x3f17712e	0.59157073
11	0x3f185bdf	0.59515184
12	0x3f17e86a	0.5933901
13	0x3f101cad	0.56293756
14	0x3f1b2c24	0.6061423
15	0x3f21b8a3	0.6317236
16	0x3f1dfc6c	0.6171329
17	0x3f1aacc0	0.60419846
18	0x3f170cce	0.59003913
19	0x3f142db0	0.57882214
20	0x3f1e6928	0.61879206
21	0x3f1a2086	0.60205877
22	0x3f15df34	0.58543706
23	0x3f1c8a16	0.611482
24	0x3f1ab554	0.60432935
25	0x3f1bbb84	0.60833
26	0x3f1dffd4	0.6171849
27	0x3f1e5eb7	0.61863273
28	0x3f1b7df8	0.6073909
29	0x3f1ec46e	0.6201848
30	0x3f12f3ad	0.5740307
31	0x3f19b650	0.6004381
32	0x3f1d585e	0.6146296
33	0x3f20a5f8	0.6275325
34	0x3f202ead	0.6257122
35	0x3f2345d8	0.6377845
36	0x3f1a451b	0.60261697
37	0x3f201870	0.6253729
38	0x3f1cd22c	0.61258197
39	0x3f199b39	0.60002476
40	0x3f19b743	0.6004526
41	0x3f1e885b	0.6192681
42	0x3f1e6fcd	0.61889344
43	0x3f2390fa	0.6389309
44	0x3f186af5	0.59538203
45	0x3f15d5ac	0.5852916
46	0x3f24f99a	0.6444336
47	0x3f1b1d3c	0.60591483
48	0x3f1e3e76	0.6181406
49	0x3f223e00	0.63375854
50	0x3f1d4f0a	0.6144873
51	0x3f22b737	0.63560814
52	0x3f0c406c	0.547858
53	0x3f19989c	0.5999849

data_bn.bias f4 [54]
0	0x26a9d2f4	1.178391e-15
1	0x1ba81a7a	2.7810379e-22
2	0x9e4b4279	-1.0760477e-20
3	0x23a3d01c	1.7760633e-17
4	0x8000057f	-1.972e-42
5	0x98e54d16	-5.927295e-24
6	0xa1571895	-7.287737e-19
7	0x1e4c8758	1.08276585e-20
8	0x9b8b1e6c	-2.301528e-22
9	0xafcdaa8d	-3.7410466e-10
10	0xb0df6212	-1.6253259e-09
11	0x30e0249e	1.6308552e-09
12	0xb4f96625	-4.6454184e-07
13	0xad2640e1	-9.4504135e-12
14	0xa8de8d08	-2.4708114e-14
15	0x209244c3	2.4778865e-19
16	0x9cb3df54	-1.1902955e-21
17	0x9d59c610	-2.8822107e-21
18	0x225f3a7d	3.02531e-18
19	0xb134163f	-2.6206093e-09
20	0x33ff31a1	1.188339e-07
21	0x29e7bb5a	1.0290961e-13
22	0x2d4c60cc	1.1617551e-11
23	0xa67afdef	-8.708032e-16
24	0x2c3cbcfa	2.682131e-12
25	0x2e8e2ee8	6.4657446e-11
26	0xaabb33c6	-3.3253798e-13
27	0xa61bc952	-5.404927e-16
28	0x25a1806c	2.801607e-16
29	0xb394610f	-6.909442e-08
30	0x2f45853d	1.7964381e-10
31	0xb187c914	-3.951877e-09
32	0x2518521f	1.3211722e-16
33	0xad006ce9	-7.3001405e-12
34	0x2db45001	2.049916e-11
35	0x2958182e	4.7982607e-14
36	0xa2f1c89b	-6.553558e-18
37	0xb5b7d54d	-1.3696641e-06
38	0xb384aa13	-6.177665e-08
39	0xb085d8e3	-9.738667e-10
40	0xb17c72a0	-3.6735983e-09
41	0x30113497	5.282543e-10
42	0x2d0ce194	8.008167e-12
43	0xaf8e27be	-2.5857888e-10
44	0x30c81d62	1.4560266e-09
45	0xa88857f4	-1.5137177e-14
46	0xb2ef9e6e	-2.7895307e-08
47	0xb2578377	-1.2544539e-08
48	0xa88ee979	-1.586642e-14
49	0x291ac957	3.4369504e-14
50	0xb40f7024	-1.335871e-07
51	0xa8521a4f	-1.16630465e-14
52	0xaac44edc	-3.4871314e-13
53	0x29dc1977	9.77438e-14

data_bn.running_mean f4 [54]
0	0xbd852c88	-0.06502634
1	0xbdb4fa00	-0.08836746
2	0x3e9878a6	0.29779547
3	0xbd82644a	-0.06366785
4	0xbd6c192f	-0.057641204
5	0x3e8e876d	0.27837697
6	0xbda9eb2c	-0.082968086
7	0xbd817630	-0.063213706
8	0x3e7e4a69	0.24833073
9	0xbdcd9e68	-0.10039979
10	0xbd3b7f20	-0.045775533
11	0x3e88c5e0	0.26713467
12	0xbdca874d	-0.09889088
13	0xbd5bf487	-0.053699996
14	0x3e83409b	0.25635228
15	0xbd358248	-0.0443137
16	0xbd53e579	-0.051732514
17	0x3e863288	0.26210427
18	0xbd14e612	-0.036352225
19	0xbce5da65	-0.02805824
20	0x3e6dc378	0.23219097
21	0xbd181a96	-0.03713473
22	0xbcf72100	-0.030167103
23	0x3e60bfca	0.21948162
24	0xbdacdc66	-0.08440475
25	0x3c16090f	0.009157433
26	0x3e594be6	0.21220359
27	0xbdce4a81	-0.10072804
28	0x3c72d947	0.014822311
29	0x3e7448dd	0.2385592
30	0xbdb26ad1	-0.0871178
31	0x3d47c098	0.048767656
32	0x3e5647dc	0.2092585
33	0xbd7970fd	-0.06089877
34	0x3c7c664f	0.015405252
35	0x3e5b4f43	0.21416955
36	0xbd4ccc6c	-0.04999964
37	0x3ce07591	0.02739981
38	0x3e624830	0.2209785
39	0xbd8c2b3d	-0.068441845
40	0x3d6035b2	0.054738708
41	0x3e44198e	0.19150373
42	0xbd8b7e1e	-0.06811164
43	0xbdc50a77	-0.09621137
44	0x3e8ee6ed	0.27910557
45	0xbd6b22c4	-0.057406202
46	0xbdbf5802	-0.09342958
47	0x3e99b43f	0.3002033
48	0xbd87b488	-0.066262305
49	0xbd589847	-0.052879598
50	0x3de860d7	0.11346596
51	0xbd4521a2	-0.048127778
52	0xbda41b2a	-0.08012994
53	0x3e6cd121	0.23126651

data_bn.running_var f4 [54]
0	0x3b64b86b	0.003489996
1	0x3ba370e6	0.004987824
2	0x3d8cf825	0.06883267
3	0x3b477834	0.0030436637
4	0x3b9b3dc8	0.0047375895
5	0x3d79c5d6	0.060979687
6	0x3b6dc01a	0.0036277832
7	0x3b95a6c8	0.004567001
8	0x3d56c676	0.05243536
9	0x3b9aa452	0.0047192955
10	0x3ba2b4f3	0.0049654185
11	0x3d5d861e	0.054082982
12	0x3bb95ba9	0.0056566787
13	0x3bc1c11a	0.005912912
14	0x3d5a6518	0.053319067
15	0x3b4712f7	0.0030376294
16	0x3ba379c2	0.00498888
17	0x3d5b9bd7	0.053615417
18	0x3b57bce7	0.003291899
19	0x3bdcf01a	0.0067424895
20	0x3d4b022d	0.04956262
21	0x3b6afa7f	0.0035854874
22	0x3c0c8201	0.008575917
23	0x3d3fca1e	0.046823613
24	0x3b73a8db	0.0037179503
25	0x3c13fbdf	0.009032219
26	0x3d1a2a5d	0.037638057
27	0x3ba8d835	0.005152727
28	0x3c32de20	0.010917217
29	0x3d508dca	0.05091647
30	0x3ba0c543	0.004906328
31	0x3c807df8	0.015685067
32	0x3d4184b3	0.047245692
33	0x3b453ce7	0.0030096115
34	0x3c2800a9	0.010254064
35	0x3d1b2513	0.037877154
36	0x3b531395	0.0032207717
37	0x3c5fa22c	0.013649505
38	0x3d3af4a5	0.045643467
39	0x3b70a91f	0.0036721898
40	0x3c9481aa	0.018128235
41	0x3d2eea6d	0.042704035
42	0x3b666062	0.0035152663
43	0x3ba7fbed	0.0051264674
44	0x3d9526c2	0.07282783
45	0x3b606034	0.003423703
46	0x3ba6220d	0.005069977
47	0x3d90ddb3	0.07073536
48	0x3b5ae43a	0.0033400194
49	0x3bd6da65	0.0065567964
50	0x3d3d201d	0.046173204
51	0x3b45bf42	0.0030173813
52	0x3babe1a9	0.0052454066
53	0x3d5a17c6	0.05324533

fai_gcn_networks.0.gcn.conv.weight f4 [96, 3, 1, 1]
0	0x00009730	5.4236e-41
1	0x000601a1	5.51597e-40
2	0x80031eb4	-2.8652e-40
3	0x02b2a064	2.624681e-37
4	0x05f79ff2	2.3286523e-35
5	0x06980b55	5.7192696e-35
6	0x00000023	4.9e-44
7	0x80000023	-4.9e-44
8	0x80000023	-4.9e-44
9	0x065130b9	3.9344327e-35
10	0x052cc541	8.123631e-36
11	0x05b4958d	1.6982055e-35
12	0x00000023	4.9e-44
13	0x00000008	1.1e-44
14	0x80000184	-5.44e-43
15	0x0016da26	2.098638e-39
16	0x8018e9e4	-2.287956e-39
17	0x000447c6	3.9309e-40
18	0x80000016	-3.1e-44
19	0x80000004	-6e-45
20	0x0000004a	1.04e-43
21	0x00000029	5.7e-44
22	0x00000023	4.9e-44
23	0x80000029	-5.7e-44
24	0x02924561	2.1492593e-37
25	0x82322cb7	-1.3090207e-37
26	0x02a3b7af	2.4056127e-37
27	0x8201ddba	-9.541056e-38
28	0x831afaca	-4.5544424e-37
29	0x0859905c	6.5470756e-34
30	0x04d6c4c9	5.0491877e-36
31	0x03d6bdb7	1.2621346e-36
32	0x0488b133	3.2136178e-36
33	0x8003c3ac	-3.457e-40
34	0x80006fa3	-4.0048e-41
35	0x8000562e	-3.0915e-41
36	0x118cd1aa	2.221732e-28
37	0x11c53be1	3.1118023e-28
38	0x1077a3e7	4.8838427e-29
39	0x000000f3	3.4e-43
40	0x00000073	1.61e-43
41	0x80000047	-1e-43
42	0x1b7dbf28	2.0989435e-22
43	0x0cc12e33	2.9764163e-31
44	0x0cfe41dc	3.9174534e-31
45	0x80000027	-5.5e-44
46	0x80000019	-3.5e-44
47	0x80000026	-5.3e-44
48	0x80014616	-1.16978e-40
49	0x8000b9b2	-6.6615e-41
50	0x8000470b	-2.5485e-41
51	0x8001dbfa	-1.70748e-40
52	0x800925f7	-8.40139e-40
53	0x00024fd9	2.12315e-40
54	0x00000005	7e-45
55	0x00000021	4.6e-44
56	0x00000018	3.4e-44
57	0x00211c74	3.040778e-39
58	0x000e6742	1.322739e-39
59	0x8093ba51	-1.3566656e-38
60	0x8436e90c	-2.1501007e-36
61	0x04dc8310	5.1842113e-36
62	0x84e3a621	-5.352001e-36
63	0x80000019	-3.5e-44
64	0x0000001e	4.2e-44
65	0x80000023	-4.9e-44
66	0x04006725	1.509369e-36
67	0x85161028	-7.0559335e-36
68	0x0461d38f	2.6545766e-36
69	0x80000092	-2.05e-43
70	0x8000004f	-1.11e-43
71	0x000000a1	2.26e-43
72	0x8248eb74	-1.4761251e-37
73	0x82259dc7	-1.2167565e-37
74	0x81392445	-3.4005156e-38
75	0x8840ed21	-5.805664e-34
76	0x80100677	-1.471687e-39
77	0x80016e22	-1.31344e-40
78	0x80440165	-6.245314e-39
79	0x801a7570	-2.429852e-39
80	0x000a5209	9.47784e-40
81	0x80000026	-5.3e-44
82	0x00000023	4.9e-44
83	0x00000009	1.3e-44
84	0x800001ca	-6.42e-43
85	0x80000319	-1.111e-42
86	0x800004ae	-1.679e-42
87	0x017e928d	4.6757577e-38
88	0x842c2f0e	-2.024011e-36
89	0x07638f54	1.7119702e-34
90	0x8004db52	-4.46019e-40
91	0x000b78a4	1.053468e-39
92	0x80003115	-1.7607e-41
93	0x0ae2db02	2.184539e-32
94	0x0cc28b36	2.9974217e-31
95	0x0a307ef9	8.497973e-33
96	0x800231f0	-2.01585e-40
97	0x000ad2e8	9.94014e-40
98	0x8000730d	-4.1272e-41
99	0x0363562a	6.6808216e-37
100	0x068999f8	5.175991e-35
101	0x04cf89e0	4.8792084e-36
102	0x80000023	-4.9e-44
103	0x00000019	3.5e-44
104	0x00000023	4.9e-44
105	0x84187bf5	-1.7924432e-36
106	0x845dbada	-2.6064223e-36
107	0x86b9ae23	-6.9845136e-35
108	0x80000024	-5e-44
109	0x00000079	1.7e-43
110	0x00000023	4.9e-44
111	0x0000c930	7.2172e-41
112	0x0002ded2	2.63604e-40
113	0x000538a8	4.79502e-40
114	0x00000023	4.9e-44
115	0x80000048	-1.01e-43
116	0x800001a7	-5.93e-43
117	0x8000002c	-6.2e-44
118	0x00000025	5.2e-44
119	0x00000026	5.3e-44
120	0x0280aeb1	1.8908178e-37
121	0x8598cc88	-1.4369144e-35
122	0x03c1c02d	1.1387642e-36
123	0x01828544	4.7945685e-38
124	0x814adea8	-3.7261288e-38
125	0x032c69c9	5.0667692e-37
126	0x044159e2	2.2728313e-36
127	0x0629c0ed	3.1927107e-35
128	0x052d416a	8.1464356e-36
129	0x00012342	1.04484e-40
130	0x0006a0c7	6.08689e-40
131	0x804ec333	-7.233193e-39
132	0x11557757	1.6839512e-28
133	0x13069181	1.6984917e-27
134	0x131007d5	1.8179217e-27
135	0x0000012a	4.18e-43
136	0x000000bf	2.68e-43
137	0x800002f7	-1.064e-42
138	0x0d58017f	6.656194e-31
139	0x0c3a23e2	1.4339717e-31
140	0x8c2dad72	-1.337963e-31
141	0x00000023	4.9e-44
142	0x0000002a	5.9e-44
143	0x80000024	-5e-44
144	0x000163d6	1.2765e-40
145	0x0043f803	6.241948e-39
146	0x003ad28c	5.401989e-39
147	0x801c4221	-2.595116e-39
148	0x81a59711	-6.0828197e-38
149	0x82523ca6	-1.5445769e-37
150	0x00000012	2.5e-44
151	0x80000023	-4.9e-44
152	0x8000002a	-5.9e-44
153	0x81b353f2	-6.587467e-38
154	0x01a51ab0	6.064972e-38
155	0x842358c3	-1.9201315e-36
156	0x059f6c05	1.4991968e-35
157	0x066f18d4	4.4969145e-35
158	0x0404b309	1.5598734e-36
159	0x80000023	-4.9e-44
160	0x80000027	-5.5e-44
161	0x0000004d	1.08e-43
162	0x83a0b1a9	-9.444744e-37
163	0x855034ec	-9.789833e-36
164	0x85052315	-6.2600735e-36
165	0x00000018	3.4e-44
166	0x00000c30	4.372e-42
167	0x00000395	1.285e-42
168	0x0002eee4	2.69369e-40
169	0x8225965b	-1.2165435e-37
170	0x029a2643	2.2650227e-37
171	0x00014e3b	1.199e-40
172	0x800073a1	-4.148e-41
173	0x8004f86f	-4.56463e-40
174	0x005e08ee	8.63574e-39
175	0x801065e5	-1.505921e-39
176	0x0006dc8f	6.30134e-40
177	0x80000023	-4.9e-44
178	0x80000023	-4.9e-44
179	0x00000025	5.2e-44
180	0x000000c9	2.82e-43
181	0x000007dd	2.821e-42
182	0x000003b7	1.333e-42
183	0x0383e2fa	7.751599e-37
184	0x046a72ba	2.7559248e-36
185	0x05d13041	1.9671991e-35
186	0x005efa73	8.722381e-39
187	0x0227ba63	1.2322713e-37
188	0x0096905d	1.3827112e-38
189	0x8b5d0357	-4.2565564e-32
190	0x0cb8ea3d	2.8490666e-31
191	0x8b9d274c	-6.053333e-32
192	0x00000dcd	4.951e-42
193	0x00000261	8.53e-43
194	0x800000f0	-3.36e-43
195	0x830a66cc	-4.067256e-37
196	0x034c102d	5.996878e-37
197	0x81e90c46	-8.5608294e-38
198	0x80000025	-5.2e-44
199	0x00000024	5e-44
200	0x00000023	4.9e-44
201	0x82d658e9	-3.1495506e-37
202	0x847c334d	-2.9646014e-36
203	0x00757838	1.078788e-38
204	0x0000000d	1.8e-44
205	0x00000023	4.9e-44
206	0x00000023	4.9e-44
207	0x000065f8	3.658e-41
208	0x80005026	-2.8752e-41
209	0x00003c16	2.1555e-41
210	0x80000023	-4.9e-44
211	0x0000002a	5.9e-44
212	0x80000022	-4.8e-44
213	0x80000028	-5.6e-44
214	0x80000023	-4.9e-44
215	0x00000024	5e-44
216	0x80134e98	-1.773069e-39
217	0x805c5151	-8.478036e-39
218	0x8000088f	-3.07e-42
219	0x8190dbab	-5.3212454e-38
220	0x0218939f	1.1209562e-37
221	0x020dcf96	1.0418618e-37
222	0x03622757	6.646059e-37
223	0x05de17f5	2.088558e-35
224	0x8453ce4a	-2.4897654e-36
225	0x800440d9	-3.90605e-40
226	0x80094d26	-8.54195e-40
227	0x00003e9b	2.2459e-41
228	0x1183bf24	2.0785955e-28
229	0x0fe96435	2.3014172e-29
230	0x0e398ba1	2.287024e-30
231	0x00000005	7e-45
232	0x00000005	7e-45
233	0x80000023	-4.9e-44
234	0x0c998dfc	2.3658836e-31
235	0x8b827041	-5.024308e-32
236	0x8c1c8241	-1.2057e-31
237	0x00000023	4.9e-44
238	0x8000002a	-5.9e-44
239	0x8000002c	-6.2e-44
240	0x00007074	4.034e-41
241	0x0001f1ab	1.7853e-40
242	0x0005fee4	5.50615e-40
243	0x80093884	-8.46793e-40
244	0x8008a796	-7.94802e-40
245	0x8005b6bf	-5.24734e-40
246	0x8000005b	-1.28e-43
247	0x80000024	-5e-44
248	0x80000072	-1.6e-43
249	0x00615c90	8.941248e-39
250	0x006814d6	9.558366e-39
251	0x0013b73e	1.81061e-39
252	0x8461a9f5	-2.6526663e-36
253	0x858cbab7	-1.3234125e-35
254	0x03423bbd	5.708005e-37
255	0x00000029	5.7e-44

fai_gcn_networks.0.gcn.conv.bias f4 [96]
0	0x0856aea9	6.4603595e-34
1	0x0fa97134	1.6708291e-29
2	0x8000006c	-1.51e-43
3	0x0bfc7f1f	9.725814e-32
4	0x80581e92	-8.09249e-39
5	0x08d64947	1.2896884e-33
6	0x0007f43b	7.30462e-40
7	0x8000002c	-6.2e-44
8	0x0ff7bd8f	2.4429096e-29
9	0x8467162d	-2.7164102e-36
10	0x8d0758df	-4.170706e-31
11	0x09b921d5	4.4568945e-33
12	0x1ed18fd2	2.2188218e-20
13	0x8012944e	-1.70624e-39
14	0x0d7ed561	7.852664e-31
15	0x00002cab	1.6024e-41
16	0x899ed194	-3.8234203e-33
17	0x8a847008	-1.2753279e-32
18	0x00009845	5.4624e-41
19	0x8e23eb38	-2.0204555e-30
20	0x8dab913a	-1.0573651e-30
21	0x00000012	2.5e-44
22	0x90b8f69a	-7.2955153e-29
23	0x81032e8b	-2.4094293e-38
24	0x8db99bb6	-1.1438991e-30
25	0x0021b31b	3.094822e-39
26	0x0a51e233	1.0105527e-32
27	0x8000457e	-2.4929e-41
28	0x040a79e4	1.6277791e-36
29	0x85b49361	-1.6981257e-35
30	0x0acfa907	1.9996956e-32
31	0x145972a1	1.0978307e-26
32	0x86f59d56	-9.238994e-35
33	0x0fc98368	1.9870746e-29
34	0x0000002c	6.2e-44
35	0x0fb8484c	1.8171649e-29
36	0x022254af	1.1926183e-37
37	0x88f2bf53	-1.4609825e-33
38	0x80123234	-1.671048e-39
39	0x80000024	-5e-44
40	0x0eeee92b	5.8896062e-30
41	0x0433321c	2.1064358e-36
42	0x1157ef10	1.7034176e-28
43	0x099a1c1c	3.7100585e-33
44	0x9eef641b	-2.5346512e-20
45	0x800b7a0c	-1.053973e-39
46	0x0deea4cc	1.4707556e-30
47	0x8000a998	-6.0839e-41
48	0x8916556d	-1.809576e-33
49	0x0b87d98e	5.232745e-32
50	0x000580f5	5.05439e-40
51	0x0f1a816f	7.617714e-30
52	0x8ff4d94e	-2.414396e-29
53	0x00000028	5.6e-44
54	0x91a09862	-2.5337462e-28
55	0x0075ecb1	1.0829662e-38
56	0x8cad9d82	-2.6749667e-31
57	0x00148c45	1.887029e-39
58	0x8aaa450a	-1.6396374e-32
59	0x80000caf	-4.55e-42
60	0x018501ea	4.885923e-38
61	0x06c030f6	7.2294315e-35
62	0x8b1f7014	-3.0706604e-32
63	0x967d0510	-2.0438775e-25
64	0x07ca2740	3.041665e-34
65	0x8e82b89d	-3.222525e-30
66	0x8000003c	-8.4e-44
67	0x90181440	-2.9992314e-29
68	0x014eddf0	3.7995457e-38
69	0x8951270d	-2.5175821e-33
70	0x801346ac	-1.770227e-39
71	0x80000018	-3.4e-44
72	0x8e94111d	-3.6501296e-30
73	0x04960d85	3.5277246e-36
74	0x8ebed1a6	-4.70405e-30
75	0x88fc2d7e	-1.51773935e-33
76	0x9d2ebfda	-2.3127893e-21
77	0x80098f1d	-8.77859e-40
78	0x8e2a1b62	-2.0967302e-30
79	0x0000323d	1.8022e-41
80	0x0a018310	6.235774e-33
81	0x06c63c16	7.456761e-35
82	0x00008787	4.8618e-41
83	0x8e24d5f2	-2.0317572e-30
84	0x1004b9ec	2.617564e-29
85	0x80000001	-1e-45
86	0x11ebc402	3.7197262e-28
87	0x008c6370	1.2892641e-38
88	0x8c0e8d62	-1.0981828e-31
89	0x002e526f	4.254004e-39
90	0x09edb41e	5.7225056e-33
91	0x80002114	-1.1866e-41
92	0x8306b013	-3.9581184e-37
93	0x06bea13c	7.170697e-35
94	0x0a928f6e	1.4113241e-32
95	0x9633c458	-1.452146e-25

fai_gcn_networks.1.gcn.conv.weight f4 [192, 32, 1, 1]
0	0x00000029	5.7e-44
1	0x80000024	-5e-44
2	0x00000024	5e-44
3	0x00000029	5.7e-44
4	0x00000023	4.9e-44
5	0x80000019	-3.5e-44
6	0x00000027	5.5e-44
7	0x00000023	4.9e-44
8	0x00000024	5e-44
9	0x00000023	4.9e-44
10	0x00000028	5.6e-44
11	0x80000025	-5.2e-44
12	0x00000023	4.9e-44
13	0x00000023	4.9e-44
14	0x00000026	5.3e-44
15	0x00000025	5.2e-44
16	0x00000024	5e-44
17	0x80000055	-1.19e-43
18	0x00000029	5.7e-44
19	0x80000027	-5.5e-44
20	0x80000063	-1.39e-43
21	0x00000023	4.9e-44
22	0x00000023	4.9e-44
23	0x00000024	5e-44
24	0x00000026	5.3e-44
25	0x00000023	4.9e-44
26	0x80000025	-5.2e-44
27	0x80000023	-4.9e-44
28	0x00000023	4.9e-44
29	0x80000015	-3e-44
30	0x80000023	-4.9e-44
31	0x00000024	5e-44
32	0x80000024	-5e-44
33	0xb209e738	-8.027023e-09
34	0x80000023	-4.9e-44
35	0x80000023	-4.9e-44
36	0x80000023	-4.9e-44
37	0x00000023	4.9e-44
38	0x00000023	4.9e-44
39	0x884f3509	-6.235414e-34
40	0x00000023	4.9e-44
41	0x80000023	-4.9e-44
42	0x80000026	-5.3e-44
43	0x00000024	5e-44
44	0x00000125	4.1e-43
45	0x800005d9	-2.098e-42
46	0x00000026	5.3e-44
47	0x0000002c	6.2e-44
48	0x8a0e68cc	-6.8567614e-33
49	0x0000002b	6e-44
50	0x00000027	5.5e-44
51	0x000000c7	2.79e-43
52	0x00000023	4.9e-44
53	0x00000023	4.9e-44
54	0x00000026	5.3e-44
55	0x00000023	4.9e-44
56	0x80000026	-5.3e-44
57	0x00000023	4.9e-44
58	0x00000019	3.5e-44
59	0x80000023	-4.9e-44
60	0x80000023	-4.9e-44
61	0x80000023	-4.9e-44
62	0x80000023	-4.9e-44
63	0x80000023	-4.9e-44
64	0x8000002a	-5.9e-44
65	0x00000023	4.9e-44
66	0x00000023	4.9e-44
67	0x80000026	-5.3e-44
68	0x8bfe3c89	-9.7928324e-32
69	0x80000023	-4.9e-44
70	0x00000025	5.2e-44
71	0x80000023	-4.9e-44
72	0x00000023	4.9e-44
73	0x00000026	5.3e-44
74	0x00000029	5.7e-44
75	0x00000019	3.5e-44
76	0x000002de	1.029e-42
77	0x80000023	-4.9e-44
78	0x0000005d	1.3e-43
79	0x80000024	-5e-44
80	0x00000024	5e-44
81	0x00000027	5.5e-44
82	0x00000019	3.5e-44
83	0x80000025	-5.2e-44
84	0x00000023	4.9e-44
85	0x0000002a	5.9e-44
86	0x00000023	4.9e-44
87	0x00000007	1e-44
88	0x00000023	4.9e-44
89	0x00000023	4.9e-44
90	0x00000024	5e-44
91	0x80000023	-4.9e-44
92	0x80000029	-5.7e-44
93	0x8000002a	-5.9e-44
94	0x80000025	-5.2e-44
95	0x80000023	-4.9e-44
96	0x00000295	9.26e-43
97	0x8021515a	-3.059755e-39
98	0x80000024	-5e-44
99	0x81ba8772	-6.8519964e-38
100	0x80000024	-5e-44
101	0x800044c3	-2.4667e-41
102	0x80000023	-4.9e-44
103	0x80000023	-4.9e-44
104	0x00013510	1.10871e-40
105	0x00001f04	1.1126e-41
106	0x8186178d	-4.925762e-38
107	0x80012308	-1.04402e-40
108	0x0f813449	1.2740522e-29
109	0x00000023	4.9e-44
110	0x0b18585e	2.9340615e-32
111	0x80000023	-4.9e-44
112	0x00006385	3.5701e-41
113	0x000289c9	2.33099e-40
114	0x00000027	5.5e-44
115	0x801052df	-1.499096e-39
116	0x81903dc7	-5.298589e-38
117	0x00000023	4.9e-44
118	0x0208000a	9.991713e-38
119	0x8000002a	-5.9e-44
120	0x800b9ddd	-1.066821e-39
121	0x000199bc	1.46985e-40
122	0x800fefaf	-1.463515e-39
123	0x80000023	-4.9e-44
124	0x80000023	-4.9e-44
125	0x0000536c	2.9926e-41
126	0x0002a186	2.41615e-40
127	0x05931639	1.3831977e-35
128	0x00000023	4.9e-44
129	0x80000023	-4.9e-44
130	0x80000023	-4.9e-44
131	0x80000023	-4.9e-44
132	0x00000023	4.9e-44
133	0x80000029	-5.7e-44
134	0x80000023	-4.9e-44
135	0x80000023	-4.9e-44
136	0x00000023	4.9e-44
137	0x80000023	-4.9e-44
138	0x80000023	-4.9e-44
139	0x80000023	-4.9e-44
140	0x00009eef	5.7015e-41
141	0x00000023	4.9e-44
142	0x0000002f	6.6e-44
143	0x0000002b	6e-44
144	0x00000027	5.5e-44
145	0x00000025	5.2e-44
146	0x00000023	4.9e-44
147	0x80000023	-4.9e-44
148	0x00000024	5e-44
149	0x00000023	4.9e-44
150	0x8000002c	-6.2e-44
151	0x00000023	4.9e-44
152	0x00000027	5.5e-44
153	0x8000002c	-6.2e-44
154	0x00000026	5.3e-44
155	0x00000023	4.9e-44
156	0x00000023	4.9e-44
157	0x80000023	-4.9e-44
158	0x00000023	4.9e-44
159	0x976c1158	-7.6277604e-25
160	0x013fde93	3.524085e-38
161	0x89094fc9	-1.652829e-33
162	0x80000023	-4.9e-44
163	0x8a1a2c58	-7.4231704e-33
164	0x80001b91	-9.889e-42
165	0x02d939bf	3.191843e-37
166	0x80000232	-7.88e-43
167	0x00000024	5e-44
168	0x0a080adb	6.5502035e-33
169	0x002537ab	3.417883e-39
170	0x0ab396fc	1.7293867e-32
171	0x847b6f4a	-2.955601e-36
172	0x98739ca3	-3.1486095e-24
173	0x00000028	5.6e-44
174	0x13ae4068	4.3987285e-27
175	0x00000010	2.2e-44
176	0x02f6ffb7	3.6293224e-37
177	0x039b6901	9.134189e-37
178	0x000000d6	3e-43
179	0x8718553e	-1.146026e-34
180	0x8a925e0f	-1.409467e-32
181	0x00000023	4.9e-44
182	0x8a39cf06	-8.946363e-33
183	0x83fbb106	-1.4793097e-36
184	0x08050572	4.0029633e-34
185	0x0520d0a7	7.561487e-36
186	0x04d6735a	5.0417092e-36
187	0x00000023	4.9e-44
188	0x8002a7c3	-2.43853e-40
189	0x8279262a	-1.8304583e-37
190	0x8531c786	-8.359147e-36
191	0x0f3dc250	9.355843e-30
192	0x000004d1	1.728e-42
193	0x002703b7	3.582917e-39
194	0x00000023	4.9e-44
195	0x004a5fc0	6.830175e-39
196	0x00000006	8e-45
197	0x00000bef	4.281e-42
198	0x00000023	4.9e-44
199	0x0000002a	5.9e-44
200	0x00044317	3.91409e-40
201	0x0000078b	2.706e-42
202	0x80e26304	-2.0790342e-38
203	0x8001bad4	-1.58857e-40
204	0x8e0d8820	-1.7445134e-30
205	0x80000023	-4.9e-44
206	0x0a925675	1.409181e-32
207	0x000000c2	2.72e-43
208	0x80004e1a	-2.8018e-41
209	0x8000b44c	-6.4678e-41
210	0x00000023	4.9e-44
211	0x0000992b	5.4946e-41
212	0x013f034f	3.5083533e-38
213	0x80000024	-5e-44
214	0x8050767b	-7.389342e-39
215	0x8000002c	-6.2e-44
216	0x000e06e6	1.288172e-39
217	0x00001e05	1.0769e-41
218	0x0002f55a	2.71687e-40
219	0x80000023	-4.9e-44
220	0x80000024	-5e-44
221	0x80000b5c	-4.075e-42
222	0x801bb77a	-2.545377e-39
223	0x05daca26	2.0574879e-35
224	0x8003f247	-3.62419e-40
225	0x884dfb39	-6.1985254e-34
226	0x00000029	5.7e-44
227	0x88a86090	-1.0133834e-33
228	0x800050d1	-2.8991e-41
229	0x82a2ead0	-2.3938536e-37
230	0x000000fd	3.55e-43
231	0x00000079	1.7e-43
232	0x07a94341	2.5467822e-34
233	0x00d98a94	1.9978015e-38
234	0x0a306d03	8.4945946e-33
235	0x830adcb2	-4.08079e-37
236	0x17633cab	7.342423e-25
237	0x00000002	3e-45
238	0x12a65764	1.0497616e-27
239	0x00000010	2.2e-44
240	0x0174a00e	4.4930556e-38
241	0x04a7d78b	3.9459456e-36
242	0x80000023	-4.9e-44
243	0x0628de02	3.1760394e-35
244	0x882c3f03	-5.1833437e-34
245	0x00000023	4.9e-44
246	0x890bb747	-1.6817693e-33
247	0x800004f3	-1.775e-42
248	0x8585d831	-1.2586676e-35
249	0x020a030c	1.0139513e-37
250	0x846f02b2	-2.8095553e-36
251	0x00000023	4.9e-44
252	0x80038b98	-3.25583e-40
253	0x00ad1f07	1.5898671e-38
254	0x03ece5af	1.3923566e-36
255	0x8c99bffa	-2.3688924e-31

fai_gcn_networks.1.gcn.conv.bias f4 [192]
0	0x971cbe66	-5.0646635e-25
1	0x9a719053	-4.9954216e-23
2	0x9b64b3e4	-1.8917844e-22
3	0x303452a1	6.560104e-10
4	0x9d5a3d2c	-2.8883685e-21
5	0x3957c0a6	0.00020575765
6	0x2f201957	1.4560918e-10
7	0x3899ced4	7.334133e-05
8	0x973664b4	-5.8934477e-25
9	0x98002d07	-1.6566345e-24
10	0x194e95fe	1.0680241e-23
11	0x3852f531	5.0296254e-05
12	0x977529a8	-7.9216347e-25
13	0x25dc5936	3.8224368e-16
14	0x3761d9ec	1.3461784e-05
15	0x99880ada	-1.4066453e-23
16	0x16564e0f	1.7311413e-25
17	0x19636960	1.1756905e-23
18	0x398b0c4b	0.00026521305
19	0x99fdd636	-2.6246106e-23
20	0x1a0e398e	2.9411404e-23
21	0x391411bf	0.00014120991
22	0x3593718c	1.09854e-06
23	0x97e7decf	-1.498427e-24
24	0x36cee9d1	6.166498e-06
25	0x99805fde	-1.327361e-23
26	0x1a01d583	2.6849048e-23
27	0x142c4a65	8.6984526e-27
28	0x96eb7ab0	-3.8043724e-25
29	0x1719eb54	4.973399e-25
30	0x15f643a8	9.946535e-26
31	0x1607f0a1	1.0981142e-25
32	0x1952d2bd	1.0899304e-23
33	0x9d1797e6	-2.0063213e-21
34	0x35cb9d78	1.5170508e-06
35	0x190c8b79	7.265997e-24
36	0x990bea1f	-7.233412e-24
37	0x2eb65344	8.291193e-11
38	0x968a54cf	-2.2348624e-25
39	0x1a627337	4.6828774e-23
40	0x3009d407	5.014162e-10
41	0x97cb9138	-1.3155226e-24
42	0x188e29fd	3.6748537e-24
43	0x98aba486	-4.436859e-24
44	0x37dea624	2.6541828e-05
45	0x31776159	3.5998566e-09
46	0x3476d5a4	2.2988257e-07
47	0x9a7b9f5c	-5.2034313e-23
48	0x35115ca3	5.4151513e-07
49	0x2a3adf5e	1.6597615e-13
50	0x97bda113	-1.22545e-24
51	0x303b6454	6.817278e-10
52	0x136ac58b	2.9632348e-27
53	0x9862a6f3	-2.9294103e-24
54	0x9a43c668	-4.0485326e-23
55	0x9a250739	-3.4127035e-23
56	0x97fbd8cf	-1.6275225e-24
57	0x2fa6d4d4	3.0346448e-10
58	0x327b8865	1.4641135e-08
59	0x9d6513d0	-3.031814e-21
60	0x359db29b	1.1749393e-06
61	0x1b004a2c	1.0611878e-22
62	0x981eb592	-2.051269e-24
63	0x1a7172d2	4.9930383e-23
64	0x9710f632	-4.683965e-25
65	0x9b10ca66	-1.1976799e-22
66	0x1a93b813	6.109516e-23
67	0x309e249f	1.1506421e-09
68	0x9cdf937a	-1.4795024e-21
69	0x39b2f20f	0.00034131153
70	0x2f8c300b	2.5499988e-10
71	0x39020e3c	0.00012403069
72	0x14ffbfc5	2.582406e-26
73	0x982ca6e2	-2.2314733e-24
74	0x9a3c2e14	-3.891471e-23
75	0x38b3de89	8.5768355e-05
76	0x99d9c017	-2.2514859e-23
77	0x2649d4f0	7.002447e-16
78	0x37c2af20	2.3208151e-05
79	0x99aa91d8	-1.7636494e-23
80	0x98764628	-3.1830175e-24
81	0x1820f57a	2.080345e-24
82	0x39e8b8c9	0.00044388164
83	0x9a3053a0	-3.64635e-23
84	0x1a149a1d	3.0730174e-23
85	0x397930ed	0.00023764717
86	0x35fe0194	1.8924934e-06
87	0x9837e79c	-2.3769128e-24
88	0x37300e8c	1.0493804e-05
89	0x98f69332	-6.373814e-24
90	0x9a1b35c7	-3.209669e-23
91	0x14b6b943	1.8450377e-26
92	0x96eb989f	-3.8062615e-25
93	0x16d03c24	3.3642166e-25
94	0x969f353a	-2.5721426e-25
95	0x9711e62f	-4.714256e-25
96	0x986da8c5	-3.0716739e-24
97	0x9d251d91	-2.1852854e-21
98	0x363090eb	2.6310397e-06
99	0x99973be3	-1.5637222e-23
100	0x9768edb8	-7.5263286e-25
101	0x2f1f52b1	1.4490344e-10
102	0x9707e2fd	-4.390735e-25
103	0x1ac27666	8.04278e-23
104	0x3071bed0	8.794645e-10
105	0x982e325b	-2.2514396e-24
106	0x192a6301	8.808788e-24
107	0x18ae1c43	4.5006483e-24
108	0x383c3ae8	4.4877554e-05
109	0x31c2ed02	5.6730878e-09
110	0x34d40590	3.9492124e-07
111	0x999dc199	-1.6311613e-23
112	0x357a668e	9.3281494e-07
113	0x2aa4fc0f	2.9307153e-13
114	0x9799b3c5	-9.932773e-25
115	0x30a4a541	1.1979538e-09
116	0x151faa2f	3.2244045e-26
117	0x9680e9db	-2.08271e-25
118	0x9a830127	-5.418219e-23
119	0x992ea85f	-9.0295914e-24
120	0x982389eb	-2.1136887e-24
121	0x3011e23e	5.30722e-10
122	0x32d97444	2.5314996e-08
123	0x9c990700	-1.01265e-21
124	0x360694f3	2.0054256e-06
125	0x9af1a105	-9.9935405e-23
126	0x98636f84	-2.9395363e-24
127	0x95de6c87	-8.983631e-26
128	0x97c7c282	-1.2909174e-24
129	0x1a6eb76a	4.9365407e-23
130	0x1c32403d	5.8978286e-22
131	0x2f2f30f8	1.5933554e-10
132	0x9adb2d58	-9.0649534e-23
133	0x3863952f	5.4259956e-05
134	0x2e1e3861	3.5975115e-11
135	0x379f7778	1.9009909e-05
136	0x97f9fa83	-1.6154486e-24
137	0x97aa0e56	-1.0989611e-24
138	0x1996219a	1.5523208e-23
139	0x375828e1	1.2884121e-05
140	0x9a052d19	-2.7540185e-23
141	0x25123a24	1.268318e-16
142	0x366586ca	3.4202117e-06
143	0x99eee5d2	-2.4701447e-23
144	0x1743d9fa	6.3283023e-25
145	0x992cdc6b	-8.936705e-24
146	0x388fcdf0	6.85713e-05
147	0x9a75d9ef	-5.0840858e-23
148	0x1aae2e44	7.203946e-23
149	0x3819792c	3.6590893e-05
150	0x34947ef4	2.765952e-07
151	0x984cbe13	-2.6462345e-24
152	0x35d50757	1.5871873e-06
153	0x19a0651e	1.6584453e-23
154	0x190c31db	7.2478986e-24
155	0x1411baa9	7.3574414e-27
156	0x189db816	4.076943e-24
157	0x16f58b69	3.9669865e-25
158	0x96357b8b	-1.4660047e-25
159	0x17481491	6.4649444e-25
160	0x189267bb	3.7844856e-24
161	0x1cf83aac	1.642643e-21
162	0x34cbf5b0	3.7990458e-07
163	0x9a504e0b	-4.3076434e-23
164	0x999d839a	-1.6286573e-23
165	0x2db62042	2.070533e-11
166	0x1553c786	4.2768507e-26
167	0x1a149689	3.0727284e-23
168	0x2f064a63	1.2213656e-10
169	0x96b9d0cf	-3.0020139e-25
170	0x9908f651	-7.0807784e-24
171	0x99014915	-6.6839025e-24
172	0x36e74a5a	6.892992e-06
173	0xb1d220aa	-6.115518e-09
174	0x3376b3da	5.7439912e-08
175	0x9ab1687c	-7.337429e-23
176	0x3411d358	1.3581064e-07
177	0x295509eb	4.7304103e-14
178	0x16e11a8b	3.6367461e-25
179	0x2f35d48e	1.6537369e-10
180	0x9235aa71	-5.7323615e-28
181	0x98f26434	-6.2656713e-24
182	0x17cea4ac	1.3354007e-24
183	0x1a33867f	3.7124977e-23
184	0x98ac0f59	-4.4476455e-24
185	0x2ea3b330	7.444212e-11
186	0x31767a3b	3.5867191e-09
187	0x9d1726c0	-2.0004717e-21
188	0x34a04052	2.9849122e-07
189	0x19034078	6.785561e-24
190	0x97c0f2bb	-1.2468983e-24
191	0x1b347635	1.4927446e-22

fai_gcn_networks.1.residual.0.weight f4 [64, 32, 1, 1]
0	0xbc7f773d	-0.015592393
1	0xbc4e3058	-0.012584768
2	0xbb3f9820	-0.002923496
3	0x3d165aa1	0.036707524
4	0x3d1eda92	0.038782664
5	0xbc36b8d2	-0.011152463
6	0x3cd6cc26	0.026220392
7	0x3d04c5bc	0.032415137
8	0xbca29a4e	-0.019848969
9	0xbc859c96	-0.016310018
10	0x3c1670c4	0.009182159
11	0x3d095dad	0.0335366
12	0x3b309054	0.0026941495
13	0xbc251450	-0.010075644
14	0x3cf462fc	0.029832356
15	0x3c86844e	0.01642051
16	0x3d17101d	0.0368806
17	0x3c6fca2f	0.014635607
18	0xbc6b31f0	-0.014355168
19	0x3cb4e6e2	0.02208275
20	0xbc5615a4	-0.013066683
21	0x3c14a1e2	0.009071799
22	0x3cc450d5	0.023964325
23	0xbc040d69	-0.008059838
24	0xbcb0dcaf	-0.021589605
25	0x3c9bd227	0.019021107
26	0xbc856f61	-0.016288461
27	0x3c940c0c	0.01807215
28	0x3b144b99	0.0022628068
29	0x3aa18621	0.0012323299
30	0xbbc05849	-0.0058698994
31	0x3c98c657	0.018649263
32	0x3cc6d901	0.024273397
33	0x3cbc88d2	0.02301446
34	0xbd306eb2	-0.043074317
35	0xbc8b64ae	-0.017015781
36	0x3b6eb50a	0.0036423826
37	0x3c47d9e4	0.012197945
38	0x3d010cfc	0.031506523
39	0x3cdd2749	0.026996272
40	0xbc4425c2	-0.011971893
41	0x3b74178a	0.0037245476
42	0xba5f7d2c	-0.0008525427
43	0xbc9fe60e	-0.019518878
44	0xbd2d836a	-0.042361654
45	0x3c8f5147	0.01749481
46	0xbcedb838	-0.029018506
47	0x3bbfac72	0.0058494145
48	0x3b39befc	0.0028342595
49	0xbb96c4c2	-0.004601092
50	0xbc33c2b5	-0.010971715
51	0xbce4bef0	-0.027923077
52	0x3cee65fb	0.029101362
53	0x3b90ad63	0.0044152006
54	0x3c6da85b	0.014505471
55	0xbd1937fd	-0.03740691
56	0xbc1debe8	-0.009638764
57	0x3c986dc6	0.018607032
58	0xbc2da25b	-0.010597791
59	0x3cdb844f	0.026796488
60	0xbccfc825	-0.025363991
61	0xbd25b23c	-0.04045318
62	0x3c36b418	0.011151336
63	0x3c130c53	0.008975106
64	0xba9538d2	-0.0011384732
65	0xbbb0324d	-0.00537709
66	0x3bb227ad	0.0054368586
67	0x3c8c179b	0.0171011
68	0x3c43c5fc	0.011949059
69	0xbc07f1ff	-0.008297442
70	0x3c675a0a	0.014120588
71	0xbbf424f4	-0.007450694
72	0xbc7dc68c	-0.015489232
73	0x3c7f64e1	0.015588016
74	0xbc16110c	-0.009159338
75	0xbca9f707	-0.020747675
76	0xbc2bcbaf	-0.010485574
77	0x3b5ea58a	0.003397318
78	0xbba81756	-0.005129735
79	0xbc9379c0	-0.01800239
80	0xbc98f82d	-0.018673027
81	0xbd264a8b	-0.040598433
82	0xbb9e9ab5	-0.00484022
83	0xbc9da1ba	-0.019242156
84	0xbcfa7630	-0.030573934
85	0xbce25f3b	-0.0276333
86	0x3c57c85c	0.013170328
87	0xbc9dd27d	-0.019265408
88	0xbc8b2d30	-0.01698932
89	0xbbe07a5b	-0.0068505234
90	0xbbb57789	-0.0055379313
91	0x3c3915eb	0.01129673
92	0x3ce61bf7	0.028089507
93	0x3cda68ca	0.026661295
94	0xbbbfca9c	-0.0058530103
95	0xbca0a131	-0.019608112
96	0xbc948ff9	-0.018135058
97	0xbb4d0001	-0.003128052
98	0xbbd7c279	-0.0065844622
99	0x3cd88237	0.026429279
100	0xbc86bf4c	-0.01644864
101	0xbc0463f6	-0.008080473
102	0xbd31c12a	-0.043397106
103	0xbce7ab98	-0.028280064
104	0x3c297b80	0.010344386
105	0x3d06ea14	0.032938078
106	0xbc492735	-0.012277414
107	0xbc7bf28a	-0.01537765
108	0xba9e0436	-0.0012055698
109	0xbc5b8d90	-0.01340045
110	0x3cb56260	0.022141635
111	0xbccaeaea	-0.024770219
112	0xbaef43f9	-0.001825451
113	0xbca59cf8	-0.02021645
114	0x3d042f77	0.03227183
115	0x3cd57a92	0.026059423
116	0xbb05d6ed	-0.0020422295
117	0xbbd331dc	-0.0064451527
118	0x3c4e0f52	0.012576895
119	0x3c51a0dc	0.0127946995
120	0xbcba18f3	-0.022716975
121	0x3ccd411d	0.025055462
122	0x3c949a76	0.018140059
123	0x3b0fd340	0.0021945983
124	0x3cb5e2c1	0.022202851
125	0x3cdcdb64	0.026960082
126	0x3ca0d4e7	0.01963277
127	0xbb57dcb9	-0.0032937957
128	0x3c6613bc	0.014042791
129	0x3befae54	0.0073144827
130	0xbca17eb0	-0.01971373
131	0x3c957ffe	0.018249508
132	0x3c34c267	0.011032677
133	0x3ca06167	0.019577695
134	0xbbb4ac47	-0.005513701
135	0x3c63cc5d	0.0139037045
136	0xbba1b909	-0.004935388
137	0x3a24e66d	0.00062904396
138	0x3d36d855	0.044639904
139	0xbc069007	-0.00821305
140	0xbb1fea20	-0.0024401024
141	0x3c548dd3	0.012973267
142	0xbae81b6e	-0.001770837
143	0xbc07098d	-0.008242023
144	0xbb35ceca	-0.0027741664
145	0xbca5a3d2	-0.020219717
146	0xbc7d075e	-0.015443651
147	0xbbd5e499	-0.006527495
148	0xbae59dcf	-0.0017518344
149	0x3cb44ea0	0.022010148
150	0xbc81d772	-0.015849803
151	0x3a3f3add	0.0007294843
152	0xbc6bf645	-0.014401977
153	0x3cc38a54	0.02386967
154	0x3ca5fbb9	0.020261632
155	0x3ad16df4	0.0015978203
156	0xbc6548d5	-0.013994415
157	0x3c173ac6	0.009230321
158	0xbc44ebf3	-0.012019145
159	0xbd3bf8fc	-0.045891747
160	0xbc782b13	-0.015146988
161	0x3c13df9b	0.00902548
162	0x3cc93a60	0.024563968
163	0xbc75fc03	-0.015013698
164	0x3ca6ec30	0.020376295
165	0x3c3840b0	0.011245891
166	0xbb59c525	-0.003322908
167	0xbcd1a18a	-0.025589723
168	0xbce09e10	-0.02741912
169	0xbc967d3e	-0.018370267
170	0x3c8c6247	0.017136706
171	0xbc2a7449	-0.010403701
172	0xbc92afb4	-0.017906047
173	0xbaf04659	-0.0018331512
174	0x3cb036bd	0.021510476
175	0x3bce2b85	0.006291809
176	0xbc84ccf9	-0.01621102
177	0x3d79c800	0.06098175
178	0x3cd2b942	0.025723103
179	0x3c329c0b	0.010901461
180	0x3b3d61a7	0.0028897317
181	0x3cb3222a	0.021866877
182	0xbbcb6c37	-0.0062079686
183	0x3b9b6e58	0.0047433786
184	0x3c91de02	0.017806057
185	0x3bc68e29	0.0060594273
186	0xbcc96e79	-0.02458881
187	0xbca25377	-0.01981519
188	0xbc81e29b	-0.015855124
189	0xba6a6947	-0.0008942079
190	0x3c4a707b	0.012355919
191	0x3c38e1cb	0.011284302
192	0xbc80e4e8	-0.015734151
193	0xbae19e75	-0.0017213362
194	0xbd79e923	-0.061013352
195	0x3c79967b	0.015233631
196	0xbd1d2a29	-0.038370285
197	0x3ab1cc3c	0.0013564895
198	0xbc39a23d	-0.0113301845
199	0xbd1bc2f6	-0.038027726
200	0xbb7552ee	-0.0037433463
201	0xbc63f733	-0.013913917
202	0xbb8ea3b6	-0.004353012
203	0x3b1e2ebd	0.0024136745
204	0xbbacab09	-0.0052694124
205	0x3c48f70f	0.012265935
206	0x3c75afd4	0.014995534
207	0xbc65c132	-0.014023112
208	0x3d12201d	0.035675157
209	0x3c4fc7fc	0.012681957
210	0xbc5df258	-0.013546549
211	0xbb8ad981	-0.0042373543
212	0x3d874f12	0.06606878
213	0x3c3ee48b	0.011651169
214	0x3cc36e18	0.023856208
215	0x3bb9c815	0.0056696036
216	0xbc7a8e0b	-0.015292655
217	0x3a4542db	0.0007524916
218	0x3b96fb9c	0.004607631
219	0xbd01fef0	-0.031737268
220	0xbb339d7d	-0.0027407103
221	0x3b0bf88e	0.0021357867
222	0xbc541fe5	-0.012947057
223	0xbc8cec17	-0.01720242
224	0x3a9f8f3e	0.0012173427
225	0x3af97aa0	0.0019033737
226	0x3c558032	0.013031052
227	0xbce8fd2e	-0.028441038
228	0xbc308e73	-0.01077615
229	0xbc4fc8e1	-0.012682171
230	0xbb8f90a1	-0.004381255
231	0xbc170ce3	-0.009219381
232	0x3b71eb67	0.0036913992
233	0xbd0be14b	-0.034150403
234	0x3c4ddd3d	0.012564954
235	0x3cf02463	0.029314226
236	0x3c82d231	0.015969368
237	0x3a47f589	0.0007627835
238	0xbcb754f0	-0.022379369
239	0xbb958a04	-0.004563572
240	0x3bccff18	0.0062559955
241	0x3ca58521	0.020205082
242	0x3d1636bb	0.03667329
243	0xbc6b6170	-0.014366493
244	0x3c429269	0.011875727
245	0x3ba917ee	0.0051603233
246	0x3c297014	0.010341663
247	0xbbb4210d	-0.005497104
248	0x3c60f36e	0.013729913
249	0xbd3f2c4a	-0.046673097
250	0xbcb7afd0	-0.022422701
251	0x3bbe1ce6	0.005801785
252	0x3b7dd060	0.0038728938
253	0xbb4cc587	-0.0031245665
254	0x3c4004a0	0.011719853
255	0x3c9d1f9c	0.019180112

fai_gcn_networks.1.residual.0.bias f4 [64]
0	0x00000000	0.0
1	0x00000000	0.0
2	0x00000000	0.0
3	0x00000000	0.0
4	0x00000000	0.0
5	0x00000000	0.0
6	0x00000000	0.0
7	0x00000000	0.0
8	0x00000000	0.0
9	0x00000000	0.0
10	0x00000000	0.0
11	0x00000000	0.0
12	0x00000000	0.0
13	0x00000000	0.0
14	0x00000000	0.0
15	0x00000000	0.0
16	0x00000000	0.0
17	0x00000000	0.0
18	0x00000000	0.0
19	0x00000000	0.0
20	0x00000000	0.0
21	0x00000000	0.0
22	0x00000000	0.0
23	0x00000000	0.0
24	0x00000000	0.0
25	0x00000000	0.0
26	0x00000000	0.0
27	0x00000000	0.0
28	0x00000000	0.0
29	0x00000000	0.0
30	0x00000000	0.0
31	0x00000000	0.0
32	0x00000000	0.0
33	0x00000000	0.0
34	0x00000000	0.0
35	0x00000000	0.0
36	0x00000000	0.0
37	0x00000000	0.0
38	0x00000000	0.0
39	0x00000000	0.0
40	0x00000000	0.0
41	0x00000000	0.0
42	0x00000000	0.0
43	0x00000000	0.0
44	0x00000000	0.0
45	0x00000000	0.0
46	0x00000000	0.0
47	0x00000000	0.0
48	0x00000000	0.0
49	0x00000000	0.0
50	0x00000000	0.0
51	0x00000000	0.0
52	0x00000000	0.0
53	0x00000000	0.0
54	0x00000000	0.0
55	0x00000000	0.0
56	0x00000000	0.0
57	0x00000000	0.0
58	0x00000000	0.0
59	0x00000000	0.0
60	0x00000000	0.0
61	0x00000000	0.0
62	0x00000000	0.0
63	0x00000000	0.0

fai_gcn_networks.1.residual.1.weight f4 [64]
0	0x3f81e8b2	1.0149138
1	0x3f7d6802	0.9898683
2	0x3f8006bd	1.0002056
3	0x3f7d51e4	0.9895308
4	0x3f7c44e4	0.9854262
5	0x3f80556e	1.0026071
6	0x3f78f662	0.9725095
7	0x3f811737	1.008521
8	0x3f7a6986	0.97817266
9	0x3f7f44ee	0.99714553
10	0x3f836795	1.0265986
11	0x3f7c1973	0.9847633
12	0x3f81ec4b	1.0150236
13	0x3f7b87fc	0.9825437
14	0x3f83b423	1.0289348
15	0x3f805cc4	1.002831
16	0x3f810e1a	1.0082428
17	0x3f81c2c9	1.0137569
18	0x3f81c834	1.0139222
19	0x3f778f81	0.96703345
20	0x3f77b613	0.967622
21	0x3f815f62	1.0107234
22	0x3f800913	1.0002769
23	0x3f885d21	1.0653421
24	0x3f7cd7c4	0.9876673
25	0x3f77b847	0.9676556
26	0x3f7df9ba	0.9920918
27	0x3f83da9c	1.0301089
28	0x3f805b86	1.0027931
29	0x3f81fcde	1.0155294
30	0x3f7c2d85	0.9850696
31	0x3f82dab6	1.0222995
32	0x3f7e4875	0.9932931
33	0x3f82d447	1.0221032
34	0x3f83f827	1.0310105
35	0x3f802fbe	1.001457
36	0x3f7dcdf7	0.991424
37	0x3f83d8d8	1.030055
38	0x3f78d404	0.9719851
39	0x3f7e9032	0.99438775
40	0x3f7f52c9	0.99735695
41	0x3f8070d8	1.0034437
42	0x3f7cc6f8	0.987411
43	0x3f7c169b	0.98471993
44	0x3f8135ad	1.0094506
45	0x3f80a89d	1.0051457
46	0x3f76a3fe	0.9634398
47	0x3f81c7ad	1.0139061
48	0x3f83755c	1.027019
49	0x3f7d22e8	0.9888139
50	0x3f7f2852	0.996709
51	0x3f7cc0e0	0.98731804
52	0x3f78b7ce	0.97155464
53	0x3f7ea544	0.99470925
54	0x3f82c803	1.0217289
55	0x3f82a32d	1.0206047
56	0x3f811003	1.0083011
57	0x3f7bf90d	0.98426896
58	0x3f8218bf	1.0163802
59	0x3f803a42	1.0017779
60	0x3f7dfe21	0.99215895
61	0x3f81ab3e	1.0130384
62	0x3f7896ca	0.97105086
63	0x3f80974c	1.0046172

fai_gcn_networks.1.residual.1.bias f4 [64]
0	0x00000000	0.0
1	0x00000000	0.0
2	0x00000000	0.0
3	0x00000000	0.0
4	0x00000000	0.0
5	0x00000000	0.0
6	0x00000000	0.0
7	0x00000000	0.0
8	0x00000000	0.0
9	0x00000000	0.0
10	0x00000000	0.0
11	0x00000000	0.0
12	0x00000000	0.0
13	0x00000000	0.0
14	0x00000000	0.0
15	0x00000000	0.0
16	0x00000000	0.0
17	0x00000000	0.0
18	0x00000000	0.0
19	0x00000000	0.0
20	0x00000000	0.0
21	0x00000000	0.0
22	0x00000000	0.0
23	0x00000000	0.0
24	0x00000000	0.0
25	0x00000000	0.0
26	0x00000000	0.0
27	0x00000000	0.0
28	0x00000000	0.0
29	0x00000000	0.0
30	0x00000000	0.0
31	0x00000000	0.0
32	0x00000000	0.0
33	0x00000000	0.0
34	0x00000000	0.0
35	0x00000000	0.0
36	0x00000000	0.0
37	0x00000000	0.0
38	0x00000000	0.0
39	0x00000000	0.0
40	0x00000000	0.0
41	0x00000000	0.0
42	0x00000000	0.0
43	0x00000000	0.0
44	0x00000000	0.0
45	0x00000000	0.0
46	0x00000000	0.0
47	0x00000000	0.0
48	0x00000000	0.0
49	0x00000000	0.0
50	0x00000000	0.0
51	0x00000000	0.0
52	0x00000000	0.0
53	0x00000000	0.0
54	0x00000000	0.0
55	0x00000000	0.0
56	0x00000000	0.0
57	0x00000000	0.0
58	0x00000000	0.0
59	0x00000000	0.0
60	0x00000000	0.0
61	0x00000000	0.0
62	0x00000000	0.0
63	0x00000000	0.0

fai_gcn_networks.1.residual.1.running_mean f4 [64]
0	0x1954546c	1.0977192e-23
1	0x9b496500	-1.6658965e-22
2	0x9a4744de	-4.1207866e-23
3	0x98ab4bb1	-4.4278893e-24
4	0x9939aaab	-9.598742e-24
5	0x9aa9247d	-6.995571e-23
6	0x99c5f731	-2.0469162e-23
7	0x1a96bed7	6.2346864e-23
8	0x9a679cdd	-4.7896394e-23
9	0x9a4896e4	-4.148092e-23
10	0x1a8afd09	5.748426e-23
11	0x99f04240	-2.4842177e-23
12	0x99b2bf94	-1.8482146e-23
13	0x1aa22f73	6.707829e-23
14	0x1abd8e85	7.839882e-23
15	0x19a03c5d	1.6567993e-23
16	0x999b37a4	-1.6049097e-23
17	0x9a2a074f	-3.516108e-23
18	0x18dd5e75	5.722254e-24
19	0x19701688	1.2412259e-23
20	0x193efb83	9.873562e-24
21	0x1abd11c7	7.819729e-23
22	0x1a904f87	5.968549e-23
23	0x9a4f494b	-4.2865802e-23
24	0x1ab28b95	7.384458e-23
25	0x9af59b03	-1.0158006e-22
26	0x1b0e14d4	1.1752695e-22
27	0x175bc498	7.1010853e-25
28	0x1ad60ecc	8.853223e-23
29	0x1b1edf09	1.314152e-22
30	0x9a25fa98	-3.4323628e-23
31	0x9a294142	-3.5001096e-23
32	0x1a95b640	6.1919396e-23
33	0x9a07d60d	-2.8090255e-23
34	0x19f5189a	2.5342343e-23
35	0x19bcb1c2	1.951054e-23
36	0x1ac657a0	8.2032446e-23
37	0x1a928b93	6.060968e-23
38	0x9a321e9e	-3.683427e-23
39	0x9a42d42c	-4.028965e-23
40	0x1adb41dd	9.0682685e-23
41	0x1b077989	1.1206208e-22
42	0x99e4d9b8	-2.3662583e-23
43	0x99a59147	-1.7119277e-23
44	0x9ae2e667	-9.3843644e-23
45	0x1b4600de	1.6378456e-22
46	0x9a931d76	-6.084537e-23
47	0x1b3f820d	1.5841171e-22
48	0x19924075	1.512208e-23
49	0x1aacf5f8	7.1534917e-23
50	0x9b0496c7	-1.0967503e-22
51	0x19820524	1.3443761e-23
52	0x99f7b7c7	-2.5613428e-23
53	0x98b9f776	-4.807125e-24
54	0x9a166d56	-3.1107594e-23
55	0x99ac93cc	-1.7844078e-23
56	0x1ac1e80f	8.019784e-23
57	0x9b135475	-1.2186845e-22
58	0x194af327	1.04922595e-23
59	0x9ac2303d	-8.031445e-23
60	0x1b246f2b	1.3601682e-22
61	0x99ca97ac	-2.094757e-23
62	0x99824cd1	-1.3472711e-23
63	0x1a7ea627	5.2660186e-23

fai_gcn_networks.1.residual.1.running_var f4 [64]
0	0x00000004	6e-45
1	0x0000000a	1.4e-44
2	0x00000004	6e-45
3	0x00000004	6e-45
4	0x00000004	6e-45
5	0x00000004	6e-45
6	0x00000004	6e-45
7	0x00000004	6e-45
8	0x00000004	6e-45
9	0x00000004	6e-45
10	0x00000004	6e-45
11	0x00000004	6e-45
12	0x00000004	6e-45
13	0x00000004	6e-45
14	0x00000004	6e-45
15	0x00000004	6e-45
16	0x00000004	6e-45
17	0x00000004	6e-45
18	0x00000004	6e-45
19	0x00000004	6e-45
20	0x00000004	6e-45
21	0x00000004	6e-45
22	0x00000004	6e-45
23	0x00000004	6e-45
24	0x00000004	6e-45
25	0x00000004	6e-45
26	0x00000004	6e-45
27	0x00000004	6e-45
28	0x00000004	6e-45
29	0x00000006	8e-45
30	0x00000004	6e-45
31	0x00000004	6e-45
32	0x00000004	6e-45
33	0x00000004	6e-45
34	0x00000004	6e-45
35	0x00000004	6e-45
36	0x00000004	6e-45
37	0x00000004	6e-45
38	0x00000004	6e-45
39	0x00000004	6e-45
40	0x00000004	6e-45
41	0x00000004	6e-45
42	0x00000004	6e-45
43	0x00000004	6e-45
44	0x00000004	6e-45
45	0x0000000a	1.4e-44
46	0x00000004	6e-45
47	0x0000000a	1.4e-44
48	0x00000004	6e-45
49	0x00000004	6e-45
50	0x00000004	6e-45
51	0x00000004	6e-45
52	0x00000004	6e-45
53	0x00000004	6e-45
54	0x00000004	6e-45
55	0x00000004	6e-45
56	0x00000004	6e-45
57	0x00000004	6e-45
58	0x00000004	6e-45
59	0x00000004	6e-45
60	0x00000007	1e-44
61	0x00000004	6e-45
62	0x00000004	6e-45
63	0x00000004	6e-45
