capsule-6073072/code/work_dir/recognition/kinetics_skeleton/FAI_GCN/epoch330_model.pt (torch, 74070 bytes, 22 tensors)

A f4 [3, 18, 18]
0	0x3e800000	0.25
1	0x00000000	0.0
2	0x00000000	0.0
3	0x00000000	0.0
4	0x00000000	0.0
5	0x00000000	0.0
6	0x00000000	0.0
7	0x00000000	0.0
8	0x00000000	0.0
9	0x00000000	0.0
10	0x00000000	0.0
11	0x00000000	0.0
12	0x00000000	0.0
13	0x00000000	0.0
14	0x00000000	0.0
15	0x00000000	0.0
16	0x00000000	0.0
17	0x00000000	0.0
18	0x00000000	0.0
19	0x3e800000	0.25
20	0x00000000	0.0
21	0x00000000	0.0
22	0x00000000	0.0
23	0x00000000	0.0
24	0x00000000	0.0
25	0x00000000	0.0
26	0x00000000	0.0
27	0x00000000	0.0
28	0x00000000	0.0
29	0x00000000	0.0
30	0x00000000	0.0
31	0x00000000	0.0
32	0x00000000	0.0
33	0x00000000	0.0
34	0x00000000	0.0
35	0x00000000	0.0
36	0x00000000	0.0
37	0x00000000	0.0
38	0x3e800000	0.25
39	0x00000000	0.0
40	0x00000000	0.0
41	0x00000000	0.0
42	0x00000000	0.0
43	0x00000000	0.0
44	0x00000000	0.0
45	0x00000000	0.0
46	0x00000000	0.0
47	0x00000000	0.0
48	0x00000000	0.0
49	0x00000000	0.0
50	0x00000000	0.0
51	0x00000000	0.0
52	0x00000000	0.0
53	0x00000000	0.0
54	0x00000000	0.0
55	0x00000000	0.0
56	0x00000000	0.0
57	0x3eaaaaab	0.33333334
58	0x00000000	0.0
59	0x00000000	0.0
60	0x00000000	0.0
61	0x00000000	0.0
62	0x00000000	0.0
63	0x00000000	0.0
64	0x00000000	0.0
65	0x00000000	0.0
66	0x00000000	0.0
67	0x00000000	0.0
68	0x00000000	0.0
69	0x00000000	0.0
70	0x00000000	0.0
71	0x00000000	0.0
72	0x00000000	0.0
73	0x00000000	0.0
74	0x00000000	0.0
75	0x00000000	0.0
76	0x3f000000	0.5
77	0x00000000	0.0
78	0x00000000	0.0
79	0x00000000	0.0
80	0x00000000	0.0
81	0x00000000	0.0
82	0x00000000	0.0
83	0x00000000	0.0
84	0x00000000	0.0
85	0x00000000	0.0
86	0x00000000	0.0
87	0x00000000	0.0
88	0x00000000	0.0
89	0x00000000	0.0
90	0x00000000	0.0
91	0x00000000	0.0
92	0x00000000	0.0
93	0x00000000	0.0
94	0x00000000	0.0
95	0x3e800000	0.25
96	0x00000000	0.0
97	0x00000000	0.0
98	0x00000000	0.0
99	0x00000000	0.0
100	0x00000000	0.0
101	0x00000000	0.0
102	0x00000000	0.0
103	0x00000000	0.0
104	0x00000000	0.0
105	0x00000000	0.0
106	0x00000000	0.0
107	0x00000000	0.0
108	0x00000000	0.0
109	0x00000000	0.0
110	0x00000000	0.0
111	0x00000000	0.0
112	0x00000000	0.0
113	0x00000000	0.0
114	0x3eaaaaab	0.33333334
115	0x00000000	0.0
116	0x00000000	0.0
117	0x00000000	0.0
118	0x00000000	0.0
119	0x00000000	0.0
120	0x00000000	0.0
121	0x00000000	0.0
122	0x00000000	0.0
123	0x00000000	0.0
124	0x00000000	0.0
125	0x00000000	0.0
126	0x00000000	0.0
127	0x00000000	0.0
128	0x00000000	0.0
129	0x00000000	0.0
130	0x00000000	0.0
131	0x00000000	0.0
132	0x00000000	0.0
133	0x3f000000	0.5
134	0x00000000	0.0
135	0x00000000	0.0
136	0x00000000	0.0
137	0x00000000	0.0
138	0x00000000	0.0
139	0x00000000	0.0
140	0x00000000	0.0
141	0x00000000	0.0
142	0x00000000	0.0
143	0x00000000	0.0
144	0x00000000	0.0
145	0x00000000	0.0
146	0x00000000	0.0
147	0x00000000	0.0
148	0x00000000	0.0
149	0x00000000	0.0
150	0x00000000	0.0
151	0x00000000	0.0
152	0x3eaaaaab	0.33333334
153	0x00000000	0.0
154	0x00000000	0.0
155	0x00000000	0.0
156	0x00000000	0.0
157	0x00000000	0.0
158	0x00000000	0.0
159	0x00000000	0.0
160	0x00000000	0.0
161	0x00000000	0.0
162	0x00000000	0.0
163	0x00000000	0.0
164	0x00000000	0.0
165	0x00000000	0.0
166	0x00000000	0.0
167	0x00000000	0.0
168	0x00000000	0.0
169	0x00000000	0.0
170	0x00000000	0.0
171	0x3eaaaaab	0.33333334
172	0x00000000	0.0
173	0x00000000	0.0
174	0x00000000	0.0
175	0x00000000	0.0
176	0x00000000	0.0
177	0x00000000	0.0
178	0x00000000	0.0
179	0x00000000	0.0
180	0x00000000	0.0
181	0x00000000	0.0
182	0x00000000	0.0
183	0x00000000	0.0
184	0x00000000	0.0
185	0x00000000	0.0
186	0x00000000	0.0
187	0x00000000	0.0
188	0x00000000	0.0
189	0x00000000	0.0
190	0x3f000000	0.5
191	0x00000000	0.0
192	0x00000000	0.0
193	0x00000000	0.0
194	0x00000000	0.0
195	0x00000000	0.0
196	0x00000000	0.0
197	0x00000000	0.0
198	0x00000000	0.0
199	0x00000000	0.0
200	0x00000000	0.0
201	0x00000000	0.0
202	0x00000000	0.0
203	0x00000000	0.0
204	0x00000000	0.0
205	0x00000000	0.0
206	0x00000000	0.0
207	0x00000000	0.0
208	0x00000000	0.0
209	0x3eaaaaab	0.33333334
210	0x00000000	0.0
211	0x00000000	0.0
212	0x00000000	0.0
213	0x00000000	0.0
214	0x00000000	0.0
215	0x00000000	0.0
216	0x00000000	0.0
217	0x00000000	0.0
218	0x00000000	0.0
219	0x00000000	0.0
220	0x00000000	0.0
221	0x00000000	0.0
222	0x00000000	0.0
223	0x00000000	0.0
224	0x00000000	0.0
225	0x00000000	0.0
226	0x00000000	0.0
227	0x00000000	0.0
228	0x3eaaaaab	0.33333334
229	0x00000000	0.0
230	0x00000000	0.0
231	0x00000000	0.0
232	0x00000000	0.0
233	0x00000000	0.0
234	0x00000000	0.0
235	0x00000000	0.0
236	0x00000000	0.0
237	0x00000000	0.0
238	0x00000000	0.0
239	0x00000000	0.0
240	0x00000000	0.0
241	0x00000000	0.0
242	0x00000000	0.0
243	0x00000000	0.0
244	0x00000000	0.0
245	0x00000000	0.0
246	0x00000000	0.0
247	0x3f000000	0.5
248	0x00000000	0.0
249	0x00000000	0.0
250	0x00000000	0.0
251	0x00000000	0.0
252	0x00000000	0.0
253	0x00000000	0.0
254	0x00000000	0.0
255	0x00000000	0.0

data_bn.weight f4 [54]
0	0x3f34196e	0.703513
1	0x3f297ced	0.66206247
2	0x3f339ec0	0.7016411
3	0x3f23c338	0.63969755
4	0x3f2665e7	0.6499924
5	0x3f344c0f	0.70428556
6	0x3f271782	0.65270245
7	0x3f299c6b	0.662543
8	0x3f1b19a9	0.6058603
9	0x3f2cd371	0.67510134
10	0x3f264860	0.64954185
11	0x3f27359e	0.6531619
12	0x3f26c0ec	0.65138125
13	0x3f1edeae	0.6205853
14	0x3f2a0d84	0.66426873
15	0x3f30aaf1	0.69010836
16	0x3f2ce532	0.67537224
17	0x3f298cc8	0.6623044
18	0x3f25e2ee	0.6479939
19	0x3f22fbab	0.63665265
20	0x3f2d5308	0.6770482
21	0x3f28ff15	0.66014224
22	0x3f24b201	0.6433411
23	0x3f2b6f15	0.6696637
24	0x3f299573	0.66243666
25	0x3f2a9e5f	0.66647905
26	0x3f2ce8a2	0.6754247
27	0x3f2d487b	0.6768872
28	0x3f2a6032	0.6655303
29	0x3f2daf3a	0.678455
30	0x3f21be1a	0.63180697
31	0x3f2893c2	0.6585046
32	0x3f2c3f7c	0.6728437
33	0x3f2f9591	0.68587595
34	0x3f2f1d13	0.6840374
35	0x3f323bf6	0.69622743
36	0x3f29240e	0.6607064
37	0x3f2f069e	0.6836947
38	0x3f2bb7e7	0.6707749
39	0x3f28785f	0.6580867
40	0x3f2894b7	0.6585192
41	0x3f2d728c	0.6775291
42	0x3f2d59bd	0.67715055
43	0x3f3287d4	0.6973851
44	0x3f2744dd	0.6533945
45	0x3f24a85e	0.6431941
46	0x3f33f3e0	0.70294
47	0x3f29fe72	0.6640388
48	0x3f2d27eb	0.67639035
49	0x3f313196	0.6921629
50	0x3f2c360f	0.67269987
51	0x3f31abfc	0.6940305
52	0x3f1af68b	0.60532445
53	0x3f2875bc	0.6580465

data_bn.bias f4 [54]
0	0x86f96052	-9.380492e-35
1	0xb43d4def	-1.7630349e-07
2	0xb71f28ea	-9.486665e-06
3	0x1279859a	7.8735223e-28
4	0x000129d5	1.06842e-40
5	0xb0020f28	-4.7315263e-10
6	0x23b0b1eb	1.915731e-17
7	0xb562e40a	-8.45234e-07
8	0xb448bdf3	-1.8695555e-07
9	0x0713d2cc	1.1120998e-34
10	0xa6a765e0	-1.1615566e-15
11	0x3209acf0	8.013771e-09
12	0xa95f043f	-4.951963e-14
13	0x32532c97	1.2291955e-08
14	0x2aee8116	4.2366864e-13
15	0x23ed81e1	2.5750597e-17
16	0x359e2d10	1.1785032e-06
17	0x36e1c767	6.728736e-06
18	0x07474b4b	1.4993223e-34
19	0x27c72df9	5.528344e-15
20	0x34032ab7	1.2215865e-07
21	0x2fe0977c	4.0853e-10
22	0x320a9b3c	8.067953e-09
23	0x28661618	1.2772356e-14
24	0x85a5261f	-1.5530529e-35
25	0xb4002db5	-1.1937557e-07
26	0xac245cc2	-2.3357293e-12
27	0x06e43128	8.5836296e-35
28	0xa9ea6cfb	-1.04105926e-13
29	0x2a358dc3	1.6125213e-13
30	0x35254c32	6.157817e-07
31	0xb5fa9b7b	-1.8671702e-06
32	0x2601df28	4.50583e-16
33	0x061ad390	2.9119612e-35
34	0x34928ed1	2.7298532e-07
35	0xaa32fc3f	-1.5897091e-13
36	0x06d89d57	8.148136e-35
37	0x369c9193	4.6661094e-06
38	0xab8947c1	-9.754351e-13
39	0x368202c5	3.8746243e-06
40	0x363150f8	2.6422185e-06
41	0x270ca4e9	1.95183e-15
42	0x06c14972	7.270645e-35
43	0x25597f16	1.8864808e-16
44	0x325891a9	1.2605974e-08
45	0x06dfe285	8.421612e-35
46	0x28642475	1.2664448e-14
47	0x331c86dd	3.6444238e-08
48	0x2c80eb82	3.6641254e-12
49	0xac113a28	-2.0638023e-12
50	0xb13d6628	-2.7561189e-09
51	0xaef368da	-1.1068986e-10
52	0xae04b458	-3.0173503e-11
53	0x283b444f	1.0395397e-14

data_bn.running_mean f4 [54]
0	0x3c178437	0.009247831
1	0xbd8e5122	-0.069490686
2	0x3e79f2fd	0.24409099
3	0x3c0e387c	0.008680459
4	0xbd2d366c	-0.04228823
5	0x3e71ebbf	0.23625086
6	0xbc0215f6	-0.007939806
7	0xbd41d21b	-0.047319513
8	0x3e5bcfc3	0.21465974
9	0xbcbb48c2	-0.022861842
10	0xbd15f92b	-0.03661458
11	0x3e5292d4	0.20563823
12	0xbceed7b6	-0.029155593
13	0xbd188ccc	-0.03724365
14	0x3e6040a7	0.21899663
15	0x3ccfdfa5	0.025375197
16	0xbd1725a2	-0.036901124
17	0x3e5d7516	0.21626696
18	0x3d02bb25	0.031916756
19	0xbc7cc908	-0.015428789
20	0x3e48afb5	0.19598277
21	0x3d0c737f	0.034289833
22	0xbbc28dfb	-0.0059373355
23	0x3e496805	0.19668587
24	0xbc14ad03	-0.009074452
25	0x3c5564ac	0.01302449
26	0x3e3bc5ac	0.18337125
27	0xbccbad9b	-0.024863055
28	0x3cc20148	0.023682252
29	0x3e527c17	0.20555149
30	0xbc8bf34f	-0.017083792
31	0x3d665d5d	0.056241382
32	0x3e414074	0.18872243
33	0x3c29943d	0.010350284
34	0x3c8fd894	0.017559327
35	0x3e35c984	0.17752653
36	0x3c8730da	0.016502786
37	0x3cf5cb08	0.03000404
38	0x3e48429c	0.1955666
39	0x3a6946d6	0.00088988
40	0x3d6f46ce	0.058417134
41	0x3e32a99d	0.17447515
42	0x3bd10404	0.0063786525
43	0xbd9bffb0	-0.07617128
44	0x3e790a3f	0.24320315
45	0x3c845223	0.016152447
46	0xbd95f16a	-0.07321437
47	0x3e7eef6c	0.2489602
48	0x3ba17a12	0.004927882
49	0xbd6055fe	-0.05476951
50	0x3dbb789a	0.09153862
51	0x3ccf5f62	0.025314037
52	0xbd7c94cd	-0.061665345
53	0x3e5823d6	0.2110742

data_bn.running_var f4 [54]
0	0x3b690aa7	0.0035559328
1	0x3b9a9464	0.0047173966
2	0x3d610d44	0.05494429
3	0x3b708d7f	0.0036705432
4	0x3b1e1f8d	0.0024127692
5	0x3d54692b	0.05185811
6	0x3ba0ed25	0.0049110823
7	0x3b31f2a3	0.002715268
8	0x3d2ee1c0	0.04269576
9	0x3bd9ce7d	0.00664693
10	0x3b134a55	0.0022474725
11	0x3d25f5a2	0.040517457
12	0x3c0633f7	0.0081911
13	0x3b3fe5a5	0.0029281166
14	0x3d39137f	0.04518461
15	0x3b416315	0.002950852
16	0x3b0e1574	0.0021680268
17	0x3d317ffb	0.043334942
18	0x3b42a711	0.002970163
19	0x3af03996	0.0018327709
20	0x3d243bf9	0.040096257
21	0x3b520164	0.0032044286
22	0x3b32f400	0.002730608
23	0x3d31cc1f	0.043407556
24	0x3b9ddcec	0.0048175957
25	0x3b0c8737	0.00214429
26	0x3cffab5e	0.031209644
27	0x3bcef834	0.006316209
28	0x3b59306c	0.0033140434
29	0x3d322b3a	0.043498255
30	0x3bc3b824	0.005972879
31	0x3be16066	0.0068779467
32	0x3d298025	0.041381974
33	0x3b658731	0.0035023207
34	0x3b171ba2	0.0023057242
35	0x3cef6379	0.029222237
36	0x3b64b2e2	0.0034896662
37	0x3b522e9b	0.0032071236
38	0x3d21c6bf	0.03949618
39	0x3b8f163b	0.0043666638
40	0x3be35f9d	0.006938888
41	0x3d12cbfe	0.035839073
42	0x3b725aaf	0.0036980321
43	0x3bb2aa09	0.0054523987
44	0x3d659ce7	0.056057837
45	0x3b51a65f	0.0031990034
46	0x3ba62053	0.0050697713
47	0x3d68a50b	0.056798022
48	0x3b838f75	0.004014904
49	0x3ba51b15	0.005038629
50	0x3ce52fe6	0.027976941
51	0x3b40b22b	0.0029403071
52	0x3b987ad5	0.0046533146
53	0x3d60129a	0.05470524

fai_gcn_networks.0.gcn.conv.weight f4 [96, 3, 1, 1]
0	0x05f22eb6	2.277473e-35
1	0x07ee1fb9	3.5828905e-34
2	0x093dbf41	2.2839975e-33
3	0x0ef95345	6.1463425e-30
4	0x91222663	-1.2791375e-28
5	0x103fe4e5	3.7844442e-29
6	0x89908d83	-3.4799816e-33
7	0x08efe6c1	1.4438539e-33
8	0x88de37a6	-1.3374222e-33
9	0x165948f3	1.7552139e-25
10	0x1646e9b1	1.6068053e-25
11	0x13930645	3.71142e-27
12	0x0a3204e8	8.571311e-33
13	0x0a399d5d	8.937023e-33
14	0x0b09eb6e	2.6562358e-32
15	0x0e04276c	1.6289237e-30
16	0x0df6b997	1.52056e-30
17	0x0c390278	1.4252625e-31
18	0x8f54ca13	-1.0491325e-29
19	0x0f281d42	8.288674e-30
20	0x8f0015ef	-6.3151115e-30
21	0x80000156	-4.79e-43
22	0x00000019	3.5e-44
23	0x8000035f	-1.21e-42
24	0x86826da6	-4.906168e-35
25	0x86680cf6	-4.3643872e-35
26	0x06cbffdf	7.673608e-35
27	0x98047261	-1.7118347e-24
28	0x17ef5707	1.5466982e-24
29	0x1eb4a9f8	1.9128539e-20
30	0x94c940b6	-2.0321337e-26
31	0x95673c04	-4.6697422e-26
32	0x16e1d614	3.6485813e-25
33	0x89d58f2d	-5.1412527e-33
34	0x8a901955	-1.3876224e-32
35	0x89b4c412	-4.3517807e-33
36	0x90d48d71	-8.383718e-29
37	0x14bedbcf	1.9271796e-26
38	0x9464d68f	-1.15533726e-26
39	0x8b0cc8a6	-2.711397e-32
40	0x8b0210fe	-2.5049873e-32
41	0x8a8eb75c	-1.3743075e-32
42	0x2850c3f3	1.1588809e-14
43	0x9c1dd8ef	-5.2227323e-22
44	0x1bf41615	4.0380684e-22
45	0x899a8569	-3.719961e-33
46	0x09c5977c	4.756848e-33
47	0x09649383	2.7513861e-33
48	0x0b441974	3.7767376e-32
49	0x09ef5e4f	5.7625844e-33
50	0x0b770976	4.7577587e-32
51	0x8c012f7d	-9.952089e-32
52	0x0f82c9dd	1.2896745e-29
53	0x8eb92b4a	-4.5647707e-30
54	0x09d13b29	5.0370554e-33
55	0x0aa0aed5	1.5473204e-32
56	0x8ad92873	-2.0911555e-32
57	0x0e502ed5	2.5660528e-30
58	0x0db95a0a	1.1423181e-30
59	0x0e0c8be2	1.7323683e-30
60	0x93bb4ca4	-4.728101e-27
61	0x95bf4cf6	-7.726571e-26
62	0x956aa13c	-4.7383115e-26
63	0x076dbf0a	1.788604e-34
64	0x07dc957f	3.3189787e-34
65	0x87a6f202	-2.5119143e-34
66	0x8bff9bcc	-9.8456844e-32
67	0x0ba05e34	6.17715e-32
68	0x0c3b593f	1.4432813e-31
69	0x8af5aa31	-2.365666e-32
70	0x8c177a3e	-1.1669403e-31
71	0x8c8fc60e	-2.2151838e-31
72	0x9331d64f	-2.2446203e-27
73	0x93c5d07e	-4.993538e-27
74	0x134c6161	2.5796431e-27
75	0x9f95fb21	-6.351941e-20
76	0x1319d27c	1.9415092e-27
77	0x13783d6c	3.1332284e-27
78	0x959bc4ef	-6.291471e-26
79	0x9545c904	-3.9942407e-26
80	0x15488314	4.049308e-26
81	0x89e2f6ed	-5.463973e-33
82	0x887f4aef	-7.6824355e-34
83	0x08266b56	5.007998e-34
84	0x905f8597	-4.408191e-29
85	0x101139ec	2.864083e-29
86	0x91a242ed	-2.560034e-28
87	0x941ef6e3	-8.025651e-27
88	0x12037086	4.1475007e-28
89	0x1e24e689	8.729761e-21
90	0x0da7db3e	1.034495e-30
91	0x8c9456f1	-2.2855336e-31
92	0x8f149922	-7.326456e-30
93	0x182eea15	2.2607154e-24
94	0x1a2437e6	3.395956e-23
95	0x97e2e1ca	-1.4661905e-24
96	0x06a7d98a	6.3138063e-35
97	0x87a45ccf	-2.4730525e-34
98	0x084e869c	6.2149103e-34
99	0x908d5f91	-5.576194e-29
100	0x9108e504	-1.0799079e-28
101	0x0ed721c4	5.3034107e-30
102	0x89b3dc90	-4.33001e-33
103	0x8d70ffe1	-7.4263713e-31
104	0x07cd302b	3.0873282e-34
105	0x94aed82f	-1.765478e-26
106	0x15932418	5.942977e-26
107	0x16a815e7	2.7155686e-25
108	0x09aa0c1d	4.0937403e-33
109	0x8c7877f0	-1.9141317e-31
110	0x89097b8d	-1.6548868e-33
111	0x0d31cbe0	5.478774e-31
112	0x8ebd0dc3	-4.660535e-30
113	0x0dc1aded	1.1936414e-30
114	0x8fb6b139	-1.801485e-29
115	0x0fe2050d	2.2287266e-29
116	0x8fb499d1	-1.7808618e-29
117	0x8000042e	-1.5e-42
118	0x800003f1	-1.414e-42
119	0x800002d1	-1.01e-42
120	0x05ee82e1	2.242949e-35
121	0x0584a72f	1.2474634e-35
122	0x871a8f8c	-1.1627857e-34
123	0x97e93f39	-1.5073232e-24
124	0x179982bc	9.920395e-25
125	0x17cbb077	1.3163114e-24
126	0x951e6ea3	-3.1995123e-26
127	0x970f3c2b	-4.6281735e-25
128	0x17297113	5.4749565e-25
129	0x09d20eb9	5.0569506e-33
130	0x0bc7dd93	7.69854e-32
131	0x8b8dfeff	-5.46949e-32
132	0x1182550f	2.0562805e-28
133	0x14bc0fab	1.8989329e-26
134	0x14d172bc	2.1148862e-26
135	0x8a9d5c60	-1.5153298e-32
136	0x8c0ee1d0	-1.1007235e-31
137	0x8bb9b439	-7.1530577e-32
138	0x1b6eb1fc	1.9744408e-22
139	0x1a625956	4.680787e-23
140	0x1c20b590	5.3174223e-22
141	0x88ca20f4	-1.216518e-33
142	0x8acb1889	-1.9557418e-32
143	0x090a7c2c	1.6669531e-33
144	0x0c409c69	1.483821e-31
145	0x8c722f62	-1.8657261e-31
146	0x8cd273c2	-3.2425292e-31
147	0x8d7a7da7	-7.7188446e-31
148	0x0fad9c22	1.7119257e-29
149	0x0e650e3e	2.8233287e-30
150	0x8a9274d0	-1.4103229e-32
151	0x8b12973a	-2.8232347e-32
152	0x0b43cac2	3.7708172e-32
153	0x0bbf27e9	7.3630574e-32
154	0x0eb026ee	4.3424838e-30
155	0x0c122974	1.1259905e-31
156	0x93d2da99	-5.3227007e-27
157	0x9558f8ee	-4.3817224e-26
158	0x94f7d5d0	-2.502496e-26
159	0x87da6a85	-3.28636e-34
160	0x87761473	-1.8512993e-34
161	0x8ea87bf9	-4.153458e-30
162	0x0d2ca2b1	5.3197425e-31
163	0x8b2213ba	-3.1214906e-32
164	0x0a7f0d23	1.2280274e-32
165	0x0c0ec7ab	1.0999367e-31
166	0x0db7db6a	1.1331068e-30
167	0x8d12e977	-4.5270747e-31
168	0x93f2602f	-6.1184233e-27
169	0x93d1a588	-5.2922244e-27
170	0x12b3a21a	1.1336449e-27
171	0x1207d39a	4.285931e-28
172	0x933aa580	-2.3558098e-27
173	0x1416652f	7.59302e-27
174	0x9698d7fc	-2.469323e-25
175	0x969f079f	-2.5692645e-25
176	0x94a9311e	-1.7084012e-26
177	0x88a2de03	-9.802215e-34
178	0x88cd7b1b	-1.2366931e-33
179	0x88e64351	-1.38584475e-33
180	0x105ec9fe	4.393739e-29
181	0x8ede3761	-5.4780553e-30
182	0x10b0fd85	6.981037e-29
183	0x94a29db9	-1.642003e-26
184	0x139a17bc	3.889847e-27
185	0x95336036	-3.622466e-26
186	0x8e250f69	-2.034524e-30
187	0x8f30ea27	-8.722566e-30
188	0x8e9f2e35	-3.9241022e-30
189	0x18a31e54	4.2165136e-24
190	0x98cfe889	-5.3743046e-24
191	0x17368cf1	5.8985265e-25
192	0x067d518d	4.7643925e-35
193	0x8699a522	-5.7794844e-35
194	0x07afb017	2.643457e-34
195	0x8e7e4f09	-3.1345971e-30
196	0x0f78eecf	1.2273337e-29
197	0x8ee4f9b5	-5.64468e-30
198	0x87c7f764	-3.0087595e-34
199	0x888ccf6d	-8.474709e-34
200	0x8775d4ea	-1.8494321e-34
201	0x934f8e74	-2.6197308e-27
202	0x178a56a9	8.939917e-25
203	0x161c4d12	1.2625899e-25
204	0x0a72afc5	1.1684935e-32
205	0x0cdb9b6a	3.383583e-31
206	0x8c767ca7	-1.8988662e-31
207	0x0cac12d0	2.6512118e-31
208	0x0e8d31eb	3.4807253e-30
209	0x8e068d1a	-1.6584713e-30
210	0x8d995f4e	-9.452297e-31
211	0x0e8cf2c2	3.474643e-30
212	0x0e2a9f8e	2.103094e-30
213	0x8000001d	-4e-44
214	0x000000eb	3.3e-43
215	0x800000ae	-2.44e-43
216	0x060d8f0a	2.662424e-35
217	0x85134a82	-6.925592e-36
218	0x0784727a	1.9928436e-34
219	0x97923a89	-9.449805e-25
220	0x976429c2	-7.372348e-25
221	0x979dcb15	-1.0197152e-24
222	0x94b2f0c0	-1.8068366e-26
223	0x13cb9ad4	5.1397077e-27
224	0x9474e5cb	-1.23641706e-26
225	0x8a344db6	-8.6813006e-33
226	0x8916c77a	-1.8149387e-33
227	0x8b1008d1	-2.7740024e-32
228	0x912f1f72	-1.3814756e-28
229	0x0f439716	9.64334e-30
230	0x91d3c2e3	-3.3410038e-28
231	0x88bc0ce2	-1.1317867e-33
232	0x0bea3fbc	9.022942e-32
233	0x8d83c3d1	-8.120639e-31
234	0x1aa2c8b2	6.732587e-23
235	0x9c31505b	-5.8668244e-22
236	0x1b9fc7d9	2.6433492e-22
237	0x86cd1551	-7.714375e-35
238	0x89a2cb69	-3.9191367e-33
239	0x8a36753e	-8.785032e-33
240	0x0c05de13	1.0312775e-31
241	0x09ec32cf	5.6862714e-33
242	0x8d44e9e8	-6.0678717e-31
243	0x8d97234a	-9.314589e-31
244	0x8d83031a	-8.074245e-31
245	0x0e014b89	1.5936846e-30
246	0x8a2bd233	-8.2728846e-33
247	0x0b442820	3.7778414e-32
248	0x8c4280e2	-1.4984001e-31
249	0x0bcca42a	7.882495e-32
250	0x0f1ada4f	7.634831e-30
251	0x8e3a2384	-2.294337e-30
252	0x94d59e8f	-2.1570044e-26
253	0x1629ed9e	1.372669e-25
254	0x965752b8	-1.7393663e-25
255	0x867f55cf	-4.8023212e-35

fai_gcn_networks.0.gcn.conv.bias f4 [96]
0	0x92f519cc	-1.5468033e-27
1	0x1280454a	8.095017e-28
2	0x0a916a4c	1.4002977e-32
3	0xa0b0ae17	-2.9930763e-19
4	0x164c0b1f	1.6482498e-25
5	0x18fc8391	6.527332e-24
6	0x16aa24b5	2.7488147e-25
7	0x025b70d6	1.6121961e-37
8	0x10702cf7	4.7366294e-29
9	0x98e39454	-5.8827898e-24
10	0x20578d73	1.825801e-19
11	0x9295d807	-9.456477e-28
12	0x1d28b95c	2.2330443e-21
13	0x16534e69	1.7069186e-25
14	0x9cc71110	-1.3173126e-21
15	0x14255987	8.348027e-27
16	0x97874f89	-8.744248e-25
17	0x98e614ce	-5.9474614e-24
18	0x92990210	-9.656166e-28
19	0x1937c9f2	9.501661e-24
20	0xa0bd5ab4	-3.2077868e-19
21	0x0851ae6f	6.3098695e-34
22	0x0c5ad6cf	1.6858751e-31
23	0x95ab3457	-6.914893e-26
24	0x9f28bb38	-3.5730248e-20
25	0x14aa16d2	1.7174614e-26
26	0x21574128	7.2931067e-19
27	0x135eaa17	2.81042e-27
28	0x1932f5e3	9.252041e-24
29	0x938d3ff6	-3.5656474e-27
30	0x98aba30f	-4.436711e-24
31	0xa429c6a9	-3.6814305e-17
32	0x9298142d	-9.597522e-28
33	0x92bcf807	-1.1925611e-27
34	0x894248c7	-2.338612e-33
35	0xa114ee55	-5.045978e-19
36	0x16a37917	2.6410489e-25
37	0x99088d9b	-7.059632e-24
38	0x167e4847	2.0540763e-25
39	0x83ab0101	-1.0050707e-36
40	0x1182951c	2.060228e-28
41	0x1862a48d	2.9292892e-24
42	0x203b4078	1.5860847e-19
43	0x94d0a6cc	-2.1068423e-26
44	0x1e634c32	1.2033037e-20
45	0x9685fdaf	-2.1647406e-25
46	0x1b2cc065	1.4289673e-22
47	0x1456c824	1.084371e-26
48	0x180b6a81	1.80191e-24
49	0x9953a43f	-1.09416136e-23
50	0x93ba258f	-4.6990037e-27
51	0x1868aa73	3.0071352e-24
52	0xa0070aca	-1.1438515e-19
53	0x891bfbe0	-1.8775877e-33
54	0x0e143381	1.8267207e-30
55	0x94c2f2d0	-1.9684767e-26
56	0x9f41ae58	-4.1013553e-20
57	0x14354732	9.1522055e-27
58	0xa0454be4	-1.6711659e-19
59	0x1491c30e	1.4718194e-26
60	0x9916a9cc	-7.7891084e-24
61	0x947dd2cc	-1.2814808e-26
62	0x98edf007	-6.150543e-24
63	0xa1ccf5c1	-1.3888628e-18
64	0x1062d18f	4.473208e-29
65	0x9286ec85	-8.514895e-28
66	0x8a1f0005	-7.655575e-33
67	0xa00052ce	-1.086942e-19
68	0x9732ab9e	-5.7731513e-25
69	0x978e4167	-9.193045e-25
70	0x95104ec8	-2.9142716e-26
71	0x01c8cb84	7.376043e-38
72	0x9260fab4	-7.0990953e-28
73	0x995793fb	-1.1145124e-23
74	0x2046dcc7	1.6844301e-19
75	0x1431154e	8.940418e-27
76	0x9dadbc37	-4.598733e-21
77	0x136a9a84	2.9611134e-27
78	0x9bb1bb40	-2.94032e-22
79	0x930b08da	-1.754863e-27
80	0x97df449c	-1.4428357e-24
81	0x98b5f5fb	-4.703578e-24
82	0x94d5ffd5	-2.1608412e-26
83	0x991145e5	-7.510439e-24
84	0xa0622c8f	-1.9157688e-19
85	0x88430a82	-5.869303e-34
86	0x0b32f4d9	3.4465756e-32
87	0x96486565	-1.6187866e-25
88	0x9deb4c50	-6.2282887e-21
89	0x15490a68	4.0599836e-26
90	0xa0c3b62a	-3.315483e-19
91	0x1426ffbd	8.431294e-27
92	0x17bc8d30	1.2184856e-24
93	0x1523ab97	3.3052948e-26
94	0x99951c9a	-1.5417791e-23
95	0x227b9565	3.4095932e-18

fai_gcn_networks.1.gcn.conv.weight f4 [192, 32, 1, 1]
0	0x00000029	5.7e-44
1	0x80000024	-5e-44
2	0x00000024	5e-44
3	0x801e7bc1	-2.79946e-39
4	0x80000023	-4.9e-44
5	0x0584c41f	1.2485264e-35
6	0x80000525	-1.846e-42
7	0x00000023	4.9e-44
8	0x00000024	5e-44
9	0x0020907b	2.990566e-39
10	0x82714c5f	-1.7727801e-37
11	0x8000005b	-1.28e-43
12	0x000f6f4b	1.417457e-39
13	0x800000a2	-2.27e-43
14	0x8937ed0e	-2.2139286e-33
15	0x00000025	5.2e-44
16	0x8001a15f	-1.49725e-40
17	0x8000340a	-1.8668e-41
18	0x80000037	-7.7e-44
19	0x80000eb9	-5.281e-42
20	0x03af45c2	1.0301591e-36
21	0x00000006	8e-45
22	0x00000023	4.9e-44
23	0x8000004d	-1.08e-43
24	0x00b7e6fd	1.6888759e-38
25	0x8046b137	-6.492057e-39
26	0x83344b88	-5.298395e-37
27	0x80000023	-4.9e-44
28	0x00003c11	2.1548e-41
29	0x807ad53e	-1.1280427e-38
30	0x00001376	6.981e-42
31	0x049a0d26	3.62173e-36
32	0x000001b6	6.14e-43
33	0x0000022b	7.78e-43
34	0x80000023	-4.9e-44
35	0x049f96a0	3.7519048e-36
36	0x0000000f	2.1e-44
37	0x0000a17a	5.7927e-41
38	0x80000196	-5.69e-43
39	0x9eae63a1	-1.8464172e-20
40	0x0000005e	1.32e-43
41	0x01b93ebd	6.804829e-38
42	0x03cb98a7	1.1966315e-36
43	0x80001bb6	-9.941e-42
44	0x81fc00c6	-9.257129e-38
45	0x933e4648	-2.4016023e-27
46	0x099de502	3.8011733e-33
47	0x0000002b	6e-44
48	0x200892a3	1.1568166e-19
49	0x8004465d	-3.92584e-40
50	0x80000d53	-4.78e-42
51	0x802f7a5e	-4.360165e-39
52	0x04c0aab8	4.5295763e-36
53	0x80000023	-4.9e-44
54	0x00000026	5.3e-44
55	0x00001027	5.794e-42
56	0x8407df31	-1.5971658e-36
57	0x02823201	1.9130484e-37
58	0x10735f77	4.7996843e-29
59	0x00000082	1.82e-43
60	0x0002a712	2.43605e-40
61	0x0128cfe9	3.1005895e-38
62	0x8002a830	-2.44005e-40
63	0x07f7e9c4	3.7301824e-34
64	0x00000653	2.269e-42
65	0x8000002f	-6.6e-44
66	0x0000001f	4.3e-44
67	0x85a7f3e5	-1.5794197e-35
68	0xa27019ed	-3.253979e-18
69	0x80013b37	-1.13078e-40
70	0x000004b1	1.683e-42
71	0x80000023	-4.9e-44
72	0x000000fe	3.56e-43
73	0x81e5f392	-8.447082e-38
74	0x05c67f60	1.866662e-35
75	0x8db83832	-1.1353404e-30
76	0x81c30c8a	-7.164968e-38
77	0x00000481	1.616e-42
78	0x0c351195	1.3949024e-31
79	0x800003f4	-1.418e-42
80	0x002248f8	3.148583e-39
81	0x8000f7b3	-8.8858e-41
82	0x855d2212	-1.0397628e-35
83	0x80031976	-2.8464e-40
84	0x848967ef	-3.2303993e-36
85	0x0000002a	5.9e-44
86	0x00000023	4.9e-44
87	0x0336c6fe	5.3713425e-37
88	0x022f7724	1.2891161e-37
89	0x8072ae10	-1.0531688e-38
90	0x85ccfa69	-1.9276054e-35
91	0x0000001e	4.2e-44
92	0x8014c21d	-1.906345e-39
93	0x810cceb0	-2.586223e-38
94	0x0001f001	1.77933e-40
95	0x889f4783	-9.586277e-34
96	0x8a22fe41	-7.847836e-33
97	0x083f556f	5.75774e-34
98	0x8439a168	-2.182076e-36
99	0x1697514d	2.4446674e-25
100	0x0c382e32	1.4188746e-31
101	0x0e54e8ff	2.6243201e-30
102	0x8c7d99c8	-1.9536688e-31
103	0x000000d1	2.93e-43
104	0x095367dd	2.5447037e-33
105	0x136bcb08	2.9761272e-27
106	0x9717d7df	-4.90632e-25
107	0x8ca360c0	-2.5172356e-31
108	0x134b06d2	2.5625565e-27
109	0x0c2d901a	1.3370799e-31
110	0x9bbb1a82	-3.0953685e-22
111	0x086207a1	6.801837e-34
112	0x107810d2	4.8922334e-29
113	0x0f19d44e	7.584371e-30
114	0x0a433fd3	9.4009125e-33
115	0x0f0ad934	6.845757e-30
116	0x1733933e	5.8023865e-25
117	0x092e9285	2.1013381e-33
118	0x0587f7a7	1.2786312e-35
119	0x0b150f8d	2.8708055e-32
120	0x14a826d8	1.6978986e-26
121	0x12d18eef	1.322499e-27
122	0x9689ccbf	-2.2262757e-25
123	0x8aaf3d44	-1.6874933e-32
124	0x8d1106f6	-4.4689954e-31
125	0x93018f53	-1.6352753e-27
126	0x0f93d1e6	1.4576169e-29
127	0x19655594	1.1856305e-23
128	0x8000009b	-2.17e-43
129	0x00000011	2.4e-44
130	0x80000023	-4.9e-44
131	0x8520d778	-7.562739e-36
132	0x00000a3f	3.676e-42
133	0x8000a07a	-5.7568e-41
134	0x80001b3d	-9.771e-42
135	0x80000023	-4.9e-44
136	0x00000038	7.8e-44
137	0x8107e26a	-2.4958028e-38
138	0x04212a3e	1.8944856e-36
139	0x80000378	-1.244e-42
140	0x823b1b73	-1.3746468e-37
141	0x8000089c	-3.088e-42
142	0x8a34ea14	-8.71071e-33
143	0x80000099	-2.14e-43
144	0x0025545d	3.428177e-39
145	0x800121b0	-1.0392e-40
146	0x80000170	-5.16e-43
147	0x0000f4c6	8.7808e-41
148	0x84c06d3e	-4.5239306e-36
149	0x80000015	-3e-44
150	0x8000002c	-6.2e-44
151	0x00000df5	5.007e-42
152	0x041192e3	1.7112115e-36
153	0x005cf7a2	8.5377e-39
154	0x05d60677	2.0126838e-35
155	0x80000014	-2.8e-44
156	0x000254e1	2.1412e-40
157	0x01cd92f0	7.551595e-38
158	0x0001f0c5	1.78207e-40
159	0xa6282eba	-5.8350035e-16
160	0x0e776eb3	3.04984e-30
161	0x0d06d320	4.154607e-31
162	0x089be9eb	9.383717e-34
163	0x1b65c07d	1.9004632e-22
164	0x1117a299	1.1961904e-28
165	0x947836cf	-1.2531609e-26
166	0x10058860	2.6334685e-29
167	0x80092a6f	-8.41742e-40
168	0x8d4c94be	-6.3041395e-31
169	0x181fb5e8	2.0642108e-24
170	0x1b059820	1.1050656e-22
171	0x10e65ec1	9.0864996e-29
172	0x98b7547e	-4.7389707e-24
173	0x119d9c9b	2.4866748e-28
174	0x21d2a3e1	1.4273532e-18
175	0x8f2fc48e	-8.666021e-30
176	0x92773e94	-7.801659e-28
177	0x139b8779	3.9261087e-27
178	0x90f2f6e0	-9.583254e-29
179	0x13d32a39	5.3305523e-27
180	0x179d6cb2	1.0173326e-24
181	0x0c31eb13	1.3706324e-31
182	0x8984f2b1	-3.200607e-33
183	0x9d314b06	-2.3464541e-21
184	0x97e1f2bb	-1.4601558e-24
185	0x1a9256c5	6.052437e-23
186	0x9c4d77be	-6.7983573e-22
187	0x0e8c9712	3.465814e-30
188	0x93eb8630	-5.945466e-27
189	0x174d49fd	6.633246e-25
190	0x12f42642	1.5407996e-27
191	0x1e91ba86	1.5429616e-20
192	0x0a6c44e5	1.1375944e-32
193	0x0ce2307f	3.485e-31
194	0x837d1c47	-7.438248e-37
195	0x15707323	4.855844e-26
196	0x0c642898	1.7576697e-31
197	0x8dcea3f0	-1.2735197e-30
198	0x8b9b7b00	-5.98889e-32
199	0x8000027b	-8.9e-43
200	0x08befffc	1.1495391e-33
201	0x127fb025	8.0680927e-28
202	0x95471c61	-4.0210117e-26
203	0x8bfcb305	-9.733623e-32
204	0x933880a0	-2.3287482e-27
205	0x8c100bee	-1.1096946e-31
206	0x1c9940da	1.0141454e-21
207	0x0b47f7ca	3.8512422e-32
208	0x8d9998d6	-9.466147e-31
209	0x0e2bde71	2.1184479e-30
210	0x0b0b91cf	2.688012e-32
211	0x8ec1deae	-4.7792606e-30
212	0x1581f5af	5.2490305e-26
213	0x86aea934	-6.5700147e-35
214	0x020339a8	9.640907e-38
215	0x0b76e14a	4.7547365e-32
216	0x9514c1b9	-3.0041182e-26
217	0x1291d331	9.202849e-28
218	0x968d7e5c	-2.2859523e-25
219	0x87bac57e	-2.8102245e-34
220	0x8ee2e52e	-5.5933993e-30
221	0x132d431b	2.1868755e-27
222	0x10c37da3	7.710751e-29
223	0x19258e0b	8.5589854e-24
224	0x0b3d92d0	3.6510525e-32
225	0x0c8f193e	2.204783e-31
226	0x08137c32	4.4382194e-34
227	0x1b946bae	2.4554132e-22
228	0x10d55749	8.414817e-29
229	0x92967c00	-9.496899e-28
230	0x108912d4	5.406598e-29
231	0x0010749c	1.5112e-39
232	0x8d81fc5a	-8.01099e-31
233	0x16895069	2.218429e-25
234	0x9aeef901	-9.883678e-23
235	0x8ee324ce	-5.5995262e-30
236	0x953f3177	-3.8611164e-26
237	0x10397894	3.6577707e-29
238	0x20d5dca9	3.6229624e-19
239	0x0ec05859	4.741673e-30
240	0x922031fb	-5.0548704e-28
241	0x137fea68	3.2301096e-27
242	0x0fc7b54b	1.9692747e-29
243	0x1310644e	1.822481e-27
244	0x19dc5bd4	2.2784556e-23
245	0x0aaa947f	1.6426263e-32
246	0x084b4a3b	6.117535e-34
247	0x108e61f5	5.616005e-29
248	0x1913f01c	7.6482116e-24
249	0x195ec04c	1.1515965e-23
250	0x1c5aa86e	7.234784e-22
251	0x0e248ae2	2.028143e-30
252	0x13b588e1	4.5825797e-27
253	0x1648d2c3	1.6222376e-25
254	0x12c9f1f8	1.2744533e-27
255	0x1e34408a	9.542467e-21

fai_gcn_networks.1.gcn.conv.bias f4 [192]
0	0x20149f5a	1.2588813e-19
1	0x235de994	1.2029896e-17
2	0xa4d16d62	-9.0824603e-17
3	0x35a7d8e9	1.2505599e-06
4	0x2326739c	9.023359e-18
5	0x3a9e0d9b	0.0012058498
6	0x351d01c5	5.848963e-07
7	0x3a2adcfa	0.00065179134
8	0xa20a72f9	-1.8763353e-18
9	0x9fa723ea	-7.0786666e-20
10	0xa213db13	-2.0038192e-18
11	0x3a0895c4	0.0005210305
12	0x22ffb4f3	6.9309476e-18
13	0x30c0e5e8	1.4035182e-09
14	0x3980c819	0.00024563147
15	0x21b0a8a2	1.1970861e-18
16	0xa2b27bf9	-4.8378258e-18
17	0x21d31eb1	1.430604e-18
18	0x3ab5ad82	0.0013860913
19	0x23034d84	7.117939e-18
20	0x299562a7	6.634043e-14
21	0x3a7a0d34	0.00095387106
22	0x3881fa69	6.197842e-05
23	0x206fa389	2.0298197e-19
24	0x3928dde5	0.0001610439
25	0xa2d47cbb	-5.759478e-18
26	0x2382a460	1.4164244e-17
27	0x270af125	1.9282072e-15
28	0xa24be974	-2.763522e-18
29	0x209acfd1	2.6226136e-19
30	0x1bd9f32c	3.6056785e-22
31	0xa1634dd3	-7.701359e-19
32	0xa313ab21	-8.005124e-18
33	0x2d96169c	1.7063066e-11
34	0x389a1730	7.347611e-05
35	0xa416be3f	-3.268721e-17
36	0x21a1e65d	1.0970761e-18
37	0x34ecbdd7	4.4096552e-07
38	0x223505a8	2.4533069e-18
39	0x2a6c59f5	2.0992221e-13
40	0x359288b7	1.0917637e-06
41	0xa1b1d11d	-1.2049338e-18
42	0x237f8067	1.3850768e-17
43	0xa1e36f42	-1.5411568e-18
44	0x39bfb827	0.00036567563
45	0xaa7bfedb	-2.2381699e-13
46	0x37e0938a	2.6771584e-05
47	0xa28875c5	-3.6987567e-18
48	0x38316706	4.2296037e-05
49	0x32b7fe30	2.1419595e-08
50	0x20cf344e	3.5101776e-19
51	0x35aae3fa	1.2732337e-06
52	0x1fc53fe8	8.353847e-20
53	0x229314db	3.986651e-18
54	0x230dbe07	7.683865e-18
55	0x217a99e6	8.490698e-19
56	0x1e5352ce	1.1187371e-20
57	0x3563d122	8.486842e-07
58	0x36d108a8	6.229693e-06
59	0x225bb172	2.9773973e-18
60	0x3887c706	6.474373e-05
61	0x218f59ed	9.71386e-19
62	0x215eb3b6	7.545437e-19
63	0x220fcdd8	1.9489087e-18
64	0x1f4e71ab	4.371622e-20
65	0xa37da39f	-1.3749806e-17
66	0xa4c94e6b	-8.73027e-17
67	0x3606e108	2.0098541e-06
68	0x24573766	4.6667618e-17
69	0x3af1d69a	0.0018450797
70	0x357c5be6	9.4011045e-07
71	0x3a8492a9	0.0010114509
72	0xa1c8d242	-1.3608182e-18
73	0x9fdc18e1	-9.321478e-20
74	0xa27d0d84	-3.4295049e-18
75	0x3a551f2d	0.0008129951
76	0x23c60458	2.1469043e-17
77	0x31204c8e	2.332658e-09
78	0x39cacd56	0.0003868143
79	0x220aeb8a	1.882718e-18
80	0xa22047be	-2.1722023e-18
81	0xa00d0159	-1.194361e-19
82	0x3b0b5f8b	0.0021266665
83	0x23e018d5	2.4296645e-17
84	0x29fe02b5	1.12803355e-13
85	0x3ac10555	0.001472632
86	0x38cd6831	9.794569e-05
87	0xa0580092	-1.82961e-19
88	0x398438dc	0.00025219365
89	0x20af1916	2.9662754e-19
90	0x2356858a	1.1629241e-17
91	0x276a4bb9	3.2515073e-15
92	0xa1ce42bc	-1.3976767e-18
93	0x20bc2019	3.186968e-19
94	0x9eb14a35	-1.8771295e-20
95	0x1fbf243b	8.0951585e-20
96	0xa330f583	-9.592968e-18
97	0x2dfb81ea	2.859309e-11
98	0x38f45675	0.000116509305
99	0xa43536fd	-3.9294696e-17
100	0xa0eea004	-4.0424658e-19
101	0x353e1629	7.0812763e-07
102	0x21921292	9.89826e-19
103	0x2acb2341	3.6084506e-13
104	0x35eb8bec	1.7549587e-06
105	0xa1cd9e0f	-1.3933178e-18
106	0x236553b2	1.2431838e-17
107	0x21d68125	1.4535388e-18
108	0x3a152424	0.00056892843
109	0xa9dc5c1d	-9.785942e-14
110	0x383183c9	4.2322823e-05
111	0xa23b5926	-2.539042e-18
112	0x388c4c0e	6.6898865e-05
113	0x3314df72	3.4662158e-08
114	0x209a123e	2.6100686e-19
115	0x3609791d	2.0485088e-06
116	0x2088e3a6	2.318994e-19
117	0x231af262	8.399683e-18
118	0xa297ace6	-4.1111695e-18
119	0x23043933	7.167847e-18
120	0x9fefa2be	-1.0148967e-19
121	0x35b6d974	1.3623344e-06
122	0x37263c68	9.9084355e-06
123	0x2159e656	7.3827307e-19
124	0x38d576ce	0.000101787606
125	0x2320e24c	8.721538e-18
126	0x219826ca	1.0310188e-18
127	0xa1292550	-5.730881e-19
128	0x21909127	9.796241e-19
129	0xa1cb8ed0	-1.3793617e-18
130	0x245b24bd	4.7519174e-17
131	0x34b396ab	3.3450974e-07
132	0xa45d5379	-4.799244e-17
133	0x39b65707	0.00034778586
134	0x3426a7e3	1.5521032e-07
135	0x39425446	0.00018532676
136	0xa0c5099e	-3.3379462e-19
137	0x1e7f15c7	1.3504091e-20
138	0xa31c756a	-8.48164e-18
139	0x3919e400	0.00014676154
140	0x219fe10d	1.083383e-18
141	0x2fa7cf8d	3.0524597e-10
142	0x388ff80a	6.864972e-05
143	0x22d0fdb2	5.6647123e-18
144	0xa2be8808	-5.164363e-18
145	0x228f3785	3.881901e-18
146	0x39ced198	0.0003944754
147	0x22a834ba	4.5592318e-18
148	0x278006bf	3.553445e-15
149	0x398e6239	0.00027157532
150	0x37908f89	1.7232976e-05
151	0xa1fddd0d	-1.7202459e-18
152	0x383e9b38	4.544409e-05
153	0xa19f0da7	-1.0777873e-18
154	0x22ee6468	6.461634e-18
155	0xa43ecea0	-4.13747e-17
156	0xa130f526	-5.995557e-19
157	0x210b49a0	4.7192474e-19
158	0x20b407f6	3.0498454e-19
159	0x205ab318	1.8524575e-19
160	0xa25c4ca1	-2.9856127e-18
161	0x2c34f051	2.571294e-12
162	0x37aa7801	2.032146e-05
163	0x24505ec2	4.5183073e-17
164	0x213fa0fc	6.492638e-19
165	0x33fa9ae0	1.1669704e-07
166	0x2107b161	4.597454e-19
167	0x28ac18df	1.9106622e-14
168	0x349cc29e	2.9198867e-07
169	0x224a0e16	2.7383562e-18
170	0xa25cb4a0	-2.9911182e-18
171	0xa2c9619a	-5.45845e-18
172	0x38d9ef63	0.000103919556
173	0xa9a1deb3	-7.1884684e-14
174	0x36f9826d	7.435962e-06
175	0x209942e4	2.5963473e-19
176	0x374512a1	1.1746452e-05
177	0x31b2a741	5.1994964e-09
178	0xa04d33e4	-1.7381345e-19
179	0x34b6d22a	3.4053056e-07
180	0x1fb325ef	7.5872205e-20
181	0x220a2088	1.871971e-18
182	0xa372404f	-1.3132464e-17
183	0xa2b21c4a	-4.827695e-18
184	0x1f1cb2a0	3.318204e-20
185	0x3473403e	2.265451e-07
186	0x35e55799	1.7087324e-06
187	0x22d15969	5.674423e-18
188	0x37982aeb	1.8139797e-05
189	0xa35b7c87	-1.18983835e-17
190	0x22ef6b37	6.48946e-18
191	0xa3c1b5e1	-2.100213e-17

fai_gcn_networks.1.residual.0.weight f4 [64, 32, 1, 1]
0	0xbc7f773d	-0.015592393
1	0xbc4e3058	-0.012584768
2	0xbb3f9820	-0.002923496
3	0x3d165aa1	0.036707524
4	0x3d1eda92	0.038782664
5	0xbc36b8d2	-0.011152463
6	0x3cd6cc26	0.026220392
7	0x3d04c5bc	0.032415137
8	0xbca29a4e	-0.019848969
9	0xbc859c96	-0.016310018
10	0x3c1670c4	0.009182159
11	0x3d095dad	0.0335366
12	0x3b309054	0.0026941495
13	0xbc251450	-0.010075644
14	0x3cf462fc	0.029832356
15	0x3c86844e	0.01642051
16	0x3d17101d	0.0368806
17	0x3c6fca2f	0.014635607
18	0xbc6b31f0	-0.014355168
19	0x3cb4e6e2	0.02208275
20	0xbc5615a4	-0.013066683
21	0x3c14a1e2	0.009071799
22	0x3cc450d5	0.023964325
23	0xbc040d69	-0.008059838
24	0xbcb0dcaf	-0.021589605
25	0x3c9bd227	0.019021107
26	0xbc856f61	-0.016288461
27	0x3c940c0c	0.01807215
28	0x3b144b99	0.0022628068
29	0x3aa18621	0.0012323299
30	0xbbc05849	-0.0058698994
31	0x3c98c657	0.018649263
32	0x3cc6d901	0.024273397
33	0x3cbc88d2	0.02301446
34	0xbd306eb2	-0.043074317
35	0xbc8b64ae	-0.017015781
36	0x3b6eb50a	0.0036423826
37	0x3c47d9e4	0.012197945
38	0x3d010cfc	0.031506523
39	0x3cdd2749	0.026996272
40	0xbc4425c2	-0.011971893
41	0x3b74178a	0.0037245476
42	0xba5f7d2c	-0.0008525427
43	0xbc9fe60e	-0.019518878
44	0xbd2d836a	-0.042361654
45	0x3c8f5147	0.01749481
46	0xbcedb838	-0.029018506
47	0x3bbfac72	0.0058494145
48	0x3b39befc	0.0028342595
49	0xbb96c4c2	-0.004601092
50	0xbc33c2b5	-0.010971715
51	0xbce4bef0	-0.027923077
52	0x3cee65fb	0.029101362
53	0x3b90ad63	0.0044152006
54	0x3c6da85b	0.014505471
55	0xbd1937fd	-0.03740691
56	0xbc1debe8	-0.009638764
57	0x3c986dc6	0.018607032
58	0xbc2da25b	-0.010597791
59	0x3cdb844f	0.026796488
60	0xbccfc825	-0.025363991
61	0xbd25b23c	-0.04045318
62	0x3c36b418	0.011151336
63	0x3c130c53	0.008975106
64	0xba9538d2	-0.0011384732
65	0xbbb0324d	-0.00537709
66	0x3bb227ad	0.0054368586
67	0x3c8c179b	0.0171011
68	0x3c43c5fc	0.011949059
69	0xbc07f1ff	-0.008297442
70	0x3c675a0a	0.014120588
71	0xbbf424f4	-0.007450694
72	0xbc7dc68c	-0.015489232
73	0x3c7f64e1	0.015588016
74	0xbc16110c	-0.009159338
75	0xbca9f707	-0.020747675
76	0xbc2bcbaf	-0.010485574
77	0x3b5ea58a	0.003397318
78	0xbba81756	-0.005129735
79	0xbc9379c0	-0.01800239
80	0xbc98f82d	-0.018673027
81	0xbd264a8b	-0.040598433
82	0xbb9e9ab5	-0.00484022
83	0xbc9da1ba	-0.019242156
84	0xbcfa7630	-0.030573934
85	0xbce25f3b	-0.0276333
86	0x3c57c85c	0.013170328
87	0xbc9dd27d	-0.019265408
88	0xbc8b2d30	-0.01698932
89	0xbbe07a5b	-0.0068505234
90	0xbbb57789	-0.0055379313
91	0x3c3915eb	0.01129673
92	0x3ce61bf7	0.028089507
93	0x3cda68ca	0.026661295
94	0xbbbfca9c	-0.0058530103
95	0xbca0a131	-0.019608112
96	0xbc948ff9	-0.018135058
97	0xbb4d0001	-0.003128052
98	0xbbd7c279	-0.0065844622
99	0x3cd88237	0.026429279
100	0xbc86bf4c	-0.01644864
101	0xbc0463f6	-0.008080473
102	0xbd31c12a	-0.043397106
103	0xbce7ab98	-0.028280064
104	0x3c297b80	0.010344386
105	0x3d06ea14	0.032938078
106	0xbc492735	-0.012277414
107	0xbc7bf28a	-0.01537765
108	0xba9e0436	-0.0012055698
109	0xbc5b8d90	-0.01340045
110	0x3cb56260	0.022141635
111	0xbccaeaea	-0.024770219
112	0xbaef43f9	-0.001825451
113	0xbca59cf8	-0.02021645
114	0x3d042f77	0.03227183
115	0x3cd57a92	0.026059423
116	0xbb05d6ed	-0.0020422295
117	0xbbd331dc	-0.0064451527
118	0x3c4e0f52	0.012576895
119	0x3c51a0dc	0.0127946995
120	0xbcba18f3	-0.022716975
121	0x3ccd411d	0.025055462
122	0x3c949a76	0.018140059
123	0x3b0fd340	0.0021945983
124	0x3cb5e2c1	0.022202851
125	0x3cdcdb64	0.026960082
126	0x3ca0d4e7	0.01963277
127	0xbb57dcb9	-0.0032937957
128	0x3c6613bc	0.014042791
129	0x3befae54	0.0073144827
130	0xbca17eb0	-0.01971373
131	0x3c957ffe	0.018249508
132	0x3c34c267	0.011032677
133	0x3ca06167	0.019577695
134	0xbbb4ac47	-0.005513701
135	0x3c63cc5d	0.0139037045
136	0xbba1b909	-0.004935388
137	0x3a24e66d	0.00062904396
138	0x3d36d855	0.044639904
139	0xbc069007	-0.00821305
140	0xbb1fea20	-0.0024401024
141	0x3c548dd3	0.012973267
142	0xbae81b6e	-0.001770837
143	0xbc07098d	-0.008242023
144	0xbb35ceca	-0.0027741664
145	0xbca5a3d2	-0.020219717
146	0xbc7d075e	-0.015443651
147	0xbbd5e499	-0.006527495
148	0xbae59dcf	-0.0017518344
149	0x3cb44ea0	0.022010148
150	0xbc81d772	-0.015849803
151	0x3a3f3add	0.0007294843
152	0xbc6bf645	-0.014401977
153	0x3cc38a54	0.02386967
154	0x3ca5fbb9	0.020261632
155	0x3ad16df4	0.0015978203
156	0xbc6548d5	-0.013994415
157	0x3c173ac6	0.009230321
158	0xbc44ebf3	-0.012019145
159	0xbd3bf8fc	-0.045891747
160	0xbc782b13	-0.015146988
161	0x3c13df9b	0.00902548
162	0x3cc93a60	0.024563968
163	0xbc75fc03	-0.015013698
164	0x3ca6ec30	0.020376295
165	0x3c3840b0	0.011245891
166	0xbb59c525	-0.003322908
167	0xbcd1a18a	-0.025589723
168	0xbce09e10	-0.02741912
169	0xbc967d3e	-0.018370267
170	0x3c8c6247	0.017136706
171	0xbc2a7449	-0.010403701
172	0xbc92afb4	-0.017906047
173	0xbaf04659	-0.0018331512
174	0x3cb036bd	0.021510476
175	0x3bce2b85	0.006291809
176	0xbc84ccf9	-0.01621102
177	0x3d79c800	0.06098175
178	0x3cd2b942	0.025723103
179	0x3c329c0b	0.010901461
180	0x3b3d61a7	0.0028897317
181	0x3cb3222a	0.021866877
182	0xbbcb6c37	-0.0062079686
183	0x3b9b6e58	0.0047433786
184	0x3c91de02	0.017806057
185	0x3bc68e29	0.0060594273
186	0xbcc96e79	-0.02458881
187	0xbca25377	-0.01981519
188	0xbc81e29b	-0.015855124
189	0xba6a6947	-0.0008942079
190	0x3c4a707b	0.012355919
191	0x3c38e1cb	0.011284302
192	0xbc80e4e8	-0.015734151
193	0xbae19e75	-0.0017213362
194	0xbd79e923	-0.061013352
195	0x3c79967b	0.015233631
196	0xbd1d2a29	-0.038370285
197	0x3ab1cc3c	0.0013564895
198	0xbc39a23d	-0.0113301845
199	0xbd1bc2f6	-0.038027726
200	0xbb7552ee	-0.0037433463
201	0xbc63f733	-0.013913917
202	0xbb8ea3b6	-0.004353012
203	0x3b1e2ebd	0.0024136745
204	0xbbacab09	-0.0052694124
205	0x3c48f70f	0.012265935
206	0x3c75afd4	0.014995534
207	0xbc65c132	-0.014023112
208	0x3d12201d	0.035675157
209	0x3c4fc7fc	0.012681957
210	0xbc5df258	-0.013546549
211	0xbb8ad981	-0.0042373543
212	0x3d874f12	0.06606878
213	0x3c3ee48b	0.011651169
214	0x3cc36e18	0.023856208
215	0x3bb9c815	0.0056696036
216	0xbc7a8e0b	-0.015292655
217	0x3a4542db	0.0007524916
218	0x3b96fb9c	0.004607631
219	0xbd01fef0	-0.031737268
220	0xbb339d7d	-0.0027407103
221	0x3b0bf88e	0.0021357867
222	0xbc541fe5	-0.012947057
223	0xbc8cec17	-0.01720242
224	0x3a9f8f3e	0.0012173427
225	0x3af97aa0	0.0019033737
226	0x3c558032	0.013031052
227	0xbce8fd2e	-0.028441038
228	0xbc308e73	-0.01077615
229	0xbc4fc8e1	-0.012682171
230	0xbb8f90a1	-0.004381255
231	0xbc170ce3	-0.009219381
232	0x3b71eb67	0.0036913992
233	0xbd0be14b	-0.034150403
234	0x3c4ddd3d	0.012564954
235	0x3cf02463	0.029314226
236	0x3c82d231	0.015969368
237	0x3a47f589	0.0007627835
238	0xbcb754f0	-0.022379369
239	0xbb958a04	-0.004563572
240	0x3bccff18	0.0062559955
241	0x3ca58521	0.020205082
242	0x3d1636bb	0.03667329
243	0xbc6b6170	-0.014366493
244	0x3c429269	0.011875727
245	0x3ba917ee	0.0051603233
246	0x3c297014	0.010341663
247	0xbbb4210d	-0.005497104
248	0x3c60f36e	0.013729913
249	0xbd3f2c4a	-0.046673097
250	0xbcb7afd0	-0.022422701
251	0x3bbe1ce6	0.005801785
252	0x3b7dd060	0.0038728938
253	0xbb4cc587	-0.0031245665
254	0x3c4004a0	0.011719853
255	0x3c9d1f9c	0.019180112

fai_gcn_networks.1.residual.0.bias f4 [64]
0	0x00000000	0.0
1	0x00000000	0.0
2	0x00000000	0.0
3	0x00000000	0.0
4	0x00000000	0.0
5	0x00000000	0.0
6	0x00000000	0.0
7	0x00000000	0.0
8	0x00000000	0.0
9	0x00000000	0.0
10	0x00000000	0.0
11	0x00000000	0.0
12	0x00000000	0.0
13	0x00000000	0.0
14	0x00000000	0.0
15	0x00000000	0.0
16	0x00000000	0.0
17	0x00000000	0.0
18	0x00000000	0.0
19	0x00000000	0.0
20	0x00000000	0.0
21	0x00000000	0.0
22	0x00000000	0.0
23	0x00000000	0.0
24	0x00000000	0.0
25	0x00000000	0.0
26	0x00000000	0.0
27	0x00000000	0.0
28	0x00000000	0.0
29	0x00000000	0.0
30	0x00000000	0.0
31	0x00000000	0.0
32	0x00000000	0.0
33	0x00000000	0.0
34	0x00000000	0.0
35	0x00000000	0.0
36	0x00000000	0.0
37	0x00000000	0.0
38	0x00000000	0.0
39	0x00000000	0.0
40	0x00000000	0.0
41	0x00000000	0.0
42	0x00000000	0.0
43	0x00000000	0.0
44	0x00000000	0.0
45	0x00000000	0.0
46	0x00000000	0.0
47	0x00000000	0.0
48	0x00000000	0.0
49	0x00000000	0.0
50	0x00000000	0.0
51	0x00000000	0.0
52	0x00000000	0.0
53	0x00000000	0.0
54	0x00000000	0.0
55	0x00000000	0.0
56	0x00000000	0.0
57	0x00000000	0.0
58	0x00000000	0.0
59	0x00000000	0.0
60	0x00000000	0.0
61	0x00000000	0.0
62	0x00000000	0.0
63	0x00000000	0.0

fai_gcn_networks.1.residual.1.weight f4 [64]
0	0x3f81e8b2	1.0149138
1	0x3f7d6802	0.9898683
2	0x3f8006bd	1.0002056
3	0x3f7d51e4	0.9895308
4	0x3f7c44e4	0.9854262
5	0x3f80556e	1.0026071
6	0x3f78f662	0.9725095
7	0x3f811737	1.008521
8	0x3f7a6986	0.97817266
9	0x3f7f44ee	0.99714553
10	0x3f836795	1.0265986
11	0x3f7c1973	0.9847633
12	0x3f81ec4b	1.0150236
13	0x3f7b87fc	0.9825437
14	0x3f83b423	1.0289348
15	0x3f805cc4	1.002831
16	0x3f810e1a	1.0082428
17	0x3f81c2c9	1.0137569
18	0x3f81c834	1.0139222
19	0x3f778f81	0.96703345
20	0x3f77b613	0.967622
21	0x3f815f62	1.0107234
22	0x3f800913	1.0002769
23	0x3f885d21	1.0653421
24	0x3f7cd7c4	0.9876673
25	0x3f77b847	0.9676556
26	0x3f7df9ba	0.9920918
27	0x3f83da9c	1.0301089
28	0x3f805b86	1.0027931
29	0x3f81fcde	1.0155294
30	0x3f7c2d85	0.9850696
31	0x3f82dab6	1.0222995
32	0x3f7e4875	0.9932931
33	0x3f82d447	1.0221032
34	0x3f83f827	1.0310105
35	0x3f802fbe	1.001457
36	0x3f7dcdf7	0.991424
37	0x3f83d8d8	1.030055
38	0x3f78d404	0.9719851
39	0x3f7e9032	0.99438775
40	0x3f7f52c9	0.99735695
41	0x3f8070d8	1.0034437
42	0x3f7cc6f8	0.987411
43	0x3f7c169b	0.98471993
44	0x3f8135ad	1.0094506
45	0x3f80a89d	1.0051457
46	0x3f76a3fe	0.9634398
47	0x3f81c7ad	1.0139061
48	0x3f83755c	1.027019
49	0x3f7d22e8	0.9888139
50	0x3f7f2852	0.996709
51	0x3f7cc0e0	0.98731804
52	0x3f78b7ce	0.97155464
53	0x3f7ea544	0.99470925
54	0x3f82c803	1.0217289
55	0x3f82a32d	1.0206047
56	0x3f811003	1.0083011
57	0x3f7bf90d	0.98426896
58	0x3f8218bf	1.0163802
59	0x3f803a42	1.0017779
60	0x3f7dfe21	0.99215895
61	0x3f81ab3e	1.0130384
62	0x3f7896ca	0.97105086
63	0x3f80974c	1.0046172

fai_gcn_networks.1.residual.1.bias f4 [64]
0	0x00000000	0.0
1	0x00000000	0.0
2	0x00000000	0.0
3	0x00000000	0.0
4	0x00000000	0.0
5	0x00000000	0.0
6	0x00000000	0.0
7	0x00000000	0.0
8	0x00000000	0.0
9	0x00000000	0.0
10	0x00000000	0.0
11	0x00000000	0.0
12	0x00000000	0.0
13	0x00000000	0.0
14	0x00000000	0.0
15	0x00000000	0.0
16	0x00000000	0.0
17	0x00000000	0.0
18	0x00000000	0.0
19	0x00000000	0.0
20	0x00000000	0.0
21	0x00000000	0.0
22	0x00000000	0.0
23	0x00000000	0.0
24	0x00000000	0.0
25	0x00000000	0.0
26	0x00000000	0.0
27	0x00000000	0.0
28	0x00000000	0.0
29	0x00000000	0.0
30	0x00000000	0.0
31	0x00000000	0.0
32	0x00000000	0.0
33	0x00000000	0.0
34	0x00000000	0.0
35	0x00000000	0.0
36	0x00000000	0.0
37	0x00000000	0.0
38	0x00000000	0.0
39	0x00000000	0.0
40	0x00000000	0.0
41	0x00000000	0.0
42	0x00000000	0.0
43	0x00000000	0.0
44	0x00000000	0.0
45	0x00000000	0.0
46	0x00000000	0.0
47	0x00000000	0.0
48	0x00000000	0.0
49	0x00000000	0.0
50	0x00000000	0.0
51	0x00000000	0.0
52	0x00000000	0.0
53	0x00000000	0.0
54	0x00000000	0.0
55	0x00000000	0.0
56	0x00000000	0.0
57	0x00000000	0.0
58	0x00000000	0.0
59	0x00000000	0.0
60	0x00000000	0.0
61	0x00000000	0.0
62	0x00000000	0.0
63	0x00000000	0.0

fai_gcn_networks.1.residual.1.running_mean f4 [64]
0	0x23e49504	2.478292e-17
1	0xa3dd281a	-2.3977852e-17
2	0xa2a01a5e	-4.3396004e-18
3	0x23a8e988	1.8313501e-17
4	0xa1f7c804	-1.6790315e-18
5	0x23a4b47b	1.7857352e-17
6	0x23638443	1.2333702e-17
7	0xa3aa08ec	-1.8435215e-17
8	0xa2f000ac	-6.505284e-18
9	0x23052865	7.218498e-18
10	0x23a60ea3	1.8003955e-17
11	0xa4201c57	-3.4718474e-17
12	0xa1dc7020	-1.4937459e-18
13	0x223f3a63	2.5916237e-18
14	0xa34a9a9a	-1.098318e-17
15	0x232148fe	8.743284e-18
16	0x232dc6df	9.420461e-18
17	0x240913a9	2.9723792e-17
18	0x22b42396	4.8826776e-18
19	0xa330f409	-9.5926556e-18
20	0x22b829b1	4.9917442e-18
21	0x22c6d2d5	5.3891235e-18
22	0x233ab7eb	1.0122026e-17
23	0x22c23d67	5.2648818e-18
24	0x236e8c85	1.2931762e-17
25	0x22aae47c	4.632051e-18
26	0xa3660899	-1.2470146e-17
27	0xa3e0f43a	-2.4389563e-17
28	0xa3f3a8ce	-2.6417604e-17
29	0xa3300860	-9.542753e-18
30	0x23a3736a	1.7721375e-17
31	0xa32bcb55	-9.312986e-18
32	0xa2bf7ce0	-5.190287e-18
33	0xa39956f3	-1.6625118e-17
34	0x228fc0cb	3.8964355e-18
35	0x21059df7	4.527122e-19
36	0x240295cf	2.831615e-17
37	0xa19b81bb	-1.0537548e-18
38	0xa204b83a	-1.7986865e-18
39	0x229873a5	4.1322126e-18
40	0x23038bac	7.131101e-18
41	0xa396dbee	-1.6356176e-17
42	0xa3d379c1	-2.292823e-17
43	0xa39fe774	-1.7336839e-17
44	0xa36c4aef	-1.28094534e-17
45	0xa3ac676c	-1.8692078e-17
46	0x23d1c309	2.2742426e-17
47	0x217976e5	8.4521837e-19
48	0x23742a9f	1.3236292e-17
49	0xa319d5df	-8.3394356e-18
50	0x20fede6d	4.3176463e-19
51	0x221fac38	2.163969e-18
52	0x23306bb9	9.56379e-18
53	0x23600f48	1.21463e-17
54	0x2283c536	3.5716426e-18
55	0x239b565d	1.684171e-17
56	0xa31df73b	-8.56334e-18
57	0x23aefa5f	1.8971154e-17
58	0xa24baef4	-2.760425e-18
59	0xa0f6c46c	-4.1804002e-19
60	0xa42281bd	-3.5238043e-17
61	0xa3a86b6a	-1.8260088e-17
62	0x237a5bc8	1.3571963e-17
63	0xa33b3c0e	-1.0150007e-17

fai_gcn_networks.1.residual.1.running_var f4 [64]
0	0x08e48ccb	1.3755351e-33
1	0x08d836bd	1.3012896e-33
2	0x06586569	4.069959e-35
3	0x087bc38d	7.5762434e-34
4	0x04cfe25d	4.8873348e-36
5	0x086da4c0	7.1513256e-34
6	0x07e6e9f9	3.474407e-34
7	0x08809504	7.738753e-34
8	0x06f789a1	9.31133e-35
9	0x071d620c	1.1840181e-34
10	0x086d4b2b	7.1407953e-34
11	0x096249d6	2.7238478e-33
12	0x04e7c12c	5.448524e-36
13	0x059eaeb2	1.4922422e-35
14	0x07b282c9	2.6859332e-34
15	0x0767c656	1.7436794e-34
16	0x078567dc	2.007266e-34
17	0x0925eb48	1.9971781e-33
18	0x06881279	5.118466e-35
19	0x078cf1bb	2.1206935e-34
20	0x0694799c	5.58501e-35
21	0x06a68461	6.2636773e-35
22	0x07978e50	2.2803599e-34
23	0x06ad3bd3	6.516327e-35
24	0x07f7888c	3.7244684e-34
25	0x0683e822	4.961781e-35
26	0x07f0b940	3.6220067e-34
27	0x08dd5176	1.3320105e-33
28	0x090314ee	1.5778393e-33
29	0x078d637c	2.1273794e-34
30	0x086b13f0	7.0741177e-34
31	0x077c6edf	1.8990955e-34
32	0x06ae00c9	6.545268e-35
33	0x084ec60c	6.2223673e-34
34	0x0635be7f	3.418227e-35
35	0x030d462a	4.151672e-37
36	0x0916bcf7	1.8144444e-33
37	0x0438e2b6	2.1733197e-36
38	0x05572701	1.0116415e-35
39	0x063a11b9	3.4995732e-35
40	0x07190111	1.1510754e-34
41	0x0845e3e7	5.955043e-34
42	0x08c55074	1.1875421e-33
43	0x086212fd	6.803172e-34
44	0x07fc041f	3.7919168e-34
45	0x08822ccd	7.834623e-34
46	0x08be80c9	1.1465486e-33
47	0x041b1956	1.8231796e-36
48	0x080482c1	3.9876006e-34
49	0x075c5097	1.6574644e-34
50	0x0318df54	4.4925153e-37
51	0x056f75c1	1.1259354e-35
52	0x0784bd88	1.997255e-34
53	0x07e2b7a2	3.411263e-34
54	0x061dd31f	2.9683525e-35
55	0x08508f61	6.2761264e-34
56	0x075f0d1b	1.6780507e-34
57	0x0886607b	8.087514e-34
58	0x05aea4fa	1.6423484e-35
59	0x034d34da	6.0304756e-37
60	0x09685a4f	2.7968447e-33
61	0x087b52cc	7.562989e-34
62	0x080a94f5	4.1702963e-34
63	0x079c22ec	2.3492796e-34
