capsule-6073072/code/work_dir/recognition/kinetics_skeleton/FAI_GCN/epoch40_model.pt (torch, 74041 bytes, 22 tensors)

A f4 [3, 18, 18]
000000 00 00 80 3e 00 00 00 00 00 00 00 00 00 00 00 00
       0.25 0.0 0.0 0.0
000010 00 00 00 00 00 00 00 00 00 00 00 00 00 00 00 00
       0.0 0.0 0.0 0.0
000020 00 00 00 00 00 00 00 00 00 00 00 00 00 00 00 00
       0.0 0.0 0.0 0.0
000030 00 00 00 00 00 00 00 00 00 00 00 00 00 00 00 00
       0.0 0.0 0.0 0.0
000040 00 00 00 00 00 00 00 00 00 00 00 00 00 00 80 3e
       0.0 0.0 0.0 0.25
000050 00 00 00 00 00 00 00 00 00 00 00 00 00 00 00 00
       0.0 0.0 0.0 0.0
000060 00 00 00 00 00 00 00 00 00 00 00 00 00 00 00 00
       0.0 0.0 0.0 0.0
000070 00 00 00 00 00 00 00 00 00 00 00 00 00 00 00 00
       0.0 0.0 0.0 0.0
000080 00 00 00 00 00 00 00 00 00 00 00 00 00 00 00 00
       0.0 0.0 0.0 0.0
000090 00 00 00 00 00 00 00 00 00 00 80 3e 00 00 00 00
       0.0 0.0 0.25 0.0
0000a0 00 00 00 00 00 00 00 00 00 00 00 00 00 00 00 00
       0.0 0.0 0.0 0.0
0000b0 00 00 00 00 00 00 00 00 00 00 00 00 00 00 00 00
       0.0 0.0 0.0 0.0
0000c0 00 00 00 00 00 00 00 00 00 00 00 00 00 00 00 00
       0.0 0.0 0.0 0.0
0000d0 00 00 00 00 00 00 00 00 00 00 00 00 00 00 00 00
       0.0 0.0 0.0 0.0
0000e0 00 00 00 00 ab aa aa 3e 00 00 00 00 00 00 00 00
       0.0 0.33333334 0.0 0.0
0000f0 00 00 00 00 00 00 00 00 00 00 00 00 00 00 00 00
       0.0 0.0 0.0 0.0
000100 00 00 00 00 00 00 00 00 00 00 00 00 00 00 00 00
       0.0 0.0 0.0 0.0
000110 00 00 00 00 00 00 00 00 00 00 00 00 00 00 00 00
       0.0 0.0 0.0 0.0
000120 00 00 00 00 00 00 00 00 00 00 00 00 00 00 00 00
       0.0 0.0 0.0 0.0
000130 00 00 00 3f 00 00 00 00 00 00 00 00 00 00 00 00
       0.5 0.0 0.0 0.0
000140 00 00 00 00 00 00 00 00 00 00 00 00 00 00 00 00
       0.0 0.0 0.0 0.0
000150 00 00 00 00 00 00 00 00 00 00 00 00 00 00 00 00
       0.0 0.0 0.0 0.0
000160 00 00 00 00 00 00 00 00 00 00 00 00 00 00 00 00
       0.0 0.0 0.0 0.0
000170 00 00 00 00 00 00 00 00 00 00 00 00 00 00 80 3e
       0.0 0.0 0.0 0.25
000180 00 00 00 00 00 00 00 00 00 00 00 00 00 00 00 00
       0.0 0.0 0.0 0.0
000190 00 00 00 00 00 00 00 00 00 00 00 00 00 00 00 00
       0.0 0.0 0.0 0.0
0001a0 00 00 00 00 00 00 00 00 00 00 00 00 00 00 00 00
       0.0 0.0 0.0 0.0
0001b0 00 00 00 00 00 00 00 00 00 00 00 00 00 00 00 00
       0.0 0.0 0.0 0.0
0001c0 00 00 00 00 00 00 00 00 ab aa aa 3e 00 00 00 00
       0.0 0.0 0.33333334 0.0
0001d0 00 00 00 00 00 00 00 00 00 00 00 00 00 00 00 00
       0.0 0.0 0.0 0.0
0001e0 00 00 00 00 00 00 00 00 00 00 00 00 00 00 00 00
       0.0 0.0 0.0 0.0
0001f0 00 00 00 00 00 00 00 00 00 00 00 00 00 00 00 00
       0.0 0.0 0.0 0.0
000200 00 00 00 00 00 00 00 00 00 00 00 00 00 00 00 00
       0.0 0.0 0.0 0.0
000210 00 00 00 00 00 00 00 3f 00 00 00 00 00 00 00 00
       0.0 0.5 0.0 0.0
000220 00 00 00 00 00 00 00 00 00 00 00 00 00 00 00 00
       0.0 0.0 0.0 0.0
000230 00 00 00 00 00 00 00 00 00 00 00 00 00 00 00 00
       0.0 0.0 0.0 0.0
000240 00 00 00 00 00 00 00 00 00 00 00 00 00 00 00 00
       0.0 0.0 0.0 0.0
000250 00 00 00 00 00 00 00 00 00 00 00 00 00 00 00 00
       0.0 0.0 0.0 0.0
000260 ab aa aa 3e 00 00 00 00 00 00 00 00 00 00 00 00
       0.33333334 0.0 0.0 0.0
000270 00 00 00 00 00 00 00 00 00 00 00 00 00 00 00 00
       0.0 0.0 0.0 0.0
000280 00 00 00 00 00 00 00 00 00 00 00 00 00 00 00 00
       0.0 0.0 0.0 0.0
000290 00 00 00 00 00 00 00 00 00 00 00 00 00 00 00 00
       0.0 0.0 0.0 0.0
0002a0 00 00 00 00 00 00 00 00 00 00 00 00 ab aa aa 3e
       0.0 0.0 0.0 0.33333334
0002b0 00 00 00 00 00 00 00 00 00 00 00 00 00 00 00 00
       0.0 0.0 0.0 0.0
0002c0 00 00 00 00 00 00 00 00 00 00 00 00 00 00 00 00
       0.0 0.0 0.0 0.0
0002d0 00 00 00 00 00 00 00 00 00 00 00 00 00 00 00 00
       0.0 0.0 0.0 0.0
0002e0 00 00 00 00 00 00 00 00 00 00 00 00 00 00 00 00
       0.0 0.0 0.0 0.0
0002f0 00 00 00 00 00 00 00 00 00 00 00 3f 00 00 00 00
       0.0 0.0 0.5 0.0
000300 00 00 00 00 00 00 00 00 00 00 00 00 00 00 00 00
       0.0 0.0 0.0 0.0
000310 00 00 00 00 00 00 00 00 00 00 00 00 00 00 00 00
       0.0 0.0 0.0 0.0
000320 00 00 00 00 00 00 00 00 00 00 00 00 00 00 00 00
       0.0 0.0 0.0 0.0
000330 00 00 00 00 00 00 00 00 00 00 00 00 00 00 00 00
       0.0 0.0 0.0 0.0
000340 00 00 00 00 ab aa aa 3e 00 00 00 00 00 00 00 00
       0.0 0.33333334 0.0 0.0
000350 00 00 00 00 00 00 00 00 00 00 00 00 00 00 00 00
       0.0 0.0 0.0 0.0
000360 00 00 00 00 00 00 00 00 00 00 00 00 00 00 00 00
       0.0 0.0 0.0 0.0
000370 00 00 00 00 00 00 00 00 00 00 00 00 00 00 00 00
       0.0 0.0 0.0 0.0
000380 00 00 00 00 00 00 00 00 00 00 00 00 00 00 00 00
       0.0 0.0 0.0 0.0
000390 ab aa aa 3e 00 00 00 00 00 00 00 00 00 00 00 00
       0.33333334 0.0 0.0 0.0
0003a0 00 00 00 00 00 00 00 00 00 00 00 00 00 00 00 00
       0.0 0.0 0.0 0.0
0003b0 00 00 00 00 00 00 00 00 00 00 00 00 00 00 00 00
       0.0 0.0 0.0 0.0
0003c0 00 00 00 00 00 00 00 00 00 00 00 00 00 00 00 00
       0.0 0.0 0.0 0.0
0003d0 00 00 00 00 00 00 00 00 00 00 00 00 00 00 00 3f
       0.0 0.0 0.0 0.5
0003e0 00 00 00 00 00 00 00 00 00 00 00 00 00 00 00 00
       0.0 0.0 0.0 0.0
0003f0 00 00 00 00 00 00 00 00 00 00 00 00 00 00 00 00
       0.0 0.0 0.0 0.0

data_bn.weight f4 [54]
000000 bc 53 76 3f 4d c3 74 3f ec 58 78 3f 6e bb 75 3f
       0.9622152 0.95610505 0.97010684 0.9598912
000010 14 47 79 3f bd 44 68 3f 67 88 79 3f 76 58 6e 3f
       0.9737408 0.90729886 0.9747376 0.9310373
000020 12 a8 7c 3f df 83 6b 3f ed ec 73 3f 0d 9b 71 3f
       0.98693955 0.91998094 0.95283395 0.94377214
000030 03 cd 74 3f 7c 82 7a 3f 66 4a 74 3f 94 bd 6e 3f
       0.95625323 0.97855353 0.95426023 0.93258023
000040 b9 5c 6e 3f ff 7c 6b 3f 60 7b 78 3f 9f 78 7a 3f
       0.93110234 0.91987604 0.97063255 0.97840303
000050 dc 98 75 3f b9 be 78 3f aa 65 74 3f 0c 77 76 3f
       0.9593637 0.9716602 0.9546763 0.962754
000060 7e 16 78 3f 3a 3c 7b 3f 02 09 74 3f 99 5a 75 3f
       0.9690932 0.98138773 0.95326245 0.95841366
000070 05 57 74 3f 5c 75 76 3f ca 74 6d 3f a6 02 76 3f
       0.9544528 0.96272826 0.9275633 0.9609779
000080 f3 ec 72 3f 2c ed 74 3f 8c 08 78 3f 5b 91 70 3f
       0.94892806 0.95674396 0.9688804 0.93971795
000090 4b b7 71 3f da 99 73 3f 09 64 76 3f b5 00 72 3f
       0.9442031 0.95156634 0.9624639 0.9453233
0000a0 5e f1 74 3f d5 49 73 3f eb 7e 60 3f f4 3c 6d 3f
       0.956808 0.95034534 0.8769366 0.9267113
0000b0 ef 63 70 3f 37 d7 71 3f 2a 26 74 3f ad 4a 79 3f
       0.93902487 0.94469017 0.95370734 0.9737957
0000c0 0b f0 75 3f 29 9b 7b 3f eb e2 74 3f 2f e2 79 3f
       0.960694 0.9828363 0.9565875 0.97610754
0000d0 85 ec 66 3f 8e a2 68 3f
       0.9020465 0.9087304

data_bn.bias f4 [54]
000000 91 7f 39 b6 49 73 50 35 b8 88 93 b5 47 1b 9e b5
       -2.7641402e-06 7.76538e-07 -1.0992144e-06 -1.1779856e-06
000010 03 38 3d 35 4f b1 95 36 61 0d a1 b5 23 61 a7 34
       7.0489494e-07 4.4611875e-06 -1.1999329e-06 3.117685e-07
000020 a7 fe 94 b5 63 0d 6d 36 88 77 1f 35 44 e4 d2 b5
       -1.1100973e-06 3.5323544e-06 5.9406057e-07 -1.5712653e-06
000030 90 24 23 33 62 ac 5c 36 c8 cc d6 b5 37 70 fe b5
       3.798465e-08 3.2882895e-06 -1.6003842e-06 -1.8957134e-06
000040 f2 1c e3 34 88 19 87 b5 ce ca d8 35 bb 07 2d 35
       4.2303105e-07 -1.0065714e-06 1.6152278e-06 6.445877e-07
000050 6c 1f bb b5 cd 73 c9 b4 77 6e e1 35 e7 9a e0 b5
       -1.3941731e-06 -3.7523424e-07 1.6795956e-06 -1.6734383e-06
000060 e7 f9 25 35 83 c5 43 35 3a 61 ce b5 e2 98 1f 36
       6.1830946e-07 7.293058e-07 -1.5376493e-06 2.3781836e-06
000070 52 9c 80 34 34 87 a4 b5 e8 36 af b4 36 78 88 36
       2.3955596e-07 -1.2258301e-06 -3.263624e-07 4.0671102e-06
000080 45 76 c3 b5 37 00 19 35 5d 43 e3 35 3f bb bc b5
       -1.4563053e-06 5.6997254e-07 1.6932423e-06 -1.4061587e-06
000090 bf 1d 1c 36 78 e1 c6 34 b6 de a6 b5 59 22 2a b4
       2.3263126e-06 3.7044424e-07 -1.2432781e-06 -1.584498e-07
0000a0 0d b9 86 36 43 ee c5 b5 16 5a 30 36 39 24 5d 35
       4.015054e-06 -1.4746987e-06 2.627848e-06 8.2381626e-07
0000b0 bb 1d bb b5 5f c0 78 36 63 3f 8f 35 b1 81 c7 b5
       -1.3941238e-06 3.7066854e-06 1.0672778e-06 -1.48644e-06
0000c0 a5 5a 47 b5 79 06 13 36 3a ca 0b b6 71 50 d1 32
       -7.426518e-07 2.1908475e-06 -2.0830325e-06 2.4367383e-08
0000d0 8c ca 97 35 b1 29 d8 b5
       1.1309326e-06 -1.6105388e-06

data_bn.running_mean f4 [54]
000000 e1 a7 3a bd 3c 3d f3 bb 10 39 9f 3d 74 1b 35 bd
       -0.045570258 -0.007423071 0.07774556 -0.044215634
000010 14 eb 4a 3a 67 83 99 3d 7f 59 48 bd 7b e6 0c 3a
       0.0007740718 0.07495766 -0.048913475 0.00053749204
000020 16 97 88 3d 27 94 5a bd c6 9b ca 3b ca 46 84 3d
       0.06669442 -0.053363945 0.0061831204 0.064588144
000030 d5 38 64 bd 59 7d 02 3c 4d 9e 82 3d 25 8b 22 bd
       -0.05571826 0.0079644555 0.0637785 -0.03968348
000040 07 76 8b 3a 47 b0 88 3d c1 b7 15 bd 80 c9 b0 3b
       0.0010640033 0.06674247 -0.036552195 0.0053951144
000050 a4 db 84 3d 3f ba 10 bd 57 26 04 3c dc 8c 86 3d
       0.064872056 -0.035333868 0.008065782 0.065698355
000060 e9 df 45 bd ef cd a5 3c ad 0b 70 3d 9e 4d 54 bd
       -0.04830924 0.020239798 0.058604885 -0.051831834
000070 53 25 e5 3c bc 0a 7a 3d 08 66 4c bd 77 94 23 3d
       0.0279719 0.061045393 -0.049901992 0.03993651
000080 61 a9 81 3d 36 6b 2d bd 03 52 a7 3c e6 81 70 3d
       0.063311346 -0.042338572 0.020424848 0.05871763
000090 fa 4a 20 bd 50 af e6 3c 0d e6 7f 3d b4 db 2b bd
       -0.039134003 0.028159767 0.062475253 -0.041957572
0000a0 aa 22 19 3d b8 5b 62 3d 39 93 3c bd ce d7 11 bc
       0.037386574 0.05526325 -0.04603884 -0.0089015495
0000b0 a0 4c 8d 3d 7a bd 31 bd 06 a5 12 bc 57 ee a1 3d
       0.06899381 -0.04339359 -0.0089504775 0.07906788
0000c0 e5 59 35 bd 4d a2 64 3a 39 c8 cf 3c 03 f6 22 bd
       -0.044275183 0.00087216945 0.025364028 -0.039785396
0000d0 b1 d5 d9 bb 7e 49 87 3d
       -0.0066477885 0.066058144

data_bn.running_var f4 [54]
000000 17 75 41 3b c9 43 94 3b 35 41 e9 3c c9 df 3d 3b
       0.0029519254 0.004524682 0.028473476 0.0028972498
000010 7e 88 56 3b ab 71 d7 3c 19 3d 56 3b 28 d2 57 3b
       0.0032735164 0.026299318 0.0032690226 0.003293166
000020 bf 03 a5 3c e0 70 80 3b c8 df 3d 3b 19 a1 a7 3c
       0.020143388 0.0039197057 0.0028972495 0.02046256
000030 f6 14 97 3b 56 be 43 3b 7c 64 b9 3c 20 3a 35 3b
       0.004610653 0.0029868088 0.022630922 0.0027653053
000040 1b 22 55 3b f9 9e a5 3c 9b 46 3b 3b ce 74 47 3b
       0.003252155 0.020217406 0.002857602 0.0030434611
000050 34 78 b4 3c d7 d4 40 3b 43 99 5f 3b b0 86 c4 3c
       0.022029974 0.0029423737 0.003411845 0.023990005
000060 87 73 50 3b 04 7d 40 3b d1 62 84 3c 36 89 70 3b
       0.003180714 0.002937139 0.0161604 0.0036702878
000070 de 0a 7b 3b 03 e4 9f 3c f0 f0 6b 3b d7 ae c9 3b
       0.0038306038 0.019517904 0.0036001764 0.0061548757
000080 27 19 b5 3c e3 77 38 3b 51 43 41 3b 32 2e 85 3c
       0.02210672 0.002814763 0.0029489587 0.01625738
000090 ac d8 32 3b 77 dd 79 3b 8f d4 a8 3c f0 bf 40 3b
       0.002728979 0.0038126388 0.020609168 0.0029411279
0000a0 b1 78 b3 3b 44 60 97 3c 4c 34 49 3b f3 cb 9e 3b
       0.005477034 0.01847852 0.0030701337 0.00484609
0000b0 03 60 b0 3c f9 7e 3a 3b 0e 88 9b 3b b2 20 ee 3c
       0.021530157 0.002845703 0.0047464436 0.029068325
0000c0 62 66 5d 3b d7 7a 80 3b 56 75 8d 3b f8 ff 37 3b
       0.0033782949 0.0039208937 0.004316966 0.0028076153
0000d0 5f 92 8d 3b eb 39 cb 3c
       0.0043204273 0.02480789

fai_gcn_networks.0.gcn.conv.weight f4 [96, 3, 1, 1]
000000 52 12 58 39 4c e1 6c b6 c4 63 b7 bb 1f dc 09 b8
       0.0002060619 -3.529788e-06 -0.00559661 -3.286835e-05
000010 d2 e8 d7 bb ab 05 c2 37 3a d1 c4 37 37 f3 a0 b7
       -0.0065890336 2.3129242e-05 2.346245e-05 -1.9186742e-05
000020 1c c2 9e 3a 35 2f 34 3c 56 9f 6e 36 77 cd 8d bc
       0.0012112292 0.010997583 3.555751e-06 -0.017309887
000030 6c bd 33 3a 2d d0 61 37 04 3b 10 3b 98 7f df b7
       0.0006856534 1.3459515e-05 0.0022007832 -2.6643087e-05
000040 3b 06 97 b9 d8 41 24 b7 17 d8 85 36 8f 04 9e b7
       -0.00028805606 -9.790492e-06 3.988865e-06 -1.883719e-05
000050 a1 a7 e7 b5 fe 18 4b 36 69 ef 57 37 1e e0 4f b6
       -1.7259628e-06 3.0263905e-06 1.2870741e-05 -3.0975857e-06
000060 0e c6 bb b7 bf 3e 2b 37 a3 5d 25 36 3a e3 4c 37
       -2.2384364e-05 1.02070035e-05 2.464142e-06 1.2212253e-05
000070 9e 69 b0 37 9e 18 0e 3a 05 f6 5e 3b 7f 36 6b b8
       2.1030017e-05 0.00054205384 0.003402115 -5.607912e-05
000080 45 3c ad bb 66 40 29 bb 08 0c ad b9 dd 92 a1 36
       -0.0052867257 -0.0025825738 -0.00033006095 4.815271e-06
000090 3e 1f d6 bb 4c 85 19 3c e7 cf 7f 3b d7 a6 6c 36
       -0.006534486 0.009370159 0.0039033832 3.5263854e-06
0000a0 b9 94 b6 38 92 71 5d b4 de 45 1b 3c 96 6a cf 34
       8.706138e-05 -2.0623546e-07 0.009477107 3.8634306e-07
0000b0 66 7f 89 37 53 00 49 b6 df d2 87 3b ba 64 b1 b9
       1.6390997e-05 -2.9951523e-06 0.004145011 -0.00033835118
0000c0 ce 7b b6 38 b8 8b ff b8 46 5a 33 b7 e2 f9 8b ba
       8.701497e-05 -0.00012185372 -1.069025e-05 -0.0010679329
0000d0 a5 22 e8 3b 03 fe 0f b6 02 25 14 b4 8f b1 ca 37
       0.007084208 -2.1456515e-06 -1.3797037e-07 2.4162959e-05
0000e0 f7 96 26 ba 31 01 b0 b8 47 e6 1f 37 3c 9e 0a 38
       -0.0006354893 -8.392556e-05 9.530754e-06 3.304913e-05
0000f0 62 29 0b 36 9f 36 67 36 d5 3f fc b5 11 9f 0d ba
       2.0736702e-06 3.4453476e-06 -1.8794041e-06 -0.0005402426
000100 77 86 df 35 ae 0c e5 ba db 79 d1 b7 53 c8 e9 ba
       1.6653929e-06 -0.0017475092 -2.4971485e-05 -0.001783619
000110 60 58 6b bc 40 e3 69 3b ae c2 51 bb c9 cb f0 37
       -0.014364332 0.003568843 -0.0032006907 2.8705124e-05
000120 d6 85 25 bc d2 ff 73 38 fb d7 fb 37 7d f6 91 37
       -0.01010271 5.8173966e-05 3.0022105e-05 1.7400127e-05
000130 f5 09 14 3c cd 07 4d bb 23 55 59 b9 3d 12 ed 39
       0.009035577 -0.0031285167 -0.00020726449 0.0004521775
000140 a9 59 2d 38 a8 3e b4 ba b8 9c c7 b8 b9 86 f9 ba
       4.1329917e-05 -0.0013751583 -9.5182506e-05 -0.0019037343
000150 f1 39 80 b7 bd 79 98 b7 92 1b 9c 37 73 a4 90 b7
       -1.528577e-05 -1.81765e-05 1.8609488e-05 -1.7242715e-05
000160 05 98 47 b9 8e 42 e7 b6 90 16 3c bb e7 42 5d 36
       -0.0001903475 -6.8920845e-06 -0.0028699972 3.2970509e-06
000170 86 f9 55 3b b7 db a6 38 0e 6f 10 bc 8a 64 b3 b7
       0.0032649948 7.956422e-05 -0.00881554 -2.138528e-05
000180 39 66 38 39 3a 8f 32 b8 24 fd 80 b8 44 3a f3 b7
       0.00017585688 -4.2571897e-05 -6.150667e-05 -2.899499e-05
000190 cf ec 3f 3c 26 ce 4b 3b 6e 68 ae 37 47 c1 48 bb
       0.011714174 0.0031098216 2.0791045e-05 -0.003063278
0001a0 41 cc 10 37 1b 21 fa b8 55 ac 68 38 a7 fb ea 37
       8.630625e-06 -0.00011927095 5.5473607e-05 2.8012159e-05
0001b0 c8 92 09 38 c0 a6 21 37 9d 9c 43 37 37 b3 d8 37
       3.2800046e-05 9.635172e-06 1.165937e-05 2.583266e-05
0001c0 69 56 11 bc a1 29 76 b3 38 27 34 36 a7 23 d6 b7
       -0.008870699 -5.73142e-08 2.6844918e-06 -2.552739e-05
0001d0 a9 23 c9 39 08 12 47 b6 0d 14 cd 3c 65 38 6b b6
       0.00038364276 -2.9663806e-06 0.025033975 -3.5050555e-06
0001e0 75 1e 87 3b 38 c1 27 37 60 3b 3d 37 3f fe 33 38
       0.004123504 9.998963e-06 1.1279102e-05 4.291371e-05
0001f0 90 c1 33 b8 2b e0 52 b8 bf 7a 0b 3a fe ae 7e bb
       -4.2857195e-05 -5.0276674e-05 0.000532072 -0.0038861628
000200 26 6d 92 b7 a1 a9 4c 39 a0 69 02 37 5c 29 c8 b7
       -1.7455382e-05 0.00019518148 7.773197e-06 -2.3861117e-05
000210 3b 86 25 b5 c4 f8 11 39 37 5a f5 37 8b a2 04 36
       -6.166262e-07 0.0001392095 2.9248286e-05 1.9764145e-06
000220 03 a0 1b b6 d7 0d b8 37 e3 6b c8 b8 8a da 31 37
       -2.318994e-06 2.1940954e-05 -9.5568386e-05 1.0600905e-05
000230 1d 59 5b ba ec 2d 74 3a a3 e9 b7 38 e1 92 d4 39
       -0.0008367466 0.0009314704 8.769638e-05 0.00040545224
000240 92 a4 74 37 c6 a5 96 b9 3c 98 3d b7 f4 57 46 38
       1.458185e-05 -0.0002873374 -1.1300723e-05 4.728879e-05
000250 4e c2 d2 ba e6 f2 99 b6 ee db f9 b6 e3 6d e0 37
       -0.0016079636 -4.5880324e-06 -7.4463815e-06 2.675405e-05
000260 4b 09 47 37 ef f8 94 b8 2d 32 cb 37 20 03 ba bb
       1.1863488e-05 -7.1035574e-05 2.422285e-05 -0.005676642
000270 e1 d5 f6 3a 80 93 23 37 7a df fa b5 4d b8 19 3b
       0.0018832051 9.7499e-06 -1.8691492e-06 0.00234558
000280 0e fb 50 39 f5 cb 3f 36 38 65 08 3b 23 d3 5f 37
       0.00019929951 2.8579936e-06 0.0020812284 1.3340995e-05
000290 7c d8 5b 35 5e b0 cd b8 0d 5f 88 38 99 a8 1b 37
       8.1898884e-07 -9.808013e-05 6.50269e-05 9.277975e-06
0002a0 09 ef 21 b9 f3 72 07 b8 1d 99 2d 3a 4c 81 82 39
       -0.00015443204 -3.2293563e-05 0.0006622242 0.00024891866
0002b0 e2 95 b6 b9 e0 c8 ba 37 dd 25 81 b7 70 6e f9 38
       -0.00034825417 2.2266468e-05 -1.539563e-05 0.00011893816
0002c0 0f ef c6 3a b7 dd 07 35 7d ff 26 3a bc 2b c2 39
       0.0015177446 5.0614057e-07 0.0006370468 0.00037035148
0002d0 b4 51 2f 3b 7c 76 b5 33 82 70 e3 3a 03 17 a6 b6
       0.002675158 8.4500215e-08 0.0017352256 -4.9498644e-06
0002e0 a1 f0 12 3b dd b8 81 b6 8e 3a 74 bc d2 13 1d 36
       0.0022421258 -3.8660205e-06 -0.014906539 2.340636e-06
0002f0 dd 47 ae b8 61 62 19 3b 70 74 01 39 eb 0d 82 36
       -8.310352e-05 0.0023404586 0.00012345775 3.875922e-06
000300 28 a5 10 3c 1c 28 8e 38 d3 95 40 ba 68 5e 48 bb
       0.008828439 6.7785586e-05 -0.00073465443 -0.0030573849
000310 b8 f4 5b 3a af c0 a3 37 84 37 25 3b 74 7c 6f b7
       0.0008390653 1.952084e-05 0.0025210092 -1.4274487e-05
000320 fc e3 48 35 eb 5a 6c b8 b5 5f eb 3a 34 cd af 3b
       7.4837567e-07 -5.635146e-05 0.00179576 0.0053650383
000330 fe 54 5a 37 1c ee 9b b6 ad 42 ae 36 82 a9 3f 38
       1.3013601e-05 -4.6470795e-06 5.193366e-06 4.5695815e-05
000340 31 30 df b8 69 6a a8 38 e5 b5 f1 35 9b 79 b2 39
       -0.00010642445 8.030685e-05 1.8008838e-06 0.0003404141
000350 88 17 2c 39 3e ef 05 3a c2 dd 4c bb 5e f3 7f 38
       0.00016411964 0.0005109197 -0.0031260108 6.102339e-05
000360 cd 23 95 bb 8a 33 a4 39 5b 48 8c 38 ff 0c 6e 37
       -0.004551387 0.00031318917 6.6891975e-05 1.4188931e-05
000370 cf 72 1f 36 f9 83 8f 36 89 f7 05 3c cf fb 8b b6
       2.3759674e-06 4.2770957e-06 0.008176693 -4.171837e-06
000380 ff 0d da b6 ce a2 b8 38 b4 04 71 37 bd 30 c7 3b
       -6.4985356e-06 8.8041284e-05 1.4365814e-05 0.006078808
000390 69 e3 f6 39 ac 98 8d bc d3 56 b4 bb 7b ca 3b 35
       0.0004709021 -0.017284714 -0.0055035143 6.9957576e-07
0003a0 4b 55 37 b3 8e 1c 3c bc 43 e7 3f b8 98 60 cb 37
       -4.268558e-08 -0.011481417 -4.5753328e-05 2.4244466e-05
0003b0 bf c8 ff bb 49 e0 35 3b 93 4e dc 37 b9 1d 94 bb
       -0.007805913 0.0027752093 2.6262633e-05 -0.004520145
0003c0 6f e1 2d 37 e7 27 dd b7 e9 c0 10 bc c2 cd ab 37
       1.0364091e-05 -2.6363834e-05 -0.008835056 2.0480602e-05
0003d0 57 f4 9f b8 17 ad 37 3b eb d7 a1 37 eb 3a fb bb
       -7.627223e-05 0.0028026754 1.929324e-05 -0.0076669357
0003e0 7d 74 38 bb d5 28 88 3b f3 4b e4 ba 6d 5b f5 b7
       -0.0028145604 0.004155258 -0.0017417654 -2.924885e-05
0003f0 72 fc 43 bc 09 cd 18 36 6e 4c ab b6 7b c0 7d b8
       -0.011962043 2.2769111e-06 -5.1050947e-06 -6.0499162e-05

fai_gcn_networks.0.gcn.conv.bias f4 [96]
000000 bf 0b 25 3a 84 29 8e 39 28 ff b6 38 7b 3e 23 b9
       0.0006296001 0.00027115282 8.725963e-05 -0.00015568167
000010 e3 3e f0 38 c5 a8 6c 39 17 37 bb b7 53 b0 a2 37
       0.00011455805 0.00022569585 -2.231779e-05 1.9394012e-05
000020 b7 32 dd b7 15 85 8e b8 86 17 4d 39 5d 8b 3e b9
       -2.6368869e-05 -6.795876e-05 0.00019559087 -0.00018171729
000030 08 c1 7b 38 eb 05 da 36 4f 6a 96 b8 23 9e 02 39
       6.0022838e-05 6.497595e-06 -7.172359e-05 0.00012456677
000040 6f db 65 38 81 25 8b b9 cf 47 f1 b7 d1 ab fb b8
       5.4802218e-05 -0.0002654009 -2.8762877e-05 -0.00012000616
000050 44 0a 3d b8 b2 1e 53 37 64 68 80 b7 14 f3 60 b8
       -4.5070672e-05 1.2583727e-05 -1.53074e-05 -5.3632146e-05
000060 b7 86 3b 39 ec 90 ba b9 ac 44 3e 39 ed ac ed b2
       0.00017883895 -0.0003558466 0.00018145394 -2.7669069e-08
000070 70 31 a6 37 82 74 28 b9 6a b2 56 38 b3 df 3a b9
       1.9811763e-05 -0.00016065131 5.1187737e-05 -0.00017821677
000080 68 e5 4f 3a f0 5a b1 39 02 a2 53 39 26 00 36 b9
       0.00079306075 0.00033827825 0.0002018288 -0.00017356928
000090 c8 a4 16 39 af a0 a5 39 69 f7 01 b8 8f fd 9f 37
       0.000143665 0.0003159097 -3.0986415e-05 1.907235e-05
0000a0 c8 53 42 b8 a8 7e af b8 d4 4a 36 39 89 78 67 b9
       -4.633123e-05 -8.368242e-05 0.00017384748 -0.0002207478
0000b0 74 c5 12 38 65 51 03 39 7b ff 10 b9 ac 20 35 39
       3.4993005e-05 0.00012523455 -0.00013828084 0.00017273676
0000c0 5c 31 f6 38 58 62 aa b9 15 62 99 b8 e3 fe 16 b9
       0.00011739388 -0.000324982 -7.313878e-05 -0.00014400067
0000d0 7c 75 42 b8 89 be ae 37 ac ce 49 b6 b6 05 d9 b8
       -4.636262e-05 2.0831141e-05 -3.0071633e-06 -0.0001034843
0000e0 f2 8f 67 39 bc 7f da b9 fd 90 68 39 f2 0f 04 b7
       0.000220835 -0.0004167537 0.00022179256 -7.871526e-06
0000f0 80 ec b4 b5 09 54 78 b9 7e ff 5c 38 bc b6 6b b9
       -1.3479876e-06 -0.00023682429 5.2690033e-05 -0.0002247942
000100 1f 83 8a 39 49 3b 35 39 18 33 10 38 a9 a9 83 b8
       0.00026419104 0.0001728359 3.437986e-05 -6.2781684e-05
000110 d2 16 5a 38 30 da 1e 39 14 2e c1 b7 b8 93 cd b5
       5.1996503e-05 0.00015149335 -2.302885e-05 -1.5316682e-06
000120 21 9e b9 36 5f eb 1e b8 87 43 2d 38 28 ba 90 b8
       5.5318383e-06 -3.7889342e-05 4.1309304e-05 -6.9011294e-05
000130 89 63 a8 b5 2e 32 3d b6 64 64 82 37 05 55 1e 38
       -1.2545944e-06 -2.8192403e-06 1.5543956e-05 3.7749316e-05
000140 61 f8 07 38 04 cd 73 b8 70 ce 30 b7 04 c6 86 b8
       3.241783e-05 -5.812665e-05 -1.05384825e-05 -6.426501e-05
000150 ae 5a 2b b7 01 2a 31 38 24 82 6a b7 99 6c 49 b7
       -1.0213507e-05 4.2239208e-05 -1.3977788e-05 -1.20058185e-05
000160 c3 84 7e 38 0a a0 80 37 40 fe 8e 38 bb 37 a3 b4
       6.0681963e-05 1.5333313e-05 6.8184454e-05 -3.0401665e-07
000170 cf dc a6 37 67 4d a3 b7 ae ae c3 36 06 29 99 b8
       1.9891564e-05 -1.9467157e-05 5.8317883e-06 -7.30325e-05

fai_gcn_networks.1.gcn.conv.weight f4 [192, 32, 1, 1]
000000 9f fd cd 39 9c bc 8a b9 43 26 c9 36 cc 0b b7 3a
       0.0003928961 -0.00026461936 5.994721e-06 0.0013965308
000010 93 53 e1 b9 f5 a2 0f bc 2f 0a 5c 35 8c c3 0a 39
       -0.00042977612 -0.008766879 8.1971206e-07 0.00013233552
000020 a3 5d 0f 37 2f ea 51 b4 cf d0 99 ba 24 eb 99 b6
       8.545266e-06 -1.9549837e-07 -0.0011735203 -4.5871293e-06
000030 7b 92 35 38 59 c1 b9 b6 6f 17 ca 39 88 8a bc 37
       4.3290183e-05 -5.5359383e-06 0.00038545902 2.2475855e-05
000040 16 38 0f 37 81 96 95 bb 9a ba 8f b9 9c c5 46 39
       8.536523e-06 -0.0045650606 -0.00027414114 0.00018956367
000050 b8 cd ef 37 b1 9e d3 3a 40 2a b7 39 4f 45 4e 37
       2.8586815e-05 0.0016145316 0.0003493596 1.2294694e-05
000060 54 22 bf 37 12 d8 31 38 91 38 71 39 2b 94 a6 ba
       2.278496e-05 4.240132e-05 0.00023004624 -0.0012708952
000070 19 08 54 b6 65 03 0f 39 1e d2 b3 38 86 4e e3 37
       -3.1595175e-06 0.00013638807 8.5745225e-05 2.7097074e-05
000080 9e 5e 82 ba 34 38 c6 38 0d 35 99 37 01 d8 9e 3b
       -0.0009946411 9.4518444e-05 1.8263725e-05 0.004847527
000090 fb 3b f3 b9 a3 af 0e 36 7c 89 be b5 74 df f7 38
       -0.0004639326 2.1261883e-06 -1.4196116e-06 0.00011819499
0000a0 26 dd 98 b7 5f c1 df 34 77 3c 1d 38 a8 ab 30 37
       -1.8222792e-05 4.1677683e-07 3.748803e-05 1.0530384e-05
0000b0 58 22 0c 38 c0 fa 9f 36 33 62 2b 38 f5 44 9d 38
       3.3410586e-05 4.7677604e-06 4.0861032e-05 7.4991876e-05
0000c0 b0 9a ab 36 3f 16 d4 ba 72 f1 65 bb 40 4b cb bb
       5.114205e-06 -0.0016180946 -0.003508654 -0.006204039
0000d0 95 01 c5 37 31 31 a8 38 f2 59 9a 37 b8 44 4a 37
       2.3484967e-05 8.020027e-05 1.8400115e-05 1.2056138e-05
0000e0 bb fd 35 38 da 39 2b 38 1c 4d 16 35 46 1c b4 36
       4.3390068e-05 4.0823455e-05 5.5991563e-07 5.3677095e-06
0000f0 d1 d9 45 37 95 b8 22 bc a4 4f a0 38 10 9f 36 38
       1.1792829e-05 -0.009931703 7.644229e-05 4.354032e-05
000100 7e db 5e b3 a3 56 93 b1 23 9c c6 38 41 b5 5d ba
       -5.188803e-08 -4.2881125e-09 9.4704585e-05 -0.000845749
000110 18 22 00 b2 a1 54 14 b4 22 90 89 36 be 73 39 b2
       -7.458333e-09 -1.3814362e-07 4.0996974e-06 -1.0794734e-08
000120 74 68 5c 3b 92 c0 84 37 b0 c1 16 3b 18 02 7a b9
       0.0033631595 1.5825299e-05 0.002300363 -0.00023842638
000130 48 49 76 af 49 5b bd 39 2d 59 e2 b3 1e 1c 0c b2
       -2.2399604e-10 0.00036116902 -1.0540166e-07 -8.155466e-09
000140 37 d6 82 3b 4d a6 e2 b0 49 ad d9 b1 27 52 37 b3
       0.0039928216 -1.649093e-09 -6.3352315e-09 -4.2682725e-08
000150 e1 ab a7 b4 64 f7 02 bb c0 72 4a b8 f0 92 11 bb
       -3.1231232e-07 -0.0019983882 -4.8267422e-05 -0.0022212826
000160 df 81 05 bb 8f 22 3a 35 b6 4f 05 b9 e2 05 4f 3a
       -0.0020371599 6.934069e-07 -0.00012713563 0.00078973
000170 68 9f 11 b3 93 a7 46 31 db 28 83 b1 40 f3 46 b4
       -3.3905422e-08 2.8908047e-09 -3.8172465e-09 -1.8528681e-07
000180 8e c7 1f 38 85 06 52 38 63 6e be b9 b6 ab 84 38
       3.8094404e-05 5.0073973e-05 -0.00036321869 6.326234e-05
000190 95 2c bd 36 d8 c0 1e ba 9f d7 b6 b8 e5 42 97 3a
       5.637829e-06 -0.00060559576 -8.718599e-05 0.0011540322
0001a0 ae 82 8a b6 b9 4c 14 35 ac 26 55 38 42 3e 52 37
       -4.1279336e-06 5.524594e-07 5.0819173e-05 1.2531471e-05
0001b0 de b4 b0 b8 75 fe e7 36 6f 17 50 38 4e db 01 38
       -8.426023e-05 6.913959e-06 4.961289e-05 3.096024e-05
0001c0 aa b3 e6 b7 bd b7 b6 38 77 7a 69 37 ea ed 38 37
       -2.75018e-05 8.71266e-05 1.3916396e-05 1.1022648e-05
0001d0 a4 32 9e 3b c0 87 65 37 fd 51 0d bc 3f d5 17 3b
       0.004827814 1.368107e-05 -0.008625505 0.0023167876
0001e0 f0 a3 61 38 08 89 6c 38 7b 91 cb 37 20 8f 33 37
       5.379686e-05 5.6394405e-05 2.426723e-05 1.0702555e-05
0001f0 38 61 9e 36 1d 87 21 38 b1 e0 8f bb 60 31 06 b9
       4.7200847e-06 3.8511225e-05 -0.004390799 -0.0001279763
000200 92 e6 c0 b7 d7 09 d5 37 74 4a 0a 3a bb 47 49 38
       -2.2995551e-05 2.539616e-05 0.00052753766 4.798894e-05
000210 e0 19 0d 36 34 57 12 38 d0 00 4a 38 83 8d c0 b9
       2.1025699e-06 3.4890327e-05 4.816131e-05 -0.00036726528
000220 0b 88 21 37 ef 3a 71 3a db f3 58 bb 7d 7d 89 bb
       9.628023e-06 0.0009202202 -0.0033104334 -0.0041958676
000230 fe 5b 2b 37 4e c2 44 36 ce d1 cc b9 cd 06 f8 b9
       1.0213813e-05 2.9319376e-06 -0.0003906623 -0.00047307313
000240 07 0d 5b 39 9d 83 5f 37 39 8c ea 36 70 1c db 36
       0.0002089032 1.3322479e-05 6.9900675e-06 6.530019e-06
000250 e8 e7 91 ba 11 d7 ee 36 5c f9 56 37 a8 bc b0 37
       -0.0011131736 7.1179898e-06 1.28134525e-05 2.1068685e-05
000260 a3 1e d1 37 73 69 fd 39 c0 80 b6 36 76 da 90 36
       2.4929008e-05 0.00048334486 5.439011e-06 4.3169666e-06
000270 85 a7 07 37 8d 5e b0 36 2a a1 8d 38 3b 22 46 b8
       8.085631e-06 5.256216e-06 6.753423e-05 -4.723876e-05
000280 4a 62 03 ba f7 f6 34 3a 54 60 a7 37 3e c3 13 3a
       -0.00050118996 0.00069032557 1.9952808e-05 0.00056366983
000290 5f 2d f0 3a 6c ce 92 ba fd 68 26 35 62 c9 1c b9
       0.0018324069 -0.0011200435 6.1992597e-07 -0.0001495234
0002a0 cf c7 8c ba 18 5e 2a b5 72 10 22 38 c4 aa 29 37
       -0.00107407 -6.346686e-07 3.8639126e-05 1.0112944e-05
0002b0 29 cb 3a 38 f1 39 8d 36 43 e6 1d 38 0e 69 c1 37
       4.4535063e-05 4.2088727e-06 3.7646165e-05 2.3056313e-05
0002c0 2b 98 47 b6 33 fd d5 37 f1 a7 41 b9 67 7d 2f 37
       -2.9741884e-06 2.5509484e-05 -0.00018468477 1.046001e-05
0002d0 b8 bc 83 37 3c 85 cb 3b e3 a4 cd 37 3f d1 12 3b
       1.5704296e-05 0.006210951 2.4514686e-05 0.0022402552
0002e0 d3 97 2b 38 8c ad 35 38 54 0b 01 37 f7 e1 a3 36
       4.0910974e-05 4.331539e-05 7.691637e-06 4.8840843e-06
0002f0 4d b4 36 3b 9d d5 20 3b a7 0e ab 38 23 63 a6 bb
       0.0027878464 0.0024541386 8.1566446e-05 -0.005077736
000300 8d 8e 11 3b 91 93 9b 33 b1 5f d0 ae 6b 96 de b2
       0.002221021 7.244592e-08 -9.475743e-11 -2.5912604e-08
000310 be 3c 77 bb dc 97 f9 39 f6 28 be 3b b7 8f 00 3b
       -0.0037725414 0.00047606125 0.005803223 0.001961691
000320 70 f6 cd 39 9b b1 19 af 15 ed 14 38 f1 e9 1a 31
       0.00039284257 -1.3978367e-10 3.550675e-05 2.254293e-09
000330 56 a8 9f b2 0d c1 c9 38 2d f9 ff b2 0a 5d 53 b6
       -1.8586586e-08 9.6203854e-05 -2.9799219e-08 -3.1495606e-06
000340 67 05 f2 38 38 b6 3a b3 17 8b f1 38 97 34 e6 b1
       0.000115404655 -4.3472227e-08 0.00011517683 -6.69986e-09
000350 49 8b d6 bb ce b9 bd 3a 82 a2 80 31 7a 74 e8 3a
       -0.006547366 0.001447493 3.7437653e-09 0.0017734908
000360 a9 ba b9 3b b8 ff c8 3a 39 e7 2a b2 43 1d 84 b1
       0.0056680036 0.0015334999 -9.947876e-09 -3.8450323e-09
000370 ac 41 ee 3a e1 d5 15 33 19 aa 33 bc 26 7a 85 31
       0.0018177531 3.4886288e-08 -0.010965847 3.884696e-09
000380 92 26 e4 b8 80 b9 8a b2 8d 91 1c b2 9a c0 c6 b2
       -0.000108790715 -1.614967e-08 -9.1134895e-09 -2.3137819e-08
000390 ea 05 cf b8 de c0 fc b8 b9 4a 99 bc 30 08 be b2
       -9.871631e-05 -0.00012052221 -0.018712388 -2.2122634e-08
0003a0 d4 b5 5f bb 7f b9 7a 38 c8 9e cd 39 1c 83 b9 bb
       -0.0034135478 5.97774e-05 0.00039218948 -0.0056613814
0003b0 8d f1 ed 3a 78 68 1b b1 a5 a2 b6 b2 a7 9b 0f bb
       0.0018153653 -2.2614852e-09 -2.126155e-08 -0.0021912844
0003c0 3e aa a2 b1 06 4b 82 b9 f4 60 46 3b 6d bc 08 af
       -4.734175e-09 -0.0002485143 0.003027019 -1.243607e-10
0003d0 47 03 37 bb 1c f2 67 b2 be 00 b3 bc 03 55 b5 ba
       -0.0027925537 -1.3501019e-08 -0.02185094 -0.001383454
0003e0 6e 05 ae 3a b1 48 90 bc 29 64 c4 b3 cc b6 fa 38
       0.0013276765 -0.017612787 -9.14518e-08 0.000119549775
0003f0 a9 54 ac 3c 0d db 5a b9 bf 61 2f bb 4e 7b 2c ba
       0.021036463 -0.00020871703 -0.0026761142 -0.0006579653

fai_gcn_networks.1.gcn.conv.bias f4 [192]
000000 4a b2 66 3c 6f 5f 66 3c cb 0b e6 b7 05 ee 69 3c
       0.014080593 0.014060839 -2.7423628e-05 0.01427794
000010 07 e4 2d 3c e1 ad 69 3c b8 49 61 b7 83 c1 60 b8
       0.010613448 0.014262647 -1.3428209e-05 -5.3585984e-05
000020 d0 f9 5d 3c 30 50 6d 3c 90 00 2b b8 c2 a6 92 b7
       0.0135483295 0.01448445 -4.07701e-05 -1.7482209e-05
000030 68 00 70 3c cb 50 74 3c ab d1 57 3c 79 11 68 3c
       0.014648534 0.014911841 0.013172547 0.014164322
000040 08 98 72 3c 2b 84 74 3c 64 61 5d 3c 3a 59 5e b6
       0.014806755 0.014924089 0.013511989 -3.3132515e-06
000050 8b 64 1c b8 27 b6 b8 b8 2c 76 0e b9 5d b2 e5 b8
       -3.7286936e-05 -8.807732e-05 -0.00013586198 -0.00010952794
000060 e1 00 61 3c 54 a5 84 b8 d2 bc 70 3c c4 35 18 b9
       0.01373312 -6.325045e-05 0.014693456 -0.00014515879
000070 fd 7b 8b b7 b0 87 99 36 3d 86 6e 3c 37 20 66 3c
       -1.6627828e-05 4.5755514e-06 0.014558372 0.014045767
000080 71 41 6c b7 3f 51 c5 b8 57 50 73 3c e0 21 bd b8
       -1.4081933e-05 -9.408825e-05 0.0148506975 -9.018532e-05
000090 12 ff 3f 3c 92 43 d9 b7 9e 95 b0 b6 5e f7 9f b7
       0.011718528 -2.589988e-05 -5.2626265e-06 -1.9069466e-05
0000a0 cc 16 7a 3c 29 c9 67 3c 6b 1e 52 3c 1a b8 67 3c
       0.015264224 0.014147081 0.012824635 0.014143014
0000b0 7c 73 c6 b7 28 06 5f 3c d0 12 dd b8 8c d6 67 3c
       -2.3657216e-05 0.013612308 -0.00010541605 0.014150273
0000c0 e2 90 d8 b7 65 49 8f b6 b5 59 65 3c ec fe 7b 3c
       -2.5816673e-05 -4.2702763e-06 0.013998439 0.015380602
0000d0 57 e2 1f b8 fe 4d 70 b7 3e bc 69 3c e4 b5 52 3c
       -3.811935e-05 -1.4323274e-05 0.014266072 0.012860749
0000e0 1b 9b 2b b8 9b f3 70 3c b5 e5 db b8 fd 40 55 b8
       -4.091403e-05 0.014706518 -0.0001048552 -5.0843682e-05
0000f0 74 0a 9e b8 f8 11 62 3c d7 e2 5f 3c 09 85 e3 b7
       -7.535974e-05 0.013798229 0.013664923 -2.7122458e-05
000100 ae 0f 80 3c 74 53 80 3c 92 8e 4e b8 a9 6e 76 3c
       0.015632477 0.015664794 -4.9247006e-05 0.015041032
000110 19 99 47 3c 6f 1d 81 3c fa be 6b b7 1b c9 82 b8
       0.012182497 0.015761105 -1.4051557e-05 -6.236342e-05
000120 a5 70 74 3c bd c2 79 3c 88 63 4e b8 2c e0 98 b7
       0.014919435 0.015244183 -4.9206923e-05 -1.82242e-05
000130 bc f1 81 3c 2d bf 84 3c 85 20 77 3c d6 49 81 3c
       0.015862338 0.016204441 0.015083437 0.015782278
000140 e0 3e 80 3c 44 68 83 3c b4 b8 70 3c fa 84 a2 b6
       0.015654981 0.016040929 0.014692474 -4.8434567e-06
000150 cc a4 4b b8 88 d6 f0 b8 95 e1 28 b9 a3 48 56 b9
       -4.855245e-05 -0.00011484051 -0.00016105764 -0.0002043569
000160 6a b7 7f 3c 5c ef e0 b8 03 32 82 3c 3b 3f 50 b9
       0.015607694 -0.000107257365 0.015892988 -0.00019859981
000170 e7 38 15 b8 b9 30 b8 36 24 d8 7e 3c 45 0b 82 3c
       -3.5577363e-05 5.4892994e-06 0.015554462 0.015874514
000180 6c ff d9 b7 28 35 41 b9 09 6e 84 3c 53 11 e3 b8
       -2.5987356e-05 -0.00018425717 0.01616575 -0.000108274304
000190 6c b4 5c 3c 15 cb 23 b8 3e ac 41 b7 83 33 c2 b7
       0.01347075 -3.9051363e-05 -1.15438e-05 -2.315059e-05
0001a0 dc b9 86 3c 9a a8 7b 3c 00 80 6e 3c 7a ed 83 3c
       0.016446047 0.015360022 0.014556885 0.016104449
0001b0 9f db 1d b8 9a dc 7e 3c 33 32 ee b8 a6 6c 83 3c
       -3.7636255e-05 0.015555525 -0.00011358075 0.016043019
0001c0 06 24 1f b8 11 66 bf b6 1b 86 7f 3c 25 d3 87 3c
       -3.7942104e-05 -5.7041257e-06 0.015595938 0.016580174
0001d0 11 5d 5c b8 3d 5a ae b7 3f f4 84 3c 3d 02 73 3c
       -5.2538762e-05 -2.0784437e-05 0.016229747 0.014832077
0001e0 23 0c d4 b7 e9 cc 81 3c 87 05 3b b9 33 d2 9b b8
       -2.5278021e-05 0.01584478 -0.00017835769 -7.4301286e-05
0001f0 13 85 a7 b8 d7 69 80 3c bb 39 80 3c 68 0b f7 b7
       -7.9879675e-05 0.015675468 0.015652528 -2.9450006e-05
000200 b1 bc 05 3c 01 2a 03 3c 2c 77 8f b5 6b 3d 27 3c
       0.008162663 0.00800562 -1.0689014e-06 0.010207514
000210 39 6c bf 3b 40 40 09 3c cd 03 0c b7 2e 27 2d b8
       0.0058417586 0.008377135 -8.345535e-06 -4.1282903e-05
000220 55 dd 04 3c 57 85 29 3c aa 0b d1 b7 44 26 0d b5
       0.00810941 0.010346732 -2.4920173e-05 -5.2582277e-07
000230 d0 65 18 3c e8 7f 19 3c dd f1 ed 3b 64 37 05 3c
       0.009301618 0.009368874 0.0072614984 0.008130882
000240 57 72 28 3c 10 69 1f 3c 15 fb 09 3c f1 d2 36 35
       0.010281167 0.009729639 0.008421679 6.8107244e-07
000250 fc 43 56 b7 19 70 32 b7 d0 99 a5 b8 f9 ec 27 37
       -1.2771223e-05 -1.06357265e-05 -7.896463e-05 1.000915e-05
000260 22 7c f7 3b 74 22 62 b6 da c9 18 3c 93 a6 1c b8
       0.0075526396 -3.3696679e-06 0.009325469 -3.7348433e-05
000270 fc 5c 34 b6 31 5f 00 b6 40 b7 1f 3c 79 53 00 3c
       -2.6876214e-06 -1.9128895e-06 0.00974828 0.007832401
000280 3d 73 9d b6 ca 22 d7 b7 b8 18 15 3c 48 99 a8 b5
       -4.69238e-06 -2.5646197e-05 0.009100132 -1.2561586e-06
000290 07 66 ca 3b 73 de c0 b7 6c f3 03 b7 06 4d b8 b6
       0.0061767134 -2.299177e-05 -7.8648845e-06 -5.492594e-06
0002a0 92 8d 20 3c c8 6b 12 3c 06 93 e5 3b 8b 30 00 3c
       0.009799378 0.00893683 0.007006052 0.007824074
0002b0 2b 77 46 37 a5 f8 f5 3b 78 a1 14 b9 2e b4 00 3c
       1.1829466e-05 0.0075064474 -0.00014174532 0.007855458
0002c0 49 12 8d 36 30 17 2d 35 99 cd 03 3c 2a 3d 22 3c
       4.204256e-06 6.4481264e-07 0.008044624 0.009902278
0002d0 a7 4f ec b5 31 d5 69 b7 c7 77 01 3c 1b 0e e4 3b
       -1.7606552e-06 -1.393752e-05 0.007902092 0.0069596893
0002e0 3e c9 07 37 15 e5 1b 3c c5 dc f1 b6 c0 dd cf b7
       8.093482e-06 0.009515067 -7.2080607e-06 -2.4779583e-05
0002f0 5c 94 14 b8 06 04 f8 3b ff b4 f6 3b 03 85 4a b7
       -3.542412e-05 0.007568839 0.0075289006 -1.2071107e-05

fai_gcn_networks.1.residual.0.weight f4 [64, 32, 1, 1]
000000 1e 26 9b 3c 30 5b c9 bb c9 cc 06 bd c7 6e 73 bc
       0.018939074 -0.0061449036 -0.032910142 -0.014857954
000010 76 d8 84 ba ea 8a 81 3a 0e 74 c6 3c 00 56 79 bc
       -0.0010135311 0.0009883319 0.024225261 -0.015218258
000020 e0 86 cd 3b 92 c7 8d bc 7e be 4b bc 0f 94 21 3c
       0.006272182 -0.017307077 -0.012435554 0.00986196
000030 e2 a6 89 3c b7 ab b4 bc 26 06 6e bc c7 e0 1d 3c
       0.016803209 -0.022054536 -0.014527833 0.009636111
000040 0d ba 8b bc 99 a7 41 bd 0c 50 58 bc fb f9 1e 3a
       -0.01705649 -0.047278974 -0.013202678 0.00060644717
000050 c3 0a fc 38 3e fb 2f bc 7b 13 96 3c 67 b8 53 3b
       0.00012018301 -0.010741053 0.018319836 0.0032305957
000060 1f b0 09 3b 9e 22 9f bc 4d 9c 1b bc 26 a1 4f 3c
       0.0021009517 -0.019425686 -0.009497714 0.012672698
000070 a2 5d 53 3a 09 67 29 bc d2 7a 7d bc d4 1b 48 3c
       0.00080629636 -0.010339507 -0.015471177 0.012213666
000080 81 aa 2b bd f2 1e 68 bc 4e 5d b8 3c 2b 43 17 3d
       -0.041910652 -0.014167534 0.022505429 0.03692929
000090 6d d8 00 bc 17 a9 88 bc f6 a7 0d 3c 50 cd 80 3c
       -0.0078641 -0.01668219 0.008646002 0.0157229
0000a0 20 ec 5d 3c 9b e4 0b 3c b7 cd 17 3c 80 4a 99 3c
       0.013545066 0.0085383905 0.009265355 0.018712282
0000b0 30 52 ea 3c e8 ec 95 bb 84 db 90 3b ae d0 bc 3c
       0.028603643 -0.0045753606 0.0044206996 0.023048725
0000c0 b5 b6 fc 3c 09 19 40 3d e0 f0 5a bb be 38 b2 bc
       0.03084884 0.046898875 -0.0033407733 -0.021755572
0000d0 85 84 d3 bc 41 39 2f bb d9 e8 31 bd a4 93 85 bc
       -0.025820026 -0.0026737007 -0.04343495 -0.016305752
0000e0 4b 30 29 bd 2a ab 32 bd d9 5b 18 bc 54 12 d4 3c
       -0.04130582 -0.043620266 -0.009299242 0.025887646
0000f0 d2 91 52 bc a0 3a 01 bd 38 a1 1a 3d 15 00 4f bc
       -0.012852149 -0.03155005 0.037751406 -0.012634297
000100 35 19 48 bb 44 44 e7 bb 8b 75 8f 3c 82 20 10 bc
       -0.0030532603 -0.0070576984 0.017512104 -0.008796813
000110 f4 19 9c bc e6 29 e5 bc c6 f4 5c 3b f5 6c 5d 3c
       -0.019055344 -0.02797408 0.0033715232 0.013514747
000120 f0 4e 1a ba 54 aa 21 ba 72 21 81 3c e2 b6 ab bb
       -0.00058863964 -0.00061670435 0.015763018 -0.005240307
000130 6a 70 43 3b 8a 17 89 bc 6f 5d 90 bc 77 3f 10 bd
       0.0029821643 -0.016734857 -0.017622678 -0.035216775
000140 69 f6 cf 3c 7c 36 aa 3c 9a ba 14 3d 87 3c 8e 3c
       0.025386052 0.020777933 0.03631077 0.017362846
000150 0b 55 31 bd 49 e8 7c bb f9 03 a0 3c 4b 64 89 3b
       -0.043293994 -0.0038590601 0.019533144 0.004192864
000160 a4 2e 8c 3b 86 56 2d bd be 0d 3c 3c 77 8b d3 bc
       0.004278021 -0.042318843 0.011477886 -0.025823338
000170 4a dd 92 bc 64 48 22 bc 30 61 18 bc d3 90 7d 3a
       -0.017927784 -0.009904955 -0.009300515 0.00096727646
000180 ca a0 cf 3c a1 1e d7 bb f9 79 6f bc 19 73 f6 3b
       0.025345225 -0.0065649305 -0.014616483 0.007521045
000190 1c 2b c5 bc 1b f8 90 bc 47 93 83 3b 38 38 69 bc
       -0.024068408 -0.01769643 0.0040153596 -0.014234595
0001a0 42 0c c0 3b c2 3b cb 3c a2 51 10 bc d2 9c 14 3c
       0.0058608362 0.024808768 -0.008808525 0.009070592
0001b0 dd d3 e5 3b ab 3d ce 3c 0a 33 99 ba be 71 ac bc
       0.0070137815 0.02517589 -0.0011688184 -0.02105033
0001c0 f4 8f 2a ba 88 1c 14 3c ba 00 a0 bb fc 75 6e 3c
       -0.0006506436 0.0090400055 -0.004882899 0.014554497
0001d0 d8 db 4d bc 7d 30 94 bc 36 5b 8f bb 20 12 08 3d
       -0.012564622 -0.018089527 -0.004374887 0.03322041
0001e0 04 e4 ac ba d8 61 8a b9 1d ff 49 bc dc fa da bc
       -0.0013190513 -0.0002639431 -0.01232889 -0.026730947
0001f0 78 a8 79 3c c9 e3 43 bd fe 82 e2 bc f2 11 a0 bc
       0.01523792 -0.047824655 -0.027650353 -0.019539807
000200 7a 5c 9a bc 69 44 e6 3b 05 51 af bc a2 a7 63 bd
       -0.018842924 0.007027198 -0.021400938 -0.05557979
000210 82 f6 53 3c ff a1 9d bc 8a 23 84 bc 9c 51 9d bc
       0.01293719 -0.019242285 -0.016130228 -0.019203953
000220 37 b6 2f 3b af fe a8 3b c4 fe d5 3b 52 f6 88 3c
       0.002681149 0.005157314 0.0065306146 0.016719017
000230 e0 68 5c bc 62 1c 57 3c 50 e2 39 3b 63 5c 8a 3c
       -0.0134527385 0.013129326 0.0028363653 0.016889757
000240 8f 1a d3 bc 42 4b 0b bd 09 cb 38 bc cf c9 4a bc
       -0.0257695 -0.03400732 -0.011278876 -0.0123772165
000250 16 e5 16 bb 59 44 8b bc 42 70 71 3b 04 fa 11 3d
       -0.002302473 -0.017000364 0.0036840593 0.035638824
000260 42 28 21 3c 14 3a b9 bc d4 e3 a2 3b db 8c f4 3b
       0.009836258 -0.022610702 0.004971007 0.0074630803
000270 2a 0f 4b 3a fd 07 91 3c c4 3b 8c 3c 95 92 89 bc
       0.0007746095 0.017704004 0.017118342 -0.016793529
000280 69 43 18 3d 67 c8 f9 bb 8a 24 ea ba ef 6d 11 bc
       0.037173662 -0.007622767 -0.0017863673 -0.008876308
000290 d0 a7 86 bc 6b 59 32 bc 0b d7 68 bc 73 38 2d bc
       -0.016437441 -0.010885577 -0.0142114265 -0.010572541
0002a0 a7 86 0a ba c8 10 a0 3c cc 95 00 bd be 8b c6 3a
       -0.0005284347 0.019539252 -0.031392857 0.0015147848
0002b0 b0 f6 04 3d 0c 0c d4 bc 97 eb b9 3c 5c 95 0c bc
       0.032461822 -0.02588465 0.022695346 -0.008580532
0002c0 49 76 1a 3a f6 72 30 bc 37 f0 89 bc d0 b4 21 bc
       0.00058922597 -0.010769596 -0.016838176 -0.009869769
0002d0 f2 87 b4 3b b8 b9 1b ba 7d 55 ae bc c1 90 82 bb
       0.00550937 -0.0005940455 -0.021280998 -0.003984541
0002e0 f7 77 67 3c 18 20 67 bd 20 f6 dc bb 64 50 0f bd
       0.014127723 -0.05642709 -0.0067432076 -0.034988776
0002f0 72 59 5e bc bd 77 39 bc 5e b7 cb bb 43 e0 00 bb
       -0.01357113 -0.011320052 -0.0062169274 -0.001966492
000300 a7 d6 5d 3c 74 97 49 3c 2f 87 11 3c 7c 60 24 3b
       0.013539947 0.012304176 0.008882328 0.0025081923
000310 58 b3 e6 3c cc 30 09 3c 40 53 9a bc 55 7c 52 bc
       0.02816169 0.0083734505 -0.018838525 -0.012847026
000320 9b f6 d2 3c e1 58 94 bc eb 49 0d bb 67 91 3e bc
       0.025752356 -0.018108787 -0.002155895 -0.011631346
000330 3e 01 96 39 cb ee e9 bc 54 a7 d9 3b 98 51 46 3d
       0.00028611155 -0.028556248 0.0066422615 0.048417658
000340 c4 5a 16 3c e0 3b ab 3c 7d 5c 90 bc c9 47 f3 bc
       0.009176914 0.020902574 -0.017622227 -0.029697316
000350 61 94 56 bb 3e aa 0d bc 6b c4 ae 3c c5 b6 9f bc
       -0.003274225 -0.008646546 0.021333894 -0.019496331
000360 24 d2 2f 3a 62 8c 08 bc 45 3e f3 bb 43 29 93 bb
       0.00067070336 -0.008334251 -0.0074231946 -0.0044910028
000370 49 84 dd 3c 6e ed 89 3b 30 1e 0f bc 6e f5 d5 39
       0.027040618 0.004209212 -0.008735225 0.00040809385
000380 b8 f4 ad 3a 01 4f db bc 7e 5f d7 3b 25 49 18 bd
       0.0013271784 -0.02677107 0.006572663 -0.03717913
000390 0a f7 28 3d f2 cd 50 3c a9 60 fd bb 09 ee dd bb
       0.04125122 0.012744414 -0.00773247 -0.006772761
0003a0 0d 4e 92 3c c6 61 91 bc 36 a2 09 3d 87 35 3e 3d
       0.017859483 -0.017746817 0.033601962 0.046437766
0003b0 32 0b c9 3b 77 2c e1 3c a7 75 36 bd a9 81 ba 3c
       0.006135368 0.027487023 -0.044545796 0.022766905
0003c0 b0 5b 1b bc 31 0d 82 bb 54 d9 eb 3c e7 6a 51 3b
       -0.009482309 -0.0039688577 0.028790154 0.0031954588
0003d0 18 e8 21 bd d7 a0 af 3c 89 dd da bc a9 61 79 bb
       -0.039527982 0.021439 -0.026716964 -0.0038052595
0003e0 af 29 6d bc c1 9d b6 3b 49 bc 38 3b e2 32 62 b9
       -0.01447527 0.005573005 0.0028188399 -0.00021571995
0003f0 c4 eb d7 ba 57 be 04 bd bd f8 4f bc 94 bb ac bb
       -0.0016473462 -0.032408085 -0.012693581 -0.0052713845

fai_gcn_networks.1.residual.0.bias f4 [64]
000000 00 00 00 00 00 00 00 00 00 00 00 00 00 00 00 00
       0.0 0.0 0.0 0.0
000010 00 00 00 00 00 00 00 00 00 00 00 00 00 00 00 00
       0.0 0.0 0.0 0.0
000020 00 00 00 00 00 00 00 00 00 00 00 00 00 00 00 00
       0.0 0.0 0.0 0.0
000030 00 00 00 00 00 00 00 00 00 00 00 00 00 00 00 00
       0.0 0.0 0.0 0.0
000040 00 00 00 00 00 00 00 00 00 00 00 00 00 00 00 00
       0.0 0.0 0.0 0.0
000050 00 00 00 00 00 00 00 00 00 00 00 00 00 00 00 00
       0.0 0.0 0.0 0.0
000060 00 00 00 00 00 00 00 00 00 00 00 00 00 00 00 00
       0.0 0.0 0.0 0.0
000070 00 00 00 00 00 00 00 00 00 00 00 00 00 00 00 00
       0.0 0.0 0.0 0.0
000080 00 00 00 00 00 00 00 00 00 00 00 00 00 00 00 00
       0.0 0.0 0.0 0.0
000090 00 00 00 00 00 00 00 00 00 00 00 00 00 00 00 00
       0.0 0.0 0.0 0.0
0000a0 00 00 00 00 00 00 00 00 00 00 00 00 00 00 00 00
       0.0 0.0 0.0 0.0
0000b0 00 00 00 00 00 00 00 00 00 00 00 00 00 00 00 00
       0.0 0.0 0.0 0.0
0000c0 00 00 00 00 00 00 00 00 00 00 00 00 00 00 00 00
       0.0 0.0 0.0 0.0
0000d0 00 00 00 00 00 00 00 00 00 00 00 00 00 00 00 00
       0.0 0.0 0.0 0.0
0000e0 00 00 00 00 00 00 00 00 00 00 00 00 00 00 00 00
       0.0 0.0 0.0 0.0
0000f0 00 00 00 00 00 00 00 00 00 00 00 00 00 00 00 00
       0.0 0.0 0.0 0.0

fai_gcn_networks.1.residual.1.weight f4 [64]
000000 34 3e 7e 3f 22 30 81 3f c7 34 7c 3f d4 87 82 3f
       0.99313664 1.0092814 0.9851803 1.0197701
000010 c5 48 81 3f 6e b0 7f 3f da 24 83 3f a7 63 7a 3f
       1.0100332 0.99878585 1.0245621 0.9780831
000020 da bb 75 3f c1 c9 84 3f 72 15 79 3f 0e 94 7e 3f
       0.95989764 1.037407 0.9729835 0.99444664
000030 0d 0b 80 3f 0b b1 80 3f c0 60 7c 3f d9 9a 82 3f
       1.0003372 1.0054029 0.9858513 1.0203506
000040 60 b6 7a 3f 98 9c 7c 3f 08 b6 80 3f a0 f5 7c 3f
       0.9793453 0.98676443 1.0055552 0.98812294
000050 86 c5 83 3f e8 1b 83 3f 93 10 7c 3f c8 a9 80 3f
       1.0294654 1.0242891 0.9846279 1.0051813
000060 fd 9e 85 3f e1 c4 83 3f 30 81 7b 3f 1c 65 78 3f
       1.0439144 1.0294458 0.98244 0.9702928
000070 c5 4e 80 3f f6 14 84 3f 46 8b 7d 3f 96 fd 80 3f
       1.0024039 1.0318897 0.9904064 1.0077388
000080 3d 18 7e 3f 47 37 79 3f f4 a2 7f 3f 7c dc 7d 3f
       0.99255735 0.9734997 0.9985802 0.9916456
000090 8e e2 80 3f 44 ec 84 3f 1d 59 7d 3f 37 2c 7e 3f
       1.0069139 1.0384603 0.989641 0.99286216
0000a0 b5 29 7f 3f c3 a9 84 3f 70 c5 82 3f 0f de 78 3f
       0.99673015 1.0364307 1.0216503 0.97213835
0000b0 34 82 76 3f f0 3e 80 3f 07 2f 80 3f af fd 78 3f
       0.96292424 1.0019207 1.0014352 0.9726209
0000c0 7e 12 7f 3f cc f8 81 3f 66 8b 7f 3f 71 69 82 3f
       0.9963759 1.0154052 0.9982208 1.0188428
0000d0 58 9c 82 3f c4 8b 81 3f be ee 7e 3f ed 18 77 3f
       1.0203962 1.0120778 0.9958304 0.9652241
0000e0 80 73 77 3f ba 7f 7e 3f bd 6c 80 3f b9 de 7b 3f
       0.96660614 0.99413645 1.0033184 0.9838672
0000f0 86 cb 7f 3f 50 11 80 3f 7f d4 84 3f f3 13 7a 3f
       0.9991993 1.0005283 1.0377349 0.9768669

fai_gcn_networks.1.residual.1.bias f4 [64]
000000 00 00 00 00 00 00 00 00 00 00 00 00 00 00 00 00
       0.0 0.0 0.0 0.0
000010 00 00 00 00 00 00 00 00 00 00 00 00 00 00 00 00
       0.0 0.0 0.0 0.0
000020 00 00 00 00 00 00 00 00 00 00 00 00 00 00 00 00
       0.0 0.0 0.0 0.0
000030 00 00 00 00 00 00 00 00 00 00 00 00 00 00 00 00
       0.0 0.0 0.0 0.0
000040 00 00 00 00 00 00 00 00 00 00 00 00 00 00 00 00
       0.0 0.0 0.0 0.0
000050 00 00 00 00 00 00 00 00 00 00 00 00 00 00 00 00
       0.0 0.0 0.0 0.0
000060 00 00 00 00 00 00 00 00 00 00 00 00 00 00 00 00
       0.0 0.0 0.0 0.0
000070 00 00 00 00 00 00 00 00 00 00 00 00 00 00 00 00
       0.0 0.0 0.0 0.0
000080 00 00 00 00 00 00 00 00 00 00 00 00 00 00 00 00
       0.0 0.0 0.0 0.0
000090 00 00 00 00 00 00 00 00 00 00 00 00 00 00 00 00
       0.0 0.0 0.0 0.0
0000a0 00 00 00 00 00 00 00 00 00 00 00 00 00 00 00 00
       0.0 0.0 0.0 0.0
0000b0 00 00 00 00 00 00 00 00 00 00 00 00 00 00 00 00
       0.0 0.0 0.0 0.0
0000c0 00 00 00 00 00 00 00 00 00 00 00 00 00 00 00 00
       0.0 0.0 0.0 0.0
0000d0 00 00 00 00 00 00 00 00 00 00 00 00 00 00 00 00
       0.0 0.0 0.0 0.0
0000e0 00 00 00 00 00 00 00 00 00 00 00 00 00 00 00 00
       0.0 0.0 0.0 0.0
0000f0 00 00 00 00 00 00 00 00 00 00 00 00 00 00 00 00
       0.0 0.0 0.0 0.0

fai_gcn_networks.1.residual.1.running_mean f4 [64]
000000 e8 1d 18 b9 ea 2a 6e 38 08 74 d6 b8 6f d7 3a b9
       -0.0001450699 5.678359e-05 -0.00010225928 -0.00017818598
000010 33 0b 54 b9 a1 75 01 b9 43 59 04 38 f9 51 03 b9
       -0.00020222068 -0.00012346219 3.1554384e-05 -0.00012523671
000020 31 3d 6f b8 1b 84 83 b9 99 63 51 b9 43 4c 73 b8
       -5.703903e-05 -0.00025084693 -0.00019968896 -5.800674e-05
000030 39 88 4d b8 a0 a1 59 b9 53 96 9b b8 3f e2 99 b9
       -4.9002676e-05 -0.00020754943 -7.418976e-05 -0.00029351
000040 82 0b 07 b9 87 cb 53 39 03 81 18 b8 08 fb 22 38
       -0.0001287889 0.00020198348 -3.6359776e-05 3.88576e-05
000050 5e b0 1c b8 f9 03 1b b9 ed 2a 95 b8 37 c2 22 b9
       -3.7357553e-05 -0.00014783432 -7.112869e-05 -0.00015521875
000060 2d 33 ef 37 40 7b e2 b8 a6 7b da b5 56 26 da 36
       2.851485e-05 -0.00010799477 -1.6278252e-06 6.501369e-06
000070 30 2c 7d 37 28 2e 35 38 50 62 95 b9 b4 5d 22 b9
       1.5090263e-05 4.319675e-05 -0.00028492743 -0.00015484431
000080 eb f1 19 b7 5b de ab b8 8d 3b 8c 38 82 8a db 38
       -9.175837e-06 -8.195332e-05 6.6868124e-05 0.00010468533
000090 2e 1b 19 b6 18 1e e6 38 58 db 99 38 97 93 0b 38
       -2.2814597e-06 0.0001097286 7.3364645e-05 3.3277636e-05
0000a0 3b 5b c9 38 0f f0 bb 35 ab 8a fa 37 1c 15 c7 38
       9.60142e-05 1.4002452e-06 2.9866895e-05 9.4929914e-05
0000b0 0e 93 9d b9 c1 6b 40 36 23 0b 8a b8 53 50 99 b8
       -0.00030054938 2.867295e-06 -6.582427e-05 -7.31057e-05
0000c0 92 16 6e 39 d0 ad d1 b8 bc 0e 73 39 25 f7 ca 38
       0.00022705857 -9.998272e-05 0.00023179775 9.678145e-05
0000d0 93 59 85 39 e8 00 50 37 ca 64 fe b8 d8 a6 9a b8
       0.00025434475 1.2397977e-05 -0.00012130437 -7.374369e-05
0000e0 a3 6b b7 38 13 9e 8f 38 a7 0d 20 b9 83 85 a3 b9
       8.746169e-05 6.848215e-05 -0.00015263875 -0.00031189257
0000f0 80 8c 4e b9 43 1c f5 b8 a9 06 e4 39 64 8f 13 b9
       -0.00019698031 -0.000116877745 0.0004349251 -0.0001407243

fai_gcn_networks.1.residual.1.running_var f4 [64]
000000 f9 21 ef 32 ff ca c9 32 c6 7d 1d 32 c3 c0 0c 33
       2.7838711e-08 2.3491792e-08 9.1672e-09 3.2771606e-08
000010 0a e5 81 33 44 8f e5 32 dd 85 0c 32 83 f3 05 33
       6.0486926e-08 2.6724258e-08 8.1795095e-09 3.118795e-08
000020 1e 2a ca 33 6c 45 88 33 d8 51 ef 32 b4 b5 c5 32
       9.414019e-08 6.345621e-08 2.786048e-08 2.3016447e-08
000030 4c 35 7b 32 e4 0a 8d 33 74 b0 77 32 db 7f 31 33
       1.4622241e-08 6.567805e-08 1.4417413e-08 4.1327308e-08
000040 df bb 99 32 c9 da 22 33 9f ab 7e 32 98 ac e5 31
       1.7896978e-08 3.7917548e-08 1.4823768e-08 6.684399e-09
000050 fe 56 00 33 c4 a4 19 33 93 ec af 33 e2 be 9d 32
       2.988144e-08 3.5772942e-08 8.192105e-08 1.8364009e-08
000060 47 40 9c 33 b5 26 d4 32 09 c5 61 32 3f ae 57 33
       7.276008e-08 2.469765e-08 1.3141524e-08 5.0217064e-08
000070 a6 09 9c 31 1b 9b 00 33 87 3c bf 33 02 6d dd 32
       4.5412945e-09 2.994339e-08 8.9051404e-08 2.5777357e-08
000080 3d b7 3c 33 2f 7e 5b 33 ad 8c 25 33 d1 7e 08 33
       4.3938815e-08 5.1104674e-08 3.8545e-08 3.1780306e-08
000090 a7 c8 69 33 7b 19 60 33 3b 8e 23 33 2a ab 4b 32
       5.4432032e-08 5.217724e-08 3.8080753e-08 1.1855073e-08
0000a0 fb 93 91 32 5f f0 42 32 1c a6 0a 33 d7 f8 13 33
       1.6947515e-08 1.134694e-08 3.2281704e-08 3.4452423e-08
0000b0 6f 55 ad 33 92 e8 26 33 2e 9e 77 32 8c fb 2e 33
       8.0714806e-08 3.886141e-08 1.4413258e-08 4.0741313e-08
0000c0 ea 30 0f 33 8b a8 b5 32 63 ed 43 33 82 93 a6 32
       3.333927e-08 2.1147818e-08 4.5617877e-08 1.9392022e-08
0000d0 e7 09 b6 33 6f 7b 47 32 24 9a 65 32 3a b6 30 32
       8.476837e-08 1.161139e-08 1.3364602e-08 1.0285982e-08
0000e0 d0 87 a0 32 7c 7b 09 33 ad b1 a4 32 ca f5 6f 33
       1.8688212e-08 3.2010107e-08 1.917291e-08 5.5870068e-08
0000f0 29 c2 6f 33 00 84 01 33 d1 07 29 34 64 9a 1f 34
       5.582311e-08 3.0155206e-08 1.5742195e-07 1.4864196e-07
