capsule-6073072/code/work_dir/recognition/kinetics_skeleton/FAI_GCN/epoch480_model.pt (torch, 74070 bytes, 22 tensors)

A f4 [3, 18, 18]
000000 00 00 80 3e 00 00 00 00 00 00 00 00 00 00 00 00
       0.25 0.0 0.0 0.0
000010 00 00 00 00 00 00 00 00 00 00 00 00 00 00 00 00
       0.0 0.0 0.0 0.0
000020 00 00 00 00 00 00 00 00 00 00 00 00 00 00 00 00
       0.0 0.0 0.0 0.0
000030 00 00 00 00 00 00 00 00 00 00 00 00 00 00 00 00
       0.0 0.0 0.0 0.0
000040 00 00 00 00 00 00 00 00 00 00 00 00 00 00 80 3e
       0.0 0.0 0.0 0.25
000050 00 00 00 00 00 00 00 00 00 00 00 00 00 00 00 00
       0.0 0.0 0.0 0.0
000060 00 00 00 00 00 00 00 00 00 00 00 00 00 00 00 00
       0.0 0.0 0.0 0.0
000070 00 00 00 00 00 00 00 00 00 00 00 00 00 00 00 00
       0.0 0.0 0.0 0.0
000080 00 00 00 00 00 00 00 00 00 00 00 00 00 00 00 00
       0.0 0.0 0.0 0.0
000090 00 00 00 00 00 00 00 00 00 00 80 3e 00 00 00 00
       0.0 0.0 0.25 0.0
0000a0 00 00 00 00 00 00 00 00 00 00 00 00 00 00 00 00
       0.0 0.0 0.0 0.0
0000b0 00 00 00 00 00 00 00 00 00 00 00 00 00 00 00 00
       0.0 0.0 0.0 0.0
0000c0 00 00 00 00 00 00 00 00 00 00 00 00 00 00 00 00
       0.0 0.0 0.0 0.0
0000d0 00 00 00 00 00 00 00 00 00 00 00 00 00 00 00 00
       0.0 0.0 0.0 0.0
0000e0 00 00 00 00 ab aa aa 3e 00 00 00 00 00 00 00 00
       0.0 0.33333334 0.0 0.0
0000f0 00 00 00 00 00 00 00 00 00 00 00 00 00 00 00 00
       0.0 0.0 0.0 0.0
000100 00 00 00 00 00 00 00 00 00 00 00 00 00 00 00 00
       0.0 0.0 0.0 0.0
000110 00 00 00 00 00 00 00 00 00 00 00 00 00 00 00 00
       0.0 0.0 0.0 0.0
000120 00 00 00 00 00 00 00 00 00 00 00 00 00 00 00 00
       0.0 0.0 0.0 0.0
000130 00 00 00 3f 00 00 00 00 00 00 00 00 00 00 00 00
       0.5 0.0 0.0 0.0
000140 00 00 00 00 00 00 00 00 00 00 00 00 00 00 00 00
       0.0 0.0 0.0 0.0
000150 00 00 00 00 00 00 00 00 00 00 00 00 00 00 00 00
       0.0 0.0 0.0 0.0
000160 00 00 00 00 00 00 00 00 00 00 00 00 00 00 00 00
       0.0 0.0 0.0 0.0
000170 00 00 00 00 00 00 00 00 00 00 00 00 00 00 80 3e
       0.0 0.0 0.0 0.25
000180 00 00 00 00 00 00 00 00 00 00 00 00 00 00 00 00
       0.0 0.0 0.0 0.0
000190 00 00 00 00 00 00 00 00 00 00 00 00 00 00 00 00
       0.0 0.0 0.0 0.0
0001a0 00 00 00 00 00 00 00 00 00 00 00 00 00 00 00 00
       0.0 0.0 0.0 0.0
0001b0 00 00 00 00 00 00 00 00 00 00 00 00 00 00 00 00
       0.0 0.0 0.0 0.0
0001c0 00 00 00 00 00 00 00 00 ab aa aa 3e 00 00 00 00
       0.0 0.0 0.33333334 0.0
0001d0 00 00 00 00 00 00 00 00 00 00 00 00 00 00 00 00
       0.0 0.0 0.0 0.0
0001e0 00 00 00 00 00 00 00 00 00 00 00 00 00 00 00 00
       0.0 0.0 0.0 0.0
0001f0 00 00 00 00 00 00 00 00 00 00 00 00 00 00 00 00
       0.0 0.0 0.0 0.0
000200 00 00 00 00 00 00 00 00 00 00 00 00 00 00 00 00
       0.0 0.0 0.0 0.0
000210 00 00 00 00 00 00 00 3f 00 00 00 00 00 00 00 00
       0.0 0.5 0.0 0.0
000220 00 00 00 00 00 00 00 00 00 00 00 00 00 00 00 00
       0.0 0.0 0.0 0.0
000230 00 00 00 00 00 00 00 00 00 00 00 00 00 00 00 00
       0.0 0.0 0.0 0.0
000240 00 00 00 00 00 00 00 00 00 00 00 00 00 00 00 00
       0.0 0.0 0.0 0.0
000250 00 00 00 00 00 00 00 00 00 00 00 00 00 00 00 00
       0.0 0.0 0.0 0.0
000260 ab aa aa 3e 00 00 00 00 00 00 00 00 00 00 00 00
       0.33333334 0.0 0.0 0.0
000270 00 00 00 00 00 00 00 00 00 00 00 00 00 00 00 00
       0.0 0.0 0.0 0.0
000280 00 00 00 00 00 00 00 00 00 00 00 00 00 00 00 00
       0.0 0.0 0.0 0.0
000290 00 00 00 00 00 00 00 00 00 00 00 00 00 00 00 00
       0.0 0.0 0.0 0.0
0002a0 00 00 00 00 00 00 00 00 00 00 00 00 ab aa aa 3e
       0.0 0.0 0.0 0.33333334
0002b0 00 00 00 00 00 00 00 00 00 00 00 00 00 00 00 00
       0.0 0.0 0.0 0.0
0002c0 00 00 00 00 00 00 00 00 00 00 00 00 00 00 00 00
       0.0 0.0 0.0 0.0
0002d0 00 00 00 00 00 00 00 00 00 00 00 00 00 00 00 00
       0.0 0.0 0.0 0.0
0002e0 00 00 00 00 00 00 00 00 00 00 00 00 00 00 00 00
       0.0 0.0 0.0 0.0
0002f0 00 00 00 00 00 00 00 00 00 00 00 3f 00 00 00 00
       0.0 0.0 0.5 0.0
000300 00 00 00 00 00 00 00 00 00 00 00 00 00 00 00 00
       0.0 0.0 0.0 0.0
000310 00 00 00 00 00 00 00 00 00 00 00 00 00 00 00 00
       0.0 0.0 0.0 0.0
000320 00 00 00 00 00 00 00 00 00 00 00 00 00 00 00 00
       0.0 0.0 0.0 0.0
000330 00 00 00 00 00 00 00 00 00 00 00 00 00 00 00 00
       0.0 0.0 0.0 0.0
000340 00 00 00 00 ab aa aa 3e 00 00 00 00 00 00 00 00
       0.0 0.33333334 0.0 0.0
000350 00 00 00 00 00 00 00 00 00 00 00 00 00 00 00 00
       0.0 0.0 0.0 0.0
000360 00 00 00 00 00 00 00 00 00 00 00 00 00 00 00 00
       0.0 0.0 0.0 0.0
000370 00 00 00 00 00 00 00 00 00 00 00 00 00 00 00 00
       0.0 0.0 0.0 0.0
000380 00 00 00 00 00 00 00 00 00 00 00 00 00 00 00 00
       0.0 0.0 0.0 0.0
000390 ab aa aa 3e 00 00 00 00 00 00 00 00 00 00 00 00
       0.33333334 0.0 0.0 0.0
0003a0 00 00 00 00 00 00 00 00 00 00 00 00 00 00 00 00
       0.0 0.0 0.0 0.0
0003b0 00 00 00 00 00 00 00 00 00 00 00 00 00 00 00 00
       0.0 0.0 0.0 0.0
0003c0 00 00 00 00 00 00 00 00 00 00 00 00 00 00 00 00
       0.0 0.0 0.0 0.0
0003d0 00 00 00 00 00 00 00 00 00 00 00 00 00 00 00 3f
       0.0 0.0 0.0 0.5
0003e0 00 00 00 00 00 00 00 00 00 00 00 00 00 00 00 00
       0.0 0.0 0.0 0.0
0003f0 00 00 00 00 00 00 00 00 00 00 00 00 00 00 00 00
       0.0 0.0 0.0 0.0

data_bn.weight f4 [54]
000000 c5 0b 0f 3f 95 bb 04 3f 5d 94 0e 3f 93 5d fe 3e
       0.55877334 0.5184873 0.55695134 0.49680766
000010 74 bc 01 3f 0a 3d 0f 3f 9d 68 02 3f 25 da 04 3f
       0.5067818 0.55952513 0.5094088 0.5189536
000020 d3 9d ed 3e 29 f9 07 3f d6 9f 01 3f cc 85 02 3f
       0.46409473 0.53114563 0.50634515 0.5098541
000030 ad 14 02 3f f5 e5 f4 3e e3 47 05 3f 06 b5 0b 3f
       0.508128 0.47831693 0.52062815 0.54573095
000040 69 0a 08 3f f7 ca 04 3f 80 3d 01 3f 2d db fc 3e
       0.53140885 0.518722 0.50484467 0.49385968
000050 1c 75 08 3f 7f 41 04 3f 10 16 00 3f 16 9f 06 3f
       0.53303695 0.5166244 0.50033665 0.52586496
000060 64 d3 04 3f 7b d4 05 3f c4 0d 08 3f de 6a 08 3f
       0.51885056 0.52277344 0.53146005 0.53288066
000070 1e 98 05 3f ac ce 08 3f 72 74 fa 3e 5a d9 03 3f
       0.5218524 0.53440356 0.48916966 0.5150353
000080 75 69 07 3f 57 a7 0a 3f 37 32 0a 3f 1d 3b 0d 3f
       0.5289529 0.5416159 0.5398287 0.55168325
000090 57 65 04 3f 61 1c 0a 3f cc e5 06 3f d3 be 03 3f
       0.5171713 0.5394955 0.5269439 0.5146305
0000a0 4b da 03 3f b6 93 08 3f a0 7b 08 3f ee 84 0d 3f
       0.51504964 0.5335039 0.53313637 0.5528096
0000b0 96 94 02 3f b7 0c 00 3f 37 e7 0e 3f 43 39 05 3f
       0.51007974 0.500194 0.55821556 0.520405
0000c0 33 4b 08 3f f7 37 0c 3f 4a 60 07 3f 09 af 0c 3f
       0.53239745 0.54772896 0.528813 0.5495458
0000d0 0f 5a ed 3e 41 bc 03 3f
       0.46357772 0.5145913

data_bn.bias f4 [54]
000000 24 d8 2a a7 25 90 23 a2 48 da ae 20 f8 a6 42 a2
       -2.370941e-15 -2.2166929e-18 2.9621193e-19 -2.6380295e-18
000010 fa 4b 4e 9c 79 a8 b7 34 21 cb 8f 20 b2 fc a7 1f
       -6.825788e-22 3.4208986e-07 2.4359562e-19 7.11453e-20
000020 b1 59 89 a6 76 6b 4c 94 eb 8c 14 a7 be 62 9e b6
       -9.530596e-16 -1.0320561e-26 -2.0615518e-15 -4.720262e-06
000030 88 e9 0d b3 b6 63 13 b0 14 60 9a 2d b8 56 c0 a0
       -3.3041516e-08 -5.3619986e-10 1.755044e-11 -3.258345e-19
000040 1a 25 f6 1e 69 0b 39 20 f5 0a f2 14 bb a7 b7 27
       2.6061608e-20 1.5673885e-19 2.4440077e-26 5.0974557e-15
000050 11 e9 60 a6 4d 53 9e 29 72 d8 1b 2e 7d 23 2d 2b
       -7.8031476e-16 7.03106e-14 3.5435162e-11 6.1511197e-13
000060 85 fe c3 2e 78 22 89 af 93 81 33 b0 89 82 4d 94
       8.912785e-11 -2.4944646e-10 -6.5303957e-10 -1.03755986e-26
000070 61 ff 9a ab e5 19 00 a9 ca 74 70 b2 49 72 06 b4
       -1.101324e-12 -2.844417e-14 -1.3996393e-08 -1.2521299e-07
000080 cd af 6a 2e aa ce fd af 11 30 57 32 a3 1e 9b ad
       5.3361583e-11 -4.6167276e-10 1.2525576e-08 -1.7635065e-11
000090 d6 9e 69 94 b4 e5 48 a9 7f 1b fb 2b 28 ec 33 af
       -1.1794819e-26 -4.4608157e-14 1.7842254e-12 -1.6363855e-10
0000a0 71 f3 5b 33 d4 8f 44 28 c7 ce 94 94 74 72 e2 a5
       5.121132e-08 1.0911373e-14 -1.502574e-26 -3.9282307e-16
0000b0 87 18 84 35 1c e6 90 93 26 b3 9b aa 8c 8c d1 aa
       9.841905e-07 -3.6577616e-27 -2.765784e-13 -3.7223382e-13
0000c0 7f 04 0a 29 84 20 61 a9 13 e2 8b 35 d2 03 b2 2c
       3.0646055e-14 -4.998824e-14 1.0422103e-06 5.0594884e-12
0000d0 07 72 06 29 a2 29 82 a8
       2.985288e-14 -1.4450955e-14

data_bn.running_mean f4 [54]
000000 ee 28 ed bd fc d1 b5 bd 8f 36 94 3e 8f 9a de bd
       -0.11580072 -0.08877942 0.28947875 -0.108693235
000010 a2 76 80 bd 96 ca 8e 3e 20 52 01 be c8 51 80 bd
       -0.062726274 0.27888936 -0.12628984 -0.062655985
000020 6e fa 82 3e 6b b9 11 be e0 0d 32 bd a7 a9 82 3e
       0.25581688 -0.14230888 -0.043470263 0.2552006
000030 23 23 1e be b2 8d 19 bd 6b 37 87 3e 2a e1 b9 bd
       -0.15443091 -0.037488647 0.26409468 -0.0907615
000040 47 80 7f bd 17 ba 80 3e e1 b9 9c bd 65 12 37 bd
       -0.062378194 0.25141975 -0.07652641 -0.044695277
000050 03 ee 7b 3e 17 0c 86 bd ec 91 08 bd 68 02 78 3e
       0.24602513 -0.06545275 -0.033342287 0.24219668
000060 4c b9 f1 bd 01 f9 f9 3b 45 d4 67 3e 61 0b 07 be
       -0.11802921 0.0076285605 0.22639568 -0.13187934
000070 58 15 17 3d ba 6d 79 3e 6d 93 f8 bd 8e cf 8f 3d
       0.03688559 0.24358264 -0.12137494 0.0702201
000080 d9 44 72 3e c2 b1 c3 bd af 4e 01 3c 46 09 6a 3e
       0.23659076 -0.09555389 0.007892295 0.228551
000090 93 e8 a7 bd 0b f8 0e 3d 48 83 76 3e d6 c6 bc bd
       -0.08198657 0.03490452 0.24073517 -0.092176124
0000a0 cd 3f 85 3d c1 76 60 3e 71 2f f6 bd ae 1c c5 bd
       0.0650631 0.21920301 -0.120207675 -0.09624611
0000b0 3b d9 8f 3e 62 9c de bd 96 5d c4 bd b7 f1 95 3e
       0.2809542 -0.108696714 -0.095881626 0.29285976
0000c0 c2 d3 e6 bd 4d 0c 93 bd 04 67 d0 3d 38 76 c3 bd
       -0.11270858 -0.071800806 0.10175899 -0.09544033
0000d0 69 b1 bb bd 77 3b 82 3e
       -0.09164698 0.25435993

data_bn.running_var f4 [54]
000000 6b b2 5a 3b eb 8a ec 3b 65 c4 22 3d 39 e4 40 3b
       0.0033370506 0.0072187087 0.039738078 0.0029432906
000010 e3 33 ba 3b a5 59 0e 3d ea d4 78 3b 18 d5 be 3b
       0.005682455 0.03475346 0.0037968704 0.0058237426
000020 15 44 f5 3c 08 84 a4 3b 9a 13 b4 3b 3f 2d 00 3d
       0.02993969 0.005020622 0.0054955008 0.03129315
000030 2a 52 ce 3b cb a6 c0 3b 18 3b 04 3d a9 ec 21 3b
       0.006296416 0.0058792583 0.03228292 0.002470771
000040 9a ed b7 3b 0b bf e7 3c 4e b5 2f 3b f8 9e ab 3b
       0.005613041 0.028289339 0.0026810947 0.0052374564
000050 39 70 e5 3c 78 a3 54 3b 36 34 bc 3b 93 66 e8 3c
       0.028007613 0.0032446068 0.0057435287 0.028369224
000060 36 b3 6e 3b dd b2 b2 3b 6c 34 b6 3c 4d a2 98 3b
       0.0036422736 0.005453451 0.022241794 0.0046580196
000070 c6 89 f0 3b e8 20 db 3c fb a3 8c 3b 33 bb 2b 3c
       0.0073406426 0.02674909 0.004292009 0.0104816435
000080 b0 ed f9 3c b5 3e 31 3b 3a ff b2 3b 85 5d b4 3c
       0.030508846 0.0027045433 0.0054625543 0.02201725
000090 5f 89 38 3b 69 9b ef 3b eb 4a d6 3c 68 44 3e 3b
       0.0028158051 0.0073122275 0.02615877 0.0029032473
0000a0 1f 5a 2d 3c 18 56 c3 3c 8b d7 61 3b 3a 7e fd 3b
       0.010580569 0.023844764 0.003446075 0.0077359946
0000b0 1a cb 17 3d 1b b6 45 3b 26 db f7 3b b8 34 28 3d
       0.037058927 0.0030168358 0.0075639663 0.0410659
0000c0 41 28 82 3b 13 7e 13 3c ad f0 0e 3d 9d f6 22 3b
       0.003972084 0.009002226 0.034897495 0.0024866231
0000d0 bc cd ed 3b e3 27 15 3d
       0.0072571915 0.036414992

fai_gcn_networks.0.gcn.conv.weight f4 [96, 3, 1, 1]
000000 2a 00 00 00 5e 00 00 80 0d 00 00 00 c0 00 00 00
       5.9e-44 -1.32e-43 1.8e-44 2.69e-43
000010 2a 01 00 80 2b 00 00 80 23 00 00 00 23 00 00 80
       -4.18e-43 -6e-44 4.9e-44 -4.9e-44
000020 23 00 00 80 27 00 00 80 52 03 00 00 6f 00 00 80
       -4.9e-44 -5.5e-44 1.191e-42 -1.56e-43
000030 25 00 00 00 28 00 00 00 e5 00 00 80 23 00 00 00
       5.2e-44 5.6e-44 -3.21e-43 4.9e-44
000040 2c 00 00 80 23 00 00 80 24 00 00 80 23 00 00 00
       -6.2e-44 -4.9e-44 -5e-44 4.9e-44
000050 23 00 00 80 94 5f 8d 0d ad 9a 59 8d 5a ce 4b 8d
       -4.9e-44 8.7128055e-31 -6.705447e-31 -6.280259e-31
000060 26 00 00 80 27 00 00 00 24 00 00 00 23 00 00 80
       -5.3e-44 5.5e-44 5e-44 -4.9e-44
000070 27 00 00 80 23 00 00 80 25 00 00 00 27 00 00 00
       -5.5e-44 -4.9e-44 5.2e-44 5.5e-44
000080 50 01 00 00 12 61 61 11 04 b7 b9 12 5c fe 12 13
       4.71e-43 1.7779282e-28 1.1720258e-27 1.85532e-27
000090 45 9d 01 16 da 2e 0f 16 32 5e 95 18 26 00 00 00
       1.0470163e-25 1.1566232e-25 3.861071e-24 5.3e-44
0000a0 23 00 00 80 2a 00 00 80 19 00 00 00 25 00 00 80
       -4.9e-44 -5.9e-44 3.5e-44 -5.2e-44
0000b0 23 00 00 00 25 00 00 00 23 00 00 00 26 00 00 00
       4.9e-44 5.2e-44 4.9e-44 5.3e-44
0000c0 23 00 00 00 23 00 00 00 24 00 00 00 23 00 00 80
       4.9e-44 4.9e-44 5e-44 -4.9e-44
0000d0 23 00 00 80 23 00 00 00 23 00 00 00 26 00 00 00
       -4.9e-44 4.9e-44 4.9e-44 5.3e-44
0000e0 2a 00 00 00 58 00 00 80 90 00 00 80 24 04 00 80
       5.9e-44 -1.23e-43 -2.02e-43 -1.485e-42
0000f0 23 00 00 80 23 00 00 00 23 00 00 80 23 00 00 80
       -4.9e-44 4.9e-44 -4.9e-44 -4.9e-44
000100 23 00 00 00 23 00 00 80 27 00 00 00 26 00 00 80
       4.9e-44 -4.9e-44 5.5e-44 -5.3e-44
000110 23 00 00 80 25 00 00 80 23 00 00 80 23 00 00 80
       -4.9e-44 -5.2e-44 -4.9e-44 -4.9e-44
000120 2b 00 00 00 24 00 00 00 2a 00 00 00 23 00 00 00
       6e-44 5e-44 5.9e-44 4.9e-44
000130 27 00 00 80 23 00 00 00 fe 0d 00 00 c4 09 00 00
       -5.5e-44 4.9e-44 5.02e-42 3.503e-42
000140 ad 00 00 00 24 00 00 00 23 00 00 80 28 01 00 00
       2.42e-43 5e-44 -4.9e-44 4.15e-43
000150 23 00 00 00 2b 00 00 00 24 00 00 00 23 00 00 80
       4.9e-44 6e-44 5e-44 -4.9e-44
000160 33 00 00 00 23 00 00 80 ce 00 00 80 45 0a 00 00
       7.1e-44 -4.9e-44 -2.89e-43 3.684e-42
000170 eb 00 00 00 6d 00 00 80 2c 00 00 00 9c 0b 00 80
       3.3e-43 -1.53e-43 6.2e-44 -4.165e-42
000180 16 00 00 80 88 00 00 00 3f 00 00 80 1d 01 00 00
       -3.1e-44 1.9e-43 -8.8e-44 4e-43
000190 7d 02 00 80 24 00 00 00 23 00 00 80 23 00 00 00
       -8.93e-43 5e-44 -4.9e-44 4.9e-44
0001a0 23 00 00 00 74 00 00 00 a1 00 00 00 4c 04 00 00
       4.9e-44 1.63e-43 2.26e-43 1.541e-42
0001b0 28 00 00 80 27 00 00 00 39 00 00 80 2a 00 00 00
       -5.6e-44 5.5e-44 -8e-44 5.9e-44
0001c0 25 00 00 00 24 00 00 00 23 00 00 00 23 00 00 00
       5.2e-44 5e-44 4.9e-44 4.9e-44
0001d0 26 00 00 80 a5 88 03 8e 81 5f c3 0f e4 90 ac 8d
       -5.3e-44 -1.6212789e-30 1.9265271e-29 -1.06352e-30
0001e0 25 00 00 00 23 00 00 00 23 00 00 80 2b 00 00 80
       5.2e-44 4.9e-44 -4.9e-44 -6e-44
0001f0 29 00 00 80 25 00 00 00 24 00 00 00 26 00 00 80
       -5.7e-44 5.2e-44 5e-44 -5.3e-44
000200 1e 01 00 00 bd 8a 16 94 46 46 ec 92 00 4c 91 14
       4.01e-43 -7.600426e-27 -1.4911018e-27 1.4671235e-26
000210 6e 9e 16 17 ed 31 d2 17 cc 76 c2 98 23 00 00 00
       4.866758e-25 1.3583535e-24 -5.026778e-24 4.9e-44
000220 23 00 00 80 2c 00 00 00 23 00 00 80 24 00 00 00
       -4.9e-44 6.2e-44 -4.9e-44 5e-44
000230 24 00 00 80 23 00 00 00 07 00 00 80 2c 00 00 00
       -5e-44 4.9e-44 -1e-44 6.2e-44
000240 2a 00 00 80 2a 00 00 00 25 00 00 00 24 00 00 80
       -5.9e-44 5.9e-44 5.2e-44 -5e-44
000250 23 00 00 00 28 00 00 80 23 00 00 80 23 00 00 80
       4.9e-44 -5.6e-44 -4.9e-44 -4.9e-44
000260 26 00 00 00 c9 00 00 80 6a 00 00 00 ec 00 00 00
       5.3e-44 -2.82e-43 1.49e-43 3.31e-43
000270 23 00 00 80 23 00 00 00 24 00 00 80 23 00 00 80
       -4.9e-44 4.9e-44 -5e-44 -4.9e-44
000280 27 00 00 80 23 00 00 80 23 00 00 00 23 00 00 00
       -5.5e-44 -4.9e-44 4.9e-44 4.9e-44
000290 23 00 00 80 23 00 00 80 2b 00 00 00 23 00 00 80
       -4.9e-44 -4.9e-44 6e-44 -4.9e-44
0002a0 2b 00 00 80 25 00 00 80 23 00 00 00 23 00 00 80
       -6e-44 -5.2e-44 4.9e-44 -4.9e-44
0002b0 24 00 00 00 23 00 00 00 1f 10 00 00 05 12 00 00
       5e-44 4.9e-44 5.783e-42 6.464e-42
0002c0 61 00 00 00 23 00 00 80 25 00 00 80 24 00 00 80
       1.36e-43 -4.9e-44 -5.2e-44 -5e-44
0002d0 23 00 00 80 2b 00 00 00 28 00 00 00 11 00 00 80
       -4.9e-44 6e-44 5.6e-44 -2.4e-44
0002e0 2a 00 00 00 25 00 00 00 e1 02 00 00 c4 02 00 80
       5.9e-44 5.2e-44 1.033e-42 -9.92e-43
0002f0 41 02 00 00 a4 01 00 00 4c 0c 00 00 cd 87 00 80
       8.09e-43 5.89e-43 4.411e-42 -4.8716e-41
000300 23 00 00 80 19 00 00 80 38 00 00 80 23 00 00 80
       -4.9e-44 -3.5e-44 -7.8e-44 -4.9e-44
000310 23 00 00 00 23 00 00 80 25 00 00 80 24 00 00 00
       4.9e-44 -4.9e-44 -5.2e-44 5e-44
000320 23 00 00 00 73 00 00 00 b5 00 00 00 17 01 00 80
       4.9e-44 1.61e-43 2.54e-43 -3.91e-43
000330 04 00 00 00 25 00 00 00 26 00 00 00 b6 00 00 00
       6e-45 5.2e-44 5.3e-44 2.55e-43
000340 15 00 00 00 2c 00 00 00 23 00 00 80 2a 00 00 00
       3e-44 6.2e-44 -4.9e-44 5.9e-44
000350 24 00 00 80 69 f6 96 8c 73 de 8f 0e bc ff e8 8c
       -5e-44 -2.3259462e-31 3.5466433e-30 -3.5899174e-31
000360 24 00 00 00 24 00 00 80 2c 00 00 80 24 00 00 00
       5e-44 -5e-44 -6.2e-44 5e-44
000370 25 00 00 80 23 00 00 80 24 00 00 00 24 00 00 00
       -5.2e-44 -4.9e-44 5e-44 5e-44
000380 27 00 00 80 94 6c 10 92 0a e6 21 13 79 82 b7 93
       -5.5e-44 -4.557222e-28 2.0434475e-27 -4.632435e-27
000390 50 bf a5 15 28 ae 38 15 f5 72 f6 18 05 00 00 00
       6.694481e-26 3.729589e-26 6.3705587e-24 7e-45
0003a0 25 00 00 00 23 00 00 80 23 00 00 80 25 00 00 00
       5.2e-44 -4.9e-44 -4.9e-44 5.2e-44
0003b0 23 00 00 80 23 00 00 80 24 00 00 80 29 00 00 00
       -4.9e-44 -4.9e-44 -5e-44 5.7e-44
0003c0 2a 00 00 00 23 00 00 80 2b 00 00 00 23 00 00 80
       5.9e-44 -4.9e-44 6e-44 -4.9e-44
0003d0 25 00 00 00 2b 00 00 00 47 00 00 80 24 00 00 80
       5.2e-44 6e-44 -1e-43 -5e-44
0003e0 23 00 00 80 20 00 00 00 07 00 00 00 14 00 00 80
       -4.9e-44 4.5e-44 1e-44 -2.8e-44
0003f0 27 00 00 00 1b 00 00 00 2a 00 00 80 29 00 00 00
       5.5e-44 3.8e-44 -5.9e-44 5.7e-44

fai_gcn_networks.0.gcn.conv.bias f4 [96]
000000 36 00 00 80 25 19 00 00 1a 00 00 80 1b 07 00 00
       -7.6e-44 9.02e-42 -3.6e-44 2.549e-42
000010 05 c2 3c 80 a8 00 00 00 2b 00 00 80 89 8b 0c 19
       -5.579731e-39 2.35e-43 -6e-44 7.266009e-24
000020 88 00 00 00 60 00 00 80 70 98 00 00 f8 04 24 1f
       1.9e-43 -1.35e-43 5.4684e-41 3.473246e-20
000030 1a 89 3a a3 24 00 00 80 24 00 00 80 14 00 00 00
       -1.0112113e-17 -5e-44 -5e-44 2.8e-44
000040 45 00 00 80 27 00 00 00 2c 00 00 00 5b 10 00 00
       -9.7e-44 5.5e-44 6.2e-44 5.867e-42
000050 27 00 00 00 26 00 00 00 28 00 00 80 24 00 00 00
       5.5e-44 5.3e-44 -5.6e-44 5e-44
000060 34 00 00 80 24 00 00 80 48 13 00 80 2a 00 00 00
       -7.3e-44 -5e-44 -6.917e-42 5.9e-44
000070 24 00 00 80 60 07 00 00 67 d1 ba 03 e3 3d c2 86
       -5e-44 2.646e-42 1.0980174e-36 -7.3065624e-35
000080 1c 00 00 80 ee 14 00 00 2c 00 00 00 e0 03 00 80
       -3.9e-44 7.508e-42 6.2e-44 -1.39e-42
000090 6e 0f 3a 00 5b 00 00 00 27 00 00 80 d1 b2 59 9a
       5.331994e-39 1.28e-43 -5.5e-44 -4.5018995e-23
0000a0 21 00 00 80 93 00 00 00 0f b4 00 80 c6 d3 4a 9e
       -4.6e-44 2.06e-43 -6.4593e-41 -1.0737585e-20
0000b0 f2 5e 41 a4 2b 00 00 80 2c 00 00 00 33 00 00 00
       -4.1930626e-17 -6e-44 6.2e-44 7.1e-44
0000c0 6a 00 00 00 23 00 00 00 25 00 00 00 0e 90 00 80
       1.49e-43 4.9e-44 5.2e-44 -5.1677e-41
0000d0 2b 00 00 00 28 00 00 00 2a 00 00 00 2c 00 00 80
       6e-44 5.6e-44 5.9e-44 -6.2e-44
0000e0 58 00 00 80 26 00 00 00 a8 11 00 80 28 00 00 00
       -1.23e-43 5.3e-44 -6.334e-42 5.6e-44
0000f0 29 00 00 80 82 1c 00 00 51 a4 a2 03 25 68 1e 87
       -5.7e-44 1.0227e-41 9.559229e-37 -1.1917204e-34
000100 8f 02 00 00 25 00 00 00 55 00 00 00 84 08 00 00
       9.18e-43 5.2e-44 1.19e-43 3.055e-42
000110 4c ef 35 80 24 00 00 00 19 00 00 80 d0 30 c8 19
       -4.953125e-39 5e-44 -3.5e-44 2.069923e-23
000120 28 01 00 00 2a 00 00 80 fd bf 00 80 63 a9 2c 9c
       4.15e-43 -5.9e-44 -6.8872e-41 -5.7128953e-22
000130 33 5d 1c a4 2c 00 00 80 5f 00 00 00 59 00 00 80
       -3.390605e-17 -6.2e-44 1.33e-43 -1.25e-43
000140 4a 00 00 80 27 00 00 00 28 00 00 00 5e 05 00 00
       -1.04e-43 5.5e-44 5.6e-44 1.925e-42
000150 29 00 00 80 55 00 00 80 23 00 00 80 28 00 00 80
       -5.7e-44 -1.19e-43 -4.9e-44 -5.6e-44
000160 75 00 00 80 2c 00 00 80 b0 00 00 00 21 00 00 00
       -1.64e-43 -6.2e-44 2.47e-43 4.6e-44
000170 2a 00 00 00 e5 08 00 00 11 02 24 83 e7 62 8c 86
       5.9e-44 3.191e-42 -4.819764e-37 -5.280747e-35

fai_gcn_networks.1.gcn.conv.weight f4 [192, 32, 1, 1]
000000 29 00 00 00 24 00 00 80 24 00 00 00 29 00 00 00
       5.7e-44 -5e-44 5e-44 5.7e-44
000010 23 00 00 00 23 00 00 80 27 00 00 00 23 00 00 00
       4.9e-44 -4.9e-44 5.5e-44 4.9e-44
000020 24 00 00 00 23 00 00 00 28 00 00 00 25 00 00 80
       5e-44 4.9e-44 5.6e-44 -5.2e-44
000030 23 00 00 80 23 00 00 00 26 00 00 00 25 00 00 00
       -4.9e-44 4.9e-44 5.3e-44 5.2e-44
000040 24 00 00 00 23 00 00 00 29 00 00 00 27 00 00 80
       5e-44 4.9e-44 5.7e-44 -5.5e-44
000050 18 00 00 00 23 00 00 00 23 00 00 00 24 00 00 00
       3.4e-44 4.9e-44 4.9e-44 5e-44
000060 26 00 00 00 23 00 00 00 25 00 00 80 23 00 00 80
       5.3e-44 4.9e-44 -5.2e-44 -4.9e-44
000070 23 00 00 00 69 00 00 00 23 00 00 80 24 00 00 00
       4.9e-44 1.47e-43 -4.9e-44 5e-44
000080 24 00 00 80 01 e4 e2 29 23 00 00 80 23 00 00 80
       -5e-44 1.00759685e-13 -4.9e-44 -4.9e-44
000090 23 00 00 80 23 00 00 00 23 00 00 00 23 00 00 00
       -4.9e-44 4.9e-44 4.9e-44 4.9e-44
0000a0 23 00 00 00 23 00 00 80 26 00 00 80 24 00 00 00
       4.9e-44 -4.9e-44 -5.3e-44 5e-44
0000b0 dc 05 00 80 23 00 00 80 26 00 00 00 2c 00 00 00
       -2.102e-42 -4.9e-44 5.3e-44 6.2e-44
0000c0 23 00 00 80 2b 00 00 00 27 00 00 00 ad 00 00 00
       -4.9e-44 6e-44 5.5e-44 2.42e-43
0000d0 23 00 00 00 23 00 00 00 26 00 00 00 23 00 00 00
       4.9e-44 4.9e-44 5.3e-44 4.9e-44
0000e0 26 00 00 80 23 00 00 00 23 00 00 80 23 00 00 80
       -5.3e-44 4.9e-44 -4.9e-44 -4.9e-44
0000f0 23 00 00 80 23 00 00 80 23 00 00 80 23 00 00 00
       -4.9e-44 -4.9e-44 -4.9e-44 4.9e-44
000100 2a 00 00 80 23 00 00 00 23 00 00 00 26 00 00 80
       -5.9e-44 4.9e-44 4.9e-44 -5.3e-44
000110 19 00 00 00 23 00 00 80 25 00 00 00 23 00 00 80
       3.5e-44 -4.9e-44 5.2e-44 -4.9e-44
000120 23 00 00 00 26 00 00 00 29 00 00 00 23 00 00 00
       4.9e-44 5.3e-44 5.7e-44 4.9e-44
000130 23 00 00 00 23 00 00 80 7c 00 00 80 24 00 00 80
       4.9e-44 -4.9e-44 -1.74e-43 -5e-44
000140 24 00 00 00 27 00 00 00 23 00 00 00 25 00 00 80
       5e-44 5.5e-44 4.9e-44 -5.2e-44
000150 23 00 00 00 2a 00 00 00 23 00 00 00 23 00 00 80
       4.9e-44 5.9e-44 4.9e-44 -4.9e-44
000160 23 00 00 00 23 00 00 00 24 00 00 00 23 00 00 80
       4.9e-44 4.9e-44 5e-44 -4.9e-44
000170 29 00 00 80 2a 00 00 80 25 00 00 80 23 00 00 80
       -5.7e-44 -5.9e-44 -5.2e-44 -4.9e-44
000180 23 00 00 80 23 00 00 80 24 00 00 80 23 00 00 00
       -4.9e-44 -4.9e-44 -5e-44 4.9e-44
000190 24 00 00 80 27 00 00 00 23 00 00 80 fe 4a 14 01
       -5e-44 5.5e-44 -4.9e-44 2.723711e-38
0001a0 25 00 00 00 23 00 00 80 23 00 00 80 22 f4 03 02
       5.2e-44 -4.9e-44 -4.9e-44 9.694423e-38
0001b0 97 d5 b1 05 23 00 00 00 25 00 00 00 23 00 00 80
       1.672346e-35 4.9e-44 5.2e-44 -4.9e-44
0001c0 25 00 00 00 29 00 00 80 27 00 00 00 23 00 00 80
       5.2e-44 -5.7e-44 5.5e-44 -4.9e-44
0001d0 26 00 00 80 23 00 00 00 24 00 00 00 2a 00 00 80
       -5.3e-44 4.9e-44 5e-44 -5.9e-44
0001e0 23 00 00 00 24 00 00 80 23 00 00 80 23 00 00 80
       4.9e-44 -5e-44 -4.9e-44 -4.9e-44
0001f0 23 00 00 80 27 00 00 00 2a 00 00 00 27 00 00 00
       -4.9e-44 5.5e-44 5.9e-44 5.5e-44
000200 23 00 00 00 23 00 00 80 23 00 00 80 23 00 00 80
       4.9e-44 -4.9e-44 -4.9e-44 -4.9e-44
000210 23 00 00 00 29 00 00 80 23 00 00 80 23 00 00 80
       4.9e-44 -5.7e-44 -4.9e-44 -4.9e-44
000220 23 00 00 00 23 00 00 80 23 00 00 80 23 00 00 80
       4.9e-44 -4.9e-44 -4.9e-44 -4.9e-44
000230 27 00 00 80 23 00 00 00 23 00 00 80 2b 00 00 00
       -5.5e-44 4.9e-44 -4.9e-44 6e-44
000240 27 00 00 00 25 00 00 00 23 00 00 00 23 00 00 80
       5.5e-44 5.2e-44 4.9e-44 -4.9e-44
000250 24 00 00 00 23 00 00 00 2c 00 00 80 23 00 00 00
       5e-44 4.9e-44 -6.2e-44 4.9e-44
000260 27 00 00 00 2c 00 00 80 26 00 00 00 23 00 00 00
       5.5e-44 -6.2e-44 5.3e-44 4.9e-44
000270 23 00 00 00 23 00 00 80 23 00 00 00 2b 00 00 80
       4.9e-44 -4.9e-44 4.9e-44 -6e-44
000280 76 00 00 00 26 00 00 80 23 00 00 80 23 00 00 80
       1.65e-43 -5.3e-44 -4.9e-44 -4.9e-44
000290 24 00 00 80 05 00 00 80 2b 00 00 80 fc 2a 2a 12
       -5e-44 -7e-45 -6e-44 5.3695524e-28
0002a0 23 00 00 00 23 00 00 00 23 00 00 80 23 4e b4 96
       4.9e-44 4.9e-44 -4.9e-44 -2.912988e-25
0002b0 bc d8 3e 9a 23 00 00 80 23 00 00 80 24 00 00 00
       -3.9466156e-23 -4.9e-44 -4.9e-44 5e-44
0002c0 23 00 00 00 23 00 00 00 26 00 00 80 23 00 00 80
       4.9e-44 4.9e-44 -5.3e-44 -4.9e-44
0002d0 24 00 00 80 23 00 00 00 2b 00 00 80 23 00 00 00
       -5e-44 4.9e-44 -6e-44 4.9e-44
0002e0 23 00 00 00 25 00 00 00 26 00 00 80 24 00 00 80
       4.9e-44 5.2e-44 -5.3e-44 -5e-44
0002f0 23 00 00 00 2c 00 00 00 70 0b 00 00 0b 22 00 80
       4.9e-44 6.2e-44 4.103e-42 -1.2212e-41
000300 24 00 00 00 2b 00 00 00 23 00 00 00 23 00 00 00
       5e-44 6e-44 4.9e-44 4.9e-44
000310 26 00 00 00 23 00 00 00 23 00 00 00 8d 3c 04 00
       5.3e-44 4.9e-44 4.9e-44 3.89064e-40
000320 26 00 00 80 23 00 00 80 23 00 00 00 52 b4 12 00
       -5.3e-44 -4.9e-44 4.9e-44 1.717726e-39
000330 21 41 0b 03 23 00 00 80 91 00 00 80 68 00 00 00
       4.0923193e-37 -4.9e-44 -2.03e-43 1.46e-43
000340 29 00 00 80 23 00 00 80 23 00 00 00 25 00 00 00
       -5.7e-44 -4.9e-44 4.9e-44 5.2e-44
000350 29 00 00 80 24 00 00 80 26 00 00 00 2c 00 00 80
       -5.7e-44 -5e-44 5.3e-44 -6.2e-44
000360 2b 00 00 00 23 00 00 00 23 00 00 00 23 00 00 80
       6e-44 4.9e-44 4.9e-44 -4.9e-44
000370 24 00 00 80 29 00 00 80 af a9 da 8a 23 00 00 00
       -5e-44 -5.7e-44 -2.1056464e-32 4.9e-44
000380 23 00 00 00 26 00 00 00 29 00 00 00 25 00 00 00
       4.9e-44 5.3e-44 5.7e-44 5.2e-44
000390 25 00 00 80 4b 00 00 80 23 00 00 80 d3 d3 8a 10
       -5.2e-44 -1.05e-43 -4.9e-44 5.475777e-29
0003a0 2c 00 00 00 24 00 00 00 24 00 00 00 b8 e5 a3 94
       6.2e-44 5e-44 5e-44 -1.6549402e-26
0003b0 33 40 4d 17 23 00 00 80 23 00 00 80 23 00 00 00
       6.6320103e-25 -4.9e-44 -4.9e-44 4.9e-44
0003c0 25 00 00 80 23 00 00 80 23 00 00 00 24 00 00 80
       -5.2e-44 -4.9e-44 4.9e-44 -5e-44
0003d0 23 00 00 80 23 00 00 00 23 00 00 00 23 00 00 80
       -4.9e-44 4.9e-44 4.9e-44 -4.9e-44
0003e0 2c 00 00 80 2b 00 00 00 2a 00 00 80 23 00 00 80
       -6.2e-44 6e-44 -5.9e-44 -4.9e-44
0003f0 29 00 00 80 23 00 00 80 22 02 00 00 8d 0d 00 00
       -5.7e-44 -4.9e-44 7.65e-43 4.861e-42

fai_gcn_networks.1.gcn.conv.bias f4 [192]
000000 47 48 33 00 ce c3 81 95 67 48 da 84 19 4b 81 1e
       4.709539e-39 -5.241161e-26 -5.1318045e-36 1.3689466e-20
000010 ce cb 5a 10 19 af cc 35 1d bf a1 1a a1 5a 2f 34
       4.3149925e-29 1.5250145e-06 6.68968e-23 1.6331116e-07
000020 24 18 1e 05 2d 04 12 01 82 e6 c6 85 00 4e 9a 33
       7.433558e-36 2.681896e-38 -1.8704506e-35 7.185372e-08
000030 3e 8a 99 86 3d 21 75 81 cd 0f 78 31 b4 3b aa 82
       -5.775533e-35 -4.502324e-38 3.6097731e-09 -2.5013523e-37
000040 54 75 12 01 cb ba 47 01 98 83 38 36 53 a5 21 10
       2.6900144e-38 3.6684545e-38 2.7494734e-06 3.1879013e-29
000050 e4 23 2d 02 a2 4c 3b 35 5d 75 1f 2d 5a c1 08 80
       1.2720333e-37 6.9774444e-07 9.0641635e-12 -8.04045e-40
000060 e5 a9 17 30 d3 94 8e 00 5c 7c 6b 88 20 00 00 00
       5.5174915e-10 1.3094029e-38 -7.0863924e-34 4.5e-44
000070 2d b7 bd 80 8e f2 01 80 67 c7 90 80 d3 46 f2 81
       -1.742262e-38 -1.78848e-40 -1.3295844e-38 -8.899839e-38
000080 80 bc cf 81 de 53 08 00 c5 a5 b3 2d 69 a4 8c 04
       -7.6310275e-38 7.6477e-40 2.042356e-11 3.306483e-36
000090 d6 44 71 80 e5 29 e4 18 c6 f6 41 82 3d 7f 43 89
       -1.0402105e-38 5.897892e-24 -1.4250221e-37 -2.3532098e-33
0000a0 d3 4f d5 1d 85 65 4c 00 ea 1d f6 01 b0 30 48 00
       5.6463167e-21 7.015916e-39 9.040905e-38 6.629622e-39
0000b0 c0 59 8b 32 26 98 f9 b4 f9 8c 4b 2a 74 d4 a8 82
       1.6222543e-08 -4.6490567e-07 1.8078932e-13 -2.4807323e-37
0000c0 05 f7 dd 2b a4 75 4e 8b 0c 29 41 01 27 24 94 1e
       1.5771556e-12 -3.976266e-32 3.547795e-38 1.5685062e-20
0000d0 c1 02 00 00 52 ca e0 00 88 7d 91 83 45 1a 0e 03
       9.88e-43 2.064373e-38 -8.551155e-37 4.1760205e-37
0000e0 d9 ad 21 04 db d9 96 1c 83 eb 13 25 e8 4f 66 0d
       1.9005286e-36 9.982482e-22 1.2830012e-16 7.0970406e-31
0000f0 43 14 36 2d 5c 51 1a 87 12 3c 9b 02 5b 7d 90 03
       1.0350001e-11 -1.1609582e-34 2.2809682e-37 8.4923395e-37
000100 46 83 42 80 55 8c ad 95 cc 2b 12 85 e8 b6 01 1f
       -6.108235e-39 -7.009555e-26 -6.872931e-36 2.746811e-20
000110 43 8d 15 10 4a 99 47 36 e6 0f 0a 1b f9 7a b0 34
       2.9493893e-29 2.9742537e-06 1.142023e-22 3.287203e-07
000120 0b f4 b4 84 65 36 1c 01 90 db a2 03 b4 aa 1d 34
       -4.2541915e-36 2.86917e-38 9.571913e-37 1.4683866e-07
000130 4c 11 8e 86 4e 58 e2 02 81 85 00 32 5b eb 5d 82
       -5.343988e-35 3.32584e-37 7.480936e-09 -1.6304059e-37
000140 cd 45 4d 01 8a 1a b2 02 5b 84 b8 36 d1 0f da 8f
       3.7702633e-38 2.6169982e-37 5.4990355e-06 -2.1502552e-29
000150 55 8a be 82 2b e9 bb 35 db 5d a3 2d 21 58 08 80
       -2.799739e-37 1.4000447e-06 1.8572635e-11 -7.66299e-40
000160 e3 45 98 30 15 f9 84 80 fd fb 06 88 28 00 00 80
       1.1079319e-09 -1.2211639e-38 -4.062037e-34 -5.6e-44
000170 4d 1c 24 80 7b fb 0c 00 6b 77 0d 81 ae 43 13 82
       -3.31623e-39 1.19224e-39 -2.5983288e-38 -1.0819277e-37
000180 6f b4 08 82 dc fe 07 80 91 c0 3a 2e 6d e8 a3 85
       -1.0043484e-37 -7.34275e-40 4.2462537e-11 -1.5413826e-35
000190 f1 aa 5d 80 00 31 0e 19 f1 bf 87 82 2f a1 73 89
       -8.602023e-39 7.3511234e-24 -1.9946636e-37 -2.932585e-33
0001a0 95 61 53 1e fa 78 20 00 29 33 7e 01 ad 04 67 00
       1.11904265e-20 2.982134e-39 4.6689138e-38 9.460733e-39
0001b0 43 1e 0b 33 d6 9b f5 b4 8e 6b ce 2a 6c f2 75 82
       3.2390982e-08 -4.5748192e-07 3.6667582e-13 -1.8069329e-37
0001c0 b0 e7 62 2c 9b 17 15 8a 9f 99 96 80 61 66 15 1f
       3.2245144e-12 -7.178529e-33 -1.3830433e-38 3.1636663e-20
0001d0 95 01 00 80 f0 2e 4c 01 ef 94 b4 84 83 8b c8 81
       -5.68e-43 3.7502558e-38 -4.245457e-36 -7.3668586e-38
0001e0 4e f2 c9 04 d8 c0 0f 1d 59 b7 96 25 d4 5b 07 0e
       4.7477395e-36 1.902559e-21 2.6145093e-16 1.6684248e-30
0001f0 a1 fd b6 2d 24 54 03 07 1e e0 8d 02 e3 ef 5f 02
       2.0803638e-11 9.880071e-35 2.0846725e-37 1.6452297e-37
000200 a4 5b 0f 80 bb ca b0 92 43 3a a9 82 0c a3 93 1d
       -1.410407e-39 -1.1157138e-27 -2.4865759e-37 3.9079163e-21
000210 63 75 ec 0e c6 5b b8 34 d9 ba 3a 1a 8e 29 1a 33
       5.829153e-30 3.4339445e-07 3.8614833e-23 3.5893713e-08
000220 9d 64 24 05 b7 16 04 80 9b 5a 01 05 ce 7f 85 32
       7.729723e-36 -3.7549e-40 6.0821924e-36 1.5541357e-08
000230 10 92 1f 08 c4 2b 07 82 29 1b 54 30 38 3a bf 82
       4.8019018e-34 -9.930794e-38 7.716375e-10 -2.8098344e-37
000240 50 b3 8e 80 f1 ed be 02 a1 9b 21 35 0f dc 68 10
       -1.3104966e-38 2.8054563e-37 6.0203644e-07 4.592346e-29
000250 77 e5 3e 84 fa 8e 24 34 60 5a 05 2c 6f 3c 0a 00
       -2.2439758e-36 1.5325705e-07 1.8950605e-12 9.40034e-40
000260 a2 af 03 2f f6 35 13 00 08 9c 10 05 23 00 00 00
       1.1976778e-10 1.764232e-39 6.799506e-36 4.9e-44
000270 63 d4 91 80 54 c2 1a 80 84 7e de 00 ec 7d 91 01
       -1.3392337e-38 -2.457435e-39 2.0432865e-38 5.3445277e-38
000280 20 f0 a5 01 26 db 00 80 27 78 95 2c 51 43 50 05
       6.095599e-38 -7.8616e-41 4.2481743e-12 9.792477e-36
000290 53 7f ef 01 00 94 e7 18 ff 21 87 01 bb 17 99 07
       8.7977436e-38 5.9861542e-24 4.963995e-38 2.303483e-34
0002a0 87 f4 03 1d d6 38 0a 00 99 98 9b 00 a4 22 4c 80
       1.7464123e-21 9.38744e-40 1.4289244e-38 -6.991924e-39
0002b0 e0 a5 75 31 aa 2c bf b3 ab 2d 27 29 ed 41 63 03
       3.5746481e-09 -8.902255e-08 3.712106e-14 6.6784983e-37
0002c0 af e6 b7 2a ff d1 7b 8a 4b 23 47 80 5d 37 a6 1d
       3.26674e-13 -1.2124706e-32 -6.532981e-39 4.399708e-21
0002d0 89 14 00 80 be 3b e6 80 c9 d6 d5 83 84 cc b3 03
       -7.367e-42 -2.1143596e-38 -1.2568327e-36 1.0567629e-36
0002e0 0a 23 a4 02 c7 aa e5 1b fe 68 f3 23 e4 24 49 8d
       2.4117746e-37 3.7995234e-22 2.6390579e-17 -6.1982312e-31
0002f0 a4 10 1a 2c c8 bd 6d 06 b5 f9 74 02 45 69 bc 83
       2.1893954e-12 4.4714175e-35 1.7997951e-37 -1.1073816e-36

fai_gcn_networks.1.residual.0.weight f4 [64, 32, 1, 1]
000000 3d 77 7f bc 58 30 4e bc 20 98 3f bb a1 5a 16 3d
       -0.015592393 -0.012584768 -0.002923496 0.036707524
000010 92 da 1e 3d d2 b8 36 bc 26 cc d6 3c bc c5 04 3d
       0.038782664 -0.011152463 0.026220392 0.032415137
000020 4e 9a a2 bc 96 9c 85 bc c4 70 16 3c ad 5d 09 3d
       -0.019848969 -0.016310018 0.009182159 0.0335366
000030 54 90 30 3b 50 14 25 bc fc 62 f4 3c 4e 84 86 3c
       0.0026941495 -0.010075644 0.029832356 0.01642051
000040 1d 10 17 3d 2f ca 6f 3c f0 31 6b bc e2 e6 b4 3c
       0.0368806 0.014635607 -0.014355168 0.02208275
000050 a4 15 56 bc e2 a1 14 3c d5 50 c4 3c 69 0d 04 bc
       -0.013066683 0.009071799 0.023964325 -0.008059838
000060 af dc b0 bc 27 d2 9b 3c 61 6f 85 bc 0c 0c 94 3c
       -0.021589605 0.019021107 -0.016288461 0.01807215
000070 99 4b 14 3b 21 86 a1 3a 49 58 c0 bb 57 c6 98 3c
       0.0022628068 0.0012323299 -0.0058698994 0.018649263
000080 01 d9 c6 3c d2 88 bc 3c b2 6e 30 bd ae 64 8b bc
       0.024273397 0.02301446 -0.043074317 -0.017015781
000090 0a b5 6e 3b e4 d9 47 3c fc 0c 01 3d 49 27 dd 3c
       0.0036423826 0.012197945 0.031506523 0.026996272
0000a0 c2 25 44 bc 8a 17 74 3b 2c 7d 5f ba 0e e6 9f bc
       -0.011971893 0.0037245476 -0.0008525427 -0.019518878
0000b0 6a 83 2d bd 47 51 8f 3c 38 b8 ed bc 72 ac bf 3b
       -0.042361654 0.01749481 -0.029018506 0.0058494145
0000c0 fc be 39 3b c2 c4 96 bb b5 c2 33 bc f0 be e4 bc
       0.0028342595 -0.004601092 -0.010971715 -0.027923077
0000d0 fb 65 ee 3c 63 ad 90 3b 5b a8 6d 3c fd 37 19 bd
       0.029101362 0.0044152006 0.014505471 -0.03740691
0000e0 e8 eb 1d bc c6 6d 98 3c 5b a2 2d bc 4f 84 db 3c
       -0.009638764 0.018607032 -0.010597791 0.026796488
0000f0 25 c8 cf bc 3c b2 25 bd 18 b4 36 3c 53 0c 13 3c
       -0.025363991 -0.04045318 0.011151336 0.008975106
000100 d2 38 95 ba 4d 32 b0 bb ad 27 b2 3b 9b 17 8c 3c
       -0.0011384732 -0.00537709 0.0054368586 0.0171011
000110 fc c5 43 3c ff f1 07 bc 0a 5a 67 3c f4 24 f4 bb
       0.011949059 -0.008297442 0.014120588 -0.007450694
000120 8c c6 7d bc e1 64 7f 3c 0c 11 16 bc 07 f7 a9 bc
       -0.015489232 0.015588016 -0.009159338 -0.020747675
000130 af cb 2b bc 8a a5 5e 3b 56 17 a8 bb c0 79 93 bc
       -0.010485574 0.003397318 -0.005129735 -0.01800239
000140 2d f8 98 bc 8b 4a 26 bd b5 9a 9e bb ba a1 9d bc
       -0.018673027 -0.040598433 -0.00484022 -0.019242156
000150 30 76 fa bc 3b 5f e2 bc 5c c8 57 3c 7d d2 9d bc
       -0.030573934 -0.0276333 0.013170328 -0.019265408
000160 30 2d 8b bc 5b 7a e0 bb 89 77 b5 bb eb 15 39 3c
       -0.01698932 -0.0068505234 -0.0055379313 0.01129673
000170 f7 1b e6 3c ca 68 da 3c 9c ca bf bb 31 a1 a0 bc
       0.028089507 0.026661295 -0.0058530103 -0.019608112
000180 f9 8f 94 bc 01 00 4d bb 79 c2 d7 bb 37 82 d8 3c
       -0.018135058 -0.003128052 -0.0065844622 0.026429279
000190 4c bf 86 bc f6 63 04 bc 2a c1 31 bd 98 ab e7 bc
       -0.01644864 -0.008080473 -0.043397106 -0.028280064
0001a0 80 7b 29 3c 14 ea 06 3d 35 27 49 bc 8a f2 7b bc
       0.010344386 0.032938078 -0.012277414 -0.01537765
0001b0 36 04 9e ba 90 8d 5b bc 60 62 b5 3c ea ea ca bc
       -0.0012055698 -0.01340045 0.022141635 -0.024770219
0001c0 f9 43 ef ba f8 9c a5 bc 77 2f 04 3d 92 7a d5 3c
       -0.001825451 -0.02021645 0.03227183 0.026059423
0001d0 ed d6 05 bb dc 31 d3 bb 52 0f 4e 3c dc a0 51 3c
       -0.0020422295 -0.0064451527 0.012576895 0.0127946995
0001e0 f3 18 ba bc 1d 41 cd 3c 76 9a 94 3c 40 d3 0f 3b
       -0.022716975 0.025055462 0.018140059 0.0021945983
0001f0 c1 e2 b5 3c 64 db dc 3c e7 d4 a0 3c b9 dc 57 bb
       0.022202851 0.026960082 0.01963277 -0.0032937957
000200 bc 13 66 3c 54 ae ef 3b b0 7e a1 bc fe 7f 95 3c
       0.014042791 0.0073144827 -0.01971373 0.018249508
000210 67 c2 34 3c 67 61 a0 3c 47 ac b4 bb 5d cc 63 3c
       0.011032677 0.019577695 -0.005513701 0.0139037045
000220 09 b9 a1 bb 6d e6 24 3a 55 d8 36 3d 07 90 06 bc
       -0.004935388 0.00062904396 0.044639904 -0.00821305
000230 20 ea 1f bb d3 8d 54 3c 6e 1b e8 ba 8d 09 07 bc
       -0.0024401024 0.012973267 -0.001770837 -0.008242023
000240 ca ce 35 bb d2 a3 a5 bc 5e 07 7d bc 99 e4 d5 bb
       -0.0027741664 -0.020219717 -0.015443651 -0.006527495
000250 cf 9d e5 ba a0 4e b4 3c 72 d7 81 bc dd 3a 3f 3a
       -0.0017518344 0.022010148 -0.015849803 0.0007294843
000260 45 f6 6b bc 54 8a c3 3c b9 fb a5 3c f4 6d d1 3a
       -0.014401977 0.02386967 0.020261632 0.0015978203
000270 d5 48 65 bc c6 3a 17 3c f3 eb 44 bc fc f8 3b bd
       -0.013994415 0.009230321 -0.012019145 -0.045891747
000280 13 2b 78 bc 9b df 13 3c 60 3a c9 3c 03 fc 75 bc
       -0.015146988 0.00902548 0.024563968 -0.015013698
000290 30 ec a6 3c b0 40 38 3c 25 c5 59 bb 8a a1 d1 bc
       0.020376295 0.011245891 -0.003322908 -0.025589723
0002a0 10 9e e0 bc 3e 7d 96 bc 47 62 8c 3c 49 74 2a bc
       -0.02741912 -0.018370267 0.017136706 -0.010403701
0002b0 b4 af 92 bc 59 46 f0 ba bd 36 b0 3c 85 2b ce 3b
       -0.017906047 -0.0018331512 0.021510476 0.006291809
0002c0 f9 cc 84 bc 00 c8 79 3d 42 b9 d2 3c 0b 9c 32 3c
       -0.01621102 0.06098175 0.025723103 0.010901461
0002d0 a7 61 3d 3b 2a 22 b3 3c 37 6c cb bb 58 6e 9b 3b
       0.0028897317 0.021866877 -0.0062079686 0.0047433786
0002e0 02 de 91 3c 29 8e c6 3b 79 6e c9 bc 77 53 a2 bc
       0.017806057 0.0060594273 -0.02458881 -0.01981519
0002f0 9b e2 81 bc 47 69 6a ba 7b 70 4a 3c cb e1 38 3c
       -0.015855124 -0.0008942079 0.012355919 0.011284302
000300 e8 e4 80 bc 75 9e e1 ba 23 e9 79 bd 7b 96 79 3c
       -0.015734151 -0.0017213362 -0.061013352 0.015233631
000310 29 2a 1d bd 3c cc b1 3a 3d a2 39 bc f6 c2 1b bd
       -0.038370285 0.0013564895 -0.0113301845 -0.038027726
000320 ee 52 75 bb 33 f7 63 bc b6 a3 8e bb bd 2e 1e 3b
       -0.0037433463 -0.013913917 -0.004353012 0.0024136745
000330 09 ab ac bb 0f f7 48 3c d4 af 75 3c 32 c1 65 bc
       -0.0052694124 0.012265935 0.014995534 -0.014023112
000340 1d 20 12 3d fc c7 4f 3c 58 f2 5d bc 81 d9 8a bb
       0.035675157 0.012681957 -0.013546549 -0.0042373543
000350 12 4f 87 3d 8b e4 3e 3c 18 6e c3 3c 15 c8 b9 3b
       0.06606878 0.011651169 0.023856208 0.0056696036
000360 0b 8e 7a bc db 42 45 3a 9c fb 96 3b f0 fe 01 bd
       -0.015292655 0.0007524916 0.004607631 -0.031737268
000370 7d 9d 33 bb 8e f8 0b 3b e5 1f 54 bc 17 ec 8c bc
       -0.0027407103 0.0021357867 -0.012947057 -0.01720242
000380 3e 8f 9f 3a a0 7a f9 3a 32 80 55 3c 2e fd e8 bc
       0.0012173427 0.0019033737 0.013031052 -0.028441038
000390 73 8e 30 bc e1 c8 4f bc a1 90 8f bb e3 0c 17 bc
       -0.01077615 -0.012682171 -0.004381255 -0.009219381
0003a0 67 eb 71 3b 4b e1 0b bd 3d dd 4d 3c 63 24 f0 3c
       0.0036913992 -0.034150403 0.012564954 0.029314226
0003b0 31 d2 82 3c 89 f5 47 3a f0 54 b7 bc 04 8a 95 bb
       0.015969368 0.0007627835 -0.022379369 -0.004563572
0003c0 18 ff cc 3b 21 85 a5 3c bb 36 16 3d 70 61 6b bc
       0.0062559955 0.020205082 0.03667329 -0.014366493
0003d0 69 92 42 3c ee 17 a9 3b 14 70 29 3c 0d 21 b4 bb
       0.011875727 0.0051603233 0.010341663 -0.005497104
0003e0 6e f3 60 3c 4a 2c 3f bd d0 af b7 bc e6 1c be 3b
       0.013729913 -0.046673097 -0.022422701 0.005801785
0003f0 60 d0 7d 3b 87 c5 4c bb a0 04 40 3c 9c 1f 9d 3c
       0.0038728938 -0.0031245665 0.011719853 0.019180112

fai_gcn_networks.1.residual.0.bias f4 [64]
000000 00 00 00 00 00 00 00 00 00 00 00 00 00 00 00 00
       0.0 0.0 0.0 0.0
000010 00 00 00 00 00 00 00 00 00 00 00 00 00 00 00 00
       0.0 0.0 0.0 0.0
000020 00 00 00 00 00 00 00 00 00 00 00 00 00 00 00 00
       0.0 0.0 0.0 0.0
000030 00 00 00 00 00 00 00 00 00 00 00 00 00 00 00 00
       0.0 0.0 0.0 0.0
000040 00 00 00 00 00 00 00 00 00 00 00 00 00 00 00 00
       0.0 0.0 0.0 0.0
000050 00 00 00 00 00 00 00 00 00 00 00 00 00 00 00 00
       0.0 0.0 0.0 0.0
000060 00 00 00 00 00 00 00 00 00 00 00 00 00 00 00 00
       0.0 0.0 0.0 0.0
000070 00 00 00 00 00 00 00 00 00 00 00 00 00 00 00 00
       0.0 0.0 0.0 0.0
000080 00 00 00 00 00 00 00 00 00 00 00 00 00 00 00 00
       0.0 0.0 0.0 0.0
000090 00 00 00 00 00 00 00 00 00 00 00 00 00 00 00 00
       0.0 0.0 0.0 0.0
0000a0 00 00 00 00 00 00 00 00 00 00 00 00 00 00 00 00
       0.0 0.0 0.0 0.0
0000b0 00 00 00 00 00 00 00 00 00 00 00 00 00 00 00 00
       0.0 0.0 0.0 0.0
0000c0 00 00 00 00 00 00 00 00 00 00 00 00 00 00 00 00
       0.0 0.0 0.0 0.0
0000d0 00 00 00 00 00 00 00 00 00 00 00 00 00 00 00 00
       0.0 0.0 0.0 0.0
0000e0 00 00 00 00 00 00 00 00 00 00 00 00 00 00 00 00
       0.0 0.0 0.0 0.0
0000f0 00 00 00 00 00 00 00 00 00 00 00 00 00 00 00 00
       0.0 0.0 0.0 0.0

fai_gcn_networks.1.residual.1.weight f4 [64]
000000 b2 e8 81 3f 02 68 7d 3f bd 06 80 3f e4 51 7d 3f
       1.0149138 0.9898683 1.0002056 0.9895308
000010 e4 44 7c 3f 6e 55 80 3f 62 f6 78 3f 37 17 81 3f
       0.9854262 1.0026071 0.9725095 1.008521
000020 86 69 7a 3f ee 44 7f 3f 95 67 83 3f 73 19 7c 3f
       0.97817266 0.99714553 1.0265986 0.9847633
000030 4b ec 81 3f fc 87 7b 3f 23 b4 83 3f c4 5c 80 3f
       1.0150236 0.9825437 1.0289348 1.002831
000040 1a 0e 81 3f c9 c2 81 3f 34 c8 81 3f 81 8f 77 3f
       1.0082428 1.0137569 1.0139222 0.96703345
000050 13 b6 77 3f 62 5f 81 3f 13 09 80 3f 21 5d 88 3f
       0.967622 1.0107234 1.0002769 1.0653421
000060 c4 d7 7c 3f 47 b8 77 3f ba f9 7d 3f 9c da 83 3f
       0.9876673 0.9676556 0.9920918 1.0301089
000070 86 5b 80 3f de fc 81 3f 85 2d 7c 3f b6 da 82 3f
       1.0027931 1.0155294 0.9850696 1.0222995
000080 75 48 7e 3f 47 d4 82 3f 27 f8 83 3f be 2f 80 3f
       0.9932931 1.0221032 1.0310105 1.001457
000090 f7 cd 7d 3f d8 d8 83 3f 04 d4 78 3f 32 90 7e 3f
       0.991424 1.030055 0.9719851 0.99438775
0000a0 c9 52 7f 3f d8 70 80 3f f8 c6 7c 3f 9b 16 7c 3f
       0.99735695 1.0034437 0.987411 0.98471993
0000b0 ad 35 81 3f 9d a8 80 3f fe a3 76 3f ad c7 81 3f
       1.0094506 1.0051457 0.9634398 1.0139061
0000c0 5c 75 83 3f e8 22 7d 3f 52 28 7f 3f e0 c0 7c 3f
       1.027019 0.9888139 0.996709 0.98731804
0000d0 ce b7 78 3f 44 a5 7e 3f 03 c8 82 3f 2d a3 82 3f
       0.97155464 0.99470925 1.0217289 1.0206047
0000e0 03 10 81 3f 0d f9 7b 3f bf 18 82 3f 42 3a 80 3f
       1.0083011 0.98426896 1.0163802 1.0017779
0000f0 21 fe 7d 3f 3e ab 81 3f ca 96 78 3f 4c 97 80 3f
       0.99215895 1.0130384 0.97105086 1.0046172

fai_gcn_networks.1.residual.1.bias f4 [64]
000000 00 00 00 00 00 00 00 00 00 00 00 00 00 00 00 00
       0.0 0.0 0.0 0.0
000010 00 00 00 00 00 00 00 00 00 00 00 00 00 00 00 00
       0.0 0.0 0.0 0.0
000020 00 00 00 00 00 00 00 00 00 00 00 00 00 00 00 00
       0.0 0.0 0.0 0.0
000030 00 00 00 00 00 00 00 00 00 00 00 00 00 00 00 00
       0.0 0.0 0.0 0.0
000040 00 00 00 00 00 00 00 00 00 00 00 00 00 00 00 00
       0.0 0.0 0.0 0.0
000050 00 00 00 00 00 00 00 00 00 00 00 00 00 00 00 00
       0.0 0.0 0.0 0.0
000060 00 00 00 00 00 00 00 00 00 00 00 00 00 00 00 00
       0.0 0.0 0.0 0.0
000070 00 00 00 00 00 00 00 00 00 00 00 00 00 00 00 00
       0.0 0.0 0.0 0.0
000080 00 00 00 00 00 00 00 00 00 00 00 00 00 00 00 00
       0.0 0.0 0.0 0.0
000090 00 00 00 00 00 00 00 00 00 00 00 00 00 00 00 00
       0.0 0.0 0.0 0.0
0000a0 00 00 00 00 00 00 00 00 00 00 00 00 00 00 00 00
       0.0 0.0 0.0 0.0
0000b0 00 00 00 00 00 00 00 00 00 00 00 00 00 00 00 00
       0.0 0.0 0.0 0.0
0000c0 00 00 00 00 00 00 00 00 00 00 00 00 00 00 00 00
       0.0 0.0 0.0 0.0
0000d0 00 00 00 00 00 00 00 00 00 00 00 00 00 00 00 00
       0.0 0.0 0.0 0.0
0000e0 00 00 00 00 00 00 00 00 00 00 00 00 00 00 00 00
       0.0 0.0 0.0 0.0
0000f0 00 00 00 00 00 00 00 00 00 00 00 00 00 00 00 00
       0.0 0.0 0.0 0.0

fai_gcn_networks.1.residual.1.running_mean f4 [64]
000000 c4 60 aa 1e 2a 62 a6 a0 37 de a4 9f c4 81 18 9e
       1.8039471e-20 -2.8186453e-19 -6.9824325e-20 -8.073648e-21
000010 aa 93 99 9e 04 ab 0c a0 92 7e 25 9f 80 12 fb 1f
       -1.6260578e-20 -1.1915046e-19 -3.5044806e-20 1.0633324e-19
000020 e3 73 bf 9f 6e 66 a6 9f 5e f1 e4 1f 0c 5a 42 9f
       -8.1083365e-20 -7.047319e-20 9.6961065e-20 -4.1155583e-20
000030 94 91 13 9f f1 34 06 20 70 3b 1d 20 7e 5e 03 1f
       -3.124888e-20 1.1367758e-19 1.3318083e-19 2.781849e-20
000040 f1 d1 01 9f 72 aa 8e 9f c8 fc 33 1e 57 88 c9 1e
       -2.7490472e-20 -6.042132e-20 9.528455e-21 2.1338092e-20
000050 2a 7f 9d 1e 6b 7b 1c 20 35 39 ee 1f be 42 ac 9f
       1.6675615e-20 1.325455e-19 1.0089156e-19 -7.295525e-20
000060 d8 4f 13 20 68 57 4b a0 d1 a4 6b 20 be 15 0d 1d
       1.2477802e-19 -1.7223689e-19 1.9959807e-19 1.8672435e-21
000070 77 2b 32 20 aa bb 83 20 5a ab 8a 9f 87 72 8b 9f
       1.5091568e-19 2.231645e-19 -5.872875e-20 -5.905826e-20
000080 7f 4c f8 1f 69 a2 5e 9f 73 7c 4a 1f 35 a5 1c 1f
       1.0515864e-19 -4.714467e-20 4.2878106e-20 3.317094e-20
000090 9c 3f 23 20 61 bc f2 1f 98 24 93 9f 19 97 a1 9f
       1.3827684e-19 1.02802633e-19 -6.231746e-20 -6.843612e-20
0000a0 48 46 35 20 23 f1 60 20 30 20 3a 9f c3 bb 06 9f
       1.535455e-19 1.9053323e-19 -3.9413657e-20 -2.8530917e-20
0000b0 6e 62 3b a0 85 27 a4 20 91 d6 f4 9f 60 8e 9e 20
       -1.5872084e-19 2.7808833e-19 -1.0369299e-19 2.6860457e-19
0000c0 41 e6 ee 1e 49 9b 0f 20 6f 8a 5b a0 19 85 d5 1e
       2.5294461e-20 1.2163951e-19 -1.8595825e-19 2.26073e-20
0000d0 72 05 4e 9f e4 4c 20 9e dd 3b 7a 9f 73 f8 10 9f
       -4.36267e-20 -8.48623e-21 -5.2989077e-20 -3.06987e-20
0000e0 4f c8 20 20 01 a9 74 a0 13 ed a8 1e 54 98 20 a0
       1.3618804e-19 -2.0723523e-19 1.7885743e-20 -1.3602928e-19
0000f0 30 b4 88 20 8a a5 25 9f 1f 44 db 9e 3b 95 d3 1f
       2.3158534e-19 -3.507704e-20 -2.3215701e-20 8.960886e-20

fai_gcn_networks.1.residual.1.running_var f4 [64]
000000 cf 84 00 00 f6 39 80 00 45 db 07 00 98 1a 00 00
       4.7643e-41 1.1775736e-38 7.21508e-40 9.54e-42
000010 eb 6c 00 00 10 e9 16 00 e9 fb 01 00 13 39 12 00
       3.9072e-41 2.103988e-39 1.82204e-40 1.673513e-39
000020 5c 9a 0a 00 9f 08 08 00 04 2f 0f 00 07 bc 02 00
       9.73729e-40 7.37777e-40 1.394398e-39 2.51122e-40
000030 d7 94 01 00 b1 dc 14 00 34 aa 1c 00 8d 40 01 00
       1.45229e-40 1.915879e-39 2.632451e-39 1.14992e-40
000040 13 38 01 00 81 e6 05 00 d5 25 00 00 d2 bb 00 00
       1.11951e-40 5.41867e-40 1.3572e-41 6.7377e-41
000050 f5 71 00 00 16 53 1c 00 1e 72 10 00 d9 90 08 00
       4.088e-41 2.6012e-39 1.510305e-39 7.86646e-40
000060 58 2b 19 00 54 f9 2f 00 7e 59 40 00 78 01 00 00
       2.311436e-39 4.40571e-39 5.909576e-39 5.27e-43
000070 0e bf 24 00 65 5e 50 00 11 90 05 00 4a a3 05 00
       3.374615e-39 7.380702e-39 5.10859e-40 5.17755e-40
000080 73 d9 11 00 91 97 03 00 6c f7 02 00 1d c4 01 00
       1.63921e-39 3.29878e-40 2.72429e-40 1.62188e-40
000090 a6 e2 1e 00 3d 10 11 00 86 49 06 00 84 8f 07 00
       2.836371e-39 1.567029e-39 5.77388e-40 6.94332e-40
0000a0 b5 13 26 00 3e 94 3a 00 51 84 02 00 c4 50 01 00
       3.496818e-39 5.379638e-39 2.31137e-40 1.20809e-40
0000b0 d3 b2 28 00 f8 ff 7c 00 c8 65 11 00 0e 7a 74 00
       3.73757e-39 1.1479426e-38 1.597716e-39 1.0696703e-38
0000c0 fd 07 01 00 92 d9 17 00 4b d9 37 00 9d d5 00 00
       9.4701e-41 2.190266e-39 5.128902e-39 7.663e-41
0000d0 2e 15 03 00 d0 1d 00 00 91 82 04 00 32 86 01 00
       2.83104e-40 1.0695e-41 4.1418e-40 1.39976e-40
0000e0 be f6 1d 00 91 4d 45 00 f5 83 00 00 42 f0 1d 00
       2.751744e-39 6.364475e-39 4.7337e-41 2.749418e-39
0000f0 02 9f 56 00 a3 fa 01 00 f1 de 00 00 c3 f4 0c 00
       7.954894e-39 1.81747e-40 7.9976e-41 1.18983e-39
