capsule-6073072/code/work_dir/recognition/kinetics_skeleton/FAI_GCN/epoch210_model.pt (torch, 74070 bytes, 22 tensors)

A f4 [3, 18, 18]
000000 00 00 80 3e 00 00 00 00 00 00 00 00 00 00 00 00
       0.25 0.0 0.0 0.0
000010 00 00 00 00 00 00 00 00 00 00 00 00 00 00 00 00
       0.0 0.0 0.0 0.0
000020 00 00 00 00 00 00 00 00 00 00 00 00 00 00 00 00
       0.0 0.0 0.0 0.0
000030 00 00 00 00 00 00 00 00 00 00 00 00 00 00 00 00
       0.0 0.0 0.0 0.0
000040 00 00 00 00 00 00 00 00 00 00 00 00 00 00 80 3e
       0.0 0.0 0.0 0.25
000050 00 00 00 00 00 00 00 00 00 00 00 00 00 00 00 00
       0.0 0.0 0.0 0.0
000060 00 00 00 00 00 00 00 00 00 00 00 00 00 00 00 00
       0.0 0.0 0.0 0.0
000070 00 00 00 00 00 00 00 00 00 00 00 00 00 00 00 00
       0.0 0.0 0.0 0.0
000080 00 00 00 00 00 00 00 00 00 00 00 00 00 00 00 00
       0.0 0.0 0.0 0.0
000090 00 00 00 00 00 00 00 00 00 00 80 3e 00 00 00 00
       0.0 0.0 0.25 0.0
0000a0 00 00 00 00 00 00 00 00 00 00 00 00 00 00 00 00
       0.0 0.0 0.0 0.0
0000b0 00 00 00 00 00 00 00 00 00 00 00 00 00 00 00 00
       0.0 0.0 0.0 0.0
0000c0 00 00 00 00 00 00 00 00 00 00 00 00 00 00 00 00
       0.0 0.0 0.0 0.0
0000d0 00 00 00 00 00 00 00 00 00 00 00 00 00 00 00 00
       0.0 0.0 0.0 0.0
0000e0 00 00 00 00 ab aa aa 3e 00 00 00 00 00 00 00 00
       0.0 0.33333334 0.0 0.0
0000f0 00 00 00 00 00 00 00 00 00 00 00 00 00 00 00 00
       0.0 0.0 0.0 0.0
000100 00 00 00 00 00 00 00 00 00 00 00 00 00 00 00 00
       0.0 0.0 0.0 0.0
000110 00 00 00 00 00 00 00 00 00 00 00 00 00 00 00 00
       0.0 0.0 0.0 0.0
000120 00 00 00 00 00 00 00 00 00 00 00 00 00 00 00 00
       0.0 0.0 0.0 0.0
000130 00 00 00 3f 00 00 00 00 00 00 00 00 00 00 00 00
       0.5 0.0 0.0 0.0
000140 00 00 00 00 00 00 00 00 00 00 00 00 00 00 00 00
       0.0 0.0 0.0 0.0
000150 00 00 00 00 00 00 00 00 00 00 00 00 00 00 00 00
       0.0 0.0 0.0 0.0
000160 00 00 00 00 00 00 00 00 00 00 00 00 00 00 00 00
       0.0 0.0 0.0 0.0
000170 00 00 00 00 00 00 00 00 00 00 00 00 00 00 80 3e
       0.0 0.0 0.0 0.25
000180 00 00 00 00 00 00 00 00 00 00 00 00 00 00 00 00
       0.0 0.0 0.0 0.0
000190 00 00 00 00 00 00 00 00 00 00 00 00 00 00 00 00
       0.0 0.0 0.0 0.0
0001a0 00 00 00 00 00 00 00 00 00 00 00 00 00 00 00 00
       0.0 0.0 0.0 0.0
0001b0 00 00 00 00 00 00 00 00 00 00 00 00 00 00 00 00
       0.0 0.0 0.0 0.0
0001c0 00 00 00 00 00 00 00 00 ab aa aa 3e 00 00 00 00
       0.0 0.0 0.33333334 0.0
0001d0 00 00 00 00 00 00 00 00 00 00 00 00 00 00 00 00
       0.0 0.0 0.0 0.0
0001e0 00 00 00 00 00 00 00 00 00 00 00 00 00 00 00 00
       0.0 0.0 0.0 0.0
0001f0 00 00 00 00 00 00 00 00 00 00 00 00 00 00 00 00
       0.0 0.0 0.0 0.0
000200 00 00 00 00 00 00 00 00 00 00 00 00 00 00 00 00
       0.0 0.0 0.0 0.0
000210 00 00 00 00 00 00 00 3f 00 00 00 00 00 00 00 00
       0.0 0.5 0.0 0.0
000220 00 00 00 00 00 00 00 00 00 00 00 00 00 00 00 00
       0.0 0.0 0.0 0.0
000230 00 00 00 00 00 00 00 00 00 00 00 00 00 00 00 00
       0.0 0.0 0.0 0.0
000240 00 00 00 00 00 00 00 00 00 00 00 00 00 00 00 00
       0.0 0.0 0.0 0.0
000250 00 00 00 00 00 00 00 00 00 00 00 00 00 00 00 00
       0.0 0.0 0.0 0.0
000260 ab aa aa 3e 00 00 00 00 00 00 00 00 00 00 00 00
       0.33333334 0.0 0.0 0.0
000270 00 00 00 00 00 00 00 00 00 00 00 00 00 00 00 00
       0.0 0.0 0.0 0.0
000280 00 00 00 00 00 00 00 00 00 00 00 00 00 00 00 00
       0.0 0.0 0.0 0.0
000290 00 00 00 00 00 00 00 00 00 00 00 00 00 00 00 00
       0.0 0.0 0.0 0.0
0002a0 00 00 00 00 00 00 00 00 00 00 00 00 ab aa aa 3e
       0.0 0.0 0.0 0.33333334
0002b0 00 00 00 00 00 00 00 00 00 00 00 00 00 00 00 00
       0.0 0.0 0.0 0.0
0002c0 00 00 00 00 00 00 00 00 00 00 00 00 00 00 00 00
       0.0 0.0 0.0 0.0
0002d0 00 00 00 00 00 00 00 00 00 00 00 00 00 00 00 00
       0.0 0.0 0.0 0.0
0002e0 00 00 00 00 00 00 00 00 00 00 00 00 00 00 00 00
       0.0 0.0 0.0 0.0
0002f0 00 00 00 00 00 00 00 00 00 00 00 3f 00 00 00 00
       0.0 0.0 0.5 0.0
000300 00 00 00 00 00 00 00 00 00 00 00 00 00 00 00 00
       0.0 0.0 0.0 0.0
000310 00 00 00 00 00 00 00 00 00 00 00 00 00 00 00 00
       0.0 0.0 0.0 0.0
000320 00 00 00 00 00 00 00 00 00 00 00 00 00 00 00 00
       0.0 0.0 0.0 0.0
000330 00 00 00 00 00 00 00 00 00 00 00 00 00 00 00 00
       0.0 0.0 0.0 0.0
000340 00 00 00 00 ab aa aa 3e 00 00 00 00 00 00 00 00
       0.0 0.33333334 0.0 0.0
000350 00 00 00 00 00 00 00 00 00 00 00 00 00 00 00 00
       0.0 0.0 0.0 0.0
000360 00 00 00 00 00 00 00 00 00 00 00 00 00 00 00 00
       0.0 0.0 0.0 0.0
000370 00 00 00 00 00 00 00 00 00 00 00 00 00 00 00 00
       0.0 0.0 0.0 0.0
000380 00 00 00 00 00 00 00 00 00 00 00 00 00 00 00 00
       0.0 0.0 0.0 0.0
000390 ab aa aa 3e 00 00 00 00 00 00 00 00 00 00 00 00
       0.33333334 0.0 0.0 0.0
0003a0 00 00 00 00 00 00 00 00 00 00 00 00 00 00 00 00
       0.0 0.0 0.0 0.0
0003b0 00 00 00 00 00 00 00 00 00 00 00 00 00 00 00 00
       0.0 0.0 0.0 0.0
0003c0 00 00 00 00 00 00 00 00 00 00 00 00 00 00 00 00
       0.0 0.0 0.0 0.0
0003d0 00 00 00 00 00 00 00 00 00 00 00 00 00 00 00 3f
       0.0 0.0 0.0 0.5
0003e0 00 00 00 00 00 00 00 00 00 00 00 00 00 00 00 00
       0.0 0.0 0.0 0.0
0003f0 00 00 00 00 00 00 00 00 00 00 00 00 00 00 00 00
       0.0 0.0 0.0 0.0

data_bn.weight f4 [54]
000000 0e 09 49 3f f2 7c 47 3f b8 08 4b 3f 65 72 48 3f
       0.7852944 0.77925026 0.7931018 0.7829955
000010 65 f4 4b 3f 11 23 3b 3f 06 35 4c 3f 6a 24 41 3f
       0.7966979 0.7310038 0.7976841 0.7544619
000020 76 4c 4f 3f 42 58 3e 3f ea a8 46 3f 97 5d 44 3f
       0.80976045 0.7435342 0.7760149 0.76705307
000030 87 86 47 3f 85 2c 4d 3f 61 05 47 3f 66 88 41 3f
       0.7793965 0.80146056 0.7774258 0.7559875
000040 a8 28 41 3f 78 51 3e 3f d6 2a 4b 3f c1 22 4d 3f
       0.7545266 0.7434306 0.7936224 0.80131155
000050 36 50 48 3f 77 6d 4b 3f 59 20 47 3f fe 2b 49 3f
       0.7824739 0.79463905 0.77783734 0.7858275
000060 04 c7 4a 3f 57 e4 4d 3f b6 c4 46 3f 98 12 48 3f
       0.79209924 0.80426544 0.7764391 0.7815337
000070 d5 11 47 3f 4e 2a 49 3f 68 43 40 3f da b8 48 3f
       0.77761585 0.78580177 0.75102854 0.7840706
000080 c1 ab 45 3f 5c a6 47 3f 33 b9 4a 3f dd 56 43 3f
       0.772152 0.7798822 0.7918884 0.7630442
000090 85 79 44 3f c1 56 46 3f 2c 19 49 3f 1c c2 44 3f
       0.76747924 0.77476126 0.78554034 0.7685869
0000a0 85 aa 47 3f 8f 07 46 3f 23 76 33 3f 38 0c 40 3f
       0.7799457 0.77355283 0.7010214 0.75018644
0000b0 f1 29 43 3f 13 99 44 3f 83 e1 46 3f f8 f7 4b 3f
       0.7623587 0.7679607 0.77687854 0.79675245
0000c0 6f a6 48 3f 4b 42 4e 3f 39 9c 47 3f dd 8d 4c 3f
       0.7837896 0.80569905 0.7797275 0.79903966
0000d0 09 cf 39 3f b8 7f 3b 3f
       0.72581536 0.7324176

data_bn.bias f4 [54]
000000 ab 20 5d a7 25 d6 6d 2b 15 c8 65 a7 29 6b 15 a7
       -3.068762e-15 8.44965e-13 -3.1888599e-15 -2.0735995e-15
000010 ef 7a 67 a7 12 20 fe a4 85 ab 0b a7 72 d7 07 36
       -3.2124332e-15 -1.1020927e-16 -1.9383106e-15 2.0241973e-06
000020 a2 79 48 a7 7c fd 96 26 ba 4e 98 a7 ca 8b ec 36
       -2.7821513e-15 1.0477048e-15 -4.227383e-15 7.0496217e-06
000030 45 a3 e1 b2 4a 6a 07 a8 a6 89 a3 27 fd 79 8f a7
       -2.6267694e-08 -7.517053e-15 4.5390827e-15 -3.9822733e-15
000040 c7 cb f1 b6 3d f4 51 a7 10 a5 ff 26 22 d2 10 26
       -7.2060825e-06 -2.9136978e-15 1.773892e-15 5.024482e-16
000050 c0 6e fb a8 b4 2d 7f 34 e8 59 39 b7 87 04 16 28
       -2.7914628e-14 2.3765352e-07 -1.1047792e-05 8.327654e-15
000060 1c f0 ed b4 6e 98 c4 32 e2 64 4f 28 85 c1 95 a6
       -4.4319393e-07 2.288672e-08 1.1512684e-14 -1.0391405e-15
000070 8d 2a a1 2c c2 ff f1 b1 5a d8 4e 32 a2 1c 89 26
       4.5806193e-12 -7.0430994e-09 1.2039971e-08 9.514046e-16
000080 8e 4a 93 a6 8e 32 38 33 5f a2 ee ad a5 79 ff 27
       -1.0220382e-15 4.2886818e-08 -2.7129575e-11 7.0908605e-15
000090 7c be 05 a6 a2 e7 23 2c 1c ce 71 29 ad b3 2e 32
       -4.64018e-16 2.3292275e-12 5.369152e-14 1.01689865e-08
0000a0 fb 7d c3 a7 40 a5 13 a7 7e fa be 25 2f b2 ce 28
       -5.425996e-15 -2.048993e-15 3.3129486e-16 2.2947869e-14
0000b0 e6 94 fa 2d 1e 64 60 a8 08 0f 9b a7 0d 39 b5 b6
       2.8487834e-11 -1.2456207e-14 -4.303744e-15 -5.400862e-06
0000c0 e6 f1 86 ac de f2 b3 a7 51 2b 3c 28 88 19 d8 b3
       -3.835365e-12 -4.9945797e-15 1.0445489e-14 -1.0062928e-07
0000d0 92 1e 26 33 7e 30 d0 27
       3.867769e-08 5.7784173e-15

data_bn.running_mean f4 [54]
000000 53 57 c7 3b a2 95 43 bd d7 25 b8 3d a9 e4 88 3b
       0.006083408 -0.047750123 0.089915924 0.004177649
000010 7b c8 18 bd ac fe b5 3d e2 6d e6 ba 28 46 1d bd
       -0.037300568 0.088864654 -0.0017580355 -0.038396984
000020 ec fe a5 3d c9 b2 e2 bb 2b 95 06 bd a7 32 9d 3d
       0.08105263 -0.0069182855 -0.0328571 0.07675677
000030 ce 87 20 bc c6 b5 f6 bc d0 e6 a7 3d db 2d 26 3c
       -0.009798003 -0.030115973 0.08198321 0.010142769
000040 16 fa 13 bd 2a b4 a4 3d 12 7d 66 3c 5f 4c f0 bc
       -0.036127172 0.08042176 0.014067905 -0.029333292
000050 b3 fc 9e 3d e5 fa 79 3c b3 65 d7 bc fd 64 9a 3d
       0.07763042 0.015257572 -0.026293611 0.07538793
000060 3b 91 a8 ba ae 91 75 bc ce 20 89 3d 03 1a e4 bb
       -0.0012860665 -0.014988346 0.0669571 -0.0069611087
000070 2e 00 12 bc 18 22 8e 3d ce c1 b7 bb 8d a1 20 3b
       -0.008911176 0.069400966 -0.00560782 0.0024510354
000080 73 11 92 3d 3f 42 c2 3b 53 b2 64 bc aa 92 85 3d
       0.071322344 0.0059283073 -0.013958531 0.065221146
000090 95 f4 13 3c 2f 2b 06 bc 8d 99 92 3d 6f 6d 5d 3b
       0.009030481 -0.008189007 0.07158194 0.0033787151
0000a0 55 5b 13 3b 69 0e 8d 3d 28 87 99 3b 7c fa 4b bd
       0.0022484858 0.06887514 0.0046853013 -0.049799427
0000b0 84 52 b9 3d a4 db 00 3c 7d ef 48 bd fe 18 aa 3d
       0.09048942 0.007864866 -0.04905652 0.08305548
0000c0 ab 20 d5 3a c3 21 35 bd 8c 1f 4c 3d 5e 5e 0a 3c
       0.0016260346 -0.04422165 0.049834773 0.00844535
0000d0 3c 72 18 bd 81 11 72 3d
       -0.037218317 0.059098724

data_bn.running_var f4 [54]
000000 db f2 c4 3b d8 26 02 3c a4 12 0e 3d 19 fc b6 3b
       0.006010396 0.007943831 0.034685746 0.0055842516
000010 40 1a a9 3b 63 d9 09 3d bb 0b b9 3b 29 3b ad 3b
       0.0051606 0.03365458 0.0056471503 0.0052865935
000020 9c f8 e3 3c 7e 56 c8 3b d8 aa 74 3b be d9 d4 3c
       0.027828507 0.0061138263 0.0037333276 0.025982734
000030 7f 71 d4 3b 5b 8c 63 3b d4 54 f0 3c 45 c0 bf 3b
       0.0064832564 0.003472111 0.029337324 0.0058517777
000040 88 9e a4 3b 55 f1 df 3c 66 6a ca 3b fd 15 79 3b
       0.005023781 0.027336756 0.0061772345 0.003800749
000050 66 05 da 3c 54 d9 d3 3b ea 94 86 3b e1 a7 d9 3c
       0.026613902 0.0064651165 0.0041071074 0.026569309
000060 f9 b7 ab 3b 75 3f 0a 3b 9a f6 96 3c 51 38 b6 3b
       0.005240437 0.0021094952 0.018428136 0.0055609127
000070 54 dd 14 3b 5d b1 ae 3c 11 0d 9d 3b 14 84 56 3b
       0.002271493 0.021324808 0.0047928174 0.0032732533
000080 9f c4 b6 3c 94 54 aa 3b cc 88 08 3b 71 f1 99 3c
       0.022310553 0.005198071 0.002083349 0.018791886
000090 d9 d8 ae 3b 6c c2 15 3b c5 81 c2 3c 77 a2 98 3b
       0.005335909 0.002285148 0.02374352 0.004658039
0000a0 8d f1 4e 3b f9 76 bb 3c d0 c8 c3 3b f4 11 0d 3c
       0.003157708 0.022883879 0.0059748664 0.008610237
0000b0 7a ef 16 3d b2 ee c1 3b 44 d2 0b 3c 9e e7 00 3d
       0.036849476 0.0059183473 0.008534018 0.031470887
0000c0 da 3e bc 3b 1a 3d 02 3c 7c 74 b3 3c 7c 63 af 3b
       0.005744797 0.007949138 0.02190613 0.0053524356
0000d0 e8 6b a6 3b 0a 3f 9a 3c
       0.0050787814 0.018828887

fai_gcn_networks.0.gcn.conv.weight f4 [96, 3, 1, 1]
000000 ea 7a 01 a3 e8 85 a1 a7 85 ea 1e a7 6c 5e 94 2e
       -7.019132e-18 -4.483166e-15 -2.2054038e-15 6.7470335e-11
000010 5c fa cf 2f 59 58 d3 ae c4 17 14 25 58 a1 33 27
       3.7830972e-10 -9.610863e-11 1.2845006e-16 2.4928705e-15
000020 1b 03 13 23 ff 68 85 b0 91 2b 67 b1 e9 f7 42 b1
       7.9695436e-18 -9.706865e-10 -3.3639689e-09 -2.8371636e-09
000030 a3 ce d2 22 c1 3f 8f a4 03 02 72 a1 bc d0 9e 2e
       5.71394e-18 -6.212437e-17 -8.199545e-19 7.222087e-11
000040 ad 8c 80 ae 0f 14 b5 2e ea e5 c5 a9 9a 0d bf 29
       -5.845755e-11 8.23449e-11 -8.788441e-14 8.4844634e-14
000050 1f 7c 54 2a e4 af 19 b0 11 e3 33 30 a0 95 77 b0
       1.8872446e-13 -5.591103e-10 6.54425e-10 -9.0070706e-10
000060 24 68 23 26 f3 35 35 27 21 27 5e a5 c9 17 82 b0
       5.669312e-16 2.5148042e-15 -1.9268688e-16 -9.465505e-10
000070 4c 7c a6 b0 ef 74 15 b0 fb 28 b7 29 d7 9a f0 27
       -1.2113417e-09 -5.4372057e-10 8.1339415e-14 6.678126e-15
000080 96 98 41 29 31 df ca ae aa ae 24 2d f5 bf a8 2e
       4.2986956e-14 -9.225543e-11 9.361104e-12 7.673854e-11
000090 f1 6d 3e b0 e2 e6 5d 30 79 a1 97 af 2d 24 3e ae
       -6.9277833e-10 8.0727436e-10 -2.7581473e-10 -4.323313e-11
0000a0 f2 bb ab 2d 9a bc 1c ae 21 d0 37 b0 65 bd 3e b2
       1.9523914e-11 -3.5637805e-11 -6.687078e-10 -1.1102519e-08
0000b0 c4 a4 35 b3 b2 88 27 a6 18 a2 15 a7 3d 3a c3 a4
       -4.22922e-08 -5.812502e-16 -2.0765775e-15 -8.466643e-17
0000c0 d9 27 83 29 40 ab ae 29 36 1e c4 ab 0f c3 f9 ad
       5.824481e-14 7.7568594e-14 -1.3935023e-12 -2.8394646e-11
0000d0 f6 e3 91 2b c7 43 b7 2e 79 34 03 ab 31 35 88 aa
       1.0366142e-12 8.333916e-11 -4.661337e-13 -2.4195362e-13
0000e0 36 a3 3f 28 39 1d b3 29 25 27 f2 2a cb d5 bf ab
       1.0638021e-14 7.954266e-14 4.3014997e-13 -1.3630706e-12
0000f0 c6 67 48 2d 54 0f b4 2b b1 59 57 2d b5 03 ae a4
       1.1391726e-11 1.2794024e-12 1.22412505e-11 -7.546675e-17
000100 be 66 eb a3 f4 eb 00 22 56 1c b6 29 7c 69 4c 2a
       -2.5522264e-17 1.7472147e-18 8.087339e-14 1.8155437e-13
000110 82 7c 03 b1 5e 2e 5e 2e 3f 92 ca 2e 9f d1 26 30
       -1.9133783e-09 5.051814e-11 9.211875e-11 6.068834e-10
000120 2e 97 fb ae be a1 9d a8 a9 b6 e0 28 1c 79 13 2f
       -1.14410134e-10 -1.7500646e-14 2.4948212e-14 1.3412599e-10
000130 71 e6 c8 2e e0 4e d5 ae 82 80 ee 21 25 ee d9 a3
       9.1358816e-11 -9.7001296e-11 1.6161523e-18 -2.3628045e-17
000140 1e a8 e2 a1 79 c2 ef a4 22 bc 10 a7 c0 0d 98 24
       -1.5358856e-18 -1.0397918e-16 -2.0086001e-15 6.5942785e-17
000150 a2 a1 dc 26 ac 50 01 a5 5a 6a 17 26 75 a9 98 a6
       1.5309377e-15 -1.1216299e-16 5.253278e-16 -1.059305e-15
000160 a4 b4 f0 27 a5 bb 43 25 57 1b 3f ad bb 19 e6 2b
       6.6809232e-15 1.697713e-16 -1.0863164e-11 1.6349625e-12
000170 bd 03 22 2a 04 af 2b 2c 5d c9 ce ab 04 f0 2c ab
       1.4389787e-13 2.4397715e-12 -1.469307e-12 -6.1439764e-13
000180 95 1e 0b 27 00 cc 81 a7 08 7d d9 24 fd 47 16 2e
       1.9306704e-15 -3.602587e-15 9.432056e-17 3.416999e-11
000190 9f b4 9c 30 f5 fd 4b 2a 09 0e 8b a3 88 fc f0 24
       1.140183e-09 1.8118131e-13 -1.5076354e-17 1.0451121e-16
0001a0 27 f5 5c 23 89 e8 ff 31 b2 3d 7a b1 cd f8 c5 b1
       1.1978137e-17 7.447913e-09 -3.6414858e-09 -5.76174e-09
0001b0 eb af ca a2 f0 79 c2 a4 69 42 2c 22 0f 82 8d ae
       -5.493847e-18 -8.434066e-17 2.3345504e-18 -6.435041e-11
0001c0 fd 89 e3 ae 10 29 2c 2e 0b 87 4c 27 83 67 d6 aa
       -1.03472765e-10 3.9144743e-11 2.8383894e-15 -3.8085862e-13
0001d0 62 52 a4 28 eb 7e 6c 30 d2 a1 54 35 68 af 27 b0
       1.8243385e-14 8.603666e-10 7.9211634e-07 -6.1003513e-10
0001e0 73 32 2c 25 fc a3 f5 a7 99 fd c8 25 bb 83 b5 b2
       1.4935715e-16 -6.8178952e-15 3.4866314e-16 -2.1131077e-08
0001f0 ae 82 9a b1 dd 7b 99 b0 07 ad dc 27 1d 0a 45 29
       -4.4968465e-09 -1.1167419e-09 6.1249863e-15 4.375156e-14
000200 19 c6 3c 26 9e 85 e5 2d 31 45 1d af 99 83 21 2e
       6.5494075e-16 2.6093624e-11 -1.4303649e-10 3.6724044e-11
000210 00 52 b6 b0 e7 d1 8e b0 6c 40 f4 af 5b 9c ac ae
       -1.3265549e-09 -1.0391518e-09 -4.4429116e-10 -7.849429e-11
000220 a4 74 03 2f 28 08 01 ae e5 2d 6d b2 b9 89 89 b2
       1.195582e-10 -2.933845e-11 -1.3805651e-08 -1.6011528e-08
000230 a9 b4 00 b2 e0 76 98 25 f3 65 e2 a7 15 31 90 a4
       -7.491658e-09 2.644835e-16 -6.2838134e-15 -6.2533193e-17
000240 d4 c1 03 2a c6 0b c3 a9 05 15 77 aa e7 2b be ad
       1.1702385e-13 -8.661782e-14 -2.19453e-13 -2.1619996e-11
000250 c6 bf 67 ac 0d 6e a3 2d 14 50 8e ab 42 4d 54 aa
       -3.293353e-12 1.8579827e-11 -1.0111933e-12 -1.8856187e-13
000260 fa 5c 87 aa 6c 80 32 2b 64 82 64 2b 9d a0 5f 2c
       -2.4045333e-13 6.3416525e-13 8.1182825e-13 3.1779364e-12
000270 f1 0d 51 ad fa 8b b8 ac 8d 3c 81 ac ee 2b 54 23
       -1.188337e-11 -5.245135e-12 -3.673123e-12 1.15018455e-17
000280 98 76 63 24 d2 e1 13 a2 a8 ca 48 aa c1 54 56 2a
       4.932323e-17 -2.0041763e-18 -1.7833879e-13 1.9036423e-13
000290 5b 5f 92 ab 1e 37 88 2e 37 01 fc 2e e5 11 49 2e
       -1.040039e-12 6.194355e-11 1.1459849e-10 4.5718002e-11
0002a0 18 62 c1 a8 43 1f f4 a9 fe dd 9d 26 08 7e 84 ae
       -2.1469846e-14 -1.08412e-13 1.0954235e-15 -6.025053e-11
0002b0 18 3d a1 af 82 f8 a0 af 4d fa c8 21 50 57 e6 a3
       -2.932914e-10 -2.9280406e-10 1.3618781e-18 -2.4973628e-17
0002c0 c7 2c e5 a0 9f e3 63 a6 7c ad 81 a6 d5 97 11 25
       -3.882374e-19 -7.906493e-16 -8.998196e-16 1.2628188e-16
0002d0 a6 1f 22 a6 e2 d9 8a a7 1a 46 c5 a3 32 1d 7f a7
       -5.624793e-16 -3.8538923e-15 -2.1388472e-17 -3.5404186e-15
0002e0 49 a2 98 a6 f2 b6 17 a7 7a e1 54 b1 7b e7 91 2c
       -1.0591106e-15 -2.1054634e-15 -3.0978229e-09 4.1468474e-12
0002f0 af 90 d7 2b 61 03 59 2c 95 27 20 2b 37 d8 af 29
       1.5316827e-12 3.083943e-12 5.689835e-13 7.8090685e-14
000300 28 17 3e 2c a8 78 38 27 d7 8d e1 a4 3b 78 89 2d
       2.7013478e-12 2.5600537e-15 -9.781848e-17 1.562849e-11
000310 0c b3 85 2e 10 6c db 2d 42 b7 0f 25 f5 e5 66 26
       6.079945e-11 2.4945407e-11 1.2465363e-16 8.010893e-16
000320 3c 02 59 a3 e3 97 84 30 eb ea e6 2f 2f 67 58 30
       -1.1764067e-17 9.647433e-10 4.2003676e-10 7.8726975e-10
000330 41 ed cf a1 4d 39 8a 24 98 a0 8f a2 f3 1e d5 2d
       -1.4089666e-18 5.994503e-17 -3.8930263e-18 2.422904e-11
000340 de c8 5c ae 67 0d 79 2d 02 d3 22 2a 2c fd 12 28
       -5.0200614e-11 1.4156987e-11 1.4461698e-13 8.159526e-15
000350 c6 9e 02 a9 44 74 90 2f 2c 71 a7 2f 6f 4f 3b af
       -2.9003513e-14 2.627606e-10 3.0457536e-10 -1.7035771e-10
000360 ae 7e 1b 26 ef 03 b9 a7 ae 69 08 23 91 e5 b1 b1
       5.394811e-16 -5.135208e-15 7.394953e-18 -5.1774767e-09
000370 5f 56 f6 30 86 c1 84 b0 e7 c4 1e 2c 3b d0 8a a4
       1.7923404e-09 -9.659267e-10 2.2562453e-12 -6.0200716e-17
000380 8b 27 07 25 90 e1 1b 2f 9d 1b a2 ac 7c a2 c4 ae
       1.1722781e-16 1.4177304e-10 -4.6073826e-12 -8.941911e-11
000390 b3 3a 3e b0 15 69 43 b2 0f ce ce af a3 4b 4b 2d
       -6.9205014e-10 -1.1374387e-08 -3.7617595e-10 1.1556009e-11
0003a0 d5 f0 ee ad ea 7a 34 af 51 97 07 b2 7d 98 35 33
       -2.7164418e-11 -1.6414572e-10 -7.89244e-09 4.2281034e-08
0003b0 04 f0 af b1 4b 47 c5 25 2e d5 5e 27 22 c8 17 a5
       -5.120457e-09 3.4222362e-16 3.0924254e-15 -1.316497e-16
0003c0 e3 25 b8 2a c4 f0 47 2a 84 96 88 ac 80 b6 0e 2e
       3.2711255e-13 1.7758283e-13 -3.882063e-12 3.2449154e-11
0003d0 47 f8 59 2d 08 5f 60 ad bf 66 7d a9 26 f3 a8 aa
       1.23901505e-11 -1.2754027e-11 -5.6266403e-14 -3.0011513e-13
0003e0 78 6f 3c a7 b4 b3 8d 2a 27 43 34 a8 93 e6 3d a6
       -2.6150668e-15 2.5171326e-13 -1.00065686e-14 -6.5885034e-16
0003f0 31 7d 8e af 7f 54 92 2c 1f 23 a8 ac 3a 9c 65 a2
       -2.5918603e-10 4.1589505e-12 -4.7787464e-12 -3.1117993e-18

fai_gcn_networks.0.gcn.conv.bias f4 [96]
000000 a5 2d af 31 a6 e6 fa 30 b0 ff 18 31 05 94 50 b3
       5.0983595e-09 1.8255448e-09 2.2264253e-09 -4.8563397e-08
000010 8b 07 40 2f c1 91 03 30 e7 1b a0 aa 37 39 77 31
       1.7464978e-10 4.786465e-10 -2.844107e-13 3.5975753e-09
000020 f8 a6 34 b1 be 9f 86 b2 ff 49 fc 2f a6 43 aa b0
       -2.6288358e-09 -1.5672295e-08 4.589111e-10 -1.2388355e-09
000030 31 58 80 b1 56 6e 1a 32 27 93 84 b3 90 0e 1c 32
       -3.7353165e-09 8.989067e-09 -6.173496e-08 9.083706e-09
000040 d1 08 1a 2d 25 9a 7c ae a2 90 3a ac 55 8e f4 30
       8.755844e-12 -5.7435074e-11 -2.6512477e-12 1.779379e-09
000050 01 b3 3c 2f 63 24 98 af 21 f8 8c 2d 1e ff bf b0
       1.7162095e-10 -2.7674493e-10 1.6026349e-11 -1.3969588e-09
000060 3e 6b 39 34 ea 2d 64 af 96 16 2f 2e 0f 12 1a b2
       1.7268482e-07 -2.0752791e-10 3.9810454e-11 -8.968086e-09
000070 1d 65 9d 32 05 27 94 32 b8 ff 6f 2e 5a 89 95 ac
       1.8323187e-08 1.7247212e-08 5.4569432e-11 -4.250084e-12
000080 ad db ce 31 05 c9 11 31 54 e0 9f 31 8a bf 88 b3
       6.0203633e-09 2.1214543e-09 4.653012e-09 -6.367834e-08
000090 a7 32 59 2f 4c 66 b7 2f 27 b7 32 ab 74 ef 92 31
       1.975403e-10 3.3360192e-10 -6.349248e-13 4.276382e-09
0000a0 4c b7 10 b2 a6 d1 af b2 3f 90 1c 30 c4 79 6d b1
       -8.42358e-09 -2.0468018e-08 5.6957455e-10 -3.4557255e-09
0000b0 3f 4c 87 b1 7a fe 62 32 e2 1c 8a b3 b1 49 80 32
       -3.9376853e-09 1.3212793e-08 -6.4313795e-08 1.4934672e-08
0000c0 81 d1 d8 2c 03 c0 fc ae bf 1b 97 2c 74 03 03 31
       6.162349e-12 -1.14937414e-10 4.2947586e-12 1.9064972e-09
0000d0 c5 63 24 30 a4 b8 e1 af 71 8d 98 2d 82 df c9 b0
       5.9804633e-10 -4.1058457e-10 1.7343212e-11 -1.46882e-09
0000e0 e1 e2 32 34 e6 23 e9 af 2b 7c 67 2e d7 67 82 b2
       1.666008e-07 -4.240796e-10 5.2633602e-11 -1.5181213e-08
0000f0 aa 36 b5 32 ec 36 2d b1 b3 ab 1b 2d 10 6d 3e ac
       2.1096032e-08 -2.5206033e-09 8.848855e-12 -2.7061166e-12
000100 80 b5 45 31 66 bf 82 30 66 6a d8 30 61 72 25 33
       2.8770444e-09 9.513144e-10 1.5746309e-09 3.8521083e-08
000110 c8 b6 93 2e 01 10 ca 2f 43 2b 68 a9 a1 86 0f 31
       6.7172545e-11 3.6754957e-10 -5.1551872e-14 2.0885766e-09
000120 90 28 b3 b1 bb b4 86 b2 a0 3b cf 2e 2a 29 30 b1
       -5.214197e-09 -1.568184e-08 9.423862e-11 -2.563477e-09
000130 cb 1a b1 2e a2 89 00 2e dd 48 d6 b3 2e d9 37 31
       8.0537875e-11 2.9226073e-11 -9.978405e-08 2.6753457e-09
000140 ce 6f ee 2c d7 aa 1b ac 7e 26 c5 2c 5e ef 0f 2f
       6.7767797e-12 -2.212166e-12 5.6033502e-12 1.3090815e-10
000150 d8 9f 17 2f 8d a3 bc 2f d8 78 f3 2c e2 9f 7a b0
       1.3790158e-10 3.431321e-10 6.9198917e-12 -9.117668e-10
000160 55 05 cf 31 3b a2 d4 2e 10 cb e7 2d 70 a0 86 b1
       6.025099e-09 9.669462e-11 2.6351837e-11 -3.918153e-09
000170 7d 01 59 32 a0 84 3b b2 ff c5 16 ad 81 a8 81 ab
       1.2631401e-08 -1.0914988e-08 -8.570477e-12 -9.21277e-13

fai_gcn_networks.1.gcn.conv.weight f4 [192, 32, 1, 1]
000000 41 5a 23 2f 4f 21 da 2d 92 b8 0d 2f c9 52 df 2f
       1.4856828e-10 2.4798523e-11 1.2889448e-10 4.0622286e-10
000010 f0 5b 3a 2c d4 0f de 2d 62 2f 9c a6 32 14 fc 31
       2.6483225e-12 2.5245507e-11 -1.0837518e-15 7.336461e-09
000020 e7 10 13 30 ff 8f 21 2e 51 e2 ff 2c 74 e0 53 2e
       5.350231e-10 3.6735056e-11 7.272662e-12 4.81752e-11
000030 0d 9c d0 2d a8 e9 c2 b0 95 d1 1f 2f cc 66 47 2f
       2.3716163e-11 -1.4181767e-09 1.4535424e-10 1.8135465e-10
000040 74 57 99 2a ce 5f f6 2a 5b 95 16 29 45 87 3e 2d
       2.7238942e-13 4.3764856e-13 3.3436236e-14 1.08302855e-11
000050 8e 82 50 2c fc ea 1f 2d 39 19 13 2d ff fe 48 29
       2.963105e-12 9.090281e-12 8.361583e-12 4.4630095e-14
000060 75 ef fe 31 5e a8 c6 2b 12 16 93 2b ac 99 a0 2e
       7.419596e-09 1.4115477e-12 1.0451104e-12 7.303255e-11
000070 c8 69 1e 30 cb 5e 9e 2f b5 3c dc 2d e0 9a 38 2e
       5.763039e-10 2.8807387e-10 2.5038064e-11 4.1974313e-11
000080 62 17 35 2f 76 b4 bd 2d 48 6b e6 2e e7 33 a0 2f
       1.6470161e-10 2.1566953e-11 1.0478246e-10 2.914071e-10
000090 34 68 3b 2c 1c 70 b6 ac 65 c3 b1 28 9f c2 5a 31
       2.6632143e-12 -5.1851978e-12 1.9735686e-14 3.1833804e-09
0000a0 2c 86 cf 2c 75 36 a3 2e 53 59 87 2b 6e 62 e9 2d
       5.89819e-12 7.422055e-11 9.617119e-13 2.6532745e-11
0000b0 fb 4a 33 ac ca 79 18 30 3d 42 a6 b0 02 79 96 2e
       -2.5479052e-12 5.547035e-10 -1.2096916e-09 6.8427056e-11
0000c0 55 2a d3 29 8e 55 32 2a 2f 93 88 29 33 d6 01 2e
       9.377626e-14 1.5839259e-13 6.0651455e-14 2.952145e-11
0000d0 0a 46 58 2c 27 f0 d0 2c 9e 2f b3 2c 2d b2 33 2b
       3.0734326e-12 5.938378e-12 5.0927726e-12 6.3840843e-13
0000e0 13 d9 85 30 04 86 77 2c 6c 18 82 2b b8 81 28 2f
       9.73872e-10 3.5175205e-12 9.243834e-13 1.5325596e-10
0000f0 6a 8d f2 ad b8 5e 97 2f d4 8b 93 2d 17 9f d2 2d
       -2.7575015e-11 2.7534042e-10 1.6774061e-11 2.3944886e-11
000100 5c 35 bb 23 f4 61 e5 22 77 b7 7b 22 31 c9 58 24
       2.029718e-17 6.2174286e-18 3.4113969e-18 4.700795e-17
000110 07 24 b2 9f b6 62 99 21 2b 90 bc 9b 51 82 13 26
       -7.5445535e-20 1.0393812e-18 -3.1195157e-22 5.117748e-16
000120 32 e4 69 24 c3 4a 5c 23 39 b6 91 21 df 51 77 a2
       5.071711e-17 1.1942055e-17 9.873816e-19 -3.3518084e-18
000130 cb b2 72 21 8e 17 9d 23 f0 82 e5 a4 a2 b7 14 24
       8.222942e-19 1.703195e-17 -9.9534736e-17 3.2247927e-17
000140 af 20 96 22 81 05 dc 1e 4f 7c a0 9d 06 cd 0c 23
       4.0692187e-18 2.3295682e-20 -4.248018e-21 7.632831e-18
000150 8e e3 1c 21 fb d0 1a 22 0b e5 19 22 ab 52 48 20
       5.315602e-19 2.0981525e-18 2.085662e-18 1.6968011e-19
000160 b2 c5 46 25 60 ee ab a1 db 90 1b 20 f0 af 96 23
       1.7240744e-16 -1.1650508e-18 1.3176939e-19 1.6337545e-17
000170 f5 84 0a a4 c1 4b ce a4 8d 12 80 22 62 a2 04 a3
       -3.00366e-17 -8.946659e-17 3.471411e-18 -7.19012e-18
000180 91 f3 f8 2e c4 ae 9d 2e 01 a0 d7 2d 07 b5 4e 30
       1.13210004e-10 7.170578e-11 2.4513726e-11 7.519962e-10
000190 e9 a0 06 2d 3e 3f 90 2c c5 75 bb 26 76 fa 87 31
       7.652747e-12 4.0997475e-12 1.3007653e-15 3.9574912e-09
0001a0 5d bd 1f b0 f6 e3 9c 2e 19 95 7e 2d 7f 6a a7 2d
       -5.8112964e-10 7.134553e-11 1.4471335e-11 1.9032996e-11
0001b0 fa f7 3a 2e 71 7b 1e 30 0e 5a 2d 30 50 89 88 2f
       4.251175e-11 5.7655486e-10 6.306501e-10 2.4835822e-10
0001c0 96 f1 d4 2a 15 b4 69 a9 72 15 d7 a6 c6 03 44 2e
       3.78264e-13 -5.189259e-14 -1.4924435e-15 4.4568592e-11
0001d0 b7 e0 09 2d 8e da 07 ab d2 28 82 2d cb a3 31 2c
       7.837445e-12 -4.826494e-13 1.4797417e-11 2.5244136e-12
0001e0 95 6a f0 31 19 4a 51 ac 43 3a 82 2b 95 ea 57 2e
       6.9970363e-09 -2.9741819e-12 9.253226e-13 4.909369e-11
0001f0 a4 11 82 2f 69 21 ab 2f da f7 0c 2e 67 c6 2d 2e
       2.3659397e-10 3.1128458e-10 3.205245e-11 3.9511863e-11
000200 89 b6 0f 2f 25 71 9e 2e 6a 3d dd 2d c8 c6 2d 31
       1.3070624e-10 7.2051067e-11 2.5152064e-11 2.5287807e-09
000210 a3 59 88 2c d2 d6 c7 2c 30 4d 5e 26 b8 75 82 31
       3.875304e-12 5.67977e-12 7.712633e-16 3.796881e-09
000220 6d 7c 35 ae c7 6f 8d 2e 64 a5 2d 2d c6 06 95 2e
       -4.1265148e-11 6.431793e-11 9.8706356e-12 6.776939e-11
000230 70 30 2d 2e 2b ce f0 2e 07 1c 59 2f cf 29 c6 2e
       3.9378667e-11 1.0950559e-10 1.9745992e-10 9.011424e-11
000240 08 91 f3 2a 49 db 12 2a 6f 77 03 27 76 f2 01 2e
       4.3266107e-13 1.3043485e-13 1.8244647e-15 2.9546553e-11
000250 f6 d1 94 2c 14 d2 00 ac d3 74 b6 2c 78 76 03 aa
       4.2297233e-12 -1.830651e-12 5.185721e-12 -1.167624e-13
000260 a3 d7 63 31 5c b6 8f 2c 1d d9 be 2b 2c 15 09 2f
       3.3155423e-09 4.0845504e-12 1.3560573e-12 1.2467599e-10
000270 83 15 70 ae 55 c2 86 2f 37 fc d5 2d 04 95 2c ad
       -5.458879e-11 2.451254e-10 2.4327302e-11 -9.810156e-12
000280 06 7c 28 2f 32 10 f4 2d a3 2d 98 2c a2 56 04 30
       1.5323573e-10 2.774678e-11 4.3251665e-12 4.8144433e-10
000290 65 ca 7d 2c 4b 19 f1 2c 2f c2 0d a7 bc c8 83 31
       3.6065814e-12 6.85244e-12 -1.9672948e-15 3.8354226e-09
0002a0 f0 ef 74 2f 27 37 73 2f 47 70 55 2b 47 74 75 ad
       2.2276914e-10 2.2120315e-10 7.582862e-13 -1.3952456e-11
0002b0 96 7e ee 2d 47 bb 31 2f 2b 37 2c 30 72 26 68 2f
       2.7113683e-11 1.616459e-10 6.2651634e-10 2.1113936e-10
0002c0 f5 d4 b9 2a 32 8c 42 aa d1 a0 0e 29 7c d4 c1 2d
       3.301037e-13 -1.7279301e-13 3.166982e-14 2.2035922e-11
0002d0 21 e7 5e 2e bd ad 21 2d e8 87 ba 2d 38 a1 31 2c
       5.068224e-11 9.190368e-12 2.1206106e-11 2.5242707e-12
0002e0 62 94 e5 31 c6 9f c0 2c 86 32 dd 2b 0f fd 24 2f
       6.6816463e-09 5.4747066e-12 1.5717018e-12 1.5005618e-10
0002f0 ee ee ab 2f 6d 62 85 2f 55 ad bc 2d ee c0 68 2e
       3.1274489e-10 2.4262495e-10 2.14501e-11 5.292205e-11
000300 0a 54 9f 2e d4 9c 51 2d 7c a9 fa ab 5b 21 87 30
       7.245411e-11 1.1915097e-11 -1.781061e-12 9.832023e-10
000310 45 12 dd 2b 78 b8 71 2b fe 0c 10 28 f7 5a e0 30
       1.5708065e-12 8.58764e-13 7.996423e-15 1.6323999e-09
000320 73 07 67 2e ee e2 cf 2d 75 d3 b3 2b 7b dc c0 2e
       5.2529935e-11 2.3633952e-11 1.2777406e-12 8.770314e-11
000330 da c5 09 ac 00 af 24 2e 90 36 57 2f bc c3 04 2e
       -1.95787e-12 3.7444714e-11 1.957352e-10 3.0187172e-11
000340 bb bc 34 2a 28 47 c4 27 ab b3 4c 28 75 0b 14 2d
       1.605269e-13 5.4478076e-15 1.1363234e-14 8.41537e-12
000350 6d f1 78 2c 3a c4 72 2c d5 69 4f 2c ac 43 80 2b
       3.5376938e-12 3.4499196e-12 2.9475218e-12 9.11373e-13
000360 59 77 64 30 d5 c1 f0 2b 64 ed f9 2a 96 c9 51 2e
       8.311552e-10 1.7106825e-12 4.4396008e-13 4.7700142e-11
000370 6b e0 f4 2e 70 7d 21 2f eb c6 12 ae 03 a0 be 2c
       1.11357e-10 1.4687429e-10 -3.337323e-11 5.4178897e-12
000380 0f 47 e1 a0 38 59 ee 9e c5 4d 6d 1f 26 36 e1 22
       -3.8163505e-19 -2.523613e-20 5.025103e-20 6.1043704e-18
000390 6e 83 b5 9d 7e 67 80 9e 67 ac 26 b3 49 0f 1a a4
       -4.8046196e-21 -1.359533e-20 -3.8806686e-08 -3.3406374e-17
0003a0 5e d6 71 a1 62 8e 29 a0 9a 12 82 9e fb 4e 43 a7
       -8.193769e-19 -1.4361967e-19 -1.3771979e-20 -2.7104502e-15
0003b0 37 c5 e4 9e 36 80 b9 20 66 3e 77 22 41 cf 91 a0
       -2.4222005e-20 3.1425062e-19 3.3507776e-18 -2.4701105e-19
0003c0 f1 26 99 1c d9 b7 9c 9c 72 4d cb 1d 91 f1 1a 9f
       1.0134757e-21 -1.0370738e-21 5.381373e-21 -3.2810588e-20
0003d0 fd a2 11 9e 6e 37 d3 1e 96 6c 54 b4 12 65 18 1c
       -7.709941e-21 2.2363419e-20 -1.9783542e-07 5.042321e-22
0003e0 55 bc 3f a2 b9 5e ab b2 09 1c f0 9b 79 7e b5 9f
       -2.598503e-18 -1.9950095e-08 -3.9722787e-22 -7.686571e-20
0003f0 e3 14 10 34 27 36 7b a1 36 bc 88 9d c6 27 76 a0
       1.3418644e-07 -8.511378e-19 -3.6193506e-21 -2.085017e-19

fai_gcn_networks.1.gcn.conv.bias f4 [192]
000000 b2 6a 22 3d da 57 20 3d c8 47 b0 31 0d a1 1f 3d
       0.039652534 0.03914628 5.1304347e-09 0.03897195
000010 dd 01 1f 3d 71 88 21 3d 5a ee 74 3c 8f 09 c7 2e
       0.038820136 0.03943676 0.014949406 9.05117e-11
000020 bd 80 20 3d 4c 40 20 3d 7a a1 10 33 39 ea 8e 3c
       0.039185274 0.03912382 3.3674475e-08 0.01744567
000030 10 ee 22 3d f2 bc 23 3d d6 e0 22 3d c9 c4 22 3d
       0.039777815 0.039975114 0.0397652 0.03973845
000040 9b ca 21 3d 3f 64 23 3d dd 77 1f 3d 5d 0d ea 3c
       0.03949986 0.039890524 0.03893267 0.028570825
000050 d7 ed a7 3c 45 db 97 3c dd 6d 90 34 3c 2e 7d 31
       0.020499153 0.018537173 2.6902026e-07 3.6842627e-09
000060 1a 7b 21 3d 0c 5f 63 36 dd 10 23 3d eb 6c 05 35
       0.03942404 3.388096e-06 0.039811004 4.970486e-07
000070 85 a6 2d b3 d2 1b 27 b0 bc 03 22 3d 79 d9 22 3d
       -4.043115e-08 -6.079378e-10 0.039554343 0.03975818
000080 13 09 49 31 80 bb 29 30 1b ee 23 3d b0 d5 c6 2d
       2.9254508e-09 6.1748295e-10 0.040021997 2.260489e-11
000090 69 85 16 3d 9a 4b 6f 31 95 39 62 37 60 c6 af 3c
       0.036748324 3.4822052e-09 1.3484057e-05 0.021456897
0000a0 47 bf 24 3d 4b 72 21 3d 34 d4 1c 3d 75 99 23 3d
       0.04022148 0.03941564 0.03828831 0.03994127
0000b0 74 cf 4c b2 a4 60 23 3d 37 bd a4 31 b8 51 23 3d
       -1.1921532e-08 0.039887086 4.7945394e-09 0.039872855
0000c0 6a 04 4e 32 3f 16 13 34 b8 7b 22 3d 5e 24 25 3d
       1.1991782e-08 1.3698535e-07 0.03966877 0.040317886
0000d0 d7 71 8c 2e a9 c0 9e b0 f7 e0 23 3d bb d8 1f 3d
       6.386685e-11 -1.155077e-09 0.040009465 0.03902505
0000e0 ab ae 4c 31 37 e4 20 3d 04 7b 89 30 90 07 bb 39
       2.9785194e-09 0.039280143 1.0003025e-09 0.00035673054
0000f0 86 e6 6b 32 4c d3 22 3d 6f 71 23 3d ae 5a 06 36
       1.3731215e-08 0.03975229 0.0399031 2.0020339e-06
000100 93 74 44 3d 28 3f 42 3d 39 d1 0b 32 5d d0 3e 3d
       0.047962736 0.04742351 8.138437e-09 0.04658543
000110 d5 28 41 3d ef 58 43 3d 2b c3 98 3c 0c 7b 61 2e
       0.04715808 0.047692236 0.01864775 5.1268365e-11
000120 ed fd 41 3d c3 59 3f 3d 6e 65 3e 33 bb c3 b1 3c
       0.047361303 0.046716463 4.4330072e-08 0.021699777
000130 e3 27 44 3d a0 2d 45 3d 71 9d 45 3d fb f2 44 3d
       0.0478896 0.048139215 0.04824585 0.048083287
000140 7c 78 41 3d cd 65 44 3d 50 66 40 3d fd cb 0f 3d
       0.047234043 0.047948647 0.046972573 0.035106648
000150 2a 26 d0 3c d4 95 bc 3c b4 c2 ba 34 2e a7 b1 31
       0.025408823 0.023020662 3.4786865e-07 5.170384e-09
000160 90 e5 43 3d 4b 57 92 36 1c 48 44 3d 43 cb 27 35
       0.04782635 4.3613013e-06 0.04792033 6.250813e-07
000170 cc 0c 1e b3 8b 50 0b af 85 77 42 3d f1 5b 45 3d
       -3.679888e-08 -1.2670591e-10 0.047477264 0.048183385
000180 2a 3f 6d af c1 f3 0c af e6 95 45 3d 25 51 6a 2d
       -2.1577465e-10 -1.2819525e-10 0.048238657 1.3319378e-11
000190 0c 76 37 3d 24 b8 13 b0 a4 bc 8e 37 80 a7 d9 3c
       0.044790313 -5.373997e-10 1.7015562e-05 0.026569128
0001a0 14 0e 46 3d e3 90 42 3d 66 89 3e 3d dd 59 46 3d
       0.04835327 0.047501456 0.046517752 0.048425544
0001b0 05 3a 4c b2 40 2c 46 3d 02 5b 3c b0 06 f4 45 3d
       -1.1887555e-08 0.048382044 -6.852333e-10 0.048328422
0001c0 a2 dd 9d 32 d2 40 14 33 44 9f 44 3d 95 76 46 3d
       1.8377992e-08 3.451789e-08 0.04800345 0.048452932
0001d0 6f 20 ec 2e 8d 40 bd b0 0f aa 46 3d b4 32 42 3d
       1.0737799e-10 -1.3769906e-09 0.048502024 0.047411636
0001e0 10 e2 a3 b1 0b bc 41 3d 32 c7 83 af c1 db f0 39
       -4.7696247e-09 0.047298472 -2.3970298e-10 0.00045940097
0001f0 01 17 8e 32 fa 7e 45 3d f2 44 46 3d a3 ce 2b 36
       1.6541437e-08 0.048216797 0.048405595 2.5601264e-06
000200 92 31 91 3c 03 17 8f 3c de 7c 62 b1 41 32 90 3c
       0.017723832 0.017467028 -3.2958307e-09 0.017602088
000210 eb c0 8d 3c 9c 5e 90 3c 79 c3 d3 3b 1a 56 8b 2e
       0.017303905 0.017623238 0.006462511 6.336283e-11
000220 56 88 8f 3c be f5 90 3c 82 10 21 32 85 fb f7 3b
       0.017521065 0.017695304 9.375187e-09 0.0075678253
000230 8f 2c 92 3c 65 e4 92 3c ac 66 91 3c 52 7b 91 3c
       0.017843513 0.017931173 0.017749153 0.017758999
000240 ea 1b 92 3c 6a c6 92 3c 9d c4 8e 3c bb ea 4d 3c
       0.017835576 0.017916877 0.017427737 0.012568171
000250 67 47 12 3c 10 f9 03 3c a3 81 ea 33 d6 4b e8 ae
       0.008928156 0.008054987 1.0920055e-07 -1.056361e-10
000260 85 15 90 3c 88 8a bc 35 72 50 92 3c 76 db 5c 34
       0.017588386 1.4047409e-06 0.017860625 2.0568936e-07
000270 ed 70 44 b3 45 30 14 b1 c0 bc 91 3c 2f 6d 91 3c
       -4.573751e-08 -2.1564273e-09 0.017790198 0.017752258
000280 f8 40 17 33 d7 b1 e0 31 4c eb 92 3c b8 00 54 2f
       3.5216516e-08 6.539476e-09 0.017934464 1.9281543e-10
000290 cd 9d 85 3c 2b 4b 9a 32 18 db bf 36 69 4c 19 3c
       0.016310597 1.7962142e-08 5.7177494e-06 0.0093565965
0002a0 0b fc 93 3c ca b5 90 3c 3d a9 8b 3c 16 1b 92 3c
       0.01806452 0.017664809 0.017048473 0.017835181
0002b0 a6 1c 0d b2 43 de 91 3c 2a 82 e9 32 5d db 91 3c
       -8.213794e-09 0.017806178 2.7183962e-08 0.017804796
0002c0 3a e9 70 33 2e ef 8d b3 c5 36 91 3c 0c 69 94 3c
       5.6091473e-08 -6.609331e-08 0.017726311 0.018116497
0002d0 e2 6d ca ae c0 86 ab 31 cb 5d 92 3c 87 7f 8e 3c
       -9.2054156e-11 4.9920743e-09 0.01786699 0.017394794
0002e0 1a d0 01 31 7e 32 90 3c 8c 8f 36 32 f0 84 26 39
       1.8890263e-09 0.017602202 1.0626433e-08 0.00015880517
0002f0 65 db 33 b1 35 54 91 3c 5a ef 91 3c 09 fc a9 35
       -2.617264e-09 0.017740348 0.017814327 1.2664833e-06

fai_gcn_networks.1.residual.0.weight f4 [64, 32, 1, 1]
000000 1e 26 9b 3c 30 5b c9 bb c9 cc 06 bd c7 6e 73 bc
       0.018939074 -0.0061449036 -0.032910142 -0.014857954
000010 76 d8 84 ba ea 8a 81 3a 0e 74 c6 3c 00 56 79 bc
       -0.0010135311 0.0009883319 0.024225261 -0.015218258
000020 e0 86 cd 3b 92 c7 8d bc 7e be 4b bc 0f 94 21 3c
       0.006272182 -0.017307077 -0.012435554 0.00986196
000030 e2 a6 89 3c b7 ab b4 bc 26 06 6e bc c7 e0 1d 3c
       0.016803209 -0.022054536 -0.014527833 0.009636111
000040 0d ba 8b bc 99 a7 41 bd 0c 50 58 bc fb f9 1e 3a
       -0.01705649 -0.047278974 -0.013202678 0.00060644717
000050 c3 0a fc 38 3e fb 2f bc 7b 13 96 3c 67 b8 53 3b
       0.00012018301 -0.010741053 0.018319836 0.0032305957
000060 1f b0 09 3b 9e 22 9f bc 4d 9c 1b bc 26 a1 4f 3c
       0.0021009517 -0.019425686 -0.009497714 0.012672698
000070 a2 5d 53 3a 09 67 29 bc d2 7a 7d bc d4 1b 48 3c
       0.00080629636 -0.010339507 -0.015471177 0.012213666
000080 81 aa 2b bd f2 1e 68 bc 4e 5d b8 3c 2b 43 17 3d
       -0.041910652 -0.014167534 0.022505429 0.03692929
000090 6d d8 00 bc 17 a9 88 bc f6 a7 0d 3c 50 cd 80 3c
       -0.0078641 -0.01668219 0.008646002 0.0157229
0000a0 20 ec 5d 3c 9b e4 0b 3c b7 cd 17 3c 80 4a 99 3c
       0.013545066 0.0085383905 0.009265355 0.018712282
0000b0 30 52 ea 3c e8 ec 95 bb 84 db 90 3b ae d0 bc 3c
       0.028603643 -0.0045753606 0.0044206996 0.023048725
0000c0 b5 b6 fc 3c 09 19 40 3d e0 f0 5a bb be 38 b2 bc
       0.03084884 0.046898875 -0.0033407733 -0.021755572
0000d0 85 84 d3 bc 41 39 2f bb d9 e8 31 bd a4 93 85 bc
       -0.025820026 -0.0026737007 -0.04343495 -0.016305752
0000e0 4b 30 29 bd 2a ab 32 bd d9 5b 18 bc 54 12 d4 3c
       -0.04130582 -0.043620266 -0.009299242 0.025887646
0000f0 d2 91 52 bc a0 3a 01 bd 38 a1 1a 3d 15 00 4f bc
       -0.012852149 -0.03155005 0.037751406 -0.012634297
000100 35 19 48 bb 44 44 e7 bb 8b 75 8f 3c 82 20 10 bc
       -0.0030532603 -0.0070576984 0.017512104 -0.008796813
000110 f4 19 9c bc e6 29 e5 bc c6 f4 5c 3b f5 6c 5d 3c
       -0.019055344 -0.02797408 0.0033715232 0.013514747
000120 f0 4e 1a ba 54 aa 21 ba 72 21 81 3c e2 b6 ab bb
       -0.00058863964 -0.00061670435 0.015763018 -0.005240307
000130 6a 70 43 3b 8a 17 89 bc 6f 5d 90 bc 77 3f 10 bd
       0.0029821643 -0.016734857 -0.017622678 -0.035216775
000140 69 f6 cf 3c 7c 36 aa 3c 9a ba 14 3d 87 3c 8e 3c
       0.025386052 0.020777933 0.03631077 0.017362846
000150 0b 55 31 bd 49 e8 7c bb f9 03 a0 3c 4b 64 89 3b
       -0.043293994 -0.0038590601 0.019533144 0.004192864
000160 a4 2e 8c 3b 86 56 2d bd be 0d 3c 3c 77 8b d3 bc
       0.004278021 -0.042318843 0.011477886 -0.025823338
000170 4a dd 92 bc 64 48 22 bc 30 61 18 bc d3 90 7d 3a
       -0.017927784 -0.009904955 -0.009300515 0.00096727646
000180 ca a0 cf 3c a1 1e d7 bb f9 79 6f bc 19 73 f6 3b
       0.025345225 -0.0065649305 -0.014616483 0.007521045
000190 1c 2b c5 bc 1b f8 90 bc 47 93 83 3b 38 38 69 bc
       -0.024068408 -0.01769643 0.0040153596 -0.014234595
0001a0 42 0c c0 3b c2 3b cb 3c a2 51 10 bc d2 9c 14 3c
       0.0058608362 0.024808768 -0.008808525 0.009070592
0001b0 dd d3 e5 3b ab 3d ce 3c 0a 33 99 ba be 71 ac bc
       0.0070137815 0.02517589 -0.0011688184 -0.02105033
0001c0 f4 8f 2a ba 88 1c 14 3c ba 00 a0 bb fc 75 6e 3c
       -0.0006506436 0.0090400055 -0.004882899 0.014554497
0001d0 d8 db 4d bc 7d 30 94 bc 36 5b 8f bb 20 12 08 3d
       -0.012564622 -0.018089527 -0.004374887 0.03322041
0001e0 04 e4 ac ba d8 61 8a b9 1d ff 49 bc dc fa da bc
       -0.0013190513 -0.0002639431 -0.01232889 -0.026730947
0001f0 78 a8 79 3c c9 e3 43 bd fe 82 e2 bc f2 11 a0 bc
       0.01523792 -0.047824655 -0.027650353 -0.019539807
000200 7a 5c 9a bc 69 44 e6 3b 05 51 af bc a2 a7 63 bd
       -0.018842924 0.007027198 -0.021400938 -0.05557979
000210 82 f6 53 3c ff a1 9d bc 8a 23 84 bc 9c 51 9d bc
       0.01293719 -0.019242285 -0.016130228 -0.019203953
000220 37 b6 2f 3b af fe a8 3b c4 fe d5 3b 52 f6 88 3c
       0.002681149 0.005157314 0.0065306146 0.016719017
000230 e0 68 5c bc 62 1c 57 3c 50 e2 39 3b 63 5c 8a 3c
       -0.0134527385 0.013129326 0.0028363653 0.016889757
000240 8f 1a d3 bc 42 4b 0b bd 09 cb 38 bc cf c9 4a bc
       -0.0257695 -0.03400732 -0.011278876 -0.0123772165
000250 16 e5 16 bb 59 44 8b bc 42 70 71 3b 04 fa 11 3d
       -0.002302473 -0.017000364 0.0036840593 0.035638824
000260 42 28 21 3c 14 3a b9 bc d4 e3 a2 3b db 8c f4 3b
       0.009836258 -0.022610702 0.004971007 0.0074630803
000270 2a 0f 4b 3a fd 07 91 3c c4 3b 8c 3c 95 92 89 bc
       0.0007746095 0.017704004 0.017118342 -0.016793529
000280 69 43 18 3d 67 c8 f9 bb 8a 24 ea ba ef 6d 11 bc
       0.037173662 -0.007622767 -0.0017863673 -0.008876308
000290 d0 a7 86 bc 6b 59 32 bc 0b d7 68 bc 73 38 2d bc
       -0.016437441 -0.010885577 -0.0142114265 -0.010572541
0002a0 a7 86 0a ba c8 10 a0 3c cc 95 00 bd be 8b c6 3a
       -0.0005284347 0.019539252 -0.031392857 0.0015147848
0002b0 b0 f6 04 3d 0c 0c d4 bc 97 eb b9 3c 5c 95 0c bc
       0.032461822 -0.02588465 0.022695346 -0.008580532
0002c0 49 76 1a 3a f6 72 30 bc 37 f0 89 bc d0 b4 21 bc
       0.00058922597 -0.010769596 -0.016838176 -0.009869769
0002d0 f2 87 b4 3b b8 b9 1b ba 7d 55 ae bc c1 90 82 bb
       0.00550937 -0.0005940455 -0.021280998 -0.003984541
0002e0 f7 77 67 3c 18 20 67 bd 20 f6 dc bb 64 50 0f bd
       0.014127723 -0.05642709 -0.0067432076 -0.034988776
0002f0 72 59 5e bc bd 77 39 bc 5e b7 cb bb 43 e0 00 bb
       -0.01357113 -0.011320052 -0.0062169274 -0.001966492
000300 a7 d6 5d 3c 74 97 49 3c 2f 87 11 3c 7c 60 24 3b
       0.013539947 0.012304176 0.008882328 0.0025081923
000310 58 b3 e6 3c cc 30 09 3c 40 53 9a bc 55 7c 52 bc
       0.02816169 0.0083734505 -0.018838525 -0.012847026
000320 9b f6 d2 3c e1 58 94 bc eb 49 0d bb 67 91 3e bc
       0.025752356 -0.018108787 -0.002155895 -0.011631346
000330 3e 01 96 39 cb ee e9 bc 54 a7 d9 3b 98 51 46 3d
       0.00028611155 -0.028556248 0.0066422615 0.048417658
000340 c4 5a 16 3c e0 3b ab 3c 7d 5c 90 bc c9 47 f3 bc
       0.009176914 0.020902574 -0.017622227 -0.029697316
000350 61 94 56 bb 3e aa 0d bc 6b c4 ae 3c c5 b6 9f bc
       -0.003274225 -0.008646546 0.021333894 -0.019496331
000360 24 d2 2f 3a 62 8c 08 bc 45 3e f3 bb 43 29 93 bb
       0.00067070336 -0.008334251 -0.0074231946 -0.0044910028
000370 49 84 dd 3c 6e ed 89 3b 30 1e 0f bc 6e f5 d5 39
       0.027040618 0.004209212 -0.008735225 0.00040809385
000380 b8 f4 ad 3a 01 4f db bc 7e 5f d7 3b 25 49 18 bd
       0.0013271784 -0.02677107 0.006572663 -0.03717913
000390 0a f7 28 3d f2 cd 50 3c a9 60 fd bb 09 ee dd bb
       0.04125122 0.012744414 -0.00773247 -0.006772761
0003a0 0d 4e 92 3c c6 61 91 bc 36 a2 09 3d 87 35 3e 3d
       0.017859483 -0.017746817 0.033601962 0.046437766
0003b0 32 0b c9 3b 77 2c e1 3c a7 75 36 bd a9 81 ba 3c
       0.006135368 0.027487023 -0.044545796 0.022766905
0003c0 b0 5b 1b bc 31 0d 82 bb 54 d9 eb 3c e7 6a 51 3b
       -0.009482309 -0.0039688577 0.028790154 0.0031954588
0003d0 18 e8 21 bd d7 a0 af 3c 89 dd da bc a9 61 79 bb
       -0.039527982 0.021439 -0.026716964 -0.0038052595
0003e0 af 29 6d bc c1 9d b6 3b 49 bc 38 3b e2 32 62 b9
       -0.01447527 0.005573005 0.0028188399 -0.00021571995
0003f0 c4 eb d7 ba 57 be 04 bd bd f8 4f bc 94 bb ac bb
       -0.0016473462 -0.032408085 -0.012693581 -0.0052713845

fai_gcn_networks.1.residual.0.bias f4 [64]
000000 00 00 00 00 00 00 00 00 00 00 00 00 00 00 00 00
       0.0 0.0 0.0 0.0
000010 00 00 00 00 00 00 00 00 00 00 00 00 00 00 00 00
       0.0 0.0 0.0 0.0
000020 00 00 00 00 00 00 00 00 00 00 00 00 00 00 00 00
       0.0 0.0 0.0 0.0
000030 00 00 00 00 00 00 00 00 00 00 00 00 00 00 00 00
       0.0 0.0 0.0 0.0
000040 00 00 00 00 00 00 00 00 00 00 00 00 00 00 00 00
       0.0 0.0 0.0 0.0
000050 00 00 00 00 00 00 00 00 00 00 00 00 00 00 00 00
       0.0 0.0 0.0 0.0
000060 00 00 00 00 00 00 00 00 00 00 00 00 00 00 00 00
       0.0 0.0 0.0 0.0
000070 00 00 00 00 00 00 00 00 00 00 00 00 00 00 00 00
       0.0 0.0 0.0 0.0
000080 00 00 00 00 00 00 00 00 00 00 00 00 00 00 00 00
       0.0 0.0 0.0 0.0
000090 00 00 00 00 00 00 00 00 00 00 00 00 00 00 00 00
       0.0 0.0 0.0 0.0
0000a0 00 00 00 00 00 00 00 00 00 00 00 00 00 00 00 00
       0.0 0.0 0.0 0.0
0000b0 00 00 00 00 00 00 00 00 00 00 00 00 00 00 00 00
       0.0 0.0 0.0 0.0
0000c0 00 00 00 00 00 00 00 00 00 00 00 00 00 00 00 00
       0.0 0.0 0.0 0.0
0000d0 00 00 00 00 00 00 00 00 00 00 00 00 00 00 00 00
       0.0 0.0 0.0 0.0
0000e0 00 00 00 00 00 00 00 00 00 00 00 00 00 00 00 00
       0.0 0.0 0.0 0.0
0000f0 00 00 00 00 00 00 00 00 00 00 00 00 00 00 00 00
       0.0 0.0 0.0 0.0

fai_gcn_networks.1.residual.1.weight f4 [64]
000000 34 3e 7e 3f 22 30 81 3f c7 34 7c 3f d4 87 82 3f
       0.99313664 1.0092814 0.9851803 1.0197701
000010 c5 48 81 3f 6e b0 7f 3f da 24 83 3f a7 63 7a 3f
       1.0100332 0.99878585 1.0245621 0.9780831
000020 da bb 75 3f c1 c9 84 3f 72 15 79 3f 0e 94 7e 3f
       0.95989764 1.037407 0.9729835 0.99444664
000030 0d 0b 80 3f 0b b1 80 3f c0 60 7c 3f d9 9a 82 3f
       1.0003372 1.0054029 0.9858513 1.0203506
000040 60 b6 7a 3f 98 9c 7c 3f 08 b6 80 3f a0 f5 7c 3f
       0.9793453 0.98676443 1.0055552 0.98812294
000050 86 c5 83 3f e8 1b 83 3f 93 10 7c 3f c8 a9 80 3f
       1.0294654 1.0242891 0.9846279 1.0051813
000060 fd 9e 85 3f e1 c4 83 3f 30 81 7b 3f 1c 65 78 3f
       1.0439144 1.0294458 0.98244 0.9702928
000070 c5 4e 80 3f f6 14 84 3f 46 8b 7d 3f 96 fd 80 3f
       1.0024039 1.0318897 0.9904064 1.0077388
000080 3d 18 7e 3f 47 37 79 3f f4 a2 7f 3f 7c dc 7d 3f
       0.99255735 0.9734997 0.9985802 0.9916456
000090 8e e2 80 3f 44 ec 84 3f 1d 59 7d 3f 37 2c 7e 3f
       1.0069139 1.0384603 0.989641 0.99286216
0000a0 b5 29 7f 3f c3 a9 84 3f 70 c5 82 3f 0f de 78 3f
       0.99673015 1.0364307 1.0216503 0.97213835
0000b0 34 82 76 3f f0 3e 80 3f 07 2f 80 3f af fd 78 3f
       0.96292424 1.0019207 1.0014352 0.9726209
0000c0 7e 12 7f 3f cc f8 81 3f 66 8b 7f 3f 71 69 82 3f
       0.9963759 1.0154052 0.9982208 1.0188428
0000d0 58 9c 82 3f c4 8b 81 3f be ee 7e 3f ed 18 77 3f
       1.0203962 1.0120778 0.9958304 0.9652241
0000e0 80 73 77 3f ba 7f 7e 3f bd 6c 80 3f b9 de 7b 3f
       0.96660614 0.99413645 1.0033184 0.9838672
0000f0 86 cb 7f 3f 50 11 80 3f 7f d4 84 3f f3 13 7a 3f
       0.9991993 1.0005283 1.0377349 0.9768669

fai_gcn_networks.1.residual.1.bias f4 [64]
000000 00 00 00 00 00 00 00 00 00 00 00 00 00 00 00 00
       0.0 0.0 0.0 0.0
000010 00 00 00 00 00 00 00 00 00 00 00 00 00 00 00 00
       0.0 0.0 0.0 0.0
000020 00 00 00 00 00 00 00 00 00 00 00 00 00 00 00 00
       0.0 0.0 0.0 0.0
000030 00 00 00 00 00 00 00 00 00 00 00 00 00 00 00 00
       0.0 0.0 0.0 0.0
000040 00 00 00 00 00 00 00 00 00 00 00 00 00 00 00 00
       0.0 0.0 0.0 0.0
000050 00 00 00 00 00 00 00 00 00 00 00 00 00 00 00 00
       0.0 0.0 0.0 0.0
000060 00 00 00 00 00 00 00 00 00 00 00 00 00 00 00 00
       0.0 0.0 0.0 0.0
000070 00 00 00 00 00 00 00 00 00 00 00 00 00 00 00 00
       0.0 0.0 0.0 0.0
000080 00 00 00 00 00 00 00 00 00 00 00 00 00 00 00 00
       0.0 0.0 0.0 0.0
000090 00 00 00 00 00 00 00 00 00 00 00 00 00 00 00 00
       0.0 0.0 0.0 0.0
0000a0 00 00 00 00 00 00 00 00 00 00 00 00 00 00 00 00
       0.0 0.0 0.0 0.0
0000b0 00 00 00 00 00 00 00 00 00 00 00 00 00 00 00 00
       0.0 0.0 0.0 0.0
0000c0 00 00 00 00 00 00 00 00 00 00 00 00 00 00 00 00
       0.0 0.0 0.0 0.0
0000d0 00 00 00 00 00 00 00 00 00 00 00 00 00 00 00 00
       0.0 0.0 0.0 0.0
0000e0 00 00 00 00 00 00 00 00 00 00 00 00 00 00 00 00
       0.0 0.0 0.0 0.0
0000f0 00 00 00 00 00 00 00 00 00 00 00 00 00 00 00 00
       0.0 0.0 0.0 0.0

fai_gcn_networks.1.residual.1.running_mean f4 [64]
000000 f4 d4 98 b0 97 5e 47 b1 11 f4 87 30 b3 00 a5 b0
       -1.111998e-09 -2.901208e-09 9.891911e-10 -1.2005529e-09
000010 c2 5a 19 b0 73 e0 a7 2f eb 0e 19 b0 86 f3 fb b0
       -5.579005e-10 3.0536604e-10 -5.5682275e-10 -1.8331867e-09
000020 ff dc 28 31 bd 7c 99 b1 ec 65 35 b1 38 5d aa 30
       2.457284e-09 -4.467067e-09 -2.6396902e-09 1.2395622e-09
000030 38 0b 36 b1 76 b7 80 b1 c3 67 15 31 a6 a1 85 b0
       -2.6490863e-09 -3.7461474e-09 2.1741335e-09 -9.722967e-10
000040 41 93 01 b0 30 c2 1a 31 20 c8 a2 b0 ac f4 7b 30
       -4.7139187e-10 2.2520332e-09 -1.184393e-09 9.166097e-10
000050 82 b9 a7 31 33 c8 93 af 36 25 27 af ae ab 0d b1
       4.8814295e-09 -2.6881394e-10 -1.5201782e-10 -2.061579e-09
000060 14 72 20 31 6b a9 93 31 8d 0a ec b0 1f d4 a1 b1
       2.334791e-09 4.2975237e-09 -1.7174259e-09 -4.709832e-09
000070 73 ca 58 b0 0e 8b 99 b0 1a 35 ad b1 cc 6d 14 b0
       -7.886804e-10 -1.1171737e-09 -5.0409996e-09 -5.3998117e-10
000080 a5 6b b5 b0 bb 07 43 b1 3a 34 47 31 34 78 0c b1
       -1.3200078e-09 -2.838063e-09 2.8987999e-09 -2.0441009e-09
000090 39 10 bf 2f d0 64 d3 b0 65 d7 78 31 24 7d 9e b0
       3.4754224e-10 -1.5380923e-09 3.6211187e-09 -1.153158e-09
0000a0 66 b6 16 31 0c 9d 13 b1 2c 1c 94 b0 9e 51 3d b1
       2.1931554e-09 -2.1480586e-09 -1.0776424e-09 -2.7549514e-09
0000b0 fc 89 a7 b1 5d 5c 52 b1 44 db 01 af 66 73 6e b1
       -4.8760267e-09 -3.0611524e-09 -1.181038e-10 -3.4699155e-09
0000c0 7b 04 20 b1 a0 cc 28 b0 09 57 0e 31 43 aa 05 b1
       -2.3285611e-09 -6.1408834e-10 2.0713193e-09 -1.945083e-09
0000d0 52 69 71 31 1a 74 1a 31 21 e2 ad 30 52 2e bb 30
       3.5129983e-09 2.2475946e-09 1.2651676e-09 1.3619206e-09
0000e0 08 ac 4f 31 4c e3 5a 31 86 e1 73 b0 6d f4 6e b1
       3.0220253e-09 3.1852379e-09 -8.8723373e-10 -3.4772498e-09
0000f0 a4 d2 34 31 dc 57 12 b1 3a 2a ae 31 f3 ab fb b0
       2.6313183e-09 -2.1295739e-09 5.068867e-09 -1.8311525e-09

fai_gcn_networks.1.residual.1.running_var f4 [64]
000000 41 59 82 22 49 65 8c 22 b5 28 4e 22 35 91 5f 22
       3.533107e-18 3.8054316e-18 2.7939756e-18 3.0299008e-18
000010 96 9b c8 22 78 25 f9 21 64 7c 39 22 25 ae 62 21
       5.437484e-18 1.6882814e-18 2.5138027e-18 7.6802257e-19
000020 22 5e 5b 23 0a 12 c5 23 64 f8 b3 21 8e c7 3a 1f
       1.1891947e-17 2.1366423e-17 1.219526e-18 3.95521e-20
000030 a1 5e 06 21 db 34 12 24 a5 b1 7c 22 17 d6 80 23
       4.5526206e-19 3.1703474e-17 3.4246413e-18 1.3968458e-17
000040 79 3a e7 22 27 91 57 23 97 6c 9b 1f 90 e8 da 1f
       6.2674586e-18 1.16859106e-17 6.58247e-20 9.2711334e-20
000050 33 34 42 21 0f 47 e6 22 13 15 f3 1f cd fb 13 21
       6.579884e-19 6.241686e-18 1.0294937e-19 5.0138793e-19
000060 b9 2d 26 21 d0 b5 55 22 e5 3d a1 21 7f 5e b3 21
       5.63035e-19 2.8963134e-18 1.0926168e-18 1.2154525e-18
000070 de aa cd 22 59 58 61 22 14 05 39 24 0f 8c 30 21
       5.5746274e-18 3.0539957e-18 4.0119782e-17 5.9816485e-19
000080 59 50 29 23 84 a2 2f 23 88 b2 9d 23 29 30 b3 22
       9.178523e-18 9.521183e-18 1.7097585e-17 4.856904e-18
000090 3e c2 58 22 a4 4b 5e 23 87 17 86 22 1d 84 81 1f
       2.937629e-18 1.2050662e-17 3.6345683e-18 5.485219e-20
0000a0 e4 c5 0d 21 7c cb 19 20 32 65 06 23 b6 9a d5 21
       4.8034564e-19 1.3026931e-19 7.2855835e-18 1.4474393e-18
0000b0 ef b1 9a 23 60 5f b6 22 3a aa 8c 22 3c fa f2 22
       1.6772071e-17 4.943218e-18 3.812731e-18 6.5859177e-18
0000c0 5e e8 15 23 4f d2 5d 21 81 de d4 20 91 d2 c9 20
       8.126512e-18 7.5156054e-19 3.6061438e-19 3.4190066e-19
0000d0 07 37 3a 24 57 81 07 22 fe 74 81 20 47 58 4d 20
       4.037893e-17 1.8364384e-18 2.193087e-19 1.7393384e-19
0000e0 91 a4 2e 23 ed 97 47 23 92 0c a7 21 39 94 8b 21
       9.467407e-18 1.0819983e-17 1.1319688e-18 9.458241e-19
0000f0 ca 91 58 21 78 0d 93 22 14 32 fc 23 de 6d 36 24
       7.3376597e-19 3.985869e-18 2.7343104e-17 3.955802e-17
