capsule-6073072/code/work_dir/recognition/kinetics_skeleton/FAI_GCN/epoch320_model.pt (torch, 74070 bytes, 22 tensors)

A f4 [3, 18, 18]
000000 00 00 80 3e 00 00 00 00 00 00 00 00 00 00 00 00
       0.25 0.0 0.0 0.0
000010 00 00 00 00 00 00 00 00 00 00 00 00 00 00 00 00
       0.0 0.0 0.0 0.0
000020 00 00 00 00 00 00 00 00 00 00 00 00 00 00 00 00
       0.0 0.0 0.0 0.0
000030 00 00 00 00 00 00 00 00 00 00 00 00 00 00 00 00
       0.0 0.0 0.0 0.0
000040 00 00 00 00 00 00 00 00 00 00 00 00 00 00 80 3e
       0.0 0.0 0.0 0.25
000050 00 00 00 00 00 00 00 00 00 00 00 00 00 00 00 00
       0.0 0.0 0.0 0.0
000060 00 00 00 00 00 00 00 00 00 00 00 00 00 00 00 00
       0.0 0.0 0.0 0.0
000070 00 00 00 00 00 00 00 00 00 00 00 00 00 00 00 00
       0.0 0.0 0.0 0.0
000080 00 00 00 00 00 00 00 00 00 00 00 00 00 00 00 00
       0.0 0.0 0.0 0.0
000090 00 00 00 00 00 00 00 00 00 00 80 3e 00 00 00 00
       0.0 0.0 0.25 0.0
0000a0 00 00 00 00 00 00 00 00 00 00 00 00 00 00 00 00
       0.0 0.0 0.0 0.0
0000b0 00 00 00 00 00 00 00 00 00 00 00 00 00 00 00 00
       0.0 0.0 0.0 0.0
0000c0 00 00 00 00 00 00 00 00 00 00 00 00 00 00 00 00
       0.0 0.0 0.0 0.0
0000d0 00 00 00 00 00 00 00 00 00 00 00 00 00 00 00 00
       0.0 0.0 0.0 0.0
0000e0 00 00 00 00 ab aa aa 3e 00 00 00 00 00 00 00 00
       0.0 0.33333334 0.0 0.0
0000f0 00 00 00 00 00 00 00 00 00 00 00 00 00 00 00 00
       0.0 0.0 0.0 0.0
000100 00 00 00 00 00 00 00 00 00 00 00 00 00 00 00 00
       0.0 0.0 0.0 0.0
000110 00 00 00 00 00 00 00 00 00 00 00 00 00 00 00 00
       0.0 0.0 0.0 0.0
000120 00 00 00 00 00 00 00 00 00 00 00 00 00 00 00 00
       0.0 0.0 0.0 0.0
000130 00 00 00 3f 00 00 00 00 00 00 00 00 00 00 00 00
       0.5 0.0 0.0 0.0
000140 00 00 00 00 00 00 00 00 00 00 00 00 00 00 00 00
       0.0 0.0 0.0 0.0
000150 00 00 00 00 00 00 00 00 00 00 00 00 00 00 00 00
       0.0 0.0 0.0 0.0
000160 00 00 00 00 00 00 00 00 00 00 00 00 00 00 00 00
       0.0 0.0 0.0 0.0
000170 00 00 00 00 00 00 00 00 00 00 00 00 00 00 80 3e
       0.0 0.0 0.0 0.25
000180 00 00 00 00 00 00 00 00 00 00 00 00 00 00 00 00
       0.0 0.0 0.0 0.0
000190 00 00 00 00 00 00 00 00 00 00 00 00 00 00 00 00
       0.0 0.0 0.0 0.0
0001a0 00 00 00 00 00 00 00 00 00 00 00 00 00 00 00 00
       0.0 0.0 0.0 0.0
0001b0 00 00 00 00 00 00 00 00 00 00 00 00 00 00 00 00
       0.0 0.0 0.0 0.0
0001c0 00 00 00 00 00 00 00 00 ab aa aa 3e 00 00 00 00
       0.0 0.0 0.33333334 0.0
0001d0 00 00 00 00 00 00 00 00 00 00 00 00 00 00 00 00
       0.0 0.0 0.0 0.0
0001e0 00 00 00 00 00 00 00 00 00 00 00 00 00 00 00 00
       0.0 0.0 0.0 0.0
0001f0 00 00 00 00 00 00 00 00 00 00 00 00 00 00 00 00
       0.0 0.0 0.0 0.0
000200 00 00 00 00 00 00 00 00 00 00 00 00 00 00 00 00
       0.0 0.0 0.0 0.0
000210 00 00 00 00 00 00 00 3f 00 00 00 00 00 00 00 00
       0.0 0.5 0.0 0.0
000220 00 00 00 00 00 00 00 00 00 00 00 00 00 00 00 00
       0.0 0.0 0.0 0.0
000230 00 00 00 00 00 00 00 00 00 00 00 00 00 00 00 00
       0.0 0.0 0.0 0.0
000240 00 00 00 00 00 00 00 00 00 00 00 00 00 00 00 00
       0.0 0.0 0.0 0.0
000250 00 00 00 00 00 00 00 00 00 00 00 00 00 00 00 00
       0.0 0.0 0.0 0.0
000260 ab aa aa 3e 00 00 00 00 00 00 00 00 00 00 00 00
       0.33333334 0.0 0.0 0.0
000270 00 00 00 00 00 00 00 00 00 00 00 00 00 00 00 00
       0.0 0.0 0.0 0.0
000280 00 00 00 00 00 00 00 00 00 00 00 00 00 00 00 00
       0.0 0.0 0.0 0.0
000290 00 00 00 00 00 00 00 00 00 00 00 00 00 00 00 00
       0.0 0.0 0.0 0.0
0002a0 00 00 00 00 00 00 00 00 00 00 00 00 ab aa aa 3e
       0.0 0.0 0.0 0.33333334
0002b0 00 00 00 00 00 00 00 00 00 00 00 00 00 00 00 00
       0.0 0.0 0.0 0.0
0002c0 00 00 00 00 00 00 00 00 00 00 00 00 00 00 00 00
       0.0 0.0 0.0 0.0
0002d0 00 00 00 00 00 00 00 00 00 00 00 00 00 00 00 00
       0.0 0.0 0.0 0.0
0002e0 00 00 00 00 00 00 00 00 00 00 00 00 00 00 00 00
       0.0 0.0 0.0 0.0
0002f0 00 00 00 00 00 00 00 00 00 00 00 3f 00 00 00 00
       0.0 0.0 0.5 0.0
000300 00 00 00 00 00 00 00 00 00 00 00 00 00 00 00 00
       0.0 0.0 0.0 0.0
000310 00 00 00 00 00 00 00 00 00 00 00 00 00 00 00 00
       0.0 0.0 0.0 0.0
000320 00 00 00 00 00 00 00 00 00 00 00 00 00 00 00 00
       0.0 0.0 0.0 0.0
000330 00 00 00 00 00 00 00 00 00 00 00 00 00 00 00 00
       0.0 0.0 0.0 0.0
000340 00 00 00 00 ab aa aa 3e 00 00 00 00 00 00 00 00
       0.0 0.33333334 0.0 0.0
000350 00 00 00 00 00 00 00 00 00 00 00 00 00 00 00 00
       0.0 0.0 0.0 0.0
000360 00 00 00 00 00 00 00 00 00 00 00 00 00 00 00 00
       0.0 0.0 0.0 0.0
000370 00 00 00 00 00 00 00 00 00 00 00 00 00 00 00 00
       0.0 0.0 0.0 0.0
000380 00 00 00 00 00 00 00 00 00 00 00 00 00 00 00 00
       0.0 0.0 0.0 0.0
000390 ab aa aa 3e 00 00 00 00 00 00 00 00 00 00 00 00
       0.33333334 0.0 0.0 0.0
0003a0 00 00 00 00 00 00 00 00 00 00 00 00 00 00 00 00
       0.0 0.0 0.0 0.0
0003b0 00 00 00 00 00 00 00 00 00 00 00 00 00 00 00 00
       0.0 0.0 0.0 0.0
0003c0 00 00 00 00 00 00 00 00 00 00 00 00 00 00 00 00
       0.0 0.0 0.0 0.0
0003d0 00 00 00 00 00 00 00 00 00 00 00 00 00 00 00 3f
       0.0 0.0 0.0 0.5
0003e0 00 00 00 00 00 00 00 00 00 00 00 00 00 00 00 00
       0.0 0.0 0.0 0.0
0003f0 00 00 00 00 00 00 00 00 00 00 00 00 00 00 00 00
       0.0 0.0 0.0 0.0

data_bn.weight f4 [54]
000000 3a 0e 2d 3f a3 87 2b 3f e7 06 2f 3f a4 79 2c 3f
       0.67599833 0.6700384 0.6836991 0.6737311
000010 5e ef 2f 3f c4 5c 1f 3f 21 2f 30 3f 90 46 25 3f
       0.6872462 0.62250924 0.68821913 0.64560795
000020 14 3c 33 3f 33 85 22 3f 95 b6 2a 3f a6 73 28 3f
       0.70013547 0.63484496 0.6668485 0.65801466
000030 15 91 2b 3f 52 23 31 3f bc 11 2b 3f 10 a9 25 3f
       0.6701825 0.6919452 0.66823936 0.64711094
000040 bb 4a 25 3f 87 7e 22 3f 8b 28 2f 3f ad 19 31 3f
       0.64567155 0.63474315 0.6842124 0.69179803
000050 ed 57 2c 3f 47 6a 2f 3f 50 2c 2b 3f af 30 2d 3f
       0.67321664 0.6852154 0.6686449 0.6765241
000060 12 c6 2e 3f b2 d8 31 3f fa d1 2a 3f 2c 1b 2c 3f
       0.6827098 0.69471276 0.6672665 0.6722896
000070 01 1e 2b 3f 03 2f 2d 3f e6 68 24 3f 1f bf 2c 3f
       0.6684266 0.6764986 0.6422256 0.6747913
000080 04 bd 29 3f 77 b0 2b 3f 71 b8 2e 3f b9 70 27 3f
       0.6630404 0.6706614 0.68250185 0.65406376
000090 2e 8f 28 3f 97 65 2a 3f 1f 1e 2d 3f b9 d6 28 3f
       0.65843475 0.66561264 0.67624086 0.6595264
0000a0 94 b4 2b 3f 82 17 2a 3f 08 d0 17 3f 8b 32 24 3f
       0.67072415 0.6644212 0.59301805 0.6413962
0000b0 70 44 27 3f 44 ae 28 3f 5f ee 2a 3f e5 f2 2f 3f
       0.653388 0.6589091 0.66769975 0.6873
0000c0 f5 ac 2c 3f 6d 35 32 3f 76 a6 2b 3f c9 86 30 3f
       0.6745141 0.6961277 0.67050874 0.68955666
0000d0 1f 0e 1e 3f f0 b7 1f 3f
       0.617403 0.6239004

data_bn.bias f4 [54]
000000 da 58 23 9b 21 4a 12 b0 b5 1d 48 18 75 cd 80 af
       -1.3511753e-22 -5.3219834e-10 2.5864392e-24 -2.342905e-10
000010 ec de 57 1a 81 9b 13 2a 8b c0 b0 19 c7 71 5c aa
       4.4641033e-23 1.3110174e-13 1.8275741e-23 -1.95794e-13
000020 8e 39 9d 17 8c d5 1e 2d 95 df 27 b5 bf 84 ae ad
       1.0160416e-24 9.028677e-12 -6.25377e-07 -1.9840461e-11
000030 38 0d 5f 36 60 06 19 b5 f6 e8 0d 2a dd d5 d9 9a
       3.3237284e-06 -5.700622e-07 1.260414e-13 -9.009461e-23
000040 e5 49 9f aa f1 e0 39 18 2c f7 e6 35 d6 06 07 2c
       -2.8295348e-13 2.4024256e-24 1.7208272e-06 1.9188449e-12
000050 1c 6a 31 32 d8 af a1 aa 72 da 5f 29 fa 25 0c b6
       1.03268825e-08 -2.872136e-13 4.9705418e-14 -2.088373e-06
000060 85 ef 0e b5 61 76 78 34 c2 37 30 26 94 45 17 2d
       -5.324767e-07 2.3139866e-07 6.113783e-16 8.598806e-12
000070 b5 8d 16 2d 1d 3b 1a 2a c0 7e dc 30 ae 05 b7 27
       8.557978e-12 1.3698457e-13 1.6043131e-09 5.079886e-15
000080 ad 94 e8 29 71 ec 90 29 5e ee 4a 2e ec e1 22 2a
       1.0328661e-13 6.435901e-14 4.6141195e-11 1.4466873e-13
000090 50 5e d5 2d 2b 18 06 2d 5b 30 ba b0 4d 64 9b b6
       2.425718e-11 7.6223845e-12 -1.3547025e-09 -4.6310365e-06
0000a0 7a e7 f8 2d 48 3d 1f a6 55 ad 80 b2 38 50 11 b6
       2.8297132e-11 -5.524726e-16 -1.4979983e-08 -2.1653377e-06
0000b0 18 95 11 2d 2c 8b 0f aa a5 fb cb b6 01 dc b4 2c
       8.275401e-12 -1.2749236e-13 -6.0791667e-06 5.140333e-12
0000c0 ec 5d 14 2a 71 bf cc 34 87 44 da b4 0c 8c d4 b4
       1.3177626e-13 3.8137253e-07 -4.0655524e-07 -3.9589975e-07
0000d0 68 f2 0c 2f a2 4e 02 b0
       1.2819046e-10 -4.740547e-10

data_bn.running_mean f4 [54]
000000 53 a9 72 bd 40 87 8e bd 98 68 4a 3e 05 29 76 bd
       -0.05924351 -0.06959391 0.19766462 -0.060097713
000010 39 0e 53 bd 83 5a 45 3e 7b eb 92 bd 4d de 5b bd
       -0.051527236 0.19272809 -0.071738206 -0.0536788
000020 37 98 37 3e e7 26 ac bd 61 a1 37 bd e1 1d 3c 3e
       0.17929159 -0.084058575 -0.044831637 0.18370773
000030 a6 63 bb bd c3 9a 42 bd 05 4a 41 3e e7 8b 46 bd
       -0.09149866 -0.047510874 0.18875892 -0.048473265
000040 e9 5f 49 bd b0 2e 37 3e 16 20 21 bd b2 9e 10 bd
       -0.049163733 0.17888904 -0.03933724 -0.035307594
000050 67 8e 32 3e d7 d6 04 bd df 41 19 bd 08 f1 2a 3e
       0.17437135 -0.03243145 -0.037416335 0.16693509
000060 26 03 94 bd 3c 6c 0c bc 89 a8 1e 3e d5 bd af bd
       -0.07227163 -0.008570727 0.15493979 -0.085811295
000070 d3 6b 83 3b 3a 16 2e 3e 5e 73 a1 bd fa 5d ba 3c
       0.0040106564 0.17000666 -0.07883333 0.02274989
000080 58 d5 24 3e f4 e9 6c bd 20 97 b4 bb c8 51 1e 3e
       0.16097009 -0.057840303 -0.0055111796 0.15460885
000090 7a d8 53 bd fa 5c 2b 3c b8 51 28 3e 79 21 79 bd
       -0.05172012 0.010459179 0.16437423 -0.060822938
0000a0 2a b3 f8 3c 2f 29 1d 3e 93 5d 7f bd 05 ab 98 bd
       0.03035887 0.15347742 -0.0623451 -0.074544944
0000b0 28 50 4d 3e fe 4b 60 bd 86 05 97 bd c3 01 4d 3e
       0.20050108 -0.05475997 -0.073741004 0.20020203
0000c0 db 22 83 bd b9 74 74 bd 26 69 e2 3d 9d 7b 4c bd
       -0.064031325 -0.059681628 0.11055212 -0.049922574
0000d0 36 9a 86 bd af 2c 12 3e
       -0.06572382 0.14274858

data_bn.running_var f4 [54]
000000 01 72 aa 3b ad a9 06 3c 60 ba b1 3d 78 d3 a2 3b
       0.0052015786 0.008219165 0.08678126 0.0049690567
000010 19 a0 c4 3b 97 d2 a7 3d 81 5a d8 3b d3 95 bf 3b
       0.0060005304 0.08194464 0.006602586 0.005846718
000020 92 24 92 3d ca 9d 13 3c 52 d5 a4 3b b3 d5 97 3d
       0.071358815 0.009009788 0.0050303126 0.07413807
000030 76 9a 38 3c 10 a0 99 3b 95 5d a2 3d 1c a3 80 3b
       0.011267295 0.0046882704 0.079280056 0.003925694
000040 7d 9f ca 3b 1a a6 91 3d c1 4c 65 3b b4 87 cc 3b
       0.0061835633 0.071117595 0.0034988376 0.006241763
000050 c9 d1 89 3d 25 e2 64 3b f3 fc e1 3b 78 61 81 3d
       0.067294665 0.0034924832 0.006896609 0.06317419
000060 4d 89 de 3b 39 7c da 3b 2a d6 5d 3d 34 e6 22 3c
       0.00679127 0.0066676405 0.05415932 0.00994258
000070 41 38 12 3c c3 0a 86 3d 4e 37 14 3c c1 e1 4f 3c
       0.008924545 0.065450214 0.009046389 0.012688101
000080 12 e6 7d 3d 85 4f 9e 3b fc 40 f7 3b 2d cc 5c 3d
       0.06198699 0.004831257 0.0075455885 0.053905655
000090 04 4b 9e 3b ed 9d 36 3c 33 05 78 3d 9e 7c b7 3b
       0.00483072 0.011146051 0.060551833 0.0055995723
0000a0 5b 3e 7f 3c 0b 1e 68 3d 2a c7 b5 3b 2c 69 12 3c
       0.015578832 0.056669276 0.005547424 0.008936208
0000b0 31 42 b8 3d 29 29 98 3b 7d 43 11 3c 32 12 b6 3d
       0.08997 0.0046435785 0.008866188 0.08890189
0000c0 9a 80 b1 3b dd 82 28 3c f7 0f 76 3d 01 80 82 3b
       0.005416942 0.0102851065 0.06007382 0.0039825444
0000d0 d1 02 fc 3b 98 20 7f 3d
       0.0076907654 0.062286943

fai_gcn_networks.0.gcn.conv.weight f4 [96, 3, 1, 1]
000000 de 69 5c a5 27 d1 32 24 78 f7 2b a3 8f 1f 1d 97
       -1.9117827e-16 3.8774756e-17 -9.322332e-18 -5.076927e-25
000010 3c 56 b6 16 82 f2 fc 13 13 da a1 96 8f 02 cc 95
       2.9458107e-25 6.3852875e-27 -2.6148577e-25 -8.239898e-26
000020 a0 2f 10 95 a4 e1 66 9d cc 16 9e 1d d9 43 d2 a3
       -2.9118138e-26 -3.05569e-21 4.1845823e-21 -2.279698e-17
000030 66 08 07 91 63 e4 06 11 1a 91 a2 0d 01 df 7c 21
       -1.065221e-28 1.0641113e-28 1.0018953e-30 8.5676064e-19
000040 d7 c6 97 9f bc 17 6c 1f 99 23 85 92 4a 51 3a 13
       -6.427994e-20 4.9994577e-20 -8.402256e-28 2.351658e-27
000050 b6 f0 41 93 4c f1 37 24 53 93 9b a2 e0 ff 35 23
       -2.4478704e-27 3.9886186e-17 -4.216882e-18 9.866213e-18
000060 e9 1f ce 1c 11 8e 2e 1d 34 a2 f0 9b bc 18 aa a3
       1.3640185e-21 2.3102155e-21 -3.980949e-22 -1.8441912e-17
000070 5a 1b 13 26 33 42 8a a5 ef d9 01 95 95 22 96 14
       5.103794e-16 -2.3984042e-16 -2.6223262e-26 1.515977e-26
000080 93 eb ce 13 89 4a f7 9b ba b9 9c 1b 8d 39 ab 1b
       5.2234005e-27 -4.091089e-22 2.5928058e-22 2.8326768e-22
000090 fa 52 fd 1a 3a 3b 1b 9a 35 dd 55 1a b3 c2 c2 99
       1.04772403e-22 -3.210109e-23 4.4226057e-23 -2.0137768e-23
0000a0 d5 04 12 19 bb be 0b 19 7c 7c 5f a1 fc 4f 5c 22
       7.548999e-24 7.224649e-24 -7.5720093e-19 2.9857903e-18
0000b0 cb 06 64 22 09 9b 2d 9b d2 ec 34 19 ea f9 84 98
       3.0903358e-18 -1.4360319e-22 9.353607e-24 -3.437355e-24
0000c0 16 b1 d8 8b 5e 31 4f 0c dd d8 5a 8d e6 80 79 17
       -8.346662e-32 1.5961556e-31 -6.7437476e-31 8.061893e-25
0000d0 62 2d b6 96 64 46 87 16 cf 7a 12 14 0b dc 4b 94
       -2.9432326e-25 2.185485e-25 7.395336e-27 -1.0292277e-26
0000e0 dc 68 60 13 f7 09 1a 19 ba bc 1f 98 a2 a6 fc 98
       2.8324475e-27 7.963626e-24 -2.064555e-24 -6.530873e-24
0000f0 e3 08 74 94 7e e3 9f 13 94 43 81 13 8e c6 04 15
       -1.23206045e-26 4.0361567e-27 3.2630815e-27 2.681382e-26
000100 d8 34 14 16 3c 81 2d 95 cb b1 c8 94 77 0f 1a 14
       1.1972019e-25 -3.503902e-26 -2.0264966e-26 7.778063e-27
000110 84 0c c5 9b d2 b9 27 1a 4d 24 10 9a c1 14 4a 9a
       -3.2599004e-22 3.4684895e-23 -2.9807826e-23 -4.1789386e-23
000120 e2 ea 3e a0 44 8a 96 20 48 e8 96 a0 dc 4c 68 9e
       -1.6171342e-19 2.5502485e-19 -2.55647e-19 -1.2297872e-20
000130 d1 c0 7c 9b f8 47 06 1b 0d e8 b1 10 41 64 1b 90
       -2.0907254e-22 1.1107475e-22 7.017172e-29 -3.0645593e-29
000140 f1 6a 9c 8d 55 09 86 99 e6 41 42 99 f0 34 4b 17
       -9.6399875e-31 -1.3859044e-23 -1.0042873e-23 6.5659654e-25
000150 e7 4f f9 9b d0 b3 85 1a 90 e5 34 9b 40 eb 74 9d
       -4.124523e-22 5.5298013e-23 -1.4963427e-22 -3.2414753e-21
000160 4c ea eb 9c fa 01 dd 1b 08 c2 ce 96 64 4f 2e 97
       -1.561156e-21 3.656266e-22 -3.3403546e-25 -5.6322637e-25
000170 eb 01 39 17 0c 4e 69 a1 d3 ef 85 9f b7 c3 2c 9e
       5.9779145e-25 -7.9046765e-19 -5.672445e-20 -9.146077e-21
000180 46 e3 c0 a7 ce 27 ce 24 a5 9c 8c 23 c0 49 91 96
       -5.3537116e-15 8.940569e-17 1.5245172e-17 -2.3472556e-25
000190 bb 79 82 96 93 5a 0f 15 2a 3e 04 98 8f 5e 3b 18
       -2.1079455e-25 2.895007e-26 -1.7091985e-24 2.4216923e-24
0001a0 90 ec c6 95 b3 96 19 a0 0f 9c 3e 9f ac 27 b7 1f
       -8.034479e-26 -1.3009466e-19 -4.0363154e-20 7.7569146e-20
0001b0 c6 89 e6 91 4b b5 2c 92 92 5d ad 90 b9 3e 76 a0
       -3.637251e-28 -5.449709e-28 -6.8380636e-29 -2.0857764e-19
0001c0 3c f4 24 21 66 f4 f1 1f ca ad 95 12 ef 86 e2 12
       5.5888603e-19 1.02471793e-19 9.446064e-28 1.4295869e-27
0001d0 57 01 c7 90 61 b2 74 23 c2 86 aa 28 2c 4c c6 21
       -7.8493724e-29 1.326504e-17 1.8932233e-14 1.3437164e-18
0001e0 1e d7 63 9c 78 b4 0d 1d 8c f9 fa 1a c7 ce 89 27
       -7.538603e-22 1.8754495e-21 1.0380074e-22 3.8249327e-15
0001f0 ed 84 68 a6 7d d6 ba 25 97 2f d7 94 47 ae 35 15
       -8.0671317e-16 3.24112e-16 -2.1728223e-26 3.669014e-26
000200 1e 93 33 93 5a d7 cf 9b 34 7a 93 1c cc 3d b8 1a
       -2.266551e-27 -3.4384445e-22 9.759233e-22 7.6200455e-23
000210 df 60 78 9b 19 20 d1 9a b3 07 f8 99 57 11 a7 9b
       -2.054538e-22 -8.649223e-23 -2.5645709e-23 -2.7639038e-22
000220 68 08 61 1c fd cd 56 9a de 0d c3 a2 4c bb a0 22
       7.445712e-22 -4.442056e-23 -5.286954e-18 4.3566395e-18
000230 8a 07 70 21 b8 7a 10 9c b7 e0 63 1b 61 be 8e 99
       8.132514e-19 -4.7804214e-22 1.8849609e-22 -1.475935e-23
000240 a0 fc af 8b ea 23 c0 88 e4 cc c8 89 b8 dc 9f 98
       -6.7787656e-32 -1.1564023e-33 -4.8340927e-33 -4.1323406e-24
000250 a1 eb 9c 18 72 a5 92 16 8a d8 2e 16 9f 73 1a 96
       4.056298e-24 2.3691983e-25 1.4123936e-25 -1.2476505e-25
000260 8f 60 89 15 ef 1c 8d 98 cc ad 1f 99 9d 7d bb 16
       5.54862e-26 -3.647686e-24 -8.255205e-24 3.0290753e-25
000270 7c 24 0d 95 0c 8e 2b 15 3e b5 6c 13 00 58 20 15
       -2.8503504e-26 3.464523e-26 2.9876747e-27 3.2381162e-26
000280 00 b4 4a 96 bd ec 7f 15 c9 88 e8 94 2c be 8d 95
       -1.6374228e-25 5.1683593e-26 -2.3479966e-26 -5.7249485e-26
000290 fd 86 a3 96 89 21 dd 1a a6 25 0d 1a ea 5d 75 99
       -2.641926e-25 9.1457637e-23 2.918853e-23 -1.2685169e-23
0002a0 8a 0f 37 21 2f cd 4f a1 8f 64 14 9f 91 05 31 9d
       6.202338e-19 -7.0405886e-19 -3.14234e-20 -2.3428633e-21
0002b0 62 71 c6 9c 03 c7 97 1a 16 33 5f 91 36 94 7b 91
       -1.313185e-21 6.277366e-23 -1.760734e-28 -1.984608e-28
0002c0 86 3b 03 90 f4 a1 08 9b 28 ed 44 9b 96 7b 1e 19
       -2.588105e-29 -1.1301986e-22 -1.6289369e-22 8.1933665e-24
0002d0 91 05 f1 9b b9 63 88 9b 18 91 5b 9b 3d af 1d 1d
       -3.9873703e-22 -2.2563757e-22 -1.8162138e-22 2.0869373e-21
0002e0 2c a9 d3 9b 6b 15 fd 1c ef 4d e3 9c 52 37 67 98
       -3.5016347e-22 1.6747672e-21 -1.5041745e-21 -2.988398e-24
0002f0 a3 fe 13 97 b9 91 8b 9f 28 e8 dc 20 00 fe 97 20
       -4.781966e-25 -5.910987e-20 3.7423078e-19 2.5748478e-19
000300 7f ef de a5 41 4e 15 a5 20 bf 97 24 50 ff 3e 16
       -3.867315e-16 -1.2950203e-16 6.580959e-17 1.542864e-25
000310 70 89 7c 16 fa 4a e6 13 3e ac 7e 15 a9 dd ba 95
       2.0399766e-25 5.8134095e-27 5.1430767e-26 -7.547452e-26
000320 d4 dd 02 14 34 c6 42 9d 60 a1 1a 1d 18 07 b7 1b
       6.607071e-27 -2.5778155e-21 2.046516e-21 3.0279395e-22
000330 1b fc 15 90 f0 c6 91 0d 9e bd 03 0f ad 95 06 22
       -2.9579284e-29 8.984207e-31 6.4953176e-30 1.8239624e-18
000340 9e 04 ce 1f 06 fc 68 9c 81 6c a0 10 da 48 48 91
       8.725203e-20 -7.7088094e-22 6.327605e-29 -1.5799667e-28
000350 1a a8 36 11 5b 4c 37 23 ca 5f 0a 23 5d ea 9f a2
       1.4409069e-28 9.936619e-18 7.501279e-18 -4.334518e-18
000360 4e d1 87 99 09 ab 03 9a 5f 87 98 98 5e 45 a3 25
       -1.404321e-23 -2.7228326e-23 -3.942777e-24 2.8322998e-16
000370 cd 68 ed 24 b8 c0 48 26 9e 9b cb 11 56 48 bf 92
       1.02959905e-16 6.965012e-16 3.212366e-28 -1.2071627e-27
000380 41 d9 51 11 6c 07 7f 1a fd e5 7a 9b af 84 39 19
       1.655414e-28 5.273876e-23 -2.0753829e-22 9.591071e-24
000390 58 27 11 99 2d cd b6 9f 1d 2d 0a 18 cc 25 9d 99
       -7.50427e-24 -7.741943e-20 1.7858858e-24 -1.6248686e-23
0003a0 33 45 03 99 54 f0 3e 18 93 57 b6 20 ba e2 af 21
       -6.786516e-24 2.467826e-24 3.088995e-19 1.1918475e-18
0003b0 f9 6b 9b 1f 40 b1 a5 99 e3 20 15 9a 2b 25 94 18
       6.582368e-20 -1.7132191e-23 -3.0839043e-23 3.8294633e-24
0003c0 f7 d9 46 8a 51 38 3d 8b e3 41 08 8b 24 2a 94 95
       -9.574348e-33 -3.6442444e-32 -2.6242215e-32 -5.984321e-26
0003d0 d9 d0 1e 97 a3 be 20 94 72 25 03 94 1f 52 f0 13
       -5.1316156e-25 -8.115532e-27 -6.621195e-27 6.0665495e-27
0003e0 9c ed 17 92 c0 5d c9 15 af 80 18 96 76 68 2d 95
       -4.7940075e-28 8.1331165e-26 -1.2319068e-25 -3.5019477e-26
0003f0 48 f9 23 96 66 e8 ca 92 38 f6 75 91 5d 99 74 93
       -1.3245694e-25 -1.2805283e-27 -1.9402964e-28 -3.0872744e-27

fai_gcn_networks.0.gcn.conv.bias f4 [96]
000000 92 f3 ca 2f 18 93 c2 a0 65 11 af 21 9e 42 a4 a6
       3.6916653e-10 -3.2962217e-19 1.1863066e-18 -1.1397843e-15
000010 d8 2f 9f 9a 9d ec 67 2a 16 e6 2d 96 9c fb 7f 24
       -6.5838154e-23 2.0599013e-13 -1.4047431e-25 5.5507432e-17
000020 c0 9c a3 25 5c fa 09 a9 5c 98 b3 9d 8b af 22 a6
       2.838221e-16 -3.0637263e-14 -4.753844e-21 -5.6442946e-16
000030 b1 79 b1 a5 ce c7 4d 26 7e 68 2a ad c5 1f a8 26
       -3.0787067e-16 7.139445e-16 -9.686583e-12 1.1665953e-15
000040 4c 54 06 95 7c 74 06 a1 a9 3c 0b a0 61 72 84 23
       -2.7127583e-26 -4.555513e-19 -1.1793829e-19 1.435991e-17
000050 b8 af 92 9e 84 ce 33 a1 09 f2 21 16 44 b3 06 a5
       -1.5531027e-20 -6.092088e-19 1.3081849e-25 -1.1683385e-16
000060 18 fc 8d 2b 12 de 67 a3 fc cf b8 9a 42 29 eb a5
       1.0088623e-12 -1.256956e-17 -7.6436633e-23 -4.079396e-16
000070 ac b3 04 27 ee f9 9c a7 8d 99 19 1a 08 99 25 2b
       1.841608e-15 -4.3569672e-15 3.1763696e-23 5.883215e-13
000080 d4 09 8c b0 e9 8a ee a0 c6 a6 a3 22 c7 02 9d a8
       -1.0189134e-09 -4.0410691e-19 4.4357817e-18 -1.7431706e-14
000090 cc d4 3f 9b cd f7 3d ab a0 85 14 95 76 11 e3 a4
       -1.5867908e-22 -6.749018e-13 -2.9993774e-26 -9.847514e-17
0000a0 70 5f 31 a5 95 cd 2c a9 a1 0c c3 9d 63 e9 8d a6
       -1.5384638e-16 -3.8369986e-14 -5.162913e-21 -9.8471e-16
0000b0 8d 7c 33 a6 a5 95 8f 26 4c 5e 1a ad 4e aa 37 27
       -6.22719e-16 9.96318e-16 -8.774825e-12 2.5488674e-15
0000c0 92 76 17 97 85 e1 33 a2 9f aa 83 20 5d 29 b3 23
       -4.894039e-25 -2.4378413e-18 2.230517e-19 1.9424737e-17
0000d0 d1 2c ae 20 cd f0 63 a0 e8 38 96 17 35 8c 15 a5
       2.9506404e-19 -1.9307322e-19 9.707888e-25 -1.2971194e-16
0000e0 9e 33 b5 2b b6 88 1c a3 2c 29 a9 9a f7 af 5f a5
       1.287515e-12 -8.485727e-18 -6.996328e-23 -1.9401786e-16
0000f0 c9 cc 5d 27 f2 a7 af a7 01 ab 72 19 10 10 7c 2b
       3.0780925e-15 -4.8754344e-15 1.2545641e-23 8.9550676e-13
000100 e8 ee 86 2e 59 c4 2e a0 28 f0 bb 22 c6 00 f0 a8
       6.136053e-11 -1.4803339e-19 5.0940727e-18 -2.6645688e-14
000110 b5 54 80 1b 1a 41 b7 aa f9 59 3d 96 e8 98 2b 25
       2.1230564e-22 -3.2552503e-13 -1.5295689e-25 1.4883692e-16
000120 48 84 d0 25 de b1 af a8 da 1d 1b 9e c6 1b 37 27
       3.6171886e-16 -1.950604e-14 -8.211805e-21 2.5411408e-15
000130 31 61 9d 26 af 92 cf 25 a4 cb 21 ad a2 76 9a 23
       1.0920407e-15 3.6008173e-16 -9.197008e-12 1.6746956e-17
000140 62 48 4f 17 ba 07 75 a2 07 73 11 20 22 8c 8d a0
       6.6976667e-25 -3.3207782e-18 1.2320037e-19 -2.397906e-19
000150 b0 5b 08 a0 95 90 12 1f 4b ae d0 17 47 3c 57 24
       -1.1549985e-19 3.1036298e-20 1.3485683e-24 4.667175e-17
000160 30 f7 1b 29 cc ca 06 a4 25 45 7c 1b f0 f9 b9 25
       3.4631315e-14 -2.9228394e-17 2.0867293e-22 3.2261749e-16
000170 da 99 17 25 6f 26 ce a7 f3 ff 13 18 c3 1b 69 aa
       1.3149289e-16 -5.7218156e-15 1.9128526e-24 -2.0704189e-13

fai_gcn_networks.1.gcn.conv.weight f4 [192, 32, 1, 1]
000000 c0 40 ab 2e 59 2e 2e 1d c7 37 49 20 2d 8e ee 25
       7.7876816e-11 2.305267e-21 1.7043817e-19 4.138276e-16
000010 6f 2f d4 97 af 28 49 a7 25 38 bc 11 e5 77 5b 24
       -1.3712153e-24 -2.7916408e-15 2.9695772e-28 4.758961e-17
000020 2c f3 16 a4 b4 a1 78 26 e7 54 f7 1c 8f 86 14 24
       -3.273204e-17 8.6261433e-16 1.6367036e-21 3.220636e-17
000030 a7 97 36 a1 f0 1c 04 25 62 78 62 28 2b d5 2b a3
       -6.186471e-19 1.145898e-16 1.2571624e-14 -9.315069e-18
000040 85 2a c6 92 49 48 31 1f 15 eb 30 9c de 90 e4 1f
       -1.2506039e-27 3.7541e-20 -5.853735e-22 9.680142e-20
000050 3d 98 8f 1c d4 8b ac 1d d6 17 93 17 91 1b 8b 21
       9.502299e-22 4.56726e-21 9.505669e-25 9.426303e-19
000060 5f ac 74 a8 e7 ef 99 20 34 34 f6 96 fb d3 b4 22
       -1.3582098e-14 2.6077962e-19 -3.9776388e-25 4.901354e-18
000070 e2 82 79 25 a0 94 04 22 94 65 86 18 f3 0f ed a8
       2.1641652e-16 1.7968017e-18 3.4740756e-24 -2.6319203e-14
000080 e9 7f ae 2e 85 3c 49 9c bc 4b 2a 20 67 55 67 26
       7.935325e-11 -6.658354e-22 1.4424619e-19 8.0259966e-16
000090 e6 cd b1 97 04 00 62 a8 7e 41 66 15 d4 66 01 24
       -1.1490333e-24 -1.25455236e-14 4.6499794e-26 2.8059515e-17
0000a0 bc 1c 97 a3 18 15 9a 24 a0 5f 8f 9b 93 a3 7d 22
       -1.6383622e-17 6.682259e-17 -2.3719162e-22 3.437449e-18
0000b0 0d 93 bc a2 3b a7 3b 24 1c 6e 12 2a 75 44 06 23
       -5.11132e-18 4.069081e-17 1.3005607e-13 7.278651e-18
0000c0 52 af 01 95 14 d1 60 1e 8f 9e 6a 1c 70 79 c0 1f
       -2.6189646e-26 1.1901698e-20 7.762904e-22 8.1516064e-20
0000d0 36 5c 6c 1c 8c 53 a1 1d 1a 44 90 17 65 c7 94 21
       7.820503e-22 4.270273e-21 9.322973e-25 1.0081649e-18
0000e0 06 27 9c 27 31 48 0b 21 86 d4 fd 17 64 64 bf a0
       4.3341007e-15 4.7190576e-19 1.640339e-24 -3.2423092e-19
0000f0 54 58 a4 a2 cf df 69 24 96 00 8b 18 e4 c1 76 29
       -4.454581e-18 5.0713394e-17 3.593125e-24 5.4791146e-14
000100 ef 53 0e 99 17 ff 7c 8b 43 bc 36 8b ab 81 73 93
       -7.358178e-24 -4.8725343e-32 -3.5193557e-32 -3.0734843e-27
000110 f3 fb b8 86 fa a3 f2 95 f2 b4 70 80 a9 b8 a3 0f
       -6.9583313e-35 -9.800173e-26 -1.0350487e-38 1.614417e-29
000120 7f 6a 35 0b ec 98 51 90 19 03 0d 89 f2 a1 9b 0f
       3.493945e-32 -4.133579e-29 -1.6973714e-33 1.5346559e-29
000130 5b 04 f8 8f 6d d0 ea 8f 32 97 f5 15 b7 75 86 90
       -2.4456366e-29 -2.3154464e-29 9.9193256e-26 -5.303505e-29
000140 0c 6d 4d 02 84 73 1f 0d 85 ee 19 8b d2 09 52 0c
       1.5092316e-37 4.9134705e-31 -2.964617e-32 1.6180767e-31
000150 c7 9f 2a 0a 3a 74 73 09 e9 0f 08 05 5b 15 ac 0d
       8.215253e-33 2.930471e-33 6.3976115e-36 1.060546e-30
000160 53 49 03 13 eb 96 fd 0c c2 aa fb 83 7a 6d 07 0e
       1.6570676e-27 3.9071653e-31 -1.4791658e-36 1.6692746e-30
000170 00 01 38 90 33 cc ea 11 4e 8b 1e 06 e8 5a b9 17
       -3.6288372e-29 3.7044538e-28 2.9818842e-35 1.1978293e-24
000180 74 4c a0 ae 8b a2 bb 9e 21 b1 50 1f 26 67 ec 25
       -7.2895384e-11 -1.9866621e-20 4.419223e-20 4.100937e-16
000190 4b 14 d7 99 c4 f5 c7 a5 0a 35 7a 12 c1 5a be 24
       -2.2238675e-23 -3.4687534e-16 7.8951466e-28 8.255311e-17
0001a0 0a 1b 04 24 0f e6 96 24 29 09 15 1d 18 5f 9b 22
       2.864584e-17 6.5441865e-17 1.9724721e-21 4.211352e-18
0001b0 1c fb f2 22 5c 09 52 24 6e 36 71 a9 52 22 62 a3
       6.5860104e-18 4.554442e-17 -5.355996e-14 -1.2258752e-17
0001c0 be d0 54 93 3a fc 98 9d 1d 2a 84 1d eb 9d db 1f
       -2.686108e-27 -4.049486e-21 3.4983653e-21 9.301136e-20
0001d0 cc 27 7d 1c ee c4 06 1e f2 51 40 17 56 12 a5 20
       8.3762114e-22 7.134625e-21 6.2141975e-25 2.796422e-19
0001e0 b8 c1 51 29 21 fc b9 21 bc e7 00 18 85 6b 13 23
       4.6575347e-14 1.2602826e-18 1.6660608e-24 7.991654e-18
0001f0 2d 4c a8 22 b7 53 81 23 d0 29 0c 19 82 99 ba 27
       4.5617145e-18 1.4021663e-17 7.246274e-24 5.1791804e-15
000200 e1 13 67 2e e2 4a 4e 9d 7c e4 57 1f fa 39 93 27
       5.2540975e-11 -2.7302586e-21 4.571702e-20 4.0863554e-15
000210 fb 8c 25 19 fa f2 30 a7 89 94 38 12 a2 a3 c2 24
       8.558771e-24 -2.4556624e-15 5.8243246e-28 8.4411293e-17
000220 8f 36 3e 23 66 ff 48 24 8d fa b9 1c 2c dd 34 23
       1.0311474e-17 4.3584418e-17 1.2307039e-21 9.8046545e-18
000230 9b 56 1a a2 7d c6 65 21 b1 78 62 28 56 f0 cb 22
       -2.091674e-18 7.7850915e-19 1.2571691e-14 5.5277726e-18
000240 dc 5e a5 93 3a 57 2b 9f 18 e2 2d 1d 8e 1e da 9f
       -4.1745394e-27 -3.628281e-20 2.3013247e-21 -9.237714e-20
000250 3f 41 41 1b ae 4d 4e 1d d3 74 6c 17 a3 9d 92 20
       1.5985668e-22 2.7304032e-21 7.6403166e-25 2.4837677e-19
000260 ea 01 84 a8 87 e7 fb 1f 2d 37 2f 18 67 af 86 22
       -1.4655774e-14 1.06685665e-19 2.2646077e-24 3.6506487e-18
000270 bf 58 1e a2 c3 86 12 24 af 93 9f 18 d6 02 4b 2a
       -2.1459975e-18 3.177285e-17 4.124966e-24 1.8031006e-13
000280 b7 3d ae 2e ef 98 eb 1c 50 05 8b 1e f8 6a b2 25
       7.923567e-11 1.5590528e-21 1.4719395e-20 3.0950563e-16
000290 b7 fb 91 18 92 2d c8 26 72 f3 27 14 b0 b4 c4 24
       3.773579e-24 1.389014e-15 8.4793565e-27 8.530755e-17
0002a0 18 76 6a a3 91 59 cf 26 6b ce f0 9c f8 ce cb 22
       -1.2710173e-17 1.4387787e-15 -1.5935226e-21 5.5242397e-18
0002b0 39 bf 4d a1 43 11 93 a3 35 2c 6d a9 d9 d8 20 a3
       -6.9709783e-19 -1.5945083e-17 -5.2662915e-14 -8.719537e-18
0002c0 a9 51 87 93 5c 17 fe 1f 8e f5 65 1c d4 df 37 9e
       -3.4159314e-27 1.0761183e-19 7.6087116e-22 -9.734226e-21
0002d0 10 0e 1d 1e af 0f a5 1d 29 b9 69 18 a9 df a5 20
       8.314419e-21 4.3691353e-21 3.0208026e-24 2.8100093e-19
0002e0 f5 ac 4b 29 b3 0e 3d 21 04 cf 4a 18 fe 24 31 a2
       4.522507e-14 6.4055145e-19 2.6212404e-24 -2.4007557e-18
0002f0 7d f2 0e 23 ec a1 29 a2 9d fa bf 18 18 e3 ff 28
       7.749184e-18 -2.2989492e-18 4.9625398e-24 2.8409173e-14
000300 e8 b7 f7 2d f7 c0 08 1d 48 b5 4a 9f 53 7f e1 26
       2.816232e-11 1.809921e-21 -4.2925116e-20 1.5647023e-15
000310 27 e5 83 18 97 29 96 26 91 1f 80 12 f5 63 0c 24
       3.409409e-24 1.0419614e-15 8.085717e-28 3.0442328e-17
000320 da 2c db a2 69 0f 0c 25 db 70 0c 1b b9 35 4a a4
       -5.9407557e-18 1.2148285e-16 1.1616994e-22 -4.3847273e-17
000330 e6 7d e1 22 67 92 94 21 d9 b7 d2 a8 26 a1 01 22
       6.1119672e-18 1.0067622e-18 -2.3394415e-14 1.7568071e-18
000340 77 5f 0b 93 b8 f2 54 1e 12 26 68 1c e1 ec 74 9d
       -1.7591334e-27 1.127338e-20 7.6811566e-22 -3.2415595e-21
000350 ea 12 09 1c 42 fd f8 1c 60 9a 1c 15 bb 2e e3 1f
       4.5353943e-22 1.6476729e-21 3.162573e-26 9.621555e-20
000360 52 8c 6a 27 10 5e 03 1f a2 e3 02 18 71 c9 d1 21
       3.2550091e-15 2.7818136e-20 1.6917031e-24 1.4215712e-18
000370 48 38 83 22 2b c1 e1 22 83 9d 19 19 42 d3 87 29
       3.556721e-18 6.1190897e-18 7.941724e-24 6.031852e-14
000380 4f d3 44 16 ca 61 18 87 30 e8 e5 87 b2 f6 81 0f
       1.5899431e-25 -1.1463947e-34 -3.4592558e-34 1.2815406e-29
000390 76 c1 63 82 ba 59 5c 91 e4 3b 8d a2 d7 c3 10 8e
       -1.6732847e-37 -1.7382589e-28 -3.828154e-18 -1.7843664e-30
0003a0 a7 92 f9 8b 00 5c 5f 0d 34 4a e6 04 79 c0 2e 0c
       -9.613197e-32 6.882792e-31 5.4140885e-36 1.3462393e-31
0003b0 81 72 26 8c 68 17 8f 08 3b 9d da 13 7f ff 40 0b
       -1.2822632e-31 8.612002e-34 5.5185978e-27 3.717007e-32
0003c0 3a 17 07 80 b9 03 1c 87 5f 1e 29 86 c7 17 c5 89
       -6.5118e-40 -1.173723e-34 -3.180768e-35 -4.7448385e-33
0003d0 7c 8f b8 84 0c cd 17 88 96 05 ef a5 cd 3b f7 86
       -4.338996e-36 -4.568094e-34 -4.1463676e-16 -9.299894e-35
0003e0 f4 18 40 10 b2 fb 1b a1 e3 7f 6a 82 ab 45 58 0b
       3.7884547e-29 -5.284916e-19 -1.7228307e-37 4.16525e-32
0003f0 4d 7d 1f 25 df 60 05 0d 88 3d 3b 81 d0 58 a0 92
       1.3833505e-16 4.1100394e-31 -3.4390622e-38 -1.0119314e-27

fai_gcn_networks.1.gcn.conv.bias f4 [192]
000000 43 02 1a 3d 16 f1 17 3d c9 c6 0e 29 1d 77 17 3d
       0.037599813 0.03709515 3.1702753e-14 0.03697883
000010 3b b5 16 3d f4 1f 19 3d 9e 0e 5d 3c db d7 de 25
       0.03679393 0.03738399 0.013492255 3.865713e-16
000020 e7 25 18 3d 19 1c 18 3d c4 c5 80 29 f9 71 82 3c
       0.03714552 0.03713617 5.718649e-14 0.015923487
000030 34 8c 1a 3d d6 55 1b 3d 0a 7c 1a 3d ea 59 1a 3d
       0.037731364 0.037923656 0.03771595 0.037683405
000040 9c 91 19 3d 49 01 1b 3d a0 25 17 3d 25 61 db 3c
       0.03749238 0.037843022 0.036901116 0.02677972
000050 79 d4 9a 3c 8a 27 8b 3c 27 ad ed 29 21 c6 f9 28
       0.018900143 0.016986627 1.05549514e-13 2.7730478e-14
000060 ba 16 19 3d 90 b0 c8 2d e9 ad 1a 3d c1 f1 ea 29
       0.03737519 2.2815777e-11 0.03776351 1.0433625e-13
000070 55 3d 85 a8 63 1f a1 2a ed b2 19 3d c3 6e 1a 3d
       -1.4792565e-14 2.8621124e-13 0.037524153 0.037703287
000080 a1 a8 ad aa ae a8 ef a7 c5 7f 1b 3d 23 22 5f 27
       -3.0847983e-13 -6.651871e-15 0.037963647 3.0965972e-15
000090 12 50 0e 3d 2a d0 16 29 98 54 5a 29 d8 7c a2 3c
       0.03474433 3.3487244e-14 4.8479097e-14 0.01983492
0000a0 55 53 1c 3d 06 17 19 3d 30 83 14 3d 05 2d 1b 3d
       0.03816541 0.037375472 0.036257923 0.03788473
0000b0 42 ad 94 2b 4f f7 1a 3d 0c 1e 93 2a 77 e5 1a 3d
       1.0564121e-12 0.037833508 2.6133295e-13 0.03781649
0000c0 85 f7 0f 2d 53 e9 4a b2 f0 12 1a 3d 12 b9 1c 3d
       8.183569e-12 -1.1810999e-08 0.037615716 0.038262434
0000d0 66 67 22 29 da 03 12 aa 54 72 1b 3d 4c 81 17 3d
       3.606091e-14 -1.2968741e-13 0.03795083 0.03698854
0000e0 11 ad 44 2b 8b 7f 18 3d c0 da d2 28 8d 80 22 2b
       6.9873366e-13 0.03723101 2.3409551e-14 5.773236e-13
0000f0 5e b7 2a 28 6a 68 1a 3d a0 08 1b 3d 62 56 97 29
       9.476657e-15 0.037697233 0.037850022 6.720732e-14
000100 a3 18 43 3d 47 b0 40 3d 7b 9e 98 28 f0 e8 3e 3d
       0.047630917 0.04704311 1.694412e-14 0.046608865
000110 d5 65 3f 3d 16 fe 41 3d 84 dd 90 3c ec 53 09 25
       0.046727974 0.047361456 0.017683752 1.191129e-16
000120 79 bd 40 3d a2 97 3f 3d ba 9e b9 29 63 5a aa 3c
       0.047055695 0.046775468 8.243185e-14 0.020795053
000130 6d 56 43 3d 16 53 44 3d 1d f2 43 3d 15 8c 43 3d
       0.047689844 0.0479308 0.04783832 0.047741015
000140 ab 82 41 3d 0c c1 43 3d 11 5b 3f 3d 53 20 0d 3d
       0.047243755 0.047791526 0.046717707 0.034454655
000150 08 56 c9 3c 43 6f b5 3c 37 61 4c 2a a4 03 3e 29
       0.024577156 0.02214778 1.8152568e-13 4.2191633e-14
000160 66 37 42 3d be e2 0b 2e 7a 7b 43 3d 55 aa 38 2a
       0.047416113 3.180633e-11 0.04772518 1.6401579e-13
000170 6b 36 c2 a8 a3 fe cc 2b d8 05 42 3d f5 c8 43 3d
       -2.1561927e-14 1.4565748e-12 0.047368854 0.04779907
000180 ca f7 de aa f9 6c b1 a7 94 9c 44 3d aa c9 b7 a5
       -3.960706e-13 -4.9245517e-15 0.048000887 -3.1882092e-16
000190 ef 47 35 3d 28 88 52 28 51 f4 3c 28 37 05 d3 3c
       0.044258054 1.1686866e-14 1.0489074e-14 0.025759323
0001a0 3d 62 45 3d 10 a4 41 3d 87 b2 3c 3d 3e bc 44 3d
       0.04818939 0.047275603 0.046068694 0.048031084
0001b0 bb c6 9f 2b a4 84 44 3d b9 fa 81 29 c6 5d 44 3d
       1.1352788e-12 0.04797806 5.772244e-14 0.04794099
0001c0 2a 94 1c ac ff 6a 16 b2 f3 36 43 3d 5d d6 45 3d
       -2.225118e-12 -8.755477e-09 0.047659826 0.048300136
0001d0 66 31 85 29 a2 55 da a9 c3 0e 45 3d ac 62 40 3d
       5.914956e-14 -9.696e-14 0.04810978 0.0469691
0001e0 26 04 0f 2b 83 d8 40 3d 79 7f 9a 27 dc 0a 8e 2b
       5.0809563e-13 0.04708148 4.2881793e-15 1.0092721e-12
0001f0 1e ac b4 27 5a d4 43 3d 9c 9b 44 3d a8 98 6a 29
       5.0146646e-15 0.047809936 0.047999963 5.2090846e-14
000200 57 7b 72 3c fb 0f 6f 3c 72 a2 55 a9 b9 97 6e 3c
       0.014799914 0.014591212 -4.74364e-14 0.014562541
000210 2e 11 6d 3c 2d 06 71 3c be 90 a9 3b 92 b3 04 a5
       0.014469428 0.014710945 0.0051747253 -1.1510016e-16
000220 74 73 6f 3c 93 b2 6f 3c 72 7b 38 a5 b1 b0 c8 3b
       0.0146149285 0.014629978 -1.6001281e-16 0.006124579
000230 fb 6f 73 3c f7 b9 74 3c ae 40 73 3c c5 09 73 3c
       0.014858241 0.014936916 0.014846964 0.014833872
000240 db 07 72 3c 4e 36 74 3c 45 d6 6d 3c f8 b8 2a 3c
       0.014772381 0.014905525 0.014516418 0.010420077
000250 6a fd ee 3b 9d 57 d6 3b 74 0b 14 26 af 60 8a a9
       0.007293393 0.006541206 5.1363337e-16 -6.145203e-14
000260 0a f4 70 3c cd ef eb 2c 8c a7 73 3c 91 f7 ef a6
       0.014706621 6.705725e-12 0.014871489 -1.6651059e-15
000270 be 9a 24 29 46 de 7c 2b c7 1e 72 3c 3c 29 73 3c
       3.6549533e-14 8.983685e-13 0.014777846 0.014841374
000280 cd 37 06 2b 00 ba 1c 26 67 f6 74 3c cf e4 3c 28
       4.76838e-13 5.437545e-16 0.014951325 1.0485711e-14
000290 9c 53 5f 3c e0 5f 1a 2a 5c 1c 91 2a f2 0f fb 3b
       0.013630774 1.3711211e-13 2.5776852e-13 0.007661813
0002a0 ad 5e 76 3c fa 08 71 3c a6 73 69 3c 64 62 74 3c
       0.015037221 0.014711613 0.014248764 0.014916036
0002b0 2f d4 b0 2b fa 09 74 3c 48 69 01 2c 72 ec 73 3c
       1.2564445e-12 0.014894957 1.8390445e-12 0.014887916
0002c0 85 35 39 2d 5a 91 36 31 76 95 72 3c 96 09 77 3c
       1.0527916e-11 2.6567109e-09 0.014806142 0.015077969
0002d0 63 ac 9c 27 74 f9 1e aa 8a d3 74 3c 63 5d 6e 3c
       4.34856e-15 -1.4119765e-13 0.014943013 0.014548632
0002e0 25 e2 67 aa e4 0a 70 3c 56 ab 49 2a 82 53 d0 a9
       -2.0595381e-13 0.014651034 1.791183e-13 -9.251542e-14
0002f0 ca a6 d5 a7 d4 1c 73 3c 6e 27 74 3c 7c d8 40 a9
       -5.930021e-15 0.014838416 0.014901979 -4.2820334e-14

fai_gcn_networks.1.residual.0.weight f4 [64, 32, 1, 1]
000000 1e 26 9b 3c 30 5b c9 bb c9 cc 06 bd c7 6e 73 bc
       0.018939074 -0.0061449036 -0.032910142 -0.014857954
000010 76 d8 84 ba ea 8a 81 3a 0e 74 c6 3c 00 56 79 bc
       -0.0010135311 0.0009883319 0.024225261 -0.015218258
000020 e0 86 cd 3b 92 c7 8d bc 7e be 4b bc 0f 94 21 3c
       0.006272182 -0.017307077 -0.012435554 0.00986196
000030 e2 a6 89 3c b7 ab b4 bc 26 06 6e bc c7 e0 1d 3c
       0.016803209 -0.022054536 -0.014527833 0.009636111
000040 0d ba 8b bc 99 a7 41 bd 0c 50 58 bc fb f9 1e 3a
       -0.01705649 -0.047278974 -0.013202678 0.00060644717
000050 c3 0a fc 38 3e fb 2f bc 7b 13 96 3c 67 b8 53 3b
       0.00012018301 -0.010741053 0.018319836 0.0032305957
000060 1f b0 09 3b 9e 22 9f bc 4d 9c 1b bc 26 a1 4f 3c
       0.0021009517 -0.019425686 -0.009497714 0.012672698
000070 a2 5d 53 3a 09 67 29 bc d2 7a 7d bc d4 1b 48 3c
       0.00080629636 -0.010339507 -0.015471177 0.012213666
000080 81 aa 2b bd f2 1e 68 bc 4e 5d b8 3c 2b 43 17 3d
       -0.041910652 -0.014167534 0.022505429 0.03692929
000090 6d d8 00 bc 17 a9 88 bc f6 a7 0d 3c 50 cd 80 3c
       -0.0078641 -0.01668219 0.008646002 0.0157229
0000a0 20 ec 5d 3c 9b e4 0b 3c b7 cd 17 3c 80 4a 99 3c
       0.013545066 0.0085383905 0.009265355 0.018712282
0000b0 30 52 ea 3c e8 ec 95 bb 84 db 90 3b ae d0 bc 3c
       0.028603643 -0.0045753606 0.0044206996 0.023048725
0000c0 b5 b6 fc 3c 09 19 40 3d e0 f0 5a bb be 38 b2 bc
       0.03084884 0.046898875 -0.0033407733 -0.021755572
0000d0 85 84 d3 bc 41 39 2f bb d9 e8 31 bd a4 93 85 bc
       -0.025820026 -0.0026737007 -0.04343495 -0.016305752
0000e0 4b 30 29 bd 2a ab 32 bd d9 5b 18 bc 54 12 d4 3c
       -0.04130582 -0.043620266 -0.009299242 0.025887646
0000f0 d2 91 52 bc a0 3a 01 bd 38 a1 1a 3d 15 00 4f bc
       -0.012852149 -0.03155005 0.037751406 -0.012634297
000100 35 19 48 bb 44 44 e7 bb 8b 75 8f 3c 82 20 10 bc
       -0.0030532603 -0.0070576984 0.017512104 -0.008796813
000110 f4 19 9c bc e6 29 e5 bc c6 f4 5c 3b f5 6c 5d 3c
       -0.019055344 -0.02797408 0.0033715232 0.013514747
000120 f0 4e 1a ba 54 aa 21 ba 72 21 81 3c e2 b6 ab bb
       -0.00058863964 -0.00061670435 0.015763018 -0.005240307
000130 6a 70 43 3b 8a 17 89 bc 6f 5d 90 bc 77 3f 10 bd
       0.0029821643 -0.016734857 -0.017622678 -0.035216775
000140 69 f6 cf 3c 7c 36 aa 3c 9a ba 14 3d 87 3c 8e 3c
       0.025386052 0.020777933 0.03631077 0.017362846
000150 0b 55 31 bd 49 e8 7c bb f9 03 a0 3c 4b 64 89 3b
       -0.043293994 -0.0038590601 0.019533144 0.004192864
000160 a4 2e 8c 3b 86 56 2d bd be 0d 3c 3c 77 8b d3 bc
       0.004278021 -0.042318843 0.011477886 -0.025823338
000170 4a dd 92 bc 64 48 22 bc 30 61 18 bc d3 90 7d 3a
       -0.017927784 -0.009904955 -0.009300515 0.00096727646
000180 ca a0 cf 3c a1 1e d7 bb f9 79 6f bc 19 73 f6 3b
       0.025345225 -0.0065649305 -0.014616483 0.007521045
000190 1c 2b c5 bc 1b f8 90 bc 47 93 83 3b 38 38 69 bc
       -0.024068408 -0.01769643 0.0040153596 -0.014234595
0001a0 42 0c c0 3b c2 3b cb 3c a2 51 10 bc d2 9c 14 3c
       0.0058608362 0.024808768 -0.008808525 0.009070592
0001b0 dd d3 e5 3b ab 3d ce 3c 0a 33 99 ba be 71 ac bc
       0.0070137815 0.02517589 -0.0011688184 -0.02105033
0001c0 f4 8f 2a ba 88 1c 14 3c ba 00 a0 bb fc 75 6e 3c
       -0.0006506436 0.0090400055 -0.004882899 0.014554497
0001d0 d8 db 4d bc 7d 30 94 bc 36 5b 8f bb 20 12 08 3d
       -0.012564622 -0.018089527 -0.004374887 0.03322041
0001e0 04 e4 ac ba d8 61 8a b9 1d ff 49 bc dc fa da bc
       -0.0013190513 -0.0002639431 -0.01232889 -0.026730947
0001f0 78 a8 79 3c c9 e3 43 bd fe 82 e2 bc f2 11 a0 bc
       0.01523792 -0.047824655 -0.027650353 -0.019539807
000200 7a 5c 9a bc 69 44 e6 3b 05 51 af bc a2 a7 63 bd
       -0.018842924 0.007027198 -0.021400938 -0.05557979
000210 82 f6 53 3c ff a1 9d bc 8a 23 84 bc 9c 51 9d bc
       0.01293719 -0.019242285 -0.016130228 -0.019203953
000220 37 b6 2f 3b af fe a8 3b c4 fe d5 3b 52 f6 88 3c
       0.002681149 0.005157314 0.0065306146 0.016719017
000230 e0 68 5c bc 62 1c 57 3c 50 e2 39 3b 63 5c 8a 3c
       -0.0134527385 0.013129326 0.0028363653 0.016889757
000240 8f 1a d3 bc 42 4b 0b bd 09 cb 38 bc cf c9 4a bc
       -0.0257695 -0.03400732 -0.011278876 -0.0123772165
000250 16 e5 16 bb 59 44 8b bc 42 70 71 3b 04 fa 11 3d
       -0.002302473 -0.017000364 0.0036840593 0.035638824
000260 42 28 21 3c 14 3a b9 bc d4 e3 a2 3b db 8c f4 3b
       0.009836258 -0.022610702 0.004971007 0.0074630803
000270 2a 0f 4b 3a fd 07 91 3c c4 3b 8c 3c 95 92 89 bc
       0.0007746095 0.017704004 0.017118342 -0.016793529
000280 69 43 18 3d 67 c8 f9 bb 8a 24 ea ba ef 6d 11 bc
       0.037173662 -0.007622767 -0.0017863673 -0.008876308
000290 d0 a7 86 bc 6b 59 32 bc 0b d7 68 bc 73 38 2d bc
       -0.016437441 -0.010885577 -0.0142114265 -0.010572541
0002a0 a7 86 0a ba c8 10 a0 3c cc 95 00 bd be 8b c6 3a
       -0.0005284347 0.019539252 -0.031392857 0.0015147848
0002b0 b0 f6 04 3d 0c 0c d4 bc 97 eb b9 3c 5c 95 0c bc
       0.032461822 -0.02588465 0.022695346 -0.008580532
0002c0 49 76 1a 3a f6 72 30 bc 37 f0 89 bc d0 b4 21 bc
       0.00058922597 -0.010769596 -0.016838176 -0.009869769
0002d0 f2 87 b4 3b b8 b9 1b ba 7d 55 ae bc c1 90 82 bb
       0.00550937 -0.0005940455 -0.021280998 -0.003984541
0002e0 f7 77 67 3c 18 20 67 bd 20 f6 dc bb 64 50 0f bd
       0.014127723 -0.05642709 -0.0067432076 -0.034988776
0002f0 72 59 5e bc bd 77 39 bc 5e b7 cb bb 43 e0 00 bb
       -0.01357113 -0.011320052 -0.0062169274 -0.001966492
000300 a7 d6 5d 3c 74 97 49 3c 2f 87 11 3c 7c 60 24 3b
       0.013539947 0.012304176 0.008882328 0.0025081923
000310 58 b3 e6 3c cc 30 09 3c 40 53 9a bc 55 7c 52 bc
       0.02816169 0.0083734505 -0.018838525 -0.012847026
000320 9b f6 d2 3c e1 58 94 bc eb 49 0d bb 67 91 3e bc
       0.025752356 -0.018108787 -0.002155895 -0.011631346
000330 3e 01 96 39 cb ee e9 bc 54 a7 d9 3b 98 51 46 3d
       0.00028611155 -0.028556248 0.0066422615 0.048417658
000340 c4 5a 16 3c e0 3b ab 3c 7d 5c 90 bc c9 47 f3 bc
       0.009176914 0.020902574 -0.017622227 -0.029697316
000350 61 94 56 bb 3e aa 0d bc 6b c4 ae 3c c5 b6 9f bc
       -0.003274225 -0.008646546 0.021333894 -0.019496331
000360 24 d2 2f 3a 62 8c 08 bc 45 3e f3 bb 43 29 93 bb
       0.00067070336 -0.008334251 -0.0074231946 -0.0044910028
000370 49 84 dd 3c 6e ed 89 3b 30 1e 0f bc 6e f5 d5 39
       0.027040618 0.004209212 -0.008735225 0.00040809385
000380 b8 f4 ad 3a 01 4f db bc 7e 5f d7 3b 25 49 18 bd
       0.0013271784 -0.02677107 0.006572663 -0.03717913
000390 0a f7 28 3d f2 cd 50 3c a9 60 fd bb 09 ee dd bb
       0.04125122 0.012744414 -0.00773247 -0.006772761
0003a0 0d 4e 92 3c c6 61 91 bc 36 a2 09 3d 87 35 3e 3d
       0.017859483 -0.017746817 0.033601962 0.046437766
0003b0 32 0b c9 3b 77 2c e1 3c a7 75 36 bd a9 81 ba 3c
       0.006135368 0.027487023 -0.044545796 0.022766905
0003c0 b0 5b 1b bc 31 0d 82 bb 54 d9 eb 3c e7 6a 51 3b
       -0.009482309 -0.0039688577 0.028790154 0.0031954588
0003d0 18 e8 21 bd d7 a0 af 3c 89 dd da bc a9 61 79 bb
       -0.039527982 0.021439 -0.026716964 -0.0038052595
0003e0 af 29 6d bc c1 9d b6 3b 49 bc 38 3b e2 32 62 b9
       -0.01447527 0.005573005 0.0028188399 -0.00021571995
0003f0 c4 eb d7 ba 57 be 04 bd bd f8 4f bc 94 bb ac bb
       -0.0016473462 -0.032408085 -0.012693581 -0.0052713845

fai_gcn_networks.1.residual.0.bias f4 [64]
000000 00 00 00 00 00 00 00 00 00 00 00 00 00 00 00 00
       0.0 0.0 0.0 0.0
000010 00 00 00 00 00 00 00 00 00 00 00 00 00 00 00 00
       0.0 0.0 0.0 0.0
000020 00 00 00 00 00 00 00 00 00 00 00 00 00 00 00 00
       0.0 0.0 0.0 0.0
000030 00 00 00 00 00 00 00 00 00 00 00 00 00 00 00 00
       0.0 0.0 0.0 0.0
000040 00 00 00 00 00 00 00 00 00 00 00 00 00 00 00 00
       0.0 0.0 0.0 0.0
000050 00 00 00 00 00 00 00 00 00 00 00 00 00 00 00 00
       0.0 0.0 0.0 0.0
000060 00 00 00 00 00 00 00 00 00 00 00 00 00 00 00 00
       0.0 0.0 0.0 0.0
000070 00 00 00 00 00 00 00 00 00 00 00 00 00 00 00 00
       0.0 0.0 0.0 0.0
000080 00 00 00 00 00 00 00 00 00 00 00 00 00 00 00 00
       0.0 0.0 0.0 0.0
000090 00 00 00 00 00 00 00 00 00 00 00 00 00 00 00 00
       0.0 0.0 0.0 0.0
0000a0 00 00 00 00 00 00 00 00 00 00 00 00 00 00 00 00
       0.0 0.0 0.0 0.0
0000b0 00 00 00 00 00 00 00 00 00 00 00 00 00 00 00 00
       0.0 0.0 0.0 0.0
0000c0 00 00 00 00 00 00 00 00 00 00 00 00 00 00 00 00
       0.0 0.0 0.0 0.0
0000d0 00 00 00 00 00 00 00 00 00 00 00 00 00 00 00 00
       0.0 0.0 0.0 0.0
0000e0 00 00 00 00 00 00 00 00 00 00 00 00 00 00 00 00
       0.0 0.0 0.0 0.0
0000f0 00 00 00 00 00 00 00 00 00 00 00 00 00 00 00 00
       0.0 0.0 0.0 0.0

fai_gcn_networks.1.residual.1.weight f4 [64]
000000 34 3e 7e 3f 22 30 81 3f c7 34 7c 3f d4 87 82 3f
       0.99313664 1.0092814 0.9851803 1.0197701
000010 c5 48 81 3f 6e b0 7f 3f da 24 83 3f a7 63 7a 3f
       1.0100332 0.99878585 1.0245621 0.9780831
000020 da bb 75 3f c1 c9 84 3f 72 15 79 3f 0e 94 7e 3f
       0.95989764 1.037407 0.9729835 0.99444664
000030 0d 0b 80 3f 0b b1 80 3f c0 60 7c 3f d9 9a 82 3f
       1.0003372 1.0054029 0.9858513 1.0203506
000040 60 b6 7a 3f 98 9c 7c 3f 08 b6 80 3f a0 f5 7c 3f
       0.9793453 0.98676443 1.0055552 0.98812294
000050 86 c5 83 3f e8 1b 83 3f 93 10 7c 3f c8 a9 80 3f
       1.0294654 1.0242891 0.9846279 1.0051813
000060 fd 9e 85 3f e1 c4 83 3f 30 81 7b 3f 1c 65 78 3f
       1.0439144 1.0294458 0.98244 0.9702928
000070 c5 4e 80 3f f6 14 84 3f 46 8b 7d 3f 96 fd 80 3f
       1.0024039 1.0318897 0.9904064 1.0077388
000080 3d 18 7e 3f 47 37 79 3f f4 a2 7f 3f 7c dc 7d 3f
       0.99255735 0.9734997 0.9985802 0.9916456
000090 8e e2 80 3f 44 ec 84 3f 1d 59 7d 3f 37 2c 7e 3f
       1.0069139 1.0384603 0.989641 0.99286216
0000a0 b5 29 7f 3f c3 a9 84 3f 70 c5 82 3f 0f de 78 3f
       0.99673015 1.0364307 1.0216503 0.97213835
0000b0 34 82 76 3f f0 3e 80 3f 07 2f 80 3f af fd 78 3f
       0.96292424 1.0019207 1.0014352 0.9726209
0000c0 7e 12 7f 3f cc f8 81 3f 66 8b 7f 3f 71 69 82 3f
       0.9963759 1.0154052 0.9982208 1.0188428
0000d0 58 9c 82 3f c4 8b 81 3f be ee 7e 3f ed 18 77 3f
       1.0203962 1.0120778 0.9958304 0.9652241
0000e0 80 73 77 3f ba 7f 7e 3f bd 6c 80 3f b9 de 7b 3f
       0.96660614 0.99413645 1.0033184 0.9838672
0000f0 86 cb 7f 3f 50 11 80 3f 7f d4 84 3f f3 13 7a 3f
       0.9991993 1.0005283 1.0377349 0.9768669

fai_gcn_networks.1.residual.1.bias f4 [64]
000000 00 00 00 00 00 00 00 00 00 00 00 00 00 00 00 00
       0.0 0.0 0.0 0.0
000010 00 00 00 00 00 00 00 00 00 00 00 00 00 00 00 00
       0.0 0.0 0.0 0.0
000020 00 00 00 00 00 00 00 00 00 00 00 00 00 00 00 00
       0.0 0.0 0.0 0.0
000030 00 00 00 00 00 00 00 00 00 00 00 00 00 00 00 00
       0.0 0.0 0.0 0.0
000040 00 00 00 00 00 00 00 00 00 00 00 00 00 00 00 00
       0.0 0.0 0.0 0.0
000050 00 00 00 00 00 00 00 00 00 00 00 00 00 00 00 00
       0.0 0.0 0.0 0.0
000060 00 00 00 00 00 00 00 00 00 00 00 00 00 00 00 00
       0.0 0.0 0.0 0.0
000070 00 00 00 00 00 00 00 00 00 00 00 00 00 00 00 00
       0.0 0.0 0.0 0.0
000080 00 00 00 00 00 00 00 00 00 00 00 00 00 00 00 00
       0.0 0.0 0.0 0.0
000090 00 00 00 00 00 00 00 00 00 00 00 00 00 00 00 00
       0.0 0.0 0.0 0.0
0000a0 00 00 00 00 00 00 00 00 00 00 00 00 00 00 00 00
       0.0 0.0 0.0 0.0
0000b0 00 00 00 00 00 00 00 00 00 00 00 00 00 00 00 00
       0.0 0.0 0.0 0.0
0000c0 00 00 00 00 00 00 00 00 00 00 00 00 00 00 00 00
       0.0 0.0 0.0 0.0
0000d0 00 00 00 00 00 00 00 00 00 00 00 00 00 00 00 00
       0.0 0.0 0.0 0.0
0000e0 00 00 00 00 00 00 00 00 00 00 00 00 00 00 00 00
       0.0 0.0 0.0 0.0
0000f0 00 00 00 00 00 00 00 00 00 00 00 00 00 00 00 00
       0.0 0.0 0.0 0.0

fai_gcn_networks.1.residual.1.running_mean f4 [64]
000000 d1 d8 c5 2b 73 ec 5c ac 34 47 88 aa 3d 37 04 2c
       1.405787e-12 -3.1395136e-12 -2.420786e-13 1.8788992e-12
000010 1c 1b c6 ab d2 6b 44 2c 85 eb 8e 2b ee 21 84 29
       -1.407627e-12 2.7913128e-12 1.0155077e-12 5.8678634e-14
000020 b1 51 07 2c 9e 5f c0 2a 68 87 fd 2a 7d db c4 ab
       1.9230002e-12 3.41724e-13 4.5035785e-13 -1.3987558e-12
000030 f0 a1 69 aa fe 12 e0 2b e0 16 f4 ab f9 f2 3a ac
       -2.075074e-13 1.5921429e-12 -1.7343592e-12 -2.6567067e-12
000040 57 1c 27 2c 9b f2 df 2a 83 e5 9b 2b 84 9f bc aa
       2.374786e-12 3.97811e-13 1.1077115e-12 -3.3506195e-13
000050 39 b7 a0 aa b9 a4 1f 2c 56 f1 1f ac fc d1 44 ab
       -2.8548846e-13 2.2686698e-12 -2.2729227e-12 -6.99246e-13
000060 e5 2e 4e 2a 63 45 b2 2a b7 00 4d 2b 61 bb 21 2b
       1.8312745e-13 3.1667298e-13 7.283162e-13 5.745873e-13
000070 6d 2a a5 ab ce 71 a3 2b fa 17 4b 2c c0 c0 1c ac
       -1.1735731e-12 1.1613434e-12 2.8861345e-12 -2.2275931e-12
000080 7a d7 3a ac b8 6f f6 29 a4 8f 6c 2a 56 cd c5 2b
       -2.6551803e-12 1.0943975e-13 2.1010846e-13 1.4054684e-12
000090 22 f0 cb aa a9 fd 02 aa 5f 5b ad 2a d3 b1 63 2b
       -3.622667e-13 -1.1634326e-13 3.0794375e-13 8.089338e-13
0000a0 4a 4d 28 2a 7b 7f ee ab d0 12 bd ab 0c b2 91 2c
       1.4948212e-13 -1.69463e-12 -1.3434479e-12 4.140915e-12
0000b0 1a 30 c2 2b e6 89 48 2b 07 44 9d a9 ca b5 8d ab
       1.379788e-12 7.1245646e-13 -6.9840015e-14 -1.0069109e-12
0000c0 c5 95 24 2c 67 23 22 2b 51 90 82 2b 75 49 e1 2b
       2.338894e-12 5.760309e-13 9.277111e-13 1.60076e-12
0000d0 1b a0 8e ab 85 7c ea 2a 81 fe b7 ab 8c de 0c ab
       -1.0134145e-12 4.1653153e-13 -1.3073571e-12 -5.004684e-13
0000e0 9e cf c4 ab fa ec 48 ac 94 79 bc ab 1e c6 90 ab
       -1.3984263e-12 -2.8553258e-12 -1.3391948e-12 -1.0286804e-12
0000f0 c8 2c 73 aa 2d 36 20 2b c8 45 11 2b a6 c8 c7 a8
       -2.1598272e-13 5.6918603e-13 5.161119e-13 -2.2180456e-14

fai_gcn_networks.1.residual.1.running_var f4 [64]
000000 7f f5 96 18 a2 31 b9 19 ef 94 00 16 7d 76 07 19
       3.902198e-24 1.9148598e-23 1.0386753e-25 7.003265e-24
000010 ee ad 95 18 02 ff 91 19 5e e2 1a 18 b9 59 c9 14
       3.869122e-24 1.5095645e-23 2.001832e-24 2.0331203e-26
000020 a4 f9 10 19 93 5e 9d 16 3f fd 02 17 9d 3a 98 18
       7.49504e-24 2.5424403e-25 4.2324907e-25 3.9350263e-24
000030 f1 7d f3 15 49 8b c4 18 68 03 e9 18 83 36 85 19
       9.834562e-26 5.0805455e-24 6.0232528e-24 1.3773895e-23
000040 8a 25 58 19 bf cf b7 16 ec 70 3b 18 89 35 7b 16
       1.1174519e-23 2.969635e-25 2.4226195e-24 2.0292511e-25
000050 f2 49 5a 16 47 df 42 19 90 da 42 19 4c 98 8b 17
       1.7633233e-25 1.00746554e-23 1.0073703e-23 9.02111e-25
000060 17 ab af 15 d0 d1 5b 16 84 27 a5 17 42 01 4f 17
       7.095187e-26 1.7756884e-25 1.067285e-24 6.6886895e-25
000070 93 f0 57 18 1b a9 4e 18 59 44 9e 19 49 ec 3a 19
       2.7909558e-24 2.6710252e-24 1.6364422e-23 9.663692e-24
000080 54 e0 82 19 8d 88 08 15 77 8e cc 15 0f 53 96 18
       1.353229e-23 2.75727e-26 8.2619714e-26 3.885796e-24
000090 b5 6b b0 16 53 40 4c 15 9e 2d 45 16 f1 68 cb 17
       2.8502306e-25 4.1248215e-26 1.5927928e-25 1.3145058e-24
0000a0 83 64 1a 15 f2 7e d8 18 4c d7 8b 18 d7 4c 21 1a
       3.1179342e-26 5.5962873e-24 3.6148052e-24 3.335609e-23
0000b0 f6 35 93 18 da ab 9d 17 07 48 87 14 7f be 16 18
       3.8053096e-24 1.0189269e-24 1.3659926e-26 1.9483222e-24
0000c0 84 2f 50 19 73 3a 4b 17 47 fb fc 17 b7 62 c6 18
       1.0762944e-23 6.566661e-25 1.634855e-24 5.1281477e-24
0000d0 8a 6f 1d 18 14 43 c8 16 8c a3 7e 18 6b 5c 26 17
       2.0348087e-24 3.2354075e-25 3.29113e-24 5.375414e-25
0000e0 98 3b 92 18 59 3e 9c 19 a2 98 86 18 c6 4e 1c 18
       3.780029e-24 1.6155204e-23 3.4792308e-24 2.0202298e-24
0000f0 8c f1 d0 15 3d 79 4f 17 e8 38 2b 17 52 65 dc 12
       8.4391625e-26 6.703833e-25 5.5324906e-25 1.3908929e-27
