capsule-6073072/code/work_dir/recognition/kinetics_skeleton/FAI_GCN/epoch340_model.pt (torch, 74070 bytes, 22 tensors)

A f4 [3, 18, 18]
0	0x3e800000	0.25
1	0x00000000	0.0
2	0x00000000	0.0
3	0x00000000	0.0
4	0x00000000	0.0
5	0x00000000	0.0
6	0x00000000	0.0
7	0x00000000	0.0
8	0x00000000	0.0
9	0x00000000	0.0
10	0x00000000	0.0
11	0x00000000	0.0
12	0x00000000	0.0
13	0x00000000	0.0
14	0x00000000	0.0
15	0x00000000	0.0
16	0x00000000	0.0
17	0x00000000	0.0
18	0x00000000	0.0
19	0x3e800000	0.25
20	0x00000000	0.0
21	0x00000000	0.0
22	0x00000000	0.0
23	0x00000000	0.0
24	0x00000000	0.0
25	0x00000000	0.0
26	0x00000000	0.0
27	0x00000000	0.0
28	0x00000000	0.0
29	0x00000000	0.0
30	0x00000000	0.0
31	0x00000000	0.0
32	0x00000000	0.0
33	0x00000000	0.0
34	0x00000000	0.0
35	0x00000000	0.0
36	0x00000000	0.0
37	0x00000000	0.0
38	0x3e800000	0.25
39	0x00000000	0.0
40	0x00000000	0.0
41	0x00000000	0.0
42	0x00000000	0.0
43	0x00000000	0.0
44	0x00000000	0.0
45	0x00000000	0.0
46	0x00000000	0.0
47	0x00000000	0.0
48	0x00000000	0.0
49	0x00000000	0.0
50	0x00000000	0.0
51	0x00000000	0.0
52	0x00000000	0.0
53	0x00000000	0.0
54	0x00000000	0.0
55	0x00000000	0.0
56	0x00000000	0.0
57	0x3eaaaaab	0.33333334
58	0x00000000	0.0
59	0x00000000	0.0
60	0x00000000	0.0
61	0x00000000	0.0
62	0x00000000	0.0
63	0x00000000	0.0
64	0x00000000	0.0
65	0x00000000	0.0
66	0x00000000	0.0
67	0x00000000	0.0
68	0x00000000	0.0
69	0x00000000	0.0
70	0x00000000	0.0
71	0x00000000	0.0
72	0x00000000	0.0
73	0x00000000	0.0
74	0x00000000	0.0
75	0x00000000	0.0
76	0x3f000000	0.5
77	0x00000000	0.0
78	0x00000000	0.0
79	0x00000000	0.0
80	0x00000000	0.0
81	0x00000000	0.0
82	0x00000000	0.0
83	0x00000000	0.0
84	0x00000000	0.0
85	0x00000000	0.0
86	0x00000000	0.0
87	0x00000000	0.0
88	0x00000000	0.0
89	0x00000000	0.0
90	0x00000000	0.0
91	0x00000000	0.0
92	0x00000000	0.0
93	0x00000000	0.0
94	0x00000000	0.0
95	0x3e800000	0.25
96	0x00000000	0.0
97	0x00000000	0.0
98	0x00000000	0.0
99	0x00000000	0.0
100	0x00000000	0.0
101	0x00000000	0.0
102	0x00000000	0.0
103	0x00000000	0.0
104	0x00000000	0.0
105	0x00000000	0.0
106	0x00000000	0.0
107	0x00000000	0.0
108	0x00000000	0.0
109	0x00000000	0.0
110	0x00000000	0.0
111	0x00000000	0.0
112	0x00000000	0.0
113	0x00000000	0.0
114	0x3eaaaaab	0.33333334
115	0x00000000	0.0
116	0x00000000	0.0
117	0x00000000	0.0
118	0x00000000	0.0
119	0x00000000	0.0
120	0x00000000	0.0
121	0x00000000	0.0
122	0x00000000	0.0
123	0x00000000	0.0
124	0x00000000	0.0
125	0x00000000	0.0
126	0x00000000	0.0
127	0x00000000	0.0
128	0x00000000	0.0
129	0x00000000	0.0
130	0x00000000	0.0
131	0x00000000	0.0
132	0x00000000	0.0
133	0x3f000000	0.5
134	0x00000000	0.0
135	0x00000000	0.0
136	0x00000000	0.0
137	0x00000000	0.0
138	0x00000000	0.0
139	0x00000000	0.0
140	0x00000000	0.0
141	0x00000000	0.0
142	0x00000000	0.0
143	0x00000000	0.0
144	0x00000000	0.0
145	0x00000000	0.0
146	0x00000000	0.0
147	0x00000000	0.0
148	0x00000000	0.0
149	0x00000000	0.0
150	0x00000000	0.0
151	0x00000000	0.0
152	0x3eaaaaab	0.33333334
153	0x00000000	0.0
154	0x00000000	0.0
155	0x00000000	0.0
156	0x00000000	0.0
157	0x00000000	0.0
158	0x00000000	0.0
159	0x00000000	0.0
160	0x00000000	0.0
161	0x00000000	0.0
162	0x00000000	0.0
163	0x00000000	0.0
164	0x00000000	0.0
165	0x00000000	0.0
166	0x00000000	0.0
167	0x00000000	0.0
168	0x00000000	0.0
169	0x00000000	0.0
170	0x00000000	0.0
171	0x3eaaaaab	0.33333334
172	0x00000000	0.0
173	0x00000000	0.0
174	0x00000000	0.0
175	0x00000000	0.0
176	0x00000000	0.0
177	0x00000000	0.0
178	0x00000000	0.0
179	0x00000000	0.0
180	0x00000000	0.0
181	0x00000000	0.0
182	0x00000000	0.0
183	0x00000000	0.0
184	0x00000000	0.0
185	0x00000000	0.0
186	0x00000000	0.0
187	0x00000000	0.0
188	0x00000000	0.0
189	0x00000000	0.0
190	0x3f000000	0.5
191	0x00000000	0.0
192	0x00000000	0.0
193	0x00000000	0.0
194	0x00000000	0.0
195	0x00000000	0.0
196	0x00000000	0.0
197	0x00000000	0.0
198	0x00000000	0.0
199	0x00000000	0.0
200	0x00000000	0.0
201	0x00000000	0.0
202	0x00000000	0.0
203	0x00000000	0.0
204	0x00000000	0.0
205	0x00000000	0.0
206	0x00000000	0.0
207	0x00000000	0.0
208	0x00000000	0.0
209	0x3eaaaaab	0.33333334
210	0x00000000	0.0
211	0x00000000	0.0
212	0x00000000	0.0
213	0x00000000	0.0
214	0x00000000	0.0
215	0x00000000	0.0
216	0x00000000	0.0
217	0x00000000	0.0
218	0x00000000	0.0
219	0x00000000	0.0
220	0x00000000	0.0
221	0x00000000	0.0
222	0x00000000	0.0
223	0x00000000	0.0
224	0x00000000	0.0
225	0x00000000	0.0
226	0x00000000	0.0
227	0x00000000	0.0
228	0x3eaaaaab	0.33333334
229	0x00000000	0.0
230	0x00000000	0.0
231	0x00000000	0.0
232	0x00000000	0.0
233	0x00000000	0.0
234	0x00000000	0.0
235	0x00000000	0.0
236	0x00000000	0.0
237	0x00000000	0.0
238	0x00000000	0.0
239	0x00000000	0.0
240	0x00000000	0.0
241	0x00000000	0.0
242	0x00000000	0.0
243	0x00000000	0.0
244	0x00000000	0.0
245	0x00000000	0.0
246	0x00000000	0.0
247	0x3f000000	0.5
248	0x00000000	0.0
249	0x00000000	0.0
250	0x00000000	0.0
251	0x00000000	0.0
252	0x00000000	0.0
253	0x00000000	0.0
254	0x00000000	0.0
255	0x00000000	0.0

data_bn.weight f4 [54]
0	0x3f319693	0.69370383
1	0x3f26fe38	0.6523166
2	0x3f311c18	0.6918349
3	0x3f2146f0	0.6299887
4	0x3f23e87c	0.6402662
5	0x3f31c91f	0.6944751
6	0x3f2499cc	0.64297175
7	0x3f271daa	0.6527964
8	0x3f18a154	0.5962117
9	0x3f2a5364	0.66533494
10	0x3f23cb02	0.6398164
11	0x3f24b7db	0.6434304
12	0x3f24435c	0.6416528
13	0x3f1c6496	0.6109098
14	0x3f278e94	0.6545193
15	0x3f2e2961	0.6803189
16	0x3f2a6520	0.66560555
17	0x3f270e0d	0.65255815
18	0x3f2365bc	0.6382711
19	0x3f207fbb	0.626949
20	0x3f2ad2c6	0.66727865
21	0x3f268095	0.6503995
22	0x3f223552	0.6336261
23	0x3f28ef93	0.6599056
24	0x3f2716b5	0.65269023
25	0x3f281f34	0.6567261
26	0x3f2a688e	0.6656579
27	0x3f2ac83e	0.66711795
28	0x3f27e11e	0.65577877
29	0x3f2b2ed2	0.6686832
30	0x3f1f42b6	0.6221117
31	0x3f26156f	0.64876455
32	0x3f29bfa8	0.6630807
33	0x3f2d146c	0.67609286
34	0x3f2c9c22	0.6742574
35	0x3f2fb9ce	0.6864289
36	0x3f26a57d	0.65096265
37	0x3f2c85b4	0.67391515
38	0x3f29384b	0.6610152
39	0x3f25fa15	0.6483472
40	0x3f261664	0.64877915
41	0x3f2af23d	0.66775876
42	0x3f2ad978	0.6673808
43	0x3f300594	0.6875851
44	0x3f24c713	0.64366263
45	0x3f222bb3	0.6334793
46	0x3f317115	0.69313174
47	0x3f277f8a	0.65428984
48	0x3f2aa7bc	0.6666219
49	0x3f2eafd5	0.6823705
50	0x3f29b63f	0.6629371
51	0x3f2f2a0c	0.68423533
52	0x3f187e4a	0.595677
53	0x3f25f773	0.648307

data_bn.bias f4 [54]
0	0x19aaeb07	1.7672515e-23
1	0xb03eef38	-6.946155e-10
2	0x33048b1c	3.0860164e-08
3	0x35621d4a	8.423418e-07
4	0x80000553	-1.91e-42
5	0x2ad7a575	3.830648e-13
6	0xb5f04bb7	-1.7903429e-06
7	0x32f590b4	2.8587557e-08
8	0xb02290b1	-5.9140876e-10
9	0x83386afd	-5.4195557e-37
10	0xa35b9ee2	-1.19056585e-17
11	0x2dda77c9	2.4836926e-11
12	0xb7091ae0	-8.172094e-06
13	0x2e5433ff	4.82494e-11
14	0xa6e106c3	-1.5614344e-15
15	0xb604227f	-1.9689612e-06
16	0x2f0765d8	1.231436e-10
17	0xb2735a22	-1.4164955e-08
18	0x0341c20d	5.694036e-37
19	0x23d8169d	2.3428344e-17
20	0xafa5b15a	-3.013934e-10
21	0xaa1e7103	-1.4072428e-13
22	0xadf0330e	-2.7307514e-11
23	0x26024faa	4.5210775e-16
24	0x03e169a3	1.3248564e-36
25	0xaf348f55	-1.6421826e-10
26	0xa82cfcf7	-9.602771e-15
27	0x8310cd4a	-4.2553457e-37
28	0xb589a40e	-1.0255042e-06
29	0xa602f1d1	-4.5430533e-16
30	0x3164cba9	3.3294134e-09
31	0x3206eb38	7.853309e-09
32	0xadb559f1	-2.061726e-11
33	0x04057370	1.5687081e-36
34	0xb020e596	-5.853392e-10
35	0xa6525263	-7.297004e-16
36	0x825d9d72	-1.62817e-37
37	0xb22785ee	-9.7511315e-09
38	0xa7038467	-1.8251677e-15
39	0xb1b348e2	-5.2178715e-09
40	0x3137a043	2.6721103e-09
41	0x31584560	3.1471572e-09
42	0x82d0b068	-3.0664105e-37
43	0xa292808b	-3.970948e-18
44	0x2d8af803	1.5798923e-11
45	0x8251590e	-1.5380452e-37
46	0x24746fb5	5.3003686e-17
47	0xaee43e09	-1.0379259e-10
48	0x2902adfc	2.9016706e-14
49	0xa91bcbe6	-3.4593767e-14
50	0xb48faaf4	-2.676021e-07
51	0x2ab44381	3.2021263e-13
52	0xac12da49	-2.086902e-12
53	0x291b9dfe	3.455395e-14

data_bn.running_mean f4 [54]
0	0x3c90904d	0.017646933
1	0xbc139840	-0.009008467
2	0x3d573d4c	0.05254869
3	0x3c91c280	0.01779294
4	0xbb6329d5	-0.0034662385
5	0x3d4b3952	0.04961521
6	0x3c6f6fc8	0.014614053
7	0xbb873e2f	-0.004127286
8	0x3d3b00be	0.045655005
9	0x3c45d0fa	0.01207375
10	0xb9f0bacc	-0.00045915542
11	0x3d3f8626	0.046758793
12	0x3c53ebdd	0.012934652
13	0xbae95409	-0.0017801534
14	0x3d31e67d	0.0434327
15	0x3cabe47f	0.020982979
16	0xbb36177f	-0.0027785
17	0x3d3b1e92	0.04568345
18	0x3cba1bff	0.022718428
19	0x3a341157	0.0006869039
20	0x3d2683f2	0.040653177
21	0x3cb7260e	0.022357013
22	0xba8c199c	-0.0010688785
23	0x3d1d53de	0.03841006
24	0x3c6b883d	0.014375743
25	0x3c149a24	0.009069953
26	0x3d1b02dc	0.037844524
27	0x3c3b1fd2	0.011421161
28	0x3c4c83a2	0.012482556
29	0x3d2c8157	0.042115536
30	0x3c6a7f16	0.014312526
31	0x3ca036fc	0.019557469
32	0x3d2323bd	0.039829005
33	0x3c96cbd3	0.018407738
34	0x3c219b7f	0.009863733
35	0x3d1a5f48	0.037688524
36	0x3ca77edd	0.020446235
37	0x3c655596	0.013997456
38	0x3d256363	0.040377986
39	0x3c8f41cf	0.017487435
40	0x3ca287c8	0.019840136
41	0x3d09dc1c	0.03365718
42	0x3c8acc3d	0.016943092
43	0xbc2862db	-0.010277475
44	0x3d4da207	0.05020335
45	0x3c9b621a	0.018967677
46	0xbc24b2ad	-0.010052365
47	0x3d5b23fc	0.053501114
48	0x3c8838c2	0.016628627
49	0xbb84eedb	-0.004056794
50	0x3cdda874	0.027057864
51	0x3ca8af38	0.020591363
52	0xbbed25e8	-0.007237185
53	0x3d2b63f1	0.04184336

data_bn.running_var f4 [54]
0	0x3b79dfe5	0.0038127836
1	0x3b4df2ac	0.0031425161
2	0x3cc8b786	0.024501573
3	0x3b7f20a5	0.003892937
4	0x3b096046	0.0020961924
5	0x3cad512f	0.021156875
6	0x3b8e5f9f	0.004344895
7	0x3b1049c0	0.0022016615
8	0x3c9ab9d6	0.018887442
9	0x3b99d1c5	0.004694196
10	0x3ae15d7a	0.0017193996
11	0x3c95046c	0.018190585
12	0x3b94aa3e	0.004536896
13	0x3aec6bb6	0.0018037471
14	0x3c897d18	0.016783282
15	0x3b705569	0.0036672002
16	0x3b039414	0.0020077275
17	0x3c931630	0.017954916
18	0x3b7b061b	0.00383032
19	0x3ae46a33	0.0017426669
20	0x3c67eeb7	0.014156035
21	0x3b827153	0.0039807945
22	0x3b02937a	0.0019924329
23	0x3c5ff8f1	0.013670192
24	0x3b95d7be	0.0045728376
25	0x3acb14cb	0.0015493868
26	0x3c56ae9b	0.013103153
27	0x3baffe85	0.0053709173
28	0x3b0525e6	0.0020316779
29	0x3c84dc1a	0.016218234
30	0x3b9de0c2	0.004818053
31	0x3b62ba3f	0.0034595875
32	0x3c832641	0.016009452
33	0x3b842fbe	0.0040340116
34	0x3ad88787	0.0016519882
35	0x3c4f5e9e	0.012656836
36	0x3b80fb48	0.003936205
37	0x3b188ab5	0.0023276035
38	0x3c76e7cf	0.015069916
39	0x3b92f8f0	0.004485242
40	0x3b6555e7	0.0034993829
41	0x3c3c9ffe	0.0115127545
42	0x3b7e4630	0.003879916
43	0x3b6425f5	0.0034812663
44	0x3cc79d62	0.024367038
45	0x3b71ba12	0.0036884588
46	0x3b5e94c6	0.0033963188
47	0x3ccdedb8	0.025137767
48	0x3b851add	0.0040620402
49	0x3b4bac59	0.003107807
50	0x3c66e01e	0.01409152
51	0x3b6d65e3	0.003622406
52	0x3b4fe1b6	0.0031720228
53	0x3ca33c58	0.019926235

fai_gcn_networks.0.gcn.conv.weight f4 [96, 3, 1, 1]
0	0x83be17b7	-1.1172641e-36
1	0x03b45460	1.0598821e-36
2	0x0500c077	6.053881e-36
3	0x0aaa95e6	1.642679e-32
4	0x0d037b1e	4.051569e-31
5	0x0cbf3410	2.9459544e-31
6	0x852bf6fb	-8.0857445e-36
7	0x84ac5fdd	-4.0525042e-36
8	0x04975819	3.5580834e-36
9	0x120d82f1	4.4653153e-28
10	0x12601e6e	7.0719445e-28
11	0x8fe7d115	-2.2858894e-29
12	0x0c1d5b53	1.2122322e-31
13	0x0c7b7fb9	1.9374772e-31
14	0x8bb407be	-6.934513e-32
15	0x8aec4c92	-2.2754776e-32
16	0x8a73cc96	-1.1738503e-32
17	0x08db50f8	1.3199619e-33
18	0x8b00a74e	-2.477777e-32
19	0x8a5e5aa5	-1.07059595e-32
20	0x8a844033	-1.2735287e-32
21	0x80000029	-5.7e-44
22	0x80000023	-4.9e-44
23	0x00000043	9.4e-44
24	0x09d3cdcf	5.0989944e-33
25	0x0a7af83b	1.2083749e-32
26	0x08ef6c38	1.4409731e-33
27	0x14bbd219	1.8965044e-26
28	0x15c3da53	7.910433e-26
29	0x1bf1f7cb	4.0030238e-22
30	0x12ad7f45	1.0949209e-27
31	0x91373ef1	-1.445555e-28
32	0x928ce6c0	-8.892126e-28
33	0x865aff80	-4.1188955e-35
34	0x83428ef8	-5.7175596e-37
35	0x044aae30	2.3824969e-36
36	0x8d93d08b	-9.109779e-31
37	0x1049bde6	3.9786553e-29
38	0x1041fdca	3.825805e-29
39	0x07b1f6a2	2.6776958e-34
40	0x877ced71	-1.9028151e-34
41	0x8758f985	-1.6323361e-34
42	0x26985e6e	1.0572714e-15
43	0x9a400b11	-3.971361e-23
44	0x18cb59d6	5.256498e-24
45	0x0472446a	2.8478377e-36
46	0x85515321	-9.842401e-36
47	0x856f0a75	-1.1239647e-35
48	0x06ae8d19	6.565885e-35
49	0x07b38699	2.7012036e-34
50	0x06cc2670	7.679275e-35
51	0x8c96cba7	-2.3233728e-31
52	0x0b2db7de	3.3456914e-32
53	0x0ab65acc	1.7560116e-32
54	0x0765cd7f	1.7288435e-34
55	0x875850d5	-1.6273788e-34
56	0x07e5f3f1	3.4599466e-34
57	0x8b3a974a	-3.5936114e-32
58	0x09a04b5c	3.8589467e-33
59	0x0aef8462	2.306466e-32
60	0x10329b6a	3.5224037e-29
61	0x12537281	6.6720997e-28
62	0x10bafcdf	7.3753674e-29
63	0x82d4fdc6	-3.129626e-37
64	0x03a59a27	9.73322e-37
65	0x03c2566e	1.14221385e-36
66	0x04288a9f	1.9811957e-36
67	0x872ab566	-1.2842687e-34
68	0x05e3f458	2.1436735e-35
69	0x07f5c20b	3.697755e-34
70	0x081d6ae3	4.7371114e-34
71	0x88ebd4cc	-1.4193576e-33
72	0x0ff4e3b7	2.414797e-29
73	0x8f57ee7d	-1.06462496e-29
74	0x9010f12f	-2.8584794e-29
75	0x9ceb798c	-1.5582415e-21
76	0x910b995e	-1.1012426e-28
77	0x8e416365	-2.3836943e-30
78	0x921d15d7	-4.9567385e-28
79	0x11156679	1.1785604e-28
80	0x91c81a55	-3.1570665e-28
81	0x05901614	1.3549805e-35
82	0x843a230a	-2.1880284e-36
83	0x85db05e3	-2.0596823e-35
84	0x8c714d28	-1.8589183e-31
85	0x0c27faff	1.2940743e-31
86	0x0d9ab70c	9.53505e-31
87	0x12386d89	5.8195175e-28
88	0x12a32485	1.0295749e-27
89	0x1b4606b8	1.6380347e-22
90	0x8b46c6b1	-3.8282892e-32
91	0x0abf3b60	1.8414965e-32
92	0x0a648b9c	1.1004058e-32
93	0x977c532c	-8.153057e-25
94	0x9654aae6	-1.717915e-25
95	0x95d5e37e	-8.6388934e-26
96	0x8318b7a8	-4.4879612e-37
97	0x835e9021	-6.540539e-37
98	0x0347efcf	5.875613e-37
99	0x8d339927	-5.5342984e-31
100	0x0c1c012d	1.2018157e-31
101	0x8d4a3445	-6.2308973e-31
102	0x856dadbc	-1.11755964e-35
103	0x09885304	3.2818877e-33
104	0x041363e0	1.7325627e-36
105	0x132df56f	2.1956678e-27
106	0x12e992e5	1.474058e-27
107	0x12c43263	1.238176e-27
108	0x0bca2b63	7.787285e-32
109	0x8d55ef79	-6.5923947e-31
110	0x0b841b8d	5.0886004e-32
111	0x8976aecb	-2.969336e-33
112	0x0b08668c	2.6269795e-32
113	0x89864ca1	-3.2331388e-33
114	0x8b91a8c1	-5.610588e-32
115	0x8ba2c2ae	-6.269305e-32
116	0x8a48b0b6	-9.662885e-33
117	0x00000010	2.2e-44
118	0x80000050	-1.12e-43
119	0x80000104	-3.64e-43
120	0x8a8ba9a7	-1.3449029e-32
121	0x893f4198	-2.302163e-33
122	0x89335d70	-2.1590275e-33
123	0x95bef05c	-7.711961e-26
124	0x93e9999e	-5.8968947e-27
125	0x94bfa63a	-1.9351636e-26
126	0x142009af	8.0798454e-27
127	0x12e69cfd	1.4553741e-27
128	0x12bb00fc	1.1801602e-27
129	0x866a2730	-4.40393e-35
130	0x07ba6d85	2.805054e-34
131	0x07bad9ac	2.8114106e-34
132	0x0e855ab3	3.287437e-30
133	0x90ab258e	-6.750547e-29
134	0x90c882d4	-7.9087663e-29
135	0x08af07ad	1.0534234e-33
136	0x080683c9	4.047907e-34
137	0x88316531	-5.338295e-34
138	0x19b00135	1.8198461e-23
139	0x9a692404	-4.8212364e-23
140	0x1986b930	1.3930072e-23
141	0x056e243c	1.11973614e-35
142	0x076b752d	1.771387e-34
143	0x047d284f	2.9758516e-36
144	0x884bfde2	-6.138653e-34
145	0x089d8360	9.47998e-34
146	0x09860578	3.226447e-33
147	0x0cdae7f0	3.372781e-31
148	0x8b580b4b	-4.1608583e-32
149	0x0a9618da	1.4453823e-32
150	0x873ad405	-1.4055392e-34
151	0x071ff949	1.2035089e-34
152	0x072e7220	1.3123843e-34
153	0x891361c1	-1.7740445e-33
154	0x0c0d1933	1.0869828e-31
155	0x8999e50e	-3.7048812e-33
156	0x9347c478	-2.5214198e-27
157	0x128b96b6	8.809286e-28
158	0x10f14521	9.516425e-29
159	0x03b56148	1.0660559e-36
160	0x82bd66e5	-2.7830113e-37
161	0x0db493d7	1.1128948e-30
162	0x892e045c	-2.0946538e-33
163	0x87795c33	-1.8759773e-34
164	0x86b11ed4	-6.66253e-35
165	0x88b95ef2	-1.1156604e-33
166	0x0b41dd86	3.7337104e-32
167	0x86df4c0a	-8.3995006e-35
168	0x90c79b7d	-7.873123e-29
169	0x0ea1803c	3.981305e-30
170	0x0f4ce73f	1.0102513e-29
171	0x107cdd98	4.9868947e-29
172	0x11819fe7	2.0451159e-28
173	0x8ec6eba2	-4.9037675e-30
174	0x122970c1	5.3465977e-28
175	0x1235321f	5.717531e-28
176	0x91051536	-1.0498386e-28
177	0x056dc148	1.11791866e-35
178	0x05c07d36	1.8101588e-35
179	0x04ca1c03	4.7515696e-36
180	0x0bbaf041	7.200609e-32
181	0x0cb1638b	2.7331078e-31
182	0x0cc681ea	3.058492e-31
183	0x13f9aa03	6.302408e-27
184	0x8f2b6fb2	-8.452463e-30
185	0x137a319a	3.1578892e-27
186	0x0c045036	1.0193048e-31
187	0x0b2fed06	3.388209e-32
188	0x0b5a8f80	4.209323e-32
189	0x9790e373	-9.363198e-25
190	0x1620971e	1.2972381e-25
191	0x162f1b85	1.4145071e-25
192	0x027c9bcc	1.8558748e-37
193	0x81af32f7	-6.435798e-38
194	0x838a8e2d	-8.143553e-37
195	0x0c26f26c	1.2861126e-31
196	0x0c7b0319	1.9337269e-31
197	0x8ba01f9d	-6.1677325e-32
198	0x03d93811	1.2766986e-36
199	0x847b5210	-2.954259e-36
200	0x0318f2c0	4.494745e-37
201	0x13285531	2.1246584e-27
202	0x93982477	-3.840615e-27
203	0x131d9f78	1.989481e-27
204	0x0be2b70b	8.7327446e-32
205	0x0a6d861c	1.1436358e-32
206	0x8a000542	-6.163965e-33
207	0x8b2371ad	-3.1478178e-32
208	0x0ac75c73	1.9197778e-32
209	0x89b44d79	-4.340628e-33
210	0x8acdae8a	-1.9806436e-32
211	0x8adb3859	-2.1110129e-32
212	0x0a248fd2	7.923362e-33
213	0x00000024	5e-44
214	0x0000003d	8.5e-44
215	0x80000094	-2.07e-43
216	0x8b8c76da	-5.4104866e-32
217	0x8809c5f3	-4.1459626e-34
218	0x09b43d3d	4.3391012e-33
219	0x14b1ee95	1.7966537e-26
220	0x956cd80b	-4.7830248e-26
221	0x947bb937	-1.2708789e-26
222	0x92ad093f	-1.0920114e-27
223	0x1206642d	4.240642e-28
224	0x8fa9b4c8	-1.6734321e-29
225	0x8627a482	-3.153007e-35
226	0x066306bd	4.2698905e-35
227	0x04aec66e	4.1089432e-36
228	0x8d7e9b61	-7.8456823e-31
229	0x09d3fd25	5.103446e-33
230	0x8daa3150	-1.048893e-30
231	0x08929fd7	8.8246335e-34
232	0x08a87a6c	1.0139913e-33
233	0x093cdbb6	2.2732984e-33
234	0x19114806	7.510869e-24
235	0x9a0bf37f	-2.894122e-23
236	0x973857cf	-5.9564437e-25
237	0x054d7287	9.660089e-36
238	0x84eb786f	-5.5358835e-36
239	0x852e40be	-8.193332e-36
240	0x09478a28	2.4018714e-33
241	0x87933ec8	-2.2155001e-34
242	0x0922e432	1.9607338e-33
243	0x8ad0e32f	-2.0115128e-32
244	0x8b0c89a4	-2.7066569e-32
245	0x8927a427	-2.0179078e-33
246	0x099d5666	3.7877624e-33
247	0x04a1d140	3.8043084e-36
248	0x0822a24f	4.8940895e-34
249	0x0c378a05	1.4139341e-31
250	0x0ab3bb9b	1.7307642e-32
251	0x09cb14f3	4.8890173e-33
252	0x950df9d8	-2.8671815e-26
253	0x10321d35	3.512681e-29
254	0x126ff56c	7.571761e-28
255	0x023dac76	1.3935021e-37

fai_gcn_networks.0.gcn.conv.bias f4 [96]
0	0x8e093e0f	-1.6916434e-30
1	0x0f7c9723	1.2453667e-29
2	0x079f65d9	2.3983522e-34
3	0x1ded6929	6.284211e-21
4	0x1619d417	1.2426165e-25
5	0x949c662f	-1.5792279e-26
6	0x93854445	-3.364124e-27
7	0x80008d36	-5.0657e-41
8	0x15d3c937	8.553968e-26
9	0x1622b851	1.3144416e-25
10	0x9d77ad68	-3.2779827e-21
11	0x0fdabcf6	2.1569245e-29
12	0x1a5d4845	4.5760108e-23
13	0x919d21a9	-2.4790977e-28
14	0x190e2e8b	7.350627e-24
15	0x0eb3c287	4.431423e-30
16	0x1312fdac	1.855286e-27
17	0x16cc2305	3.2980078e-25
18	0x123285bb	5.633173e-28
19	0x16ea03e4	3.7807194e-25
20	0x9e3661c1	-9.655215e-21
21	0x04cb585b	4.7806212e-36
22	0x09558a69	2.5704023e-33
23	0x149ae35f	1.5639708e-26
24	0x9ad873a8	-8.952236e-23
25	0x0d897dbf	8.473549e-31
26	0x1ce32608	1.5031431e-21
27	0x90b35c46	-7.074522e-29
28	0x156dbca6	4.8010586e-26
29	0x158a6c3e	5.590853e-26
30	0x96cc636b	-3.302072e-25
31	0x20fa0b60	4.2359175e-19
32	0x8e8668ac	-3.3134346e-30
33	0x8d918cbe	-8.970197e-31
34	0x0551f36c	9.871842e-36
35	0x1e4a1c93	1.06997e-20
36	0x973e1902	-6.1423875e-25
37	0x159a5be8	6.234511e-26
38	0x938cd826	-3.5554107e-27
39	0x000c289f	1.116598e-39
40	0x9604efb5	-1.0738513e-25
41	0x168ed3bb	2.3074958e-25
42	0x1d5f34c2	2.954108e-21
43	0x107469ba	4.8201964e-29
44	0x992f7d43	-9.072584e-24
45	0x91962840	-2.3690633e-28
46	0x9a02542d	-2.6951367e-23
47	0x0ee56043	5.6545555e-30
48	0x141aadb2	7.8092684e-27
49	0x9597842d	-6.119695e-26
50	0x92c67a80	-1.2525755e-27
51	0x965670ea	-1.7322412e-25
52	0x9be6c949	-3.8180386e-22
53	0x84048af7	-1.5580335e-36
54	0x09ae7476	4.1998496e-33
55	0x1491bf28	1.4716656e-26
56	0x1c37fca7	6.0876166e-22
57	0x91d2bcf7	-3.3248617e-28
58	0x9c920940	-9.663861e-22
59	0x90a32952	-6.435583e-29
60	0x14cd2066	2.0712489e-26
61	0x1581eb79	5.2474195e-26
62	0x96efc809	-3.8738772e-25
63	0xa164e404	-7.755118e-19
64	0x8d5bb70b	-6.7704915e-31
65	0x8fb9a2dc	-1.830514e-29
66	0x058522e6	1.252008e-35
67	0x1ba311b3	2.6977526e-22
68	0x16576fa7	1.7402793e-25
69	0x9371487e	-3.0454218e-27
70	0x92eff091	-1.5142325e-27
71	0x8020d75f	-3.015996e-39
72	0x15c77732	8.056352e-26
73	0x95fefc90	-1.02988256e-25
74	0x1e2089bc	8.498812e-21
75	0x106d571a	4.680711e-29
76	0x99c23688	-2.0081155e-23
77	0x92238ee2	-5.160985e-28
78	0x9b50f016	-1.7282933e-22
79	0x90022705	-2.566804e-29
80	0x11e52fab	3.6159207e-28
81	0x960c21c8	-1.131977e-25
82	0x11d71b41	3.3937815e-28
83	0x15584a59	4.3679503e-26
84	0x1e447c19	1.0401816e-20
85	0x05045a3e	6.223185e-36
86	0x89166b59	-1.8106068e-33
87	0x134feaf0	2.6242906e-27
88	0x9c906996	-9.556414e-22
89	0x91c5c06b	-3.1199706e-28
90	0x9c8dd16b	-9.384731e-22
91	0x101cb003	3.090117e-29
92	0x1508ec16	2.765122e-26
93	0x964e197f	-1.6648593e-25
94	0x17023c0b	4.208105e-25
95	0x9ee66095	-2.4392143e-20

fai_gcn_networks.1.gcn.conv.weight f4 [192, 32, 1, 1]
0	0x00000029	5.7e-44
1	0x80000024	-5e-44
2	0x00000024	5e-44
3	0x00071944	6.51912e-40
4	0x00000023	4.9e-44
5	0x8039a671	-5.294331e-39
6	0x00000027	5.5e-44
7	0x00000023	4.9e-44
8	0x00000024	5e-44
9	0x000002da	1.023e-42
10	0x801b4720	-2.505073e-39
11	0x80000025	-5.2e-44
12	0x80000521	-1.84e-42
13	0x00000023	4.9e-44
14	0x869ca147	-5.8917654e-35
15	0x00000025	5.2e-44
16	0x800001fb	-7.1e-43
17	0x00000011	2.4e-44
18	0x00000029	5.7e-44
19	0x80000027	-5.5e-44
20	0x001df4a0	2.750984e-39
21	0x00000023	4.9e-44
22	0x00000023	4.9e-44
23	0x00000024	5e-44
24	0x00042b49	3.8287e-40
25	0x8000255e	-1.3405e-41
26	0x801c8d99	-2.62219e-39
27	0x80000023	-4.9e-44
28	0x00000023	4.9e-44
29	0x80002f31	-1.6929e-41
30	0x80000023	-4.9e-44
31	0x00ce2a36	1.8933255e-38
32	0x80000024	-5e-44
33	0x800001b4	-6.11e-43
34	0x80000023	-4.9e-44
35	0x803518ec	-4.876222e-39
36	0x00000175	5.23e-43
37	0x800000b3	-2.51e-43
38	0x0000001f	4.3e-44
39	0x9be856a2	-3.8437166e-22
40	0x80000024	-5e-44
41	0x8001265a	-1.05593e-40
42	0x818f2621	-5.2584616e-38
43	0x80000020	-4.5e-44
44	0x0006174e	5.59373e-40
45	0x0f41d27c	9.5561725e-30
46	0x080aac19	4.1730164e-34
47	0x0000002c	6.2e-44
48	0x1d6735d0	3.0600416e-21
49	0x8000014f	-4.7e-43
50	0x00000027	5.5e-44
51	0x800017ad	-8.493e-42
52	0x80315250	-4.529467e-39
53	0x00000023	4.9e-44
54	0x00000026	5.3e-44
55	0x00000023	4.9e-44
56	0x004772c7	6.561495e-39
57	0x8000ef61	-8.5873e-41
58	0x0920988b	1.9331025e-33
59	0x80000023	-4.9e-44
60	0x00000095	2.09e-43
61	0x8000f349	-8.7274e-41
62	0x00000366	1.219e-42
63	0x03405b2c	5.652839e-37
64	0x8000002a	-5.9e-44
65	0x00000023	4.9e-44
66	0x00000023	4.9e-44
67	0x8188a93a	-5.020134e-38
68	0xa0172287	-1.2801622e-19
69	0x0000013f	4.47e-43
70	0x00000025	5.2e-44
71	0x80000023	-4.9e-44
72	0x80000023	-4.9e-44
73	0x80029dff	-2.4035e-40
74	0x812831c3	-3.089243e-38
75	0x09bfc40e	4.6165946e-33
76	0x800002e6	-1.04e-42
77	0x80000020	-4.5e-44
78	0x89ccc4af	-4.9296174e-33
79	0x80000024	-5e-44
80	0x00001dbd	1.0668e-41
81	0x8000091f	-3.272e-42
82	0x0006b499	6.15799e-40
83	0x00000259	8.42e-43
84	0x80150f3b	-1.934009e-39
85	0x0000002a	5.9e-44
86	0x00000023	4.9e-44
87	0x8005b989	-5.25735e-40
88	0x00241adc	3.315713e-39
89	0x800175b0	-1.34054e-40
90	0x81c7c5bf	-7.3384807e-38
91	0x80000023	-4.9e-44
92	0x8000018b	-5.54e-43
93	0x00006c1c	3.8782e-41
94	0x800005fb	-2.145e-42
95	0x0497195c	3.552322e-36
96	0x0600d762	2.4232363e-35
97	0x8483fe44	-3.1031458e-36
98	0x803382a2	-4.730473e-39
99	0x12879c93	8.558296e-28
100	0x0c1dfd92	1.2171146e-31
101	0x8a866e67	-1.294526e-32
102	0x873908e6	-1.3920468e-34
103	0x80000023	-4.9e-44
104	0x09d780a5	5.1880344e-33
105	0x0f49ecc8	9.9556675e-30
106	0x93702b15	-3.03135e-27
107	0x07d76bd2	3.2412976e-34
108	0x0fa7e256	1.6554653e-29
109	0x072a27a8	1.2801032e-34
110	0x1a69684f	4.826753e-23
111	0x86454688	-3.71034e-35
112	0x8c452083	-1.5186112e-31
113	0x8cafdb49	-2.7094997e-31
114	0x08875a8a	8.146303e-34
115	0x0b607d5d	4.3235144e-32
116	0x1400f370	6.510358e-27
117	0x04a16051	3.793937e-36
118	0x80fccb1f	-2.3215411e-38
119	0x89487c6d	-2.4132629e-33
120	0x109393dc	5.820909e-29
121	0x10c44d49	7.7427445e-29
122	0x13c18325	4.8849368e-27
123	0x066c6a72	4.446487e-35
124	0x0a49f88b	9.724544e-33
125	0x8ef27eb0	-5.97796e-30
126	0x8a734d86	-1.1714605e-32
127	0x15a2cf6a	6.575852e-26
128	0x00000023	4.9e-44
129	0x80000023	-4.9e-44
130	0x80000023	-4.9e-44
131	0x80d4fefb	-1.9560595e-38
132	0x80001446	-7.273e-42
133	0x00000191	5.62e-43
134	0x8000001d	-4e-44
135	0x80000023	-4.9e-44
136	0x80000023	-4.9e-44
137	0x00005d04	3.3368e-41
138	0x813e1b51	-3.4917087e-38
139	0x80000023	-4.9e-44
140	0x000129b4	1.06796e-40
141	0x00000023	4.9e-44
142	0x07cb71b9	3.0610885e-34
143	0x0000002b	6e-44
144	0x0000181b	8.647e-42
145	0x00000149	4.61e-43
146	0x8000000c	-1.7e-44
147	0x8000009e	-2.21e-43
148	0x81330664	-3.2881693e-38
149	0x00000023	4.9e-44
150	0x8000002c	-6.2e-44
151	0x00000023	4.9e-44
152	0x003aa186	5.384402e-39
153	0x00067ab3	5.95029e-40
154	0x0258863f	1.59077e-37
155	0x00000023	4.9e-44
156	0x00000114	3.87e-43
157	0x000441cc	3.90945e-40
158	0x800000e5	-3.21e-43
159	0xa4378102	-3.9791073e-17
160	0x0be230a6	8.712523e-32
161	0x897f3333	-3.0718582e-33
162	0x03a6ab86	9.795983e-37
163	0x181c9c84	2.0241548e-24
164	0x117e0841	2.003961e-28
165	0x908b0d6c	-5.484651e-29
166	0x0d9f8e22	9.833349e-31
167	0x00000910	3.251e-42
168	0x11372626	1.444791e-28
169	0x14d84e77	2.1841375e-26
170	0x17256b58	5.344986e-25
171	0x8c5402bc	-1.6332709e-31
172	0x9510ec32	-2.9266894e-26
173	0x0d19ada0	4.735576e-31
174	0x2028ce6b	1.4298451e-19
175	0x88cb6d89	-1.224337e-33
176	0x8eeca481	-5.8336903e-30
177	0x8fd7ad4b	-2.1267387e-29
178	0x0dcd40f4	1.2649737e-30
179	0x108b4ed3	5.494728e-29
180	0x98b2f7f0	-4.6262274e-24
181	0x87ac65a9	-2.5939434e-34
182	0x850d1eea	-6.635466e-36
183	0x9a2ffc89	-3.6393148e-23
184	0x175e7df4	7.1891044e-25
185	0x976cf0c2	-7.655959e-25
186	0x9682319b	-2.1033938e-25
187	0x0a800cbd	1.2330743e-32
188	0x112219ee	1.2787537e-28
189	0x9584b9bf	-5.360743e-26
190	0x10c2e081	7.686541e-29
191	0x1bd71849	3.558446e-22
192	0x0437e7be	2.1617957e-36
193	0x891b8420	-1.8719571e-33
194	0x001acf54	2.462098e-39
195	0x128e29d4	8.971771e-28
196	0x0bf6af29	9.5019305e-32
197	0x0981129d	3.1073124e-33
198	0x8657fef1	-4.0624307e-35
199	0x0000002a	5.9e-44
200	0x88ead07d	-1.4132378e-33
201	0x0e68f21e	2.8712783e-30
202	0x9292093a	-9.21617e-28
203	0x06ea5f22	8.81608e-35
204	0x8edff473	-5.520914e-30
205	0x07393007	1.3931967e-34
206	0x1a928c02	6.061038e-23
207	0x06169cb4	2.8326992e-35
208	0x0c72236a	1.8653659e-31
209	0x8a35964f	-8.743103e-33
210	0x86371adb	-3.4438205e-35
211	0x0b5f0199	4.294944e-32
212	0x921902b5	-4.8281624e-28
213	0x0333b6d3	5.2813244e-37
214	0x00410b8b	5.973448e-39
215	0x8891da33	-8.778168e-34
216	0x1087a5d1	5.350359e-29
217	0x0fc00e32	1.893813e-29
218	0x92edb747	-1.5001984e-27
219	0x857888a0	-1.1685998e-35
220	0x0ad02f9e	2.0047583e-32
221	0x8e507627	-2.5694868e-30
222	0x8c313f7c	-1.3654688e-31
223	0x15174895	3.0551464e-26
224	0x88158322	-4.4992202e-34
225	0x89138057	-1.7754826e-33
226	0x0202c29c	9.606742e-38
227	0x985ff5ab	-2.8946105e-24
228	0x112ef370	1.3801195e-28
229	0x8f493968	-9.921121e-30
230	0x0d23c708	5.046783e-31
231	0x00000444	1.53e-42
232	0x8e259253	-2.0408273e-30
233	0x14c52479	1.9906303e-26
234	0x98152041	-1.9274083e-24
235	0x0aa0ba11	1.547743e-32
236	0x142464ac	8.299738e-27
237	0x8cc90b91	-3.0975915e-31
238	0x1f53b10f	4.4827447e-20
239	0x0863cb96	6.854964e-34
240	0x0e8ae3cb	3.4238983e-30
241	0x111a4ff5	1.2173097e-28
242	0x8c80d83e	-1.9851669e-31
243	0x10dd9598	8.7399616e-29
244	0x17c932a6	1.3002106e-24
245	0x0693790c	5.5473117e-35
246	0x041c515b	1.8375068e-36
247	0x0d88a2bf	8.420827e-31
248	0x156567fa	4.6328205e-26
249	0x95aeda40	-7.062238e-26
250	0x18816f5d	3.3458167e-24
251	0x09aabdab	4.1104374e-33
252	0x0f5b3476	1.0807637e-29
253	0x14615a3c	1.1377393e-26
254	0x0eb3a0bc	4.428169e-30
255	0x9a366abd	-3.772294e-23

fai_gcn_networks.1.gcn.conv.bias f4 [192]
0	0x1fd0d3d3	8.844186e-20
1	0xa1b4142e	-1.2202616e-18
2	0x22ce530a	5.5924333e-18
3	0x3502353b	4.8506234e-07
4	0x2181a6bd	8.785515e-19
5	0x3a7b4690	0.0009585405
6	0x345f343d	2.0787498e-07
7	0x3a00c165	0.00049116305
8	0x1d5b57c0	2.9029774e-21
9	0x1e5216c9	1.1122019e-20
10	0xa096598b	-2.5470243e-19
11	0x39c9cbe5	0.0003848962
12	0x223b74ff	2.5405163e-18
13	0x2f7f69f0	2.3229751e-10
14	0x3931059f	0.0001688213
15	0x20f0cbee	4.079253e-19
16	0x9f80949a	-5.445595e-20
17	0xa1bdb9bc	-1.2856302e-18
18	0x3a926e5d	0.0011171807
19	0x22802ddc	3.4743025e-18
20	0x2714fbd1	2.0675636e-15
21	0x3a4318a2	0.000744233
22	0x381b223c	3.6986763e-05
23	0x9f7d6fa9	-5.3667197e-20
24	0x38de2f23	0.00010594565
25	0x20edbbde	4.0273682e-19
26	0xa0855cf5	-2.259259e-19
27	0x23d9f06b	2.3629008e-17
28	0xa0da053c	-3.69341e-19
29	0x9f86de9f	-5.71195e-20
30	0xa023b9b9	-1.3868088e-19
31	0x9f1130f1	-3.0745428e-20
32	0x20112369	1.2293694e-19
33	0x2bd04b0b	1.4800118e-12
34	0x383b4d8d	4.46565e-05
35	0xa30b2115	-7.5422105e-18
36	0x215d9259	7.50714e-19
37	0x3422f206	1.5175473e-07
38	0xa03d90d5	-1.6056844e-19
39	0x281759d5	8.401663e-15
40	0x34dfcc27	4.1685527e-07
41	0xa07903aa	-2.1092333e-19
42	0x201e2beb	1.3397652e-19
43	0xa06e4781	-2.0183043e-19
44	0x3988b72b	0.00026076412
45	0xa9375cca	-4.0714644e-14
46	0x37753a54	1.46167185e-05
47	0x2296787a	4.078514e-18
48	0x37cb62bb	2.424546e-05
49	0x31afcebf	5.1166746e-09
50	0x1fd6c35f	9.095574e-20
51	0x3504d83f	4.948851e-07
52	0x1ea29b15	1.7216558e-20
53	0x210ab22a	4.6992017e-19
54	0x21d6acf5	1.4546985e-18
55	0x21a5fa3d	1.1247072e-18
56	0x1fd48a84	9.001465e-20
57	0x34a90495	3.1482037e-07
58	0x3642b5ae	2.9014004e-06
59	0x211ae782	5.248363e-19
60	0x3822bb2f	3.8798138e-05
61	0x220010a4	1.7356044e-18
62	0x9f89c61a	-5.834949e-20
63	0x21d368b5	1.4325632e-18
64	0x9f18b38f	-3.233578e-20
65	0x22884f09	3.6946556e-18
66	0xa1123a0a	-4.954354e-19
67	0x354eccf1	7.703921e-07
68	0xa1e83b12	-1.5736567e-18
69	0x3ac1fda0	0.0014800318
70	0x34b07e95	3.2874655e-07
71	0x3a499930	0.0007690368
72	0x9fb50f2f	-7.66816e-20
73	0x1ec8fe54	2.1281011e-20
74	0x21045049	4.4829596e-19
75	0x3a1edfea	0.00060605875
76	0x22b9f5e4	5.0404697e-18
77	0x2fcaebac	3.691104e-10
78	0x398c7cb2	0.00026795786
79	0xa0d554a7	-3.6139622e-19
80	0x210225f8	4.4095964e-19
81	0xa1ff7bf8	-1.7312286e-18
82	0x3ae30961	0.0017321521
83	0x22cd81ac	5.5702657e-18
84	0x27681245	3.2206372e-15
85	0x3a9811b8	0.001160196
86	0x3875f80e	5.864357e-05
87	0x9f57aff4	-4.5673566e-20
88	0x392edf31	0.00016677078
89	0xa012417f	-1.2388352e-19
90	0xa16837eb	-7.8678664e-19
91	0x2422eaff	3.53272e-17
92	0xa0dfaae8	-3.7890766e-19
93	0x9f6f7919	-5.0710388e-20
94	0xa0569509	-1.8175817e-19
95	0x9e3d611d	-1.0025659e-20
96	0x1f81d358	5.4983264e-20
97	0x2c239943	2.324877e-12
98	0x38952f69	7.1137045e-05
99	0xa24ca3d7	-2.7733891e-18
100	0x21496827	6.8239293e-19
101	0x34807c5d	2.3932344e-07
102	0x9fb69b97	-7.73374e-20
103	0x286e9874	1.3244712e-14
104	0x35319f95	6.616986e-07
105	0xa0a22ea9	-2.7474745e-19
106	0xa1861d74	-9.087989e-19
107	0xa05ce2e1	-1.8709793e-19
108	0x39d63f44	0.00040864397
109	0xa98ac0f5	-6.161904e-14
110	0x37c1c0dd	2.3097202e-05
111	0x227bec26	3.414186e-18
112	0x382122fd	3.8417977e-05
113	0x32098eb8	8.0069e-09
114	0x2073ea0b	2.0660339e-19
115	0x355348f4	7.8709786e-07
116	0x1f1743b4	3.2031496e-20
117	0x21c3fc83	1.3280553e-18
118	0x21d8a34d	1.4679955e-18
119	0x2249e21b	2.7360279e-18
120	0xa057d457	-1.8281466e-19
121	0x3505b8f3	4.98155e-07
122	0x3699e8d3	4.5868596e-06
123	0x2122862d	5.5065315e-19
124	0x388037c5	6.1139035e-05
125	0x9febed1a	-9.991862e-20
126	0xa0922170	-2.475549e-19
127	0x9fd64139	-9.074043e-20
128	0x9f534640	-4.4739097e-20
129	0xa2392bd9	-2.5095388e-18
130	0xa2a5b2c6	-4.4912623e-18
131	0x342203c9	1.5088803e-07
132	0x222ce48a	2.3431334e-18
133	0x3993fb83	0.00028225416
134	0x338b5ef8	6.4899666e-08
135	0x3916faea	0.00014398588
136	0xa05b2fb9	-1.8565812e-19
137	0x9dab77ca	-4.5387182e-21
138	0x9f361ea0	-3.856533e-20
139	0x38eb4904	0.000112192734
140	0xa1c2ee10	-1.3208966e-18
141	0x2e97a5a5	6.8961094e-11
142	0x38500afb	4.960129e-05
143	0x2219300f	2.0760809e-18
144	0x201efcec	1.3466805e-19
145	0x2160b2ee	7.6130964e-19
146	0x39a9219f	0.00032259242
147	0x9e9a4f4a	-1.6338177e-20
148	0x263928c3	6.424001e-16
149	0x396321b0	0.00021660957
150	0x373ba465	1.1184345e-05
151	0x9d075383	-1.7910276e-21
152	0x3805d357	3.1906497e-05
153	0x1f7e885f	5.3899396e-20
154	0x2051f234	1.7783127e-19
155	0x23003c87	6.951711e-18
156	0x20925f00	2.4796228e-19
157	0x9b85ca63	-2.2133794e-22
158	0x1f8022f9	5.4267966e-20
159	0x9c658c1e	-7.595084e-22
160	0x21d7e800	1.4630377e-18
161	0x2af4aa7e	4.346141e-13
162	0x37603e56	1.3365954e-05
163	0xa36806ab	-1.2578157e-17
164	0xa1ab5f48	-1.1612631e-18
165	0x334bddbe	4.7466294e-08
166	0x1ec9be52	2.1360417e-20
167	0x27326321	2.47562e-15
168	0x340b6511	1.2982152e-07
169	0x20aa2fd9	2.8830783e-19
170	0x218dea5f	9.616569e-19
171	0xa0c5fbe2	-3.353978e-19
172	0x38a2aa73	7.7565106e-05
173	0x2857a078	1.1969694e-14
174	0x3697070d	4.5009715e-06
175	0x20c974c4	3.4127993e-19
176	0x36f7d5d9	7.386069e-06
177	0x30d7d5a4	1.5704029e-09
178	0x1fe30359	9.614378e-20
179	0x34252486	1.538011e-07
180	0x9e77b6cd	-1.31138734e-20
181	0xa1ca6dff	-1.3717168e-18
182	0xa1926aae	-9.921583e-19
183	0x21bdb305	1.2854524e-18
184	0x20b7f657	3.116442e-19
185	0x33d318b1	9.8299445e-08
186	0x3572b8d5	9.042099e-07
187	0xa24e64e6	-2.7971621e-18
188	0x3746b9aa	1.1844948e-05
189	0xa215a537	-2.028073e-18
190	0xa1297597	-5.7415056e-19
191	0x22e10cb0	6.0999806e-18

fai_gcn_networks.1.residual.0.weight f4 [64, 32, 1, 1]
0	0xbc7f773d	-0.015592393
1	0xbc4e3058	-0.012584768
2	0xbb3f9820	-0.002923496
3	0x3d165aa1	0.036707524
4	0x3d1eda92	0.038782664
5	0xbc36b8d2	-0.011152463
6	0x3cd6cc26	0.026220392
7	0x3d04c5bc	0.032415137
8	0xbca29a4e	-0.019848969
9	0xbc859c96	-0.016310018
10	0x3c1670c4	0.009182159
11	0x3d095dad	0.0335366
12	0x3b309054	0.0026941495
13	0xbc251450	-0.010075644
14	0x3cf462fc	0.029832356
15	0x3c86844e	0.01642051
16	0x3d17101d	0.0368806
17	0x3c6fca2f	0.014635607
18	0xbc6b31f0	-0.014355168
19	0x3cb4e6e2	0.02208275
20	0xbc5615a4	-0.013066683
21	0x3c14a1e2	0.009071799
22	0x3cc450d5	0.023964325
23	0xbc040d69	-0.008059838
24	0xbcb0dcaf	-0.021589605
25	0x3c9bd227	0.019021107
26	0xbc856f61	-0.016288461
27	0x3c940c0c	0.01807215
28	0x3b144b99	0.0022628068
29	0x3aa18621	0.0012323299
30	0xbbc05849	-0.0058698994
31	0x3c98c657	0.018649263
32	0x3cc6d901	0.024273397
33	0x3cbc88d2	0.02301446
34	0xbd306eb2	-0.043074317
35	0xbc8b64ae	-0.017015781
36	0x3b6eb50a	0.0036423826
37	0x3c47d9e4	0.012197945
38	0x3d010cfc	0.031506523
39	0x3cdd2749	0.026996272
40	0xbc4425c2	-0.011971893
41	0x3b74178a	0.0037245476
42	0xba5f7d2c	-0.0008525427
43	0xbc9fe60e	-0.019518878
44	0xbd2d836a	-0.042361654
45	0x3c8f5147	0.01749481
46	0xbcedb838	-0.029018506
47	0x3bbfac72	0.0058494145
48	0x3b39befc	0.0028342595
49	0xbb96c4c2	-0.004601092
50	0xbc33c2b5	-0.010971715
51	0xbce4bef0	-0.027923077
52	0x3cee65fb	0.029101362
53	0x3b90ad63	0.0044152006
54	0x3c6da85b	0.014505471
55	0xbd1937fd	-0.03740691
56	0xbc1debe8	-0.009638764
57	0x3c986dc6	0.018607032
58	0xbc2da25b	-0.010597791
59	0x3cdb844f	0.026796488
60	0xbccfc825	-0.025363991
61	0xbd25b23c	-0.04045318
62	0x3c36b418	0.011151336
63	0x3c130c53	0.008975106
64	0xba9538d2	-0.0011384732
65	0xbbb0324d	-0.00537709
66	0x3bb227ad	0.0054368586
67	0x3c8c179b	0.0171011
68	0x3c43c5fc	0.011949059
69	0xbc07f1ff	-0.008297442
70	0x3c675a0a	0.014120588
71	0xbbf424f4	-0.007450694
72	0xbc7dc68c	-0.015489232
73	0x3c7f64e1	0.015588016
74	0xbc16110c	-0.009159338
75	0xbca9f707	-0.020747675
76	0xbc2bcbaf	-0.010485574
77	0x3b5ea58a	0.003397318
78	0xbba81756	-0.005129735
79	0xbc9379c0	-0.01800239
80	0xbc98f82d	-0.018673027
81	0xbd264a8b	-0.040598433
82	0xbb9e9ab5	-0.00484022
83	0xbc9da1ba	-0.019242156
84	0xbcfa7630	-0.030573934
85	0xbce25f3b	-0.0276333
86	0x3c57c85c	0.013170328
87	0xbc9dd27d	-0.019265408
88	0xbc8b2d30	-0.01698932
89	0xbbe07a5b	-0.0068505234
90	0xbbb57789	-0.0055379313
91	0x3c3915eb	0.01129673
92	0x3ce61bf7	0.028089507
93	0x3cda68ca	0.026661295
94	0xbbbfca9c	-0.0058530103
95	0xbca0a131	-0.019608112
96	0xbc948ff9	-0.018135058
97	0xbb4d0001	-0.003128052
98	0xbbd7c279	-0.0065844622
99	0x3cd88237	0.026429279
100	0xbc86bf4c	-0.01644864
101	0xbc0463f6	-0.008080473
102	0xbd31c12a	-0.043397106
103	0xbce7ab98	-0.028280064
104	0x3c297b80	0.010344386
105	0x3d06ea14	0.032938078
106	0xbc492735	-0.012277414
107	0xbc7bf28a	-0.01537765
108	0xba9e0436	-0.0012055698
109	0xbc5b8d90	-0.01340045
110	0x3cb56260	0.022141635
111	0xbccaeaea	-0.024770219
112	0xbaef43f9	-0.001825451
113	0xbca59cf8	-0.02021645
114	0x3d042f77	0.03227183
115	0x3cd57a92	0.026059423
116	0xbb05d6ed	-0.0020422295
117	0xbbd331dc	-0.0064451527
118	0x3c4e0f52	0.012576895
119	0x3c51a0dc	0.0127946995
120	0xbcba18f3	-0.022716975
121	0x3ccd411d	0.025055462
122	0x3c949a76	0.018140059
123	0x3b0fd340	0.0021945983
124	0x3cb5e2c1	0.022202851
125	0x3cdcdb64	0.026960082
126	0x3ca0d4e7	0.01963277
127	0xbb57dcb9	-0.0032937957
128	0x3c6613bc	0.014042791
129	0x3befae54	0.0073144827
130	0xbca17eb0	-0.01971373
131	0x3c957ffe	0.018249508
132	0x3c34c267	0.011032677
133	0x3ca06167	0.019577695
134	0xbbb4ac47	-0.005513701
135	0x3c63cc5d	0.0139037045
136	0xbba1b909	-0.004935388
137	0x3a24e66d	0.00062904396
138	0x3d36d855	0.044639904
139	0xbc069007	-0.00821305
140	0xbb1fea20	-0.0024401024
141	0x3c548dd3	0.012973267
142	0xbae81b6e	-0.001770837
143	0xbc07098d	-0.008242023
144	0xbb35ceca	-0.0027741664
145	0xbca5a3d2	-0.020219717
146	0xbc7d075e	-0.015443651
147	0xbbd5e499	-0.006527495
148	0xbae59dcf	-0.0017518344
149	0x3cb44ea0	0.022010148
150	0xbc81d772	-0.015849803
151	0x3a3f3add	0.0007294843
152	0xbc6bf645	-0.014401977
153	0x3cc38a54	0.02386967
154	0x3ca5fbb9	0.020261632
155	0x3ad16df4	0.0015978203
156	0xbc6548d5	-0.013994415
157	0x3c173ac6	0.009230321
158	0xbc44ebf3	-0.012019145
159	0xbd3bf8fc	-0.045891747
160	0xbc782b13	-0.015146988
161	0x3c13df9b	0.00902548
162	0x3cc93a60	0.024563968
163	0xbc75fc03	-0.015013698
164	0x3ca6ec30	0.020376295
165	0x3c3840b0	0.011245891
166	0xbb59c525	-0.003322908
167	0xbcd1a18a	-0.025589723
168	0xbce09e10	-0.02741912
169	0xbc967d3e	-0.018370267
170	0x3c8c6247	0.017136706
171	0xbc2a7449	-0.010403701
172	0xbc92afb4	-0.017906047
173	0xbaf04659	-0.0018331512
174	0x3cb036bd	0.021510476
175	0x3bce2b85	0.006291809
176	0xbc84ccf9	-0.01621102
177	0x3d79c800	0.06098175
178	0x3cd2b942	0.025723103
179	0x3c329c0b	0.010901461
180	0x3b3d61a7	0.0028897317
181	0x3cb3222a	0.021866877
182	0xbbcb6c37	-0.0062079686
183	0x3b9b6e58	0.0047433786
184	0x3c91de02	0.017806057
185	0x3bc68e29	0.0060594273
186	0xbcc96e79	-0.02458881
187	0xbca25377	-0.01981519
188	0xbc81e29b	-0.015855124
189	0xba6a6947	-0.0008942079
190	0x3c4a707b	0.012355919
191	0x3c38e1cb	0.011284302
192	0xbc80e4e8	-0.015734151
193	0xbae19e75	-0.0017213362
194	0xbd79e923	-0.061013352
195	0x3c79967b	0.015233631
196	0xbd1d2a29	-0.038370285
197	0x3ab1cc3c	0.0013564895
198	0xbc39a23d	-0.0113301845
199	0xbd1bc2f6	-0.038027726
200	0xbb7552ee	-0.0037433463
201	0xbc63f733	-0.013913917
202	0xbb8ea3b6	-0.004353012
203	0x3b1e2ebd	0.0024136745
204	0xbbacab09	-0.0052694124
205	0x3c48f70f	0.012265935
206	0x3c75afd4	0.014995534
207	0xbc65c132	-0.014023112
208	0x3d12201d	0.035675157
209	0x3c4fc7fc	0.012681957
210	0xbc5df258	-0.013546549
211	0xbb8ad981	-0.0042373543
212	0x3d874f12	0.06606878
213	0x3c3ee48b	0.011651169
214	0x3cc36e18	0.023856208
215	0x3bb9c815	0.0056696036
216	0xbc7a8e0b	-0.015292655
217	0x3a4542db	0.0007524916
218	0x3b96fb9c	0.004607631
219	0xbd01fef0	-0.031737268
220	0xbb339d7d	-0.0027407103
221	0x3b0bf88e	0.0021357867
222	0xbc541fe5	-0.012947057
223	0xbc8cec17	-0.01720242
224	0x3a9f8f3e	0.0012173427
225	0x3af97aa0	0.0019033737
226	0x3c558032	0.013031052
227	0xbce8fd2e	-0.028441038
228	0xbc308e73	-0.01077615
229	0xbc4fc8e1	-0.012682171
230	0xbb8f90a1	-0.004381255
231	0xbc170ce3	-0.009219381
232	0x3b71eb67	0.0036913992
233	0xbd0be14b	-0.034150403
234	0x3c4ddd3d	0.012564954
235	0x3cf02463	0.029314226
236	0x3c82d231	0.015969368
237	0x3a47f589	0.0007627835
238	0xbcb754f0	-0.022379369
239	0xbb958a04	-0.004563572
240	0x3bccff18	0.0062559955
241	0x3ca58521	0.020205082
242	0x3d1636bb	0.03667329
243	0xbc6b6170	-0.014366493
244	0x3c429269	0.011875727
245	0x3ba917ee	0.0051603233
246	0x3c297014	0.010341663
247	0xbbb4210d	-0.005497104
248	0x3c60f36e	0.013729913
249	0xbd3f2c4a	-0.046673097
250	0xbcb7afd0	-0.022422701
251	0x3bbe1ce6	0.005801785
252	0x3b7dd060	0.0038728938
253	0xbb4cc587	-0.0031245665
254	0x3c4004a0	0.011719853
255	0x3c9d1f9c	0.019180112

fai_gcn_networks.1.residual.0.bias f4 [64]
0	0x00000000	0.0
1	0x00000000	0.0
2	0x00000000	0.0
3	0x00000000	0.0
4	0x00000000	0.0
5	0x00000000	0.0
6	0x00000000	0.0
7	0x00000000	0.0
8	0x00000000	0.0
9	0x00000000	0.0
10	0x00000000	0.0
11	0x00000000	0.0
12	0x00000000	0.0
13	0x00000000	0.0
14	0x00000000	0.0
15	0x00000000	0.0
16	0x00000000	0.0
17	0x00000000	0.0
18	0x00000000	0.0
19	0x00000000	0.0
20	0x00000000	0.0
21	0x00000000	0.0
22	0x00000000	0.0
23	0x00000000	0.0
24	0x00000000	0.0
25	0x00000000	0.0
26	0x00000000	0.0
27	0x00000000	0.0
28	0x00000000	0.0
29	0x00000000	0.0
30	0x00000000	0.0
31	0x00000000	0.0
32	0x00000000	0.0
33	0x00000000	0.0
34	0x00000000	0.0
35	0x00000000	0.0
36	0x00000000	0.0
37	0x00000000	0.0
38	0x00000000	0.0
39	0x00000000	0.0
40	0x00000000	0.0
41	0x00000000	0.0
42	0x00000000	0.0
43	0x00000000	0.0
44	0x00000000	0.0
45	0x00000000	0.0
46	0x00000000	0.0
47	0x00000000	0.0
48	0x00000000	0.0
49	0x00000000	0.0
50	0x00000000	0.0
51	0x00000000	0.0
52	0x00000000	0.0
53	0x00000000	0.0
54	0x00000000	0.0
55	0x00000000	0.0
56	0x00000000	0.0
57	0x00000000	0.0
58	0x00000000	0.0
59	0x00000000	0.0
60	0x00000000	0.0
61	0x00000000	0.0
62	0x00000000	0.0
63	0x00000000	0.0

fai_gcn_networks.1.residual.1.weight f4 [64]
0	0x3f81e8b2	1.0149138
1	0x3f7d6802	0.9898683
2	0x3f8006bd	1.0002056
3	0x3f7d51e4	0.9895308
4	0x3f7c44e4	0.9854262
5	0x3f80556e	1.0026071
6	0x3f78f662	0.9725095
7	0x3f811737	1.008521
8	0x3f7a6986	0.97817266
9	0x3f7f44ee	0.99714553
10	0x3f836795	1.0265986
11	0x3f7c1973	0.9847633
12	0x3f81ec4b	1.0150236
13	0x3f7b87fc	0.9825437
14	0x3f83b423	1.0289348
15	0x3f805cc4	1.002831
16	0x3f810e1a	1.0082428
17	0x3f81c2c9	1.0137569
18	0x3f81c834	1.0139222
19	0x3f778f81	0.96703345
20	0x3f77b613	0.967622
21	0x3f815f62	1.0107234
22	0x3f800913	1.0002769
23	0x3f885d21	1.0653421
24	0x3f7cd7c4	0.9876673
25	0x3f77b847	0.9676556
26	0x3f7df9ba	0.9920918
27	0x3f83da9c	1.0301089
28	0x3f805b86	1.0027931
29	0x3f81fcde	1.0155294
30	0x3f7c2d85	0.9850696
31	0x3f82dab6	1.0222995
32	0x3f7e4875	0.9932931
33	0x3f82d447	1.0221032
34	0x3f83f827	1.0310105
35	0x3f802fbe	1.001457
36	0x3f7dcdf7	0.991424
37	0x3f83d8d8	1.030055
38	0x3f78d404	0.9719851
39	0x3f7e9032	0.99438775
40	0x3f7f52c9	0.99735695
41	0x3f8070d8	1.0034437
42	0x3f7cc6f8	0.987411
43	0x3f7c169b	0.98471993
44	0x3f8135ad	1.0094506
45	0x3f80a89d	1.0051457
46	0x3f76a3fe	0.9634398
47	0x3f81c7ad	1.0139061
48	0x3f83755c	1.027019
49	0x3f7d22e8	0.9888139
50	0x3f7f2852	0.996709
51	0x3f7cc0e0	0.98731804
52	0x3f78b7ce	0.97155464
53	0x3f7ea544	0.99470925
54	0x3f82c803	1.0217289
55	0x3f82a32d	1.0206047
56	0x3f811003	1.0083011
57	0x3f7bf90d	0.98426896
58	0x3f8218bf	1.0163802
59	0x3f803a42	1.0017779
60	0x3f7dfe21	0.99215895
61	0x3f81ab3e	1.0130384
62	0x3f7896ca	0.97105086
63	0x3f80974c	1.0046172

fai_gcn_networks.1.residual.1.bias f4 [64]
0	0x00000000	0.0
1	0x00000000	0.0
2	0x00000000	0.0
3	0x00000000	0.0
4	0x00000000	0.0
5	0x00000000	0.0
6	0x00000000	0.0
7	0x00000000	0.0
8	0x00000000	0.0
9	0x00000000	0.0
10	0x00000000	0.0
11	0x00000000	0.0
12	0x00000000	0.0
13	0x00000000	0.0
14	0x00000000	0.0
15	0x00000000	0.0
16	0x00000000	0.0
17	0x00000000	0.0
18	0x00000000	0.0
19	0x00000000	0.0
20	0x00000000	0.0
21	0x00000000	0.0
22	0x00000000	0.0
23	0x00000000	0.0
24	0x00000000	0.0
25	0x00000000	0.0
26	0x00000000	0.0
27	0x00000000	0.0
28	0x00000000	0.0
29	0x00000000	0.0
30	0x00000000	0.0
31	0x00000000	0.0
32	0x00000000	0.0
33	0x00000000	0.0
34	0x00000000	0.0
35	0x00000000	0.0
36	0x00000000	0.0
37	0x00000000	0.0
38	0x00000000	0.0
39	0x00000000	0.0
40	0x00000000	0.0
41	0x00000000	0.0
42	0x00000000	0.0
43	0x00000000	0.0
44	0x00000000	0.0
45	0x00000000	0.0
46	0x00000000	0.0
47	0x00000000	0.0
48	0x00000000	0.0
49	0x00000000	0.0
50	0x00000000	0.0
51	0x00000000	0.0
52	0x00000000	0.0
53	0x00000000	0.0
54	0x00000000	0.0
55	0x00000000	0.0
56	0x00000000	0.0
57	0x00000000	0.0
58	0x00000000	0.0
59	0x00000000	0.0
60	0x00000000	0.0
61	0x00000000	0.0
62	0x00000000	0.0
63	0x00000000	0.0

fai_gcn_networks.1.residual.1.running_mean f4 [64]
0	0x222d5216	2.3489328e-18
1	0xa2286fec	-2.2827497e-18
2	0xa0ef1db2	-4.0507826e-19
3	0x220089d1	1.7420194e-18
4	0xa027f6fd	-1.4227172e-19
5	0x21f9e790	1.693419e-18
6	0x21adf387	1.1787397e-18
7	0xa201d57b	-1.7595776e-18
8	0xa1349e26	-6.119568e-19
9	0x214b23ca	6.882644e-19
10	0x21fa094f	1.6943123e-18
11	0xa273b654	-3.3029165e-18
12	0xa02d7f5f	-1.4695814e-19
13	0x20908b9c	2.4486935e-19
14	0xa19935a5	-1.0381883e-18
15	0x217688db	8.352917e-19
16	0x218454d9	8.967127e-19
17	0x2250b256	2.8283667e-18
18	0x21062cfd	4.546051e-19
19	0xa187d000	-9.203013e-19
20	0x210b9f7b	4.73061e-19
21	0x211444f4	5.023561e-19
22	0x218d2dc7	9.566649e-19
23	0x2116568f	5.0936536e-19
24	0x21b462ac	1.2223393e-18
25	0x21035f25	4.451045e-19
26	0xa1b158c6	-1.2017485e-18
27	0xa22a864b	-2.311039e-18
28	0xa2397a7e	-2.5137022e-18
29	0xa187e232	-9.207829e-19
30	0x21f87ad1	1.6837643e-18
31	0xa180f916	-8.73955e-19
32	0xa1165183	-5.0929857e-19
33	0xa1e90e90	-1.5792549e-18
34	0x20da844d	3.7018186e-19
35	0x1f422e4e	4.11194e-20
36	0x2246de7a	2.6951782e-18
37	0x9fde9745	-9.427091e-20
38	0xa0683006	-1.9667054e-19
39	0x20deabd0	3.772196e-19
40	0x21486d83	6.7907573e-19
41	0xa1e42a1b	-1.5461026e-18
42	0xa220edba	-2.1809895e-18
43	0xa1f390fc	-1.6504698e-18
44	0xa1b589b9	-1.2301492e-18
45	0xa202ca66	-1.7725434e-18
46	0x221e53cb	2.1457353e-18
47	0x1fc7c99f	8.461333e-20
48	0x21ba6785	1.2631252e-18
49	0xa16f9341	-8.117124e-19
50	0x1f476ae8	4.222832e-20
51	0x2079a406	2.1145391e-19
52	0x218453d7	8.96686e-19
53	0x21ac4959	1.1674588e-18
54	0x20cb1fa7	3.4410483e-19
55	0x21ea604a	1.5881944e-18
56	0xa171b90d	-8.189889e-19
57	0x2204d829	1.800377e-18
58	0xa097f983	-2.5745508e-19
59	0x9f61a74b	-4.7783985e-20
60	0xa27706c6	-3.3478328e-18
61	0xa2005f91	-1.7397827e-18
62	0x21beb6b0	1.2923258e-18
63	0xa18f0eec	-9.694007e-19

fai_gcn_networks.1.residual.1.running_var f4 [64]
0	0x055a3dee	1.02616854e-35
1	0x054e8079	9.70967e-36
2	0x02ce79b0	3.0338825e-37
3	0x04f07292	5.6528945e-36
4	0x0144cb40	3.614534e-38
5	0x04e2ee39	5.3351118e-36
6	0x045c94c8	2.5929193e-36
7	0x04f5a493	5.775036e-36
8	0x036c4839	6.9437074e-37
9	0x039652e0	8.835235e-37
10	0x04e282c4	5.3252434e-36
11	0x05d81ddb	2.032351e-35
12	0x015da570	4.0709985e-38
13	0x02177ec5	1.1130109e-37
14	0x042a706c	2.0035026e-36
15	0x03dd66f0	1.3012846e-36
16	0x03fed40a	1.497746e-36
17	0x059e76c9	1.4901883e-35
18	0x0301d1e2	3.8150626e-37
19	0x0406a879	1.5828983e-36
20	0x030dc79a	4.1665307e-37
21	0x031edf54	4.6688395e-37
22	0x0410b2c7	1.700921e-36
23	0x03258ef5	4.865325e-37
24	0x046c5546	2.7780822e-36
25	0x02fc14a4	3.703992e-37
26	0x0466076c	2.7039778e-36
27	0x05535499	9.9367105e-36
28	0x057a6247	1.1772994e-35
29	0x04071d96	1.5882759e-36
30	0x04e080e0	5.27805e-36
31	0x03f0ede2	1.4160547e-36
32	0x032660c0	4.889408e-37
33	0x04c577cf	4.6424504e-36
34	0x02ad907b	2.5502993e-37
35	0x0021a726	3.090533e-39
36	0x058ff775	1.3538557e-35
37	0x00afee99	1.6156805e-38
38	0x01cdf68b	7.565888e-38
39	0x02b14d78	2.6052277e-37
40	0x03922224	8.588947e-37
41	0x04bcf069	4.441937e-36
42	0x053c71f5	8.860648e-36
43	0x04d7eb4a	5.0762336e-36
44	0x0470c7eb	2.8303662e-36
45	0x04f89cb0	5.8448415e-36
46	0x0535de43	8.551402e-36
47	0x00945f13	1.362576e-38
48	0x047d24e2	2.9756943e-36
49	0x03d299f2	1.2378035e-36
50	0x00248a7b	3.355755e-39
51	0x01e4f42b	8.4104336e-38
52	0x03fd5f6f	1.4891914e-36
53	0x04589f7c	2.546391e-36
54	0x0296cf4d	2.2159504e-37
55	0x04c71ab9	4.6809216e-36
56	0x03d5140a	1.2523616e-36
57	0x0500522a	6.033622e-36
58	0x02269f2e	1.2241436e-37
59	0x00311a39	4.509346e-39
60	0x05dde575	2.086703e-35
61	0x04f00bec	5.6434677e-36
62	0x04845b97	3.1117163e-36
63	0x041524dd	1.7531793e-36
