capsule-6073072/code/work_dir/recognition/kinetics_skeleton/FAI_GCN/epoch280_model.pt (torch, 74070 bytes, 22 tensors)

A f4 [3, 18, 18]
0.25 0.0 0.0 0.0 0.0 0.0 0.0 0.0
0.0 0.0 0.0 0.0 0.0 0.0 0.0 0.0
0.0 0.0 0.0 0.25 0.0 0.0 0.0 0.0
0.0 0.0 0.0 0.0 0.0 0.0 0.0 0.0
0.0 0.0 0.0 0.0 0.0 0.0 0.25 0.0
0.0 0.0 0.0 0.0 0.0 0.0 0.0 0.0
0.0 0.0 0.0 0.0 0.0 0.0 0.0 0.0
0.0 0.33333334 0.0 0.0 0.0 0.0 0.0 0.0
0.0 0.0 0.0 0.0 0.0 0.0 0.0 0.0
0.0 0.0 0.0 0.0 0.5 0.0 0.0 0.0
0.0 0.0 0.0 0.0 0.0 0.0 0.0 0.0
0.0 0.0 0.0 0.0 0.0 0.0 0.0 0.25
0.0 0.0 0.0 0.0 0.0 0.0 0.0 0.0
0.0 0.0 0.0 0.0 0.0 0.0 0.0 0.0
0.0 0.0 0.33333334 0.0 0.0 0.0 0.0 0.0
0.0 0.0 0.0 0.0 0.0 0.0 0.0 0.0
0.0 0.0 0.0 0.0 0.0 0.5 0.0 0.0
0.0 0.0 0.0 0.0 0.0 0.0 0.0 0.0
0.0 0.0 0.0 0.0 0.0 0.0 0.0 0.0
0.33333334 0.0 0.0 0.0 0.0 0.0 0.0 0.0
0.0 0.0 0.0 0.0 0.0 0.0 0.0 0.0
0.0 0.0 0.0 0.33333334 0.0 0.0 0.0 0.0
0.0 0.0 0.0 0.0 0.0 0.0 0.0 0.0
0.0 0.0 0.0 0.0 0.0 0.0 0.5 0.0
0.0 0.0 0.0 0.0 0.0 0.0 0.0 0.0
0.0 0.0 0.0 0.0 0.0 0.0 0.0 0.0
0.0 0.33333334 0.0 0.0 0.0 0.0 0.0 0.0
0.0 0.0 0.0 0.0 0.0 0.0 0.0 0.0
0.0 0.0 0.0 0.0 0.33333334 0.0 0.0 0.0
0.0 0.0 0.0 0.0 0.0 0.0 0.0 0.0
0.0 0.0 0.0 0.0 0.0 0.0 0.0 0.5
0.0 0.0 0.0 0.0 0.0 0.0 0.0 0.0
00000000: 0000 803e 0000 0000 0000 0000 0000 0000
00000010: 0000 0000 0000 0000 0000 0000 0000 0000
00000020: 0000 0000 0000 0000 0000 0000 0000 0000
00000030: 0000 0000 0000 0000 0000 0000 0000 0000
00000040: 0000 0000 0000 0000 0000 0000 0000 803e
00000050: 0000 0000 0000 0000 0000 0000 0000 0000
00000060: 0000 0000 0000 0000 0000 0000 0000 0000
00000070: 0000 0000 0000 0000 0000 0000 0000 0000
00000080: 0000 0000 0000 0000 0000 0000 0000 0000
00000090: 0000 0000 0000 0000 0000 803e 0000 0000
000000a0: 0000 0000 0000 0000 0000 0000 0000 0000
000000b0: 0000 0000 0000 0000 0000 0000 0000 0000
000000c0: 0000 0000 0000 0000 0000 0000 0000 0000
000000d0: 0000 0000 0000 0000 0000 0000 0000 0000
000000e0: 0000 0000 abaa aa3e 0000 0000 0000 0000
000000f0: 0000 0000 0000 0000 0000 0000 0000 0000
00000100: 0000 0000 0000 0000 0000 0000 0000 0000
00000110: 0000 0000 0000 0000 0000 0000 0000 0000
00000120: 0000 0000 0000 0000 0000 0000 0000 0000
00000130: 0000 003f 0000 0000 0000 0000 0000 0000
00000140: 0000 0000 0000 0000 0000 0000 0000 0000
00000150: 0000 0000 0000 0000 0000 0000 0000 0000
00000160: 0000 0000 0000 0000 0000 0000 0000 0000
00000170: 0000 0000 0000 0000 0000 0000 0000 803e
00000180: 0000 0000 0000 0000 0000 0000 0000 0000
00000190: 0000 0000 0000 0000 0000 0000 0000 0000
000001a0: 0000 0000 0000 0000 0000 0000 0000 0000
000001b0: 0000 0000 0000 0000 0000 0000 0000 0000
000001c0: 0000 0000 0000 0000 abaa aa3e 0000 0000
000001d0: 0000 0000 0000 0000 0000 0000 0000 0000
000001e0: 0000 0000 0000 0000 0000 0000 0000 0000
000001f0: 0000 0000 0000 0000 0000 0000 0000 0000
00000200: 0000 0000 0000 0000 0000 0000 0000 0000
00000210: 0000 0000 0000 003f 0000 0000 0000 0000
00000220: 0000 0000 0000 0000 0000 0000 0000 0000
00000230: 0000 0000 0000 0000 0000 0000 0000 0000
00000240: 0000 0000 0000 0000 0000 0000 0000 0000
00000250: 0000 0000 0000 0000 0000 0000 0000 0000
00000260: abaa aa3e 0000 0000 0000 0000 0000 0000
00000270: 0000 0000 0000 0000 0000 0000 0000 0000
00000280: 0000 0000 0000 0000 0000 0000 0000 0000
00000290: 0000 0000 0000 0000 0000 0000 0000 0000
000002a0: 0000 0000 0000 0000 0000 0000 abaa aa3e
000002b0: 0000 0000 0000 0000 0000 0000 0000 0000
000002c0: 0000 0000 0000 0000 0000 0000 0000 0000
000002d0: 0000 0000 0000 0000 0000 0000 0000 0000
000002e0: 0000 0000 0000 0000 0000 0000 0000 0000
000002f0: 0000 0000 0000 0000 0000 003f 0000 0000
00000300: 0000 0000 0000 0000 0000 0000 0000 0000
00000310: 0000 0000 0000 0000 0000 0000 0000 0000
00000320: 0000 0000 0000 0000 0000 0000 0000 0000
00000330: 0000 0000 0000 0000 0000 0000 0000 0000
00000340: 0000 0000 abaa aa3e 0000 0000 0000 0000
00000350: 0000 0000 0000 0000 0000 0000 0000 0000
00000360: 0000 0000 0000 0000 0000 0000 0000 0000
00000370: 0000 0000 0000 0000 0000 0000 0000 0000
00000380: 0000 0000 0000 0000 0000 0000 0000 0000
00000390: abaa aa3e 0000 0000 0000 0000 0000 0000
000003a0: 0000 0000 0000 0000 0000 0000 0000 0000
000003b0: 0000 0000 0000 0000 0000 0000 0000 0000
000003c0: 0000 0000 0000 0000 0000 0000 0000 0000
000003d0: 0000 0000 0000 0000 0000 0000 0000 003f
000003e0: 0000 0000 0000 0000 0000 0000 0000 0000
000003f0: 0000 0000 0000 0000 0000 0000 0000 0000

data_bn.weight f4 [54]
0.7153625 0.7093681 0.7231065 0.7130822 0.72667366 0.6615461 0.72765183 0.68479145
0.7396334 0.67396146 0.70615965 0.6972737 0.7095131 0.73139864 0.70755875 0.6863039
0.68485564 0.673859 0.7236227 0.73125064 0.712565 0.72463137 0.7079667 0.71589124
0.722112 0.73418134 0.7065802 0.7116325 0.7077472 0.7158657 0.68138856 0.71414834
0.7023292 0.7099949 0.7219029 0.6932991 0.6976964 0.7049166 0.71560633 0.69879436
0.71005785 0.7037181 0.631854 0.68055385 0.6926194 0.6981734 0.707016 0.72672784
0.7138697 0.735604 0.7098413 0.7289969 0.6564064 0.6629465
00000000: ff21 373f 2699 353f 821d 393f 8e8c 363f
00000010: 4907 3a3f 165b 293f 6447 3a3f 7e4e 2f3f
00000020: 9d58 3d3f bd88 2c3f e1c6 343f 8780 323f
00000030: a7a2 353f f13c 3b3f 9222 353f 9db1 2f3f
00000040: b352 2f3f 0682 2c3f 563f 393f 3e33 3b3f
00000050: a96a 363f 7181 393f 4e3d 353f a644 373f
00000060: 55dc 383f 4ff3 3b3f 71e2 343f 8c2d 363f
00000070: ec2e 353f f942 373f 7b6f 2e3f 6dd2 363f
00000080: d9cb 333f 3ac2 353f a1ce 383f 0d7c 313f
00000090: 3b9c 323f 6a75 343f fa31 373f 30e4 323f
000000a0: 5ac6 353f df26 343f 2fc1 213f c738 2e3f
000000b0: 814f 313f 7ebb 323f 00ff 343f d60a 3a3f
000000c0: 2ac0 363f 8b50 3c3f 29b8 353f 8a9f 3a3f
000000d0: 400a 283f ddb6 293f

data_bn.bias f4 [54]
-6.674629e-23 1.4703196e-10 2.6411712e-23 5.326942e-23 -4.2732434e-23 2.7072248e-18 -2.1552698e-23 -5.798032e-13
5.6434503e-23 4.91759e-15 -2.7747794e-07 -6.13855e-12 3.6014308e-06 3.621393e-08 1.7963504e-08 -3.7659317e-23
4.064562e-14 3.178332e-23 -5.456591e-10 2.2354237e-05 -1.2884181e-09 -4.212101e-15 1.1726228e-12 -2.403056e-10
1.3818106e-07 5.9225374e-07 -4.269687e-06 9.063802e-22 5.904679e-12 -1.07422494e-13 -2.5185006e-08 2.9363172e-09
-1.7051205e-16 -9.927339e-13 -3.6898623e-11 6.1245626e-09 2.3159583e-21 -1.1510478e-11 8.7130546e-11 -6.3242004e-07
2.9482844e-06 1.4254844e-06 4.2192804e-13 -2.0424585e-07 -1.0747858e-11 -4.4449795e-14 1.1190335e-06 -3.524912e-12
5.638628e-12 -1.4888355e-08 -4.182422e-11 -4.8775414e-06 -2.857607e-11 -7.474314e-10
00000000: f461 a19a d1a9 212f 3b70 ff19 2dcc 801a
00000010: 31a4 4e9a 08c2 4722 e571 d099 3933 23ab
00000020: 4473 881a c32c b127 47f8 94b4 25fb d7ac
00000030: 1cb0 7136 a389 1b33 2a4e 9a32 fa1b 369a
00000040: 360d 3729 d8b1 191a 58fd 15b0 5c85 bb37
00000050: 2f14 b1b0 c6c1 97a7 3008 a52b 021c 84af
00000060: ec5e 1434 5efb 1e35 5544 8fb6 e3f7 881c
00000070: 9fc0 cf2c dae4 f1a9 6a56 d8b2 3dc8 4931
00000080: 4696 44a5 02b7 8bab 2848 22ae 3970 d231
00000090: 26fd 2e1d 967e 4aad 239a bf2e 93c3 29b5
000000a0: 24db 4536 4553 bf35 3d86 ed2a ac4e 5bb4
000000b0: 0d14 3dad 202f 48a9 b331 9635 2b0b 78ac
000000c0: 3f64 c62c aec7 7fb2 e3f1 37ae c3a9 a3b6
000000d0: 975b fbad cf73 4db0

data_bn.running_mean f4 [54]
-0.012792912 -0.03794632 0.19928665 -0.009710996 -0.014822372 0.19318524 -0.023646997 -0.01717431
0.17226058 -0.034455005 -0.0054777325 0.17403756 -0.036610857 -0.0069952062 0.18192422 0.0040226243
-0.012070229 0.17554645 0.011706591 0.0043959864 0.16406476 0.011643695 0.009716911 0.16282262
-0.020267956 0.033173073 0.14681864 -0.03212841 0.041660834 0.16685219 -0.01942105 0.06793242
0.14941974 -0.0036426596 0.03456621 0.145174 0.0058102687 0.043263525 0.1610037 -0.004066917
0.06935872 0.14251417 -0.015263441 -0.043271203 0.18842168 -0.007330726 -0.04164563 0.20203309
-0.014038183 -0.015185729 0.079556465 0.0013549583 -0.031839073 0.17455313
00000000: 5d99 51bc 9a6d 1bbd cd11 4c3e df1a 1fbc
00000010: 89d9 72bc 5ad2 453e 59b7 c1bc 23b1 8cbc
00000020: 1465 303e b120 0dbd 8d7e b3bb e736 323e
00000030: 44f5 15bd 0b38 e5bb 584a 3a3e 38d0 833b
00000040: 36c2 45bc 73c2 333e 00cd 3f3c 350c 903b
00000050: 9800 283e 32c5 3e3c ae33 1f3c f9ba 263e
00000060: fc08 a6bc 7de0 073d a057 163e 1499 03bd
00000070: 8da4 2a3d 4ddb 2a3e e518 9fbc 2720 8b3d
00000080: 7d01 193e b0b9 6ebb 4c95 0d3d 7ea8 143e
00000090: 1164 be3b 1835 313d 27de 243e c643 85bb
000000a0: f20b 8e3d 3cef 113e 8313 7abc 253d 31bd
000000b0: 9df1 403e 9636 f0bb 9c94 2abd c3e1 4e3e
000000c0: 6800 66bc 90cd 78bc 80ee a23d db98 b13a
000000d0: b069 02bd 0ebe 323e

data_bn.running_var f4 [54]
0.0026690552 0.013104681 0.09097673 0.002692536 0.0072497563 0.084183656 0.0036714268 0.0077743926
0.06624208 0.0050283573 0.0059025064 0.07059171 0.005804841 0.0064818542 0.076368846 0.0026262468
0.0066964156 0.06986585 0.0030741123 0.0045989226 0.06458586 0.003082386 0.0045887507 0.06412844
0.0036183342 0.0032734852 0.048660744 0.005355672 0.0036474743 0.06633119 0.0046489816 0.006727115
0.053712334 0.002769799 0.0033182257 0.04757192 0.0032180217 0.0038925475 0.061159622 0.0034280636
0.007920577 0.050075434 0.0028259284 0.014849851 0.081181794 0.002412538 0.014258018 0.093661964
0.003339796 0.012307058 0.033513576 0.0024401972 0.012043597 0.08221631
00000000: 51eb 2e3b 04b5 563c 0252 ba3d 4275 303b
00000010: 5d8f ed3b 7b68 ac3d 529c 703b 55c0 fe3b
00000020: eda9 873d ebc4 a43b d069 c13b 6392 903d
00000030: 8936 be3b bc65 d43b 4567 9c3d 1c1d 2c3b
00000040: 9b6d db3b d415 8f3d 0c77 493b 8fb2 963b
00000050: 9745 843d db01 4a3b 3b5d 963b c655 833d
00000060: 9321 6d3b f887 563b 7d50 473d a27e af3b
00000070: 770a 6f3b a6d8 873d 7c56 983b 216f dc3b
00000080: 7701 5c3d 8485 353b 9776 593b c6da 423d
00000090: 72e5 523b 1c1a 7f3b 8382 7a3d 5da9 603b
000000a0: 4fc5 013c e61b 4d3d 3633 393b ca4c 733c
000000b0: a442 a63d ac1b 1e3b 769a 693c d8d1 bf3d
000000c0: 7be0 5a3b 8ba3 493c 8845 093d b7eb 1f3b
000000d0: 8252 453c 0661 a83d

fai_gcn_networks.0.gcn.conv.weight f4 [96, 3, 1, 1]
6.1214564e-21 -1.6434177e-20 -2.706163e-20 -1.7205333e-16 7.828023e-17 4.366213e-18 8.229162e-22 8.277825e-21
-7.6089986e-21 -8.003182e-13 3.2401192e-13 -9.897871e-13 -5.5482426e-24 2.307338e-23 -3.2871206e-23 3.947301e-20
-1.1070095e-19 3.7976408e-20 2.1127005e-20 4.0098107e-20 3.127032e-20 3.1137385e-14 1.23917e-13 -8.15245e-15
-1.1993962e-19 3.3260877e-18 1.6772782e-18 6.430703e-13 3.5289992e-13 -6.038847e-13 -1.0836149e-21 -2.148172e-21
-1.6423608e-21 -3.0011527e-19 5.7646243e-19 3.8722355e-18 2.1279486e-16 4.0883395e-16 5.9462375e-17 5.725863e-20
4.1420928e-21 -4.7639167e-20 -3.39186e-17 -1.3042433e-15 9.191452e-17 -1.3405818e-19 1.9612089e-20 -1.5672888e-20
1.6798606e-24 3.614638e-25 -2.3944846e-23 4.8505007e-21 -6.2740127e-21 -1.1933473e-20 3.3151893e-22 3.5150695e-22
-1.0084071e-21 -5.9524124e-20 5.183103e-20 1.6389634e-19 -5.499176e-20 6.618126e-20 -2.6883643e-21 4.5374986e-22
9.47627e-22 2.0135246e-21 -6.248463e-21 1.5731408e-20 -3.7473312e-16 3.9221883e-20 -7.348346e-21 -3.1267024e-19
-3.4322324e-17 -1.17657525e-17 -3.6636226e-16 6.579794e-16 4.3924244e-15 1.5232125e-15 -8.94462e-25 1.3740605e-23
-1.5402913e-23 2.2366653e-21 7.2725534e-22 2.484917e-22 2.1034093e-19 1.1442428e-18 -7.634324e-19 3.1583625e-18
2.0478557e-19 -1.8905248e-19 -6.385563e-19 8.043457e-19 -2.944469e-19 -1.0412089e-17 2.5456837e-18 -2.0534628e-18
-2.8309142e-20 9.7186684e-20 -1.1477075e-19 -1.9138715e-16 1.7577393e-16 -4.0794736e-18 1.8980285e-21 2.769859e-20
1.2892797e-20 -2.63006e-12 -5.613284e-14 3.1222e-12 -2.6020017e-24 -4.480304e-23 1.197672e-23 1.1331736e-19
-2.1080315e-18 -3.8576498e-19 7.2106866e-20 7.9631624e-20 9.060794e-21 -4.9946595e-14 5.493714e-11 -9.823421e-15
-4.166108e-19 -4.5796255e-18 -3.2605206e-18 -5.0202663e-12 5.2496076e-12 -1.0417252e-12 -2.5744873e-22 1.5677629e-21
2.393565e-22 -5.509093e-19 1.9641863e-18 1.4085565e-19 -1.4742395e-16 -3.6359678e-16 3.0941098e-17 9.86261e-20
-2.3728718e-18 -1.0115239e-19 5.425748e-16 -1.8434086e-15 8.986053e-16 3.447844e-20 -4.1995665e-19 -7.4547957e-19
-1.702565e-24 -1.60083e-24 3.9240415e-24 -1.6321111e-21 6.70974e-21 3.2043458e-20 -8.0898254e-22 1.3664652e-20
6.81317e-23 3.2943861e-21 -8.825556e-20 -2.0819752e-20 -1.4220826e-19 -3.6263787e-19 -9.121062e-22 2.9972943e-22
6.706493e-23 6.57608e-22 -4.563096e-20 -2.5430363e-19 -5.234175e-19 -6.175532e-20 1.6223923e-20 -2.9496925e-20
-9.733886e-18 -7.3589475e-17 -4.411808e-17 -9.663193e-15 -1.9423568e-14 -7.14112e-16 -7.003429e-24 -3.9129844e-24
-1.9192572e-23 2.0518913e-20 -4.5537637e-20 2.4874885e-19 -5.7411846e-19 1.3011676e-18 -2.028526e-18 -2.8696841e-18
-2.6668582e-18 6.1009202e-18 -9.87886e-16 6.756969e-19 -3.2594116e-19 -2.6414416e-18 1.0764649e-17 6.363225e-20
-2.5828422e-21 8.070627e-21 -2.9610759e-22 -8.5058744e-17 1.10528615e-16 -4.4325586e-18 -1.6066503e-22 -9.549102e-22
-1.8027942e-22 6.5432374e-14 1.3911684e-12 -1.9109458e-13 2.8964211e-24 4.304616e-24 -1.0232739e-24 2.670502e-19
-6.3911117e-22 2.77398e-21 -5.547577e-20 -2.2776013e-20 2.3465183e-21 -9.913787e-15 1.5580329e-14 -1.1873252e-15
-5.2140183e-20 -3.2759525e-20 -2.751538e-20 -7.87051e-13 -1.3016147e-13 7.432554e-13 -6.1552596e-24 1.8809577e-23
-4.7329894e-23 -6.5299354e-19 -4.676809e-19 8.867839e-21 -5.3418192e-17 -7.796984e-15 -1.792941e-18 1.3851366e-20
6.2625016e-21 -1.278903e-18 -1.5372138e-17 8.5930725e-17 -9.24086e-18 -1.5482687e-20 1.2315519e-19 3.4957642e-21
-1.0683342e-26 -3.200295e-26 -3.3355132e-22 2.3001334e-21 9.188678e-22 3.3876169e-22 -1.6038542e-21 1.5145885e-21
-6.597736e-22 -6.4776653e-22 -7.624717e-22 -3.132432e-22 -7.045712e-18 -1.3925167e-19 2.8160857e-21 7.244991e-24
00000000: 1843 e71d 6737 9b9e 0297 ff9e 2e5d 46a5
00000010: 7e80 b424 b715 a122 0fb6 781c 1b5d 1c1e
00000020: dcba 0f9e 0145 61ab 0a67 b62a d74c 8bab
00000030: 22a3 d698 ec26 df19 95f4 1e9a f167 3a1f
00000040: 4fb1 02a0 a956 331f f789 c71e a35b 3d1f
00000050: 7fab 131f f63a 0c29 a584 0b2a 8adc 12a8
00000060: 8799 0da0 056c 7522 c785 f721 1902 352b
00000070: 3daa c62a 7bfa 29ab 52c0 a39c b14f 229d
00000080: c22f f89c 2328 b1a0 4524 2a21 3bdc 8e22
00000090: f555 7525 3ead eb25 641c 8924 b832 871f
000000a0: dd7b 9c1d 38f8 609f 046c 1ca4 16f6 bba6
000000b0: c2f0 d324 9944 1ea0 1f3b b91e b806 949e
000000c0: 11f9 0118 3abc df16 9194 e799 2a3f b71d
000000d0: 8706 ed9d bc6a 619e 1264 c81b 1179 d41b
000000e0: dc62 989c 208c 8c9f dfc3 741f a17e 4120
000000f0: 7bd8 819f 1e44 9c1f 8720 4b9d 3223 091c
00000100: 8b33 8f1c 3b23 181d 6d0f ec9d 3694 941e
00000110: d904 d8a5 5938 391f 6cce 0a9e 6491 b8a0
00000120: a648 1ea4 320a 59a3 8731 d3a5 4fa6 3d26
00000130: f740 9e27 9f84 db26 4a69 8a97 17e4 8419
00000140: c4f7 9499 66ff 281d a8cc 5b1c 3a34 961b
00000150: a553 7820 45dc a821 5253 61a1 c80b 6922
00000160: a4c4 7120 9b31 5fa0 f377 3ca1 a566 6d21
00000170: 8fcf ada0 b311 40a3 9bd6 3b22 d184 17a2
00000180: a7af 059f bf79 e51f 557f 07a0 84a7 5ca5
00000190: 4fa7 4a25 8a81 96a2 3669 0f1d 8acd 021f
000001a0: be89 731e f312 39ac c2cc 7ca9 8eb4 5b2c
000001b0: f451 4998 7aa7 589a d8a9 6719 12c8 0520
000001c0: 978b 1ba2 28b7 e3a0 ed41 aa1f 5d06 bc1f
000001d0: 5027 2b1e 81f0 60a9 b99d 712e 89f6 30a8
000001e0: 72ec f5a0 57f5 a8a2 7e95 70a2 8aa2 b0ac
000001f0: 43b4 b82c 1b9c 92ab 439e 9b9b e4e9 ec1c
00000200: a0ae 901b 8899 22a1 6eee 1022 024b 2620
00000210: dff7 29a5 6a99 d1a5 cdb0 0e24 d2df e81f
00000220: 4816 2fa2 ded6 ee9f f462 1c26 e3d4 04a7
00000230: af80 8126 e0d1 221f 0ee6 f7a0 d806 5ca1
00000240: c6ba 0398 69b7 f797 d3cd 9718 3da3 f69c
00000250: a07c fd1d 2a52 171f fe7f 749c 1a0f 811e
00000260: 7bbb a41a b2ea 781d 3663 d09f 12a3 c49e
00000270: cfe3 27a0 4910 d6a0 66d5 899c e22c b51b
00000280: 2e27 a21a f4bf 461c 727c 579f 471d 96a0
00000290: 4f7c 1aa1 cdd0 919f 0a3b 991e 984b 0b9f
000002a0: fa8e 33a3 8faf a9a4 7075 4ba4 9d13 2ea8
000002b0: b3f3 aea8 2ad4 4da6 4d77 0799 5260 9798
000002c0: 829e b999 b0cb c11e a00b 579f ddd5 9220
000002d0: 2a73 29a1 b904 c021 c6ad 15a2 cdbe 53a2
000002e0: 87c7 44a2 9015 e122 8f5e 8ea6 376e 4721
000002f0: d666 c0a0 6ce7 42a2 9e92 4623 563f 961f
00000300: 6f27 439d 2873 181e 6efc b29b d221 c4a4
00000310: 94dc fe24 5588 a3a2 6b3b 429b 4d4d 909c
00000320: c7f1 599b 3257 9329 20ca c32b 4327 57aa
00000330: 8819 6018 da86 a618 0e58 9e97 7ca3 9d20
00000340: d528 419c 9498 511d 0cfd 829f 051d d79e
00000350: 444c 311d 4697 32a8 cb55 8c28 911c aba6
00000360: 9d39 769f d6b3 1a9f 0ef0 019f 0089 5dab
00000370: 7d8c 12aa 3235 512b bd1e ee98 42ea b519
00000380: 92df 649a ccba 40a1 f808 0aa1 3d82 271e
00000390: 1259 76a4 3e75 0ca8 b34b 04a2 8cd2 821e
000003a0: 3397 ec1d 97bb bca1 6fc8 8da3 8c24 c624
000003b0: ba76 2aa3 d73a 929e 5f65 1120 f510 841d
000003c0: fb9a 5394 8f78 1e95 919e c99b 0dcb 2d1d
000003d0: fada 8a1c d5c4 cc1b 1b5e f29c cee0 e41c
000003e0: 8367 479c 82c6 439c 6471 669c 0a58 bd9b
000003f0: 6ff8 01a3 3c66 24a0 05c7 541d 7523 0c19

fai_gcn_networks.0.gcn.conv.bias f4 [96]
7.278489e-14 -9.667001e-15 -5.033208e-14 -3.453165e-12 -8.633971e-17 2.5982523e-12 -1.487221e-19 -6.0685647e-13
-3.2729488e-12 4.8275012e-12 -3.849503e-15 -2.872326e-12 -3.5398832e-13 -3.2923368e-13 -3.5080228e-10 -1.1062074e-12
-1.8136777e-18 8.339976e-16 -2.0566814e-14 -1.0885063e-13 -7.005912e-16 -1.398825e-14 -3.837196e-18 -5.915359e-14
-1.5709627e-10 -7.107215e-14 4.974426e-18 -7.2146485e-14 -2.1348344e-12 -1.0822351e-12 -7.7355135e-18 5.256373e-17
1.2999317e-13 1.1210555e-14 -5.6715974e-14 -4.46932e-12 -9.3008274e-17 7.566503e-12 -2.9029573e-19 -5.8182013e-13
-3.048266e-12 2.863218e-13 -4.3952133e-15 -3.113208e-12 -1.2921832e-12 -7.9645784e-13 -9.12054e-10 -1.0903161e-12
-6.9417426e-19 1.1646579e-14 -1.351367e-15 -1.6829588e-13 -4.7536086e-15 1.6071984e-16 -6.371677e-18 8.2079905e-14
-1.1756396e-10 -5.406321e-14 8.999617e-18 2.837648e-13 -4.131199e-12 -1.5479191e-12 -1.085261e-17 7.1059096e-17
-1.11828e-15 -3.789674e-15 4.143664e-15 3.0313811e-12 -4.8435296e-17 6.723917e-13 4.5186447e-19 -1.2979841e-13
-3.357133e-12 4.6318754e-11 -2.4079501e-15 -2.0709294e-12 -1.3632851e-12 -4.3255273e-13 1.3460935e-09 -1.4894958e-12
1.2327423e-18 -1.9242424e-14 -8.708038e-15 -3.1405014e-14 -2.6466027e-15 -6.055093e-15 1.2496835e-18 1.7359685e-13
-9.627138e-11 6.205817e-15 5.7985775e-19 2.1712885e-12 -1.7592576e-12 8.442439e-12 1.0034925e-17 -3.360783e-17
00000000: a2e5 a329 2c25 2ea8 f0ac 62a9 b1fe 72ac
00000010: f815 c7a4 f4d5 362c 7f94 2fa0 9ed0 2aab
00000020: 3450 66ac 44da a92c 66b1 8aa7 3a1f 4aac
00000030: 1847 c7aa 9357 b9aa 08db c0af 52af 9bab
00000040: 67d3 05a2 2962 7026 d83f b9a8 1e1c f5a9
00000050: 82ee 49a6 6bfd 7ba8 4b91 8da2 b933 85a9
00000060: abba 2caf 4e0a a0a9 2086 b722 9e75 a2a9
00000070: c239 16ac a14f 98ab eeb1 0ea3 4d68 7224
00000080: fb5b 122a 8ff3 4928 116d 7fa9 0e40 9dac
00000090: 6576 d6a4 801c 052d 405c aba0 8fc4 23ab
000000a0: ae80 56ac 522f a12a b05a 9ea7 9212 5bac
000000b0: cedb b5ab d62e 60ab 18b4 7ab0 c772 99ab
000000c0: 53e2 4ca1 5ece 5128 a4c0 c2a6 fc7b 3daa
000000d0: 4d44 aba7 204c 3925 ca12 eba2 d8d3 b829
000000e0: 5043 01af a37a 73a9 7d03 2623 d1be 9f2a
000000f0: 885a 91ac aad9 d9ab 0032 48a3 e3d9 a324
00000100: 4029 a1a6 9389 88a7 8e4a 9527 8250 552c
00000110: 4e5e 5fa4 ee42 3d2b ea5d 0521 d823 12aa
00000120: bb3c 6cac 48b6 4b2e d782 2da7 8cba 11ac
00000130: 86dd bfab 6b81 f3aa 7401 b930 bea0 d1ab
00000140: b0eb b521 0252 ada8 bdde 1ca8 846f 0da9
00000150: 34b5 3ea7 6028 daa7 b56b b821 e373 432a
00000160: f8b3 d3ae 8f96 df27 d024 2b21 75ca 182c
00000170: ef97 f7ab 5d85 142d 981c 3923 1ffd 1aa4

fai_gcn_networks.1.gcn.conv.weight f4 [192, 32, 1, 1]
6.0212332e-15 2.915786e-16 -4.873861e-15 5.224114e-15 -3.3461035e-19 6.613445e-13 3.6933126e-21 -4.6229466e-14
-6.3263663e-13 -6.801355e-13 8.7369874e-17 4.7084014e-14 -4.1700283e-15 2.0653267e-13 2.2461926e-11 6.671581e-14
6.121919e-21 2.3450512e-16 1.0445458e-15 4.364172e-15 2.067694e-16 3.0987615e-16 1.2390751e-18 1.8462627e-15
-3.0971746e-11 7.0875674e-17 7.874381e-19 1.45909e-14 -4.6338564e-14 3.7629784e-14 7.392172e-18 7.83115e-17
4.9163033e-15 3.2789972e-16 -2.8732158e-15 6.7471295e-15 -3.5105183e-19 1.1559125e-13 1.8105565e-20 3.1190727e-13
1.3878952e-13 -7.7651346e-14 1.7471051e-16 1.8690793e-14 -7.39456e-14 -7.9593335e-14 -4.362639e-11 4.793266e-14
2.1776596e-21 3.2236528e-16 6.0251975e-17 2.739624e-15 2.1410599e-16 2.2263253e-16 2.9597203e-18 -1.3140829e-15
8.334698e-12 -5.194915e-16 9.175356e-19 -5.4316803e-16 1.5044023e-13 1.1913888e-13 5.6883432e-18 -2.830774e-17
1.0436542e-24 2.2628837e-25 4.845333e-25 -2.4548277e-24 -1.3019126e-27 2.2100273e-22 2.0105095e-30 1.4343339e-22
2.729867e-23 1.7417545e-23 3.0329123e-26 5.2158576e-24 -1.0217958e-23 9.9346184e-24 1.5041827e-20 1.0007526e-23
-6.434984e-30 1.4199723e-26 -3.3128174e-25 3.2203787e-24 1.02970994e-25 1.3726542e-26 5.8149425e-28 -1.9399748e-24
1.3910327e-21 3.8985836e-25 2.825593e-28 2.6345207e-24 5.1853042e-23 1.04685206e-22 -1.8013974e-27 -6.25707e-26
8.695599e-15 -6.043016e-16 1.0934524e-15 8.382259e-15 -3.6663945e-18 1.0399307e-14 1.7410417e-21 3.1874007e-13
-3.6593054e-13 -1.0170715e-13 -2.3849782e-16 1.4568963e-14 3.3866793e-14 -6.573826e-14 5.890742e-12 6.533601e-14
3.1863284e-21 5.990113e-16 -3.8501544e-15 8.925366e-16 6.3945727e-17 -1.0176058e-17 1.0834426e-18 3.2362893e-15
-1.3784319e-11 -1.144515e-15 9.126117e-19 1.6963903e-14 -3.5561175e-13 2.5666142e-14 5.7407666e-18 7.285661e-17
7.945729e-15 1.06824e-15 1.0658318e-15 5.942145e-14 -7.052397e-18 1.0624244e-14 1.7102652e-21 3.3170946e-13
2.0780965e-13 1.7696539e-13 6.403342e-17 8.8957425e-15 -4.8616188e-14 5.7185674e-14 2.1773106e-11 2.981847e-14
8.2207075e-21 3.4654283e-16 2.325117e-17 6.248195e-15 7.8210867e-17 -2.9622288e-16 3.0433315e-18 -3.0410145e-16
1.0118217e-11 8.677334e-16 8.0970425e-19 6.105655e-15 1.5079221e-13 -7.707349e-14 6.903538e-18 4.524606e-16
5.604767e-15 2.6183186e-16 1.6369877e-15 5.220478e-15 -5.2885984e-19 2.3011224e-14 3.698328e-21 3.4006681e-13
7.4009504e-14 7.476489e-13 1.7451221e-16 8.1437585e-15 9.95627e-17 8.310636e-14 6.1507084e-12 6.3422676e-14
2.2706205e-21 6.3010823e-16 1.3210989e-15 6.027189e-15 1.0394425e-15 2.7508253e-16 -6.818875e-19 3.2410303e-15
-8.249814e-12 -1.0801436e-15 6.0605404e-19 -3.905752e-15 6.55287e-14 6.659789e-14 6.3937107e-18 6.5388694e-17
1.6693949e-15 1.9054935e-16 4.3903398e-16 2.3863225e-14 -1.0496107e-19 2.1469897e-15 1.0007637e-21 1.1917774e-13
3.5366407e-14 -2.4850739e-14 5.112743e-17 -2.0048255e-14 -9.289522e-15 1.481014e-14 9.407393e-13 2.5350505e-14
2.8533957e-21 2.419757e-16 6.288164e-16 2.351724e-15 2.447293e-17 1.2055887e-16 1.3621695e-18 1.1583435e-15
1.1052674e-12 4.3774925e-16 -3.6061672e-20 2.5410296e-15 2.6991045e-14 1.1628723e-14 6.8575167e-18 -9.440852e-17
-1.4476645e-26 2.1094248e-27 -1.0150167e-27 -1.1596249e-25 -4.6961278e-30 -8.800393e-26 -1.6043745e-13 1.4162619e-24
-3.0990345e-26 2.3331863e-25 -2.6920634e-28 -1.482645e-26 -1.2221382e-25 1.2948188e-25 -6.876889e-23 -4.176331e-26
1.8888641e-31 -1.7729797e-27 -3.8949745e-27 8.057551e-27 -9.6168694e-29 -1.6422557e-27 -3.8648e-12 -1.1803742e-26
-3.4486123e-24 -4.2917885e-14 -1.1681639e-30 -3.71572e-26 1.8208844e-12 6.3218904e-25 -1.4755825e-29 2.4420127e-28
00000000: 13f0 d827 6815 a825 6f99 afa7 f237 bc27
00000010: e384 c5a0 e526 3a2b 8787 8b1d f232 50a9
00000020: 4612 32ab ee70 3fab 1276 c924 2c0c 5429
00000030: b93d 96a7 fd88 682a c393 c52d 0c3b 9629
00000040: 9147 e71d d92e 8725 f088 9626 623c 9d27
00000050: 8e63 6e25 a6a1 b225 efda b621 8909 0527
00000060: 1637 08ae 9d6d a324 2469 6821 536c 8328
00000070: bab0 50a9 3078 2929 8c5c 0823 f392 b424
00000080: e520 b127 7505 bd25 7a09 4fa7 4917 f327
00000090: 7439 cfa0 e924 022a 9200 ab1e 9396 af2a
000000a0: 5b43 1c2a f4da aea9 716d 4925 095a a828
000000b0: bc82 a6a9 6f3a b3a9 f3de 3fae 98de 5729
000000c0: 108a 241d b8d4 b925 7dee 8a24 2569 4527
000000d0: efd8 7625 c356 8025 8963 5a22 1a61 bda6
000000e0: 25a0 122d b5bb 15a6 8467 8721 ba8e 1ca6
000000f0: 7261 292a 7223 062a e2dc d122 e18b 02a4
00000100: 677f a117 d310 8c16 aff4 1517 dfee 3d98
00000110: d94b ce92 8496 851b a61c 230e 7c66 2d1b
00000120: 1e02 041a c173 a819 bb2e 1615 5ac7 c918
00000130: e1a4 4599 d929 4019 e810 8e1e de92 4119
00000140: 5984 028f 93a0 8c14 b00d cd96 2c2a 7918
00000150: 9ff1 fe15 ebf0 8714 6b48 3812 2919 1698
00000160: f934 d21c 864f f116 de17 b311 0fd6 4b18
00000170: f5be 7a1a 011d fd1a aeb8 0e93 e5ea 9a95
00000180: 5fa5 1c28 962d 2ea6 4695 9d26 5900 1728
00000190: 1e44 87a2 5756 3b28 a58c 031d 496f b32a
000001a0: 2600 ceaa 2e06 e5a9 117c 89a5 be39 8328
000001b0: c185 1829 8707 94a9 1643 cf2c a51f 9329
000001c0: 8ec0 701d 3ca7 2c26 68b7 8aa7 caa0 8026
000001d0: e572 9324 13b7 3ba3 4ee3 9f21 0033 6927
000001e0: 0e7f 72ad 27f1 a4a6 7fad 8621 19cc 9828
000001f0: 0e31 c8aa 182e e728 02cc d322 f4fe a724
00000200: 3523 0f28 1af3 9926 419a 9926 22ce 8529
00000210: 0118 02a3 ad63 3f28 5739 011d 5fbc ba2a
00000220: 0ef9 692a cd3e 472a a9a6 9324 5f40 2028
00000230: a6f2 5aa9 4cc5 8029 ad84 bf2d 5b4a 0629
00000240: e748 1b1e b2c4 c725 4674 d623 6d1d e127
00000250: 8c57 b424 c8c2 aaa5 e88e 6022 744d afa5
00000260: 6600 322d 6c1b 7a26 86fb 6e21 bafa db27
00000270: e5c6 292a d88d ada9 13b2 fe22 b369 0226
00000280: daee c927 90ef 9625 30ea eb26 6916 bc27
00000290: 8517 1ca1 4544 cf28 09b8 8b1d cb70 bf2a
000002a0: 93a7 a629 c871 522b ea32 4925 75b4 1228
000002b0: 7293 e524 8e23 bb29 a868 d82c afd0 8e29
000002c0: 3090 2b1d c89d 3526 f263 be26 0227 d927
000002d0: a9cc 9526 0493 9e25 f641 49a1 758a 6927
000002e0: dc21 11ad 44aa 9ba6 26e0 3221 34b8 8ca7
000002f0: b98e 9329 12f7 9529 e4e2 eb22 acc6 9624
00000300: cd95 f026 3eb0 5b25 fb15 fd25 daf0 d628
00000310: 13d5 f79f f8b4 1a27 2c3b 971c a52e 062a
00000320: b146 1f29 e7d5 dfa8 9ec8 6b24 2194 b4a8
00000330: 5c58 27a8 dc65 8528 b565 842b 4956 e428
00000340: b398 571d 4f7d 8b25 763e 3526 a775 2927
00000350: 12b9 e123 b3fe 0a25 4f05 c921 55ef a626
00000360: 748d 9b2b 6358 fc25 e34b 2a9f b919 3727
00000370: 1d1d f328 057c 5128 6aff fc22 f4b0 d9a4
00000380: a85e 8f94 3820 2713 f8d5 a092 fb8d 0f96
00000390: 617f be8e 1ee3 d995 f2a2 34aa ea27 db17
000003a0: ee74 1995 d06a 9016 3aa1 aa91 84d5 9294
000003b0: 1b4b 1796 724a 2016 e245 a69a 49cd 4e95
000003c0: 4730 750c 4d78 0c93 bc4b 9a93 a398 1f14
000003d0: 0dd1 f390 e71c 0293 06fb 87ac 15cc 6994
000003e0: 6769 8598 f448 41a9 a18b bd8d 59fe 3795
000003f0: 2322 002c 2da7 4317 50a4 958f ecc7 9a11

fai_gcn_networks.1.gcn.conv.bias f4 [192]
0.03937812 0.038870383 1.5340154e-11 0.03875012 0.0385644 0.039161533 0.015119833 2.3816179e-13
0.038920924 0.038907107 3.9119927e-10 0.017565552 0.03951141 0.03970479 0.03949244 0.03946201
0.039267536 0.039624278 0.038675383 0.028487058 0.020559752 0.01863425 1.4394235e-09 4.0141317e-13
0.039150152 1.04451395e-07 0.039543938 2.7756224e-09 -2.4862038e-11 4.3104492e-11 0.03930221 0.039480876
2.877436e-11 -2.025072e-14 0.039745927 -5.146449e-13 0.036500882 6.9363486e-12 4.3927657e-12 0.021500241
0.039948985 0.03915293 0.03802564 0.03966275 -8.5614637e-13 0.03961094 -7.168756e-11 0.03959451
-7.677823e-11 -6.0955276e-09 0.039393865 0.04004628 2.0637261e-13 -3.2858965e-12 0.039729394 0.038759604
-4.4851456e-11 0.03900931 7.919645e-12 8.733989e-08 -5.565341e-12 0.039474465 0.039627265 2.2897621e-11
0.049015265 0.048441466 2.4688803e-11 0.047900733 0.048144896 0.04874582 0.01941987 1.8495076e-13
0.04843578 0.048056662 5.252953e-10 0.022492643 0.049038388 0.04928033 0.049242917 0.049127553
0.048536707 0.049127772 0.048085567 0.03599748 0.026228996 0.023826629 1.8096159e-09 -1.4324897e-12
0.04882172 1.2995413e-07 0.04907228 4.4099178e-09 -2.8793705e-11 7.641055e-12 0.048693907 0.049196497
2.1151853e-11 -6.48388e-13 0.04935834 -5.3673374e-13 0.045706637 -7.288734e-14 2.4954067e-12 0.027397824
0.049525753 0.048632994 0.04748946 0.049430307 1.2512521e-11 0.049380682 -3.573367e-11 0.04933862
-1.4950688e-10 -5.0551336e-09 0.049047265 0.049633015 -1.2713887e-12 -3.461243e-12 0.049507998 0.04838555
-3.29054e-11 0.048435226 2.0851422e-12 8.864801e-08 -2.4521103e-12 0.04921356 0.04940288 3.6523107e-11
0.016255064 0.016031165 -1.1558222e-11 0.016037554 0.015899373 0.0161614 0.0061074845 3.7297216e-13
0.01606248 0.016112193 1.8804261e-10 0.007105596 0.016327936 0.016410112 0.016298661 0.016289957
0.016257284 0.016381662 0.015962996 0.011626226 0.0083345305 0.007543407 5.7424415e-10 -2.6678022e-12
0.01615055 5.3794125e-08 0.016342299 1.8340316e-09 -2.2978121e-11 1.7960926e-11 0.016251681 0.016294504
-3.538326e-11 -9.496043e-13 0.016422482 -8.636869e-13 0.0150085185 4.2974443e-11 2.9734614e-11 0.0087221535
0.016519694 0.016171211 0.01566534 0.01637245 -1.8383856e-10 0.01634945 -1.2926137e-10 0.016343271
5.7991265e-11 -9.381123e-09 0.016260637 0.016563747 -2.477832e-12 5.17911e-13 0.016400985 0.015981777
5.8130417e-11 0.016108109 3.5959506e-11 5.9570166e-08 -1.5035703e-12 0.016289568 0.016356802 -8.987127e-12
00000000: f44a 213d 8d36 1f3d f5ee 862d 72b8 1e3d
00000010: b4f5 1d3d d867 203d 2db9 773c bb12 862a
00000020: 8c6b 1f3d 0f5d 1f3d 6710 d72f a2e5 8f3c
00000030: b7d6 213d 7da1 223d d3c2 213d eba2 213d
00000040: ffd6 203d 114d 223d 146a 1e3d b15d e93c
00000050: ed6c a83c dba6 983c 36d5 c530 bcf9 e12a
00000060: e95b 203d c34e e033 d3f8 213d 44bd 3e31
00000070: 55b0 daad 5893 3d2e 5bfb 203d b3b6 213d
00000080: 191a fd2d fb66 b6a8 a0cc 223d 13dc 10ab
00000090: f381 153d 130d f42c 848e 9a2c 4621 b03c
000000a0: 8ca1 233d d35e 203d c6c0 1b3d 6875 223d
000000b0: d9fb 70ab 153f 223d 82a4 9dae da2d 223d
000000c0: 4dd6 a8ae d470 d1b1 765b 213d 9107 243d
000000d0: db5a 682a 7339 67ac 4abb 223d 64c2 1e3d
000000e0: 4042 45ae 3ac8 1f3d e952 0b2d 9d8f bb33
000000f0: 23d0 c3ac faaf 213d 3350 223d dc68 c92d
00000100: 3bc4 483d 8f6a 463d 3e2a d92d 8f33 443d
00000110: 9533 453d b2a9 473d 6b16 9f3c 6d3c 502a
00000120: 9964 463d 10d7 443d 5f64 1030 7e42 b83c
00000130: 7adc 483d 2cda 493d f1b2 493d f939 493d
00000140: 6dce 463d 343a 493d 5ff5 443d 1872 133d
00000150: 31de d63c 1030 c33c 33b6 f830 e19a c9ab
00000160: 49f9 473d 8589 0b34 0400 493d 0c86 9731
00000170: a945 fdad 416c 062d 4373 473d 4482 493d
00000180: bd0d ba2d 4781 36ab f92b 4a3d be13 17ab
00000190: e236 3b3d b120 a4a9 4099 2f2c 6771 e03c
000001a0: 84db 4a3d 6433 473d 4f84 423d 6f77 4a3d
000001b0: 631f 5c2d 6643 4a3d 8928 1dae 4b17 4a3d
000001c0: 7262 24af 6db1 adb1 c9e5 483d fd4b 4b3d
000001d0: 9bee b2ab 3690 73ac e6c8 4a3d ed2f 463d
000001e0: 30b8 10ae 0464 463d 95ba 122c c25e be33
000001f0: 4b8d 2cac 2894 493d ad5a 4a3d 5da1 202e
00000200: 5729 853c ca53 833c 9b55 4bad 3061 833c
00000210: 673f 823c ea64 843c 4b21 c83b f4f6 d12a
00000220: 7695 833c b8fd 833c 4ac1 4e2f 0fd6 e83b
00000230: 2ac2 853c 806e 863c c584 853c 8472 853c
00000240: ff2d 853c d632 863c d4c4 823c ed7b 3e3c
00000250: 8e8d 083c af2e f73b d7d8 1d30 daba 3bac
00000260: 294e 843c 440b 6733 49e0 853c 4011 fc30
00000270: 211e caad 69fc 9d2d 3f22 853c 0d7c 853c
00000280: 029e 1bae 1aa5 85ab 7188 863c 331b 73ab
00000290: 4ae6 753c ec00 3d2e 33c6 022e 5de7 0e3c
000002a0: 4f54 873c 7d79 843c 9954 803c 841f 863c
000002b0: f421 4aaf 48ef 853c d71f 0eaf 53e2 853c
000002c0: 5c0c 7f2e 9e2a 21b2 0735 853c b2b0 873c
000002d0: a75c 2eac 6cc7 112b 5c5b 863c 37ec 823c
000002e0: 08a9 7f2e 27f5 833c ce26 1e2e 17da 7f33
000002f0: d49b d3ab b371 853c b3fe 853c 6c1a 1ead

fai_gcn_networks.1.residual.0.weight f4 [64, 32, 1, 1]
0.018939074 -0.0061449036 -0.032910142 -0.014857954 -0.0010135311 0.0009883319 0.024225261 -0.015218258
0.006272182 -0.017307077 -0.012435554 0.00986196 0.016803209 -0.022054536 -0.014527833 0.009636111
-0.01705649 -0.047278974 -0.013202678 0.00060644717 0.00012018301 -0.010741053 0.018319836 0.0032305957
0.0021009517 -0.019425686 -0.009497714 0.012672698 0.00080629636 -0.010339507 -0.015471177 0.012213666
-0.041910652 -0.014167534 0.022505429 0.03692929 -0.0078641 -0.01668219 0.008646002 0.0157229
0.013545066 0.0085383905 0.009265355 0.018712282 0.028603643 -0.0045753606 0.0044206996 0.023048725
0.03084884 0.046898875 -0.0033407733 -0.021755572 -0.025820026 -0.0026737007 -0.04343495 -0.016305752
-0.04130582 -0.043620266 -0.009299242 0.025887646 -0.012852149 -0.03155005 0.037751406 -0.012634297
-0.0030532603 -0.0070576984 0.017512104 -0.008796813 -0.019055344 -0.02797408 0.0033715232 0.013514747
-0.00058863964 -0.00061670435 0.015763018 -0.005240307 0.0029821643 -0.016734857 -0.017622678 -0.035216775
0.025386052 0.020777933 0.03631077 0.017362846 -0.043293994 -0.0038590601 0.019533144 0.004192864
0.004278021 -0.042318843 0.011477886 -0.025823338 -0.017927784 -0.009904955 -0.009300515 0.00096727646
0.025345225 -0.0065649305 -0.014616483 0.007521045 -0.024068408 -0.01769643 0.0040153596 -0.014234595
0.0058608362 0.024808768 -0.008808525 0.009070592 0.0070137815 0.02517589 -0.0011688184 -0.02105033
-0.0006506436 0.0090400055 -0.004882899 0.014554497 -0.012564622 -0.018089527 -0.004374887 0.03322041
-0.0013190513 -0.0002639431 -0.01232889 -0.026730947 0.01523792 -0.047824655 -0.027650353 -0.019539807
-0.018842924 0.007027198 -0.021400938 -0.05557979 0.01293719 -0.019242285 -0.016130228 -0.019203953
0.002681149 0.005157314 0.0065306146 0.016719017 -0.0134527385 0.013129326 0.0028363653 0.016889757
-0.0257695 -0.03400732 -0.011278876 -0.0123772165 -0.002302473 -0.017000364 0.0036840593 0.035638824
0.009836258 -0.022610702 0.004971007 0.0074630803 0.0007746095 0.017704004 0.017118342 -0.016793529
0.037173662 -0.007622767 -0.0017863673 -0.008876308 -0.016437441 -0.010885577 -0.0142114265 -0.010572541
-0.0005284347 0.019539252 -0.031392857 0.0015147848 0.032461822 -0.02588465 0.022695346 -0.008580532
0.00058922597 -0.010769596 -0.016838176 -0.009869769 0.00550937 -0.0005940455 -0.021280998 -0.003984541
0.014127723 -0.05642709 -0.0067432076 -0.034988776 -0.01357113 -0.011320052 -0.0062169274 -0.001966492
0.013539947 0.012304176 0.008882328 0.0025081923 0.02816169 0.0083734505 -0.018838525 -0.012847026
0.025752356 -0.018108787 -0.002155895 -0.011631346 0.00028611155 -0.028556248 0.0066422615 0.048417658
0.009176914 0.020902574 -0.017622227 -0.029697316 -0.003274225 -0.008646546 0.021333894 -0.019496331
0.00067070336 -0.008334251 -0.0074231946 -0.0044910028 0.027040618 0.004209212 -0.008735225 0.00040809385
0.0013271784 -0.02677107 0.006572663 -0.03717913 0.04125122 0.012744414 -0.00773247 -0.006772761
0.017859483 -0.017746817 0.033601962 0.046437766 0.006135368 0.027487023 -0.044545796 0.022766905
-0.009482309 -0.0039688577 0.028790154 0.0031954588 -0.039527982 0.021439 -0.026716964 -0.0038052595
-0.01447527 0.005573005 0.0028188399 -0.00021571995 -0.0016473462 -0.032408085 -0.012693581 -0.0052713845
00000000: 1e26 9b3c 305b c9bb c9cc 06bd c76e 73bc
00000010: 76d8 84ba ea8a 813a 0e74 c63c 0056 79bc
00000020: e086 cd3b 92c7 8dbc 7ebe 4bbc 0f94 213c
00000030: e2a6 893c b7ab b4bc 2606 6ebc c7e0 1d3c
00000040: 0dba 8bbc 99a7 41bd 0c50 58bc fbf9 1e3a
00000050: c30a fc38 3efb 2fbc 7b13 963c 67b8 533b
00000060: 1fb0 093b 9e22 9fbc 4d9c 1bbc 26a1 4f3c
00000070: a25d 533a 0967 29bc d27a 7dbc d41b 483c
00000080: 81aa 2bbd f21e 68bc 4e5d b83c 2b43 173d
00000090: 6dd8 00bc 17a9 88bc f6a7 0d3c 50cd 803c
000000a0: 20ec 5d3c 9be4 0b3c b7cd 173c 804a 993c
000000b0: 3052 ea3c e8ec 95bb 84db 903b aed0 bc3c
000000c0: b5b6 fc3c 0919 403d e0f0 5abb be38 b2bc
000000d0: 8584 d3bc 4139 2fbb d9e8 31bd a493 85bc
000000e0: 4b30 29bd 2aab 32bd d95b 18bc 5412 d43c
000000f0: d291 52bc a03a 01bd 38a1 1a3d 1500 4fbc
00000100: 3519 48bb 4444 e7bb 8b75 8f3c 8220 10bc
00000110: f419 9cbc e629 e5bc c6f4 5c3b f56c 5d3c
00000120: f04e 1aba 54aa 21ba 7221 813c e2b6 abbb
00000130: 6a70 433b 8a17 89bc 6f5d 90bc 773f 10bd
00000140: 69f6 cf3c 7c36 aa3c 9aba 143d 873c 8e3c
00000150: 0b55 31bd 49e8 7cbb f903 a03c 4b64 893b
00000160: a42e 8c3b 8656 2dbd be0d 3c3c 778b d3bc
00000170: 4add 92bc 6448 22bc 3061 18bc d390 7d3a
00000180: caa0 cf3c a11e d7bb f979 6fbc 1973 f63b
00000190: 1c2b c5bc 1bf8 90bc 4793 833b 3838 69bc
000001a0: 420c c03b c23b cb3c a251 10bc d29c 143c
000001b0: ddd3 e53b ab3d ce3c 0a33 99ba be71 acbc
000001c0: f48f 2aba 881c 143c ba00 a0bb fc75 6e3c
000001d0: d8db 4dbc 7d30 94bc 365b 8fbb 2012 083d
000001e0: 04e4 acba d861 8ab9 1dff 49bc dcfa dabc
000001f0: 78a8 793c c9e3 43bd fe82 e2bc f211 a0bc
00000200: 7a5c 9abc 6944 e63b 0551 afbc a2a7 63bd
00000210: 82f6 533c ffa1 9dbc 8a23 84bc 9c51 9dbc
00000220: 37b6 2f3b affe a83b c4fe d53b 52f6 883c
00000230: e068 5cbc 621c 573c 50e2 393b 635c 8a3c
00000240: 8f1a d3bc 424b 0bbd 09cb 38bc cfc9 4abc
00000250: 16e5 16bb 5944 8bbc 4270 713b 04fa 113d
00000260: 4228 213c 143a b9bc d4e3 a23b db8c f43b
00000270: 2a0f 4b3a fd07 913c c43b 8c3c 9592 89bc
00000280: 6943 183d 67c8 f9bb 8a24 eaba ef6d 11bc
00000290: d0a7 86bc 6b59 32bc 0bd7 68bc 7338 2dbc
000002a0: a786 0aba c810 a03c cc95 00bd be8b c63a
000002b0: b0f6 043d 0c0c d4bc 97eb b93c 5c95 0cbc
000002c0: 4976 1a3a f672 30bc 37f0 89bc d0b4 21bc
000002d0: f287 b43b b8b9 1bba 7d55 aebc c190 82bb
000002e0: f777 673c 1820 67bd 20f6 dcbb 6450 0fbd
000002f0: 7259 5ebc bd77 39bc 5eb7 cbbb 43e0 00bb
00000300: a7d6 5d3c 7497 493c 2f87 113c 7c60 243b
00000310: 58b3 e63c cc30 093c 4053 9abc 557c 52bc
00000320: 9bf6 d23c e158 94bc eb49 0dbb 6791 3ebc
00000330: 3e01 9639 cbee e9bc 54a7 d93b 9851 463d
00000340: c45a 163c e03b ab3c 7d5c 90bc c947 f3bc
00000350: 6194 56bb 3eaa 0dbc 6bc4 ae3c c5b6 9fbc
00000360: 24d2 2f3a 628c 08bc 453e f3bb 4329 93bb
00000370: 4984 dd3c 6eed 893b 301e 0fbc 6ef5 d539
00000380: b8f4 ad3a 014f dbbc 7e5f d73b 2549 18bd
00000390: 0af7 283d f2cd 503c a960 fdbb 09ee ddbb
000003a0: 0d4e 923c c661 91bc 36a2 093d 8735 3e3d
000003b0: 320b c93b 772c e13c a775 36bd a981 ba3c
000003c0: b05b 1bbc 310d 82bb 54d9 eb3c e76a 513b
000003d0: 18e8 21bd d7a0 af3c 89dd dabc a961 79bb
000003e0: af29 6dbc c19d b63b 49bc 383b e232 62b9
000003f0: c4eb d7ba 57be 04bd bdf8 4fbc 94bb acbb

fai_gcn_networks.1.residual.0.bias f4 [64]
0.0 0.0 0.0 0.0 0.0 0.0 0.0 0.0
0.0 0.0 0.0 0.0 0.0 0.0 0.0 0.0
0.0 0.0 0.0 0.0 0.0 0.0 0.0 0.0
0.0 0.0 0.0 0.0 0.0 0.0 0.0 0.0
0.0 0.0 0.0 0.0 0.0 0.0 0.0 0.0
0.0 0.0 0.0 0.0 0.0 0.0 0.0 0.0
0.0 0.0 0.0 0.0 0.0 0.0 0.0 0.0
0.0 0.0 0.0 0.0 0.0 0.0 0.0 0.0
00000000: 0000 0000 0000 0000 0000 0000 0000 0000
00000010: 0000 0000 0000 0000 0000 0000 0000 0000
00000020: 0000 0000 0000 0000 0000 0000 0000 0000
00000030: 0000 0000 0000 0000 0000 0000 0000 0000
00000040: 0000 0000 0000 0000 0000 0000 0000 0000
00000050: 0000 0000 0000 0000 0000 0000 0000 0000
00000060: 0000 0000 0000 0000 0000 0000 0000 0000
00000070: 0000 0000 0000 0000 0000 0000 0000 0000
00000080: 0000 0000 0000 0000 0000 0000 0000 0000
00000090: 0000 0000 0000 0000 0000 0000 0000 0000
000000a0: 0000 0000 0000 0000 0000 0000 0000 0000
000000b0: 0000 0000 0000 0000 0000 0000 0000 0000
000000c0: 0000 0000 0000 0000 0000 0000 0000 0000
000000d0: 0000 0000 0000 0000 0000 0000 0000 0000
000000e0: 0000 0000 0000 0000 0000 0000 0000 0000
000000f0: 0000 0000 0000 0000 0000 0000 0000 0000

fai_gcn_networks.1.residual.1.weight f4 [64]
0.99313664 1.0092814 0.9851803 1.0197701 1.0100332 0.99878585 1.0245621 0.9780831
0.95989764 1.037407 0.9729835 0.99444664 1.0003372 1.0054029 0.9858513 1.0203506
0.9793453 0.98676443 1.0055552 0.98812294 1.0294654 1.0242891 0.9846279 1.0051813
1.0439144 1.0294458 0.98244 0.9702928 1.0024039 1.0318897 0.9904064 1.0077388
0.99255735 0.9734997 0.9985802 0.9916456 1.0069139 1.0384603 0.989641 0.99286216
0.99673015 1.0364307 1.0216503 0.97213835 0.96292424 1.0019207 1.0014352 0.9726209
0.9963759 1.0154052 0.9982208 1.0188428 1.0203962 1.0120778 0.9958304 0.9652241
0.96660614 0.99413645 1.0033184 0.9838672 0.9991993 1.0005283 1.0377349 0.9768669
00000000: 343e 7e3f 2230 813f c734 7c3f d487 823f
00000010: c548 813f 6eb0 7f3f da24 833f a763 7a3f
00000020: dabb 753f c1c9 843f 7215 793f 0e94 7e3f
00000030: 0d0b 803f 0bb1 803f c060 7c3f d99a 823f
00000040: 60b6 7a3f 989c 7c3f 08b6 803f a0f5 7c3f
00000050: 86c5 833f e81b 833f 9310 7c3f c8a9 803f
00000060: fd9e 853f e1c4 833f 3081 7b3f 1c65 783f
00000070: c54e 803f f614 843f 468b 7d3f 96fd 803f
00000080: 3d18 7e3f 4737 793f f4a2 7f3f 7cdc 7d3f
00000090: 8ee2 803f 44ec 843f 1d59 7d3f 372c 7e3f
000000a0: b529 7f3f c3a9 843f 70c5 823f 0fde 783f
000000b0: 3482 763f f03e 803f 072f 803f affd 783f
000000c0: 7e12 7f3f ccf8 813f 668b 7f3f 7169 823f
000000d0: 589c 823f c48b 813f beee 7e3f ed18 773f
000000e0: 8073 773f ba7f 7e3f bd6c 803f b9de 7b3f
000000f0: 86cb 7f3f 5011 803f 7fd4 843f f313 7a3f

fai_gcn_networks.1.residual.1.bias f4 [64]
0.0 0.0 0.0 0.0 0.0 0.0 0.0 0.0
0.0 0.0 0.0 0.0 0.0 0.0 0.0 0.0
0.0 0.0 0.0 0.0 0.0 0.0 0.0 0.0
0.0 0.0 0.0 0.0 0.0 0.0 0.0 0.0
0.0 0.0 0.0 0.0 0.0 0.0 0.0 0.0
0.0 0.0 0.0 0.0 0.0 0.0 0.0 0.0
0.0 0.0 0.0 0.0 0.0 0.0 0.0 0.0
0.0 0.0 0.0 0.0 0.0 0.0 0.0 0.0
00000000: 0000 0000 0000 0000 0000 0000 0000 0000
00000010: 0000 0000 0000 0000 0000 0000 0000 0000
00000020: 0000 0000 0000 0000 0000 0000 0000 0000
00000030: 0000 0000 0000 0000 0000 0000 0000 0000
00000040: 0000 0000 0000 0000 0000 0000 0000 0000
00000050: 0000 0000 0000 0000 0000 0000 0000 0000
00000060: 0000 0000 0000 0000 0000 0000 0000 0000
00000070: 0000 0000 0000 0000 0000 0000 0000 0000
00000080: 0000 0000 0000 0000 0000 0000 0000 0000
00000090: 0000 0000 0000 0000 0000 0000 0000 0000
000000a0: 0000 0000 0000 0000 0000 0000 0000 0000
000000b0: 0000 0000 0000 0000 0000 0000 0000 0000
000000c0: 0000 0000 0000 0000 0000 0000 0000 0000
000000d0: 0000 0000 0000 0000 0000 0000 0000 0000
000000e0: 0000 0000 0000 0000 0000 0000 0000 0000
000000f0: 0000 0000 0000 0000 0000 0000 0000 0000

fai_gcn_networks.1.residual.1.running_mean f4 [64]
-6.5986555e-13 -3.1516148e-12 -5.5687524e-13 -2.1010483e-13 8.5071165e-13 2.2773497e-12 3.8595757e-13 -3.460398e-12
-1.5278228e-12 -1.7071695e-12 -1.2660828e-12 1.9801962e-12 -9.865242e-13 -6.3395155e-13 1.5470222e-12 7.5506604e-13
-8.061691e-14 4.040999e-13 -1.5502671e-12 -7.131357e-13 5.009169e-12 1.8125875e-12 -5.920434e-13 -2.7706515e-12
2.1762292e-12 3.2997249e-12 -2.0081898e-12 -3.979137e-12 1.8253374e-12 -2.9602987e-12 -3.89806e-13 -6.752621e-13
-3.92712e-12 -1.495175e-12 6.258692e-13 -2.1841895e-12 2.1927935e-12 -2.5937008e-13 3.4450671e-12 -1.3584729e-12
4.136322e-12 -2.3346386e-12 -6.7500253e-13 -5.252428e-13 -1.7484312e-12 -6.723103e-13 1.6409065e-12 -2.9177216e-12
-1.4173955e-12 -1.1176292e-12 2.3049338e-12 -1.8377233e-12 5.0762535e-13 1.3712919e-12 -4.5402316e-13 2.331176e-12
-7.605081e-14 2.1175817e-12 -4.4933073e-13 -1.7842576e-12 1.7313928e-12 -2.1895667e-12 -1.1005679e-12 3.5175104e-13
00000000: 53bc 39ab 72c6 5dac 17bf 1cab 988e 6caa
00000010: 3c74 6f2b 1641 202c 5946 d92a fd80 73ac
00000020: 9e05 d7ab 4343 f0ab 712f b2ab 0b58 0b2c
00000030: 48d7 8aab 0671 32ab 59b9 d92b 3e88 542b
00000040: 7c88 b5a9 ef7c e32a 422e daab d8ba 48ab
00000050: 953e b02c 5919 ff2b 39a5 26ab 9ff7 42ac
00000060: 7623 192c 8f32 682c 5550 0dac e100 8cac
00000070: 5b72 002c 0050 50ac f770 dbaa c311 3eab
00000080: 5a2c 8aac 5b6d d2ab a12a 302b dcb2 19ac
00000090: db4d 1a2c 2b03 92aa d06c 722c 2530 bfab
000000a0: ad88 912c 1c49 24ac 0fff 3dab bcd7 13ab
000000b0: df11 f6ab 103d 3dab e3ef e62b 0051 4dac
000000c0: 0e7b c7ab d64a 9dab ff31 222c 7b51 01ac
000000d0: 43e2 0e2b fffd c02b a297 ffaa bc0a 242c
000000e0: 4f40 aba9 f602 152c 62f3 fcaa a81c fbab
000000f0: 00ac f32b ba13 1aac 23e4 9aab ab04 c62a

fai_gcn_networks.1.residual.1.running_var f4 [64]
1.8158762e-24 5.3566806e-25 2.59835e-24 3.2775408e-26 1.5080957e-25 4.8558124e-24 3.9527345e-25 1.786497e-23
8.862526e-24 8.0700535e-25 7.506538e-26 2.4870925e-24 2.5900057e-24 2.7292132e-25 2.0529435e-24 9.412024e-25
1.6489633e-24 1.833657e-25 1.2673289e-24 5.5460195e-24 4.619275e-24 1.4212559e-24 1.9648486e-24 2.2488413e-24
3.6221766e-25 1.1273373e-24 2.893743e-25 9.410898e-25 5.2157625e-24 5.7870323e-24 1.2591078e-24 2.5688725e-24
7.475235e-24 5.526248e-25 6.046959e-25 2.4180573e-24 2.5219479e-24 1.66735e-23 1.1486957e-23 2.667846e-25
2.6596038e-23 1.0929379e-24 5.9570165e-24 4.9895835e-24 3.7444683e-25 1.7786098e-24 1.2197088e-24 4.2620727e-24
9.600355e-25 3.6710987e-24 3.699229e-24 1.6159893e-25 1.1158416e-24 4.7168247e-25 6.4403476e-24 4.765622e-24
5.3721688e-24 4.2939584e-24 4.5391697e-25 4.6226707e-25 1.1510566e-24 6.822006e-24 2.019346e-23 6.195414e-24
00000000: 227f 0c18 ffc7 2517 a009 4918 c44b 2215
00000010: 76b1 3a16 a3d9 bb18 94a9 f416 86c7 ac19
00000020: 1a6d 2b19 8dc1 7917 56da b915 f16d 4018
00000030: 5964 4818 1cee a816 bcd6 1e18 dea4 9117
00000040: 2b2a ff17 e9fe 6216 121c c417 1e8d d618
00000050: 15b3 b218 bfed db17 d605 1818 e4fe 2d18
00000060: ae33 e016 6e72 ae17 301d b316 68a0 9117
00000070: 69c6 c918 fedf df18 66d6 c217 c3c1 4618
00000080: 9297 1019 7307 2b17 f224 3b17 8f16 3b18
00000090: 5320 4318 9641 a119 a830 5e19 b521 a516
000000a0: 4d9c 001a bb1f a917 6f73 e618 7106 c118
000000b0: 78c5 e716 ff9c 0918 a5bd bc17 86e1 a418
000000c0: ed8e 9417 cd04 8e18 641b 8f18 bf0c 4816
000000d0: 0aab ac17 89fa 1117 1d26 f918 6f5c b818
000000e0: 62d3 cf18 4e1d a618 027b 0c17 9210 0f17
000000f0: 0d1e b217 f0f4 0319 964c c319 69ac ef18

edge_importance.0 f4 [3, 18, 18]
0.7096822 0.7096822 0.7096822 0.7096822 0.7096822 0.7096822 0.7096822 0.7096822
0.7096822 0.7096822 0.7096822 0.7096822 0.7096822 0.7096822 0.7096822 0.7096822
0.7096822 0.7096822 0.7096822 0.7096821 0.7096822 0.7096822 0.7096822 0.7096822
0.7096822 0.7096822 0.7096822 0.7096822 0.7096822 0.7096822 0.7096822 0.7096822
0.7096822 0.7096822 0.7096822 0.7096822 0.7096822 0.7096822 0.7096822 0.7096822
0.7096822 0.7096822 0.7096822 0.7096822 0.7096822 0.7096822 0.7096822 0.7096822
0.7096822 0.7096822 0.7096822 0.7096822 0.7096822 0.7096822 0.7096822 0.7096822
0.7096822 0.7096822 0.7096822 0.7096822 0.7096822 0.7096822 0.7096822 0.7096822
0.7096822 0.7096822 0.7096822 0.7096822 0.7096822 0.7096822 0.7096822 0.7096822
0.7096822 0.7096822 0.7096822 0.7096822 0.70968246 0.7096822 0.7096822 0.7096822
0.7096822 0.7096822 0.7096822 0.7096822 0.7096822 0.7096822 0.7096822 0.7096822
0.7096822 0.7096822 0.7096822 0.7096822 0.7096822 0.7096822 0.7096822 0.7096822
0.7096822 0.7096822 0.7096822 0.7096822 0.7096822 0.7096822 0.7096822 0.7096822
0.7096822 0.7096822 0.7096822 0.7096822 0.7096822 0.7096822 0.7096822 0.7096822
0.7096822 0.7096822 0.7096823 0.7096822 0.7096822 0.7096822 0.7096822 0.7096822
0.7096822 0.7096822 0.7096822 0.7096822 0.7096822 0.7096822 0.7096822 0.7096822
0.7096822 0.7096822 0.7096822 0.7096822 0.7096822 0.70968246 0.7096822 0.7096822
0.7096822 0.7096822 0.7096822 0.7096822 0.7096822 0.7096822 0.7096822 0.7096822
0.7096822 0.7096822 0.7096822 0.7096822 0.7096822 0.7096822 0.7096822 0.7096822
0.7096823 0.7096822 0.7096822 0.7096822 0.7096822 0.7096822 0.7096822 0.7096822
0.7096822 0.7096822 0.7096822 0.7096822 0.7096822 0.7096822 0.7096822 0.7096822
0.7096822 0.7096822 0.7096822 0.7096823 0.7096822 0.7096822 0.7096822 0.7096822
0.7096822 0.7096822 0.7096822 0.7096822 0.7096822 0.7096822 0.7096822 0.7096822
0.7096822 0.7096822 0.7096822 0.7096822 0.7096822 0.7096822 0.70968246 0.7096822
0.7096822 0.7096822 0.7096822 0.7096822 0.7096822 0.7096822 0.7096822 0.7096822
0.7096822 0.7096822 0.7096822 0.7096822 0.7096822 0.7096822 0.7096822 0.7096822
0.7096822 0.7096823 0.7096822 0.7096822 0.7096822 0.7096822 0.7096822 0.7096822
0.7096822 0.7096822 0.7096822 0.7096822 0.7096822 0.7096822 0.7096822 0.7096822
0.7096822 0.7096822 0.7096822 0.7096822 0.7096823 0.7096822 0.7096822 0.7096822
0.7096822 0.7096822 0.7096822 0.7096822 0.7096822 0.7096822 0.7096822 0.7096822
0.7096822 0.7096822 0.7096822 0.7096822 0.7096822 0.7096822 0.7096822 0.70968246
0.7096822 0.7096822 0.7096822 0.7096822 0.7096822 0.7096822 0.7096822 0.7096822
00000000: bcad 353f bcad 353f bcad 353f bcad 353f
00000010: bcad 353f bcad 353f bcad 353f bcad 353f
00000020: bcad 353f bcad 353f bcad 353f bcad 353f
00000030: bcad 353f bcad 353f bcad 353f bcad 353f
00000040: bcad 353f bcad 353f bcad 353f baad 353f
00000050: bcad 353f bcad 353f bcad 353f bcad 353f
00000060: bcad 353f bcad 353f bcad 353f bcad 353f
00000070: bcad 353f bcad 353f bcad 353f bcad 353f
00000080: bcad 353f bcad 353f bcad 353f bcad 353f
00000090: bcad 353f bcad 353f bcad 353f bcad 353f
000000a0: bcad 353f bcad 353f bcad 353f bcad 353f
000000b0: bcad 353f bcad 353f bcad 353f bcad 353f
000000c0: bcad 353f bcad 353f bcad 353f bcad 353f
000000d0: bcad 353f bcad 353f bcad 353f bcad 353f
000000e0: bcad 353f bcad 353f bcad 353f bcad 353f
000000f0: bcad 353f bcad 353f bcad 353f bcad 353f
00000100: bcad 353f bcad 353f bcad 353f bcad 353f
00000110: bcad 353f bcad 353f bcad 353f bcad 353f
00000120: bcad 353f bcad 353f bcad 353f bcad 353f
00000130: c0ad 353f bcad 353f bcad 353f bcad 353f
00000140: bcad 353f bcad 353f bcad 353f bcad 353f
00000150: bcad 353f bcad 353f bcad 353f bcad 353f
00000160: bcad 353f bcad 353f bcad 353f bcad 353f
00000170: bcad 353f bcad 353f bcad 353f bcad 353f
00000180: bcad 353f bcad 353f bcad 353f bcad 353f
00000190: bcad 353f bcad 353f bcad 353f bcad 353f
000001a0: bcad 353f bcad 353f bcad 353f bcad 353f
000001b0: bcad 353f bcad 353f bcad 353f bcad 353f
000001c0: bcad 353f bcad 353f bdad 353f bcad 353f
000001d0: bcad 353f bcad 353f bcad 353f bcad 353f
000001e0: bcad 353f bcad 353f bcad 353f bcad 353f
000001f0: bcad 353f bcad 353f bcad 353f bcad 353f
00000200: bcad 353f bcad 353f bcad 353f bcad 353f
00000210: bcad 353f c0ad 353f bcad 353f bcad 353f
00000220: bcad 353f bcad 353f bcad 353f bcad 353f
00000230: bcad 353f bcad 353f bcad 353f bcad 353f
00000240: bcad 353f bcad 353f bcad 353f bcad 353f
00000250: bcad 353f bcad 353f bcad 353f bcad 353f
00000260: bdad 353f bcad 353f bcad 353f bcad 353f
00000270: bcad 353f bcad 353f bcad 353f bcad 353f
00000280: bcad 353f bcad 353f bcad 353f bcad 353f
00000290: bcad 353f bcad 353f bcad 353f bcad 353f
000002a0: bcad 353f bcad 353f bcad 353f bdad 353f
000002b0: bcad 353f bcad 353f bcad 353f bcad 353f
000002c0: bcad 353f bcad 353f bcad 353f bcad 353f
000002d0: bcad 353f bcad 353f bcad 353f bcad 353f
000002e0: bcad 353f bcad 353f bcad 353f bcad 353f
000002f0: bcad 353f bcad 353f c0ad 353f bcad 353f
00000300: bcad 353f bcad 353f bcad 353f bcad 353f
00000310: bcad 353f bcad 353f bcad 353f bcad 353f
00000320: bcad 353f bcad 353f bcad 353f bcad 353f
00000330: bcad 353f bcad 353f bcad 353f bcad 353f
00000340: bcad 353f bdad 353f bcad 353f bcad 353f
00000350: bcad 353f bcad 353f bcad 353f bcad 353f
00000360: bcad 353f bcad 353f bcad 353f bcad 353f
00000370: bcad 353f bcad 353f bcad 353f bcad 353f
00000380: bcad 353f bcad 353f bcad 353f bcad 353f
00000390: bdad 353f bcad 353f bcad 353f bcad 353f
000003a0: bcad 353f bcad 353f bcad 353f bcad 353f
000003b0: bcad 353f bcad 353f bcad 353f bcad 353f
000003c0: bcad 353f bcad 353f bcad 353f bcad 353f
000003d0: bcad 353f bcad 353f bcad 353f c0ad 353f
000003e0: bcad 353f bcad 353f bcad 353f bcad 353f
000003f0: bcad 353f bcad 353f bcad 353f bcad 353f
