capsule-6073072/code/work_dir/recognition/kinetics_skeleton/FAI_GCN/epoch100_model.pt (torch, 74070 bytes, 22 tensors)

A f4 [3, 18, 18]
0	0x3e800000	0.25
1	0x00000000	0.0
2	0x00000000	0.0
3	0x00000000	0.0
4	0x00000000	0.0
5	0x00000000	0.0
6	0x00000000	0.0
7	0x00000000	0.0
8	0x00000000	0.0
9	0x00000000	0.0
10	0x00000000	0.0
11	0x00000000	0.0
12	0x00000000	0.0
13	0x00000000	0.0
14	0x00000000	0.0
15	0x00000000	0.0
16	0x00000000	0.0
17	0x00000000	0.0
18	0x00000000	0.0
19	0x3e800000	0.25
20	0x00000000	0.0
21	0x00000000	0.0
22	0x00000000	0.0
23	0x00000000	0.0
24	0x00000000	0.0
25	0x00000000	0.0
26	0x00000000	0.0
27	0x00000000	0.0
28	0x00000000	0.0
29	0x00000000	0.0
30	0x00000000	0.0
31	0x00000000	0.0
32	0x00000000	0.0
33	0x00000000	0.0
34	0x00000000	0.0
35	0x00000000	0.0
36	0x00000000	0.0
37	0x00000000	0.0
38	0x3e800000	0.25
39	0x00000000	0.0
40	0x00000000	0.0
41	0x00000000	0.0
42	0x00000000	0.0
43	0x00000000	0.0
44	0x00000000	0.0
45	0x00000000	0.0
46	0x00000000	0.0
47	0x00000000	0.0
48	0x00000000	0.0
49	0x00000000	0.0
50	0x00000000	0.0
51	0x00000000	0.0
52	0x00000000	0.0
53	0x00000000	0.0
54	0x00000000	0.0
55	0x00000000	0.0
56	0x00000000	0.0
57	0x3eaaaaab	0.33333334
58	0x00000000	0.0
59	0x00000000	0.0
60	0x00000000	0.0
61	0x00000000	0.0
62	0x00000000	0.0
63	0x00000000	0.0
64	0x00000000	0.0
65	0x00000000	0.0
66	0x00000000	0.0
67	0x00000000	0.0
68	0x00000000	0.0
69	0x00000000	0.0
70	0x00000000	0.0
71	0x00000000	0.0
72	0x00000000	0.0
73	0x00000000	0.0
74	0x00000000	0.0
75	0x00000000	0.0
76	0x3f000000	0.5
77	0x00000000	0.0
78	0x00000000	0.0
79	0x00000000	0.0
80	0x00000000	0.0
81	0x00000000	0.0
82	0x00000000	0.0
83	0x00000000	0.0
84	0x00000000	0.0
85	0x00000000	0.0
86	0x00000000	0.0
87	0x00000000	0.0
88	0x00000000	0.0
89	0x00000000	0.0
90	0x00000000	0.0
91	0x00000000	0.0
92	0x00000000	0.0
93	0x00000000	0.0
94	0x00000000	0.0
95	0x3e800000	0.25
96	0x00000000	0.0
97	0x00000000	0.0
98	0x00000000	0.0
99	0x00000000	0.0
100	0x00000000	0.0
101	0x00000000	0.0
102	0x00000000	0.0
103	0x00000000	0.0
104	0x00000000	0.0
105	0x00000000	0.0
106	0x00000000	0.0
107	0x00000000	0.0
108	0x00000000	0.0
109	0x00000000	0.0
110	0x00000000	0.0
111	0x00000000	0.0
112	0x00000000	0.0
113	0x00000000	0.0
114	0x3eaaaaab	0.33333334
115	0x00000000	0.0
116	0x00000000	0.0
117	0x00000000	0.0
118	0x00000000	0.0
119	0x00000000	0.0
120	0x00000000	0.0
121	0x00000000	0.0
122	0x00000000	0.0
123	0x00000000	0.0
124	0x00000000	0.0
125	0x00000000	0.0
126	0x00000000	0.0
127	0x00000000	0.0
128	0x00000000	0.0
129	0x00000000	0.0
130	0x00000000	0.0
131	0x00000000	0.0
132	0x00000000	0.0
133	0x3f000000	0.5
134	0x00000000	0.0
135	0x00000000	0.0
136	0x00000000	0.0
137	0x00000000	0.0
138	0x00000000	0.0
139	0x00000000	0.0
140	0x00000000	0.0
141	0x00000000	0.0
142	0x00000000	0.0
143	0x00000000	0.0
144	0x00000000	0.0
145	0x00000000	0.0
146	0x00000000	0.0
147	0x00000000	0.0
148	0x00000000	0.0
149	0x00000000	0.0
150	0x00000000	0.0
151	0x00000000	0.0
152	0x3eaaaaab	0.33333334
153	0x00000000	0.0
154	0x00000000	0.0
155	0x00000000	0.0
156	0x00000000	0.0
157	0x00000000	0.0
158	0x00000000	0.0
159	0x00000000	0.0
160	0x00000000	0.0
161	0x00000000	0.0
162	0x00000000	0.0
163	0x00000000	0.0
164	0x00000000	0.0
165	0x00000000	0.0
166	0x00000000	0.0
167	0x00000000	0.0
168	0x00000000	0.0
169	0x00000000	0.0
170	0x00000000	0.0
171	0x3eaaaaab	0.33333334
172	0x00000000	0.0
173	0x00000000	0.0
174	0x00000000	0.0
175	0x00000000	0.0
176	0x00000000	0.0
177	0x00000000	0.0
178	0x00000000	0.0
179	0x00000000	0.0
180	0x00000000	0.0
181	0x00000000	0.0
182	0x00000000	0.0
183	0x00000000	0.0
184	0x00000000	0.0
185	0x00000000	0.0
186	0x00000000	0.0
187	0x00000000	0.0
188	0x00000000	0.0
189	0x00000000	0.0
190	0x3f000000	0.5
191	0x00000000	0.0
192	0x00000000	0.0
193	0x00000000	0.0
194	0x00000000	0.0
195	0x00000000	0.0
196	0x00000000	0.0
197	0x00000000	0.0
198	0x00000000	0.0
199	0x00000000	0.0
200	0x00000000	0.0
201	0x00000000	0.0
202	0x00000000	0.0
203	0x00000000	0.0
204	0x00000000	0.0
205	0x00000000	0.0
206	0x00000000	0.0
207	0x00000000	0.0
208	0x00000000	0.0
209	0x3eaaaaab	0.33333334
210	0x00000000	0.0
211	0x00000000	0.0
212	0x00000000	0.0
213	0x00000000	0.0
214	0x00000000	0.0
215	0x00000000	0.0
216	0x00000000	0.0
217	0x00000000	0.0
218	0x00000000	0.0
219	0x00000000	0.0
220	0x00000000	0.0
221	0x00000000	0.0
222	0x00000000	0.0
223	0x00000000	0.0
224	0x00000000	0.0
225	0x00000000	0.0
226	0x00000000	0.0
227	0x00000000	0.0
228	0x3eaaaaab	0.33333334
229	0x00000000	0.0
230	0x00000000	0.0
231	0x00000000	0.0
232	0x00000000	0.0
233	0x00000000	0.0
234	0x00000000	0.0
235	0x00000000	0.0
236	0x00000000	0.0
237	0x00000000	0.0
238	0x00000000	0.0
239	0x00000000	0.0
240	0x00000000	0.0
241	0x00000000	0.0
242	0x00000000	0.0
243	0x00000000	0.0
244	0x00000000	0.0
245	0x00000000	0.0
246	0x00000000	0.0
247	0x3f000000	0.5
248	0x00000000	0.0
249	0x00000000	0.0
250	0x00000000	0.0
251	0x00000000	0.0
252	0x00000000	0.0
253	0x00000000	0.0
254	0x00000000	0.0
255	0x00000000	0.0

data_bn.weight f4 [54]
0	0x3f65fdd8	0.8984046
1	0x3f646e54	0.8923085
2	0x3f6801e2	0.9062787
3	0x3f6565e5	0.89608604
4	0x3f68ef86	0.90990484
5	0x3f57f76a	0.843619
6	0x3f6930b5	0.91089946
7	0x3f5e074d	0.8672989
8	0x3f6c4ea8	0.9230752
9	0x3f5b347a	0.8562695
10	0x3f639870	0.88904476
11	0x3f6147f0	0.8800039
12	0x3f647803	0.89245623
13	0x3f6a2a40	0.9147072
14	0x3f63f5b7	0.89046806
15	0x3f5e6c2e	0.8688382
16	0x3f5e0b8f	0.86736387
17	0x3f5b2d9e	0.8561648
18	0x3f682447	0.90680355
19	0x3f6a2069	0.91455704
20	0x3f654366	0.89555967
21	0x3f686777	0.90782875
22	0x3f6410ea	0.8908831
23	0x3f662116	0.89894235
24	0x3f67bf9e	0.9052676
25	0x3f6ae395	0.9175351
26	0x3f63b47b	0.88947266
27	0x3f650548	0.89461184
28	0x3f64024c	0.89066005
29	0x3f661f66	0.8989166
30	0x3f5d2433	0.8638336
31	0x3f65acf5	0.89717036
32	0x3f62990e	0.8851479
33	0x3f64981d	0.89294606
34	0x3f67b1b3	0.9050552
35	0x3f603eda	0.87595904
36	0x3f61641b	0.88043374
37	0x3f63458f	0.88778013
38	0x3f660e20	0.89865303
39	0x3f61ad5a	0.8815514
40	0x3f649c4c	0.8930099
41	0x3f62f5b3	0.8865616
42	0x3f5036c3	0.8133356
43	0x3f5cec80	0.8629837
44	0x3f60118e	0.87526786
45	0x3f6183f2	0.8809196
46	0x3f63d189	0.889916
47	0x3f68f31e	0.9099597
48	0x3f659a62	0.89688694
49	0x3f6b4253	0.9189808
50	0x3f648de2	0.89278996
51	0x3f698a4c	0.9122665
52	0x3f56a012	0.83838
53	0x3f5854fd	0.8450468

data_bn.bias f4 [54]
0	0xb1613f59	-3.2777818e-09
1	0x322b0b38	9.956061e-09
2	0x30151e81	5.4249233e-10
3	0xb187287b	-3.933619e-09
4	0xb1783f8c	-3.6124872e-09
5	0xb28647c2	-1.5632285e-08
6	0xb1c5a411	-5.752107e-09
7	0x2e93cdbd	6.7213325e-11
8	0x312e8752	2.5397253e-09
9	0x321afa77	9.020929e-09
10	0xb3824a6b	-6.067133e-08
11	0xb187f227	-3.9565466e-09
12	0x3057d826	7.852371e-10
13	0xb21e14ac	-9.201511e-09
14	0x30a149df	1.1735287e-09
15	0xb193ab9d	-4.2977732e-09
16	0xb185c463	-3.893136e-09
17	0x2ed54b15	9.699456e-11
18	0x31988802	4.4392445e-09
19	0xb4056f64	-1.2427114e-07
20	0xb161ee97	-3.2877432e-09
21	0xb06a7c13	-8.5305024e-10
22	0xb2891967	-1.596045e-08
23	0xb262189a	-1.3160525e-08
24	0xb1b67461	-5.310128e-09
25	0xb2cc9ddc	-2.3820512e-08
26	0x3196a81e	4.3846873e-09
27	0xb0fec12e	-1.8535837e-09
28	0xb331531e	-4.128662e-08
29	0xb154efe8	-3.0986431e-09
30	0xb0ffaf52	-1.8603521e-09
31	0xb2a924a8	-1.9690859e-08
32	0x322fe892	1.0239221e-08
33	0xb1a5ce45	-4.825582e-09
34	0xb2a85796	-1.9597604e-08
35	0x304893e8	7.2969764e-10
36	0xb088df3c	-9.958749e-10
37	0xb33804dc	-4.2845258e-08
38	0xb15466c3	-3.0908474e-09
39	0xb0f2b1f1	-1.7658391e-09
40	0xb2a360ff	-1.9019806e-08
41	0x31f16228	7.025182e-09
42	0x32269cb7	9.6981045e-09
43	0xb3800aff	-5.962465e-08
44	0xb13f83bb	-2.7869038e-09
45	0x32547091	1.2365619e-08
46	0xb3abc4d5	-7.9986116e-08
47	0xb18f9844	-4.1791584e-09
48	0xb19c3caa	-4.5470943e-09
49	0xb0d92d1f	-1.5801652e-09
50	0xb2bdac8f	-2.2080966e-08
51	0xb0a91dc7	-1.2304832e-09
52	0xb282b4e0	-1.5216244e-08
53	0xb1387d98	-2.6846916e-09

data_bn.running_mean f4 [54]
0	0xbd084e81	-0.033277992
1	0xbcc2cb68	-0.023778632
2	0x3e8979c8	0.26850724
3	0xbd05534b	-0.032550137
4	0x39b914b9	0.0003530139
5	0x3e82fbb4	0.2558266
6	0xbd49c6da	-0.049261905
7	0xbb093bc8	-0.0020940173
8	0x3e72d289	0.23713125
9	0xbd7e28dd	-0.06205069
10	0x3c502f9d	0.012706664
11	0x3e692735	0.22768863
12	0xbd8e5b36	-0.06950991
13	0x3c7dc24d	0.015488219
14	0x3e73ef31	0.23821713
15	0xbc819e82	-0.015822653
16	0x3b5b99a4	0.0033508325
17	0x3e72cde3	0.23711352
18	0xbbda9912	-0.0066710794
19	0x3cb34068	0.021881297
20	0x3e52aa50	0.20572782
21	0xbb409e6c	-0.0029391302
22	0x3cd6762e	0.0261794
23	0x3e52d829	0.20590271
24	0xbd3b186d	-0.04567759
25	0x3d6783e9	0.056522284
26	0x3e5009b4	0.20316201
27	0xbd72dece	-0.059294514
28	0x3d967a26	0.07347517
29	0x3e5ec342	0.21754172
30	0xbd4d929c	-0.050188646
31	0x3dd10e61	0.10207821
32	0x3e4ece89	0.20195974
33	0xbcd1f3f0	-0.025629014
34	0x3d74fae5	0.059809584
35	0x3e4f744a	0.20259205
36	0xbc85cab0	-0.016332
37	0x3da4c2c5	0.08044962
38	0x3e596c4f	0.21232723
39	0xbcf71d97	-0.030165477
40	0x3dda4b97	0.10658949
41	0x3e3ebff1	0.18627907
42	0xbd1ad6e7	-0.037802603
43	0xbcf725ea	-0.030169446
44	0x3e8ab863	0.270938
45	0xbce0c0f1	-0.027435752
46	0xbcf1ffec	-0.029540978
47	0x3e8c5202	0.27406317
48	0xbd13a52f	-0.036046203
49	0xbc8aae3a	-0.01692878
50	0x3e1b59e9	0.15171017
51	0xbc98e4c0	-0.018663764
52	0xbcb1dbd2	-0.021711264
53	0x3e5708db	0.20999472

data_bn.running_var f4 [54]
0	0x3b151e21	0.0022753554
1	0x3b8c3cad	0.004279694
2	0x3d83b41e	0.06430839
3	0x3b0517cd	0.0020308376
4	0x3b5bb585	0.0033524942
5	0x3d6ed61c	0.05830966
6	0x3b23d090	0.002499614
7	0x3b5d1f2c	0.0033740504
8	0x3d565056	0.052322708
9	0x3b52bc9a	0.0032155872
10	0x3b631d7c	0.0034655025
11	0x3d608244	0.05481173
12	0x3b863414	0.0040955637
13	0x3b86492e	0.004098079
14	0x3d686901	0.056740765
15	0x3b067211	0.0020514766
16	0x3b5ab5b4	0.0033372464
17	0x3d502651	0.05081779
18	0x3b18a703	0.0023292906
19	0x3b7dbb47	0.0038716362
20	0x3d46a28c	0.04849486
21	0x3b41bf80	0.0029563606
22	0x3ba21ae8	0.004947055
23	0x3d469ea5	0.04849114
24	0x3b1b3520	0.0023682788
25	0x3badcf58	0.0053042583
26	0x3d2603f7	0.040531125
27	0x3b573e47	0.0032843517
28	0x3c0b03cc	0.008484792
29	0x3d435bbe	0.047694914
30	0x3b3623ae	0.0027792263
31	0x3c444bc9	0.011980959
32	0x3d3fded0	0.04684335
33	0x3b0708e5	0.0020604667
34	0x3bb4b03f	0.0055141742
35	0x3d268b7a	0.04066036
36	0x3b13aa35	0.0022531871
37	0x3c15d437	0.009144834
38	0x3d3877c0	0.045036077
39	0x3b15222f	0.002275597
40	0x3c5f7d75	0.013640751
41	0x3d26dd05	0.040738124
42	0x3b1dfd71	0.0024107362
43	0x3b978d3f	0.004624992
44	0x3d89d52e	0.06730114
45	0x3b0d07dd	0.002151958
46	0x3b9776d7	0.004622321
47	0x3d8905e1	0.066905744
48	0x3b3de820	0.0028977469
49	0x3ba059c1	0.004893512
50	0x3d4dfe86	0.05029156
51	0x3b0430f4	0.002017078
52	0x3ba35acf	0.0049851905
53	0x3d6bd4fb	0.05757616

fai_gcn_networks.0.gcn.conv.weight f4 [96, 3, 1, 1]
0	0x36544278	3.1629152e-06
1	0xb6135588	-2.1954493e-06
2	0xb7c1dc45	-2.3109964e-05
3	0xb6b4bb5b	-5.386229e-06
4	0xb7998bfb	-1.8304205e-05
5	0x360a751c	2.063177e-06
6	0x3580c926	9.595285e-07
7	0xb681b2be	-3.865308e-06
8	0x358305a6	9.761904e-07
9	0x396bc876	0.00022486024
10	0x35611ca6	8.386072e-07
11	0xba7d6a14	-0.0009666991
12	0xb40f7573	-1.336064e-07
13	0xb499bcf0	-2.863594e-07
14	0x357f9ce8	9.522323e-07
15	0x36665e86	3.432769e-06
16	0xb7298690	-1.0104515e-05
17	0xb5a12d0d	-1.2008546e-06
18	0xb2eab2ef	-2.7322555e-08
19	0x32f75c74	2.8796627e-08
20	0xb3f324ea	-1.1322284e-07
21	0xb6a95012	-5.045914e-06
22	0x37286ea6	1.0039343e-05
23	0xb47e7510	-2.369818e-07
24	0x33ea5323	1.09115966e-07
25	0xb4520b7f	-1.9561956e-07
26	0x33ac539c	8.0245826e-08
27	0x353460f1	6.7196294e-07
28	0xb4a6d64f	-3.107584e-07
29	0xb39e613d	-7.375136e-08
30	0x36dd8d2e	6.6027487e-06
31	0x3555e3a7	7.967996e-07
32	0xb7a7481d	-1.9941532e-05
33	0x34a6c1fb	3.106105e-07
34	0x356819f5	8.646451e-07
35	0xb6a3f2b8	-4.8860347e-06
36	0xb81f9618	-3.804834e-05
37	0x3915e8b0	0.0001429643
38	0x36243ab1	2.4472067e-06
39	0x3401a913	1.207557e-07
40	0x35af588d	1.3064288e-06
41	0xb4b3c923	-3.3487694e-07
42	0x38d7b0d1	0.000102849335
43	0xb41836ca	-1.4176035e-07
44	0x372a3665	1.0145454e-05
45	0x34f9f646	4.6559052e-07
46	0x3714b18d	8.862827e-06
47	0xb4fca9c9	-4.7062193e-07
48	0xb50d4d12	-5.2638745e-07
49	0x350f3ce5	5.3360264e-07
50	0xb56e2df0	-8.8728757e-07
51	0x358267f2	9.716007e-07
52	0x38179005	3.6135334e-05
53	0x35c9150e	1.4981795e-06
54	0xb329e8e7	-3.9560202e-08
55	0x34b88412	3.4368765e-07
56	0xb4af639f	-3.2668774e-07
57	0xb61d1a7b	-2.3410237e-06
58	0x356f02a6	8.903829e-07
59	0x36644065	3.401213e-06
60	0xb561dd15	-8.414075e-07
61	0x33ab0400	7.9635356e-08
62	0x34f93c95	4.6423943e-07
63	0x34acc527	3.2180944e-07
64	0xb428a32d	-1.5705582e-07
65	0xb48e0b5c	-2.6457826e-07
66	0x325b8420	1.27775195e-08
67	0xb3c6aeb8	-9.2518746e-08
68	0xba10f13c	-0.0005529111
69	0x3540f808	7.1886507e-07
70	0xb4d2f502	-3.9293815e-07
71	0xb4cdd58c	-3.83396e-07
72	0xb9412cb7	-0.00018422572
73	0xb69b0db4	-4.620955e-06
74	0x36bab861	5.5646965e-06
75	0x365114ee	3.115561e-06
76	0x38c142bb	9.215387e-05
77	0xb47367e0	-2.2668928e-07
78	0xaf91907d	-2.6478011e-10
79	0x2f9b3662	2.8232977e-10
80	0xaeb92942	-8.420155e-11
81	0xb39e6458	-7.375701e-08
82	0xb41e9341	-1.4768467e-07
83	0xb45b9cce	-2.045301e-07
84	0x35e381fd	1.695065e-06
85	0xb55ac8e8	-8.1503686e-07
86	0xb4998fe3	-2.8603162e-07
87	0x35e1e4a8	1.6830354e-06
88	0x35b63975	1.3576779e-06
89	0xb5c39456	-1.4571804e-06
90	0xb666646f	-3.433113e-06
91	0x351391d1	5.497396e-07
92	0x36348407	2.689894e-06
93	0x355b7b28	8.1763073e-07
94	0xb8f13e9f	-0.000115034396
95	0xb51e1bc2	-5.889998e-07
96	0x361893d5	2.2735815e-06
97	0xb5aafe7b	-1.2740051e-06
98	0x352fc826	6.5483835e-07
99	0xb71adce1	-9.230543e-06
100	0x39a4ca1a	0.00031431095
101	0x361a14eb	2.2959964e-06
102	0x35ea1372	1.7440018e-06
103	0xb70d120b	-8.408456e-06
104	0x36290ec1	2.519155e-06
105	0xb77da843	-1.5119152e-05
106	0x3613d422	2.2028185e-06
107	0x37830863	1.5620322e-05
108	0x355268c7	7.838357e-07
109	0xb3c660b7	-9.237686e-08
110	0x35306a57	6.5719854e-07
111	0x368e248e	4.2361853e-06
112	0xb90d3958	-0.0001346817
113	0x363c4b70	2.8058093e-06
114	0xb3489580	-4.6702098e-08
115	0x343a75d6	1.7365468e-07
116	0x322158e2	9.391643e-09
117	0xb68f323a	-4.2675792e-06
118	0x3b36ad5f	0.0027874333
119	0xb664ca87	-3.4092534e-06
120	0x371a3f1b	9.193808e-06
121	0x339a9a4b	7.1992496e-08
122	0xb373bbac	-5.6748533e-08
123	0xb4db4212	-4.084e-07
124	0xb591a15e	-1.0850306e-06
125	0xb440e0c2	-1.796316e-07
126	0x35ead47a	1.7496197e-06
127	0xb70a46fc	-8.241968e-06
128	0xb5c88bfa	-1.49419e-06
129	0x361085aa	2.1535475e-06
130	0xb3b9eb7d	-8.657569e-08
131	0xb5f94937	-1.8573254e-06
132	0x365d46b3	3.2972719e-06
133	0x36262b0a	2.476098e-06
134	0xb6a24cae	-4.836903e-06
135	0xb600987f	-1.916225e-06
136	0x34962489	2.796626e-07
137	0xb65590a4	-3.1823665e-06
138	0xb7efe868	-2.8599243e-05
139	0xb3b95ac0	-8.631241e-08
140	0x3666c01f	3.43845e-06
141	0x3485ebb0	2.4944666e-07
142	0x351bd8e1	5.80576e-07
143	0xb56dc8b5	-8.858145e-07
144	0xb59039b4	-1.074563e-06
145	0x3503a7c1	4.9045417e-07
146	0xb4f243ab	-4.5125248e-07
147	0x3588cc06	1.0192168e-06
148	0xb757da1a	-1.2865779e-05
149	0x35aee6dc	1.3031199e-06
150	0x3596efdf	1.1245683e-06
151	0x3522e68e	6.0685204e-07
152	0x34b06102	3.2853137e-07
153	0xb54f77b4	-7.72877e-07
154	0x368e1ea7	4.235498e-06
155	0xb79f6bb1	-1.9004425e-05
156	0xb6136304	-2.1962342e-06
157	0x3324d171	3.837471e-08
158	0x345a4f78	2.0331743e-07
159	0x35b9f706	1.3855467e-06
160	0x332cc631	4.0227125e-08
161	0xb28a8735	-1.61268e-08
162	0x34a637cb	3.0960504e-07
163	0xb3aec874	-8.1389686e-08
164	0x33bb7731	8.729547e-08
165	0xb51668e3	-5.6031985e-07
166	0x35caa9a9	1.509955e-06
167	0xb4cd675d	-3.8259432e-07
168	0xb6ed3fb7	-7.070568e-06
169	0x35f5f68a	1.8325675e-06
170	0xb507615b	-5.043309e-07
171	0x35d5841d	1.5908187e-06
172	0xb7c7fd16	-2.3840501e-05
173	0x36710d1c	3.591943e-06
174	0xaf818b04	-2.356374e-10
175	0x2f806000	2.3351276e-10
176	0x340062bb	1.1956847e-07
177	0x34e6cd72	4.299032e-07
178	0xb29d2714	-1.8294976e-08
179	0x32b49904	2.1024341e-08
180	0x367acc22	3.7371724e-06
181	0xb6062086	-1.9986487e-06
182	0x3463c4e0	2.1212645e-07
183	0xb5da37c4	-1.6258496e-06
184	0x355823b2	8.0518214e-07
185	0xb73ab21f	-1.1127936e-05
186	0xba239cb0	-0.0006241305
187	0x354b371e	7.57036e-07
188	0xb41dfbe1	-1.4713397e-07
189	0x36049e15	1.9761549e-06
190	0x354595d5	7.3606253e-07
191	0x3461c7fc	2.1027512e-07
192	0x38ff8a10	0.00012185064
193	0x36156b86	2.2265317e-06
194	0x3424d8b3	1.5352525e-07
195	0xb67577d0	-3.6577585e-06
196	0x37086e76	8.13195e-06
197	0xb4557ece	-1.9883302e-07
198	0x35a16ada	1.2026533e-06
199	0xb5005785	-4.7811074e-07
200	0x35655e66	8.5446516e-07
201	0xb62ee790	-2.6062808e-06
202	0xb5e2c868	-1.6896638e-06
203	0x37c0b341	2.2971655e-05
204	0xb3b7fb3e	-8.567302e-08
205	0x34b0baf9	3.2918595e-07
206	0xb4493f15	-1.8742533e-07
207	0xb689f430	-4.1113453e-06
208	0xb6a80ce0	-5.008289e-06
209	0x358829ea	1.0144988e-06
210	0xb410d795	-1.3489473e-07
211	0x334b5017	4.7337462e-08
212	0x320f3b93	8.337241e-09
213	0xb52ed1a6	-6.512513e-07
214	0xb583c8c3	-9.81869e-07
215	0xb4a8b45b	-3.1423664e-07
216	0xb730e72e	-1.0544243e-05
217	0xb3c7f9fb	-9.312131e-08
218	0x33d7795f	1.0033795e-07
219	0x3506982a	5.014032e-07
220	0xb478c375	-2.3167907e-07
221	0x3496b3e9	2.807058e-07
222	0x38b79114	8.753143e-05
223	0xb514a6b8	-5.5376904e-07
224	0xb49751cf	-2.8185465e-07
225	0x36e087af	6.691516e-06
226	0x35ce2836	1.5359899e-06
227	0x37cd7988	2.4494497e-05
228	0xb5703a50	-8.9491823e-07
229	0xba7b215b	-0.00095798605
230	0xb7c4437c	-2.3396446e-05
231	0xb4ee4c61	-4.4386528e-07
232	0x357cb90f	9.414661e-07
233	0xb98da4dd	-0.00027016448
234	0xb75be484	-1.3106623e-05
235	0xb7b8c482	-2.2026015e-05
236	0xb88eab50	-6.802997e-05
237	0x35cc872f	1.5238528e-06
238	0x34ba9a39	3.4757412e-07
239	0xb7320ef0	-1.0613105e-05
240	0xb41f002e	-1.4808094e-07
241	0x34b0d65c	3.2938522e-07
242	0xb8edc0a1	-0.000113369206
243	0xb5c93c08	-1.4993138e-06
244	0xb61477a2	-2.2123354e-06
245	0x36007bff	1.9145662e-06
246	0xb4996a50	-2.8575823e-07
247	0xb88c92f1	-6.70309e-05
248	0xb6066eb0	-2.0031985e-06
249	0x36959317	4.4576695e-06
250	0xb5762e2e	-9.170934e-07
251	0x35c6d7a4	1.4814909e-06
252	0xb9a1eabd	-0.00030883207
253	0x34c2e81a	3.6304192e-07
254	0xb3236232	-3.8040703e-08
255	0x34c4c95f	3.6654362e-07

fai_gcn_networks.0.gcn.conv.bias f4 [96]
0	0x389184a8	6.938848e-05
1	0x3818e994	3.645716e-05
2	0x3823b0eb	3.9026996e-05
3	0xb7a53bbe	-1.9697352e-05
4	0x375fc134	1.3336819e-05
5	0x37a6b46b	1.9872756e-05
6	0xb3edebd8	-1.1079072e-07
7	0x37c0205c	2.2903252e-05
8	0x388eca45	6.808763e-05
9	0xb5a2012d	-1.2070283e-06
10	0x3793713a	1.757649e-05
11	0xb709d754	-8.215971e-06
12	0xb7a5a3fc	-1.9745894e-05
13	0x3590268b	1.0740054e-06
14	0xb827fbee	-4.005053e-05
15	0x378f6024	1.7091697e-05
16	0x3715c9ff	8.928123e-06
17	0xb711b313	-8.6843675e-06
18	0xb6006058	-1.9129566e-06
19	0xb708bf25	-8.150736e-06
20	0x366432d5	3.4004236e-06
21	0x355508b3	7.936134e-07
22	0xb5f47e26	-1.8216131e-06
23	0xb545605c	-7.352844e-07
24	0x377d51eb	1.5099048e-05
25	0xb7bc9168	-2.2479056e-05
26	0x3701db05	7.739994e-06
27	0xb610e4ad	-2.159078e-06
28	0x3878a6f3	5.928329e-05
29	0xb6ead526	-6.998557e-06
30	0x35d2876a	1.568563e-06
31	0xb60d5f6b	-2.1066178e-06
32	0x38b1dd18	8.4811996e-05
33	0x38369e79	4.353977e-05
34	0x388a947c	6.60801e-05
35	0xb7cc4731	-2.4351846e-05
36	0x37b50447	2.1578873e-05
37	0x3801c4ed	3.0939398e-05
38	0xb41e4308	-1.4739283e-07
39	0x37fa6623	2.9849884e-05
40	0x38a08736	7.6545795e-05
41	0xb61cfa48	-2.3391494e-06
42	0x3794a804	1.7721213e-05
43	0xb7214d17	-9.614297e-06
44	0xb7e5e47f	-2.740533e-05
45	0x3796e2b5	1.7986962e-05
46	0xb82cd0f0	-4.1202584e-05
47	0x380ea89e	3.4012475e-05
48	0x373f8466	1.1415314e-05
49	0xb711a546	-8.681154e-06
50	0xb6110a4b	-2.1612675e-06
51	0xb701ac52	-7.729121e-06
52	0x37209c76	9.573172e-06
53	0x357a3c1e	9.321974e-07
54	0xb60634fe	-1.9998402e-06
55	0xb5bc37e3	-1.4023357e-06
56	0x3790eaeb	1.727553e-05
57	0xb7d567ee	-2.5439975e-05
58	0x37185d69	9.081655e-06
59	0xb6818b4a	-3.860715e-06
60	0x38a755d2	7.979166e-05
61	0xb705ba09	-7.970732e-06
62	0x36b0fd40	5.274691e-06
63	0xb6323402	-2.655434e-06
64	0x381314c2	3.5066863e-05
65	0x3798d82f	1.822048e-05
66	0xb5d76a59	-1.60497e-06
67	0xb74e7823	-1.2306528e-05
68	0xb4797a46	-2.3234415e-07
69	0x374b16cf	1.2105053e-05
70	0x331f786a	3.712959e-08
71	0x332a5167	3.9655244e-08
72	0x38192851	3.651559e-05
73	0x3655498a	3.1782279e-06
74	0x368d569a	4.212209e-06
75	0xb7327f82	-1.06393145e-05
76	0xb6b63f50	-5.431393e-06
77	0x36510719	3.1147558e-06
78	0xb7bc19ff	-2.2423452e-05
79	0x376f413f	1.4260701e-05
80	0x36315d2c	2.6429288e-06
81	0xb6b7840b	-5.469197e-06
82	0xb5cf45f2	-1.5443059e-06
83	0xb7164701	-8.957229e-06
84	0x3632d854	2.6649986e-06
85	0x350f2769	5.3329e-07
86	0x34d9dcb4	4.0579982e-07
87	0x3462c3da	2.111914e-07
88	0x36f6cd80	7.3552947e-06
89	0xb7440bfd	-1.1685302e-05
90	0x3641ea25	2.8895531e-06
91	0xb606caa5	-2.008551e-06
92	0x37c6de0b	2.3706836e-05
93	0xb665389d	-3.4156612e-06
94	0x33529cee	4.9037162e-08
95	0xb60735ca	-2.0147877e-06

fai_gcn_networks.1.gcn.conv.weight f4 [192, 32, 1, 1]
0	0x36444c58	2.9250714e-06
1	0x3648af10	2.9904222e-06
2	0x35ac9775	1.2859078e-06
3	0x367b1e3f	3.741952e-06
4	0x34a9a423	3.1598128e-07
5	0xb8e12734	-0.00010736138
6	0x2f423671	1.7663539e-10
7	0x379c6b2a	1.8646551e-05
8	0x3640da84	2.8737422e-06
9	0xae8d9ab3	-6.439418e-11
10	0x352a542f	6.345244e-07
11	0x3181fd1b	3.783169e-09
12	0x3602e9e8	1.950766e-06
13	0xb4c30ee3	-3.6332412e-07
14	0x34a592fa	3.0840584e-07
15	0x35119ed0	5.424781e-07
16	0x345181c9	1.9511857e-07
17	0xb72795cd	-9.988854e-06
18	0x3426db4c	1.5539734e-07
19	0x338d2d19	6.5740274e-08
20	0x3527daf9	6.2530995e-07
21	0x34526bf1	1.9597043e-07
22	0x35f5818e	1.8291628e-06
23	0x2e8f1070	6.505807e-11
24	0x3615542e	2.225173e-06
25	0x348ed122	2.6601725e-07
26	0x349ea5ad	2.9550338e-07
27	0xb3474314	-4.6394305e-08
28	0x3609440e	2.0454204e-06
29	0x32c3edcf	2.280913e-08
30	0x366ad4d0	3.499259e-06
31	0x360cf86e	2.100623e-06
32	0x364dd51a	3.0671422e-06
33	0x3636fd81	2.7267672e-06
34	0x3628bb4c	2.5142972e-06
35	0x378ffa6a	1.7163537e-05
36	0x34a764a7	3.1179408e-07
37	0x35c43285	1.4617841e-06
38	0xb056bc32	-7.812019e-10
39	0x37a532ba	1.9693154e-05
40	0x35d1af16	1.562267e-06
41	0x2ffcdb8a	4.5994525e-10
42	0x34d1524e	3.8989168e-07
43	0x32aacfd2	1.988511e-08
44	0xb48df528	-2.644167e-07
45	0x34f35411	4.5323443e-07
46	0x3491f720	2.7188162e-07
47	0x35136d2e	5.4920645e-07
48	0x346b9c7e	2.1943012e-07
49	0x3339f8d1	4.3299966e-08
50	0xb668c06c	-3.4682698e-06
51	0xb806be56	-3.2125354e-05
52	0x35219ee2	6.020838e-07
53	0x32cc374a	2.3773868e-08
54	0x35d32e49	1.5734196e-06
55	0x2fd3091a	3.8387143e-10
56	0x359a8857	1.1513574e-06
57	0x3473bf10	2.2700647e-07
58	0x348257ff	2.4278413e-07
59	0xb086eaa7	-9.816475e-10
60	0x35661e46	8.572573e-07
61	0xb92ffde4	-0.00016783882
62	0x364f9001	3.0929225e-06
63	0x35de2835	1.6551991e-06
64	0x2ed2410d	9.56125e-11
65	0x2ec10be2	8.778735e-11
66	0x2daedeee	1.988051e-11
67	0xb20503ac	-7.742454e-09
68	0x2d586ec4	1.2302773e-11
69	0x2e60d6ee	5.11226e-11
70	0xa76515d1	-3.179196e-15
71	0x304a2ba2	7.354918e-10
72	0x365262d2	3.134996e-06
73	0xa890ba84	-1.60681e-14
74	0x35342442	6.710799e-07
75	0xad29105b	-9.610169e-12
76	0x2da4997c	1.8712802e-11
77	0x2ee45cb7	1.0384709e-10
78	0x2c7556a3	3.4864687e-12
79	0x2dff2e3e	2.901068e-11
80	0x36ce4c16	6.148136e-06
81	0x2c054948	1.8941116e-12
82	0xaba9b566	-1.205852e-12
83	0x2bf53096	1.7421782e-12
84	0xaca6907b	-4.7340443e-12
85	0xb4c68aa4	-3.6981248e-07
86	0x2e80f6d7	5.864614e-11
87	0xb51aa6c0	-5.7612124e-07
88	0xb4d768fc	-4.0123257e-07
89	0x2d030a9c	7.448844e-12
90	0x2cf50264	6.9635842e-12
91	0x31c2eb4e	5.672894e-09
92	0x2e252cc1	3.7556406e-11
93	0xab24f0fa	-5.8598926e-13
94	0x2f096434	1.2495677e-10
95	0x2c79a8e1	3.5478775e-12
96	0x3620f297	2.3983064e-06
97	0x3638e142	2.7549254e-06
98	0x35773493	9.2091176e-07
99	0x362c108f	2.5639636e-06
100	0x357d8451	9.444239e-07
101	0x35f822ad	1.8487532e-06
102	0x2f6ec39b	2.1715467e-10
103	0x37bcf624	2.2525965e-05
104	0x3600ccf7	1.9192792e-06
105	0x2fc164b9	3.5178063e-10
106	0x353162c4	6.608136e-07
107	0x31b34039	5.216887e-09
108	0x361dd904	2.3521143e-06
109	0x34d0873d	3.8841418e-07
110	0x3440b089	1.7945617e-07
111	0x3554b686	7.924176e-07
112	0x34771322	2.3010628e-07
113	0x33c2327e	9.0430134e-08
114	0x33dd89de	1.0316192e-07
115	0x311c8422	2.2776097e-09
116	0x3765811c	1.3679524e-05
117	0x32bc9353	2.1953076e-08
118	0xb8d6808e	-0.0001022826
119	0x3533c732	6.6972564e-07
120	0x35b5ceb0	1.3545705e-06
121	0x34feca6b	4.7458465e-07
122	0x34891fe5	2.5541445e-07
123	0x3095ad9c	1.089052e-09
124	0x3674ef3a	3.6498081e-06
125	0x32c81653	2.3293216e-08
126	0xb61c519f	-2.3293321e-06
127	0x36225f5a	2.4195383e-06
128	0x3628ca12	2.5151571e-06
129	0x36224cc3	2.4184562e-06
130	0x356a7e21	8.7355335e-07
131	0x362161a7	2.404771e-06
132	0x35980fb5	1.1329454e-06
133	0x35ab87e8	1.2780047e-06
134	0x2f5e1943	2.0199757e-10
135	0x37aa3002	2.0287935e-05
136	0x35bf1bf9	1.423875e-06
137	0x32808271	1.4960479e-08
138	0xb60f20be	-2.132772e-06
139	0xb6f7b1ac	-7.3818574e-06
140	0x3482d534	2.4369513e-07
141	0x34e13156	4.1945412e-07
142	0x34a20db5	3.0184825e-07
143	0x352620c1	6.188748e-07
144	0x348419d6	2.4605714e-07
145	0x330a66e9	3.2224225e-08
146	0x34024772	1.2133185e-07
147	0x33520ab4	4.890417e-08
148	0x35570ac4	8.010941e-07
149	0x33247b07	3.829612e-08
150	0x35c40dcc	1.4607153e-06
151	0x30a6c301	1.2133513e-09
152	0x35915890	1.0829117e-06
153	0x34c6b953	3.7015215e-07
154	0x34774eb9	2.3032307e-07
155	0xb0734771	-8.850441e-10
156	0x357abc6c	9.340645e-07
157	0x31b18c3a	5.16732e-09
158	0x36691d7d	3.473687e-06
159	0xb62372bb	-2.4355675e-06
160	0x3647f7f7	2.9797645e-06
161	0x3652819d	3.1367883e-06
162	0x353033a7	6.5640273e-07
163	0x36655f5c	3.4179166e-06
164	0x352ba0cd	6.393646e-07
165	0x35fd8c6c	1.8890837e-06
166	0xade04718	-2.5497424e-11
167	0x37b0f427	2.1094527e-05
168	0x36008caf	1.9155375e-06
169	0xb0899af2	-1.00121e-09
170	0x34dc0fa7	4.0989582e-07
171	0x322cceb6	1.0058718e-08
172	0x36057def	1.9891847e-06
173	0x34f022c8	4.472879e-07
174	0x343b9f63	1.7473717e-07
175	0x351ab37e	5.7630666e-07
176	0x345cafbb	2.0553027e-07
177	0x333971c0	4.3177124e-08
178	0x34215f1a	1.5028891e-07
179	0x3371c181	5.6288176e-08
180	0x34485d9e	1.8660509e-07
181	0x3807593a	3.2269607e-05
182	0x3393eae3	6.8879466e-08
183	0x3520e742	5.994117e-07
184	0x35a2b4eb	1.2122595e-06
185	0x347648de	2.2937044e-07
186	0x34956f8c	2.7834574e-07
187	0xaeeb4b24	-1.06999104e-10
188	0x3639052b	2.7570156e-06
189	0x356bfa06	8.7908154e-07
190	0x36562e78	3.1915533e-06
191	0xb745be6b	-1.178645e-05
192	0x351b9e57	5.7972414e-07
193	0x311ddd58	2.2972326e-09
194	0x30989c6a	1.1103911e-09
195	0x3117c6a8	2.2086315e-09
196	0xb6a5188f	-4.920242e-06
197	0x30c375a3	1.4221552e-09
198	0x37d39235	2.5221243e-05
199	0x34bdffef	3.539021e-07
200	0x30aaa76e	1.2416714e-09
201	0xa9b828f5	-8.1783464e-14
202	0x2fd32ad5	3.841111e-10
203	0x2edbd5b7	9.9969304e-11
204	0x31167740	2.1895659e-09
205	0x2feb263e	4.2773424e-10
206	0x2f25d79d	1.5083264e-10
207	0x2ff86858	4.5185078e-10
208	0x2f5bcfd2	1.9991767e-10
209	0x2e6534a3	5.2115322e-11
210	0x2f230a67	1.4828459e-10
211	0x2e4d6ecc	4.671001e-11
212	0xb8241a96	-3.9125407e-05
213	0x33c52fa4	9.182193e-08
214	0x309379d9	1.0730289e-09
215	0x346edb18	2.2245183e-07
216	0x37c1fb6a	2.3124467e-05
217	0x33ff3e7a	1.1885727e-07
218	0x2fafe2dd	3.199351e-10
219	0xab2c103a	-6.1129194e-13
220	0x34850962	2.4780007e-07
221	0x2d983c57	1.7307196e-11
222	0xb973aba8	-0.00023238233
223	0x31ae5bff	5.0745252e-09
224	0xaa84621c	-2.3515987e-13
225	0x2c68e0ea	3.3094035e-12
226	0x2bc24bc7	1.3805562e-12
227	0x2c9a6b62	4.388865e-12
228	0x29d01fba	9.242559e-14
229	0xa7fc4edf	-7.0029563e-15
230	0xbaa04fd6	-0.0012230824
231	0x2f29cdad	1.5443531e-10
232	0xb65ee29c	-3.3212482e-06
233	0xa7b9c52d	-5.1561593e-15
234	0x2f32f46a	1.6275839e-10
235	0xb7c11713	-2.3018138e-05
236	0x34840150	2.458787e-07
237	0x2b1a676a	5.4855306e-13
238	0x27bec178	5.2945353e-15
239	0xb5126ea6	-5.4550253e-07
240	0x2af1c4f4	4.2946864e-13
241	0xad57c774	-1.22656225e-11
242	0x3609fe63	2.0562663e-06
243	0x28957803	1.659437e-14
244	0xb5c727b1	-1.4838207e-06
245	0x2a5061d6	1.8508055e-13
246	0xbaf975bf	-0.0019032283
247	0xb3a1103d	-7.5001005e-08
248	0x33864f0e	6.254241e-08
249	0xba8634f2	-0.0010239168
250	0x2a4ce9c3	1.8199942e-13
251	0x299bcb59	6.918658e-14
252	0x3ae04830	0.0017111357
253	0xac92c71e	-4.171676e-12
254	0xb5a77180	-1.2475502e-06
255	0xb1211974	-2.3443052e-09

fai_gcn_networks.1.gcn.conv.bias f4 [192]
0	0x3cef0577	0.02917741
1	0x3ceb667b	0.02873539
2	0x35883499	1.0148098e-06
3	0x3ce81772	0.028331492
4	0x3ce5bade	0.028043207
5	0x3ced9e25	0.029006073
6	0x38492878	4.7959824e-05
7	0x334e5e2a	4.8048754e-08
8	0x3cea8f42	0.028632764
9	0x3ce94ec5	0.028479943
10	0xb41b5173	-1.4465131e-07
11	0x39b5630b	0.00034596803
12	0x3ceff077	0.029289467
13	0x3cf1ded7	0.029525204
14	0x3cef6be4	0.029226251
15	0x3cefe1b1	0.029282423
16	0x3cecd192	0.028908525
17	0x3cf10ac0	0.029424071
18	0x3ce840f9	0.028351294
19	0x3c713c56	0.014723858
20	0x3b12679d	0.002233959
21	0x3a8ea148	0.0010881806
22	0xb375960b	-5.717997e-08
23	0xb423b2f6	-1.5245664e-07
24	0x3ced3ea8	0.02896054
25	0xb35a4bbb	-5.0825957e-08
26	0x3cf03fb3	0.02932725
27	0xb511c8d2	-5.430894e-07
28	0x33a6ff6b	7.7764376e-08
29	0x3503ecd9	4.914596e-07
30	0x3ceda4e2	0.029009286
31	0x3cf01b3e	0.029309865
32	0xb49924a9	-2.8525145e-07
33	0xb4e26202	-4.216709e-07
34	0x3cf25645	0.029582152
35	0xb4c66b2e	-3.6958357e-07
36	0x3cd67776	0.02618001
37	0x352b4187	6.379782e-07
38	0xb3ed8b1c	-1.10614764e-07
39	0x3b5823a6	0.0032980232
40	0x3cf40e45	0.02979196
41	0x3cecad0f	0.028891115
42	0x3ce37aae	0.02776846
43	0x3cf1af0f	0.02950242
44	0x357923e0	9.2811933e-07
45	0x3cf0cec2	0.029395465
46	0xb4f9f3c6	-4.6557233e-07
47	0x3cf12059	0.02943437
48	0x348e2e29	2.6483147e-07
49	0xb4a3364e	-3.0400628e-07
50	0x3cef2478	0.029192194
51	0x3cf4d7d5	0.029888073
52	0x3094448b	1.0787898e-09
53	0xb3a6c8b5	-7.766486e-08
54	0x3cf25e31	0.02958593
55	0x3ce948b5	0.028477052
56	0xb5b4c4ed	-1.3468358e-06
57	0x3cecbcce	0.028898623
58	0xb3df4b54	-1.0397949e-07
59	0x333710b6	4.2623206e-08
60	0xb4bbfeb9	-3.50168e-07
61	0x3ceff274	0.029290415
62	0x3cf0f687	0.029414428
63	0xb654fd16	-3.1737777e-06
64	0x3d09fd2e	0.033688717
65	0x3d084a13	0.033273768
66	0x35b9a19b	1.3830607e-06
67	0x3d0206a5	0.031744618
68	0x3d0614cd	0.03273468
69	0x3d090251	0.033449475
70	0x38763992	5.8704587e-05
71	0x33fdca2c	1.18180054e-07
72	0x3d06fde0	0.032956958
73	0x3d027cd8	0.03185734
74	0xb42f6089	-1.6333264e-07
75	0x39e0add2	0.00042854116
76	0x3d08db82	0.033412464
77	0x3d0a2037	0.03372213
78	0x3d0b87e3	0.03406514
79	0x3d0aa66c	0.03385012
80	0x3d04f087	0.032455947
81	0x3d08f3ea	0.03343574
82	0x3d04f0e0	0.03245628
83	0x3c8e79e0	0.017392099
84	0x3b30cc52	0.0026977253
85	0x3aab7752	0.0013081825
86	0xb398bef6	-7.112787e-08
87	0xb4990c7e	-2.850756e-07
88	0x3d0a1513	0.033711504
89	0xb39bf846	-7.2629106e-08
90	0x3d08f865	0.033440012
91	0xb53f0812	-7.116479e-07
92	0xb620d03c	-2.3963066e-06
93	0x370cca6f	8.391783e-06
94	0x3d067ff0	0.032836854
95	0x3d0b70e5	0.03404321
96	0xb4a88755	-3.1390906e-07
97	0xb536c504	-6.808698e-07
98	0x3d0aaa47	0.033853795
99	0xb5065da6	-5.0055166e-07
100	0x3cfba1c7	0.03071679
101	0x342d3e14	1.6134464e-07
102	0xb416bdc1	-1.403887e-07
103	0x3b8346ed	0.0040062577
104	0x3d0acff9	0.033889744
105	0x3d073c27	0.03301635
106	0x3d049c6a	0.03237573
107	0x3d0c9c45	0.034328718
108	0xb4303038	-1.6408819e-07
109	0x3d0c4500	0.03424549
110	0xb565293a	-8.536914e-07
111	0x3d0c220b	0.034212153
112	0xb3b78d79	-8.547335e-08
113	0xb4a2bec6	-3.0313657e-07
114	0x3d0a3c88	0.033749133
115	0x3d0b3349	0.033984456
116	0xb3469359	-4.623448e-08
117	0xb3daf04e	-1.0195127e-07
118	0x3d0cf8a0	0.034416795
119	0x3d084be0	0.033275485
120	0xb5f7b503	-1.8455615e-06
121	0x3d06dcc2	0.032925375
122	0xb42e9d4a	-1.6262234e-07
123	0x33530d94	4.9139615e-08
124	0xb4a462fd	-3.0619404e-07
125	0x3d0babf8	0.03409955
126	0x3d0c6a0d	0.034280825
127	0xb6870ead	-4.025022e-06
128	0x3c773f46	0.015090769
129	0x3c71ef96	0.014766594
130	0xb43a1be5	-1.7332748e-07
131	0x3c7f86dc	0.015596118
132	0x3c6ad6ed	0.014333469
133	0x3c75f7f2	0.015012728
134	0x37eadc27	2.799749e-05
135	0xb45eb704	-2.0741942e-07
136	0x3c73fdc0	0.014892042
137	0x3c81001e	0.015747126
138	0xb4886209	-2.5403304e-07
139	0x386a728f	5.589664e-05
140	0x3c7d5387	0.015461809
141	0x3c7ee64f	0.01555784
142	0x3c753675	0.014966597
143	0x3c77b1f4	0.015118111
144	0x3c817fff	0.015808104
145	0x3c802c40	0.0156461
146	0x3c73b3e5	0.014874433
147	0x3bf26688	0.0073974766
148	0x3a96c6fb	0.0011503393
149	0x3a140a38	0.00056472747
150	0xb3264d65	-3.8720277e-08
151	0x336776b0	5.3891824e-08
152	0x3c72e05b	0.014823998
153	0x2d2dca38	9.878813e-12
154	0x3c7dc6ee	0.015489323
155	0xb3f67cc3	-1.1477962e-07
156	0x33a7857c	7.800824e-08
157	0xb4af4527	-3.2646605e-07
158	0x3c7f0d05	0.015567069
159	0x3c768071	0.015045271
160	0x33dbf7ff	1.02430924e-07
161	0x335e66d4	5.1781925e-08
162	0x3c7de5d2	0.015496688
163	0xb23e564b	-1.1079076e-08
164	0x3c587d66	0.013213491
165	0x365868d8	3.2247535e-06
166	0xb44b448d	-1.8930787e-07
167	0x3ada994d	0.0016677767
168	0x3c815e88	0.015792146
169	0x3c7948bf	0.015215098
170	0x3c67f26c	0.014156919
171	0x3c77e7a7	0.015130914
172	0x36acb08f	5.1465536e-06
173	0x3c76ac12	0.015055673
174	0xb40de724	-1.3215737e-07
175	0x3c776ce6	0.015101647
176	0x33c307de	9.081826e-08
177	0x33a05fa2	7.467976e-08
178	0x3c76eb9d	0.015070823
179	0x3c82034a	0.015870709
180	0xb3a0487f	-7.4637676e-08
181	0xb3749d9b	-5.695402e-08
182	0x3c78a014	0.015174884
183	0x3c6e0968	0.01452861
184	0xb4b34141	-3.3388827e-07
185	0x3c79f298	0.015255593
186	0x309a64b5	1.1233597e-09
187	0xb1abcafa	-4.9998308e-09
188	0xb4d27411	-3.9199998e-07
189	0x3c75957a	0.014989251
190	0x3c76ebb2	0.015070843
191	0xb628f32e	-2.51755e-06

fai_gcn_networks.1.residual.0.weight f4 [64, 32, 1, 1]
0	0x3c9b261e	0.018939074
1	0xbbc95b30	-0.0061449036
2	0xbd06ccc9	-0.032910142
3	0xbc736ec7	-0.014857954
4	0xba84d876	-0.0010135311
5	0x3a818aea	0.0009883319
6	0x3cc6740e	0.024225261
7	0xbc795600	-0.015218258
8	0x3bcd86e0	0.006272182
9	0xbc8dc792	-0.017307077
10	0xbc4bbe7e	-0.012435554
11	0x3c21940f	0.00986196
12	0x3c89a6e2	0.016803209
13	0xbcb4abb7	-0.022054536
14	0xbc6e0626	-0.014527833
15	0x3c1de0c7	0.009636111
16	0xbc8bba0d	-0.01705649
17	0xbd41a799	-0.047278974
18	0xbc58500c	-0.013202678
19	0x3a1ef9fb	0.00060644717
20	0x38fc0ac3	0.00012018301
21	0xbc2ffb3e	-0.010741053
22	0x3c96137b	0.018319836
23	0x3b53b867	0.0032305957
24	0x3b09b01f	0.0021009517
25	0xbc9f229e	-0.019425686
26	0xbc1b9c4d	-0.009497714
27	0x3c4fa126	0.012672698
28	0x3a535da2	0.00080629636
29	0xbc296709	-0.010339507
30	0xbc7d7ad2	-0.015471177
31	0x3c481bd4	0.012213666
32	0xbd2baa81	-0.041910652
33	0xbc681ef2	-0.014167534
34	0x3cb85d4e	0.022505429
35	0x3d17432b	0.03692929
36	0xbc00d86d	-0.0078641
37	0xbc88a917	-0.01668219
38	0x3c0da7f6	0.008646002
39	0x3c80cd50	0.0157229
40	0x3c5dec20	0.013545066
41	0x3c0be49b	0.0085383905
42	0x3c17cdb7	0.009265355
43	0x3c994a80	0.018712282
44	0x3cea5230	0.028603643
45	0xbb95ece8	-0.0045753606
46	0x3b90db84	0.0044206996
47	0x3cbcd0ae	0.023048725
48	0x3cfcb6b5	0.03084884
49	0x3d401909	0.046898875
50	0xbb5af0e0	-0.0033407733
51	0xbcb238be	-0.021755572
52	0xbcd38485	-0.025820026
53	0xbb2f3941	-0.0026737007
54	0xbd31e8d9	-0.04343495
55	0xbc8593a4	-0.016305752
56	0xbd29304b	-0.04130582
57	0xbd32ab2a	-0.043620266
58	0xbc185bd9	-0.009299242
59	0x3cd41254	0.025887646
60	0xbc5291d2	-0.012852149
61	0xbd013aa0	-0.03155005
62	0x3d1aa138	0.037751406
63	0xbc4f0015	-0.012634297
64	0xbb481935	-0.0030532603
65	0xbbe74444	-0.0070576984
66	0x3c8f758b	0.017512104
67	0xbc102082	-0.008796813
68	0xbc9c19f4	-0.019055344
69	0xbce529e6	-0.02797408
70	0x3b5cf4c6	0.0033715232
71	0x3c5d6cf5	0.013514747
72	0xba1a4ef0	-0.00058863964
73	0xba21aa54	-0.00061670435
74	0x3c812172	0.015763018
75	0xbbabb6e2	-0.005240307
76	0x3b43706a	0.0029821643
77	0xbc89178a	-0.016734857
78	0xbc905d6f	-0.017622678
79	0xbd103f77	-0.035216775
80	0x3ccff669	0.025386052
81	0x3caa367c	0.020777933
82	0x3d14ba9a	0.03631077
83	0x3c8e3c87	0.017362846
84	0xbd31550b	-0.043293994
85	0xbb7ce849	-0.0038590601
86	0x3ca003f9	0.019533144
87	0x3b89644b	0.004192864
88	0x3b8c2ea4	0.004278021
89	0xbd2d5686	-0.042318843
90	0x3c3c0dbe	0.011477886
91	0xbcd38b77	-0.025823338
92	0xbc92dd4a	-0.017927784
93	0xbc224864	-0.009904955
94	0xbc186130	-0.009300515
95	0x3a7d90d3	0.00096727646
96	0x3ccfa0ca	0.025345225
97	0xbbd71ea1	-0.0065649305
98	0xbc6f79f9	-0.014616483
99	0x3bf67319	0.007521045
100	0xbcc52b1c	-0.024068408
101	0xbc90f81b	-0.01769643
102	0x3b839347	0.0040153596
103	0xbc693838	-0.014234595
104	0x3bc00c42	0.0058608362
105	0x3ccb3bc2	0.024808768
106	0xbc1051a2	-0.008808525
107	0x3c149cd2	0.009070592
108	0x3be5d3dd	0.0070137815
109	0x3cce3dab	0.02517589
110	0xba99330a	-0.0011688184
111	0xbcac71be	-0.02105033
112	0xba2a8ff4	-0.0006506436
113	0x3c141c88	0.0090400055
114	0xbba000ba	-0.004882899
115	0x3c6e75fc	0.014554497
116	0xbc4ddbd8	-0.012564622
117	0xbc94307d	-0.018089527
118	0xbb8f5b36	-0.004374887
119	0x3d081220	0.03322041
120	0xbaace404	-0.0013190513
121	0xb98a61d8	-0.0002639431
122	0xbc49ff1d	-0.01232889
123	0xbcdafadc	-0.026730947
124	0x3c79a878	0.01523792
125	0xbd43e3c9	-0.047824655
126	0xbce282fe	-0.027650353
127	0xbca011f2	-0.019539807
128	0xbc9a5c7a	-0.018842924
129	0x3be64469	0.007027198
130	0xbcaf5105	-0.021400938
131	0xbd63a7a2	-0.05557979
132	0x3c53f682	0.01293719
133	0xbc9da1ff	-0.019242285
134	0xbc84238a	-0.016130228
135	0xbc9d519c	-0.019203953
136	0x3b2fb637	0.002681149
137	0x3ba8feaf	0.005157314
138	0x3bd5fec4	0.0065306146
139	0x3c88f652	0.016719017
140	0xbc5c68e0	-0.0134527385
141	0x3c571c62	0.013129326
142	0x3b39e250	0.0028363653
143	0x3c8a5c63	0.016889757
144	0xbcd31a8f	-0.0257695
145	0xbd0b4b42	-0.03400732
146	0xbc38cb09	-0.011278876
147	0xbc4ac9cf	-0.0123772165
148	0xbb16e516	-0.002302473
149	0xbc8b4459	-0.017000364
150	0x3b717042	0.0036840593
151	0x3d11fa04	0.035638824
152	0x3c212842	0.009836258
153	0xbcb93a14	-0.022610702
154	0x3ba2e3d4	0.004971007
155	0x3bf48cdb	0.0074630803
156	0x3a4b0f2a	0.0007746095
157	0x3c9107fd	0.017704004
158	0x3c8c3bc4	0.017118342
159	0xbc899295	-0.016793529
160	0x3d184369	0.037173662
161	0xbbf9c867	-0.007622767
162	0xbaea248a	-0.0017863673
163	0xbc116def	-0.008876308
164	0xbc86a7d0	-0.016437441
165	0xbc32596b	-0.010885577
166	0xbc68d70b	-0.0142114265
167	0xbc2d3873	-0.010572541
168	0xba0a86a7	-0.0005284347
169	0x3ca010c8	0.019539252
170	0xbd0095cc	-0.031392857
171	0x3ac68bbe	0.0015147848
172	0x3d04f6b0	0.032461822
173	0xbcd40c0c	-0.02588465
174	0x3cb9eb97	0.022695346
175	0xbc0c955c	-0.008580532
176	0x3a1a7649	0.00058922597
177	0xbc3072f6	-0.010769596
178	0xbc89f037	-0.016838176
179	0xbc21b4d0	-0.009869769
180	0x3bb487f2	0.00550937
181	0xba1bb9b8	-0.0005940455
182	0xbcae557d	-0.021280998
183	0xbb8290c1	-0.003984541
184	0x3c6777f7	0.014127723
185	0xbd672018	-0.05642709
186	0xbbdcf620	-0.0067432076
187	0xbd0f5064	-0.034988776
188	0xbc5e5972	-0.01357113
189	0xbc3977bd	-0.011320052
190	0xbbcbb75e	-0.0062169274
191	0xbb00e043	-0.001966492
192	0x3c5dd6a7	0.013539947
193	0x3c499774	0.012304176
194	0x3c11872f	0.008882328
195	0x3b24607c	0.0025081923
196	0x3ce6b358	0.02816169
197	0x3c0930cc	0.0083734505
198	0xbc9a5340	-0.018838525
199	0xbc527c55	-0.012847026
200	0x3cd2f69b	0.025752356
201	0xbc9458e1	-0.018108787
202	0xbb0d49eb	-0.002155895
203	0xbc3e9167	-0.011631346
204	0x3996013e	0.00028611155
205	0xbce9eecb	-0.028556248
206	0x3bd9a754	0.0066422615
207	0x3d465198	0.048417658
208	0x3c165ac4	0.009176914
209	0x3cab3be0	0.020902574
210	0xbc905c7d	-0.017622227
211	0xbcf347c9	-0.029697316
212	0xbb569461	-0.003274225
213	0xbc0daa3e	-0.008646546
214	0x3caec46b	0.021333894
215	0xbc9fb6c5	-0.019496331
216	0x3a2fd224	0.00067070336
217	0xbc088c62	-0.008334251
218	0xbbf33e45	-0.0074231946
219	0xbb932943	-0.0044910028
220	0x3cdd8449	0.027040618
221	0x3b89ed6e	0.004209212
222	0xbc0f1e30	-0.008735225
223	0x39d5f56e	0.00040809385
224	0x3aadf4b8	0.0013271784
225	0xbcdb4f01	-0.02677107
226	0x3bd75f7e	0.006572663
227	0xbd184925	-0.03717913
228	0x3d28f70a	0.04125122
229	0x3c50cdf2	0.012744414
230	0xbbfd60a9	-0.00773247
231	0xbbddee09	-0.006772761
232	0x3c924e0d	0.017859483
233	0xbc9161c6	-0.017746817
234	0x3d09a236	0.033601962
235	0x3d3e3587	0.046437766
236	0x3bc90b32	0.006135368
237	0x3ce12c77	0.027487023
238	0xbd3675a7	-0.044545796
239	0x3cba81a9	0.022766905
240	0xbc1b5bb0	-0.009482309
241	0xbb820d31	-0.0039688577
242	0x3cebd954	0.028790154
243	0x3b516ae7	0.0031954588
244	0xbd21e818	-0.039527982
245	0x3cafa0d7	0.021439
246	0xbcdadd89	-0.026716964
247	0xbb7961a9	-0.0038052595
248	0xbc6d29af	-0.01447527
249	0x3bb69dc1	0.005573005
250	0x3b38bc49	0.0028188399
251	0xb96232e2	-0.00021571995
252	0xbad7ebc4	-0.0016473462
253	0xbd04be57	-0.032408085
254	0xbc4ff8bd	-0.012693581
255	0xbbacbb94	-0.0052713845

fai_gcn_networks.1.residual.0.bias f4 [64]
0	0x00000000	0.0
1	0x00000000	0.0
2	0x00000000	0.0
3	0x00000000	0.0
4	0x00000000	0.0
5	0x00000000	0.0
6	0x00000000	0.0
7	0x00000000	0.0
8	0x00000000	0.0
9	0x00000000	0.0
10	0x00000000	0.0
11	0x00000000	0.0
12	0x00000000	0.0
13	0x00000000	0.0
14	0x00000000	0.0
15	0x00000000	0.0
16	0x00000000	0.0
17	0x00000000	0.0
18	0x00000000	0.0
19	0x00000000	0.0
20	0x00000000	0.0
21	0x00000000	0.0
22	0x00000000	0.0
23	0x00000000	0.0
24	0x00000000	0.0
25	0x00000000	0.0
26	0x00000000	0.0
27	0x00000000	0.0
28	0x00000000	0.0
29	0x00000000	0.0
30	0x00000000	0.0
31	0x00000000	0.0
32	0x00000000	0.0
33	0x00000000	0.0
34	0x00000000	0.0
35	0x00000000	0.0
36	0x00000000	0.0
37	0x00000000	0.0
38	0x00000000	0.0
39	0x00000000	0.0
40	0x00000000	0.0
41	0x00000000	0.0
42	0x00000000	0.0
43	0x00000000	0.0
44	0x00000000	0.0
45	0x00000000	0.0
46	0x00000000	0.0
47	0x00000000	0.0
48	0x00000000	0.0
49	0x00000000	0.0
50	0x00000000	0.0
51	0x00000000	0.0
52	0x00000000	0.0
53	0x00000000	0.0
54	0x00000000	0.0
55	0x00000000	0.0
56	0x00000000	0.0
57	0x00000000	0.0
58	0x00000000	0.0
59	0x00000000	0.0
60	0x00000000	0.0
61	0x00000000	0.0
62	0x00000000	0.0
63	0x00000000	0.0

fai_gcn_networks.1.residual.1.weight f4 [64]
0	0x3f7e3e34	0.99313664
1	0x3f813022	1.0092814
2	0x3f7c34c7	0.9851803
3	0x3f8287d4	1.0197701
4	0x3f8148c5	1.0100332
5	0x3f7fb06e	0.99878585
6	0x3f8324da	1.0245621
7	0x3f7a63a7	0.9780831
8	0x3f75bbda	0.95989764
9	0x3f84c9c1	1.037407
10	0x3f791572	0.9729835
11	0x3f7e940e	0.99444664
12	0x3f800b0d	1.0003372
13	0x3f80b10b	1.0054029
14	0x3f7c60c0	0.9858513
15	0x3f829ad9	1.0203506
16	0x3f7ab660	0.9793453
17	0x3f7c9c98	0.98676443
18	0x3f80b608	1.0055552
19	0x3f7cf5a0	0.98812294
20	0x3f83c586	1.0294654
21	0x3f831be8	1.0242891
22	0x3f7c1093	0.9846279
23	0x3f80a9c8	1.0051813
24	0x3f859efd	1.0439144
25	0x3f83c4e1	1.0294458
26	0x3f7b8130	0.98244
27	0x3f78651c	0.9702928
28	0x3f804ec5	1.0024039
29	0x3f8414f6	1.0318897
30	0x3f7d8b46	0.9904064
31	0x3f80fd96	1.0077388
32	0x3f7e183d	0.99255735
33	0x3f793747	0.9734997
34	0x3f7fa2f4	0.9985802
35	0x3f7ddc7c	0.9916456
36	0x3f80e28e	1.0069139
37	0x3f84ec44	1.0384603
38	0x3f7d591d	0.989641
39	0x3f7e2c37	0.99286216
40	0x3f7f29b5	0.99673015
41	0x3f84a9c3	1.0364307
42	0x3f82c570	1.0216503
43	0x3f78de0f	0.97213835
44	0x3f768234	0.96292424
45	0x3f803ef0	1.0019207
46	0x3f802f07	1.0014352
47	0x3f78fdaf	0.9726209
48	0x3f7f127e	0.9963759
49	0x3f81f8cc	1.0154052
50	0x3f7f8b66	0.9982208
51	0x3f826971	1.0188428
52	0x3f829c58	1.0203962
53	0x3f818bc4	1.0120778
54	0x3f7eeebe	0.9958304
55	0x3f7718ed	0.9652241
56	0x3f777380	0.96660614
57	0x3f7e7fba	0.99413645
58	0x3f806cbd	1.0033184
59	0x3f7bdeb9	0.9838672
60	0x3f7fcb86	0.9991993
61	0x3f801150	1.0005283
62	0x3f84d47f	1.0377349
63	0x3f7a13f3	0.9768669

fai_gcn_networks.1.residual.1.bias f4 [64]
0	0x00000000	0.0
1	0x00000000	0.0
2	0x00000000	0.0
3	0x00000000	0.0
4	0x00000000	0.0
5	0x00000000	0.0
6	0x00000000	0.0
7	0x00000000	0.0
8	0x00000000	0.0
9	0x00000000	0.0
10	0x00000000	0.0
11	0x00000000	0.0
12	0x00000000	0.0
13	0x00000000	0.0
14	0x00000000	0.0
15	0x00000000	0.0
16	0x00000000	0.0
17	0x00000000	0.0
18	0x00000000	0.0
19	0x00000000	0.0
20	0x00000000	0.0
21	0x00000000	0.0
22	0x00000000	0.0
23	0x00000000	0.0
24	0x00000000	0.0
25	0x00000000	0.0
26	0x00000000	0.0
27	0x00000000	0.0
28	0x00000000	0.0
29	0x00000000	0.0
30	0x00000000	0.0
31	0x00000000	0.0
32	0x00000000	0.0
33	0x00000000	0.0
34	0x00000000	0.0
35	0x00000000	0.0
36	0x00000000	0.0
37	0x00000000	0.0
38	0x00000000	0.0
39	0x00000000	0.0
40	0x00000000	0.0
41	0x00000000	0.0
42	0x00000000	0.0
43	0x00000000	0.0
44	0x00000000	0.0
45	0x00000000	0.0
46	0x00000000	0.0
47	0x00000000	0.0
48	0x00000000	0.0
49	0x00000000	0.0
50	0x00000000	0.0
51	0x00000000	0.0
52	0x00000000	0.0
53	0x00000000	0.0
54	0x00000000	0.0
55	0x00000000	0.0
56	0x00000000	0.0
57	0x00000000	0.0
58	0x00000000	0.0
59	0x00000000	0.0
60	0x00000000	0.0
61	0x00000000	0.0
62	0x00000000	0.0
63	0x00000000	0.0

fai_gcn_networks.1.residual.1.running_mean f4 [64]
0	0xb6f90636	-7.4215013e-06
1	0x36efa8b3	7.142394e-06
2	0x35c2f48c	1.4525299e-06
3	0xb713f4db	-8.818893e-06
4	0xb7508fc2	-1.2431237e-05
5	0xb6b07646	-5.2589776e-06
6	0x359961d1	1.1427857e-06
7	0xb6d50c37	-6.3493167e-06
8	0x371756cf	9.020513e-06
9	0xb7943382	-1.766696e-05
10	0xb70df575	-8.461405e-06
11	0xb6a4cf5b	-4.91172e-06
12	0xb66c436d	-3.5205987e-06
13	0xb7af13e5	-2.087089e-05
14	0x364e6d57	3.0760036e-06
15	0xb78f65fa	-1.7094415e-05
16	0xb7048f74	-7.901213e-06
17	0x37837b8f	1.5673953e-05
18	0x36148c18	2.2135264e-06
19	0x34d95966	4.0484446e-07
20	0xb657b738	-3.2144144e-06
21	0xb71b358e	-9.251189e-06
22	0xb5e9b34d	-1.7412036e-06
23	0xb6ae04f7	-5.186182e-06
24	0x36192aa3	2.2823594e-06
25	0xb612d034	-2.1876886e-06
26	0xb4d2723b	-3.9198662e-07
27	0xb5fe154a	-1.8930671e-06
28	0xb6e6d026	-6.878766e-06
29	0x37095fe8	8.188166e-06
30	0xb7ca03ca	-2.408204e-05
31	0xb71f2c02	-9.487385e-06
32	0x369dbd30	4.700989e-06
33	0xb6f1550c	-7.1922605e-06
34	0x372afd39	1.0191748e-05
35	0x371495a7	8.856331e-06
36	0xb67b38a9	-3.7434895e-06
37	0x37486703	1.1944913e-05
38	0x36fe3ce9	7.5768808e-06
39	0x35bb0c7d	1.393622e-06
40	0x36b0477c	5.2535306e-06
41	0xb68ef1c3	-4.2600745e-06
42	0x36ea7e4d	6.988447e-06
43	0x35559faf	7.9581054e-07
44	0xb7ba5bb7	-2.2215636e-05
45	0xb6c235c3	-5.7879092e-06
46	0xb7264ecf	-9.91272e-06
47	0xb6b74e04	-5.462907e-06
48	0x36f5fd30	7.331044e-06
49	0xb6c48419	-5.8566334e-06
50	0x371a740b	9.206134e-06
51	0x36e3ad7e	6.7853243e-06
52	0x37ac8866	2.0567513e-05
53	0x3653d586	3.1565737e-06
54	0xb6136841	-2.196539e-06
55	0xb683f86f	-3.9330257e-06
56	0x3711d893	8.693099e-06
57	0x370e5b32	8.485093e-06
58	0xb68a869b	-4.1283906e-06
59	0xb77fca70	-1.5246318e-05
60	0xb6f8fa8b	-7.420143e-06
61	0xb6bc67c6	-5.6149174e-06
62	0x37f4ee1d	2.9197947e-05
63	0xb7bb8048	-2.2351873e-05

fai_gcn_networks.1.residual.1.running_var f4 [64]
0	0x2ef1047f	1.096021e-10
1	0x2ec7f936	9.093741e-11
2	0x2e8eff5c	6.502773e-11
3	0x2eeb49c4	1.0699666e-10
4	0x2f32593d	1.622071e-10
5	0x2e9561a5	6.793081e-11
6	0x2e6c80fb	5.3774745e-11
7	0x2ebadf30	8.497947e-11
8	0x2ff40efe	4.4393994e-10
9	0x3014aa37	5.4083976e-10
10	0x2e1821e6	3.4590907e-11
11	0x2d5e874f	1.26492835e-11
12	0x2db4025b	2.0464677e-11
13	0x305c7646	8.020361e-10
14	0x2ec6b6f8	9.036499e-11
15	0x2f82fffe	2.3828756e-10
16	0x2f23ede9	1.4909286e-10
17	0x2fae0c6b	3.165924e-10
18	0x2d964c6d	1.7086966e-11
19	0x2d486e60	1.1393192e-11
20	0x2e42e707	4.4315687e-11
21	0x2f6e4191	2.1669268e-10
22	0x2e1a95c8	3.514858e-11
23	0x2d87a979	1.5422984e-11
24	0x2e2bb024	3.9037343e-11
25	0x2e57f6a5	4.9104405e-11
26	0x2db8d6a9	2.1013706e-11
27	0x2e872f7e	6.1475255e-11
28	0x2ec9dddd	9.1798326e-11
29	0x2f0bf6e9	1.2729696e-10
30	0x308a58f4	1.0066104e-09
31	0x2e2ad48c	3.8842304e-11
32	0x2f99e02f	2.798983e-10
33	0x2f929617	2.666389e-10
34	0x300032ee	4.6638504e-10
35	0x2f0d4dad	1.2851471e-10
36	0x2f0e391e	1.2935117e-10
37	0x2fbe0d55	3.4570272e-10
38	0x2eb1982f	8.0760613e-11
39	0x2d98f2ab	1.7388166e-11
40	0x2d844971	1.5039277e-11
41	0x2d81b681	1.474665e-11
42	0x2f587232	1.9685656e-10
43	0x2e3cc48b	4.2920816e-11
44	0x3019c615	5.594257e-10
45	0x2f380897	1.6737754e-10
46	0x2ef1f138	1.100226e-10
47	0x2f2604e7	1.5099354e-10
48	0x2f50a3b8	1.8975654e-10
49	0x2e97341b	6.875941e-11
50	0x2e5182af	4.763717e-11
51	0x2dde05ca	2.5241049e-11
52	0x3083b04b	9.58161e-10
53	0x2e4778be	4.5354602e-11
54	0x2d7f30a2	1.45058705e-11
55	0x2d334d9d	1.0192206e-11
56	0x2f854d3e	2.4247443e-10
57	0x2faa8cc8	3.102285e-10
58	0x2df9541c	2.8345375e-11
59	0x2eb4f344	8.228665e-11
60	0x2e71a13a	5.4940254e-11
61	0x2f01c209	1.1801417e-10
62	0x3049e04d	7.3442125e-10
63	0x30a75c0d	1.2177012e-09
