capsule-6073072/code/work_dir/recognition/kinetics_skeleton/FAI_GCN/epoch410_model.pt (torch, 74070 bytes, 22 tensors)

A f4 [3, 18, 18]
0	0x3e800000	0.25
1	0x00000000	0.0
2	0x00000000	0.0
3	0x00000000	0.0
4	0x00000000	0.0
5	0x00000000	0.0
6	0x00000000	0.0
7	0x00000000	0.0
8	0x00000000	0.0
9	0x00000000	0.0
10	0x00000000	0.0
11	0x00000000	0.0
12	0x00000000	0.0
13	0x00000000	0.0
14	0x00000000	0.0
15	0x00000000	0.0
16	0x00000000	0.0
17	0x00000000	0.0
18	0x00000000	0.0
19	0x3e800000	0.25
20	0x00000000	0.0
21	0x00000000	0.0
22	0x00000000	0.0
23	0x00000000	0.0
24	0x00000000	0.0
25	0x00000000	0.0
26	0x00000000	0.0
27	0x00000000	0.0
28	0x00000000	0.0
29	0x00000000	0.0
30	0x00000000	0.0
31	0x00000000	0.0
32	0x00000000	0.0
33	0x00000000	0.0
34	0x00000000	0.0
35	0x00000000	0.0
36	0x00000000	0.0
37	0x00000000	0.0
38	0x3e800000	0.25
39	0x00000000	0.0
40	0x00000000	0.0
41	0x00000000	0.0
42	0x00000000	0.0
43	0x00000000	0.0
44	0x00000000	0.0
45	0x00000000	0.0
46	0x00000000	0.0
47	0x00000000	0.0
48	0x00000000	0.0
49	0x00000000	0.0
50	0x00000000	0.0
51	0x00000000	0.0
52	0x00000000	0.0
53	0x00000000	0.0
54	0x00000000	0.0
55	0x00000000	0.0
56	0x00000000	0.0
57	0x3eaaaaab	0.33333334
58	0x00000000	0.0
59	0x00000000	0.0
60	0x00000000	0.0
61	0x00000000	0.0
62	0x00000000	0.0
63	0x00000000	0.0
64	0x00000000	0.0
65	0x00000000	0.0
66	0x00000000	0.0
67	0x00000000	0.0
68	0x00000000	0.0
69	0x00000000	0.0
70	0x00000000	0.0
71	0x00000000	0.0
72	0x00000000	0.0
73	0x00000000	0.0
74	0x00000000	0.0
75	0x00000000	0.0
76	0x3f000000	0.5
77	0x00000000	0.0
78	0x00000000	0.0
79	0x00000000	0.0
80	0x00000000	0.0
81	0x00000000	0.0
82	0x00000000	0.0
83	0x00000000	0.0
84	0x00000000	0.0
85	0x00000000	0.0
86	0x00000000	0.0
87	0x00000000	0.0
88	0x00000000	0.0
89	0x00000000	0.0
90	0x00000000	0.0
91	0x00000000	0.0
92	0x00000000	0.0
93	0x00000000	0.0
94	0x00000000	0.0
95	0x3e800000	0.25
96	0x00000000	0.0
97	0x00000000	0.0
98	0x00000000	0.0
99	0x00000000	0.0
100	0x00000000	0.0
101	0x00000000	0.0
102	0x00000000	0.0
103	0x00000000	0.0
104	0x00000000	0.0
105	0x00000000	0.0
106	0x00000000	0.0
107	0x00000000	0.0
108	0x00000000	0.0
109	0x00000000	0.0
110	0x00000000	0.0
111	0x00000000	0.0
112	0x00000000	0.0
113	0x00000000	0.0
114	0x3eaaaaab	0.33333334
115	0x00000000	0.0
116	0x00000000	0.0
117	0x00000000	0.0
118	0x00000000	0.0
119	0x00000000	0.0
120	0x00000000	0.0
121	0x00000000	0.0
122	0x00000000	0.0
123	0x00000000	0.0
124	0x00000000	0.0
125	0x00000000	0.0
126	0x00000000	0.0
127	0x00000000	0.0
128	0x00000000	0.0
129	0x00000000	0.0
130	0x00000000	0.0
131	0x00000000	0.0
132	0x00000000	0.0
133	0x3f000000	0.5
134	0x00000000	0.0
135	0x00000000	0.0
136	0x00000000	0.0
137	0x00000000	0.0
138	0x00000000	0.0
139	0x00000000	0.0
140	0x00000000	0.0
141	0x00000000	0.0
142	0x00000000	0.0
143	0x00000000	0.0
144	0x00000000	0.0
145	0x00000000	0.0
146	0x00000000	0.0
147	0x00000000	0.0
148	0x00000000	0.0
149	0x00000000	0.0
150	0x00000000	0.0
151	0x00000000	0.0
152	0x3eaaaaab	0.33333334
153	0x00000000	0.0
154	0x00000000	0.0
155	0x00000000	0.0
156	0x00000000	0.0
157	0x00000000	0.0
158	0x00000000	0.0
159	0x00000000	0.0
160	0x00000000	0.0
161	0x00000000	0.0
162	0x00000000	0.0
163	0x00000000	0.0
164	0x00000000	0.0
165	0x00000000	0.0
166	0x00000000	0.0
167	0x00000000	0.0
168	0x00000000	0.0
169	0x00000000	0.0
170	0x00000000	0.0
171	0x3eaaaaab	0.33333334
172	0x00000000	0.0
173	0x00000000	0.0
174	0x00000000	0.0
175	0x00000000	0.0
176	0x00000000	0.0
177	0x00000000	0.0
178	0x00000000	0.0
179	0x00000000	0.0
180	0x00000000	0.0
181	0x00000000	0.0
182	0x00000000	0.0
183	0x00000000	0.0
184	0x00000000	0.0
185	0x00000000	0.0
186	0x00000000	0.0
187	0x00000000	0.0
188	0x00000000	0.0
189	0x00000000	0.0
190	0x3f000000	0.5
191	0x00000000	0.0
192	0x00000000	0.0
193	0x00000000	0.0
194	0x00000000	0.0
195	0x00000000	0.0
196	0x00000000	0.0
197	0x00000000	0.0
198	0x00000000	0.0
199	0x00000000	0.0
200	0x00000000	0.0
201	0x00000000	0.0
202	0x00000000	0.0
203	0x00000000	0.0
204	0x00000000	0.0
205	0x00000000	0.0
206	0x00000000	0.0
207	0x00000000	0.0
208	0x00000000	0.0
209	0x3eaaaaab	0.33333334
210	0x00000000	0.0
211	0x00000000	0.0
212	0x00000000	0.0
213	0x00000000	0.0
214	0x00000000	0.0
215	0x00000000	0.0
216	0x00000000	0.0
217	0x00000000	0.0
218	0x00000000	0.0
219	0x00000000	0.0
220	0x00000000	0.0
221	0x00000000	0.0
222	0x00000000	0.0
223	0x00000000	0.0
224	0x00000000	0.0
225	0x00000000	0.0
226	0x00000000	0.0
227	0x00000000	0.0
228	0x3eaaaaab	0.33333334
229	0x00000000	0.0
230	0x00000000	0.0
231	0x00000000	0.0
232	0x00000000	0.0
233	0x00000000	0.0
234	0x00000000	0.0
235	0x00000000	0.0
236	0x00000000	0.0
237	0x00000000	0.0
238	0x00000000	0.0
239	0x00000000	0.0
240	0x00000000	0.0
241	0x00000000	0.0
242	0x00000000	0.0
243	0x00000000	0.0
244	0x00000000	0.0
245	0x00000000	0.0
246	0x00000000	0.0
247	0x3f000000	0.5
248	0x00000000	0.0
249	0x00000000	0.0
250	0x00000000	0.0
251	0x00000000	0.0
252	0x00000000	0.0
253	0x00000000	0.0
254	0x00000000	0.0
255	0x00000000	0.0

data_bn.weight f4 [54]
0	0x3f128d6c	0.5724704
1	0x3f113676	0.56723726
2	0x3f17257f	0.5904159
3	0x3f171329	0.5901361
4	0x3f19d40c	0.6008918
5	0x3f1ab38b	0.6043021
6	0x3f1a5249	0.6028181
7	0x3f1944aa	0.598704
8	0x3f196ded	0.5993336
9	0x3f0e49d5	0.5558141
10	0x3f10cbe0	0.5656109
11	0x3f1a28b0	0.60218334
12	0x3f16e30a	0.58940184
13	0x3f105498	0.5637908
14	0x3f15fec3	0.5859186
15	0x3f0dd82a	0.55407965
16	0x3f14215c	0.578634
17	0x3f19099a	0.59780276
18	0x3f16df77	0.5893473
19	0x3f19af6f	0.60033315
20	0x3f1e17d0	0.61755085
21	0x3f156409	0.58355767
22	0x3f151598	0.58236074
23	0x3f120fea	0.5705553
24	0x3f19d948	0.6009717
25	0x3f1028c7	0.5631222
26	0x3f184b23	0.5948965
27	0x3f1d6f82	0.6149827
28	0x3f168501	0.587967
29	0x3f185352	0.59502137
30	0x3f1dd778	0.61656904
31	0x3f13b552	0.5769855
32	0x3f120c5b	0.570501
33	0x3f0f8446	0.5606121
34	0x3f14e7aa	0.5816599
35	0x3f188c6d	0.5958927
36	0x3f135848	0.5755658
37	0x3f19b96f	0.60048574
38	0x3f17c697	0.592874
39	0x3f0f7a75	0.5604623
40	0x3f16e124	0.5893729
41	0x3f1525bf	0.5826072
42	0x3f1df4a5	0.6170142
43	0x3f1691fe	0.58816516
44	0x3f0f87e0	0.56066704
45	0x3f1ab939	0.6043888
46	0x3f128fe0	0.57250786
47	0x3f144e0e	0.579316
48	0x3f153636	0.58285844
49	0x3f19b187	0.6003651
50	0x3f1c3b51	0.6102801
51	0x3f1718bc	0.59022117
52	0x3f1c1edf	0.60984606
53	0x3f169011	0.5881358

data_bn.bias f4 [54]
0	0xaac8f863	-3.569949e-13
1	0xa90675cd	-2.9856153e-14
2	0x2831305e	9.835962e-15
3	0x32fb3e3a	2.9248543e-08
4	0x2df72254	2.8095894e-11
5	0x21474cc9	6.7525447e-19
6	0x35884d3b	1.0155267e-06
7	0xa7abf0af	-4.7722984e-15
8	0x2915b610	3.324256e-14
9	0xaf9bdd5e	-2.8351627e-10
10	0xabfc6916	-1.7934844e-12
11	0xa90cea0f	-3.1289258e-14
12	0xb10722f6	-1.9664959e-09
13	0x267ff24c	8.879927e-16
14	0xae369707	-4.1516148e-11
15	0xb4a25e07	-3.0243265e-07
16	0xb3c2f938	-9.0791616e-08
17	0x230522ec	7.2173394e-18
18	0xafc7415f	-3.6244338e-10
19	0x2e0e4289	3.2346157e-11
20	0xb3ef9ad3	-1.1157467e-07
21	0x3500fd2a	4.805212e-07
22	0xa96e2850	-5.288158e-14
23	0x298485c1	5.88518e-14
24	0xa7a5da3e	-4.603332e-15
25	0xa9220876	-3.5978565e-14
26	0xac6c1003	-3.3546505e-12
27	0x2b086a86	4.8464737e-13
28	0xb5f5db97	-1.8317832e-06
29	0x33636b52	5.2950163e-08
30	0xb44c34cc	-1.9018188e-07
31	0x36f76824	7.373297e-06
32	0x271a98bb	2.1454589e-15
33	0x313b5fd0	2.7266545e-09
34	0xacd403a5	-6.025807e-12
35	0x2b193f61	5.4444475e-13
36	0xb684345c	-3.940002e-06
37	0x2d07b31d	7.713633e-12
38	0xaa5357b1	-1.8770989e-13
39	0x33a7e57c	7.8182865e-08
40	0x28c23688	2.1561976e-14
41	0x279fc858	4.434858e-15
42	0x313592e4	2.6422464e-09
43	0x32eac4b6	2.7330639e-08
44	0xa73d8102	-2.6298954e-15
45	0x36094704	2.0455927e-06
46	0xa7e45025	-6.3369605e-15
47	0xa9849b25	-5.888891e-14
48	0xb0dd1c2a	-1.6087871e-09
49	0xa9f1d154	-1.07388626e-13
50	0x2b8293a5	9.278035e-13
51	0x34b8e4a6	3.4439034e-07
52	0xa7a8c956	-4.6847656e-15
53	0xa81a4b18	-8.565001e-15

data_bn.running_mean f4 [54]
0	0x3be4a84f	0.0069780718
1	0xbd99014e	-0.07470952
2	0x3e822440	0.25418282
3	0x3c039e5e	0.008033363
4	0xbd3340e9	-0.043763075
5	0x3e7d2d10	0.24724221
6	0xbc0b8e48	-0.008517809
7	0xbd3f1513	-0.046650957
8	0x3e63c49d	0.22242971
9	0xbcc5df3b	-0.024154296
10	0xbcfa37c6	-0.030544173
11	0x3e6dc0b1	0.23218037
12	0xbcde2c11	-0.027120622
13	0xbd224ba3	-0.039622914
14	0x3e634c47	0.22197066
15	0x3cc8d4f6	0.02451561
16	0xbd26ff54	-0.040770844
17	0x3e68d8a8	0.22738898
18	0x3d108353	0.03528149
19	0xbcb10f97	-0.02161388
20	0x3e5eb7a6	0.21749744
21	0x3d112e0c	0.035444304
22	0xbcc3d328	-0.023904398
23	0x3e532d0e	0.20622656
24	0xbbd559ba	-0.0065109404
25	0x3c9943d6	0.018709105
26	0x3e3e7423	0.1859899
27	0xbcae640a	-0.021287937
28	0x3d087fa7	0.033324864
29	0x3e512c12	0.20426968
30	0xbbf95132	-0.007608556
31	0x3d8bfaf4	0.06834975
32	0x3e424f2e	0.18975517
33	0x3c655541	0.013997377
34	0x3cac5aed	0.02103945
35	0x3e3abed0	0.18236852
36	0x3cc32f09	0.023826139
37	0x3d10381b	0.035209756
38	0x3e4ce955	0.20010884
39	0x3c288228	0.010284938
40	0x3d8c9124	0.06863621
41	0x3e2e2959	0.1700796
42	0x3b88a8f1	0.00417053
43	0xbda4c398	-0.08045119
44	0x3e6d44d3	0.23170786
45	0x3c5bffe3	0.013427707
46	0xbda13b69	-0.0787266
47	0x3e83eb66	0.25765532
48	0x3bb3212c	0.005466601
49	0xbd2d02d2	-0.042239018
50	0x3de12cc0	0.109948635
51	0x3cb2956c	0.021799766
52	0xbd81cfeb	-0.06338485
53	0x3e4d22d8	0.20032823

data_bn.running_var f4 [54]
0	0x3ba25b9a	0.0049547674
1	0x3c48dc88	0.01225961
2	0x3da3bd66	0.07995109
3	0x3ba1b641	0.0049350564
4	0x3bdea406	0.0067944555
5	0x3d9aa97d	0.075518586
6	0x3bac3a0d	0.0052559436
7	0x3be6daeb	0.00704514
8	0x3d7a14ba	0.061054923
9	0x3bc69f5e	0.0060614785
10	0x3b9ca87c	0.004780827
11	0x3d91d7ae	0.07121216
12	0x3bdae4d4	0.0066801105
13	0x3be45e56	0.0069692535
14	0x3d842742	0.064528
15	0x3bb0fc38	0.0054011606
16	0x3bd7b528	0.006582875
17	0x3d828ba8	0.063742936
18	0x3bcb91fa	0.00621247
19	0x3b96d638	0.0046031736
20	0x3d81d44d	0.06339321
21	0x3be08e0a	0.00685287
22	0x3bdea30e	0.00679434
23	0x3d741200	0.05958748
24	0x3b99f338	0.0046981834
25	0x3b34e0e6	0.002759987
26	0x3d2fa1a8	0.042878777
27	0x3bb5e406	0.005550864
28	0x3b8be8f1	0.004269712
29	0x3d62aa52	0.05533821
30	0x3ba11e2a	0.004916926
31	0x3c01cebd	0.007922825
32	0x3d4a003d	0.049316633
33	0x3b99b0e4	0.0046902765
34	0x3b3db7f4	0.0028948756
35	0x3d303d71	0.043027345
36	0x3babc88f	0.0052424143
37	0x3b9d8f3f	0.004808336
38	0x3d62e17c	0.05539082
39	0x3b9ad95b	0.004725618
40	0x3c041080	0.0080605745
41	0x3d2e6bdd	0.042583335
42	0x3ba1ef0c	0.0049418267
43	0x3c5d2426	0.013497388
44	0x3d9e97b8	0.07743782
45	0x3ba5282d	0.0050401897
46	0x3c5ad21f	0.013355761
47	0x3da8e459	0.08246679
48	0x3baeb00c	0.005331045
49	0x3c27c6cc	0.010240268
50	0x3d39fdbd	0.045408
51	0x3bb72e1a	0.0055902125
52	0x3c2d0d12	0.010562198
53	0x3d7493a8	0.05971113

fai_gcn_networks.0.gcn.conv.weight f4 [96, 3, 1, 1]
0	0x02f12cfb	3.5437585e-37
1	0x000b2589	1.023656e-39
2	0x00022974	1.98542e-40
3	0x00000024	5e-44
4	0x0000003f	8.8e-44
5	0x00000054	1.18e-43
6	0x022d0f9a	1.271451e-37
7	0x81a806ef	-6.17234e-38
8	0x013695c1	3.3535564e-38
9	0x80000027	-5.5e-44
10	0x00000024	5e-44
11	0x00000026	5.3e-44
12	0x00000023	4.9e-44
13	0x80000023	-4.9e-44
14	0x80000023	-4.9e-44
15	0x80007440	-4.1703e-41
16	0x00002969	1.4855e-41
17	0x80003177	-1.7745e-41
18	0x00000026	5.3e-44
19	0x80000028	-5.6e-44
20	0x80000027	-5.5e-44
21	0x006b1e1f	9.837204e-39
22	0x00159731	1.982783e-39
23	0x003d784b	5.645118e-39
24	0x00000001	1e-45
25	0x8000013c	-4.43e-43
26	0x00000138	4.37e-43
27	0x80000023	-4.9e-44
28	0x80000023	-4.9e-44
29	0x00000024	5e-44
30	0x00002021	1.1526e-41
31	0x00003a0e	2.0826e-41
32	0x8000787c	-4.3222e-41
33	0x8f303165	-8.686983e-30
34	0x0e80cf78	3.175422e-30
35	0x0e056b6f	1.6445243e-30
36	0x00000199	5.73e-43
37	0x00000060	1.35e-43
38	0x000006ae	2.396e-42
39	0x00000026	5.3e-44
40	0x800000b4	-2.52e-43
41	0x00000088	1.9e-43
42	0x02280905	1.2345279e-37
43	0x054cdc39	9.6324824e-36
44	0x05119048	6.8443675e-36
45	0x01b855e1	6.7714155e-38
46	0x89e72359	-5.5644468e-33
47	0x010b0486	2.5533513e-38
48	0x018a5bb1	5.0824765e-38
49	0x802569a9	-3.435817e-39
50	0x8021a9ca	-3.09148e-39
51	0x00390d87	5.239476e-39
52	0x010a69ba	2.5422452e-38
53	0x00ba60e6	1.7116163e-38
54	0x00000042	9.2e-44
55	0x80000067	-1.44e-43
56	0x00000023	4.9e-44
57	0x80000027	-5.5e-44
58	0x00000024	5e-44
59	0x0000001e	4.2e-44
60	0x8dcd4dc7	-1.2652825e-30
61	0x8b10b5f8	-2.787029e-32
62	0x0bdc5dfd	8.4882335e-32
63	0x05df0a7e	2.0974673e-35
64	0x04c5fa03	4.6544077e-36
65	0x85aef944	-1.6454447e-35
66	0x00000026	5.3e-44
67	0x00000023	4.9e-44
68	0x80000023	-4.9e-44
69	0xa08a6e8e	-2.3451268e-19
70	0x9f007e70	-2.720964e-20
71	0x9b914afd	-2.4036698e-22
72	0x80000009	-1.3e-44
73	0x8000003a	-8.1e-44
74	0x80000070	-1.57e-43
75	0x002542ea	3.421918e-39
76	0x00043176	3.85085e-40
77	0x8020a243	-2.996944e-39
78	0x8000010e	-3.78e-43
79	0x00000031	6.9e-44
80	0x8000006d	-1.53e-43
81	0x0000c909	7.2118e-41
82	0x0000e844	8.3321e-41
83	0x00029199	2.35902e-40
84	0x00000023	4.9e-44
85	0x00000024	5e-44
86	0x00000023	4.9e-44
87	0x8000000f	-2.1e-44
88	0x800000b3	-2.51e-43
89	0x800001f1	-6.96e-43
90	0x80000023	-4.9e-44
91	0x00000023	4.9e-44
92	0x80000023	-4.9e-44
93	0x8008f82e	-8.23714e-40
94	0x8008f1a6	-8.21371e-40
95	0x8002e4fa	-2.65812e-40
96	0x8002cf1e	-2.5797e-40
97	0x000acc46	9.91634e-40
98	0x000370c1	3.15955e-40
99	0x80000047	-1e-43
100	0x00000028	5.6e-44
101	0x800000d1	-2.93e-43
102	0x02385bc0	1.3544516e-37
103	0x012ef014	3.2131e-38
104	0x80fa8ab9	-2.3008638e-38
105	0x80000024	-5e-44
106	0x00000024	5e-44
107	0x80000023	-4.9e-44
108	0x00000024	5e-44
109	0x0000002b	6e-44
110	0x80000027	-5.5e-44
111	0x80005685	-3.1037e-41
112	0x00000e85	5.209e-42
113	0x00008c05	5.023e-41
114	0x00000023	4.9e-44
115	0x80000023	-4.9e-44
116	0x00000023	4.9e-44
117	0x80232c15	-3.230056e-39
118	0x8048aef3	-6.674916e-39
119	0x8049b09a	-6.767344e-39
120	0x00000031	6.9e-44
121	0x800000eb	-3.3e-43
122	0x0000022e	7.82e-43
123	0x00000023	4.9e-44
124	0x00000025	5.2e-44
125	0x00000027	5.5e-44
126	0x80001099	-5.954e-42
127	0x0000972d	5.4232e-41
128	0x800002d7	-1.019e-42
129	0x0d953702	9.196077e-31
130	0x8d9bae64	-9.594596e-31
131	0x8cdf535a	-3.4408756e-31
132	0x800002a4	-9.47e-43
133	0x000008ae	3.114e-42
134	0x80001bdf	-9.998e-42
135	0x80000024	-5e-44
136	0x00000023	4.9e-44
137	0x8000002b	-6e-44
138	0x83e91efe	-1.3701625e-36
139	0x8384b30d	-7.799371e-37
140	0x85022df3	-6.12101e-36
141	0x8342952a	-5.718271e-37
142	0x832494db	-4.8366146e-37
143	0x8285f6bd	-1.9684214e-37
144	0x00977126	1.390775e-38
145	0x808cb875	-1.292314e-38
146	0x80c197f5	-1.7778763e-38
147	0x001fced4	2.921096e-39
148	0x81d6a7bd	-7.885188e-38
149	0x0124ba95	3.025591e-38
150	0x00000071	1.58e-43
151	0x00000020	4.5e-44
152	0x0000001f	4.3e-44
153	0x00000023	4.9e-44
154	0x80000024	-5e-44
155	0x80000023	-4.9e-44
156	0x8ced1722	-3.6529554e-31
157	0x8c165496	-1.1581034e-31
158	0x0aacf4d8	1.6655098e-32
159	0x0581b69d	1.2198183e-35
160	0x865d3874	-4.1606955e-35
161	0x04d7acd0	5.070496e-36
162	0x80000023	-4.9e-44
163	0x80000023	-4.9e-44
164	0x00000024	5e-44
165	0xa13307ff	-6.065814e-19
166	0x1cd67319	1.4191084e-21
167	0xa0b31fa2	-3.0344712e-19
168	0x0000001a	3.6e-44
169	0x0000000b	1.5e-44
170	0x00000238	7.96e-43
171	0x8017bd63	-2.180156e-39
172	0x0008c6af	8.05958e-40
173	0x800f1f4a	-1.388757e-39
174	0x00000014	2.8e-44
175	0x80000098	-2.13e-43
176	0x80000071	-1.58e-43
177	0x000122dc	1.0434e-40
178	0x8000e571	-8.2308e-41
179	0x000334d4	2.94458e-40
180	0x80000029	-5.7e-44
181	0x8000002b	-6e-44
182	0x80000023	-4.9e-44
183	0x8000001a	-3.6e-44
184	0x80000001	-1e-45
185	0x8000009c	-2.19e-43
186	0x80000023	-4.9e-44
187	0x80000023	-4.9e-44
188	0x0000002a	5.9e-44
189	0x000237a7	2.03635e-40
190	0x80018989	-1.41174e-40
191	0x8000fdf8	-9.1107e-41
192	0x0004dcd8	4.46566e-40
193	0x0005e104	5.39898e-40
194	0x80013da7	-1.13952e-40
195	0x80000024	-5e-44
196	0x00000025	5.2e-44
197	0x00000029	5.7e-44
198	0x82881e4c	-2.0000794e-37
199	0x00b45dc4	1.6564026e-38
200	0x00089fe2	7.92039e-40
201	0x00000023	4.9e-44
202	0x80000024	-5e-44
203	0x80000023	-4.9e-44
204	0x00000023	4.9e-44
205	0x00000023	4.9e-44
206	0x80000023	-4.9e-44
207	0x00001159	6.223e-42
208	0x000009e2	3.545e-42
209	0x80000072	-1.6e-43
210	0x80000023	-4.9e-44
211	0x00000023	4.9e-44
212	0x00000025	5.2e-44
213	0x8064d083	-9.25835e-39
214	0x00026be9	2.22382e-40
215	0x8000f774	-8.877e-41
216	0x00000022	4.8e-44
217	0x00000030	6.7e-44
218	0x000000f2	3.39e-43
219	0x00000023	4.9e-44
220	0x80000023	-4.9e-44
221	0x0000002c	6.2e-44
222	0x00000770	2.668e-42
223	0x000034d4	1.8951e-41
224	0x0000012f	4.25e-43
225	0x8cd6d7bf	-3.3101768e-31
226	0x8d02f77e	-4.035725e-31
227	0x0d330f65	5.5177164e-31
228	0x80000109	-3.71e-43
229	0x00000138	4.37e-43
230	0x00000057	1.22e-43
231	0x00000023	4.9e-44
232	0x0000002a	5.9e-44
233	0x0000002f	6.6e-44
234	0x824ac56b	-1.4897272e-37
235	0x041dd0f4	1.8551208e-36
236	0x05cb8ccb	1.9141747e-35
237	0x036ca25c	6.9540546e-37
238	0x82c1a991	-2.8456128e-37
239	0x00ecbcee	2.1740952e-38
240	0x01958134	5.4919353e-38
241	0x0021586d	3.062293e-39
242	0x80006b2f	-3.845e-41
243	0x810486c3	-2.4341258e-38
244	0x005e6153	8.66745e-39
245	0x81f50f1e	-9.002048e-38
246	0x00000029	5.7e-44
247	0x80000023	-4.9e-44
248	0x80000032	-7e-44
249	0x80000023	-4.9e-44
250	0x80000025	-5.2e-44
251	0x80000019	-3.5e-44
252	0x0895c2b8	9.0133895e-34
253	0x8b943aff	-5.7096294e-32
254	0x09535720	2.5439167e-33
255	0x84a223d2	-3.8118913e-36

fai_gcn_networks.0.gcn.conv.bias f4 [96]
0	0x80064b64	-5.78058e-40
1	0x80001345	-6.913e-42
2	0x0b749684	4.7105926e-32
3	0x80000041	-9.1e-44
4	0x00000025	5.2e-44
5	0x85a7a15e	-1.5763881e-35
6	0x00000044	9.5e-44
7	0x078a498d	2.0807161e-34
8	0x8014ea78	-1.920821e-39
9	0x80000024	-5e-44
10	0x86c8afb4	-7.548981e-35
11	0x9a8ee82b	-5.910491e-23
12	0x86093a48	-2.5809654e-35
13	0x80012f51	-1.0881e-40
14	0x8fc11ad5	-1.9041605e-29
15	0x8448c03b	-2.3598155e-36
16	0x0add7eca	2.1329219e-32
17	0x0b5c541f	4.2433744e-32
18	0x025b1083	1.6094318e-37
19	0x8000b5e8	-6.5256e-41
20	0x97ea3ffa	-1.5138046e-24
21	0x88a73e95	-1.006566e-33
22	0x0000017c	5.32e-43
23	0x288278a9	1.4485227e-14
24	0x800671a7	-5.91784e-40
25	0x09c2fdfd	4.694265e-33
26	0x82910ac8	-2.1312023e-37
27	0x00038e42	3.26539e-40
28	0x80000025	-5.2e-44
29	0x001a84b4	2.435328e-39
30	0x8000067d	-2.328e-42
31	0x0904a684	1.5967217e-33
32	0x00143a0b	1.857532e-39
33	0x00000376	1.242e-42
34	0x0c4c0088	1.5715748e-31
35	0x800000b3	-2.51e-43
36	0x0000000a	1.4e-44
37	0x8790c39c	-2.178168e-34
38	0x00000062	1.37e-43
39	0x89cdff97	-4.959231e-33
40	0x00329aab	4.647259e-39
41	0x00000026	5.3e-44
42	0x85da28dd	-2.0515632e-35
43	0x9b1e660b	-1.3102426e-22
44	0x05c59cf4	1.8583446e-35
45	0x8000f7ef	-8.8942e-41
46	0x0fe0eb79	2.2178806e-29
47	0x03682537	6.8221393e-37
48	0x89522cec	-2.5298953e-33
49	0x0ba00fbf	6.165345e-32
50	0x02572e33	1.5808964e-37
51	0x8001c23b	-1.61512e-40
52	0x17cedda9	1.3368393e-24
53	0x093bb991	2.259656e-33
54	0x8000013d	-4.44e-43
55	0x2a24f3cd	1.4650711e-13
56	0x00834dc9	1.2058354e-38
57	0x09045350	1.5928095e-33
58	0x0208d1a3	1.0051865e-37
59	0x80439f49	-6.210119e-39
60	0x00000022	4.8e-44
61	0x00b11bba	1.6264829e-38
62	0x800004c5	-1.711e-42
63	0x890e2eaf	-1.7114579e-33
64	0x80012f4a	-1.088e-40
65	0x000039cf	2.0738e-41
66	0x0c676357	1.7825487e-31
67	0x80000087	-1.89e-43
68	0x00000026	5.3e-44
69	0x86dfb47c	-8.4148475e-35
70	0x0000002b	6e-44
71	0x0a4f2b12	9.974788e-33
72	0x807ebb60	-1.163849e-38
73	0x00000076	1.65e-43
74	0x074d91b9	1.546531e-34
75	0x1ada35e3	9.0249745e-23
76	0x83e446b7	-1.3416871e-36
77	0x000211f9	1.90118e-40
78	0x0cac1df9	2.6518835e-31
79	0x8312a5b3	-4.3095757e-37
80	0x881c55aa	-4.704524e-34
81	0x8be14b31	-8.6779983e-32
82	0x8215da7d	-1.1009494e-37
83	0x80005b8c	-3.2841e-41
84	0x979717de	-9.764171e-25
85	0x083fbd5e	5.769957e-34
86	0x00000113	3.85e-43
87	0xaacc6bc8	-3.6312468e-13
88	0x00156a02	1.966574e-39
89	0x898df650	-3.4176146e-33
90	0x04033ea7	1.5427745e-36
91	0x0013f07c	1.831144e-39
92	0x8000009a	-2.16e-43
93	0x807b511b	-1.1324861e-38
94	0x000004b5	1.689e-42
95	0x09174fb6	1.8213444e-33

fai_gcn_networks.1.gcn.conv.weight f4 [192, 32, 1, 1]
0	0x8000030c	-1.093e-42
1	0x80000024	-5e-44
2	0x82815a95	-1.9006838e-37
3	0x8000000c	-1.7e-44
4	0x00000023	4.9e-44
5	0x800391b5	-3.27776e-40
6	0x00000023	4.9e-44
7	0x81aa495b	-6.25534e-38
8	0x00000065	1.42e-43
9	0x00000042	9.2e-44
10	0x00004376	2.42e-41
11	0x0f850aa2	1.3118908e-29
12	0x0d1c3e71	4.8146373e-31
13	0x00000023	4.9e-44
14	0x87d611a8	-3.2209519e-34
15	0x0212b01f	1.077693e-37
16	0x006bb052	9.88965e-39
17	0x82824b94	-1.9145163e-37
18	0x800004b5	-1.689e-42
19	0x80000021	-4.6e-44
20	0x10ef11d1	9.429633e-29
21	0x800c5e10	-1.135769e-39
22	0x00000024	5e-44
23	0x1ff12bee	1.02140146e-19
24	0x8000002a	-5.9e-44
25	0x005313d4	7.629459e-39
26	0x00000997	3.44e-42
27	0x82f8614e	-3.6496175e-37
28	0x00000027	5.5e-44
29	0x8000000b	-1.5e-44
30	0x8000002c	-6.2e-44
31	0x8010a5ff	-1.528916e-39
32	0x00000025	5.2e-44
33	0x00000023	4.9e-44
34	0x80000019	-3.5e-44
35	0x00000024	5e-44
36	0x0000002c	6.2e-44
37	0x8000002b	-6e-44
38	0x00000029	5.7e-44
39	0x00001462	7.312e-42
40	0x0000002a	5.9e-44
41	0x80000028	-5.6e-44
42	0x00000025	5.2e-44
43	0x0524b721	7.7448784e-36
44	0x00000025	5.2e-44
45	0x00000024	5e-44
46	0x003c3b48	5.531396e-39
47	0x000003ac	1.317e-42
48	0x8000003c	-8.4e-44
49	0x00003803	2.0093e-41
50	0x80000024	-5e-44
51	0x00000027	5.5e-44
52	0x0543a2c3	9.1987505e-36
53	0x00000023	4.9e-44
54	0x8000007c	-1.74e-43
55	0x94c4b001	-1.9860364e-26
56	0x0000002b	6e-44
57	0x80000030	-6.7e-44
58	0x80000023	-4.9e-44
59	0x800027de	-1.4302e-41
60	0x80000024	-5e-44
61	0x80000025	-5.2e-44
62	0x80000023	-4.9e-44
63	0x80000026	-5.3e-44
64	0x800006f4	-2.494e-42
65	0x00000025	5.2e-44
66	0x01a476c3	6.04145e-38
67	0x00000023	4.9e-44
68	0x8000002c	-6.2e-44
69	0x80001f06	-1.1129e-41
70	0x80000023	-4.9e-44
71	0x0000f9f6	8.9669e-41
72	0x80000010	-2.2e-44
73	0x00000025	5.2e-44
74	0x80004dcd	-2.791e-41
75	0x0cfde9b4	3.9121477e-31
76	0x80000b89	-4.138e-42
77	0x80000023	-4.9e-44
78	0x8518e554	-7.1891266e-36
79	0x004ae8bc	6.879316e-39
80	0x0006853f	5.98813e-40
81	0x00aeee7a	1.6064926e-38
82	0x0000006b	1.5e-43
83	0x00000023	4.9e-44
84	0x8e0e34d2	-1.7528283e-30
85	0x000774be	6.84728e-40
86	0x8000002a	-5.9e-44
87	0x1c2627d7	5.4976284e-22
88	0x80000027	-5.5e-44
89	0x0001a8a9	1.5234e-40
90	0x000000a1	2.26e-43
91	0x013d038f	3.471637e-38
92	0x00000023	4.9e-44
93	0x80000023	-4.9e-44
94	0x00000023	4.9e-44
95	0x0000e5f2	8.2489e-41
96	0x80000023	-4.9e-44
97	0x80000023	-4.9e-44
98	0x80000025	-5.2e-44
99	0x8000002b	-6e-44
100	0x00000023	4.9e-44
101	0x0000002c	6.2e-44
102	0x00000024	5e-44
103	0x80000023	-4.9e-44
104	0x80000023	-4.9e-44
105	0x00000024	5e-44
106	0x00000023	4.9e-44
107	0x8000b87c	-6.618e-41
108	0x80000025	-5.2e-44
109	0x80000023	-4.9e-44
110	0x8000026e	-8.72e-43
111	0x80000023	-4.9e-44
112	0x00000023	4.9e-44
113	0x8000003b	-8.3e-44
114	0x00000033	7.1e-44
115	0x00000024	5e-44
116	0x30196723	5.580764e-10
117	0x80000024	-5e-44
118	0x0000002b	6e-44
119	0x8d03a3d9	-4.0564716e-31
120	0x80000025	-5.2e-44
121	0x000000a4	2.3e-43
122	0x00000025	5.2e-44
123	0x0000002b	6e-44
124	0x80000023	-4.9e-44
125	0x80000023	-4.9e-44
126	0x00000023	4.9e-44
127	0x00000023	4.9e-44
128	0x00000026	5.3e-44
129	0x80000028	-5.6e-44
130	0x00116766	1.598296e-39
131	0x00000023	4.9e-44
132	0x00000026	5.3e-44
133	0x0000164c	7.999e-42
134	0x80000023	-4.9e-44
135	0x80050874	-4.6221e-40
136	0x00000024	5e-44
137	0x80000024	-5e-44
138	0x00000fa7	5.615e-42
139	0x0b1fa3ec	3.0745607e-32
140	0x005ca74d	8.508882e-39
141	0x00000023	4.9e-44
142	0x8317031d	-4.4378486e-37
143	0x00012aba	1.07163e-40
144	0x00011f11	1.0298e-40
145	0x00936c93	1.3538767e-38
146	0x80000004	-6e-45
147	0x80000024	-5e-44
148	0x0bb736ac	7.0571297e-32
149	0x800089c8	-4.9427e-41
150	0x80000023	-4.9e-44
151	0x1c44f937	6.5173063e-22
152	0x00000024	5e-44
153	0x00000eee	5.356e-42
154	0x0000003b	8.3e-44
155	0x00370baf	5.055144e-39
156	0x0000002a	5.9e-44
157	0x80000025	-5.2e-44
158	0x00000024	5e-44
159	0x80004e17	-2.8013e-41
160	0x80000023	-4.9e-44
161	0x8000005e	-1.32e-43
162	0x00000023	4.9e-44
163	0x00000023	4.9e-44
164	0x80000023	-4.9e-44
165	0x80000023	-4.9e-44
166	0x00000024	5e-44
167	0x00000023	4.9e-44
168	0x00000023	4.9e-44
169	0x80000023	-4.9e-44
170	0x80000025	-5.2e-44
171	0x00000023	4.9e-44
172	0x8000005b	-1.28e-43
173	0x00000025	5.2e-44
174	0x035791ae	6.3350053e-37
175	0x00000023	4.9e-44
176	0x00000023	4.9e-44
177	0x03219c19	4.749284e-37
178	0x00000023	4.9e-44
179	0x00000023	4.9e-44
180	0x0000000f	2.1e-44
181	0x80000045	-9.7e-44
182	0x00000023	4.9e-44
183	0x800033a1	-1.8521e-41
184	0x80000024	-5e-44
185	0x80000023	-4.9e-44
186	0x1e15a927	7.922974e-21
187	0x00000015	3e-44
188	0x00000023	4.9e-44
189	0x00000023	4.9e-44
190	0x8000002b	-6e-44
191	0x80000023	-4.9e-44
192	0x8000001e	-4.2e-44
193	0x80000023	-4.9e-44
194	0x00168d34	2.071035e-39
195	0x00000023	4.9e-44
196	0x000000b0	2.47e-43
197	0x0000010f	3.8e-43
198	0x80000025	-5.2e-44
199	0x0003e939	3.59171e-40
200	0x8000001c	-3.9e-44
201	0x00000004	6e-45
202	0x00000693	2.358e-42
203	0x0b9c4d37	6.0205194e-32
204	0x000000ad	2.42e-43
205	0x80000024	-5e-44
206	0x03f77042	1.4543128e-36
207	0x00016248	1.27092e-40
208	0x8004c43a	-4.37735e-40
209	0x805a7da4	-8.310266e-39
210	0x0000000e	2e-44
211	0x00000025	5.2e-44
212	0x0b62f2af	4.3708592e-32
213	0x80001af4	-9.669e-42
214	0x00000023	4.9e-44
215	0x9c0be2a3	-4.6284163e-22
216	0x80000007	-1e-44
217	0x00008a8c	4.9701e-41
218	0x00000063	1.39e-43
219	0x001a34ce	2.406666e-39
220	0x80000025	-5.2e-44
221	0x8000004d	-1.08e-43
222	0x80000024	-5e-44
223	0x00008fda	5.1604e-41
224	0x80000026	-5.3e-44
225	0x80000023	-4.9e-44
226	0x000f2f65	1.394534e-39
227	0x00000023	4.9e-44
228	0x80000025	-5.2e-44
229	0x80000023	-4.9e-44
230	0x80000023	-4.9e-44
231	0x00000035	7.4e-44
232	0x80000025	-5.2e-44
233	0x00000023	4.9e-44
234	0x00000023	4.9e-44
235	0x0b1a2969	2.9690475e-32
236	0x00000029	5.7e-44
237	0x00000025	5.2e-44
238	0x001531f1	1.946461e-39
239	0x0000001d	4e-44
240	0x00000f1d	5.422e-42
241	0x00003ced	2.1856e-41
242	0x00000023	4.9e-44
243	0x00000023	4.9e-44
244	0x884dfbb1	-6.1985805e-34
245	0x80000114	-3.87e-43
246	0x80000024	-5e-44
247	0x99ae7c40	-1.8041362e-23
248	0x80000023	-4.9e-44
249	0x80000578	-1.962e-42
250	0x80000024	-5e-44
251	0x80003017	-1.7251e-41
252	0x00000025	5.2e-44
253	0x0000001d	4e-44
254	0x80000019	-3.5e-44
255	0x80000527	-1.848e-42

fai_gcn_networks.1.gcn.conv.bias f4 [192]
0	0x35c8ecef	1.4970118e-06
1	0x2b3d2622	6.719921e-13
2	0x332d7f74	4.039562e-08
3	0x22135d11	1.9971484e-18
4	0x31ddb2d3	6.4522765e-09
5	0x9188e05e	-2.1595294e-28
6	0x31d13507	6.088729e-09
7	0x319f04d5	4.6280584e-09
8	0x1d6cc27d	3.1334888e-21
9	0x9b2df973	-1.4390826e-22
10	0x0e52fece	2.6007182e-30
11	0x131e7c14	2.0003579e-27
12	0x1312d06e	1.8530555e-27
13	0x220f571f	1.9426235e-18
14	0x3154d40e	3.09706e-09
15	0x34a51681	3.075002e-07
16	0x34c34460	3.637133e-07
17	0x348a0e15	2.571475e-07
18	0x902c8d0b	-3.4029674e-29
19	0x120c0b53	4.419017e-28
20	0x925f86c5	-7.053251e-28
21	0x2d5781a5	1.2250122e-11
22	0x14897abc	1.3881875e-26
23	0x2b63122a	8.067181e-13
24	0x92beaaec	-1.2032821e-27
25	0x36b750e1	5.4632405e-06
26	0x94ba9e88	-1.884373e-26
27	0x9920309b	-8.281622e-24
28	0x2e5a1311	4.9584396e-11
29	0x2b78afef	8.8351456e-13
30	0x36d78127	6.4225346e-06
31	0x3847370f	4.7496575e-05
32	0x16d30c60	3.4096698e-25
33	0x269bb3ce	1.0804022e-15
34	0x0fb34ab5	1.7679539e-29
35	0x12cf965e	1.3100605e-27
36	0x9562f818	-4.5836048e-26
37	0x121920e4	4.831883e-28
38	0x13f39b38	6.149488e-27
39	0x1e88b433	1.4474089e-20
40	0xa157f942	-7.3174723e-19
41	0x133ac0ce	2.357156e-27
42	0x157c3645	5.0933806e-26
43	0x16911def	2.3444904e-25
44	0x0ef94154	6.1446148e-30
45	0x10aa641f	6.720744e-29
46	0x29df8292	9.92584e-14
47	0x2ee7143d	1.0508259e-10
48	0x3418fdaa	1.4248386e-07
49	0x93a3fbf7	-4.139544e-27
50	0x140bda6f	7.060785e-27
51	0x134cb078	2.5835426e-27
52	0x9182cd81	-2.0637035e-28
53	0x2d89c8d3	1.566428e-11
54	0x32fd6b63	2.950191e-08
55	0x2ba9b95b	1.2059619e-12
56	0x35bec957	1.4214701e-06
57	0x36c6803b	5.915788e-06
58	0x11404d4c	1.5169948e-28
59	0x95950d2e	-6.0201415e-26
60	0x97849530	-8.56796e-25
61	0x2e0d2ca4	3.2099337e-11
62	0x31a3e2f7	4.7697273e-09
63	0x21928177	9.927614e-19
64	0x362f39df	2.6110717e-06
65	0x2ba8ea5c	1.2002166e-12
66	0x339684cd	7.0090756e-08
67	0x228597c0	3.6210394e-18
68	0x32459b91	1.1502281e-08
69	0x126ebf26	7.5335167e-28
70	0x3236864d	1.0624331e-08
71	0x31de6ed6	6.473651e-09
72	0x1c656824	7.5904343e-22
73	0x1ba468ee	2.7199333e-22
74	0x91832ee8	-2.0697064e-28
75	0x95404813	-3.8830948e-26
76	0x94186919	-7.694766e-27
77	0xa0955d0a	-2.530315e-19
78	0x31ba30c1	5.418855e-09
79	0x3511bd2c	5.429199e-07
80	0x352bbe52	6.3979417e-07
81	0x34ef2f2a	4.4551535e-07
82	0x8fc1479b	-1.9058851e-29
83	0x94dc8eb5	-2.2270611e-26
84	0x1228b40b	5.3233373e-28
85	0x2dbeb541	2.1680992e-11
86	0x14c7bb83	2.0167825e-26
87	0x2b9a8667	1.0979662e-12
88	0x9503e0d0	-2.6632585e-26
89	0x3721d171	9.645112e-06
90	0x147fe0dd	1.29185564e-26
91	0x9a53f87d	-4.3834505e-23
92	0x2ec2ef4e	8.864608e-11
93	0x2bdd5cd6	1.5728762e-12
94	0x3738dbec	1.1018459e-05
95	0x38aef0e8	8.341839e-05
96	0x16b44035	2.9121089e-25
97	0x26dd09aa	1.5337575e-15
98	0x0e9cd43c	3.8661343e-30
99	0x94b22569	-1.7988163e-26
100	0x151e3366	3.1948392e-26
101	0x12a5d823	1.0466246e-27
102	0x1342112f	2.4494715e-27
103	0x1eee057f	2.5201503e-20
104	0xa082e8ba	-2.2176862e-19
105	0x131b4cc0	1.9601591e-27
106	0x15e3988a	9.1925234e-26
107	0x168a2a48	2.2321786e-25
108	0x90939b10	-5.822019e-29
109	0x10b60f6f	7.181012e-29
110	0x2a4811fa	1.7769805e-13
111	0x2f4c5984	1.8585494e-10
112	0x348566bb	2.4847927e-07
113	0x9453060b	-1.06539694e-26
114	0x11065937	1.0598228e-28
115	0x930fccc1	-1.8150089e-27
116	0x12573fda	6.792074e-28
117	0x2df476b5	2.7792305e-11
118	0x335e9ce1	5.1831083e-08
119	0x2c15779f	2.1240577e-12
120	0x36270692	2.4888764e-06
121	0x372c5658	1.0272102e-05
122	0x92356ac6	-5.724514e-28
123	0x9504aa3e	-2.6791485e-26
124	0x1814f78d	1.9253533e-24
125	0x2e78bccf	5.6556367e-11
126	0x32110bce	8.442795e-09
127	0x22047ee0	1.7956503e-18
128	0x34d9f56e	4.0597973e-07
129	0x2a4dc8c4	1.8277312e-13
130	0x3242610a	1.131435e-08
131	0x2104ebd9	4.503548e-19
132	0x30f30913	1.7683156e-09
133	0x110161eb	1.0206479e-28
134	0x30eb437b	1.711768e-09
135	0x300268c5	4.744261e-10
136	0x1cda3a8c	1.4441164e-21
137	0x9c6d1108	-7.8438734e-22
138	0x116174a6	1.7785315e-28
139	0x94ec5624	-2.3863887e-26
140	0x132240a7	2.047915e-27
141	0x2201aa0e	1.7572786e-18
142	0x306f15ee	8.697886e-10
143	0x33b36813	8.354268e-08
144	0x33d37ca8	9.848128e-08
145	0x33992e61	7.133054e-08
146	0x90aefbde	-6.901896e-29
147	0x14300c0b	8.888104e-27
148	0x92e99343	-1.474067e-27
149	0x2c6e9fe6	3.3910596e-12
150	0x939391e3	-3.7251872e-27
151	0x2aa2b906	2.8905367e-13
152	0x14909b53	1.4601549e-26
153	0x35c098e6	1.4349614e-06
154	0x9450c9b8	-1.0541098e-26
155	0x9a21e475	-3.3478566e-23
156	0x2d708b48	1.3673347e-11
157	0x2a87c517	2.4117576e-13
158	0x35eb927c	1.7551497e-06
159	0x374cc013	1.2204068e-05
160	0x160585dc	1.0785893e-25
161	0xa787eb3e	-3.7725077e-15
162	0x8f51e71f	-1.0349008e-29
163	0x961f1b9b	-1.2852628e-25
164	0x95e84379	-9.3810507e-26
165	0x92ba0ebd	-1.1741884e-27
166	0x153eccc0	3.8531714e-26
167	0x1caa1f18	1.1257694e-21
168	0xa26ce920	-3.210738e-18
169	0x147ec64c	1.286283e-26
170	0x150edaa6	2.8849155e-26
171	0x147eb763	1.28598895e-26
172	0x119b2740	2.4478878e-28
173	0x0f8c1fca	1.381731e-29
174	0x28efd0f7	2.6624954e-14
175	0x2e00d7a0	2.9295344e-11
176	0x332905a1	3.93535e-08
177	0x942f350d	-8.8457046e-27
178	0x15510633	4.2212104e-26
179	0x939a654c	-3.897495e-27
180	0x929bfb56	-9.843834e-28
181	0x2c98a612	4.3385373e-12
182	0x320c0121	8.149329e-09
183	0x2abb931d	3.3319953e-13
184	0x34cdabaf	3.8309142e-07
185	0x35d5832b	1.5907912e-06
186	0x12b8103d	1.1616036e-27
187	0x97208427	-5.186559e-25
188	0x97ec1689	-1.5256831e-24
189	0x2d1ddf8e	8.974056e-12
190	0x30b5873e	1.3207921e-09
191	0x207fac11	2.1656272e-19

fai_gcn_networks.1.residual.0.weight f4 [64, 32, 1, 1]
0	0xbbc6003e	-0.0060425093
1	0x3c8918da	0.016735483
2	0x3b2eea5b	0.002668998
3	0x3d1bcc6f	0.03803676
4	0x3bd63c70	0.0065379664
5	0x3c4a8fd3	0.012363392
6	0xbc23a010	-0.009986892
7	0xbcabe52d	-0.020983303
8	0xbb9de56d	-0.0048186095
9	0xbcbf8200	-0.023377419
10	0x3cece533	0.028917884
11	0xbbb6822d	-0.0055697174
12	0xbc788cb3	-0.015170264
13	0x3d011184	0.031510845
14	0xbcf1c123	-0.02951104
15	0xbaa3d5cd	-0.0012499631
16	0xbcac52c4	-0.02103556
17	0x3cd5dd0b	0.026106378
18	0xbbc1fb37	-0.0059198397
19	0xbc52f0e1	-0.012874813
20	0xbc43bee1	-0.011947365
21	0x3c3fcdb5	0.011706759
22	0xbc1b123b	-0.009464796
23	0xbb3dc601	-0.002895713
24	0xbb0119f2	-0.0019699303
25	0x3c0e3ae7	0.008681036
26	0x3aac87b2	0.0013162999
27	0x3b8be184	0.004268827
28	0xbc8d689a	-0.017261792
29	0xbc6882be	-0.014191328
30	0x3cd60947	0.02612747
31	0x3c888376	0.016664248
32	0x3c235970	0.009970054
33	0xb8bccf89	-9.003195e-05
34	0xbcd57ab3	-0.026059484
35	0xbc2f629d	-0.010704664
36	0xbc2698cb	-0.010168265
37	0x3d08942f	0.033344444
38	0x3c8e567c	0.017375223
39	0x3b7a78a5	0.0038218882
40	0xbb0cef3e	-0.0021504904
41	0x3d20a7a7	0.039222386
42	0x3c108db0	0.008822843
43	0x3c331f1c	0.01093271
44	0x3c3fc34d	0.011704278
45	0xbd1d9822	-0.038475163
46	0xbba9a9e2	-0.0051777223
47	0xbd022524	-0.0317737
48	0xbc147e83	-0.009063366
49	0xbccae204	-0.024765976
50	0x3c386c6e	0.01125632
51	0x3cad6ac1	0.021169068
52	0x3c2deb5d	0.010615197
53	0xbca7eace	-0.020497706
54	0x3b5bbb5c	0.0033528423
55	0x3c231ee0	0.009956092
56	0x3aeceff5	0.0018076884
57	0xbc4c8b0e	-0.012484325
58	0x3b93726e	0.004499725
59	0x3c692933	0.014231014
60	0xbc0b3bac	-0.008498114
61	0xbd0392a9	-0.032122288
62	0xbb9d130d	-0.004793531
63	0x3c903b99	0.017606543
64	0x3d803662	0.06260373
65	0xbd0d1fc1	-0.03445411
66	0x3cc2d2b0	0.023782104
67	0x3c2f07d7	0.0106830215
68	0xba9a0837	-0.0011751716
69	0xbc2b7886	-0.010465747
70	0xbc1c3c74	-0.0095358975
71	0xbcb605e7	-0.022219611
72	0x39c34d0e	0.0003725071
73	0xbb42cc7b	-0.002972393
74	0x3d196be6	0.037456416
75	0xba654ff0	-0.00087475684
76	0x3c0a9682	0.008458735
77	0xbc36140b	-0.011113177
78	0xbbe699d4	-0.0070373807
79	0x3bca06bd	0.006165354
80	0x3ccbaf6e	0.024863925
81	0xbc1d6e12	-0.009608762
82	0x3d1e9e34	0.038725093
83	0x3cbdf3ce	0.023187544
84	0xbbb207f8	-0.005433079
85	0xbc49f44b	-0.01232631
86	0x3c0e27d6	0.00867649
87	0xbadd89e7	-0.001690206
88	0x3c8ce608	0.017199531
89	0x3cc3ea9e	0.023915585
90	0xbce1d261	-0.027566137
91	0xbb75ac65	-0.0037486788
92	0xbc012a20	-0.007883579
93	0x3cd14faa	0.025550682
94	0xbc453f9e	-0.012039093
95	0x3cd8f860	0.026485622
96	0x3c6353b7	0.01387494
97	0x3c482efc	0.012218233
98	0x3bf8b287	0.0075896415
99	0x3cc8a5a6	0.02449305
100	0x3c342655	0.010995467
101	0xbcbdb060	-0.023155391
102	0xbc8b88c7	-0.017032994
103	0x3c6e4bdb	0.014544453
104	0x3cc60ec6	0.024176966
105	0xbcc648e6	-0.024204683
106	0x3c3dadbe	0.011577068
107	0xbc2fbf98	-0.010726832
108	0x3c8cb622	0.017176691
109	0x3c74768b	0.014920841
110	0xbc8dc12e	-0.01730403
111	0xbcbc68b0	-0.022999138
112	0x3cd12dac	0.025534473
113	0xbcdb054a	-0.02673592
114	0xbc6a504c	-0.014301371
115	0xbc081002	-0.008304598
116	0x3bafb9cf	0.0053627263
117	0x3bfb6162	0.007671521
118	0x3d219cab	0.03945605
119	0x3b6195af	0.0034421494
120	0x3c9bf5cf	0.01903811
121	0x3cf65b34	0.030072786
122	0xbd199e6d	-0.037504602
123	0xbb0c7b46	-0.0021435781
124	0x3cc7670a	0.024341125
125	0x3ce1410c	0.027496837
126	0x3c17dc33	0.009268808
127	0x3d126368	0.035739332
128	0x3cc50fb0	0.024055332
129	0x3cb3c2d4	0.021943487
130	0x3c2891b7	0.010288647
131	0x3c636ef8	0.0138814375
132	0x3c5174d0	0.012784198
133	0xbb74987e	-0.0037322338
134	0x3c1bb087	0.009502537
135	0xbc87f5e4	-0.016596742
136	0x3cbd5c86	0.023115408
137	0x3cb40581	0.02197528
138	0x3c83d342	0.016091947
139	0xbcfda112	-0.030960593
140	0x3b458fd9	0.0030145554
141	0x3c0fa9e0	0.008768529
142	0x3a8b539a	0.0010629774
143	0xbcf2e595	-0.029650489
144	0x3c35fc5d	0.011107531
145	0x3b6f5837	0.0036521086
146	0xbc4feb90	-0.01269044
147	0xbc9c622b	-0.019089779
148	0xbb3cad39	-0.0028789772
149	0xbc402f78	-0.011730067
150	0xbb0d7050	-0.0021581836
151	0x3c896cc4	0.016775496
152	0xbcf596c9	-0.029979127
153	0xbb11a3f9	-0.002222298
154	0x3c9cfe9d	0.019164378
155	0xbbd99769	-0.006640364
156	0xbb0d8028	-0.002159128
157	0x3d1ba9dd	0.03800379
158	0x3c0d65d5	0.008630236
159	0x3c41c96e	0.01182781
160	0x3caa61e4	0.020798631
161	0xbc4024d7	-0.011727533
162	0x3c8e4485	0.017366657
163	0xbb39c624	-0.002834686
164	0x3c3244cb	0.010880659
165	0x3c930d44	0.017950661
166	0x3c5bb054	0.013408739
167	0x3cd32c1e	0.025777873
168	0x3c1b98af	0.009496852
169	0xbbe21286	-0.006899181
170	0x3c64fb42	0.01397592
171	0xbcaef4d3	-0.021356976
172	0xbce8ec6a	-0.028433044
173	0x3bacb505	0.0052706026
174	0xbc8f3599	-0.017481612
175	0x3c5e5b9c	0.013571646
176	0x3c107178	0.008816116
177	0x3cd3caf3	0.02585361
178	0xbd5ecc58	-0.054394096
179	0xba2c9c99	-0.0006584614
180	0x3cf1c66b	0.029513558
181	0x3b378be4	0.0028006965
182	0x3b89e58e	0.0042082733
183	0x3cdfdea5	0.027327845
184	0xbb55a525	-0.0032599655
185	0x3c68b063	0.01420221
186	0x3ae9adae	0.001782825
187	0x3d1c6cf0	0.03818983
188	0x3b278646	0.002556221
189	0x3b6e721d	0.0036383935
190	0xbc145db4	-0.009055544
191	0x3b892f84	0.0041865725
192	0x3c86c21a	0.016449977
193	0x3bff434e	0.0077900058
194	0x3ba672c4	0.005079599
195	0x3be01501	0.0068384414
196	0x39878717	0.00025849856
197	0xbc4e7bfb	-0.012602801
198	0x3c45a5fe	0.012063501
199	0xbcb0eeb9	-0.021598207
200	0xbd008ab4	-0.031382278
201	0xbc305186	-0.010761624
202	0x3c2f6302	0.010704758
203	0xba434db2	-0.0007450237
204	0xbd4882d8	-0.048952907
205	0x3c1466f5	0.00905775
206	0xbcf7f430	-0.030267805
207	0xbc152366	-0.009102678
208	0xbc975fa2	-0.018478218
209	0x3af25adc	0.0018490213
210	0x3d3100d2	0.043213673
211	0xbbc92852	-0.0061388398
212	0xbabdb0d0	-0.001447225
213	0x3d1ab7fd	0.03777312
214	0xbc1861a6	-0.009300625
215	0x3cb8b50b	0.022547266
216	0xbc49ea15	-0.012323876
217	0xbd0829a1	-0.033242825
218	0x3c009a79	0.007849329
219	0x3c8f1456	0.017465752
220	0xbc42d281	-0.011891008
221	0xbb2ed373	-0.0026676327
222	0xbc08a886	-0.00834096
223	0x3ccac0b5	0.024750093
224	0x3ce830f4	0.028343655
225	0xbadf22b9	-0.0017023898
226	0x3c3efcfb	0.011656995
227	0x3cda87c1	0.02667606
228	0xbc88b76b	-0.016689023
229	0xb951ca29	-0.00020007104
230	0x3c0bcd00	0.0085327625
231	0xbc9ea2ac	-0.019364677
232	0xba4cae57	-0.0007807961
233	0xbbb75ce9	-0.0055957926
234	0x3d34255b	0.043980937
235	0xbc1268fe	-0.008936165
236	0x3d021e0c	0.031766936
237	0x3c6aee79	0.014339083
238	0xbb97d94e	-0.004634059
239	0x3bbca270	0.0057566687
240	0x3d03d9e2	0.03219021
241	0xbc5b06cb	-0.013368319
242	0xbc303c73	-0.0107566
243	0xbce0e492	-0.02745274
244	0x3b24a589	0.002512308
245	0x3cac8fa1	0.021064581
246	0xbcb05abb	-0.021527639
247	0x3976109e	0.00023466579
248	0xbbd12219	-0.0063822386
249	0x3c1d6e4f	0.009608819
250	0xbbfa9445	-0.0076470696
251	0x3c4fd2dd	0.012684551
252	0xbbea2abc	-0.0071462076
253	0x3bc3e3bc	0.005978076
254	0xbc979ee4	-0.018508382
255	0xbc265885	-0.010152941

fai_gcn_networks.1.residual.0.bias f4 [64]
0	0x00000000	0.0
1	0x00000000	0.0
2	0x00000000	0.0
3	0x00000000	0.0
4	0x00000000	0.0
5	0x00000000	0.0
6	0x00000000	0.0
7	0x00000000	0.0
8	0x00000000	0.0
9	0x00000000	0.0
10	0x00000000	0.0
11	0x00000000	0.0
12	0x00000000	0.0
13	0x00000000	0.0
14	0x00000000	0.0
15	0x00000000	0.0
16	0x00000000	0.0
17	0x00000000	0.0
18	0x00000000	0.0
19	0x00000000	0.0
20	0x00000000	0.0
21	0x00000000	0.0
22	0x00000000	0.0
23	0x00000000	0.0
24	0x00000000	0.0
25	0x00000000	0.0
26	0x00000000	0.0
27	0x00000000	0.0
28	0x00000000	0.0
29	0x00000000	0.0
30	0x00000000	0.0
31	0x00000000	0.0
32	0x00000000	0.0
33	0x00000000	0.0
34	0x00000000	0.0
35	0x00000000	0.0
36	0x00000000	0.0
37	0x00000000	0.0
38	0x00000000	0.0
39	0x00000000	0.0
40	0x00000000	0.0
41	0x00000000	0.0
42	0x00000000	0.0
43	0x00000000	0.0
44	0x00000000	0.0
45	0x00000000	0.0
46	0x00000000	0.0
47	0x00000000	0.0
48	0x00000000	0.0
49	0x00000000	0.0
50	0x00000000	0.0
51	0x00000000	0.0
52	0x00000000	0.0
53	0x00000000	0.0
54	0x00000000	0.0
55	0x00000000	0.0
56	0x00000000	0.0
57	0x00000000	0.0
58	0x00000000	0.0
59	0x00000000	0.0
60	0x00000000	0.0
61	0x00000000	0.0
62	0x00000000	0.0
63	0x00000000	0.0

fai_gcn_networks.1.residual.1.weight f4 [64]
0	0x3f7dcc8e	0.9914025
1	0x3f7c8d85	0.9865344
2	0x3f7fe946	0.9996532
3	0x3f7972cb	0.97440785
4	0x3f829ec3	1.02047
5	0x3f7c62ef	0.9858846
6	0x3f8084ee	1.0040567
7	0x3f7da431	0.9907866
8	0x3f7f3c97	0.9970183
9	0x3f7e12b3	0.9924728
10	0x3f7ee11e	0.9956225
11	0x3f7cfc17	0.9882216
12	0x3f7c38d8	0.98524237
13	0x3f7cd896	0.98767984
14	0x3f81bf1f	1.013645
15	0x3f800749	1.0002223
16	0x3f81607c	1.010757
17	0x3f822043	1.0166095
18	0x3f836873	1.026625
19	0x3f822a29	1.0169116
20	0x3f812701	1.0090028
21	0x3f7fc3ec	0.9990833
22	0x3f7c3e15	0.9853223
23	0x3f8074fc	1.0035701
24	0x3f840e92	1.0316947
25	0x3f80bdea	1.0057957
26	0x3f7d89b8	0.9903827
27	0x3f80390b	1.0017408
28	0x3f806fec	1.0034156
29	0x3f7d347c	0.9890821
30	0x3f80a86e	1.0051401
31	0x3f7f2be8	0.9967637
32	0x3f80ab60	1.00523
33	0x3f7e2801	0.9927979
34	0x3f792f96	0.97338235
35	0x3f81c4f3	1.0138229
36	0x3f7a385c	0.9774225
37	0x3f840af3	1.0315841
38	0x3f7e637c	0.9937055
39	0x3f7aa0ad	0.9790142
40	0x3f7a4e76	0.9777597
41	0x3f7fd267	0.99930423
42	0x3f80e269	1.0069095
43	0x3f7ff2f3	0.99980086
44	0x3f7f32ed	0.9968708
45	0x3f822935	1.0168825
46	0x3f7a2763	0.9771635
47	0x3f80200d	1.0009781
48	0x3f7aa98d	0.97914964
49	0x3f86ca24	1.0530438
50	0x3f810aef	1.0081462
51	0x3f815a9f	1.010578
52	0x3f7f6fa9	0.99779755
53	0x3f834809	1.0256358
54	0x3f7d7045	0.98999435
55	0x3f8395dc	1.0280108
56	0x3f817ca3	1.0116161
57	0x3f83e70c	1.0304885
58	0x3f74d899	0.95643
59	0x3f7a39ef	0.9774465
60	0x3f7d9896	0.9906095
61	0x3f7f92d4	0.99833417
62	0x3f7ccbcf	0.9874849
63	0x3f81e1c3	1.0147022

fai_gcn_networks.1.residual.1.bias f4 [64]
0	0x00000000	0.0
1	0x00000000	0.0
2	0x00000000	0.0
3	0x00000000	0.0
4	0x00000000	0.0
5	0x00000000	0.0
6	0x00000000	0.0
7	0x00000000	0.0
8	0x00000000	0.0
9	0x00000000	0.0
10	0x00000000	0.0
11	0x00000000	0.0
12	0x00000000	0.0
13	0x00000000	0.0
14	0x00000000	0.0
15	0x00000000	0.0
16	0x00000000	0.0
17	0x00000000	0.0
18	0x00000000	0.0
19	0x00000000	0.0
20	0x00000000	0.0
21	0x00000000	0.0
22	0x00000000	0.0
23	0x00000000	0.0
24	0x00000000	0.0
25	0x00000000	0.0
26	0x00000000	0.0
27	0x00000000	0.0
28	0x00000000	0.0
29	0x00000000	0.0
30	0x00000000	0.0
31	0x00000000	0.0
32	0x00000000	0.0
33	0x00000000	0.0
34	0x00000000	0.0
35	0x00000000	0.0
36	0x00000000	0.0
37	0x00000000	0.0
38	0x00000000	0.0
39	0x00000000	0.0
40	0x00000000	0.0
41	0x00000000	0.0
42	0x00000000	0.0
43	0x00000000	0.0
44	0x00000000	0.0
45	0x00000000	0.0
46	0x00000000	0.0
47	0x00000000	0.0
48	0x00000000	0.0
49	0x00000000	0.0
50	0x00000000	0.0
51	0x00000000	0.0
52	0x00000000	0.0
53	0x00000000	0.0
54	0x00000000	0.0
55	0x00000000	0.0
56	0x00000000	0.0
57	0x00000000	0.0
58	0x00000000	0.0
59	0x00000000	0.0
60	0x00000000	0.0
61	0x00000000	0.0
62	0x00000000	0.0
63	0x00000000	0.0

fai_gcn_networks.1.residual.1.running_mean f4 [64]
0	0xa4847558	-5.744466e-17
1	0x2563b5d7	1.9750721e-16
2	0xa41aa141	-3.3530014e-17
3	0x249d7435	6.828476e-17
4	0x25bfd70b	3.3278937e-16
5	0x261c41c3	5.4212496e-16
6	0x2600ec15	4.472887e-16
7	0x22abbfad	4.6552588e-18
8	0x2618b1f5	5.297677e-16
9	0x25ade2ca	3.0164394e-16
10	0x25d49c84	3.6882197e-16
11	0x26481a6e	6.942476e-16
12	0x246d97c1	5.1519724e-17
13	0xa4e50337	-9.9318365e-17
14	0x262e41c3	6.04575e-16
15	0xa5447579	-1.7040091e-16
16	0xa604d3dd	-4.608383e-16
17	0xa5b8171a	-3.1934566e-16
18	0xa59a807a	-2.68018e-16
19	0xa54920b6	-1.7445054e-16
20	0x25db89e9	3.8083896e-16
21	0xa5f3ac22	-4.2270422e-16
22	0xa5118dd4	-1.2624798e-16
23	0xa506aba0	-1.1680796e-16
24	0x258c41fd	2.4330844e-16
25	0x25af25ba	3.0383225e-16
26	0xa28037f1	-3.47537e-18
27	0x260278ef	4.5266706e-16
28	0xa5194bd6	-1.3296329e-16
29	0x25617324	1.955465e-16
30	0x25b762a5	3.1812284e-16
31	0x250e5501	1.2345337e-16
32	0x25b57ad5	3.148173e-16
33	0xa645dd68	-6.8648166e-16
34	0xa545603c	-1.7119632e-16
35	0xa46e0a27	-5.1616623e-17
36	0xa5942a9e	-2.5702786e-16
37	0x26091808	4.756399e-16
38	0xa5720c5a	-2.0994339e-16
39	0x252416a5	1.4232405e-16
40	0xa5019e92	-1.1242692e-16
41	0x26242660	5.695094e-16
42	0x25ad70b9	3.00871e-16
43	0x2585272e	2.3098371e-16
44	0xa60f8054	-4.978701e-16
45	0x24e8984d	1.0087197e-16
46	0x26034f5b	4.55573e-16
47	0x256d6fb0	2.0594314e-16
48	0x25af4684	3.0405444e-16
49	0xa3ec9d2e	-2.565374e-17
50	0xa64b0ee6	-7.0449964e-16
51	0xa56b0fc1	-2.0388338e-16
52	0xa620bbff	-5.5765933e-16
53	0x2230fb71	2.398556e-18
54	0x233e75db	1.03248775e-17
55	0xa56cdb1e	-2.0543977e-16
56	0x259fff3a	2.7755052e-16
57	0xa6507d95	-7.233469e-16
58	0x264f0e45	7.183689e-16
59	0xa5b3f6cf	-3.1218794e-16
60	0xa5762e63	-2.1352815e-16
61	0xa55f68c9	-1.937767e-16
62	0xa6728c12	-8.4150447e-16
63	0xa57479ff	-2.120496e-16

fai_gcn_networks.1.residual.1.running_var f4 [64]
0	0x09b3c857	4.328108e-33
1	0x0b84d457	5.1164044e-32
2	0x08f5016c	1.4745735e-33
3	0x09fe0954	6.1157048e-33
4	0x0c3c8e03	1.4525728e-31
5	0x0cfa3046	3.8547652e-31
6	0x0caa4fc5	2.6240657e-31
7	0x061720df	2.8424093e-35
8	0x0ceee9a9	3.6810335e-31
9	0x0c1ae9b5	1.1934057e-31
10	0x0c6798be	1.7841557e-31
11	0x0d4d25e2	6.32161e-31
12	0x09909bed	3.481337e-33
13	0x0a865a61	1.2937727e-32
14	0x0d1b931e	4.794015e-31
15	0x0b45be5b	3.8084027e-32
16	0x0cb4c94f	2.785455e-31
17	0x0c2da0da	1.337584e-31
18	0x0bf49997	9.421648e-32
19	0x0b4f410c	3.9915686e-32
20	0x0c76ef2b	1.9023123e-31
21	0x0c981abb	2.3435396e-31
22	0x0ad916b4	2.090488e-32
23	0x0ab9d662	1.7895494e-32
24	0x0bc993ee	7.7644964e-32
25	0x0c1d2b33	1.210784e-31
26	0x05a8751f	1.5841668e-35
27	0x0cae6e97	2.6875504e-31
28	0x0af0cc27	2.3187953e-32
29	0x0b82348d	5.015325e-32
30	0x0c2c4d18	1.3273598e-31
31	0x0acf958e	1.9989631e-32
32	0x0c28bd37	1.2999189e-31
33	0x0d489585	6.1809736e-31
34	0x0b479808	3.8440381e-32
35	0x0991274f	3.4944446e-33
36	0x0be0f399	8.6648187e-32
37	0x0cc0960d	2.9672592e-31
38	0x0b961560	5.781006e-32
39	0x0b09f2a8	2.6567795e-32
40	0x0aac28a2	1.6578282e-32
41	0x0d0a0d1d	4.254032e-31
42	0x0c1a1ebf	1.1872981e-31
43	0x0bb5ac64	6.997805e-32
44	0x0cd30240	3.2511052e-31
45	0x0a8a96d6	1.3345655e-32
46	0x0cb0adc6	2.722168e-31
47	0x0b906b2e	5.562805e-32
48	0x0c1d6615	1.2125559e-31
49	0x088f6b85	8.631777e-34
50	0x0d53406a	6.509693e-31
51	0x0b8d8b53	5.4520856e-32
52	0x0d045db3	4.0788427e-31
53	0x05207a9e	7.545685e-36
54	0x0739da37	1.3981981e-34
55	0x0b8fb6a6	5.5356415e-32
56	0x0c032780	1.010376e-31
57	0x0d5eb4bb	6.862658e-31
58	0x0d5ba6b3	6.768524e-31
59	0x0c25eea8	1.2782956e-31
60	0x0b9b40a6	5.98011e-32
61	0x0b7fb7de	4.924954e-32
62	0x0d96b3ee	9.28778e-31
63	0x0b991c29	5.8975827e-32
