capsule-6073072/code/work_dir/recognition/kinetics_skeleton/FAI_GCN/epoch230_model.pt (torch, 74070 bytes, 22 tensors)

A f4 [3, 18, 18]
00000000: 0000 803e 0000 0000 0000 0000 0000 0000
00000010: 0000 0000 0000 0000 0000 0000 0000 0000
00000020: 0000 0000 0000 0000 0000 0000 0000 0000
00000030: 0000 0000 0000 0000 0000 0000 0000 0000
00000040: 0000 0000 0000 0000 0000 0000 0000 803e
00000050: 0000 0000 0000 0000 0000 0000 0000 0000
00000060: 0000 0000 0000 0000 0000 0000 0000 0000
00000070: 0000 0000 0000 0000 0000 0000 0000 0000
00000080: 0000 0000 0000 0000 0000 0000 0000 0000
00000090: 0000 0000 0000 0000 0000 803e 0000 0000
000000a0: 0000 0000 0000 0000 0000 0000 0000 0000
000000b0: 0000 0000 0000 0000 0000 0000 0000 0000
000000c0: 0000 0000 0000 0000 0000 0000 0000 0000
000000d0: 0000 0000 0000 0000 0000 0000 0000 0000
000000e0: 0000 0000 abaa aa3e 0000 0000 0000 0000
000000f0: 0000 0000 0000 0000 0000 0000 0000 0000
00000100: 0000 0000 0000 0000 0000 0000 0000 0000
00000110: 0000 0000 0000 0000 0000 0000 0000 0000
00000120: 0000 0000 0000 0000 0000 0000 0000 0000
00000130: 0000 003f 0000 0000 0000 0000 0000 0000
00000140: 0000 0000 0000 0000 0000 0000 0000 0000
00000150: 0000 0000 0000 0000 0000 0000 0000 0000
00000160: 0000 0000 0000 0000 0000 0000 0000 0000
00000170: 0000 0000 0000 0000 0000 0000 0000 803e
00000180: 0000 0000 0000 0000 0000 0000 0000 0000
00000190: 0000 0000 0000 0000 0000 0000 0000 0000
000001a0: 0000 0000 0000 0000 0000 0000 0000 0000
000001b0: 0000 0000 0000 0000 0000 0000 0000 0000
000001c0: 0000 0000 0000 0000 abaa aa3e 0000 0000
000001d0: 0000 0000 0000 0000 0000 0000 0000 0000
000001e0: 0000 0000 0000 0000 0000 0000 0000 0000
000001f0: 0000 0000 0000 0000 0000 0000 0000 0000
00000200: 0000 0000 0000 0000 0000 0000 0000 0000
00000210: 0000 0000 0000 003f 0000 0000 0000 0000
00000220: 0000 0000 0000 0000 0000 0000 0000 0000
00000230: 0000 0000 0000 0000 0000 0000 0000 0000
00000240: 0000 0000 0000 0000 0000 0000 0000 0000
00000250: 0000 0000 0000 0000 0000 0000 0000 0000
00000260: abaa aa3e 0000 0000 0000 0000 0000 0000
00000270: 0000 0000 0000 0000 0000 0000 0000 0000
00000280: 0000 0000 0000 0000 0000 0000 0000 0000
00000290: 0000 0000 0000 0000 0000 0000 0000 0000
000002a0: 0000 0000 0000 0000 0000 0000 abaa aa3e
000002b0: 0000 0000 0000 0000 0000 0000 0000 0000
000002c0: 0000 0000 0000 0000 0000 0000 0000 0000
000002d0: 0000 0000 0000 0000 0000 0000 0000 0000
000002e0: 0000 0000 0000 0000 0000 0000 0000 0000
000002f0: 0000 0000 0000 0000 0000 003f 0000 0000
00000300: 0000 0000 0000 0000 0000 0000 0000 0000
00000310: 0000 0000 0000 0000 0000 0000 0000 0000
00000320: 0000 0000 0000 0000 0000 0000 0000 0000
00000330: 0000 0000 0000 0000 0000 0000 0000 0000
00000340: 0000 0000 abaa aa3e 0000 0000 0000 0000
00000350: 0000 0000 0000 0000 0000 0000 0000 0000
00000360: 0000 0000 0000 0000 0000 0000 0000 0000
00000370: 0000 0000 0000 0000 0000 0000 0000 0000
00000380: 0000 0000 0000 0000 0000 0000 0000 0000
00000390: abaa aa3e 0000 0000 0000 0000 0000 0000
000003a0: 0000 0000 0000 0000 0000 0000 0000 0000
000003b0: 0000 0000 0000 0000 0000 0000 0000 0000
000003c0: 0000 0000 0000 0000 0000 0000 0000 0000
000003d0: 0000 0000 0000 0000 0000 0000 0000 003f
000003e0: 0000 0000 0000 0000 0000 0000 0000 0000
000003f0: 0000 0000 0000 0000 0000 0000 0000 0000
0.25 0.0 0.0 0.0 0.0 0.0 0.0 0.0
0.0 0.0 0.0 0.0 0.0 0.0 0.0 0.0
0.0 0.0 0.0 0.25 0.0 0.0 0.0 0.0
0.0 0.0 0.0 0.0 0.0 0.0 0.0 0.0
0.0 0.0 0.0 0.0 0.0 0.0 0.25 0.0
0.0 0.0 0.0 0.0 0.0 0.0 0.0 0.0
0.0 0.0 0.0 0.0 0.0 0.0 0.0 0.0
0.0 0.33333334 0.0 0.0 0.0 0.0 0.0 0.0
0.0 0.0 0.0 0.0 0.0 0.0 0.0 0.0
0.0 0.0 0.0 0.0 0.5 0.0 0.0 0.0
0.0 0.0 0.0 0.0 0.0 0.0 0.0 0.0
0.0 0.0 0.0 0.0 0.0 0.0 0.0 0.25
0.0 0.0 0.0 0.0 0.0 0.0 0.0 0.0
0.0 0.0 0.0 0.0 0.0 0.0 0.0 0.0
0.0 0.0 0.33333334 0.0 0.0 0.0 0.0 0.0
0.0 0.0 0.0 0.0 0.0 0.0 0.0 0.0
0.0 0.0 0.0 0.0 0.0 0.5 0.0 0.0
0.0 0.0 0.0 0.0 0.0 0.0 0.0 0.0
0.0 0.0 0.0 0.0 0.0 0.0 0.0 0.0
0.33333334 0.0 0.0 0.0 0.0 0.0 0.0 0.0
0.0 0.0 0.0 0.0 0.0 0.0 0.0 0.0
0.0 0.0 0.0 0.33333334 0.0 0.0 0.0 0.0
0.0 0.0 0.0 0.0 0.0 0.0 0.0 0.0
0.0 0.0 0.0 0.0 0.0 0.0 0.5 0.0
0.0 0.0 0.0 0.0 0.0 0.0 0.0 0.0
0.0 0.0 0.0 0.0 0.0 0.0 0.0 0.0
0.0 0.33333334 0.0 0.0 0.0 0.0 0.0 0.0
0.0 0.0 0.0 0.0 0.0 0.0 0.0 0.0
0.0 0.0 0.0 0.0 0.33333334 0.0 0.0 0.0
0.0 0.0 0.0 0.0 0.0 0.0 0.0 0.0
0.0 0.0 0.0 0.0 0.0 0.0 0.0 0.5
0.0 0.0 0.0 0.0 0.0 0.0 0.0 0.0

data_bn.weight f4 [54]
00000000: 0fa7 443f aa7f 3d3f efab 483f a020 403f
00000010: 6dfd 3c3f a149 4b3f 650c 403f a561 413f
00000020: 2a85 3e3f 4a2b 473f f30b 433f 8200 483f
00000030: aa5a 443f 0cdf 493f 768a 3c3f 7978 453f
00000040: 5f8c 403f f17d 483f caf5 413f b9e8 443f
00000050: 8ff3 433f fe3d 3a3f eea0 453f 73b8 3e3f
00000060: 4c09 473f 99b0 463f 7a17 433f 00a9 373f
00000070: 0836 483f 2242 423f 6cd7 3f3f be57 473f
00000080: 90c5 453f a601 463f 3aa1 433f 1d38 493f
00000090: 2f62 453f 350f 403f a06d 403f a956 493f
000000a0: 4701 323f 424a 403f e5f7 433f 95e5 323f
000000b0: af55 443f 4a59 3e3f ff8c 403f 3799 463f
000000c0: 64da 3e3f cfae 463f 64b0 4c3f 1b38 423f
000000d0: 0e06 443f 1acd 483f
0.7681741 0.74022925 0.7838735 0.7504978 0.738242 0.79409224 0.7501891 0.7553962
0.7442194 0.7780043 0.7619011 0.78125775 0.7670084 0.7885597 0.73648775 0.7713695
0.7521419 0.7831717 0.7576567 0.76917607 0.76543516 0.7275084 0.77198684 0.745002
0.7774856 0.77613217 0.762077 0.7174225 0.78207445 0.7588216 0.7493808 0.7786826
0.7725458 0.77346265 0.7641789 0.7860125 0.7710294 0.75023204 0.75167274 0.7864786
0.695332 0.7511331 0.7655013 0.69881564 0.7669324 0.74354994 0.7521514 0.7757754
0.7455199 0.77610487 0.7995665 0.7586686 0.7657174 0.7843796

data_bn.bias f4 [54]
00000000: d3b6 749f 7504 c532 0106 db20 017e 932a
00000010: e406 5937 2157 5cb5 65d6 f99f 186b b030
00000020: fa32 ec20 b3ee a732 4f1f 3731 63aa 8020
00000030: 29ee ea37 499a a032 65e6 192f a86a f99f
00000040: 3b00 0bb2 351d c820 5a8d 8227 79d1 0e36
00000050: f804 7a20 70c2 8eb7 c280 c22e 58e8 e728
00000060: 31f9 f6ac fa32 2b20 9d6e 57a0 b53a 7e9d
00000070: 6758 5635 b1e7 94aa fb3b 329e 8b17 4eb1
00000080: 15d3 482a 6e99 92ac 4522 8120 7ca6 93a0
00000090: d740 959d aac1 b535 1a20 4da6 fcbe 019e
000000a0: 5944 e832 b145 a32b 828d 69a6 b5b3 0635
000000b0: 48bc 8720 a1fb 0fa5 8718 8336 7d4e 9e20
000000c0: 0032 10b7 b026 99af 5caf 482d 1b5d b737
000000d0: ddbc 0833 437f 482d
-5.182024e-20 2.2935845e-08 3.7104016e-19 2.6199878e-13 1.2935812e-05 -8.2083176e-07 -1.0581029e-19 1.2836123e-09
4.0013689e-19 1.9549907e-08 2.6647802e-09 2.1796796e-19 2.8005876e-05 1.8696612e-08 1.3997122e-10 -1.0563205e-19
-8.090917e-09 3.3900645e-19 3.62355e-15 2.1281578e-06 2.1177468e-19 -1.7018261e-05 8.8449706e-11 2.5746915e-14
-7.0194063e-12 1.450113e-19 -1.8247807e-19 -3.364697e-21 7.9849855e-07 -2.645085e-13 -9.435645e-21 -2.9990328e-09
1.7836802e-13 -4.1666037e-12 2.1876128e-19 -2.501294e-19 -3.9507014e-21 1.3541915e-06 -7.116717e-16 -6.868698e-21
2.7039436e-08 1.160119e-12 -8.1029893e-16 5.01804e-07 2.2994484e-19 -1.2488528e-16 3.9069596e-06 2.681818e-19
-8.59471e-06 -2.7858027e-10 1.1407621e-11 2.1858656e-05 3.1836738e-08 1.13969416e-11

data_bn.running_mean f4 [54]
00000000: 0b34 033d ee07 0cbe 6086 b93e 77cd 123d
00000010: a34a c6bd 4488 b13e 41ac 863c 7029 cebd
00000020: 94cc 9a3e d160 b2bb 49b2 a7bd d99c 9f3e
00000030: 37bb 70bc d764 a2bd 1cb4 a23e b123 623d
00000040: 5173 bdbd ded2 9f3e f805 853d 6dee 92bd
00000050: aacd 983e e962 873d 7327 82bd 6dd4 933e
00000060: 2998 6e3c 84e1 5ebc 745c 853e 4eb4 2fbb
00000070: cd2c 303c fcbb 923e 1419 393c e6c0 693d
00000080: c351 923e db42 263d d886 39bc 9c70 863e
00000090: 91ee 593d 7583 5a3c 2a64 943e 8ef0 2c3d
000000a0: 273f 743d 2e14 903e 7824 003d 2a9d 12be
000000b0: e105 9b3e c7b7 293d 82cc 0fbe c10c b93e
000000c0: adbd 2b3d cc48 8cbd e094 953d 5212 663d
000000d0: c620 f5bd 7ac9 9d3e
0.032032054 -0.136749 0.36235332 0.035840478 -0.096822046 0.34674275 0.016439559 -0.10066497
0.30234206 -0.0054436703 -0.08188302 0.31174353 -0.014693073 -0.0792939 0.31778038 0.05520982
-0.092505105 0.31215566 0.06495279 -0.07174382 0.2984441 0.066106625 -0.063551806 0.28873006
0.014562645 -0.013603572 0.260471 -0.002681035 0.010752869 0.28659046 0.011297483 0.057068728
0.28578004 0.040591102 -0.011323653 0.2625779 0.05320603 0.013337006 0.2898267 0.0422216
0.05963054 0.28140396 0.03128478 -0.14317766 0.30277923 0.04143503 -0.14042857 0.36142543
0.041928936 -0.068498224 0.07303786 0.056169815 -0.11969142 0.30817777

data_bn.running_var f4 [54]
00000000: d990 823b ca64 803c d891 d83d 88c2 873b
00000010: 529d 253c c20f c73d b229 803b 9ed4 2d3c
00000020: 2c53 953d c873 953b 7a43 153c 2202 ab3d
00000030: 4c06 aa3b 9813 233c 7e35 b73d 5f24 a93b
00000040: eefc 1f3c a0a5 9f3d 08a6 d53b 7718 113c
00000050: 3440 a83d 5ea7 023c 44a4 163c 6a82 ad3d
00000060: 6292 943b 052a c03b 74cf 673d 248b b13b
00000070: 30aa a93b aa69 9c3d d564 b53b d5c7 213c
00000080: 3ccc 993d 8c0b a03b 7cf7 cb3b 02ce 673d
00000090: c9d6 d03b 486e d23b 931c 993d fece b53b
000000a0: ad47 2d3c ba83 883d 3b47 7d3b e653 913c
000000b0: dbaf bd3d 21bc 8d3b b501 853c a606 d73d
000000c0: e8d7 993b 172e 2f3c fd80 a33c c255 a63b
000000d0: 3c45 4e3c bbde b33d
0.0039845523 0.01567306 0.105746925 0.004143063 0.010108309 0.097198024 0.0039112205 0.010609774
0.072912544 0.0045609213 0.009110326 0.08350016 0.005188739 0.009953402 0.0894575 0.0051618065
0.009764893 0.07795262 0.0065200366 0.0088559305 0.08215371 0.007974474 0.009194437 0.0847214
0.0045340518 0.005864384 0.056594327 0.005418198 0.0051777586 0.07637341 0.0055357018 0.009874304
0.07509658 0.004884189 0.006224571 0.05659295 0.0063732606 0.006421838 0.07476153 0.005548357
0.010576171 0.0666575 0.0038647193 0.017740201 0.092620574 0.004325405 0.016236166 0.10499315
0.0046949275 0.010692141 0.019958967 0.005076141 0.012589749 0.08782717

fai_gcn_networks.0.gcn.conv.weight f4 [96, 3, 1, 1]
00000000: 40fe 85a3 57da a7a5 be9c 3622 b9ea ca28
00000010: 7051 7e29 66e4 92a9 8551 9e24 84e7 f3a4
00000020: 244d a2a5 3d2c 2d26 ee51 072f c87e 3a27
00000030: 2d77 0eab 4508 0a2a b833 96aa 1f9d 63a0
00000040: 4396 36a2 caaa 429d f0f1 5c21 6905 bc21
00000050: 646b e8a2 3f84 0fa8 a3dc 43a7 fd57 7926
00000060: dbf5 b1a9 03f2 17aa 0cf9 2830 1115 27a6
00000070: 80ee 8729 bf1e 1828 c26c f5a1 98ab 73a4
00000080: 75fb 68a4 3cdc baae 4e6a ec2d 7a22 e32c
00000090: 70d0 a021 e8df e6a2 974f 3b20 ccb4 e6a2
000000a0: b25e 2aa3 3642 92a3 4aac 84a0 e7fb b224
000000b0: e909 1622 af0d c4a2 faaf 03a0 887b 0bae
000000c0: ab40 4b21 ff62 51a2 d08e f320 db33 ca26
000000d0: 94c1 1226 a783 86a6 0786 ff21 b31e ae1f
000000e0: 9bc7 5422 d117 6725 18db a427 3919 dc24
000000f0: fd8e b5a9 5ee2 d429 f0d7 c8af 9371 45a3
00000100: 1814 60a5 525b a4a4 613a d5ae 3622 9529
00000110: be66 e2a6 b968 ac2a d63b dca8 dc0d d5a8
00000120: 77fa 8d2a 2f05 87ab f5bc 9bab 886f 5ca7
00000130: d11e ad26 13e3 3d30 557c 3f26 fc6f 2aa7
00000140: 56ec 6726 de2b 902b 5636 9a2c 63d3 13ab
00000150: e729 e59d 4a50 409e 812e 039d 1641 9926
00000160: 61d2 93ac 7e8f 5926 ebd2 baa8 f2ff 18a4
00000170: faba f0a5 5d82 9120 bb62 0d20 5d22 cd9f
00000180: 6ebf 2d23 cea2 fda3 1911 a0a2 55d5 e728
00000190: 3a1e c729 ad98 d2aa 1271 4025 13a5 6b25
000001a0: 40b9 c5a4 b74b bea7 c030 e327 b988 1aa5
000001b0: 010e 71ab 02a4 f42b 8292 97aa 5181 8d1f
000001c0: 95bc f49f 73d4 a19c 1d51 4ea0 aad4 0e21
000001d0: 27ab 56a2 9901 dba9 c53d 9aa7 ee28 2526
000001e0: c89e 222a 4a78 392b 90e2 4b2b 5377 2e2a
000001f0: 0edd abaa 851f c428 0d7e cf24 0ecf b5a5
00000200: b612 1ea3 867d 97ac 11b1 d02e 8a72 4b2f
00000210: cdfb 8d21 fad4 c0a1 fbc2 0f1e 1871 dca3
00000220: 4e6e 3b22 f242 9ca0 35f6 26a0 e7d3 2d22
00000230: f560 1fa0 7872 95a3 03c5 cfa4 1a8e a5a2
00000240: 7acd e220 16fe 0923 b5f3 3c20 9691 4f26
00000250: 0bf1 c827 cab5 e425 894d 49a3 a46b 0c24
00000260: 539d 92a1 cc8d 8ba7 f467 3a28 1d84 ac25
00000270: 34ba 912a c33b b22a dfbf 30ab d11c 0ba3
00000280: aff3 24a4 45c9 53a2 7602 1daa 162a 09a9
00000290: 5a26 8fa6 1daf bd28 44ad d129 5713 2faa
000002a0: 402b f8aa a19f 64ab 1075 212d 13cb ae26
000002b0: 1fb1 30a7 b9b0 aba7 1c30 b230 ef80 9a26
000002c0: 9f10 25ae 5787 0c2c 3ff2 18af 76dd a6aa
000002d0: 8de4 9d9e 7622 8c9f cd0a 819c 6284 1226
000002e0: 9454 2626 87b8 e6a5 4bb5 2b27 cfe4 b1a6
000002f0: 3f80 eda6 efb6 821d 7ab4 1920 1a93 869e
00000300: 766a 42a6 4622 4f25 e9dc 3524 26ef 1328
00000310: ad08 3e29 20e4 65a9 edb3 2e25 adbb f6a4
00000320: c29a 3824 1f22 b426 f06f 86a6 31c3 4aa6
00000330: 9d75 cc2a f561 2e2b 7c8b eaa9 2069 a29e
00000340: 1995 7120 ea61 2f1f f621 68a2 80df 7723
00000350: 7489 79a4 89bb 13a8 0ee9 bba5 85e0 0027
00000360: 746a 2a29 6a10 632a c689 922a ec15 9ea7
00000370: 8c8f f2a8 fae5 fe27 43d1 c3a2 441a 0ba6
00000380: 7a71 9923 f9c0 2e2d 7bfe 792d 9fa8 e6ac
00000390: 83b8 60a1 ffad 37a3 af9d 93a1 ef52 7ea1
000003a0: 9fb8 cd21 bfbe 0da4 b38b d79f cb93 aea3
000003b0: af1d fb22 6b2d 9721 e0d5 c121 1943 aca3
000003c0: cc1a 5fa0 919c 1ca3 9661 f621 c223 1a26
000003d0: 7c12 5525 f6c4 5526 982f 19a1 0f25 88a3
000003e0: e874 8023 daf0 98a6 ab2b fba5 0566 c5a5
000003f0: 1ed0 79ab 445c 212a ff6a b1a9 8029 7ba4
-1.4527568e-17 -2.9117835e-16 2.4748578e-18 2.25283e-14 5.6469965e-14 -6.523323e-14 6.865968e-17 -1.05776654e-16
-2.8154793e-16 6.0081386e-16 1.2307286e-10 2.5881414e-15 -5.0613924e-13 1.2259731e-13 -2.668124e-13 -1.9279635e-19
-2.4745147e-18 -2.5763982e-21 7.48591e-19 1.2740808e-18 -6.299743e-18 -7.966771e-15 -2.7181294e-15 8.6508475e-16
-7.903028e-14 -1.3495459e-13 6.147196e-10 -5.7968314e-16 6.0365775e-14 8.444362e-15 -1.6630634e-18 -5.283757e-17
-5.0519973e-17 -8.497422e-11 2.6877302e-11 6.4555557e-12 1.0897195e-18 -6.2578695e-18 1.586585e-19 -6.253305e-18
-9.235771e-18 -1.5857393e-17 -2.247568e-19 7.7621934e-17 2.0334037e-18 -5.3140395e-18 -1.1154357e-19 -3.171466e-11
6.8864663e-19 -2.837719e-18 4.1260307e-19 1.4030621e-15 5.0916273e-16 -9.333802e-16 1.7314949e-18 7.3742654e-20
2.8837028e-18 2.0044125e-16 4.5756686e-15 9.545252e-17 -8.062819e-14 9.45396e-14 -3.653322e-10 -1.0703442e-17
-1.9435711e-16 -7.1278365e-17 -9.696489e-11 6.622864e-14 -1.5709749e-15 3.0626004e-13 -2.4450856e-14 -2.3653761e-14
2.5220426e-13 -9.593766e-13 -1.1065859e-12 -3.0591594e-15 1.2012639e-15 6.908049e-10 6.643494e-16 -2.3652946e-15
8.046452e-16 1.0243991e-12 4.3829758e-12 -5.251825e-13 -6.065912e-21 -1.0180999e-20 -1.7361748e-21 1.0634149e-15
-4.201348e-12 7.5481467e-16 -2.074162e-14 -3.317654e-17 -4.1760064e-16 2.4650223e-19 1.1975832e-19 -8.6877726e-20
9.418886e-18 -2.7499265e-17 -4.338619e-18 2.573867e-14 8.842619e-14 -3.7409434e-13 1.6691655e-16 2.043893e-16
-8.574896e-17 -5.2817684e-15 6.305801e-15 -1.3403694e-16 -8.5639834e-13 1.7382764e-12 -2.6924648e-13 5.992976e-20
-1.0365e-19 -1.0709003e-21 -1.7475717e-19 4.839293e-19 -2.9093015e-18 -9.725831e-14 -4.2810557e-15 5.7301345e-16
1.4443579e-13 6.589214e-13 7.2434506e-13 1.5495703e-13 -3.052909e-13 2.177404e-14 8.998548e-17 -3.15388e-16
-8.569159e-18 -4.305614e-12 9.490198e-11 1.8503435e-10 9.621183e-19 -1.30668e-18 7.610678e-21 -2.3900345e-17
2.540162e-18 -2.6471729e-19 -1.414221e-19 2.3558052e-18 -1.3499904e-19 -1.6203092e-17 -9.010569e-17 -4.4873795e-18
3.8421862e-19 7.48059e-18 1.6004855e-19 7.201486e-16 5.577249e-15 3.967488e-16 -1.09126505e-17 3.0448836e-17
-9.934988e-19 -3.8733987e-15 1.0347615e-14 2.9926767e-16 2.5886379e-13 3.166062e-13 -6.2794035e-13 -7.541307e-18
-3.576824e-17 -2.8702384e-18 -1.3945255e-13 -3.0456615e-14 -9.933013e-16 2.1059158e-14 9.311521e-14 -1.5549832e-13
-4.408366e-13 -8.12234e-13 9.1777835e-12 1.2128719e-15 -2.4520924e-15 -4.7653637e-15 1.2964878e-09 1.0720844e-15
-3.753142e-11 1.9970325e-12 -1.3910383e-10 -2.9641193e-13 -1.6717548e-20 -5.934932e-20 -8.539296e-22 5.083334e-16
5.7707444e-16 -4.002368e-16 2.3829296e-15 -1.2343861e-15 -1.647994e-15 3.4599862e-21 1.3019319e-19 -1.4248642e-20
-6.745155e-16 1.7966e-16 3.9435237e-17 8.211996e-15 4.2196e-14 -5.104608e-14 1.5153055e-16 -1.0700343e-16
4.0029725e-17 1.2499258e-15 -9.328459e-16 -7.034736e-16 3.631929e-13 6.195316e-13 -1.0415884e-13 -1.7195896e-20
2.0462826e-19 3.7138684e-20 -3.1459842e-18 1.3437225e-17 -5.4109696e-17 -8.2008044e-15 -3.2597253e-16 1.788528e-15
3.7839916e-14 2.0167345e-13 2.603041e-13 -4.3877577e-15 -2.692965e-14 7.0748503e-15 -5.307642e-18 -4.826091e-16
1.6636352e-17 9.933603e-12 1.4210517e-11 -6.555714e-12 -7.613835e-19 -9.957295e-18 -1.0002846e-18 -8.616831e-19
1.3940209e-18 -3.073607e-17 -9.1287155e-20 -1.892771e-17 6.8065115e-18 1.024418e-18 1.3134801e-18 -1.8676694e-17
-1.8897701e-19 -8.489931e-18 1.6695439e-18 5.3477944e-16 1.8481068e-16 7.416615e-16 -5.1901406e-19 -1.4760844e-17
1.39273e-17 -1.0612402e-15 -4.357115e-16 -3.4243184e-16 -8.875139e-13 1.4331684e-13 -7.87894e-14 -5.44621e-17

fai_gcn_networks.0.gcn.conv.bias f4 [96]
00000000: 7783 22ae cc5e b4aa 63a7 0f28 76f7 7a26
00000010: 3b4f e4ab 9156 d42b 7dba e02d 4f1d 4eaa
00000020: d57e 3cac 36f6 4329 1329 5fae 7d9e 3a2f
00000030: d50f a6ac fa40 08ad 7804 15ad ce08 1aa6
00000040: 4a0b 01ad 3cc0 ae2a d442 112e fa97 2e27
00000050: a66d 662b 422d 7fae 3f84 a2a9 faf1 55ab
00000060: 131e 222e 6772 d9a7 8d85 29a8 120e a62a
00000070: 46a8 cea8 ebdb 39a8 b826 28ae 4e58 d7a9
00000080: 6334 78ae 9b82 bfaa a5a0 8827 dfa1 7e24
00000090: fa62 85ac 6881 4faa b529 8bad 557e a3a7
000000a0: 64ad 20ad 73c2 dd2a 7df9 edae 66d8 762f
000000b0: a854 51ad 7547 4fad f3e9 b9ad c130 daa5
000000c0: d88c a7ac 1a35 db2a 654b 732e b00e ad27
000000d0: 5fb0 702c d199 0aaf 7dd7 fe27 c486 c6ab
000000e0: 3b73 9a2e efb8 82a8 3881 b327 c35f d4ac
000000f0: bc49 93a8 7dcb bca7 a051 42ae 90b8 05aa
00000100: 2d8d 622d 987a 9eaa 827c 9ca7 545e 8aa7
00000110: 8289 232a 34bf 33ac add8 bb2c 7aad f5a9
00000120: 4ed5 c52c 335d 57aa 0523 b2ae 8115 1bad
00000130: e815 b0ac 7fe5 b52e 535d 04ac 0199 4224
00000140: c423 28ac 93ea 64aa 0217 a42c 1030 2426
00000150: ec10 4dab 91c8 98ae 6be9 81a7 f7ae 04ab
00000160: 6576 17ae bffc 42a8 c058 9328 45d1 aaac
00000170: f938 afa8 3458 2628 117e de2d 4b2c 8aa8
-3.69513e-11 -3.2040202e-13 7.974391e-15 8.7071546e-16 -1.6222365e-12 1.5087533e-12 2.5548669e-11 -1.8306644e-13
-2.6786813e-12 4.3512252e-14 -5.074081e-11 1.6972908e-10 -4.7197615e-12 -7.745133e-12 -8.470662e-12 -5.3441416e-16
-7.335308e-12 3.1041998e-13 3.3028538e-11 2.4229737e-15 8.186458e-13 -5.8020484e-11 -7.217186e-14 -7.600861e-13
3.6861247e-11 -6.0353634e-15 -9.410344e-15 2.9497287e-13 -2.2943571e-14 -1.031725e-14 -3.8233167e-11 -9.5632364e-14
-5.64352e-11 -3.4019041e-13 3.7921754e-15 5.521458e-17 -3.791076e-12 -1.843019e-13 -1.5820992e-11 -4.5378558e-15
-9.1334475e-12 3.9392412e-13 -1.082183e-10 2.245045e-10 -1.1899072e-11 -1.1782454e-11 -2.113596e-11 -3.785001e-16
-4.7620623e-12 3.8939061e-13 5.5318767e-11 4.803307e-15 3.4203957e-12 -1.2605673e-10 7.0732795e-15 -1.4106151e-12
7.023578e-11 -1.4513101e-14 4.982258e-15 -6.036034e-12 -1.6352256e-14 -5.2401105e-15 -4.418299e-11 -1.1876806e-13
1.287796e-11 -2.8151505e-13 -4.343369e-15 -3.8404965e-15 1.4525016e-13 -2.554357e-12 5.3389155e-12 -1.0910279e-13
5.6227583e-12 -1.9128171e-13 -8.1007236e-11 -8.815505e-12 -5.004653e-12 8.271694e-11 -1.8810134e-12 4.2196644e-17
-2.389409e-12 -2.0331852e-13 4.6637147e-12 5.6964067e-16 -7.2854114e-13 -6.9477875e-11 -3.6057765e-15 -4.7138633e-13
-3.443858e-11 -1.0823969e-14 1.6358768e-14 -4.854924e-12 -1.9453611e-14 9.233977e-15 2.5294463e-11 -1.5340287e-14

fai_gcn_networks.1.gcn.conv.weight f4 [192, 32, 1, 1]
00000000: f121 271a e834 5096 d3cc 1394 ef3a 211a
00000010: b90d fd19 3e90 9e17 7342 8099 7434 ea16
00000020: 4418 349a aa72 f798 a658 129b 6181 a51a
00000030: 2da6 041a 60e1 9719 603e 6a1a f73c da16
00000040: fd21 c719 6fe3 bd97 3145 f42c 7a56 5014
00000050: ef51 1418 de4d 249c 6bde 2f19 f943 e51c
00000060: 40b9 131a 5923 a599 3413 271a 6ea1 fe17
00000070: c444 3e14 92b1 141b cefc 03b0 8ab4 9516
00000080: 2295 282a 47c9 a9a5 ad07 8122 9255 bb28
00000090: 49d1 0426 18a8 2626 e037 ea27 b8a5 9aa4
000000a0: a008 f328 80ba aaa5 a9bd f6a8 9244 87a7
000000b0: b15e 7e26 3107 f528 f7e1 3628 cb53 cb27
000000c0: 2e40 f627 2b1c 9824 0920 81a8 7f02 c0a1
000000d0: 295c 4729 daf5 6529 8d21 8228 12f7 0c2a
000000e0: f632 39a8 41f8 d429 09fe 792a 0306 7b29
000000f0: 5547 2da3 46f3 0027 1cba 4d28 5238 bc24
00000100: d603 eb1b 7a2a ea96 d4e4 e494 edc9 149b
00000110: 193c ec98 6e63 a219 ac54 dc9a 2524 a817
00000120: fcde 111b 81c3 de18 e494 9fab 093e 0e17
00000130: 1add 81a8 ce6e 9a98 7367 671a 6c84 059b
00000140: e93f a197 d147 8917 2a89 042c 5691 7095
00000150: ef91 2198 6880 c19c 2a6e 71af 2733 d41c
00000160: c213 9a1c b9cd 199c 9af3 fd9c 13d3 b499
00000170: 6e85 9396 a85c 8299 a70a 8319 34ba 6b96
00000180: 65ad 06af f69d b5a4 e8a4 921f 1c18 a327
00000190: 0bb3 89a4 a0b0 5a24 d44f 4426 81f0 9122
000001a0: fcd0 7228 43f1 eca2 283a 0b2b bd62 b2a6
000001b0: 5003 2a28 752e 2626 a660 6625 b506 3a26
000001c0: f347 6526 a60f e3a3 6322 74a8 139e 4aa0
000001d0: fe54 2d27 b85e 7927 a5e9 9427 f526 3a29
000001e0: b56f 32a7 616a 9328 8eaa 1429 0c2f 1028
000001f0: 898e eda1 4575 2925 3ec7 e926 60ba 3823
00000200: 9f46 86a3 2c2a 5699 99c0 5c94 3dcc 6d1b
00000210: 9142 7c19 460e 3d17 45a6 3720 7e5f a116
00000220: 6335 071b 577f 3e97 bdce f8ad 2c59 3921
00000230: 9fdb 341b dddf 3399 337c 2e99 5294 af17
00000240: 7100 9d9a 2a29 1e96 88a1 a81a 5274 da93
00000250: 97d5 b419 e2de cd9a 3cae 129a f138 a51b
00000260: 0cc3 be9a 6f47 2b9b 800c 319b 068b 0a9a
00000270: e274 9796 af4c 5797 9ad0 aa22 e5b5 a397
00000280: 33b2 4a9b c5bd d096 b460 e192 7d10 6398
00000290: 49a7 981a d09d 9b16 46ba 3298 fce5 7616
000002a0: 65b4 1999 5429 1d96 8117 bd98 3f67 7517
000002b0: 257b 7223 2db9 0217 fce5 8698 0fb4 0298
000002c0: 240b 8398 e151 7014 765e a49a 7c45 ab93
000002d0: 1ea3 3c9a a855 c9ae 3996 8a98 dc26 631c
000002e0: b688 b59c 679f a09a f0c0 c49a 7778 33a3
000002f0: fc2f 7093 eed2 0617 e175 dd19 4d02 2216
00000300: 5016 72a8 4a64 9a25 b3a3 1625 0005 d328
00000310: 99d9 1d26 5545 3da6 267d 9227 41d4 18a4
00000320: 28db 2929 db38 fc23 e431 9027 9bf2 b3a8
00000330: ce1e c227 7e4c 6e27 8a78 eb2e de42 0c27
00000340: 5988 0732 fba5 3fa3 59b7 56a7 44fa e429
00000350: e87f b228 059b 8628 357b d027 4e95 2b2a
00000360: bcd2 5827 181e 1d29 0a13 cf29 10f9 ea27
00000370: b065 5822 514f db25 26eb a127 af4f fd23
00000380: 1ef9 86a9 c61b 5e26 f738 6121 94e3 ed28
00000390: 1174 d8a6 5a6e 6126 3967 2b28 0f4a 3925
000003a0: 889f bb29 e4c8 d1a4 c743 9827 d4b5 dda8
000003b0: 7833 1728 147d e1a4 5b22 d427 f4fa e827
000003c0: 3810 0b28 d9b8 9aa4 00cc aea8 a27c f42b
000003d0: d74c e828 b3a2 4929 9686 0629 1ae5 082b
000003e0: 76c9 d2a7 474d 072a 51d7 40ab 4353 0129
000003f0: e722 c224 3100 b426 e502 af28 d6d0 ae24
3.4562208e-23 -1.68188e-25 -7.461998e-27 3.3341626e-23 2.616513e-23 1.0246923e-24 -1.3261728e-23 3.7837842e-25
-3.724273e-23 -6.3963785e-24 -1.2105481e-22 6.8451423e-23 2.7431196e-23 1.5704062e-23 4.8440452e-23 3.5258274e-25
2.0589845e-23 -1.2271251e-24 6.942579e-12 1.0518371e-26 1.9169918e-24 -5.436369e-22 9.092205e-24 1.5171519e-21
3.054853e-23 -1.7074877e-23 3.4550303e-23 1.6455116e-24 9.60611e-27 1.2299649e-22 -4.801678e-10 2.4186184e-25
1.4973138e-13 -2.9453218e-16 3.4973647e-18 2.079828e-14 4.6080334e-16 5.782063e-16 6.5008627e-15 -6.706759e-17
2.698216e-14 -2.9616676e-16 -2.7393738e-14 -3.754437e-15 8.8252283e-16 2.7203583e-14 1.0152028e-14 5.6434667e-15
6.83483e-15 6.596721e-17 -1.433577e-14 -1.3011087e-18 4.4266813e-14 5.1061457e-14 1.444745e-14 1.2520218e-13
-1.0280613e-14 9.4577564e-14 2.2203779e-13 5.573841e-14 -9.393454e-18 1.7895447e-15 1.1420142e-14 8.1627414e-17
3.8879968e-22 -3.7831545e-25 -2.3112373e-26 -1.2307519e-22 -6.1065253e-24 1.6790567e-23 -9.112666e-23 1.086587e-24
1.2066169e-22 5.7583063e-24 -1.1338955e-12 4.5960974e-25 -1.4417765e-14 -3.991995e-24 4.7853246e-23 -1.104429e-22
-1.0420514e-24 8.8715465e-25 1.883447e-12 -4.8582264e-26 -2.088244e-24 -1.2804861e-21 -2.195796e-10 1.4042206e-21
1.0195972e-21 -5.0889344e-22 -1.6805105e-21 -1.8696816e-23 -2.3833337e-25 -1.3479109e-23 1.3549385e-23 -1.9041904e-25
-1.2248831e-10 -7.8763834e-17 6.210622e-20 4.5267728e-15 -5.971759e-17 4.7420822e-17 6.810935e-16 3.9556972e-18
1.3479015e-14 -6.4223374e-18 4.946343e-13 -1.2377994e-15 9.437614e-15 5.765578e-16 1.9982066e-16 6.4540803e-16
7.9547845e-16 -2.4618017e-17 -1.3552177e-14 -1.7162368e-19 2.4054647e-15 3.4607039e-15 4.133157e-15 4.1334086e-14
-2.4763019e-15 1.6366413e-14 3.3010534e-14 8.0038074e-15 -1.6097473e-18 1.4698146e-16 1.6221627e-15 1.00141264e-17
-1.4558218e-17 -1.1072057e-23 -1.1145145e-26 1.9670173e-22 1.3041538e-23 6.108721e-25 1.5555717e-19 2.6071217e-25
1.1184188e-22 -6.1553037e-25 -2.8286146e-11 6.2798456e-19 1.4960214e-22 -9.299292e-24 -9.020671e-24 1.1346551e-24
-6.493439e-23 -1.2776127e-25 6.974414e-23 -5.5145637e-27 1.8697832e-23 -8.51461e-23 -3.0332838e-23 2.7333758e-22
-7.8897273e-23 -1.416787e-22 -1.4645136e-22 -2.8650033e-23 -2.446913e-25 -6.9567035e-25 4.6299458e-18 -1.0579545e-24
-1.6766628e-22 -3.3723974e-25 -1.4223335e-27 -2.9347387e-24 6.313599e-23 2.5141194e-25 -2.3100005e-24 1.9944292e-25
-7.946345e-24 -1.26954e-25 -4.8879088e-24 7.9294084e-25 1.3144923e-17 4.223899e-25 -3.4870413e-24 -1.6893013e-24
-3.3873955e-24 1.2133051e-26 -6.798142e-23 -4.3234986e-27 -3.9009254e-23 -9.1556374e-11 -3.582385e-24 7.5158224e-22
-1.2012914e-21 -6.643198e-23 -8.137541e-23 -9.729119e-18 -3.0315917e-27 4.3563966e-25 2.2898475e-23 1.3086982e-25
-1.3438537e-14 2.67827e-16 1.306589e-16 2.3427874e-14 5.4765217e-16 -6.566651e-16 4.0658827e-15 -3.3139532e-17
3.7715626e-14 2.7345974e-17 4.002212e-15 -1.9978205e-14 5.3879215e-15 3.3070601e-15 1.0707975e-10 1.9465152e-15
7.889036e-09 -1.03892785e-17 -2.9797859e-15 1.0168648e-13 1.981744e-14 1.4944218e-14 5.786518e-15 1.5239651e-13
3.009026e-15 3.4887105e-14 9.1959494e-14 6.521808e-15 2.9327292e-18 3.804419e-16 4.4941425e-15 2.7464062e-17
-5.9940104e-14 7.705936e-16 7.630836e-19 2.6410982e-14 -1.5019471e-15 7.821211e-16 9.51479e-15 1.6071284e-16
8.3321425e-14 -9.0979624e-17 4.226196e-15 -2.4614784e-14 8.393344e-15 -9.7790086e-17 5.887907e-15 6.466502e-15
7.719567e-15 -6.71e-17 -1.9406352e-14 1.7371835e-12 2.5790498e-14 4.4772085e-14 2.9870712e-14 4.863485e-13
-5.8505133e-15 1.201722e-13 -6.8510914e-13 2.8715972e-14 8.4193215e-17 1.2490061e-15 1.9430158e-14 7.581425e-17

fai_gcn_networks.1.gcn.conv.bias f4 [192]
00000000: 17de 0e2c e639 d43a d7dd 0f2e 6c25 7139
00000010: 575e 3eaa 3e87 9aab 6b8a 243a d60d fa3a
00000020: 1dea 0239 4693 0f3b 2975 4bab 88d5 322b
00000030: 8621 b439 f5b3 e93a c7f2 b0ad 9642 662c
00000040: 1ca3 703a 83df 3539 0a08 57ad 3225 5bac
00000050: c8db 032c 0330 193a 46dc 172c dd28 342b
00000060: dd77 8539 7f07 9a39 f0c8 b53a ec12 7e2a
00000070: 0995 252d 519a 082c 45c4 192c 8857 a22b
00000080: 5e29 9c3a 3fab e63a 17b6 b5ac 15dc 92ac
00000090: c15d c5aa f2d7 a63b aed7 083a ed72 9aaa
000000a0: e753 a538 e3e0 4139 251e 203a d389 793a
000000b0: 22d8 d33a dece 052c c3b0 1f3a b76c 922b
000000c0: a8ab 0a39 077e 212d a245 02a9 b482 653a
000000d0: 6001 452c 9028 ae2c 1492 7f38 1b47 213b
000000e0: 1753 863b f31a b439 518e 8e2c 5760 9f2b
000000f0: 4ada 542d 4b60 aa2b a865 373b a7bb 8f3a
00000100: 8cf2 022b 42b1 153b e69f 052c 9797 ab39
00000110: ede1 84ab 6842 6eab b389 693a eeb1 2f3b
00000120: e0d8 3a39 7ef7 493b a944 0dac 173e 7a2b
00000130: 48fa fe39 eba2 243b cef2 b6ad c815 da2c
00000140: ba67 aa3a 6ac1 8139 e102 d8ab 8866 b5ac
00000150: c642 c42c 9e31 593a 954e b62b 8afa 422b
00000160: 8538 be39 7349 db39 b70f 003b 7b85 cbab
00000170: 9a82 582d e199 302c 9b76 c72b 5601 3d2c
00000180: 1807 dd3a 4531 223b 4e2c 05ad a1b0 00ad
00000190: 6641 1bac 82fc e53b ec68 423a 43d3 822c
000001a0: b728 ec38 f008 8a39 3caa 623a 922a b03a
000001b0: 8b34 153b 6563 8b2c b27b 623a 0583 b62b
000001c0: d201 4639 2674 6d2d 285c 9da8 418b a23a
000001d0: fe5e 052d d1ca 412c 3ceb b638 8653 623b
000001e0: 4674 ba3b d627 003a 201d b32c 7583 9e2c
000001f0: fba1 a72d 2db4 db2b 2182 803b ed57 cb3a
00000200: a69e 222d ebca 0f3a 090f 3a2d 1ecb a238
00000210: e5ed 59aa dd8b 38ac 28ee 5e39 d7bf 2a3a
00000220: 9ea3 2f38 f6ae 423a 6d8d 332c e7c3 a42a
00000230: 6178 f538 fdb2 1e3a 4d4b 1b2e 5ec2 deac
00000240: 9c36 a339 d05c 7438 c695 c7ad f5a8 77ac
00000250: 2d59 33ad d6ff 4f39 3e5b cb2b 5b06 9529
00000260: 8aeb b338 52e4 cf38 c341 f839 33e5 8f2c
00000270: 6f2a 0f2d 3f96 e6ab aa0b 582c 4ef3 5dac
00000280: b163 d339 0d84 1d3a e4d3 422d 329d df2c
00000290: ba4d 53ac 488a e33a ea11 3939 2537 35ac
000002a0: 5f2b dd37 10b3 8238 d502 5a39 ca40 aa39
000002b0: d04e 103a cef3 afac 35e4 5839 0bb8 caaa
000002c0: 6eea 3938 16ff a7ad 6043 dda9 63cb 9b39
000002d0: f7ad aead c588 1e2e 1f3c aa37 c12b 5b3a
000002e0: 4b7b b73a 1206 f338 c116 232c c4e8 beab
000002f0: 7316 3ead d669 42aa f171 783a e4e6 c239
2.0302698e-12 0.0016191571 3.271147e-11 0.00022997492 -1.6908121e-13 -1.0979895e-12 0.00062767294 0.001907761
0.0001248498 0.002190785 -7.228268e-13 6.353464e-13 0.00034357252 0.0017830121 -2.0116698e-11 3.2721928e-12
0.00091795786 0.0001734477 -1.222312e-11 -3.114242e-12 1.8738223e-12 0.0005843641 2.1580667e-12 6.4005555e-13
0.00025457042 0.00029378754 0.0013869088 2.2566297e-13 9.4122566e-12 1.9412425e-12 2.185156e-12 1.1535087e-12
0.0011914184 0.0017598643 -5.1645454e-12 -4.1740036e-12 -3.5059285e-13 0.0050916607 0.0005220127 -2.743564e-13
7.883441e-05 0.00018489691 0.00061080075 0.00095191336 0.0016162435 1.9015271e-12 0.0006091708 1.0404098e-12
0.00013224653 9.179774e-12 -2.8926195e-14 0.0008755133 2.7996147e-12 4.9498808e-12 6.0932784e-05 0.0024609033
0.0040992605 0.00034352354 4.051683e-12 1.1324369e-12 1.2099275e-11 1.2105953e-12 0.0027984176 0.0010965959
4.652188e-13 0.002284125 1.8989198e-12 0.00032728605 -9.441871e-13 -8.4646743e-13 0.00089087634 0.0026808935
0.00017819135 0.0030817683 -2.007542e-12 8.890401e-13 0.0004863313 0.002512152 -2.0798831e-11 6.198351e-12
0.0013000884 0.00024748902 -1.5348522e-12 -5.1557127e-12 5.5780684e-12 0.00082852866 1.2953689e-12 6.927034e-13
0.00036281734 0.0004182566 0.0019540617 -1.4461066e-12 1.2307178e-11 2.5096524e-12 1.417272e-12 2.6859257e-12
0.0016863076 0.0024748605 -7.570012e-12 -7.315177e-12 -2.2063128e-12 0.0070186267 0.0007416147 3.718277e-12
0.00011260941 0.0002632807 0.0008646583 0.0013440421 0.0022766914 3.9616526e-12 0.0008639648 1.2968243e-12
0.0001888343 1.349768e-11 -1.7470468e-14 0.001240112 7.581267e-12 2.7539535e-12 8.722252e-05 0.0034534647
0.0056901304 0.00048887485 5.0907195e-12 4.5052248e-12 1.9057636e-11 1.5610895e-12 0.0039217626 0.0015513875
9.243861e-12 0.0005485254 1.0576214e-11 7.7625955e-05 -1.9356008e-13 -2.6225612e-12 0.0002126029 0.0006513572
4.187563e-05 0.0007426584 2.5515937e-12 2.9268187e-13 0.00011704933 0.0006053893 3.53098e-11 -6.3311986e-12
0.0003113047 5.826057e-05 -2.2690193e-11 -3.5194601e-12 -1.0194773e-11 0.00019836365 1.4449342e-12 6.618032e-14
8.579258e-05 9.913057e-05 0.00047351242 4.0897507e-12 8.138031e-12 -1.6384185e-12 3.070192e-12 -3.154105e-12
0.00040319332 0.0006008752 1.1074672e-11 6.3554934e-12 -3.002805e-12 0.0017359937 0.00017649648 -2.5752258e-12
2.636545e-05 6.232236e-05 0.00020791155 0.00032473198 0.0005504908 -5.000867e-12 0.00020684379 -3.6010114e-13
4.4325767e-05 -1.9098983e-11 -9.826059e-14 0.0002971544 -1.9858766e-11 3.6046516e-11 2.0293575e-05 0.0008360707
0.0013998536 0.000115882736 2.3176324e-12 -1.3564917e-12 -1.0805234e-11 -1.726738e-13 0.0009477428 0.0003717459

fai_gcn_networks.1.residual.0.weight f4 [64, 32, 1, 1]
00000000: 5d41 92bc 341c ffbc f365 223b 4a70 b2bc
00000010: 4d84 a23c 2b4c e5bc 1d0a 00bc 2bbd 853c
00000020: 10ce bebc 0ba2 973c b9a1 273b cb9b ba3c
00000030: 474f b0bc 9de9 c03b 7cb1 e13b 34d7 583c
00000040: 98d1 283a fa97 9bbc 75c5 15bb 0e93 dc3c
00000050: 9dfe 45bc 0f33 063b 986d 123d 77fa b0bc
00000060: 35f7 473d 1c92 5cbc 7cdc b93c 9c9b daba
00000070: f930 56bb 54c2 343c 2435 223d 0618 8fba
00000080: 62ec 9539 94d6 c33b d2d5 b33a d958 93bb
00000090: 7bad b5bb afbf aabc a29c 3dbc 013a 0ebd
000000a0: 16c5 283c 67fd 60bc e9d4 09bc ef89 d53b
000000b0: a4c1 023c bd69 7f3c f0c0 d63c f921 e3bb
000000c0: 673e 41bc 9492 3bbc 0be2 e73b eb0c c63c
000000d0: d355 1dbd fd4c 8abc 86d4 a4ba aaff 2b3c
000000e0: 2655 5fbc 2433 4b3c 3585 54bc c97c 683c
000000f0: aed1 943c 19ec 2bbd b2ad fc3b 1839 bf3b
00000100: 6433 0c3d 5513 cc3b cdf3 803c 5766 6f3c
00000110: 87d8 c83c 93ed 63bc 77f9 e8bc 3398 c93c
00000120: 3ddf 8fbc f38b 633c ffa5 9e3c 8b71 3d3c
00000130: 61e5 08bc f078 633c a611 4a3b ce6f 3c3c
00000140: 644e 1ebc 66ec 94bb 8fde b83c 52fa 6c3c
00000150: 5c7c 163a 9b93 1ebd 4aa3 e33c c1ff 803c
00000160: ae34 fd3b 30e7 c3ba 74f4 d8bc a965 16bd
00000170: a06e b3bc 2f01 75b9 8bc0 c03c 8553 83bc
00000180: 9f71 803c 73bd 78bc 3dca c4ba 0416 3f3c
00000190: d2d4 013c 37f4 09bd 5b25 213c 6f2d 843c
000001a0: 21bf f5bc bd88 013d a24a cc3c 52b5 50bc
000001b0: ed0f bebc 6d1e 30bc 1449 3e3d 7860 bbbb
000001c0: 347d 02bc 2cfe 62bc b622 173b 9ba8 98bc
000001d0: fcef aa3c 996a e1bc 0dca ab3b 7c54 69bc
000001e0: a558 a83a 7a3e 1fbb 3ffe 91bc 778c 5c3c
000001f0: 784a f43c 8a7b fd3c a585 513c 5c99 08bd
00000200: ed4e 3fbd eb3c 093d 1ddc a1bb 1d33 0c3c
00000210: 87d3 d43c e6b9 bdba 3992 8bbc 5300 ba3b
00000220: 0993 86bc 6cf9 80bc 1570 37bc dc17 8cbc
00000230: a2ae 0f3c 24bd 373d e841 80bc 3314 e4bc
00000240: 9803 05bd 36bc 0fbc b2bd 943a 9b71 093d
00000250: f8d1 2138 2e3a bebc cf9c 04bd 1b50 54bc
00000260: 3ef8 aa3c 97be 3ebc 0435 293c 30c5 4f3c
00000270: 564b 033d a767 51bc 2aa5 0e3d 38a4 c33a
00000280: 39e9 6cbb 384a d7bb 7e16 25b9 c121 8d3b
00000290: 6eb8 0c3c 7b50 b23c 587f c83b 817e 4fb9
000002a0: 40c6 9dbb c14b 853b 3e30 423d 76fd 963c
000002b0: 099b 7d3c 51aa 15bc 6a25 2f3c 2721 12bd
000002c0: 0264 d1bb 8955 c93c edcc 953c 0123 a8bc
000002d0: d7a3 e8bb 9a31 053d 786e a7bc c532 223c
000002e0: 7b03 03bc 4428 e33b 231d faba b835 1a3d
000002f0: 01d5 5ebc f179 953c c097 a83c 9306 b9bc
00000300: ea1f 7d3c 9dd0 e13c 8edb ebbb 32d3 85ba
00000310: d4ce 2bbc 1561 c13c 8b93 d7ba ddb2 d33c
00000320: 7fa2 8db9 5027 10bd 3494 e63c 39c5 923c
00000330: 93c6 a0bc 80d0 1cbd 5bf3 67bc 22fe 42ba
00000340: 5dca 2e3c 144f 603c 3815 98bc b4e6 953b
00000350: 0a8b fabc d342 a13c 04f3 943c f9f3 efbb
00000360: e9a2 583d cd8a 2c3c 1034 30bd e2e0 f5bc
00000370: 6241 f6ba 1545 42bb 5048 9b3c 147c 49b8
00000380: eef9 d1bc 1879 083c a212 583c a44c b3bc
00000390: 20bb a13b 8501 a9bc d2dd 09bd beeb b4bc
000003a0: 80cd a2bc 6666 0dba f0a9 06bb 60e9 88ba
000003b0: 06ee e93c 9ba1 dfb8 e117 703d aae2 c3bc
000003c0: 7812 f93b 04fd 0c3c 1779 8e3c fed5 1ebb
000003d0: 3b9a b5ba 066f 29bb f7e9 8c3c e74b 8bbb
000003e0: 73ff b4ba 533f 1f3b c8a4 1cbc 0911 a1bc
000003f0: bc31 4abc 8232 583c 24be 1a3b b462 ecb9
-0.017853433 -0.031141378 0.0024780005 -0.02178206 0.019838477 -0.027990421 -0.007814911 0.016325554
-0.023291618 0.018509885 0.0025578572 0.022779366 -0.021522177 0.005887224 0.006887613 0.013234902
0.00064399233 -0.018993367 -0.002285329 0.02692559 -0.01208463 0.002047721 0.035749048 -0.021603806
0.04881974 -0.01346257 0.022688143 -0.0016678455 -0.0032682999 0.01103266 0.03960146 -0.0010917194
0.00028595614 0.0059765074 0.001372034 -0.0044966755 -0.005544362 -0.020843355 -0.011572989 -0.034723286
0.010300895 -0.013732291 -0.008412578 0.006516687 0.007980738 0.015589175 0.026215047 -0.00693154
-0.011794663 -0.011448521 0.007076507 0.024176082 -0.038411926 -0.016882414 -0.0012575544 0.010497967
-0.013631141 0.01240233 -0.012971212 0.014189907 0.01816639 -0.041973207 0.007711136 0.0058356635
0.034228697 0.0062278905 0.015741253 0.014611802 0.02451731 -0.013911623 -0.028439267 0.024608707
-0.017562503 0.013888347 0.019366262 0.011562715 -0.008355469 0.013883814 0.0030833273 0.011501266
-0.0096622445 -0.0045447825 0.022567062 0.014463978 0.0005740577 -0.038714986 0.027787823 0.015746953
0.007727227 -0.0014946219 -0.026483752 -0.036718044 -0.021903336 -0.00023365462 0.023529312 -0.016031036
0.015679179 -0.015181887 -0.0015013885 0.011662964 0.0079242755 -0.033680167 0.009835566 0.016134946
-0.029998364 0.031624544 0.024937931 -0.012738543 -0.023200953 -0.010749442 0.04645641 -0.005718287
-0.007964421 -0.013854545 0.002306146 -0.018635085 0.020866387 -0.02751665 0.005242592 -0.014241334
0.0012843801 -0.0024298714 -0.01782143 0.013461224 0.029820666 0.030942697 0.012788211 -0.03334938
-0.04670613 0.03350536 -0.0049395696 0.008557108 0.02597977 -0.0014474958 -0.017037498 0.005676308
-0.016427534 -0.015743934 -0.011196156 -0.01710122 0.008769663 0.044858113 -0.015656427 -0.027841663
-0.03247413 -0.0087729 0.0011348038 0.03355561 3.858094e-05 -0.023221102 -0.032376107 -0.012958552
0.020870324 -0.01164212 0.010327581 0.0126812905 0.032054268 -0.01278106 0.03482548 0.001492626
-0.0036149754 -0.006570127 -0.00015744005 0.0043070023 0.008588893 0.021766892 0.006118696 -0.00019788185
-0.004814893 0.0040678685 0.04740929 0.018431406 0.015478858 -0.009134845 0.010690073 -0.035676148
-0.0063900957 0.02457692 0.018286193 -0.020524504 -0.0070996094 0.032518007 -0.020438418 0.0098998
-0.007996435 0.0069322903 -0.001908217 0.037648886 -0.013600589 0.018246623 0.020580173 -0.022586143
0.015449503 0.027565295 -0.007197804 -0.0010210036 -0.010486323 0.023605863 -0.001644717 0.025842125
-0.00027014685 -0.03519374 0.02814684 0.017916309 -0.019625938 -0.03828478 -0.014157142 -0.00074383814
0.010668364 0.013690729 -0.018564805 0.004574621 -0.030583877 0.019685185 0.018182285 -0.007322785
0.05288974 0.01053114 -0.0430184 -0.030014459 -0.0018787796 -0.0029643227 0.01895538 -4.803769e-05
-0.025631871 0.008329652 0.013188036 -0.021887131 0.004935637 -0.020630607 -0.03365881 -0.022085067
-0.01987338 -0.00053939817 -0.0020548068 -0.0010445528 0.028555881 -0.0001066357 0.058616523 -0.023911793
0.0076010786 0.0086052455 0.017391725 -0.0024236436 -0.0013855168 -0.0025853529 0.017201407 -0.0042509916
-0.001380904 0.0024299219 -0.009560771 -0.019661443 -0.012340959 0.013195636 0.0023611868 -0.00045086967

fai_gcn_networks.1.residual.0.bias f4 [64]
00000000: 0000 0000 0000 0000 0000 0000 0000 0000
00000010: 0000 0000 0000 0000 0000 0000 0000 0000
00000020: 0000 0000 0000 0000 0000 0000 0000 0000
00000030: 0000 0000 0000 0000 0000 0000 0000 0000
00000040: 0000 0000 0000 0000 0000 0000 0000 0000
00000050: 0000 0000 0000 0000 0000 0000 0000 0000
00000060: 0000 0000 0000 0000 0000 0000 0000 0000
00000070: 0000 0000 0000 0000 0000 0000 0000 0000
00000080: 0000 0000 0000 0000 0000 0000 0000 0000
00000090: 0000 0000 0000 0000 0000 0000 0000 0000
000000a0: 0000 0000 0000 0000 0000 0000 0000 0000
000000b0: 0000 0000 0000 0000 0000 0000 0000 0000
000000c0: 0000 0000 0000 0000 0000 0000 0000 0000
000000d0: 0000 0000 0000 0000 0000 0000 0000 0000
000000e0: 0000 0000 0000 0000 0000 0000 0000 0000
000000f0: 0000 0000 0000 0000 0000 0000 0000 0000
0.0 0.0 0.0 0.0 0.0 0.0 0.0 0.0
0.0 0.0 0.0 0.0 0.0 0.0 0.0 0.0
0.0 0.0 0.0 0.0 0.0 0.0 0.0 0.0
0.0 0.0 0.0 0.0 0.0 0.0 0.0 0.0
0.0 0.0 0.0 0.0 0.0 0.0 0.0 0.0
0.0 0.0 0.0 0.0 0.0 0.0 0.0 0.0
0.0 0.0 0.0 0.0 0.0 0.0 0.0 0.0
0.0 0.0 0.0 0.0 0.0 0.0 0.0 0.0

fai_gcn_networks.1.residual.1.weight f4 [64]
00000000: 3dd7 7b3f bda2 803f 92a9 823f eb78 833f
00000010: f3c4 803f 291f 7a3f 801a 813f c403 813f
00000020: bb11 823f e362 833f 8b42 723f 1b92 7a3f
00000030: 93e0 823f bd88 7b3f b3e9 7f3f 8972 843f
00000040: 8d6e 7f3f 3d7e 803f 6c99 853f 91a6 863f
00000050: 6d02 843f df90 7d3f 5255 7e3f 938b 823f
00000060: c1ed 7f3f 6223 7b3f ea4c 7e3f 22cc 7b3f
00000070: ab62 7c3f 66d7 813f 99d8 7e3f c6f0 803f
00000080: 8832 783f 2672 7b3f c729 803f 1905 7e3f
00000090: d754 853f 0d78 753f bf60 813f 1fc8 7c3f
000000a0: dba1 743f 1ff1 7c3f 58d2 803f 8a3d 803f
000000b0: f240 7b3f 8af8 823f 723b 7f3f 53ec 7b3f
000000c0: f10a 813f c76e 803f be01 833f feee 7f3f
000000d0: 387c 823f 4f90 7d3f 5ddd 7c3f 0234 823f
000000e0: 99f2 833f 59cb 7f3f 77d9 773f 733a 773f
000000f0: 4fd1 833f 5c0c 823f 5bfa 833f 9fd1 7e3f
0.983753 1.0049664 1.0207999 1.0271276 1.0060104 0.97703797 1.0086212 1.0079274
1.0161661 1.0264553 0.94632787 0.9787919 1.0224785 0.9825552 0.9996597 1.0347453
0.9977806 1.0038525 1.0437446 1.0519582 1.031324 0.9904918 0.9934894 1.0198845
0.9997216 0.98100865 0.9933611 0.98358357 0.98588055 1.0143859 0.9954925 1.0073478
0.96952105 0.9822105 1.001275 0.9922653 1.0416516 0.9588631 1.010765 0.9874286
0.9555947 0.9880542 1.0064192 1.001878 0.98145974 1.0232098 0.9970008 0.9840748
1.0081464 1.0033807 1.0234907 0.9997405 1.0194159 0.9904832 0.98775274 1.0172122
1.030841 0.9991966 0.968162 0.9657356 1.0298251 1.0160022 1.0310777 0.99538606

fai_gcn_networks.1.residual.1.bias f4 [64]
00000000: 0000 0000 0000 0000 0000 0000 0000 0000
00000010: 0000 0000 0000 0000 0000 0000 0000 0000
00000020: 0000 0000 0000 0000 0000 0000 0000 0000
00000030: 0000 0000 0000 0000 0000 0000 0000 0000
00000040: 0000 0000 0000 0000 0000 0000 0000 0000
00000050: 0000 0000 0000 0000 0000 0000 0000 0000
00000060: 0000 0000 0000 0000 0000 0000 0000 0000
00000070: 0000 0000 0000 0000 0000 0000 0000 0000
00000080: 0000 0000 0000 0000 0000 0000 0000 0000
00000090: 0000 0000 0000 0000 0000 0000 0000 0000
000000a0: 0000 0000 0000 0000 0000 0000 0000 0000
000000b0: 0000 0000 0000 0000 0000 0000 0000 0000
000000c0: 0000 0000 0000 0000 0000 0000 0000 0000
000000d0: 0000 0000 0000 0000 0000 0000 0000 0000
000000e0: 0000 0000 0000 0000 0000 0000 0000 0000
000000f0: 0000 0000 0000 0000 0000 0000 0000 0000
0.0 0.0 0.0 0.0 0.0 0.0 0.0 0.0
0.0 0.0 0.0 0.0 0.0 0.0 0.0 0.0
0.0 0.0 0.0 0.0 0.0 0.0 0.0 0.0
0.0 0.0 0.0 0.0 0.0 0.0 0.0 0.0
0.0 0.0 0.0 0.0 0.0 0.0 0.0 0.0
0.0 0.0 0.0 0.0 0.0 0.0 0.0 0.0
0.0 0.0 0.0 0.0 0.0 0.0 0.0 0.0
0.0 0.0 0.0 0.0 0.0 0.0 0.0 0.0

fai_gcn_networks.1.residual.1.running_mean f4 [64]
00000000: 1a37 b0aa db6e 28ab 4f66 faab f426 0aad
00000010: 18f7 98ac 918c c72c aee8 aeac 8793 57ac
00000020: 0e23 df2c e5ef 50ac 1bb1 1b2b 0578 ad2b
00000030: b6a1 bdac 5fd2 6c2d 7fed 262b 4783 ca2c
00000040: d84c 92ac c561 302d 994b 3a2c 8c50 002c
00000050: b69d 262b 7f63 b22c 39eb 07ab 53b6 e52c
00000060: a303 abab b530 892c f9bd a7ac 8e4f 082d
00000070: 7246 49ab a44d 46aa 88bb 6eac 798e edac
00000080: c281 792a 9238 88ac db46 242b d2b8 a8ac
00000090: b82e 05ad b04e c12c a596 46ad 59ee ea2c
000000a0: a01c 582c 803b 91ab 4f2b d22c 418b 80ac
000000b0: 96bf 872b f364 31aa 8595 08ad c488 de2c
000000c0: cabb 03ad f52f ea2a 85b3 302c 8116 84ab
000000d0: 06d4 802c 9082 38ac 640d d4ab 48b6 b32c
000000e0: bae6 b12c 882c 632c d9c4 a7ac 9ea6 e42b
000000f0: 009e b02c dd4f a6ac 83b7 4baa 010c 49ac
-3.1302115e-13 -5.983943e-13 -1.7791965e-12 -7.853041e-12 -4.3475328e-12 5.671526e-12 -4.97121e-12 -3.0635232e-12
6.341933e-12 -2.9691746e-12 5.5312845e-13 1.2325701e-12 -5.3896566e-12 1.3461759e-11 5.930464e-13 5.75576e-12
-4.158101e-12 1.0026151e-11 2.6474155e-12 1.8234607e-12 5.9193915e-13 5.0701106e-12 -4.828807e-13 6.5288135e-12
-1.215129e-12 3.8991818e-12 -4.7675167e-12 7.74837e-12 -7.150731e-13 -1.761287e-13 -3.3925935e-12 -6.7517628e-12
2.2160661e-13 -3.871633e-12 5.8362836e-13 -4.7953664e-12 -7.570548e-12 5.494126e-12 -1.1288447e-11 6.677142e-12
3.0711336e-12 -1.0319384e-12 5.973367e-12 -3.653439e-12 9.645503e-13 -1.5755782e-13 -7.763905e-12 6.3248035e-12
-7.488185e-12 4.1600027e-13 2.5110758e-12 -9.38541e-13 3.661518e-12 -2.622045e-12 -1.5067223e-12 5.1077233e-12
5.0562584e-12 3.228336e-12 -4.76828e-12 1.624662e-12 5.0197624e-12 -4.7268704e-12 -1.809369e-13 -2.8570481e-12

fai_gcn_networks.1.residual.1.running_var f4 [64]
00000000: 9955 5a1b 2442 a21a 856e 081b 0d53 c91a
00000010: 0faf a21a 1ab3 151a 0e03 101b b982 7719
00000020: efc8 051b 0e54 1f1a 5545 161a 00b0 221b
00000030: 8164 d81b 39f3 721b 6d73 2419 993b f318
00000040: 567b 141c c0f4 561b dac8 c51b 7dcb fe19
00000050: c94e e419 c9cb 341a 206d 5b19 64a8 8e1a
00000060: e8e4 d21a afbb 2b19 e66f 271a 35c7 9a1c
00000070: 900c 3b1b f0a7 0018 4cc2 a81a 0a9d 3c1a
00000080: 6224 161a 31f2 511a 2050 b518 876c 7c1a
00000090: 26d8 cd1a 0641 081b 574d 981b 3eb3 171b
000000a0: 4905 ff1b 392b 0819 b145 2b1a 2d21 eb1a
000000b0: 5eb3 131a c11e ad19 2705 7b1a 05fe 151a
000000c0: 411b 091b 0480 df19 2cee f719 cb85 de19
000000d0: 74a9 e319 5e39 ba1b 09be 831a 795d 871a
000000e0: 3751 091c d6bb 9819 8c90 051a 333a 281b
000000f0: d928 aa1b e8ba 9e1a 6cc3 b21b 8f3d 0d1a
1.8060195e-22 6.7108486e-23 1.1285367e-22 8.326583e-23 6.728445e-23 3.0957155e-23 1.1912388e-22 1.2796e-23
1.1066427e-22 3.2948328e-23 3.107528e-23 1.3457195e-22 3.5799152e-22 2.009636e-22 8.501911e-24 6.2874206e-24
4.91285e-22 1.7780748e-22 3.2720713e-22 2.6345173e-23 2.3606469e-23 3.7387744e-23 1.1344072e-23 5.9001873e-23
8.722378e-23 8.878395e-24 3.462518e-23 1.0242359e-21 1.5472337e-22 1.66284e-24 6.9797075e-23 3.9004344e-23
3.1048663e-23 4.3415828e-23 4.686831e-24 5.2200046e-23 8.513522e-23 1.1270667e-22 2.519627e-22 1.2548344e-22
4.2189627e-22 7.039764e-24 3.5418267e-23 9.724732e-23 3.054378e-23 1.7900202e-23 5.1909745e-23 3.1017673e-23
1.134118e-22 2.3109365e-23 2.5635398e-23 2.30083e-23 2.3539691e-23 3.0808191e-22 5.448735e-23 5.5985705e-23
4.5434465e-22 1.5792298e-23 2.762052e-23 1.391544e-22 2.8150538e-22 6.564923e-23 2.9573918e-22 2.9207843e-23

edge_importance.0 f4 [3, 18, 18]
00000000: a16b 423f a06b 423f a06b 423f a06b 423f
00000010: a06b 423f a06b 423f a06b 423f a06b 423f
00000020: a06b 423f a06b 423f a06b 423f a06b 423f
00000030: a06b 423f a06b 423f a06b 423f a06b 423f
00000040: a06b 423f a06b 423f a06b 423f a06b 423f
00000050: a06b 423f a06b 423f a06b 423f a06b 423f
00000060: a06b 423f a06b 423f a06b 423f a06b 423f
00000070: a06b 423f a06b 423f a06b 423f a06b 423f
00000080: a06b 423f a06b 423f a06b 423f a06b 423f
00000090: a06b 423f a06b 423f a06b 423f a06b 423f
000000a0: a06b 423f a06b 423f a06b 423f a06b 423f
000000b0: a06b 423f a06b 423f a06b 423f a06b 423f
000000c0: a06b 423f a06b 423f a06b 423f a06b 423f
000000d0: a06b 423f a06b 423f a06b 423f a06b 423f
000000e0: a06b 423f a16b 423f a06b 423f a06b 423f
000000f0: a06b 423f a06b 423f a06b 423f a06b 423f
00000100: a06b 423f a06b 423f a06b 423f a06b 423f
00000110: a06b 423f a06b 423f a06b 423f a06b 423f
00000120: a06b 423f a06b 423f a06b 423f a06b 423f
00000130: 9f6b 423f a06b 423f a06b 423f a06b 423f
00000140: a06b 423f a06b 423f a06b 423f a06b 423f
00000150: a06b 423f a06b 423f a06b 423f a06b 423f
00000160: a06b 423f a06b 423f a06b 423f a06b 423f
00000170: a06b 423f a06b 423f a06b 423f a16b 423f
00000180: a06b 423f a06b 423f a06b 423f a06b 423f
00000190: a06b 423f a06b 423f a06b 423f a06b 423f
000001a0: a06b 423f a06b 423f a06b 423f a06b 423f
000001b0: a06b 423f a06b 423f a06b 423f a06b 423f
000001c0: a06b 423f a06b 423f a16b 423f a06b 423f
000001d0: a06b 423f a06b 423f a06b 423f a06b 423f
000001e0: a06b 423f a06b 423f a06b 423f a06b 423f
000001f0: a06b 423f a06b 423f a06b 423f a06b 423f
00000200: a06b 423f a06b 423f a06b 423f a06b 423f
00000210: a06b 423f 9f6b 423f a06b 423f a06b 423f
00000220: a06b 423f a06b 423f a06b 423f a06b 423f
00000230: a06b 423f a06b 423f a06b 423f a06b 423f
00000240: a06b 423f a06b 423f a06b 423f a06b 423f
00000250: a06b 423f a06b 423f a06b 423f a06b 423f
00000260: a06b 423f a06b 423f a06b 423f a06b 423f
00000270: a06b 423f a06b 423f a06b 423f a06b 423f
00000280: a06b 423f a06b 423f a06b 423f a06b 423f
00000290: a06b 423f a06b 423f a06b 423f a06b 423f
000002a0: a06b 423f a06b 423f a06b 423f 9f6b 423f
000002b0: a06b 423f a06b 423f a06b 423f a06b 423f
000002c0: a06b 423f a06b 423f a06b 423f a06b 423f
000002d0: a06b 423f a06b 423f a06b 423f a06b 423f
000002e0: a06b 423f a06b 423f a06b 423f a06b 423f
000002f0: a06b 423f a06b 423f 9f6b 423f a06b 423f
00000300: a06b 423f a06b 423f a06b 423f a06b 423f
00000310: a06b 423f a06b 423f a06b 423f a06b 423f
00000320: a06b 423f a06b 423f a06b 423f a06b 423f
00000330: a06b 423f a06b 423f a06b 423f a06b 423f
00000340: a06b 423f a16b 423f a06b 423f a06b 423f
00000350: a06b 423f a06b 423f a06b 423f a06b 423f
00000360: a06b 423f a06b 423f a06b 423f a06b 423f
00000370: a06b 423f a06b 423f a06b 423f a06b 423f
00000380: a06b 423f a06b 423f a06b 423f a06b 423f
00000390: 9f6b 423f a06b 423f a06b 423f a06b 423f
000003a0: a06b 423f a06b 423f a06b 423f a06b 423f
000003b0: a06b 423f a06b 423f a06b 423f a06b 423f
000003c0: a06b 423f a06b 423f a06b 423f a06b 423f
000003d0: a06b 423f a06b 423f a06b 423f 9f6b 423f
000003e0: a06b 423f a06b 423f a06b 423f a06b 423f
000003f0: a06b 423f a06b 423f a06b 423f a06b 423f
0.7594548 0.7594547 0.7594547 0.7594547 0.7594547 0.7594547 0.7594547 0.7594547
0.7594547 0.7594547 0.7594547 0.7594547 0.7594547 0.7594547 0.7594547 0.7594547
0.7594547 0.7594547 0.7594547 0.7594547 0.7594547 0.7594547 0.7594547 0.7594547
0.7594547 0.7594547 0.7594547 0.7594547 0.7594547 0.7594547 0.7594547 0.7594547
0.7594547 0.7594547 0.7594547 0.7594547 0.7594547 0.7594547 0.7594547 0.7594547
0.7594547 0.7594547 0.7594547 0.7594547 0.7594547 0.7594547 0.7594547 0.7594547
0.7594547 0.7594547 0.7594547 0.7594547 0.7594547 0.7594547 0.7594547 0.7594547
0.7594547 0.7594548 0.7594547 0.7594547 0.7594547 0.7594547 0.7594547 0.7594547
0.7594547 0.7594547 0.7594547 0.7594547 0.7594547 0.7594547 0.7594547 0.7594547
0.7594547 0.7594547 0.7594547 0.7594547 0.75945467 0.7594547 0.7594547 0.7594547
0.7594547 0.7594547 0.7594547 0.7594547 0.7594547 0.7594547 0.7594547 0.7594547
0.7594547 0.7594547 0.7594547 0.7594547 0.7594547 0.7594547 0.7594547 0.7594548
0.7594547 0.7594547 0.7594547 0.7594547 0.7594547 0.7594547 0.7594547 0.7594547
0.7594547 0.7594547 0.7594547 0.7594547 0.7594547 0.7594547 0.7594547 0.7594547
0.7594547 0.7594547 0.7594548 0.7594547 0.7594547 0.7594547 0.7594547 0.7594547
0.7594547 0.7594547 0.7594547 0.7594547 0.7594547 0.7594547 0.7594547 0.7594547
0.7594547 0.7594547 0.7594547 0.7594547 0.7594547 0.75945467 0.7594547 0.7594547
0.7594547 0.7594547 0.7594547 0.7594547 0.7594547 0.7594547 0.7594547 0.7594547
0.7594547 0.7594547 0.7594547 0.7594547 0.7594547 0.7594547 0.7594547 0.7594547
0.7594547 0.7594547 0.7594547 0.7594547 0.7594547 0.7594547 0.7594547 0.7594547
0.7594547 0.7594547 0.7594547 0.7594547 0.7594547 0.7594547 0.7594547 0.7594547
0.7594547 0.7594547 0.7594547 0.75945467 0.7594547 0.7594547 0.7594547 0.7594547
0.7594547 0.7594547 0.7594547 0.7594547 0.7594547 0.7594547 0.7594547 0.7594547
0.7594547 0.7594547 0.7594547 0.7594547 0.7594547 0.7594547 0.75945467 0.7594547
0.7594547 0.7594547 0.7594547 0.7594547 0.7594547 0.7594547 0.7594547 0.7594547
0.7594547 0.7594547 0.7594547 0.7594547 0.7594547 0.7594547 0.7594547 0.7594547
0.7594547 0.7594548 0.7594547 0.7594547 0.7594547 0.7594547 0.7594547 0.7594547
0.7594547 0.7594547 0.7594547 0.7594547 0.7594547 0.7594547 0.7594547 0.7594547
0.7594547 0.7594547 0.7594547 0.7594547 0.75945467 0.7594547 0.7594547 0.7594547
0.7594547 0.7594547 0.7594547 0.7594547 0.7594547 0.7594547 0.7594547 0.7594547
0.7594547 0.7594547 0.7594547 0.7594547 0.7594547 0.7594547 0.7594547 0.75945467
0.7594547 0.7594547 0.7594547 0.7594547 0.7594547 0.7594547 0.7594547 0.7594547
