capsule-6073072/code/work_dir/recognition/kinetics_skeleton/FAI_GCN/epoch280_model.pt (torch, 74070 bytes, 22 tensors)

A f4 [3, 18, 18]
00000000: 0000 803e 0000 0000 0000 0000 0000 0000
00000010: 0000 0000 0000 0000 0000 0000 0000 0000
00000020: 0000 0000 0000 0000 0000 0000 0000 0000
00000030: 0000 0000 0000 0000 0000 0000 0000 0000
00000040: 0000 0000 0000 0000 0000 0000 0000 803e
00000050: 0000 0000 0000 0000 0000 0000 0000 0000
00000060: 0000 0000 0000 0000 0000 0000 0000 0000
00000070: 0000 0000 0000 0000 0000 0000 0000 0000
00000080: 0000 0000 0000 0000 0000 0000 0000 0000
00000090: 0000 0000 0000 0000 0000 803e 0000 0000
000000a0: 0000 0000 0000 0000 0000 0000 0000 0000
000000b0: 0000 0000 0000 0000 0000 0000 0000 0000
000000c0: 0000 0000 0000 0000 0000 0000 0000 0000
000000d0: 0000 0000 0000 0000 0000 0000 0000 0000
000000e0: 0000 0000 abaa aa3e 0000 0000 0000 0000
000000f0: 0000 0000 0000 0000 0000 0000 0000 0000
00000100: 0000 0000 0000 0000 0000 0000 0000 0000
00000110: 0000 0000 0000 0000 0000 0000 0000 0000
00000120: 0000 0000 0000 0000 0000 0000 0000 0000
00000130: 0000 003f 0000 0000 0000 0000 0000 0000
00000140: 0000 0000 0000 0000 0000 0000 0000 0000
00000150: 0000 0000 0000 0000 0000 0000 0000 0000
00000160: 0000 0000 0000 0000 0000 0000 0000 0000
00000170: 0000 0000 0000 0000 0000 0000 0000 803e
00000180: 0000 0000 0000 0000 0000 0000 0000 0000
00000190: 0000 0000 0000 0000 0000 0000 0000 0000
000001a0: 0000 0000 0000 0000 0000 0000 0000 0000
000001b0: 0000 0000 0000 0000 0000 0000 0000 0000
000001c0: 0000 0000 0000 0000 abaa aa3e 0000 0000
000001d0: 0000 0000 0000 0000 0000 0000 0000 0000
000001e0: 0000 0000 0000 0000 0000 0000 0000 0000
000001f0: 0000 0000 0000 0000 0000 0000 0000 0000
00000200: 0000 0000 0000 0000 0000 0000 0000 0000
00000210: 0000 0000 0000 003f 0000 0000 0000 0000
00000220: 0000 0000 0000 0000 0000 0000 0000 0000
00000230: 0000 0000 0000 0000 0000 0000 0000 0000
00000240: 0000 0000 0000 0000 0000 0000 0000 0000
00000250: 0000 0000 0000 0000 0000 0000 0000 0000
00000260: abaa aa3e 0000 0000 0000 0000 0000 0000
00000270: 0000 0000 0000 0000 0000 0000 0000 0000
00000280: 0000 0000 0000 0000 0000 0000 0000 0000
00000290: 0000 0000 0000 0000 0000 0000 0000 0000
000002a0: 0000 0000 0000 0000 0000 0000 abaa aa3e
000002b0: 0000 0000 0000 0000 0000 0000 0000 0000
000002c0: 0000 0000 0000 0000 0000 0000 0000 0000
000002d0: 0000 0000 0000 0000 0000 0000 0000 0000
000002e0: 0000 0000 0000 0000 0000 0000 0000 0000
000002f0: 0000 0000 0000 0000 0000 003f 0000 0000
00000300: 0000 0000 0000 0000 0000 0000 0000 0000
00000310: 0000 0000 0000 0000 0000 0000 0000 0000
00000320: 0000 0000 0000 0000 0000 0000 0000 0000
00000330: 0000 0000 0000 0000 0000 0000 0000 0000
00000340: 0000 0000 abaa aa3e 0000 0000 0000 0000
00000350: 0000 0000 0000 0000 0000 0000 0000 0000
00000360: 0000 0000 0000 0000 0000 0000 0000 0000
00000370: 0000 0000 0000 0000 0000 0000 0000 0000
00000380: 0000 0000 0000 0000 0000 0000 0000 0000
00000390: abaa aa3e 0000 0000 0000 0000 0000 0000
000003a0: 0000 0000 0000 0000 0000 0000 0000 0000
000003b0: 0000 0000 0000 0000 0000 0000 0000 0000
000003c0: 0000 0000 0000 0000 0000 0000 0000 0000
000003d0: 0000 0000 0000 0000 0000 0000 0000 003f
000003e0: 0000 0000 0000 0000 0000 0000 0000 0000
000003f0: 0000 0000 0000 0000 0000 0000 0000 0000
0.25 0.0 0.0 0.0 0.0 0.0 0.0 0.0
0.0 0.0 0.0 0.0 0.0 0.0 0.0 0.0
0.0 0.0 0.0 0.25 0.0 0.0 0.0 0.0
0.0 0.0 0.0 0.0 0.0 0.0 0.0 0.0
0.0 0.0 0.0 0.0 0.0 0.0 0.25 0.0
0.0 0.0 0.0 0.0 0.0 0.0 0.0 0.0
0.0 0.0 0.0 0.0 0.0 0.0 0.0 0.0
0.0 0.33333334 0.0 0.0 0.0 0.0 0.0 0.0
0.0 0.0 0.0 0.0 0.0 0.0 0.0 0.0
0.0 0.0 0.0 0.0 0.5 0.0 0.0 0.0
0.0 0.0 0.0 0.0 0.0 0.0 0.0 0.0
0.0 0.0 0.0 0.0 0.0 0.0 0.0 0.25
0.0 0.0 0.0 0.0 0.0 0.0 0.0 0.0
0.0 0.0 0.0 0.0 0.0 0.0 0.0 0.0
0.0 0.0 0.33333334 0.0 0.0 0.0 0.0 0.0
0.0 0.0 0.0 0.0 0.0 0.0 0.0 0.0
0.0 0.0 0.0 0.0 0.0 0.5 0.0 0.0
0.0 0.0 0.0 0.0 0.0 0.0 0.0 0.0
0.0 0.0 0.0 0.0 0.0 0.0 0.0 0.0
0.33333334 0.0 0.0 0.0 0.0 0.0 0.0 0.0
0.0 0.0 0.0 0.0 0.0 0.0 0.0 0.0
0.0 0.0 0.0 0.33333334 0.0 0.0 0.0 0.0
0.0 0.0 0.0 0.0 0.0 0.0 0.0 0.0
0.0 0.0 0.0 0.0 0.0 0.0 0.5 0.0
0.0 0.0 0.0 0.0 0.0 0.0 0.0 0.0
0.0 0.0 0.0 0.0 0.0 0.0 0.0 0.0
0.0 0.33333334 0.0 0.0 0.0 0.0 0.0 0.0
0.0 0.0 0.0 0.0 0.0 0.0 0.0 0.0
0.0 0.0 0.0 0.0 0.33333334 0.0 0.0 0.0
0.0 0.0 0.0 0.0 0.0 0.0 0.0 0.0
0.0 0.0 0.0 0.0 0.0 0.0 0.0 0.5
0.0 0.0 0.0 0.0 0.0 0.0 0.0 0.0

data_bn.weight f4 [54]
00000000: ecbe 403f 7a0f 363f 6d43 403f b24a 303f
00000010: 90f2 323f e1f1 403f 82a5 333f 342f 363f
00000020: 208f 273f 276c 393f cfd4 323f d7c3 333f
00000030: 444e 333f 315c 2b3f 1da1 363f 834a 3d3f
00000040: 0d7e 393f 761f 363f 976e 323f 9981 2f3f
00000050: a9ec 393f b490 353f 583b 313f 3e05 383f
00000060: 3028 363f 0a33 373f 8081 393f 09e2 393f
00000070: 68f4 363f 8149 3a3f 8741 2e3f 9a24 353f
00000080: 26d7 383f 3c33 3c3f eab9 3b3f 44de 3e3f
00000090: f4b5 353f 4ba3 3b3f 9b4e 383f 0209 353f
000000a0: 9025 353f 640c 3a3f 67f3 393f a92a 3f3f
000000b0: 32d3 333f a131 313f 1e99 403f f091 363f
000000c0: 3fc1 393f 18d2 3d3f a8cd 383f 504d 3e3f
000000d0: b66b 273f 5b06 353f
0.75291324 0.71117365 0.75102884 0.68863976 0.6990137 0.7536908 0.7017442 0.71165776
0.65452766 0.7243065 0.6985597 0.702207 0.700413 0.6693755 0.7133959 0.7394182
0.72457963 0.71141756 0.69699997 0.68557125 0.7262674 0.70923924 0.69231176 0.71883
0.7115507 0.71562254 0.72463226 0.7261053 0.71466684 0.7276841 0.68068737 0.70758975
0.7220329 0.7351568 0.7333056 0.745579 0.70980763 0.7329604 0.7199494 0.7071687
0.7076044 0.72675157 0.7263703 0.7467447 0.70244133 0.6921635 0.7523364 0.7131643
0.72560495 0.741487 0.72188807 0.7433672 0.6539873 0.7071282

data_bn.bias f4 [54]
00000000: 395f 8793 f5e5 430d f36f 478c 4691 e894
00000010: a04c 940b fe35 e60c 3926 f193 8d85 928c
00000020: 85ae 2e8e c161 c815 df54 c916 7e0a 3b2b
00000030: eccc cea9 f0d9 1e31 180a 74a6 f9b5 9c13
00000040: 5e79 938b 35a5 480e 5fb1 cc15 8f3b 5f14
00000050: 79c9 eb2d 5a51 8a31 2017 4931 dede d823
00000060: 3bea 3594 4a5c 52b3 7204 6226 9133 f215
00000070: fba1 a9af fbf4 a48f aef9 e7b2 2fde aeb4
00000080: 8b3e e9a5 84ca 5b94 4b88 aa33 77ef e9a3
00000090: 98b9 1116 b0da 92ac 1afb 168e d045 cab6
000000a0: c996 2035 d2c3 7c24 ddcb 0916 3afc 9e9b
000000b0: d005 cc2b f6bd 0c16 3f18 660f d8aa 47ac
000000c0: b909 a82d e2f5 9ead 272b 83b4 f92d a92f
000000d0: b9b3 b4af d92c 2924
-3.4172688e-27 6.0365815e-31 -1.5364091e-31 -2.3483314e-26 5.712282e-32 3.5469606e-31 -6.0874643e-27 -2.257524e-31
-2.1531184e-30 8.0933585e-26 3.2526863e-25 6.6450307e-13 -9.183786e-14 2.311591e-09 -8.4668185e-16 3.9559375e-27
-5.6804953e-32 2.4731448e-30 8.2674786e-26 1.1270369e-26 2.6805879e-11 4.025577e-09 2.9262495e-09 2.3513155e-17
-9.1843585e-27 -4.897837e-08 7.8415526e-16 9.782438e-26 -3.0856015e-10 -1.6266012e-29 -2.700548e-08 -3.2571685e-07
-4.0461438e-16 -1.10966136e-26 7.9410334e-08 -2.5363328e-17 1.177157e-25 -4.1738488e-12 -1.8609828e-30 -6.0281964e-06
5.9824066e-07 5.4809656e-17 1.11311e-25 -2.6301905e-22 1.4496685e-12 1.1369051e-25 1.1344545e-29 -2.8374438e-12
1.9103706e-11 -1.8071714e-11 -2.443205e-07 3.0773586e-10 -3.286951e-10 3.668402e-17

data_bn.running_mean f4 [54]
00000000: e5c5 063a 0fa8 6dbd c5e4 1d3e f24c d63a
00000010: 504f 27bd b742 183e c724 08bc ad9b 30bd
00000020: 702d 0a3e f962 85bc 73aa 0cbd d429 0c3e
00000030: 8361 84bc 5e5f 1fbd 5199 0a3e 79eb 3a3c
00000040: e45d 1dbd 52e0 0a3e 2a8b 8b3c 1326 dabc
00000050: 6434 043e 8c4d 893c 5d43 d9bc a5c4 f63d
00000060: 274b 09bc 465c bbbb 7b04 e93d d344 8dbc
00000070: bd9e d3b9 8273 033e 503a 00bc f527 9e3c
00000080: 43ba ee3d 1c78 7a3b f269 61bb d326 e23d
00000090: 979f 223c bea9 853b b1a1 f83d 3375 cb3a
000000a0: 42ac be3c 7489 d23d d706 a6ba f476 7bbd
000000b0: a464 143e 26c8 8b3b b3af 78bd d305 223e
000000c0: e707 a4ba 5971 31bd 8691 8d3d d5e3 2b3c
000000d0: 971d 5dbd 77f1 053e
0.0005141183 -0.0580216 0.154193 0.0016349836 -0.040847123 0.148692 -0.00830955 -0.043117214
0.13493896 -0.016282545 -0.03434224 0.13687831 -0.016159778 -0.03890931 0.13535048 0.01140868
-0.03841962 0.13562134 0.017034132 -0.026629483 0.1291061 0.01676061 -0.02652138 0.12049226
-0.008379734 -0.005717787 0.11377808 -0.017244732 -0.00040363325 0.12837031 -0.007826403 0.019306162
0.1165662 0.0038218563 -0.0034395424 0.110425614 0.0099257445 0.0040790727 0.12140215 0.0015522599
0.023275498 0.10280123 -0.0012666833 -0.06139274 0.14491516 0.004265803 -0.060714435 0.15822534
-0.0012514562 -0.043320987 0.06912522 0.010491331 -0.053983297 0.13080393

data_bn.running_var f4 [54]
00000000: 57c6 763b 5f6e 2b3c e5e8 b73d 2248 573b
00000010: 585c c53b b7f8 ab3d 7bf1 9d3b 73c4 d03b
00000020: 8494 8c3d a0a3 c93b 2c32 a13b 784a 913d
00000030: a51e bd3b 6d4f d33b 46d8 943d 8ce3 253b
00000040: a621 bd3b 64fe 8d3d 2b70 223b b0b9 9e3b
00000050: 8e4e 863d ebbd 393b 03ea c83b 6bf6 783d
00000060: 904c 983b 4258 993b a333 483d 6673 de3b
00000070: ad7b b43b 3b0d 883d 71a6 953b 34dd 193c
00000080: 8996 643d f7ce 403b 5a2b a33b 9747 3b3d
00000090: 4817 2d3b 46af c03b 804e 783d d3d0 573b
000000a0: 28ca 323c dbf5 463d 631f 813b b7c1 3b3c
000000b0: baeb ab3d cd0f 5e3b 8c2a 383c 4c21 c23d
000000c0: 6577 783b ce3f f83b f5b0 1c3d 1286 323b
000000d0: bec6 203c 0b81 9b3d
0.003765484 0.010463326 0.08979968 0.003284939 0.006022971 0.08397048 0.0048200465 0.006371075
0.068642646 0.006153539 0.004919311 0.07094282 0.0057714754 0.0064486773 0.072678134 0.002531263
0.0057718335 0.06933287 0.0024786096 0.004843913 0.06557952 0.002834196 0.006131412 0.060781877
0.004647799 0.0046797106 0.04887737 0.006788659 0.0055079074 0.066431485 0.0045669605 0.009391118
0.055807624 0.0029420236 0.004979533 0.04572257 0.0026411582 0.005880269 0.06062174 0.0032930865
0.010912456 0.04857431 0.003940509 0.011459759 0.08394571 0.003388393 0.011240613 0.09479007
0.0037912962 0.0075759655 0.038254697 0.0027240557 0.009813009 0.07592972

fai_gcn_networks.0.gcn.conv.weight f4 [96, 3, 1, 1]
00000000: 3491 300f f653 6091 2833 528c 0c67 189d
00000010: 8c97 bd9f ba34 bb1c e4b0 4019 e959 8a9a
00000020: bf3f 0f19 36d2 661b 6bb4 2b9e 0d44 b59b
00000030: bce8 2892 b425 0c12 be7a 5513 8df3 8417
00000040: c9e8 2499 5258 9016 6c47 eb1f 2748 da20
00000050: 0f8d 019f 32eb da09 ea0b 0e0a 8ff9 088a
00000060: 21cd e48f a226 5c92 c1d5 890f 7b78 0f23
00000070: 20c1 aaa3 9935 5829 d48c ff9b e087 471c
00000080: 9725 1d1c a39e 209b c3d8 779b 67d8 b19b
00000090: 16e6 f415 6bac 0897 a7a9 9116 6aeb 7b95
000000a0: 90d4 ff17 6465 0e15 4029 4a2f 6537 3223
000000b0: c293 96a4 9a42 331e bc0f 4a9d a62c 129d
000000c0: 298b b617 1fd8 1c97 8758 9995 d8ca d919
000000d0: a993 5f1a d9d5 951c a7e2 5395 3cfb f417
000000e0: dedc b515 0296 1e18 72c9 db98 ba7e 6018
000000f0: aea2 fd9b 8646 b91c 1083 781c 030a b19c
00000100: f121 7996 2dc1 f098 4b5b a31c 59f8 ac1b
00000110: 0c03 819c 8195 be96 a5c4 a318 f635 6716
00000120: 0eb8 e31b a7db 049d 1e42 c99a 77fa dba9
00000130: 3b29 d79e 3472 021f 0870 d098 a7f3 da9c
00000140: f36b 369b abbd dc14 78bb 8395 5527 8115
00000150: b843 2ca1 6529 31a2 6794 4fa2 461c 8820
00000160: 8ab6 5320 1aac 0829 6c44 bb18 9a20 279a
00000170: 6a3c 9297 c11e e31d feec 1da0 f5b2 b79e
00000180: 758c a990 66f2 df90 697f e110 1252 279e
00000190: 0869 d39f 4e55 3f9e 9fad 789a 3e06 6520
000001a0: 0713 3c1a fc4a 039c fec7 171d 22c3 119e
000001b0: 033e 1411 5ad9 1394 45d6 6d12 1dcd 1399
000001c0: bd80 df98 8dad 8216 1a4b 1e20 79cb e320
000001d0: 64ca 59a0 e230 550a 4355 1b0a 8282 838a
000001e0: 7cb6 8410 3fab 7411 fd99 8d8f f9c9 47a2
000001f0: 7413 71a2 6c38 a4a3 763b 9b1c 21cd f417
00000200: f18d a31c 0e4f d31c b004 831c df9a fe1c
00000210: 1615 af16 d3a9 8497 2993 1996 924c 3a15
00000220: 42c6 2496 6d0c 7b96 8de3 9024 78e9 1ba4
00000230: 8f37 b1a4 f50c b21d 9868 859e e124 849d
00000240: 6c0c 3517 e00c 9017 be7b e816 3fe8 8799
00000250: 7adb e51a aa87 1e1a 9b6b 9613 28da 5796
00000260: 499e 0b16 d954 9297 00f7 0099 f5c8 1117
00000270: c148 9c9c 6d7c 979e b4e2 381c 1e7f 0c19
00000280: 47ce 4e18 9b90 bca2 5c3c 16a0 1e6e bf1b
00000290: f2a0 3a1b b117 a417 2beb bc16 2826 f296
000002a0: 7e02 561c b1af bf1b d719 8119 fbb6 7a9e
000002b0: 832b ba9e e52f 441f a561 181b 500c 689d
000002c0: 0902 7d9b 203c 8a14 4177 ad95 0236 5c14
000002d0: c60e a7a1 9f68 4da2 525c 0ca1 1f04 151f
000002e0: 2988 0521 feea 03a2 8ac1 e597 2b21 1e1a
000002f0: beed 8c17 9904 a69d 6291 0021 306f 839e
00000300: 328f 1f0f 2126 868e db82 4d8f ab7c 0c1c
00000310: 2cb6 949d 57cb 601b b6d1 6d99 ad93 9119
00000320: b1a6 bb18 8b2f 8b9b 42fa 461d e26f dc1c
00000330: ad6b 2992 3573 9912 f0ba 3c92 ac6a db15
00000340: c580 9d16 d60c da16 c240 379e 7e66 a41e
00000350: dd86 549e b10e 7a8a ac4b 6e09 314f fd89
00000360: 5270 da0f c31d 000e d23a 4b10 fe30 b022
00000370: 194f 1e23 e871 11a3 1f79 c59a d76d fa1d
00000380: d390 7f9b 1cf8 4d9b e582 ca1b 4499 f09a
00000390: 456d 0d94 aa5b de1a 4e92 7795 5012 ca95
000003a0: 4819 a495 6b69 f894 df4d fc23 3090 b423
000003b0: ef9b c5a3 d4f4 399c 7415 281d f300 501b
000003c0: 63ab 8c97 3ab5 5b1b a4c5 5b97 dbea 861a
000003d0: ae1f a698 aa8a a81a 5ba7 5016 6bec 1495
000003e0: eef8 cf95 6e81 8617 90e0 9d17 7512 d216
000003f0: dc7f b59c 0435 f899 4030 8e19 5e2f 6f98
8.705435e-30 -1.7696357e-28 -1.6193206e-31 -2.0170306e-21 -8.029533e-20 1.2388251e-21 9.96189e-24 -5.722072e-23
7.4058e-24 1.9093077e-22 -9.089974e-21 -2.9987915e-22 -5.329832e-28 4.4222683e-28 2.6944896e-27 8.591781e-25
-8.525612e-24 2.3320193e-25 9.964453e-20 3.6978383e-19 -2.7433493e-20 5.2702768e-33 6.839292e-33 -6.5950986e-33
-2.2561549e-29 -6.946738e-28 1.3591578e-29 7.777558e-18 -1.8513229e-17 4.8008123e-14 -4.227722e-22 6.601919e-22
5.1995526e-22 -1.3286148e-22 -2.05014e-22 -2.942204e-22 9.8913827e-26 -4.416159e-25 2.353308e-25 -5.0874755e-26
1.6532647e-24 2.8756655e-26 1.8386448e-10 9.6611296e-18 -6.530244e-17 9.489954e-21 -2.6742612e-21 -1.9346022e-21
1.1796603e-24 -5.06791e-25 -6.193588e-26 2.2519202e-23 4.6234598e-23 9.915271e-22 -4.2789908e-26 1.5831551e-24
7.3453785e-26 2.0496756e-24 -5.681358e-24 2.9015302e-24 -4.1960468e-22 1.2260503e-21 8.222571e-22 -1.1715465e-21
-2.012477e-25 -6.2233604e-24 1.0810034e-21 2.8615504e-22 -8.537292e-22 -3.0790506e-25 4.2333073e-24 1.8677058e-25
3.7672942e-22 -1.7583612e-21 -8.323847e-23 -9.7690024e-14 -2.2781063e-20 2.7623037e-20 -5.3879862e-24 -1.4489013e-21
-1.5089567e-22 2.2289134e-26 -5.320625e-26 5.216474e-26 -5.836549e-19 -2.4009887e-18 -2.8132295e-18 2.3058006e-19
1.7932792e-19 3.034734e-14 4.8407455e-24 -3.4561126e-23 -9.45028e-25 6.01182e-21 -1.3376831e-19 -1.9449894e-20
-6.6875155e-29 -8.8331465e-29 8.894316e-29 -8.857878e-21 -8.9535736e-20 -1.0129096e-20 -5.1425448e-23 1.939912e-19
3.889286e-23 -4.344118e-22 2.0088077e-21 -7.716589e-21 1.169425e-28 -7.4644684e-27 7.504812e-28 -7.641144e-24
-5.777414e-24 2.1112159e-25 1.340797e-19 3.8589943e-19 -1.844758e-19 1.0264771e-32 7.4790145e-33 -1.2663933e-32
5.234598e-29 1.9300975e-28 -1.3962988e-29 -2.7076452e-18 -3.2671889e-18 -1.7804811e-17 1.027241e-21 1.5819912e-24
1.0823126e-21 1.3983244e-21 8.670065e-22 1.6848343e-21 2.8286082e-25 -8.57317e-25 -1.2405677e-25 3.7622804e-26
-1.3310374e-25 -2.027954e-25 6.283553e-17 -3.3808023e-17 -7.6855634e-17 4.7129605e-21 -1.4125182e-20 -3.497824e-21
5.8499933e-25 9.309032e-25 3.7559714e-25 -1.4052476e-23 9.5066764e-23 3.2783223e-23 3.797143e-27 -1.74364e-25
1.1278277e-25 -9.456447e-25 -6.667326e-24 4.710567e-25 -1.034202e-21 -1.6039208e-20 6.11735e-22 7.2635015e-24
2.672902e-24 -5.111061e-18 -1.2725465e-19 3.166946e-22 1.5437564e-22 1.0604232e-24 3.052145e-25 -3.9121289e-25
7.080988e-22 3.1711837e-22 1.3348724e-23 -1.3272729e-20 -1.9711512e-20 4.1544232e-20 1.2604696e-22 -3.071131e-21
-2.0928327e-22 1.3958154e-26 -7.006229e-26 1.1117813e-26 -1.1320271e-18 -2.7838067e-18 -4.755603e-19 3.1555386e-20
4.524236e-19 -1.7878214e-18 -1.4847634e-24 3.2700427e-23 9.107303e-25 -4.394459e-21 4.35605e-19 -1.391615e-20
7.866884e-30 -3.3070267e-30 -1.0132482e-29 4.6483244e-22 -3.9363635e-21 1.8594548e-22 -1.2294964e-23 1.5052294e-23
4.8506682e-24 -2.3026345e-22 2.6334462e-21 1.45873e-21 -5.345972e-28 9.684058e-28 -5.955276e-28 8.8621694e-26
2.5445983e-25 3.52279e-25 -9.701331e-21 1.7406565e-20 -1.1251076e-20 -1.2039825e-32 2.8683789e-33 -6.0982006e-33
2.1539724e-29 1.5791548e-30 4.0080004e-29 4.775677e-18 8.581947e-18 -7.884586e-18 -8.167297e-23 6.628802e-21
-2.1139901e-22 -1.7037371e-22 3.3502685e-22 -9.950929e-23 -7.1402304e-27 9.196514e-23 -4.9996667e-26 -8.161604e-26
-6.627896e-26 -2.508318e-26 2.7354874e-17 1.9576705e-17 -2.1424823e-17 -6.15278e-22 2.2245706e-21 1.7205663e-22
-9.090552e-25 1.8173813e-22 -7.1012174e-25 5.580053e-23 -4.2941983e-24 6.9707195e-23 1.6854914e-25 -3.0074863e-26
-8.3999376e-26 8.69222e-25 1.0202575e-24 3.3938978e-25 -1.2010626e-21 -2.5664012e-23 1.4701944e-23 -3.091394e-24

fai_gcn_networks.0.gcn.conv.bias f4 [96]
00000000: 767e 451c 7eda 2220 14a4 b09c 4c1b 43a8
00000010: b94b 861e a4bd 11a4 1594 f3a1 5839 0295
00000020: af25 211d 1877 b9a3 1ca3 c1a8 96a2 2a1e
00000030: e7cc d921 9045 73a0 5ae0 9f25 4c91 22a1
00000040: 082d 89a1 1af2 ae23 c39b 9d22 bbf4 5aa4
00000050: 2d32 53a7 47cb 7119 868a dd1d 820f 1fa3
00000060: 5718 96a7 b1dc 1b21 ebce 279d c106 0221
00000070: a631 e723 6e05 4021 88d5 ea22 ee05 e52a
00000080: 9d3d 911b a228 d61f 4552 9b9c 4d70 b8a8
00000090: 24dc 8d1e 22cf bda3 2e6b e4a1 51b7 e314
000000a0: 4ed6 9b1c 1265 3fa4 831f 71a9 8c33 e49d
000000b0: eab6 9fa2 1308 21a2 079d 3f26 01a5 49a1
000000c0: 46ae a9a1 9367 0d24 89f8 ba22 1b3e db24
000000d0: 5fde bea8 0840 b519 b8ff 8d1d 4c7c 48a3
000000e0: e7a6 c0a7 1bdb 4f21 2323 5b9d babb 89a1
000000f0: ca08 45a3 8e4d 1021 fb85 6ca3 bdd2 9caa
00000100: 6c58 c69b c56d 7420 88eb 259b d0c3 73a9
00000110: 635e 6e9c 952a d522 201f a920 5e96 c914
00000120: f49a 419d 301f 96a4 b706 9c28 59bc ee1c
00000130: 33fb 1822 c98b bc9f af1a 8425 a33b 2e1f
00000140: 0532 ec21 c3bd 2424 0fad fc21 ef99 cb23
00000150: 0dcf a228 a86c 8519 33ad 339c be3b ca22
00000160: 33cc f827 acb4 dd1f 8cac b41a 54e7 e3a0
00000170: 964f 81a3 25a2 15a2 deda e4a2 5f7f feaa
6.534528e-22 1.3794227e-19 -1.1689116e-21 -1.08305936e-14 1.421912e-20 -3.1602495e-17 -1.6505517e-18 -2.6298527e-26
2.1327655e-21 -2.0108178e-17 -2.1498042e-14 9.033347e-21 1.4758729e-18 -2.0605917e-19 2.773413e-16 -5.5080034e-19
-9.295401e-19 1.8967652e-17 4.2719854e-18 -4.747851e-17 -2.9309333e-15 1.25004595e-23 5.8641443e-21 -8.622691e-18
-4.1659753e-15 5.2808125e-19 -2.220924e-21 4.405465e-19 2.5066097e-17 6.5059316e-19 6.3651912e-18 4.0682686e-13
2.4028054e-22 9.0699747e-20 -1.0278306e-21 -2.0476806e-14 1.5020004e-20 -2.0579145e-17 -1.5478251e-18 2.2993448e-26
1.0312436e-21 -4.1502133e-17 -5.3540082e-14 -6.0404396e-21 -4.3290704e-18 -2.1823843e-18 6.647925e-16 -6.831983e-19
-1.1498015e-18 3.0662232e-17 5.0678548e-18 9.508132e-17 -2.1190676e-14 1.8740823e-23 3.7586796e-21 -1.0868343e-17
-5.347166e-15 7.042431e-19 -2.9002574e-21 -9.333172e-19 -1.06812526e-17 4.889174e-19 -1.2821957e-17 -2.7857396e-13
-3.2813494e-22 2.0703924e-19 -1.3724584e-22 -5.412668e-14 -7.8869586e-22 5.777885e-18 2.865031e-19 2.0355123e-26
-2.5623446e-21 -6.5104964e-17 1.7322391e-14 1.5798206e-21 2.0732825e-18 -7.985235e-20 2.2916431e-16 3.6895264e-20
1.6005222e-18 3.5722566e-17 1.7121992e-18 2.2074498e-17 1.8075407e-14 1.3795764e-23 -5.9449987e-22 5.4815464e-18
6.905522e-15 9.389604e-20 7.472502e-23 -3.8608376e-19 -1.4019914e-17 -2.0279104e-18 -6.203126e-18 -4.5207845e-13

fai_gcn_networks.1.gcn.conv.weight f4 [192, 32, 1, 1]
00000000: 8da0 f784 0ec5 8007 84a2 aa88 8d88 1c10
00000010: edc4 5586 55d7 ff9a 1bad c70b cf0a 0480
00000020: ab8c 0205 5cc3 8a0f 0c78 fb10 e79c ba05
00000030: ee77 fc09 9088 250a acb0 2515 609f da89
00000040: cd72 3d8a 56a5 900d 6c5c 6b8b 5646 7c8b
00000050: 3c6c 9891 4d7a c888 c737 b185 44cf a109
00000060: 407f f28f be04 2d0f e5e9 3e82 d4a6 8a06
00000070: b4a5 c10b 165a c58e 28bc 7c8b f39f 2b13
00000080: 655e 0307 b1ac 048b 5464 0f89 7d6d 9810
00000090: 5b24 9388 eca8 538b e7c4 4a8c 7201 54a9
000000a0: a372 ad06 c002 1b10 925a 5993 5196 0286
000000b0: c7e0 1b8c 1ec8 80a3 fc8d 0b16 76f4 b489
000000c0: 20e2 1d2a 33bc 450d 76b6 420b 082c 7f8e
000000d0: 6ad5 1e10 04b3 e70a 10ae 8d87 eccf 758b
000000e0: 39df fb90 ecc7 ba90 a50c 08a2 826b bc8a
000000f0: e0da 8e8c bb0d c70f 14b5 ed8a be9d 0e94
00000100: dcfa bc85 2311 8207 8262 dc07 b0b1 6891
00000110: 19d7 95ab 3052 840d 4304 eb8c 9bc7 2680
00000120: d036 6c86 3704 4912 e550 9213 410d 8920
00000130: 5f27 e88b f9ce b48b b5cb 0198 07ec c98b
00000140: 2fa8 ae09 b21a af8d 5aec ef1a 858c fe0e
00000150: 41f8 ff91 0a94 e58a dde9 1587 2ec2 8618
00000160: 2379 f190 6ba8 8211 f7c9 5c86 8b7c a38a
00000170: f4b7 848e fb90 9310 0963 bf8d 4293 2e92
00000180: bf93 2315 8fc5 8717 6eb2 8117 d4d1 5220
00000190: b6ba 2e97 acbf 6b1c 0415 4c1a 7883 2a8d
000001a0: aa93 9015 326c aa20 5b4f b021 b129 ee15
000001b0: 4178 a619 8183 1d1a de07 8226 baee 221a
000001c0: cbea 751b 5560 141a 26b8 661b 5238 fe1c
000001d0: d264 871f 36fe 9d1a 5715 8d15 bfc5 511b
000001e0: 5d22 0321 49ec 0321 54b5 8694 4d22 0817
000001f0: 1315 db1b 9fa3 0921 8dd7 001b 8fe3 6d1e
00000200: 2b4d 9784 95df 0389 ad57 dc08 f578 9590
00000210: b3ba 0e08 7d0e 8d0c 334b c60b 0008 0180
00000220: 2912 5505 9756 8391 09ae c812 defb 2a86
00000230: 9a6f 260c d9ed 6b0a dbcc df1a bf29 d48d
00000240: e6a5 8b8a 8ee6 858d b811 4b8b 2182 eb0b
00000250: ece4 be91 f920 450b 01da fe08 8617 7b0b
00000260: 0dae d20f da7e 4612 49db 8905 493a 348a
00000270: 29ae 8c0b eadd 3811 3e5b 678d 83c0 efad
00000280: 78ab 9f17 4039 8b1a 3f1e 3d1b 41c9 4d23
00000290: 8ad9 eb99 b581 a3a0 b0c1 dc1d 7037 aa10
000002a0: 1035 3a19 1c65 8923 8a34 b224 3135 a299
000002b0: 5dae 609d e625 f9a0 d263 d429 d3a9 511b
000002c0: 0aa8 a61c 388f e21e 10c6 781e d48d d11f
000002d0: 6d13 72a4 20c2 351d 90c4 741a 9500 7ea8
000002e0: c275 5f23 ba5e 05a4 93eb b797 22d5 031c
000002f0: 6ecd 611e d72d 5223 87d2 521f 2c1a 2e25
00000300: 11c2 a095 dca4 3aa0 e34e 5617 7462 5620
00000310: d11f d296 cda4 3e1c 77ce f21a 00a6 230e
00000320: 4b66 5314 c980 5220 43a0 ae21 abc5 c215
00000330: 3b9f 0b1a 14f6 3c1a 629c 4d26 088d 979b
00000340: 696d d79a ac39 eb1b 86c7 111a 9ba5 5c1c
00000350: b168 6b20 02ad 8b19 ec8f a116 1a90 851b
00000360: 7b9a 409f 5a48 9520 931c cf13 e5b9 a098
00000370: a33e 8b1b d493 7920 7e3b a59e 925e ac22
00000380: d133 e595 ed4c 431a b35c 551b fde1 1123
00000390: 2824 0c99 5dfb a51e a531 c71d 2e8e 5091
000003a0: bcbc 1d97 5a82 5023 0885 8824 5339 a818
000003b0: 6a47 c71c af7a c91c b4d6 1d29 9e50 971c
000003c0: e7ee 8e1c 99fd 099d a956 aa9b ec15 5e1f
000003d0: f2f2 7323 5366 d41c 2fd7 5a1a e911 911b
000003e0: 3189 b422 ab82 f0a3 f46b 8218 4a20 341a
000003f0: aa28 679e 5dd8 0523 6788 101f 25e4 7ca4
-5.8216864e-36 1.9375118e-34 -1.026971e-33 3.087077e-29 -4.0205526e-35 -1.05813416e-22 7.691247e-32 -3.7122e-40
6.138407e-36 1.36831e-29 9.9187005e-29 1.7548993e-35 6.0779575e-33 7.9701456e-33 3.3460854e-26 -5.2631467e-33
-9.1216106e-33 8.914488e-31 -4.5328884e-32 -4.858635e-32 -2.4048076e-28 -1.2065815e-33 -1.666549e-35 3.895425e-33
-2.3912057e-29 8.530472e-30 -1.402612e-37 5.215496e-35 7.459022e-32 -4.8651e-30 -4.8674988e-32 2.1662095e-27
9.883085e-35 -2.5552194e-32 -1.7260173e-33 6.012212e-29 -8.855788e-34 -4.0764205e-32 -1.5620767e-31 -4.707471e-14
6.524381e-35 3.057048e-29 -2.7433905e-27 -2.4560718e-35 -1.2008407e-31 -1.396254e-17 1.1273133e-25 -4.3563314e-33
1.4022854e-13 6.093185e-31 3.750031e-32 -3.1452377e-30 3.1324414e-29 2.2311829e-32 -2.1317627e-34 -4.7341707e-32
-9.934597e-29 -7.367209e-29 -1.843813e-18 -1.8144181e-32 -2.2010295e-31 1.9628204e-29 -2.2890384e-32 -7.200277e-27
-1.7771586e-35 1.9570298e-34 3.3159819e-34 -1.8356327e-28 -1.0646788e-12 8.154914e-31 -3.6210048e-31 -3.561354e-39
-4.4426937e-35 6.342961e-28 3.693535e-27 2.3217473e-19 -8.942239e-32 -6.9644896e-32 -1.6775705e-24 -7.777752e-32
4.2047135e-33 -1.0791634e-30 9.922993e-23 6.275115e-30 -4.0384904e-28 -2.2107584e-32 -1.127824e-34 3.483426e-24
-9.524438e-29 2.061418e-28 -4.1525781e-35 -1.5743177e-32 -3.2717653e-30 5.8204654e-29 -1.1795126e-30 -5.508623e-28
3.303414e-26 8.774041e-25 8.381472e-25 1.7857118e-19 -5.6458095e-25 7.800271e-22 4.2203188e-23 -5.2543544e-31
5.839411e-26 2.8870718e-19 1.1947229e-18 9.619321e-26 1.7212568e-23 3.2573067e-23 9.022694e-16 3.3693657e-23
2.0341791e-22 3.06835e-23 1.9084656e-22 1.6822869e-21 5.734152e-20 6.534438e-23 5.6983115e-26 1.735197e-22
4.4430006e-19 4.4697247e-19 -1.3602064e-26 4.3987264e-25 3.624413e-22 4.6633956e-19 1.065756e-22 1.25937335e-20
-3.5570797e-36 -1.587368e-33 1.3261381e-33 -5.89565e-29 4.2951035e-34 2.173321e-31 7.6379973e-32 -9.4705e-41
1.00185474e-35 -2.072152e-28 1.2664677e-27 -3.215849e-35 1.2821759e-31 1.13595726e-32 9.25616e-23 -1.3075559e-30
-1.3447617e-32 -8.252262e-31 -3.9109708e-32 9.0714504e-32 -3.0117798e-28 3.7965626e-32 1.5338321e-33 4.835854e-32
2.077464e-29 6.263414e-28 1.2963971e-35 -8.677647e-33 5.4188086e-32 1.4583423e-28 -7.12922e-31 -2.7256647e-11
1.0318419e-24 5.7581545e-23 1.5643487e-22 1.11556894e-17 -2.4386294e-23 -2.7699107e-19 5.8433783e-21 6.713859e-29
9.6266905e-24 1.4896391e-17 7.72842e-17 -1.6771891e-23 -2.9736297e-21 -4.220732e-19 9.432007e-14 1.7342948e-22
1.1028396e-21 2.3987915e-20 1.3169969e-20 8.874958e-20 -5.249184e-17 2.405551e-21 5.06168e-23 -1.4099959e-14
1.211379e-17 -2.8920014e-17 -1.1885565e-24 4.361973e-22 1.1953883e-20 1.139383e-17 4.4643374e-20 1.5100962e-16
-6.492967e-26 -1.580936e-19 6.92467e-25 1.815908e-19 -3.394741e-25 6.3078727e-22 1.00422416e-22 2.0171227e-30
1.06729514e-26 1.7830303e-19 1.183312e-18 7.866784e-26 2.8873152e-23 3.907627e-23 7.13356e-16 -2.5071994e-22
-8.909868e-23 3.8914758e-22 3.014647e-23 7.3005934e-22 1.9939914e-19 1.444214e-23 2.610178e-25 2.2096128e-22
-4.0785365e-20 2.528946e-19 5.2282323e-27 -4.1546736e-24 2.30361e-22 2.1140033e-19 -1.749466e-20 4.6720824e-18
-9.2574115e-26 4.0387195e-23 1.76489e-22 7.908321e-18 -7.245132e-24 1.7574016e-20 5.2726193e-21 -1.6452119e-28
-5.096765e-25 1.1303306e-17 5.920596e-17 4.3484865e-24 1.3187175e-21 1.3332777e-21 3.5047228e-14 1.0013181e-21
9.458527e-22 -1.8262906e-21 -2.8180144e-22 4.7028462e-20 1.3224502e-17 1.4055433e-21 4.5255167e-23 2.3999812e-22
4.8934355e-18 -2.6076192e-17 3.3713217e-24 3.724921e-23 -1.2237447e-20 7.255761e-18 3.0606015e-20 -5.4837035e-17

fai_gcn_networks.1.gcn.conv.bias f4 [192]
00000000: 9e5a 0b28 79cc 08a9 5386 6429 66ec 5b38
00000010: 7179 1229 bfe5 473b 2dd9 1038 a3d8 043b
00000020: fe8c 4927 be17 eca6 ab7f 6326 852f e53a
00000030: 39ec 1e28 b8d1 b735 443e 8f3a 390c fb27
00000040: 7044 9426 5786 2a29 51fd 583b 88bb 1c29
00000050: 6a76 2a32 3296 293b 79f7 fc39 0b97 cd2a
00000060: d4aa 603a 5764 b728 e30e 8f27 91ea 0931
00000070: 9eff 2c27 c51f 0127 a12f 10a6 93cd aea6
00000080: 92c3 8428 254a 1b34 800d 0b3a 486b 0aa9
00000090: 7cf6 1828 131f f837 7ca8 8028 5585 9132
000000a0: db29 4c38 ac90 1128 51cf 0128 56d2 8fa7
000000b0: f782 b93a 9ecf 87aa 40ee 9b39 5d00 7428
000000c0: 3492 ca39 919c bf36 8d9d d426 95c8 5d38
000000d0: 1330 ae26 1bd3 8528 d167 10a9 7479 d727
000000e0: 261b f9a7 481f 3238 5684 0739 9c23 a127
000000f0: d6b0 023a 34ed 58a8 55b3 c3a6 de2b b228
00000100: d828 a727 af44 2ca9 c767 3529 489a a338
00000110: c1db 0729 853d 903b 1a3a 5738 f0c1 413b
00000120: 6456 5126 fd27 03a7 7898 eea5 48c4 273b
00000130: f974 b128 d3ec 0936 f430 d33a b19f 8d26
00000140: 7c33 e325 4f68 6029 2d60 9c3b 7957 ad29
00000150: 2f02 8132 9421 763b 68f8 3a3a eb4d 1e2b
00000160: 621e a53a 82c8 4529 7df4 0928 c0ef 5131
00000170: f212 14a6 51e7 7f26 ab03 24a6 cfac bfa6
00000180: 1e1d c228 bffb 6834 ffff 4d3a ef6c 55a9
00000190: b293 0227 2822 3838 9ab6 0329 94fa dc32
000001a0: 3cdc 9738 5dd2 be27 0721 3e28 e088 5aa7
000001b0: 1eb3 073b dcad f5aa 8473 e639 70c0 4c28
000001c0: 62c8 153a 3d1f 0e37 07f5 7327 001c a538
000001d0: 0715 4227 9b8e 1029 a7f5 7da9 8fae 4428
000001e0: 6b67 32a8 484f 8438 d6bf 4839 5ce2 7a27
000001f0: 3290 403a 4b9d 9da8 f82c f3a6 e051 e028
00000200: b24e 5928 2e14 5e28 488a cc29 7351 8e37
00000210: 58ee 3aa9 9c56 7f3a 814e 3c37 c8d7 283a
00000220: f2e4 b528 0bdd 5d27 a69d 9228 b6ee 103a
00000230: 987e 9da8 1162 ee34 f79a b539 7a65 0329
00000240: 9c09 99a7 02a5 6629 18aa 883a 5209 8ba9
00000250: 4489 5d31 83bb 563a a538 2239 8f06 392a
00000260: ab56 9039 9d25 7aa9 9f83 b5a7 ad07 3430
00000270: d0ff 4428 4baf 8427 a627 9726 85da c926
00000280: 8c7c f9a8 312d 4a33 7c4c 3139 058f 58a9
00000290: 6002 a329 4fb5 2137 adb7 b6a8 a47c bb31
000002a0: ae42 8437 2bcf 9728 aa5f 1ba9 8aa4 b4a7
000002b0: d472 ed39 10ee 90ab 748b c938 da6b ac29
000002c0: d949 0239 f45f fb35 de17 9aa7 e16a 8f37
000002d0: 30ed 1ca7 1ab6 c5a8 4fcf 08a9 f628 52a8
000002e0: 7994 1329 5f5c 6737 75ce 2f38 2441 1a28
000002f0: 95a0 2839 409e 80a8 2b54 6a27 5d4d 4b29
7.7356995e-15 -3.0375418e-14 5.0742678e-14 5.2433832e-05 3.2523846e-14 0.003050193 3.4534536e-05 0.0020270727
2.7970786e-15 -1.6382225e-15 7.892947e-16 0.0017485475 8.8219845e-15 1.3695599e-06 0.0010928591 6.9679747e-15
1.0288113e-15 3.7864104e-14 0.0033109973 3.4801616e-14 9.922227e-09 0.0025876877 0.00048249567 3.6520122e-13
0.0008570377 2.0360597e-14 3.9706613e-15 2.006946e-09 2.4008365e-15 1.7919569e-15 -5.0024585e-16 -1.2129396e-15
1.4739759e-14 1.4462474e-07 0.0005304441 -3.0735207e-14 8.491143e-15 2.9578374e-05 1.4283923e-14 1.6940854e-08
4.867637e-05 8.080488e-15 7.205893e-15 -3.991852e-15 0.001415341 -2.412488e-13 0.00029741414 1.35448e-14
0.00038637372 5.7104703e-06 1.4753159e-15 5.2877313e-05 1.2086706e-15 1.4857519e-14 -3.206447e-14 5.9806167e-15
-6.9140818e-15 4.246764e-05 0.00012923902 4.4725085e-15 0.0004985457 -1.2041844e-14 -1.3579451e-15 1.9780994e-14
4.6396094e-15 -3.8251246e-14 4.0280086e-14 7.801183e-05 3.0166628e-14 0.004401865 5.1314106e-05 0.0029565059
7.262852e-16 -1.820158e-15 -4.1389736e-16 0.002559917 1.9701676e-14 2.055244e-06 0.0016112612 9.827125e-16
3.941311e-16 4.9828465e-14 0.0047722072 7.6979174e-14 1.501857e-08 0.0037556635 0.00071323523 5.624101e-13
0.0012597556 4.39167e-14 7.658043e-15 3.0549785e-09 -5.137349e-16 8.878439e-16 -5.69039e-16 -1.3300127e-15
2.1550954e-14 2.1698268e-07 0.0007858276 -4.7389986e-14 1.812119e-15 4.390083e-05 2.9246225e-14 2.572532e-08
7.241263e-05 5.296367e-15 1.055428e-14 -3.0327778e-15 0.0020706127 -4.3641382e-13 0.00043955084 1.1366003e-14
0.00057137583 8.471133e-06 3.3855854e-15 7.8730285e-05 2.6934307e-15 3.2098114e-14 -5.6390354e-14 1.0918037e-14
-9.90341e-15 6.309018e-05 0.00019144951 3.481718e-15 0.00073457055 -1.7498716e-14 -1.6873701e-15 2.4904503e-14
1.2062984e-14 1.2327851e-14 9.083408e-14 1.6965647e-05 -4.1507027e-14 0.0009740384 1.1223951e-05 0.00064408453
2.0194326e-14 3.0789739e-15 1.6277625e-14 0.0005528735 -1.7485403e-14 4.4402307e-07 0.00034638468 2.917586e-14
-4.247645e-15 5.121338e-14 0.0010426668 -6.174457e-14 3.223776e-09 0.00081913936 0.00015470626 1.6433576e-13
0.00027530393 -5.5543776e-14 -5.0380296e-15 6.5494526e-10 1.0935656e-14 3.6827413e-15 1.0488477e-15 1.4006407e-15
-2.7698567e-14 4.707289e-08 0.00016908528 -4.8085684e-14 7.239066e-14 9.638562e-06 -2.0285716e-14 5.4565863e-09
1.5766676e-05 1.6854212e-14 -3.449989e-14 -5.013843e-15 0.00045289716 -1.0297891e-12 9.610402e-05 7.657044e-14
0.00012425277 1.8728883e-06 -4.2769463e-15 1.7096698e-05 -2.1777929e-15 -2.1950368e-14 -3.0377878e-14 -1.1666224e-14
3.2769336e-14 1.379018e-05 4.191553e-05 8.562842e-15 0.0001608155 -1.4279485e-14 3.251965e-15 4.5142157e-14

fai_gcn_networks.1.residual.0.weight f4 [64, 32, 1, 1]
00000000: 3d77 7fbc 5830 4ebc 2098 3fbb a15a 163d
00000010: 92da 1e3d d2b8 36bc 26cc d63c bcc5 043d
00000020: 4e9a a2bc 969c 85bc c470 163c ad5d 093d
00000030: 5490 303b 5014 25bc fc62 f43c 4e84 863c
00000040: 1d10 173d 2fca 6f3c f031 6bbc e2e6 b43c
00000050: a415 56bc e2a1 143c d550 c43c 690d 04bc
00000060: afdc b0bc 27d2 9b3c 616f 85bc 0c0c 943c
00000070: 994b 143b 2186 a13a 4958 c0bb 57c6 983c
00000080: 01d9 c63c d288 bc3c b26e 30bd ae64 8bbc
00000090: 0ab5 6e3b e4d9 473c fc0c 013d 4927 dd3c
000000a0: c225 44bc 8a17 743b 2c7d 5fba 0ee6 9fbc
000000b0: 6a83 2dbd 4751 8f3c 38b8 edbc 72ac bf3b
000000c0: fcbe 393b c2c4 96bb b5c2 33bc f0be e4bc
000000d0: fb65 ee3c 63ad 903b 5ba8 6d3c fd37 19bd
000000e0: e8eb 1dbc c66d 983c 5ba2 2dbc 4f84 db3c
000000f0: 25c8 cfbc 3cb2 25bd 18b4 363c 530c 133c
00000100: d238 95ba 4d32 b0bb ad27 b23b 9b17 8c3c
00000110: fcc5 433c fff1 07bc 0a5a 673c f424 f4bb
00000120: 8cc6 7dbc e164 7f3c 0c11 16bc 07f7 a9bc
00000130: afcb 2bbc 8aa5 5e3b 5617 a8bb c079 93bc
00000140: 2df8 98bc 8b4a 26bd b59a 9ebb baa1 9dbc
00000150: 3076 fabc 3b5f e2bc 5cc8 573c 7dd2 9dbc
00000160: 302d 8bbc 5b7a e0bb 8977 b5bb eb15 393c
00000170: f71b e63c ca68 da3c 9cca bfbb 31a1 a0bc
00000180: f98f 94bc 0100 4dbb 79c2 d7bb 3782 d83c
00000190: 4cbf 86bc f663 04bc 2ac1 31bd 98ab e7bc
000001a0: 807b 293c 14ea 063d 3527 49bc 8af2 7bbc
000001b0: 3604 9eba 908d 5bbc 6062 b53c eaea cabc
000001c0: f943 efba f89c a5bc 772f 043d 927a d53c
000001d0: edd6 05bb dc31 d3bb 520f 4e3c dca0 513c
000001e0: f318 babc 1d41 cd3c 769a 943c 40d3 0f3b
000001f0: c1e2 b53c 64db dc3c e7d4 a03c b9dc 57bb
00000200: bc13 663c 54ae ef3b b07e a1bc fe7f 953c
00000210: 67c2 343c 6761 a03c 47ac b4bb 5dcc 633c
00000220: 09b9 a1bb 6de6 243a 55d8 363d 0790 06bc
00000230: 20ea 1fbb d38d 543c 6e1b e8ba 8d09 07bc
00000240: cace 35bb d2a3 a5bc 5e07 7dbc 99e4 d5bb
00000250: cf9d e5ba a04e b43c 72d7 81bc dd3a 3f3a
00000260: 45f6 6bbc 548a c33c b9fb a53c f46d d13a
00000270: d548 65bc c63a 173c f3eb 44bc fcf8 3bbd
00000280: 132b 78bc 9bdf 133c 603a c93c 03fc 75bc
00000290: 30ec a63c b040 383c 25c5 59bb 8aa1 d1bc
000002a0: 109e e0bc 3e7d 96bc 4762 8c3c 4974 2abc
000002b0: b4af 92bc 5946 f0ba bd36 b03c 852b ce3b
000002c0: f9cc 84bc 00c8 793d 42b9 d23c 0b9c 323c
000002d0: a761 3d3b 2a22 b33c 376c cbbb 586e 9b3b
000002e0: 02de 913c 298e c63b 796e c9bc 7753 a2bc
000002f0: 9be2 81bc 4769 6aba 7b70 4a3c cbe1 383c
00000300: e8e4 80bc 759e e1ba 23e9 79bd 7b96 793c
00000310: 292a 1dbd 3ccc b13a 3da2 39bc f6c2 1bbd
00000320: ee52 75bb 33f7 63bc b6a3 8ebb bd2e 1e3b
00000330: 09ab acbb 0ff7 483c d4af 753c 32c1 65bc
00000340: 1d20 123d fcc7 4f3c 58f2 5dbc 81d9 8abb
00000350: 124f 873d 8be4 3e3c 186e c33c 15c8 b93b
00000360: 0b8e 7abc db42 453a 9cfb 963b f0fe 01bd
00000370: 7d9d 33bb 8ef8 0b3b e51f 54bc 17ec 8cbc
00000380: 3e8f 9f3a a07a f93a 3280 553c 2efd e8bc
00000390: 738e 30bc e1c8 4fbc a190 8fbb e30c 17bc
000003a0: 67eb 713b 4be1 0bbd 3ddd 4d3c 6324 f03c
000003b0: 31d2 823c 89f5 473a f054 b7bc 048a 95bb
000003c0: 18ff cc3b 2185 a53c bb36 163d 7061 6bbc
000003d0: 6992 423c ee17 a93b 1470 293c 0d21 b4bb
000003e0: 6ef3 603c 4a2c 3fbd d0af b7bc e61c be3b
000003f0: 60d0 7d3b 87c5 4cbb a004 403c 9c1f 9d3c
-0.015592393 -0.012584768 -0.002923496 0.036707524 0.038782664 -0.011152463 0.026220392 0.032415137
-0.019848969 -0.016310018 0.009182159 0.0335366 0.0026941495 -0.010075644 0.029832356 0.01642051
0.0368806 0.014635607 -0.014355168 0.02208275 -0.013066683 0.009071799 0.023964325 -0.008059838
-0.021589605 0.019021107 -0.016288461 0.01807215 0.0022628068 0.0012323299 -0.0058698994 0.018649263
0.024273397 0.02301446 -0.043074317 -0.017015781 0.0036423826 0.012197945 0.031506523 0.026996272
-0.011971893 0.0037245476 -0.0008525427 -0.019518878 -0.042361654 0.01749481 -0.029018506 0.0058494145
0.0028342595 -0.004601092 -0.010971715 -0.027923077 0.029101362 0.0044152006 0.014505471 -0.03740691
-0.009638764 0.018607032 -0.010597791 0.026796488 -0.025363991 -0.04045318 0.011151336 0.008975106
-0.0011384732 -0.00537709 0.0054368586 0.0171011 0.011949059 -0.008297442 0.014120588 -0.007450694
-0.015489232 0.015588016 -0.009159338 -0.020747675 -0.010485574 0.003397318 -0.005129735 -0.01800239
-0.018673027 -0.040598433 -0.00484022 -0.019242156 -0.030573934 -0.0276333 0.013170328 -0.019265408
-0.01698932 -0.0068505234 -0.0055379313 0.01129673 0.028089507 0.026661295 -0.0058530103 -0.019608112
-0.018135058 -0.003128052 -0.0065844622 0.026429279 -0.01644864 -0.008080473 -0.043397106 -0.028280064
0.010344386 0.032938078 -0.012277414 -0.01537765 -0.0012055698 -0.01340045 0.022141635 -0.024770219
-0.001825451 -0.02021645 0.03227183 0.026059423 -0.0020422295 -0.0064451527 0.012576895 0.0127946995
-0.022716975 0.025055462 0.018140059 0.0021945983 0.022202851 0.026960082 0.01963277 -0.0032937957
0.014042791 0.0073144827 -0.01971373 0.018249508 0.011032677 0.019577695 -0.005513701 0.0139037045
-0.004935388 0.00062904396 0.044639904 -0.00821305 -0.0024401024 0.012973267 -0.001770837 -0.008242023
-0.0027741664 -0.020219717 -0.015443651 -0.006527495 -0.0017518344 0.022010148 -0.015849803 0.0007294843
-0.014401977 0.02386967 0.020261632 0.0015978203 -0.013994415 0.009230321 -0.012019145 -0.045891747
-0.015146988 0.00902548 0.024563968 -0.015013698 0.020376295 0.011245891 -0.003322908 -0.025589723
-0.02741912 -0.018370267 0.017136706 -0.010403701 -0.017906047 -0.0018331512 0.021510476 0.006291809
-0.01621102 0.06098175 0.025723103 0.010901461 0.0028897317 0.021866877 -0.0062079686 0.0047433786
0.017806057 0.0060594273 -0.02458881 -0.01981519 -0.015855124 -0.0008942079 0.012355919 0.011284302
-0.015734151 -0.0017213362 -0.061013352 0.015233631 -0.038370285 0.0013564895 -0.0113301845 -0.038027726
-0.0037433463 -0.013913917 -0.004353012 0.0024136745 -0.0052694124 0.012265935 0.014995534 -0.014023112
0.035675157 0.012681957 -0.013546549 -0.0042373543 0.06606878 0.011651169 0.023856208 0.0056696036
-0.015292655 0.0007524916 0.004607631 -0.031737268 -0.0027407103 0.0021357867 -0.012947057 -0.01720242
0.0012173427 0.0019033737 0.013031052 -0.028441038 -0.01077615 -0.012682171 -0.004381255 -0.009219381
0.0036913992 -0.034150403 0.012564954 0.029314226 0.015969368 0.0007627835 -0.022379369 -0.004563572
0.0062559955 0.020205082 0.03667329 -0.014366493 0.011875727 0.0051603233 0.010341663 -0.005497104
0.013729913 -0.046673097 -0.022422701 0.005801785 0.0038728938 -0.0031245665 0.011719853 0.019180112

fai_gcn_networks.1.residual.0.bias f4 [64]
00000000: 0000 0000 0000 0000 0000 0000 0000 0000
00000010: 0000 0000 0000 0000 0000 0000 0000 0000
00000020: 0000 0000 0000 0000 0000 0000 0000 0000
00000030: 0000 0000 0000 0000 0000 0000 0000 0000
00000040: 0000 0000 0000 0000 0000 0000 0000 0000
00000050: 0000 0000 0000 0000 0000 0000 0000 0000
00000060: 0000 0000 0000 0000 0000 0000 0000 0000
00000070: 0000 0000 0000 0000 0000 0000 0000 0000
00000080: 0000 0000 0000 0000 0000 0000 0000 0000
00000090: 0000 0000 0000 0000 0000 0000 0000 0000
000000a0: 0000 0000 0000 0000 0000 0000 0000 0000
000000b0: 0000 0000 0000 0000 0000 0000 0000 0000
000000c0: 0000 0000 0000 0000 0000 0000 0000 0000
000000d0: 0000 0000 0000 0000 0000 0000 0000 0000
000000e0: 0000 0000 0000 0000 0000 0000 0000 0000
000000f0: 0000 0000 0000 0000 0000 0000 0000 0000
0.0 0.0 0.0 0.0 0.0 0.0 0.0 0.0
0.0 0.0 0.0 0.0 0.0 0.0 0.0 0.0
0.0 0.0 0.0 0.0 0.0 0.0 0.0 0.0
0.0 0.0 0.0 0.0 0.0 0.0 0.0 0.0
0.0 0.0 0.0 0.0 0.0 0.0 0.0 0.0
0.0 0.0 0.0 0.0 0.0 0.0 0.0 0.0
0.0 0.0 0.0 0.0 0.0 0.0 0.0 0.0
0.0 0.0 0.0 0.0 0.0 0.0 0.0 0.0

fai_gcn_networks.1.residual.1.weight f4 [64]
00000000: b2e8 813f 0268 7d3f bd06 803f e451 7d3f
00000010: e444 7c3f 6e55 803f 62f6 783f 3717 813f
00000020: 8669 7a3f ee44 7f3f 9567 833f 7319 7c3f
00000030: 4bec 813f fc87 7b3f 23b4 833f c45c 803f
00000040: 1a0e 813f c9c2 813f 34c8 813f 818f 773f
00000050: 13b6 773f 625f 813f 1309 803f 215d 883f
00000060: c4d7 7c3f 47b8 773f baf9 7d3f 9cda 833f
00000070: 865b 803f defc 813f 852d 7c3f b6da 823f
00000080: 7548 7e3f 47d4 823f 27f8 833f be2f 803f
00000090: f7cd 7d3f d8d8 833f 04d4 783f 3290 7e3f
000000a0: c952 7f3f d870 803f f8c6 7c3f 9b16 7c3f
000000b0: ad35 813f 9da8 803f fea3 763f adc7 813f
000000c0: 5c75 833f e822 7d3f 5228 7f3f e0c0 7c3f
000000d0: ceb7 783f 44a5 7e3f 03c8 823f 2da3 823f
000000e0: 0310 813f 0df9 7b3f bf18 823f 423a 803f
000000f0: 21fe 7d3f 3eab 813f ca96 783f 4c97 803f
1.0149138 0.9898683 1.0002056 0.9895308 0.9854262 1.0026071 0.9725095 1.008521
0.97817266 0.99714553 1.0265986 0.9847633 1.0150236 0.9825437 1.0289348 1.002831
1.0082428 1.0137569 1.0139222 0.96703345 0.967622 1.0107234 1.0002769 1.0653421
0.9876673 0.9676556 0.9920918 1.0301089 1.0027931 1.0155294 0.9850696 1.0222995
0.9932931 1.0221032 1.0310105 1.001457 0.991424 1.030055 0.9719851 0.99438775
0.99735695 1.0034437 0.987411 0.98471993 1.0094506 1.0051457 0.9634398 1.0139061
1.027019 0.9888139 0.996709 0.98731804 0.97155464 0.99470925 1.0217289 1.0206047
1.0083011 0.98426896 1.0163802 1.0017779 0.99215895 1.0130384 0.97105086 1.0046172

fai_gcn_networks.1.residual.1.bias f4 [64]
00000000: 0000 0000 0000 0000 0000 0000 0000 0000
00000010: 0000 0000 0000 0000 0000 0000 0000 0000
00000020: 0000 0000 0000 0000 0000 0000 0000 0000
00000030: 0000 0000 0000 0000 0000 0000 0000 0000
00000040: 0000 0000 0000 0000 0000 0000 0000 0000
00000050: 0000 0000 0000 0000 0000 0000 0000 0000
00000060: 0000 0000 0000 0000 0000 0000 0000 0000
00000070: 0000 0000 0000 0000 0000 0000 0000 0000
00000080: 0000 0000 0000 0000 0000 0000 0000 0000
00000090: 0000 0000 0000 0000 0000 0000 0000 0000
000000a0: 0000 0000 0000 0000 0000 0000 0000 0000
000000b0: 0000 0000 0000 0000 0000 0000 0000 0000
000000c0: 0000 0000 0000 0000 0000 0000 0000 0000
000000d0: 0000 0000 0000 0000 0000 0000 0000 0000
000000e0: 0000 0000 0000 0000 0000 0000 0000 0000
000000f0: 0000 0000 0000 0000 0000 0000 0000 0000
0.0 0.0 0.0 0.0 0.0 0.0 0.0 0.0
0.0 0.0 0.0 0.0 0.0 0.0 0.0 0.0
0.0 0.0 0.0 0.0 0.0 0.0 0.0 0.0
0.0 0.0 0.0 0.0 0.0 0.0 0.0 0.0
0.0 0.0 0.0 0.0 0.0 0.0 0.0 0.0
0.0 0.0 0.0 0.0 0.0 0.0 0.0 0.0
0.0 0.0 0.0 0.0 0.0 0.0 0.0 0.0
0.0 0.0 0.0 0.0 0.0 0.0 0.0 0.0

fai_gcn_networks.1.residual.1.running_mean f4 [64]
00000000: 3456 e32a f7af dcaa 2528 9da9 eb8b a82a
00000010: 5714 d7a8 62ec a32a 6adb 632a 0444 aaaa
00000020: 5379 eda9 5e20 052a 0c24 a42a d1b6 1fab
00000030: 2721 e7a8 2076 3e29 607c 48aa 8774 212a
00000040: 9dfa 2d2a 97c8 082b 9d56 b029 60bf 31aa
00000050: e761 b729 b1d2 c129 3720 392a 9f15 c429
00000060: 3a8d 6b2a 88dc ac29 828d 68aa 945b dfaa
00000070: 9317 f3aa b3e7 31aa bd1b a32a c8fd 28aa
00000080: 7a88 c4a9 f1d4 98aa 10b4 8f29 69dd f427
00000090: 081f 022b 6132 92a8 5f8c 17a9 2ada 9229
000000a0: 436e 032a aec2 95aa b9fb d2aa 8875 9faa
000000b0: df4f 6daa 8192 abaa d52d cf2a c969 8328
000000c0: ae4d 742a da02 1daa a97e 0328 ec74 2429
000000d0: 0d99 2d2a 81a0 622a b26a 8529 dbfe 992a
000000e0: 9f91 1eaa 1ae5 ad2a 7792 49a9 4af8 16a8
000000f0: 4af1 21ab 9b3a a8aa e9de 792a 3d74 3baa
4.0383116e-13 -3.920195e-13 -6.9791646e-14 2.9939882e-13 -2.3878616e-14 2.911864e-13 2.0237775e-13 -3.0245262e-13
-1.0545961e-13 1.1824003e-13 2.9157265e-13 -5.6741856e-13 -2.566053e-14 4.2290932e-14 -1.780672e-13 1.4340101e-13
1.5452436e-13 4.859528e-13 7.830995e-14 -1.5787155e-13 8.143816e-14 8.607471e-14 1.6442478e-13 8.707899e-14
2.092119e-13 7.6765905e-14 -2.0654835e-13 -3.9676303e-13 -4.318183e-13 -1.5801145e-13 2.8973864e-13 -1.5009446e-13
-8.7278234e-14 -2.7148382e-13 6.3817116e-14 6.7963658e-15 4.622834e-13 -1.6231105e-14 -3.3650488e-14 6.521548e-14
1.1673392e-13 -2.6602803e-13 -3.747816e-13 -2.8325627e-13 -2.107754e-13 -3.047736e-13 3.680239e-13 1.4589799e-14
2.1698504e-13 -1.394539e-13 7.299426e-15 3.651673e-14 1.5418587e-13 2.0128518e-13 5.924895e-14 2.73551e-13
-1.4083741e-13 3.0889944e-13 -4.4758004e-14 -8.380512e-15 -5.7533546e-13 -2.988346e-13 2.219298e-13 -1.6649265e-13

fai_gcn_networks.1.residual.1.running_var f4 [64]
00000000: 725b e916 5ff1 dc16 98bf 5c14 ee83 8016
00000010: 5dc8 d412 79b1 7216 e9e3 eb15 7836 8316
00000020: b5af fc14 76bf 2015 ed29 7216 5432 6717
00000030: 57a7 ea12 2606 a213 ba58 b615 f9f5 6c15
00000040: 6c21 8815 927f 2917 e0cd 8a14 d616 9015
00000050: 8566 9714 51a2 a914 f2cc 9a15 315b b114
00000060: 4fef fc15 fa12 8614 abbc f515 fa0b e216
00000070: 33df 0517 2277 9015 9bdc 6f16 6be4 8015
00000080: 8ae2 b114 7924 5316 4012 3914 f3ec 0f11
00000090: 26f5 1917 4dfe 3a12 a276 5d13 34b0 3d14
000000a0: eb46 1c15 a914 4a16 d48f c916 490a 6716
000000b0: d6db 0016 fbef 8416 8cc3 c216 189b 1d12
000000c0: 4d52 0716 c5fe 6015 60c5 1911 d086 7313
000000d0: 839c 8715 abc0 e715 d578 2114 c9e3 5416
000000e0: 0296 6315 2250 8916 f6f8 b013 ce09 5011
000000f0: 8b55 6d17 0446 8016 80a5 0d16 2780 9f15
3.770089e-25 3.5695244e-25 1.1144947e-26 2.0762775e-25 1.3428474e-27 1.9604605e-25 9.527532e-26 2.1198566e-25
2.5514802e-26 3.246278e-26 1.9561834e-25 7.470365e-25 1.4808729e-27 4.0900612e-27 7.36492e-26 4.785386e-26
5.498269e-26 5.476786e-25 1.4015642e-26 5.8197166e-26 1.528754e-26 1.7128662e-26 6.252345e-26 1.7908401e-26
1.0215955e-25 1.3538027e-26 9.925238e-26 3.6519827e-25 4.3256335e-25 5.8349095e-26 1.9375877e-25 5.205917e-26
1.7961787e-26 1.7055953e-25 9.343712e-27 1.1353727e-28 4.9746387e-25 5.90047e-28 2.7952612e-27 9.5768114e-27
3.1559894e-26 1.6323949e-25 3.256407e-25 1.8663277e-25 1.0409126e-25 2.14772e-25 3.1465798e-25 4.9731633e-28
1.0931183e-25 4.5437417e-26 1.2130393e-28 3.073738e-27 5.4773e-26 9.3604133e-26 8.152253e-27 1.71971e-25
4.596062e-26 2.2184115e-25 4.467414e-27 1.6411328e-28 7.66868e-25 2.0723701e-25 1.1442112e-25 6.442178e-26

edge_importance.0 f4 [3, 18, 18]
00000000: bead 353f bcad 353f bcad 353f bcad 353f
00000010: bcad 353f bcad 353f bcad 353f bcad 353f
00000020: bcad 353f bcad 353f bcad 353f bcad 353f
00000030: bcad 353f bcad 353f bcad 353f bcad 353f
00000040: bcad 353f bcad 353f bcad 353f bead 353f
00000050: bcad 353f bcad 353f bcad 353f bcad 353f
00000060: bcad 353f bcad 353f bcad 353f bcad 353f
00000070: bcad 353f bcad 353f bcad 353f bcad 353f
00000080: bcad 353f bcad 353f bcad 353f bcad 353f
00000090: bcad 353f bcad 353f bead 353f bcad 353f
000000a0: bcad 353f bcad 353f bcad 353f bcad 353f
000000b0: bcad 353f bcad 353f bcad 353f bcad 353f
000000c0: bcad 353f bcad 353f bcad 353f bcad 353f
000000d0: bcad 353f bcad 353f bcad 353f bcad 353f
000000e0: bcad 353f bfad 353f bcad 353f bcad 353f
000000f0: bcad 353f bcad 353f bcad 353f bcad 353f
00000100: bcad 353f bcad 353f bcad 353f bcad 353f
00000110: bcad 353f bcad 353f bcad 353f bcad 353f
00000120: bcad 353f bcad 353f bcad 353f bcad 353f
00000130: bdad 353f bcad 353f bcad 353f bcad 353f
00000140: bcad 353f bcad 353f bcad 353f bcad 353f
00000150: bcad 353f bcad 353f bcad 353f bcad 353f
00000160: bcad 353f bcad 353f bcad 353f bcad 353f
00000170: bcad 353f bcad 353f bcad 353f bdad 353f
00000180: bcad 353f bcad 353f bcad 353f bcad 353f
00000190: bcad 353f bcad 353f bcad 353f bcad 353f
000001a0: bcad 353f bcad 353f bcad 353f bcad 353f
000001b0: bcad 353f bcad 353f bcad 353f bcad 353f
000001c0: bcad 353f bcad 353f bead 353f bcad 353f
000001d0: bcad 353f bcad 353f bcad 353f bcad 353f
000001e0: bcad 353f bcad 353f bcad 353f bcad 353f
000001f0: bcad 353f bcad 353f bcad 353f bcad 353f
00000200: bcad 353f bcad 353f bcad 353f bcad 353f
00000210: bcad 353f bead 353f bcad 353f bcad 353f
00000220: bcad 353f bcad 353f bcad 353f bcad 353f
00000230: bcad 353f bcad 353f bcad 353f bcad 353f
00000240: bcad 353f bcad 353f bcad 353f bcad 353f
00000250: bcad 353f bcad 353f bcad 353f bcad 353f
00000260: bead 353f bcad 353f bcad 353f bcad 353f
00000270: bcad 353f bcad 353f bcad 353f bcad 353f
00000280: bcad 353f bcad 353f bcad 353f bcad 353f
00000290: bcad 353f bcad 353f bcad 353f bcad 353f
000002a0: bcad 353f bcad 353f bcad 353f bdad 353f
000002b0: bcad 353f bcad 353f bcad 353f bcad 353f
000002c0: bcad 353f bcad 353f bcad 353f bcad 353f
000002d0: bcad 353f bcad 353f bcad 353f bcad 353f
000002e0: bcad 353f bcad 353f bcad 353f bcad 353f
000002f0: bcad 353f bcad 353f bead 353f bcad 353f
00000300: bcad 353f bcad 353f bcad 353f bcad 353f
00000310: bcad 353f bcad 353f bcad 353f bcad 353f
00000320: bcad 353f bcad 353f bcad 353f bcad 353f
00000330: bcad 353f bcad 353f bcad 353f bcad 353f
00000340: bcad 353f bead 353f bcad 353f bcad 353f
00000350: bcad 353f bcad 353f bcad 353f bcad 353f
00000360: bcad 353f bcad 353f bcad 353f bcad 353f
00000370: bcad 353f bcad 353f bcad 353f bcad 353f
00000380: bcad 353f bcad 353f bcad 353f bcad 353f
00000390: bdad 353f bcad 353f bcad 353f bcad 353f
000003a0: bcad 353f bcad 353f bcad 353f bcad 353f
000003b0: bcad 353f bcad 353f bcad 353f bcad 353f
000003c0: bcad 353f bcad 353f bcad 353f bcad 353f
000003d0: bcad 353f bcad 353f bcad 353f bdad 353f
000003e0: bcad 353f bcad 353f bcad 353f bcad 353f
000003f0: bcad 353f bcad 353f bcad 353f bcad 353f
0.70968235 0.7096822 0.7096822 0.7096822 0.7096822 0.7096822 0.7096822 0.7096822
0.7096822 0.7096822 0.7096822 0.7096822 0.7096822 0.7096822 0.7096822 0.7096822
0.7096822 0.7096822 0.7096822 0.70968235 0.7096822 0.7096822 0.7096822 0.7096822
0.7096822 0.7096822 0.7096822 0.7096822 0.7096822 0.7096822 0.7096822 0.7096822
0.7096822 0.7096822 0.7096822 0.7096822 0.7096822 0.7096822 0.70968235 0.7096822
0.7096822 0.7096822 0.7096822 0.7096822 0.7096822 0.7096822 0.7096822 0.7096822
0.7096822 0.7096822 0.7096822 0.7096822 0.7096822 0.7096822 0.7096822 0.7096822
0.7096822 0.7096824 0.7096822 0.7096822 0.7096822 0.7096822 0.7096822 0.7096822
0.7096822 0.7096822 0.7096822 0.7096822 0.7096822 0.7096822 0.7096822 0.7096822
0.7096822 0.7096822 0.7096822 0.7096822 0.7096823 0.7096822 0.7096822 0.7096822
0.7096822 0.7096822 0.7096822 0.7096822 0.7096822 0.7096822 0.7096822 0.7096822
0.7096822 0.7096822 0.7096822 0.7096822 0.7096822 0.7096822 0.7096822 0.7096823
0.7096822 0.7096822 0.7096822 0.7096822 0.7096822 0.7096822 0.7096822 0.7096822
0.7096822 0.7096822 0.7096822 0.7096822 0.7096822 0.7096822 0.7096822 0.7096822
0.7096822 0.7096822 0.70968235 0.7096822 0.7096822 0.7096822 0.7096822 0.7096822
0.7096822 0.7096822 0.7096822 0.7096822 0.7096822 0.7096822 0.7096822 0.7096822
0.7096822 0.7096822 0.7096822 0.7096822 0.7096822 0.70968235 0.7096822 0.7096822
0.7096822 0.7096822 0.7096822 0.7096822 0.7096822 0.7096822 0.7096822 0.7096822
0.7096822 0.7096822 0.7096822 0.7096822 0.7096822 0.7096822 0.7096822 0.7096822
0.70968235 0.7096822 0.7096822 0.7096822 0.7096822 0.7096822 0.7096822 0.7096822
0.7096822 0.7096822 0.7096822 0.7096822 0.7096822 0.7096822 0.7096822 0.7096822
0.7096822 0.7096822 0.7096822 0.7096823 0.7096822 0.7096822 0.7096822 0.7096822
0.7096822 0.7096822 0.7096822 0.7096822 0.7096822 0.7096822 0.7096822 0.7096822
0.7096822 0.7096822 0.7096822 0.7096822 0.7096822 0.7096822 0.70968235 0.7096822
0.7096822 0.7096822 0.7096822 0.7096822 0.7096822 0.7096822 0.7096822 0.7096822
0.7096822 0.7096822 0.7096822 0.7096822 0.7096822 0.7096822 0.7096822 0.7096822
0.7096822 0.70968235 0.7096822 0.7096822 0.7096822 0.7096822 0.7096822 0.7096822
0.7096822 0.7096822 0.7096822 0.7096822 0.7096822 0.7096822 0.7096822 0.7096822
0.7096822 0.7096822 0.7096822 0.7096822 0.7096823 0.7096822 0.7096822 0.7096822
0.7096822 0.7096822 0.7096822 0.7096822 0.7096822 0.7096822 0.7096822 0.7096822
0.7096822 0.7096822 0.7096822 0.7096822 0.7096822 0.7096822 0.7096822 0.7096823
0.7096822 0.7096822 0.7096822 0.7096822 0.7096822 0.7096822 0.7096822 0.7096822
