capsule-6073072/code/work_dir/recognition/kinetics_skeleton/FAI_GCN/epoch270_model.pt (torch, 74070 bytes, 22 tensors)

A f4 [3, 18, 18]
0	0x3e800000	0.25
1	0x00000000	0.0
2	0x00000000	0.0
3	0x00000000	0.0
4	0x00000000	0.0
5	0x00000000	0.0
6	0x00000000	0.0
7	0x00000000	0.0
8	0x00000000	0.0
9	0x00000000	0.0
10	0x00000000	0.0
11	0x00000000	0.0
12	0x00000000	0.0
13	0x00000000	0.0
14	0x00000000	0.0
15	0x00000000	0.0
16	0x00000000	0.0
17	0x00000000	0.0
18	0x00000000	0.0
19	0x3e800000	0.25
20	0x00000000	0.0
21	0x00000000	0.0
22	0x00000000	0.0
23	0x00000000	0.0
24	0x00000000	0.0
25	0x00000000	0.0
26	0x00000000	0.0
27	0x00000000	0.0
28	0x00000000	0.0
29	0x00000000	0.0
30	0x00000000	0.0
31	0x00000000	0.0
32	0x00000000	0.0
33	0x00000000	0.0
34	0x00000000	0.0
35	0x00000000	0.0
36	0x00000000	0.0
37	0x00000000	0.0
38	0x3e800000	0.25
39	0x00000000	0.0
40	0x00000000	0.0
41	0x00000000	0.0
42	0x00000000	0.0
43	0x00000000	0.0
44	0x00000000	0.0
45	0x00000000	0.0
46	0x00000000	0.0
47	0x00000000	0.0
48	0x00000000	0.0
49	0x00000000	0.0
50	0x00000000	0.0
51	0x00000000	0.0
52	0x00000000	0.0
53	0x00000000	0.0
54	0x00000000	0.0
55	0x00000000	0.0
56	0x00000000	0.0
57	0x3eaaaaab	0.33333334
58	0x00000000	0.0
59	0x00000000	0.0
60	0x00000000	0.0
61	0x00000000	0.0
62	0x00000000	0.0
63	0x00000000	0.0
64	0x00000000	0.0
65	0x00000000	0.0
66	0x00000000	0.0
67	0x00000000	0.0
68	0x00000000	0.0
69	0x00000000	0.0
70	0x00000000	0.0
71	0x00000000	0.0
72	0x00000000	0.0
73	0x00000000	0.0
74	0x00000000	0.0
75	0x00000000	0.0
76	0x3f000000	0.5
77	0x00000000	0.0
78	0x00000000	0.0
79	0x00000000	0.0
80	0x00000000	0.0
81	0x00000000	0.0
82	0x00000000	0.0
83	0x00000000	0.0
84	0x00000000	0.0
85	0x00000000	0.0
86	0x00000000	0.0
87	0x00000000	0.0
88	0x00000000	0.0
89	0x00000000	0.0
90	0x00000000	0.0
91	0x00000000	0.0
92	0x00000000	0.0
93	0x00000000	0.0
94	0x00000000	0.0
95	0x3e800000	0.25
96	0x00000000	0.0
97	0x00000000	0.0
98	0x00000000	0.0
99	0x00000000	0.0
100	0x00000000	0.0
101	0x00000000	0.0
102	0x00000000	0.0
103	0x00000000	0.0
104	0x00000000	0.0
105	0x00000000	0.0
106	0x00000000	0.0
107	0x00000000	0.0
108	0x00000000	0.0
109	0x00000000	0.0
110	0x00000000	0.0
111	0x00000000	0.0
112	0x00000000	0.0
113	0x00000000	0.0
114	0x3eaaaaab	0.33333334
115	0x00000000	0.0
116	0x00000000	0.0
117	0x00000000	0.0
118	0x00000000	0.0
119	0x00000000	0.0
120	0x00000000	0.0
121	0x00000000	0.0
122	0x00000000	0.0
123	0x00000000	0.0
124	0x00000000	0.0
125	0x00000000	0.0
126	0x00000000	0.0
127	0x00000000	0.0
128	0x00000000	0.0
129	0x00000000	0.0
130	0x00000000	0.0
131	0x00000000	0.0
132	0x00000000	0.0
133	0x3f000000	0.5
134	0x00000000	0.0
135	0x00000000	0.0
136	0x00000000	0.0
137	0x00000000	0.0
138	0x00000000	0.0
139	0x00000000	0.0
140	0x00000000	0.0
141	0x00000000	0.0
142	0x00000000	0.0
143	0x00000000	0.0
144	0x00000000	0.0
145	0x00000000	0.0
146	0x00000000	0.0
147	0x00000000	0.0
148	0x00000000	0.0
149	0x00000000	0.0
150	0x00000000	0.0
151	0x00000000	0.0
152	0x3eaaaaab	0.33333334
153	0x00000000	0.0
154	0x00000000	0.0
155	0x00000000	0.0
156	0x00000000	0.0
157	0x00000000	0.0
158	0x00000000	0.0
159	0x00000000	0.0
160	0x00000000	0.0
161	0x00000000	0.0
162	0x00000000	0.0
163	0x00000000	0.0
164	0x00000000	0.0
165	0x00000000	0.0
166	0x00000000	0.0
167	0x00000000	0.0
168	0x00000000	0.0
169	0x00000000	0.0
170	0x00000000	0.0
171	0x3eaaaaab	0.33333334
172	0x00000000	0.0
173	0x00000000	0.0
174	0x00000000	0.0
175	0x00000000	0.0
176	0x00000000	0.0
177	0x00000000	0.0
178	0x00000000	0.0
179	0x00000000	0.0
180	0x00000000	0.0
181	0x00000000	0.0
182	0x00000000	0.0
183	0x00000000	0.0
184	0x00000000	0.0
185	0x00000000	0.0
186	0x00000000	0.0
187	0x00000000	0.0
188	0x00000000	0.0
189	0x00000000	0.0
190	0x3f000000	0.5
191	0x00000000	0.0
192	0x00000000	0.0
193	0x00000000	0.0
194	0x00000000	0.0
195	0x00000000	0.0
196	0x00000000	0.0
197	0x00000000	0.0
198	0x00000000	0.0
199	0x00000000	0.0
200	0x00000000	0.0
201	0x00000000	0.0
202	0x00000000	0.0
203	0x00000000	0.0
204	0x00000000	0.0
205	0x00000000	0.0
206	0x00000000	0.0
207	0x00000000	0.0
208	0x00000000	0.0
209	0x3eaaaaab	0.33333334
210	0x00000000	0.0
211	0x00000000	0.0
212	0x00000000	0.0
213	0x00000000	0.0
214	0x00000000	0.0
215	0x00000000	0.0
216	0x00000000	0.0
217	0x00000000	0.0
218	0x00000000	0.0
219	0x00000000	0.0
220	0x00000000	0.0
221	0x00000000	0.0
222	0x00000000	0.0
223	0x00000000	0.0
224	0x00000000	0.0
225	0x00000000	0.0
226	0x00000000	0.0
227	0x00000000	0.0
228	0x3eaaaaab	0.33333334
229	0x00000000	0.0
230	0x00000000	0.0
231	0x00000000	0.0
232	0x00000000	0.0
233	0x00000000	0.0
234	0x00000000	0.0
235	0x00000000	0.0
236	0x00000000	0.0
237	0x00000000	0.0
238	0x00000000	0.0
239	0x00000000	0.0
240	0x00000000	0.0
241	0x00000000	0.0
242	0x00000000	0.0
243	0x00000000	0.0
244	0x00000000	0.0
245	0x00000000	0.0
246	0x00000000	0.0
247	0x3f000000	0.5
248	0x00000000	0.0
249	0x00000000	0.0
250	0x00000000	0.0
251	0x00000000	0.0
252	0x00000000	0.0
253	0x00000000	0.0
254	0x00000000	0.0
255	0x00000000	0.0

data_bn.weight f4 [54]
0	0x3f434b3b	0.7628667
1	0x3f389856	0.72107446
2	0x3f42cf94	0.7609799
3	0x3f32d18b	0.6985099
4	0x3f357a5d	0.70889837
5	0x3f437e40	0.7636452
6	0x3f362d8b	0.71163243
7	0x3f38b81b	0.7215592
8	0x3f2a12ba	0.66434824
9	0x3f3bf623	0.7342245
10	0x3f355c91	0.7084437
11	0x3f364be9	0.7120958
12	0x3f35d630	0.7102995
13	0x3f2de13d	0.6792181
14	0x3f392a2d	0.7232998
15	0x3f3fd5bc	0.7493551
16	0x3f3c080f	0.73449796
17	0x3f38a858	0.7213187
18	0x3f34f633	0.7068817
19	0x3f32082d	0.69543725
20	0x3f3c76cf	0.7361879
21	0x3f381967	0.7191376
22	0x3f33c288	0.70218706
23	0x3f3a8ec4	0.72874093
24	0x3f38b115	0.72145206
25	0x3f39bc4a	0.7255293
26	0x3f3c0b82	0.7345506
27	0x3f3c6c2b	0.7360255
28	0x3f397d94	0.7245724
29	0x3f3cd3c5	0.73760635
30	0x3f30c7a8	0.6905465
31	0x3f37ad26	0.7174858
32	0x3f3b60f1	0.73194796
33	0x3f3ebe1e	0.74508846
34	0x3f3e44a6	0.743235
35	0x3f4169fc	0.75552344
36	0x3f383eb3	0.7197067
37	0x3f3e2dff	0.74288934
38	0x3f3ad839	0.7298618
39	0x3f379184	0.71706414
40	0x3f37ae1d	0.7175005
41	0x3f3c9694	0.73667264
42	0x3f3c7d8f	0.7362909
43	0x3f41b67a	0.7566906
44	0x3f365b4a	0.71233046
45	0x3f33b8cd	0.7020386
46	0x3f432561	0.7622891
47	0x3f391af8	0.72306776
48	0x3f3c4b57	0.7355246
49	0x3f405d7d	0.7514265
50	0x3f3b576f	0.7318029
51	0x3f40d8dd	0.7533091
52	0x3f29ef42	0.66380703
53	0x3f378edd	0.7170237

data_bn.bias f4 [54]
0	0x171b53b2	5.018884e-25
1	0x0eb9a5d9	4.5765727e-30
2	0x10a43f02	6.4783673e-29
3	0x16f1e3d1	3.9079422e-25
4	0x8c274b60	-1.2887894e-31
5	0x908631e7	-5.293057e-29
6	0x97f90bb7	-1.6094205e-24
7	0x0e082aef	1.6783966e-30
8	0x109d74fb	6.210582e-29
9	0x988bb3cc	-3.6112206e-24
10	0x0ee8a0df	5.734733e-30
11	0xae60ecfe	-5.1142195e-11
12	0xae537f40	-4.8088866e-11
13	0x35390b64	6.8934446e-07
14	0xaa8ac25b	-2.4648586e-13
15	0x980b9dc2	-1.8044976e-24
16	0x8d5e1d6a	-6.8444438e-31
17	0x11472692	1.5710217e-28
18	0x9896e099	-3.9000877e-24
19	0x0e9a3d97	3.802324e-30
20	0xb218dde4	-8.8980165e-09
21	0xb5615009	-8.39355e-07
22	0xb58788a6	-1.0098054e-06
23	0x27e0141e	6.21943e-15
24	0x1816d86e	1.9496315e-24
25	0x37719ebd	1.44016785e-05
26	0xabc8a7cb	-1.4257427e-12
27	0x9894e52e	-3.8488516e-24
28	0x330bb982	3.2532178e-08
29	0x1270ae01	7.5945123e-28
30	0x2ae1d406	4.011515e-13
31	0xacb9cc09	-5.2806687e-12
32	0x267d3ee3	8.7862235e-16
33	0x17f62ac1	1.590817e-24
34	0x37968933	1.7945282e-05
35	0xa7c69c2b	-5.5125357e-15
36	0x98a04c3c	-4.1436008e-24
37	0xb15a11bd	-3.1733258e-09
38	0x113d5ea2	1.4938632e-28
39	0x285fe00a	1.24275675e-14
40	0x2b05b052	4.7495786e-13
41	0x279ff6a4	4.4398774e-15
42	0x988d2d77	-3.6493554e-24
43	0x0ee22727	5.5751004e-30
44	0xaf3feb4f	-1.7454947e-10
45	0x98885178	-3.523744e-24
46	0x8f706de4	-1.1854078e-29
47	0x301a9dce	5.624913e-10
48	0xb1a65c11	-4.8417026e-09
49	0xb15e0e2b	-3.2313305e-09
50	0x25c4329b	3.4034872e-16
51	0x3367ee3a	5.4000544e-08
52	0x346aafc6	2.1856894e-07
53	0xa7f95757	-6.9206077e-15

data_bn.running_mean f4 [54]
0	0xbcc50b02	-0.0240531
1	0xbdf0a548	-0.11750275
2	0x3e9f8af5	0.31160703
3	0xbcb3ecb8	-0.021963462
4	0xbdb381f5	-0.08765022
5	0x3e97d166	0.29651946
6	0xbd33782c	-0.043815777
7	0xbdb95bc1	-0.09050704
8	0x3e8d2042	0.27563673
9	0xbd739114	-0.05946453
10	0xbd91707f	-0.07101535
11	0x3e855e94	0.2604872
12	0xbd86a7a7	-0.06574946
13	0xbd8ab9f9	-0.06773753
14	0x3e87ea02	0.2654572
15	0xb8d1215c	-9.97211e-05
16	0xbdad23e1	-0.08454109
17	0x3e8c295d	0.27375308
18	0x3c5563aa	0.01302425
19	0xbd7a28f0	-0.061074197
20	0x3e737e15	0.23778565
21	0x3c926a99	0.017873095
22	0xbd6415bd	-0.055684794
23	0x3e71e34a	0.2362186
24	0xbd16be5e	-0.036802642
25	0xbc81f3e5	-0.015863368
26	0x3e6c7f95	0.23095544
27	0xbd55c0af	-0.05218571
28	0x3accd18d	0.0015626416
29	0x3e7e507b	0.24835388
30	0xbd1ef828	-0.03881088
31	0x3d1ed2cc	0.03877525
32	0x3e6afe51	0.22948577
33	0xbc3231f3	-0.010876167
34	0xbc47b966	-0.0121901985
35	0x3e6a8130	0.22900844
36	0x3ae1e53f	0.0017234458
37	0x3bbb5ccc	0.0057178494
38	0x3e6cc016	0.2312015
39	0xbc685c86	-0.014182216
40	0x3d1bfb11	0.038081232
41	0x3e470863	0.19436793
42	0xbcf5b145	-0.029991755
43	0xbe00b066	-0.1256729
44	0x3ea1d4aa	0.31607562
45	0xbc89eff9	-0.01683806
46	0xbe000234	-0.1250084
47	0x3ea2ee6c	0.31822526
48	0xbce76209	-0.028244989
49	0xbde1290d	-0.10994158
50	0x3e31ef60	0.1737647
51	0xbbafebad	-0.005368671
52	0xbdec72bd	-0.11545322
53	0x3e7b81f8	0.24561298

data_bn.running_var f4 [54]
0	0x3be9c4c8	0.007134054
1	0x3bcf5f3f	0.006328493
2	0x3dc72f6b	0.09725841
3	0x3bc5d2f8	0.0060371123
4	0x3b6a9153	0.0035792186
5	0x3db1dff3	0.08685293
6	0x3bef1645	0.007296356
7	0x3b73e5dd	0.0037215867
8	0x3d9ce2fc	0.07660481
9	0x3c12d810	0.008962646
10	0x3b3d65f0	0.002889987
11	0x3d97be11	0.07409299
12	0x3c30b215	0.010784646
13	0x3b76544a	0.0037586861
14	0x3d8fbc2d	0.070183136
15	0x3bb6455c	0.0055624675
16	0x3b6b0c7a	0.003586559
17	0x3d984efe	0.074369416
18	0x3bb9f7a0	0.005675271
19	0x3b73d190	0.0037203766
20	0x3d855dbf	0.06512021
21	0x3bbc8979	0.0057536927
22	0x3ba4b0be	0.005025952
23	0x3d851212	0.06497587
24	0x3be3a15e	0.0069467267
25	0x3b86037b	0.0040897704
26	0x3d5d5ba6	0.05404248
27	0x3c188665	0.009309386
28	0x3bcc6f74	0.006238872
29	0x3d88ed79	0.06685919
30	0x3c08d2a1	0.008350999
31	0x3c421487	0.011845714
32	0x3d83ff5d	0.06445191
33	0x3bb4eab0	0.005521141
34	0x3b9d8bce	0.004807926
35	0x3d5ac71c	0.05341254
36	0x3bb2801c	0.0054474007
37	0x3bf16b22	0.0073675076
38	0x3d6ca877	0.057777848
39	0x3bc42045	0.005985292
40	0x3c46e8c9	0.012140461
41	0x3d3a8fe6	0.04554739
42	0x3bf1e931	0.007382535
43	0x3bee6bd4	0.0072760377
44	0x3dce52c3	0.10074379
45	0x3bdfe5a9	0.0068327975
46	0x3bebec56	0.0071998043
47	0x3dcd14e2	0.10013749
48	0x3bd329ef	0.006444208
49	0x3bfac0b2	0.0076523656
50	0x3d8b2755	0.06794611
51	0x3bc846ac	0.0061119404
52	0x3beac290	0.007164307
53	0x3db09fac	0.08624205

fai_gcn_networks.0.gcn.conv.weight f4 [96, 3, 1, 1]
0	0x13318b5b	2.2409248e-27
1	0x14418cd9	9.771787e-27
2	0x13dcac1b	5.5705517e-27
3	0x1d545736	2.8103053e-21
4	0x1f870c91	5.7195513e-20
5	0x9e57e6ef	-1.1429761e-20
6	0x9cd8f21d	-1.4356266e-21
7	0x9d9fc0ef	-4.228644e-21
8	0x1b5b69f2	1.8149488e-22
9	0x9d911bfb	-3.841011e-21
10	0x200c9267	1.1906902e-19
11	0x1c24cc25	5.45269e-22
12	0x14a57dd8	1.6710379e-26
13	0x15e0114e	9.050018e-26
14	0x95671a93	-4.6671042e-26
15	0x1aa516d2	6.827927e-23
16	0x98fcc010	-6.5334407e-24
17	0x978f8058	-9.273557e-25
18	0xa22305e3	-2.2093736e-18
19	0x2334695e	9.780132e-18
20	0x21baf259	1.2667999e-18
21	0x8e355b21	-2.235385e-30
22	0x0e8caa1d	3.4676478e-30
23	0x8e8542e6	-3.2851452e-30
24	0x10858907	5.2670374e-29
25	0x9463de44	-1.15044054e-26
26	0x102802ec	3.313441e-29
27	0xa2939b02	-4.000855e-18
28	0xa51b1290	-1.3450396e-16
29	0x2b058216	4.743162e-13
30	0x9c6f492c	-7.917304e-22
31	0x9d232b23	-2.1595172e-21
32	0x1c3b053e	6.1879885e-22
33	0x1d11526f	1.9233207e-21
34	0x9c93b344	-9.773983e-22
35	0x1b84a7b5	2.1945946e-22
36	0x9a383d62	-3.8099893e-23
37	0x1a2f2fe1	3.6227828e-23
38	0x1bb3aa7f	2.9723246e-22
39	0x192b3812	8.851816e-24
40	0x18809634	3.323889e-24
41	0x17baebb7	1.2079471e-24
42	0x30709bad	8.753272e-10
43	0x2503cd20	1.1431938e-16
44	0xa6031667	-4.5480116e-16
45	0x9fb23e5f	-7.5489117e-20
46	0x1ffd59dd	1.07298334e-19
47	0x1ca1fe25	1.0719781e-21
48	0x1bd69595	3.5499995e-22
49	0x9b195868	-1.2684429e-22
50	0x1a8d1391	5.8347844e-23
51	0x1e1b57a0	8.223752e-21
52	0x1c4bde46	6.7454347e-22
53	0x20857623	2.2609253e-19
54	0x9829bcfe	-2.1938155e-24
55	0x18e6a6f8	5.96222e-24
56	0x1699e3b3	2.4862182e-25
57	0x1a48bb53	4.151035e-23
58	0x1acc48e6	8.4490196e-23
59	0x9a3df7c9	-3.9284443e-23
60	0x1ec35172	2.0680113e-20
61	0x1d1118d5	1.9203428e-21
62	0x1cd3f5fe	1.4026396e-21
63	0x9fc2dfda	-8.253253e-20
64	0x1b4a9037	1.6755647e-22
65	0x9b033867	-1.085429e-22
66	0x9ecd6b67	-2.174964e-20
67	0x1eb58b34	1.9221693e-20
68	0x1e3c9c5e	9.984973e-21
69	0x99fe57d1	-2.6298453e-23
70	0x18cc4c2e	5.2809686e-24
71	0x1857f473	2.7911514e-24
72	0x9d4ea72c	-2.7350299e-21
73	0x1c6b5939	7.7870295e-22
74	0x9cbd6931	-1.2534162e-21
75	0xab7e35fe	-9.0313857e-13
76	0x9fef9837	-1.01472256e-19
77	0x1ebbd0ad	1.9885701e-20
78	0x1ed1c3a4	2.2209651e-20
79	0x9c895e79	-9.09032e-22
80	0x9d1a6a90	-2.0436822e-21
81	0x1812fedc	1.8998729e-24
82	0x979c6684	-1.0107142e-24
83	0x97ff9b3c	-1.6518175e-24
84	0xa235282c	-2.455134e-18
85	0xa2ce66a9	-5.5945108e-18
86	0x239d1e11	1.7034708e-17
87	0xa19132f8	-9.839074e-19
88	0x214d6aa3	6.9597834e-19
89	0x2ab03fc3	3.1308124e-13
90	0x19ad242c	1.790239e-23
91	0x9cb9bd15	-1.229115e-21
92	0x19b3a59d	1.8575057e-23
93	0xa05125a8	-1.7715448e-19
94	0xa188e6a3	-9.276767e-19
95	0x1f014682	2.7375135e-20
96	0x1230eb93	5.5826175e-28
97	0x13aef69d	4.4166955e-27
98	0x13c8c1c6	5.0678173e-27
99	0x1dc76218	5.2776288e-21
100	0x20204177	1.3574188e-19
101	0x9e3b8455	-9.927063e-21
102	0x1db7d812	4.866311e-21
103	0x23005cdf	6.95856e-18
104	0x9b630d45	-1.8781288e-22
105	0x1e8a37ec	1.4634447e-20
106	0x9ef16c7e	-2.5561739e-20
107	0x1e52cd59	1.1159772e-20
108	0x950404c6	-2.6660953e-26
109	0x1715bf6d	4.838611e-25
110	0x96035c4b	-1.0611218e-25
111	0x9a2b4c19	-3.5423442e-23
112	0x9a477ca4	-4.125292e-23
113	0x18131bea	1.9013398e-24
114	0xa2839f40	-3.5676234e-18
115	0x23216ed2	8.751295e-18
116	0xa2af1669	-4.7457573e-18
117	0x0d8b44c9	8.583096e-31
118	0x8e894a30	-3.3844547e-30
119	0x8ea3cf5b	-4.038228e-30
120	0x1419f8c8	7.7735894e-27
121	0x9290bb88	-9.133908e-28
122	0x11c27355	3.0678882e-28
123	0x2590bf54	2.5109667e-16
124	0xa3bcb817	-2.0460966e-17
125	0xa565a659	-1.9918945e-16
126	0x9de060f2	-5.9392545e-21
127	0x9f24ff47	-3.493951e-20
128	0x9de1972e	-5.971332e-21
129	0x1f96ff97	6.395031e-20
130	0x1e6a93f6	1.24184545e-20
131	0x9f2d0329	-3.663679e-20
132	0x9ac7df1b	-8.266492e-23
133	0x1ab8df99	7.646186e-23
134	0x99f7e9b7	-2.5633598e-23
135	0x18309892	2.2824495e-24
136	0x982b875f	-2.2169577e-24
137	0x9765b3a0	-7.422061e-25
138	0x2616a933	5.227101e-16
139	0xa38132b1	-1.4007677e-17
140	0xa575c5a4	-2.1317326e-16
141	0xa069bced	-1.9798378e-19
142	0x20bbbf7e	3.180575e-19
143	0x9f4f35cc	-4.3878455e-20
144	0x1adadb87	9.051735e-23
145	0x1c8a286f	9.142526e-22
146	0x17b33c4c	1.1582825e-24
147	0x9dab742d	-4.5383446e-21
148	0x1f18db11	3.236846e-20
149	0x1e17db92	8.0392795e-21
150	0x96760e68	-1.9876268e-25
151	0x18b04e78	4.5574167e-24
152	0x97632fb3	-7.340786e-25
153	0x1a2cb126	3.5711866e-23
154	0x9bd6778a	-3.548058e-22
155	0x196a5b39	1.2115939e-23
156	0x1e5af49b	1.1591407e-20
157	0x9c9ffcf8	-1.0587128e-21
158	0x9d8e3bf9	-3.7649097e-21
159	0x9a84c3ad	-5.491005e-23
160	0x1a9fa239	6.6022944e-23
161	0xa5120ff8	-1.2668892e-16
162	0xa2b0ba4e	-4.7902153e-18
163	0x1edd7dfe	2.3451394e-20
164	0x9e3684d2	-9.662466e-21
165	0x9816e859	-1.9504351e-24
166	0x1ab679de	7.547032e-23
167	0x1841a2f2	2.5026932e-24
168	0x1db14b48	4.692935e-21
169	0x1e516077	1.1084316e-20
170	0x1d3f2119	2.529575e-21
171	0x200e039e	1.2029065e-19
172	0x205ce634	1.8710893e-19
173	0x20237f4e	1.3848759e-19
174	0x1f5fe267	4.7409362e-20
175	0x1dfbd501	6.6659388e-21
176	0x1c5f06d9	7.379336e-22
177	0x1767daed	7.491645e-25
178	0x961af5c5	-1.2517572e-25
179	0x1703a27a	4.2533457e-25
180	0x1fec6b38	1.00127266e-19
181	0xa28d904a	-3.83709e-18
182	0x23a36242	1.771411e-17
183	0xa2990664	-4.14775e-18
184	0x223de282	2.5734189e-18
185	0x2153298a	7.1544557e-19
186	0x1abc1495	7.778823e-23
187	0x9a029580	-2.7004135e-23
188	0x192b98dc	8.8713625e-24
189	0xa03f36bd	-1.6196441e-19
190	0x9fff7de2	-1.08204956e-19
191	0x9d0ae11f	-1.8380533e-21
192	0x1119ce4f	1.2133146e-28
193	0x11f096bd	3.7958223e-28
194	0x124a92c5	6.392087e-28
195	0x9d889b81	-3.6159688e-21
196	0x1e35ae28	9.618075e-21
197	0x1d8c980a	3.7214896e-21
198	0x1bdcacd9	3.6507647e-22
199	0x9cd003a6	-1.3765228e-21
200	0x1c0a57ba	4.5773754e-22
201	0x9be79351	-3.8310945e-22
202	0x9e2cc635	-9.1465924e-21
203	0x9cbfb5be	-1.2686299e-21
204	0x951d5a83	-3.17773e-26
205	0x14daf92d	2.2110657e-26
206	0x12b92b37	1.1685795e-27
207	0x9a00a078	-2.6599405e-23
208	0x18735f29	3.1455057e-24
209	0x96bc9693	-3.0468064e-25
210	0xa1098a40	-4.660038e-19
211	0xa06f906b	-2.0291871e-19
212	0x215df87e	7.520659e-19
213	0x8e974f8d	-3.730098e-30
214	0x0dc6a190	1.2241587e-30
215	0x0dc684f2	1.2234698e-30
216	0x10da0ed3	8.600868e-29
217	0x118a2865	2.1797456e-28
218	0x923aa4c4	-5.889434e-28
219	0x22a06ef9	4.3485584e-18
220	0x24125d27	3.1737607e-17
221	0xa434589f	-3.9106343e-17
222	0x9d591110	-2.8728532e-21
223	0x9d3eadde	-2.5236178e-21
224	0x9c76dfc6	-8.1683793e-22
225	0x1d1ceca8	2.0768777e-21
226	0x1e94d6f8	1.5759019e-20
227	0x9cddd661	-1.4679969e-21
228	0x18a16dd1	4.172841e-24
229	0x1e8d1f58	1.4941919e-20
230	0x18827598	3.372295e-24
231	0x16a73395	2.7012858e-25
232	0x971de5a0	-5.1019264e-25
233	0x96d207fb	-3.3932366e-25
234	0x25548013	1.8431462e-16
235	0x259ec098	2.7539138e-16
236	0x23c92517	2.1808172e-17
237	0x9e82bec9	-1.3843192e-20
238	0x1e9a1039	1.6312094e-20
239	0x9e5a11e9	-1.1544528e-20
240	0x1b42266e	1.6059721e-22
241	0x1ea14732	1.7075984e-20
242	0x191c3dc3	8.077484e-24
243	0x1e662cc6	1.21853575e-20
244	0x1f02cc2b	2.7697455e-20
245	0x1f06bd60	2.853225e-20
246	0x973fc460	-6.196329e-25
247	0x15cc48c6	8.250976e-26
248	0x173ab3cd	6.032678e-25
249	0x19030508	6.773557e-24
250	0x98b493b0	-4.6678036e-24
251	0x17ca8982	1.3088656e-24
252	0x1d5bd1ba	2.9092835e-21
253	0x9e1bc633	-8.246618e-21
254	0x1bc34ca2	3.2309567e-22
255	0x1a1ab2bb	3.199083e-23

fai_gcn_networks.0.gcn.conv.bias f4 [96]
0	0x9f26fc2e	-3.5360465e-20
1	0x21fc029b	1.7076874e-18
2	0x1fd700f1	9.10576e-20
3	0x28dfad12	2.483303e-14
4	0x9f95c81a	-6.3434995e-20
5	0x24024e4b	2.8255573e-17
6	0xa558c3cf	-1.8801356e-16
7	0x97cdaf62	-1.3292087e-24
8	0x1e42dfb6	1.0316537e-20
9	0xa5988888	-2.6460314e-16
10	0xa7bd9964	-5.2624344e-15
11	0x9fc8b377	-8.5000194e-20
12	0xa24ad2c9	-2.7487694e-18
13	0x240470e9	2.8718576e-17
14	0x2488e126	5.9362014e-17
15	0x23316cd7	9.618237e-18
16	0x23a3e4a7	1.7769333e-17
17	0xa594936b	-2.5773802e-16
18	0xa28c5942	-3.804158e-18
19	0x258a627a	2.4005914e-16
20	0x29b1011f	7.8605735e-14
21	0x1a11482d	3.00436e-23
22	0x1e8136c4	1.3681057e-20
23	0x2521356f	1.3982628e-16
24	0x29436b4d	4.3391767e-14
25	0xa19f9a98	-1.081518e-18
26	0x9fa65372	-7.0441783e-20
27	0xa313603e	-7.989266e-18
28	0xa55df46c	-1.9251508e-16
29	0x1f884c3d	5.7724366e-20
30	0xa537b9c8	-1.5935665e-16
31	0xab089d92	-4.853558e-13
32	0x9f91c06d	-6.172823e-20
33	0xa083a228	-2.229957e-19
34	0x9ef40a61	-2.5838798e-20
35	0xaa15b707	-1.3297359e-13
36	0x21483593	6.783354e-19
37	0x259465cb	2.5742885e-16
38	0xa576e553	-2.1414797e-16
39	0x18e70d11	5.9725294e-24
40	0x1eaab7b6	1.8075431e-20
41	0xa58a98c4	-2.4042702e-16
42	0x290ebcb1	3.1693998e-14
43	0x2040d70d	1.6334187e-19
44	0xa3001c5b	-6.944898e-18
45	0x23d5779a	2.314416e-17
46	0xa5538452	-1.8346165e-16
47	0x237b6a71	1.3629277e-17
48	0x24a4b0c0	7.142309e-17
49	0xa54aefd1	-1.760196e-16
50	0xa3cf129b	-2.2450865e-17
51	0x26081b94	4.7221854e-16
52	0xa9255055	-3.6707037e-14
53	0x9b6686e6	-1.9068742e-22
54	0x1e9c992d	1.6580494e-20
55	0x24d14583	9.075706e-17
56	0x26739cbe	8.4519986e-16
57	0x21313716	6.004284e-19
58	0x9fd2e905	-8.932396e-20
59	0xa095ec73	-2.539805e-19
60	0xa570bb1b	-2.0880076e-16
61	0xa36ed1ef	-1.2946461e-17
62	0x24c3fa98	8.499229e-17
63	0xab3ef352	-6.7839235e-13
64	0x9f6c0097	-4.9975432e-20
65	0xa2c5811f	-5.353367e-18
66	0x9efb9ec9	-2.664133e-20
67	0xaae05f43	-3.9856494e-13
68	0xa0b6aae5	-3.0945088e-19
69	0xa5955d8e	-2.5910775e-16
70	0xa400ae6b	-2.7903313e-17
71	0x17589081	6.9975754e-25
72	0x9e82e628	-1.3859476e-20
73	0x26792d62	8.6450734e-16
74	0xa9d1af45	-9.311869e-14
75	0x1fa44610	6.957261e-20
76	0xa3b19e29	-1.9257362e-17
77	0xa3d9d592	-2.3617638e-17
78	0x26106245	5.0093216e-16
79	0x23335070	9.720643e-18
80	0xa3c65a56	-2.1505462e-17
81	0x264fcd5d	7.209587e-16
82	0x21e05091	1.5200156e-18
83	0x265695a5	7.444897e-16
84	0x2a34877d	1.6034218e-13
85	0x1b9254bf	2.420844e-22
86	0x1a350f6f	3.744239e-23
87	0xa4fa60dd	-1.0858431e-16
88	0xa96ef48e	-5.3058733e-14
89	0xa1c5b099	-1.3395984e-18
90	0xa00311a1	-1.1101965e-19
91	0x23802676	1.3894077e-17
92	0xa4bb9f91	-8.136864e-17
93	0xa49723ab	-6.5546235e-17
94	0xa590c926	-2.5116322e-16
95	0xab459bfd	-7.0204937e-13

fai_gcn_networks.1.gcn.conv.weight f4 [192, 32, 1, 1]
0	0x88a30d23	-9.813294e-34
1	0x8bcac651	-7.8105963e-32
2	0x8bf8a2a0	-9.5770816e-32
3	0x914b4cc7	-1.6037535e-28
4	0x08c0a015	1.1593215e-33
5	0x9e4ce3ed	-1.0846804e-20
6	0x0f82158c	1.282729e-29
7	0x02655da0	1.6851132e-37
8	0x88b1a15f	-1.0690738e-33
9	0x8fc5fd28	-1.9523212e-29
10	0x9428f635	-8.530388e-27
11	0x08a17198	9.716541e-34
12	0x0de63b68	1.4189146e-30
13	0x8d4901f5	-6.1940263e-31
14	0x18436e5a	2.5258873e-24
15	0x0ba04e27	6.174735e-32
16	0x0cbab9f9	2.8769766e-31
17	0x0fd48713	2.0956843e-29
18	0x8cbbd337	-2.8939032e-31
19	0x0f8c7cf7	1.38532e-29
20	0x932d4e85	-2.1874383e-27
21	0x8c46b7d1	-1.530868e-31
22	0x0a102c39	6.941665e-33
23	0x8c0e1b64	-1.0947525e-31
24	0x8fb1f5b2	-1.7548186e-29
25	0x129cdfec	9.900185e-28
26	0x861133e9	-2.7309606e-35
27	0x0d055e00	4.1096938e-31
28	0x8c9ce7f0	-2.4175198e-31
29	0x131066e4	1.8226084e-27
30	0x0ece2e5c	5.0827563e-30
31	0x13ef43d6	6.0398973e-27
32	0x0b56f05d	4.139573e-32
33	0x8eae3895	-4.29488e-30
34	0x0ccfe4c1	3.2031076e-31
35	0x14dc0491	2.2216124e-26
36	0x0c986032	2.3477204e-31
37	0x0f790f11	1.22795495e-29
38	0x90077961	-2.6717562e-29
39	0xab032a2f	-4.659909e-13
40	0x0abbaa5a	1.8071524e-32
41	0x14764e70	1.2435295e-26
42	0x147433f6	1.2329099e-26
43	0x0a84e0f9	1.2795763e-32
44	0x8f44a8d3	-9.6960605e-30
45	0xa5b2daaa	-3.102625e-16
46	0x19f4879d	2.5283782e-23
47	0x8c7d172a	-1.9497382e-31
48	0x2bb099de	1.2548259e-12
49	0x10b8a8da	7.283536e-29
50	0x0f4ee65c	1.020095e-29
51	0x91b7940b	-2.8963548e-28
52	0x1487120b	1.3638633e-26
53	0x0efdfb61	6.2611384e-30
54	0x0c269db9	1.2835638e-31
55	0x0f9ae572	1.5273952e-29
56	0x936f8f16	-3.0236588e-27
57	0x15302fd4	3.5580647e-26
58	0xa46bfe6a	-5.1173e-17
59	0x8dd687b8	-1.3221441e-30
60	0x8f14250f	-7.3041006e-30
61	0x142c0e93	8.686655e-27
62	0x10a49841	6.492118e-29
63	0x94877b78	-1.3680216e-26
64	0x8b068193	-2.5904942e-32
65	0x8d425bad	-5.9891216e-31
66	0x8c67317b	-1.7810483e-31
67	0x13a24a61	4.0967893e-27
68	0xad0b7bdc	-7.9287375e-12
69	0x8fd334e1	-2.0826575e-29
70	0x0e922280	3.6025e-30
71	0x02aa8420	2.505509e-37
72	0x8a174539	-7.283405e-33
73	0x14599cc9	1.0986621e-26
74	0x14b651f8	1.8409635e-26
75	0x23170fb4	8.189052e-18
76	0x8e436ab2	-2.4086978e-30
77	0x8e0fa28e	-1.7704378e-30
78	0x1b358627	1.5015316e-22
79	0x0eb10030	4.363405e-30
80	0x0f851942	1.3124542e-29
81	0x0f74e161	1.2073535e-29
82	0x1e42398b	1.0282174e-20
83	0x0efec82a	6.2808585e-30
84	0x944e446c	-1.0413836e-26
85	0x8e4e4dcd	-2.542892e-30
86	0x8c3929f8	-1.4264511e-31
87	0x1c507dac	6.8983854e-22
88	0x9314aacb	-1.8764434e-27
89	0x94cdda22	-2.0785748e-26
90	0x892fbcb7	-2.1153592e-33
91	0x8cb6d39c	-2.8168898e-31
92	0x1083c35f	5.1971406e-29
93	0x934db83a	-2.5965468e-27
94	0x110103c4	1.0177466e-28
95	0x940b5f1d	-7.0364644e-27
96	0x1909ff33	7.134271e-24
97	0x1ac5a41a	8.174241e-23
98	0x1b1ea5e4	1.3123056e-22
99	0x2338042f	9.975546e-18
100	0x19f7c490	2.5618592e-23
101	0x9e1639fa	-7.952923e-21
102	0x9c3bca7a	-6.2134805e-22
103	0x8f54cf42	-1.04923234e-29
104	0x96ce3008	-3.3311407e-25
105	0x224f2ed0	2.8078514e-18
106	0x20da8503	3.7018656e-19
107	0x181b21c6	2.0050332e-24
108	0x9b8c28e0	-2.3187472e-22
109	0x1ca4e394	1.0911437e-21
110	0x28636260	1.2622363e-14
111	0x1bc4b2dc	3.2541065e-22
112	0x1ea350a2	1.7291645e-20
113	0x9ed9d9cd	-2.3065849e-20
114	0x9bf0d741	-3.9843774e-22
115	0x1efdcb30	2.6871453e-20
116	0xa2f7f203	-6.7205724e-18
117	0x1bb77e03	3.0356244e-22
118	0x9a95032e	-6.163009e-23
119	0x9cf54f69	-1.6233267e-21
120	0x22985b44	4.1296314e-18
121	0x237686ce	1.3364233e-17
122	0x165eaab0	1.7986877e-25
123	0x9bfb841f	-4.1609848e-22
124	0x1b451f19	1.6305506e-22
125	0xa10ff683	-4.877654e-19
126	0x1db896dd	4.8860383e-21
127	0x21ae8726	1.1826472e-18
128	0x0a0343c3	6.320165e-33
129	0x0b7cb2cb	4.8667943e-32
130	0x0b1c522f	3.0106335e-32
131	0x11fbf6eb	3.9752992e-28
132	0x0a925229	1.4090194e-32
133	0x8f2cbcc7	-8.516612e-30
134	0x0cb00b55	2.7123914e-31
135	0x830433da	-3.8850836e-37
136	0x0872373b	7.288915e-34
137	0x13596623	2.7439608e-27
138	0x939c6c98	-3.948702e-27
139	0x091b0205	1.8658396e-33
140	0x0eb38559	4.4255316e-30
141	0x8d806e16	-7.915111e-31
142	0x1e373ae9	9.700122e-21
143	0x11df957f	3.527533e-28
144	0x0d164215	4.630186e-31
145	0x0f87c55b	1.3388046e-29
146	0x8d828e2b	-8.046094e-31
147	0x8f68cced	-1.14779504e-29
148	0x12876f7f	8.547184e-28
149	0x0d33d0b6	5.540986e-31
150	0x0b5530a7	4.105891e-32
151	0x0d3564ae	5.589612e-31
152	0x1240b633	6.0809095e-28
153	0x147c437b	1.2736057e-26
154	0x88c59ba2	-1.1893095e-33
155	0x8d0a49a3	-4.261317e-31
156	0x0d3dd67b	5.8498293e-31
157	0x92833dad	-8.282467e-28
158	0x0ebc43d6	4.64109e-30
159	0xaf27e897	-1.5271194e-10
160	0x1bb439d6	2.9815878e-22
161	0x1d93cb60	3.912086e-21
162	0x1de281a6	5.9955755e-21
163	0x25d0ffe1	3.6255639e-16
164	0x1c9a7362	1.0220691e-21
165	0x2211e99d	1.9774838e-18
166	0x1d9ebc89	4.2017193e-21
167	0x13594f6c	2.7428409e-27
168	0x1bc144aa	3.1973545e-22
169	0x24daf670	9.495991e-17
170	0xa5545bcd	-1.8419172e-16
171	0x1c624250	7.4862834e-22
172	0xa0736fcd	-2.0619892e-19
173	0xa380e72c	-1.3975693e-17
174	0x2b0bb6db	4.9636483e-13
175	0x1e3a53b1	9.864065e-21
176	0x1fbf639b	8.105643e-20
177	0x21660e6b	7.7946113e-19
178	0x1e345076	9.5457596e-21
179	0x218508d2	9.014765e-19
180	0xa606f7ce	-4.6826427e-16
181	0x1f4f77ba	4.393299e-20
182	0x1d9f0971	4.209671e-21
183	0xaa2ff3d1	-1.5627713e-13
184	0xa395c361	-1.6237359e-17
185	0xa5e67dac	-3.9983799e-16
186	0x171fae99	5.1596044e-25
187	0x1e029f01	6.915024e-21
188	0x1e40edb1	1.0213549e-20
189	0x2459b41e	4.720694e-17
190	0x2176c612	8.3610186e-19
191	0x24cec54d	8.96725e-17
192	0x18b1114f	4.5770905e-24
193	0xa2d767e4	-5.8385865e-18
194	0x1a94159d	6.1246283e-23
195	0x22e82371	6.292125e-18
196	0x1a61b9a3	4.6678866e-23
197	0x1d42900d	2.5750159e-21
198	0x1baa013d	2.812494e-22
199	0x91a2e7e5	-2.570201e-28
200	0x15f65f7d	9.950926e-26
201	0x21a90a80	1.1454665e-18
202	0xa28601ae	-3.632255e-18
203	0x98526e4d	-2.7197552e-24
204	0x1c4a40af	6.6919795e-22
205	0x1a6685c5	4.7670943e-23
206	0x28b6ba88	2.0286954e-14
207	0x1e73a300	1.28980205e-20
208	0x1e748d69	1.2946495e-20
209	0x1e8f016c	1.5141302e-20
210	0x1b888fdc	2.259228e-22
211	0x1e9c47cb	1.6546835e-20
212	0x223fb440	2.598075e-18
213	0x1c9b404b	1.0273659e-21
214	0x1ac63b5f	8.19868e-23
215	0x1c84c947	8.787056e-22
216	0xa0d76878	-3.6491548e-19
217	0x22c48fbd	5.3278095e-18
218	0x16266a51	1.3442921e-25
219	0x1adde98d	9.178078e-23
220	0x1c8efdeb	9.462408e-22
221	0xa141a7b7	-6.561291e-19
222	0x9fa0882f	-6.798793e-20
223	0x219d9d79	1.0680416e-18
224	0x1b551380	1.7625248e-22
225	0x1d4b1115	2.6875657e-21
226	0x9d51adcc	-2.775077e-21
227	0x2609d5a0	4.782094e-16
228	0x1d027350	1.7264972e-21
229	0x1edc6743	2.3336114e-20
230	0x9e716f5f	-1.2781465e-20
231	0x152f8f9f	3.5454266e-26
232	0x1a9b8fe8	6.433899e-23
233	0x24ca7bf4	8.781352e-17
234	0xa4955e70	-6.477843e-17
235	0x1b53bbc7	1.7514185e-22
236	0x9e1f8eea	-8.446944e-21
237	0x1ebe0f88	2.0123456e-20
238	0x2a5be938	1.9532021e-13
239	0x1e775457	1.3093512e-20
240	0x1f774edd	5.236952e-20
241	0x20aaaadc	2.8912185e-19
242	0x9eb8383e	-1.9505019e-20
243	0x20c6ec80	3.3699007e-19
244	0x24cbf828	8.845761e-17
245	0x1e8f3284	1.5161607e-20
246	0x1d0f41f6	1.8959993e-21
247	0xa10b3350	-4.7162943e-19
248	0x249a8262	6.700773e-17
249	0xa3c4460d	-2.128003e-17
250	0x992259d3	-8.3933436e-24
251	0x1d63e1e6	3.0159987e-21
252	0x1fac7e40	7.3053697e-20
253	0x24764b7b	5.340668e-17
254	0x2127c21f	5.683872e-19
255	0x2411ee63	3.1643784e-17

fai_gcn_networks.1.gcn.conv.bias f4 [192]
0	0x2884eda3	1.4758002e-14
1	0x2a6b1d6a	2.0882398e-13
2	0x2a622a6b	2.0087549e-13
3	0x38bf2289	9.1140224e-05
4	0x296626e0	5.1103978e-14
5	0x3b66bd21	0.0035207944
6	0x388440f6	6.3063504e-05
7	0x3b1e08bc	0.0024114093
8	0x2912ca75	3.2594116e-14
9	0x2785377b	3.6975068e-15
10	0x294bb286	4.52299e-14
11	0x3b09d726	0.002103278
12	0x2930133b	3.909653e-14
13	0x3678be09	3.7065495e-06
14	0x3ab38f59	0.0013699337
15	0x293dec51	4.2171402e-14
16	0x2924e0b1	3.6610204e-14
17	0x2c01b8f2	1.8434668e-12
18	0x3b785c88	0.003789695
19	0x2a308450	1.5677845e-13
20	0x335d689e	5.155072e-08
21	0x3b45bf6c	0.003017391
22	0x3a2c189c	0.00065649464
23	0x2d22129b	9.212765e-12
24	0x3a908fd7	0.0011029196
25	0x2a80a589	2.285223e-13
26	0x28186a9d	8.460813e-15
27	0x325fa721	1.3018309e-08
28	0x28121aed	8.110467e-15
29	0xa6bda45d	-1.315906e-15
30	0xa6067c56	-4.6659096e-16
31	0xa7f04a3a	-6.669386e-15
32	0x29a8dac6	7.49865e-14
33	0x350cbdfd	5.2430534e-07
34	0x3a3b1e91	0.00071380386
35	0xaa3e09f1	-1.6878839e-13
36	0x289553e0	1.6578698e-14
37	0x3866c0fd	5.5016008e-05
38	0x29c34061	8.6709076e-14
39	0x33aebea8	8.1371866e-08
40	0x38b3044b	8.536185e-05
41	0x2782eb41	3.633731e-15
42	0xa9566561	-4.7605478e-14
43	0x2a4b9d09	1.8084504e-13
44	0x3ae3dc1f	0.0017384327
45	0xabf88afb	-1.7660035e-12
46	0x39df801c	0.00042629323
47	0x297b4630	5.5794074e-14
48	0x3a0d13bb	0.0005381663
49	0x3758ee5c	1.2930101e-05
50	0x2607f72b	4.717251e-16
51	0x38c07b89	9.178284e-05
52	0x28102a18	8.002733e-15
53	0x297fe901	5.6823473e-14
54	0x2a38ea0e	1.6423687e-13
55	0x292d049d	3.8417718e-14
56	0xa9204750	-3.558899e-14
57	0x389ecf58	7.572648e-05
58	0x3954c2c9	0.00020290459
59	0xa926f469	-3.7071396e-14
60	0x3a318a30	0.00067726057
61	0x29236b43	3.6286305e-14
62	0xa6d6189b	-1.4855902e-15
63	0x2a3fd106	1.7036727e-13
64	0x26dc0540	1.526699e-15
65	0x2aed7835	4.2183067e-13
66	0x2a3b7cf8	1.6652294e-13
67	0x390c7292	0.00013394121
68	0x29d71898	9.5521843e-14
69	0x3ba4b212	0.0050261104
70	0x38c219e4	9.2554634e-05
71	0x3b63e4d0	0.0034773834
72	0x28f66012	2.735315e-14
73	0x27546ca9	2.9479815e-15
74	0x2a2d6830	1.5401634e-13
75	0x3b477963	0.0030437342
76	0x298ae50b	6.168164e-14
77	0x36b7f886	5.482757e-06
78	0x3b02d088	0.001996072
79	0xa6cb8e81	-1.412458e-15
80	0x2960ee2f	4.9944583e-14
81	0x2c3ab468	2.6532335e-12
82	0x3bb0e2ec	0.005398145
83	0x2ab054ee	3.1322812e-13
84	0x33a3d8e8	7.629734e-08
85	0x3b8dde78	0.004329499
86	0x3a7b6e0c	0.00095912884
87	0x2d6e58ad	1.3548424e-11
88	0x3ad21a95	0.001602965
89	0x2ac00239	3.4107594e-13
90	0x28c673c4	2.2032621e-14
91	0x32a5f0f6	1.9318104e-08
92	0x27f59bf3	6.817024e-15
93	0xa780fc6c	-3.5800813e-15
94	0xa544e56e	-1.7078024e-16
95	0xa7ab14af	-4.748446e-15
96	0x2a050985	1.1816076e-13
97	0x354f64a5	7.7259966e-07
98	0x3a88f4f6	0.0010448981
99	0xa9b14b3e	-7.8734315e-14
100	0x291884a6	3.3865834e-14
101	0x38a92416	8.0652695e-05
102	0x2a13947f	1.3107743e-13
103	0x34021cb8	1.2117641e-07
104	0x390386a7	0.00012543295
105	0x27a39da2	4.5412494e-15
106	0xa832cff2	-9.926076e-15
107	0x2a7f55ae	2.2678276e-13
108	0x3b24d617	0.0025152022
109	0xacd416c6	-6.0279308e-12
110	0x3a233e37	0.0006227227
111	0x28cb4bcb	2.2570397e-14
112	0x3a4e319f	0.00078656705
113	0x379ebda4	1.8923376e-05
114	0xa73c74df	-2.6153597e-15
115	0x390d895e	0.00013497981
116	0x28832c0b	1.4563022e-14
117	0x2a0846e7	1.2103826e-13
118	0x29f1cc2b	1.07379675e-13
119	0x2973d5aa	5.4142163e-14
120	0xa8ce6509	-2.2914411e-14
121	0x38e90d25	0.00011112754
122	0x399bba24	0.0002970259
123	0xa8b44ace	-2.0016456e-14
124	0x3a814f97	0.0009865639
125	0x292fb942	3.901849e-14
126	0xa712ebc9	-2.038939e-15
127	0x29e25039	1.00503326e-13
128	0x2960ea6e	4.9941327e-14
129	0x29deb2eb	9.889818e-14
130	0x2b53fe05	7.531478e-13
131	0x380438eb	3.152426e-05
132	0xa9df5b82	-9.9190635e-14
133	0x3a961e57	0.0011453134
134	0x37b9ee45	2.2164671e-05
135	0x3a4cdb4c	0.000781466
136	0x295b6388	4.8714098e-14
137	0x2897dc3e	1.6859882e-14
138	0x2a2ceaa5	1.5358077e-13
139	0x3a31ecbb	0.000678729
140	0xa934e29b	-4.0164578e-14
141	0x35bc1671	1.4013623e-06
142	0x39e8bf93	0.00044393222
143	0x2a805be1	2.280112e-13
144	0xa8d7b56c	-2.3948474e-14
145	0x2bb4bf6d	1.2842901e-12
146	0x3a9f5721	0.0012156704
147	0xaae2026b	-4.0147342e-13
148	0x32bcd9ed	2.1985182e-08
149	0x3a7f33f1	0.0009735218
150	0x396301dc	0.000216491
151	0x2cb5b959	5.164907e-12
152	0x39be38a0	0.00036281813
153	0xa9e8adff	-1.0333053e-13
154	0x28c034c1	2.133916e-14
155	0x31c50f32	5.735182e-09
156	0x292bd0ef	3.815085e-14
157	0x274ac4c3	2.8139796e-15
158	0x259d3a86	2.7274816e-16
159	0x27d10f38	5.8025653e-15
160	0xa995f12e	-6.658767e-14
161	0x3463448a	2.1165957e-07
162	0x39751f31	0.0002337664
163	0xaa33cd4f	-1.5969624e-13
164	0x2a9447a6	2.6339797e-13
165	0x37a36dd9	1.9482266e-05
166	0xa98c45ec	-6.2293784e-14
167	0x3310d8aa	3.3724668e-08
168	0x37f84d3f	2.9599874e-05
169	0x28df52d3	2.4793893e-14
170	0x29030393	2.9090943e-14
171	0x2897a866	1.6837399e-14
172	0x3a14ee9f	0.0005681309
173	0x2c56612c	3.046517e-12
174	0x39158716	0.00014260071
175	0x2a886e53	2.4235006e-13
176	0x393b1c49	0.00017844247
177	0x36a1d133	4.822528e-06
178	0x269e8069	1.0998258e-15
179	0x3804eede	3.1693715e-05
180	0xa86ffacf	-1.3321551e-14
181	0xaa21595e	-1.4330678e-13
182	0x293812a6	4.0872382e-14
183	0xa84ef0e3	-1.1487531e-14
184	0xaa169667	-1.3374858e-13
185	0x37dde1ec	2.6450456e-05
186	0x3890e703	6.9094844e-05
187	0xa957b5d6	-4.7897308e-14
188	0x396bafdb	0.00022476858
189	0xaa0cbe54	-1.2500531e-13
190	0x26c35ed1	1.3556543e-15
191	0x2ace6465	3.6662614e-13

fai_gcn_networks.1.residual.0.weight f4 [64, 32, 1, 1]
0	0xbc7f773d	-0.015592393
1	0xbc4e3058	-0.012584768
2	0xbb3f9820	-0.002923496
3	0x3d165aa1	0.036707524
4	0x3d1eda92	0.038782664
5	0xbc36b8d2	-0.011152463
6	0x3cd6cc26	0.026220392
7	0x3d04c5bc	0.032415137
8	0xbca29a4e	-0.019848969
9	0xbc859c96	-0.016310018
10	0x3c1670c4	0.009182159
11	0x3d095dad	0.0335366
12	0x3b309054	0.0026941495
13	0xbc251450	-0.010075644
14	0x3cf462fc	0.029832356
15	0x3c86844e	0.01642051
16	0x3d17101d	0.0368806
17	0x3c6fca2f	0.014635607
18	0xbc6b31f0	-0.014355168
19	0x3cb4e6e2	0.02208275
20	0xbc5615a4	-0.013066683
21	0x3c14a1e2	0.009071799
22	0x3cc450d5	0.023964325
23	0xbc040d69	-0.008059838
24	0xbcb0dcaf	-0.021589605
25	0x3c9bd227	0.019021107
26	0xbc856f61	-0.016288461
27	0x3c940c0c	0.01807215
28	0x3b144b99	0.0022628068
29	0x3aa18621	0.0012323299
30	0xbbc05849	-0.0058698994
31	0x3c98c657	0.018649263
32	0x3cc6d901	0.024273397
33	0x3cbc88d2	0.02301446
34	0xbd306eb2	-0.043074317
35	0xbc8b64ae	-0.017015781
36	0x3b6eb50a	0.0036423826
37	0x3c47d9e4	0.012197945
38	0x3d010cfc	0.031506523
39	0x3cdd2749	0.026996272
40	0xbc4425c2	-0.011971893
41	0x3b74178a	0.0037245476
42	0xba5f7d2c	-0.0008525427
43	0xbc9fe60e	-0.019518878
44	0xbd2d836a	-0.042361654
45	0x3c8f5147	0.01749481
46	0xbcedb838	-0.029018506
47	0x3bbfac72	0.0058494145
48	0x3b39befc	0.0028342595
49	0xbb96c4c2	-0.004601092
50	0xbc33c2b5	-0.010971715
51	0xbce4bef0	-0.027923077
52	0x3cee65fb	0.029101362
53	0x3b90ad63	0.0044152006
54	0x3c6da85b	0.014505471
55	0xbd1937fd	-0.03740691
56	0xbc1debe8	-0.009638764
57	0x3c986dc6	0.018607032
58	0xbc2da25b	-0.010597791
59	0x3cdb844f	0.026796488
60	0xbccfc825	-0.025363991
61	0xbd25b23c	-0.04045318
62	0x3c36b418	0.011151336
63	0x3c130c53	0.008975106
64	0xba9538d2	-0.0011384732
65	0xbbb0324d	-0.00537709
66	0x3bb227ad	0.0054368586
67	0x3c8c179b	0.0171011
68	0x3c43c5fc	0.011949059
69	0xbc07f1ff	-0.008297442
70	0x3c675a0a	0.014120588
71	0xbbf424f4	-0.007450694
72	0xbc7dc68c	-0.015489232
73	0x3c7f64e1	0.015588016
74	0xbc16110c	-0.009159338
75	0xbca9f707	-0.020747675
76	0xbc2bcbaf	-0.010485574
77	0x3b5ea58a	0.003397318
78	0xbba81756	-0.005129735
79	0xbc9379c0	-0.01800239
80	0xbc98f82d	-0.018673027
81	0xbd264a8b	-0.040598433
82	0xbb9e9ab5	-0.00484022
83	0xbc9da1ba	-0.019242156
84	0xbcfa7630	-0.030573934
85	0xbce25f3b	-0.0276333
86	0x3c57c85c	0.013170328
87	0xbc9dd27d	-0.019265408
88	0xbc8b2d30	-0.01698932
89	0xbbe07a5b	-0.0068505234
90	0xbbb57789	-0.0055379313
91	0x3c3915eb	0.01129673
92	0x3ce61bf7	0.028089507
93	0x3cda68ca	0.026661295
94	0xbbbfca9c	-0.0058530103
95	0xbca0a131	-0.019608112
96	0xbc948ff9	-0.018135058
97	0xbb4d0001	-0.003128052
98	0xbbd7c279	-0.0065844622
99	0x3cd88237	0.026429279
100	0xbc86bf4c	-0.01644864
101	0xbc0463f6	-0.008080473
102	0xbd31c12a	-0.043397106
103	0xbce7ab98	-0.028280064
104	0x3c297b80	0.010344386
105	0x3d06ea14	0.032938078
106	0xbc492735	-0.012277414
107	0xbc7bf28a	-0.01537765
108	0xba9e0436	-0.0012055698
109	0xbc5b8d90	-0.01340045
110	0x3cb56260	0.022141635
111	0xbccaeaea	-0.024770219
112	0xbaef43f9	-0.001825451
113	0xbca59cf8	-0.02021645
114	0x3d042f77	0.03227183
115	0x3cd57a92	0.026059423
116	0xbb05d6ed	-0.0020422295
117	0xbbd331dc	-0.0064451527
118	0x3c4e0f52	0.012576895
119	0x3c51a0dc	0.0127946995
120	0xbcba18f3	-0.022716975
121	0x3ccd411d	0.025055462
122	0x3c949a76	0.018140059
123	0x3b0fd340	0.0021945983
124	0x3cb5e2c1	0.022202851
125	0x3cdcdb64	0.026960082
126	0x3ca0d4e7	0.01963277
127	0xbb57dcb9	-0.0032937957
128	0x3c6613bc	0.014042791
129	0x3befae54	0.0073144827
130	0xbca17eb0	-0.01971373
131	0x3c957ffe	0.018249508
132	0x3c34c267	0.011032677
133	0x3ca06167	0.019577695
134	0xbbb4ac47	-0.005513701
135	0x3c63cc5d	0.0139037045
136	0xbba1b909	-0.004935388
137	0x3a24e66d	0.00062904396
138	0x3d36d855	0.044639904
139	0xbc069007	-0.00821305
140	0xbb1fea20	-0.0024401024
141	0x3c548dd3	0.012973267
142	0xbae81b6e	-0.001770837
143	0xbc07098d	-0.008242023
144	0xbb35ceca	-0.0027741664
145	0xbca5a3d2	-0.020219717
146	0xbc7d075e	-0.015443651
147	0xbbd5e499	-0.006527495
148	0xbae59dcf	-0.0017518344
149	0x3cb44ea0	0.022010148
150	0xbc81d772	-0.015849803
151	0x3a3f3add	0.0007294843
152	0xbc6bf645	-0.014401977
153	0x3cc38a54	0.02386967
154	0x3ca5fbb9	0.020261632
155	0x3ad16df4	0.0015978203
156	0xbc6548d5	-0.013994415
157	0x3c173ac6	0.009230321
158	0xbc44ebf3	-0.012019145
159	0xbd3bf8fc	-0.045891747
160	0xbc782b13	-0.015146988
161	0x3c13df9b	0.00902548
162	0x3cc93a60	0.024563968
163	0xbc75fc03	-0.015013698
164	0x3ca6ec30	0.020376295
165	0x3c3840b0	0.011245891
166	0xbb59c525	-0.003322908
167	0xbcd1a18a	-0.025589723
168	0xbce09e10	-0.02741912
169	0xbc967d3e	-0.018370267
170	0x3c8c6247	0.017136706
171	0xbc2a7449	-0.010403701
172	0xbc92afb4	-0.017906047
173	0xbaf04659	-0.0018331512
174	0x3cb036bd	0.021510476
175	0x3bce2b85	0.006291809
176	0xbc84ccf9	-0.01621102
177	0x3d79c800	0.06098175
178	0x3cd2b942	0.025723103
179	0x3c329c0b	0.010901461
180	0x3b3d61a7	0.0028897317
181	0x3cb3222a	0.021866877
182	0xbbcb6c37	-0.0062079686
183	0x3b9b6e58	0.0047433786
184	0x3c91de02	0.017806057
185	0x3bc68e29	0.0060594273
186	0xbcc96e79	-0.02458881
187	0xbca25377	-0.01981519
188	0xbc81e29b	-0.015855124
189	0xba6a6947	-0.0008942079
190	0x3c4a707b	0.012355919
191	0x3c38e1cb	0.011284302
192	0xbc80e4e8	-0.015734151
193	0xbae19e75	-0.0017213362
194	0xbd79e923	-0.061013352
195	0x3c79967b	0.015233631
196	0xbd1d2a29	-0.038370285
197	0x3ab1cc3c	0.0013564895
198	0xbc39a23d	-0.0113301845
199	0xbd1bc2f6	-0.038027726
200	0xbb7552ee	-0.0037433463
201	0xbc63f733	-0.013913917
202	0xbb8ea3b6	-0.004353012
203	0x3b1e2ebd	0.0024136745
204	0xbbacab09	-0.0052694124
205	0x3c48f70f	0.012265935
206	0x3c75afd4	0.014995534
207	0xbc65c132	-0.014023112
208	0x3d12201d	0.035675157
209	0x3c4fc7fc	0.012681957
210	0xbc5df258	-0.013546549
211	0xbb8ad981	-0.0042373543
212	0x3d874f12	0.06606878
213	0x3c3ee48b	0.011651169
214	0x3cc36e18	0.023856208
215	0x3bb9c815	0.0056696036
216	0xbc7a8e0b	-0.015292655
217	0x3a4542db	0.0007524916
218	0x3b96fb9c	0.004607631
219	0xbd01fef0	-0.031737268
220	0xbb339d7d	-0.0027407103
221	0x3b0bf88e	0.0021357867
222	0xbc541fe5	-0.012947057
223	0xbc8cec17	-0.01720242
224	0x3a9f8f3e	0.0012173427
225	0x3af97aa0	0.0019033737
226	0x3c558032	0.013031052
227	0xbce8fd2e	-0.028441038
228	0xbc308e73	-0.01077615
229	0xbc4fc8e1	-0.012682171
230	0xbb8f90a1	-0.004381255
231	0xbc170ce3	-0.009219381
232	0x3b71eb67	0.0036913992
233	0xbd0be14b	-0.034150403
234	0x3c4ddd3d	0.012564954
235	0x3cf02463	0.029314226
236	0x3c82d231	0.015969368
237	0x3a47f589	0.0007627835
238	0xbcb754f0	-0.022379369
239	0xbb958a04	-0.004563572
240	0x3bccff18	0.0062559955
241	0x3ca58521	0.020205082
242	0x3d1636bb	0.03667329
243	0xbc6b6170	-0.014366493
244	0x3c429269	0.011875727
245	0x3ba917ee	0.0051603233
246	0x3c297014	0.010341663
247	0xbbb4210d	-0.005497104
248	0x3c60f36e	0.013729913
249	0xbd3f2c4a	-0.046673097
250	0xbcb7afd0	-0.022422701
251	0x3bbe1ce6	0.005801785
252	0x3b7dd060	0.0038728938
253	0xbb4cc587	-0.0031245665
254	0x3c4004a0	0.011719853
255	0x3c9d1f9c	0.019180112

fai_gcn_networks.1.residual.0.bias f4 [64]
0	0x00000000	0.0
1	0x00000000	0.0
2	0x00000000	0.0
3	0x00000000	0.0
4	0x00000000	0.0
5	0x00000000	0.0
6	0x00000000	0.0
7	0x00000000	0.0
8	0x00000000	0.0
9	0x00000000	0.0
10	0x00000000	0.0
11	0x00000000	0.0
12	0x00000000	0.0
13	0x00000000	0.0
14	0x00000000	0.0
15	0x00000000	0.0
16	0x00000000	0.0
17	0x00000000	0.0
18	0x00000000	0.0
19	0x00000000	0.0
20	0x00000000	0.0
21	0x00000000	0.0
22	0x00000000	0.0
23	0x00000000	0.0
24	0x00000000	0.0
25	0x00000000	0.0
26	0x00000000	0.0
27	0x00000000	0.0
28	0x00000000	0.0
29	0x00000000	0.0
30	0x00000000	0.0
31	0x00000000	0.0
32	0x00000000	0.0
33	0x00000000	0.0
34	0x00000000	0.0
35	0x00000000	0.0
36	0x00000000	0.0
37	0x00000000	0.0
38	0x00000000	0.0
39	0x00000000	0.0
40	0x00000000	0.0
41	0x00000000	0.0
42	0x00000000	0.0
43	0x00000000	0.0
44	0x00000000	0.0
45	0x00000000	0.0
46	0x00000000	0.0
47	0x00000000	0.0
48	0x00000000	0.0
49	0x00000000	0.0
50	0x00000000	0.0
51	0x00000000	0.0
52	0x00000000	0.0
53	0x00000000	0.0
54	0x00000000	0.0
55	0x00000000	0.0
56	0x00000000	0.0
57	0x00000000	0.0
58	0x00000000	0.0
59	0x00000000	0.0
60	0x00000000	0.0
61	0x00000000	0.0
62	0x00000000	0.0
63	0x00000000	0.0

fai_gcn_networks.1.residual.1.weight f4 [64]
0	0x3f81e8b2	1.0149138
1	0x3f7d6802	0.9898683
2	0x3f8006bd	1.0002056
3	0x3f7d51e4	0.9895308
4	0x3f7c44e4	0.9854262
5	0x3f80556e	1.0026071
6	0x3f78f662	0.9725095
7	0x3f811737	1.008521
8	0x3f7a6986	0.97817266
9	0x3f7f44ee	0.99714553
10	0x3f836795	1.0265986
11	0x3f7c1973	0.9847633
12	0x3f81ec4b	1.0150236
13	0x3f7b87fc	0.9825437
14	0x3f83b423	1.0289348
15	0x3f805cc4	1.002831
16	0x3f810e1a	1.0082428
17	0x3f81c2c9	1.0137569
18	0x3f81c834	1.0139222
19	0x3f778f81	0.96703345
20	0x3f77b613	0.967622
21	0x3f815f62	1.0107234
22	0x3f800913	1.0002769
23	0x3f885d21	1.0653421
24	0x3f7cd7c4	0.9876673
25	0x3f77b847	0.9676556
26	0x3f7df9ba	0.9920918
27	0x3f83da9c	1.0301089
28	0x3f805b86	1.0027931
29	0x3f81fcde	1.0155294
30	0x3f7c2d85	0.9850696
31	0x3f82dab6	1.0222995
32	0x3f7e4875	0.9932931
33	0x3f82d447	1.0221032
34	0x3f83f827	1.0310105
35	0x3f802fbe	1.001457
36	0x3f7dcdf7	0.991424
37	0x3f83d8d8	1.030055
38	0x3f78d404	0.9719851
39	0x3f7e9032	0.99438775
40	0x3f7f52c9	0.99735695
41	0x3f8070d8	1.0034437
42	0x3f7cc6f8	0.987411
43	0x3f7c169b	0.98471993
44	0x3f8135ad	1.0094506
45	0x3f80a89d	1.0051457
46	0x3f76a3fe	0.9634398
47	0x3f81c7ad	1.0139061
48	0x3f83755c	1.027019
49	0x3f7d22e8	0.9888139
50	0x3f7f2852	0.996709
51	0x3f7cc0e0	0.98731804
52	0x3f78b7ce	0.97155464
53	0x3f7ea544	0.99470925
54	0x3f82c803	1.0217289
55	0x3f82a32d	1.0206047
56	0x3f811003	1.0083011
57	0x3f7bf90d	0.98426896
58	0x3f8218bf	1.0163802
59	0x3f803a42	1.0017779
60	0x3f7dfe21	0.99215895
61	0x3f81ab3e	1.0130384
62	0x3f7896ca	0.97105086
63	0x3f80974c	1.0046172

fai_gcn_networks.1.residual.1.bias f4 [64]
0	0x00000000	0.0
1	0x00000000	0.0
2	0x00000000	0.0
3	0x00000000	0.0
4	0x00000000	0.0
5	0x00000000	0.0
6	0x00000000	0.0
7	0x00000000	0.0
8	0x00000000	0.0
9	0x00000000	0.0
10	0x00000000	0.0
11	0x00000000	0.0
12	0x00000000	0.0
13	0x00000000	0.0
14	0x00000000	0.0
15	0x00000000	0.0
16	0x00000000	0.0
17	0x00000000	0.0
18	0x00000000	0.0
19	0x00000000	0.0
20	0x00000000	0.0
21	0x00000000	0.0
22	0x00000000	0.0
23	0x00000000	0.0
24	0x00000000	0.0
25	0x00000000	0.0
26	0x00000000	0.0
27	0x00000000	0.0
28	0x00000000	0.0
29	0x00000000	0.0
30	0x00000000	0.0
31	0x00000000	0.0
32	0x00000000	0.0
33	0x00000000	0.0
34	0x00000000	0.0
35	0x00000000	0.0
36	0x00000000	0.0
37	0x00000000	0.0
38	0x00000000	0.0
39	0x00000000	0.0
40	0x00000000	0.0
41	0x00000000	0.0
42	0x00000000	0.0
43	0x00000000	0.0
44	0x00000000	0.0
45	0x00000000	0.0
46	0x00000000	0.0
47	0x00000000	0.0
48	0x00000000	0.0
49	0x00000000	0.0
50	0x00000000	0.0
51	0x00000000	0.0
52	0x00000000	0.0
53	0x00000000	0.0
54	0x00000000	0.0
55	0x00000000	0.0
56	0x00000000	0.0
57	0x00000000	0.0
58	0x00000000	0.0
59	0x00000000	0.0
60	0x00000000	0.0
61	0x00000000	0.0
62	0x00000000	0.0
63	0x00000000	0.0

fai_gcn_networks.1.residual.1.running_mean f4 [64]
0	0x2c200a14	2.2742962e-12
1	0xac1b8256	-2.2099176e-12
2	0xaadbf1ea	-3.9070076e-13
3	0x2bede845	1.6904331e-12
4	0xaa14d017	-1.3217236e-13
5	0x2be6a76e	1.6388954e-12
6	0x2ba0cf02	1.142614e-12
7	0xabf09ff1	-1.7097418e-12
8	0xab26c0d4	-5.924265e-13
9	0x2b3bc422	6.6707935e-13
10	0x2be6c490	1.639704e-12
11	0xac6100f3	-3.197495e-12
12	0xaa24c235	-1.4633505e-13
13	0x2a853a51	2.366601e-13
14	0xab8d3d48	-1.0035662e-12
15	0x2b63566b	8.076653e-13
16	0x2b750434	8.704732e-13
17	0x2c40a9ad	2.737903e-12
18	0x2af6d40a	4.384551e-13
19	0xab7aea72	-8.91432e-13
20	0x2b016614	4.597167e-13
21	0x2b08e037	4.8628067e-13
22	0x2b8222e5	9.246741e-13
23	0x2b0a8b7e	4.9221033e-13
24	0x2ba607d8	1.1797186e-12
25	0x2af5a316	4.3633906e-13
26	0xaba47568	-1.1685488e-12
27	0xac1d4299	-2.234801e-12
28	0xac2b5e1f	-2.435281e-12
29	0xab7b8073	-8.935137e-13
30	0x2be60671	1.6344271e-12
31	0xab6da428	-8.4427127e-13
32	0xab0badfb	-4.9624167e-13
33	0xabd75776	-1.5300944e-12
34	0x2acb03fa	3.6062803e-13
35	0x29328219	3.963678e-14
36	0x2c37a9e8	2.610018e-12
37	0xa9cacf83	-9.0065996e-14
38	0xaa59e268	-1.9352022e-13
39	0x2acc1a91	3.6256114e-13
40	0x2b390961	6.573822e-13
41	0xabd2b312	-1.4971099e-12
42	0xac14919d	-2.1112897e-12
43	0xabe09f7a	-1.5960421e-12
44	0xaba7a640	-1.1912207e-12
45	0xabf17b97	-1.7158383e-12
46	0x2c11b409	2.070568e-12
47	0x29b95c87	8.231701e-14
48	0x2bac3f28	1.2238864e-12
49	0xab5e0f86	-7.8891787e-13
50	0x2936b8e1	4.0572475e-14
51	0x2a699032	2.0744585e-13
52	0x2b7376ab	8.6495627e-13
53	0x2b9f26ad	1.1308364e-12
54	0x2abc9754	3.3500514e-13
55	0x2bd81a2c	1.5354987e-12
56	0xab603235	-7.965046e-13
57	0x2bf4efe3	1.7403825e-12
58	0xaa8e29a8	-2.5253172e-13
59	0xa959e2e3	-4.8380472e-14
60	0xac6409b5	-3.2406137e-12
61	0xabeda699	-1.6886103e-12
62	0x2baffc88	1.2504589e-12
63	0xab8428cb	-9.390486e-13

fai_gcn_networks.1.residual.1.running_var f4 [64]
0	0x194a21b3	1.0449961e-23
1	0x193f87b5	9.901874e-24
2	0x16bf0e66	3.08668e-25
3	0x18de9c02	5.7543183e-24
4	0x1538fd58	3.7358357e-26
5	0x18d242f7	5.4351345e-24
6	0x184c6838	2.6419e-24
7	0x18e32e11	5.872464e-24
8	0x175ad8d5	7.071328e-25
9	0x178b4751	9.000667e-25
10	0x18d1ab7f	5.41984e-24
11	0x19c8620c	2.0719116e-23
12	0x15498669	4.0697658e-26
13	0x160c5b71	1.1337964e-25
14	0x181e0464	2.0423238e-24
15	0x17cd8106	1.3280385e-24
16	0x17ebae78	1.5230561e-24
17	0x1992e3eb	1.5188102e-23
18	0x16f043fd	3.8816998e-25
19	0x17f9e833	1.6149863e-24
20	0x1702f9e5	4.2320677e-25
21	0x1712a001	4.73771e-25
22	0x18062430	1.7337364e-24
23	0x171a0508	4.9766434e-25
24	0x185b456c	2.8340136e-24
25	0x16e73b7a	3.7357598e-25
26	0x1854cc83	2.750361e-24
27	0x1943de02	1.0126098e-23
28	0x1967f7f7	1.1992496e-23
29	0x17fa6afc	1.6182878e-24
30	0x18cfa07e	5.36703e-24
31	0x17df5716	1.4433021e-24
32	0x171a3ea8	4.9839167e-25
33	0x18b6e6f4	4.72791e-24
34	0x169fe66d	2.5833255e-25
35	0x1378b58f	3.1391516e-27
36	0x1985656b	1.379284e-23
37	0x14a09c40	1.6217501e-26
38	0x15c15367	7.8083665e-26
39	0x16a41b40	2.6512826e-25
40	0x17876833	8.750474e-25
41	0x18af1254	4.5254946e-24
42	0x192eabd4	9.0302896e-24
43	0x18c84c2c	5.1775702e-24
44	0x185f8fec	2.8894736e-24
45	0x18e65635	5.9540653e-24
46	0x1928ec0b	8.733065e-24
47	0x1487ebcc	1.3724522e-26
48	0x186a770f	3.03039e-24
49	0x17c2eb8c	1.2596417e-24
50	0x1383891a	3.320424e-27
51	0x15d21896	8.4857114e-26
52	0x17eb1264	1.51911615e-24
53	0x1848f432	2.5972681e-24
54	0x168c216c	2.2639312e-25
55	0x18b85c20	4.7655908e-24
56	0x17c4ff8a	1.273071e-24
57	0x18ee1213	6.153981e-24
58	0x161837ba	1.2296046e-25
59	0x13b2ff5f	4.5185333e-27
60	0x19cda75f	2.1264104e-23
61	0x18de298b	5.7427603e-24
62	0x1875a1e8	3.174725e-24
63	0x180a3870	1.7864576e-24
