capsule-6073072/code/work_dir/recognition/kinetics_skeleton/FAI_GCN/epoch190_model.pt (torch, 74070 bytes, 22 tensors)

A f4 [3, 18, 18]
00000000: 0000 803e 0000 0000 0000 0000 0000 0000
00000010: 0000 0000 0000 0000 0000 0000 0000 0000
00000020: 0000 0000 0000 0000 0000 0000 0000 0000
00000030: 0000 0000 0000 0000 0000 0000 0000 0000
00000040: 0000 0000 0000 0000 0000 0000 0000 803e
00000050: 0000 0000 0000 0000 0000 0000 0000 0000
00000060: 0000 0000 0000 0000 0000 0000 0000 0000
00000070: 0000 0000 0000 0000 0000 0000 0000 0000
00000080: 0000 0000 0000 0000 0000 0000 0000 0000
00000090: 0000 0000 0000 0000 0000 803e 0000 0000
000000a0: 0000 0000 0000 0000 0000 0000 0000 0000
000000b0: 0000 0000 0000 0000 0000 0000 0000 0000
000000c0: 0000 0000 0000 0000 0000 0000 0000 0000
000000d0: 0000 0000 0000 0000 0000 0000 0000 0000
000000e0: 0000 0000 abaa aa3e 0000 0000 0000 0000
000000f0: 0000 0000 0000 0000 0000 0000 0000 0000
00000100: 0000 0000 0000 0000 0000 0000 0000 0000
00000110: 0000 0000 0000 0000 0000 0000 0000 0000
00000120: 0000 0000 0000 0000 0000 0000 0000 0000
00000130: 0000 003f 0000 0000 0000 0000 0000 0000
00000140: 0000 0000 0000 0000 0000 0000 0000 0000
00000150: 0000 0000 0000 0000 0000 0000 0000 0000
00000160: 0000 0000 0000 0000 0000 0000 0000 0000
00000170: 0000 0000 0000 0000 0000 0000 0000 803e
00000180: 0000 0000 0000 0000 0000 0000 0000 0000
00000190: 0000 0000 0000 0000 0000 0000 0000 0000
000001a0: 0000 0000 0000 0000 0000 0000 0000 0000
000001b0: 0000 0000 0000 0000 0000 0000 0000 0000
000001c0: 0000 0000 0000 0000 abaa aa3e 0000 0000
000001d0: 0000 0000 0000 0000 0000 0000 0000 0000
000001e0: 0000 0000 0000 0000 0000 0000 0000 0000
000001f0: 0000 0000 0000 0000 0000 0000 0000 0000
00000200: 0000 0000 0000 0000 0000 0000 0000 0000
00000210: 0000 0000 0000 003f 0000 0000 0000 0000
00000220: 0000 0000 0000 0000 0000 0000 0000 0000
00000230: 0000 0000 0000 0000 0000 0000 0000 0000
00000240: 0000 0000 0000 0000 0000 0000 0000 0000
00000250: 0000 0000 0000 0000 0000 0000 0000 0000
00000260: abaa aa3e 0000 0000 0000 0000 0000 0000
00000270: 0000 0000 0000 0000 0000 0000 0000 0000
00000280: 0000 0000 0000 0000 0000 0000 0000 0000
00000290: 0000 0000 0000 0000 0000 0000 0000 0000
000002a0: 0000 0000 0000 0000 0000 0000 abaa aa3e
000002b0: 0000 0000 0000 0000 0000 0000 0000 0000
000002c0: 0000 0000 0000 0000 0000 0000 0000 0000
000002d0: 0000 0000 0000 0000 0000 0000 0000 0000
000002e0: 0000 0000 0000 0000 0000 0000 0000 0000
000002f0: 0000 0000 0000 0000 0000 003f 0000 0000
00000300: 0000 0000 0000 0000 0000 0000 0000 0000
00000310: 0000 0000 0000 0000 0000 0000 0000 0000
00000320: 0000 0000 0000 0000 0000 0000 0000 0000
00000330: 0000 0000 0000 0000 0000 0000 0000 0000
00000340: 0000 0000 abaa aa3e 0000 0000 0000 0000
00000350: 0000 0000 0000 0000 0000 0000 0000 0000
00000360: 0000 0000 0000 0000 0000 0000 0000 0000
00000370: 0000 0000 0000 0000 0000 0000 0000 0000
00000380: 0000 0000 0000 0000 0000 0000 0000 0000
00000390: abaa aa3e 0000 0000 0000 0000 0000 0000
000003a0: 0000 0000 0000 0000 0000 0000 0000 0000
000003b0: 0000 0000 0000 0000 0000 0000 0000 0000
000003c0: 0000 0000 0000 0000 0000 0000 0000 0000
000003d0: 0000 0000 0000 0000 0000 0000 0000 003f
000003e0: 0000 0000 0000 0000 0000 0000 0000 0000
000003f0: 0000 0000 0000 0000 0000 0000 0000 0000
0.25 0.0 0.0 0.0 0.0 0.0 0.0 0.0
0.0 0.0 0.0 0.0 0.0 0.0 0.0 0.0
0.0 0.0 0.0 0.25 0.0 0.0 0.0 0.0
0.0 0.0 0.0 0.0 0.0 0.0 0.0 0.0
0.0 0.0 0.0 0.0 0.0 0.0 0.25 0.0
0.0 0.0 0.0 0.0 0.0 0.0 0.0 0.0
0.0 0.0 0.0 0.0 0.0 0.0 0.0 0.0
0.0 0.33333334 0.0 0.0 0.0 0.0 0.0 0.0
0.0 0.0 0.0 0.0 0.0 0.0 0.0 0.0
0.0 0.0 0.0 0.0 0.5 0.0 0.0 0.0
0.0 0.0 0.0 0.0 0.0 0.0 0.0 0.0
0.0 0.0 0.0 0.0 0.0 0.0 0.0 0.25
0.0 0.0 0.0 0.0 0.0 0.0 0.0 0.0
0.0 0.0 0.0 0.0 0.0 0.0 0.0 0.0
0.0 0.0 0.33333334 0.0 0.0 0.0 0.0 0.0
0.0 0.0 0.0 0.0 0.0 0.0 0.0 0.0
0.0 0.0 0.0 0.0 0.0 0.5 0.0 0.0
0.0 0.0 0.0 0.0 0.0 0.0 0.0 0.0
0.0 0.0 0.0 0.0 0.0 0.0 0.0 0.0
0.33333334 0.0 0.0 0.0 0.0 0.0 0.0 0.0
0.0 0.0 0.0 0.0 0.0 0.0 0.0 0.0
0.0 0.0 0.0 0.33333334 0.0 0.0 0.0 0.0
0.0 0.0 0.0 0.0 0.0 0.0 0.0 0.0
0.0 0.0 0.0 0.0 0.0 0.0 0.5 0.0
0.0 0.0 0.0 0.0 0.0 0.0 0.0 0.0
0.0 0.0 0.0 0.0 0.0 0.0 0.0 0.0
0.0 0.33333334 0.0 0.0 0.0 0.0 0.0 0.0
0.0 0.0 0.0 0.0 0.0 0.0 0.0 0.0
0.0 0.0 0.0 0.0 0.33333334 0.0 0.0 0.0
0.0 0.0 0.0 0.0 0.0 0.0 0.0 0.0
0.0 0.0 0.0 0.0 0.0 0.0 0.0 0.5
0.0 0.0 0.0 0.0 0.0 0.0 0.0 0.0

data_bn.weight f4 [54]
00000000: c1fd 4e3f abce 473f bb06 533f 8772 4a3f
00000010: e34b 473f 07a7 553f 395e 4a3f e3b4 4b3f
00000020: 50d5 483f 9384 513f f960 4d3f a25a 523f
00000030: 11b1 4e3f 0c3b 543f 66d8 463f 04d0 4f3f
00000040: b7de 4a3f 8dd8 523f a549 4c3f ad3f 4f3f
00000050: 8649 4e3f 5b89 443f a5f8 4f3f d108 493f
00000060: 7062 513f 6209 513f 876c 4d3f 5ff1 413f
00000070: 5c90 523f 4e96 4c3f 0429 4a3f 34b1 513f
00000080: 6d1d 503f c059 503f dbf6 4d3f 7a93 533f
00000090: a3b9 4f3f 0961 4a3f d9bf 4a3f 23b2 533f
000000a0: d742 3c3f 539c 4a3f e04d 4e3f 3e28 3d3f
000000b0: 0bac 4e3f 3ca9 483f 57df 4a3f eaf1 503f
000000c0: e52a 493f 9707 513f 290f 573f 3f8c 4c3f
000000d0: 195c 4e3f 0828 533f
0.8085595 0.78049725 0.82432145 0.79081005 0.7785017 0.8345799 0.7905002 0.79572886
0.7845049 0.8184292 0.80226094 0.82169545 0.8073893 0.829026 0.7767395 0.8117678
0.79246086 0.8236168 0.7979987 0.80956537 0.8058094 0.7677209 0.81238776 0.7852908
0.8179083 0.8165494 0.80243725 0.7575893 0.82251525 0.79916847 0.78968835 0.81911016
0.812949 0.8138695 0.80454797 0.82646906 0.81142634 0.79054314 0.79198986 0.8269369
0.7353949 0.7914478 0.8058758 0.7388953 0.80731267 0.7838323 0.7924704 0.8161913
0.78581077 0.81652206 0.8400751 0.799015 0.8060928 0.8248296

data_bn.bias f4 [54]
00000000: 765f 0c24 0f73 da24 a780 1b26 44a5 30a7
00000010: a045 3fa5 0463 94a7 5b38 35a3 1cbd 6ca3
00000020: d483 1e26 9c71 6924 edaa aca5 eb64 02a3
00000030: 01df e022 3efd 6c25 410c d536 56f5 0ca4
00000040: 71ff 63a3 f0d4 2026 b227 4c24 5884 d2a3
00000050: 50c7 93a3 a99b 1123 c6d2 c125 f5ea 8bae
00000060: bfc3 ca23 2bb1 9fa5 d945 4324 5876 2d22
00000070: d96b 4ea6 5fa0 de23 10fe 9723 46c6 baa5
00000080: 690f d0a5 e410 fda4 83b7 38a5 3c07 6624
00000090: 8333 78a2 c856 9325 bf65 87a3 2788 8223
000000a0: 22d9 3d26 efdf 94a5 ff35 1424 f395 6f25
000000b0: aa55 3fa4 3491 e423 44f6 3825 f820 8da2
000000c0: ba3e 4622 6864 9925 7b79 90b6 e990 2123
000000d0: d5dd b624 edd6 8b35
3.043852e-17 9.4737346e-17 5.3950784e-16 -2.4514497e-15 -1.6590199e-16 -4.1185605e-15 -9.823963e-18 -1.2833631e-17
5.499592e-16 5.0620052e-17 -2.9953068e-16 -7.068684e-18 6.0951436e-18 2.0555539e-16 6.349321e-06 -3.056547e-17
-1.23597865e-17 5.5799735e-16 4.4269072e-17 -2.2824295e-17 -1.6022184e-17 7.893428e-18 3.362299e-16 -6.362725e-11
2.1983786e-17 -2.7702157e-16 4.2343048e-17 2.3508523e-18 -7.161677e-16 2.4137208e-17 1.6479052e-17 -3.2400212e-16
-3.609269e-16 -1.09749874e-16 -1.6021632e-16 4.9879428e-17 -3.3637537e-18 2.555924e-16 -1.467982e-17 1.4152291e-17
6.5866817e-16 -2.582565e-16 3.213812e-17 2.078075e-16 -4.1489083e-17 2.4781305e-17 1.6042894e-16 -3.8253034e-18
2.686721e-18 2.6609307e-16 -4.3056766e-06 8.758513e-18 7.9305716e-17 1.0418859e-06

data_bn.running_mean f4 [54]
00000000: 26ab 1a3d 32ee 15bd a1e6 5c3e 1154 223d
00000010: 906b 19bc 118d 5c3e 3d2f ca3c 92e5 54bc
00000020: e9b4 443e 77c8 243c 99cf 6fbb eaf5 463e
00000030: b128 7c3b 4d09 33bc 4cb3 4e3e 1e0e 5f3d
00000040: f03e bcbb 8f0d 483e edcd 803d 36b2 623c
00000050: 2a39 463e 4dbe 873d 3c35 8f3c 0816 473e
00000060: 0105 e63c 2920 363d 279f 253e 0145 773c
00000070: d3b7 5e3d 6f46 423e c074 d93c e5e3 b13d
00000080: ade1 353e e7b0 3b3d ef48 3d3d 4bfe 1d3e
00000090: 12d9 603d 4304 573d 5730 3a3e 056c 2f3d
000000a0: 021d b03d 82ea 2a3e 44d0 113d 656b 2cbd
000000b0: 39a6 553e b8ad 333d 7e05 22bd 89ac 623e
000000c0: b001 0d3d 696d 0dbc 600c 623d a9a4 533d
000000d0: fc29 d4bc b076 453e
0.037760876 -0.036604114 0.21572353 0.039630953 -0.009364024 0.21538188 0.024680728 -0.012994187
0.19209637 0.01005756 -0.0036592244 0.19429746 0.0038476402 -0.01092751 0.20185584 0.054456823
-0.0057448074 0.19536422 0.06289277 0.013836434 0.19357744 0.06628094 0.017481439 0.19441998
0.028078558 0.044464264 0.16173993 0.015092135 0.054374527 0.18972181 0.026544929 0.086860456
0.1776187 0.045823004 0.046212133 0.15429036 0.054894514 0.0524943 0.18182503 0.042827625
0.08599283 0.1669102 0.03559901 -0.042094607 0.2086419 0.043866843 -0.03955602 0.2213613
0.034425437 -0.008632042 0.055187583 0.051670704 -0.025898926 0.19283557

data_bn.running_var f4 [54]
00000000: d284 b73b 692a e63b dc6c 8c3d 5364 ae3b
00000010: 2c09 743b 9f6d 8b3d afa7 ad3b 5786 823b
00000020: 582a 5e3d 3bf2 bf3b 2a9e 483b 1b95 673d
00000030: cf45 c53b c9ff 893b 130c 783d 03f4 c53b
00000040: 1251 663b 9bda 653d 8c01 df3b 6584 303b
00000050: 66b5 653d 846a fa3b d908 7b3b 644c 683d
00000060: f0d3 b43b fdc8 663b c050 1f3d 3160 cb3b
00000070: b232 ab3b 0ff8 5c3d 88a5 af3b 9d02 2b3c
00000080: b475 4b3d 9c77 bc3b 1210 6e3b e843 123d
00000090: 0519 c83b 87a4 993b 7e16 4f3d 05ed c63b
000000a0: 605c 243c 7c54 373d 91cd b53b 8fee 013c
000000b0: fbb8 863d 5623 bd3b c1c7 f83b 0285 933d
000000c0: 8d20 c43b a270 f43b cd7b b53c 201c cc3b
000000d0: 2cf8 d63b 7d91 853d
0.00560055 0.0070240987 0.06856701 0.005322018 0.0037236912 0.06808018 0.0052995305 0.0039832997
0.0542396 0.0058577335 0.0030611851 0.056538682 0.0060202847 0.0042114 0.06055839 0.0060410514
0.0035143537 0.05611668 0.0068056043 0.0026934382 0.0560812 0.007642092 0.0038304834 0.056713477
0.005518429 0.0035215013 0.03889537 0.0062065353 0.005224549 0.053947505 0.005360309 0.010437635
0.049672797 0.0057515632 0.0036325497 0.03570929 0.006106498 0.0046888026 0.05055856 0.0060707354
0.01003179 0.044758305 0.005548187 0.007930412 0.06578251 0.0057720346 0.007592172 0.072031036
0.0059853257 0.007459716 0.02215376 0.0062289387 0.006560346 0.0652189

fai_gcn_networks.0.gcn.conv.weight f4 [96, 3, 1, 1]
00000000: 357e 0528 bdd3 3fa8 5a6e dca8 d2cd 952c
00000010: 126e 812d 94c2 81ad 89c5 cdac 2bf3 7a2a
00000020: 5baf 0cac 2f85 1dac 3739 a433 6e36 69ac
00000030: ad70 d02e dbcc 022e c476 d6ad 1b8f 59a3
00000040: f27b 2725 8481 0d23 a39f 0aa5 f9fd c524
00000050: 40e1 7224 93f1 f5ad 9790 b02c 2b97 c42c
00000060: 7951 542d 1b55 00af 5e2a 6d34 2b29 772f
00000070: ae56 1caf 01bd 70ac 13df 1627 b9c0 5325
00000080: 2f71 a028 fe42 8eb0 3ea2 46af ca99 602f
00000090: 40c1 caa4 b3ae e6a4 a6f3 bca5 a259 1ca6
000000a0: d74c cca1 d39d e6a8 d029 9a29 5ba1 9aac
000000b0: ae1e e6a8 b2b8 bfa9 5eb3 52aa 4048 06b3
000000c0: 9b1e 6da5 aea9 6e23 9f50 03a6 6e34 d6aa
000000d0: e2d1 9b2a e7db f72c a6c5 07a6 cdb0 29a5
000000e0: 6d22 b5a5 76c8 7d2c 671f 0aad ff50 352c
000000f0: 933a 012e 32f6 fc2e 6af0 27b4 5489 ada5
00000100: 1216 c7a5 0f7c 2625 ec2f 8cb3 b616 e72d
00000110: 5b99 ea2c 5c3a 612e 6d59 7f2d 28ce 032f
00000120: e0c4 982f 7417 cd2d ba6c 0030 0c8c 922c
00000130: f729 4fab 4b32 8034 573a d82b 97f3 382b
00000140: 28b3 70ab 5416 61ae fab8 8b30 3ef4 5cae
00000150: a253 2f2b e338 ffaa 436c 652b 5f32 a4ab
00000160: 820a 10b2 da13 81ac d005 ae2e b983 c8ac
00000170: 81fb 73ab 5ee2 4ba4 2980 a822 7856 a1a4
00000180: 41d8 eba5 3cb7 60a5 9e87 09a9 ffb7 dead
00000190: 4c6a 082e a01e 9bb0 87e4 5f2c fad3 9b2c
000001a0: 0bdf 842b 6a15 74ad 6579 6a2d 57bf 7aac
000001b0: 51e3 d22f 2543 e02f f595 22ae 5738 0a25
000001c0: 534a 37a4 0f9b 2a25 1908 b024 f643 ada4
000001d0: a2d0 f825 c715 08b0 b146 972c a1ec 172d
000001e0: 35f1 27af f12b 3baf 6ab6 b42f a00e 942e
000001f0: 2a76 69b0 722b 702e 14de 2326 f7a9 6b26
00000200: deba b4a7 6a2a 45b0 0b27 5d30 2987 4031
00000210: 479d e0a4 7215 0924 43ef 23a6 b74b 40a6
00000220: 496f e526 e77c c4a6 99fb 9c29 02d6 a22a
00000230: d38e 5e29 4ee5 872a 4046 8aaa 1d9f 8f2a
00000240: 1bac 9ba4 a209 64a4 32f3 13a6 fe45 98ab
00000250: ee0f 582b 5ebe eeaa adba 42a5 25ff c1a4
00000260: a61b 3c26 2adb f6ab b628 9cad ded2 c72c
00000270: b48b 3ead 76f4 a72f 81da c1af 6517 d8a6
00000280: c535 0da7 289d eda8 bce0 03b0 1873 252d
00000290: da68 ac2c 85e4 3f2d 47bf 042d 57e8 942f
000002a0: 13d5 c02f fe77 a32f ea38 4e32 bc49 c3ab
000002b0: 49d6 5f2c e9f6 1ead f2fc c234 1870 212b
000002c0: 02fd 15b3 e585 40af 412d beb3 0c94 01af
000002d0: 4ffe 132a 7b82 26ab f2f2 862b 085b 8dab
000002e0: 4ee6 a42d acb3 9eac e965 17ae 0367 f2ad
000002f0: 19e2 122e 3fa6 aba2 0a80 4e22 0de3 9524
00000300: 480a 5aae e28c 2326 1c66 7325 73a9 b1ac
00000310: 11a8 882d 24fd 94ad e62d 682b 88e7 e429
00000320: 0825 ab29 27e3 2929 e9fe e42a b2bb f2aa
00000330: 6066 4bae 0f03 022e 2745 58ae 6bd7 2623
00000340: 879d d0a2 09fb 2f24 8c29 3b24 0697 0323
00000350: 44bb a1a1 e192 98ad ff06 eb2c 29a4 e1ab
00000360: 7351 072f 17e7 f9ae ee66 d72e bfe0 b02d
00000370: efa1 c0ac b955 0aab ed59 3ba6 5efc c9a5
00000380: 61c2 cc23 2d5b baaf faa0 efac b4fb 6a30
00000390: 076f f624 3028 eea4 34ca b8a4 20a6 64a5
000003a0: 14de 5227 a902 2b25 7b26 47a9 2840 dca8
000003b0: 0184 11a9 3674 5128 7790 70a9 5062 1f29
000003c0: c970 62a4 5a51 10a4 038a 8ea3 b96d 952b
000003d0: 5c7f 662a 5eaf 1aab 8eef 24a4 c4b5 69a4
000003e0: c74b 80a2 0629 c8ac 061e b7ad 3fd9 752c
000003f0: 65fc b12e b829 1d2e e7da b7ae 2eeb 6d27
7.41035e-15 -1.0648543e-14 -2.4472764e-14 4.2576854e-12 1.4714483e-11 -1.4752012e-11 -5.8483812e-12 2.2288826e-13
-1.9992538e-12 -2.2384974e-12 7.6472524e-08 -3.3141506e-12 9.47876e-11 2.9740526e-11 -2.4381726e-11 -1.1793897e-17
1.4526935e-16 7.671051e-18 -1.2023679e-16 8.586538e-17 5.266618e-17 -2.7960556e-11 5.0182736e-12 5.587438e-12
1.2068895e-11 -1.1671768e-10 2.2087758e-07 2.2479145e-10 -1.4218912e-10 -3.421097e-12 2.093761e-15 1.836663e-16
1.7812654e-14 -1.03509e-09 -1.8065635e-10 2.0427318e-10 -8.7930914e-17 -1.0004255e-16 -3.2777904e-16 -5.424485e-16
-1.3843917e-18 -2.5603575e-14 6.846227e-14 -4.3948573e-12 -2.5548435e-14 -8.5141434e-14 -1.8713977e-13 -3.1265017e-08
-2.0566843e-16 1.2937937e-17 -4.5559017e-16 -3.8050417e-13 2.7679166e-13 7.0445763e-12 -4.71054e-16 -1.4718316e-16
-3.1421823e-16 3.606474e-12 -7.8513645e-12 2.5766609e-12 2.938323e-11 1.1503366e-10 -1.5640549e-07 -3.0103773e-16
-3.4535953e-16 1.4440238e-16 -6.527975e-08 2.6271745e-11 6.667706e-12 5.121091e-11 1.4514928e-11 1.1987622e-10
2.7788527e-10 2.3316217e-11 4.672064e-10 4.165118e-12 -7.359941e-13 2.387845e-07 1.5363916e-12 6.570798e-13
-8.551376e-13 -5.117891e-11 1.0166155e-09 -5.023914e-11 6.2288553e-13 -4.5336572e-13 8.1507387e-13 -1.1666882e-12
-8.384292e-09 -3.6686045e-12 7.9136364e-11 -5.698966e-12 -8.6679974e-13 -4.421035e-17 4.5672186e-18 -6.9969104e-17
-4.091254e-16 -1.9490985e-16 -3.053774e-14 -2.5320189e-11 3.101723e-11 -1.1286438e-09 3.1817064e-12 4.428899e-12
9.441071e-13 -1.3874549e-11 1.3328315e-11 -3.5633352e-12 3.8360295e-10 4.0793072e-10 -3.6967724e-11 1.1988681e-16
-3.9744755e-17 1.4797685e-16 7.634155e-17 -7.514192e-17 4.3162517e-16 -4.950746e-10 4.2995264e-12 8.635898e-12
-1.5274255e-10 -1.7023162e-10 3.2871422e-10 6.732859e-11 -8.493283e-10 5.460827e-11 5.6852957e-16 8.176235e-16
-5.016264e-15 -7.1728457e-10 8.0454815e-10 2.8016507e-09 -9.741095e-17 2.9725304e-17 -5.6876245e-16 -6.6715994e-16
1.5920231e-15 -1.3634087e-15 6.971437e-14 2.8925479e-13 4.9417783e-14 2.413993e-13 -2.456247e-13 2.551231e-13
-6.751209e-17 -4.944778e-17 -5.133046e-16 -1.0819676e-12 7.676072e-13 -4.2409387e-13 -1.6890066e-16 -8.413264e-17
6.5263073e-16 -1.7540182e-12 -1.7753226e-11 5.679331e-12 -1.083127e-11 3.0550823e-10 -3.5261752e-10 -1.4994352e-15
-1.959683e-15 -2.6380441e-14 -4.797689e-10 9.40472e-12 4.900175e-12 1.09078345e-11 7.545803e-12 2.708613e-10
3.5075995e-10 2.9734787e-10 1.2003719e-08 -1.3876049e-12 3.1809158e-12 -9.036085e-12 3.6319358e-07 5.735425e-13
-3.4921875e-08 -1.7509867e-10 -8.855796e-08 -1.1785078e-10 1.3144454e-13 -5.9156125e-13 9.588704e-13 -1.0043919e-12
1.8746917e-11 -4.5105777e-12 -3.442394e-11 -2.7557961e-11 3.339737e-11 -4.6525663e-18 2.798599e-18 6.500309e-17
-4.9576593e-11 5.6742917e-16 2.1111486e-16 -5.049455e-12 1.5536046e-11 -1.6938069e-11 8.2486654e-13 1.0165398e-13
7.6003494e-14 3.772256e-14 4.0677815e-13 -4.3118075e-13 -4.6247783e-11 2.9561294e-11 -4.9174134e-11 9.0444946e-18
-5.65453e-18 3.815971e-17 4.0584353e-17 7.133505e-18 -1.0959353e-18 -1.7345627e-11 6.6798784e-12 -1.6032775e-12
1.2307115e-10 -1.1364259e-10 9.795352e-11 2.010869e-11 -5.4749465e-12 -4.9146413e-13 -6.500053e-16 -3.5038953e-16
2.2200047e-17 -3.3897987e-10 -6.8106605e-12 8.5486396e-10 1.0687358e-16 -1.0328413e-16 -8.0139825e-17 -1.9832133e-16
2.9263743e-15 1.4832787e-16 -4.4220253e-14 -2.445273e-14 -3.2310963e-14 1.162703e-14 -5.341601e-14 3.5390365e-14
-4.910147e-17 -3.129393e-17 -1.5454121e-17 1.0617541e-12 2.047229e-13 -5.495516e-13 -3.5764742e-17 -5.0677783e-17
-3.47747e-18 -5.6888964e-12 -2.0818024e-11 3.493719e-12 8.0938624e-11 3.573472e-11 -8.3607614e-11 3.3017848e-15

fai_gcn_networks.0.gcn.conv.bias f4 [96]
00000000: 1598 cc31 987e 8c2d cf43 5cad 5033 b12c
00000010: e4f5 d6ae 7990 2faf d4ed 52b1 4189 df2e
00000020: 25bb ca30 d482 1130 999a 7a32 0745 cbb1
00000030: 6777 dc31 7085 ccb2 4f1a d62e 796d 58aa
00000040: 18b1 c631 76af 0030 b405 2d32 2d42 192d
00000050: 845e 9a30 432c f131 3ac6 482e f3ab 7eae
00000060: 4f37 6932 95d5 0eae 61f1 59ac bd6d 34b0
00000070: e6a1 91ae bfec 10ad da97 b330 698c ab2f
00000080: c152 1432 e6b4 b72e 23c7 52ad eb95 7a2c
00000090: 9707 8bb0 6229 94af 4f84 0bb1 9d17 542f
000000a0: e5b4 b830 49ce 3e30 859a d631 3488 24b2
000000b0: ed6d 0932 3599 e5b2 7edc faad c03a 0dab
000000c0: e0d0 d631 2fd1 fa2f 0323 2a32 58aa ba2d
000000d0: 6d96 0a31 02e7 4d33 ea8e 4f2e c09c ed2e
000000e0: b7d3 d931 d578 2eae 1f2c b32c 22a4 58b1
000000f0: 3d72 b7ae 35a5 b2ad 2d1a b6b1 654c 912f
00000100: 8fb8 3f32 d608 1c2e 1dda d4ad d93f 282d
00000110: 9147 f930 74d3 2530 58f9 61b1 a33d ab2f
00000120: abd8 54b0 0ae7 522f 9d6c 0f33 3c47 0231
00000130: 3546 c830 1bb3 25b2 7cd8 6a30 05c8 e3a8
00000140: 8f7c 8a30 112e dfad 8d71 d531 4ef3 fc2d
00000150: ecf3 18af 50bd 2e32 416f 4e2f 4b22 3230
00000160: 56bd 3131 e2fb c0ad 40c5 8aad 2a40 90af
00000170: b0f9 902e 7221 f1ad 5cc7 1231 b8a8 ae2e
5.954471e-09 1.5972376e-11 -1.2520609e-11 5.0363394e-12 -9.775272e-11 -1.5967484e-10 -3.0694212e-09 1.0165247e-10
1.4750624e-09 5.293661e-10 1.4587067e-08 -5.915925e-09 6.416417e-09 -2.3809406e-08 9.736267e-11 -1.9222635e-13
5.7826917e-09 4.6815474e-10 1.0071222e-08 8.711737e-12 1.1231838e-09 7.019055e-09 4.5650796e-11 -5.7905635e-11
1.3574961e-08 -3.247676e-11 -3.0971547e-12 -6.5639566e-10 -6.6225955e-11 -8.2380205e-12 1.3067123e-09 3.1204486e-10
8.63355e-09 8.3540105e-11 -1.1981335e-11 3.5610358e-12 -1.0115738e-09 -2.6950447e-10 -2.030237e-09 1.9289677e-10
1.3439175e-09 6.9414746e-10 6.2457866e-09 -9.577025e-09 7.999444e-09 -2.672878e-08 -2.8519628e-11 -5.0174795e-13
6.251966e-09 4.562337e-10 9.903263e-09 2.12214e-11 2.016715e-09 4.7940382e-08 4.7193284e-11 1.08053566e-10
6.3396004e-09 -3.967034e-11 5.0923844e-12 -3.1525436e-09 -8.342169e-11 -2.0309624e-11 -5.299873e-09 2.6429628e-10
1.1159627e-08 3.547814e-11 -2.4198471e-11 9.563871e-12 1.8137475e-09 6.0327143e-10 -3.2883545e-09 3.1148514e-10
-7.7433054e-10 1.918147e-10 3.3393565e-08 1.8957982e-09 1.4571869e-09 -9.644988e-09 8.5436347e-10 -2.5288807e-14
1.0076223e-09 -2.5372622e-11 6.212025e-09 2.8757132e-11 -1.3910978e-10 1.0171178e-08 1.8775116e-10 6.4804756e-10
2.5864515e-09 -2.1939731e-11 -1.577638e-11 -2.623904e-10 6.592715e-11 -2.741338e-11 2.135912e-09 7.9425744e-11

fai_gcn_networks.1.gcn.conv.weight f4 [192, 32, 1, 1]
00000000: a335 fd20 1b44 dc21 22de 1e9c 49f5 05a3
00000010: 9022 87a0 b227 29a0 6d8b bca0 0e78 b99e
00000020: c272 e821 fdae 1fa0 82f2 daa1 ad32 0921
00000030: 8ebd 3ba0 634c cca0 2492 b620 c7b3 d59e
00000040: 0f60 459e 3d51 e49f 5d46 4732 ed1e 1a9b
00000050: 2e5c 9620 5ce0 27a3 b6a1 8f20 81b8 3724
00000060: e018 a720 21e6 8ca1 b52d 93a2 403a 2da1
00000070: eae0 601d 81fc 0028 8d93 49b4 0050 2d9d
00000080: 7283 edac 570f d12a bf49 9428 5e4e 172e
00000090: d687 b12b 26f8 092b 8749 8c2c 31d2 d729
000000a0: 604e 9c2e a741 172c 09a7 21ad e477 c0ad
000000b0: f4b5 b2ae b4a4 a02e 800f c2ab 045d 882d
000000c0: 842d 5dab 6a1f a9aa 7bec 562d 8dab f4a7
000000d0: 7b9c 1c2e 6d0a 8d2c d905 e92d 8414 242f
000000e0: a165 40ac 16a6 042f 72ca 3c2f 6514 182e
000000f0: f975 6a2a f19f bd2c 3843 722d 1903 6aa9
00000100: 543f 0ca0 5646 dc9f f865 c61c 29ed 2321
00000110: b0ac 921f 355b 211f f50c 4123 7661 c79f
00000120: 51d3 c121 685d 1620 79a1 76b1 d7bb 69a2
00000130: bdcd 75af ee3f f021 922a 11a0 57f8 1f21
00000140: cf2a 521e 20a1 429f 9714 ab31 b194 d01d
00000150: df78 a6a2 ffeb 19a1 7615 f0b3 bd7d a422
00000160: 4f29 f222 b035 63a3 9e3b f3a2 38c5 ac21
00000170: 41c0 649f c5ac dda0 e6bc 00a2 7847 879e
00000180: e945 a3b3 03fa f829 124a 1f27 6438 3e2d
00000190: afbc 122a 2e05 6328 d166 802c 4403 3628
000001a0: 7dcd 7b2d a300 aa2a f53f 0d31 1422 37ad
000001b0: db6a 352f 2fc4 a82c 09db 1729 1e17 1f2c
000001c0: 8ce0 062a 83d5 3e29 7188 60af f0fa de25
000001d0: 6a15 852d 1720 792d 3f3b 172d 0801 582e
000001e0: 9fef caab 51e0 052e a2c7 632e 766a ad2d
000001f0: c910 7e29 2ade f32b 42c4 9c2c 2cff 3fa8
00000200: 9ff4 6aac b171 fd1e b26b d098 4455 2928
00000210: 7656 b49e efda 309d 2fe9 8c2a 0e4e a21d
00000220: 67c2 c7a1 9aeb ec9e cf43 f9b2 5f49 192b
00000230: a550 a7a0 2adb 081f d8ca a19f db01 03a0
00000240: 5663 e81f dc13 e81d a880 94a0 7fdd 8e9b
00000250: 4620 a2a1 4579 5c1f 4ecc 89a1 a494 2821
00000260: f8ed c69f 40d9 4622 a3de 4fa1 96dd e3a0
00000270: 6426 b89d 5b59 8a9f dd70 f02b 219f 069f
00000280: f51d c4a1 1140 1b9e 8b1f 9a1a 9498 0ca1
00000290: d6fd b5a0 b6fd 1da6 3c64 1f1e 94e9 2c9d
000002a0: 2d6d 85a1 6aa1 981d 0f05 8820 9354 35a1
000002b0: 7239 5d2c 25aa 941d 484f fa9e 8125 c79f
000002c0: 1d43 841f f741 b91d 4d60 39a1 a131 d619
000002d0: a51d 3b22 90c9 86b3 f0d2 fea0 69de 179f
000002e0: 1d9f b5a8 363d 01a2 358c 54a2 6c66 39ac
000002f0: 3966 f29d 85e0 939f 356d 8c27 461b b39c
00000300: 1e10 672b 1cd1 832a adef 552d 36ef 3c2d
00000310: 2f7c d7a9 6104 9f29 7a1b 2e2c f685 a129
00000320: 5c91 4f2e d727 632a 7cf5 fa2a 304f 69ad
00000330: b954 c82c 82cb 7b2d 8282 9533 acc8 892c
00000340: f03e a335 4d82 ed29 97fd a3ab 1a0c 5330
00000350: dd33 a52d ce7a 6c2c 6805 802d 7f57 c12e
00000360: 527b 122d a29a 012e b61d d32e 5f01 ed2d
00000370: 5104 0b2a 47f0 452c c7db 062d bfb2 dba8
00000380: 4c6a a92a 591f df2a d9bf 2428 97dd 422e
00000390: 5591 9529 390e 9829 e6ab 942c fbec 12aa
000003a0: f1cc 802e 33d0 442b 5c2f 95ab f619 9aad
000003b0: a873 f62c b740 0a2d ef40 2428 56bd 232d
000003c0: 6785 c929 ea0c 902a 6bcc 782d 1085 a231
000003d0: fa42 6d2e a417 d82c c950 9e2d fa76 4e2d
000003e0: 9e5f 822b cb10 ff2e 1930 1dae ea92 8f2e
000003f0: 45e6 5fab b113 bd2c 6272 692d b390 392a
4.289536e-19 1.4925807e-18 -5.2564915e-22 -7.261886e-18 -2.289276e-19 -1.4327991e-19 -3.1940703e-19 -1.963729e-20
1.5751308e-18 -1.3525723e-19 -1.4836446e-18 4.6484474e-19 -1.5902234e-19 -3.4609493e-19 3.0928707e-19 -2.2626606e-20
-1.0448958e-20 -9.6696153e-20 1.1599323e-08 -1.2748574e-22 2.5471988e-19 -9.100598e-18 2.4332154e-19 3.983808e-17
2.8307361e-19 -9.547684e-19 -3.9892824e-18 -5.8691773e-19 2.976243e-21 7.16018e-15 -1.8773262e-07 -2.2937718e-21
-6.7505385e-12 3.7136502e-13 1.6463283e-14 3.440303e-11 1.2614308e-12 4.901655e-13 3.9872025e-12 9.5843804e-14
7.107981e-11 2.1494835e-12 -9.18888e-12 -2.1881115e-11 -8.126824e-11 7.305215e-11 -1.3788831e-12 1.5502717e-11
-7.857814e-13 -3.0042228e-13 1.2217001e-11 -6.79096e-15 3.5609276e-11 4.0086185e-12 2.649163e-11 1.4923002e-10
-2.7341256e-12 1.2064336e-10 1.7170423e-10 3.4578913e-11 2.0824305e-13 5.38946e-12 1.3771033e-11 -5.1961124e-14
-1.1879415e-19 -9.3289985e-20 1.3128899e-21 5.5540427e-19 6.211909e-20 3.416852e-20 1.0465295e-17 -8.4441014e-20
1.3134124e-18 1.27364e-19 -3.5889498e-09 -3.167683e-18 -2.2355713e-10 1.6279955e-18 -1.2296063e-19 5.419997e-19
1.112616e-20 -4.1214377e-20 4.979096e-09 5.5210885e-21 -4.5122367e-18 -5.2150755e-19 -1.11797746e-07 4.458542e-18
6.563797e-18 -1.23170634e-17 -6.5928404e-18 1.1707377e-18 -4.8439907e-20 -3.7553186e-19 -1.7447237e-18 -1.432324e-20
-7.6029956e-08 1.10567825e-13 2.2105836e-15 1.0812771e-11 1.3032868e-13 1.26021545e-14 3.6493937e-12 1.0103738e-14
1.4313326e-11 3.0198508e-13 2.0554556e-09 -1.04099125e-11 1.6499817e-10 4.796628e-12 3.3718718e-14 2.2608092e-12
1.1979496e-13 4.2373667e-14 -2.0421155e-10 3.8680903e-16 1.512986e-11 1.4161137e-11 8.5965115e-12 4.911363e-11
-1.4419471e-12 3.0439932e-11 5.1791134e-11 1.9715101e-11 5.641389e-14 1.7327851e-12 4.4555757e-12 -1.06579615e-14
-3.3389192e-12 2.6834439e-20 -5.3875484e-24 9.399874e-15 -1.9094e-20 -2.3406592e-21 2.50308e-13 4.296175e-21
-1.3536222e-18 -2.5084914e-20 -2.9018251e-08 5.445834e-13 -2.8344267e-19 2.898041e-20 -6.852173e-20 -1.1096746e-19
9.842016e-20 6.1430423e-21 -2.5157313e-19 -2.3635068e-22 -1.098609e-18 4.6687124e-20 -9.33756e-19 5.711734e-19
-8.424995e-20 2.6949015e-18 -7.0428985e-19 -3.860193e-19 -4.874409e-21 -5.85931e-20 1.7084352e-12 -2.8507232e-20
-1.3289406e-18 -8.21888e-21 6.374387e-23 -4.763578e-19 -3.0830567e-19 -5.481416e-16 8.438118e-21 -2.2884768e-21
-9.041329e-19 4.0400963e-21 2.3042644e-19 -6.143712e-19 3.1437877e-12 3.93512e-21 -2.650257e-20 -8.4341823e-20
5.6015204e-20 4.90373e-21 -6.280789e-19 2.2147126e-23 2.535892e-18 -6.276525e-08 -4.316886e-19 -3.2159467e-20
-2.0164041e-14 -1.7515165e-18 -2.8805583e-18 -2.6346937e-12 -6.4162562e-21 -6.262836e-20 3.897621e-15 -1.1852276e-21
8.2090053e-13 2.3415373e-13 1.2160867e-11 1.0739678e-11 -9.5694604e-14 7.061778e-14 2.474214e-12 7.173075e-14
4.7195456e-11 2.0175472e-13 4.457926e-13 -1.32621e-11 5.693748e-12 1.4312886e-11 6.9620924e-08 3.9160532e-12
1.2162764e-06 1.0547518e-13 -1.1652232e-12 7.677855e-10 1.878136e-11 3.3605787e-12 1.4554316e-11 8.792166e-11
8.326522e-12 2.9468546e-11 9.600447e-11 2.694439e-11 1.2347178e-13 2.8128765e-12 7.6658185e-12 -2.4391403e-14
3.009419e-13 3.963451e-13 9.145429e-15 4.4307304e-11 6.64214e-14 6.752623e-14 4.2254976e-12 -1.3049624e-13
5.857171e-11 6.992212e-13 -1.0600232e-12 -1.7519302e-11 7.004581e-12 7.858761e-12 9.117909e-15 9.307518e-12
8.949335e-14 2.55885e-13 1.4142558e-11 4.729948e-09 5.3947048e-11 6.141714e-12 1.7998396e-11 1.1736162e-11
9.263595e-13 1.15990405e-10 -3.5740386e-11 6.528984e-11 -7.954508e-13 5.3738893e-12 1.3269915e-11 1.6481503e-13

fai_gcn_networks.1.gcn.conv.bias f4 [192]
00000000: e38c ba2e 231f 413b d352 ce30 1236 5e3a
00000010: c75b 332d ab4f 71ae 7fdc cd3a e6a2 5a3b
00000020: d59d 1a3a 5340 6f3b da9b daad 10b2 af30
00000030: 9061 8c3a 991e 4f3b 9783 0aaf b50e 382e
00000040: 8eb8 033b 3e2b 3b3a a32b 69ad caef 9ead
00000050: be4e b62e e19a c53a 452b 84ae b3ba a12e
00000060: cc51 6b3a 6788 803a dd20 2f3b 52ae 412f
00000070: ecb4 a12f 5b2b 792e b7c0 05ae 7867 312e
00000080: 7129 1c3b e99f 4e3b c8a5 9daf 2484 312e
00000090: 7739 27b0 0c64 e53b b52f b73a ce46 d3ac
000000a0: 43a9 ec39 32e0 423a 2777 cb3a e9eb 073b
000000b0: 960e 423b 14f4 a22e d1af ca3a c7bd 63ad
000000c0: ea91 1f3a feae 23af 460e e6ab a2c9 ff3a
000000d0: 3cc0 332f a60a 35af c330 cc39 a8a1 823b
000000e0: 0454 c13b b446 8d3a 7b47 6dae 89d7 4bae
000000f0: 9b71 242f d7a9 ebad 6809 8f3b c548 143b
00000100: b02c 002e 5048 843b 97b5 9030 fa53 9a3a
00000110: ae5e e3ac edff bdae fa3a 0e3b 7b67 953b
00000120: 388c 573a 4b24 a33b 9bc9 f7ad 6c55 fe30
00000130: 6c14 c23a efb4 8d3b 5d8b 34af 760c 5daf
00000140: 967e 353b 144f 823a 7f68 fdaf 9c6a a22b
00000150: f6e8 a82f 4a7d 083b 8f9a 80ae cfd8 0c2e
00000160: 4782 a33a b36c b23a d32c 703b dd65 0d2f
00000170: f100 c82f 89c5 af2e 99c9 d0ad 9627 bf2e
00000180: 39c3 563b 8b57 8d3b 0efd a7af 1c93 442e
00000190: 7373 63af 8595 183c 5a73 fd3a eaa8 20af
000001a0: 2945 253a 547b 873a c562 0c3b dff3 3a3b
000001b0: 38e7 843b 0f27 bc2e 1701 0c3b 4935 952d
000001c0: 1a79 5e3a 40cb 3baf f6bb 42ac 2a48 303b
000001d0: 4b88 b82f 2027 48ae 83e2 0e3a 7cc6 b13b
000001e0: 9aea 013c ebf4 c33a cc81 25ae a8ae 4aae
000001f0: faa7 c62f 5827 56ae 59df c13b f103 4c3b
00000200: bebd 5a2f 5e71 873a 510b 0f31 f9d3 9939
00000210: a5e4 ea2c 80e5 d7ae cb8c 0f3a 8869 9a3a
00000220: 0873 5439 633a a83a 7e4a 5c2e c309 af2f
00000230: 4b1a c439 4c99 913a 307e 39b0 1586 8a2f
00000240: 723f 383a acee 8039 d4a4 f3af fc37 4e2f
00000250: 433d 4eaf 55f3 093a cb04 b7ae d655 ed2e
00000260: b1d0 a239 5d19 b239 fed4 763a 3bbd 6430
00000270: c19a 0fb0 2b73 a1ae d008 30ae 0cf1 53ae
00000280: 547a 5a3a 79d7 913a 3072 1c30 c0e9 a42f
00000290: 6ff7 ff2f d0f9 223b efd6 fe39 2270 d22e
000002a0: 4cd9 2139 0da2 8639 645e 0e3a dbfb 3e3a
000002b0: afa6 883a e2ae 7d2e 7f96 0d3a 3a08 74ae
000002c0: 9531 5b39 525e 42af c64c 7cac 46f7 323a
000002d0: 3d63 95af a830 4930 b102 0b39 231f b83a
000002e0: 8238 093b 28d3 c339 fa50 faad f51a 91ae
000002f0: 6965 24af 3675 66ae 6751 c93a c489 4f3a
8.483327e-11 0.0029468022 1.5012013e-09 0.0008476685 1.0195351e-11 -5.4867815e-11 0.0015705972 0.0033361255
0.00058981526 0.0036506846 -2.4852943e-11 1.2783534e-09 0.0010710228 0.003160393 -1.2597777e-10 4.184982e-11
0.0020099017 0.00071399275 -1.3254206e-11 -1.8069008e-11 8.290389e-11 0.0015076065 -6.010351e-11 7.354597e-11
0.0008976727 0.0009806276 0.002672247 1.7615179e-10 2.9414282e-10 5.6654553e-11 -3.0411864e-11 4.033704e-11
0.0023828412 0.003152842 -2.8675928e-10 4.0362505e-11 -6.083591e-10 0.007000452 0.001397601 -6.0048416e-12
0.00045139538 0.00074339204 0.0015523181 0.0020739979 0.0029610745 7.410264e-11 0.0015463774 -1.2945595e-11
0.00060871115 -1.4886933e-10 -1.6346445e-12 0.0019515047 1.634825e-10 -1.6465637e-10 0.00038946242 0.003986556
0.005899908 0.0010778517 -5.395105e-11 -4.634829e-11 1.4956074e-10 -2.6791831e-11 0.004365135 0.0022626382
2.914352e-11 0.0040369406 1.052899e-09 0.0011774295 -6.4622396e-12 -8.6401865e-11 0.0021702633 0.004559455
0.00082224933 0.0049786917 -2.817018e-11 1.8505211e-09 0.0014807112 0.0043245475 -1.6420416e-10 -2.010426e-10
0.002769386 0.000994178 -4.609468e-10 1.1540382e-12 3.072455e-10 0.0020826631 -5.848221e-11 3.202488e-11
0.0012474739 0.0013612717 0.003664781 1.2860064e-10 3.6380457e-10 7.993168e-11 -2.373639e-11 8.692706e-11
0.003277017 0.0043134145 -3.055693e-10 4.46959e-11 -2.0686546e-10 0.009312992 0.0019336746 -1.4611926e-10
0.0006304556 0.0010336437 0.0021421176 0.0028526706 0.0040558837 8.5561884e-11 0.0021362954 1.6963002e-11
0.00084866735 -1.707976e-10 -2.7673397e-12 0.0026898482 3.3566247e-10 -4.5509485e-11 0.0005450623 0.0054252725
0.0079294685 0.001495031 -3.763194e-11 -4.608461e-11 3.6135345e-10 -4.869291e-11 0.0059165177 0.003113028
1.9894394e-10 0.0010333469 2.0815671e-09 0.00029340366 6.6760646e-12 -9.8178354e-11 0.0005475997 0.0011780718
0.00020260748 0.0012834783 5.008837e-11 3.183925e-10 0.00037403623 0.0011108308 -6.748193e-10 2.5197325e-10
0.0007028497 0.00024591887 -4.431856e-10 1.875548e-10 -1.8757355e-10 0.00052623946 -8.322728e-11 1.079276e-10
0.00031054535 0.00033969703 0.00094158936 8.321483e-10 -5.2243015e-10 -7.34189e-11 -4.0025594e-11 -4.8189938e-11
0.00083342684 0.0011126838 5.691474e-10 2.9997516e-10 4.6560042e-10 0.0024868138 0.00048606793 9.569613e-11
0.00015435106 0.0002567921 0.00054309354 0.0007285454 0.0010425652 5.7680867e-11 0.0005401149 -5.5486483e-11
0.00020903938 -1.7677707e-10 -3.5853972e-12 0.0006827008 -2.7173455e-10 7.319252e-10 0.00013257076 0.0014047365
0.0020938222 0.00037350622 -2.845767e-11 -6.598625e-11 -1.4951741e-10 -5.240005e-11 0.0015359343 0.0007916952

fai_gcn_networks.1.residual.0.weight f4 [64, 32, 1, 1]
00000000: 5d41 92bc 341c ffbc f365 223b 4a70 b2bc
00000010: 4d84 a23c 2b4c e5bc 1d0a 00bc 2bbd 853c
00000020: 10ce bebc 0ba2 973c b9a1 273b cb9b ba3c
00000030: 474f b0bc 9de9 c03b 7cb1 e13b 34d7 583c
00000040: 98d1 283a fa97 9bbc 75c5 15bb 0e93 dc3c
00000050: 9dfe 45bc 0f33 063b 986d 123d 77fa b0bc
00000060: 35f7 473d 1c92 5cbc 7cdc b93c 9c9b daba
00000070: f930 56bb 54c2 343c 2435 223d 0618 8fba
00000080: 62ec 9539 94d6 c33b d2d5 b33a d958 93bb
00000090: 7bad b5bb afbf aabc a29c 3dbc 013a 0ebd
000000a0: 16c5 283c 67fd 60bc e9d4 09bc ef89 d53b
000000b0: a4c1 023c bd69 7f3c f0c0 d63c f921 e3bb
000000c0: 673e 41bc 9492 3bbc 0be2 e73b eb0c c63c
000000d0: d355 1dbd fd4c 8abc 86d4 a4ba aaff 2b3c
000000e0: 2655 5fbc 2433 4b3c 3585 54bc c97c 683c
000000f0: aed1 943c 19ec 2bbd b2ad fc3b 1839 bf3b
00000100: 6433 0c3d 5513 cc3b cdf3 803c 5766 6f3c
00000110: 87d8 c83c 93ed 63bc 77f9 e8bc 3398 c93c
00000120: 3ddf 8fbc f38b 633c ffa5 9e3c 8b71 3d3c
00000130: 61e5 08bc f078 633c a611 4a3b ce6f 3c3c
00000140: 644e 1ebc 66ec 94bb 8fde b83c 52fa 6c3c
00000150: 5c7c 163a 9b93 1ebd 4aa3 e33c c1ff 803c
00000160: ae34 fd3b 30e7 c3ba 74f4 d8bc a965 16bd
00000170: a06e b3bc 2f01 75b9 8bc0 c03c 8553 83bc
00000180: 9f71 803c 73bd 78bc 3dca c4ba 0416 3f3c
00000190: d2d4 013c 37f4 09bd 5b25 213c 6f2d 843c
000001a0: 21bf f5bc bd88 013d a24a cc3c 52b5 50bc
000001b0: ed0f bebc 6d1e 30bc 1449 3e3d 7860 bbbb
000001c0: 347d 02bc 2cfe 62bc b622 173b 9ba8 98bc
000001d0: fcef aa3c 996a e1bc 0dca ab3b 7c54 69bc
000001e0: a558 a83a 7a3e 1fbb 3ffe 91bc 778c 5c3c
000001f0: 784a f43c 8a7b fd3c a585 513c 5c99 08bd
00000200: ed4e 3fbd eb3c 093d 1ddc a1bb 1d33 0c3c
00000210: 87d3 d43c e6b9 bdba 3992 8bbc 5300 ba3b
00000220: 0993 86bc 6cf9 80bc 1570 37bc dc17 8cbc
00000230: a2ae 0f3c 24bd 373d e841 80bc 3314 e4bc
00000240: 9803 05bd 36bc 0fbc b2bd 943a 9b71 093d
00000250: f8d1 2138 2e3a bebc cf9c 04bd 1b50 54bc
00000260: 3ef8 aa3c 97be 3ebc 0435 293c 30c5 4f3c
00000270: 564b 033d a767 51bc 2aa5 0e3d 38a4 c33a
00000280: 39e9 6cbb 384a d7bb 7e16 25b9 c121 8d3b
00000290: 6eb8 0c3c 7b50 b23c 587f c83b 817e 4fb9
000002a0: 40c6 9dbb c14b 853b 3e30 423d 76fd 963c
000002b0: 099b 7d3c 51aa 15bc 6a25 2f3c 2721 12bd
000002c0: 0264 d1bb 8955 c93c edcc 953c 0123 a8bc
000002d0: d7a3 e8bb 9a31 053d 786e a7bc c532 223c
000002e0: 7b03 03bc 4428 e33b 231d faba b835 1a3d
000002f0: 01d5 5ebc f179 953c c097 a83c 9306 b9bc
00000300: ea1f 7d3c 9dd0 e13c 8edb ebbb 32d3 85ba
00000310: d4ce 2bbc 1561 c13c 8b93 d7ba ddb2 d33c
00000320: 7fa2 8db9 5027 10bd 3494 e63c 39c5 923c
00000330: 93c6 a0bc 80d0 1cbd 5bf3 67bc 22fe 42ba
00000340: 5dca 2e3c 144f 603c 3815 98bc b4e6 953b
00000350: 0a8b fabc d342 a13c 04f3 943c f9f3 efbb
00000360: e9a2 583d cd8a 2c3c 1034 30bd e2e0 f5bc
00000370: 6241 f6ba 1545 42bb 5048 9b3c 147c 49b8
00000380: eef9 d1bc 1879 083c a212 583c a44c b3bc
00000390: 20bb a13b 8501 a9bc d2dd 09bd beeb b4bc
000003a0: 80cd a2bc 6666 0dba f0a9 06bb 60e9 88ba
000003b0: 06ee e93c 9ba1 dfb8 e117 703d aae2 c3bc
000003c0: 7812 f93b 04fd 0c3c 1779 8e3c fed5 1ebb
000003d0: 3b9a b5ba 066f 29bb f7e9 8c3c e74b 8bbb
000003e0: 73ff b4ba 533f 1f3b c8a4 1cbc 0911 a1bc
000003f0: bc31 4abc 8232 583c 24be 1a3b b462 ecb9
-0.017853433 -0.031141378 0.0024780005 -0.02178206 0.019838477 -0.027990421 -0.007814911 0.016325554
-0.023291618 0.018509885 0.0025578572 0.022779366 -0.021522177 0.005887224 0.006887613 0.013234902
0.00064399233 -0.018993367 -0.002285329 0.02692559 -0.01208463 0.002047721 0.035749048 -0.021603806
0.04881974 -0.01346257 0.022688143 -0.0016678455 -0.0032682999 0.01103266 0.03960146 -0.0010917194
0.00028595614 0.0059765074 0.001372034 -0.0044966755 -0.005544362 -0.020843355 -0.011572989 -0.034723286
0.010300895 -0.013732291 -0.008412578 0.006516687 0.007980738 0.015589175 0.026215047 -0.00693154
-0.011794663 -0.011448521 0.007076507 0.024176082 -0.038411926 -0.016882414 -0.0012575544 0.010497967
-0.013631141 0.01240233 -0.012971212 0.014189907 0.01816639 -0.041973207 0.007711136 0.0058356635
0.034228697 0.0062278905 0.015741253 0.014611802 0.02451731 -0.013911623 -0.028439267 0.024608707
-0.017562503 0.013888347 0.019366262 0.011562715 -0.008355469 0.013883814 0.0030833273 0.011501266
-0.0096622445 -0.0045447825 0.022567062 0.014463978 0.0005740577 -0.038714986 0.027787823 0.015746953
0.007727227 -0.0014946219 -0.026483752 -0.036718044 -0.021903336 -0.00023365462 0.023529312 -0.016031036
0.015679179 -0.015181887 -0.0015013885 0.011662964 0.0079242755 -0.033680167 0.009835566 0.016134946
-0.029998364 0.031624544 0.024937931 -0.012738543 -0.023200953 -0.010749442 0.04645641 -0.005718287
-0.007964421 -0.013854545 0.002306146 -0.018635085 0.020866387 -0.02751665 0.005242592 -0.014241334
0.0012843801 -0.0024298714 -0.01782143 0.013461224 0.029820666 0.030942697 0.012788211 -0.03334938
-0.04670613 0.03350536 -0.0049395696 0.008557108 0.02597977 -0.0014474958 -0.017037498 0.005676308
-0.016427534 -0.015743934 -0.011196156 -0.01710122 0.008769663 0.044858113 -0.015656427 -0.027841663
-0.03247413 -0.0087729 0.0011348038 0.03355561 3.858094e-05 -0.023221102 -0.032376107 -0.012958552
0.020870324 -0.01164212 0.010327581 0.0126812905 0.032054268 -0.01278106 0.03482548 0.001492626
-0.0036149754 -0.006570127 -0.00015744005 0.0043070023 0.008588893 0.021766892 0.006118696 -0.00019788185
-0.004814893 0.0040678685 0.04740929 0.018431406 0.015478858 -0.009134845 0.010690073 -0.035676148
-0.0063900957 0.02457692 0.018286193 -0.020524504 -0.0070996094 0.032518007 -0.020438418 0.0098998
-0.007996435 0.0069322903 -0.001908217 0.037648886 -0.013600589 0.018246623 0.020580173 -0.022586143
0.015449503 0.027565295 -0.007197804 -0.0010210036 -0.010486323 0.023605863 -0.001644717 0.025842125
-0.00027014685 -0.03519374 0.02814684 0.017916309 -0.019625938 -0.03828478 -0.014157142 -0.00074383814
0.010668364 0.013690729 -0.018564805 0.004574621 -0.030583877 0.019685185 0.018182285 -0.007322785
0.05288974 0.01053114 -0.0430184 -0.030014459 -0.0018787796 -0.0029643227 0.01895538 -4.803769e-05
-0.025631871 0.008329652 0.013188036 -0.021887131 0.004935637 -0.020630607 -0.03365881 -0.022085067
-0.01987338 -0.00053939817 -0.0020548068 -0.0010445528 0.028555881 -0.0001066357 0.058616523 -0.023911793
0.0076010786 0.0086052455 0.017391725 -0.0024236436 -0.0013855168 -0.0025853529 0.017201407 -0.0042509916
-0.001380904 0.0024299219 -0.009560771 -0.019661443 -0.012340959 0.013195636 0.0023611868 -0.00045086967

fai_gcn_networks.1.residual.0.bias f4 [64]
00000000: 0000 0000 0000 0000 0000 0000 0000 0000
00000010: 0000 0000 0000 0000 0000 0000 0000 0000
00000020: 0000 0000 0000 0000 0000 0000 0000 0000
00000030: 0000 0000 0000 0000 0000 0000 0000 0000
00000040: 0000 0000 0000 0000 0000 0000 0000 0000
00000050: 0000 0000 0000 0000 0000 0000 0000 0000
00000060: 0000 0000 0000 0000 0000 0000 0000 0000
00000070: 0000 0000 0000 0000 0000 0000 0000 0000
00000080: 0000 0000 0000 0000 0000 0000 0000 0000
00000090: 0000 0000 0000 0000 0000 0000 0000 0000
000000a0: 0000 0000 0000 0000 0000 0000 0000 0000
000000b0: 0000 0000 0000 0000 0000 0000 0000 0000
000000c0: 0000 0000 0000 0000 0000 0000 0000 0000
000000d0: 0000 0000 0000 0000 0000 0000 0000 0000
000000e0: 0000 0000 0000 0000 0000 0000 0000 0000
000000f0: 0000 0000 0000 0000 0000 0000 0000 0000
0.0 0.0 0.0 0.0 0.0 0.0 0.0 0.0
0.0 0.0 0.0 0.0 0.0 0.0 0.0 0.0
0.0 0.0 0.0 0.0 0.0 0.0 0.0 0.0
0.0 0.0 0.0 0.0 0.0 0.0 0.0 0.0
0.0 0.0 0.0 0.0 0.0 0.0 0.0 0.0
0.0 0.0 0.0 0.0 0.0 0.0 0.0 0.0
0.0 0.0 0.0 0.0 0.0 0.0 0.0 0.0
0.0 0.0 0.0 0.0 0.0 0.0 0.0 0.0

fai_gcn_networks.1.residual.1.weight f4 [64]
00000000: 3dd7 7b3f bda2 803f 92a9 823f eb78 833f
00000010: f3c4 803f 291f 7a3f 801a 813f c403 813f
00000020: bb11 823f e362 833f 8b42 723f 1b92 7a3f
00000030: 93e0 823f bd88 7b3f b3e9 7f3f 8972 843f
00000040: 8d6e 7f3f 3d7e 803f 6c99 853f 91a6 863f
00000050: 6d02 843f df90 7d3f 5255 7e3f 938b 823f
00000060: c1ed 7f3f 6223 7b3f ea4c 7e3f 22cc 7b3f
00000070: ab62 7c3f 66d7 813f 99d8 7e3f c6f0 803f
00000080: 8832 783f 2672 7b3f c729 803f 1905 7e3f
00000090: d754 853f 0d78 753f bf60 813f 1fc8 7c3f
000000a0: dba1 743f 1ff1 7c3f 58d2 803f 8a3d 803f
000000b0: f240 7b3f 8af8 823f 723b 7f3f 53ec 7b3f
000000c0: f10a 813f c76e 803f be01 833f feee 7f3f
000000d0: 387c 823f 4f90 7d3f 5ddd 7c3f 0234 823f
000000e0: 99f2 833f 59cb 7f3f 77d9 773f 733a 773f
000000f0: 4fd1 833f 5c0c 823f 5bfa 833f 9fd1 7e3f
0.983753 1.0049664 1.0207999 1.0271276 1.0060104 0.97703797 1.0086212 1.0079274
1.0161661 1.0264553 0.94632787 0.9787919 1.0224785 0.9825552 0.9996597 1.0347453
0.9977806 1.0038525 1.0437446 1.0519582 1.031324 0.9904918 0.9934894 1.0198845
0.9997216 0.98100865 0.9933611 0.98358357 0.98588055 1.0143859 0.9954925 1.0073478
0.96952105 0.9822105 1.001275 0.9922653 1.0416516 0.9588631 1.010765 0.9874286
0.9555947 0.9880542 1.0064192 1.001878 0.98145974 1.0232098 0.9970008 0.9840748
1.0081464 1.0033807 1.0234907 0.9997405 1.0194159 0.9904832 0.98775274 1.0172122
1.030841 0.9991966 0.968162 0.9657356 1.0298251 1.0160022 1.0310777 0.99538606

fai_gcn_networks.1.residual.1.bias f4 [64]
00000000: 0000 0000 0000 0000 0000 0000 0000 0000
00000010: 0000 0000 0000 0000 0000 0000 0000 0000
00000020: 0000 0000 0000 0000 0000 0000 0000 0000
00000030: 0000 0000 0000 0000 0000 0000 0000 0000
00000040: 0000 0000 0000 0000 0000 0000 0000 0000
00000050: 0000 0000 0000 0000 0000 0000 0000 0000
00000060: 0000 0000 0000 0000 0000 0000 0000 0000
00000070: 0000 0000 0000 0000 0000 0000 0000 0000
00000080: 0000 0000 0000 0000 0000 0000 0000 0000
00000090: 0000 0000 0000 0000 0000 0000 0000 0000
000000a0: 0000 0000 0000 0000 0000 0000 0000 0000
000000b0: 0000 0000 0000 0000 0000 0000 0000 0000
000000c0: 0000 0000 0000 0000 0000 0000 0000 0000
000000d0: 0000 0000 0000 0000 0000 0000 0000 0000
000000e0: 0000 0000 0000 0000 0000 0000 0000 0000
000000f0: 0000 0000 0000 0000 0000 0000 0000 0000
0.0 0.0 0.0 0.0 0.0 0.0 0.0 0.0
0.0 0.0 0.0 0.0 0.0 0.0 0.0 0.0
0.0 0.0 0.0 0.0 0.0 0.0 0.0 0.0
0.0 0.0 0.0 0.0 0.0 0.0 0.0 0.0
0.0 0.0 0.0 0.0 0.0 0.0 0.0 0.0
0.0 0.0 0.0 0.0 0.0 0.0 0.0 0.0
0.0 0.0 0.0 0.0 0.0 0.0 0.0 0.0
0.0 0.0 0.0 0.0 0.0 0.0 0.0 0.0

fai_gcn_networks.1.residual.1.running_mean f4 [64]
00000000: 87d0 202f bfa1 1db0 6be6 b5b0 9abf bfb0
00000010: 164a 71b0 2a16 9430 bc6b 04b1 9073 93b0
00000020: 92c0 0530 9282 e5af f167 632f cd38 74b0
00000030: f5a4 b0af 9287 7931 25a3 1bae 2ad7 ca30
00000040: 0e43 feb0 2924 0731 541e beaf 68f3 1230
00000050: b5a5 0030 12ee 9a30 df09 16af 9f65 c030
00000060: 53b4 90af 7f60 4230 1fd5 60b0 d682 cfad
00000070: dbc3 7830 e09f 4eaf adbf bcb0 8444 c8b0
00000080: fa19 41af 158e a0b0 95d1 eeae 308f 1eb0
00000090: cad3 e2b0 e41d bd2f b0ea 02b1 4450 b730
000000a0: 4307 b6af db31 00ae fb91 c530 8250 77ae
000000b0: 3d0f 95af acbb be2e 3a29 e3b0 c824 0331
000000c0: 4495 07b1 1a6d 3830 1e15 eb2f f995 d4ae
000000d0: 56ac 6330 0ee1 ba2e bdcd 8faf 9c50 b730
000000e0: 1f5d 482f 0181 4e30 d68f 3db0 d73f b230
000000f0: 9360 8e2e 8c11 02b1 5765 bd30 820f 0ab0
1.4625999e-10 -5.734612e-10 -1.3234972e-09 -1.3951535e-09 -8.778057e-10 1.0774717e-09 -1.9269768e-09 -1.0728503e-09
4.8658777e-10 -4.1747633e-10 2.0682457e-10 -8.88474e-10 -3.2131423e-10 3.6311332e-09 -3.538782e-11 1.4758588e-09
-1.849999e-09 1.966564e-09 -3.4582348e-10 5.346039e-10 4.680161e-10 1.1272638e-09 -1.3645927e-10 1.3998721e-09
-2.6321575e-10 7.071392e-10 -8.179359e-10 -2.3591278e-11 9.05002e-10 -1.879239e-10 -1.3733278e-09 -1.4571389e-09
-1.7562476e-10 -1.1681914e-09 -1.0860216e-10 -5.7683547e-10 -1.6503858e-09 3.4400138e-10 -1.9050894e-09 1.3337815e-09
-3.3110767e-10 -2.914811e-11 1.4375127e-09 -5.6232803e-11 -2.711377e-10 8.673537e-11 -1.6528141e-09 1.9083917e-09
-1.9729933e-09 6.709385e-10 4.2761256e-10 -9.667284e-11 8.2827023e-10 8.4982785e-11 -2.6157734e-10 1.3337913e-09
1.8222977e-10 7.512569e-10 -6.89622e-10 1.2969349e-09 6.4745674e-11 -1.8927464e-09 1.3780362e-09 -5.0226145e-10

fai_gcn_networks.1.residual.1.running_var f4 [64]
00000000: 8aec ad22 8e00 5f22 e3b5 a022 8888 6622
00000010: b078 1322 57d8 8721 6c2a 1423 56fd 4f21
00000020: 7dac 2922 369b 1a21 a940 8f21 3a1a 8f22
00000030: f0ff fc22 ab5b 7823 4d34 9921 1b03 9520
00000040: dc83 d723 b53c ae22 07e5 0a23 e668 d221
00000050: 1776 3921 0a2c 3b22 1461 8921 3f52 8322
00000060: a134 9722 c56c 3a20 045b 3422 1827 c423
00000070: c44c 8422 1e4c 0720 ece8 aa22 355b 0722
00000080: 7351 2721 ea6e 3122 8061 0121 63e0 2522
00000090: bdea 7022 2636 2a22 073d 9222 dd83 f322
000000a0: 038f 2323 e1e1 5821 0eb0 ef21 453e eb21
000000b0: dbae 5721 f837 5821 d15a 1c22 1b31 1622
000000c0: 2214 2123 c29c 1f22 68fc de21 cdb6 8d21
000000d0: 5dde df21 c009 e822 943d 1822 d247 6722
000000e0: 6d68 4523 ace7 e321 b816 4a22 a690 9d22
000000f0: 248f 2723 09a3 b222 8754 1523 c994 5322
4.714219e-18 3.022243e-18 4.3560667e-18 3.1243092e-18 1.9986106e-18 9.20522e-19 8.032079e-18 7.0469615e-19
2.2995085e-18 5.238265e-19 9.707172e-19 3.8787996e-18 6.857572e-18 1.3463518e-17 1.0381527e-18 2.5243637e-19
2.3366191e-17 4.722707e-18 7.5294934e-18 1.425792e-18 6.283673e-19 2.536654e-18 9.309177e-19 3.5594703e-18
4.0984355e-18 1.5790802e-19 2.4442732e-18 2.126692e-17 3.585995e-18 1.146013e-19 4.632521e-18 1.8344196e-18
5.66896e-19 2.404669e-18 4.383594e-19 2.248046e-18 3.2650335e-18 2.3067962e-18 3.9637995e-18 6.6004898e-18
8.866532e-18 7.3482595e-19 1.6241871e-18 1.5940702e-18 7.3076253e-19 7.325772e-19 2.119002e-18 2.0354787e-18
8.732091e-18 2.1631505e-18 1.5110117e-18 9.602919e-19 1.5169927e-18 6.289405e-18 2.063244e-18 3.134436e-18
1.07015044e-17 1.5443441e-18 2.7388132e-18 4.2708088e-18 9.083399e-18 4.8419617e-18 8.0952055e-18 2.8674599e-18
