capsule-6073072/code/work_dir/recognition/kinetics_skeleton/FAI_GCN/epoch160_model.pt (torch, 74070 bytes, 22 tensors)

A f4 [3, 18, 18]
0	0x3e800000	0.25
1	0x00000000	0.0
2	0x00000000	0.0
3	0x00000000	0.0
4	0x00000000	0.0
5	0x00000000	0.0
6	0x00000000	0.0
7	0x00000000	0.0
8	0x00000000	0.0
9	0x00000000	0.0
10	0x00000000	0.0
11	0x00000000	0.0
12	0x00000000	0.0
13	0x00000000	0.0
14	0x00000000	0.0
15	0x00000000	0.0
16	0x00000000	0.0
17	0x00000000	0.0
18	0x00000000	0.0
19	0x3e800000	0.25
20	0x00000000	0.0
21	0x00000000	0.0
22	0x00000000	0.0
23	0x00000000	0.0
24	0x00000000	0.0
25	0x00000000	0.0
26	0x00000000	0.0
27	0x00000000	0.0
28	0x00000000	0.0
29	0x00000000	0.0
30	0x00000000	0.0
31	0x00000000	0.0
32	0x00000000	0.0
33	0x00000000	0.0
34	0x00000000	0.0
35	0x00000000	0.0
36	0x00000000	0.0
37	0x00000000	0.0
38	0x3e800000	0.25
39	0x00000000	0.0
40	0x00000000	0.0
41	0x00000000	0.0
42	0x00000000	0.0
43	0x00000000	0.0
44	0x00000000	0.0
45	0x00000000	0.0
46	0x00000000	0.0
47	0x00000000	0.0
48	0x00000000	0.0
49	0x00000000	0.0
50	0x00000000	0.0
51	0x00000000	0.0
52	0x00000000	0.0
53	0x00000000	0.0
54	0x00000000	0.0
55	0x00000000	0.0
56	0x00000000	0.0
57	0x3eaaaaab	0.33333334
58	0x00000000	0.0
59	0x00000000	0.0
60	0x00000000	0.0
61	0x00000000	0.0
62	0x00000000	0.0
63	0x00000000	0.0
64	0x00000000	0.0
65	0x00000000	0.0
66	0x00000000	0.0
67	0x00000000	0.0
68	0x00000000	0.0
69	0x00000000	0.0
70	0x00000000	0.0
71	0x00000000	0.0
72	0x00000000	0.0
73	0x00000000	0.0
74	0x00000000	0.0
75	0x00000000	0.0
76	0x3f000000	0.5
77	0x00000000	0.0
78	0x00000000	0.0
79	0x00000000	0.0
80	0x00000000	0.0
81	0x00000000	0.0
82	0x00000000	0.0
83	0x00000000	0.0
84	0x00000000	0.0
85	0x00000000	0.0
86	0x00000000	0.0
87	0x00000000	0.0
88	0x00000000	0.0
89	0x00000000	0.0
90	0x00000000	0.0
91	0x00000000	0.0
92	0x00000000	0.0
93	0x00000000	0.0
94	0x00000000	0.0
95	0x3e800000	0.25
96	0x00000000	0.0
97	0x00000000	0.0
98	0x00000000	0.0
99	0x00000000	0.0
100	0x00000000	0.0
101	0x00000000	0.0
102	0x00000000	0.0
103	0x00000000	0.0
104	0x00000000	0.0
105	0x00000000	0.0
106	0x00000000	0.0
107	0x00000000	0.0
108	0x00000000	0.0
109	0x00000000	0.0
110	0x00000000	0.0
111	0x00000000	0.0
112	0x00000000	0.0
113	0x00000000	0.0
114	0x3eaaaaab	0.33333334
115	0x00000000	0.0
116	0x00000000	0.0
117	0x00000000	0.0
118	0x00000000	0.0
119	0x00000000	0.0
120	0x00000000	0.0
121	0x00000000	0.0
122	0x00000000	0.0
123	0x00000000	0.0
124	0x00000000	0.0
125	0x00000000	0.0
126	0x00000000	0.0
127	0x00000000	0.0
128	0x00000000	0.0
129	0x00000000	0.0
130	0x00000000	0.0
131	0x00000000	0.0
132	0x00000000	0.0
133	0x3f000000	0.5
134	0x00000000	0.0
135	0x00000000	0.0
136	0x00000000	0.0
137	0x00000000	0.0
138	0x00000000	0.0
139	0x00000000	0.0
140	0x00000000	0.0
141	0x00000000	0.0
142	0x00000000	0.0
143	0x00000000	0.0
144	0x00000000	0.0
145	0x00000000	0.0
146	0x00000000	0.0
147	0x00000000	0.0
148	0x00000000	0.0
149	0x00000000	0.0
150	0x00000000	0.0
151	0x00000000	0.0
152	0x3eaaaaab	0.33333334
153	0x00000000	0.0
154	0x00000000	0.0
155	0x00000000	0.0
156	0x00000000	0.0
157	0x00000000	0.0
158	0x00000000	0.0
159	0x00000000	0.0
160	0x00000000	0.0
161	0x00000000	0.0
162	0x00000000	0.0
163	0x00000000	0.0
164	0x00000000	0.0
165	0x00000000	0.0
166	0x00000000	0.0
167	0x00000000	0.0
168	0x00000000	0.0
169	0x00000000	0.0
170	0x00000000	0.0
171	0x3eaaaaab	0.33333334
172	0x00000000	0.0
173	0x00000000	0.0
174	0x00000000	0.0
175	0x00000000	0.0
176	0x00000000	0.0
177	0x00000000	0.0
178	0x00000000	0.0
179	0x00000000	0.0
180	0x00000000	0.0
181	0x00000000	0.0
182	0x00000000	0.0
183	0x00000000	0.0
184	0x00000000	0.0
185	0x00000000	0.0
186	0x00000000	0.0
187	0x00000000	0.0
188	0x00000000	0.0
189	0x00000000	0.0
190	0x3f000000	0.5
191	0x00000000	0.0
192	0x00000000	0.0
193	0x00000000	0.0
194	0x00000000	0.0
195	0x00000000	0.0
196	0x00000000	0.0
197	0x00000000	0.0
198	0x00000000	0.0
199	0x00000000	0.0
200	0x00000000	0.0
201	0x00000000	0.0
202	0x00000000	0.0
203	0x00000000	0.0
204	0x00000000	0.0
205	0x00000000	0.0
206	0x00000000	0.0
207	0x00000000	0.0
208	0x00000000	0.0
209	0x3eaaaaab	0.33333334
210	0x00000000	0.0
211	0x00000000	0.0
212	0x00000000	0.0
213	0x00000000	0.0
214	0x00000000	0.0
215	0x00000000	0.0
216	0x00000000	0.0
217	0x00000000	0.0
218	0x00000000	0.0
219	0x00000000	0.0
220	0x00000000	0.0
221	0x00000000	0.0
222	0x00000000	0.0
223	0x00000000	0.0
224	0x00000000	0.0
225	0x00000000	0.0
226	0x00000000	0.0
227	0x00000000	0.0
228	0x3eaaaaab	0.33333334
229	0x00000000	0.0
230	0x00000000	0.0
231	0x00000000	0.0
232	0x00000000	0.0
233	0x00000000	0.0
234	0x00000000	0.0
235	0x00000000	0.0
236	0x00000000	0.0
237	0x00000000	0.0
238	0x00000000	0.0
239	0x00000000	0.0
240	0x00000000	0.0
241	0x00000000	0.0
242	0x00000000	0.0
243	0x00000000	0.0
244	0x00000000	0.0
245	0x00000000	0.0
246	0x00000000	0.0
247	0x3f000000	0.5
248	0x00000000	0.0
249	0x00000000	0.0
250	0x00000000	0.0
251	0x00000000	0.0
252	0x00000000	0.0
253	0x00000000	0.0
254	0x00000000	0.0
255	0x00000000	0.0

data_bn.weight f4 [54]
0	0x3f5fca18	0.87417746
1	0x3f54f8c6	0.831921
2	0x3f5f4d23	0.87227076
3	0x3f4f204e	0.8090867
4	0x3f51d15a	0.8196007
5	0x3f5ffda6	0.8749641
6	0x3f5286b0	0.82236767
7	0x3f5518ea	0.8324114
8	0x3f4644d2	0.7744876
9	0x3f586079	0.84522206
10	0x3f51b336	0.8191408
11	0x3f52a56d	0.8228367
12	0x3f522e44	0.82101846
13	0x3f4a2018	0.7895522
14	0x3f558c4e	0.8341721
15	0x3f5c4b14	0.8605206
16	0x3f587294	0.8454983
17	0x3f5508f7	0.83216804
18	0x3f514b9d	0.81756
19	0x3f4e546d	0.80597574
20	0x3f58e295	0.84720737
21	0x3f54785a	0.8299614
22	0x3f50143b	0.8128087
23	0x3f56f4ff	0.83967584
24	0x3f5511cb	0.83230275
25	0x3f562018	0.8364272
26	0x3f587610	0.8455515
27	0x3f58d7d0	0.84704304
28	0x3f55e0a9	0.8354593
29	0x3f59409a	0.848642
30	0x3f4d0fee	0.8010243
31	0x3f540ad3	0.82829016
32	0x3f57c991	0.8429194
33	0x3f5b305e	0.8562068
34	0x3f5ab594	0.85433316
35	0x3f5de3b3	0.86675566
36	0x3f549e15	0.83053714
37	0x3f5a9eac	0.85398364
38	0x3f573f48	0.84080935
39	0x3f53eede	0.8278636
40	0x3f540bcd	0.82830507
41	0x3f5902b0	0.84769726
42	0x3f58e964	0.84731126
43	0x3f5e30fe	0.86793506
44	0x3f52b4fb	0.82307404
45	0x3f500a5f	0.81265825
46	0x3f5fa3d3	0.8735935
47	0x3f557ce9	0.8339372
48	0x3f58b69e	0.8465365
49	0x3f5cd44b	0.86261433
50	0x3f57bff1	0.84277254
51	0x3f5d5105	0.8645175
52	0x3f4620db	0.77393883
53	0x3f53ec2e	0.82782257

data_bn.bias f4 [54]
0	0xaa266b9e	-1.4781099e-13
1	0x2693527a	1.0222529e-15
2	0x285d14db	1.2272487e-14
3	0xa9e21cd0	-1.0041414e-13
4	0xa6b44393	-1.2508325e-15
5	0x2931ff2e	3.9523228e-14
6	0xa90fb127	-3.1906034e-14
7	0x25515f2a	1.8160103e-16
8	0x28952ac9	1.6560878e-14
9	0xab1bc978	-5.5346656e-13
10	0xa72fb4d1	-2.438415e-15
11	0x28aa0ee2	1.8880246e-14
12	0xac0f386c	-2.0352843e-12
13	0xa7a7ce73	-4.6575644e-15
14	0xa9d9ce0f	-9.672481e-14
15	0x288e1f71	1.5778802e-14
16	0x26181a6b	5.2771397e-16
17	0x285925ba	1.20541005e-14
18	0xaa9ca418	-2.782503e-13
19	0xa6352a28	-6.285412e-16
20	0x2a254d94	1.4681859e-13
21	0xac06ce0f	-1.915693e-12
22	0xa837e7ea	-1.0208829e-14
23	0xa7bb05c9	-5.19092e-15
24	0x2b10af02	5.140195e-13
25	0xa89e1260	-1.7549493e-14
26	0xa95448f3	-4.713673e-14
27	0xab276f12	-5.948446e-13
28	0xa7f79fac	-6.872939e-15
29	0x291ed83b	3.5270598e-14
30	0xac419c35	-2.7513662e-12
31	0xa86d2ce5	-1.3165878e-14
32	0x29e09883	9.974055e-14
33	0x2b078830	4.8150633e-13
34	0xa8a9ab18	-1.883697e-14
35	0xaa04993a	-1.1777116e-13
36	0xaaee21f2	-4.2300847e-13
37	0x25c0c108	3.3437494e-16
38	0x2998db4f	6.7882e-14
39	0xac419d60	-2.751431e-12
40	0xa8142756	-8.22418e-15
41	0x28b1af09	1.9726857e-14
42	0xab02580a	-4.6307457e-13
43	0xa7a51932	-4.5824017e-15
44	0x2969ea37	5.1939542e-14
45	0xaae91dc0	-4.1409758e-13
46	0x2666eb6b	8.011633e-16
47	0x298fc558	6.3847094e-14
48	0xac222f53	-2.3047855e-12
49	0xa82db8db	-9.643513e-15
50	0x2980d7b1	5.7217584e-14
51	0xac56a3b8	-3.0502111e-12
52	0xa7bcbed6	-5.2387387e-15
53	0xa709fadd	-1.9148563e-15

data_bn.running_mean f4 [54]
0	0x3bbe00be	0.0057984283
1	0xbd8a2b68	-0.0674656
2	0x3ec4d1fb	0.38441452
3	0x3c3438b7	0.01099985
4	0xbcea2faf	-0.02858719
5	0x3ebbf631	0.36711267
6	0xbc5a2d5b	-0.013316478
7	0xbcfb9665	-0.030711362
8	0x3eaac518	0.33353496
9	0xbd03208e	-0.03201347
10	0xbbb58539	-0.005539563
11	0x3ea58a83	0.3233224
12	0xbd1e7d50	-0.038693726
13	0xb99d6de7	-0.00030027257
14	0x3ea9614f	0.33082053
15	0x3d10c3f8	0.03534314
16	0xbcd49b43	-0.02595294
17	0x3eac2491	0.33621648
18	0x3d4810b8	0.04884407
19	0x392aae7e	0.00016277467
20	0x3e96dd5e	0.29465765
21	0x3d559eab	0.05215327
22	0x3c1b47f6	0.009477606
23	0x3e979309	0.29604366
24	0xbb991703	-0.0046719327
25	0x3d6d7a1d	0.057977784
26	0x3e921d24	0.28537858
27	0xbcbd295c	-0.02309101
28	0x3daa47b0	0.083144546
29	0x3ea16994	0.31525862
30	0xbb9ceebd	-0.004789202
31	0x3e062148	0.13098633
32	0x3e9647cb	0.2935165
33	0x3cc7f9f7	0.024411185
34	0x3d75c35c	0.060000762
35	0x3e91baf5	0.2846295
36	0x3d22268b	0.03958754
37	0x3db073af	0.08615815
38	0x3e9cedf8	0.30650306
39	0x3cb8bafe	0.022550102
40	0x3e04ef92	0.12982014
41	0x3e88fa74	0.2675358
42	0x39afd225	0.0003353517
43	0xbd9a5f6f	-0.07537734
44	0x3ebbbaa0	0.3666582
45	0x3c73fb68	0.014891483
46	0xbd9aaee1	-0.07552887
47	0x3ec8049f	0.39066026
48	0x3b21b18b	0.0024672474
49	0xbd2a68b0	-0.041603744
50	0x3e3a55d9	0.18196811
51	0x3cf88a5d	0.030339414
52	0xbd80a2e4	-0.06281069
53	0x3eaa6db1	0.33286813

data_bn.running_var f4 [54]
0	0x3bac0526	0.005249637
1	0x3c12589b	0.008932258
2	0x3da88254	0.08227983
3	0x3b9b8a7a	0.0047467323
4	0x3bb52b86	0.00552887
5	0x3d94694d	0.07246647
6	0x3bc59696	0.006029914
7	0x3bbb92f5	0.0057243058
8	0x3d7c09e0	0.061532855
9	0x3c03f05f	0.008052914
10	0x3bac0239	0.0052492884
11	0x3d85e280	0.06537342
12	0x3c1f5e6a	0.0097271
13	0x3bc024d5	0.0058637657
14	0x3d7e2d65	0.06205501
15	0x3b885029	0.0041599465
16	0x3bb22d30	0.0054375157
17	0x3d7bf4b5	0.061512668
18	0x3b87865e	0.004135891
19	0x3ba268b8	0.004956331
20	0x3d74654f	0.059666928
21	0x3b90b398	0.0044159405
22	0x3bbfaeb0	0.005849682
23	0x3d7b4eaa	0.061354317
24	0x3ba8b336	0.0051483167
25	0x3bbb378a	0.005713408
26	0x3d3d902e	0.04628008
27	0x3bcfbf1a	0.0063399198
28	0x3c0fe79d	0.008783248
29	0x3d7062da	0.058688022
30	0x3bb416c5	0.0054958784
31	0x3c67449e	0.014115481
32	0x3d798e6a	0.060926832
33	0x3b80d89f	0.0039320732
34	0x3bc2d841	0.0059461896
35	0x3d387557	0.04503378
36	0x3b894b75	0.0041899034
37	0x3c139035	0.00900655
38	0x3d688a52	0.056772538
39	0x3b82b432	0.003988766
40	0x3c6b7c4f	0.014372899
41	0x3d4beea8	0.049788147
42	0x3bb2355d	0.0054384903
43	0x3c161bd2	0.009161906
44	0x3d918c1f	0.07106804
45	0x3ba3113a	0.004976419
46	0x3c1b3163	0.009472224
47	0x3dab0233	0.08350029
48	0x3bd2c896	0.006432603
49	0x3bee0d55	0.007264773
50	0x3d493d8d	0.049130965
51	0x3b94c43d	0.004539995
52	0x3c0fdfb7	0.008781365
53	0x3dac1ca0	0.08403897

fai_gcn_networks.0.gcn.conv.weight f4 [96, 3, 1, 1]
0	0x25468264	1.721794e-16
1	0x2432dc3a	3.8784136e-17
2	0xa6f1f2fb	-1.6788594e-15
3	0x2d7ec42a	1.44817856e-11
4	0xafa33f90	-2.969469e-10
5	0xae7341f3	-5.5310378e-11
6	0x2fb53501	3.296137e-10
7	0xb0266ad7	-6.0542277e-10
8	0x2d55ab02	1.214562e-11
9	0x31ac7098	5.0186593e-09
10	0x3187b9f0	3.9501558e-09
11	0xaf6b92a8	-2.1425228e-10
12	0xa6030d97	-4.5468173e-16
13	0xa5b3f615	-3.1218302e-16
14	0x26963216	1.0421917e-15
15	0x309f7f0f	1.1604885e-09
16	0x30eb72cd	1.7131129e-09
17	0x3146c4a1	2.8924563e-09
18	0xb1665507	-3.3517737e-09
19	0x343c7e1a	1.755474e-07
20	0xaf83d5f4	-2.3980784e-10
21	0xa99c4166	-6.9391365e-14
22	0xaada6afc	-3.8798814e-13
23	0x28673850	1.2835287e-14
24	0x2a1e522e	1.4061731e-13
25	0xaaab5c57	-3.0439776e-13
26	0x28a96768	1.8807614e-14
27	0xb0976241	-1.1014621e-09
28	0xb2407f18	-1.1204769e-08
29	0x370f59c0	8.544361e-06
30	0x27c3b263	5.431678e-15
31	0xa6d89afb	-1.5030018e-15
32	0xa715f28d	-2.080939e-15
33	0x2e0d24b3	3.2092284e-11
34	0x2b8f2cd3	1.0173202e-12
35	0x2f596c8a	1.9774596e-10
36	0xb02dfcfd	-6.329655e-10
37	0x30334a58	6.522547e-10
38	0xb24dbdac	-1.1975697e-08
39	0x2f83405c	2.387449e-10
40	0xafdc12f0	-4.0031223e-10
41	0xaf268ac3	-1.514691e-10
42	0x38ddd334	0.00010577441
43	0xb0e67850	-1.6768897e-09
44	0xaf90920b	-2.6297217e-10
45	0x3118ac6a	2.2216917e-09
46	0x339a4bb6	7.1849556e-08
47	0xb08b822e	-1.015058e-09
48	0xb07e0fc2	-9.2427055e-10
49	0x30a05c7f	1.1667821e-09
50	0xb01e7307	-5.764353e-10
51	0xb00ae8de	-5.053503e-10
52	0xafaf49b9	-3.1884698e-10
53	0x32b6085d	2.1191392e-08
54	0x30d0287b	1.5145497e-09
55	0xb0eb3fbc	-1.7116615e-09
56	0xb0f7cd14	-1.8029902e-09
57	0xae2cec61	-3.931822e-11
58	0xad22f6b3	-9.263412e-12
59	0xac78cd43	-3.5356863e-12
60	0xb0e01e8e	-1.6306829e-09
61	0xb11a2ea2	-2.2436457e-09
62	0x30d1d10e	1.5266168e-09
63	0xb3b2473d	-8.301729e-08
64	0xad6b8b86	-1.3389184e-11
65	0xae21b047	-3.6763727e-11
66	0xafdfbe22	-4.069856e-10
67	0x2fb9010f	3.3652056e-10
68	0x30069f14	4.897498e-10
69	0x2fefe63c	4.3637438e-10
70	0x2e16b01b	3.4262464e-11
71	0xaff58a7d	-4.4663642e-10
72	0xb033bc6f	-6.53876e-10
73	0xadfbdfc4	-2.8634768e-11
74	0x3064bf8c	8.321812e-10
75	0xb72fe94b	-1.0485131e-05
76	0xaf37a37e	-1.6701837e-10
77	0x300d85c6	5.1485605e-10
78	0xaf312e49	-1.61145e-10
79	0xaf227ca6	-1.4778098e-10
80	0xaca5274f	-4.693946e-12
81	0x29bc24ef	8.355284e-14
82	0xaa328038	-1.5854061e-13
83	0xaa83c23e	-2.3405057e-13
84	0xaee0ed58	-1.02285014e-10
85	0xafc49f11	-3.5765216e-10
86	0xb0953326	-1.0855714e-09
87	0x2edbad66	9.989769e-11
88	0x30d5f8d6	1.5568513e-09
89	0x36fb325b	7.486245e-06
90	0x2fb40209	3.2743255e-10
91	0x319f434d	4.6351603e-09
92	0xb04d53b4	-7.4697515e-10
93	0x2669eb3e	8.1156927e-16
94	0x271bd30f	2.1624986e-15
95	0x2704d31c	1.8433123e-15
96	0x24a7826a	7.2645635e-17
97	0x25637912	1.9730132e-16
98	0xa5f39eb7	-4.226133e-16
99	0x2f386cb4	1.6773322e-10
100	0x2f4c5674	1.8584406e-10
101	0xaee1f398	-1.0275086e-10
102	0x2fa00e0f	2.911382e-10
103	0x3497ebfb	2.829764e-07
104	0x2e8784ea	6.1626995e-11
105	0x2f8d66c7	2.5720778e-10
106	0x3071c29d	8.795185e-10
107	0xb2f21efb	-2.8186596e-08
108	0x25e2b341	3.9326218e-16
109	0x2612ad19	5.0888517e-16
110	0xa48ce9ed	-6.111161e-17
111	0x30194423	5.5757904e-10
112	0x3029e0f5	6.1801525e-10
113	0xaff17eb9	-4.3927686e-10
114	0xb18a6c6b	-4.0286543e-09
115	0x341fc16f	1.48784e-07
116	0xafe95e47	-4.244944e-10
117	0x2b209f8a	5.7064824e-13
118	0xab4c8ffa	-7.2675167e-13
119	0xa89cbc05	-1.740102e-14
120	0x29b9986d	8.242092e-14
121	0x29f30b2e	1.0793307e-13
122	0x2d4973ae	1.1451213e-11
123	0x318d7ac7	4.1175983e-09
124	0x2cd5339e	6.0595548e-12
125	0xb214985e	-8.649378e-09
126	0xa82305c3	-9.049567e-15
127	0xa89b77c7	-1.7260402e-14
128	0x2598e63c	2.652381e-16
129	0x2eb4d2cc	8.2228974e-11
130	0xaf16b1c8	-1.3705581e-10
131	0xaf01f11a	-1.1818138e-10
132	0xb1a98849	-4.934041e-09
133	0x305ddebf	8.0715873e-10
134	0xaf8ba320	-2.539986e-10
135	0xac0f6e9d	-2.0382925e-12
136	0xafba5623	-3.3894407e-10
137	0xaf67b677	-2.1074152e-10
138	0x3188152b	3.9605275e-09
139	0xb1069254	-1.9582744e-09
140	0x309ce536	1.141564e-09
141	0x3281fb6a	1.5131906e-08
142	0x3162196c	3.290178e-09
143	0xae6de6b5	-5.409247e-11
144	0xaed389ca	-9.6196454e-11
145	0x2fe1f02a	4.1097908e-10
146	0xb0e6f893	-1.6805352e-09
147	0x2d48c4a2	1.1412345e-11
148	0xb09f89db	-1.1607953e-09
149	0xb17c18ce	-3.6684926e-09
150	0x31b5eddc	5.294835e-09
151	0xb08d0a24	-1.0261982e-09
152	0xb1082e55	-1.9816941e-09
153	0xabce5ca4	-1.4662893e-12
154	0x2d371acb	1.0408295e-11
155	0xac92602f	-4.160248e-12
156	0xb0c43da4	-1.4278396e-09
157	0xb1d658c9	-6.2383134e-09
158	0x312de8f7	2.5307239e-09
159	0xaebb418d	-8.5154196e-11
160	0x2ec691d6	9.029903e-11
161	0xb531d362	-6.624524e-07
162	0xb48a75f4	-2.5790325e-07
163	0x2fd94c9a	3.95265e-10
164	0xb22eb612	-1.0169531e-08
165	0x30be351b	1.3839413e-09
166	0xb0a534e8	-1.2020367e-09
167	0xafd1705d	-3.8096717e-10
168	0x31121c0c	2.126174e-09
169	0x30580d3f	7.8599166e-10
170	0xb281fec7	-1.5133436e-08
171	0x31122342	2.1265838e-09
172	0xb0ef5ea8	-1.7416442e-09
173	0x2d283181	9.5606864e-12
174	0xaf83ff88	-2.4010327e-10
175	0xaff897a9	-4.5218698e-10
176	0x2ccc3143	5.803498e-12
177	0xa911a66c	-3.2340816e-14
178	0xa657aae1	-7.4824694e-16
179	0xaaa86376	-2.991181e-13
180	0xaf3c3871	-1.7118552e-10
181	0xb010d868	-5.2694427e-10
182	0xb0688ac8	-8.459833e-10
183	0xb48f77aa	-2.6722893e-07
184	0x2fb7e57e	3.345057e-10
185	0xb138c730	-2.688875e-09
186	0xb16d83bd	-3.4562924e-09
187	0xb08aa818	-1.0088597e-09
188	0xb0259f12	-6.0252703e-10
189	0xa56e76f0	-2.0683507e-16
190	0xa86b3258	-1.3056037e-14
191	0x27910f1a	4.0261958e-15
192	0xa708a308	-1.896217e-15
193	0x24b2279d	7.72623e-17
194	0xa646abce	-6.892789e-16
195	0x2e01824f	2.944694e-11
196	0x2e045612	3.008977e-11
197	0xadd361b0	-2.4031305e-11
198	0x2f14b3bf	1.352438e-10
199	0xaf2178aa	-1.4685733e-10
200	0x2d6ad63a	1.3348928e-11
201	0x308a9ac8	1.0084813e-09
202	0xb21ee148	-9.2480335e-09
203	0xb1aa1ffe	-4.9512883e-09
204	0xa3f84546	-2.6917552e-17
205	0xa54512a2	-1.7093339e-16
206	0x24314224	3.843678e-17
207	0xaea87e7a	-7.662222e-11
208	0x3098d8c2	1.1121062e-09
209	0xafdc0bb0	-4.002607e-10
210	0xb123a0a3	-2.3810933e-09
211	0x311fd30c	2.3257511e-09
212	0xb0130d6e	-5.3497373e-10
213	0x2bb00533	1.2506995e-12
214	0xab8a24db	-9.815719e-13
215	0x29827f6a	5.7952625e-14
216	0xa7e77867	-6.424592e-15
217	0xa68b8b27	-9.68278e-16
218	0x2838d4da	1.0260207e-14
219	0xafa79126	-3.0480257e-10
220	0x31d4a456	6.188695e-09
221	0xb050176f	-7.570326e-10
222	0xa4594ed2	-4.7121138e-17
223	0xa8b06292	-1.9582673e-14
224	0x26c0506f	1.3344478e-15
225	0x2dd421bf	2.4116596e-11
226	0xaf6f28d3	-2.1751427e-10
227	0x32ec212e	2.7489104e-08
228	0xb078bac7	-9.04873e-10
229	0xb321ced9	-3.767386e-08
230	0x30b417ee	1.3103525e-09
231	0xaec97566	-9.161276e-11
232	0x2eac7a44	7.843373e-11
233	0x2d8d335a	1.6052649e-11
234	0x30b42c15	1.3109253e-09
235	0xaf9c11f9	-2.8389005e-10
236	0x302263f1	5.907728e-10
237	0xaf0c1a48	-1.2742263e-10
238	0x2f30ce04	1.6080298e-10
239	0xb0240335	-5.966741e-10
240	0x30511064	7.605705e-10
241	0xb355d21e	-4.9784028e-08
242	0xb14bb2f0	-2.9642102e-09
243	0x2f39adf8	1.6887458e-10
244	0x301ffdd6	5.8204586e-10
245	0xb0ef1113	-1.7394391e-09
246	0x310ce868	2.050479e-09
247	0xaea453ed	-7.472765e-11
248	0xb0781f14	-9.026604e-10
249	0xaa752503	-2.1773212e-13
250	0xad0e6a4f	-8.095371e-12
251	0xac1da4d4	-2.240254e-12
252	0xb19935b3	-4.458991e-09
253	0xb2154346	-8.688238e-09
254	0x30fbd9a5	1.8324512e-09
255	0x2e3f0132	4.3429434e-11

fai_gcn_networks.0.gcn.conv.bias f4 [96]
0	0x30b3567c	1.3048544e-09
1	0xade0cc7b	-2.555666e-11
2	0x32101452	8.3865235e-09
3	0x32ef1dd7	2.7836832e-08
4	0x30f10c8a	1.7538622e-09
5	0xb1883ef6	-3.9652788e-09
6	0x32487383	1.16677965e-08
7	0x2ea1412d	7.33301e-11
8	0xb1430edf	-2.8384688e-09
9	0xb29234bb	-1.7020616e-08
10	0x3407ecc0	1.2658984e-07
11	0xae018853	-2.9452284e-11
12	0xb0fb485e	-1.8283222e-09
13	0x31b4c14e	5.2606657e-09
14	0x31c41cdd	5.707632e-09
15	0x31d938cd	6.3219887e-09
16	0xb1644966	-3.322009e-09
17	0xb1421282	-2.8241236e-09
18	0x31818e6c	3.7705856e-09
19	0x32b13f0a	2.0634179e-08
20	0xb281a5b7	-1.5092935e-08
21	0x2e8bf296	6.36408e-11
22	0x30aa0d84	1.2372969e-09
23	0xb079831f	-9.0772007e-10
24	0x34354727	1.6882824e-07
25	0xb18ee43b	-4.1586907e-09
26	0xaf9fe9ff	-2.9088196e-10
27	0xb1c65de7	-5.773234e-09
28	0xb313bc83	-3.4397555e-08
29	0xb01bd9e4	-5.669831e-10
30	0xb161f061	-3.2878449e-09
31	0xb3e2593e	-1.0540178e-07
32	0x30cc604d	1.4870324e-09
33	0x30a7aba9	1.2199638e-09
34	0x3032aa92	6.499842e-10
35	0xb219ff89	-8.963874e-09
36	0x3158a377	3.1525056e-09
37	0xb197990b	-4.4120774e-09
38	0x32814639	1.504951e-08
39	0x2e2b000a	3.8880933e-11
40	0xb10b1590	-2.023942e-09
41	0xb28b6ab6	-1.6230256e-08
42	0x34975c14	2.8192937e-07
43	0xb0223b4e	-5.9019534e-10
44	0x334c7204	4.7601148e-08
45	0x2fba9853	3.3941436e-10
46	0x31d9a79b	6.3345857e-09
47	0x31fb3956	7.31158e-09
48	0xb140beb1	-2.8048073e-09
49	0xb1a09621	-4.6736806e-09
50	0x30d816e7	1.5722578e-09
51	0x331edd2b	3.6988393e-08
52	0xb27ff301	-1.4898206e-08
53	0x2e9227e3	6.6463966e-11
54	0x309fb920	1.1621388e-09
55	0xb1768a36	-3.5876275e-09
56	0x3416cbc4	1.4043968e-07
57	0xb1d00f8f	-6.0553655e-09
58	0xafd0335e	-3.7871478e-10
59	0x31915e2f	4.230763e-09
60	0xb31cec60	-3.6536562e-08
61	0xb177f14d	-3.6080394e-09
62	0xb192b55d	-4.269778e-09
63	0xb3cfc58b	-9.6751215e-08
64	0x2ff84af2	4.516419e-10
65	0x3093506a	1.0718513e-09
66	0xb0db15b0	-1.5940511e-09
67	0x33399feb	4.3219114e-08
68	0x308c9044	1.0227343e-09
69	0x30e41b59	1.6596956e-09
70	0xb2a5f755	-1.9321002e-08
71	0x2e9788f6	6.891014e-11
72	0x30d1f27a	1.5275667e-09
73	0x32a1ce53	1.8836692e-08
74	0xb392601a	-6.8161356e-08
75	0xafb4a4b5	-3.285884e-10
76	0xb337acc6	-4.2765144e-08
77	0xb1a2da15	-4.7396136e-09
78	0x2e978fa0	6.892198e-11
79	0xb1dbc55c	-6.396176e-09
80	0xb18ad81d	-4.040898e-09
81	0xb233de0f	-1.0469662e-08
82	0x2e4d3cac	4.666549e-11
83	0x320a7126	8.058384e-09
84	0xb22b13fb	-9.958053e-09
85	0x2caae617	4.8572357e-12
86	0x3005c1c1	4.866046e-10
87	0x310a4460	2.012051e-09
88	0xb42593d8	-1.5420608e-07
89	0xb12f7856	-2.5534255e-09
90	0x2d8999c7	1.5643388e-11
91	0xb16694b7	-3.355394e-09
92	0xb0d3f1b9	-1.5420972e-09
93	0xb0858dd0	-9.717329e-10
94	0x3178c481	3.620045e-09
95	0xb40b68da	-1.2983529e-07

fai_gcn_networks.1.gcn.conv.weight f4 [192, 32, 1, 1]
0	0x21a3bf34	1.1095921e-18
1	0xa2036f8e	-1.7812867e-18
2	0xa49adc35	-6.71599e-17
3	0xa352b1e0	-1.1421789e-17
4	0x2103504b	4.4490793e-19
5	0xb3515470	-4.87384e-08
6	0x26389703	6.4042483e-16
7	0x9e2f140e	-9.26857e-21
8	0x21edca54	1.61133e-18
9	0x262ff3c9	6.104571e-16
10	0x25e9207e	4.0441075e-16
11	0x23858a67	1.4478505e-17
12	0xa336bdf8	-9.906467e-18
13	0xa2bff1d9	-5.202672e-18
14	0x28800d17	1.4216532e-14
15	0x2200e32d	1.74675e-18
16	0x23e330bb	2.4632027e-17
17	0x21e259a9	1.5338089e-18
18	0xa140cd22	-6.532362e-19
19	0x237c81ea	1.3688458e-17
20	0xa267a573	-3.1393926e-18
21	0x2994d75b	6.6098785e-14
22	0xa3dfe74e	-2.427567e-17
23	0xa228938b	-2.2846354e-18
24	0xa51c2fed	-1.3547081e-16
25	0x259e296f	2.7436707e-16
26	0x9ebfdef0	-2.0315116e-20
27	0x22a007ae	4.337622e-18
28	0xa347b56f	-1.0826232e-17
29	0x2831599f	9.844907e-15
30	0x29cc8e27	9.0840794e-14
31	0x2347afb3	1.0825017e-17
32	0xa24d2ea4	-2.7807372e-18
33	0xa23924f4	-2.5091738e-18
34	0x253e5aa0	1.6510578e-16
35	0xa4898f75	-5.9657305e-17
36	0xad3b25ff	-1.0638156e-11
37	0x23954f7e	1.6188279e-17
38	0x24d18e04	9.0879885e-17
39	0xb70e80ad	-8.493819e-06
40	0x22584f2c	2.9315372e-18
41	0xa637dc99	-6.3789845e-16
42	0x235ebe33	1.207492e-17
43	0xa2f101fc	-6.532528e-18
44	0xa192fcae	-9.960229e-19
45	0xb56815c4	-8.645841e-07
46	0x286fd381	1.3313028e-14
47	0xac809b21	-3.6552016e-12
48	0x3744a5e5	1.1721136e-05
49	0xa3439a9a	-1.0603709e-17
50	0x23634ae1	1.2321551e-17
51	0x248e73b1	6.177867e-17
52	0x21ea957f	1.5896028e-18
53	0x2449c081	4.3747984e-17
54	0x2501ccb9	1.1258329e-16
55	0x294d9de6	4.56561e-14
56	0x25b507dc	3.140382e-16
57	0x274fb7fb	2.8826757e-15
58	0xb507d1ee	-5.0596907e-07
59	0xa287d799	-3.6820096e-18
60	0x23c6c025	2.154858e-17
61	0xa5f2255a	-4.2005619e-16
62	0x20e681db	3.9049447e-19
63	0x2ce335fc	6.4577215e-12
64	0xa2499045	-2.7316955e-18
65	0xa18df61c	-9.619676e-19
66	0xa5134a55	-1.2775402e-16
67	0x230c821a	7.616965e-18
68	0xb7b470db	-2.1510225e-05
69	0xa32d89c4	-9.407522e-18
70	0x23d0cd87	2.263845e-17
71	0x9f4ff857	-4.4039377e-20
72	0xa1cf2ce6	-1.403875e-18
73	0xa78d438b	-3.920859e-15
74	0x25526705	1.8249501e-16
75	0x349f7c70	2.9706598e-07
76	0xa3e9e97e	-2.5360798e-17
77	0xa26bd83c	-3.1962912e-18
78	0xaa663396	-2.0446001e-13
79	0xa3bb04e9	-2.027666e-17
80	0xa2863491	-3.637643e-18
81	0x22e79403	6.276939e-18
82	0x334e783a	4.8072458e-08
83	0xa4168c59	-3.2644944e-17
84	0xad71666d	-1.3722007e-11
85	0x2d0b5e7f	7.922218e-12
86	0xa5168a3a	-1.3057259e-16
87	0x32d2ee0f	2.4555474e-08
88	0xa57aa1b2	-2.1738828e-16
89	0xa77a16bc	-3.4706794e-15
90	0x1e66bf48	1.2215655e-20
91	0xa35091f8	-1.1306613e-17
92	0xa0e8c36f	-3.9431656e-19
93	0xa6dca444	-1.5310091e-15
94	0xa08f5e9e	-2.4287755e-19
95	0x23a409b4	1.7785025e-17
96	0xaa2e507e	-1.5482231e-13
97	0x2be15cd9	1.6012982e-12
98	0x2ef163a2	1.09771095e-10
99	0x2cfb2503	7.137958e-12
100	0x2b824116	9.25512e-13
101	0xaada10a8	-3.8736137e-13
102	0x2e97430a	6.8785935e-11
103	0xa8e4a764	-2.5385679e-14
104	0x2d56ee09	1.2217346e-11
105	0x2fd4db4f	3.8718403e-10
106	0x2ed9a8c4	9.897996e-11
107	0x2c688c19	3.3046953e-12
108	0x2e385637	4.191333e-11
109	0x2ca93d69	4.810087e-12
110	0x32d19ab1	2.4401148e-08
111	0x2d509623	1.1856768e-11
112	0x2c5bdc94	3.1244217e-12
113	0x2c94b664	4.2266624e-12
114	0x2d390cb5	1.0518854e-11
115	0x2e86ba7a	6.1267394e-11
116	0x2a3cafc3	1.6758734e-13
117	0x2fa9cb20	3.088525e-10
118	0x2ed48f4c	9.6660985e-11
119	0xac1b8974	-2.2103127e-12
120	0xb23c8a6c	-1.0974514e-08
121	0x31353b89	2.6372808e-09
122	0x28787cf3	1.37938595e-14
123	0x2dae68e3	1.9828089e-11
124	0x2d4e7366	1.1735368e-11
125	0x316b089f	3.4201901e-09
126	0x2b0f5f86	5.093637e-13
127	0x2c91bbd0	4.1419992e-12
128	0x9f198d0c	-3.251568e-20
129	0xa072ad47	-2.055553e-19
130	0xa33ac650	-1.01250745e-17
131	0xa21fecf1	-2.1673954e-18
132	0x20516fad	1.7739939e-19
133	0x20b6bf55	3.0958612e-19
134	0xa352381e	-1.1396006e-17
135	0x9df9be1b	-6.6106316e-21
136	0xa024d30a	-1.3961167e-19
137	0xa49bba63	-6.7536286e-17
138	0xa14e165f	-6.9825123e-19
139	0xa915800d	-3.3195712e-14
140	0xa0a99281	-2.8726662e-19
141	0x210124db	4.375568e-19
142	0x334b69bd	4.736079e-08
143	0xb08e4f4c	-1.0354397e-09
144	0xa16b8e13	-7.980913e-19
145	0xa0e6034b	-3.8965695e-19
146	0xa0ff8bc5	-4.3291172e-19
147	0xa216366a	-2.0357597e-18
148	0x9f082ddb	-2.883705e-20
149	0xa1bb934a	-1.27106e-18
150	0x21ae9785	1.1830806e-18
151	0x255dfb37	1.9253809e-16
152	0xa35effd5	-1.2088819e-17
153	0x24a55b0a	7.171157e-17
154	0x9a809da7	-5.319426e-23
155	0xa088cab2	-2.3173429e-19
156	0xaa4fabaf	-1.8444858e-13
157	0x2509cb59	1.1951753e-16
158	0xa8c26791	-2.1583241e-14
159	0xb873ee79	-5.815781e-05
160	0xad4f4575	-1.178201e-11
161	0x2cc967c5	5.7242843e-12
162	0xb12f08a8	-2.5470772e-09
163	0x2e66bc19	5.246301e-11
164	0x2c80bb61	3.658782e-12
165	0x2cea1163	6.6526103e-12
166	0x2f94a3e4	2.7037494e-10
167	0xaaca324b	-3.5917306e-13
168	0xae8c4f4b	-6.380548e-11
169	0x30c289ae	1.4154489e-09
170	0x2f8c9ae3	2.5575905e-10
171	0x2d9a861e	1.7567333e-11
172	0x2fe6cdbf	4.1982948e-10
173	0xb4ba096b	-3.4652052e-07
174	0x35d134b3	1.5587051e-06
175	0x2df5434f	2.7883166e-11
176	0x2db21c35	2.0248784e-11
177	0x2d5b5b78	1.2469019e-11
178	0x2e0a8e47	3.1503935e-11
179	0x2f6a301a	2.1299265e-10
180	0x2a846745	2.3519568e-13
181	0x2f95524e	2.7161423e-10
182	0x2f8d7cec	2.5736513e-10
183	0xb6c81402	-5.9627937e-06
184	0x30d3a32d	1.5398648e-09
185	0x3251d753	1.221436e-08
186	0x29908305	6.417613e-14
187	0x2d2bb563	9.760501e-12
188	0x2eb90f3d	8.415533e-11
189	0x3247609c	1.1605291e-08
190	0x2ba5e225	1.1786723e-12
191	0x2c9b2238	4.409164e-12
192	0xaa3cb914	-1.6761966e-13
193	0xb490b9aa	-2.6957179e-07
194	0x2ecb2e78	9.239626e-11
195	0x2e8ab86e	6.308275e-11
196	0x2b312111	6.292892e-13
197	0x2bf2bd7a	1.7247725e-12
198	0xb14b4ac6	-2.9582892e-09
199	0x2918f6e6	3.396493e-14
200	0x2d2a8748	9.69342e-12
201	0x2fe84cf6	4.2255238e-10
202	0x2e53056c	4.798066e-11
203	0x2c90c033	4.1140646e-12
204	0x2dc5aaa7	2.2472092e-11
205	0x2cf7b7f7	7.0405864e-12
206	0xb3bca9af	-8.7852975e-08
207	0x2f5c2829	2.0023151e-10
208	0x2c86634f	3.8195345e-12
209	0x2c9a7c4b	4.3907425e-12
210	0x308ea66c	1.037916e-09
211	0x2d47d8f5	1.13600145e-11
212	0x2ace2e4c	3.6625076e-13
213	0x2f806dea	2.3361163e-10
214	0x2e90a152	6.577018e-11
215	0xac3b664e	-2.6631089e-12
216	0x2f910c61	2.6384142e-10
217	0x313d4f6e	2.754827e-09
218	0x288644e7	1.490687e-14
219	0x31e2e464	6.6034307e-09
220	0x2da57a9e	1.8812781e-11
221	0x314db20d	2.9932636e-09
222	0xac6bb83a	-3.3497775e-12
223	0x2e05e1f5	3.044139e-11
224	0x2c80e53e	3.66343e-12
225	0x2ca21270	4.606364e-12
226	0x2f94a7f7	2.704039e-10
227	0x2def0b61	2.7176207e-11
228	0x2bb3a8a9	1.2765528e-12
229	0xaca2a9b4	-4.6231578e-12
230	0x2fb32ef8	3.2593284e-10
231	0xabf30cbf	-1.7269726e-12
232	0x2df9ae0d	2.8385317e-11
233	0x318b3276	4.051169e-09
234	0x2f807ed2	2.3373176e-10
235	0x2bcd6e43	1.459673e-12
236	0x2e8b0633	6.3220894e-11
237	0x2d988b79	1.7342338e-11
238	0x33fec9cc	1.1864503e-07
239	0x306ccc1b	8.614635e-10
240	0x2d92e3e1	1.6699477e-11
241	0x2d58a824	1.2315513e-11
242	0xabd8ecd0	-1.5413452e-12
243	0x2ec46ff9	8.9329384e-11
244	0x2c5977e6	3.0904112e-12
245	0x2faf559f	3.1893152e-10
246	0x3028a770	6.1355987e-10
247	0xb41aaf1d	-1.4406073e-07
248	0x3074833d	8.8953184e-10
249	0x321ef13b	9.25166e-09
250	0xaa11797b	-1.2920734e-13
251	0x2d7c43bb	1.4339581e-11
252	0x2f141fb5	1.3471786e-10
253	0x33b1fb95	8.287967e-08
254	0x2b6e6f99	8.470946e-13
255	0x2d293715	9.6187685e-12

fai_gcn_networks.1.gcn.conv.bias f4 [192]
0	0x3038e766	6.7267647e-10
1	0x30744b9c	8.887413e-10
2	0x315fb99c	3.2556278e-09
3	0x3b1733a9	0.0023071563
4	0x2e8224a8	5.918227e-11
5	0x3c11f4a3	0.008908424
6	0x3b09c08b	0.0021019306
7	0x3bed83e8	0.0072483905
8	0x3468e7ed	2.1691058e-07
9	0x302de480	6.326175e-10
10	0xb115e3e1	-2.1811888e-09
11	0x3bdc6aae	0.0067265844
12	0x318a5363	4.0258086e-09
13	0x3a9066d8	0.0011016978
14	0x3bb5285a	0.005528492
15	0x30603245	8.156216e-10
16	0xb09c26f8	-1.136157e-09
17	0x38f088b3	0.00011469554
18	0x3c150f0a	0.009097824
19	0x30d6bdfd	1.5624547e-09
20	0x3a037311	0.00050143996
21	0x3c045df6	0.008079043
22	0x3b89bed9	0.004203659
23	0x3911ad58	0.00013892853
24	0x3ba96532	0.005169534
25	0xb2856731	-1.5530164e-08
26	0x30131cc5	5.351917e-10
27	0x39d1b8f2	0.0004000138
28	0x2fea9c78	4.267553e-10
29	0x2e30965b	4.015131e-11
30	0xaeaed333	-7.9501204e-11
31	0x314b906d	2.9622484e-09
32	0x30b9cc9a	1.3518673e-09
33	0x3a4587f8	0.00075352145
34	0x3b8cac21	0.0042929803
35	0xb04831ef	-7.2830536e-10
36	0x3170c34d	3.5035612e-09
37	0x3b050e99	0.002030289
38	0x31246e85	2.3927964e-09
39	0x3a0cd04e	0.0005371616
40	0x3b14d0ff	0.002270758
41	0x2e98f637	6.955896e-11
42	0x31033d2d	1.9097783e-09
43	0xb1f26dc2	-7.055605e-09
44	0x3bcd579b	0.006266547
45	0x2f132df7	1.3385902e-10
46	0x3b6fd15c	0.0036593294
47	0x3667fb67	3.4568018e-06
48	0x3b80d0a7	0.0039311233
49	0x3ab9aa1f	0.001416508
50	0x308b5aae	1.0139354e-09
51	0x3b1717ca	0.002305495
52	0xab2614cb	-5.9003903e-13
53	0xa76526a5	-3.1801083e-15
54	0xb09de419	-1.1488083e-09
55	0xb4ac3b11	-3.2080473e-07
56	0x31334fd1	2.6093299e-09
57	0x3b10dfe7	0.0022106112
58	0x3b3e36ce	0.0029024365
59	0x3082ee13	9.52641e-10
60	0x3b8cffaf	0.004302941
61	0xae50cd32	-4.7475975e-11
62	0x314462e2	2.8577962e-09
63	0x2f759d51	2.233851e-10
64	0xafaf3504	-3.1869984e-10
65	0x3150bed0	3.0376448e-09
66	0x31154b98	2.1725324e-09
67	0x3b4a961c	0.0030912226
68	0x2c8b69e3	3.9623734e-12
69	0x3c3ae598	0.0114072785
70	0x3b389103	0.0028162606
71	0x3c196e3c	0.009364661
72	0x34a00fcf	2.9813825e-07
73	0xaf836730	-2.390208e-10
74	0xb158005a	-3.1432337e-09
75	0x3c0eb995	0.008711238
76	0x319d160a	4.571807e-09
77	0x3ac21bdb	0.0014809327
78	0x3bedab65	0.007253098
79	0x2f46d61d	1.8084063e-10
80	0xb0a98d66	-1.2336556e-09
81	0x392223e0	0.00015462888
82	0x3c3b6526	0.01143769
83	0x310ba06e	2.0318356e-09
84	0x3a30db03	0.00067465025
85	0x3c293e72	0.0103298295
86	0x3bb734b5	0.005591
87	0x39447eca	0.00018739249
88	0x3be03cf4	0.0068432037
89	0xb34b82ff	-4.738376e-08
90	0x2f4240d0	1.7667223e-10
91	0x3a0d32cb	0.0005386292
92	0x304c3375	7.428789e-10
93	0x2ed4c864	9.6762404e-11
94	0xaf39d7e6	-1.6902355e-10
95	0x313e17ac	2.7662095e-09
96	0x314f0bc7	3.012916e-09
97	0x3a84b1aa	0.0010123749
98	0x3bbad38a	0.005701487
99	0xb1227c12	-2.3644628e-09
100	0x312bb8ae	2.4988753e-09
101	0x3b323db3	0.002719742
102	0x31aba1c6	4.9951465e-09
103	0x3a3daaba	0.0007235218
104	0x3b47661e	0.0030425857
105	0x2f0b4200	1.2665424e-10
106	0x318bc4cd	4.067806e-09
107	0xb20efcb2	-8.322944e-09
108	0x3c06a89e	0.008218912
109	0xadf6283e	-2.7984833e-11
110	0x3b9ffb26	0.004882234
111	0x3699ce01	4.5837373e-06
112	0x3baba20f	0.0052378247
113	0x3af8ca98	0.0018981276
114	0x30edec63	1.7311205e-09
115	0x3b4a796c	0.0030895127
116	0xabac2aee	-1.223325e-12
117	0xacc1e419	-5.510714e-12
118	0xb0fd04d6	-1.8409547e-09
119	0xb4b73490	-3.412465e-07
120	0x311283d1	2.1320725e-09
121	0x3b42134c	0.0029613553
122	0x3b7e5c95	0.0038812507
123	0x2f8d6032	2.5716101e-10
124	0x3bbb9f81	0.0057258015
125	0xb0606d1e	-8.164579e-10
126	0x31b44c32	5.247352e-09
127	0xaf7edd52	-2.3179794e-10
128	0x318f4fbf	4.170914e-09
129	0xb08bd6b7	-1.0174607e-09
130	0x31dbbe09	6.3953434e-09
131	0x3a6877c6	0.0008867945
132	0x300f2725	5.2078725e-10
133	0x3b5cedc2	0.003371105
134	0x3a549edb	0.00081108295
135	0x3b328aab	0.0027243297
136	0x33de4bfe	1.03515035e-07
137	0x3187c504	3.951415e-09
138	0x310a5246	2.012841e-09
139	0x3b2523e4	0.0025198394
140	0x31b02fa1	5.127689e-09
141	0x39e0b093	0.00042856167
142	0x3b07f3af	0.0020744612
143	0x316c324f	3.4371117e-09
144	0x30926f7a	1.0654582e-09
145	0x38395c41	4.4193355e-05
146	0x3b62be8e	0.0034598443
147	0xb16f73bc	-3.4844865e-09
148	0x394d2a40	0.00019566063
149	0x3b475769	0.003041709
150	0x3ad0cceb	0.0015930211
151	0x3860bf41	5.358388e-05
152	0x3b003e68	0.0019568447
153	0x32a9c40e	1.9763345e-08
154	0x316e6cf5	3.4695493e-09
155	0x39235558	0.00015576684
156	0xb056f3ca	-7.819919e-10
157	0xae85bc7d	-6.081622e-11
158	0xae5c5fc3	-5.0107262e-11
159	0xb0586314	-7.872114e-10
160	0xb17179ed	-3.5139422e-09
161	0x399a6d04	0.00029454392
162	0x3ad471a2	0.0016208182
163	0x3133b270	2.6149358e-09
164	0xb1789005	-3.6170615e-09
165	0x3a4dc2b7	0.0007849144
166	0xb18d88ce	-4.119193e-09
167	0x395b5d40	0.00020920206
168	0x3a64f646	0.00087342074
169	0xaed90e96	-9.8706085e-11
170	0xb1693d9f	-3.394099e-09
171	0xb2f7c464	-2.8843893e-08
172	0x3b1adad5	0.002362897
173	0x3043ec5e	7.1276485e-10
174	0x3ab6e8f9	0.0013954929
175	0x35ed642d	1.7687031e-06
176	0x3ac3c34a	0.001493552
177	0x3a10bd28	0.00055213505
178	0xb07b775e	-9.14829e-10
179	0x3a682de9	0.0008856939
180	0xaa576ddc	-1.9133951e-13
181	0x8370e7bf	-7.0795693e-37
182	0xb0971cd6	-1.0994892e-09
183	0xb45b0b6e	-2.0400122e-07
184	0x31b7b87a	5.3469735e-09
185	0x3a5f55f8	0.0008519585
186	0x3a91da04	0.0011127596
187	0xaf2d880c	-1.5782592e-10
188	0x3ad677bc	0.0016362588
189	0xafab621e	-3.1174435e-10
190	0xb191b65b	-4.240787e-09
191	0x3149c914	2.936365e-09

fai_gcn_networks.1.residual.0.weight f4 [64, 32, 1, 1]
0	0xbc7f773d	-0.015592393
1	0xbc4e3058	-0.012584768
2	0xbb3f9820	-0.002923496
3	0x3d165aa1	0.036707524
4	0x3d1eda92	0.038782664
5	0xbc36b8d2	-0.011152463
6	0x3cd6cc26	0.026220392
7	0x3d04c5bc	0.032415137
8	0xbca29a4e	-0.019848969
9	0xbc859c96	-0.016310018
10	0x3c1670c4	0.009182159
11	0x3d095dad	0.0335366
12	0x3b309054	0.0026941495
13	0xbc251450	-0.010075644
14	0x3cf462fc	0.029832356
15	0x3c86844e	0.01642051
16	0x3d17101d	0.0368806
17	0x3c6fca2f	0.014635607
18	0xbc6b31f0	-0.014355168
19	0x3cb4e6e2	0.02208275
20	0xbc5615a4	-0.013066683
21	0x3c14a1e2	0.009071799
22	0x3cc450d5	0.023964325
23	0xbc040d69	-0.008059838
24	0xbcb0dcaf	-0.021589605
25	0x3c9bd227	0.019021107
26	0xbc856f61	-0.016288461
27	0x3c940c0c	0.01807215
28	0x3b144b99	0.0022628068
29	0x3aa18621	0.0012323299
30	0xbbc05849	-0.0058698994
31	0x3c98c657	0.018649263
32	0x3cc6d901	0.024273397
33	0x3cbc88d2	0.02301446
34	0xbd306eb2	-0.043074317
35	0xbc8b64ae	-0.017015781
36	0x3b6eb50a	0.0036423826
37	0x3c47d9e4	0.012197945
38	0x3d010cfc	0.031506523
39	0x3cdd2749	0.026996272
40	0xbc4425c2	-0.011971893
41	0x3b74178a	0.0037245476
42	0xba5f7d2c	-0.0008525427
43	0xbc9fe60e	-0.019518878
44	0xbd2d836a	-0.042361654
45	0x3c8f5147	0.01749481
46	0xbcedb838	-0.029018506
47	0x3bbfac72	0.0058494145
48	0x3b39befc	0.0028342595
49	0xbb96c4c2	-0.004601092
50	0xbc33c2b5	-0.010971715
51	0xbce4bef0	-0.027923077
52	0x3cee65fb	0.029101362
53	0x3b90ad63	0.0044152006
54	0x3c6da85b	0.014505471
55	0xbd1937fd	-0.03740691
56	0xbc1debe8	-0.009638764
57	0x3c986dc6	0.018607032
58	0xbc2da25b	-0.010597791
59	0x3cdb844f	0.026796488
60	0xbccfc825	-0.025363991
61	0xbd25b23c	-0.04045318
62	0x3c36b418	0.011151336
63	0x3c130c53	0.008975106
64	0xba9538d2	-0.0011384732
65	0xbbb0324d	-0.00537709
66	0x3bb227ad	0.0054368586
67	0x3c8c179b	0.0171011
68	0x3c43c5fc	0.011949059
69	0xbc07f1ff	-0.008297442
70	0x3c675a0a	0.014120588
71	0xbbf424f4	-0.007450694
72	0xbc7dc68c	-0.015489232
73	0x3c7f64e1	0.015588016
74	0xbc16110c	-0.009159338
75	0xbca9f707	-0.020747675
76	0xbc2bcbaf	-0.010485574
77	0x3b5ea58a	0.003397318
78	0xbba81756	-0.005129735
79	0xbc9379c0	-0.01800239
80	0xbc98f82d	-0.018673027
81	0xbd264a8b	-0.040598433
82	0xbb9e9ab5	-0.00484022
83	0xbc9da1ba	-0.019242156
84	0xbcfa7630	-0.030573934
85	0xbce25f3b	-0.0276333
86	0x3c57c85c	0.013170328
87	0xbc9dd27d	-0.019265408
88	0xbc8b2d30	-0.01698932
89	0xbbe07a5b	-0.0068505234
90	0xbbb57789	-0.0055379313
91	0x3c3915eb	0.01129673
92	0x3ce61bf7	0.028089507
93	0x3cda68ca	0.026661295
94	0xbbbfca9c	-0.0058530103
95	0xbca0a131	-0.019608112
96	0xbc948ff9	-0.018135058
97	0xbb4d0001	-0.003128052
98	0xbbd7c279	-0.0065844622
99	0x3cd88237	0.026429279
100	0xbc86bf4c	-0.01644864
101	0xbc0463f6	-0.008080473
102	0xbd31c12a	-0.043397106
103	0xbce7ab98	-0.028280064
104	0x3c297b80	0.010344386
105	0x3d06ea14	0.032938078
106	0xbc492735	-0.012277414
107	0xbc7bf28a	-0.01537765
108	0xba9e0436	-0.0012055698
109	0xbc5b8d90	-0.01340045
110	0x3cb56260	0.022141635
111	0xbccaeaea	-0.024770219
112	0xbaef43f9	-0.001825451
113	0xbca59cf8	-0.02021645
114	0x3d042f77	0.03227183
115	0x3cd57a92	0.026059423
116	0xbb05d6ed	-0.0020422295
117	0xbbd331dc	-0.0064451527
118	0x3c4e0f52	0.012576895
119	0x3c51a0dc	0.0127946995
120	0xbcba18f3	-0.022716975
121	0x3ccd411d	0.025055462
122	0x3c949a76	0.018140059
123	0x3b0fd340	0.0021945983
124	0x3cb5e2c1	0.022202851
125	0x3cdcdb64	0.026960082
126	0x3ca0d4e7	0.01963277
127	0xbb57dcb9	-0.0032937957
128	0x3c6613bc	0.014042791
129	0x3befae54	0.0073144827
130	0xbca17eb0	-0.01971373
131	0x3c957ffe	0.018249508
132	0x3c34c267	0.011032677
133	0x3ca06167	0.019577695
134	0xbbb4ac47	-0.005513701
135	0x3c63cc5d	0.0139037045
136	0xbba1b909	-0.004935388
137	0x3a24e66d	0.00062904396
138	0x3d36d855	0.044639904
139	0xbc069007	-0.00821305
140	0xbb1fea20	-0.0024401024
141	0x3c548dd3	0.012973267
142	0xbae81b6e	-0.001770837
143	0xbc07098d	-0.008242023
144	0xbb35ceca	-0.0027741664
145	0xbca5a3d2	-0.020219717
146	0xbc7d075e	-0.015443651
147	0xbbd5e499	-0.006527495
148	0xbae59dcf	-0.0017518344
149	0x3cb44ea0	0.022010148
150	0xbc81d772	-0.015849803
151	0x3a3f3add	0.0007294843
152	0xbc6bf645	-0.014401977
153	0x3cc38a54	0.02386967
154	0x3ca5fbb9	0.020261632
155	0x3ad16df4	0.0015978203
156	0xbc6548d5	-0.013994415
157	0x3c173ac6	0.009230321
158	0xbc44ebf3	-0.012019145
159	0xbd3bf8fc	-0.045891747
160	0xbc782b13	-0.015146988
161	0x3c13df9b	0.00902548
162	0x3cc93a60	0.024563968
163	0xbc75fc03	-0.015013698
164	0x3ca6ec30	0.020376295
165	0x3c3840b0	0.011245891
166	0xbb59c525	-0.003322908
167	0xbcd1a18a	-0.025589723
168	0xbce09e10	-0.02741912
169	0xbc967d3e	-0.018370267
170	0x3c8c6247	0.017136706
171	0xbc2a7449	-0.010403701
172	0xbc92afb4	-0.017906047
173	0xbaf04659	-0.0018331512
174	0x3cb036bd	0.021510476
175	0x3bce2b85	0.006291809
176	0xbc84ccf9	-0.01621102
177	0x3d79c800	0.06098175
178	0x3cd2b942	0.025723103
179	0x3c329c0b	0.010901461
180	0x3b3d61a7	0.0028897317
181	0x3cb3222a	0.021866877
182	0xbbcb6c37	-0.0062079686
183	0x3b9b6e58	0.0047433786
184	0x3c91de02	0.017806057
185	0x3bc68e29	0.0060594273
186	0xbcc96e79	-0.02458881
187	0xbca25377	-0.01981519
188	0xbc81e29b	-0.015855124
189	0xba6a6947	-0.0008942079
190	0x3c4a707b	0.012355919
191	0x3c38e1cb	0.011284302
192	0xbc80e4e8	-0.015734151
193	0xbae19e75	-0.0017213362
194	0xbd79e923	-0.061013352
195	0x3c79967b	0.015233631
196	0xbd1d2a29	-0.038370285
197	0x3ab1cc3c	0.0013564895
198	0xbc39a23d	-0.0113301845
199	0xbd1bc2f6	-0.038027726
200	0xbb7552ee	-0.0037433463
201	0xbc63f733	-0.013913917
202	0xbb8ea3b6	-0.004353012
203	0x3b1e2ebd	0.0024136745
204	0xbbacab09	-0.0052694124
205	0x3c48f70f	0.012265935
206	0x3c75afd4	0.014995534
207	0xbc65c132	-0.014023112
208	0x3d12201d	0.035675157
209	0x3c4fc7fc	0.012681957
210	0xbc5df258	-0.013546549
211	0xbb8ad981	-0.0042373543
212	0x3d874f12	0.06606878
213	0x3c3ee48b	0.011651169
214	0x3cc36e18	0.023856208
215	0x3bb9c815	0.0056696036
216	0xbc7a8e0b	-0.015292655
217	0x3a4542db	0.0007524916
218	0x3b96fb9c	0.004607631
219	0xbd01fef0	-0.031737268
220	0xbb339d7d	-0.0027407103
221	0x3b0bf88e	0.0021357867
222	0xbc541fe5	-0.012947057
223	0xbc8cec17	-0.01720242
224	0x3a9f8f3e	0.0012173427
225	0x3af97aa0	0.0019033737
226	0x3c558032	0.013031052
227	0xbce8fd2e	-0.028441038
228	0xbc308e73	-0.01077615
229	0xbc4fc8e1	-0.012682171
230	0xbb8f90a1	-0.004381255
231	0xbc170ce3	-0.009219381
232	0x3b71eb67	0.0036913992
233	0xbd0be14b	-0.034150403
234	0x3c4ddd3d	0.012564954
235	0x3cf02463	0.029314226
236	0x3c82d231	0.015969368
237	0x3a47f589	0.0007627835
238	0xbcb754f0	-0.022379369
239	0xbb958a04	-0.004563572
240	0x3bccff18	0.0062559955
241	0x3ca58521	0.020205082
242	0x3d1636bb	0.03667329
243	0xbc6b6170	-0.014366493
244	0x3c429269	0.011875727
245	0x3ba917ee	0.0051603233
246	0x3c297014	0.010341663
247	0xbbb4210d	-0.005497104
248	0x3c60f36e	0.013729913
249	0xbd3f2c4a	-0.046673097
250	0xbcb7afd0	-0.022422701
251	0x3bbe1ce6	0.005801785
252	0x3b7dd060	0.0038728938
253	0xbb4cc587	-0.0031245665
254	0x3c4004a0	0.011719853
255	0x3c9d1f9c	0.019180112

fai_gcn_networks.1.residual.0.bias f4 [64]
0	0x00000000	0.0
1	0x00000000	0.0
2	0x00000000	0.0
3	0x00000000	0.0
4	0x00000000	0.0
5	0x00000000	0.0
6	0x00000000	0.0
7	0x00000000	0.0
8	0x00000000	0.0
9	0x00000000	0.0
10	0x00000000	0.0
11	0x00000000	0.0
12	0x00000000	0.0
13	0x00000000	0.0
14	0x00000000	0.0
15	0x00000000	0.0
16	0x00000000	0.0
17	0x00000000	0.0
18	0x00000000	0.0
19	0x00000000	0.0
20	0x00000000	0.0
21	0x00000000	0.0
22	0x00000000	0.0
23	0x00000000	0.0
24	0x00000000	0.0
25	0x00000000	0.0
26	0x00000000	0.0
27	0x00000000	0.0
28	0x00000000	0.0
29	0x00000000	0.0
30	0x00000000	0.0
31	0x00000000	0.0
32	0x00000000	0.0
33	0x00000000	0.0
34	0x00000000	0.0
35	0x00000000	0.0
36	0x00000000	0.0
37	0x00000000	0.0
38	0x00000000	0.0
39	0x00000000	0.0
40	0x00000000	0.0
41	0x00000000	0.0
42	0x00000000	0.0
43	0x00000000	0.0
44	0x00000000	0.0
45	0x00000000	0.0
46	0x00000000	0.0
47	0x00000000	0.0
48	0x00000000	0.0
49	0x00000000	0.0
50	0x00000000	0.0
51	0x00000000	0.0
52	0x00000000	0.0
53	0x00000000	0.0
54	0x00000000	0.0
55	0x00000000	0.0
56	0x00000000	0.0
57	0x00000000	0.0
58	0x00000000	0.0
59	0x00000000	0.0
60	0x00000000	0.0
61	0x00000000	0.0
62	0x00000000	0.0
63	0x00000000	0.0

fai_gcn_networks.1.residual.1.weight f4 [64]
0	0x3f81e8b2	1.0149138
1	0x3f7d6802	0.9898683
2	0x3f8006bd	1.0002056
3	0x3f7d51e4	0.9895308
4	0x3f7c44e4	0.9854262
5	0x3f80556e	1.0026071
6	0x3f78f662	0.9725095
7	0x3f811737	1.008521
8	0x3f7a6986	0.97817266
9	0x3f7f44ee	0.99714553
10	0x3f836795	1.0265986
11	0x3f7c1973	0.9847633
12	0x3f81ec4b	1.0150236
13	0x3f7b87fc	0.9825437
14	0x3f83b423	1.0289348
15	0x3f805cc4	1.002831
16	0x3f810e1a	1.0082428
17	0x3f81c2c9	1.0137569
18	0x3f81c834	1.0139222
19	0x3f778f81	0.96703345
20	0x3f77b613	0.967622
21	0x3f815f62	1.0107234
22	0x3f800913	1.0002769
23	0x3f885d21	1.0653421
24	0x3f7cd7c4	0.9876673
25	0x3f77b847	0.9676556
26	0x3f7df9ba	0.9920918
27	0x3f83da9c	1.0301089
28	0x3f805b86	1.0027931
29	0x3f81fcde	1.0155294
30	0x3f7c2d85	0.9850696
31	0x3f82dab6	1.0222995
32	0x3f7e4875	0.9932931
33	0x3f82d447	1.0221032
34	0x3f83f827	1.0310105
35	0x3f802fbe	1.001457
36	0x3f7dcdf7	0.991424
37	0x3f83d8d8	1.030055
38	0x3f78d404	0.9719851
39	0x3f7e9032	0.99438775
40	0x3f7f52c9	0.99735695
41	0x3f8070d8	1.0034437
42	0x3f7cc6f8	0.987411
43	0x3f7c169b	0.98471993
44	0x3f8135ad	1.0094506
45	0x3f80a89d	1.0051457
46	0x3f76a3fe	0.9634398
47	0x3f81c7ad	1.0139061
48	0x3f83755c	1.027019
49	0x3f7d22e8	0.9888139
50	0x3f7f2852	0.996709
51	0x3f7cc0e0	0.98731804
52	0x3f78b7ce	0.97155464
53	0x3f7ea544	0.99470925
54	0x3f82c803	1.0217289
55	0x3f82a32d	1.0206047
56	0x3f811003	1.0083011
57	0x3f7bf90d	0.98426896
58	0x3f8218bf	1.0163802
59	0x3f803a42	1.0017779
60	0x3f7dfe21	0.99215895
61	0x3f81ab3e	1.0130384
62	0x3f7896ca	0.97105086
63	0x3f80974c	1.0046172

fai_gcn_networks.1.residual.1.bias f4 [64]
0	0x00000000	0.0
1	0x00000000	0.0
2	0x00000000	0.0
3	0x00000000	0.0
4	0x00000000	0.0
5	0x00000000	0.0
6	0x00000000	0.0
7	0x00000000	0.0
8	0x00000000	0.0
9	0x00000000	0.0
10	0x00000000	0.0
11	0x00000000	0.0
12	0x00000000	0.0
13	0x00000000	0.0
14	0x00000000	0.0
15	0x00000000	0.0
16	0x00000000	0.0
17	0x00000000	0.0
18	0x00000000	0.0
19	0x00000000	0.0
20	0x00000000	0.0
21	0x00000000	0.0
22	0x00000000	0.0
23	0x00000000	0.0
24	0x00000000	0.0
25	0x00000000	0.0
26	0x00000000	0.0
27	0x00000000	0.0
28	0x00000000	0.0
29	0x00000000	0.0
30	0x00000000	0.0
31	0x00000000	0.0
32	0x00000000	0.0
33	0x00000000	0.0
34	0x00000000	0.0
35	0x00000000	0.0
36	0x00000000	0.0
37	0x00000000	0.0
38	0x00000000	0.0
39	0x00000000	0.0
40	0x00000000	0.0
41	0x00000000	0.0
42	0x00000000	0.0
43	0x00000000	0.0
44	0x00000000	0.0
45	0x00000000	0.0
46	0x00000000	0.0
47	0x00000000	0.0
48	0x00000000	0.0
49	0x00000000	0.0
50	0x00000000	0.0
51	0x00000000	0.0
52	0x00000000	0.0
53	0x00000000	0.0
54	0x00000000	0.0
55	0x00000000	0.0
56	0x00000000	0.0
57	0x00000000	0.0
58	0x00000000	0.0
59	0x00000000	0.0
60	0x00000000	0.0
61	0x00000000	0.0
62	0x00000000	0.0
63	0x00000000	0.0

fai_gcn_networks.1.residual.1.running_mean f4 [64]
0	0x34bc1cde	3.5038732e-07
1	0xb4b1e06c	-3.3132108e-07
2	0xb33693fd	-4.250977e-08
3	0x34a748a6	3.1159033e-07
4	0x32b5a764	2.1147294e-08
5	0x3481d570	2.418342e-07
6	0x3428ec6f	1.5732233e-07
7	0xb4aeb724	-3.2543278e-07
8	0xb3fe4547	-1.1840398e-07
9	0x33d776fe	1.0033362e-07
10	0x3494e89d	2.7736397e-07
11	0xb4fc6dba	-4.7018494e-07
12	0xb38bdfea	-6.5134216e-08
13	0x32eec104	2.779462e-08
14	0xb40fa9dc	-1.3379707e-07
15	0x33bb2b93	8.715792e-08
16	0x34240b3d	1.5277779e-07
17	0x34cecd55	3.851989e-07
18	0x337a7333	5.8312434e-08
19	0xb4026f96	-1.2147788e-07
20	0x33e59b28	1.0691866e-07
21	0x33b551ab	8.4433246e-08
22	0x34080e23	1.267113e-07
23	0x3300bb06	2.997242e-08
24	0x340bf364	1.3033929e-07
25	0x33fd4361	1.1793487e-07
26	0xb456e492	-2.0013456e-07
27	0xb4a27a3f	-3.0263797e-07
28	0xb4cae34f	-3.779082e-07
29	0xb4013b20	-1.2035571e-07
30	0x34a40bdc	3.055601e-07
31	0xb41451a8	-1.381328e-07
32	0xb3aef48e	-8.1469906e-08
33	0xb4804ce2	-2.3897798e-07
34	0x33be5139	8.862339e-08
35	0xb1add779	-5.059459e-09
36	0x34c9c773	3.7584286e-07
37	0xb0bc59b6	-1.3704298e-09
38	0xb29ee2d5	-1.8496772e-08
39	0x33531ef0	4.9155403e-08
40	0x33b774de	8.5428596e-08
41	0xb4911c52	-2.702896e-07
42	0xb4a56ac2	-3.0811321e-07
43	0xb44a30d5	-1.8830481e-07
44	0xb42bbdcc	-1.5994664e-07
45	0xb483f54a	-2.4579123e-07
46	0x34851858	2.4790893e-07
47	0xaf4dd73e	-1.8721111e-10
48	0x343d881b	1.7651512e-07
49	0xb3f1c2ba	-1.12578576e-07
50	0xb2cbb25c	-2.3713419e-08
51	0x336bca1e	5.4899026e-08
52	0x33f5fd71	1.1454802e-07
53	0x3417804e	1.4109648e-07
54	0x33a20c10	7.545907e-08
55	0x3461d262	2.1031295e-07
56	0xb43706cb	-1.7045674e-07
57	0x3476fd81	2.300276e-07
58	0xb3d74b90	-1.00254624e-07
59	0xb2e8c534	-2.7098032e-08
60	0xb4f7676e	-4.608259e-07
61	0xb4a5c7d9	-3.0879053e-07
62	0x34348db9	1.6815365e-07
63	0xb4077753	-1.2616265e-07

fai_gcn_networks.1.residual.1.running_var f4 [64]
0	0x2a7ec0db	2.2626642e-13
1	0x2a89bc69	2.4466825e-13
2	0x28260b05	9.217241e-15
3	0x2a11f8b2	1.296487e-13
4	0x27917a4b	4.0378175e-15
5	0x2a0a3a15	1.2277013e-13
6	0x2985c599	5.940664e-14
7	0x2a08ea96	1.2160615e-13
8	0x289b8db6	1.7269914e-14
9	0x28b4d9bf	2.0078447e-14
10	0x29fc782b	1.1211894e-13
11	0x2b0ba0a9	4.960568e-13
12	0x274e5a09	2.863705e-15
13	0x2754357c	2.9449904e-15
14	0x295d80c0	4.918353e-14
15	0x292a07d7	3.7754383e-14
16	0x29047172	2.9408286e-14
17	0x2ac84c6b	3.5580162e-13
18	0x282012ac	8.885833e-15
19	0x293ad6bd	4.1486552e-14
20	0x283550d2	1.00650435e-14
21	0x281626d0	8.335089e-15
22	0x2933085e	3.975324e-14
23	0x28b25ed8	1.9803102e-14
24	0x29a784e4	7.4393427e-14
25	0x28133b27	8.172966e-15
26	0x29725ea5	5.3816885e-14
27	0x2a83cebd	2.3413728e-13
28	0x2a955547	2.652689e-13
29	0x2924bbff	3.6578376e-14
30	0x29efe87b	1.0654061e-13
31	0x291ad75f	3.4381674e-14
32	0x286c9c93	1.3134583e-14
33	0x29e81508	1.0306518e-13
34	0x27ba6b39	5.174162e-15
35	0x252a48a1	1.4769757e-16
36	0x2aad7b5b	3.0816568e-13
37	0x27505daa	2.8916574e-15
38	0x27f923b0	6.9150076e-15
39	0x27d5643c	5.922805e-15
40	0x28bc40d6	2.0900311e-14
41	0x29f34e76	1.08049786e-13
42	0x2a6bab57	2.0931638e-13
43	0x2a169805	1.3375419e-13
44	0x29b4362f	8.003005e-14
45	0x2a15f848	1.3319998e-13
46	0x2a8bbaab	2.4820887e-13
47	0x27561819	2.971153e-15
48	0x299444da	6.584464e-14
49	0x28fa6208	2.779809e-14
50	0x2811aa21	8.086008e-15
51	0x2706a170	1.8683751e-15
52	0x292b64a4	3.805692e-14
53	0x299b0051	6.8834376e-14
54	0x284308e3	1.08266015e-14
55	0x29efaf16	1.0644105e-13
56	0x28fa2950	2.7773492e-14
57	0x2a2d37e6	1.538488e-13
58	0x27edf114	6.604209e-15
59	0x25f08023	4.1720192e-16
60	0x2b0a014c	4.902925e-13
61	0x2a0bbfa6	1.2412171e-13
62	0x29b78018	8.149053e-14
63	0x2939bbb4	4.124106e-14
