capsule-6073072/code/work_dir/recognition/kinetics_skeleton/FAI_GCN/epoch120_model.pt (torch, 74070 bytes, 22 tensors)

A f4 [3, 18, 18]
0.25 0.0 0.0 0.0 0.0 0.0 0.0 0.0
0.0 0.0 0.0 0.0 0.0 0.0 0.0 0.0
0.0 0.0 0.0 0.25 0.0 0.0 0.0 0.0
0.0 0.0 0.0 0.0 0.0 0.0 0.0 0.0
0.0 0.0 0.0 0.0 0.0 0.0 0.25 0.0
0.0 0.0 0.0 0.0 0.0 0.0 0.0 0.0
0.0 0.0 0.0 0.0 0.0 0.0 0.0 0.0
0.0 0.33333334 0.0 0.0 0.0 0.0 0.0 0.0
0.0 0.0 0.0 0.0 0.0 0.0 0.0 0.0
0.0 0.0 0.0 0.0 0.5 0.0 0.0 0.0
0.0 0.0 0.0 0.0 0.0 0.0 0.0 0.0
0.0 0.0 0.0 0.0 0.0 0.0 0.0 0.25
0.0 0.0 0.0 0.0 0.0 0.0 0.0 0.0
0.0 0.0 0.0 0.0 0.0 0.0 0.0 0.0
0.0 0.0 0.33333334 0.0 0.0 0.0 0.0 0.0
0.0 0.0 0.0 0.0 0.0 0.0 0.0 0.0
0.0 0.0 0.0 0.0 0.0 0.5 0.0 0.0
0.0 0.0 0.0 0.0 0.0 0.0 0.0 0.0
0.0 0.0 0.0 0.0 0.0 0.0 0.0 0.0
0.33333334 0.0 0.0 0.0 0.0 0.0 0.0 0.0
0.0 0.0 0.0 0.0 0.0 0.0 0.0 0.0
0.0 0.0 0.0 0.33333334 0.0 0.0 0.0 0.0
0.0 0.0 0.0 0.0 0.0 0.0 0.0 0.0
0.0 0.0 0.0 0.0 0.0 0.0 0.5 0.0
0.0 0.0 0.0 0.0 0.0 0.0 0.0 0.0
0.0 0.0 0.0 0.0 0.0 0.0 0.0 0.0
0.0 0.33333334 0.0 0.0 0.0 0.0 0.0 0.0
0.0 0.0 0.0 0.0 0.0 0.0 0.0 0.0
0.0 0.0 0.0 0.0 0.33333334 0.0 0.0 0.0
0.0 0.0 0.0 0.0 0.0 0.0 0.0 0.0
0.0 0.0 0.0 0.0 0.0 0.0 0.0 0.5
0.0 0.0 0.0 0.0 0.0 0.0 0.0 0.0
00000000: 0000 803e 0000 0000 0000 0000 0000 0000
00000010: 0000 0000 0000 0000 0000 0000 0000 0000
00000020: 0000 0000 0000 0000 0000 0000 0000 0000
00000030: 0000 0000 0000 0000 0000 0000 0000 0000
00000040: 0000 0000 0000 0000 0000 0000 0000 803e
00000050: 0000 0000 0000 0000 0000 0000 0000 0000
00000060: 0000 0000 0000 0000 0000 0000 0000 0000
00000070: 0000 0000 0000 0000 0000 0000 0000 0000
00000080: 0000 0000 0000 0000 0000 0000 0000 0000
00000090: 0000 0000 0000 0000 0000 803e 0000 0000
000000a0: 0000 0000 0000 0000 0000 0000 0000 0000
000000b0: 0000 0000 0000 0000 0000 0000 0000 0000
000000c0: 0000 0000 0000 0000 0000 0000 0000 0000
000000d0: 0000 0000 0000 0000 0000 0000 0000 0000
000000e0: 0000 0000 abaa aa3e 0000 0000 0000 0000
000000f0: 0000 0000 0000 0000 0000 0000 0000 0000
00000100: 0000 0000 0000 0000 0000 0000 0000 0000
00000110: 0000 0000 0000 0000 0000 0000 0000 0000
00000120: 0000 0000 0000 0000 0000 0000 0000 0000
00000130: 0000 003f 0000 0000 0000 0000 0000 0000
00000140: 0000 0000 0000 0000 0000 0000 0000 0000
00000150: 0000 0000 0000 0000 0000 0000 0000 0000
00000160: 0000 0000 0000 0000 0000 0000 0000 0000
00000170: 0000 0000 0000 0000 0000 0000 0000 803e
00000180: 0000 0000 0000 0000 0000 0000 0000 0000
00000190: 0000 0000 0000 0000 0000 0000 0000 0000
000001a0: 0000 0000 0000 0000 0000 0000 0000 0000
000001b0: 0000 0000 0000 0000 0000 0000 0000 0000
000001c0: 0000 0000 0000 0000 abaa aa3e 0000 0000
000001d0: 0000 0000 0000 0000 0000 0000 0000 0000
000001e0: 0000 0000 0000 0000 0000 0000 0000 0000
000001f0: 0000 0000 0000 0000 0000 0000 0000 0000
00000200: 0000 0000 0000 0000 0000 0000 0000 0000
00000210: 0000 0000 0000 003f 0000 0000 0000 0000
00000220: 0000 0000 0000 0000 0000 0000 0000 0000
00000230: 0000 0000 0000 0000 0000 0000 0000 0000
00000240: 0000 0000 0000 0000 0000 0000 0000 0000
00000250: 0000 0000 0000 0000 0000 0000 0000 0000
00000260: abaa aa3e 0000 0000 0000 0000 0000 0000
00000270: 0000 0000 0000 0000 0000 0000 0000 0000
00000280: 0000 0000 0000 0000 0000 0000 0000 0000
00000290: 0000 0000 0000 0000 0000 0000 0000 0000
000002a0: 0000 0000 0000 0000 0000 0000 abaa aa3e
000002b0: 0000 0000 0000 0000 0000 0000 0000 0000
000002c0: 0000 0000 0000 0000 0000 0000 0000 0000
000002d0: 0000 0000 0000 0000 0000 0000 0000 0000
000002e0: 0000 0000 0000 0000 0000 0000 0000 0000
000002f0: 0000 0000 0000 0000 0000 003f 0000 0000
00000300: 0000 0000 0000 0000 0000 0000 0000 0000
00000310: 0000 0000 0000 0000 0000 0000 0000 0000
00000320: 0000 0000 0000 0000 0000 0000 0000 0000
00000330: 0000 0000 0000 0000 0000 0000 0000 0000
00000340: 0000 0000 abaa aa3e 0000 0000 0000 0000
00000350: 0000 0000 0000 0000 0000 0000 0000 0000
00000360: 0000 0000 0000 0000 0000 0000 0000 0000
00000370: 0000 0000 0000 0000 0000 0000 0000 0000
00000380: 0000 0000 0000 0000 0000 0000 0000 0000
00000390: abaa aa3e 0000 0000 0000 0000 0000 0000
000003a0: 0000 0000 0000 0000 0000 0000 0000 0000
000003b0: 0000 0000 0000 0000 0000 0000 0000 0000
000003c0: 0000 0000 0000 0000 0000 0000 0000 0000
000003d0: 0000 0000 0000 0000 0000 0000 0000 003f
000003e0: 0000 0000 0000 0000 0000 0000 0000 0000
000003f0: 0000 0000 0000 0000 0000 0000 0000 0000

data_bn.weight f4 [54]
0.8696354 0.9110592 0.8422891 0.8661422 0.8830288 0.91112125 0.89403945 0.85753024
0.85639334 0.89250445 0.87826717 0.87877697 0.879224 0.8502419 0.87636715 0.81969965
0.90613616 0.82935363 0.85796124 0.8825081 0.8922797 0.8774624 0.9032874 0.8720576
0.85403466 0.88069594 0.8814352 0.87303835 0.85904765 0.859902 0.8730675 0.8496849
0.8594156 0.90826243 0.87853867 0.8916711 0.85849535 0.8593102 0.87737226 0.855768
0.8476017 0.8311697 0.8056883 0.9006117 0.89591753 0.89100647 0.86859983 0.897667
0.9119332 0.85762876 0.8887036 0.8681902 0.89635015 0.8780032
00000000: 6da0 5e3f 2d3b 693f 42a0 573f 7fbb 5d3f
00000010: 2d0e 623f 3e3f 693f c5df 643f 1a87 5b3f
00000020: 983c 5b3f 2c7b 643f 1ed6 603f 87f7 603f
00000030: d314 613f 74a9 593f 9959 603f d6d7 513f
00000040: 8af8 673f 8550 543f 59a3 5b3f 0dec 613f
00000050: 716c 643f 60a1 603f d83d 673f 2b3f 5f3f
00000060: 04a2 5a3f 4a75 613f bda5 613f 717f 5f3f
00000070: 8cea 5b3f 8a22 5c3f 5a81 5f3f f384 593f
00000080: a902 5c3f e383 683f e9e7 603f 8f44 643f
00000090: 5ac6 5b3f c1fb 5b3f 789b 603f 9d13 5b3f
000000a0: 6dfc 583f 8ac7 543f 9741 4e3f 7d8e 663f
000000b0: da5a 653f 0019 643f 8f5c 5e3f 81cd 653f
000000c0: 7474 693f 8f8d 5b3f 1482 633f b741 5e3f
000000d0: 3477 653f d1c4 603f

data_bn.bias f4 [54]
5.2752896e-10 6.772571e-09 2.1038649e-10 -1.2917414e-09 5.413719e-09 5.4365977e-11 1.6979913e-09 4.5471604e-09
2.5839242e-10 1.2798239e-09 4.0014054e-09 5.924581e-10 -3.8154275e-09 1.6636458e-09 -3.2584907e-10 8.0925533e-10
7.6293984e-09 1.9020104e-10 4.7792557e-09 5.7919665e-09 1.8545714e-10 -6.637614e-11 3.824995e-09 -2.8541122e-10
6.0609797e-09 3.473129e-09 5.084107e-11 3.5490178e-08 3.2859795e-09 2.1087172e-09 -3.817672e-09 2.7322722e-09
1.245819e-09 5.883476e-09 4.354776e-09 5.9730004e-10 -1.2774565e-09 2.7104057e-09 1.5800923e-09 -5.5374544e-10
4.0758015e-09 1.4129655e-09 2.3427995e-09 7.570045e-09 3.9764875e-10 2.741631e-09 6.578531e-09 4.47454e-10
2.1791318e-09 4.247312e-09 -6.268819e-11 5.935944e-10 4.3223793e-09 -3.3379005e-10
00000000: 8d01 1130 2ab4 e831 8852 672f 1c89 b1b0
00000010: 9303 ba31 a61a 6f2e c25e e930 3f3d 9c31
00000020: 800d 8e2f cde5 af30 bc7c 8931 88da 2230
00000030: db18 83b1 55a6 e430 2e23 b3af 4872 5e30
00000040: 7312 0332 d520 512f c736 a431 ad02 c731
00000050: 8be9 4b2f 72f6 91ae 036d 8331 0fe8 9caf
00000060: f140 d031 eeab 6e31 f599 5f2e dd6d 1833
00000070: 90cf 6131 f2e8 1031 992c 83b1 a4c2 3b31
00000080: 5c39 ab30 9a27 ca31 04a1 9531 412f 2430
00000090: 8192 afb0 f641 3a31 8e2a d930 5f36 18b0
000000a0: 210b 8c31 4e32 c230 f7fe 2031 690d 0232
000000b0: 169c da2f 4867 3c31 5f09 e231 8dfd f52f
000000c0: b1bf 1531 c0ef 9131 50da 89ae 7e2a 2330
000000d0: 0d84 9431 c680 b7af

data_bn.running_mean f4 [54]
0.033063363 -0.069604285 0.13501883 0.032209147 -0.055857502 0.12881793 0.023240086 -0.057951476
0.11708099 0.014941532 -0.05009325 0.11478036 0.013989951 -0.052254185 0.109891005 0.040970672
-0.05371464 0.11895506 0.046259776 -0.043499164 0.10830345 0.046234127 -0.045776382 0.10355268
0.023497121 -0.02468741 0.09525103 0.017784566 -0.020962585 0.1009346 0.024246516 -0.0040121013
0.09145274 0.034310866 -0.022689415 0.094643645 0.0395999 -0.019044338 0.09277529 0.033690948
-0.0035425595 0.07812617 0.031029018 -0.073325574 0.13119231 0.036471657 -0.07206485 0.13723116
0.02943781 -0.063070565 0.08920548 0.040411036 -0.066689886 0.10610633
00000000: 736d 073d b18c 8ebd 6042 0a3e bded 033d
00000010: d6ca 64bd d9e8 033e fe61 be3c 875e 6dbd
00000020: 28c8 ef3d 54cd 743c 942e 4dbd f711 eb3d
00000030: 1c36 653c 7c08 56bd 890e e13d ddd0 273d
00000040: e203 5cbd b69e f33d e47a 3d3d 2e2c 32bd
00000050: 33ce dd3d ff5f 3d3d 0480 3bbd 6d13 d43d
00000060: 097d c03c 403d cabc f912 c33d f0b0 913c
00000070: bab9 abbc cdb6 ce3d a1a0 c63c f277 83bb
00000080: 934b bb3d 8d89 0c3d 27df b9bc 87d4 c13d
00000090: 8133 223d df02 9cbc f900 be3d 85ff 093d
000000a0: 492a 68bb 9d00 a03d 9130 fe3c b82b 96bd
000000b0: 4757 063e 4e63 153d bc96 93bd 5386 0c3e
000000c0: 9027 f13c 242b 81bd 5db1 b63d 0b86 253d
000000d0: b594 88bd 474e d93d

data_bn.running_var f4 [54]
0.0042028567 0.012396155 0.06684016 0.0040694033 0.009882773 0.06029854 0.0050130053 0.009743385
0.04970604 0.0065744244 0.008900234 0.05035531 0.0070484313 0.008977381 0.046875168 0.0036909708
0.010075957 0.051831134 0.0037172798 0.010238096 0.047409542 0.004095923 0.01251282 0.043894064
0.0051109847 0.00882855 0.03317771 0.0061626746 0.0075804624 0.04312762 0.0052666445 0.009987287
0.036738925 0.0040402007 0.009583227 0.03239699 0.004240097 0.007956514 0.036260925 0.0040664384
0.010036175 0.029693084 0.004286317 0.01328356 0.062616125 0.003954358 0.013089324 0.06805543
0.004034691 0.012483922 0.04447977 0.0035486992 0.012244497 0.052928768
00000000: 1eb8 893b 3e19 4b3c 7ee3 883d a158 853b
00000010: 5beb 213c 9afb 763d 2344 a43b b8a2 1f3c
00000020: 9098 4b3d 456e d73b 49d2 113c 5f41 4e3d
00000030: 87f6 e63b dd15 133c 2d00 403d 37e4 713b
00000040: a015 253c e24c 543d 9b9d 733b b0bd 273c
00000050: 8230 423d 1837 863b 9202 4d3c 43ca 333d
00000060: 0c7a a73b 9fa5 103c 5ae5 073d 43f0 c93b
00000070: 8765 f83b 96a6 303d d193 ac3b b8a1 233c
00000080: 8e7b 163d a963 843b f802 1d3c b5b2 043d
00000090: 83f0 8a3b 0a5c 023c 5686 143d c23f 853b
000000a0: c56e 243c e93e f33c 3c74 8c3b 4aa3 593c
000000b0: e23c 803d 8f93 813b 9b74 563c a560 8b3d
000000c0: 7135 843b 5d89 4c3c 6b30 363d 4b91 683b
000000d0: 259d 483c d6cb 583d

fai_gcn_networks.0.gcn.conv.weight f4 [96, 3, 1, 1]
-1.3603346e-06 -3.6174856e-07 -4.5024046e-10 -1.14547865e-08 1.0246403e-08 -3.1516807e-09 9.220453e-13 5.217154e-13
-1.2575714e-13 -1.1119688e-07 4.2871352e-07 -1.4437275e-06 4.23161e-12 -8.1574484e-07 4.8009605e-07 3.043878e-06
1.1842075e-06 2.9042536e-07 -9.159865e-06 -2.3324189e-07 -2.6273995e-07 -1.9716114e-07 -4.615956e-07 1.1535727e-07
-2.066226e-07 -7.21526e-05 6.660306e-07 -8.4048166e-05 -7.193247e-08 -4.193671e-07 0.00090655836 1.5548075e-07
1.1483565e-06 -5.8009326e-09 2.3555168e-08 1.3216443e-08 -9.893536e-07 -7.463102e-08 -1.6244964e-07 -2.4902307e-05
-6.230804e-07 4.1199e-09 2.2472128e-12 -6.9284866e-13 -1.4826417e-13 -2.0174157e-07 5.4338266e-06 -4.1165805e-07
-1.6485448e-06 -7.8487176e-07 3.1376019e-06 2.4085166e-08 3.904561e-09 1.5082374e-09 1.7262719e-05 -1.3323509e-07
-2.3711559e-07 3.023255e-07 1.2823288e-06 1.4353974e-07 -4.202709e-08 3.049487e-08 -7.043605e-08 -4.0656783e-08
2.1025712e-10 -1.111906e-07 1.3726012e-06 4.0670201e-07 1.9869903e-07 1.7811133e-06 -1.14959796e-07 -1.04260636e-07
-3.915417e-07 -1.452461e-06 8.564474e-07 -1.446649e-06 -5.2777127e-06 1.098132e-06 1.731097e-06 9.16522e-06
-2.1554758e-06 -2.0350615e-06 -0.00026241192 4.2357993e-07 2.1544425e-13 2.0898086e-13 -4.7331827e-13 3.164469e-07
-3.015591e-07 3.2736722e-07 9.3257256e-07 -6.2311705e-07 -5.6075056e-05 -0.00011020018 1.4697532e-07 2.9191804e-07
-1.862923e-06 3.6359314e-08 1.1313042e-07 -1.3608821e-08 1.8801433e-08 -4.1784882e-09 6.149436e-13 1.0093071e-12
-3.0951272e-13 -1.0505158e-07 1.6214179e-07 -4.8066477e-07 -7.604547e-07 -6.7044376e-10 1.0513413e-08 1.0224457e-05
1.1715276e-06 3.4331413e-07 3.1977855e-08 1.2196818e-07 -7.576464e-08 -4.2521368e-08 -5.077836e-07 1.143633e-07
-3.5480425e-06 -5.749366e-06 1.3582443e-06 1.2041342e-06 9.32604e-07 3.4155403e-07 6.778544e-06 2.9899861e-06
1.538569e-06 -1.9301657e-08 -1.3905893e-08 4.8809596e-09 -7.6326114e-07 2.1020817e-07 -1.10480514e-07 -0.0011797646
-1.3299791e-06 -0.00010540382 -7.59888e-10 -5.6922817e-11 -6.7582606e-12 -5.0773015e-06 -1.2295331e-05 -2.6884595e-07
-1.9152208e-07 -4.086475e-06 -7.0225215e-05 1.0412077e-05 1.4395346e-07 -8.648395e-08 -1.3324167e-06 -4.4975334e-07
-2.1047068e-08 2.9949945e-07 3.620419e-05 3.8628065e-07 -4.88396e-09 1.8258763e-08 -6.271137e-08 1.3081856e-07
-2.9172423e-08 -2.0228588e-06 -0.00026100478 1.9240092e-07 5.486404e-07 -8.764858e-07 -2.6562873e-07 -1.18989774e-07
-5.0248733e-08 -1.5591506e-06 5.5902586e-07 -1.5738809e-06 -0.0008175578 -3.3530148e-07 5.691059e-06 0.00021289625
-1.3392979e-06 -4.068197e-06 -5.113011e-06 1.1033651e-07 1.04532126e-13 1.2386389e-12 -1.0891561e-12 3.6517446e-07
-2.4112148e-07 1.3017534e-07 -1.4147753e-06 2.718707e-07 1.7110972e-06 -2.8074983e-06 5.544637e-07 3.16652e-07
-5.285259e-06 7.776599e-07 3.0375662e-07 9.4008345e-07 5.378863e-09 3.625918e-11 2.814041e-13 4.706395e-13
-1.1673269e-13 2.682618e-08 -5.6704323e-07 -8.917416e-08 -6.578314e-12 -1.11471605e-11 -1.2578108e-10 7.2644593e-07
6.889314e-07 -3.0838928e-07 2.994493e-07 3.4081604e-09 9.235734e-08 -2.6293854e-08 1.2855333e-08 -4.1478216e-08
-1.2061663e-07 -1.9433894e-06 1.1287086e-06 3.187033e-07 -9.894775e-07 9.728887e-08 1.9253905e-06 -9.129377e-08
-3.5060966e-05 -1.8646238e-08 1.1689772e-08 -1.0162456e-05 4.588028e-06 -1.5440065e-08 3.3719922e-07 -2.8412042e-06
1.5574656e-07 -4.908552e-07 2.725163e-12 3.0721413e-12 -2.6603346e-12 5.359887e-06 1.2786504e-06 -1.720897e-07
-6.1652895e-06 -8.04071e-07 1.7848903e-06 1.3734059e-07 -1.7944007e-08 -1.4802416e-08 -4.821745e-07 -2.7175793e-07
4.1418534e-07 -3.9383355e-07 7.5435395e-07 -8.681153e-08 1.28751e-07 -1.1473159e-08 -1.5542936e-07 9.529927e-08
00000000: be94 b6b5 5836 c2b4 b685 f7af afca 44b2
00000010: 2808 3032 f494 58b1 2fc4 812b 8ed9 122b
00000020: 0797 0daa 22cb eeb3 f029 e634 19c6 c1b5
00000030: f4e2 942c 8ff9 5ab5 f3df 0035 6d45 4c36
00000040: 0ff1 9e35 c2eb 9b34 52ad 19b7 0b71 7ab4
00000050: b40e 8db4 3eb3 53b4 37d1 f7b4 54ba f733
00000060: fddb 5db4 a250 97b8 46c9 3235 0443 b0b8
00000070: 4b79 9ab3 6025 e1b4 1aa6 6d3a 39f2 2634
00000080: 3b21 9a35 8b51 c7b1 5d56 ca32 880e 6332
00000090: eec9 84b5 d644 a0b3 d16d 2eb4 4ce5 d0b7
000000a0: c241 27b5 068f 8d31 3022 1e2c 0205 43ab
000000b0: 3dee 26aa 4d9e 58b4 3754 b636 da01 ddb4
000000c0: 9143 ddb5 faaf 52b5 978f 5236 d7e3 ce32
000000d0: e228 8631 634a cf30 68cf 9037 620f 0fb4
000000e0: d699 7eb4 4d4f a234 7b1c ac35 e71f 1a34
000000f0: 4681 34b3 77f9 0233 a142 97b3 9b9e 2eb3
00000100: 1e2e 672f aec7 eeb3 383a b835 b358 da34
00000110: f959 5534 960e ef35 d1df f6b3 e4e5 dfb3
00000120: 1535 d2b4 2ef2 c2b5 9ee6 6535 7b2a c2b5
00000130: 3517 b1b6 8763 9335 0a58 e835 52c4 1937
00000140: cba6 10b6 1792 08b6 5594 89b9 6268 e334
00000150: 9491 722a a24a 6b2a 2d3a 05ab 21e4 a934
00000160: f8e5 a1b4 02c1 af34 e655 7a35 4744 27b5
00000170: 2232 6bb8 451b e7b8 45d0 1d34 e9b8 9c34
00000180: 8c09 fab5 7d29 1c33 1bf2 f233 3acc 69b2
00000190: ca80 a132 5f92 8fb1 5b17 2d2b 1f0c 8e2b
000001a0: 7c3d aeaa b898 e1b3 3219 2e34 0807 01b5
000001b0: 0d22 4cb5 494a 38b0 7b9e 3432 b589 2b37
000001c0: 623d 9d35 bc50 b834 0658 0933 5cf6 0234
000001d0: 0db4 a2b3 bda0 36b3 a04e 08b5 e497 f533
000001e0: e81a 6eb6 aeea c0b6 eb4c b635 bc9d a135
000001f0: 0f58 7a35 d45e b734 4073 e336 92a7 4836
00000200: d480 ce35 cbcc a5b2 c4e6 6eb2 60b5 a731
00000210: e8e2 4cb5 95b5 6134 4e41 edb3 55a2 9aba
00000220: bc81 b2b5 3f0c ddb8 5de0 50b0 6559 7aae
00000230: 00c9 edac b05d aab6 0b48 4eb7 e855 90b4
00000240: 30a5 4db4 8e1e 89b6 e045 93b8 88af 2e37
00000250: a091 1a34 0eb9 b9b3 7dd5 b2b5 a175 f1b4
00000260: feca b4b2 e4ca a034 f4d9 1738 0262 cf34
00000270: c4cf a7b1 72d7 9c32 f1ab 86b3 2277 0c34
00000280: d696 fab2 73c0 07b6 78d7 88b9 c396 4e34
00000290: 4846 1335 a547 6bb5 bc9b 8eb4 5287 ffb3
000002a0: 11d1 57b3 0244 d1b5 f70f 1635 233e d3b5
000002b0: 6051 56ba 7c03 b4b4 d3f5 be36 e73c 5f39
000002c0: edc1 b3b5 8c81 88b6 6e90 abb6 23f2 ec33
000002d0: ab62 eb29 ab52 ae2b fc48 99ab 320d c434
000002e0: 7c73 81b4 53c6 0b34 4fe3 bdb5 a0f5 9134
000002f0: daa8 e535 7468 3cb6 75d6 1435 5200 aa34
00000300: 0758 b1b6 62c0 5035 fe13 a334 0b5a 7c35
00000310: fbd0 b831 3578 1f2e 9b6a 9e2a 2679 042b
00000320: e86d 03aa 656f e632 ea36 18b5 0380 bfb3
00000330: 2f74 e7ac 591a 44ad 3a4c 0aaf fc00 4335
00000340: 01ef 3835 b390 a5b4 00c4 a034 fe34 6a31
00000350: fc55 c633 ccdc e1b2 5ada 5c32 c825 32b3
00000360: d982 01b4 2d6b 02b6 227e 9735 3f1a ab34
00000370: 30ce 84b5 1fed d033 f535 0136 480d c4b3
00000380: 6d0e 13b8 832b a0b2 29d4 4832 6b7f 2ab7
00000390: dcf2 9936 10a1 84b2 4f08 b534 84ab 3eb6
000003a0: 4a3b 2734 50c3 03b5 2cc4 3f2c c72e 582c
000003b0: 5434 3bac 14d9 b336 189e ab35 a8c7 38b4
000003c0: 6fdf ceb6 57d7 57b5 5d90 ef35 e577 1334
000003d0: 4a23 9ab2 b74d 7eb2 c86e 01b5 20e6 91b4
000003e0: 335d de34 1270 d3b4 cf7e 4a35 256d bab3
000003f0: ce3e 0a34 7d1b 45b2 19e4 26b4 54a7 cc33

fai_gcn_networks.0.gcn.conv.bias f4 [96]
-4.3109185e-06 3.9463284e-06 9.7011025e-06 1.9289113e-05 1.7455879e-05 6.330545e-06 1.6025601e-06 -1.7906558e-06
4.936867e-06 -3.1701126e-07 8.363326e-06 1.7278982e-05 -1.997429e-06 7.1952013e-06 3.460287e-05 -4.2629636e-06
-7.717355e-06 3.941351e-05 -1.3824476e-06 1.7138894e-06 -9.4802175e-08 2.5966058e-06 -1.9702454e-06 -1.2568121e-06
6.5439763e-06 1.07393935e-05 2.1385067e-05 5.727519e-06 4.6531945e-06 -2.4355809e-06 -3.5863673e-06 -1.4528014e-06
-4.929278e-06 1.0229034e-05 1.1655955e-05 2.3589902e-05 2.072436e-05 7.299406e-06 6.4303083e-07 -2.0103453e-06
9.050934e-06 -1.6915836e-06 1.1271183e-05 2.141216e-05 -2.2268366e-06 7.4765003e-06 5.302812e-05 -6.6159514e-06
-1.2907622e-05 4.9704726e-05 -1.5320359e-06 1.0436536e-06 -1.0790105e-07 3.0951999e-06 -2.7087526e-06 -8.687472e-07
8.118235e-06 8.64969e-06 2.9394858e-05 5.882299e-06 5.9554864e-06 -3.6378465e-06 -3.7338996e-06 -1.7197642e-06
-1.3302206e-06 3.8777084e-06 4.912533e-06 1.0106542e-05 7.805888e-06 3.0114934e-06 -4.4687025e-07 1.2331338e-06
3.564276e-06 -2.3397148e-07 4.9771716e-06 1.0382438e-05 -1.7756801e-06 7.1093887e-06 1.9062198e-05 6.0235952e-06
-9.280846e-07 1.6939883e-05 -7.5696425e-07 8.3761654e-07 -2.0616348e-07 1.6409222e-06 -7.3167337e-07 -7.925959e-07
1.6626376e-06 7.3843025e-06 8.6342225e-06 3.0565427e-06 2.1718722e-06 -1.3030424e-06 -1.5015999e-06 -8.590659e-08
00000000: 82a6 90b6 b46a 8436 ebc1 2237 0ecf a137
00000010: 376e 9237 f86a d436 8c17 d735 7756 f0b5
00000020: 5da7 a536 b231 aab4 3650 0c37 55f2 9037
00000030: 920b 06b6 4f6e f136 8c22 1138 940a 8fb6
00000040: ca79 01b7 ef4f 2538 8a8c b9b5 cb08 e635
00000050: 0c96 cbb3 5941 2e36 8f38 04b6 bcaf a8b5
00000060: 5494 db36 582d 3437 1564 b337 032f c036
00000070: a322 9c36 f672 23b6 52ad 70b6 e0fd c2b5
00000080: 2d66 a5b6 5e9d 2b37 f28d 4337 eee2 c537
00000090: 39d9 ad37 6ced f436 be9c 2c35 78e9 06b6
000000a0: 77d9 1737 5f0a e3b5 5d19 3d37 439e b337
000000b0: c370 15b6 a6de fa36 836a 5e38 97fe ddb6
000000c0: d08d 58b7 0b7a 5038 5aa0 cdb5 aa13 8c35
000000d0: 3bb7 e7b3 21b7 4f36 04c8 35b6 da33 69b5
000000e0: 8e33 0837 231e 1137 fa94 f637 9060 c536
000000f0: 3dd5 c736 ba21 74b6 e893 7ab6 a6d2 e6b5
00000100: 088a b2b5 431d 8236 56d6 a436 448f 2937
00000110: 09f6 0237 1019 4a36 61e9 efb4 2882 a535
00000120: cc31 6f36 9739 7bb4 9401 a736 3b30 2e37
00000130: e753 eeb5 2f8d ee36 c2e7 9f37 4a1e ca36
00000140: 7d21 79b5 1f1a 8e37 3032 4bb5 92d8 6035
00000150: c95d 5db4 a83d dc35 3668 44b5 c7c2 54b5
00000160: cb27 df35 adc6 f736 b4db 1037 011f 4d36
00000170: 7bc0 1136 32e4 aeb5 948a c9b5 a67b b8b3

fai_gcn_networks.1.gcn.conv.weight f4 [192, 32, 1, 1]
-7.7789423e-07 1.8092749e-07 4.9392423e-07 4.4395776e-07 5.705476e-07 2.207729e-07 8.226295e-08 1.0828766e-08
5.952656e-07 6.597688e-07 7.892776e-06 6.48269e-07 -1.8899996e-08 1.2440077e-05 1.8644962e-06 2.761461e-08
3.1934717e-09 8.840259e-07 9.028711e-08 3.1045087e-07 1.2520728e-07 7.1809055e-08 2.8215757e-06 1.1063179e-09
4.144187e-06 6.1371966e-06 3.1441402e-06 2.3395123e-06 1.5969483e-06 1.4079281e-09 1.7552149e-07 7.703285e-07
6.0667786e-09 1.5829993e-07 2.5566501e-07 5.4723824e-07 5.7780113e-07 -6.2419946e-05 -3.5097617e-06 -1.7249006e-08
5.389132e-06 9.959587e-07 6.7089704e-06 6.622901e-07 3.0457061e-09 1.065828e-05 1.0213956e-06 2.589002e-08
1.8602448e-07 0.0026323015 1.1695472e-07 3.1083195e-07 -7.7803204e-05 7.054031e-08 -0.00010091496 3.5577035e-08
3.6113588e-06 -7.424175e-07 2.6786594e-05 4.0304485e-08 1.95337e-07 2.438859e-09 1.5288714e-07 1.1886123e-06
2.8734717e-09 -3.3102077e-07 3.3203665e-07 4.6431168e-07 3.9374035e-07 2.1346631e-07 8.679567e-08 1.2139566e-08
6.802129e-07 8.5088936e-07 6.7479227e-06 7.468282e-07 5.4818203e-09 1.1046552e-05 1.0028203e-06 2.756619e-08
1.801193e-07 9.1703754e-07 9.980728e-08 3.2988845e-07 -2.1245763e-12 6.035952e-08 1.9378986e-06 4.49893e-09
3.5933333e-06 6.2180466e-06 2.303588e-06 2.4414235e-06 1.4789997e-07 1.2858753e-09 1.41534e-07 1.0019841e-06
5.7745964e-09 2.2530985e-07 3.842844e-07 5.1954873e-07 5.085345e-07 3.1885412e-07 7.666546e-08 -3.1245552e-08
6.1726234e-07 5.556132e-07 6.645529e-06 7.3183435e-07 5.817648e-09 1.017687e-05 8.774197e-07 3.5893915e-08
2.0862585e-07 9.688694e-07 9.896571e-08 3.1579663e-07 3.463978e-11 7.8691414e-08 2.6353757e-06 -5.8812725e-07
2.0443043e-05 6.6360203e-06 1.977957e-06 1.9559757e-06 1.9564355e-07 1.5193915e-09 1.5924259e-07 8.450514e-07
1.4732406e-09 6.416016e-09 1.1293607e-07 1.590087e-07 4.1536308e-07 7.543486e-08 -1.3504324e-07 3.0991072e-09
1.8906435e-07 2.2764313e-07 2.6815974e-06 3.0090482e-07 1.2850279e-09 4.0108966e-06 7.317022e-07 1.2655269e-08
7.2163985e-08 3.0577152e-07 3.431045e-08 1.2537411e-07 -3.0754725e-07 2.5714922e-08 7.4448747e-07 1.2943929e-10
1.2895403e-06 2.305042e-06 6.7969614e-07 1.3491253e-06 7.019412e-08 -9.7452885e-06 5.4646296e-08 2.8857752e-07
0.0007477413 1.7309014e-07 2.4686386e-07 4.833099e-07 5.503342e-07 1.7283793e-07 -1.1233616e-07 8.565979e-09
8.166247e-07 5.329677e-07 8.050638e-06 6.505582e-07 4.429995e-09 1.2343414e-05 -0.00059640245 4.0751534e-06
-0.00017475468 9.1646206e-07 8.896339e-08 3.8738636e-07 1.12224806e-10 6.140144e-08 2.2753527e-06 1.1696902e-09
3.4387883e-06 6.138156e-06 0.0013977572 1.8317224e-06 1.8451523e-07 1.664166e-09 -3.1081257e-08 8.639641e-07
2.9728702e-09 -2.573535e-07 -3.8227446e-07 4.5367463e-07 5.232246e-07 7.8979665e-06 1.0391995e-07 9.319613e-06
5.504335e-07 5.4544256e-07 7.1169006e-06 5.981434e-07 4.528638e-09 1.5555286e-05 1.916018e-06 2.546968e-08
1.8720976e-07 9.25882e-07 1.0720498e-07 3.816249e-07 2.6450288e-11 1.1558652e-07 1.8949482e-06 1.0412184e-09
3.455953e-06 6.1557967e-06 2.6598818e-06 2.6112687e-06 1.9442045e-07 7.1423876e-09 1.5516595e-07 9.046686e-07
-2.5460498e-08 1.4479065e-07 2.068464e-07 8.07502e-07 9.012401e-07 1.9972774e-07 -4.057976e-06 9.077388e-09
7.4084517e-07 6.6221736e-07 6.7687233e-06 7.164589e-07 3.8011034e-09 1.17994505e-05 1.5777137e-07 0.00012507697
1.7820466e-05 9.0261415e-07 1.059247e-07 3.0673704e-07 6.1086197e-12 1.0490618e-07 2.3293164e-06 4.5630205e-07
3.4031987e-06 8.329302e-06 -0.0004254511 1.8154847e-06 2.1942341e-07 6.094691e-10 1.6197643e-07 -0.0003198026
00000000: 7cd0 50b5 f844 4234 3796 0435 1759 ee34
00000010: bc27 1935 980d 6d34 89a8 b033 6b09 3a32
00000020: 57ca 1f35 f71a 3135 376b 0437 b504 2e35
00000030: 8859 a2b2 b9b5 5037 9a3f fa35 2b35 ed32
00000040: 2674 5b31 cc4d 6d35 dde3 c133 0bac a634
00000050: b770 0634 7235 9a33 4d5a 3d36 1a0d 9830
00000060: 4c0e 8b36 1eee cd36 ebff 5236 8400 1d36
00000070: ba56 d635 1181 c130 fb76 3c34 92c8 4e35
00000080: f373 d031 27f9 2934 5542 8934 ede5 1235
00000090: 311a 1b35 74e7 82b8 3f89 6bb6 f72a 94b2
000000a0: 4bd4 b436 e1ac 8535 9e1d e136 3bc8 3135
000000b0: a14c 5131 f7d0 3237 e316 8935 c264 de32
000000c0: 05be 4734 b182 2c3b 8a28 fb33 6be0 a634
000000d0: 472a a3b8 f27b 9733 4ea2 d3b8 5dcd 1833
000000e0: ac5a 7236 8b4a 47b5 c6b3 e037 401b 2d33
000000f0: d3bd 5134 dc98 2731 4c29 2434 6888 9f35
00000100: a676 4531 26b7 b1b4 c542 b234 8346 f934
00000110: 4363 d334 2c35 6534 6d64 ba33 608e 5032
00000120: e097 3635 ac68 6435 376c e236 a579 4835
00000130: 9a5a bc31 9454 3937 a598 8635 b1ca ec32
00000140: d166 4134 572a 7635 a255 d633 861b b134
00000150: f780 15ac ff9e 8133 d80c 0236 0295 9a31
00000160: ff24 7136 9da4 d036 5797 1a36 56d7 2336
00000170: 6fce 1e34 b7ba b030 92f8 1734 e97b 8635
00000180: e369 c631 b3ec 7134 a54f ce34 1e77 0b35
00000190: 3a82 0835 fa2e ab34 48a3 a433 d932 06b3
000001a0: f2b1 2535 7325 1535 a9fc de36 4673 4435
000001b0: 93e4 c731 53bd 2a37 d387 6b35 c729 1a33
000001c0: a302 6034 190a 8235 f986 d433 c28a a934
000001d0: ed58 182e 10fd a833 69db 3036 ccdf 1db5
000001e0: 1a7d ab37 fbaa de36 0bbd 0436 6843 0336
000001f0: 1712 5234 d6d2 d030 45fc 2a34 7dd7 6235
00000200: 0c7b ca30 e073 dc31 4387 f233 fbbb 2a34
00000210: 11ff de34 c1fe a133 6700 11b4 12f8 5431
00000220: 9d01 4b34 116e 7434 7ef5 3336 0b8c a134
00000230: e69c b030 5795 8636 316a 4435 766a 5932
00000240: 92f8 9a33 eb28 a434 bd5c 1333 939e 0634
00000250: f91c a5b4 b6e3 dc32 cad8 4735 ec51 0e2f
00000260: 4414 ad35 52b0 1a36 5d74 3635 9813 b535
00000270: a0bd 9633 b27f 23b7 3db4 6a33 cbed 9a34
00000280: 1204 443a a8da 3934 b688 8434 cebc 0135
00000290: aeba 1335 5495 3934 753d f1b3 9329 1332
000002a0: 0636 5b35 4311 0f35 3a11 0737 05a2 2e35
000002b0: a636 9831 8f16 4f37 e457 1cba 4dbd 8836
000002c0: 5a3e 37b9 cb02 7635 240c bf33 faf9 cf34
000002d0: f3c8 f62e ccdb 8333 43b2 1836 d1c2 a030
000002e0: efc5 6636 5cf6 cd36 f334 b73a 81d9 f535
000002f0: 291f 4634 a3b8 e430 347e 05b3 29eb 6735
00000300: 494b 4c31 652a 8ab4 673b cdb4 9190 f334
00000310: b973 0c35 8281 0437 992a df33 6f5b 1c37
00000320: 81c1 1335 876a 1235 b6cd ee36 1a90 2035
00000330: 529a 9b31 b97c 8237 f094 0036 6bc8 da32
00000340: d403 4934 208a 7835 9038 e633 20e2 cc34
00000350: c1a8 e82d 5d38 f833 ed55 fe35 9e1a 8f30
00000360: d2ec 6736 e48d ce36 6c80 3236 413d 2f36
00000370: e3c1 5034 1b69 f531 b19b 2634 5ad8 7235
00000380: 3ab4 dab2 c077 1b34 8119 5e34 1dc3 5835
00000390: c0ec 7135 be74 5634 c029 88b6 c6f2 1b32
000003a0: 7ede 4635 3bc3 3135 e41e e336 ae52 4035
000003b0: dc9a 8231 41f6 4537 dd67 2934 1827 0339
000003c0: 297d 9537 2c4b 7235 b878 e333 9ead a434
000003d0: 8eed d62c c848 e133 5a51 1c36 adf9 f434
000003e0: 8262 6436 14be 0b37 140f dfb9 94ab f335
000003f0: a69a 6b34 9387 2730 beeb 2d34 2eab a7b9

fai_gcn_networks.1.gcn.conv.bias f4 [192]
0.031679474 0.032497145 0.03232356 0.033147413 0.012371493 0.032547098 0.03227649 0.032123208
0.03263825 0.032625865 2.301389e-07 5.2246218e-08 0.03259231 -6.404035e-09 -9.592914e-07 0.03180997
0.007823092 0.030774463 0.02690384 -7.5258136e-08 0.02451511 0.032084364 0.014982202 0.0034632476
0.03265873 0.032353673 0.033206962 1.3969604e-07 2.4227159e-06 0.032107513 0.03219641 0.032401673
0.03147355 0.031825904 0.03254377 0.026745394 0.018225934 0.031277426 0.031588618 0.032690994
0.00012101167 1.3712655e-07 -1.025058e-05 3.0215826e-13 -3.7360466e-09 -1.4291301e-07 0.032134157 0.017866483
0.032542236 0.031928215 0.007622804 0.03198897 -1.2520861e-13 -1.676959e-07 0.032432422 0.03230107
0.032609835 0.03215223 0.032152627 0.03278512 0.004366624 0.030877072 6.4915156e-08 0.032554545
0.03654666 0.038081087 0.037795514 0.03744727 0.01476176 0.038155682 0.037760474 0.037281167
0.03809596 0.038299225 -6.66125e-08 -1.7959561e-08 0.03816487 -1.0356047e-08 -1.4576981e-06 0.037362892
0.009387381 0.03551697 0.03178476 -1.01344284e-07 0.029004566 0.03765738 0.017876392 0.0041818027
0.038299747 0.037829787 0.03840894 -3.403206e-08 1.0668703e-06 0.037528954 0.037270546 0.037826974
0.03647275 0.03742525 0.038174238 0.031609714 0.021655466 0.036227413 0.03667129 0.03837478
0.00014800634 -3.869937e-08 -1.6305608e-05 -2.1405452e-13 -4.185206e-09 -1.3652914e-07 0.037359808 0.021254169
0.03821146 0.036898877 0.00913704 0.03734765 -1.28963e-11 -2.1941997e-07 0.037857134 0.037560463
0.03826755 0.037602723 0.03742518 0.037199747 0.0052590608 0.036007356 -2.2769127e-08 0.03784188
0.016127598 0.016201759 0.016157933 0.01766725 0.0060702413 0.016232107 0.01612979 0.01620432
0.016348438 0.016261034 2.5915629e-06 7.890663e-07 0.016274352 1.9381723e-09 3.3761594e-07 0.015838273
0.0038043838 0.015670229 0.013304762 -7.159741e-08 0.012099177 0.01597861 0.007332677 0.0016721049
0.016283354 0.01616964 0.016812757 8.3055033e-07 5.488251e-06 0.016044142 0.016270122 0.016221028
0.015935762 0.015835611 0.016226664 0.013224919 0.008950241 0.015828067 0.01593562 0.016295422
6.1573344e-05 9.548882e-07 4.9281352e-06 2.2521554e-13 -1.8772618e-14 -6.682357e-08 0.016169999 0.008779272
0.016220214 0.016204793 0.003718793 0.015990613 -7.901882e-11 -6.933439e-08 0.016240396 0.016247047
0.016258111 0.016076963 0.016156645 0.017282292 0.002097513 0.015399475 6.66825e-07 0.016370045
00000000: 56c2 013d ba1b 053d b665 043d 95c5 073d
00000010: cdb1 4a3c 1b50 053d 5a34 043d a093 033d
00000020: b0af 053d b3a2 053d 191c 7734 5365 6033
00000030: 847f 053d 7d0a dcb1 00c1 80b5 2c4b 023d
00000040: 6d2c 003c ba1a fc3c 7165 dc3c 999d a1b3
00000050: e9d3 c83c e56a 033d e977 753c a7f7 623b
00000060: 29c5 053d 4985 043d 0604 083d 5bff 1534
00000070: f195 2236 2b83 033d 62e0 033d 9eb7 043d
00000080: 69ea 003d e15b 023d 9e4c 053d 2819 db3c
00000090: 8e4e 953c c21c 003d 1163 013d fee6 053d
000000a0: a5c7 fd38 0f3d 1334 e8f9 2bb7 9819 aa2a
000000b0: 9d5e 80b1 a173 19b4 1b9f 033d bb5c 923c
000000c0: 024b 053d 29c7 023d b7c8 f93b de06 033d
000000d0: edf8 0caa e60f 34b4 dcd7 043d 204e 043d
000000e0: e491 053d 0fb2 033d 79b2 033d b149 063d
000000f0: e615 8f3b eaf1 fc3c 7c67 8b33 ea57 053d
00000100: f3b1 153d eafa 1b3d 78cf 1a3d 4f62 193d
00000110: 4fdb 713c 2249 1c3d baaa 1a3d 23b4 183d
00000120: 820a 1c3d a6df 1c3d 9c0c 8fb3 7e45 9ab2
00000130: c452 1c3d 60ea 31b2 20a6 c3b5 d509 193d
00000140: 88cd 193c 3e7a 113d bd30 023d 9ca2 d9b3
00000150: fc9a ed3c a03e 1a3d 8371 923c 8107 893b
00000160: 32e0 1c3d 68f3 1a3d b152 1d3d a52a 12b3
00000170: 6231 8f35 f6b7 193d 00a9 183d 75f0 1a3d
00000180: 7364 153d 384b 193d 975c 1c3d 3079 013d
00000190: ce66 b13c 3263 143d a234 163d e02e 1d3d
000001a0: 2632 1b39 6836 26b3 07c8 88b7 0401 71aa
000001b0: 76cd 8fb1 d898 12b4 9906 193d 391d ae3c
000001c0: 9f83 1c3d 4723 173d 86b3 153c d9f9 183d
000001d0: c6df 62ad b499 6bb4 1510 1b3d 00d9 193d
000001e0: 6fbe 1c3d 5005 1a3d 254b 193d c35e 183d
000001f0: 3354 ac3b 737c 133d d795 c3b2 1600 1b3d
00000200: 061e 843c 8db9 843c a45d 843c e9ba 903c
00000210: e0e8 c63b 32f9 843c 9f22 843c ecbe 843c
00000220: 29ed 853c dc35 853c b6ea 2d36 39d0 5335
00000230: ca51 853c b030 0531 9541 b534 44bf 813c
00000240: f852 793b da5e 803c 37fc 593c 18c1 99b3
00000250: a03b 463c 93e5 823c f446 f03b 882a db3a
00000260: ab64 853c 3176 843c e8ba 893c fcf2 5e35
00000270: b827 b836 016f 833c eb48 853c f6e1 843c
00000280: b78b 823c afb9 813c c8ed 843c 55ad 583c
00000290: 08a4 123c dda9 813c 6b8b 823c fa7d 853c
000002a0: f020 8138 b529 8035 5c5c a536 f691 7d2a
000002b0: b616 a9a8 a580 8fb3 f276 843c f0d6 0f3c
000002c0: 41e0 843c eabf 843c feb6 733b bffe 823c
000002d0: a4c3 adae fce4 94b3 940a 853c 8718 853c
000002e0: bb2f 853c d6b3 833c f15a 843c 9893 8d3c
000002f0: 6e76 093b 144e 7c3c ddff 3235 791a 863c

fai_gcn_networks.1.residual.0.weight f4 [64, 32, 1, 1]
0.023990044 0.016412644 -0.036643714 -0.015266249 -0.010801508 -0.0026162406 0.011659807 -0.0380494
0.030722797 0.017251374 0.009266233 -0.04775897 0.026641468 0.004954698 0.0018607926 -0.003470884
-0.008373731 -0.01529819 -0.005658061 0.027090363 0.00026453112 -0.028607769 -0.009540454 0.036815893
0.032044914 -0.046462137 0.0056518978 -0.0022466672 0.010790473 -0.012237835 0.0069513284 0.0063746003
0.0004345079 0.024744842 0.030447112 -0.005831625 0.044109352 0.014077699 0.030302161 0.01772106
-0.0028435497 0.017197736 0.01527256 -0.035233162 0.017300727 0.013932996 0.00991995 0.018911522
-0.03148336 0.024408413 0.009024432 -0.032215193 0.011996414 -0.012470633 -0.020283183 0.011658448
0.0035594844 0.004270478 -0.016028542 -0.00026337992 0.011265314 0.0076215207 -0.023639658 0.011936269
-0.006095399 0.016144354 0.031765327 -0.014298371 -0.0064233206 0.008560048 0.004168522 0.00386702
-0.013927718 -0.00111004 0.030394742 0.022144292 0.0032586725 -0.0017501337 -0.017010445 -0.024473395
0.0059727794 -0.011673174 -0.009207805 -0.012623223 -0.0044526965 -0.015229498 -0.0009010557 -0.007228878
-0.045293245 0.01799794 0.019620078 -0.039617237 -0.015191586 0.003632497 0.015767615 0.031318124
-0.0029849054 -0.017587677 -0.007139122 0.017740928 -0.0026027726 0.032783847 0.0011087653 0.03098597
-0.029821387 0.021076655 -0.0004160177 0.0020249246 0.042709492 -0.009425801 0.026399769 -0.009715367
0.035300024 0.034146044 0.006066302 -0.008281334 -0.007303121 0.0071505797 0.012685829 -0.012675956
0.05060491 0.057730235 -0.005460143 -0.008089995 0.008353904 0.00026847728 0.0050603203 0.007684232
0.036501702 0.013569011 0.021541884 -0.0076936577 -0.029043442 0.027214702 -0.032680094 -0.0053252117
0.0077699856 0.00833145 0.033026766 -0.03454282 -0.014877818 -0.027764985 0.003645175 0.0112135215
-0.01107179 -0.006418088 -0.037922602 0.008652155 0.011582964 -0.010091151 -0.0172803 -0.036154732
0.009679031 -0.0030328813 -0.026346646 -0.02517263 -0.019079106 0.03689049 -5.0730527e-05 -0.013187818
0.0024807726 -0.023426957 -0.0054477453 -0.0089985775 -0.028100654 -0.0029745437 0.015540798 0.010814761
0.011323109 0.01581435 -0.002743275 0.03770424 0.03371506 -0.0034822337 0.016574167 -0.02684371
0.0049838857 -0.02552506 0.021359796 -0.020757934 -0.018556057 0.020126395 -0.0103416275 -0.008884355
0.005508395 -0.042843208 0.012309416 0.007828804 -0.025479274 0.006884963 0.04078274 0.0331347
-0.037478227 -0.016871644 -0.022492189 -0.011059329 -0.009022814 -0.012956719 -0.0009657634 -0.0034422209
-0.005470227 -0.025176782 0.0160982 0.0026061055 0.0375493 0.021056894 -0.019002121 0.018909661
0.012800337 0.009912233 0.018164225 0.022536851 0.007592106 0.001921365 -0.00092472683 -0.0075430893
0.026366843 -0.014635845 -0.031640697 0.015722891 -0.03582416 -0.0076767397 -0.0095040435 -0.01678815
0.03178092 0.011930782 0.021653991 -0.023303501 -0.02562955 0.023169816 -0.038731523 -0.016307177
-0.010647209 0.0245195 0.016373288 8.6721775e-05 -0.0106966505 0.029310634 -0.020067453 -0.014540762
0.011521796 0.016969966 0.03305644 0.010087522 0.014380366 0.02088734 -0.0016424566 -0.0240102
0.014545021 -0.0046668095 -0.0007920084 -0.018218916 -0.018351024 -0.012801162 0.009032925 -0.014314041
00000000: c586 c43c cf73 863c b817 16bd 4a1f 7abc
00000010: cff8 30bc 3c75 2bbb c608 3f3c b0d9 1bbd
00000020: 60ae fb3c c152 8d3c 66d1 173c e99e 43bd
00000030: 353f da3c 055b a23b d7e5 f33a c577 63bb
00000040: f931 09bc 42a5 7abc 4167 b9bb 9cec dd3c
00000050: c4b0 8a39 d75a eabc 904f 1cbc 43cc 163d
00000060: 8741 033d 154f 3ebd 8e33 b93b d23c 13bb
00000070: 86ca 303c 3381 48bc f8c7 e33b 06e2 d03b
00000080: aace e339 b2b5 ca3c 396c f93c 3717 bfbb
00000090: 02ac 343d 26a6 663c 3d3c f83c c22b 913c
000000a0: d95a 3abb 44e2 8c3c c239 7a3c a650 10bd
000000b0: 41ba 8d3c 3947 643c 4987 223c 56ec 9a3c
000000c0: b2f4 00bd 27f4 c73c 36db 133c 14f4 03bd
000000d0: 9b8c 443c a051 4cbc eb28 a6bc 1303 3f3c
000000e0: 3d46 693b 5eef 8b3b 4a4e 83bc 4116 8ab9
000000f0: 2792 383c f3bd f93b f5a7 c1bc 5790 433c
00000100: eabb c7bb 2a41 843c 5c1c 023d b743 6abc
00000110: b87a d2bb 723f 0c3c 1998 883b d46d 7d3b
00000120: 1531 64bc c37e 91ba 65fe f83c f267 b53c
00000130: 748f 553b be64 e5ba 7d59 8bbc 6e7c c8bc
00000140: 4eb7 c33b d740 3fbc 55dc 16bc a2d1 4ebc
00000150: ede7 91bb 2585 79bc d334 6cba 39e0 ecbb
00000160: 6985 39bd 6a70 933c 49ba a03c af45 22bd
00000170: 21e6 78bc 300f 6e3b 162b 813c 6f47 003d
00000180: 679e 43bb 0814 90bc 4cef e9bb 6c55 913c
00000190: 4793 2abb 5b48 063d fd53 913a 4ad6 fd3c
000001a0: fb4b f4bc f3a8 ac3c f31c dab9 99b4 043b
000001b0: 26f0 2e3d ad6e 1abc 5444 d83c 342d 1fbc
000001c0: c296 103d b9dc 0b3d d4c7 c63b 6fae 07bc
000001d0: 054f efbb 694f ea3b 39d8 4f3c d0ae 4fbc
000001e0: 1847 4f3d 8a76 6c3d 00eb b2bb e68b 04bc
000001f0: d0de 083c 69c2 8c39 0bd1 a53b 03cc fb3b
00000200: cf82 153d 8f50 5e3c 9b78 b03c 141b fcbb
00000210: 83ec edbc 5ef1 de3c 90db 05bd 1d7f aebb
00000220: 5d9b fe3b a280 083c 1347 073d c67c 0dbd
00000230: 17c2 73bc 6573 e3bc e3e3 6e3b ebb8 373c
00000240: 7466 35bc d34e d2bb bb54 1bbd c5c1 0d3c
00000250: 79c6 3d3c 5b55 25bc 6a8f 8dbc fc16 14bd
00000260: cc94 1e3c 4ec3 46bb ecd4 d7bc d536 cebc
00000270: c94b 9cbc 7c1a 173d 7dc7 54b8 b811 58bc
00000280: 7594 223b e4e9 bfbc 0083 b2bb c56e 13bc
00000290: 5833 e6bc 90f0 42bb d59e 7e3c 6530 313c
000002a0: 9084 393c 198d 813c 84c8 33bb c36f 1a3d
000002b0: ce18 0a3d 3036 64bb 8cc6 873c 57e7 dbbc
000002c0: dd4f a33b ee19 d1bc bdfa ae3c 8b0c aabc
000002d0: df02 98bc 1ce0 a43c ee6f 29bc b08f 11bc
000002e0: c47f b43b 5c7c 2fbd 6fad 493c 6244 003c
000002f0: e9b9 d0bc 419b e13b cd0b 273d 40b8 073d
00000300: c582 19bd 6736 8abc 8a41 b8bc 3032 35bc
00000310: 6dd4 13bc 6b48 54bc 492b 7dba e296 61bb
00000320: 973f b3bb 8a3f cebc 5fe0 833c 32cb 2a3b
00000330: 4bcd 193d 827f ac3c 56aa 9bbc 6fe8 9a3c
00000340: 81b8 513c eb66 223c 24cd 943c 349f b83c
00000350: 33c7 f83b 50d6 fb3a 5e69 72ba 052c f7bb
00000360: 47ff d73c 2fcb 6fbc ad99 01bd 4bcd 803c
00000370: 5bbc 12bd 298d fbbb d9b6 1bbc 4d87 89bc
00000380: b62c 023d 5479 433c b663 b13c fce6 bebc
00000390: 10f5 d1bc a0ce bd3c f2a4 1ebd a196 85bc
000003a0: a271 2ebc 1edd c83c 4621 863c 66de b538
000003b0: 0141 2fbc db1c f03c 8064 a4bc 603c 6ebc
000003c0: eac5 3c3c 9904 8b3c 3166 073d 2246 253c
000003d0: a09b 6b3c ed1b ab3c b347 d7ba 0ab1 c4bc
000003e0: 3d4e 6e3c 09ec 98bb c99e 4fba d63f 95bc
000003f0: e354 96bc f7bb 51bc d5fe 133c 7085 6abc

fai_gcn_networks.1.residual.0.bias f4 [64]
0.0 0.0 0.0 0.0 0.0 0.0 0.0 0.0
0.0 0.0 0.0 0.0 0.0 0.0 0.0 0.0
0.0 0.0 0.0 0.0 0.0 0.0 0.0 0.0
0.0 0.0 0.0 0.0 0.0 0.0 0.0 0.0
0.0 0.0 0.0 0.0 0.0 0.0 0.0 0.0
0.0 0.0 0.0 0.0 0.0 0.0 0.0 0.0
0.0 0.0 0.0 0.0 0.0 0.0 0.0 0.0
0.0 0.0 0.0 0.0 0.0 0.0 0.0 0.0
00000000: 0000 0000 0000 0000 0000 0000 0000 0000
00000010: 0000 0000 0000 0000 0000 0000 0000 0000
00000020: 0000 0000 0000 0000 0000 0000 0000 0000
00000030: 0000 0000 0000 0000 0000 0000 0000 0000
00000040: 0000 0000 0000 0000 0000 0000 0000 0000
00000050: 0000 0000 0000 0000 0000 0000 0000 0000
00000060: 0000 0000 0000 0000 0000 0000 0000 0000
00000070: 0000 0000 0000 0000 0000 0000 0000 0000
00000080: 0000 0000 0000 0000 0000 0000 0000 0000
00000090: 0000 0000 0000 0000 0000 0000 0000 0000
000000a0: 0000 0000 0000 0000 0000 0000 0000 0000
000000b0: 0000 0000 0000 0000 0000 0000 0000 0000
000000c0: 0000 0000 0000 0000 0000 0000 0000 0000
000000d0: 0000 0000 0000 0000 0000 0000 0000 0000
000000e0: 0000 0000 0000 0000 0000 0000 0000 0000
000000f0: 0000 0000 0000 0000 0000 0000 0000 0000

fai_gcn_networks.1.residual.1.weight f4 [64]
0.9788518 1.0195267 0.98479426 0.9831805 1.0243001 0.9983992 1.0055126 1.0115165
0.99407846 0.98476166 1.0496309 1.018693 0.9734924 1.0357355 0.9915553 0.9992125
0.99742305 1.0271473 0.98879755 0.9785462 1.0400101 1.0028999 0.9818613 1.0163697
0.9958681 1.0231076 0.9877309 1.0200161 0.9993182 1.0025235 0.97322464 1.0021101
1.0013554 0.9910116 1.0101699 1.0206964 0.9753488 0.95779055 0.9879113 1.0070567
0.99686545 1.02085 1.0138472 0.9642484 1.0171098 1.0133567 1.0032613 0.9910071
0.9909084 1.0109341 0.94082296 1.0384731 0.9877583 1.0030043 0.99578583 0.9864445
0.99943054 1.0014442 0.9958625 0.9966425 0.9621511 0.9930415 1.00042 1.007095
00000000: 0896 7a3f da7f 823f 7a1b 7c3f b8b1 7b3f
00000010: 441c 833f 1797 7f3f a3b4 803f 5f79 813f
00000020: ed7b 7e3f 5719 7c3f 4e5a 863f 8864 823f
00000030: cc36 793f fb92 843f 91d6 7d3f 64cc 7f3f
00000040: 1e57 7f3f 9079 833f d621 7d3f 0182 7a3f
00000050: 0d1f 853f 065f 803f 435b 7b3f 6718 823f
00000060: 36f1 7e3f 31f5 823f efdb 7c3f e38f 823f
00000070: 51d3 7f3f b152 803f 4025 793f 2545 803f
00000080: 6a2c 803f f0b2 7d3f 3f4d 813f 2ea6 823f
00000090: 75b0 793f c331 753f c1e7 7c3f 3ce7 803f
000000a0: 9332 7f3f 36ab 823f bfc5 813f fcd8 763f
000000b0: a730 823f acb5 813f de6a 803f a4b2 7d3f
000000c0: 2cac 7d3f 4a66 813f c6d9 703f b0ec 843f
000000d0: badd 7c3f 7262 803f d2eb 7e3f a087 7c3f
000000e0: aeda 7f3f 532f 803f d8f0 7e3f f623 7f3f
000000f0: 894f 763f f837 7e3f c30d 803f 7de8 803f

fai_gcn_networks.1.residual.1.bias f4 [64]
0.0 0.0 0.0 0.0 0.0 0.0 0.0 0.0
0.0 0.0 0.0 0.0 0.0 0.0 0.0 0.0
0.0 0.0 0.0 0.0 0.0 0.0 0.0 0.0
0.0 0.0 0.0 0.0 0.0 0.0 0.0 0.0
0.0 0.0 0.0 0.0 0.0 0.0 0.0 0.0
0.0 0.0 0.0 0.0 0.0 0.0 0.0 0.0
0.0 0.0 0.0 0.0 0.0 0.0 0.0 0.0
0.0 0.0 0.0 0.0 0.0 0.0 0.0 0.0
00000000: 0000 0000 0000 0000 0000 0000 0000 0000
00000010: 0000 0000 0000 0000 0000 0000 0000 0000
00000020: 0000 0000 0000 0000 0000 0000 0000 0000
00000030: 0000 0000 0000 0000 0000 0000 0000 0000
00000040: 0000 0000 0000 0000 0000 0000 0000 0000
00000050: 0000 0000 0000 0000 0000 0000 0000 0000
00000060: 0000 0000 0000 0000 0000 0000 0000 0000
00000070: 0000 0000 0000 0000 0000 0000 0000 0000
00000080: 0000 0000 0000 0000 0000 0000 0000 0000
00000090: 0000 0000 0000 0000 0000 0000 0000 0000
000000a0: 0000 0000 0000 0000 0000 0000 0000 0000
000000b0: 0000 0000 0000 0000 0000 0000 0000 0000
000000c0: 0000 0000 0000 0000 0000 0000 0000 0000
000000d0: 0000 0000 0000 0000 0000 0000 0000 0000
000000e0: 0000 0000 0000 0000 0000 0000 0000 0000
000000f0: 0000 0000 0000 0000 0000 0000 0000 0000

fai_gcn_networks.1.residual.1.running_mean f4 [64]
-2.5610389e-06 5.324933e-06 5.5002624e-07 1.2412513e-05 -4.5973206e-06 -5.431276e-06 3.7961856e-06 6.6759353e-06
1.7225518e-06 -1.4855555e-06 4.332933e-06 4.225355e-06 -9.350844e-06 2.522461e-07 2.0925552e-06 6.627468e-07
-5.5653454e-06 -4.968879e-06 2.5363374e-06 8.2578725e-07 1.8228133e-05 7.618737e-07 -3.7155414e-07 -1.2539206e-05
1.1581288e-05 8.700334e-06 2.9462822e-06 3.812403e-06 -5.4753247e-08 4.315126e-06 -3.105065e-06 -1.6355154e-06
-6.1361166e-06 3.902228e-06 -2.750468e-06 5.2439773e-06 -8.855771e-06 -1.2028513e-05 3.1938985e-06 -6.047872e-06
-3.3401611e-06 1.5716479e-06 -3.942422e-07 5.142826e-06 -6.9362045e-06 -1.8185781e-06 1.1393021e-05 -6.785512e-08
-9.349029e-07 -4.5799984e-06 -1.21027715e-05 7.1535817e-07 -9.412717e-06 4.1013664e-06 1.0030382e-06 -4.9208975e-06
-5.0327294e-06 -3.4816749e-06 -8.397298e-06 -8.783649e-06 -4.9434047e-06 5.5431627e-08 1.7395515e-06 2.6420362e-06
00000000: 50de 2bb6 d4ac b236 84a5 1335 563f 5037
00000010: af42 9ab6 4e3e b6b6 f9c1 7e36 d901 e036
00000020: 6e32 e735 4c63 c7b5 9c63 9136 86c7 8d36
00000030: 92e1 1cb7 716c 8734 d36d 0c36 9de7 3135
00000040: f4bd bab6 58ba a6b6 f235 2a36 abab 5d35
00000050: 9ee8 9837 9083 4c35 037a c7b4 7b5f 52b7
00000060: 414d 4237 a6f7 1137 beb8 4536 96d8 7f36
00000070: d529 6bb3 a6ca 9036 9c60 50b6 e283 dbb5
00000080: d7e4 cdb6 e2ef 8236 ae94 38b6 6cf5 af36
00000090: 3f93 14b7 12ce 49b7 c256 5636 d3ee cab6
000000a0: 8827 60b6 69f1 d235 3ca8 d3b4 8a90 ac36
000000b0: 8bbd e8b6 de15 f4b5 a724 3f37 bfb7 91b3
000000c0: 0af6 7ab5 e3ad 99b6 020d 4bb7 0a07 4035
000000d0: 50eb 1db7 789e 8936 21a0 8635 301e a5b6
000000e0: d1de a8b6 b8a6 69b6 1fe2 0cb7 7c5d 13b7
000000f0: 86df a5b6 b813 6e33 897a e935 d64d 3136

fai_gcn_networks.1.residual.1.running_var f4 [64]
6.642698e-11 1.09305195e-11 8.929693e-11 2.7851318e-10 1.5467909e-10 5.952928e-11 3.6761046e-11 4.4896496e-11
1.3663849e-11 1.2448399e-10 8.941109e-11 1.328497e-10 1.2783793e-10 1.3750169e-11 5.398012e-11 7.532311e-11
6.010578e-11 6.8702904e-11 3.7446456e-11 5.500019e-11 3.3111408e-10 5.3901585e-11 6.879579e-11 2.3401084e-10
2.0501074e-10 9.0314374e-11 9.82196e-12 6.265888e-11 2.9208785e-11 8.370559e-11 2.378109e-11 5.1435106e-11
2.4079783e-11 1.3247249e-10 4.5353322e-11 5.7274543e-11 4.402477e-11 1.1983313e-10 1.07576836e-10 3.1847233e-11
2.0706742e-11 1.9606176e-11 4.941773e-12 2.9412972e-11 3.623955e-11 3.6287404e-11 5.8011398e-11 1.2974806e-11
9.958016e-11 5.8224564e-11 1.6475513e-10 9.594233e-11 5.6398577e-11 4.8158897e-11 3.850145e-11 9.167976e-11
2.2171145e-11 6.687374e-11 7.37948e-11 4.414099e-11 2.3005892e-11 2.3097463e-11 4.831516e-11 3.5731675e-11
00000000: 1113 922e af4a 402d b45d c42e 3f1d 992f
00000010: 4b12 2a2f 01e8 822e 42ad 212e f674 452e
00000020: 8160 702d 21df 082f f89d c42e de11 122f
00000030: 2e8f 0c2f 42e5 712d 3668 6d2e 24a3 a52e
00000040: 8c2c 842e 4c14 972e f6b0 242e b5e4 712e
00000050: 2a08 b62f ca0f 6d2e 9648 972e 19a6 802f
00000060: 6569 612f 799a c62e 2dca 2c2d d0c9 892e
00000070: 2b76 002e 0f12 b82e 412e d12d c836 622e
00000080: dace d32d b1a7 112f 4d77 472e 67e5 7b2e
00000090: 7c9f 412e 07c2 032f 6090 ec2e cc10 0c2e
000000a0: 7023 b62d 2f75 ac2d 89df ad2c 105c 012e
000000b0: 1b62 1f2e fc97 1f2e 0723 7f2e 5541 642d
000000c0: a5fa da2e 8409 802e 7226 352f bbfa d22e
000000d0: 270b 782e 19ce 532e c754 292e 1e9b c92e
000000e0: fb04 c32d 920e 932e c746 a22e 5622 422e
000000f0: aa5c ca2d dd2a cb2d 097e 542e 4a26 1d2e

edge_importance.0 f4 [3, 18, 18]
0.87172824 0.8717281 0.8717281 0.8717281 0.8717281 0.8717281 0.8717281 0.8717281
0.8717281 0.8717281 0.8717281 0.8717281 0.8717281 0.8717281 0.8717281 0.8717281
0.8717281 0.8717281 0.8717281 0.8717282 0.8717281 0.8717281 0.8717281 0.8717281
0.8717281 0.8717281 0.8717281 0.8717281 0.8717281 0.8717281 0.8717281 0.8717281
0.8717281 0.8717281 0.8717281 0.8717281 0.8717281 0.8717281 0.87172824 0.8717281
0.8717281 0.8717281 0.8717281 0.8717281 0.8717281 0.8717281 0.8717281 0.8717281
0.8717281 0.8717281 0.8717281 0.8717281 0.8717281 0.8717281 0.8717281 0.8717281
0.8717281 0.87172824 0.8717281 0.8717281 0.8717281 0.8717281 0.8717281 0.8717281
0.8717281 0.8717281 0.8717281 0.8717281 0.8717281 0.8717281 0.8717281 0.8717281
0.8717281 0.8717281 0.8717281 0.8717281 0.8717285 0.8717281 0.8717281 0.8717281
0.8717281 0.8717281 0.8717281 0.8717281 0.8717281 0.8717281 0.8717281 0.8717281
0.8717281 0.8717281 0.8717281 0.8717281 0.8717281 0.8717281 0.8717281 0.87172824
0.8717281 0.8717281 0.8717281 0.8717281 0.8717281 0.8717281 0.8717281 0.8717281
0.8717281 0.8717281 0.8717281 0.8717281 0.8717281 0.8717281 0.8717281 0.8717281
0.8717281 0.8717281 0.87172824 0.8717281 0.8717281 0.8717281 0.8717281 0.8717281
0.8717281 0.8717281 0.8717281 0.8717281 0.8717281 0.8717281 0.8717281 0.8717281
0.8717281 0.8717281 0.8717281 0.8717281 0.8717281 0.8717285 0.8717281 0.8717281
0.8717281 0.8717281 0.8717281 0.8717281 0.8717281 0.8717281 0.8717281 0.8717281
0.8717281 0.8717281 0.8717281 0.8717281 0.8717281 0.8717281 0.8717281 0.8717281
0.8717283 0.8717281 0.8717281 0.8717281 0.8717281 0.8717281 0.8717281 0.8717281
0.8717281 0.8717281 0.8717281 0.8717281 0.8717281 0.8717281 0.8717281 0.8717281
0.8717281 0.8717281 0.8717281 0.8717283 0.8717281 0.8717281 0.8717281 0.8717281
0.8717281 0.8717281 0.8717281 0.8717281 0.8717281 0.8717281 0.8717281 0.8717281
0.8717281 0.8717281 0.8717281 0.8717281 0.8717281 0.8717281 0.8717285 0.8717281
0.8717281 0.8717281 0.8717281 0.8717281 0.8717281 0.8717281 0.8717281 0.8717281
0.8717281 0.8717281 0.8717281 0.8717281 0.8717281 0.8717281 0.8717281 0.8717281
0.8717281 0.8717283 0.8717281 0.8717281 0.8717281 0.8717281 0.8717281 0.8717281
0.8717281 0.8717281 0.8717281 0.8717281 0.8717281 0.8717281 0.8717281 0.8717281
0.8717281 0.8717281 0.8717281 0.8717281 0.8717283 0.8717281 0.8717281 0.8717281
0.8717281 0.8717281 0.8717281 0.8717281 0.8717281 0.8717281 0.8717281 0.8717281
0.8717281 0.8717281 0.8717281 0.8717281 0.8717281 0.8717281 0.8717281 0.8717285
0.8717281 0.8717281 0.8717281 0.8717281 0.8717281 0.8717281 0.8717281 0.8717281
00000000: 9529 5f3f 9329 5f3f 9329 5f3f 9329 5f3f
00000010: 9329 5f3f 9329 5f3f 9329 5f3f 9329 5f3f
00000020: 9329 5f3f 9329 5f3f 9329 5f3f 9329 5f3f
00000030: 9329 5f3f 9329 5f3f 9329 5f3f 9329 5f3f
00000040: 9329 5f3f 9329 5f3f 9329 5f3f 9429 5f3f
00000050: 9329 5f3f 9329 5f3f 9329 5f3f 9329 5f3f
00000060: 9329 5f3f 9329 5f3f 9329 5f3f 9329 5f3f
00000070: 9329 5f3f 9329 5f3f 9329 5f3f 9329 5f3f
00000080: 9329 5f3f 9329 5f3f 9329 5f3f 9329 5f3f
00000090: 9329 5f3f 9329 5f3f 9529 5f3f 9329 5f3f
000000a0: 9329 5f3f 9329 5f3f 9329 5f3f 9329 5f3f
000000b0: 9329 5f3f 9329 5f3f 9329 5f3f 9329 5f3f
000000c0: 9329 5f3f 9329 5f3f 9329 5f3f 9329 5f3f
000000d0: 9329 5f3f 9329 5f3f 9329 5f3f 9329 5f3f
000000e0: 9329 5f3f 9529 5f3f 9329 5f3f 9329 5f3f
000000f0: 9329 5f3f 9329 5f3f 9329 5f3f 9329 5f3f
00000100: 9329 5f3f 9329 5f3f 9329 5f3f 9329 5f3f
00000110: 9329 5f3f 9329 5f3f 9329 5f3f 9329 5f3f
00000120: 9329 5f3f 9329 5f3f 9329 5f3f 9329 5f3f
00000130: 9929 5f3f 9329 5f3f 9329 5f3f 9329 5f3f
00000140: 9329 5f3f 9329 5f3f 9329 5f3f 9329 5f3f
00000150: 9329 5f3f 9329 5f3f 9329 5f3f 9329 5f3f
00000160: 9329 5f3f 9329 5f3f 9329 5f3f 9329 5f3f
00000170: 9329 5f3f 9329 5f3f 9329 5f3f 9529 5f3f
00000180: 9329 5f3f 9329 5f3f 9329 5f3f 9329 5f3f
00000190: 9329 5f3f 9329 5f3f 9329 5f3f 9329 5f3f
000001a0: 9329 5f3f 9329 5f3f 9329 5f3f 9329 5f3f
000001b0: 9329 5f3f 9329 5f3f 9329 5f3f 9329 5f3f
000001c0: 9329 5f3f 9329 5f3f 9529 5f3f 9329 5f3f
000001d0: 9329 5f3f 9329 5f3f 9329 5f3f 9329 5f3f
000001e0: 9329 5f3f 9329 5f3f 9329 5f3f 9329 5f3f
000001f0: 9329 5f3f 9329 5f3f 9329 5f3f 9329 5f3f
00000200: 9329 5f3f 9329 5f3f 9329 5f3f 9329 5f3f
00000210: 9329 5f3f 9929 5f3f 9329 5f3f 9329 5f3f
00000220: 9329 5f3f 9329 5f3f 9329 5f3f 9329 5f3f
00000230: 9329 5f3f 9329 5f3f 9329 5f3f 9329 5f3f
00000240: 9329 5f3f 9329 5f3f 9329 5f3f 9329 5f3f
00000250: 9329 5f3f 9329 5f3f 9329 5f3f 9329 5f3f
00000260: 9629 5f3f 9329 5f3f 9329 5f3f 9329 5f3f
00000270: 9329 5f3f 9329 5f3f 9329 5f3f 9329 5f3f
00000280: 9329 5f3f 9329 5f3f 9329 5f3f 9329 5f3f
00000290: 9329 5f3f 9329 5f3f 9329 5f3f 9329 5f3f
000002a0: 9329 5f3f 9329 5f3f 9329 5f3f 9629 5f3f
000002b0: 9329 5f3f 9329 5f3f 9329 5f3f 9329 5f3f
000002c0: 9329 5f3f 9329 5f3f 9329 5f3f 9329 5f3f
000002d0: 9329 5f3f 9329 5f3f 9329 5f3f 9329 5f3f
000002e0: 9329 5f3f 9329 5f3f 9329 5f3f 9329 5f3f
000002f0: 9329 5f3f 9329 5f3f 9929 5f3f 9329 5f3f
00000300: 9329 5f3f 9329 5f3f 9329 5f3f 9329 5f3f
00000310: 9329 5f3f 9329 5f3f 9329 5f3f 9329 5f3f
00000320: 9329 5f3f 9329 5f3f 9329 5f3f 9329 5f3f
00000330: 9329 5f3f 9329 5f3f 9329 5f3f 9329 5f3f
00000340: 9329 5f3f 9629 5f3f 9329 5f3f 9329 5f3f
00000350: 9329 5f3f 9329 5f3f 9329 5f3f 9329 5f3f
00000360: 9329 5f3f 9329 5f3f 9329 5f3f 9329 5f3f
00000370: 9329 5f3f 9329 5f3f 9329 5f3f 9329 5f3f
00000380: 9329 5f3f 9329 5f3f 9329 5f3f 9329 5f3f
00000390: 9629 5f3f 9329 5f3f 9329 5f3f 9329 5f3f
000003a0: 9329 5f3f 9329 5f3f 9329 5f3f 9329 5f3f
000003b0: 9329 5f3f 9329 5f3f 9329 5f3f 9329 5f3f
000003c0: 9329 5f3f 9329 5f3f 9329 5f3f 9329 5f3f
000003d0: 9329 5f3f 9329 5f3f 9329 5f3f 9929 5f3f
000003e0: 9329 5f3f 9329 5f3f 9329 5f3f 9329 5f3f
000003f0: 9329 5f3f 9329 5f3f 9329 5f3f 9329 5f3f
