capsule-6073072/code/work_dir/recognition/kinetics_skeleton/FAI_GCN/epoch380_model.pt (torch, 74070 bytes, 22 tensors)

A f4 [3, 18, 18]
0	0x3e800000	0.25
1	0x00000000	0.0
2	0x00000000	0.0
3	0x00000000	0.0
4	0x00000000	0.0
5	0x00000000	0.0
6	0x00000000	0.0
7	0x00000000	0.0
8	0x00000000	0.0
9	0x00000000	0.0
10	0x00000000	0.0
11	0x00000000	0.0
12	0x00000000	0.0
13	0x00000000	0.0
14	0x00000000	0.0
15	0x00000000	0.0
16	0x00000000	0.0
17	0x00000000	0.0
18	0x00000000	0.0
19	0x3e800000	0.25
20	0x00000000	0.0
21	0x00000000	0.0
22	0x00000000	0.0
23	0x00000000	0.0
24	0x00000000	0.0
25	0x00000000	0.0
26	0x00000000	0.0
27	0x00000000	0.0
28	0x00000000	0.0
29	0x00000000	0.0
30	0x00000000	0.0
31	0x00000000	0.0
32	0x00000000	0.0
33	0x00000000	0.0
34	0x00000000	0.0
35	0x00000000	0.0
36	0x00000000	0.0
37	0x00000000	0.0
38	0x3e800000	0.25
39	0x00000000	0.0
40	0x00000000	0.0
41	0x00000000	0.0
42	0x00000000	0.0
43	0x00000000	0.0
44	0x00000000	0.0
45	0x00000000	0.0
46	0x00000000	0.0
47	0x00000000	0.0
48	0x00000000	0.0
49	0x00000000	0.0
50	0x00000000	0.0
51	0x00000000	0.0
52	0x00000000	0.0
53	0x00000000	0.0
54	0x00000000	0.0
55	0x00000000	0.0
56	0x00000000	0.0
57	0x3eaaaaab	0.33333334
58	0x00000000	0.0
59	0x00000000	0.0
60	0x00000000	0.0
61	0x00000000	0.0
62	0x00000000	0.0
63	0x00000000	0.0
64	0x00000000	0.0
65	0x00000000	0.0
66	0x00000000	0.0
67	0x00000000	0.0
68	0x00000000	0.0
69	0x00000000	0.0
70	0x00000000	0.0
71	0x00000000	0.0
72	0x00000000	0.0
73	0x00000000	0.0
74	0x00000000	0.0
75	0x00000000	0.0
76	0x3f000000	0.5
77	0x00000000	0.0
78	0x00000000	0.0
79	0x00000000	0.0
80	0x00000000	0.0
81	0x00000000	0.0
82	0x00000000	0.0
83	0x00000000	0.0
84	0x00000000	0.0
85	0x00000000	0.0
86	0x00000000	0.0
87	0x00000000	0.0
88	0x00000000	0.0
89	0x00000000	0.0
90	0x00000000	0.0
91	0x00000000	0.0
92	0x00000000	0.0
93	0x00000000	0.0
94	0x00000000	0.0
95	0x3e800000	0.25
96	0x00000000	0.0
97	0x00000000	0.0
98	0x00000000	0.0
99	0x00000000	0.0
100	0x00000000	0.0
101	0x00000000	0.0
102	0x00000000	0.0
103	0x00000000	0.0
104	0x00000000	0.0
105	0x00000000	0.0
106	0x00000000	0.0
107	0x00000000	0.0
108	0x00000000	0.0
109	0x00000000	0.0
110	0x00000000	0.0
111	0x00000000	0.0
112	0x00000000	0.0
113	0x00000000	0.0
114	0x3eaaaaab	0.33333334
115	0x00000000	0.0
116	0x00000000	0.0
117	0x00000000	0.0
118	0x00000000	0.0
119	0x00000000	0.0
120	0x00000000	0.0
121	0x00000000	0.0
122	0x00000000	0.0
123	0x00000000	0.0
124	0x00000000	0.0
125	0x00000000	0.0
126	0x00000000	0.0
127	0x00000000	0.0
128	0x00000000	0.0
129	0x00000000	0.0
130	0x00000000	0.0
131	0x00000000	0.0
132	0x00000000	0.0
133	0x3f000000	0.5
134	0x00000000	0.0
135	0x00000000	0.0
136	0x00000000	0.0
137	0x00000000	0.0
138	0x00000000	0.0
139	0x00000000	0.0
140	0x00000000	0.0
141	0x00000000	0.0
142	0x00000000	0.0
143	0x00000000	0.0
144	0x00000000	0.0
145	0x00000000	0.0
146	0x00000000	0.0
147	0x00000000	0.0
148	0x00000000	0.0
149	0x00000000	0.0
150	0x00000000	0.0
151	0x00000000	0.0
152	0x3eaaaaab	0.33333334
153	0x00000000	0.0
154	0x00000000	0.0
155	0x00000000	0.0
156	0x00000000	0.0
157	0x00000000	0.0
158	0x00000000	0.0
159	0x00000000	0.0
160	0x00000000	0.0
161	0x00000000	0.0
162	0x00000000	0.0
163	0x00000000	0.0
164	0x00000000	0.0
165	0x00000000	0.0
166	0x00000000	0.0
167	0x00000000	0.0
168	0x00000000	0.0
169	0x00000000	0.0
170	0x00000000	0.0
171	0x3eaaaaab	0.33333334
172	0x00000000	0.0
173	0x00000000	0.0
174	0x00000000	0.0
175	0x00000000	0.0
176	0x00000000	0.0
177	0x00000000	0.0
178	0x00000000	0.0
179	0x00000000	0.0
180	0x00000000	0.0
181	0x00000000	0.0
182	0x00000000	0.0
183	0x00000000	0.0
184	0x00000000	0.0
185	0x00000000	0.0
186	0x00000000	0.0
187	0x00000000	0.0
188	0x00000000	0.0
189	0x00000000	0.0
190	0x3f000000	0.5
191	0x00000000	0.0
192	0x00000000	0.0
193	0x00000000	0.0
194	0x00000000	0.0
195	0x00000000	0.0
196	0x00000000	0.0
197	0x00000000	0.0
198	0x00000000	0.0
199	0x00000000	0.0
200	0x00000000	0.0
201	0x00000000	0.0
202	0x00000000	0.0
203	0x00000000	0.0
204	0x00000000	0.0
205	0x00000000	0.0
206	0x00000000	0.0
207	0x00000000	0.0
208	0x00000000	0.0
209	0x3eaaaaab	0.33333334
210	0x00000000	0.0
211	0x00000000	0.0
212	0x00000000	0.0
213	0x00000000	0.0
214	0x00000000	0.0
215	0x00000000	0.0
216	0x00000000	0.0
217	0x00000000	0.0
218	0x00000000	0.0
219	0x00000000	0.0
220	0x00000000	0.0
221	0x00000000	0.0
222	0x00000000	0.0
223	0x00000000	0.0
224	0x00000000	0.0
225	0x00000000	0.0
226	0x00000000	0.0
227	0x00000000	0.0
228	0x3eaaaaab	0.33333334
229	0x00000000	0.0
230	0x00000000	0.0
231	0x00000000	0.0
232	0x00000000	0.0
233	0x00000000	0.0
234	0x00000000	0.0
235	0x00000000	0.0
236	0x00000000	0.0
237	0x00000000	0.0
238	0x00000000	0.0
239	0x00000000	0.0
240	0x00000000	0.0
241	0x00000000	0.0
242	0x00000000	0.0
243	0x00000000	0.0
244	0x00000000	0.0
245	0x00000000	0.0
246	0x00000000	0.0
247	0x3f000000	0.5
248	0x00000000	0.0
249	0x00000000	0.0
250	0x00000000	0.0
251	0x00000000	0.0
252	0x00000000	0.0
253	0x00000000	0.0
254	0x00000000	0.0
255	0x00000000	0.0

data_bn.weight f4 [54]
0	0x3f279a2d	0.6546963
1	0x3f1d13a7	0.6135811
2	0x3f272076	0.65283906
3	0x3f1766d2	0.59141266
4	0x3f1a037f	0.60161585
5	0x3f27cc6c	0.655463
6	0x3f1ab388	0.6043019
7	0x3f1d32df	0.6140575
8	0x3f0ed24a	0.55789626
9	0x3f206303	0.6265108
10	0x3f19e63a	0.6011692
11	0x3f1ad160	0.6047573
12	0x3f1a5db2	0.6029922
13	0x3f128dec	0.57247806
14	0x3f1da304	0.6157687
15	0x3f24328b	0.6413962
16	0x3f2074a1	0.6267796
17	0x3f1d235f	0.61382097
18	0x3f1981a8	0.59963465
19	0x3f16a116	0.5883955
20	0x3f20e189	0.6284414
21	0x3f1c96e4	0.6116774
22	0x3f185378	0.59502363
23	0x3f1f0198	0.62111807
24	0x3f1d2bf7	0.6139521
25	0x3f1e32a6	0.61796033
26	0x3f20780a	0.62683165
27	0x3f20d713	0.6282818
28	0x3f1df4fc	0.6170194
29	0x3f213cfd	0.62983686
30	0x3f15666f	0.58359426
31	0x3f1c2c79	0.6100536
32	0x3f1fd042	0.6242715
33	0x3f231f63	0.6371977
34	0x3f22a7de	0.63537395
35	0x3f25c06a	0.64746726
36	0x3f1cbb8b	0.6122367
37	0x3f229199	0.63503414
38	0x3f1f49d3	0.6222202
39	0x3f1c1158	0.60963964
40	0x3f1c2d6c	0.6100681
41	0x3f2100cc	0.6289184
42	0x3f20e831	0.62854296
43	0x3f260bb2	0.64861596
44	0x3f1ae07e	0.604988
45	0x3f1849eb	0.5948779
46	0x3f2774eb	0.6541278
47	0x3f1d9414	0.61554074
48	0x3f20b6c5	0.62778884
49	0x3f24b81d	0.64343435
50	0x3f1fc6ea	0.62412894
51	0x3f253190	0.6452875
52	0x3f0eaf89	0.55736595
53	0x3f1c0eb9	0.60959965

data_bn.bias f4 [54]
0	0xa9c9a06c	-8.954022e-14
1	0x9f88391f	-5.769274e-20
2	0x227bd130	3.4127586e-18
3	0xa7cb95ad	-5.6506097e-15
4	0x80000110	-3.81e-43
5	0x1ba95683	2.8014612e-22
6	0x24eed4f7	1.0357682e-16
7	0x2262ee67	3.075492e-18
8	0x1ea98ab9	1.7950945e-20
9	0x8a1647bd	-7.23573e-33
10	0xb3e5882c	-1.0688413e-07
11	0x358495a0	9.878313e-07
12	0xaf5a7a5b	-1.9870454e-10
13	0xb1ede77b	-6.923924e-09
14	0xab992ef2	-1.0884334e-12
15	0x2524bc8b	1.4288613e-16
16	0xa03ac238	-1.5819074e-19
17	0x222d696d	2.3501684e-18
18	0x022da3b0	1.2757009e-37
19	0xb55e8864	-8.289992e-07
20	0xafbb18d4	-3.4032743e-10
21	0x2e11a7f7	3.3118366e-11
22	0xb11addc1	-2.2536002e-09
23	0x2a571065	1.9101524e-13
24	0xb0df3057	-1.6239124e-09
25	0x31f5cd60	7.153787e-09
26	0x2ecdc525	9.3573406e-11
27	0x80548d28	-7.764819e-39
28	0x2444fdd1	4.2715716e-17
29	0x38020713	3.1001004e-05
30	0x333ec1c2	4.4414044e-08
31	0x34e38abf	4.2382996e-07
32	0x28b38741	1.993165e-14
33	0x310771cf	1.9709778e-09
34	0x3400dba1	1.200083e-07
35	0x2d5f33bd	1.2687571e-11
36	0x800be226	-1.091317e-39
37	0x2355c5d8	1.1588648e-17
38	0xad182131	-8.64757e-12
39	0x3250ca72	1.2153224e-08
40	0x32cb2d69	2.365296e-08
41	0xa87a4861	-1.38934825e-14
42	0x08aa93df	1.0266267e-33
43	0x33844ca8	6.160673e-08
44	0x354e418a	7.683635e-07
45	0x85ba2d91	-1.7508094e-35
46	0xb64597b2	-2.9443586e-06
47	0x36ae136a	5.187864e-06
48	0x2b0327d7	4.659584e-13
49	0x2c0c4f44	1.9939198e-12
50	0x347793cd	2.3057437e-07
51	0x2d538af0	1.2024812e-11
52	0x2e860543	6.094549e-11
53	0xa98a3892	-6.1382445e-14

data_bn.running_mean f4 [54]
0	0xbd8a462b	-0.06751665
1	0xbd1b94de	-0.037983768
2	0x3ea87168	0.32899022
3	0xbd9142ff	-0.070928566
4	0xbc118f8f	-0.008884325
5	0x3e9ec175	0.3100697
6	0xbdbc2358	-0.09186429
7	0xbc6400af	-0.013916179
8	0x3e9395ca	0.28825217
9	0xbde2abab	-0.11067899
10	0x3bfedf2a	0.007778068
11	0x3e8af8bc	0.27142894
12	0xbde72223	-0.11285808
13	0x3c690dae	0.014224453
14	0x3e7c7193	0.246527
15	0xbd4f3ee5	-0.05059709
16	0xbb805c46	-0.00391725
17	0x3e9362ad	0.2878622
18	0xbd1eb715	-0.03874882
19	0x3c9fa507	0.01948787
20	0x3e8619d2	0.26191574
21	0xbd129c22	-0.03579343
22	0x3ce178f0	0.027523488
23	0x3e815b88	0.25265145
24	0xbdb7fde6	-0.08983974
25	0x3d8872d3	0.06662526
26	0x3e686361	0.2269416
27	0xbdc6e7df	-0.09712195
28	0x3da47a51	0.080311425
29	0x3e6463b7	0.22303663
30	0xbdae4d32	-0.085108176
31	0x3df6574f	0.120283715
32	0x3e5ab522	0.21358159
33	0xbd83042b	-0.06397279
34	0x3d92fc75	0.071770586
35	0x3e67c538	0.22633827
36	0xbd5479b2	-0.05187387
37	0x3dac3b29	0.084097214
38	0x3e59c9ad	0.2126834
39	0xbd863605	-0.06553272
40	0x3deac353	0.114630364
41	0x3e388635	0.18019946
42	0xbd9418b9	-0.07231278
43	0xbd3e17a2	-0.046409257
44	0x3ea4df17	0.32201454
45	0xbd741d33	-0.05959816
46	0xbd33ed7e	-0.043927662
47	0x3eab2e5b	0.33433804
48	0xbd9c12b7	-0.07620757
49	0xbd11364b	-0.03545217
50	0x3e4a6547	0.19765197
51	0xbd62536a	-0.05525533
52	0xbd069ceb	-0.032864492
53	0x3e63fd28	0.2226454

data_bn.running_var f4 [54]
0	0x3aef4196	0.0018253799
1	0x3c2e6ddd	0.010646311
2	0x3dc7ad82	0.09749891
3	0x3ab5c41a	0.0013867647
4	0x3bf26183	0.007396878
5	0x3db168ab	0.08662542
6	0x3b12f476	0.0022423542
7	0x3befa23f	0.0073130424
8	0x3d947534	0.07248917
9	0x3b7608ad	0.0037541792
10	0x3bd76708	0.0065735616
11	0x3d8749df	0.06605887
12	0x3b8ecea6	0.0043581305
13	0x3bfcda1f	0.0077164317
14	0x3d90ff85	0.070799865
15	0x3ac28baa	0.0014842649
16	0x3bf9be1b	0.0076215393
17	0x3d96680e	0.073440656
18	0x3af061e0	0.0018339716
19	0x3c06a4a7	0.008217967
20	0x3d834882	0.06410314
21	0x3b19c555	0.0023463566
22	0x3c28d0ac	0.0103036575
23	0x3d8cf9fd	0.06883619
24	0x3b11b380	0.0022232234
25	0x3c13b254	0.009014685
26	0x3d3a10ea	0.045426287
27	0x3b6ec20a	0.0036431574
28	0x3c1705a0	0.00921765
29	0x3d900baa	0.07033475
30	0x3b2f0e31	0.002671134
31	0x3c7ac110	0.015304819
32	0x3d82e5ce	0.06391488
33	0x3aa9d82c	0.0012958101
34	0x3c26c996	0.010179898
35	0x3d316152	0.043305703
36	0x3acdfb29	0.001571511
37	0x3c29e4af	0.010369464
38	0x3d783d19	0.060605142
39	0x3afa1cad	0.0019082032
40	0x3c7ce13d	0.01543456
41	0x3d642970	0.05570358
42	0x3af95036	0.0019021097
43	0x3c3b884f	0.011446073
44	0x3dbc9dcf	0.09209787
45	0x3ae68fcf	0.0017590466
46	0x3c3425a9	0.010995307
47	0x3dcc7769	0.09983713
48	0x3add2a5a	0.0016873584
49	0x3c112266	0.008858299
50	0x3d34dc05	0.04415514
51	0x3ace333c	0.0015731822
52	0x3c24e099	0.010063314
53	0x3dacc5d4	0.0843617

fai_gcn_networks.0.gcn.conv.weight f4 [96, 3, 1, 1]
0	0x8001f1c5	-1.78566e-40
1	0x8001076a	-9.4495e-41
2	0x00032b4e	2.91041e-40
3	0x849f5e6a	-3.7467426e-36
4	0x0663e959	4.2865392e-35
5	0x849ed661	-3.7342497e-36
6	0x00000023	4.9e-44
7	0x80000023	-4.9e-44
8	0x80000023	-4.9e-44
9	0x890e4095	-1.7122995e-33
10	0x88acc4d8	-1.0398151e-33
11	0x8809488e	-4.1312225e-34
12	0x8000188d	-8.807e-42
13	0x80001c6e	-1.0199e-41
14	0x00004803	2.5833e-41
15	0x035b67f1	6.4477635e-37
16	0x8322f7dc	-4.789205e-37
17	0x02265c22	1.2222195e-37
18	0x00000683	2.336e-42
19	0x00000229	7.75e-43
20	0x8000004d	-1.08e-43
21	0x00000029	5.7e-44
22	0x00000023	4.9e-44
23	0x80000029	-5.7e-44
24	0x0205f324	9.841075e-38
25	0x02d62d4f	3.147048e-37
26	0x0143ae38	3.594084e-38
27	0x0626ef98	3.1397156e-35
28	0x06c35782	7.347943e-35
29	0x8c9dba0f	-2.430166e-31
30	0x07172512	1.1370871e-34
31	0x86c3fe86	-7.3724836e-35
32	0x88470313	-5.9888e-34
33	0x00c192c0	1.7776895e-38
34	0x00a33a9a	1.4990208e-38
35	0x8074b3ab	-1.071737e-38
36	0x13429f4a	2.4564778e-27
37	0x1395899c	3.774858e-27
38	0x906a6d9d	-4.6232806e-29
39	0x8000014d	-4.67e-43
40	0x80000021	-4.6e-44
41	0x800003df	-1.389e-42
42	0x1e1b2264	8.2127435e-21
43	0x0f6c8670	1.166159e-29
44	0x0fa2625f	1.6012324e-29
45	0x00000119	3.94e-43
46	0x80000008	-1.1e-44
47	0x8000020c	-7.34e-43
48	0x01231231	2.9951423e-38
49	0x002046f7	2.964193e-39
50	0x803e85e2	-5.741829e-39
51	0x01af0121	6.428647e-38
52	0x82b836a4	-2.7067732e-37
53	0x021bfd8f	1.1460369e-37
54	0x0000012c	4.2e-43
55	0x80000028	-5.6e-44
56	0x800003ae	-1.32e-42
57	0x0000c501	7.0672e-41
58	0x0002829a	2.30522e-40
59	0x80095bbe	-8.5943e-40
60	0x081114a2	4.3658604e-34
61	0x08f4fb17	1.4744247e-33
62	0x892346a2	-1.9653623e-33
63	0x80000019	-3.5e-44
64	0x80000061	-1.36e-43
65	0x80000023	-4.9e-44
66	0x0000002b	6e-44
67	0x80000023	-4.9e-44
68	0x8000001d	-4e-44
69	0x80000c66	-4.448e-42
70	0x0000028c	9.14e-43
71	0x00000818	2.903e-42
72	0x85cd60a5	-1.9313609e-35
73	0x06aacf0f	6.425114e-35
74	0x86f93c41	-9.3751925e-35
75	0x0df98ab8	1.5379205e-30
76	0x02d09ead	3.0653929e-37
77	0x8016faa0	-2.110288e-39
78	0x8485135c	-3.128593e-36
79	0x83de7613	-1.3075096e-36
80	0x82bdda64	-2.7896404e-37
81	0x00000226	7.71e-43
82	0x80000002	-3e-45
83	0x00000aec	3.918e-42
84	0x80013b9b	-1.13218e-40
85	0x8001e67f	-1.74522e-40
86	0x0004e687	4.5004e-40
87	0x06c09880	7.244645e-35
88	0x891e44bc	-1.9050877e-33
89	0x8b5ff08b	-4.3129202e-32
90	0x00dcf8d5	2.0293073e-38
91	0x82da5d5f	-3.2085813e-37
92	0x8234fe15	-1.3297229e-37
93	0x8d5cae73	-6.800272e-31
94	0x0ff89168	2.4510697e-29
95	0x0e24304a	2.0237811e-30
96	0x00056fa2	4.99224e-40
97	0x0003fd7a	3.66437e-40
98	0x00023c6d	2.05348e-40
99	0x85603174	-1.05415125e-35
100	0x859853f4	-1.4324851e-35
101	0x87dad481	-3.2925893e-34
102	0x80000023	-4.9e-44
103	0x800000b2	-2.5e-43
104	0x00000023	4.9e-44
105	0x07e75bae	3.4810901e-34
106	0x88f1c05c	-1.4549883e-33
107	0x0b2f2aad	3.373588e-32
108	0x80001a5a	-9.453e-42
109	0x0000b855	6.6126e-41
110	0x0000077b	2.683e-42
111	0x030b6df1	4.0974635e-37
112	0x01e6700d	8.464944e-38
113	0x01f7de58	9.105252e-38
114	0x000006ed	2.485e-42
115	0x00001507	7.543e-42
116	0x000010cd	6.027e-42
117	0x8000002c	-6.2e-44
118	0x00000025	5.2e-44
119	0x00000026	5.3e-44
120	0x80fd001e	-2.3234423e-38
121	0x011668d2	2.7625854e-38
122	0x81e0be92	-8.255806e-38
123	0x05ad18c9	1.6277946e-35
124	0x856db9c6	-1.11778076e-35
125	0x0711b547	1.096186e-34
126	0x88c1015c	-1.1616085e-33
127	0x09d37a52	5.091143e-33
128	0x8a596eaa	-1.04689835e-32
129	0x809bfce2	-1.4325219e-38
130	0x02a58b3a	2.4324483e-37
131	0x030f9b14	4.2201944e-37
132	0x13ce51b9	5.2082296e-27
133	0x16d596da	3.4507207e-25
134	0x16030fb0	1.0587046e-25
135	0x0000003e	8.7e-44
136	0x00000025	5.2e-44
137	0x80000348	-1.177e-42
138	0x90252f09	-3.2576747e-29
139	0x10746ba9	4.8203454e-29
140	0x0f9f19e4	1.5688583e-29
141	0x80000035	-7.4e-44
142	0x00000004	6e-45
143	0x000002b4	9.7e-43
144	0x01a1a395	5.937679e-38
145	0x8307cdcc	-3.9909178e-37
146	0x03b0e40b	1.0396706e-36
147	0x0345ba93	5.8107273e-37
148	0x061af506	2.9144196e-35
149	0x0688cd58	5.145924e-35
150	0x80000029	-5.7e-44
151	0x8000003f	-8.8e-44
152	0x0000019c	5.77e-43
153	0x00135a28	1.777216e-39
154	0x8007963b	-6.96741e-40
155	0x00149c5e	1.892804e-39
156	0x0635c296	3.4185276e-35
157	0x09c8ecad	4.8370817e-33
158	0x89f00eac	-5.7791696e-33
159	0x80000023	-4.9e-44
160	0x80000027	-5.5e-44
161	0x0000a30a	5.8487e-41
162	0x00000081	1.81e-43
163	0x80000023	-4.9e-44
164	0x80000023	-4.9e-44
165	0x8000031f	-1.12e-42
166	0x00000665	2.294e-42
167	0x00000097	2.12e-43
168	0x852a39ae	-8.003956e-36
169	0x063700c7	3.4419046e-35
170	0x05bb8e03	1.7637562e-35
171	0x018b331f	5.113389e-38
172	0x819a419b	-5.6664805e-38
173	0x025c7084	1.6195338e-37
174	0x04870bbf	3.1749135e-36
175	0x8332940a	-5.247944e-37
176	0x8074d07e	-1.072771e-38
177	0x0000008c	1.96e-43
178	0x80000090	-2.02e-43
179	0x8000015a	-4.85e-43
180	0x0001daea	1.70367e-40
181	0x0005122d	4.65698e-40
182	0x8002f89c	-2.72855e-40
183	0x069a356c	5.800686e-35
184	0x08a58b30	9.963299e-34
185	0x890eeb6f	-1.7203329e-33
186	0x837ac8c1	-7.369885e-37
187	0x06370245	3.4420142e-35
188	0x04dfa0e7	5.2574814e-36
189	0x8df82efc	-1.5295491e-30
190	0x0f373c78	9.0342425e-30
191	0x0dc628e7	1.2212539e-30
192	0x00028c84	2.34079e-40
193	0x00030efa	2.80879e-40
194	0x0000586b	3.1718e-41
195	0x82929624	-2.1538948e-37
196	0x019118a9	5.3299973e-38
197	0x83c84e0f	-1.1772865e-36
198	0x80000025	-5.2e-44
199	0x00000024	5e-44
200	0x00000023	4.9e-44
201	0x055bdacc	1.0337517e-35
202	0x87769fba	-1.8553922e-34
203	0x872fc2ec	-1.3222819e-34
204	0x80001ddb	-1.071e-41
205	0x0000063d	2.238e-42
206	0x80000318	-1.11e-42
207	0x01175e8a	2.7802148e-38
208	0x80a7c4f9	-1.5407188e-38
209	0x802a25ba	-3.870625e-39
210	0x000001a9	5.96e-43
211	0x800004d5	-1.733e-42
212	0x0000001c	3.9e-44
213	0x80000028	-5.6e-44
214	0x80000023	-4.9e-44
215	0x00000024	5e-44
216	0x8002404d	-2.06738e-40
217	0x8064d210	-9.258906e-39
218	0x004dabb3	7.132927e-39
219	0x0438388d	2.1655063e-36
220	0x86773a0a	-4.6498177e-35
221	0x8597ea5b	-1.428606e-35
222	0x0866382f	6.927915e-34
223	0x87d6bc20	-3.2309711e-34
224	0x085344e5	6.357649e-34
225	0x02405558	1.4130425e-37
226	0x82b7ff7a	-2.703607e-37
227	0x8048f882	-6.701304e-39
228	0x130f9d00	1.8126544e-27
229	0x927080de	-7.588949e-28
230	0x12c9614f	1.2708872e-27
231	0x800000a9	-2.37e-43
232	0x00000025	5.2e-44
233	0x80000025	-5.2e-44
234	0x8f87e08a	-1.3398517e-29
235	0x0e1b06bf	1.9108473e-30
236	0x8e7d58b1	-3.1227361e-30
237	0x80000035	-7.4e-44
238	0x0000013c	4.43e-43
239	0x00000202	7.2e-43
240	0x800f5b22	-1.410225e-39
241	0x80cd1358	-1.8833216e-38
242	0x821030ed	-1.059349e-37
243	0x03fd01c9	1.4870413e-36
244	0x8353b106	-6.221054e-37
245	0x825a4587	-1.6036064e-37
246	0x80000133	-4.3e-43
247	0x80000039	-8e-44
248	0x80000168	-5.04e-43
249	0x00228b0a	3.172285e-39
250	0x0008ad4f	7.96855e-40
251	0x8000869b	-4.8287e-41
252	0x07ad5c94	2.608456e-34
253	0x8853fe58	-6.3794482e-34
254	0x064e5f59	3.8814344e-35
255	0x00000029	5.7e-44

fai_gcn_networks.0.gcn.conv.bias f4 [96]
0	0x89015731	-1.5568807e-33
1	0x918a3d8f	-2.18105e-28
2	0x8000001c	-3.9e-44
3	0x920630b3	-4.234297e-28
4	0x05d3266d	1.985646e-35
5	0x0d03919d	4.0542767e-31
6	0x833eb277	-5.604085e-37
7	0x00000018	3.4e-44
8	0x0d0f36ee	4.4131396e-31
9	0x07eca32a	3.5605233e-34
10	0x139cf329	3.961971e-27
11	0x8e1d9c52	-1.942701e-30
12	0x9ea08c17	-1.6998599e-20
13	0x837cfa98	-7.434381e-37
14	0x8c07d902	-1.0465325e-31
15	0x80aeff51	-1.6070967e-38
16	0x8dceba24	-1.2740542e-30
17	0x0f8b45bc	1.3733319e-29
18	0x8066c5e2	-9.438208e-39
19	0x871044d0	-1.0853578e-34
20	0x1463afac	1.14952164e-26
21	0x8000003d	-8.5e-44
22	0x00000083	1.84e-43
23	0x850bc2fa	-6.57156e-36
24	0x90afb314	-6.930124e-29
25	0x82d6766f	-3.1512451e-37
26	0x0d394d9c	5.7100945e-31
27	0x802a789b	-3.900356e-39
28	0x082cb09f	5.1966984e-34
29	0x09cf9d2f	4.9981252e-33
30	0x0f1eed3e	7.8356926e-30
31	0x99f85f0d	-2.568099e-23
32	0x888778c6	-8.153411e-34
33	0x9214726c	-4.68416e-28
34	0x0000002c	6.2e-44
35	0x92ecc51a	-1.4942283e-27
36	0x06b62180	6.8510015e-35
37	0x0bf773a5	9.531494e-32
38	0x8341086c	-5.672727e-37
39	0x80000024	-5e-44
40	0x8c03ca7b	-1.0152805e-31
41	0x088ce481	8.4796645e-34
42	0x92cf8b00	-1.3097803e-27
43	0x0e154dbe	1.84031e-30
44	0xa0cece8e	-3.5034444e-19
45	0x82da40f4	-3.2069502e-37
46	0x916debb7	-1.8768639e-28
47	0x80421a42	-6.070562e-39
48	0x8d466c8f	-6.1144133e-31
49	0x8fae3b9c	-1.7180685e-29
50	0x01fbe017	9.252439e-38
51	0x0bcd3a73	7.905107e-32
52	0x129d2341	9.916784e-28
53	0x00000028	5.6e-44
54	0x0000012c	4.2e-43
55	0x8491df1d	-3.4294233e-36
56	0x113db1aa	1.4964218e-28
57	0x82b8a21d	-2.7129419e-37
58	0x8e3fc452	-2.3637092e-30
59	0x00461721	6.436782e-39
60	0x0790c800	2.1784261e-34
61	0x0aadcfce	1.6737461e-32
62	0x0fa80493	1.6567841e-29
63	0x19901ad3	1.4900085e-23
64	0x08e2cd79	1.3650187e-33
65	0x900eb5ca	-2.8144607e-29
66	0x00000034	7.3e-44
67	0x93066f0a	-1.6967924e-27
68	0x829f8756	-2.344063e-37
69	0x8d81e9eb	-8.0065525e-31
70	0x022eef72	1.2852218e-37
71	0x8000003c	-8.4e-44
72	0x8cb900b2	-2.8504182e-31
73	0x8874c58b	-7.365829e-34
74	0x1416a655	7.605868e-27
75	0x0cc22868	2.9914751e-31
76	0x200678c1	1.1390196e-19
77	0x826d05e2	-1.7413698e-37
78	0x90f60b85	-9.704764e-29
79	0x000d61c0	1.228928e-39
80	0x0d2bf888	5.29926e-31
81	0x8e94b01d	-3.6654408e-30
82	0x00962732	1.3789385e-38
83	0x0b8d640a	5.4461746e-32
84	0x93de0906	-5.6049577e-27
85	0x00000096	2.1e-43
86	0x00000070	1.57e-43
87	0x0458e24e	2.5494592e-36
88	0x0fb84a6e	1.817247e-29
89	0x03a0f848	9.460957e-37
90	0x0d7a8129	7.719267e-31
91	0x80197c82	-2.340552e-39
92	0x86b4f66b	-6.8070553e-35
93	0x0b78d51c	4.7923388e-32
94	0x0f1bb47a	7.6768485e-30
95	0x997f0671	-1.3184492e-23

fai_gcn_networks.1.gcn.conv.weight f4 [192, 32, 1, 1]
0	0x00000029	5.7e-44
1	0x80000024	-5e-44
2	0x00000024	5e-44
3	0x00000029	5.7e-44
4	0x00000023	4.9e-44
5	0x80000019	-3.5e-44
6	0x00000027	5.5e-44
7	0x00000023	4.9e-44
8	0x00000024	5e-44
9	0x00000023	4.9e-44
10	0x00000028	5.6e-44
11	0x80000025	-5.2e-44
12	0x80000169	-5.06e-43
13	0x00000023	4.9e-44
14	0x80000022	-4.8e-44
15	0x00000025	5.2e-44
16	0x00000024	5e-44
17	0x0000001e	4.2e-44
18	0x00000029	5.7e-44
19	0x80000027	-5.5e-44
20	0x000000da	3.05e-43
21	0x00000023	4.9e-44
22	0x00000023	4.9e-44
23	0x00000024	5e-44
24	0x00000026	5.3e-44
25	0x00000023	4.9e-44
26	0x80000025	-5.2e-44
27	0x80000023	-4.9e-44
28	0x00000023	4.9e-44
29	0x80000060	-1.35e-43
30	0x80000023	-4.9e-44
31	0x00000024	5e-44
32	0x80000024	-5e-44
33	0xb82c7656	-4.1118205e-05
34	0x80000023	-4.9e-44
35	0x80000023	-4.9e-44
36	0x80000023	-4.9e-44
37	0x00000023	4.9e-44
38	0x00000023	4.9e-44
39	0x0c9311a4	2.2659553e-31
40	0x00000023	4.9e-44
41	0x80000023	-4.9e-44
42	0x80000026	-5.3e-44
43	0x00000024	5e-44
44	0x800138d4	-1.12222e-40
45	0x0006cb57	6.23958e-40
46	0x0000027a	8.88e-43
47	0x0000002c	6.2e-44
48	0x8e4cf5db	-2.5263316e-30
49	0x0000002b	6e-44
50	0x00000027	5.5e-44
51	0x80000046	-9.8e-44
52	0x00000023	4.9e-44
53	0x00000023	4.9e-44
54	0x00000026	5.3e-44
55	0x00000023	4.9e-44
56	0x80000026	-5.3e-44
57	0x00000023	4.9e-44
58	0x80002167	-1.1983e-41
59	0x80000023	-4.9e-44
60	0x80000023	-4.9e-44
61	0x80000023	-4.9e-44
62	0x80000023	-4.9e-44
63	0x80000023	-4.9e-44
64	0x8000002a	-5.9e-44
65	0x00000023	4.9e-44
66	0x00000023	4.9e-44
67	0x80000026	-5.3e-44
68	0x93aa63bd	-4.3012383e-27
69	0x80000023	-4.9e-44
70	0x00000025	5.2e-44
71	0x80000023	-4.9e-44
72	0x00000023	4.9e-44
73	0x00000026	5.3e-44
74	0x00000029	5.7e-44
75	0x800000cc	-2.86e-43
76	0x8003e1a2	-3.56448e-40
77	0x80000023	-4.9e-44
78	0x0000083c	2.954e-42
79	0x80000024	-5e-44
80	0x00000024	5e-44
81	0x00000027	5.5e-44
82	0x00000019	3.5e-44
83	0x80000025	-5.2e-44
84	0x00000023	4.9e-44
85	0x0000002a	5.9e-44
86	0x00000023	4.9e-44
87	0x00000035	7.4e-44
88	0x00000023	4.9e-44
89	0x00000023	4.9e-44
90	0x00000024	5e-44
91	0x80000023	-4.9e-44
92	0x80000029	-5.7e-44
93	0x8000002a	-5.9e-44
94	0x80000025	-5.2e-44
95	0x80000023	-4.9e-44
96	0x00038b65	3.25512e-40
97	0x00012395	1.046e-40
98	0x80000024	-5e-44
99	0x85de179e	-2.0885455e-35
100	0x80000044	-9.5e-44
101	0x805aad89	-8.327447e-39
102	0x0000006f	1.56e-43
103	0x80000023	-4.9e-44
104	0x00059f5a	5.16342e-40
105	0x8011500b	-1.589917e-39
106	0x06b50a8f	6.810015e-35
107	0x017097a2	4.418983e-38
108	0x918b0325	-2.193227e-28
109	0x00000023	4.9e-44
110	0x0e74561c	3.0116782e-30
111	0x80000023	-4.9e-44
112	0x80526044	-7.565044e-39
113	0x0293c96b	2.1715317e-37
114	0x80000041	-9.1e-44
115	0x8046381b	-6.448612e-39
116	0x86a77987	-6.2996986e-35
117	0x00000023	4.9e-44
118	0x8000002c	-6.2e-44
119	0x80000cf8	-4.652e-42
120	0x821f5e5a	-1.1708553e-37
121	0x804d28f3	-7.086023e-39
122	0x826afdea	-1.7264475e-37
123	0x80000023	-4.9e-44
124	0x00001bea	1.0014e-41
125	0x8013717f	-1.785589e-39
126	0x020f7b5e	1.0541385e-37
127	0x0befd628	9.238168e-32
128	0x00000023	4.9e-44
129	0x80000023	-4.9e-44
130	0x80000023	-4.9e-44
131	0x80000023	-4.9e-44
132	0x00000023	4.9e-44
133	0x80000029	-5.7e-44
134	0x80000023	-4.9e-44
135	0x80000023	-4.9e-44
136	0x00000023	4.9e-44
137	0x80000023	-4.9e-44
138	0x80000023	-4.9e-44
139	0x80000023	-4.9e-44
140	0x00090d39	8.31263e-40
141	0x00000023	4.9e-44
142	0x800000e6	-3.22e-43
143	0x0000002b	6e-44
144	0x00000027	5.5e-44
145	0x00000025	5.2e-44
146	0x00000023	4.9e-44
147	0x80000023	-4.9e-44
148	0x00000024	5e-44
149	0x00000023	4.9e-44
150	0x8000002c	-6.2e-44
151	0x00000023	4.9e-44
152	0x00000027	5.5e-44
153	0x8000002c	-6.2e-44
154	0x00000026	5.3e-44
155	0x00000023	4.9e-44
156	0x00000023	4.9e-44
157	0x80000023	-4.9e-44
158	0x00000023	4.9e-44
159	0x9a8cb862	-5.820053e-23
160	0x05bde977	1.7859236e-35
161	0x05783d49	1.167216e-35
162	0x80000023	-4.9e-44
163	0x8dcd125d	-1.2638521e-30
164	0x80fbdb6b	-2.3129422e-38
165	0x864d5b09	-3.8623097e-35
166	0x00024fe1	2.12326e-40
167	0x00000024	5e-44
168	0x8913ca65	-1.7789647e-33
169	0x051a0e7e	7.243707e-36
170	0x0e75b408	3.0285263e-30
171	0x0886689c	8.089425e-34
172	0x1b436b38	1.6164666e-22
173	0x000268d1	2.21272e-40
174	0x1657c427	1.7429456e-25
175	0x80002cf0	-1.612e-41
176	0x06e0e981	8.460254e-35
177	0x096da09d	2.8603357e-33
178	0x800195b2	-1.45536e-40
179	0x85228101	-7.640898e-36
180	0x8c867f49	-2.0722576e-31
181	0x00000019	3.5e-44
182	0x00000025	5.2e-44
183	0x891e0a7c	-1.9023488e-33
184	0x0c010a90	9.940977e-32
185	0x88b33634	-1.0785914e-33
186	0x069b2c7d	5.836989e-35
187	0x800007e2	-2.828e-42
188	0x011228ac	2.6845146e-38
189	0x0648ed6a	3.7790244e-35
190	0x086de7ff	7.1592303e-34
191	0x113c30bf	1.4845606e-28
192	0x800c36ba	-1.121658e-39
193	0x8000331b	-1.8333e-41
194	0x00000023	4.9e-44
195	0x8424d7a5	-1.9377126e-36
196	0x000022bd	1.2462e-41
197	0x001f7ae5	2.890987e-39
198	0x00000023	4.9e-44
199	0x0000002a	5.9e-44
200	0x00297d7a	3.810268e-39
201	0x00171969	2.121332e-39
202	0x05823376	1.2244045e-35
203	0x818e8cff	-5.236488e-38
204	0x0e524352	2.5916912e-30
205	0x80000018	-3.4e-44
206	0x8f0cc913	-6.9412584e-30
207	0x000000b7	2.56e-43
208	0x001808c5	2.207198e-39
209	0x0110e089	2.660972e-38
210	0x00000023	4.9e-44
211	0x8027a8bb	-3.642113e-39
212	0x054b9d63	9.5739215e-36
213	0x80000024	-5e-44
214	0x00000025	5.2e-44
215	0x80000135	-4.33e-43
216	0x02d982ce	3.1960362e-37
217	0x8044d26a	-6.320296e-39
218	0x82435a1f	-1.4352201e-37
219	0x80000023	-4.9e-44
220	0x8000071c	-2.55e-42
221	0x001359e6	1.777124e-39
222	0x03055337	3.9180713e-37
223	0x8a08f218	-6.5936946e-33
224	0x01cb16dc	7.4603224e-38
225	0x04c90444	4.725879e-36
226	0x00000029	5.7e-44
227	0x8da2b5e3	-1.0027808e-30
228	0x0047f08d	6.606614e-39
229	0x082b4234	5.153626e-34
230	0x8001b017	-1.55005e-40
231	0x80000074	-1.63e-43
232	0x072af2da	1.2860746e-34
233	0x8519b9b4	-7.228134e-36
234	0x0dd10eab	1.2884151e-30
235	0x87a1409a	-2.4262557e-34
236	0x991b6aba	-8.0348654e-24
237	0x00009634	5.3883e-41
238	0x150126d3	2.608197e-26
239	0x00000068	1.46e-43
240	0x062f3664	3.2953802e-35
241	0x093d30d2	2.2773003e-33
242	0x00002e3b	1.6584e-41
243	0x040bb559	1.6422642e-36
244	0x0ae1a14c	2.1727385e-32
245	0x00000023	4.9e-44
246	0x80000023	-4.9e-44
247	0x0007a089	7.00438e-40
248	0x0a63f665	1.0975994e-32
249	0x080ed076	4.2976615e-34
250	0x8851e4cc	-6.31626e-34
251	0x00000172	5.18e-43
252	0x8212fae1	-1.0798385e-37
253	0x051a2b4f	7.249e-36
254	0x0753cf75	1.5934842e-34
255	0x1332f244	2.2586205e-27

fai_gcn_networks.1.gcn.conv.bias f4 [192]
0	0x19094cf2	7.098273e-24
1	0x1d22119e	2.144963e-21
2	0x9c5fab3c	-7.4005826e-22
3	0x3163ba7f	3.3138858e-09
4	0x1d5ffc95	2.9644386e-21
5	0x399b8e6c	0.00029670016
6	0x306f4877	8.705067e-10
7	0x38f21d58	0.00011544925
8	0x98c81278	-5.1717437e-24
9	0x190bbb20	7.223921e-24
10	0x1a90a90c	5.9830114e-23
11	0x38ab7d36	8.177238e-05
12	0x1c493554	6.6574246e-22
13	0x286161ff	1.25112585e-14
14	0x37cefacb	2.4673898e-05
15	0x9a4705cc	-4.1156918e-23
16	0x19e3d3a5	2.3556732e-23
17	0x9a51e727	-4.340691e-23
18	0x39c3b0b2	0.00037324947
19	0x9c3e6b55	-6.300445e-22
20	0x1b838439	2.175758e-22
21	0x395bf93e	0.00020978317
22	0x362bf9f9	2.562649e-06
23	0x99b85dfc	-1.9063114e-23
24	0x374cadba	1.2199796e-05
25	0x9ae822c0	-9.600909e-23
26	0x19a8d1a9	1.7455474e-23
27	0x15ef5296	9.666163e-26
28	0x1a09e4a6	2.8515637e-23
29	0x9933668e	-9.274794e-24
30	0x974f946d	-6.7072647e-25
31	0x989a6a03	-3.991511e-24
32	0x184872f4	2.590743e-24
33	0x21a25bfb	1.1001894e-18
34	0x3665d5c3	3.4248085e-06
35	0x1a7a0d78	5.1709668e-23
36	0x9a7b77b3	-5.2002276e-23
37	0x3011406d	5.284225e-10
38	0x1a3efddc	3.9496145e-23
39	0x1b705209	1.9878842e-22
40	0x31335810	2.6097986e-09
41	0x9a3e443a	-3.9346192e-23
42	0x999b6f50	-1.6071583e-23
43	0x994828a6	-1.03479665e-23
44	0x3840451d	4.5840734e-05
45	0x2e93f773	6.728742e-11
46	0x35284d7b	6.2697626e-07
47	0x9c564fe9	-7.090994e-22
48	0x35b5d7cc	1.3548356e-06
49	0x2c1eba40	2.255654e-12
50	0x99b86011	-1.9063955e-23
51	0x316b934b	3.4280727e-09
52	0x9726626e	-5.376173e-25
53	0x9b4a85f7	-1.6752335e-22
54	0x1c9a5573	1.0212953e-21
55	0x9c2e7c0b	-5.773209e-22
56	0x1ad21ff8	8.690561e-23
57	0x30e5ae77	1.6711529e-09
58	0x33638c3a	5.298009e-08
59	0x9cc05ada	-1.2728979e-21
60	0x363701ab	2.7270096e-06
61	0x9c3fa687	-6.341183e-22
62	0x99610391	-1.16329476e-23
63	0x9b5a666b	-1.806563e-22
64	0x18f86d6b	6.421698e-24
65	0x1d56da92	2.8435662e-21
66	0x9c4b196f	-6.719994e-22
67	0x31c4ac57	5.7239435e-09
68	0x9a7d5553	-5.2388098e-23
69	0x39fdae32	0.00048385706
70	0x30cf0d00	1.5064927e-09
71	0x3948f0d7	0.00019163206
72	0x989d0916	-4.0592723e-24
73	0x19b20752	1.8407725e-23
74	0x9a0d4536	-2.9214025e-23
75	0x390f6666	0.00013675689
76	0x1cbb8d7b	1.2411194e-21
77	0x28d9e7f2	2.419243e-14
78	0x382ecd9d	4.1676325e-05
79	0x9b4ac881	-1.6773835e-22
80	0x177d93ca	8.1935245e-25
81	0x9a917d92	-6.0173464e-23
82	0x3a20d23f	0.0006134845
83	0x9c87a6d5	-8.976676e-22
84	0x9b95975b	-2.4747793e-22
85	0x39b5bb87	0.0003466273
86	0x36912e57	4.3267314e-06
87	0x9985722e	-1.3797994e-23
88	0x37aadf44	2.0369545e-05
89	0x9b117ee5	-1.2035121e-22
90	0x9aa6c72e	-6.897778e-23
91	0x16be9252	3.0788497e-25
92	0x98a682b6	-4.304198e-24
93	0x991f01a3	-8.220438e-24
94	0x18150ed7	1.926529e-24
95	0x1826fe5c	2.1583416e-24
96	0x9a31d3a9	-3.677372e-23
97	0x2247ebde	2.7094396e-18
98	0x36c32ce7	5.81668e-06
99	0x1b7325d2	2.0112709e-22
100	0x19b9b8ad	1.9203142e-23
101	0x307b46d4	9.141392e-10
102	0x1aaa704d	7.0491784e-23
103	0x1c3fa361	6.340776e-22
104	0x319af7a6	4.5101443e-09
105	0x9aafc3a9	-7.269441e-23
106	0x9b290b75	-1.3983054e-22
107	0x1981fa06	1.3439271e-23
108	0x389f9050	7.608591e-05
109	0x2e28ea75	3.8407017e-11
110	0x358dd023	1.0565894e-06
111	0x9c8aad24	-9.17683e-22
112	0x36198840	2.2878085e-06
113	0x2c8da68d	4.025952e-12
114	0x9a316bd9	-3.668986e-23
115	0x31cbc378	5.9303e-09
116	0x9758ec22	-7.0091406e-25
117	0x9b6cff10	-1.9603878e-22
118	0x16c58e7c	3.1916987e-25
119	0x9c2bd937	-5.68599e-22
120	0x1b238f5d	1.3529367e-22
121	0x31462c0f	2.8837837e-09
122	0x33c138b7	8.997579e-08
123	0x9c82ebd3	-8.663638e-22
124	0x369939d2	4.5664865e-06
125	0x1b5e74d9	1.8401165e-22
126	0x99a51a16	-1.7071136e-23
127	0x9b9672cf	-2.4889612e-22
128	0x1a40c906	3.9867055e-23
129	0x9a8dbf16	-5.862495e-23
130	0x9d44fe49	-2.6071846e-21
131	0x3065b9c0	8.357368e-10
132	0x9d359f25	-2.4037426e-21
133	0x38a79426	7.990775e-05
134	0x2f7765f2	2.2500737e-10
135	0x38002b75	3.055805e-05
136	0x18842d5b	3.4166998e-24
137	0x1a477080	4.1243112e-23
138	0x9b22f603	-1.3479817e-22
139	0x37b37195	2.1391354e-05
140	0x9d5a4144	-2.8885801e-21
141	0x278830e9	3.780061e-15
142	0x36d65eb7	6.3887232e-06
143	0x1c4c7eff	6.7662077e-22
144	0x1a914e2d	6.0096894e-23
145	0x99ee8318	-2.4661572e-23
146	0x38cefd01	9.869971e-05
147	0x1c4fe89f	6.879121e-22
148	0x1cdb3aba	1.4507385e-21
149	0x3869084c	5.5559256e-05
150	0x3530473e	6.566878e-07
151	0x99f59edf	-2.5396574e-23
152	0x3656986b	3.1977204e-06
153	0x9b047ca1	-1.0959054e-22
154	0x9b12bc4c	-1.2137679e-22
155	0x96fafb1c	-4.054815e-25
156	0x9848d212	-2.5955453e-24
157	0x1a29edd7	3.5140506e-23
158	0x995b0947	-1.1323908e-23
159	0x988afa47	-3.592488e-24
160	0x994434c1	-1.0143616e-23
161	0x20dedecd	3.77557e-19
162	0x356a1c82	8.721328e-07
163	0x1c3cb6c5	6.2440206e-22
164	0x9a8bfc3e	-5.789657e-23
165	0x2f187692	1.3866444e-10
166	0x9abc5068	-7.788488e-23
167	0x9c5d4e01	-7.3223584e-22
168	0x303582f7	6.603353e-10
169	0x99bd1e77	-1.9554447e-23
170	0x9bada012	-2.8723892e-22
171	0x1a958017	6.1831896e-23
172	0x374ba53c	1.21382145e-05
173	0x2e472ea9	4.5288804e-11
174	0x342c10ea	1.6024902e-07
175	0x1c4693ea	6.570388e-22
176	0x34b9e438	3.4624986e-07
177	0x2b3c90c9	6.6991947e-13
178	0x9a17a3f3	-3.1358505e-23
179	0x306cdde0	8.6171603e-10
180	0x174ae361	6.5556713e-25
181	0x1b557acd	1.7658626e-22
182	0x9cb4223e	-1.1920252e-21
183	0x9cbb3978	-1.2389477e-21
184	0x9b834a4a	-2.172014e-22
185	0x2feb589d	4.2809215e-10
186	0x3266901d	1.342053e-08
187	0x9a115247	-3.005176e-23
188	0x353d9569	7.0625407e-07
189	0x9c28fe2f	-5.591506e-22
190	0x19c7baff	2.0651645e-23
191	0x9bb5d4d4	-3.0081475e-22

fai_gcn_networks.1.residual.0.weight f4 [64, 32, 1, 1]
0	0xbc7f773d	-0.015592393
1	0xbc4e3058	-0.012584768
2	0xbb3f9820	-0.002923496
3	0x3d165aa1	0.036707524
4	0x3d1eda92	0.038782664
5	0xbc36b8d2	-0.011152463
6	0x3cd6cc26	0.026220392
7	0x3d04c5bc	0.032415137
8	0xbca29a4e	-0.019848969
9	0xbc859c96	-0.016310018
10	0x3c1670c4	0.009182159
11	0x3d095dad	0.0335366
12	0x3b309054	0.0026941495
13	0xbc251450	-0.010075644
14	0x3cf462fc	0.029832356
15	0x3c86844e	0.01642051
16	0x3d17101d	0.0368806
17	0x3c6fca2f	0.014635607
18	0xbc6b31f0	-0.014355168
19	0x3cb4e6e2	0.02208275
20	0xbc5615a4	-0.013066683
21	0x3c14a1e2	0.009071799
22	0x3cc450d5	0.023964325
23	0xbc040d69	-0.008059838
24	0xbcb0dcaf	-0.021589605
25	0x3c9bd227	0.019021107
26	0xbc856f61	-0.016288461
27	0x3c940c0c	0.01807215
28	0x3b144b99	0.0022628068
29	0x3aa18621	0.0012323299
30	0xbbc05849	-0.0058698994
31	0x3c98c657	0.018649263
32	0x3cc6d901	0.024273397
33	0x3cbc88d2	0.02301446
34	0xbd306eb2	-0.043074317
35	0xbc8b64ae	-0.017015781
36	0x3b6eb50a	0.0036423826
37	0x3c47d9e4	0.012197945
38	0x3d010cfc	0.031506523
39	0x3cdd2749	0.026996272
40	0xbc4425c2	-0.011971893
41	0x3b74178a	0.0037245476
42	0xba5f7d2c	-0.0008525427
43	0xbc9fe60e	-0.019518878
44	0xbd2d836a	-0.042361654
45	0x3c8f5147	0.01749481
46	0xbcedb838	-0.029018506
47	0x3bbfac72	0.0058494145
48	0x3b39befc	0.0028342595
49	0xbb96c4c2	-0.004601092
50	0xbc33c2b5	-0.010971715
51	0xbce4bef0	-0.027923077
52	0x3cee65fb	0.029101362
53	0x3b90ad63	0.0044152006
54	0x3c6da85b	0.014505471
55	0xbd1937fd	-0.03740691
56	0xbc1debe8	-0.009638764
57	0x3c986dc6	0.018607032
58	0xbc2da25b	-0.010597791
59	0x3cdb844f	0.026796488
60	0xbccfc825	-0.025363991
61	0xbd25b23c	-0.04045318
62	0x3c36b418	0.011151336
63	0x3c130c53	0.008975106
64	0xba9538d2	-0.0011384732
65	0xbbb0324d	-0.00537709
66	0x3bb227ad	0.0054368586
67	0x3c8c179b	0.0171011
68	0x3c43c5fc	0.011949059
69	0xbc07f1ff	-0.008297442
70	0x3c675a0a	0.014120588
71	0xbbf424f4	-0.007450694
72	0xbc7dc68c	-0.015489232
73	0x3c7f64e1	0.015588016
74	0xbc16110c	-0.009159338
75	0xbca9f707	-0.020747675
76	0xbc2bcbaf	-0.010485574
77	0x3b5ea58a	0.003397318
78	0xbba81756	-0.005129735
79	0xbc9379c0	-0.01800239
80	0xbc98f82d	-0.018673027
81	0xbd264a8b	-0.040598433
82	0xbb9e9ab5	-0.00484022
83	0xbc9da1ba	-0.019242156
84	0xbcfa7630	-0.030573934
85	0xbce25f3b	-0.0276333
86	0x3c57c85c	0.013170328
87	0xbc9dd27d	-0.019265408
88	0xbc8b2d30	-0.01698932
89	0xbbe07a5b	-0.0068505234
90	0xbbb57789	-0.0055379313
91	0x3c3915eb	0.01129673
92	0x3ce61bf7	0.028089507
93	0x3cda68ca	0.026661295
94	0xbbbfca9c	-0.0058530103
95	0xbca0a131	-0.019608112
96	0xbc948ff9	-0.018135058
97	0xbb4d0001	-0.003128052
98	0xbbd7c279	-0.0065844622
99	0x3cd88237	0.026429279
100	0xbc86bf4c	-0.01644864
101	0xbc0463f6	-0.008080473
102	0xbd31c12a	-0.043397106
103	0xbce7ab98	-0.028280064
104	0x3c297b80	0.010344386
105	0x3d06ea14	0.032938078
106	0xbc492735	-0.012277414
107	0xbc7bf28a	-0.01537765
108	0xba9e0436	-0.0012055698
109	0xbc5b8d90	-0.01340045
110	0x3cb56260	0.022141635
111	0xbccaeaea	-0.024770219
112	0xbaef43f9	-0.001825451
113	0xbca59cf8	-0.02021645
114	0x3d042f77	0.03227183
115	0x3cd57a92	0.026059423
116	0xbb05d6ed	-0.0020422295
117	0xbbd331dc	-0.0064451527
118	0x3c4e0f52	0.012576895
119	0x3c51a0dc	0.0127946995
120	0xbcba18f3	-0.022716975
121	0x3ccd411d	0.025055462
122	0x3c949a76	0.018140059
123	0x3b0fd340	0.0021945983
124	0x3cb5e2c1	0.022202851
125	0x3cdcdb64	0.026960082
126	0x3ca0d4e7	0.01963277
127	0xbb57dcb9	-0.0032937957
128	0x3c6613bc	0.014042791
129	0x3befae54	0.0073144827
130	0xbca17eb0	-0.01971373
131	0x3c957ffe	0.018249508
132	0x3c34c267	0.011032677
133	0x3ca06167	0.019577695
134	0xbbb4ac47	-0.005513701
135	0x3c63cc5d	0.0139037045
136	0xbba1b909	-0.004935388
137	0x3a24e66d	0.00062904396
138	0x3d36d855	0.044639904
139	0xbc069007	-0.00821305
140	0xbb1fea20	-0.0024401024
141	0x3c548dd3	0.012973267
142	0xbae81b6e	-0.001770837
143	0xbc07098d	-0.008242023
144	0xbb35ceca	-0.0027741664
145	0xbca5a3d2	-0.020219717
146	0xbc7d075e	-0.015443651
147	0xbbd5e499	-0.006527495
148	0xbae59dcf	-0.0017518344
149	0x3cb44ea0	0.022010148
150	0xbc81d772	-0.015849803
151	0x3a3f3add	0.0007294843
152	0xbc6bf645	-0.014401977
153	0x3cc38a54	0.02386967
154	0x3ca5fbb9	0.020261632
155	0x3ad16df4	0.0015978203
156	0xbc6548d5	-0.013994415
157	0x3c173ac6	0.009230321
158	0xbc44ebf3	-0.012019145
159	0xbd3bf8fc	-0.045891747
160	0xbc782b13	-0.015146988
161	0x3c13df9b	0.00902548
162	0x3cc93a60	0.024563968
163	0xbc75fc03	-0.015013698
164	0x3ca6ec30	0.020376295
165	0x3c3840b0	0.011245891
166	0xbb59c525	-0.003322908
167	0xbcd1a18a	-0.025589723
168	0xbce09e10	-0.02741912
169	0xbc967d3e	-0.018370267
170	0x3c8c6247	0.017136706
171	0xbc2a7449	-0.010403701
172	0xbc92afb4	-0.017906047
173	0xbaf04659	-0.0018331512
174	0x3cb036bd	0.021510476
175	0x3bce2b85	0.006291809
176	0xbc84ccf9	-0.01621102
177	0x3d79c800	0.06098175
178	0x3cd2b942	0.025723103
179	0x3c329c0b	0.010901461
180	0x3b3d61a7	0.0028897317
181	0x3cb3222a	0.021866877
182	0xbbcb6c37	-0.0062079686
183	0x3b9b6e58	0.0047433786
184	0x3c91de02	0.017806057
185	0x3bc68e29	0.0060594273
186	0xbcc96e79	-0.02458881
187	0xbca25377	-0.01981519
188	0xbc81e29b	-0.015855124
189	0xba6a6947	-0.0008942079
190	0x3c4a707b	0.012355919
191	0x3c38e1cb	0.011284302
192	0xbc80e4e8	-0.015734151
193	0xbae19e75	-0.0017213362
194	0xbd79e923	-0.061013352
195	0x3c79967b	0.015233631
196	0xbd1d2a29	-0.038370285
197	0x3ab1cc3c	0.0013564895
198	0xbc39a23d	-0.0113301845
199	0xbd1bc2f6	-0.038027726
200	0xbb7552ee	-0.0037433463
201	0xbc63f733	-0.013913917
202	0xbb8ea3b6	-0.004353012
203	0x3b1e2ebd	0.0024136745
204	0xbbacab09	-0.0052694124
205	0x3c48f70f	0.012265935
206	0x3c75afd4	0.014995534
207	0xbc65c132	-0.014023112
208	0x3d12201d	0.035675157
209	0x3c4fc7fc	0.012681957
210	0xbc5df258	-0.013546549
211	0xbb8ad981	-0.0042373543
212	0x3d874f12	0.06606878
213	0x3c3ee48b	0.011651169
214	0x3cc36e18	0.023856208
215	0x3bb9c815	0.0056696036
216	0xbc7a8e0b	-0.015292655
217	0x3a4542db	0.0007524916
218	0x3b96fb9c	0.004607631
219	0xbd01fef0	-0.031737268
220	0xbb339d7d	-0.0027407103
221	0x3b0bf88e	0.0021357867
222	0xbc541fe5	-0.012947057
223	0xbc8cec17	-0.01720242
224	0x3a9f8f3e	0.0012173427
225	0x3af97aa0	0.0019033737
226	0x3c558032	0.013031052
227	0xbce8fd2e	-0.028441038
228	0xbc308e73	-0.01077615
229	0xbc4fc8e1	-0.012682171
230	0xbb8f90a1	-0.004381255
231	0xbc170ce3	-0.009219381
232	0x3b71eb67	0.0036913992
233	0xbd0be14b	-0.034150403
234	0x3c4ddd3d	0.012564954
235	0x3cf02463	0.029314226
236	0x3c82d231	0.015969368
237	0x3a47f589	0.0007627835
238	0xbcb754f0	-0.022379369
239	0xbb958a04	-0.004563572
240	0x3bccff18	0.0062559955
241	0x3ca58521	0.020205082
242	0x3d1636bb	0.03667329
243	0xbc6b6170	-0.014366493
244	0x3c429269	0.011875727
245	0x3ba917ee	0.0051603233
246	0x3c297014	0.010341663
247	0xbbb4210d	-0.005497104
248	0x3c60f36e	0.013729913
249	0xbd3f2c4a	-0.046673097
250	0xbcb7afd0	-0.022422701
251	0x3bbe1ce6	0.005801785
252	0x3b7dd060	0.0038728938
253	0xbb4cc587	-0.0031245665
254	0x3c4004a0	0.011719853
255	0x3c9d1f9c	0.019180112

fai_gcn_networks.1.residual.0.bias f4 [64]
0	0x00000000	0.0
1	0x00000000	0.0
2	0x00000000	0.0
3	0x00000000	0.0
4	0x00000000	0.0
5	0x00000000	0.0
6	0x00000000	0.0
7	0x00000000	0.0
8	0x00000000	0.0
9	0x00000000	0.0
10	0x00000000	0.0
11	0x00000000	0.0
12	0x00000000	0.0
13	0x00000000	0.0
14	0x00000000	0.0
15	0x00000000	0.0
16	0x00000000	0.0
17	0x00000000	0.0
18	0x00000000	0.0
19	0x00000000	0.0
20	0x00000000	0.0
21	0x00000000	0.0
22	0x00000000	0.0
23	0x00000000	0.0
24	0x00000000	0.0
25	0x00000000	0.0
26	0x00000000	0.0
27	0x00000000	0.0
28	0x00000000	0.0
29	0x00000000	0.0
30	0x00000000	0.0
31	0x00000000	0.0
32	0x00000000	0.0
33	0x00000000	0.0
34	0x00000000	0.0
35	0x00000000	0.0
36	0x00000000	0.0
37	0x00000000	0.0
38	0x00000000	0.0
39	0x00000000	0.0
40	0x00000000	0.0
41	0x00000000	0.0
42	0x00000000	0.0
43	0x00000000	0.0
44	0x00000000	0.0
45	0x00000000	0.0
46	0x00000000	0.0
47	0x00000000	0.0
48	0x00000000	0.0
49	0x00000000	0.0
50	0x00000000	0.0
51	0x00000000	0.0
52	0x00000000	0.0
53	0x00000000	0.0
54	0x00000000	0.0
55	0x00000000	0.0
56	0x00000000	0.0
57	0x00000000	0.0
58	0x00000000	0.0
59	0x00000000	0.0
60	0x00000000	0.0
61	0x00000000	0.0
62	0x00000000	0.0
63	0x00000000	0.0

fai_gcn_networks.1.residual.1.weight f4 [64]
0	0x3f81e8b2	1.0149138
1	0x3f7d6802	0.9898683
2	0x3f8006bd	1.0002056
3	0x3f7d51e4	0.9895308
4	0x3f7c44e4	0.9854262
5	0x3f80556e	1.0026071
6	0x3f78f662	0.9725095
7	0x3f811737	1.008521
8	0x3f7a6986	0.97817266
9	0x3f7f44ee	0.99714553
10	0x3f836795	1.0265986
11	0x3f7c1973	0.9847633
12	0x3f81ec4b	1.0150236
13	0x3f7b87fc	0.9825437
14	0x3f83b423	1.0289348
15	0x3f805cc4	1.002831
16	0x3f810e1a	1.0082428
17	0x3f81c2c9	1.0137569
18	0x3f81c834	1.0139222
19	0x3f778f81	0.96703345
20	0x3f77b613	0.967622
21	0x3f815f62	1.0107234
22	0x3f800913	1.0002769
23	0x3f885d21	1.0653421
24	0x3f7cd7c4	0.9876673
25	0x3f77b847	0.9676556
26	0x3f7df9ba	0.9920918
27	0x3f83da9c	1.0301089
28	0x3f805b86	1.0027931
29	0x3f81fcde	1.0155294
30	0x3f7c2d85	0.9850696
31	0x3f82dab6	1.0222995
32	0x3f7e4875	0.9932931
33	0x3f82d447	1.0221032
34	0x3f83f827	1.0310105
35	0x3f802fbe	1.001457
36	0x3f7dcdf7	0.991424
37	0x3f83d8d8	1.030055
38	0x3f78d404	0.9719851
39	0x3f7e9032	0.99438775
40	0x3f7f52c9	0.99735695
41	0x3f8070d8	1.0034437
42	0x3f7cc6f8	0.987411
43	0x3f7c169b	0.98471993
44	0x3f8135ad	1.0094506
45	0x3f80a89d	1.0051457
46	0x3f76a3fe	0.9634398
47	0x3f81c7ad	1.0139061
48	0x3f83755c	1.027019
49	0x3f7d22e8	0.9888139
50	0x3f7f2852	0.996709
51	0x3f7cc0e0	0.98731804
52	0x3f78b7ce	0.97155464
53	0x3f7ea544	0.99470925
54	0x3f82c803	1.0217289
55	0x3f82a32d	1.0206047
56	0x3f811003	1.0083011
57	0x3f7bf90d	0.98426896
58	0x3f8218bf	1.0163802
59	0x3f803a42	1.0017779
60	0x3f7dfe21	0.99215895
61	0x3f81ab3e	1.0130384
62	0x3f7896ca	0.97105086
63	0x3f80974c	1.0046172

fai_gcn_networks.1.residual.1.bias f4 [64]
0	0x00000000	0.0
1	0x00000000	0.0
2	0x00000000	0.0
3	0x00000000	0.0
4	0x00000000	0.0
5	0x00000000	0.0
6	0x00000000	0.0
7	0x00000000	0.0
8	0x00000000	0.0
9	0x00000000	0.0
10	0x00000000	0.0
11	0x00000000	0.0
12	0x00000000	0.0
13	0x00000000	0.0
14	0x00000000	0.0
15	0x00000000	0.0
16	0x00000000	0.0
17	0x00000000	0.0
18	0x00000000	0.0
19	0x00000000	0.0
20	0x00000000	0.0
21	0x00000000	0.0
22	0x00000000	0.0
23	0x00000000	0.0
24	0x00000000	0.0
25	0x00000000	0.0
26	0x00000000	0.0
27	0x00000000	0.0
28	0x00000000	0.0
29	0x00000000	0.0
30	0x00000000	0.0
31	0x00000000	0.0
32	0x00000000	0.0
33	0x00000000	0.0
34	0x00000000	0.0
35	0x00000000	0.0
36	0x00000000	0.0
37	0x00000000	0.0
38	0x00000000	0.0
39	0x00000000	0.0
40	0x00000000	0.0
41	0x00000000	0.0
42	0x00000000	0.0
43	0x00000000	0.0
44	0x00000000	0.0
45	0x00000000	0.0
46	0x00000000	0.0
47	0x00000000	0.0
48	0x00000000	0.0
49	0x00000000	0.0
50	0x00000000	0.0
51	0x00000000	0.0
52	0x00000000	0.0
53	0x00000000	0.0
54	0x00000000	0.0
55	0x00000000	0.0
56	0x00000000	0.0
57	0x00000000	0.0
58	0x00000000	0.0
59	0x00000000	0.0
60	0x00000000	0.0
61	0x00000000	0.0
62	0x00000000	0.0
63	0x00000000	0.0

fai_gcn_networks.1.residual.1.running_mean f4 [64]
0	0x1ba168ed	2.6703022e-22
1	0x9d9617a5	-3.9729117e-21
2	0x9c94752b	-9.824106e-22
3	0x9af505d8	-1.01339066e-22
4	0x9b8a7139	-2.2903353e-22
5	0x9cfb2955	-1.6620471e-21
6	0x9c12810c	-4.8474137e-22
7	0x1cdfc33a	1.4807367e-21
8	0x9cac9a5c	-1.1421906e-21
9	0x9c950b95	-9.862987e-22
10	0x1ccf8154	1.3731541e-21
11	0x9c352c25	-5.994493e-22
12	0x9c0521af	-4.4049544e-22
13	0x1cf180d6	1.5981346e-21
14	0x1d0ce3fc	1.864671e-21
15	0x1befb1d1	3.9654144e-22
16	0x9be5c38b	-3.8011239e-22
17	0x9c7b120d	-8.3072264e-22
18	0x1b261dd9	1.3740842e-22
19	0x1bb16593	2.9347834e-22
20	0x1b8ed25a	2.3627866e-22
21	0x1d0ccf44	1.8636e-21
22	0x1cd7278f	1.4237732e-21
23	0x9c9a194c	-1.0197404e-21
24	0x1d051ac6	1.7616245e-21
25	0x9d36b72d	-2.41822e-21
26	0x1d5347fb	2.796283e-21
27	0x195c8fac	1.1402748e-23
28	0x1d1edd73	2.1025612e-21
29	0x1d6c5277	3.1276973e-21
30	0x9c75db05	-8.1346776e-22
31	0x9c7c94c1	-8.3572066e-22
32	0x1cdeada1	1.473561e-21
33	0x9c4b5326	-6.7274533e-22
34	0x1c36add4	6.0443416e-22
35	0x1c0c7810	4.647729e-22
36	0x1d14190e	1.960059e-21
37	0x1cda1877	1.4432354e-21
38	0x9c849dca	-8.775815e-22
39	0x9c90dae9	-9.585708e-22
40	0x1d234de4	2.1613139e-21
41	0x1d496025	2.6651834e-21
42	0x9c2be19b	-5.687074e-22
43	0x9bf8cd5e	-4.1160874e-22
44	0x9d291625	-2.2378412e-21
45	0x1d9334aa	3.896503e-21
46	0x9cda33bb	-1.4439402e-21
47	0x1d8e899d	3.7729376e-21
48	0x1bdb7d11	3.6311333e-22
49	0x1d0096e0	1.701866e-21
50	0x9d455a5e	-2.6119452e-21
51	0x1bc1d223	3.206497e-22
52	0x9c37b436	-6.078254e-22
53	0x9b0725a5	-1.1179102e-22
54	0x9c5fac6c	-7.400736e-22
55	0x9bfe9215	-4.2115178e-22
56	0x1d102bde	1.908092e-21
57	0x9d5afa9f	-2.8981628e-21
58	0x1b96a9cf	2.4925155e-22
59	0x9d1087f6	-1.9128531e-21
60	0x1d7429a7	3.2314665e-21
61	0x9c1804db	-5.0298857e-22
62	0x9bc01c95	-3.1782206e-22
63	0x1cbd2e49	1.2518935e-21

fai_gcn_networks.1.residual.1.running_var f4 [64]
0	0x00000008	1.1e-44
1	0x0000081a	2.906e-42
2	0x0000007f	1.78e-43
3	0x00000004	6e-45
4	0x00000006	8e-45
5	0x00000172	5.18e-43
6	0x00000020	4.5e-44
7	0x00000127	4.13e-43
8	0x000000ab	2.4e-43
9	0x00000081	1.81e-43
10	0x000000f4	3.42e-43
11	0x0000002d	6.3e-44
12	0x00000019	3.5e-44
13	0x00000150	4.71e-43
14	0x000001cf	6.49e-43
15	0x00000014	2.8e-44
16	0x00000014	2.8e-44
17	0x0000005e	1.32e-43
18	0x00000004	6e-45
19	0x0000000b	1.5e-44
20	0x00000006	8e-45
21	0x000001c9	6.4e-43
22	0x00000109	3.71e-43
23	0x00000089	1.92e-43
24	0x00000197	5.7e-43
25	0x00000308	1.087e-42
26	0x00000410	1.457e-42
27	0x00000004	6e-45
28	0x00000252	8.32e-43
29	0x00000514	1.822e-42
30	0x0000005b	1.28e-43
31	0x0000005b	1.28e-43
32	0x0000011f	4.02e-43
33	0x0000003a	8.1e-44
34	0x0000002f	6.6e-44
35	0x0000001c	3.9e-44
36	0x000001f4	7e-43
37	0x00000113	3.85e-43
38	0x00000065	1.42e-43
39	0x0000007b	1.72e-43
40	0x00000269	8.65e-43
41	0x000003b3	1.327e-42
42	0x00000028	5.6e-44
43	0x00000014	2.8e-44
44	0x00000293	9.23e-43
45	0x000007e4	2.83e-42
46	0x00000118	3.92e-43
47	0x0000075b	2.639e-42
48	0x00000011	2.4e-44
49	0x00000180	5.38e-43
50	0x00000386	1.264e-42
51	0x0000000c	1.7e-44
52	0x00000031	6.9e-44
53	0x00000004	6e-45
54	0x00000046	9.8e-44
55	0x00000018	3.4e-44
56	0x000001e3	6.77e-43
57	0x00000461	1.571e-42
58	0x00000006	8e-45
59	0x000001e3	6.77e-43
60	0x00000577	1.96e-42
61	0x00000020	4.5e-44
62	0x0000000d	1.8e-44
63	0x000000cf	2.9e-43
