capsule-6073072/code/work_dir/recognition/kinetics_skeleton/FAI_GCN/epoch240_model.pt (torch, 74070 bytes, 22 tensors)

A f4 [3, 18, 18]
00000000: 0000 803e 0000 0000 0000 0000 0000 0000
00000010: 0000 0000 0000 0000 0000 0000 0000 0000
00000020: 0000 0000 0000 0000 0000 0000 0000 0000
00000030: 0000 0000 0000 0000 0000 0000 0000 0000
00000040: 0000 0000 0000 0000 0000 0000 0000 803e
00000050: 0000 0000 0000 0000 0000 0000 0000 0000
00000060: 0000 0000 0000 0000 0000 0000 0000 0000
00000070: 0000 0000 0000 0000 0000 0000 0000 0000
00000080: 0000 0000 0000 0000 0000 0000 0000 0000
00000090: 0000 0000 0000 0000 0000 803e 0000 0000
000000a0: 0000 0000 0000 0000 0000 0000 0000 0000
000000b0: 0000 0000 0000 0000 0000 0000 0000 0000
000000c0: 0000 0000 0000 0000 0000 0000 0000 0000
000000d0: 0000 0000 0000 0000 0000 0000 0000 0000
000000e0: 0000 0000 abaa aa3e 0000 0000 0000 0000
000000f0: 0000 0000 0000 0000 0000 0000 0000 0000
00000100: 0000 0000 0000 0000 0000 0000 0000 0000
00000110: 0000 0000 0000 0000 0000 0000 0000 0000
00000120: 0000 0000 0000 0000 0000 0000 0000 0000
00000130: 0000 003f 0000 0000 0000 0000 0000 0000
00000140: 0000 0000 0000 0000 0000 0000 0000 0000
00000150: 0000 0000 0000 0000 0000 0000 0000 0000
00000160: 0000 0000 0000 0000 0000 0000 0000 0000
00000170: 0000 0000 0000 0000 0000 0000 0000 803e
00000180: 0000 0000 0000 0000 0000 0000 0000 0000
00000190: 0000 0000 0000 0000 0000 0000 0000 0000
000001a0: 0000 0000 0000 0000 0000 0000 0000 0000
000001b0: 0000 0000 0000 0000 0000 0000 0000 0000
000001c0: 0000 0000 0000 0000 abaa aa3e 0000 0000
000001d0: 0000 0000 0000 0000 0000 0000 0000 0000
000001e0: 0000 0000 0000 0000 0000 0000 0000 0000
000001f0: 0000 0000 0000 0000 0000 0000 0000 0000
00000200: 0000 0000 0000 0000 0000 0000 0000 0000
00000210: 0000 0000 0000 003f 0000 0000 0000 0000
00000220: 0000 0000 0000 0000 0000 0000 0000 0000
00000230: 0000 0000 0000 0000 0000 0000 0000 0000
00000240: 0000 0000 0000 0000 0000 0000 0000 0000
00000250: 0000 0000 0000 0000 0000 0000 0000 0000
00000260: abaa aa3e 0000 0000 0000 0000 0000 0000
00000270: 0000 0000 0000 0000 0000 0000 0000 0000
00000280: 0000 0000 0000 0000 0000 0000 0000 0000
00000290: 0000 0000 0000 0000 0000 0000 0000 0000
000002a0: 0000 0000 0000 0000 0000 0000 abaa aa3e
000002b0: 0000 0000 0000 0000 0000 0000 0000 0000
000002c0: 0000 0000 0000 0000 0000 0000 0000 0000
000002d0: 0000 0000 0000 0000 0000 0000 0000 0000
000002e0: 0000 0000 0000 0000 0000 0000 0000 0000
000002f0: 0000 0000 0000 0000 0000 003f 0000 0000
00000300: 0000 0000 0000 0000 0000 0000 0000 0000
00000310: 0000 0000 0000 0000 0000 0000 0000 0000
00000320: 0000 0000 0000 0000 0000 0000 0000 0000
00000330: 0000 0000 0000 0000 0000 0000 0000 0000
00000340: 0000 0000 abaa aa3e 0000 0000 0000 0000
00000350: 0000 0000 0000 0000 0000 0000 0000 0000
00000360: 0000 0000 0000 0000 0000 0000 0000 0000
00000370: 0000 0000 0000 0000 0000 0000 0000 0000
00000380: 0000 0000 0000 0000 0000 0000 0000 0000
00000390: abaa aa3e 0000 0000 0000 0000 0000 0000
000003a0: 0000 0000 0000 0000 0000 0000 0000 0000
000003b0: 0000 0000 0000 0000 0000 0000 0000 0000
000003c0: 0000 0000 0000 0000 0000 0000 0000 0000
000003d0: 0000 0000 0000 0000 0000 0000 0000 003f
000003e0: 0000 0000 0000 0000 0000 0000 0000 0000
000003f0: 0000 0000 0000 0000 0000 0000 0000 0000
0.25 0.0 0.0 0.0 0.0 0.0 0.0 0.0
0.0 0.0 0.0 0.0 0.0 0.0 0.0 0.0
0.0 0.0 0.0 0.25 0.0 0.0 0.0 0.0
0.0 0.0 0.0 0.0 0.0 0.0 0.0 0.0
0.0 0.0 0.0 0.0 0.0 0.0 0.25 0.0
0.0 0.0 0.0 0.0 0.0 0.0 0.0 0.0
0.0 0.0 0.0 0.0 0.0 0.0 0.0 0.0
0.0 0.33333334 0.0 0.0 0.0 0.0 0.0 0.0
0.0 0.0 0.0 0.0 0.0 0.0 0.0 0.0
0.0 0.0 0.0 0.0 0.5 0.0 0.0 0.0
0.0 0.0 0.0 0.0 0.0 0.0 0.0 0.0
0.0 0.0 0.0 0.0 0.0 0.0 0.0 0.25
0.0 0.0 0.0 0.0 0.0 0.0 0.0 0.0
0.0 0.0 0.0 0.0 0.0 0.0 0.0 0.0
0.0 0.0 0.33333334 0.0 0.0 0.0 0.0 0.0
0.0 0.0 0.0 0.0 0.0 0.0 0.0 0.0
0.0 0.0 0.0 0.0 0.0 0.5 0.0 0.0
0.0 0.0 0.0 0.0 0.0 0.0 0.0 0.0
0.0 0.0 0.0 0.0 0.0 0.0 0.0 0.0
0.33333334 0.0 0.0 0.0 0.0 0.0 0.0 0.0
0.0 0.0 0.0 0.0 0.0 0.0 0.0 0.0
0.0 0.0 0.0 0.33333334 0.0 0.0 0.0 0.0
0.0 0.0 0.0 0.0 0.0 0.0 0.0 0.0
0.0 0.0 0.0 0.0 0.0 0.0 0.5 0.0
0.0 0.0 0.0 0.0 0.0 0.0 0.0 0.0
0.0 0.0 0.0 0.0 0.0 0.0 0.0 0.0
0.0 0.33333334 0.0 0.0 0.0 0.0 0.0 0.0
0.0 0.0 0.0 0.0 0.0 0.0 0.0 0.0
0.0 0.0 0.0 0.0 0.33333334 0.0 0.0 0.0
0.0 0.0 0.0 0.0 0.0 0.0 0.0 0.0
0.0 0.0 0.0 0.0 0.0 0.0 0.0 0.5
0.0 0.0 0.0 0.0 0.0 0.0 0.0 0.0

data_bn.weight f4 [54]
00000000: 5116 423f 09f1 3a3f 0e1a 463f 3691 3d3f
00000010: f76e 3a3f 07b7 483f 027d 3d3f ddd1 3e3f
00000020: 3ef6 3b3f d599 443f ac7b 403f ce6e 453f
00000030: 04ca 413f d54c 473f 1ffc 393f 7de7 423f
00000040: d1fc 3d3f 1cec 453f d165 3f3f e557 423f
00000050: 0463 413f 64b0 373f e90f 433f 7529 3c3f
00000060: e077 443f 431f 443f 2f87 403f 391c 353f
00000070: 46a4 453f 12b2 3f3f 1848 3d3f 3ec6 443f
00000080: 8034 433f 8570 433f c310 413f 17a6 463f
00000090: 3bd1 423f d07f 3d3f 1cde 3d3f 99c4 463f
000000a0: 5f76 2f3f caba 3d3f 5767 413f 605a 303f
000000b0: 09c5 413f 6aca 3b3f 71fd 3d3f e807 443f
000000c0: 5a4b 3c3f 791d 443f 681d 4a3f 0ea8 3f3f
000000d0: 7d75 413f 313b 463f
0.758153 0.7302404 0.77383506 0.740497 0.7282557 0.7840428 0.7401887 0.74538976
0.7342261 0.7679723 0.7518871 0.771222 0.75698876 0.7785161 0.7265033 0.76134473
0.7421389 0.773134 0.74764735 0.75915366 0.7554171 0.71753526 0.7619615 0.7350076
0.76745415 0.766102 0.75206274 0.7074619 0.77203786 0.7488109 0.7393813 0.76864994
0.76251984 0.76343566 0.754162 0.77597183 0.7610051 0.7402315 0.74167037 0.77643734
0.68539995 0.7411314 0.7554831 0.688879 0.75691277 0.73355734 0.74214846 0.76574564
0.7355248 0.7660747 0.7895112 0.74865806 0.755699 0.7743407

data_bn.bias f4 [54]
00000000: b022 4e1e ee23 22af dc1a 869e e839 282b
00000010: 073d 9bb2 1dc7 ac2f 9d65 909c 7e74 712d
00000020: 3f53 d11d 6d95 28b4 f3d4 0234 4af0 839e
00000030: 4b6f 9cb3 6064 ef2e b858 1e34 70e4 ee1d
00000040: fb1b f4ad 7f6c 981d 4d78 0436 a048 ca32
00000050: 90bd 209e 22df 4d33 49ec 8b2b 79d9 8a33
00000060: cabf cca8 a627 a725 028c b8b7 ac44 121c
00000070: 735f dc33 913a 3b35 e104 2c23 3e2e 27ad
00000080: e947 5ca8 a941 a0a8 cb8d 6e22 8d01 a9b7
00000090: 813d 8c1c eb2b 9eb1 d7b5 2a35 d33f 12a8
000000a0: d6fe 0bae dd2d 68a8 4f5e 05b6 0875 5eb1
000000b0: f00d d61c 3b43 d635 ed56 4c32 3059 a49e
000000c0: 9c2f 8932 dfc1 222c bc88 4d35 8bf3 b2b3
000000d0: ffb2 d9ad 9577 5235
1.0912722e-20 -1.4746579e-10 -1.419891e-20 5.976595e-13 -1.8072127e-08 3.1428096e-10 -9.555387e-22 1.372513e-11
5.5407914e-21 -1.570058e-07 1.2184664e-07 -1.3969546e-20 -7.28456e-08 1.0886292e-10 1.4747172e-07 6.3234274e-21
-2.7752014e-11 4.0346247e-21 1.9739557e-06 2.3548921e-08 -8.50953e-21 4.793322e-08 9.942126e-13 6.465684e-08
-2.2731725e-14 2.899675e-16 -2.1999705e-05 4.8396104e-22 1.02619104e-07 6.9748154e-07 9.325172e-18 -9.503119e-12
-1.2228046e-14 -1.7792044e-14 3.233008e-18 -2.0147092e-05 9.280321e-22 -4.603398e-09 6.3594547e-07 -8.118468e-15
-3.183128e-11 -1.2888532e-14 -1.987344e-06 -3.2371776e-09 1.4164935e-21 1.5963809e-06 1.18941275e-08 -1.7401063e-20
1.597055e-08 2.3129205e-12 7.6567426e-07 -8.333071e-08 -2.4749534e-11 7.840511e-07

data_bn.running_mean f4 [54]
00000000: 54d8 953c a094 21bd 933e a13e 301d 663c
00000010: 802e c6bb a87d a13e fcbb e3bb c8ca 23bc
00000020: db60 903e a78c dcbc c4fd 433c 54ad 973e
00000030: 10d2 02bd 20c7 f13b 9e62 963e 80e7 0f3d
00000040: 31e1 18bb 7e83 913e d347 493d 4628 cb3c
00000050: 4ca8 923e d8e8 693d 50fb 823c f100 8f3e
00000060: 9cc2 dabb 2b2a 953d e250 6b3e 10bb eabc
00000070: 8c58 b93d 32e4 883e 6af1 87bc fcc8 093e
00000080: b4c4 7f3e f179 9f3c 760f 9f3d 677a 6f3e
00000090: e25e 103d f7f2 c83d 6841 863e 40cd 713c
000000a0: b55c 0a3e 246a 763e ae46 503c a94b 42bd
000000b0: bfb6 a13e 3c1a c93c ee49 3fbd c3c3 9c3e
000000c0: 94cc 673b 0112 89bc 4eda 413e daa6 cf3c
000000d0: ddfd f9bb 3661 483e
0.01829163 -0.03944838 0.31493053 0.014045045 -0.0060480237 0.3154118 -0.0069498997 -0.009997077
0.28198895 -0.026922537 0.011962358 0.29624426 -0.031938612 0.007378474 0.29372114 0.035132885
-0.0023327584 0.28420633 0.049140763 0.024799477 0.28644025 0.057106823 0.015988976 0.27930406
-0.0066760313 0.072834335 0.22980073 -0.028653651 0.09050092 0.267366 -0.016594607 0.13455576
0.2497738 0.019467326 0.07766621 0.23386537 0.035246737 0.09811967 0.26221776 0.014758408
0.13511927 0.24063927 0.012712164 -0.047435436 0.31584737 0.024548642 -0.046701364 0.30618104
0.003536974 -0.016732218 0.18930933 0.025348116 -0.00762914 0.19568333

data_bn.running_var f4 [54]
00000000: 7961 443b 75fb 083c 7f5b 123d bf71 2c3b
00000010: 3362 dc3b dd7a 0d3d 00eb 3c3b bfe6 e33b
00000020: 8ac1 e73c c950 573b 8519 d63b fa00 f43c
00000030: c3c7 823b 3b76 e93b e533 013d a633 3d3b
00000040: ea79 d73b c13b e43c 8bab 643b 46f1 c73b
00000050: 4e0e e73c b945 843b 46f9 e13b 936f ef3c
00000060: df87 3a3b eb99 c03b f384 9f3c 41e1 6c3b
00000070: 711c f93b 720a ee3c 9736 633b 75e7 1f3c
00000080: a5b3 f53c f42c 353b 3ea6 c43b 11e0 a33c
00000090: 026c 523b 0d7d fa3b 35d5 e03c 67d7 683b
000000a0: 340a 153c 6941 e13c d577 3d3b d192 113c
000000b0: 1da4 1e3d d8f0 3d3b 451d 113c 1852 1c3d
000000c0: 4223 373b 99c3 413c 4ac0 553d fb94 433b
000000d0: 6bad 153c e131 4d3d
0.0029965325 0.008360733 0.03573179 0.0026312915 0.0067255734 0.034541 0.0028826594 0.0069549973
0.028290529 0.0032854548 0.006533804 0.029785622 0.0039910986 0.00712469 0.03154363 0.0028869896
0.0065758126 0.027860524 0.0034892287 0.00610176 0.028205063 0.004036632 0.006896171 0.029228007
0.0028462333 0.0058777235 0.019472575 0.0036145004 0.0076022674 0.029057715 0.003466999 0.0097597735
0.029992888 0.0027645202 0.006001263 0.020004304 0.0032107835 0.0076443017 0.027445415 0.003552878
0.009096671 0.02749701 0.0028910537 0.008885101 0.03873073 0.0028982665 0.008857076 0.03816423
0.00279446 0.011826419 0.052185334 0.0029843438 0.009135584 0.050096396

fai_gcn_networks.0.gcn.conv.weight f4 [96, 3, 1, 1]
00000000: 5af4 d2a3 f730 d522 56b2 8124 2d7b f826
00000010: 8dac 3527 e720 4fa7 ea02 6f23 a09d 7123
00000020: 2e9b d1a2 c1a5 b0a4 dd03 9e2d 2a4d 4725
00000030: 9275 902a e171 7229 b8d8 872a e1ea f69d
00000040: 32a0 9b9f 69bc 149e 1f9d 76a0 5409 c7a0
00000050: 895b 2b1f 6454 f1a5 9c0e 94a5 39e0 7d24
00000060: 0c85 8328 c77b dfa6 03f5 e92e 0f1b dfa6
00000070: 8bdc 5b28 0bcf 64a7 98a8 54a4 15d8 1923
00000080: 7ca6 74a5 196e 00ad c151 0429 7aaf 97aa
00000090: 56c2 4821 0708 9f1f e660 f49f d212 2d22
000000a0: 8de8 381f b2c5 5aa4 0c5d a81f f213 d021
000000b0: 2ce6 071c de61 62a1 181a 0f21 72ea 8cac
000000c0: 0c5f f79f 231f 629d 821c fca0 5933 7d21
000000d0: 62c8 b4a2 9e71 3aa3 7cb8 9021 d3c0 56a0
000000e0: 7263 2ea3 9318 1125 767c f9a3 6316 6c24
000000f0: 99a4 66a8 a660 e3a6 2db4 83ae afd9 55a1
00000100: a09c c5a1 85cc df21 46c9 72ad b7a9 dc27
00000110: 40e2 62a5 f91b 2029 b8f9 1726 c022 d529
00000120: 453b c929 f06c f12a 2205 d02b ccab 0026
00000130: 53ed 6124 5a0a 052f b600 36a6 eb0d e824
00000140: b305 9ea3 9250 222a 4cc3 062b 1b35 aea9
00000150: 3b15 d21c 799d 1d9b 2078 9f1d d290 28a4
00000160: bdbe eeaa d82f 0a25 50ce 84a6 a97f 6b9f
00000170: bcf9 cca3 37de bf1d 15f5 f29b 6c65 7d1e
00000180: bdd1 dda3 a98c be22 141b 9524 9dc6 9b27
00000190: 267f 4d27 9aad 36a9 fd32 a6a3 9377 1f24
000001a0: 5c3e 3ea2 b75b 6da6 84f8 ea25 69dd 6da4
000001b0: 44f7 5e2b 0b6a 69ac 56df fc2a 90ce a89f
000001c0: 490e d61e 1179 c31f 0db4 f520 aab9 c7a0
000001d0: 1c7f 2324 4030 d5a7 e56f b3a5 cae0 8f25
000001e0: 4a3f c3a9 e9b3 68a8 a4e0 3d29 67dc af27
000001f0: 9816 f2a8 4fb7 8e27 b238 f124 c0cd 21a3
00000200: 8085 34a6 bafd 842d a52e 06ae 66b7 bfad
00000210: 6163 8b20 f183 f01d 05c1 bea0 eedd 6a23
00000220: e56d e322 d4ae 1aa3 5295 89a1 3cd0 959f
00000230: fe6b 5720 6aa4 eba0 4170 eba1 d478 c222
00000240: 8a65 8e20 ca9b 861f b3ad 82a1 c93b 8722
00000250: bbea 56a4 8714 eea2 984e 2a23 abee 3421
00000260: 2eaf 43a2 b07a bfa4 e3c2 fca4 bd7b cba4
00000270: 0cc0 24a9 9cd7 daa8 5ebf f627 520e 9023
00000280: 4bda 59a3 a351 421f 2d38 88a8 3c01 bd27
00000290: cb29 2ca7 4c8a 9528 4879 a4a5 aec8 622a
000002a0: 403b 932a 8fa8 8fa9 688e 6d2b d9cb 28a4
000002b0: 2a94 bb25 d597 e0a5 f834 852f 482c af24
000002c0: cad2 a9ac d429 b52a 5055 abad d497 fca8
000002d0: c409 979d 7637 749c 339a d79d 0ac7 01a4
000002e0: fba8 4225 cd57 65a4 c0ef 29a3 b5ee c922
000002f0: de8e 8e22 ed58 3f9d 7da7 bc1b ab39 7b9f
00000300: 9926 b1a3 4fe2 7f21 b0b4 d41e 7772 0527
00000310: 94e5 e124 00e7 87a7 3d0e 95a3 7d16 37a1
00000320: 94fd a59f 3cf7 33a5 98bb 3aa4 d031 fba3
00000330: 8894 98a9 bddb aeaa bf94 9c29 607c 4a1d
00000340: f98f ea9d 97fa b01b 56de b9a0 8d4a 97a0
00000350: 634b 8ca0 d402 8523 b94b a3a5 91f4 6e24
00000360: 37d3 7828 e67b 2329 0a88 cfa7 17eb 5222
00000370: 5c39 14a8 0c38 30a7 cc7a 3f20 3fa2 4ea3
00000380: c975 cea0 5b8d 4c2c 907b 952b 3fa1 f52a
00000390: fd60 3a9e 868b 4d9f a0b7 e09e 00bd 24a1
000003a0: 2010 df1f 13cf 5da1 1a37 859d b6c9 e99f
000003b0: 0c50 671e eab8 0fa1 c6d3 2ba2 0941 2122
000003c0: ed70 969d a3a3 629f 9278 099e 031f 3022
000003d0: 3420 1723 bb29 f2a2 9513 009f dee2 b420
000003e0: 5476 4ea0 cd90 e824 bfd5 5125 cece a321
000003f0: 71b0 8129 3f96 7227 dde2 c3a7 e30c ed20
-2.2871733e-17 5.778561e-18 5.6246945e-17 1.7241844e-15 2.5212336e-15 -2.8744857e-15 1.2956833e-17 1.30980146e-17
-5.6813866e-18 -7.660863e-17 1.7964236e-11 1.7286643e-16 2.566112e-13 5.383357e-14 2.4131196e-13 -6.5358517e-21
-6.5910074e-20 -7.874017e-21 -2.0888998e-19 -3.3718084e-19 3.6286375e-20 -4.186402e-16 -2.5683807e-16 5.5050554e-17
1.4601622e-14 -1.5507283e-15 1.0639136e-10 -1.5481068e-15 1.2204765e-14 -3.1753594e-15 -4.6112977e-17 8.339904e-18
-2.1220034e-16 -7.300404e-12 2.9380798e-14 -2.694475e-13 6.8019837e-19 6.73524e-20 -1.03498325e-19 2.3455835e-18
3.9155877e-20 -4.743867e-17 7.13047e-20 1.4099908e-18 4.4965243e-22 -7.6701305e-19 4.848482e-19 -4.005068e-12
-1.0476581e-19 -2.9926948e-21 -4.2709325e-19 8.578769e-19 -4.900126e-18 -1.01071396e-17 9.806652e-19 -1.8190305e-19
-9.453617e-18 1.2585071e-16 -2.7049345e-17 5.1193305e-17 -1.2803256e-14 -1.5777486e-15 -5.989196e-11 -7.245531e-19
-1.3390698e-18 1.5165204e-18 -1.3800799e-11 6.124627e-15 -1.9679032e-16 3.55514e-14 5.272708e-16 9.465128e-14
8.936475e-14 4.288579e-13 1.4780714e-12 4.464175e-16 4.899012e-17 1.2099957e-10 -6.31449e-16 1.0063754e-16
-1.7132808e-17 1.4416444e-13 4.787739e-13 -7.7363646e-14 1.3902122e-21 -1.3037618e-22 4.2211156e-21 -3.655186e-17
-4.2409644e-13 1.1985802e-16 -9.215261e-16 -4.9868784e-20 -2.2223491e-17 5.0787044e-21 -4.0193922e-22 1.3414682e-20
-2.4049696e-17 5.1648533e-18 6.466432e-17 4.323648e-15 2.8518392e-15 -4.0562693e-14 -1.801935e-17 3.4578912e-17
-2.5782814e-18 -8.235019e-16 4.076093e-16 -5.1578725e-17 7.9213394e-13 -3.3170157e-12 4.4919163e-13 -7.1492497e-20
2.266404e-20 8.2786e-20 4.1623762e-19 -3.3834773e-19 3.5452657e-17 -5.917169e-15 -3.1127373e-16 2.495887e-16
-8.6707185e-14 -1.2917599e-14 4.2161275e-14 4.881122e-15 -2.6877196e-14 3.961166e-15 1.04613135e-16 -8.771397e-18
-6.263097e-16 1.511934e-11 -3.05095e-11 -2.1795631e-11 2.361328e-19 6.3663895e-21 -3.2314982e-19 1.2732161e-17
6.164483e-18 -8.385378e-18 -9.323006e-19 -6.344845e-20 1.824694e-19 -3.9919349e-19 -1.5953933e-18 5.2711737e-18
2.4122929e-19 5.700894e-20 -8.85512e-19 3.6655123e-18 -4.6602677e-17 -6.4531763e-18 9.232361e-18 6.1302247e-19
-2.6520167e-18 -8.3040887e-17 -1.0961773e-16 -8.824684e-17 -3.658189e-14 -2.4296368e-14 6.8486197e-15 1.5618576e-17
-1.1809819e-17 4.1148626e-20 -1.5123395e-14 5.2459376e-15 -2.389245e-15 1.66023e-14 -2.8531648e-16 2.0142457e-13
2.6153558e-13 -6.379716e-14 8.439694e-13 -3.660186e-17 3.253973e-16 -3.896069e-16 2.4230196e-10 7.596917e-17
-4.826671e-12 3.2181083e-13 -1.9478336e-11 -2.8043465e-14 -3.9979465e-21 -8.080451e-22 -5.7069464e-21 -2.814101e-17
1.688407e-16 -4.973083e-17 -9.212277e-18 5.47339e-18 3.8640444e-18 -2.5324613e-21 3.1210228e-22 -5.319902e-20
-1.9206725e-17 8.669688e-19 2.2521104e-20 1.851951e-15 9.7967116e-17 -3.7720478e-15 -1.6160643e-17 -6.2032575e-19
-7.029973e-20 -1.5609541e-16 -4.049122e-17 -2.7234571e-17 -6.775922e-14 -3.1061083e-13 6.953595e-14 2.6798778e-21
-6.208815e-21 2.9278697e-22 -3.1487349e-19 -2.5629729e-19 -2.376681e-19 1.4421087e-17 -2.8327304e-16 5.181518e-17
1.38125654e-14 3.6300735e-14 -5.7601535e-15 2.8584763e-18 -8.228088e-15 -2.445529e-15 1.621896e-19 -1.1201639e-17
-3.49757e-19 2.9068612e-12 1.0621382e-12 4.363263e-13 -9.866815e-21 -4.352585e-20 -2.3792868e-20 -5.58155e-19
9.447085e-20 -7.5151773e-19 -3.526178e-21 -9.901304e-20 1.22455915e-20 -4.8695016e-19 -2.3286933e-18 2.1853998e-18
-3.982143e-21 -4.799272e-20 -7.277653e-21 2.3868865e-18 8.192546e-18 -6.5638415e-18 -2.7121252e-20 3.0643314e-19
-1.748803e-19 1.00859264e-16 1.820028e-16 1.110005e-18 5.7593585e-14 3.3665695e-15 -5.436934e-15 4.015789e-19

fai_gcn_networks.0.gcn.conv.bias f4 [96]
00000000: d0b5 aa2c 964a 0d2a e9b8 4026 4956 ea26
00000010: 3508 c4ab a32a 60a7 4c18 fcac f125 0129
00000020: 99d5 1b29 df0d a9a8 577a 3c2f f7fc 232f
00000030: da2d 0daa 475a 48ae 88b6 a92b dc42 4aa3
00000040: 1d0f 002b ddcf f8a8 4346 562d 44ed fb26
00000050: b692 322b dff6 472e 95ba 9527 17e6 d529
00000060: 8108 7d2d f7a0 1925 8393 9425 90f5 d22b
00000070: dcf8 bda7 e215 bfa7 fe1f 472d bad1 0d28
00000080: a8b1 76ad 952a 42aa cb29 df25 a428 d226
00000090: a93d 5aab b0c8 98aa 8fb3 53ab 45e6 4726
000000a0: 708e 7c2a 81a1 9ea8 0ebb 002f be56 b72f
000000b0: dfeb 95aa 261a 59ae 2833 1e2c f294 7c22
000000c0: e7ce c82b f4a7 8aa9 1217 012d 7ce5 b926
000000d0: 62cd 3a2c 72ea 99ad fa30 8fa8 24d5 2aa8
000000e0: 2c76 2e2d f43d e6a5 9890 8227 aba8 672c
000000f0: 2495 bea7 d0ca 95a7 344e e72c 38d9 8ca6
00000100: 3e88 0c2e 7edf 032a 219c 7fa6 aa3c cba5
00000110: 77a4 0b2d 5443 5eaa 1908 2cad ee4c daa8
00000120: 82e8 e4a8 59b2 e728 245e 54ae deb9 202f
00000130: 4f06 8a2b 9838 952d 257d daaa bc89 98a1
00000140: 3283 4b2b cb5a 3428 be6a 062d 48e9 3826
00000150: e089 3bab 04c9 2aae fbea dda8 f935 07a9
00000160: 4596 5a2d 99b5 89a7 3ff3 17a7 e863 fbac
00000170: 4bca 5ca8 89bb 6e26 1543 2cad 9336 2ba7
4.851876e-12 1.2549193e-13 6.686398e-16 1.6260399e-15 -1.3928916e-12 -3.1109358e-15 -7.1649683e-12 2.8676663e-14
3.460218e-14 -1.8768785e-14 1.7141964e-10 1.4914635e-10 -1.2539224e-13 -4.5554917e-11 1.2058835e-12 -1.09646e-17
4.549571e-13 -2.7623677e-14 1.2180093e-11 1.7480935e-15 6.3441906e-13 4.5466627e-11 4.15581e-15 9.4990144e-14
1.4383273e-11 1.3325172e-16 2.5773865e-16 1.4989555e-12 -5.272785e-15 -5.3036875e-15 1.1318944e-11 7.8725495e-15
-1.4022929e-11 -1.7245435e-13 3.8712654e-16 1.4582693e-15 -7.753473e-13 -2.713988e-13 -7.5211446e-13 6.935407e-16
2.2431514e-13 -1.7611565e-14 1.1707987e-10 3.334914e-10 -2.6631385e-13 -4.9363312e-11 2.2481548e-12 3.423122e-18
1.4268282e-12 -6.157566e-14 7.337924e-12 1.2899156e-15 2.65462e-12 -1.74982e-11 -1.589743e-14 -9.483113e-15
9.916994e-12 -3.994062e-16 3.6239017e-15 3.2920704e-12 -5.2897292e-15 -4.1575697e-15 6.574097e-12 -9.773329e-16
3.1953322e-11 1.1712677e-13 -8.868249e-16 -3.5255994e-16 7.937754e-12 -1.974092e-13 -9.778866e-12 -2.4236225e-14
-2.5413919e-14 2.5723498e-14 -4.8286833e-11 1.4617949e-10 9.807241e-13 1.6964471e-11 -3.8811416e-13 -1.0336379e-18
7.230216e-13 1.0011695e-14 7.64072e-12 6.415398e-16 -6.6627086e-13 -3.8832063e-11 -2.4637835e-14 -3.0022835e-14
1.2425232e-11 -3.8222027e-15 -2.1087324e-15 -7.144941e-12 -1.22563186e-14 8.2826995e-16 -9.791963e-12 -2.3760602e-15

fai_gcn_networks.1.gcn.conv.weight f4 [192, 32, 1, 1]
00000000: 35c1 f997 efd3 dc15 be98 b410 c8de d219
00000010: b5e4 3e98 6402 9698 ab29 6e17 d22e 6a14
00000020: 5cd0 1c98 7d75 d814 fabc e419 4d75 1d9a
00000030: 2b87 9895 218e 4a98 d9d6 ab17 8719 8e95
00000040: c9e0 8a96 56ad 0295 5cbf 502b 7906 1b92
00000050: 1583 9097 f5fd f699 9cbf 2997 a695 8a1a
00000060: 0761 0918 2b84 0199 4c88 069a 525f 1d98
00000070: 41f0 1313 3ee0 3194 5107 b2ae 3a03 5214
00000080: 6d2f b229 2d64 9f23 3821 13a0 d0fa 9826
00000090: f13a 9a26 5a38 bc24 8154 8e27 4178 62a3
000000a0: a845 af27 46b5 a524 26ff 4fa9 aabc 7328
000000b0: e6d6 a1a3 e643 0729 8fd4 6ca6 3c5b 5326
000000c0: 3bad 2aa4 9c34 bda3 3e6c 37a8 d808 8ca1
000000d0: 2bff 2627 47ef 76a8 e793 5026 37c8 5f28
000000e0: 61a1 6ca7 52be 2728 cc26 2528 b7a7 da27
000000f0: 05a6 6f21 6aa6 aa24 1a02 9c27 fa1f 93a1
00000100: c97d f99a be8e 3e17 30cb 6993 5d77 9399
00000110: f4e3 9717 09ae 4215 0bf6 189c 01bd 7016
00000120: 86c9 819a dc54 a896 f510 dea9 d0dd 839b
00000130: 2806 55a6 dcc4 319a 257f fa16 ac30 6698
00000140: 4066 e896 65e3 b813 937f 432a 9ea1 5d93
00000150: 3bfa 5319 21b8 8d99 0b01 16ae f15f 0e1c
00000160: 78a1 5f1b 4936 fb19 9fb1 c31a 665e 3e9a
00000170: b333 bc13 816b e415 4be8 039a 2ab1 9793
00000180: d554 9dad 381b 86a2 abaf 6a1f 7a35 aa25
00000190: 9b60 0325 0aa7 3623 024f 3327 a9d5 2aa2
000001a0: ad65 8226 9687 36a3 0cbb 2429 43cb 9d28
000001b0: 4322 0226 6df9 4926 9808 80a4 0b0c 8f23
000001c0: 270c 13a4 c6b0 a4a1 6584 88a5 8c58 ce20
000001d0: 7590 6f25 252c 13a7 f7a6 a425 aab0 0826
000001e0: 4869 15a6 7651 10a5 54f9 6426 3d31 6226
000001f0: 1fe3 9e1f e9de dd22 f54c 1226 335f 4ca1
00000200: 8e2f a3a0 d753 c616 0980 a192 ee0d 5598
00000210: 680e cd98 60a1 7795 4908 b51c aa51 6915
00000220: 9787 1c99 eacf c795 7239 78ac 84b2 fa1d
00000230: a147 9519 04b3 459a c378 c717 66cd e196
00000240: 7665 b697 2600 0c96 22d7 ff98 2573 c313
00000250: 7349 b398 b00a 8b1a fd17 0318 425a b39a
00000260: 1ab5 6298 29d0 7f99 2e48 fb99 632e 8299
00000270: e0a5 3d15 05d8 3b16 7659 aa1f 37cc fb96
00000280: 0786 b499 f2fc ee13 c3e1 7890 f49a 1e16
00000290: 7a16 9e18 232c e194 0b99 4e96 5710 cd94
000002a0: 6815 3517 edd6 5e93 9efb 0f18 bced e318
000002b0: 00e0 9020 912f 5297 2d27 a716 cea1 5c13
000002c0: 19ee 9695 5002 f212 9da1 2098 e8eb fe10
000002d0: 85e1 1b98 87ff 63ad 1942 d516 d50c 219a
000002e0: 41bb 9697 ac74 2298 7a27 4098 45cf 4ba0
000002f0: e6df cf0f cbe1 b393 44d4 6897 51b7 8d15
00000300: 2cf4 3aa8 2123 0ea5 5609 8922 d39f db26
00000310: 0281 6e25 8ca6 45a5 2220 7226 7b42 42a2
00000320: 059e c2a5 1ba1 26a3 4b94 5da8 0cab be29
00000330: 43a8 1ca6 37c9 c6a7 a28d 872d 9870 b424
00000340: d959 f330 2e75 40a1 890d e7a6 456f ef27
00000350: 8e75 9926 8751 bfa7 29cf 9425 5e0e 4ca7
00000360: 26b1 8b25 0e6f da26 4463 ad27 3fe5 7128
00000370: 13d1 d920 4688 5523 4393 de26 010d e9a1
00000380: 39d2 35a8 c20b e8a5 ef94 0221 16af 0127
00000390: 1b8b 8725 a78e 8425 c3f5 9c27 2c01 aaa3
000003a0: 9ca9 e327 2986 9723 e815 46a9 9cb9 9727
000003b0: 4030 0da5 5584 fba6 ab17 22a6 a35a 0726
000003c0: d89b dba5 e92c 8e20 ab41 44a8 e89a 322a
000003d0: c22c 1827 0b0a 9aa8 1cdf 7227 438f 3a29
000003e0: 40ed f6a6 b6ab 5d26 72d7 a9a9 de74 d727
000003f0: ba6d 7f22 2486 7b24 da33 e127 3370 2b24
-1.614002e-24 8.9191665e-26 7.123282e-29 2.1803472e-23 -2.4672392e-24 -3.8776505e-24 7.695454e-25 1.18232146e-26
-2.0267722e-24 2.1856767e-26 2.3650974e-23 -3.2561594e-23 -6.160557e-26 -2.6179645e-24 1.1104851e-24 -5.739362e-26
-2.2436962e-25 -2.639003e-26 7.416201e-13 -4.8917354e-28 -9.338872e-25 -2.5538376e-23 -5.484869e-25 5.731723e-23
1.7755821e-24 -6.695835e-24 -2.782065e-23 -2.0339899e-24 1.8672463e-27 -8.98044e-27 -8.0958025e-11 1.0602927e-26
7.913015e-14 1.728124e-17 -1.2462375e-19 1.0615102e-15 1.0701873e-15 8.1627467e-17 3.9504537e-15 -1.2276949e-17
4.864778e-15 7.186443e-17 -4.618454e-14 1.353012e-14 -1.7546668e-17 3.0034914e-14 -8.216702e-16 7.3328976e-16
-3.7009606e-17 -2.0513702e-17 -1.0182012e-14 -9.48911e-19 2.3175455e-15 -1.3707628e-14 7.236494e-16 1.2422401e-14
-3.2839063e-15 9.311631e-15 9.167753e-15 6.068899e-15 8.1196075e-19 7.4007664e-17 4.3300976e-15 -9.969572e-19
-1.031872e-22 6.1572477e-25 -2.9508914e-27 -1.5247654e-23 9.81569e-25 3.9315278e-26 -5.0610584e-22 1.9446685e-25
-5.367873e-23 -2.7195418e-25 -9.861722e-14 -2.1815475e-22 -7.3907563e-16 -3.6761764e-23 4.0469918e-25 -2.9751376e-24
-3.754615e-25 4.667236e-27 1.736374e-13 -2.7973805e-27 1.0958978e-23 -1.4653427e-23 -3.4106978e-11 4.710786e-22
1.8498301e-22 2.5974717e-23 8.093707e-23 -3.9367334e-23 4.750885e-27 9.225808e-26 -2.727781e-23 -3.8292456e-27
-1.7886507e-11 -3.634959e-18 4.9696737e-20 2.9526536e-16 1.139517e-16 9.901612e-18 2.488407e-15 -2.3152407e-18
9.048121e-16 -9.894951e-18 3.6577553e-14 1.7518652e-14 4.5149244e-16 7.007392e-16 -5.552571e-17 1.5509191e-17
-3.1885837e-17 -1.1159864e-18 -2.3681953e-16 3.4956353e-19 2.077889e-16 -2.0424279e-15 2.8562605e-16 4.7423903e-16
-5.183744e-16 -1.2517609e-16 7.9441293e-16 7.847623e-16 6.729134e-20 6.0138185e-18 5.075822e-16 -6.9243884e-19
-2.7644743e-19 3.2041536e-25 -1.0192092e-27 -2.7536637e-24 -5.3005805e-24 -5.0008555e-26 1.1979717e-21 4.7118397e-26
-8.092393e-24 -8.070349e-26 -3.5274808e-12 6.635903e-21 1.543517e-23 -4.0883253e-23 1.2890558e-24 -3.6480335e-25
-1.1787087e-24 -1.1309157e-25 -6.6133184e-24 4.933846e-27 -4.634458e-24 5.750632e-23 1.6943464e-24 -7.4178484e-23
-2.9301248e-24 -1.3225229e-23 -2.5981945e-23 -1.346042e-23 3.8299098e-26 1.5173903e-25 7.21458e-20 -4.0680115e-25
-1.8665697e-23 6.032907e-27 -4.9083297e-29 1.2812033e-25 4.086474e-24 -2.2736603e-26 -1.6688839e-25 -2.0706155e-26
5.8511273e-25 -2.8126306e-27 1.8609351e-24 5.8918175e-24 2.454278e-19 -6.7914697e-25 2.7005029e-25 2.784768e-27
-6.096017e-26 1.5272917e-27 -2.076111e-24 1.00548806e-28 -2.0147139e-24 -1.29601945e-11 3.445372e-25 -3.3304385e-23
-9.740792e-25 -2.0996913e-24 -2.4835349e-24 -1.7263349e-19 2.0498018e-29 -4.54086e-27 -7.523116e-25 5.723867e-26
-1.03780205e-14 -1.2328439e-16 3.714381e-18 1.5239498e-15 2.0686919e-16 -1.7143455e-16 8.4004164e-16 -2.6327097e-18
-3.3760714e-16 -9.0329934e-18 -1.230012e-14 8.467367e-14 -5.435141e-16 -5.5174197e-15 1.541062e-11 7.82533e-17
1.7706113e-09 -6.5207216e-19 -1.6032514e-15 6.6456464e-15 1.0648371e-15 -5.310154e-15 2.5814285e-16 -2.8318476e-15
2.4232697e-16 1.515689e-15 4.812477e-15 1.3427897e-14 3.6899584e-19 1.157561e-17 1.544426e-15 -1.5792136e-18
-1.0093103e-14 -4.0253552e-16 4.4242825e-19 1.799726e-15 2.3513028e-16 2.2995015e-16 4.3565153e-15 -1.8431933e-17
6.3189048e-15 1.6428272e-17 -4.3983832e-14 4.2112157e-15 -1.2246148e-16 -1.7452492e-15 -5.6237117e-16 4.696037e-16
-3.8096048e-16 2.4085455e-19 -1.0894425e-14 1.586332e-13 2.11185e-15 -1.710179e-14 3.3705194e-15 4.1424556e-14
-1.7133986e-15 7.690749e-16 -7.5424815e-14 5.9801195e-15 3.4617033e-18 5.454057e-17 6.2506263e-15 3.717475e-17

fai_gcn_networks.1.gcn.conv.bias f4 [192]
00000000: c2a4 a22a fe7b ab3a df18 932c 8d98 1539
00000010: bf21 37ab 35ce 6aaa 0004 ec39 f905 cd3a
00000020: 2419 9438 07cb ef3a bd48 2f2b 1dce ef28
00000030: a0b4 6d39 79b2 be3a 283d 6e2d 8f04 922b
00000040: 2e6d 353a 739f d838 ce13 4e2b 4f7f f329
00000050: 8484 c22b ec2f d939 8eaa a22b 52de 13aa
00000060: b96c 2839 535e 4639 2abc 8f3a 0b95 51ab
00000070: 5113 43ab 0df7 76a9 d623 b32b b7df 152a
00000080: 34a1 733a bc6c bb3a 42c2 392c 4755 7cab
00000090: f997 de2b 8c9a 953b b062 bf39 0ae8 79a7
000000a0: 6f0e 2e38 dbdb e838 3b3c e439 796a 3c3a
000000b0: 94b6 aa3a 986b beaa 31cb e339 4be5 a72a
000000c0: b06c 9e38 94d7 9cab a73f 08ab 8de1 2b3a
000000d0: 4be4 a9ab 3658 86ac d82c 0138 5918 083b
000000e0: 1fd8 6c3b ea63 6d39 f463 f7aa 9751 992b
000000f0: e38d baab 09c9 e7aa defa 1c3b ad9b 5d3a
00000100: 0124 efa9 3de6 f43a 7963 e82c e869 5839
00000110: facd baab 3094 0daa 43e0 293a bbbf 113b
00000120: 0f42 d738 7dac 2a3b 857c a5aa 5fbf 51a7
00000130: 5bc3 aa39 91f8 073b 84cc 622d 6ed1 032c
00000140: 1033 823a 363f 1d39 1859 15aa bd65 9eaa
00000150: df06 f72b 3329 1c3a 3bf4 892b 43dd 3b29
00000160: d8fb 7339 3577 8f39 1003 cd3a a9c3 96ab
00000170: 22dc 23ab 65d5 61ab e9c4 5e2b 7588 332b
00000180: 69a8 ae3a 885a 053b 5e49 f62b 23c7 93ab
00000190: 4ab8 01ac 037d d03b d2f0 093a 9d9b 692b
000001a0: 988f 7d38 a39f 2839 1ecf 233a 4dc0 863a
000001b0: b165 f33a 358f f828 ecd4 233a 1e0c aa2a
000001c0: f257 e638 93b7 04ac fd98 27ab 12bf 763a
000001d0: e781 a0aa 352d 84ac e6c4 3c38 be35 413b
000001e0: 1529 a63b 8c8e ab39 cfc1 8bab 856a 922c
000001f0: 9c53 bdac b44b f7aa 2d96 5e3b 21ce 9e3a
00000200: d2f4 052c 0224 e139 1b95 182e 5fb5 3d38
00000210: 11c2 c52c 445c f62b a129 1939 09de 073a
00000220: 56c0 b737 65f6 1d3a 442f 2b2c 5bb4 a929
00000230: 8674 9938 102c fb39 6148 c12d 6e58 12ac
00000240: 70fb 6c39 a3d5 0738 ac12 202b a535 882b
00000250: 3002 acac 010e 0d39 4931 272c f5eb 97ab
00000260: 5200 5638 0af4 7c38 dceb bd39 e00d 69ab
00000270: b7c9 5bac 31a9 49ab 5c8d 4d2c 01bc 62ab
00000280: e347 9f39 7939 f839 2ee4 ee2c 064b 85ab
00000290: 8028 172d 376b c73a 2724 f738 852a 0cac
000002a0: c157 5437 98a7 1238 f7bb 1439 3da9 7739
000002b0: 5c5d e139 0ccb c5ab af22 1439 a2ad c2aa
000002c0: d7c6 c437 1c3c 4fac 7683 bb2a 8e94 6039
000002d0: 2742 9eab 5bf3 1f2c eac5 1b37 c6dc 333a
000002e0: d6e2 9d3a d3c3 9738 ab04 572a c7f6 27ac
000002f0: 3a5b 372c 244a 3b2a 190b 4f3a 53f5 9039
2.8891304e-13 0.0013083217 4.1807525e-12 0.00014266577 -6.506149e-13 -2.0854917e-13 0.00045016408 0.0015642039
7.061873e-05 0.001829476 6.2273434e-13 2.6623718e-14 0.0002266937 0.0014549039 1.3542313e-11 1.0375189e-12
0.0006920871 0.00010329382 7.3213386e-13 1.0813452e-13 1.382131e-12 0.0004142517 1.1558131e-12 -1.3133356e-13
0.00016062231 0.0001891789 0.0010966111 -7.4458555e-13 -6.9304724e-13 -5.4837255e-14 1.2728661e-12 1.3311475e-13
0.00092937355 0.0014299373 2.6397916e-12 -8.964673e-13 1.581623e-12 0.0045655426 0.00036503887 -3.468148e-15
4.1498275e-05 0.00011103573 0.00043532424 0.00071874965 0.0013024383 -3.3825438e-13 0.00043448203 2.9824263e-13
7.554272e-05 -1.1144302e-12 -4.840524e-13 0.0006556742 -1.2071536e-12 -3.8183024e-12 3.079776e-05 0.0020766465
0.003613956 0.00022639302 -4.394537e-13 1.089395e-12 -1.3255476e-12 -4.117334e-13 0.002395324 0.00084536785
-1.0619978e-13 0.0018684339 6.6048803e-12 0.00020638818 -1.3273265e-12 -1.2574729e-13 0.0006480256 0.0022239524
0.00010264303 0.0026042752 -2.939629e-13 -2.910832e-15 0.00032570478 0.0020747522 1.2892024e-11 1.8732477e-12
0.0009933431 0.00014996235 -1.3264769e-13 -2.8137033e-13 1.7552313e-12 0.0005957067 9.802223e-13 4.1714255e-14
0.00023268105 0.00027363902 0.0015641171 -1.0712448e-12 -5.821473e-13 -8.02322e-13 7.914351e-13 6.3782947e-13
0.0013325337 0.002034815 1.7499715e-12 -1.050025e-12 -1.8434304e-12 0.006362559 0.000526202 8.2994186e-13
6.0453633e-05 0.00016081198 0.00062488194 0.0010280699 0.0018569735 2.7595637e-14 0.00062496844 3.0206474e-13
0.00010983636 -1.8860232e-12 -5.954263e-13 0.0009412627 -2.8511847e-13 -3.7566846e-12 4.500607e-05 0.0029481496
0.0050708153 0.00032721867 -9.930337e-13 4.1613956e-12 -5.3809856e-12 -4.3928544e-13 0.0033964023 0.0012115875
1.903634e-12 0.00042942172 3.469323e-11 4.5230026e-05 5.6206225e-12 1.750496e-12 0.00014606725 0.0005182927
2.1904863e-05 0.00060257904 2.43268e-12 7.536394e-14 7.317313e-05 0.0004790728 2.1973702e-11 -2.0796936e-12
0.00022600382 3.2385473e-05 5.686933e-13 9.678271e-13 -4.888777e-12 0.00013452025 2.3759486e-12 -1.0794687e-12
5.1021874e-05 6.030876e-05 0.00036224618 -8.2797484e-13 -3.1233746e-12 -7.1644345e-13 2.9210722e-12 -8.0552237e-13
0.00030380403 0.00047345067 6.7897e-12 -9.471042e-13 8.592349e-12 0.0015214448 0.00011784612 -1.99188e-12
1.26566165e-05 3.4965196e-05 0.00014184402 0.00023618802 0.00042984902 -1.4054049e-12 0.000141273 -3.4581805e-13
2.3457613e-05 -2.9449837e-12 3.3309092e-13 0.00021417646 -1.1244936e-12 2.2730348e-12 9.2848e-06 0.0006861206
0.0012045752 7.236716e-05 1.9097456e-13 -2.3869116e-12 2.6056505e-12 1.6634659e-13 0.0007898077 0.000276486

fai_gcn_networks.1.residual.0.weight f4 [64, 32, 1, 1]
00000000: 5d41 92bc 341c ffbc f365 223b 4a70 b2bc
00000010: 4d84 a23c 2b4c e5bc 1d0a 00bc 2bbd 853c
00000020: 10ce bebc 0ba2 973c b9a1 273b cb9b ba3c
00000030: 474f b0bc 9de9 c03b 7cb1 e13b 34d7 583c
00000040: 98d1 283a fa97 9bbc 75c5 15bb 0e93 dc3c
00000050: 9dfe 45bc 0f33 063b 986d 123d 77fa b0bc
00000060: 35f7 473d 1c92 5cbc 7cdc b93c 9c9b daba
00000070: f930 56bb 54c2 343c 2435 223d 0618 8fba
00000080: 62ec 9539 94d6 c33b d2d5 b33a d958 93bb
00000090: 7bad b5bb afbf aabc a29c 3dbc 013a 0ebd
000000a0: 16c5 283c 67fd 60bc e9d4 09bc ef89 d53b
000000b0: a4c1 023c bd69 7f3c f0c0 d63c f921 e3bb
000000c0: 673e 41bc 9492 3bbc 0be2 e73b eb0c c63c
000000d0: d355 1dbd fd4c 8abc 86d4 a4ba aaff 2b3c
000000e0: 2655 5fbc 2433 4b3c 3585 54bc c97c 683c
000000f0: aed1 943c 19ec 2bbd b2ad fc3b 1839 bf3b
00000100: 6433 0c3d 5513 cc3b cdf3 803c 5766 6f3c
00000110: 87d8 c83c 93ed 63bc 77f9 e8bc 3398 c93c
00000120: 3ddf 8fbc f38b 633c ffa5 9e3c 8b71 3d3c
00000130: 61e5 08bc f078 633c a611 4a3b ce6f 3c3c
00000140: 644e 1ebc 66ec 94bb 8fde b83c 52fa 6c3c
00000150: 5c7c 163a 9b93 1ebd 4aa3 e33c c1ff 803c
00000160: ae34 fd3b 30e7 c3ba 74f4 d8bc a965 16bd
00000170: a06e b3bc 2f01 75b9 8bc0 c03c 8553 83bc
00000180: 9f71 803c 73bd 78bc 3dca c4ba 0416 3f3c
00000190: d2d4 013c 37f4 09bd 5b25 213c 6f2d 843c
000001a0: 21bf f5bc bd88 013d a24a cc3c 52b5 50bc
000001b0: ed0f bebc 6d1e 30bc 1449 3e3d 7860 bbbb
000001c0: 347d 02bc 2cfe 62bc b622 173b 9ba8 98bc
000001d0: fcef aa3c 996a e1bc 0dca ab3b 7c54 69bc
000001e0: a558 a83a 7a3e 1fbb 3ffe 91bc 778c 5c3c
000001f0: 784a f43c 8a7b fd3c a585 513c 5c99 08bd
00000200: ed4e 3fbd eb3c 093d 1ddc a1bb 1d33 0c3c
00000210: 87d3 d43c e6b9 bdba 3992 8bbc 5300 ba3b
00000220: 0993 86bc 6cf9 80bc 1570 37bc dc17 8cbc
00000230: a2ae 0f3c 24bd 373d e841 80bc 3314 e4bc
00000240: 9803 05bd 36bc 0fbc b2bd 943a 9b71 093d
00000250: f8d1 2138 2e3a bebc cf9c 04bd 1b50 54bc
00000260: 3ef8 aa3c 97be 3ebc 0435 293c 30c5 4f3c
00000270: 564b 033d a767 51bc 2aa5 0e3d 38a4 c33a
00000280: 39e9 6cbb 384a d7bb 7e16 25b9 c121 8d3b
00000290: 6eb8 0c3c 7b50 b23c 587f c83b 817e 4fb9
000002a0: 40c6 9dbb c14b 853b 3e30 423d 76fd 963c
000002b0: 099b 7d3c 51aa 15bc 6a25 2f3c 2721 12bd
000002c0: 0264 d1bb 8955 c93c edcc 953c 0123 a8bc
000002d0: d7a3 e8bb 9a31 053d 786e a7bc c532 223c
000002e0: 7b03 03bc 4428 e33b 231d faba b835 1a3d
000002f0: 01d5 5ebc f179 953c c097 a83c 9306 b9bc
00000300: ea1f 7d3c 9dd0 e13c 8edb ebbb 32d3 85ba
00000310: d4ce 2bbc 1561 c13c 8b93 d7ba ddb2 d33c
00000320: 7fa2 8db9 5027 10bd 3494 e63c 39c5 923c
00000330: 93c6 a0bc 80d0 1cbd 5bf3 67bc 22fe 42ba
00000340: 5dca 2e3c 144f 603c 3815 98bc b4e6 953b
00000350: 0a8b fabc d342 a13c 04f3 943c f9f3 efbb
00000360: e9a2 583d cd8a 2c3c 1034 30bd e2e0 f5bc
00000370: 6241 f6ba 1545 42bb 5048 9b3c 147c 49b8
00000380: eef9 d1bc 1879 083c a212 583c a44c b3bc
00000390: 20bb a13b 8501 a9bc d2dd 09bd beeb b4bc
000003a0: 80cd a2bc 6666 0dba f0a9 06bb 60e9 88ba
000003b0: 06ee e93c 9ba1 dfb8 e117 703d aae2 c3bc
000003c0: 7812 f93b 04fd 0c3c 1779 8e3c fed5 1ebb
000003d0: 3b9a b5ba 066f 29bb f7e9 8c3c e74b 8bbb
000003e0: 73ff b4ba 533f 1f3b c8a4 1cbc 0911 a1bc
000003f0: bc31 4abc 8232 583c 24be 1a3b b462 ecb9
-0.017853433 -0.031141378 0.0024780005 -0.02178206 0.019838477 -0.027990421 -0.007814911 0.016325554
-0.023291618 0.018509885 0.0025578572 0.022779366 -0.021522177 0.005887224 0.006887613 0.013234902
0.00064399233 -0.018993367 -0.002285329 0.02692559 -0.01208463 0.002047721 0.035749048 -0.021603806
0.04881974 -0.01346257 0.022688143 -0.0016678455 -0.0032682999 0.01103266 0.03960146 -0.0010917194
0.00028595614 0.0059765074 0.001372034 -0.0044966755 -0.005544362 -0.020843355 -0.011572989 -0.034723286
0.010300895 -0.013732291 -0.008412578 0.006516687 0.007980738 0.015589175 0.026215047 -0.00693154
-0.011794663 -0.011448521 0.007076507 0.024176082 -0.038411926 -0.016882414 -0.0012575544 0.010497967
-0.013631141 0.01240233 -0.012971212 0.014189907 0.01816639 -0.041973207 0.007711136 0.0058356635
0.034228697 0.0062278905 0.015741253 0.014611802 0.02451731 -0.013911623 -0.028439267 0.024608707
-0.017562503 0.013888347 0.019366262 0.011562715 -0.008355469 0.013883814 0.0030833273 0.011501266
-0.0096622445 -0.0045447825 0.022567062 0.014463978 0.0005740577 -0.038714986 0.027787823 0.015746953
0.007727227 -0.0014946219 -0.026483752 -0.036718044 -0.021903336 -0.00023365462 0.023529312 -0.016031036
0.015679179 -0.015181887 -0.0015013885 0.011662964 0.0079242755 -0.033680167 0.009835566 0.016134946
-0.029998364 0.031624544 0.024937931 -0.012738543 -0.023200953 -0.010749442 0.04645641 -0.005718287
-0.007964421 -0.013854545 0.002306146 -0.018635085 0.020866387 -0.02751665 0.005242592 -0.014241334
0.0012843801 -0.0024298714 -0.01782143 0.013461224 0.029820666 0.030942697 0.012788211 -0.03334938
-0.04670613 0.03350536 -0.0049395696 0.008557108 0.02597977 -0.0014474958 -0.017037498 0.005676308
-0.016427534 -0.015743934 -0.011196156 -0.01710122 0.008769663 0.044858113 -0.015656427 -0.027841663
-0.03247413 -0.0087729 0.0011348038 0.03355561 3.858094e-05 -0.023221102 -0.032376107 -0.012958552
0.020870324 -0.01164212 0.010327581 0.0126812905 0.032054268 -0.01278106 0.03482548 0.001492626
-0.0036149754 -0.006570127 -0.00015744005 0.0043070023 0.008588893 0.021766892 0.006118696 -0.00019788185
-0.004814893 0.0040678685 0.04740929 0.018431406 0.015478858 -0.009134845 0.010690073 -0.035676148
-0.0063900957 0.02457692 0.018286193 -0.020524504 -0.0070996094 0.032518007 -0.020438418 0.0098998
-0.007996435 0.0069322903 -0.001908217 0.037648886 -0.013600589 0.018246623 0.020580173 -0.022586143
0.015449503 0.027565295 -0.007197804 -0.0010210036 -0.010486323 0.023605863 -0.001644717 0.025842125
-0.00027014685 -0.03519374 0.02814684 0.017916309 -0.019625938 -0.03828478 -0.014157142 -0.00074383814
0.010668364 0.013690729 -0.018564805 0.004574621 -0.030583877 0.019685185 0.018182285 -0.007322785
0.05288974 0.01053114 -0.0430184 -0.030014459 -0.0018787796 -0.0029643227 0.01895538 -4.803769e-05
-0.025631871 0.008329652 0.013188036 -0.021887131 0.004935637 -0.020630607 -0.03365881 -0.022085067
-0.01987338 -0.00053939817 -0.0020548068 -0.0010445528 0.028555881 -0.0001066357 0.058616523 -0.023911793
0.0076010786 0.0086052455 0.017391725 -0.0024236436 -0.0013855168 -0.0025853529 0.017201407 -0.0042509916
-0.001380904 0.0024299219 -0.009560771 -0.019661443 -0.012340959 0.013195636 0.0023611868 -0.00045086967

fai_gcn_networks.1.residual.0.bias f4 [64]
00000000: 0000 0000 0000 0000 0000 0000 0000 0000
00000010: 0000 0000 0000 0000 0000 0000 0000 0000
00000020: 0000 0000 0000 0000 0000 0000 0000 0000
00000030: 0000 0000 0000 0000 0000 0000 0000 0000
00000040: 0000 0000 0000 0000 0000 0000 0000 0000
00000050: 0000 0000 0000 0000 0000 0000 0000 0000
00000060: 0000 0000 0000 0000 0000 0000 0000 0000
00000070: 0000 0000 0000 0000 0000 0000 0000 0000
00000080: 0000 0000 0000 0000 0000 0000 0000 0000
00000090: 0000 0000 0000 0000 0000 0000 0000 0000
000000a0: 0000 0000 0000 0000 0000 0000 0000 0000
000000b0: 0000 0000 0000 0000 0000 0000 0000 0000
000000c0: 0000 0000 0000 0000 0000 0000 0000 0000
000000d0: 0000 0000 0000 0000 0000 0000 0000 0000
000000e0: 0000 0000 0000 0000 0000 0000 0000 0000
000000f0: 0000 0000 0000 0000 0000 0000 0000 0000
0.0 0.0 0.0 0.0 0.0 0.0 0.0 0.0
0.0 0.0 0.0 0.0 0.0 0.0 0.0 0.0
0.0 0.0 0.0 0.0 0.0 0.0 0.0 0.0
0.0 0.0 0.0 0.0 0.0 0.0 0.0 0.0
0.0 0.0 0.0 0.0 0.0 0.0 0.0 0.0
0.0 0.0 0.0 0.0 0.0 0.0 0.0 0.0
0.0 0.0 0.0 0.0 0.0 0.0 0.0 0.0
0.0 0.0 0.0 0.0 0.0 0.0 0.0 0.0

fai_gcn_networks.1.residual.1.weight f4 [64]
00000000: 3dd7 7b3f bda2 803f 92a9 823f eb78 833f
00000010: f3c4 803f 291f 7a3f 801a 813f c403 813f
00000020: bb11 823f e362 833f 8b42 723f 1b92 7a3f
00000030: 93e0 823f bd88 7b3f b3e9 7f3f 8972 843f
00000040: 8d6e 7f3f 3d7e 803f 6c99 853f 91a6 863f
00000050: 6d02 843f df90 7d3f 5255 7e3f 938b 823f
00000060: c1ed 7f3f 6223 7b3f ea4c 7e3f 22cc 7b3f
00000070: ab62 7c3f 66d7 813f 99d8 7e3f c6f0 803f
00000080: 8832 783f 2672 7b3f c729 803f 1905 7e3f
00000090: d754 853f 0d78 753f bf60 813f 1fc8 7c3f
000000a0: dba1 743f 1ff1 7c3f 58d2 803f 8a3d 803f
000000b0: f240 7b3f 8af8 823f 723b 7f3f 53ec 7b3f
000000c0: f10a 813f c76e 803f be01 833f feee 7f3f
000000d0: 387c 823f 4f90 7d3f 5ddd 7c3f 0234 823f
000000e0: 99f2 833f 59cb 7f3f 77d9 773f 733a 773f
000000f0: 4fd1 833f 5c0c 823f 5bfa 833f 9fd1 7e3f
0.983753 1.0049664 1.0207999 1.0271276 1.0060104 0.97703797 1.0086212 1.0079274
1.0161661 1.0264553 0.94632787 0.9787919 1.0224785 0.9825552 0.9996597 1.0347453
0.9977806 1.0038525 1.0437446 1.0519582 1.031324 0.9904918 0.9934894 1.0198845
0.9997216 0.98100865 0.9933611 0.98358357 0.98588055 1.0143859 0.9954925 1.0073478
0.96952105 0.9822105 1.001275 0.9922653 1.0416516 0.9588631 1.010765 0.9874286
0.9555947 0.9880542 1.0064192 1.001878 0.98145974 1.0232098 0.9970008 0.9840748
1.0081464 1.0033807 1.0234907 0.9997405 1.0194159 0.9904832 0.98775274 1.0172122
1.030841 0.9991966 0.968162 0.9657356 1.0298251 1.0160022 1.0310777 0.99538606

fai_gcn_networks.1.residual.1.bias f4 [64]
00000000: 0000 0000 0000 0000 0000 0000 0000 0000
00000010: 0000 0000 0000 0000 0000 0000 0000 0000
00000020: 0000 0000 0000 0000 0000 0000 0000 0000
00000030: 0000 0000 0000 0000 0000 0000 0000 0000
00000040: 0000 0000 0000 0000 0000 0000 0000 0000
00000050: 0000 0000 0000 0000 0000 0000 0000 0000
00000060: 0000 0000 0000 0000 0000 0000 0000 0000
00000070: 0000 0000 0000 0000 0000 0000 0000 0000
00000080: 0000 0000 0000 0000 0000 0000 0000 0000
00000090: 0000 0000 0000 0000 0000 0000 0000 0000
000000a0: 0000 0000 0000 0000 0000 0000 0000 0000
000000b0: 0000 0000 0000 0000 0000 0000 0000 0000
000000c0: 0000 0000 0000 0000 0000 0000 0000 0000
000000d0: 0000 0000 0000 0000 0000 0000 0000 0000
000000e0: 0000 0000 0000 0000 0000 0000 0000 0000
000000f0: 0000 0000 0000 0000 0000 0000 0000 0000
0.0 0.0 0.0 0.0 0.0 0.0 0.0 0.0
0.0 0.0 0.0 0.0 0.0 0.0 0.0 0.0
0.0 0.0 0.0 0.0 0.0 0.0 0.0 0.0
0.0 0.0 0.0 0.0 0.0 0.0 0.0 0.0
0.0 0.0 0.0 0.0 0.0 0.0 0.0 0.0
0.0 0.0 0.0 0.0 0.0 0.0 0.0 0.0
0.0 0.0 0.0 0.0 0.0 0.0 0.0 0.0
0.0 0.0 0.0 0.0 0.0 0.0 0.0 0.0

fai_gcn_networks.1.residual.1.running_mean f4 [64]
00000000: 3956 382c c663 a22a 86aa d52b bbbc bbab
00000010: 42bc 21ac 4900 892c 22c0 ee2b f09f 2eab
00000020: 16dc 88ab daea d32b 0335 842b 8dfd e6ab
00000030: 6dfd 0aaa e2af 852c 18ba 4eab efb2 722b
00000040: 59db 862b 21b0 6a2c bd34 1aac a1ad 142b
00000050: d4b9 c62b ad34 792c 709a 962b d127 2c2c
00000060: 235b 472c 1b25 4b2c b2a0 8aab 9543 242c
00000070: 8533 6d2b 6f06 382b 0790 562c 7b40 23aa
00000080: 43e7 d8ab 2c1f bd2b 2c1f ac2b 3d72 caac
00000090: 42a4 bbac 61b6 c52b fc27 0eac b656 75ab
000000a0: 5475 b3ab ec7d d82b 5c75 c9ab 1acd 1aac
000000b0: 298b b4ab 30cf 102c 6e73 7eac d477 7bab
000000c0: 6d09 99ac e185 b9ab 40f8 dc2b c4e5 abaa
000000d0: f7a6 7d2b aaf4 ed2a 2ae6 e42a 5eae 322c
000000e0: 74bf 5aac abee 8f2a ff06 4bac f04f 73aa
000000f0: 74a0 5c2c a4e6 532b 7871 502c a612 62ab
2.6195836e-12 2.8846213e-13 1.518189e-12 -1.3339532e-12 -2.298398e-12 3.893806e-12 1.6964245e-12 -6.2039176e-13
-9.724467e-13 1.5057636e-12 9.393878e-13 -1.6412857e-12 -1.2344787e-13 3.7996143e-12 -7.344416e-13 8.622399e-13
9.582154e-13 3.3351171e-12 -2.1913992e-12 5.282112e-13 1.4120324e-12 3.541427e-12 1.0701006e-12 2.4464773e-12
2.8330192e-12 2.8868633e-12 -9.850092e-13 2.3343317e-12 8.427081e-13 6.537886e-13 3.049118e-12 -1.449968e-13
-1.5411911e-12 1.343791e-12 1.2229987e-12 -5.7538683e-12 -5.333096e-12 1.4048312e-12 -2.020161e-12 -8.716182e-13
-1.275128e-12 1.5382673e-12 -1.4314483e-12 -2.199857e-12 -1.2828394e-12 2.0578643e-12 -3.6159647e-12 -8.933941e-13
-4.349568e-12 -1.31822e-12 1.5700843e-12 -3.0535134e-13 9.0115366e-13 4.2269427e-13 4.0660644e-13 2.5392115e-12
-3.1085941e-12 2.5567512e-13 -2.8851919e-12 -2.161047e-13 3.135295e-12 7.5282337e-13 2.9621566e-12 -8.031721e-13

fai_gcn_networks.1.residual.1.running_var f4 [64]
00000000: 8aed 8d18 5d91 9117 58f6 1618 e382 bd17
00000010: 9b52 5f17 6a9e 8017 d514 6018 f717 8716
00000020: da74 fa17 4155 5617 82fd c116 1e8e 4f18
00000030: 0248 b518 a4d1 0319 bc7c 5d16 a560 7a16
00000040: 780d 2319 29b8 4818 fb20 e318 040d 2717
00000050: e7c9 4217 c894 5317 3158 4016 3f41 f517
00000060: a3b8 2218 62b8 e216 228f 7117 445b 6b19
00000070: 8b4f 3918 d023 0416 c3f9 a917 e367 2117
00000080: f435 4a17 6474 4117 e964 8f16 17f6 e517
00000090: a9a8 5118 bdfd dd17 60a4 5a18 7551 2618
000000a0: 6ef2 ff18 30b4 9416 ac45 3017 d03e c917
000000b0: b623 2e17 df0f 4917 3bcd 9917 163a e516
000000c0: e1ef ba18 e0d9 e716 f510 b416 4862 e716
000000d0: d0d1 1a17 44ec a618 d962 3e17 045d f317
000000e0: fd4e 1c19 ca52 e716 4fc4 8a17 4716 2f18
000000f0: e45d 8618 91a8 e817 f055 de18 79ed 4317
3.66875e-24 9.4071e-25 1.9511417e-24 1.2246879e-24 7.215945e-25 8.311795e-25 2.8961839e-24 2.182555e-25
1.6185369e-24 6.9254735e-25 3.1340818e-25 2.6825874e-24 4.6860113e-24 6.814878e-24 1.7891597e-25 2.0225335e-25
8.4296225e-24 2.5942371e-24 5.8711426e-24 5.397704e-25 6.2939617e-25 6.8365565e-25 1.5537465e-25 1.5849224e-24
2.1031227e-24 3.662863e-25 7.805196e-25 1.2167646e-23 2.3950849e-24 1.0674176e-25 1.0984418e-24 5.215303e-25
6.533782e-25 6.250857e-25 2.316658e-25 1.48609e-24 2.7097768e-24 1.4345843e-24 2.8258828e-24 2.1496122e-24
6.6160746e-24 2.4024404e-25 5.6956605e-25 1.3005177e-24 5.6267506e-25 6.4966635e-25 9.939201e-25 3.7033603e-25
4.832209e-24 3.7457561e-25 2.909127e-25 3.7382087e-25 5.0024904e-25 4.314856e-24 6.1517074e-25 1.5726987e-24
8.0809625e-24 3.737231e-25 8.967596e-25 2.2629467e-24 3.4732993e-24 1.5035201e-24 5.747243e-24 6.330763e-25

edge_importance.0 f4 [3, 18, 18]
00000000: 87db 3f3f 86db 3f3f 86db 3f3f 86db 3f3f
00000010: 86db 3f3f 86db 3f3f 86db 3f3f 86db 3f3f
00000020: 86db 3f3f 86db 3f3f 86db 3f3f 86db 3f3f
00000030: 86db 3f3f 86db 3f3f 86db 3f3f 86db 3f3f
00000040: 86db 3f3f 86db 3f3f 86db 3f3f 86db 3f3f
00000050: 86db 3f3f 86db 3f3f 86db 3f3f 86db 3f3f
00000060: 86db 3f3f 86db 3f3f 86db 3f3f 86db 3f3f
00000070: 86db 3f3f 86db 3f3f 86db 3f3f 86db 3f3f
00000080: 86db 3f3f 86db 3f3f 86db 3f3f 86db 3f3f
00000090: 86db 3f3f 86db 3f3f 86db 3f3f 86db 3f3f
000000a0: 86db 3f3f 86db 3f3f 86db 3f3f 86db 3f3f
000000b0: 86db 3f3f 86db 3f3f 86db 3f3f 86db 3f3f
000000c0: 86db 3f3f 86db 3f3f 86db 3f3f 86db 3f3f
000000d0: 86db 3f3f 86db 3f3f 86db 3f3f 86db 3f3f
000000e0: 86db 3f3f 87db 3f3f 86db 3f3f 86db 3f3f
000000f0: 86db 3f3f 86db 3f3f 86db 3f3f 86db 3f3f
00000100: 86db 3f3f 86db 3f3f 86db 3f3f 86db 3f3f
00000110: 86db 3f3f 86db 3f3f 86db 3f3f 86db 3f3f
00000120: 86db 3f3f 86db 3f3f 86db 3f3f 86db 3f3f
00000130: 85db 3f3f 86db 3f3f 86db 3f3f 86db 3f3f
00000140: 86db 3f3f 86db 3f3f 86db 3f3f 86db 3f3f
00000150: 86db 3f3f 86db 3f3f 86db 3f3f 86db 3f3f
00000160: 86db 3f3f 86db 3f3f 86db 3f3f 86db 3f3f
00000170: 86db 3f3f 86db 3f3f 86db 3f3f 87db 3f3f
00000180: 86db 3f3f 86db 3f3f 86db 3f3f 86db 3f3f
00000190: 86db 3f3f 86db 3f3f 86db 3f3f 86db 3f3f
000001a0: 86db 3f3f 86db 3f3f 86db 3f3f 86db 3f3f
000001b0: 86db 3f3f 86db 3f3f 86db 3f3f 86db 3f3f
000001c0: 86db 3f3f 86db 3f3f 87db 3f3f 86db 3f3f
000001d0: 86db 3f3f 86db 3f3f 86db 3f3f 86db 3f3f
000001e0: 86db 3f3f 86db 3f3f 86db 3f3f 86db 3f3f
000001f0: 86db 3f3f 86db 3f3f 86db 3f3f 86db 3f3f
00000200: 86db 3f3f 86db 3f3f 86db 3f3f 86db 3f3f
00000210: 86db 3f3f 85db 3f3f 86db 3f3f 86db 3f3f
00000220: 86db 3f3f 86db 3f3f 86db 3f3f 86db 3f3f
00000230: 86db 3f3f 86db 3f3f 86db 3f3f 86db 3f3f
00000240: 86db 3f3f 86db 3f3f 86db 3f3f 86db 3f3f
00000250: 86db 3f3f 86db 3f3f 86db 3f3f 86db 3f3f
00000260: 86db 3f3f 86db 3f3f 86db 3f3f 86db 3f3f
00000270: 86db 3f3f 86db 3f3f 86db 3f3f 86db 3f3f
00000280: 86db 3f3f 86db 3f3f 86db 3f3f 86db 3f3f
00000290: 86db 3f3f 86db 3f3f 86db 3f3f 86db 3f3f
000002a0: 86db 3f3f 86db 3f3f 86db 3f3f 85db 3f3f
000002b0: 86db 3f3f 86db 3f3f 86db 3f3f 86db 3f3f
000002c0: 86db 3f3f 86db 3f3f 86db 3f3f 86db 3f3f
000002d0: 86db 3f3f 86db 3f3f 86db 3f3f 86db 3f3f
000002e0: 86db 3f3f 86db 3f3f 86db 3f3f 86db 3f3f
000002f0: 86db 3f3f 86db 3f3f 85db 3f3f 86db 3f3f
00000300: 86db 3f3f 86db 3f3f 86db 3f3f 86db 3f3f
00000310: 86db 3f3f 86db 3f3f 86db 3f3f 86db 3f3f
00000320: 86db 3f3f 86db 3f3f 86db 3f3f 86db 3f3f
00000330: 86db 3f3f 86db 3f3f 86db 3f3f 86db 3f3f
00000340: 86db 3f3f 87db 3f3f 86db 3f3f 86db 3f3f
00000350: 86db 3f3f 86db 3f3f 86db 3f3f 86db 3f3f
00000360: 86db 3f3f 86db 3f3f 86db 3f3f 86db 3f3f
00000370: 86db 3f3f 86db 3f3f 86db 3f3f 86db 3f3f
00000380: 86db 3f3f 86db 3f3f 86db 3f3f 86db 3f3f
00000390: 85db 3f3f 86db 3f3f 86db 3f3f 86db 3f3f
000003a0: 86db 3f3f 86db 3f3f 86db 3f3f 86db 3f3f
000003b0: 86db 3f3f 86db 3f3f 86db 3f3f 86db 3f3f
000003c0: 86db 3f3f 86db 3f3f 86db 3f3f 86db 3f3f
000003d0: 86db 3f3f 86db 3f3f 86db 3f3f 85db 3f3f
000003e0: 86db 3f3f 86db 3f3f 86db 3f3f 86db 3f3f
000003f0: 86db 3f3f 86db 3f3f 86db 3f3f 86db 3f3f
0.7494435 0.7494434 0.7494434 0.7494434 0.7494434 0.7494434 0.7494434 0.7494434
0.7494434 0.7494434 0.7494434 0.7494434 0.7494434 0.7494434 0.7494434 0.7494434
0.7494434 0.7494434 0.7494434 0.7494434 0.7494434 0.7494434 0.7494434 0.7494434
0.7494434 0.7494434 0.7494434 0.7494434 0.7494434 0.7494434 0.7494434 0.7494434
0.7494434 0.7494434 0.7494434 0.7494434 0.7494434 0.7494434 0.7494434 0.7494434
0.7494434 0.7494434 0.7494434 0.7494434 0.7494434 0.7494434 0.7494434 0.7494434
0.7494434 0.7494434 0.7494434 0.7494434 0.7494434 0.7494434 0.7494434 0.7494434
0.7494434 0.7494435 0.7494434 0.7494434 0.7494434 0.7494434 0.7494434 0.7494434
0.7494434 0.7494434 0.7494434 0.7494434 0.7494434 0.7494434 0.7494434 0.7494434
0.7494434 0.7494434 0.7494434 0.7494434 0.74944335 0.7494434 0.7494434 0.7494434
0.7494434 0.7494434 0.7494434 0.7494434 0.7494434 0.7494434 0.7494434 0.7494434
0.7494434 0.7494434 0.7494434 0.7494434 0.7494434 0.7494434 0.7494434 0.7494435
0.7494434 0.7494434 0.7494434 0.7494434 0.7494434 0.7494434 0.7494434 0.7494434
0.7494434 0.7494434 0.7494434 0.7494434 0.7494434 0.7494434 0.7494434 0.7494434
0.7494434 0.7494434 0.7494435 0.7494434 0.7494434 0.7494434 0.7494434 0.7494434
0.7494434 0.7494434 0.7494434 0.7494434 0.7494434 0.7494434 0.7494434 0.7494434
0.7494434 0.7494434 0.7494434 0.7494434 0.7494434 0.74944335 0.7494434 0.7494434
0.7494434 0.7494434 0.7494434 0.7494434 0.7494434 0.7494434 0.7494434 0.7494434
0.7494434 0.7494434 0.7494434 0.7494434 0.7494434 0.7494434 0.7494434 0.7494434
0.7494434 0.7494434 0.7494434 0.7494434 0.7494434 0.7494434 0.7494434 0.7494434
0.7494434 0.7494434 0.7494434 0.7494434 0.7494434 0.7494434 0.7494434 0.7494434
0.7494434 0.7494434 0.7494434 0.74944335 0.7494434 0.7494434 0.7494434 0.7494434
0.7494434 0.7494434 0.7494434 0.7494434 0.7494434 0.7494434 0.7494434 0.7494434
0.7494434 0.7494434 0.7494434 0.7494434 0.7494434 0.7494434 0.74944335 0.7494434
0.7494434 0.7494434 0.7494434 0.7494434 0.7494434 0.7494434 0.7494434 0.7494434
0.7494434 0.7494434 0.7494434 0.7494434 0.7494434 0.7494434 0.7494434 0.7494434
0.7494434 0.7494435 0.7494434 0.7494434 0.7494434 0.7494434 0.7494434 0.7494434
0.7494434 0.7494434 0.7494434 0.7494434 0.7494434 0.7494434 0.7494434 0.7494434
0.7494434 0.7494434 0.7494434 0.7494434 0.74944335 0.7494434 0.7494434 0.7494434
0.7494434 0.7494434 0.7494434 0.7494434 0.7494434 0.7494434 0.7494434 0.7494434
0.7494434 0.7494434 0.7494434 0.7494434 0.7494434 0.7494434 0.7494434 0.74944335
0.7494434 0.7494434 0.7494434 0.7494434 0.7494434 0.7494434 0.7494434 0.7494434
